…
I1215 11:21:45.451701  6331 solver.cpp:91] Creating training net from net file: /home/map/liuli/caffe_hebei/segnet/Models/enet/enet_train.prototxt
I1215 11:21:45.483362  6331 net.cpp:49] Initializing net from parameters: 
name: "enet"
state {
  phase: TRAIN
}
layer {
  name: "data"
  type: "ImageSegData"
  top: "data"
  top: "label"
  transform_param {
    mirror: true
    mean_value: 0
    mean_value: 0
    mean_value: 0
    scale_factors: 1
  }
  image_data_param {
    source: "/home/map/liuli/datasets/kitti/enet_train_test/train/enet_train.list"
    batch_size: 4
    shuffle: false
    label_type: PIXEL
  }
}
layer {
  name: "enet_initial_branch2a"
  type: "Convolution"
  bottom: "data"
  top: "enet_initial_branch2a"
  param {
    lr_mult: 1
    decay_mult: 1
  }
  param {
    lr_mult: 2
    decay_mult: 0
  }
  convolution_param {
    num_output: 13
    bias_term: true
    weight_filler {
      type: "msra"
    }
    bias_filler {
      type: "constant"
    }
    pad_h: 1
    pad_w: 1
    kernel_h: 3
    kernel_w: 3
    stride_h: 2
    stride_w: 2
    dilation: 1
  }
}
layer {
  name: "pool_initial_branch1a"
  type: "Pooling"
  bottom: "data"
  top: "pool_initial_branch1a"
  pooling_param {
    pool: MAX
    kernel_size: 2
    stride: 2
  }
}
layer {
  name: "enet_initial"
  type: "Concat"
  bottom: "enet_initial_branch2a"
  bottom: "pool_initial_branch1a"
  top: "enet_initial"
  concat_param {
    axis: 1
  }
}
layer {
  name: "bn_initial"
  type: "BN"
  bottom: "enet_initial"
  top: "enet_initial"
  param {
    lr_mult: 1
    decay_mult: 1
  }
  param {
    lr_mult: 2
    decay_mult: 0
  }
  bn_param {
    scale_filler {
      type: "constant"
      value: 1
    }
    shift_filler {
      type: "constant"
      value: 0.001
    }
  }
}
layer {
  name: "relu_initial"
  type: "PReLU"
  bottom: "enet_initial"
  top: "enet_initial"
}
layer {
  name: "enet1_0_branch2a"
  type: "Convolution"
  bottom: "enet_initial"
  top: "enet1_0_branch2a"
  param {
    lr_mult: 1
    decay_mult: 1
  }
  convolution_param {
    num_output: 16
    bias_term: false
    weight_filler {
      type: "msra"
    }
    bias_filler {
      type: "constant"
    }
    pad_h: 1
    pad_w: 1
    kernel_h: 2
    kernel_w: 2
    stride_h: 2
    stride_w: 2
    dilation: 1
  }
}
layer {
  name: "bn1_0_branch2a"
  type: "BN"
  bottom: "enet1_0_branch2a"
  top: "enet1_0_branch2a"
  param {
    lr_mult: 1
    decay_mult: 1
  }
  param {
    lr_mult: 2
    decay_mult: 0
  }
  bn_param {
    scale_filler {
      type: "constant"
      value: 1
    }
    shift_filler {
      type: "constant"
      value: 0.001
    }
  }
}
layer {
  name: "relu1_0_branch2a"
  type: "PReLU"
  bottom: "enet1_0_branch2a"
  top: "enet1_0_branch2a"
}
layer {
  name: "enet1_0_branch2b"
  type: "Convolution"
  bottom: "enet1_0_branch2a"
  top: "enet1_0_branch2b"
  param {
    lr_mult: 1
    decay_mult: 1
  }
  param {
    lr_mult: 2
    decay_mult: 0
  }
  convolution_param {
    num_output: 16
    bias_term: true
    weight_filler {
      type: "msra"
    }
    bias_filler {
      type: "constant"
    }
    pad_h: 1
    pad_w: 1
    kernel_h: 3
    kernel_w: 3
    stride_h: 1
    stride_w: 1
    dilation: 1
  }
}
layer {
  name: "bn1_0_branch2b"
  type: "BN"
  bottom: "enet1_0_branch2b"
  top: "enet1_0_branch2b"
  param {
    lr_mult: 1
    decay_mult: 1
  }
  param {
    lr_mult: 2
    decay_mult: 0
  }
  bn_param {
    scale_filler {
      type: "constant"
      value: 1
    }
    shift_filler {
      type: "constant"
      value: 0.001
    }
  }
}
layer {
  name: "relu1_0_branch2b"
  type: "PReLU"
  bottom: "enet1_0_branch2b"
  top: "enet1_0_branch2b"
}
layer {
  name: "enet1_0_branch2c"
  type: "Convolution"
  bottom: "enet1_0_branch2b"
  top: "enet1_0_branch2c"
  param {
    lr_mult: 1
    decay_mult: 1
  }
  convolution_param {
    num_output: 64
    bias_term: false
    weight_filler {
      type: "msra"
    }
    bias_filler {
      type: "constant"
    }
    pad_h: 0
    pad_w: 0
    kernel_h: 1
    kernel_w: 1
    stride_h: 1
    stride_w: 1
    dilation: 1
  }
}
layer {
  name: "bn1_0_branch2c"
  type: "BN"
  bottom: "enet1_0_branch2c"
  top: "enet1_0_branch2c"
  param {
    lr_mult: 1
    decay_mult: 1
  }
  param {
    lr_mult: 2
    decay_mult: 0
  }
  bn_param {
    scale_filler {
      type: "constant"
      value: 1
    }
    shift_filler {
      type: "constant"
      value: 0.001
    }
  }
}
layer {
  name: "dropout1_0_branch2c"
  type: "Dropout"
  bottom: "enet1_0_branch2c"
  top: "enet1_0_branch2c"
  dropout_param {
    dropout_ratio: 0.01
  }
}
layer {
  name: "enet1_0_branch1a"
  type: "Convolution"
  bottom: "enet_initial"
  top: "enet1_0_branch1a"
  param {
    lr_mult: 1
    decay_mult: 1
  }
  convolution_param {
    num_output: 64
    bias_term: false
    weight_filler {
      type: "msra"
    }
    bias_filler {
      type: "constant"
    }
    pad_h: 0
    pad_w: 0
    kernel_h: 1
    kernel_w: 1
    stride_h: 1
    stride_w: 1
    dilation: 1
  }
}
layer {
  name: "bn1_0_branch1a"
  type: "BN"
  bottom: "enet1_0_branch1a"
  top: "enet1_0_branch1a"
  param {
    lr_mult: 1
    decay_mult: 1
  }
  param {
    lr_mult: 2
    decay_mult: 0
  }
  bn_param {
    scale_filler {
      type: "constant"
      value: 1
    }
    shift_filler {
      type: "constant"
      value: 0.001
    }
  }
}
layer {
  name: "pool1_0_branch1a"
  type: "Pooling"
  bottom: "enet1_0_branch1a"
  top: "pool1_0_branch1a"
  top: "pool1_0_branch1a_mask"
  pooling_param {
    pool: MAX
    kernel_size: 2
    stride: 2
  }
}
layer {
  name: "enet1_0"
  type: "Eltwise"
  bottom: "pool1_0_branch1a"
  bottom: "enet1_0_branch2c"
  top: "enet1_0"
}
layer {
  name: "relu1_0"
  type: "PReLU"
  bottom: "enet1_0"
  top: "enet1_0"
}
layer {
  name: "enet1_1_branch2a"
  type: "Convolution"
  bottom: "enet1_0"
  top: "enet1_1_branch2a"
  param {
    lr_mult: 1
    decay_mult: 1
  }
  convolution_param {
    num_output: 16
    bias_term: false
    weight_filler {
      type: "msra"
    }
    bias_filler {
      type: "constant"
    }
    pad_h: 0
    pad_w: 0
    kernel_h: 1
    kernel_w: 1
    stride_h: 1
    stride_w: 1
    dilation: 1
  }
}
layer {
  name: "bn1_1_branch2a"
  type: "BN"
  bottom: "enet1_1_branch2a"
  top: "enet1_1_branch2a"
  param {
    lr_mult: 1
    decay_mult: 1
  }
  param {
    lr_mult: 2
    decay_mult: 0
  }
  bn_param {
    scale_filler {
      type: "constant"
      value: 1
    }
    shift_filler {
      type: "constant"
      value: 0.001
    }
  }
}
layer {
  name: "relu1_1_branch2a"
  type: "PReLU"
  bottom: "enet1_1_branch2a"
  top: "enet1_1_branch2a"
}
layer {
  name: "enet1_1_branch2b"
  type: "Convolution"
  bottom: "enet1_1_branch2a"
  top: "enet1_1_branch2b"
  param {
    lr_mult: 1
    decay_mult: 1
  }
  param {
    lr_mult: 2
    decay_mult: 0
  }
  convolution_param {
    num_output: 16
    bias_term: true
    weight_filler {
      type: "msra"
    }
    bias_filler {
      type: "constant"
    }
    pad_h: 1
    pad_w: 1
    kernel_h: 3
    kernel_w: 3
    stride_h: 1
    stride_w: 1
    dilation: 1
  }
}
layer {
  name: "bn1_1_branch2b"
  type: "BN"
  bottom: "enet1_1_branch2b"
  top: "enet1_1_branch2b"
  param {
    lr_mult: 1
    decay_mult: 1
  }
  param {
    lr_mult: 2
    decay_mult: 0
  }
  bn_param {
    scale_filler {
      type: "constant"
      value: 1
    }
    shift_filler {
      type: "constant"
      value: 0.001
    }
  }
}
layer {
  name: "relu1_1_branch2b"
  type: "PReLU"
  bottom: "enet1_1_branch2b"
  top: "enet1_1_branch2b"
}
layer {
  name: "enet1_1_branch2c"
  type: "Convolution"
  bottom: "enet1_1_branch2b"
  top: "enet1_1_branch2c"
  param {
    lr_mult: 1
    decay_mult: 1
  }
  convolution_param {
    num_output: 64
    bias_term: false
    weight_filler {
      type: "msra"
    }
    bias_filler {
      type: "constant"
    }
    pad_h: 0
    pad_w: 0
    kernel_h: 1
    kernel_w: 1
    stride_h: 1
    stride_w: 1
    dilation: 1
  }
}
layer {
  name: "bn1_1_branch2c"
  type: "BN"
  bottom: "enet1_1_branch2c"
  top: "enet1_1_branch2c"
  param {
    lr_mult: 1
    decay_mult: 1
  }
  param {
    lr_mult: 2
    decay_mult: 0
  }
  bn_param {
    scale_filler {
      type: "constant"
      value: 1
    }
    shift_filler {
      type: "constant"
      value: 0.001
    }
  }
}
layer {
  name: "dropout1_1_branch2c"
  type: "Dropout"
  bottom: "enet1_1_branch2c"
  top: "enet1_1_branch2c"
  dropout_param {
    dropout_ratio: 0.01
  }
}
layer {
  name: "enet1_1"
  type: "Eltwise"
  bottom: "enet1_0"
  bottom: "enet1_1_branch2c"
  top: "enet1_1"
}
layer {
  name: "relu1_1"
  type: "PReLU"
  bottom: "enet1_1"
  top: "enet1_1"
}
layer {
  name: "enet1_2_branch2a"
  type: "Convolution"
  bottom: "enet1_1"
  top: "enet1_2_branch2a"
  param {
    lr_mult: 1
    decay_mult: 1
  }
  convolution_param {
    num_output: 16
    bias_term: false
    weight_filler {
      type: "msra"
    }
    bias_filler {
      type: "constant"
    }
    pad_h: 0
    pad_w: 0
    kernel_h: 1
    kernel_w: 1
    stride_h: 1
    stride_w: 1
    dilation: 1
  }
}
layer {
  name: "bn1_2_branch2a"
  type: "BN"
  bottom: "enet1_2_branch2a"
  top: "enet1_2_branch2a"
  param {
    lr_mult: 1
    decay_mult: 1
  }
  param {
    lr_mult: 2
    decay_mult: 0
  }
  bn_param {
    scale_filler {
      type: "constant"
      value: 1
    }
    shift_filler {
      type: "constant"
      value: 0.001
    }
  }
}
layer {
  name: "relu1_2_branch2a"
  type: "PReLU"
  bottom: "enet1_2_branch2a"
  top: "enet1_2_branch2a"
}
layer {
  name: "enet1_2_branch2b"
  type: "Convolution"
  bottom: "enet1_2_branch2a"
  top: "enet1_2_branch2b"
  param {
    lr_mult: 1
    decay_mult: 1
  }
  param {
    lr_mult: 2
    decay_mult: 0
  }
  convolution_param {
    num_output: 16
    bias_term: true
    weight_filler {
      type: "msra"
    }
    bias_filler {
      type: "constant"
    }
    pad_h: 1
    pad_w: 1
    kernel_h: 3
    kernel_w: 3
    stride_h: 1
    stride_w: 1
    dilation: 1
  }
}
layer {
  name: "bn1_2_branch2b"
  type: "BN"
  bottom: "enet1_2_branch2b"
  top: "enet1_2_branch2b"
  param {
    lr_mult: 1
    decay_mult: 1
  }
  param {
    lr_mult: 2
    decay_mult: 0
  }
  bn_param {
    scale_filler {
      type: "constant"
      value: 1
    }
    shift_filler {
      type: "constant"
      value: 0.001
    }
  }
}
layer {
  name: "relu1_2_branch2b"
  type: "PReLU"
  bottom: "enet1_2_branch2b"
  top: "enet1_2_branch2b"
}
layer {
  name: "enet1_2_branch2c"
  type: "Convolution"
  bottom: "enet1_2_branch2b"
  top: "enet1_2_branch2c"
  param {
    lr_mult: 1
    decay_mult: 1
  }
  convolution_param {
    num_output: 64
    bias_term: false
    weight_filler {
      type: "msra"
    }
    bias_filler {
      type: "constant"
    }
    pad_h: 0
    pad_w: 0
    kernel_h: 1
    kernel_w: 1
    stride_h: 1
    stride_w: 1
    dilation: 1
  }
}
layer {
  name: "bn1_2_branch2c"
  type: "BN"
  bottom: "enet1_2_branch2c"
  top: "enet1_2_branch2c"
  param {
    lr_mult: 1
    decay_mult: 1
  }
  param {
    lr_mult: 2
    decay_mult: 0
  }
  bn_param {
    scale_filler {
      type: "constant"
      value: 1
    }
    shift_filler {
      type: "constant"
      value: 0.001
    }
  }
}
layer {
  name: "dropout1_2_branch2c"
  type: "Dropout"
  bottom: "enet1_2_branch2c"
  top: "enet1_2_branch2c"
  dropout_param {
    dropout_ratio: 0.01
  }
}
layer {
  name: "enet1_2"
  type: "Eltwise"
  bottom: "enet1_1"
  bottom: "enet1_2_branch2c"
  top: "enet1_2"
}
layer {
  name: "relu1_2"
  type: "PReLU"
  bottom: "enet1_2"
  top: "enet1_2"
}
layer {
  name: "enet1_3_branch2a"
  type: "Convolution"
  bottom: "enet1_2"
  top: "enet1_3_branch2a"
  param {
    lr_mult: 1
    decay_mult: 1
  }
  convolution_param {
    num_output: 16
    bias_term: false
    weight_filler {
      type: "msra"
    }
    bias_filler {
      type: "constant"
    }
    pad_h: 0
    pad_w: 0
    kernel_h: 1
    kernel_w: 1
    stride_h: 1
    stride_w: 1
    dilation: 1
  }
}
layer {
  name: "bn1_3_branch2a"
  type: "BN"
  bottom: "enet1_3_branch2a"
  top: "enet1_3_branch2a"
  param {
    lr_mult: 1
    decay_mult: 1
  }
  param {
    lr_mult: 2
    decay_mult: 0
  }
  bn_param {
    scale_filler {
      type: "constant"
      value: 1
    }
    shift_filler {
      type: "constant"
      value: 0.001
    }
  }
}
layer {
  name: "relu1_3_branch2a"
  type: "PReLU"
  bottom: "enet1_3_branch2a"
  top: "enet1_3_branch2a"
}
layer {
  name: "enet1_3_branch2b"
  type: "Convolution"
  bottom: "enet1_3_branch2a"
  top: "enet1_3_branch2b"
  param {
    lr_mult: 1
    decay_mult: 1
  }
  param {
    lr_mult: 2
    decay_mult: 0
  }
  convolution_param {
    num_output: 16
    bias_term: true
    weight_filler {
      type: "msra"
    }
    bias_filler {
      type: "constant"
    }
    pad_h: 1
    pad_w: 1
    kernel_h: 3
    kernel_w: 3
    stride_h: 1
    stride_w: 1
    dilation: 1
  }
}
layer {
  name: "bn1_3_branch2b"
  type: "BN"
  bottom: "enet1_3_branch2b"
  top: "enet1_3_branch2b"
  param {
    lr_mult: 1
    decay_mult: 1
  }
  param {
    lr_mult: 2
    decay_mult: 0
  }
  bn_param {
    scale_filler {
      type: "constant"
      value: 1
    }
    shift_filler {
      type: "constant"
      value: 0.001
    }
  }
}
layer {
  name: "relu1_3_branch2b"
  type: "PReLU"
  bottom: "enet1_3_branch2b"
  top: "enet1_3_branch2b"
}
layer {
  name: "enet1_3_branch2c"
  type: "Convolution"
  bottom: "enet1_3_branch2b"
  top: "enet1_3_branch2c"
  param {
    lr_mult: 1
    decay_mult: 1
  }
  convolution_param {
    num_output: 64
    bias_term: false
    weight_filler {
      type: "msra"
    }
    bias_filler {
      type: "constant"
    }
    pad_h: 0
    pad_w: 0
    kernel_h: 1
    kernel_w: 1
    stride_h: 1
    stride_w: 1
    dilation: 1
  }
}
layer {
  name: "bn1_3_branch2c"
  type: "BN"
  bottom: "enet1_3_branch2c"
  top: "enet1_3_branch2c"
  param {
    lr_mult: 1
    decay_mult: 1
  }
  param {
    lr_mult: 2
    decay_mult: 0
  }
  bn_param {
    scale_filler {
      type: "constant"
      value: 1
    }
    shift_filler {
      type: "constant"
      value: 0.001
    }
  }
}
layer {
  name: "dropout1_3_branch2c"
  type: "Dropout"
  bottom: "enet1_3_branch2c"
  top: "enet1_3_branch2c"
  dropout_param {
    dropout_ratio: 0.01
  }
}
layer {
  name: "enet1_3"
  type: "Eltwise"
  bottom: "enet1_2"
  bottom: "enet1_3_branch2c"
  top: "enet1_3"
}
layer {
  name: "relu1_3"
  type: "PReLU"
  bottom: "enet1_3"
  top: "enet1_3"
}
layer {
  name: "enet1_4_branch2a"
  type: "Convolution"
  bottom: "enet1_3"
  top: "enet1_4_branch2a"
  param {
    lr_mult: 1
    decay_mult: 1
  }
  convolution_param {
    num_output: 16
    bias_term: false
    weight_filler {
      type: "msra"
    }
    bias_filler {
      type: "constant"
    }
    pad_h: 0
    pad_w: 0
    kernel_h: 1
    kernel_w: 1
    stride_h: 1
    stride_w: 1
    dilation: 1
  }
}
layer {
  name: "bn1_4_branch2a"
  type: "BN"
  bottom: "enet1_4_branch2a"
  top: "enet1_4_branch2a"
  param {
    lr_mult: 1
    decay_mult: 1
  }
  param {
    lr_mult: 2
    decay_mult: 0
  }
  bn_param {
    scale_filler {
      type: "constant"
      value: 1
    }
    shift_filler {
      type: "constant"
      value: 0.001
    }
  }
}
layer {
  name: "relu1_4_branch2a"
  type: "PReLU"
  bottom: "enet1_4_branch2a"
  top: "enet1_4_branch2a"
}
layer {
  name: "enet1_4_branch2b"
  type: "Convolution"
  bottom: "enet1_4_branch2a"
  top: "enet1_4_branch2b"
  param {
    lr_mult: 1
    decay_mult: 1
  }
  param {
    lr_mult: 2
    decay_mult: 0
  }
  convolution_param {
    num_output: 16
    bias_term: true
    weight_filler {
      type: "msra"
    }
    bias_filler {
      type: "constant"
    }
    pad_h: 1
    pad_w: 1
    kernel_h: 3
    kernel_w: 3
    stride_h: 1
    stride_w: 1
    dilation: 1
  }
}
layer {
  name: "bn1_4_branch2b"
  type: "BN"
  bottom: "enet1_4_branch2b"
  top: "enet1_4_branch2b"
  param {
    lr_mult: 1
    decay_mult: 1
  }
  param {
    lr_mult: 2
    decay_mult: 0
  }
  bn_param {
    scale_filler {
      type: "constant"
      value: 1
    }
    shift_filler {
      type: "constant"
      value: 0.001
    }
  }
}
layer {
  name: "relu1_4_branch2b"
  type: "PReLU"
  bottom: "enet1_4_branch2b"
  top: "enet1_4_branch2b"
}
layer {
  name: "enet1_4_branch2c"
  type: "Convolution"
  bottom: "enet1_4_branch2b"
  top: "enet1_4_branch2c"
  param {
    lr_mult: 1
    decay_mult: 1
  }
  convolution_param {
    num_output: 64
    bias_term: false
    weight_filler {
      type: "msra"
    }
    bias_filler {
      type: "constant"
    }
    pad_h: 0
    pad_w: 0
    kernel_h: 1
    kernel_w: 1
    stride_h: 1
    stride_w: 1
    dilation: 1
  }
}
layer {
  name: "bn1_4_branch2c"
  type: "BN"
  bottom: "enet1_4_branch2c"
  top: "enet1_4_branch2c"
  param {
    lr_mult: 1
    decay_mult: 1
  }
  param {
    lr_mult: 2
    decay_mult: 0
  }
  bn_param {
    scale_filler {
      type: "constant"
      value: 1
    }
    shift_filler {
      type: "constant"
      value: 0.001
    }
  }
}
layer {
  name: "dropout1_4_branch2c"
  type: "Dropout"
  bottom: "enet1_4_branch2c"
  top: "enet1_4_branch2c"
  dropout_param {
    dropout_ratio: 0.01
  }
}
layer {
  name: "enet1_4"
  type: "Eltwise"
  bottom: "enet1_3"
  bottom: "enet1_4_branch2c"
  top: "enet1_4"
}
layer {
  name: "relu1_4"
  type: "PReLU"
  bottom: "enet1_4"
  top: "enet1_4"
}
layer {
  name: "enet2_0_branch2a"
  type: "Convolution"
  bottom: "enet1_4"
  top: "enet2_0_branch2a"
  param {
    lr_mult: 1
    decay_mult: 1
  }
  convolution_param {
    num_output: 32
    bias_term: false
    weight_filler {
      type: "msra"
    }
    bias_filler {
      type: "constant"
    }
    pad_h: 1
    pad_w: 1
    kernel_h: 2
    kernel_w: 2
    stride_h: 2
    stride_w: 2
    dilation: 1
  }
}
layer {
  name: "bn2_0_branch2a"
  type: "BN"
  bottom: "enet2_0_branch2a"
  top: "enet2_0_branch2a"
  param {
    lr_mult: 1
    decay_mult: 1
  }
  param {
    lr_mult: 2
    decay_mult: 0
  }
  bn_param {
    scale_filler {
      type: "constant"
      value: 1
    }
    shift_filler {
      type: "constant"
      value: 0.001
    }
  }
}
layer {
  name: "relu2_0_branch2a"
  type: "PReLU"
  bottom: "enet2_0_branch2a"
  top: "enet2_0_branch2a"
}
layer {
  name: "enet2_0_branch2b"
  type: "Convolution"
  bottom: "enet2_0_branch2a"
  top: "enet2_0_branch2b"
  param {
    lr_mult: 1
    decay_mult: 1
  }
  param {
    lr_mult: 2
    decay_mult: 0
  }
  convolution_param {
    num_output: 32
    bias_term: true
    weight_filler {
      type: "msra"
    }
    bias_filler {
      type: "constant"
    }
    pad_h: 1
    pad_w: 1
    kernel_h: 3
    kernel_w: 3
    stride_h: 1
    stride_w: 1
    dilation: 1
  }
}
layer {
  name: "bn2_0_branch2b"
  type: "BN"
  bottom: "enet2_0_branch2b"
  top: "enet2_0_branch2b"
  param {
    lr_mult: 1
    decay_mult: 1
  }
  param {
    lr_mult: 2
    decay_mult: 0
  }
  bn_param {
    scale_filler {
      type: "constant"
      value: 1
    }
    shift_filler {
      type: "constant"
      value: 0.001
    }
  }
}
layer {
  name: "relu2_0_branch2b"
  type: "PReLU"
  bottom: "enet2_0_branch2b"
  top: "enet2_0_branch2b"
}
layer {
  name: "enet2_0_branch2c"
  type: "Convolution"
  bottom: "enet2_0_branch2b"
  top: "enet2_0_branch2c"
  param {
    lr_mult: 1
    decay_mult: 1
  }
  convolution_param {
    num_output: 128
    bias_term: false
    weight_filler {
      type: "msra"
    }
    bias_filler {
      type: "constant"
    }
    pad_h: 0
    pad_w: 0
    kernel_h: 1
    kernel_w: 1
    stride_h: 1
    stride_w: 1
    dilation: 1
  }
}
layer {
  name: "bn2_0_branch2c"
  type: "BN"
  bottom: "enet2_0_branch2c"
  top: "enet2_0_branch2c"
  param {
    lr_mult: 1
    decay_mult: 1
  }
  param {
    lr_mult: 2
    decay_mult: 0
  }
  bn_param {
    scale_filler {
      type: "constant"
      value: 1
    }
    shift_filler {
      type: "constant"
      value: 0.001
    }
  }
}
layer {
  name: "dropout2_0_branch2c"
  type: "Dropout"
  bottom: "enet2_0_branch2c"
  top: "enet2_0_branch2c"
  dropout_param {
    dropout_ratio: 0.1
  }
}
layer {
  name: "enet2_0_branch1a"
  type: "Convolution"
  bottom: "enet1_4"
  top: "enet2_0_branch1a"
  param {
    lr_mult: 1
    decay_mult: 1
  }
  convolution_param {
    num_output: 128
    bias_term: false
    weight_filler {
      type: "msra"
    }
    bias_filler {
      type: "constant"
    }
    pad_h: 0
    pad_w: 0
    kernel_h: 1
    kernel_w: 1
    stride_h: 1
    stride_w: 1
    dilation: 1
  }
}
layer {
  name: "bn2_0_branch1a"
  type: "BN"
  bottom: "enet2_0_branch1a"
  top: "enet2_0_branch1a"
  param {
    lr_mult: 1
    decay_mult: 1
  }
  param {
    lr_mult: 2
    decay_mult: 0
  }
  bn_param {
    scale_filler {
      type: "constant"
      value: 1
    }
    shift_filler {
      type: "constant"
      value: 0.001
    }
  }
}
layer {
  name: "pool2_0_branch1a"
  type: "Pooling"
  bottom: "enet2_0_branch1a"
  top: "pool2_0_branch1a"
  top: "pool2_0_branch1a_mask"
  pooling_param {
    pool: MAX
    kernel_size: 2
    stride: 2
  }
}
layer {
  name: "enet2_0"
  type: "Eltwise"
  bottom: "pool2_0_branch1a"
  bottom: "enet2_0_branch2c"
  top: "enet2_0"
}
layer {
  name: "relu2_0"
  type: "PReLU"
  bottom: "enet2_0"
  top: "enet2_0"
}
layer {
  name: "enet2_1_branch2a"
  type: "Convolution"
  bottom: "enet2_0"
  top: "enet2_1_branch2a"
  param {
    lr_mult: 1
    decay_mult: 1
  }
  convolution_param {
    num_output: 32
    bias_term: false
    weight_filler {
      type: "msra"
    }
    bias_filler {
      type: "constant"
    }
    pad_h: 0
    pad_w: 0
    kernel_h: 1
    kernel_w: 1
    stride_h: 1
    stride_w: 1
    dilation: 1
  }
}
layer {
  name: "bn2_1_branch2a"
  type: "BN"
  bottom: "enet2_1_branch2a"
  top: "enet2_1_branch2a"
  param {
    lr_mult: 1
    decay_mult: 1
  }
  param {
    lr_mult: 2
    decay_mult: 0
  }
  bn_param {
    scale_filler {
      type: "constant"
      value: 1
    }
    shift_filler {
      type: "constant"
      value: 0.001
    }
  }
}
layer {
  name: "relu2_1_branch2a"
  type: "PReLU"
  bottom: "enet2_1_branch2a"
  top: "enet2_1_branch2a"
}
layer {
  name: "enet2_1_branch2b"
  type: "Convolution"
  bottom: "enet2_1_branch2a"
  top: "enet2_1_branch2b"
  param {
    lr_mult: 1
    decay_mult: 1
  }
  param {
    lr_mult: 2
    decay_mult: 0
  }
  convolution_param {
    num_output: 32
    bias_term: true
    weight_filler {
      type: "msra"
    }
    bias_filler {
      type: "constant"
    }
    pad_h: 1
    pad_w: 1
    kernel_h: 3
    kernel_w: 3
    stride_h: 1
    stride_w: 1
    dilation: 1
  }
}
layer {
  name: "bn2_1_branch2b"
  type: "BN"
  bottom: "enet2_1_branch2b"
  top: "enet2_1_branch2b"
  param {
    lr_mult: 1
    decay_mult: 1
  }
  param {
    lr_mult: 2
    decay_mult: 0
  }
  bn_param {
    scale_filler {
      type: "constant"
      value: 1
    }
    shift_filler {
      type: "constant"
      value: 0.001
    }
  }
}
layer {
  name: "relu2_1_branch2b"
  type: "PReLU"
  bottom: "enet2_1_branch2b"
  top: "enet2_1_branch2b"
}
layer {
  name: "enet2_1_branch2c"
  type: "Convolution"
  bottom: "enet2_1_branch2b"
  top: "enet2_1_branch2c"
  param {
    lr_mult: 1
    decay_mult: 1
  }
  convolution_param {
    num_output: 128
    bias_term: false
    weight_filler {
      type: "msra"
    }
    bias_filler {
      type: "constant"
    }
    pad_h: 0
    pad_w: 0
    kernel_h: 1
    kernel_w: 1
    stride_h: 1
    stride_w: 1
    dilation: 1
  }
}
layer {
  name: "bn2_1_branch2c"
  type: "BN"
  bottom: "enet2_1_branch2c"
  top: "enet2_1_branch2c"
  param {
    lr_mult: 1
    decay_mult: 1
  }
  param {
    lr_mult: 2
    decay_mult: 0
  }
  bn_param {
    scale_filler {
      type: "constant"
      value: 1
    }
    shift_filler {
      type: "constant"
      value: 0.001
    }
  }
}
layer {
  name: "dropout2_1_branch2c"
  type: "Dropout"
  bottom: "enet2_1_branch2c"
  top: "enet2_1_branch2c"
  dropout_param {
    dropout_ratio: 0.1
  }
}
layer {
  name: "enet2_1"
  type: "Eltwise"
  bottom: "enet2_0"
  bottom: "enet2_1_branch2c"
  top: "enet2_1"
}
layer {
  name: "relu2_1"
  type: "PReLU"
  bottom: "enet2_1"
  top: "enet2_1"
}
layer {
  name: "enet2_2_branch2a"
  type: "Convolution"
  bottom: "enet2_1"
  top: "enet2_2_branch2a"
  param {
    lr_mult: 1
    decay_mult: 1
  }
  convolution_param {
    num_output: 32
    bias_term: false
    weight_filler {
      type: "msra"
    }
    bias_filler {
      type: "constant"
    }
    pad_h: 0
    pad_w: 0
    kernel_h: 1
    kernel_w: 1
    stride_h: 1
    stride_w: 1
    dilation: 1
  }
}
layer {
  name: "bn2_2_branch2a"
  type: "BN"
  bottom: "enet2_2_branch2a"
  top: "enet2_2_branch2a"
  param {
    lr_mult: 1
    decay_mult: 1
  }
  param {
    lr_mult: 2
    decay_mult: 0
  }
  bn_param {
    scale_filler {
      type: "constant"
      value: 1
    }
    shift_filler {
      type: "constant"
      value: 0.001
    }
  }
}
layer {
  name: "relu2_2_branch2a"
  type: "PReLU"
  bottom: "enet2_2_branch2a"
  top: "enet2_2_branch2a"
}
layer {
  name: "enet2_2_branch2b"
  type: "Convolution"
  bottom: "enet2_2_branch2a"
  top: "enet2_2_branch2b"
  param {
    lr_mult: 1
    decay_mult: 1
  }
  param {
    lr_mult: 2
    decay_mult: 0
  }
  convolution_param {
    num_output: 32
    bias_term: true
    weight_filler {
      type: "msra"
    }
    bias_filler {
      type: "constant"
    }
    pad_h: 2
    pad_w: 2
    kernel_h: 3
    kernel_w: 3
    stride_h: 1
    stride_w: 1
    dilation: 2
  }
}
layer {
  name: "bn2_2_branch2b"
  type: "BN"
  bottom: "enet2_2_branch2b"
  top: "enet2_2_branch2b"
  param {
    lr_mult: 1
    decay_mult: 1
  }
  param {
    lr_mult: 2
    decay_mult: 0
  }
  bn_param {
    scale_filler {
      type: "constant"
      value: 1
    }
    shift_filler {
      type: "constant"
      value: 0.001
    }
  }
}
layer {
  name: "relu2_2_branch2b"
  type: "PReLU"
  bottom: "enet2_2_branch2b"
  top: "enet2_2_branch2b"
}
layer {
  name: "enet2_2_branch2c"
  type: "Convolution"
  bottom: "enet2_2_branch2b"
  top: "enet2_2_branch2c"
  param {
    lr_mult: 1
    decay_mult: 1
  }
  convolution_param {
    num_output: 128
    bias_term: false
    weight_filler {
      type: "msra"
    }
    bias_filler {
      type: "constant"
    }
    pad_h: 0
    pad_w: 0
    kernel_h: 1
    kernel_w: 1
    stride_h: 1
    stride_w: 1
    dilation: 1
  }
}
layer {
  name: "bn2_2_branch2c"
  type: "BN"
  bottom: "enet2_2_branch2c"
  top: "enet2_2_branch2c"
  param {
    lr_mult: 1
    decay_mult: 1
  }
  param {
    lr_mult: 2
    decay_mult: 0
  }
  bn_param {
    scale_filler {
      type: "constant"
      value: 1
    }
    shift_filler {
      type: "constant"
      value: 0.001
    }
  }
}
layer {
  name: "dropout2_2_branch2c"
  type: "Dropout"
  bottom: "enet2_2_branch2c"
  top: "enet2_2_branch2c"
  dropout_param {
    dropout_ratio: 0.1
  }
}
layer {
  name: "enet2_2"
  type: "Eltwise"
  bottom: "enet2_1"
  bottom: "enet2_2_branch2c"
  top: "enet2_2"
}
layer {
  name: "relu2_2"
  type: "PReLU"
  bottom: "enet2_2"
  top: "enet2_2"
}
layer {
  name: "enet2_3_branch2a"
  type: "Convolution"
  bottom: "enet2_2"
  top: "enet2_3_branch2a"
  param {
    lr_mult: 1
    decay_mult: 1
  }
  convolution_param {
    num_output: 32
    bias_term: false
    weight_filler {
      type: "msra"
    }
    bias_filler {
      type: "constant"
    }
    pad_h: 0
    pad_w: 0
    kernel_h: 1
    kernel_w: 1
    stride_h: 1
    stride_w: 1
    dilation: 1
  }
}
layer {
  name: "bn2_3_branch2a"
  type: "BN"
  bottom: "enet2_3_branch2a"
  top: "enet2_3_branch2a"
  param {
    lr_mult: 1
    decay_mult: 1
  }
  param {
    lr_mult: 2
    decay_mult: 0
  }
  bn_param {
    scale_filler {
      type: "constant"
      value: 1
    }
    shift_filler {
      type: "constant"
      value: 0.001
    }
  }
}
layer {
  name: "relu2_3_branch2a"
  type: "PReLU"
  bottom: "enet2_3_branch2a"
  top: "enet2_3_branch2a"
}
layer {
  name: "enet2_3_branch2b1"
  type: "Convolution"
  bottom: "enet2_3_branch2a"
  top: "enet2_3_branch2b1"
  param {
    lr_mult: 1
    decay_mult: 1
  }
  convolution_param {
    num_output: 32
    bias_term: false
    weight_filler {
      type: "msra"
    }
    bias_filler {
      type: "constant"
    }
    pad_h: 0
    pad_w: 2
    kernel_h: 1
    kernel_w: 5
    stride_h: 1
    stride_w: 1
    dilation: 1
  }
}
layer {
  name: "enet2_3_branch2b"
  type: "Convolution"
  bottom: "enet2_3_branch2b1"
  top: "enet2_3_branch2b"
  param {
    lr_mult: 1
    decay_mult: 1
  }
  param {
    lr_mult: 2
    decay_mult: 0
  }
  convolution_param {
    num_output: 32
    bias_term: true
    weight_filler {
      type: "msra"
    }
    bias_filler {
      type: "constant"
    }
    pad_h: 2
    pad_w: 0
    kernel_h: 5
    kernel_w: 1
    stride_h: 1
    stride_w: 1
    dilation: 1
  }
}
layer {
  name: "bn2_3_branch2b"
  type: "BN"
  bottom: "enet2_3_branch2b"
  top: "enet2_3_branch2b"
  param {
    lr_mult: 1
    decay_mult: 1
  }
  param {
    lr_mult: 2
    decay_mult: 0
  }
  bn_param {
    scale_filler {
      type: "constant"
      value: 1
    }
    shift_filler {
      type: "constant"
      value: 0.001
    }
  }
}
layer {
  name: "relu2_3_branch2b"
  type: "PReLU"
  bottom: "enet2_3_branch2b"
  top: "enet2_3_branch2b"
}
layer {
  name: "enet2_3_branch2c"
  type: "Convolution"
  bottom: "enet2_3_branch2b"
  top: "enet2_3_branch2c"
  param {
    lr_mult: 1
    decay_mult: 1
  }
  convolution_param {
    num_output: 128
    bias_term: false
    weight_filler {
      type: "msra"
    }
    bias_filler {
      type: "constant"
    }
    pad_h: 0
    pad_w: 0
    kernel_h: 1
    kernel_w: 1
    stride_h: 1
    stride_w: 1
    dilation: 1
  }
}
layer {
  name: "bn2_3_branch2c"
  type: "BN"
  bottom: "enet2_3_branch2c"
  top: "enet2_3_branch2c"
  param {
    lr_mult: 1
    decay_mult: 1
  }
  param {
    lr_mult: 2
    decay_mult: 0
  }
  bn_param {
    scale_filler {
      type: "constant"
      value: 1
    }
    shift_filler {
      type: "constant"
      value: 0.001
    }
  }
}
layer {
  name: "dropout
I1215 11:21:45.485096  6331 layer_factory.hpp:77] Creating layer data
I1215 11:21:45.485172  6331 net.cpp:106] Creating Layer data
I1215 11:21:45.485188  6331 net.cpp:411] data -> data
I1215 11:21:45.485236  6331 net.cpp:411] data -> label
I1215 11:21:45.485262  6331 net.cpp:411] data -> (automatic)
I1215 11:21:45.485858  6331 image_seg_data_layer.cpp:46] Opening file /home/map/liuli/datasets/kitti/enet_train_test/train/enet_train.list
I1215 11:21:45.600111  6331 image_seg_data_layer.cpp:68] A total of 19941 images.
I1215 11:21:45.635527  6331 image_seg_data_layer.cpp:147] output data size: 4,3,377,1241
I1215 11:21:45.635553  6331 image_seg_data_layer.cpp:151] output label size: 4,1,377,1241
I1215 11:21:45.635560  6331 image_seg_data_layer.cpp:155] output data_dim size: 4,1,1,2
I1215 11:21:45.840101  6331 net.cpp:150] Setting up data
I1215 11:21:45.840157  6331 net.cpp:157] Top shape: 4 3 377 1241 (5614284)
I1215 11:21:45.840169  6331 net.cpp:157] Top shape: 4 1 377 1241 (1871428)
I1215 11:21:45.840178  6331 net.cpp:157] Top shape: 4 1 1 2 (8)
I1215 11:21:45.840184  6331 net.cpp:165] Memory required for data: 29942880
I1215 11:21:45.840199  6331 layer_factory.hpp:77] Creating layer data_data_0_split
I1215 11:21:45.840220  6331 net.cpp:106] Creating Layer data_data_0_split
I1215 11:21:45.840229  6331 net.cpp:454] data_data_0_split <- data
I1215 11:21:45.840257  6331 net.cpp:411] data_data_0_split -> data_data_0_split_0
I1215 11:21:45.840276  6331 net.cpp:411] data_data_0_split -> data_data_0_split_1
I1215 11:21:45.840348  6331 net.cpp:150] Setting up data_data_0_split
I1215 11:21:45.840368  6331 net.cpp:157] Top shape: 4 3 377 1241 (5614284)
I1215 11:21:45.840378  6331 net.cpp:157] Top shape: 4 3 377 1241 (5614284)
I1215 11:21:45.840384  6331 net.cpp:165] Memory required for data: 74857152
I1215 11:21:45.840390  6331 layer_factory.hpp:77] Creating layer label_data_1_split
I1215 11:21:45.840400  6331 net.cpp:106] Creating Layer label_data_1_split
I1215 11:21:45.840407  6331 net.cpp:454] label_data_1_split <- label
I1215 11:21:45.840435  6331 net.cpp:411] label_data_1_split -> label_data_1_split_0
I1215 11:21:45.840466  6331 net.cpp:411] label_data_1_split -> label_data_1_split_1
I1215 11:21:45.840512  6331 net.cpp:150] Setting up label_data_1_split
I1215 11:21:45.840523  6331 net.cpp:157] Top shape: 4 1 377 1241 (1871428)
I1215 11:21:45.840530  6331 net.cpp:157] Top shape: 4 1 377 1241 (1871428)
I1215 11:21:45.840536  6331 net.cpp:165] Memory required for data: 89828576
I1215 11:21:45.840543  6331 layer_factory.hpp:77] Creating layer enet_initial_branch2a
I1215 11:21:45.840575  6331 net.cpp:106] Creating Layer enet_initial_branch2a
I1215 11:21:45.840584  6331 net.cpp:454] enet_initial_branch2a <- data_data_0_split_0
I1215 11:21:45.840595  6331 net.cpp:411] enet_initial_branch2a -> enet_initial_branch2a
I1215 11:21:45.999958  6331 net.cpp:150] Setting up enet_initial_branch2a
I1215 11:21:46.000001  6331 net.cpp:157] Top shape: 4 13 189 621 (6103188)
I1215 11:21:46.000011  6331 net.cpp:165] Memory required for data: 114241328
I1215 11:21:46.000043  6331 layer_factory.hpp:77] Creating layer pool_initial_branch1a
I1215 11:21:46.000064  6331 net.cpp:106] Creating Layer pool_initial_branch1a
I1215 11:21:46.000073  6331 net.cpp:454] pool_initial_branch1a <- data_data_0_split_1
I1215 11:21:46.000088  6331 net.cpp:411] pool_initial_branch1a -> pool_initial_branch1a
I1215 11:21:46.000175  6331 net.cpp:150] Setting up pool_initial_branch1a
I1215 11:21:46.000190  6331 net.cpp:157] Top shape: 4 3 189 621 (1408428)
I1215 11:21:46.000197  6331 net.cpp:165] Memory required for data: 119875040
I1215 11:21:46.000203  6331 layer_factory.hpp:77] Creating layer enet_initial
I1215 11:21:46.000217  6331 net.cpp:106] Creating Layer enet_initial
I1215 11:21:46.000224  6331 net.cpp:454] enet_initial <- enet_initial_branch2a
I1215 11:21:46.000233  6331 net.cpp:454] enet_initial <- pool_initial_branch1a
I1215 11:21:46.000242  6331 net.cpp:411] enet_initial -> enet_initial
I1215 11:21:46.000285  6331 net.cpp:150] Setting up enet_initial
I1215 11:21:46.000298  6331 net.cpp:157] Top shape: 4 16 189 621 (7511616)
I1215 11:21:46.000304  6331 net.cpp:165] Memory required for data: 149921504
I1215 11:21:46.000311  6331 layer_factory.hpp:77] Creating layer bn_initial
I1215 11:21:46.000336  6331 net.cpp:106] Creating Layer bn_initial
I1215 11:21:46.000344  6331 net.cpp:454] bn_initial <- enet_initial
I1215 11:21:46.000358  6331 net.cpp:397] bn_initial -> enet_initial (in-place)
I1215 11:21:46.001806  6331 net.cpp:150] Setting up bn_initial
I1215 11:21:46.001823  6331 net.cpp:157] Top shape: 4 16 189 621 (7511616)
I1215 11:21:46.001830  6331 net.cpp:165] Memory required for data: 179967968
I1215 11:21:46.001844  6331 layer_factory.hpp:77] Creating layer relu_initial
I1215 11:21:46.001859  6331 net.cpp:106] Creating Layer relu_initial
I1215 11:21:46.001868  6331 net.cpp:454] relu_initial <- enet_initial
I1215 11:21:46.001876  6331 net.cpp:397] relu_initial -> enet_initial (in-place)
I1215 11:21:46.010660  6331 net.cpp:150] Setting up relu_initial
I1215 11:21:46.010687  6331 net.cpp:157] Top shape: 4 16 189 621 (7511616)
I1215 11:21:46.010694  6331 net.cpp:165] Memory required for data: 210014432
I1215 11:21:46.010710  6331 layer_factory.hpp:77] Creating layer enet_initial_relu_initial_0_split
I1215 11:21:46.010725  6331 net.cpp:106] Creating Layer enet_initial_relu_initial_0_split
I1215 11:21:46.010732  6331 net.cpp:454] enet_initial_relu_initial_0_split <- enet_initial
I1215 11:21:46.010748  6331 net.cpp:411] enet_initial_relu_initial_0_split -> enet_initial_relu_initial_0_split_0
I1215 11:21:46.010763  6331 net.cpp:411] enet_initial_relu_initial_0_split -> enet_initial_relu_initial_0_split_1
I1215 11:21:46.010818  6331 net.cpp:150] Setting up enet_initial_relu_initial_0_split
I1215 11:21:46.010830  6331 net.cpp:157] Top shape: 4 16 189 621 (7511616)
I1215 11:21:46.010838  6331 net.cpp:157] Top shape: 4 16 189 621 (7511616)
I1215 11:21:46.010844  6331 net.cpp:165] Memory required for data: 270107360
I1215 11:21:46.010851  6331 layer_factory.hpp:77] Creating layer enet1_0_branch2a
I1215 11:21:46.010888  6331 net.cpp:106] Creating Layer enet1_0_branch2a
I1215 11:21:46.010910  6331 net.cpp:454] enet1_0_branch2a <- enet_initial_relu_initial_0_split_0
I1215 11:21:46.010921  6331 net.cpp:411] enet1_0_branch2a -> enet1_0_branch2a
I1215 11:21:46.013916  6331 net.cpp:150] Setting up enet1_0_branch2a
I1215 11:21:46.013939  6331 net.cpp:157] Top shape: 4 16 95 311 (1890880)
I1215 11:21:46.013947  6331 net.cpp:165] Memory required for data: 277670880
I1215 11:21:46.013957  6331 layer_factory.hpp:77] Creating layer bn1_0_branch2a
I1215 11:21:46.013974  6331 net.cpp:106] Creating Layer bn1_0_branch2a
I1215 11:21:46.013983  6331 net.cpp:454] bn1_0_branch2a <- enet1_0_branch2a
I1215 11:21:46.013993  6331 net.cpp:397] bn1_0_branch2a -> enet1_0_branch2a (in-place)
I1215 11:21:46.015574  6331 net.cpp:150] Setting up bn1_0_branch2a
I1215 11:21:46.015593  6331 net.cpp:157] Top shape: 4 16 95 311 (1890880)
I1215 11:21:46.015600  6331 net.cpp:165] Memory required for data: 285234400
I1215 11:21:46.015611  6331 layer_factory.hpp:77] Creating layer relu1_0_branch2a
I1215 11:21:46.015625  6331 net.cpp:106] Creating Layer relu1_0_branch2a
I1215 11:21:46.015632  6331 net.cpp:454] relu1_0_branch2a <- enet1_0_branch2a
I1215 11:21:46.015645  6331 net.cpp:397] relu1_0_branch2a -> enet1_0_branch2a (in-place)
I1215 11:21:46.018061  6331 net.cpp:150] Setting up relu1_0_branch2a
I1215 11:21:46.018079  6331 net.cpp:157] Top shape: 4 16 95 311 (1890880)
I1215 11:21:46.018085  6331 net.cpp:165] Memory required for data: 292797920
I1215 11:21:46.018098  6331 layer_factory.hpp:77] Creating layer enet1_0_branch2b
I1215 11:21:46.018118  6331 net.cpp:106] Creating Layer enet1_0_branch2b
I1215 11:21:46.018126  6331 net.cpp:454] enet1_0_branch2b <- enet1_0_branch2a
I1215 11:21:46.018136  6331 net.cpp:411] enet1_0_branch2b -> enet1_0_branch2b
I1215 11:21:46.023269  6331 net.cpp:150] Setting up enet1_0_branch2b
I1215 11:21:46.023289  6331 net.cpp:157] Top shape: 4 16 95 311 (1890880)
I1215 11:21:46.023298  6331 net.cpp:165] Memory required for data: 300361440
I1215 11:21:46.023308  6331 layer_factory.hpp:77] Creating layer bn1_0_branch2b
I1215 11:21:46.023360  6331 net.cpp:106] Creating Layer bn1_0_branch2b
I1215 11:21:46.023370  6331 net.cpp:454] bn1_0_branch2b <- enet1_0_branch2b
I1215 11:21:46.023380  6331 net.cpp:397] bn1_0_branch2b -> enet1_0_branch2b (in-place)
I1215 11:21:46.023708  6331 net.cpp:150] Setting up bn1_0_branch2b
I1215 11:21:46.023723  6331 net.cpp:157] Top shape: 4 16 95 311 (1890880)
I1215 11:21:46.023730  6331 net.cpp:165] Memory required for data: 307924960
I1215 11:21:46.023741  6331 layer_factory.hpp:77] Creating layer relu1_0_branch2b
I1215 11:21:46.023751  6331 net.cpp:106] Creating Layer relu1_0_branch2b
I1215 11:21:46.023757  6331 net.cpp:454] relu1_0_branch2b <- enet1_0_branch2b
I1215 11:21:46.023771  6331 net.cpp:397] relu1_0_branch2b -> enet1_0_branch2b (in-place)
I1215 11:21:46.026187  6331 net.cpp:150] Setting up relu1_0_branch2b
I1215 11:21:46.026204  6331 net.cpp:157] Top shape: 4 16 95 311 (1890880)
I1215 11:21:46.026211  6331 net.cpp:165] Memory required for data: 315488480
I1215 11:21:46.026221  6331 layer_factory.hpp:77] Creating layer enet1_0_branch2c
I1215 11:21:46.026242  6331 net.cpp:106] Creating Layer enet1_0_branch2c
I1215 11:21:46.026249  6331 net.cpp:454] enet1_0_branch2c <- enet1_0_branch2b
I1215 11:21:46.026262  6331 net.cpp:411] enet1_0_branch2c -> enet1_0_branch2c
I1215 11:21:46.029279  6331 net.cpp:150] Setting up enet1_0_branch2c
I1215 11:21:46.029297  6331 net.cpp:157] Top shape: 4 64 95 311 (7563520)
I1215 11:21:46.029305  6331 net.cpp:165] Memory required for data: 345742560
I1215 11:21:46.029320  6331 layer_factory.hpp:77] Creating layer bn1_0_branch2c
I1215 11:21:46.029341  6331 net.cpp:106] Creating Layer bn1_0_branch2c
I1215 11:21:46.029350  6331 net.cpp:454] bn1_0_branch2c <- enet1_0_branch2c
I1215 11:21:46.029361  6331 net.cpp:397] bn1_0_branch2c -> enet1_0_branch2c (in-place)
I1215 11:21:46.029682  6331 net.cpp:150] Setting up bn1_0_branch2c
I1215 11:21:46.029697  6331 net.cpp:157] Top shape: 4 64 95 311 (7563520)
I1215 11:21:46.029717  6331 net.cpp:165] Memory required for data: 375996640
I1215 11:21:46.029743  6331 layer_factory.hpp:77] Creating layer dropout1_0_branch2c
I1215 11:21:46.029762  6331 net.cpp:106] Creating Layer dropout1_0_branch2c
I1215 11:21:46.029769  6331 net.cpp:454] dropout1_0_branch2c <- enet1_0_branch2c
I1215 11:21:46.029779  6331 net.cpp:397] dropout1_0_branch2c -> enet1_0_branch2c (in-place)
I1215 11:21:46.029832  6331 net.cpp:150] Setting up dropout1_0_branch2c
I1215 11:21:46.029845  6331 net.cpp:157] Top shape: 4 64 95 311 (7563520)
I1215 11:21:46.029852  6331 net.cpp:165] Memory required for data: 406250720
I1215 11:21:46.029858  6331 layer_factory.hpp:77] Creating layer enet1_0_branch1a
I1215 11:21:46.029875  6331 net.cpp:106] Creating Layer enet1_0_branch1a
I1215 11:21:46.029883  6331 net.cpp:454] enet1_0_branch1a <- enet_initial_relu_initial_0_split_1
I1215 11:21:46.029896  6331 net.cpp:411] enet1_0_branch1a -> enet1_0_branch1a
I1215 11:21:46.032788  6331 net.cpp:150] Setting up enet1_0_branch1a
I1215 11:21:46.032805  6331 net.cpp:157] Top shape: 4 64 189 621 (30046464)
I1215 11:21:46.032812  6331 net.cpp:165] Memory required for data: 526436576
I1215 11:21:46.032822  6331 layer_factory.hpp:77] Creating layer bn1_0_branch1a
I1215 11:21:46.032838  6331 net.cpp:106] Creating Layer bn1_0_branch1a
I1215 11:21:46.032846  6331 net.cpp:454] bn1_0_branch1a <- enet1_0_branch1a
I1215 11:21:46.032860  6331 net.cpp:397] bn1_0_branch1a -> enet1_0_branch1a (in-place)
I1215 11:21:46.034380  6331 net.cpp:150] Setting up bn1_0_branch1a
I1215 11:21:46.034399  6331 net.cpp:157] Top shape: 4 64 189 621 (30046464)
I1215 11:21:46.034405  6331 net.cpp:165] Memory required for data: 646622432
I1215 11:21:46.034416  6331 layer_factory.hpp:77] Creating layer pool1_0_branch1a
I1215 11:21:46.034425  6331 layer_factory.cpp:91] cuDNN does not support multiple tops. Using Caffe's own pooling layer.
I1215 11:21:46.034435  6331 net.cpp:106] Creating Layer pool1_0_branch1a
I1215 11:21:46.034441  6331 net.cpp:454] pool1_0_branch1a <- enet1_0_branch1a
I1215 11:21:46.034456  6331 net.cpp:411] pool1_0_branch1a -> pool1_0_branch1a
I1215 11:21:46.034471  6331 net.cpp:411] pool1_0_branch1a -> pool1_0_branch1a_mask
I1215 11:21:46.034528  6331 net.cpp:150] Setting up pool1_0_branch1a
I1215 11:21:46.034544  6331 net.cpp:157] Top shape: 4 64 95 311 (7563520)
I1215 11:21:46.034553  6331 net.cpp:157] Top shape: 4 64 95 311 (7563520)
I1215 11:21:46.034559  6331 net.cpp:165] Memory required for data: 707130592
I1215 11:21:46.034565  6331 layer_factory.hpp:77] Creating layer enet1_0
I1215 11:21:46.034579  6331 net.cpp:106] Creating Layer enet1_0
I1215 11:21:46.034585  6331 net.cpp:454] enet1_0 <- pool1_0_branch1a
I1215 11:21:46.034593  6331 net.cpp:454] enet1_0 <- enet1_0_branch2c
I1215 11:21:46.034606  6331 net.cpp:411] enet1_0 -> enet1_0
I1215 11:21:46.034647  6331 net.cpp:150] Setting up enet1_0
I1215 11:21:46.034659  6331 net.cpp:157] Top shape: 4 64 95 311 (7563520)
I1215 11:21:46.034667  6331 net.cpp:165] Memory required for data: 737384672
I1215 11:21:46.034672  6331 layer_factory.hpp:77] Creating layer relu1_0
I1215 11:21:46.034685  6331 net.cpp:106] Creating Layer relu1_0
I1215 11:21:46.034693  6331 net.cpp:454] relu1_0 <- enet1_0
I1215 11:21:46.034701  6331 net.cpp:397] relu1_0 -> enet1_0 (in-place)
I1215 11:21:46.043521  6331 net.cpp:150] Setting up relu1_0
I1215 11:21:46.043546  6331 net.cpp:157] Top shape: 4 64 95 311 (7563520)
I1215 11:21:46.043553  6331 net.cpp:165] Memory required for data: 767638752
I1215 11:21:46.043563  6331 layer_factory.hpp:77] Creating layer enet1_0_relu1_0_0_split
I1215 11:21:46.043578  6331 net.cpp:106] Creating Layer enet1_0_relu1_0_0_split
I1215 11:21:46.043586  6331 net.cpp:454] enet1_0_relu1_0_0_split <- enet1_0
I1215 11:21:46.043596  6331 net.cpp:411] enet1_0_relu1_0_0_split -> enet1_0_relu1_0_0_split_0
I1215 11:21:46.043609  6331 net.cpp:411] enet1_0_relu1_0_0_split -> enet1_0_relu1_0_0_split_1
I1215 11:21:46.043664  6331 net.cpp:150] Setting up enet1_0_relu1_0_0_split
I1215 11:21:46.043687  6331 net.cpp:157] Top shape: 4 64 95 311 (7563520)
I1215 11:21:46.043706  6331 net.cpp:157] Top shape: 4 64 95 311 (7563520)
I1215 11:21:46.043712  6331 net.cpp:165] Memory required for data: 828146912
I1215 11:21:46.043720  6331 layer_factory.hpp:77] Creating layer enet1_1_branch2a
I1215 11:21:46.043737  6331 net.cpp:106] Creating Layer enet1_1_branch2a
I1215 11:21:46.043745  6331 net.cpp:454] enet1_1_branch2a <- enet1_0_relu1_0_0_split_0
I1215 11:21:46.043756  6331 net.cpp:411] enet1_1_branch2a -> enet1_1_branch2a
I1215 11:21:46.048120  6331 net.cpp:150] Setting up enet1_1_branch2a
I1215 11:21:46.048140  6331 net.cpp:157] Top shape: 4 16 95 311 (1890880)
I1215 11:21:46.048147  6331 net.cpp:165] Memory required for data: 835710432
I1215 11:21:46.048157  6331 layer_factory.hpp:77] Creating layer bn1_1_branch2a
I1215 11:21:46.048174  6331 net.cpp:106] Creating Layer bn1_1_branch2a
I1215 11:21:46.048182  6331 net.cpp:454] bn1_1_branch2a <- enet1_1_branch2a
I1215 11:21:46.048198  6331 net.cpp:397] bn1_1_branch2a -> enet1_1_branch2a (in-place)
I1215 11:21:46.049648  6331 net.cpp:150] Setting up bn1_1_branch2a
I1215 11:21:46.049664  6331 net.cpp:157] Top shape: 4 16 95 311 (1890880)
I1215 11:21:46.049671  6331 net.cpp:165] Memory required for data: 843273952
I1215 11:21:46.049684  6331 layer_factory.hpp:77] Creating layer relu1_1_branch2a
I1215 11:21:46.049695  6331 net.cpp:106] Creating Layer relu1_1_branch2a
I1215 11:21:46.049701  6331 net.cpp:454] relu1_1_branch2a <- enet1_1_branch2a
I1215 11:21:46.049713  6331 net.cpp:397] relu1_1_branch2a -> enet1_1_branch2a (in-place)
I1215 11:21:46.052139  6331 net.cpp:150] Setting up relu1_1_branch2a
I1215 11:21:46.052155  6331 net.cpp:157] Top shape: 4 16 95 311 (1890880)
I1215 11:21:46.052161  6331 net.cpp:165] Memory required for data: 850837472
I1215 11:21:46.052171  6331 layer_factory.hpp:77] Creating layer enet1_1_branch2b
I1215 11:21:46.052191  6331 net.cpp:106] Creating Layer enet1_1_branch2b
I1215 11:21:46.052199  6331 net.cpp:454] enet1_1_branch2b <- enet1_1_branch2a
I1215 11:21:46.052211  6331 net.cpp:411] enet1_1_branch2b -> enet1_1_branch2b
I1215 11:21:46.056277  6331 net.cpp:150] Setting up enet1_1_branch2b
I1215 11:21:46.056296  6331 net.cpp:157] Top shape: 4 16 95 311 (1890880)
I1215 11:21:46.056304  6331 net.cpp:165] Memory required for data: 858400992
I1215 11:21:46.056319  6331 layer_factory.hpp:77] Creating layer bn1_1_branch2b
I1215 11:21:46.056336  6331 net.cpp:106] Creating Layer bn1_1_branch2b
I1215 11:21:46.056344  6331 net.cpp:454] bn1_1_branch2b <- enet1_1_branch2b
I1215 11:21:46.056358  6331 net.cpp:397] bn1_1_branch2b -> enet1_1_branch2b (in-place)
I1215 11:21:46.056695  6331 net.cpp:150] Setting up bn1_1_branch2b
I1215 11:21:46.056710  6331 net.cpp:157] Top shape: 4 16 95 311 (1890880)
I1215 11:21:46.056717  6331 net.cpp:165] Memory required for data: 865964512
I1215 11:21:46.056727  6331 layer_factory.hpp:77] Creating layer relu1_1_branch2b
I1215 11:21:46.056737  6331 net.cpp:106] Creating Layer relu1_1_branch2b
I1215 11:21:46.056744  6331 net.cpp:454] relu1_1_branch2b <- enet1_1_branch2b
I1215 11:21:46.056753  6331 net.cpp:397] relu1_1_branch2b -> enet1_1_branch2b (in-place)
I1215 11:21:46.059191  6331 net.cpp:150] Setting up relu1_1_branch2b
I1215 11:21:46.059209  6331 net.cpp:157] Top shape: 4 16 95 311 (1890880)
I1215 11:21:46.059216  6331 net.cpp:165] Memory required for data: 873528032
I1215 11:21:46.059226  6331 layer_factory.hpp:77] Creating layer enet1_1_branch2c
I1215 11:21:46.059244  6331 net.cpp:106] Creating Layer enet1_1_branch2c
I1215 11:21:46.059252  6331 net.cpp:454] enet1_1_branch2c <- enet1_1_branch2b
I1215 11:21:46.059265  6331 net.cpp:411] enet1_1_branch2c -> enet1_1_branch2c
I1215 11:21:46.062377  6331 net.cpp:150] Setting up enet1_1_branch2c
I1215 11:21:46.062397  6331 net.cpp:157] Top shape: 4 64 95 311 (7563520)
I1215 11:21:46.062403  6331 net.cpp:165] Memory required for data: 903782112
I1215 11:21:46.062413  6331 layer_factory.hpp:77] Creating layer bn1_1_branch2c
I1215 11:21:46.062428  6331 net.cpp:106] Creating Layer bn1_1_branch2c
I1215 11:21:46.062453  6331 net.cpp:454] bn1_1_branch2c <- enet1_1_branch2c
I1215 11:21:46.062482  6331 net.cpp:397] bn1_1_branch2c -> enet1_1_branch2c (in-place)
I1215 11:21:46.062825  6331 net.cpp:150] Setting up bn1_1_branch2c
I1215 11:21:46.062840  6331 net.cpp:157] Top shape: 4 64 95 311 (7563520)
I1215 11:21:46.062846  6331 net.cpp:165] Memory required for data: 934036192
I1215 11:21:46.062868  6331 layer_factory.hpp:77] Creating layer dropout1_1_branch2c
I1215 11:21:46.062887  6331 net.cpp:106] Creating Layer dropout1_1_branch2c
I1215 11:21:46.062896  6331 net.cpp:454] dropout1_1_branch2c <- enet1_1_branch2c
I1215 11:21:46.062906  6331 net.cpp:397] dropout1_1_branch2c -> enet1_1_branch2c (in-place)
I1215 11:21:46.062944  6331 net.cpp:150] Setting up dropout1_1_branch2c
I1215 11:21:46.062957  6331 net.cpp:157] Top shape: 4 64 95 311 (7563520)
I1215 11:21:46.062963  6331 net.cpp:165] Memory required for data: 964290272
I1215 11:21:46.062968  6331 layer_factory.hpp:77] Creating layer enet1_1
I1215 11:21:46.062984  6331 net.cpp:106] Creating Layer enet1_1
I1215 11:21:46.062991  6331 net.cpp:454] enet1_1 <- enet1_0_relu1_0_0_split_1
I1215 11:21:46.063000  6331 net.cpp:454] enet1_1 <- enet1_1_branch2c
I1215 11:21:46.063009  6331 net.cpp:411] enet1_1 -> enet1_1
I1215 11:21:46.063051  6331 net.cpp:150] Setting up enet1_1
I1215 11:21:46.063063  6331 net.cpp:157] Top shape: 4 64 95 311 (7563520)
I1215 11:21:46.063069  6331 net.cpp:165] Memory required for data: 994544352
I1215 11:21:46.063076  6331 layer_factory.hpp:77] Creating layer relu1_1
I1215 11:21:46.063084  6331 net.cpp:106] Creating Layer relu1_1
I1215 11:21:46.063091  6331 net.cpp:454] relu1_1 <- enet1_1
I1215 11:21:46.063103  6331 net.cpp:397] relu1_1 -> enet1_1 (in-place)
I1215 11:21:46.071996  6331 net.cpp:150] Setting up relu1_1
I1215 11:21:46.072023  6331 net.cpp:157] Top shape: 4 64 95 311 (7563520)
I1215 11:21:46.072031  6331 net.cpp:165] Memory required for data: 1024798432
I1215 11:21:46.072041  6331 layer_factory.hpp:77] Creating layer enet1_1_relu1_1_0_split
I1215 11:21:46.072057  6331 net.cpp:106] Creating Layer enet1_1_relu1_1_0_split
I1215 11:21:46.072064  6331 net.cpp:454] enet1_1_relu1_1_0_split <- enet1_1
I1215 11:21:46.072078  6331 net.cpp:411] enet1_1_relu1_1_0_split -> enet1_1_relu1_1_0_split_0
I1215 11:21:46.072093  6331 net.cpp:411] enet1_1_relu1_1_0_split -> enet1_1_relu1_1_0_split_1
I1215 11:21:46.072151  6331 net.cpp:150] Setting up enet1_1_relu1_1_0_split
I1215 11:21:46.072163  6331 net.cpp:157] Top shape: 4 64 95 311 (7563520)
I1215 11:21:46.072171  6331 net.cpp:157] Top shape: 4 64 95 311 (7563520)
I1215 11:21:46.072177  6331 net.cpp:165] Memory required for data: 1085306592
I1215 11:21:46.072185  6331 layer_factory.hpp:77] Creating layer enet1_2_branch2a
I1215 11:21:46.072202  6331 net.cpp:106] Creating Layer enet1_2_branch2a
I1215 11:21:46.072211  6331 net.cpp:454] enet1_2_branch2a <- enet1_1_relu1_1_0_split_0
I1215 11:21:46.072221  6331 net.cpp:411] enet1_2_branch2a -> enet1_2_branch2a
I1215 11:21:46.075422  6331 net.cpp:150] Setting up enet1_2_branch2a
I1215 11:21:46.075443  6331 net.cpp:157] Top shape: 4 16 95 311 (1890880)
I1215 11:21:46.075451  6331 net.cpp:165] Memory required for data: 1092870112
I1215 11:21:46.075461  6331 layer_factory.hpp:77] Creating layer bn1_2_branch2a
I1215 11:21:46.075474  6331 net.cpp:106] Creating Layer bn1_2_branch2a
I1215 11:21:46.075482  6331 net.cpp:454] bn1_2_branch2a <- enet1_2_branch2a
I1215 11:21:46.075507  6331 net.cpp:397] bn1_2_branch2a -> enet1_2_branch2a (in-place)
I1215 11:21:46.075883  6331 net.cpp:150] Setting up bn1_2_branch2a
I1215 11:21:46.075898  6331 net.cpp:157] Top shape: 4 16 95 311 (1890880)
I1215 11:21:46.075906  6331 net.cpp:165] Memory required for data: 1100433632
I1215 11:21:46.075917  6331 layer_factory.hpp:77] Creating layer relu1_2_branch2a
I1215 11:21:46.075927  6331 net.cpp:106] Creating Layer relu1_2_branch2a
I1215 11:21:46.075933  6331 net.cpp:454] relu1_2_branch2a <- enet1_2_branch2a
I1215 11:21:46.075943  6331 net.cpp:397] relu1_2_branch2a -> enet1_2_branch2a (in-place)
I1215 11:21:46.078868  6331 net.cpp:150] Setting up relu1_2_branch2a
I1215 11:21:46.078891  6331 net.cpp:157] Top shape: 4 16 95 311 (1890880)
I1215 11:21:46.078897  6331 net.cpp:165] Memory required for data: 1107997152
I1215 11:21:46.078907  6331 layer_factory.hpp:77] Creating layer enet1_2_branch2b
I1215 11:21:46.078924  6331 net.cpp:106] Creating Layer enet1_2_branch2b
I1215 11:21:46.078933  6331 net.cpp:454] enet1_2_branch2b <- enet1_2_branch2a
I1215 11:21:46.078943  6331 net.cpp:411] enet1_2_branch2b -> enet1_2_branch2b
I1215 11:21:46.083238  6331 net.cpp:150] Setting up enet1_2_branch2b
I1215 11:21:46.083258  6331 net.cpp:157] Top shape: 4 16 95 311 (1890880)
I1215 11:21:46.083266  6331 net.cpp:165] Memory required for data: 1115560672
I1215 11:21:46.083277  6331 layer_factory.hpp:77] Creating layer bn1_2_branch2b
I1215 11:21:46.083293  6331 net.cpp:106] Creating Layer bn1_2_branch2b
I1215 11:21:46.083302  6331 net.cpp:454] bn1_2_branch2b <- enet1_2_branch2b
I1215 11:21:46.083314  6331 net.cpp:397] bn1_2_branch2b -> enet1_2_branch2b (in-place)
I1215 11:21:46.083665  6331 net.cpp:150] Setting up bn1_2_branch2b
I1215 11:21:46.083680  6331 net.cpp:157] Top shape: 4 16 95 311 (1890880)
I1215 11:21:46.083688  6331 net.cpp:165] Memory required for data: 1123124192
I1215 11:21:46.083698  6331 layer_factory.hpp:77] Creating layer relu1_2_branch2b
I1215 11:21:46.083711  6331 net.cpp:106] Creating Layer relu1_2_branch2b
I1215 11:21:46.083719  6331 net.cpp:454] relu1_2_branch2b <- enet1_2_branch2b
I1215 11:21:46.083727  6331 net.cpp:397] relu1_2_branch2b -> enet1_2_branch2b (in-place)
I1215 11:21:46.086161  6331 net.cpp:150] Setting up relu1_2_branch2b
I1215 11:21:46.086179  6331 net.cpp:157] Top shape: 4 16 95 311 (1890880)
I1215 11:21:46.086185  6331 net.cpp:165] Memory required for data: 1130687712
I1215 11:21:46.086195  6331 layer_factory.hpp:77] Creating layer enet1_2_branch2c
I1215 11:21:46.086212  6331 net.cpp:106] Creating Layer enet1_2_branch2c
I1215 11:21:46.086220  6331 net.cpp:454] enet1_2_branch2c <- enet1_2_branch2b
I1215 11:21:46.086233  6331 net.cpp:411] enet1_2_branch2c -> enet1_2_branch2c
I1215 11:21:46.090611  6331 net.cpp:150] Setting up enet1_2_branch2c
I1215 11:21:46.090629  6331 net.cpp:157] Top shape: 4 64 95 311 (7563520)
I1215 11:21:46.090637  6331 net.cpp:165] Memory required for data: 1160941792
I1215 11:21:46.090647  6331 layer_factory.hpp:77] Creating layer bn1_2_branch2c
I1215 11:21:46.090665  6331 net.cpp:106] Creating Layer bn1_2_branch2c
I1215 11:21:46.090673  6331 net.cpp:454] bn1_2_branch2c <- enet1_2_branch2c
I1215 11:21:46.090684  6331 net.cpp:397] bn1_2_branch2c -> enet1_2_branch2c (in-place)
I1215 11:21:46.091037  6331 net.cpp:150] Setting up bn1_2_branch2c
I1215 11:21:46.091051  6331 net.cpp:157] Top shape: 4 64 95 311 (7563520)
I1215 11:21:46.091058  6331 net.cpp:165] Memory required for data: 1191195872
I1215 11:21:46.091068  6331 layer_factory.hpp:77] Creating layer dropout1_2_branch2c
I1215 11:21:46.091078  6331 net.cpp:106] Creating Layer dropout1_2_branch2c
I1215 11:21:46.091085  6331 net.cpp:454] dropout1_2_branch2c <- enet1_2_branch2c
I1215 11:21:46.091099  6331 net.cpp:397] dropout1_2_branch2c -> enet1_2_branch2c (in-place)
I1215 11:21:46.091140  6331 net.cpp:150] Setting up dropout1_2_branch2c
I1215 11:21:46.091156  6331 net.cpp:157] Top shape: 4 64 95 311 (7563520)
I1215 11:21:46.091162  6331 net.cpp:165] Memory required for data: 1221449952
I1215 11:21:46.091168  6331 layer_factory.hpp:77] Creating layer enet1_2
I1215 11:21:46.091178  6331 net.cpp:106] Creating Layer enet1_2
I1215 11:21:46.091186  6331 net.cpp:454] enet1_2 <- enet1_1_relu1_1_0_split_1
I1215 11:21:46.091194  6331 net.cpp:454] enet1_2 <- enet1_2_branch2c
I1215 11:21:46.091203  6331 net.cpp:411] enet1_2 -> enet1_2
I1215 11:21:46.091244  6331 net.cpp:150] Setting up enet1_2
I1215 11:21:46.091256  6331 net.cpp:157] Top shape: 4 64 95 311 (7563520)
I1215 11:21:46.091264  6331 net.cpp:165] Memory required for data: 1251704032
I1215 11:21:46.091269  6331 layer_factory.hpp:77] Creating layer relu1_2
I1215 11:21:46.091294  6331 net.cpp:106] Creating Layer relu1_2
I1215 11:21:46.091310  6331 net.cpp:454] relu1_2 <- enet1_2
I1215 11:21:46.091325  6331 net.cpp:397] relu1_2 -> enet1_2 (in-place)
I1215 11:21:46.137867  6331 net.cpp:150] Setting up relu1_2
I1215 11:21:46.137898  6331 net.cpp:157] Top shape: 4 64 95 311 (7563520)
I1215 11:21:46.137907  6331 net.cpp:165] Memory required for data: 1281958112
I1215 11:21:46.137918  6331 layer_factory.hpp:77] Creating layer enet1_2_relu1_2_0_split
I1215 11:21:46.137931  6331 net.cpp:106] Creating Layer enet1_2_relu1_2_0_split
I1215 11:21:46.137938  6331 net.cpp:454] enet1_2_relu1_2_0_split <- enet1_2
I1215 11:21:46.137954  6331 net.cpp:411] enet1_2_relu1_2_0_split -> enet1_2_relu1_2_0_split_0
I1215 11:21:46.137969  6331 net.cpp:411] enet1_2_relu1_2_0_split -> enet1_2_relu1_2_0_split_1
I1215 11:21:46.138700  6331 net.cpp:150] Setting up enet1_2_relu1_2_0_split
I1215 11:21:46.138713  6331 net.cpp:157] Top shape: 4 64 95 311 (7563520)
I1215 11:21:46.138723  6331 net.cpp:157] Top shape: 4 64 95 311 (7563520)
I1215 11:21:46.138731  6331 net.cpp:165] Memory required for data: 1342466272
I1215 11:21:46.138738  6331 layer_factory.hpp:77] Creating layer enet1_3_branch2a
I1215 11:21:46.138754  6331 net.cpp:106] Creating Layer enet1_3_branch2a
I1215 11:21:46.138761  6331 net.cpp:454] enet1_3_branch2a <- enet1_2_relu1_2_0_split_0
I1215 11:21:46.138777  6331 net.cpp:411] enet1_3_branch2a -> enet1_3_branch2a
I1215 11:21:46.141902  6331 net.cpp:150] Setting up enet1_3_branch2a
I1215 11:21:46.141921  6331 net.cpp:157] Top shape: 4 16 95 311 (1890880)
I1215 11:21:46.141928  6331 net.cpp:165] Memory required for data: 1350029792
I1215 11:21:46.141938  6331 layer_factory.hpp:77] Creating layer bn1_3_branch2a
I1215 11:21:46.141957  6331 net.cpp:106] Creating Layer bn1_3_branch2a
I1215 11:21:46.141963  6331 net.cpp:454] bn1_3_branch2a <- enet1_3_branch2a
I1215 11:21:46.141978  6331 net.cpp:397] bn1_3_branch2a -> enet1_3_branch2a (in-place)
I1215 11:21:46.142371  6331 net.cpp:150] Setting up bn1_3_branch2a
I1215 11:21:46.142385  6331 net.cpp:157] Top shape: 4 16 95 311 (1890880)
I1215 11:21:46.142392  6331 net.cpp:165] Memory required for data: 1357593312
I1215 11:21:46.142403  6331 layer_factory.hpp:77] Creating layer relu1_3_branch2a
I1215 11:21:46.142413  6331 net.cpp:106] Creating Layer relu1_3_branch2a
I1215 11:21:46.142421  6331 net.cpp:454] relu1_3_branch2a <- enet1_3_branch2a
I1215 11:21:46.142429  6331 net.cpp:397] relu1_3_branch2a -> enet1_3_branch2a (in-place)
I1215 11:21:46.144907  6331 net.cpp:150] Setting up relu1_3_branch2a
I1215 11:21:46.144925  6331 net.cpp:157] Top shape: 4 16 95 311 (1890880)
I1215 11:21:46.144932  6331 net.cpp:165] Memory required for data: 1365156832
I1215 11:21:46.144942  6331 layer_factory.hpp:77] Creating layer enet1_3_branch2b
I1215 11:21:46.144961  6331 net.cpp:106] Creating Layer enet1_3_branch2b
I1215 11:21:46.144969  6331 net.cpp:454] enet1_3_branch2b <- enet1_3_branch2a
I1215 11:21:46.144981  6331 net.cpp:411] enet1_3_branch2b -> enet1_3_branch2b
I1215 11:21:46.148330  6331 net.cpp:150] Setting up enet1_3_branch2b
I1215 11:21:46.148349  6331 net.cpp:157] Top shape: 4 16 95 311 (1890880)
I1215 11:21:46.148356  6331 net.cpp:165] Memory required for data: 1372720352
I1215 11:21:46.148367  6331 layer_factory.hpp:77] Creating layer bn1_3_branch2b
I1215 11:21:46.148383  6331 net.cpp:106] Creating Layer bn1_3_branch2b
I1215 11:21:46.148391  6331 net.cpp:454] bn1_3_branch2b <- enet1_3_branch2b
I1215 11:21:46.148404  6331 net.cpp:397] bn1_3_branch2b -> enet1_3_branch2b (in-place)
I1215 11:21:46.149827  6331 net.cpp:150] Setting up bn1_3_branch2b
I1215 11:21:46.149844  6331 net.cpp:157] Top shape: 4 16 95 311 (1890880)
I1215 11:21:46.149852  6331 net.cpp:165] Memory required for data: 1380283872
I1215 11:21:46.149863  6331 layer_factory.hpp:77] Creating layer relu1_3_branch2b
I1215 11:21:46.149876  6331 net.cpp:106] Creating Layer relu1_3_branch2b
I1215 11:21:46.149883  6331 net.cpp:454] relu1_3_branch2b <- enet1_3_branch2b
I1215 11:21:46.149906  6331 net.cpp:397] relu1_3_branch2b -> enet1_3_branch2b (in-place)
I1215 11:21:46.152382  6331 net.cpp:150] Setting up relu1_3_branch2b
I1215 11:21:46.152401  6331 net.cpp:157] Top shape: 4 16 95 311 (1890880)
I1215 11:21:46.152407  6331 net.cpp:165] Memory required for data: 1387847392
I1215 11:21:46.152417  6331 layer_factory.hpp:77] Creating layer enet1_3_branch2c
I1215 11:21:46.152436  6331 net.cpp:106] Creating Layer enet1_3_branch2c
I1215 11:21:46.152443  6331 net.cpp:454] enet1_3_branch2c <- enet1_3_branch2b
I1215 11:21:46.152457  6331 net.cpp:411] enet1_3_branch2c -> enet1_3_branch2c
I1215 11:21:46.155797  6331 net.cpp:150] Setting up enet1_3_branch2c
I1215 11:21:46.155817  6331 net.cpp:157] Top shape: 4 64 95 311 (7563520)
I1215 11:21:46.155824  6331 net.cpp:165] Memory required for data: 1418101472
I1215 11:21:46.155834  6331 layer_factory.hpp:77] Creating layer bn1_3_branch2c
I1215 11:21:46.155850  6331 net.cpp:106] Creating Layer bn1_3_branch2c
I1215 11:21:46.155858  6331 net.cpp:454] bn1_3_branch2c <- enet1_3_branch2c
I1215 11:21:46.155871  6331 net.cpp:397] bn1_3_branch2c -> enet1_3_branch2c (in-place)
I1215 11:21:46.156270  6331 net.cpp:150] Setting up bn1_3_branch2c
I1215 11:21:46.156285  6331 net.cpp:157] Top shape: 4 64 95 311 (7563520)
I1215 11:21:46.156291  6331 net.cpp:165] Memory required for data: 1448355552
I1215 11:21:46.156302  6331 layer_factory.hpp:77] Creating layer dropout1_3_branch2c
I1215 11:21:46.156321  6331 net.cpp:106] Creating Layer dropout1_3_branch2c
I1215 11:21:46.156328  6331 net.cpp:454] dropout1_3_branch2c <- enet1_3_branch2c
I1215 11:21:46.156338  6331 net.cpp:397] dropout1_3_branch2c -> enet1_3_branch2c (in-place)
I1215 11:21:46.156381  6331 net.cpp:150] Setting up dropout1_3_branch2c
I1215 11:21:46.156394  6331 net.cpp:157] Top shape: 4 64 95 311 (7563520)
I1215 11:21:46.156400  6331 net.cpp:165] Memory required for data: 1478609632
I1215 11:21:46.156407  6331 layer_factory.hpp:77] Creating layer enet1_3
I1215 11:21:46.156416  6331 net.cpp:106] Creating Layer enet1_3
I1215 11:21:46.156424  6331 net.cpp:454] enet1_3 <- enet1_2_relu1_2_0_split_1
I1215 11:21:46.156432  6331 net.cpp:454] enet1_3 <- enet1_3_branch2c
I1215 11:21:46.156445  6331 net.cpp:411] enet1_3 -> enet1_3
I1215 11:21:46.156486  6331 net.cpp:150] Setting up enet1_3
I1215 11:21:46.156502  6331 net.cpp:157] Top shape: 4 64 95 311 (7563520)
I1215 11:21:46.156509  6331 net.cpp:165] Memory required for data: 1508863712
I1215 11:21:46.156515  6331 layer_factory.hpp:77] Creating layer relu1_3
I1215 11:21:46.156525  6331 net.cpp:106] Creating Layer relu1_3
I1215 11:21:46.156533  6331 net.cpp:454] relu1_3 <- enet1_3
I1215 11:21:46.156541  6331 net.cpp:397] relu1_3 -> enet1_3 (in-place)
I1215 11:21:46.165809  6331 net.cpp:150] Setting up relu1_3
I1215 11:21:46.165843  6331 net.cpp:157] Top shape: 4 64 95 311 (7563520)
I1215 11:21:46.165850  6331 net.cpp:165] Memory required for data: 1539117792
I1215 11:21:46.165863  6331 layer_factory.hpp:77] Creating layer enet1_3_relu1_3_0_split
I1215 11:21:46.165877  6331 net.cpp:106] Creating Layer enet1_3_relu1_3_0_split
I1215 11:21:46.165885  6331 net.cpp:454] enet1_3_relu1_3_0_split <- enet1_3
I1215 11:21:46.165906  6331 net.cpp:411] enet1_3_relu1_3_0_split -> enet1_3_relu1_3_0_split_0
I1215 11:21:46.165923  6331 net.cpp:411] enet1_3_relu1_3_0_split -> enet1_3_relu1_3_0_split_1
I1215 11:21:46.165999  6331 net.cpp:150] Setting up enet1_3_relu1_3_0_split
I1215 11:21:46.166013  6331 net.cpp:157] Top shape: 4 64 95 311 (7563520)
I1215 11:21:46.166020  6331 net.cpp:157] Top shape: 4 64 95 311 (7563520)
I1215 11:21:46.166028  6331 net.cpp:165] Memory required for data: 1599625952
I1215 11:21:46.166033  6331 layer_factory.hpp:77] Creating layer enet1_4_branch2a
I1215 11:21:46.166050  6331 net.cpp:106] Creating Layer enet1_4_branch2a
I1215 11:21:46.166059  6331 net.cpp:454] enet1_4_branch2a <- enet1_3_relu1_3_0_split_0
I1215 11:21:46.166072  6331 net.cpp:411] enet1_4_branch2a -> enet1_4_branch2a
I1215 11:21:46.169376  6331 net.cpp:150] Setting up enet1_4_branch2a
I1215 11:21:46.169419  6331 net.cpp:157] Top shape: 4 16 95 311 (1890880)
I1215 11:21:46.169440  6331 net.cpp:165] Memory required for data: 1607189472
I1215 11:21:46.169450  6331 layer_factory.hpp:77] Creating layer bn1_4_branch2a
I1215 11:21:46.169468  6331 net.cpp:106] Creating Layer bn1_4_branch2a
I1215 11:21:46.169476  6331 net.cpp:454] bn1_4_branch2a <- enet1_4_branch2a
I1215 11:21:46.169487  6331 net.cpp:397] bn1_4_branch2a -> enet1_4_branch2a (in-place)
I1215 11:21:46.169910  6331 net.cpp:150] Setting up bn1_4_branch2a
I1215 11:21:46.169924  6331 net.cpp:157] Top shape: 4 16 95 311 (1890880)
I1215 11:21:46.169931  6331 net.cpp:165] Memory required for data: 1614752992
I1215 11:21:46.169941  6331 layer_factory.hpp:77] Creating layer relu1_4_branch2a
I1215 11:21:46.169952  6331 net.cpp:106] Creating Layer relu1_4_branch2a
I1215 11:21:46.169960  6331 net.cpp:454] relu1_4_branch2a <- enet1_4_branch2a
I1215 11:21:46.169971  6331 net.cpp:397] relu1_4_branch2a -> enet1_4_branch2a (in-place)
I1215 11:21:46.172561  6331 net.cpp:150] Setting up relu1_4_branch2a
I1215 11:21:46.172587  6331 net.cpp:157] Top shape: 4 16 95 311 (1890880)
I1215 11:21:46.172595  6331 net.cpp:165] Memory required for data: 1622316512
I1215 11:21:46.172605  6331 layer_factory.hpp:77] Creating layer enet1_4_branch2b
I1215 11:21:46.172627  6331 net.cpp:106] Creating Layer enet1_4_branch2b
I1215 11:21:46.172636  6331 net.cpp:454] enet1_4_branch2b <- enet1_4_branch2a
I1215 11:21:46.172648  6331 net.cpp:411] enet1_4_branch2b -> enet1_4_branch2b
I1215 11:21:46.177188  6331 net.cpp:150] Setting up enet1_4_branch2b
I1215 11:21:46.177211  6331 net.cpp:157] Top shape: 4 16 95 311 (1890880)
I1215 11:21:46.177219  6331 net.cpp:165] Memory required for data: 1629880032
I1215 11:21:46.177253  6331 layer_factory.hpp:77] Creating layer bn1_4_branch2b
I1215 11:21:46.177279  6331 net.cpp:106] Creating Layer bn1_4_branch2b
I1215 11:21:46.177289  6331 net.cpp:454] bn1_4_branch2b <- enet1_4_branch2b
I1215 11:21:46.177304  6331 net.cpp:397] bn1_4_branch2b -> enet1_4_branch2b (in-place)
I1215 11:21:46.178748  6331 net.cpp:150] Setting up bn1_4_branch2b
I1215 11:21:46.178766  6331 net.cpp:157] Top shape: 4 16 95 311 (1890880)
I1215 11:21:46.178772  6331 net.cpp:165] Memory required for data: 1637443552
I1215 11:21:46.178784  6331 layer_factory.hpp:77] Creating layer relu1_4_branch2b
I1215 11:21:46.178795  6331 net.cpp:106] Creating Layer relu1_4_branch2b
I1215 11:21:46.178802  6331 net.cpp:454] relu1_4_branch2b <- enet1_4_branch2b
I1215 11:21:46.178812  6331 net.cpp:397] relu1_4_branch2b -> enet1_4_branch2b (in-place)
I1215 11:21:46.181063  6331 net.cpp:150] Setting up relu1_4_branch2b
I1215 11:21:46.181082  6331 net.cpp:157] Top shape: 4 16 95 311 (1890880)
I1215 11:21:46.181088  6331 net.cpp:165] Memory required for data: 1645007072
I1215 11:21:46.181098  6331 layer_factory.hpp:77] Creating layer enet1_4_branch2c
I1215 11:21:46.181116  6331 net.cpp:106] Creating Layer enet1_4_branch2c
I1215 11:21:46.181125  6331 net.cpp:454] enet1_4_branch2c <- enet1_4_branch2b
I1215 11:21:46.181139  6331 net.cpp:411] enet1_4_branch2c -> enet1_4_branch2c
I1215 11:21:46.184340  6331 net.cpp:150] Setting up enet1_4_branch2c
I1215 11:21:46.184357  6331 net.cpp:157] Top shape: 4 64 95 311 (7563520)
I1215 11:21:46.184365  6331 net.cpp:165] Memory required for data: 1675261152
I1215 11:21:46.184375  6331 layer_factory.hpp:77] Creating layer bn1_4_branch2c
I1215 11:21:46.184391  6331 net.cpp:106] Creating Layer bn1_4_branch2c
I1215 11:21:46.184398  6331 net.cpp:454] bn1_4_branch2c <- enet1_4_branch2c
I1215 11:21:46.184412  6331 net.cpp:397] bn1_4_branch2c -> enet1_4_branch2c (in-place)
I1215 11:21:46.184837  6331 net.cpp:150] Setting up bn1_4_branch2c
I1215 11:21:46.184852  6331 net.cpp:157] Top shape: 4 64 95 311 (7563520)
I1215 11:21:46.184859  6331 net.cpp:165] Memory required for data: 1705515232
I1215 11:21:46.184870  6331 layer_factory.hpp:77] Creating layer dropout1_4_branch2c
I1215 11:21:46.184883  6331 net.cpp:106] Creating Layer dropout1_4_branch2c
I1215 11:21:46.184891  6331 net.cpp:454] dropout1_4_branch2c <- enet1_4_branch2c
I1215 11:21:46.184916  6331 net.cpp:397] dropout1_4_branch2c -> enet1_4_branch2c (in-place)
I1215 11:21:46.184973  6331 net.cpp:150] Setting up dropout1_4_branch2c
I1215 11:21:46.184985  6331 net.cpp:157] Top shape: 4 64 95 311 (7563520)
I1215 11:21:46.184993  6331 net.cpp:165] Memory required for data: 1735769312
I1215 11:21:46.184999  6331 layer_factory.hpp:77] Creating layer enet1_4
I1215 11:21:46.185009  6331 net.cpp:106] Creating Layer enet1_4
I1215 11:21:46.185015  6331 net.cpp:454] enet1_4 <- enet1_3_relu1_3_0_split_1
I1215 11:21:46.185024  6331 net.cpp:454] enet1_4 <- enet1_4_branch2c
I1215 11:21:46.185037  6331 net.cpp:411] enet1_4 -> enet1_4
I1215 11:21:46.185086  6331 net.cpp:150] Setting up enet1_4
I1215 11:21:46.185097  6331 net.cpp:157] Top shape: 4 64 95 311 (7563520)
I1215 11:21:46.185104  6331 net.cpp:165] Memory required for data: 1766023392
I1215 11:21:46.185111  6331 layer_factory.hpp:77] Creating layer relu1_4
I1215 11:21:46.185119  6331 net.cpp:106] Creating Layer relu1_4
I1215 11:21:46.185127  6331 net.cpp:454] relu1_4 <- enet1_4
I1215 11:21:46.185138  6331 net.cpp:397] relu1_4 -> enet1_4 (in-place)
I1215 11:21:46.193826  6331 net.cpp:150] Setting up relu1_4
I1215 11:21:46.193855  6331 net.cpp:157] Top shape: 4 64 95 311 (7563520)
I1215 11:21:46.193861  6331 net.cpp:165] Memory required for data: 1796277472
I1215 11:21:46.193872  6331 layer_factory.hpp:77] Creating layer enet1_4_relu1_4_0_split
I1215 11:21:46.193887  6331 net.cpp:106] Creating Layer enet1_4_relu1_4_0_split
I1215 11:21:46.193897  6331 net.cpp:454] enet1_4_relu1_4_0_split <- enet1_4
I1215 11:21:46.193907  6331 net.cpp:411] enet1_4_relu1_4_0_split -> enet1_4_relu1_4_0_split_0
I1215 11:21:46.193922  6331 net.cpp:411] enet1_4_relu1_4_0_split -> enet1_4_relu1_4_0_split_1
I1215 11:21:46.193999  6331 net.cpp:150] Setting up enet1_4_relu1_4_0_split
I1215 11:21:46.194015  6331 net.cpp:157] Top shape: 4 64 95 311 (7563520)
I1215 11:21:46.194022  6331 net.cpp:157] Top shape: 4 64 95 311 (7563520)
I1215 11:21:46.194028  6331 net.cpp:165] Memory required for data: 1856785632
I1215 11:21:46.194034  6331 layer_factory.hpp:77] Creating layer enet2_0_branch2a
I1215 11:21:46.194049  6331 net.cpp:106] Creating Layer enet2_0_branch2a
I1215 11:21:46.194057  6331 net.cpp:454] enet2_0_branch2a <- enet1_4_relu1_4_0_split_0
I1215 11:21:46.194072  6331 net.cpp:411] enet2_0_branch2a -> enet2_0_branch2a
I1215 11:21:46.198864  6331 net.cpp:150] Setting up enet2_0_branch2a
I1215 11:21:46.198895  6331 net.cpp:157] Top shape: 4 32 48 156 (958464)
I1215 11:21:46.198904  6331 net.cpp:165] Memory required for data: 1860619488
I1215 11:21:46.198915  6331 layer_factory.hpp:77] Creating layer bn2_0_branch2a
I1215 11:21:46.198935  6331 net.cpp:106] Creating Layer bn2_0_branch2a
I1215 11:21:46.198945  6331 net.cpp:454] bn2_0_branch2a <- enet2_0_branch2a
I1215 11:21:46.198956  6331 net.cpp:397] bn2_0_branch2a -> enet2_0_branch2a (in-place)
I1215 11:21:46.199355  6331 net.cpp:150] Setting up bn2_0_branch2a
I1215 11:21:46.199370  6331 net.cpp:157] Top shape: 4 32 48 156 (958464)
I1215 11:21:46.199378  6331 net.cpp:165] Memory required for data: 1864453344
I1215 11:21:46.199388  6331 layer_factory.hpp:77] Creating layer relu2_0_branch2a
I1215 11:21:46.199399  6331 net.cpp:106] Creating Layer relu2_0_branch2a
I1215 11:21:46.199406  6331 net.cpp:454] relu2_0_branch2a <- enet2_0_branch2a
I1215 11:21:46.199415  6331 net.cpp:397] relu2_0_branch2a -> enet2_0_branch2a (in-place)
I1215 11:21:46.200935  6331 net.cpp:150] Setting up relu2_0_branch2a
I1215 11:21:46.200956  6331 net.cpp:157] Top shape: 4 32 48 156 (958464)
I1215 11:21:46.200963  6331 net.cpp:165] Memory required for data: 1868287200
I1215 11:21:46.200974  6331 layer_factory.hpp:77] Creating layer enet2_0_branch2b
I1215 11:21:46.200994  6331 net.cpp:106] Creating Layer enet2_0_branch2b
I1215 11:21:46.201004  6331 net.cpp:454] enet2_0_branch2b <- enet2_0_branch2a
I1215 11:21:46.201016  6331 net.cpp:411] enet2_0_branch2b -> enet2_0_branch2b
I1215 11:21:46.204733  6331 net.cpp:150] Setting up enet2_0_branch2b
I1215 11:21:46.204768  6331 net.cpp:157] Top shape: 4 32 48 156 (958464)
I1215 11:21:46.204789  6331 net.cpp:165] Memory required for data: 1872121056
I1215 11:21:46.204802  6331 layer_factory.hpp:77] Creating layer bn2_0_branch2b
I1215 11:21:46.204819  6331 net.cpp:106] Creating Layer bn2_0_branch2b
I1215 11:21:46.204828  6331 net.cpp:454] bn2_0_branch2b <- enet2_0_branch2b
I1215 11:21:46.204841  6331 net.cpp:397] bn2_0_branch2b -> enet2_0_branch2b (in-place)
I1215 11:21:46.205236  6331 net.cpp:150] Setting up bn2_0_branch2b
I1215 11:21:46.205250  6331 net.cpp:157] Top shape: 4 32 48 156 (958464)
I1215 11:21:46.205257  6331 net.cpp:165] Memory required for data: 1875954912
I1215 11:21:46.205267  6331 layer_factory.hpp:77] Creating layer relu2_0_branch2b
I1215 11:21:46.205278  6331 net.cpp:106] Creating Layer relu2_0_branch2b
I1215 11:21:46.205286  6331 net.cpp:454] relu2_0_branch2b <- enet2_0_branch2b
I1215 11:21:46.205294  6331 net.cpp:397] relu2_0_branch2b -> enet2_0_branch2b (in-place)
I1215 11:21:46.206759  6331 net.cpp:150] Setting up relu2_0_branch2b
I1215 11:21:46.206779  6331 net.cpp:157] Top shape: 4 32 48 156 (958464)
I1215 11:21:46.206786  6331 net.cpp:165] Memory required for data: 1879788768
I1215 11:21:46.206796  6331 layer_factory.hpp:77] Creating layer enet2_0_branch2c
I1215 11:21:46.206816  6331 net.cpp:106] Creating Layer enet2_0_branch2c
I1215 11:21:46.206825  6331 net.cpp:454] enet2_0_branch2c <- enet2_0_branch2b
I1215 11:21:46.206842  6331 net.cpp:411] enet2_0_branch2c -> enet2_0_branch2c
I1215 11:21:46.211163  6331 net.cpp:150] Setting up enet2_0_branch2c
I1215 11:21:46.211181  6331 net.cpp:157] Top shape: 4 128 48 156 (3833856)
I1215 11:21:46.211189  6331 net.cpp:165] Memory required for data: 1895124192
I1215 11:21:46.211199  6331 layer_factory.hpp:77] Creating layer bn2_0_branch2c
I1215 11:21:46.211215  6331 net.cpp:106] Creating Layer bn2_0_branch2c
I1215 11:21:46.211223  6331 net.cpp:454] bn2_0_branch2c <- enet2_0_branch2c
I1215 11:21:46.211236  6331 net.cpp:397] bn2_0_branch2c -> enet2_0_branch2c (in-place)
I1215 11:21:46.211642  6331 net.cpp:150] Setting up bn2_0_branch2c
I1215 11:21:46.211658  6331 net.cpp:157] Top shape: 4 128 48 156 (3833856)
I1215 11:21:46.211664  6331 net.cpp:165] Memory required for data: 1910459616
I1215 11:21:46.211674  6331 layer_factory.hpp:77] Creating layer dropout2_0_branch2c
I1215 11:21:46.211685  6331 net.cpp:106] Creating Layer dropout2_0_branch2c
I1215 11:21:46.211693  6331 net.cpp:454] dropout2_0_branch2c <- enet2_0_branch2c
I1215 11:21:46.211702  6331 net.cpp:397] dropout2_0_branch2c -> enet2_0_branch2c (in-place)
I1215 11:21:46.211748  6331 net.cpp:150] Setting up dropout2_0_branch2c
I1215 11:21:46.211760  6331 net.cpp:157] Top shape: 4 128 48 156 (3833856)
I1215 11:21:46.211767  6331 net.cpp:165] Memory required for data: 1925795040
I1215 11:21:46.211774  6331 layer_factory.hpp:77] Creating layer enet2_0_branch1a
I1215 11:21:46.211793  6331 net.cpp:106] Creating Layer enet2_0_branch1a
I1215 11:21:46.211802  6331 net.cpp:454] enet2_0_branch1a <- enet1_4_relu1_4_0_split_1
I1215 11:21:46.211812  6331 net.cpp:411] enet2_0_branch1a -> enet2_0_branch1a
I1215 11:21:46.215674  6331 net.cpp:150] Setting up enet2_0_branch1a
I1215 11:21:46.215693  6331 net.cpp:157] Top shape: 4 128 95 311 (15127040)
I1215 11:21:46.215700  6331 net.cpp:165] Memory required for data: 1986303200
I1215 11:21:46.215710  6331 layer_factory.hpp:77] Creating layer bn2_0_branch1a
I1215 11:21:46.215725  6331 net.cpp:106] Creating Layer bn2_0_branch1a
I1215 11:21:46.215734  6331 net.cpp:454] bn2_0_branch1a <- enet2_0_branch1a
I1215 11:21:46.215747  6331 net.cpp:397] bn2_0_branch1a -> enet2_0_branch1a (in-place)
I1215 11:21:46.216194  6331 net.cpp:150] Setting up bn2_0_branch1a
I1215 11:21:46.216209  6331 net.cpp:157] Top shape: 4 128 95 311 (15127040)
I1215 11:21:46.216215  6331 net.cpp:165] Memory required for data: 2046811360
I1215 11:21:46.216226  6331 layer_factory.hpp:77] Creating layer pool2_0_branch1a
I1215 11:21:46.216234  6331 layer_factory.cpp:91] cuDNN does not support multiple tops. Using Caffe's own pooling layer.
I1215 11:21:46.216269  6331 net.cpp:106] Creating Layer pool2_0_branch1a
I1215 11:21:46.216276  6331 net.cpp:454] pool2_0_branch1a <- enet2_0_branch1a
I1215 11:21:46.216287  6331 net.cpp:411] pool2_0_branch1a -> pool2_0_branch1a
I1215 11:21:46.216300  6331 net.cpp:411] pool2_0_branch1a -> pool2_0_branch1a_mask
I1215 11:21:46.216382  6331 net.cpp:150] Setting up pool2_0_branch1a
I1215 11:21:46.216397  6331 net.cpp:157] Top shape: 4 128 48 156 (3833856)
I1215 11:21:46.216404  6331 net.cpp:157] Top shape: 4 128 48 156 (3833856)
I1215 11:21:46.216410  6331 net.cpp:165] Memory required for data: 2077482208
I1215 11:21:46.216418  6331 layer_factory.hpp:77] Creating layer enet2_0
I1215 11:21:46.216426  6331 net.cpp:106] Creating Layer enet2_0
I1215 11:21:46.216434  6331 net.cpp:454] enet2_0 <- pool2_0_branch1a
I1215 11:21:46.216441  6331 net.cpp:454] enet2_0 <- enet2_0_branch2c
I1215 11:21:46.216454  6331 net.cpp:411] enet2_0 -> enet2_0
I1215 11:21:46.216500  6331 net.cpp:150] Setting up enet2_0
I1215 11:21:46.216517  6331 net.cpp:157] Top shape: 4 128 48 156 (3833856)
I1215 11:21:46.216523  6331 net.cpp:165] Memory required for data: 2092817632
I1215 11:21:46.216531  6331 layer_factory.hpp:77] Creating layer relu2_0
I1215 11:21:46.216539  6331 net.cpp:106] Creating Layer relu2_0
I1215 11:21:46.216547  6331 net.cpp:454] relu2_0 <- enet2_0
I1215 11:21:46.216555  6331 net.cpp:397] relu2_0 -> enet2_0 (in-place)
I1215 11:21:46.220991  6331 net.cpp:150] Setting up relu2_0
I1215 11:21:46.221014  6331 net.cpp:157] Top shape: 4 128 48 156 (3833856)
I1215 11:21:46.221021  6331 net.cpp:165] Memory required for data: 2108153056
I1215 11:21:46.221031  6331 layer_factory.hpp:77] Creating layer enet2_0_relu2_0_0_split
I1215 11:21:46.221042  6331 net.cpp:106] Creating Layer enet2_0_relu2_0_0_split
I1215 11:21:46.221050  6331 net.cpp:454] enet2_0_relu2_0_0_split <- enet2_0
I1215 11:21:46.221062  6331 net.cpp:411] enet2_0_relu2_0_0_split -> enet2_0_relu2_0_0_split_0
I1215 11:21:46.221076  6331 net.cpp:411] enet2_0_relu2_0_0_split -> enet2_0_relu2_0_0_split_1
I1215 11:21:46.221151  6331 net.cpp:150] Setting up enet2_0_relu2_0_0_split
I1215 11:21:46.221164  6331 net.cpp:157] Top shape: 4 128 48 156 (3833856)
I1215 11:21:46.221173  6331 net.cpp:157] Top shape: 4 128 48 156 (3833856)
I1215 11:21:46.221179  6331 net.cpp:165] Memory required for data: 2138823904
I1215 11:21:46.221185  6331 layer_factory.hpp:77] Creating layer enet2_1_branch2a
I1215 11:21:46.221202  6331 net.cpp:106] Creating Layer enet2_1_branch2a
I1215 11:21:46.221210  6331 net.cpp:454] enet2_1_branch2a <- enet2_0_relu2_0_0_split_0
I1215 11:21:46.221221  6331 net.cpp:411] enet2_1_branch2a -> enet2_1_branch2a
I1215 11:21:46.224649  6331 net.cpp:150] Setting up enet2_1_branch2a
I1215 11:21:46.224668  6331 net.cpp:157] Top shape: 4 32 48 156 (958464)
I1215 11:21:46.224675  6331 net.cpp:165] Memory required for data: 2142657760
I1215 11:21:46.224685  6331 layer_factory.hpp:77] Creating layer bn2_1_branch2a
I1215 11:21:46.224701  6331 net.cpp:106] Creating Layer bn2_1_branch2a
I1215 11:21:46.224709  6331 net.cpp:454] bn2_1_branch2a <- enet2_1_branch2a
I1215 11:21:46.224723  6331 net.cpp:397] bn2_1_branch2a -> enet2_1_branch2a (in-place)
I1215 11:21:46.225144  6331 net.cpp:150] Setting up bn2_1_branch2a
I1215 11:21:46.225159  6331 net.cpp:157] Top shape: 4 32 48 156 (958464)
I1215 11:21:46.225165  6331 net.cpp:165] Memory required for data: 2146491616
I1215 11:21:46.225175  6331 layer_factory.hpp:77] Creating layer relu2_1_branch2a
I1215 11:21:46.225185  6331 net.cpp:106] Creating Layer relu2_1_branch2a
I1215 11:21:46.225193  6331 net.cpp:454] relu2_1_branch2a <- enet2_1_branch2a
I1215 11:21:46.225201  6331 net.cpp:397] relu2_1_branch2a -> enet2_1_branch2a (in-place)
I1215 11:21:46.226614  6331 net.cpp:150] Setting up relu2_1_branch2a
I1215 11:21:46.226632  6331 net.cpp:157] Top shape: 4 32 48 156 (958464)
I1215 11:21:46.226639  6331 net.cpp:165] Memory required for data: 2150325472
I1215 11:21:46.226649  6331 layer_factory.hpp:77] Creating layer enet2_1_branch2b
I1215 11:21:46.226676  6331 net.cpp:106] Creating Layer enet2_1_branch2b
I1215 11:21:46.226696  6331 net.cpp:454] enet2_1_branch2b <- enet2_1_branch2a
I1215 11:21:46.226711  6331 net.cpp:411] enet2_1_branch2b -> enet2_1_branch2b
I1215 11:21:46.230540  6331 net.cpp:150] Setting up enet2_1_branch2b
I1215 11:21:46.230562  6331 net.cpp:157] Top shape: 4 32 48 156 (958464)
I1215 11:21:46.230571  6331 net.cpp:165] Memory required for data: 2154159328
I1215 11:21:46.230582  6331 layer_factory.hpp:77] Creating layer bn2_1_branch2b
I1215 11:21:46.230598  6331 net.cpp:106] Creating Layer bn2_1_branch2b
I1215 11:21:46.230607  6331 net.cpp:454] bn2_1_branch2b <- enet2_1_branch2b
I1215 11:21:46.230620  6331 net.cpp:397] bn2_1_branch2b -> enet2_1_branch2b (in-place)
I1215 11:21:46.231053  6331 net.cpp:150] Setting up bn2_1_branch2b
I1215 11:21:46.231067  6331 net.cpp:157] Top shape: 4 32 48 156 (958464)
I1215 11:21:46.231075  6331 net.cpp:165] Memory required for data: 2157993184
I1215 11:21:46.231084  6331 layer_factory.hpp:77] Creating layer relu2_1_branch2b
I1215 11:21:46.231096  6331 net.cpp:106] Creating Layer relu2_1_branch2b
I1215 11:21:46.231102  6331 net.cpp:454] relu2_1_branch2b <- enet2_1_branch2b
I1215 11:21:46.231112  6331 net.cpp:397] relu2_1_branch2b -> enet2_1_branch2b (in-place)
I1215 11:21:46.232620  6331 net.cpp:150] Setting up relu2_1_branch2b
I1215 11:21:46.232637  6331 net.cpp:157] Top shape: 4 32 48 156 (958464)
I1215 11:21:46.232645  6331 net.cpp:165] Memory required for data: 2161827040
I1215 11:21:46.232655  6331 layer_factory.hpp:77] Creating layer enet2_1_branch2c
I1215 11:21:46.232673  6331 net.cpp:106] Creating Layer enet2_1_branch2c
I1215 11:21:46.232681  6331 net.cpp:454] enet2_1_branch2c <- enet2_1_branch2b
I1215 11:21:46.232695  6331 net.cpp:411] enet2_1_branch2c -> enet2_1_branch2c
I1215 11:21:46.236296  6331 net.cpp:150] Setting up enet2_1_branch2c
I1215 11:21:46.236325  6331 net.cpp:157] Top shape: 4 128 48 156 (3833856)
I1215 11:21:46.236335  6331 net.cpp:165] Memory required for data: 2177162464
I1215 11:21:46.236344  6331 layer_factory.hpp:77] Creating layer bn2_1_branch2c
I1215 11:21:46.236362  6331 net.cpp:106] Creating Layer bn2_1_branch2c
I1215 11:21:46.236371  6331 net.cpp:454] bn2_1_branch2c <- enet2_1_branch2c
I1215 11:21:46.236382  6331 net.cpp:397] bn2_1_branch2c -> enet2_1_branch2c (in-place)
I1215 11:21:46.236804  6331 net.cpp:150] Setting up bn2_1_branch2c
I1215 11:21:46.236819  6331 net.cpp:157] Top shape: 4 128 48 156 (3833856)
I1215 11:21:46.236825  6331 net.cpp:165] Memory required for data: 2192497888
I1215 11:21:46.236835  6331 layer_factory.hpp:77] Creating layer dropout2_1_branch2c
I1215 11:21:46.236846  6331 net.cpp:106] Creating Layer dropout2_1_branch2c
I1215 11:21:46.236853  6331 net.cpp:454] dropout2_1_branch2c <- enet2_1_branch2c
I1215 11:21:46.236862  6331 net.cpp:397] dropout2_1_branch2c -> enet2_1_branch2c (in-place)
I1215 11:21:46.236915  6331 net.cpp:150] Setting up dropout2_1_branch2c
I1215 11:21:46.236929  6331 net.cpp:157] Top shape: 4 128 48 156 (3833856)
I1215 11:21:46.236935  6331 net.cpp:165] Memory required for data: 2207833312
I1215 11:21:46.236943  6331 layer_factory.hpp:77] Creating layer enet2_1
I1215 11:21:46.236953  6331 net.cpp:106] Creating Layer enet2_1
I1215 11:21:46.236968  6331 net.cpp:454] enet2_1 <- enet2_0_relu2_0_0_split_1
I1215 11:21:46.236976  6331 net.cpp:454] enet2_1 <- enet2_1_branch2c
I1215 11:21:46.236985  6331 net.cpp:411] enet2_1 -> enet2_1
I1215 11:21:46.237035  6331 net.cpp:150] Setting up enet2_1
I1215 11:21:46.237047  6331 net.cpp:157] Top shape: 4 128 48 156 (3833856)
I1215 11:21:46.237053  6331 net.cpp:165] Memory required for data: 2223168736
I1215 11:21:46.237061  6331 layer_factory.hpp:77] Creating layer relu2_1
I1215 11:21:46.237073  6331 net.cpp:106] Creating Layer relu2_1
I1215 11:21:46.237081  6331 net.cpp:454] relu2_1 <- enet2_1
I1215 11:21:46.237092  6331 net.cpp:397] relu2_1 -> enet2_1 (in-place)
I1215 11:21:46.242028  6331 net.cpp:150] Setting up relu2_1
I1215 11:21:46.242055  6331 net.cpp:157] Top shape: 4 128 48 156 (3833856)
I1215 11:21:46.242089  6331 net.cpp:165] Memory required for data: 2238504160
I1215 11:21:46.242101  6331 layer_factory.hpp:77] Creating layer enet2_1_relu2_1_0_split
I1215 11:21:46.242115  6331 net.cpp:106] Creating Layer enet2_1_relu2_1_0_split
I1215 11:21:46.242125  6331 net.cpp:454] enet2_1_relu2_1_0_split <- enet2_1
I1215 11:21:46.242137  6331 net.cpp:411] enet2_1_relu2_1_0_split -> enet2_1_relu2_1_0_split_0
I1215 11:21:46.242151  6331 net.cpp:411] enet2_1_relu2_1_0_split -> enet2_1_relu2_1_0_split_1
I1215 11:21:46.242233  6331 net.cpp:150] Setting up enet2_1_relu2_1_0_split
I1215 11:21:46.242246  6331 net.cpp:157] Top shape: 4 128 48 156 (3833856)
I1215 11:21:46.242254  6331 net.cpp:157] Top shape: 4 128 48 156 (3833856)
I1215 11:21:46.242260  6331 net.cpp:165] Memory required for data: 2269175008
I1215 11:21:46.242267  6331 layer_factory.hpp:77] Creating layer enet2_2_branch2a
I1215 11:21:46.242287  6331 net.cpp:106] Creating Layer enet2_2_branch2a
I1215 11:21:46.242295  6331 net.cpp:454] enet2_2_branch2a <- enet2_1_relu2_1_0_split_0
I1215 11:21:46.242305  6331 net.cpp:411] enet2_2_branch2a -> enet2_2_branch2a
I1215 11:21:46.246984  6331 net.cpp:150] Setting up enet2_2_branch2a
I1215 11:21:46.247005  6331 net.cpp:157] Top shape: 4 32 48 156 (958464)
I1215 11:21:46.247014  6331 net.cpp:165] Memory required for data: 2273008864
I1215 11:21:46.247023  6331 layer_factory.hpp:77] Creating layer bn2_2_branch2a
I1215 11:21:46.247036  6331 net.cpp:106] Creating Layer bn2_2_branch2a
I1215 11:21:46.247045  6331 net.cpp:454] bn2_2_branch2a <- enet2_2_branch2a
I1215 11:21:46.247058  6331 net.cpp:397] bn2_2_branch2a -> enet2_2_branch2a (in-place)
I1215 11:21:46.247519  6331 net.cpp:150] Setting up bn2_2_branch2a
I1215 11:21:46.247534  6331 net.cpp:157] Top shape: 4 32 48 156 (958464)
I1215 11:21:46.247540  6331 net.cpp:165] Memory required for data: 2276842720
I1215 11:21:46.247551  6331 layer_factory.hpp:77] Creating layer relu2_2_branch2a
I1215 11:21:46.247565  6331 net.cpp:106] Creating Layer relu2_2_branch2a
I1215 11:21:46.247571  6331 net.cpp:454] relu2_2_branch2a <- enet2_2_branch2a
I1215 11:21:46.247581  6331 net.cpp:397] relu2_2_branch2a -> enet2_2_branch2a (in-place)
I1215 11:21:46.248976  6331 net.cpp:150] Setting up relu2_2_branch2a
I1215 11:21:46.248994  6331 net.cpp:157] Top shape: 4 32 48 156 (958464)
I1215 11:21:46.249001  6331 net.cpp:165] Memory required for data: 2280676576
I1215 11:21:46.249011  6331 layer_factory.hpp:77] Creating layer enet2_2_branch2b
I1215 11:21:46.249027  6331 net.cpp:106] Creating Layer enet2_2_branch2b
I1215 11:21:46.249035  6331 net.cpp:454] enet2_2_branch2b <- enet2_2_branch2a
I1215 11:21:46.249049  6331 net.cpp:411] enet2_2_branch2b -> enet2_2_branch2b
I1215 11:21:46.249765  6331 net.cpp:150] Setting up enet2_2_branch2b
I1215 11:21:46.249780  6331 net.cpp:157] Top shape: 4 32 48 156 (958464)
I1215 11:21:46.249788  6331 net.cpp:165] Memory required for data: 2284510432
I1215 11:21:46.249797  6331 layer_factory.hpp:77] Creating layer bn2_2_branch2b
I1215 11:21:46.249812  6331 net.cpp:106] Creating Layer bn2_2_branch2b
I1215 11:21:46.249820  6331 net.cpp:454] bn2_2_branch2b <- enet2_2_branch2b
I1215 11:21:46.249832  6331 net.cpp:397] bn2_2_branch2b -> enet2_2_branch2b (in-place)
I1215 11:21:46.250263  6331 net.cpp:150] Setting up bn2_2_branch2b
I1215 11:21:46.250277  6331 net.cpp:157] Top shape: 4 32 48 156 (958464)
I1215 11:21:46.250284  6331 net.cpp:165] Memory required for data: 2288344288
I1215 11:21:46.250294  6331 layer_factory.hpp:77] Creating layer relu2_2_branch2b
I1215 11:21:46.250304  6331 net.cpp:106] Creating Layer relu2_2_branch2b
I1215 11:21:46.250311  6331 net.cpp:454] relu2_2_branch2b <- enet2_2_branch2b
I1215 11:21:46.250324  6331 net.cpp:397] relu2_2_branch2b -> enet2_2_branch2b (in-place)
I1215 11:21:46.251652  6331 net.cpp:150] Setting up relu2_2_branch2b
I1215 11:21:46.251668  6331 net.cpp:157] Top shape: 4 32 48 156 (958464)
I1215 11:21:46.251675  6331 net.cpp:165] Memory required for data: 2292178144
I1215 11:21:46.251684  6331 layer_factory.hpp:77] Creating layer enet2_2_branch2c
I1215 11:21:46.251720  6331 net.cpp:106] Creating Layer enet2_2_branch2c
I1215 11:21:46.251729  6331 net.cpp:454] enet2_2_branch2c <- enet2_2_branch2b
I1215 11:21:46.251744  6331 net.cpp:411] enet2_2_branch2c -> enet2_2_branch2c
I1215 11:21:46.255384  6331 net.cpp:150] Setting up enet2_2_branch2c
I1215 11:21:46.255403  6331 net.cpp:157] Top shape: 4 128 48 156 (3833856)
I1215 11:21:46.255411  6331 net.cpp:165] Memory required for data: 2307513568
I1215 11:21:46.255421  6331 layer_factory.hpp:77] Creating layer bn2_2_branch2c
I1215 11:21:46.255439  6331 net.cpp:106] Creating Layer bn2_2_branch2c
I1215 11:21:46.255446  6331 net.cpp:454] bn2_2_branch2c <- enet2_2_branch2c
I1215 11:21:46.255457  6331 net.cpp:397] bn2_2_branch2c -> enet2_2_branch2c (in-place)
I1215 11:21:46.255898  6331 net.cpp:150] Setting up bn2_2_branch2c
I1215 11:21:46.255913  6331 net.cpp:157] Top shape: 4 128 48 156 (3833856)
I1215 11:21:46.255919  6331 net.cpp:165] Memory required for data: 2322848992
I1215 11:21:46.255929  6331 layer_factory.hpp:77] Creating layer dropout2_2_branch2c
I1215 11:21:46.255940  6331 net.cpp:106] Creating Layer dropout2_2_branch2c
I1215 11:21:46.255947  6331 net.cpp:454] dropout2_2_branch2c <- enet2_2_branch2c
I1215 11:21:46.255957  6331 net.cpp:397] dropout2_2_branch2c -> enet2_2_branch2c (in-place)
I1215 11:21:46.256011  6331 net.cpp:150] Setting up dropout2_2_branch2c
I1215 11:21:46.256024  6331 net.cpp:157] Top shape: 4 128 48 156 (3833856)
I1215 11:21:46.256031  6331 net.cpp:165] Memory required for data: 2338184416
I1215 11:21:46.256037  6331 layer_factory.hpp:77] Creating layer enet2_2
I1215 11:21:46.256047  6331 net.cpp:106] Creating Layer enet2_2
I1215 11:21:46.256053  6331 net.cpp:454] enet2_2 <- enet2_1_relu2_1_0_split_1
I1215 11:21:46.256062  6331 net.cpp:454] enet2_2 <- enet2_2_branch2c
I1215 11:21:46.256074  6331 net.cpp:411] enet2_2 -> enet2_2
I1215 11:21:46.256124  6331 net.cpp:150] Setting up enet2_2
I1215 11:21:46.256136  6331 net.cpp:157] Top shape: 4 128 48 156 (3833856)
I1215 11:21:46.256144  6331 net.cpp:165] Memory required for data: 2353519840
I1215 11:21:46.256150  6331 layer_factory.hpp:77] Creating layer relu2_2
I1215 11:21:46.256162  6331 net.cpp:106] Creating Layer relu2_2
I1215 11:21:46.256170  6331 net.cpp:454] relu2_2 <- enet2_2
I1215 11:21:46.256181  6331 net.cpp:397] relu2_2 -> enet2_2 (in-place)
I1215 11:21:46.260717  6331 net.cpp:150] Setting up relu2_2
I1215 11:21:46.260736  6331 net.cpp:157] Top shape: 4 128 48 156 (3833856)
I1215 11:21:46.260743  6331 net.cpp:165] Memory required for data: 2368855264
I1215 11:21:46.260753  6331 layer_factory.hpp:77] Creating layer enet2_2_relu2_2_0_split
I1215 11:21:46.260764  6331 net.cpp:106] Creating Layer enet2_2_relu2_2_0_split
I1215 11:21:46.260771  6331 net.cpp:454] enet2_2_relu2_2_0_split <- enet2_2
I1215 11:21:46.260784  6331 net.cpp:411] enet2_2_relu2_2_0_split -> enet2_2_relu2_2_0_split_0
I1215 11:21:46.260809  6331 net.cpp:411] enet2_2_relu2_2_0_split -> enet2_2_relu2_2_0_split_1
I1215 11:21:46.260891  6331 net.cpp:150] Setting up enet2_2_relu2_2_0_split
I1215 11:21:46.260905  6331 net.cpp:157] Top shape: 4 128 48 156 (3833856)
I1215 11:21:46.260913  6331 net.cpp:157] Top shape: 4 128 48 156 (3833856)
I1215 11:21:46.260920  6331 net.cpp:165] Memory required for data: 2399526112
I1215 11:21:46.260926  6331 layer_factory.hpp:77] Creating layer enet2_3_branch2a
I1215 11:21:46.260944  6331 net.cpp:106] Creating Layer enet2_3_branch2a
I1215 11:21:46.260952  6331 net.cpp:454] enet2_3_branch2a <- enet2_2_relu2_2_0_split_0
I1215 11:21:46.260963  6331 net.cpp:411] enet2_3_branch2a -> enet2_3_branch2a
I1215 11:21:46.264488  6331 net.cpp:150] Setting up enet2_3_branch2a
I1215 11:21:46.264509  6331 net.cpp:157] Top shape: 4 32 48 156 (958464)
I1215 11:21:46.264518  6331 net.cpp:165] Memory required for data: 2403359968
I1215 11:21:46.264528  6331 layer_factory.hpp:77] Creating layer bn2_3_branch2a
I1215 11:21:46.264549  6331 net.cpp:106] Creating Layer bn2_3_branch2a
I1215 11:21:46.264559  6331 net.cpp:454] bn2_3_branch2a <- enet2_3_branch2a
I1215 11:21:46.264592  6331 net.cpp:397] bn2_3_branch2a -> enet2_3_branch2a (in-place)
I1215 11:21:46.265066  6331 net.cpp:150] Setting up bn2_3_branch2a
I1215 11:21:46.265080  6331 net.cpp:157] Top shape: 4 32 48 156 (958464)
I1215 11:21:46.265087  6331 net.cpp:165] Memory required for data: 2407193824
I1215 11:21:46.265097  6331 layer_factory.hpp:77] Creating layer relu2_3_branch2a
I1215 11:21:46.265108  6331 net.cpp:106] Creating Layer relu2_3_branch2a
I1215 11:21:46.265115  6331 net.cpp:454] relu2_3_branch2a <- enet2_3_branch2a
I1215 11:21:46.265127  6331 net.cpp:397] relu2_3_branch2a -> enet2_3_branch2a (in-place)
I1215 11:21:46.266655  6331 net.cpp:150] Setting up relu2_3_branch2a
I1215 11:21:46.266674  6331 net.cpp:157] Top shape: 4 32 48 156 (958464)
I1215 11:21:46.266681  6331 net.cpp:165] Memory required for data: 2411027680
I1215 11:21:46.266691  6331 layer_factory.hpp:77] Creating layer enet2_3_branch2b1
I1215 11:21:46.266713  6331 net.cpp:106] Creating Layer enet2_3_branch2b1
I1215 11:21:46.266721  6331 net.cpp:454] enet2_3_branch2b1 <- enet2_3_branch2a
I1215 11:21:46.266732  6331 net.cpp:411] enet2_3_branch2b1 -> enet2_3_branch2b1
I1215 11:21:46.270469  6331 net.cpp:150] Setting up enet2_3_branch2b1
I1215 11:21:46.270494  6331 net.cpp:157] Top shape: 4 32 48 156 (958464)
I1215 11:21:46.270503  6331 net.cpp:165] Memory required for data: 2414861536
I1215 11:21:46.270512  6331 layer_factory.hpp:77] Creating layer enet2_3_branch2b
I1215 11:21:46.270531  6331 net.cpp:106] Creating Layer enet2_3_branch2b
I1215 11:21:46.270540  6331 net.cpp:454] enet2_3_branch2b <- enet2_3_branch2b1
I1215 11:21:46.270555  6331 net.cpp:411] enet2_3_branch2b -> enet2_3_branch2b
I1215 11:21:46.274349  6331 net.cpp:150] Setting up enet2_3_branch2b
I1215 11:21:46.274376  6331 net.cpp:157] Top shape: 4 32 48 156 (958464)
I1215 11:21:46.274384  6331 net.cpp:165] Memory required for data: 2418695392
I1215 11:21:46.274396  6331 layer_factory.hpp:77] Creating layer bn2_3_branch2b
I1215 11:21:46.274415  6331 net.cpp:106] Creating Layer bn2_3_branch2b
I1215 11:21:46.274422  6331 net.cpp:454] bn2_3_branch2b <- enet2_3_branch2b
I1215 11:21:46.274433  6331 net.cpp:397] bn2_3_branch2b -> enet2_3_branch2b (in-place)
I1215 11:21:46.275907  6331 net.cpp:150] Setting up bn2_3_branch2b
I1215 11:21:46.275923  6331 net.cpp:157] Top shape: 4 32 48 156 (958464)
I1215 11:21:46.275928  6331 net.cpp:165] Memory required for data: 2422529248
I1215 11:21:46.275939  6331 layer_factory.hpp:77] Creating layer relu2_3_branch2b
I1215 11:21:46.275950  6331 net.cpp:106] Creating Layer relu2_3_branch2b
I1215 11:21:46.275957  6331 net.cpp:454] relu2_3_branch2b <- enet2_3_branch2b
I1215 11:21:46.275970  6331 net.cpp:397] relu2_3_branch2b -> enet2_3_branch2b (in-place)
I1215 11:21:46.277444  6331 net.cpp:150] Setting up relu2_3_branch2b
I1215 11:21:46.277462  6331 net.cpp:157] Top shape: 4 32 48 156 (958464)
I1215 11:21:46.277468  6331 net.cpp:165] Memory required for data: 2426363104
I1215 11:21:46.277479  6331 layer_factory.hpp:77] Creating layer enet2_3_branch2c
I1215 11:21:46.277501  6331 net.cpp:106] Creating Layer enet2_3_branch2c
I1215 11:21:46.277509  6331 net.cpp:454] enet2_3_branch2c <- enet2_3_branch2b
I1215 11:21:46.277520  6331 net.cpp:411] enet2_3_branch2c -> enet2_3_branch2c
I1215 11:21:46.284168  6331 net.cpp:150] Setting up enet2_3_branch2c
I1215 11:21:46.284186  6331 net.cpp:157] Top shape: 4 128 48 156 (3833856)
I1215 11:21:46.284193  6331 net.cpp:165] Memory required for data: 2441698528
I1215 11:21:46.284204  6331 layer_factory.hpp:77] Creating layer bn2_3_branch2c
I1215 11:21:46.284220  6331 net.cpp:106] Creating Layer bn2_3_branch2c
I1215 11:21:46.284229  6331 net.cpp:454] bn2_3_branch2c <- enet2_3_branch2c
I1215 11:21:46.284240  6331 net.cpp:397] bn2_3_branch2c -> enet2_3_branch2c (in-place)
I1215 11:21:46.285681  6331 net.cpp:150] Setting up bn2_3_branch2c
I1215 11:21:46.285698  6331 net.cpp:157] Top shape: 4 128 48 156 (3833856)
I1215 11:21:46.285706  6331 net.cpp:165] Memory required for data: 2457033952
I1215 11:21:46.285728  6331 layer_factory.hpp:77] Creating layer dropout2_3_branch2c
I1215 11:21:46.285753  6331 net.cpp:106] Creating Layer dropout2_3_branch2c
I1215 11:21:46.285760  6331 net.cpp:454] dropout2_3_branch2c <- enet2_3_branch2c
I1215 11:21:46.285773  6331 net.cpp:397] dropout2_3_branch2c -> enet2_3_branch2c (in-place)
I1215 11:21:46.285835  6331 net.cpp:150] Setting up dropout2_3_branch2c
I1215 11:21:46.285851  6331 net.cpp:157] Top shape: 4 128 48 156 (3833856)
I1215 11:21:46.285858  6331 net.cpp:165] Memory required for data: 2472369376
I1215 11:21:46.285866  6331 layer_factory.hpp:77] Creating layer enet2_3
I1215 11:21:46.285876  6331 net.cpp:106] Creating Layer enet2_3
I1215 11:21:46.285887  6331 net.cpp:454] enet2_3 <- enet2_2_relu2_2_0_split_1
I1215 11:21:46.285895  6331 net.cpp:454] enet2_3 <- enet2_3_branch2c
I1215 11:21:46.285904  6331 net.cpp:411] enet2_3 -> enet2_3
I1215 11:21:46.285959  6331 net.cpp:150] Setting up enet2_3
I1215 11:21:46.285974  6331 net.cpp:157] Top shape: 4 128 48 156 (3833856)
I1215 11:21:46.285979  6331 net.cpp:165] Memory required for data: 2487704800
I1215 11:21:46.285985  6331 layer_factory.hpp:77] Creating layer relu2_3
I1215 11:21:46.285997  6331 net.cpp:106] Creating Layer relu2_3
I1215 11:21:46.286005  6331 net.cpp:454] relu2_3 <- enet2_3
I1215 11:21:46.286013  6331 net.cpp:397] relu2_3 -> enet2_3 (in-place)
I1215 11:21:46.290463  6331 net.cpp:150] Setting up relu2_3
I1215 11:21:46.290482  6331 net.cpp:157] Top shape: 4 128 48 156 (3833856)
I1215 11:21:46.290489  6331 net.cpp:165] Memory required for data: 2503040224
I1215 11:21:46.290529  6331 layer_factory.hpp:77] Creating layer enet2_3_relu2_3_0_split
I1215 11:21:46.290544  6331 net.cpp:106] Creating Layer enet2_3_relu2_3_0_split
I1215 11:21:46.290551  6331 net.cpp:454] enet2_3_relu2_3_0_split <- enet2_3
I1215 11:21:46.290561  6331 net.cpp:411] enet2_3_relu2_3_0_split -> enet2_3_relu2_3_0_split_0
I1215 11:21:46.290575  6331 net.cpp:411] enet2_3_relu2_3_0_split -> enet2_3_relu2_3_0_split_1
I1215 11:21:46.290662  6331 net.cpp:150] Setting up enet2_3_relu2_3_0_split
I1215 11:21:46.290675  6331 net.cpp:157] Top shape: 4 128 48 156 (3833856)
I1215 11:21:46.290683  6331 net.cpp:157] Top shape: 4 128 48 156 (3833856)
I1215 11:21:46.290689  6331 net.cpp:165] Memory required for data: 2533711072
I1215 11:21:46.290695  6331 layer_factory.hpp:77] Creating layer enet2_4_branch2a
I1215 11:21:46.290715  6331 net.cpp:106] Creating Layer enet2_4_branch2a
I1215 11:21:46.290724  6331 net.cpp:454] enet2_4_branch2a <- enet2_3_relu2_3_0_split_0
I1215 11:21:46.290735  6331 net.cpp:411] enet2_4_branch2a -> enet2_4_branch2a
I1215 11:21:46.294486  6331 net.cpp:150] Setting up enet2_4_branch2a
I1215 11:21:46.294505  6331 net.cpp:157] Top shape: 4 32 48 156 (958464)
I1215 11:21:46.294512  6331 net.cpp:165] Memory required for data: 2537544928
I1215 11:21:46.294523  6331 layer_factory.hpp:77] Creating layer bn2_4_branch2a
I1215 11:21:46.294539  6331 net.cpp:106] Creating Layer bn2_4_branch2a
I1215 11:21:46.294548  6331 net.cpp:454] bn2_4_branch2a <- enet2_4_branch2a
I1215 11:21:46.294560  6331 net.cpp:397] bn2_4_branch2a -> enet2_4_branch2a (in-place)
I1215 11:21:46.295053  6331 net.cpp:150] Setting up bn2_4_branch2a
I1215 11:21:46.295068  6331 net.cpp:157] Top shape: 4 32 48 156 (958464)
I1215 11:21:46.295074  6331 net.cpp:165] Memory required for data: 2541378784
I1215 11:21:46.295084  6331 layer_factory.hpp:77] Creating layer relu2_4_branch2a
I1215 11:21:46.295095  6331 net.cpp:106] Creating Layer relu2_4_branch2a
I1215 11:21:46.295102  6331 net.cpp:454] relu2_4_branch2a <- enet2_4_branch2a
I1215 11:21:46.295111  6331 net.cpp:397] relu2_4_branch2a -> enet2_4_branch2a (in-place)
I1215 11:21:46.296517  6331 net.cpp:150] Setting up relu2_4_branch2a
I1215 11:21:46.296535  6331 net.cpp:157] Top shape: 4 32 48 156 (958464)
I1215 11:21:46.296541  6331 net.cpp:165] Memory required for data: 2545212640
I1215 11:21:46.296551  6331 layer_factory.hpp:77] Creating layer enet2_4_branch2b
I1215 11:21:46.296568  6331 net.cpp:106] Creating Layer enet2_4_branch2b
I1215 11:21:46.296586  6331 net.cpp:454] enet2_4_branch2b <- enet2_4_branch2a
I1215 11:21:46.296610  6331 net.cpp:411] enet2_4_branch2b -> enet2_4_branch2b
I1215 11:21:46.297382  6331 net.cpp:150] Setting up enet2_4_branch2b
I1215 11:21:46.297397  6331 net.cpp:157] Top shape: 4 32 48 156 (958464)
I1215 11:21:46.297405  6331 net.cpp:165] Memory required for data: 2549046496
I1215 11:21:46.297416  6331 layer_factory.hpp:77] Creating layer bn2_4_branch2b
I1215 11:21:46.297456  6331 net.cpp:106] Creating Layer bn2_4_branch2b
I1215 11:21:46.297464  6331 net.cpp:454] bn2_4_branch2b <- enet2_4_branch2b
I1215 11:21:46.297475  6331 net.cpp:397] bn2_4_branch2b -> enet2_4_branch2b (in-place)
I1215 11:21:46.297953  6331 net.cpp:150] Setting up bn2_4_branch2b
I1215 11:21:46.297967  6331 net.cpp:157] Top shape: 4 32 48 156 (958464)
I1215 11:21:46.297974  6331 net.cpp:165] Memory required for data: 2552880352
I1215 11:21:46.297986  6331 layer_factory.hpp:77] Creating layer relu2_4_branch2b
I1215 11:21:46.297994  6331 net.cpp:106] Creating Layer relu2_4_branch2b
I1215 11:21:46.298002  6331 net.cpp:454] relu2_4_branch2b <- enet2_4_branch2b
I1215 11:21:46.298010  6331 net.cpp:397] relu2_4_branch2b -> enet2_4_branch2b (in-place)
I1215 11:21:46.299428  6331 net.cpp:150] Setting up relu2_4_branch2b
I1215 11:21:46.299445  6331 net.cpp:157] Top shape: 4 32 48 156 (958464)
I1215 11:21:46.299453  6331 net.cpp:165] Memory required for data: 2556714208
I1215 11:21:46.299461  6331 layer_factory.hpp:77] Creating layer enet2_4_branch2c
I1215 11:21:46.299479  6331 net.cpp:106] Creating Layer enet2_4_branch2c
I1215 11:21:46.299486  6331 net.cpp:454] enet2_4_branch2c <- enet2_4_branch2b
I1215 11:21:46.299499  6331 net.cpp:411] enet2_4_branch2c -> enet2_4_branch2c
I1215 11:21:46.303338  6331 net.cpp:150] Setting up enet2_4_branch2c
I1215 11:21:46.303359  6331 net.cpp:157] Top shape: 4 128 48 156 (3833856)
I1215 11:21:46.303366  6331 net.cpp:165] Memory required for data: 2572049632
I1215 11:21:46.303376  6331 layer_factory.hpp:77] Creating layer bn2_4_branch2c
I1215 11:21:46.303392  6331 net.cpp:106] Creating Layer bn2_4_branch2c
I1215 11:21:46.303401  6331 net.cpp:454] bn2_4_branch2c <- enet2_4_branch2c
I1215 11:21:46.303414  6331 net.cpp:397] bn2_4_branch2c -> enet2_4_branch2c (in-place)
I1215 11:21:46.303905  6331 net.cpp:150] Setting up bn2_4_branch2c
I1215 11:21:46.303920  6331 net.cpp:157] Top shape: 4 128 48 156 (3833856)
I1215 11:21:46.303925  6331 net.cpp:165] Memory required for data: 2587385056
I1215 11:21:46.303936  6331 layer_factory.hpp:77] Creating layer dropout2_4_branch2c
I1215 11:21:46.303947  6331 net.cpp:106] Creating Layer dropout2_4_branch2c
I1215 11:21:46.303954  6331 net.cpp:454] dropout2_4_branch2c <- enet2_4_branch2c
I1215 11:21:46.303970  6331 net.cpp:397] dropout2_4_branch2c -> enet2_4_branch2c (in-place)
I1215 11:21:46.304025  6331 net.cpp:150] Setting up dropout2_4_branch2c
I1215 11:21:46.304039  6331 net.cpp:157] Top shape: 4 128 48 156 (3833856)
I1215 11:21:46.304045  6331 net.cpp:165] Memory required for data: 2602720480
I1215 11:21:46.304052  6331 layer_factory.hpp:77] Creating layer enet2_4
I1215 11:21:46.304061  6331 net.cpp:106] Creating Layer enet2_4
I1215 11:21:46.304069  6331 net.cpp:454] enet2_4 <- enet2_3_relu2_3_0_split_1
I1215 11:21:46.304077  6331 net.cpp:454] enet2_4 <- enet2_4_branch2c
I1215 11:21:46.304086  6331 net.cpp:411] enet2_4 -> enet2_4
I1215 11:21:46.304142  6331 net.cpp:150] Setting up enet2_4
I1215 11:21:46.304155  6331 net.cpp:157] Top shape: 4 128 48 156 (3833856)
I1215 11:21:46.304162  6331 net.cpp:165] Memory required for data: 2618055904
I1215 11:21:46.304168  6331 layer_factory.hpp:77] Creating layer relu2_4
I1215 11:21:46.304181  6331 net.cpp:106] Creating Layer relu2_4
I1215 11:21:46.304188  6331 net.cpp:454] relu2_4 <- enet2_4
I1215 11:21:46.304198  6331 net.cpp:397] relu2_4 -> enet2_4 (in-place)
I1215 11:21:46.309257  6331 net.cpp:150] Setting up relu2_4
I1215 11:21:46.309291  6331 net.cpp:157] Top shape: 4 128 48 156 (3833856)
I1215 11:21:46.309299  6331 net.cpp:165] Memory required for data: 2633391328
I1215 11:21:46.309329  6331 layer_factory.hpp:77] Creating layer enet2_4_relu2_4_0_split
I1215 11:21:46.309358  6331 net.cpp:106] Creating Layer enet2_4_relu2_4_0_split
I1215 11:21:46.309368  6331 net.cpp:454] enet2_4_relu2_4_0_split <- enet2_4
I1215 11:21:46.309381  6331 net.cpp:411] enet2_4_relu2_4_0_split -> enet2_4_relu2_4_0_split_0
I1215 11:21:46.309396  6331 net.cpp:411] enet2_4_relu2_4_0_split -> enet2_4_relu2_4_0_split_1
I1215 11:21:46.309491  6331 net.cpp:150] Setting up enet2_4_relu2_4_0_split
I1215 11:21:46.309505  6331 net.cpp:157] Top shape: 4 128 48 156 (3833856)
I1215 11:21:46.309514  6331 net.cpp:157] Top shape: 4 128 48 156 (3833856)
I1215 11:21:46.309520  6331 net.cpp:165] Memory required for data: 2664062176
I1215 11:21:46.309525  6331 layer_factory.hpp:77] Creating layer enet2_5_branch2a
I1215 11:21:46.309545  6331 net.cpp:106] Creating Layer enet2_5_branch2a
I1215 11:21:46.309553  6331 net.cpp:454] enet2_5_branch2a <- enet2_4_relu2_4_0_split_0
I1215 11:21:46.309564  6331 net.cpp:411] enet2_5_branch2a -> enet2_5_branch2a
I1215 11:21:46.313472  6331 net.cpp:150] Setting up enet2_5_branch2a
I1215 11:21:46.313498  6331 net.cpp:157] Top shape: 4 32 48 156 (958464)
I1215 11:21:46.313505  6331 net.cpp:165] Memory required for data: 2667896032
I1215 11:21:46.313515  6331 layer_factory.hpp:77] Creating layer bn2_5_branch2a
I1215 11:21:46.313535  6331 net.cpp:106] Creating Layer bn2_5_branch2a
I1215 11:21:46.313544  6331 net.cpp:454] bn2_5_branch2a <- enet2_5_branch2a
I1215 11:21:46.313558  6331 net.cpp:397] bn2_5_branch2a -> enet2_5_branch2a (in-place)
I1215 11:21:46.315037  6331 net.cpp:150] Setting up bn2_5_branch2a
I1215 11:21:46.315052  6331 net.cpp:157] Top shape: 4 32 48 156 (958464)
I1215 11:21:46.315058  6331 net.cpp:165] Memory required for data: 2671729888
I1215 11:21:46.315069  6331 layer_factory.hpp:77] Creating layer relu2_5_branch2a
I1215 11:21:46.315080  6331 net.cpp:106] Creating Layer relu2_5_branch2a
I1215 11:21:46.315088  6331 net.cpp:454] relu2_5_branch2a <- enet2_5_branch2a
I1215 11:21:46.315096  6331 net.cpp:397] relu2_5_branch2a -> enet2_5_branch2a (in-place)
I1215 11:21:46.316787  6331 net.cpp:150] Setting up relu2_5_branch2a
I1215 11:21:46.316826  6331 net.cpp:157] Top shape: 4 32 48 156 (958464)
I1215 11:21:46.316834  6331 net.cpp:165] Memory required for data: 2675563744
I1215 11:21:46.316849  6331 layer_factory.hpp:77] Creating layer enet2_5_branch2b
I1215 11:21:46.316880  6331 net.cpp:106] Creating Layer enet2_5_branch2b
I1215 11:21:46.316891  6331 net.cpp:454] enet2_5_branch2b <- enet2_5_branch2a
I1215 11:21:46.316907  6331 net.cpp:411] enet2_5_branch2b -> enet2_5_branch2b
I1215 11:21:46.321249  6331 net.cpp:150] Setting up enet2_5_branch2b
I1215 11:21:46.321274  6331 net.cpp:157] Top shape: 4 32 48 156 (958464)
I1215 11:21:46.321282  6331 net.cpp:165] Memory required for data: 2679397600
I1215 11:21:46.321295  6331 layer_factory.hpp:77] Creating layer bn2_5_branch2b
I1215 11:21:46.321313  6331 net.cpp:106] Creating Layer bn2_5_branch2b
I1215 11:21:46.321323  6331 net.cpp:454] bn2_5_branch2b <- enet2_5_branch2b
I1215 11:21:46.321338  6331 net.cpp:397] bn2_5_branch2b -> enet2_5_branch2b (in-place)
I1215 11:21:46.321900  6331 net.cpp:150] Setting up bn2_5_branch2b
I1215 11:21:46.321915  6331 net.cpp:157] Top shape: 4 32 48 156 (958464)
I1215 11:21:46.321923  6331 net.cpp:165] Memory required for data: 2683231456
I1215 11:21:46.321936  6331 layer_factory.hpp:77] Creating layer relu2_5_branch2b
I1215 11:21:46.321949  6331 net.cpp:106] Creating Layer relu2_5_branch2b
I1215 11:21:46.321956  6331 net.cpp:454] relu2_5_branch2b <- enet2_5_branch2b
I1215 11:21:46.321965  6331 net.cpp:397] relu2_5_branch2b -> enet2_5_branch2b (in-place)
I1215 11:21:46.323335  6331 net.cpp:150] Setting up relu2_5_branch2b
I1215 11:21:46.323354  6331 net.cpp:157] Top shape: 4 32 48 156 (958464)
I1215 11:21:46.323361  6331 net.cpp:165] Memory required for data: 2687065312
I1215 11:21:46.323371  6331 layer_factory.hpp:77] Creating layer enet2_5_branch2c
I1215 11:21:46.323393  6331 net.cpp:106] Creating Layer enet2_5_branch2c
I1215 11:21:46.323434  6331 net.cpp:454] enet2_5_branch2c <- enet2_5_branch2b
I1215 11:21:46.323448  6331 net.cpp:411] enet2_5_branch2c -> enet2_5_branch2c
I1215 11:21:46.327205  6331 net.cpp:150] Setting up enet2_5_branch2c
I1215 11:21:46.327230  6331 net.cpp:157] Top shape: 4 128 48 156 (3833856)
I1215 11:21:46.327237  6331 net.cpp:165] Memory required for data: 2702400736
I1215 11:21:46.327249  6331 layer_factory.hpp:77] Creating layer bn2_5_branch2c
I1215 11:21:46.327268  6331 net.cpp:106] Creating Layer bn2_5_branch2c
I1215 11:21:46.327277  6331 net.cpp:454] bn2_5_branch2c <- enet2_5_branch2c
I1215 11:21:46.327289  6331 net.cpp:397] bn2_5_branch2c -> enet2_5_branch2c (in-place)
I1215 11:21:46.327854  6331 net.cpp:150] Setting up bn2_5_branch2c
I1215 11:21:46.327870  6331 net.cpp:157] Top shape: 4 128 48 156 (3833856)
I1215 11:21:46.327877  6331 net.cpp:165] Memory required for data: 2717736160
I1215 11:21:46.327888  6331 layer_factory.hpp:77] Creating layer dropout2_5_branch2c
I1215 11:21:46.327900  6331 net.cpp:106] Creating Layer dropout2_5_branch2c
I1215 11:21:46.327908  6331 net.cpp:454] dropout2_5_branch2c <- enet2_5_branch2c
I1215 11:21:46.327917  6331 net.cpp:397] dropout2_5_branch2c -> enet2_5_branch2c (in-place)
I1215 11:21:46.327980  6331 net.cpp:150] Setting up dropout2_5_branch2c
I1215 11:21:46.327993  6331 net.cpp:157] Top shape: 4 128 48 156 (3833856)
I1215 11:21:46.328001  6331 net.cpp:165] Memory required for data: 2733071584
I1215 11:21:46.328006  6331 layer_factory.hpp:77] Creating layer enet2_5
I1215 11:21:46.328017  6331 net.cpp:106] Creating Layer enet2_5
I1215 11:21:46.328025  6331 net.cpp:454] enet2_5 <- enet2_4_relu2_4_0_split_1
I1215 11:21:46.328033  6331 net.cpp:454] enet2_5 <- enet2_5_branch2c
I1215 11:21:46.328047  6331 net.cpp:411] enet2_5 -> enet2_5
I1215 11:21:46.328119  6331 net.cpp:150] Setting up enet2_5
I1215 11:21:46.328135  6331 net.cpp:157] Top shape: 4 128 48 156 (3833856)
I1215 11:21:46.328140  6331 net.cpp:165] Memory required for data: 2748407008
I1215 11:21:46.328147  6331 layer_factory.hpp:77] Creating layer relu2_5
I1215 11:21:46.328161  6331 net.cpp:106] Creating Layer relu2_5
I1215 11:21:46.328169  6331 net.cpp:454] relu2_5 <- enet2_5
I1215 11:21:46.328178  6331 net.cpp:397] relu2_5 -> enet2_5 (in-place)
I1215 11:21:46.332381  6331 net.cpp:150] Setting up relu2_5
I1215 11:21:46.332409  6331 net.cpp:157] Top shape: 4 128 48 156 (3833856)
I1215 11:21:46.332417  6331 net.cpp:165] Memory required for data: 2763742432
I1215 11:21:46.332428  6331 layer_factory.hpp:77] Creating layer enet2_5_relu2_5_0_split
I1215 11:21:46.332442  6331 net.cpp:106] Creating Layer enet2_5_relu2_5_0_split
I1215 11:21:46.332450  6331 net.cpp:454] enet2_5_relu2_5_0_split <- enet2_5
I1215 11:21:46.332466  6331 net.cpp:411] enet2_5_relu2_5_0_split -> enet2_5_relu2_5_0_split_0
I1215 11:21:46.332480  6331 net.cpp:411] enet2_5_relu2_5_0_split -> enet2_5_relu2_5_0_split_1
I1215 11:21:46.332578  6331 net.cpp:150] Setting up enet2_5_relu2_5_0_split
I1215 11:21:46.332594  6331 net.cpp:157] Top shape: 4 128 48 156 (3833856)
I1215 11:21:46.332602  6331 net.cpp:157] Top shape: 4 128 48 156 (3833856)
I1215 11:21:46.332608  6331 net.cpp:165] Memory required for data: 2794413280
I1215 11:21:46.332615  6331 layer_factory.hpp:77] Creating layer enet2_6_branch2a
I1215 11:21:46.332639  6331 net.cpp:106] Creating Layer enet2_6_branch2a
I1215 11:21:46.332648  6331 net.cpp:454] enet2_6_branch2a <- enet2_5_relu2_5_0_split_0
I1215 11:21:46.332659  6331 net.cpp:411] enet2_6_branch2a -> enet2_6_branch2a
I1215 11:21:46.336699  6331 net.cpp:150] Setting up enet2_6_branch2a
I1215 11:21:46.336719  6331 net.cpp:157] Top shape: 4 32 48 156 (958464)
I1215 11:21:46.336727  6331 net.cpp:165] Memory required for data: 2798247136
I1215 11:21:46.336737  6331 layer_factory.hpp:77] Creating layer bn2_6_branch2a
I1215 11:21:46.336756  6331 net.cpp:106] Creating Layer bn2_6_branch2a
I1215 11:21:46.336765  6331 net.cpp:454] bn2_6_branch2a <- enet2_6_branch2a
I1215 11:21:46.336778  6331 net.cpp:397] bn2_6_branch2a -> enet2_6_branch2a (in-place)
I1215 11:21:46.337375  6331 net.cpp:150] Setting up bn2_6_branch2a
I1215 11:21:46.337390  6331 net.cpp:157] Top shape: 4 32 48 156 (958464)
I1215 11:21:46.337396  6331 net.cpp:165] Memory required for data: 2802080992
I1215 11:21:46.337407  6331 layer_factory.hpp:77] Creating layer relu2_6_branch2a
I1215 11:21:46.337419  6331 net.cpp:106] Creating Layer relu2_6_branch2a
I1215 11:21:46.337425  6331 net.cpp:454] relu2_6_branch2a <- enet2_6_branch2a
I1215 11:21:46.337435  6331 net.cpp:397] relu2_6_branch2a -> enet2_6_branch2a (in-place)
I1215 11:21:46.338965  6331 net.cpp:150] Setting up relu2_6_branch2a
I1215 11:21:46.338982  6331 net.cpp:157] Top shape: 4 32 48 156 (958464)
I1215 11:21:46.338989  6331 net.cpp:165] Memory required for data: 2805914848
I1215 11:21:46.338999  6331 layer_factory.hpp:77] Creating layer enet2_6_branch2b
I1215 11:21:46.339020  6331 net.cpp:106] Creating Layer enet2_6_branch2b
I1215 11:21:46.339028  6331 net.cpp:454] enet2_6_branch2b <- enet2_6_branch2a
I1215 11:21:46.339042  6331 net.cpp:411] enet2_6_branch2b -> enet2_6_branch2b
I1215 11:21:46.339905  6331 net.cpp:150] Setting up enet2_6_branch2b
I1215 11:21:46.339920  6331 net.cpp:157] Top shape: 4 32 48 156 (958464)
I1215 11:21:46.339926  6331 net.cpp:165] Memory required for data: 2809748704
I1215 11:21:46.339937  6331 layer_factory.hpp:77] Creating layer bn2_6_branch2b
I1215 11:21:46.339953  6331 net.cpp:106] Creating Layer bn2_6_branch2b
I1215 11:21:46.339962  6331 net.cpp:454] bn2_6_branch2b <- enet2_6_branch2b
I1215 11:21:46.339975  6331 net.cpp:397] bn2_6_branch2b -> enet2_6_branch2b (in-place)
I1215 11:21:46.340534  6331 net.cpp:150] Setting up bn2_6_branch2b
I1215 11:21:46.340549  6331 net.cpp:157] Top shape: 4 32 48 156 (958464)
I1215 11:21:46.340555  6331 net.cpp:165] Memory required for data: 2813582560
I1215 11:21:46.340566  6331 layer_factory.hpp:77] Creating layer relu2_6_branch2b
I1215 11:21:46.340589  6331 net.cpp:106] Creating Layer relu2_6_branch2b
I1215 11:21:46.340597  6331 net.cpp:454] relu2_6_branch2b <- enet2_6_branch2b
I1215 11:21:46.340606  6331 net.cpp:397] relu2_6_branch2b -> enet2_6_branch2b (in-place)
I1215 11:21:46.341900  6331 net.cpp:150] Setting up relu2_6_branch2b
I1215 11:21:46.341919  6331 net.cpp:157] Top shape: 4 32 48 156 (958464)
I1215 11:21:46.341927  6331 net.cpp:165] Memory required for data: 2817416416
I1215 11:21:46.341935  6331 layer_factory.hpp:77] Creating layer enet2_6_branch2c
I1215 11:21:46.341955  6331 net.cpp:106] Creating Layer enet2_6_branch2c
I1215 11:21:46.341964  6331 net.cpp:454] enet2_6_branch2c <- enet2_6_branch2b
I1215 11:21:46.341976  6331 net.cpp:411] enet2_6_branch2c -> enet2_6_branch2c
I1215 11:21:46.345692  6331 net.cpp:150] Setting up enet2_6_branch2c
I1215 11:21:46.345715  6331 net.cpp:157] Top shape: 4 128 48 156 (3833856)
I1215 11:21:46.345722  6331 net.cpp:165] Memory required for data: 2832751840
I1215 11:21:46.345733  6331 layer_factory.hpp:77] Creating layer bn2_6_branch2c
I1215 11:21:46.345752  6331 net.cpp:106] Creating Layer bn2_6_branch2c
I1215 11:21:46.345762  6331 net.cpp:454] bn2_6_branch2c <- enet2_6_branch2c
I1215 11:21:46.345773  6331 net.cpp:397] bn2_6_branch2c -> enet2_6_branch2c (in-place)
I1215 11:21:46.346352  6331 net.cpp:150] Setting up bn2_6_branch2c
I1215 11:21:46.346367  6331 net.cpp:157] Top shape: 4 128 48 156 (3833856)
I1215 11:21:46.346374  6331 net.cpp:165] Memory required for data: 2848087264
I1215 11:21:46.346388  6331 layer_factory.hpp:77] Creating layer dropout2_6_branch2c
I1215 11:21:46.346400  6331 net.cpp:106] Creating Layer dropout2_6_branch2c
I1215 11:21:46.346407  6331 net.cpp:454] dropout2_6_branch2c <- enet2_6_branch2c
I1215 11:21:46.346417  6331 net.cpp:397] dropout2_6_branch2c -> enet2_6_branch2c (in-place)
I1215 11:21:46.346477  6331 net.cpp:150] Setting up dropout2_6_branch2c
I1215 11:21:46.346490  6331 net.cpp:157] Top shape: 4 128 48 156 (3833856)
I1215 11:21:46.346498  6331 net.cpp:165] Memory required for data: 2863422688
I1215 11:21:46.346503  6331 layer_factory.hpp:77] Creating layer enet2_6
I1215 11:21:46.346650  6331 net.cpp:106] Creating Layer enet2_6
I1215 11:21:46.346671  6331 net.cpp:454] enet2_6 <- enet2_5_relu2_5_0_split_1
I1215 11:21:46.346681  6331 net.cpp:454] enet2_6 <- enet2_6_branch2c
I1215 11:21:46.346860  6331 net.cpp:411] enet2_6 -> enet2_6
I1215 11:21:46.346921  6331 net.cpp:150] Setting up enet2_6
I1215 11:21:46.346935  6331 net.cpp:157] Top shape: 4 128 48 156 (3833856)
I1215 11:21:46.346941  6331 net.cpp:165] Memory required for data: 2878758112
I1215 11:21:46.346947  6331 layer_factory.hpp:77] Creating layer relu2_6
I1215 11:21:46.347060  6331 net.cpp:106] Creating Layer relu2_6
I1215 11:21:46.347074  6331 net.cpp:454] relu2_6 <- enet2_6
I1215 11:21:46.347084  6331 net.cpp:397] relu2_6 -> enet2_6 (in-place)
I1215 11:21:46.351811  6331 net.cpp:150] Setting up relu2_6
I1215 11:21:46.351841  6331 net.cpp:157] Top shape: 4 128 48 156 (3833856)
I1215 11:21:46.351848  6331 net.cpp:165] Memory required for data: 2894093536
I1215 11:21:46.351861  6331 layer_factory.hpp:77] Creating layer enet2_6_relu2_6_0_split
I1215 11:21:46.351877  6331 net.cpp:106] Creating Layer enet2_6_relu2_6_0_split
I1215 11:21:46.351886  6331 net.cpp:454] enet2_6_relu2_6_0_split <- enet2_6
I1215 11:21:46.351902  6331 net.cpp:411] enet2_6_relu2_6_0_split -> enet2_6_relu2_6_0_split_0
I1215 11:21:46.351917  6331 net.cpp:411] enet2_6_relu2_6_0_split -> enet2_6_relu2_6_0_split_1
I1215 11:21:46.352020  6331 net.cpp:150] Setting up enet2_6_relu2_6_0_split
I1215 11:21:46.352037  6331 net.cpp:157] Top shape: 4 128 48 156 (3833856)
I1215 11:21:46.352046  6331 net.cpp:157] Top shape: 4 128 48 156 (3833856)
I1215 11:21:46.352051  6331 net.cpp:165] Memory required for data: 2924764384
I1215 11:21:46.352058  6331 layer_factory.hpp:77] Creating layer enet2_7_branch2a
I1215 11:21:46.352082  6331 net.cpp:106] Creating Layer enet2_7_branch2a
I1215 11:21:46.352089  6331 net.cpp:454] enet2_7_branch2a <- enet2_6_relu2_6_0_split_0
I1215 11:21:46.352102  6331 net.cpp:411] enet2_7_branch2a -> enet2_7_branch2a
I1215 11:21:46.356003  6331 net.cpp:150] Setting up enet2_7_branch2a
I1215 11:21:46.356022  6331 net.cpp:157] Top shape: 4 32 48 156 (958464)
I1215 11:21:46.356029  6331 net.cpp:165] Memory required for data: 2928598240
I1215 11:21:46.356040  6331 layer_factory.hpp:77] Creating layer bn2_7_branch2a
I1215 11:21:46.356058  6331 net.cpp:106] Creating Layer bn2_7_branch2a
I1215 11:21:46.356066  6331 net.cpp:454] bn2_7_branch2a <- enet2_7_branch2a
I1215 11:21:46.356077  6331 net.cpp:397] bn2_7_branch2a -> enet2_7_branch2a (in-place)
I1215 11:21:46.356669  6331 net.cpp:150] Setting up bn2_7_branch2a
I1215 11:21:46.356684  6331 net.cpp:157] Top shape: 4 32 48 156 (958464)
I1215 11:21:46.356690  6331 net.cpp:165] Memory required for data: 2932432096
I1215 11:21:46.356701  6331 layer_factory.hpp:77] Creating layer relu2_7_branch2a
I1215 11:21:46.356714  6331 net.cpp:106] Creating Layer relu2_7_branch2a
I1215 11:21:46.356720  6331 net.cpp:454] relu2_7_branch2a <- enet2_7_branch2a
I1215 11:21:46.356729  6331 net.cpp:397] relu2_7_branch2a -> enet2_7_branch2a (in-place)
I1215 11:21:46.358101  6331 net.cpp:150] Setting up relu2_7_branch2a
I1215 11:21:46.358124  6331 net.cpp:157] Top shape: 4 32 48 156 (958464)
I1215 11:21:46.358131  6331 net.cpp:165] Memory required for data: 2936265952
I1215 11:21:46.358141  6331 layer_factory.hpp:77] Creating layer enet2_7_branch2b1
I1215 11:21:46.358160  6331 net.cpp:106] Creating Layer enet2_7_branch2b1
I1215 11:21:46.358168  6331 net.cpp:454] enet2_7_branch2b1 <- enet2_7_branch2a
I1215 11:21:46.358180  6331 net.cpp:411] enet2_7_branch2b1 -> enet2_7_branch2b1
I1215 11:21:46.361996  6331 net.cpp:150] Setting up enet2_7_branch2b1
I1215 11:21:46.362015  6331 net.cpp:157] Top shape: 4 32 48 156 (958464)
I1215 11:21:46.362021  6331 net.cpp:165] Memory required for data: 2940099808
I1215 11:21:46.362031  6331 layer_factory.hpp:77] Creating layer enet2_7_branch2b
I1215 11:21:46.362052  6331 net.cpp:106] Creating Layer enet2_7_branch2b
I1215 11:21:46.362061  6331 net.cpp:454] enet2_7_branch2b <- enet2_7_branch2b1
I1215 11:21:46.362085  6331 net.cpp:411] enet2_7_branch2b -> enet2_7_branch2b
I1215 11:21:46.365907  6331 net.cpp:150] Setting up enet2_7_branch2b
I1215 11:21:46.365926  6331 net.cpp:157] Top shape: 4 32 48 156 (958464)
I1215 11:21:46.365933  6331 net.cpp:165] Memory required for data: 2943933664
I1215 11:21:46.365944  6331 layer_factory.hpp:77] Creating layer bn2_7_branch2b
I1215 11:21:46.365962  6331 net.cpp:106] Creating Layer bn2_7_branch2b
I1215 11:21:46.365970  6331 net.cpp:454] bn2_7_branch2b <- enet2_7_branch2b
I1215 11:21:46.365981  6331 net.cpp:397] bn2_7_branch2b -> enet2_7_branch2b (in-place)
I1215 11:21:46.366592  6331 net.cpp:150] Setting up bn2_7_branch2b
I1215 11:21:46.366606  6331 net.cpp:157] Top shape: 4 32 48 156 (958464)
I1215 11:21:46.366613  6331 net.cpp:165] Memory required for data: 2947767520
I1215 11:21:46.366624  6331 layer_factory.hpp:77] Creating layer relu2_7_branch2b
I1215 11:21:46.366636  6331 net.cpp:106] Creating Layer relu2_7_branch2b
I1215 11:21:46.366642  6331 net.cpp:454] relu2_7_branch2b <- enet2_7_branch2b
I1215 11:21:46.366652  6331 net.cpp:397] relu2_7_branch2b -> enet2_7_branch2b (in-place)
I1215 11:21:46.368024  6331 net.cpp:150] Setting up relu2_7_branch2b
I1215 11:21:46.368044  6331 net.cpp:157] Top shape: 4 32 48 156 (958464)
I1215 11:21:46.368052  6331 net.cpp:165] Memory required for data: 2951601376
I1215 11:21:46.368062  6331 layer_factory.hpp:77] Creating layer enet2_7_branch2c
I1215 11:21:46.368080  6331 net.cpp:106] Creating Layer enet2_7_branch2c
I1215 11:21:46.368088  6331 net.cpp:454] enet2_7_branch2c <- enet2_7_branch2b
I1215 11:21:46.368100  6331 net.cpp:411] enet2_7_branch2c -> enet2_7_branch2c
I1215 11:21:46.372033  6331 net.cpp:150] Setting up enet2_7_branch2c
I1215 11:21:46.372052  6331 net.cpp:157] Top shape: 4 128 48 156 (3833856)
I1215 11:21:46.372061  6331 net.cpp:165] Memory required for data: 2966936800
I1215 11:21:46.372071  6331 layer_factory.hpp:77] Creating layer bn2_7_branch2c
I1215 11:21:46.372087  6331 net.cpp:106] Creating Layer bn2_7_branch2c
I1215 11:21:46.372094  6331 net.cpp:454] bn2_7_branch2c <- enet2_7_branch2c
I1215 11:21:46.372112  6331 net.cpp:397] bn2_7_branch2c -> enet2_7_branch2c (in-place)
I1215 11:21:46.372704  6331 net.cpp:150] Setting up bn2_7_branch2c
I1215 11:21:46.372720  6331 net.cpp:157] Top shape: 4 128 48 156 (3833856)
I1215 11:21:46.372726  6331 net.cpp:165] Memory required for data: 2982272224
I1215 11:21:46.372737  6331 layer_factory.hpp:77] Creating layer dropout2_7_branch2c
I1215 11:21:46.372750  6331 net.cpp:106] Creating Layer dropout2_7_branch2c
I1215 11:21:46.372756  6331 net.cpp:454] dropout2_7_branch2c <- enet2_7_branch2c
I1215 11:21:46.372766  6331 net.cpp:397] dropout2_7_branch2c -> enet2_7_branch2c (in-place)
I1215 11:21:46.372825  6331 net.cpp:150] Setting up dropout2_7_branch2c
I1215 11:21:46.372838  6331 net.cpp:157] Top shape: 4 128 48 156 (3833856)
I1215 11:21:46.372845  6331 net.cpp:165] Memory required for data: 2997607648
I1215 11:21:46.372853  6331 layer_factory.hpp:77] Creating layer enet2_7
I1215 11:21:46.372866  6331 net.cpp:106] Creating Layer enet2_7
I1215 11:21:46.372874  6331 net.cpp:454] enet2_7 <- enet2_6_relu2_6_0_split_1
I1215 11:21:46.372884  6331 net.cpp:454] enet2_7 <- enet2_7_branch2c
I1215 11:21:46.372892  6331 net.cpp:411] enet2_7 -> enet2_7
I1215 11:21:46.372956  6331 net.cpp:150] Setting up enet2_7
I1215 11:21:46.372968  6331 net.cpp:157] Top shape: 4 128 48 156 (3833856)
I1215 11:21:46.372974  6331 net.cpp:165] Memory required for data: 3012943072
I1215 11:21:46.372982  6331 layer_factory.hpp:77] Creating layer relu2_7
I1215 11:21:46.372990  6331 net.cpp:106] Creating Layer relu2_7
I1215 11:21:46.372997  6331 net.cpp:454] relu2_7 <- enet2_7
I1215 11:21:46.373010  6331 net.cpp:397] relu2_7 -> enet2_7 (in-place)
I1215 11:21:46.378024  6331 net.cpp:150] Setting up relu2_7
I1215 11:21:46.378051  6331 net.cpp:157] Top shape: 4 128 48 156 (3833856)
I1215 11:21:46.378057  6331 net.cpp:165] Memory required for data: 3028278496
I1215 11:21:46.378068  6331 layer_factory.hpp:77] Creating layer enet2_7_relu2_7_0_split
I1215 11:21:46.378105  6331 net.cpp:106] Creating Layer enet2_7_relu2_7_0_split
I1215 11:21:46.378119  6331 net.cpp:454] enet2_7_relu2_7_0_split <- enet2_7
I1215 11:21:46.378131  6331 net.cpp:411] enet2_7_relu2_7_0_split -> enet2_7_relu2_7_0_split_0
I1215 11:21:46.378147  6331 net.cpp:411] enet2_7_relu2_7_0_split -> enet2_7_relu2_7_0_split_1
I1215 11:21:46.378252  6331 net.cpp:150] Setting up enet2_7_relu2_7_0_split
I1215 11:21:46.378267  6331 net.cpp:157] Top shape: 4 128 48 156 (3833856)
I1215 11:21:46.378274  6331 net.cpp:157] Top shape: 4 128 48 156 (3833856)
I1215 11:21:46.378280  6331 net.cpp:165] Memory required for data: 3058949344
I1215 11:21:46.378288  6331 layer_factory.hpp:77] Creating layer enet2_8_branch2a
I1215 11:21:46.378306  6331 net.cpp:106] Creating Layer enet2_8_branch2a
I1215 11:21:46.378314  6331 net.cpp:454] enet2_8_branch2a <- enet2_7_relu2_7_0_split_0
I1215 11:21:46.378329  6331 net.cpp:411] enet2_8_branch2a -> enet2_8_branch2a
I1215 11:21:46.383018  6331 net.cpp:150] Setting up enet2_8_branch2a
I1215 11:21:46.383039  6331 net.cpp:157] Top shape: 4 32 48 156 (958464)
I1215 11:21:46.383047  6331 net.cpp:165] Memory required for data: 3062783200
I1215 11:21:46.383059  6331 layer_factory.hpp:77] Creating layer bn2_8_branch2a
I1215 11:21:46.383116  6331 net.cpp:106] Creating Layer bn2_8_branch2a
I1215 11:21:46.383127  6331 net.cpp:454] bn2_8_branch2a <- enet2_8_branch2a
I1215 11:21:46.383138  6331 net.cpp:397] bn2_8_branch2a -> enet2_8_branch2a (in-place)
I1215 11:21:46.384726  6331 net.cpp:150] Setting up bn2_8_branch2a
I1215 11:21:46.384745  6331 net.cpp:157] Top shape: 4 32 48 156 (958464)
I1215 11:21:46.384752  6331 net.cpp:165] Memory required for data: 3066617056
I1215 11:21:46.384764  6331 layer_factory.hpp:77] Creating layer relu2_8_branch2a
I1215 11:21:46.384775  6331 net.cpp:106] Creating Layer relu2_8_branch2a
I1215 11:21:46.384783  6331 net.cpp:454] relu2_8_branch2a <- enet2_8_branch2a
I1215 11:21:46.384796  6331 net.cpp:397] relu2_8_branch2a -> enet2_8_branch2a (in-place)
I1215 11:21:46.386162  6331 net.cpp:150] Setting up relu2_8_branch2a
I1215 11:21:46.386183  6331 net.cpp:157] Top shape: 4 32 48 156 (958464)
I1215 11:21:46.386189  6331 net.cpp:165] Memory required for data: 3070450912
I1215 11:21:46.386199  6331 layer_factory.hpp:77] Creating layer enet2_8_branch2b
I1215 11:21:46.386217  6331 net.cpp:106] Creating Layer enet2_8_branch2b
I1215 11:21:46.386224  6331 net.cpp:454] enet2_8_branch2b <- enet2_8_branch2a
I1215 11:21:46.386243  6331 net.cpp:411] enet2_8_branch2b -> enet2_8_branch2b
I1215 11:21:46.387131  6331 net.cpp:150] Setting up enet2_8_branch2b
I1215 11:21:46.387146  6331 net.cpp:157] Top shape: 4 32 48 156 (958464)
I1215 11:21:46.387153  6331 net.cpp:165] Memory required for data: 3074284768
I1215 11:21:46.387164  6331 layer_factory.hpp:77] Creating layer bn2_8_branch2b
I1215 11:21:46.387181  6331 net.cpp:106] Creating Layer bn2_8_branch2b
I1215 11:21:46.387188  6331 net.cpp:454] bn2_8_branch2b <- enet2_8_branch2b
I1215 11:21:46.387202  6331 net.cpp:397] bn2_8_branch2b -> enet2_8_branch2b (in-place)
I1215 11:21:46.387804  6331 net.cpp:150] Setting up bn2_8_branch2b
I1215 11:21:46.387819  6331 net.cpp:157] Top shape: 4 32 48 156 (958464)
I1215 11:21:46.387825  6331 net.cpp:165] Memory required for data: 3078118624
I1215 11:21:46.387845  6331 layer_factory.hpp:77] Creating layer relu2_8_branch2b
I1215 11:21:46.387856  6331 net.cpp:106] Creating Layer relu2_8_branch2b
I1215 11:21:46.387862  6331 net.cpp:454] relu2_8_branch2b <- enet2_8_branch2b
I1215 11:21:46.387872  6331 net.cpp:397] relu2_8_branch2b -> enet2_8_branch2b (in-place)
I1215 11:21:46.389235  6331 net.cpp:150] Setting up relu2_8_branch2b
I1215 11:21:46.389251  6331 net.cpp:157] Top shape: 4 32 48 156 (958464)
I1215 11:21:46.389258  6331 net.cpp:165] Memory required for data: 3081952480
I1215 11:21:46.389267  6331 layer_factory.hpp:77] Creating layer enet2_8_branch2c
I1215 11:21:46.389286  6331 net.cpp:106] Creating Layer enet2_8_branch2c
I1215 11:21:46.389294  6331 net.cpp:454] enet2_8_branch2c <- enet2_8_branch2b
I1215 11:21:46.389329  6331 net.cpp:411] enet2_8_branch2c -> enet2_8_branch2c
I1215 11:21:46.393527  6331 net.cpp:150] Setting up enet2_8_branch2c
I1215 11:21:46.393545  6331 net.cpp:157] Top shape: 4 128 48 156 (3833856)
I1215 11:21:46.393553  6331 net.cpp:165] Memory required for data: 3097287904
I1215 11:21:46.393563  6331 layer_factory.hpp:77] Creating layer bn2_8_branch2c
I1215 11:21:46.393580  6331 net.cpp:106] Creating Layer bn2_8_branch2c
I1215 11:21:46.393589  6331 net.cpp:454] bn2_8_branch2c <- enet2_8_branch2c
I1215 11:21:46.393599  6331 net.cpp:397] bn2_8_branch2c -> enet2_8_branch2c (in-place)
I1215 11:21:46.394191  6331 net.cpp:150] Setting up bn2_8_branch2c
I1215 11:21:46.394204  6331 net.cpp:157] Top shape: 4 128 48 156 (3833856)
I1215 11:21:46.394212  6331 net.cpp:165] Memory required for data: 3112623328
I1215 11:21:46.394222  6331 layer_factory.hpp:77] Creating layer dropout2_8_branch2c
I1215 11:21:46.394237  6331 net.cpp:106] Creating Layer dropout2_8_branch2c
I1215 11:21:46.394244  6331 net.cpp:454] dropout2_8_branch2c <- enet2_8_branch2c
I1215 11:21:46.394254  6331 net.cpp:397] dropout2_8_branch2c -> enet2_8_branch2c (in-place)
I1215 11:21:46.394315  6331 net.cpp:150] Setting up dropout2_8_branch2c
I1215 11:21:46.394328  6331 net.cpp:157] Top shape: 4 128 48 156 (3833856)
I1215 11:21:46.394335  6331 net.cpp:165] Memory required for data: 3127958752
I1215 11:21:46.394341  6331 layer_factory.hpp:77] Creating layer enet2_8
I1215 11:21:46.394351  6331 net.cpp:106] Creating Layer enet2_8
I1215 11:21:46.394358  6331 net.cpp:454] enet2_8 <- enet2_7_relu2_7_0_split_1
I1215 11:21:46.394367  6331 net.cpp:454] enet2_8 <- enet2_8_branch2c
I1215 11:21:46.394381  6331 net.cpp:411] enet2_8 -> enet2_8
I1215 11:21:46.394445  6331 net.cpp:150] Setting up enet2_8
I1215 11:21:46.394459  6331 net.cpp:157] Top shape: 4 128 48 156 (3833856)
I1215 11:21:46.394465  6331 net.cpp:165] Memory required for data: 3143294176
I1215 11:21:46.394471  6331 layer_factory.hpp:77] Creating layer relu2_8
I1215 11:21:46.394481  6331 net.cpp:106] Creating Layer relu2_8
I1215 11:21:46.394489  6331 net.cpp:454] relu2_8 <- enet2_8
I1215 11:21:46.394497  6331 net.cpp:397] relu2_8 -> enet2_8 (in-place)
I1215 11:21:46.398851  6331 net.cpp:150] Setting up relu2_8
I1215 11:21:46.398877  6331 net.cpp:157] Top shape: 4 128 48 156 (3833856)
I1215 11:21:46.398887  6331 net.cpp:165] Memory required for data: 3158629600
I1215 11:21:46.398900  6331 layer_factory.hpp:77] Creating layer enet2_8_relu2_8_0_split
I1215 11:21:46.398913  6331 net.cpp:106] Creating Layer enet2_8_relu2_8_0_split
I1215 11:21:46.398923  6331 net.cpp:454] enet2_8_relu2_8_0_split <- enet2_8
I1215 11:21:46.398939  6331 net.cpp:411] enet2_8_relu2_8_0_split -> enet2_8_relu2_8_0_split_0
I1215 11:21:46.398954  6331 net.cpp:411] enet2_8_relu2_8_0_split -> enet2_8_relu2_8_0_split_1
I1215 11:21:46.399060  6331 net.cpp:150] Setting up enet2_8_relu2_8_0_split
I1215 11:21:46.399078  6331 net.cpp:157] Top shape: 4 128 48 156 (3833856)
I1215 11:21:46.399087  6331 net.cpp:157] Top shape: 4 128 48 156 (3833856)
I1215 11:21:46.399093  6331 net.cpp:165] Memory required for data: 3189300448
I1215 11:21:46.399101  6331 layer_factory.hpp:77] Creating layer enet3_1_branch2a
I1215 11:21:46.399122  6331 net.cpp:106] Creating Layer enet3_1_branch2a
I1215 11:21:46.399130  6331 net.cpp:454] enet3_1_branch2a <- enet2_8_relu2_8_0_split_0
I1215 11:21:46.399142  6331 net.cpp:411] enet3_1_branch2a -> enet3_1_branch2a
I1215 11:21:46.403872  6331 net.cpp:150] Setting up enet3_1_branch2a
I1215 11:21:46.403890  6331 net.cpp:157] Top shape: 4 32 48 156 (958464)
I1215 11:21:46.403898  6331 net.cpp:165] Memory required for data: 3193134304
I1215 11:21:46.403908  6331 layer_factory.hpp:77] Creating layer bn3_1_branch2a
I1215 11:21:46.403925  6331 net.cpp:106] Creating Layer bn3_1_branch2a
I1215 11:21:46.403934  6331 net.cpp:454] bn3_1_branch2a <- enet3_1_branch2a
I1215 11:21:46.403947  6331 net.cpp:397] bn3_1_branch2a -> enet3_1_branch2a (in-place)
I1215 11:21:46.404574  6331 net.cpp:150] Setting up bn3_1_branch2a
I1215 11:21:46.404610  6331 net.cpp:157] Top shape: 4 32 48 156 (958464)
I1215 11:21:46.404618  6331 net.cpp:165] Memory required for data: 3196968160
I1215 11:21:46.404628  6331 layer_factory.hpp:77] Creating layer relu3_1_branch2a
I1215 11:21:46.404644  6331 net.cpp:106] Creating Layer relu3_1_branch2a
I1215 11:21:46.404650  6331 net.cpp:454] relu3_1_branch2a <- enet3_1_branch2a
I1215 11:21:46.404660  6331 net.cpp:397] relu3_1_branch2a -> enet3_1_branch2a (in-place)
I1215 11:21:46.406350  6331 net.cpp:150] Setting up relu3_1_branch2a
I1215 11:21:46.406371  6331 net.cpp:157] Top shape: 4 32 48 156 (958464)
I1215 11:21:46.406378  6331 net.cpp:165] Memory required for data: 3200802016
I1215 11:21:46.406388  6331 layer_factory.hpp:77] Creating layer enet3_1_branch2b
I1215 11:21:46.406409  6331 net.cpp:106] Creating Layer enet3_1_branch2b
I1215 11:21:46.406417  6331 net.cpp:454] enet3_1_branch2b <- enet3_1_branch2a
I1215 11:21:46.406431  6331 net.cpp:411] enet3_1_branch2b -> enet3_1_branch2b
I1215 11:21:46.410495  6331 net.cpp:150] Setting up enet3_1_branch2b
I1215 11:21:46.410514  6331 net.cpp:157] Top shape: 4 32 48 156 (958464)
I1215 11:21:46.410522  6331 net.cpp:165] Memory required for data: 3204635872
I1215 11:21:46.410534  6331 layer_factory.hpp:77] Creating layer bn3_1_branch2b
I1215 11:21:46.410552  6331 net.cpp:106] Creating Layer bn3_1_branch2b
I1215 11:21:46.410560  6331 net.cpp:454] bn3_1_branch2b <- enet3_1_branch2b
I1215 11:21:46.410574  6331 net.cpp:397] bn3_1_branch2b -> enet3_1_branch2b (in-place)
I1215 11:21:46.411186  6331 net.cpp:150] Setting up bn3_1_branch2b
I1215 11:21:46.411201  6331 net.cpp:157] Top shape: 4 32 48 156 (958464)
I1215 11:21:46.411211  6331 net.cpp:165] Memory required for data: 3208469728
I1215 11:21:46.411221  6331 layer_factory.hpp:77] Creating layer relu3_1_branch2b
I1215 11:21:46.411233  6331 net.cpp:106] Creating Layer relu3_1_branch2b
I1215 11:21:46.411264  6331 net.cpp:454] relu3_1_branch2b <- enet3_1_branch2b
I1215 11:21:46.411278  6331 net.cpp:397] relu3_1_branch2b -> enet3_1_branch2b (in-place)
I1215 11:21:46.412642  6331 net.cpp:150] Setting up relu3_1_branch2b
I1215 11:21:46.412660  6331 net.cpp:157] Top shape: 4 32 48 156 (958464)
I1215 11:21:46.412667  6331 net.cpp:165] Memory required for data: 3212303584
I1215 11:21:46.412678  6331 layer_factory.hpp:77] Creating layer enet3_1_branch2c
I1215 11:21:46.412696  6331 net.cpp:106] Creating Layer enet3_1_branch2c
I1215 11:21:46.412704  6331 net.cpp:454] enet3_1_branch2c <- enet3_1_branch2b
I1215 11:21:46.412719  6331 net.cpp:411] enet3_1_branch2c -> enet3_1_branch2c
I1215 11:21:46.417539  6331 net.cpp:150] Setting up enet3_1_branch2c
I1215 11:21:46.417558  6331 net.cpp:157] Top shape: 4 128 48 156 (3833856)
I1215 11:21:46.417567  6331 net.cpp:165] Memory required for data: 3227639008
I1215 11:21:46.417577  6331 layer_factory.hpp:77] Creating layer bn3_1_branch2c
I1215 11:21:46.417593  6331 net.cpp:106] Creating Layer bn3_1_branch2c
I1215 11:21:46.417601  6331 net.cpp:454] bn3_1_branch2c <- enet3_1_branch2c
I1215 11:21:46.417613  6331 net.cpp:397] bn3_1_branch2c -> enet3_1_branch2c (in-place)
I1215 11:21:46.418225  6331 net.cpp:150] Setting up bn3_1_branch2c
I1215 11:21:46.418239  6331 net.cpp:157] Top shape: 4 128 48 156 (3833856)
I1215 11:21:46.418246  6331 net.cpp:165] Memory required for data: 3242974432
I1215 11:21:46.418257  6331 layer_factory.hpp:77] Creating layer dropout3_1_branch2c
I1215 11:21:46.418269  6331 net.cpp:106] Creating Layer dropout3_1_branch2c
I1215 11:21:46.418277  6331 net.cpp:454] dropout3_1_branch2c <- enet3_1_branch2c
I1215 11:21:46.418285  6331 net.cpp:397] dropout3_1_branch2c -> enet3_1_branch2c (in-place)
I1215 11:21:46.418372  6331 net.cpp:150] Setting up dropout3_1_branch2c
I1215 11:21:46.418386  6331 net.cpp:157] Top shape: 4 128 48 156 (3833856)
I1215 11:21:46.418393  6331 net.cpp:165] Memory required for data: 3258309856
I1215 11:21:46.418401  6331 layer_factory.hpp:77] Creating layer enet3_1
I1215 11:21:46.418414  6331 net.cpp:106] Creating Layer enet3_1
I1215 11:21:46.418434  6331 net.cpp:454] enet3_1 <- enet2_8_relu2_8_0_split_1
I1215 11:21:46.418457  6331 net.cpp:454] enet3_1 <- enet3_1_branch2c
I1215 11:21:46.418468  6331 net.cpp:411] enet3_1 -> enet3_1
I1215 11:21:46.418534  6331 net.cpp:150] Setting up enet3_1
I1215 11:21:46.418547  6331 net.cpp:157] Top shape: 4 128 48 156 (3833856)
I1215 11:21:46.418555  6331 net.cpp:165] Memory required for data: 3273645280
I1215 11:21:46.418561  6331 layer_factory.hpp:77] Creating layer relu3_1
I1215 11:21:46.418575  6331 net.cpp:106] Creating Layer relu3_1
I1215 11:21:46.418582  6331 net.cpp:454] relu3_1 <- enet3_1
I1215 11:21:46.418596  6331 net.cpp:397] relu3_1 -> enet3_1 (in-place)
I1215 11:21:46.426118  6331 net.cpp:150] Setting up relu3_1
I1215 11:21:46.426147  6331 net.cpp:157] Top shape: 4 128 48 156 (3833856)
I1215 11:21:46.426154  6331 net.cpp:165] Memory required for data: 3288980704
I1215 11:21:46.426167  6331 layer_factory.hpp:77] Creating layer enet3_1_relu3_1_0_split
I1215 11:21:46.426182  6331 net.cpp:106] Creating Layer enet3_1_relu3_1_0_split
I1215 11:21:46.426190  6331 net.cpp:454] enet3_1_relu3_1_0_split <- enet3_1
I1215 11:21:46.426208  6331 net.cpp:411] enet3_1_relu3_1_0_split -> enet3_1_relu3_1_0_split_0
I1215 11:21:46.426223  6331 net.cpp:411] enet3_1_relu3_1_0_split -> enet3_1_relu3_1_0_split_1
I1215 11:21:46.426337  6331 net.cpp:150] Setting up enet3_1_relu3_1_0_split
I1215 11:21:46.426350  6331 net.cpp:157] Top shape: 4 128 48 156 (3833856)
I1215 11:21:46.426358  6331 net.cpp:157] Top shape: 4 128 48 156 (3833856)
I1215 11:21:46.426364  6331 net.cpp:165] Memory required for data: 3319651552
I1215 11:21:46.426372  6331 layer_factory.hpp:77] Creating layer enet3_2_branch2a
I1215 11:21:46.426393  6331 net.cpp:106] Creating Layer enet3_2_branch2a
I1215 11:21:46.426400  6331 net.cpp:454] enet3_2_branch2a <- enet3_1_relu3_1_0_split_0
I1215 11:21:46.426411  6331 net.cpp:411] enet3_2_branch2a -> enet3_2_branch2a
I1215 11:21:46.430352  6331 net.cpp:150] Setting up enet3_2_branch2a
I1215 11:21:46.430371  6331 net.cpp:157] Top shape: 4 32 48 156 (958464)
I1215 11:21:46.430378  6331 net.cpp:165] Memory required for data: 3323485408
I1215 11:21:46.430388  6331 layer_factory.hpp:77] Creating layer bn3_2_branch2a
I1215 11:21:46.430408  6331 net.cpp:106] Creating Layer bn3_2_branch2a
I1215 11:21:46.430415  6331 net.cpp:454] bn3_2_branch2a <- enet3_2_branch2a
I1215 11:21:46.430429  6331 net.cpp:397] bn3_2_branch2a -> enet3_2_branch2a (in-place)
I1215 11:21:46.431077  6331 net.cpp:150] Setting up bn3_2_branch2a
I1215 11:21:46.431092  6331 net.cpp:157] Top shape: 4 32 48 156 (958464)
I1215 11:21:46.431098  6331 net.cpp:165] Memory required for data: 3327319264
I1215 11:21:46.431108  6331 layer_factory.hpp:77] Creating layer relu3_2_branch2a
I1215 11:21:46.431119  6331 net.cpp:106] Creating Layer relu3_2_branch2a
I1215 11:21:46.431128  6331 net.cpp:454] relu3_2_branch2a <- enet3_2_branch2a
I1215 11:21:46.431136  6331 net.cpp:397] relu3_2_branch2a -> enet3_2_branch2a (in-place)
I1215 11:21:46.432544  6331 net.cpp:150] Setting up relu3_2_branch2a
I1215 11:21:46.432564  6331 net.cpp:157] Top shape: 4 32 48 156 (958464)
I1215 11:21:46.432570  6331 net.cpp:165] Memory required for data: 3331153120
I1215 11:21:46.432579  6331 layer_factory.hpp:77] Creating layer enet3_2_branch2b
I1215 11:21:46.432600  6331 net.cpp:106] Creating Layer enet3_2_branch2b
I1215 11:21:46.432608  6331 net.cpp:454] enet3_2_branch2b <- enet3_2_branch2a
I1215 11:21:46.432620  6331 net.cpp:411] enet3_2_branch2b -> enet3_2_branch2b
I1215 11:21:46.433585  6331 net.cpp:150] Setting up enet3_2_branch2b
I1215 11:21:46.433601  6331 net.cpp:157] Top shape: 4 32 48 156 (958464)
I1215 11:21:46.433607  6331 net.cpp:165] Memory required for data: 3334986976
I1215 11:21:46.433619  6331 layer_factory.hpp:77] Creating layer bn3_2_branch2b
I1215 11:21:46.433634  6331 net.cpp:106] Creating Layer bn3_2_branch2b
I1215 11:21:46.433642  6331 net.cpp:454] bn3_2_branch2b <- enet3_2_branch2b
I1215 11:21:46.433655  6331 net.cpp:397] bn3_2_branch2b -> enet3_2_branch2b (in-place)
I1215 11:21:46.434296  6331 net.cpp:150] Setting up bn3_2_branch2b
I1215 11:21:46.434321  6331 net.cpp:157] Top shape: 4 32 48 156 (958464)
I1215 11:21:46.434329  6331 net.cpp:165] Memory required for data: 3338820832
I1215 11:21:46.434340  6331 layer_factory.hpp:77] Creating layer relu3_2_branch2b
I1215 11:21:46.434350  6331 net.cpp:106] Creating Layer relu3_2_branch2b
I1215 11:21:46.434356  6331 net.cpp:454] relu3_2_branch2b <- enet3_2_branch2b
I1215 11:21:46.434365  6331 net.cpp:397] relu3_2_branch2b -> enet3_2_branch2b (in-place)
I1215 11:21:46.435745  6331 net.cpp:150] Setting up relu3_2_branch2b
I1215 11:21:46.435761  6331 net.cpp:157] Top shape: 4 32 48 156 (958464)
I1215 11:21:46.435768  6331 net.cpp:165] Memory required for data: 3342654688
I1215 11:21:46.435778  6331 layer_factory.hpp:77] Creating layer enet3_2_branch2c
I1215 11:21:46.435796  6331 net.cpp:106] Creating Layer enet3_2_branch2c
I1215 11:21:46.435804  6331 net.cpp:454] enet3_2_branch2c <- enet3_2_branch2b
I1215 11:21:46.435818  6331 net.cpp:411] enet3_2_branch2c -> enet3_2_branch2c
I1215 11:21:46.439932  6331 net.cpp:150] Setting up enet3_2_branch2c
I1215 11:21:46.439952  6331 net.cpp:157] Top shape: 4 128 48 156 (3833856)
I1215 11:21:46.439960  6331 net.cpp:165] Memory required for data: 3357990112
I1215 11:21:46.439970  6331 layer_factory.hpp:77] Creating layer bn3_2_branch2c
I1215 11:21:46.439990  6331 net.cpp:106] Creating Layer bn3_2_branch2c
I1215 11:21:46.439999  6331 net.cpp:454] bn3_2_branch2c <- enet3_2_branch2c
I1215 11:21:46.440012  6331 net.cpp:397] bn3_2_branch2c -> enet3_2_branch2c (in-place)
I1215 11:21:46.440668  6331 net.cpp:150] Setting up bn3_2_branch2c
I1215 11:21:46.440683  6331 net.cpp:157] Top shape: 4 128 48 156 (3833856)
I1215 11:21:46.440690  6331 net.cpp:165] Memory required for data: 3373325536
I1215 11:21:46.440701  6331 layer_factory.hpp:77] Creating layer dropout3_2_branch2c
I1215 11:21:46.440713  6331 net.cpp:106] Creating Layer dropout3_2_branch2c
I1215 11:21:46.440721  6331 net.cpp:454] dropout3_2_branch2c <- enet3_2_branch2c
I1215 11:21:46.440734  6331 net.cpp:397] dropout3_2_branch2c -> enet3_2_branch2c (in-place)
I1215 11:21:46.440799  6331 net.cpp:150] Setting up dropout3_2_branch2c
I1215 11:21:46.440814  6331 net.cpp:157] Top shape: 4 128 48 156 (3833856)
I1215 11:21:46.440819  6331 net.cpp:165] Memory required for data: 3388660960
I1215 11:21:46.440826  6331 layer_factory.hpp:77] Creating layer enet3_2
I1215 11:21:46.440836  6331 net.cpp:106] Creating Layer enet3_2
I1215 11:21:46.440843  6331 net.cpp:454] enet3_2 <- enet3_1_relu3_1_0_split_1
I1215 11:21:46.440852  6331 net.cpp:454] enet3_2 <- enet3_2_branch2c
I1215 11:21:46.440861  6331 net.cpp:411] enet3_2 -> enet3_2
I1215 11:21:46.440927  6331 net.cpp:150] Setting up enet3_2
I1215 11:21:46.440940  6331 net.cpp:157] Top shape: 4 128 48 156 (3833856)
I1215 11:21:46.440946  6331 net.cpp:165] Memory required for data: 3403996384
I1215 11:21:46.440953  6331 layer_factory.hpp:77] Creating layer relu3_2
I1215 11:21:46.440966  6331 net.cpp:106] Creating Layer relu3_2
I1215 11:21:46.440974  6331 net.cpp:454] relu3_2 <- enet3_2
I1215 11:21:46.440984  6331 net.cpp:397] relu3_2 -> enet3_2 (in-place)
I1215 11:21:46.446149  6331 net.cpp:150] Setting up relu3_2
I1215 11:21:46.446177  6331 net.cpp:157] Top shape: 4 128 48 156 (3833856)
I1215 11:21:46.446183  6331 net.cpp:165] Memory required for data: 3419331808
I1215 11:21:46.446194  6331 layer_factory.hpp:77] Creating layer enet3_2_relu3_2_0_split
I1215 11:21:46.446211  6331 net.cpp:106] Creating Layer enet3_2_relu3_2_0_split
I1215 11:21:46.446221  6331 net.cpp:454] enet3_2_relu3_2_0_split <- enet3_2
I1215 11:21:46.446233  6331 net.cpp:411] enet3_2_relu3_2_0_split -> enet3_2_relu3_2_0_split_0
I1215 11:21:46.446247  6331 net.cpp:411] enet3_2_relu3_2_0_split -> enet3_2_relu3_2_0_split_1
I1215 11:21:46.446363  6331 net.cpp:150] Setting up enet3_2_relu3_2_0_split
I1215 11:21:46.446377  6331 net.cpp:157] Top shape: 4 128 48 156 (3833856)
I1215 11:21:46.446385  6331 net.cpp:157] Top shape: 4 128 48 156 (3833856)
I1215 11:21:46.446403  6331 net.cpp:165] Memory required for data: 3450002656
I1215 11:21:46.446420  6331 layer_factory.hpp:77] Creating layer enet3_3_branch2a
I1215 11:21:46.446444  6331 net.cpp:106] Creating Layer enet3_3_branch2a
I1215 11:21:46.446451  6331 net.cpp:454] enet3_3_branch2a <- enet3_2_relu3_2_0_split_0
I1215 11:21:46.446462  6331 net.cpp:411] enet3_3_branch2a -> enet3_3_branch2a
I1215 11:21:46.450639  6331 net.cpp:150] Setting up enet3_3_branch2a
I1215 11:21:46.450662  6331 net.cpp:157] Top shape: 4 32 48 156 (958464)
I1215 11:21:46.450670  6331 net.cpp:165] Memory required for data: 3453836512
I1215 11:21:46.450680  6331 layer_factory.hpp:77] Creating layer bn3_3_branch2a
I1215 11:21:46.450698  6331 net.cpp:106] Creating Layer bn3_3_branch2a
I1215 11:21:46.450707  6331 net.cpp:454] bn3_3_branch2a <- enet3_3_branch2a
I1215 11:21:46.450721  6331 net.cpp:397] bn3_3_branch2a -> enet3_3_branch2a (in-place)
I1215 11:21:46.451413  6331 net.cpp:150] Setting up bn3_3_branch2a
I1215 11:21:46.451428  6331 net.cpp:157] Top shape: 4 32 48 156 (958464)
I1215 11:21:46.451436  6331 net.cpp:165] Memory required for data: 3457670368
I1215 11:21:46.451445  6331 layer_factory.hpp:77] Creating layer relu3_3_branch2a
I1215 11:21:46.451457  6331 net.cpp:106] Creating Layer relu3_3_branch2a
I1215 11:21:46.451473  6331 net.cpp:454] relu3_3_branch2a <- enet3_3_branch2a
I1215 11:21:46.451483  6331 net.cpp:397] relu3_3_branch2a -> enet3_3_branch2a (in-place)
I1215 11:21:46.452849  6331 net.cpp:150] Setting up relu3_3_branch2a
I1215 11:21:46.452868  6331 net.cpp:157] Top shape: 4 32 48 156 (958464)
I1215 11:21:46.452875  6331 net.cpp:165] Memory required for data: 3461504224
I1215 11:21:46.452886  6331 layer_factory.hpp:77] Creating layer enet3_3_branch2b1
I1215 11:21:46.452906  6331 net.cpp:106] Creating Layer enet3_3_branch2b1
I1215 11:21:46.452915  6331 net.cpp:454] enet3_3_branch2b1 <- enet3_3_branch2a
I1215 11:21:46.452926  6331 net.cpp:411] enet3_3_branch2b1 -> enet3_3_branch2b1
I1215 11:21:46.457809  6331 net.cpp:150] Setting up enet3_3_branch2b1
I1215 11:21:46.457833  6331 net.cpp:157] Top shape: 4 32 48 156 (958464)
I1215 11:21:46.457839  6331 net.cpp:165] Memory required for data: 3465338080
I1215 11:21:46.457850  6331 layer_factory.hpp:77] Creating layer enet3_3_branch2b
I1215 11:21:46.457873  6331 net.cpp:106] Creating Layer enet3_3_branch2b
I1215 11:21:46.457882  6331 net.cpp:454] enet3_3_branch2b <- enet3_3_branch2b1
I1215 11:21:46.457895  6331 net.cpp:411] enet3_3_branch2b -> enet3_3_branch2b
I1215 11:21:46.462124  6331 net.cpp:150] Setting up enet3_3_branch2b
I1215 11:21:46.462143  6331 net.cpp:157] Top shape: 4 32 48 156 (958464)
I1215 11:21:46.462151  6331 net.cpp:165] Memory required for data: 3469171936
I1215 11:21:46.462162  6331 layer_factory.hpp:77] Creating layer bn3_3_branch2b
I1215 11:21:46.462180  6331 net.cpp:106] Creating Layer bn3_3_branch2b
I1215 11:21:46.462188  6331 net.cpp:454] bn3_3_branch2b <- enet3_3_branch2b
I1215 11:21:46.462203  6331 net.cpp:397] bn3_3_branch2b -> enet3_3_branch2b (in-place)
…
I1215 11:21:46.536931  6331 net.cpp:411] enet3_6_relu3_6_0_split -> enet3_6_relu3_6_0_split_1
I1215 11:21:46.537000  6331 net.cpp:150] Setting up enet3_6_relu3_6_0_split
I1215 11:21:46.537014  6331 net.cpp:157] Top shape: 4 128 48 156 (3833856)
I1215 11:21:46.537022  6331 net.cpp:157] Top shape: 4 128 48 156 (3833856)
I1215 11:21:46.537029  6331 net.cpp:165] Memory required for data: 3975240928
I1215 11:21:46.537035  6331 layer_factory.hpp:77] Creating layer enet3_7_branch2a
I1215 11:21:46.537053  6331 net.cpp:106] Creating Layer enet3_7_branch2a
I1215 11:21:46.537061  6331 net.cpp:454] enet3_7_branch2a <- enet3_6_relu3_6_0_split_0
I1215 11:21:46.537081  6331 net.cpp:411] enet3_7_branch2a -> enet3_7_branch2a
I1215 11:21:46.540879  6331 net.cpp:150] Setting up enet3_7_branch2a
I1215 11:21:46.540899  6331 net.cpp:157] Top shape: 4 32 48 156 (958464)
I1215 11:21:46.540905  6331 net.cpp:165] Memory required for data: 3979074784
I1215 11:21:46.540915  6331 layer_factory.hpp:77] Creating layer bn3_7_branch2a
I1215 11:21:46.540932  6331 net.cpp:106] Creating Layer bn3_7_branch2a
I1215 11:21:46.540941  6331 net.cpp:454] bn3_7_branch2a <- enet3_7_branch2a
I1215 11:21:46.540951  6331 net.cpp:397] bn3_7_branch2a -> enet3_7_branch2a (in-place)
I1215 11:21:46.541298  6331 net.cpp:150] Setting up bn3_7_branch2a
I1215 11:21:46.541312  6331 net.cpp:157] Top shape: 4 32 48 156 (958464)
I1215 11:21:46.541319  6331 net.cpp:165] Memory required for data: 3982908640
I1215 11:21:46.541329  6331 layer_factory.hpp:77] Creating layer relu3_7_branch2a
I1215 11:21:46.541340  6331 net.cpp:106] Creating Layer relu3_7_branch2a
I1215 11:21:46.541347  6331 net.cpp:454] relu3_7_branch2a <- enet3_7_branch2a
I1215 11:21:46.541359  6331 net.cpp:397] relu3_7_branch2a -> enet3_7_branch2a (in-place)
I1215 11:21:46.542821  6331 net.cpp:150] Setting up relu3_7_branch2a
I1215 11:21:46.542839  6331 net.cpp:157] Top shape: 4 32 48 156 (958464)
I1215 11:21:46.542845  6331 net.cpp:165] Memory required for data: 3986742496
I1215 11:21:46.542865  6331 layer_factory.hpp:77] Creating layer enet3_7_branch2b1
I1215 11:21:46.542897  6331 net.cpp:106] Creating Layer enet3_7_branch2b1
I1215 11:21:46.542906  6331 net.cpp:454] enet3_7_branch2b1 <- enet3_7_branch2a
I1215 11:21:46.542917  6331 net.cpp:411] enet3_7_branch2b1 -> enet3_7_branch2b1
I1215 11:21:46.546768  6331 net.cpp:150] Setting up enet3_7_branch2b1
I1215 11:21:46.546790  6331 net.cpp:157] Top shape: 4 32 48 156 (958464)
I1215 11:21:46.546798  6331 net.cpp:165] Memory required for data: 3990576352
I1215 11:21:46.546808  6331 layer_factory.hpp:77] Creating layer enet3_7_branch2b
I1215 11:21:46.546826  6331 net.cpp:106] Creating Layer enet3_7_branch2b
I1215 11:21:46.546835  6331 net.cpp:454] enet3_7_branch2b <- enet3_7_branch2b1
I1215 11:21:46.546846  6331 net.cpp:411] enet3_7_branch2b -> enet3_7_branch2b
I1215 11:21:46.550550  6331 net.cpp:150] Setting up enet3_7_branch2b
I1215 11:21:46.550568  6331 net.cpp:157] Top shape: 4 32 48 156 (958464)
I1215 11:21:46.550575  6331 net.cpp:165] Memory required for data: 3994410208
I1215 11:21:46.550586  6331 layer_factory.hpp:77] Creating layer bn3_7_branch2b
I1215 11:21:46.550776  6331 net.cpp:106] Creating Layer bn3_7_branch2b
I1215 11:21:46.550788  6331 net.cpp:454] bn3_7_branch2b <- enet3_7_branch2b
I1215 11:21:46.550802  6331 net.cpp:397] bn3_7_branch2b -> enet3_7_branch2b (in-place)
I1215 11:21:46.551138  6331 net.cpp:150] Setting up bn3_7_branch2b
I1215 11:21:46.551152  6331 net.cpp:157] Top shape: 4 32 48 156 (958464)
I1215 11:21:46.551159  6331 net.cpp:165] Memory required for data: 3998244064
I1215 11:21:46.551170  6331 layer_factory.hpp:77] Creating layer relu3_7_branch2b
I1215 11:21:46.551182  6331 net.cpp:106] Creating Layer relu3_7_branch2b
I1215 11:21:46.551188  6331 net.cpp:454] relu3_7_branch2b <- enet3_7_branch2b
I1215 11:21:46.551198  6331 net.cpp:397] relu3_7_branch2b -> enet3_7_branch2b (in-place)
I1215 11:21:46.553519  6331 net.cpp:150] Setting up relu3_7_branch2b
I1215 11:21:46.553537  6331 net.cpp:157] Top shape: 4 32 48 156 (958464)
I1215 11:21:46.553544  6331 net.cpp:165] Memory required for data: 4002077920
I1215 11:21:46.553553  6331 layer_factory.hpp:77] Creating layer enet3_7_branch2c
I1215 11:21:46.553571  6331 net.cpp:106] Creating Layer enet3_7_branch2c
I1215 11:21:46.553580  6331 net.cpp:454] enet3_7_branch2c <- enet3_7_branch2b
I1215 11:21:46.553593  6331 net.cpp:411] enet3_7_branch2c -> enet3_7_branch2c
I1215 11:21:46.557442  6331 net.cpp:150] Setting up enet3_7_branch2c
I1215 11:21:46.557461  6331 net.cpp:157] Top shape: 4 128 48 156 (3833856)
I1215 11:21:46.557468  6331 net.cpp:165] Memory required for data: 4017413344
I1215 11:21:46.557479  6331 layer_factory.hpp:77] Creating layer bn3_7_branch2c
I1215 11:21:46.557498  6331 net.cpp:106] Creating Layer bn3_7_branch2c
I1215 11:21:46.557507  6331 net.cpp:454] bn3_7_branch2c <- enet3_7_branch2c
I1215 11:21:46.557520  6331 net.cpp:397] bn3_7_branch2c -> enet3_7_branch2c (in-place)
I1215 11:21:46.557848  6331 net.cpp:150] Setting up bn3_7_branch2c
I1215 11:21:46.557863  6331 net.cpp:157] Top shape: 4 128 48 156 (3833856)
I1215 11:21:46.557869  6331 net.cpp:165] Memory required for data: 4032748768
I1215 11:21:46.557880  6331 layer_factory.hpp:77] Creating layer dropout3_7_branch2c
I1215 11:21:46.557891  6331 net.cpp:106] Creating Layer dropout3_7_branch2c
I1215 11:21:46.557898  6331 net.cpp:454] dropout3_7_branch2c <- enet3_7_branch2c
I1215 11:21:46.557910  6331 net.cpp:397] dropout3_7_branch2c -> enet3_7_branch2c (in-place)
I1215 11:21:46.557950  6331 net.cpp:150] Setting up dropout3_7_branch2c
I1215 11:21:46.557962  6331 net.cpp:157] Top shape: 4 128 48 156 (3833856)
I1215 11:21:46.557970  6331 net.cpp:165] Memory required for data: 4048084192
I1215 11:21:46.557976  6331 layer_factory.hpp:77] Creating layer enet3_7
I1215 11:21:46.557986  6331 net.cpp:106] Creating Layer enet3_7
I1215 11:21:46.557992  6331 net.cpp:454] enet3_7 <- enet3_6_relu3_6_0_split_1
I1215 11:21:46.558001  6331 net.cpp:454] enet3_7 <- enet3_7_branch2c
I1215 11:21:46.558018  6331 net.cpp:411] enet3_7 -> enet3_7
I1215 11:21:46.558073  6331 net.cpp:150] Setting up enet3_7
I1215 11:21:46.558086  6331 net.cpp:157] Top shape: 4 128 48 156 (3833856)
I1215 11:21:46.558094  6331 net.cpp:165] Memory required for data: 4063419616
I1215 11:21:46.558099  6331 layer_factory.hpp:77] Creating layer relu3_7
I1215 11:21:46.558112  6331 net.cpp:106] Creating Layer relu3_7
I1215 11:21:46.558120  6331 net.cpp:454] relu3_7 <- enet3_7
I1215 11:21:46.558128  6331 net.cpp:397] relu3_7 -> enet3_7 (in-place)
I1215 11:21:46.562296  6331 net.cpp:150] Setting up relu3_7
I1215 11:21:46.562314  6331 net.cpp:157] Top shape: 4 128 48 156 (3833856)
I1215 11:21:46.562321  6331 net.cpp:165] Memory required for data: 4078755040
I1215 11:21:46.562331  6331 layer_factory.hpp:77] Creating layer enet3_7_relu3_7_0_split
I1215 11:21:46.562345  6331 net.cpp:106] Creating Layer enet3_7_relu3_7_0_split
I1215 11:21:46.562353  6331 net.cpp:454] enet3_7_relu3_7_0_split <- enet3_7
I1215 11:21:46.562363  6331 net.cpp:411] enet3_7_relu3_7_0_split -> enet3_7_relu3_7_0_split_0
I1215 11:21:46.562376  6331 net.cpp:411] enet3_7_relu3_7_0_split -> enet3_7_relu3_7_0_split_1
I1215 11:21:46.562436  6331 net.cpp:150] Setting up enet3_7_relu3_7_0_split
I1215 11:21:46.562448  6331 net.cpp:157] Top shape: 4 128 48 156 (3833856)
I1215 11:21:46.562456  6331 net.cpp:157] Top shape: 4 128 48 156 (3833856)
I1215 11:21:46.562463  6331 net.cpp:165] Memory required for data: 4109425888
I1215 11:21:46.562469  6331 layer_factory.hpp:77] Creating layer enet3_8_branch2a
I1215 11:21:46.562485  6331 net.cpp:106] Creating Layer enet3_8_branch2a
I1215 11:21:46.562494  6331 net.cpp:454] enet3_8_branch2a <- enet3_7_relu3_7_0_split_0
I1215 11:21:46.562505  6331 net.cpp:411] enet3_8_branch2a -> enet3_8_branch2a
I1215 11:21:46.567261  6331 net.cpp:150] Setting up enet3_8_branch2a
I1215 11:21:46.567283  6331 net.cpp:157] Top shape: 4 32 48 156 (958464)
I1215 11:21:46.567291  6331 net.cpp:165] Memory required for data: 4113259744
I1215 11:21:46.567301  6331 layer_factory.hpp:77] Creating layer bn3_8_branch2a
I1215 11:21:46.567314  6331 net.cpp:106] Creating Layer bn3_8_branch2a
I1215 11:21:46.567322  6331 net.cpp:454] bn3_8_branch2a <- enet3_8_branch2a
I1215 11:21:46.567334  6331 net.cpp:397] bn3_8_branch2a -> enet3_8_branch2a (in-place)
I1215 11:21:46.567677  6331 net.cpp:150] Setting up bn3_8_branch2a
I1215 11:21:46.567690  6331 net.cpp:157] Top shape: 4 32 48 156 (958464)
I1215 11:21:46.567698  6331 net.cpp:165] Memory required for data: 4117093600
I1215 11:21:46.567708  6331 layer_factory.hpp:77] Creating layer relu3_8_branch2a
I1215 11:21:46.567720  6331 net.cpp:106] Creating Layer relu3_8_branch2a
I1215 11:21:46.567728  6331 net.cpp:454] relu3_8_branch2a <- enet3_8_branch2a
I1215 11:21:46.567737  6331 net.cpp:397] relu3_8_branch2a -> enet3_8_branch2a (in-place)
I1215 11:21:46.569005  6331 net.cpp:150] Setting up relu3_8_branch2a
I1215 11:21:46.569021  6331 net.cpp:157] Top shape: 4 32 48 156 (958464)
I1215 11:21:46.569028  6331 net.cpp:165] Memory required for data: 4120927456
I1215 11:21:46.569038  6331 layer_factory.hpp:77] Creating layer enet3_8_branch2b
I1215 11:21:46.569056  6331 net.cpp:106] Creating Layer enet3_8_branch2b
I1215 11:21:46.569068  6331 net.cpp:454] enet3_8_branch2b <- enet3_8_branch2a
I1215 11:21:46.569083  6331 net.cpp:411] enet3_8_branch2b -> enet3_8_branch2b
I1215 11:21:46.591699  6331 net.cpp:150] Setting up enet3_8_branch2b
I1215 11:21:46.591717  6331 net.cpp:157] Top shape: 4 32 48 156 (958464)
I1215 11:21:46.591723  6331 net.cpp:165] Memory required for data: 4124761312
I1215 11:21:46.591734  6331 layer_factory.hpp:77] Creating layer bn3_8_branch2b
I1215 11:21:46.591753  6331 net.cpp:106] Creating Layer bn3_8_branch2b
I1215 11:21:46.591760  6331 net.cpp:454] bn3_8_branch2b <- enet3_8_branch2b
I1215 11:21:46.591770  6331 net.cpp:397] bn3_8_branch2b -> enet3_8_branch2b (in-place)
I1215 11:21:46.592094  6331 net.cpp:150] Setting up bn3_8_branch2b
I1215 11:21:46.592109  6331 net.cpp:157] Top shape: 4 32 48 156 (958464)
I1215 11:21:46.592125  6331 net.cpp:165] Memory required for data: 4128595168
I1215 11:21:46.592144  6331 layer_factory.hpp:77] Creating layer relu3_8_branch2b
I1215 11:21:46.592155  6331 net.cpp:106] Creating Layer relu3_8_branch2b
I1215 11:21:46.592162  6331 net.cpp:454] relu3_8_branch2b <- enet3_8_branch2b
I1215 11:21:46.592175  6331 net.cpp:397] relu3_8_branch2b -> enet3_8_branch2b (in-place)
I1215 11:21:46.593444  6331 net.cpp:150] Setting up relu3_8_branch2b
I1215 11:21:46.593461  6331 net.cpp:157] Top shape: 4 32 48 156 (958464)
I1215 11:21:46.593468  6331 net.cpp:165] Memory required for data: 4132429024
I1215 11:21:46.593477  6331 layer_factory.hpp:77] Creating layer enet3_8_branch2c
I1215 11:21:46.593497  6331 net.cpp:106] Creating Layer enet3_8_branch2c
I1215 11:21:46.593505  6331 net.cpp:454] enet3_8_branch2c <- enet3_8_branch2b
I1215 11:21:46.593516  6331 net.cpp:411] enet3_8_branch2c -> enet3_8_branch2c
I1215 11:21:46.597264  6331 net.cpp:150] Setting up enet3_8_branch2c
I1215 11:21:46.597282  6331 net.cpp:157] Top shape: 4 128 48 156 (3833856)
I1215 11:21:46.597290  6331 net.cpp:165] Memory required for data: 4147764448
I1215 11:21:46.597299  6331 layer_factory.hpp:77] Creating layer bn3_8_branch2c
I1215 11:21:46.597316  6331 net.cpp:106] Creating Layer bn3_8_branch2c
I1215 11:21:46.597324  6331 net.cpp:454] bn3_8_branch2c <- enet3_8_branch2c
I1215 11:21:46.597337  6331 net.cpp:397] bn3_8_branch2c -> enet3_8_branch2c (in-place)
I1215 11:21:46.597656  6331 net.cpp:150] Setting up bn3_8_branch2c
I1215 11:21:46.597671  6331 net.cpp:157] Top shape: 4 128 48 156 (3833856)
I1215 11:21:46.597676  6331 net.cpp:165] Memory required for data: 4163099872
I1215 11:21:46.597687  6331 layer_factory.hpp:77] Creating layer dropout3_8_branch2c
I1215 11:21:46.597697  6331 net.cpp:106] Creating Layer dropout3_8_branch2c
I1215 11:21:46.597704  6331 net.cpp:454] dropout3_8_branch2c <- enet3_8_branch2c
I1215 11:21:46.597714  6331 net.cpp:397] dropout3_8_branch2c -> enet3_8_branch2c (in-place)
I1215 11:21:46.597754  6331 net.cpp:150] Setting up dropout3_8_branch2c
I1215 11:21:46.597765  6331 net.cpp:157] Top shape: 4 128 48 156 (3833856)
I1215 11:21:46.597772  6331 net.cpp:165] Memory required for data: 4178435296
I1215 11:21:46.597779  6331 layer_factory.hpp:77] Creating layer enet3_8
I1215 11:21:46.597792  6331 net.cpp:106] Creating Layer enet3_8
I1215 11:21:46.597800  6331 net.cpp:454] enet3_8 <- enet3_7_relu3_7_0_split_1
I1215 11:21:46.597808  6331 net.cpp:454] enet3_8 <- enet3_8_branch2c
I1215 11:21:46.597817  6331 net.cpp:411] enet3_8 -> enet3_8
I1215 11:21:46.597857  6331 net.cpp:150] Setting up enet3_8
I1215 11:21:46.597869  6331 net.cpp:157] Top shape: 4 128 48 156 (3833856)
I1215 11:21:46.597875  6331 net.cpp:165] Memory required for data: 4193770720
I1215 11:21:46.597882  6331 layer_factory.hpp:77] Creating layer relu3_8
I1215 11:21:46.597893  6331 net.cpp:106] Creating Layer relu3_8
I1215 11:21:46.597901  6331 net.cpp:454] relu3_8 <- enet3_8
I1215 11:21:46.597910  6331 net.cpp:397] relu3_8 -> enet3_8 (in-place)
I1215 11:21:46.601917  6331 net.cpp:150] Setting up relu3_8
I1215 11:21:46.601938  6331 net.cpp:157] Top shape: 4 128 48 156 (3833856)
I1215 11:21:46.601944  6331 net.cpp:165] Memory required for data: 4209106144
I1215 11:21:46.601954  6331 layer_factory.hpp:77] Creating layer enet3_8_relu3_8_0_split
I1215 11:21:46.601969  6331 net.cpp:106] Creating Layer enet3_8_relu3_8_0_split
I1215 11:21:46.601976  6331 net.cpp:454] enet3_8_relu3_8_0_split <- enet3_8
I1215 11:21:46.601986  6331 net.cpp:411] enet3_8_relu3_8_0_split -> enet3_8_relu3_8_0_split_0
I1215 11:21:46.602001  6331 net.cpp:411] enet3_8_relu3_8_0_split -> enet3_8_relu3_8_0_split_1
I1215 11:21:46.602061  6331 net.cpp:150] Setting up enet3_8_relu3_8_0_split
I1215 11:21:46.602078  6331 net.cpp:157] Top shape: 4 128 48 156 (3833856)
I1215 11:21:46.602087  6331 net.cpp:157] Top shape: 4 128 48 156 (3833856)
I1215 11:21:46.602092  6331 net.cpp:165] Memory required for data: 4239776992
I1215 11:21:46.602099  6331 layer_factory.hpp:77] Creating layer enet4_0_branch2a
I1215 11:21:46.602124  6331 net.cpp:106] Creating Layer enet4_0_branch2a
I1215 11:21:46.602141  6331 net.cpp:454] enet4_0_branch2a <- enet3_8_relu3_8_0_split_0
I1215 11:21:46.602155  6331 net.cpp:411] enet4_0_branch2a -> enet4_0_branch2a
I1215 11:21:46.605936  6331 net.cpp:150] Setting up enet4_0_branch2a
I1215 11:21:46.605953  6331 net.cpp:157] Top shape: 4 16 48 156 (479232)
I1215 11:21:46.605962  6331 net.cpp:165] Memory required for data: 4241693920
I1215 11:21:46.605970  6331 layer_factory.hpp:77] Creating layer bn4_0_branch2a
I1215 11:21:46.605986  6331 net.cpp:106] Creating Layer bn4_0_branch2a
I1215 11:21:46.605994  6331 net.cpp:454] bn4_0_branch2a <- enet4_0_branch2a
I1215 11:21:46.606007  6331 net.cpp:397] bn4_0_branch2a -> enet4_0_branch2a (in-place)
I1215 11:21:46.606377  6331 net.cpp:150] Setting up bn4_0_branch2a
I1215 11:21:46.606391  6331 net.cpp:157] Top shape: 4 16 48 156 (479232)
I1215 11:21:46.606398  6331 net.cpp:165] Memory required for data: 4243610848
I1215 11:21:46.606408  6331 layer_factory.hpp:77] Creating layer relu4_0_branch2a
I1215 11:21:46.606427  6331 net.cpp:106] Creating Layer relu4_0_branch2a
I1215 11:21:46.606434  6331 net.cpp:454] relu4_0_branch2a <- enet4_0_branch2a
I1215 11:21:46.606444  6331 net.cpp:397] relu4_0_branch2a -> enet4_0_branch2a (in-place)
I1215 11:21:46.607594  6331 net.cpp:150] Setting up relu4_0_branch2a
I1215 11:21:46.607614  6331 net.cpp:157] Top shape: 4 16 48 156 (479232)
I1215 11:21:46.607621  6331 net.cpp:165] Memory required for data: 4245527776
I1215 11:21:46.607630  6331 layer_factory.hpp:77] Creating layer enet4_0_branch2b
I1215 11:21:46.607646  6331 net.cpp:106] Creating Layer enet4_0_branch2b
I1215 11:21:46.607655  6331 net.cpp:454] enet4_0_branch2b <- enet4_0_branch2a
I1215 11:21:46.607667  6331 net.cpp:411] enet4_0_branch2b -> enet4_0_branch2b
I1215 11:21:46.608217  6331 net.cpp:150] Setting up enet4_0_branch2b
I1215 11:21:46.608232  6331 net.cpp:157] Top shape: 4 16 95 311 (1890880)
I1215 11:21:46.608239  6331 net.cpp:165] Memory required for data: 4253091296
I1215 11:21:46.608249  6331 layer_factory.hpp:77] Creating layer bn4_0_branch2b
I1215 11:21:46.608265  6331 net.cpp:106] Creating Layer bn4_0_branch2b
I1215 11:21:46.608273  6331 net.cpp:454] bn4_0_branch2b <- enet4_0_branch2b
I1215 11:21:46.608285  6331 net.cpp:397] bn4_0_branch2b -> enet4_0_branch2b (in-place)
I1215 11:21:46.608723  6331 net.cpp:150] Setting up bn4_0_branch2b
I1215 11:21:46.608738  6331 net.cpp:157] Top shape: 4 16 95 311 (1890880)
I1215 11:21:46.608744  6331 net.cpp:165] Memory required for data: 4260654816
I1215 11:21:46.608755  6331 layer_factory.hpp:77] Creating layer relu4_0_branch2b
I1215 11:21:46.608765  6331 net.cpp:106] Creating Layer relu4_0_branch2b
I1215 11:21:46.608772  6331 net.cpp:454] relu4_0_branch2b <- enet4_0_branch2b
I1215 11:21:46.608781  6331 net.cpp:397] relu4_0_branch2b -> enet4_0_branch2b (in-place)
I1215 11:21:46.609876  6331 net.cpp:150] Setting up relu4_0_branch2b
I1215 11:21:46.609896  6331 net.cpp:157] Top shape: 4 16 95 311 (1890880)
I1215 11:21:46.609904  6331 net.cpp:165] Memory required for data: 4268218336
I1215 11:21:46.609911  6331 layer_factory.hpp:77] Creating layer enet4_0_branch2c
I1215 11:21:46.609928  6331 net.cpp:106] Creating Layer enet4_0_branch2c
I1215 11:21:46.609936  6331 net.cpp:454] enet4_0_branch2c <- enet4_0_branch2b
I1215 11:21:46.609948  6331 net.cpp:411] enet4_0_branch2c -> enet4_0_branch2c
I1215 11:21:46.613698  6331 net.cpp:150] Setting up enet4_0_branch2c
I1215 11:21:46.613715  6331 net.cpp:157] Top shape: 4 64 95 311 (7563520)
I1215 11:21:46.613723  6331 net.cpp:165] Memory required for data: 4298472416
I1215 11:21:46.613732  6331 layer_factory.hpp:77] Creating layer bn4_0_branch2c
I1215 11:21:46.613749  6331 net.cpp:106] Creating Layer bn4_0_branch2c
I1215 11:21:46.613756  6331 net.cpp:454] bn4_0_branch2c <- enet4_0_branch2c
I1215 11:21:46.613770  6331 net.cpp:397] bn4_0_branch2c -> enet4_0_branch2c (in-place)
I1215 11:21:46.615046  6331 net.cpp:150] Setting up bn4_0_branch2c
I1215 11:21:46.615063  6331 net.cpp:157] Top shape: 4 64 95 311 (7563520)
I1215 11:21:46.615083  6331 net.cpp:165] Memory required for data: 4328726496
I1215 11:21:46.615103  6331 layer_factory.hpp:77] Creating layer enet4_0_branch1a
I1215 11:21:46.615121  6331 net.cpp:106] Creating Layer enet4_0_branch1a
I1215 11:21:46.615129  6331 net.cpp:454] enet4_0_branch1a <- enet3_8_relu3_8_0_split_1
I1215 11:21:46.615144  6331 net.cpp:411] enet4_0_branch1a -> enet4_0_branch1a
I1215 11:21:46.618918  6331 net.cpp:150] Setting up enet4_0_branch1a
I1215 11:21:46.618937  6331 net.cpp:157] Top shape: 4 64 48 156 (1916928)
I1215 11:21:46.618944  6331 net.cpp:165] Memory required for data: 4336394208
I1215 11:21:46.618953  6331 layer_factory.hpp:77] Creating layer bn4_0_branch1a
I1215 11:21:46.618969  6331 net.cpp:106] Creating Layer bn4_0_branch1a
I1215 11:21:46.618978  6331 net.cpp:454] bn4_0_branch1a <- enet4_0_branch1a
I1215 11:21:46.618988  6331 net.cpp:397] bn4_0_branch1a -> enet4_0_branch1a (in-place)
I1215 11:21:46.619343  6331 net.cpp:150] Setting up bn4_0_branch1a
I1215 11:21:46.619356  6331 net.cpp:157] Top shape: 4 64 48 156 (1916928)
I1215 11:21:46.619364  6331 net.cpp:165] Memory required for data: 4344061920
I1215 11:21:46.619374  6331 layer_factory.hpp:77] Creating layer unpool4_0_branch1a
I1215 11:21:46.619390  6331 net.cpp:106] Creating Layer unpool4_0_branch1a
I1215 11:21:46.619397  6331 net.cpp:454] unpool4_0_branch1a <- enet4_0_branch1a
I1215 11:21:46.619407  6331 net.cpp:454] unpool4_0_branch1a <- pool2_0_branch1a_mask
I1215 11:21:46.619417  6331 net.cpp:411] unpool4_0_branch1a -> unpool4_0_branch1a
I1215 11:21:46.619477  6331 net.cpp:150] Setting up unpool4_0_branch1a
I1215 11:21:46.619489  6331 net.cpp:157] Top shape: 4 64 95 311 (7563520)
I1215 11:21:46.619495  6331 net.cpp:165] Memory required for data: 4374316000
I1215 11:21:46.619503  6331 layer_factory.hpp:77] Creating layer enet4_0
I1215 11:21:46.619516  6331 net.cpp:106] Creating Layer enet4_0
I1215 11:21:46.619524  6331 net.cpp:454] enet4_0 <- unpool4_0_branch1a
I1215 11:21:46.619532  6331 net.cpp:454] enet4_0 <- enet4_0_branch2c
I1215 11:21:46.619541  6331 net.cpp:411] enet4_0 -> enet4_0
I1215 11:21:46.619585  6331 net.cpp:150] Setting up enet4_0
I1215 11:21:46.619598  6331 net.cpp:157] Top shape: 4 64 95 311 (7563520)
I1215 11:21:46.619604  6331 net.cpp:165] Memory required for data: 4404570080
I1215 11:21:46.619611  6331 layer_factory.hpp:77] Creating layer relu4_0
I1215 11:21:46.619621  6331 net.cpp:106] Creating Layer relu4_0
I1215 11:21:46.619626  6331 net.cpp:454] relu4_0 <- enet4_0
I1215 11:21:46.619638  6331 net.cpp:397] relu4_0 -> enet4_0 (in-place)
I1215 11:21:46.620735  6331 net.cpp:150] Setting up relu4_0
I1215 11:21:46.620753  6331 net.cpp:157] Top shape: 4 64 95 311 (7563520)
I1215 11:21:46.620760  6331 net.cpp:165] Memory required for data: 4434824160
I1215 11:21:46.620767  6331 layer_factory.hpp:77] Creating layer enet4_0_relu4_0_0_split
I1215 11:21:46.620779  6331 net.cpp:106] Creating Layer enet4_0_relu4_0_0_split
I1215 11:21:46.620787  6331 net.cpp:454] enet4_0_relu4_0_0_split <- enet4_0
I1215 11:21:46.620797  6331 net.cpp:411] enet4_0_relu4_0_0_split -> enet4_0_relu4_0_0_split_0
I1215 11:21:46.620810  6331 net.cpp:411] enet4_0_relu4_0_0_split -> enet4_0_relu4_0_0_split_1
I1215 11:21:46.620880  6331 net.cpp:150] Setting up enet4_0_relu4_0_0_split
I1215 11:21:46.620893  6331 net.cpp:157] Top shape: 4 64 95 311 (7563520)
I1215 11:21:46.620901  6331 net.cpp:157] Top shape: 4 64 95 311 (7563520)
I1215 11:21:46.620908  6331 net.cpp:165] Memory required for data: 4495332320
I1215 11:21:46.620913  6331 layer_factory.hpp:77] Creating layer enet4_1_branch2a
I1215 11:21:46.620930  6331 net.cpp:106] Creating Layer enet4_1_branch2a
I1215 11:21:46.620939  6331 net.cpp:454] enet4_1_branch2a <- enet4_0_relu4_0_0_split_0
I1215 11:21:46.620951  6331 net.cpp:411] enet4_1_branch2a -> enet4_1_branch2a
I1215 11:21:46.624784  6331 net.cpp:150] Setting up enet4_1_branch2a
I1215 11:21:46.624806  6331 net.cpp:157] Top shape: 4 16 95 311 (1890880)
I1215 11:21:46.624814  6331 net.cpp:165] Memory required for data: 4502895840
I1215 11:21:46.624831  6331 layer_factory.hpp:77] Creating layer bn4_1_branch2a
I1215 11:21:46.624851  6331 net.cpp:106] Creating Layer bn4_1_branch2a
I1215 11:21:46.624861  6331 net.cpp:454] bn4_1_branch2a <- enet4_1_branch2a
I1215 11:21:46.624873  6331 net.cpp:397] bn4_1_branch2a -> enet4_1_branch2a (in-place)
I1215 11:21:46.625277  6331 net.cpp:150] Setting up bn4_1_branch2a
I1215 11:21:46.625291  6331 net.cpp:157] Top shape: 4 16 95 311 (1890880)
I1215 11:21:46.625298  6331 net.cpp:165] Memory required for data: 4510459360
I1215 11:21:46.625308  6331 layer_factory.hpp:77] Creating layer relu4_1_branch2a
I1215 11:21:46.625319  6331 net.cpp:106] Creating Layer relu4_1_branch2a
I1215 11:21:46.625325  6331 net.cpp:454] relu4_1_branch2a <- enet4_1_branch2a
I1215 11:21:46.625334  6331 net.cpp:397] relu4_1_branch2a -> enet4_1_branch2a (in-place)
I1215 11:21:46.626487  6331 net.cpp:150] Setting up relu4_1_branch2a
I1215 11:21:46.626505  6331 net.cpp:157] Top shape: 4 16 95 311 (1890880)
I1215 11:21:46.626513  6331 net.cpp:165] Memory required for data: 4518022880
I1215 11:21:46.626520  6331 layer_factory.hpp:77] Creating layer enet4_1_branch2b
I1215 11:21:46.626538  6331 net.cpp:106] Creating Layer enet4_1_branch2b
I1215 11:21:46.626546  6331 net.cpp:454] enet4_1_branch2b <- enet4_1_branch2a
I1215 11:21:46.626559  6331 net.cpp:411] enet4_1_branch2b -> enet4_1_branch2b
I1215 11:21:46.630599  6331 net.cpp:150] Setting up enet4_1_branch2b
I1215 11:21:46.630619  6331 net.cpp:157] Top shape: 4 16 95 311 (1890880)
I1215 11:21:46.630625  6331 net.cpp:165] Memory required for data: 4525586400
I1215 11:21:46.630637  6331 layer_factory.hpp:77] Creating layer bn4_1_branch2b
I1215 11:21:46.630656  6331 net.cpp:106] Creating Layer bn4_1_branch2b
I1215 11:21:46.630663  6331 net.cpp:454] bn4_1_branch2b <- enet4_1_branch2b
I1215 11:21:46.630673  6331 net.cpp:397] bn4_1_branch2b -> enet4_1_branch2b (in-place)
I1215 11:21:46.631086  6331 net.cpp:150] Setting up bn4_1_branch2b
I1215 11:21:46.631101  6331 net.cpp:157] Top shape: 4 16 95 311 (1890880)
I1215 11:21:46.631108  6331 net.cpp:165] Memory required for data: 4533149920
I1215 11:21:46.631119  6331 layer_factory.hpp:77] Creating layer relu4_1_branch2b
I1215 11:21:46.631129  6331 net.cpp:106] Creating Layer relu4_1_branch2b
I1215 11:21:46.631135  6331 net.cpp:454] relu4_1_branch2b <- enet4_1_branch2b
I1215 11:21:46.631147  6331 net.cpp:397] relu4_1_branch2b -> enet4_1_branch2b (in-place)
I1215 11:21:46.632256  6331 net.cpp:150] Setting up relu4_1_branch2b
I1215 11:21:46.632272  6331 net.cpp:157] Top shape: 4 16 95 311 (1890880)
I1215 11:21:46.632280  6331 net.cpp:165] Memory required for data: 4540713440
I1215 11:21:46.632287  6331 layer_factory.hpp:77] Creating layer enet4_1_branch2c
I1215 11:21:46.632304  6331 net.cpp:106] Creating Layer enet4_1_branch2c
I1215 11:21:46.632313  6331 net.cpp:454] enet4_1_branch2c <- enet4_1_branch2b
I1215 11:21:46.632330  6331 net.cpp:411] enet4_1_branch2c -> enet4_1_branch2c
I1215 11:21:46.636003  6331 net.cpp:150] Setting up enet4_1_branch2c
I1215 11:21:46.636021  6331 net.cpp:157] Top shape: 4 64 95 311 (7563520)
I1215 11:21:46.636029  6331 net.cpp:165] Memory required for data: 4570967520
I1215 11:21:46.636039  6331 layer_factory.hpp:77] Creating layer bn4_1_branch2c
I1215 11:21:46.636054  6331 net.cpp:106] Creating Layer bn4_1_branch2c
I1215 11:21:46.636061  6331 net.cpp:454] bn4_1_branch2c <- enet4_1_branch2c
I1215 11:21:46.636080  6331 net.cpp:397] bn4_1_branch2c -> enet4_1_branch2c (in-place)
I1215 11:21:46.637398  6331 net.cpp:150] Setting up bn4_1_branch2c
I1215 11:21:46.637416  6331 net.cpp:157] Top shape: 4 64 95 311 (7563520)
I1215 11:21:46.637423  6331 net.cpp:165] Memory required for data: 4601221600
I1215 11:21:46.637434  6331 layer_factory.hpp:77] Creating layer enet4_1
I1215 11:21:46.637445  6331 net.cpp:106] Creating Layer enet4_1
I1215 11:21:46.637452  6331 net.cpp:454] enet4_1 <- enet4_0_relu4_0_0_split_1
I1215 11:21:46.637461  6331 net.cpp:454] enet4_1 <- enet4_1_branch2c
I1215 11:21:46.637475  6331 net.cpp:411] enet4_1 -> enet4_1
I1215 11:21:46.637531  6331 net.cpp:150] Setting up enet4_1
I1215 11:21:46.637552  6331 net.cpp:157] Top shape: 4 64 95 311 (7563520)
I1215 11:21:46.637559  6331 net.cpp:165] Memory required for data: 4631475680
I1215 11:21:46.637567  6331 layer_factory.hpp:77] Creating layer relu4_1
I1215 11:21:46.637575  6331 net.cpp:106] Creating Layer relu4_1
I1215 11:21:46.637583  6331 net.cpp:454] relu4_1 <- enet4_1
I1215 11:21:46.637591  6331 net.cpp:397] relu4_1 -> enet4_1 (in-place)
I1215 11:21:46.638882  6331 net.cpp:150] Setting up relu4_1
I1215 11:21:46.638900  6331 net.cpp:157] Top shape: 4 64 95 311 (7563520)
I1215 11:21:46.638906  6331 net.cpp:165] Memory required for data: 4661729760
I1215 11:21:46.638913  6331 layer_factory.hpp:77] Creating layer enet4_1_relu4_1_0_split
I1215 11:21:46.638926  6331 net.cpp:106] Creating Layer enet4_1_relu4_1_0_split
I1215 11:21:46.638933  6331 net.cpp:454] enet4_1_relu4_1_0_split <- enet4_1
I1215 11:21:46.638947  6331 net.cpp:411] enet4_1_relu4_1_0_split -> enet4_1_relu4_1_0_split_0
I1215 11:21:46.638958  6331 net.cpp:411] enet4_1_relu4_1_0_split -> enet4_1_relu4_1_0_split_1
I1215 11:21:46.639031  6331 net.cpp:150] Setting up enet4_1_relu4_1_0_split
I1215 11:21:46.639044  6331 net.cpp:157] Top shape: 4 64 95 311 (7563520)
I1215 11:21:46.639052  6331 net.cpp:157] Top shape: 4 64 95 311 (7563520)
I1215 11:21:46.639058  6331 net.cpp:165] Memory required for data: 4722237920
I1215 11:21:46.639068  6331 layer_factory.hpp:77] Creating layer enet4_2_branch2a
I1215 11:21:46.639086  6331 net.cpp:106] Creating Layer enet4_2_branch2a
I1215 11:21:46.639096  6331 net.cpp:454] enet4_2_branch2a <- enet4_1_relu4_1_0_split_0
I1215 11:21:46.639108  6331 net.cpp:411] enet4_2_branch2a -> enet4_2_branch2a
I1215 11:21:46.642834  6331 net.cpp:150] Setting up enet4_2_branch2a
I1215 11:21:46.642853  6331 net.cpp:157] Top shape: 4 16 95 311 (1890880)
I1215 11:21:46.642859  6331 net.cpp:165] Memory required for data: 4729801440
I1215 11:21:46.642869  6331 layer_factory.hpp:77] Creating layer bn4_2_branch2a
I1215 11:21:46.642885  6331 net.cpp:106] Creating Layer bn4_2_branch2a
I1215 11:21:46.642894  6331 net.cpp:454] bn4_2_branch2a <- enet4_2_branch2a
I1215 11:21:46.642904  6331 net.cpp:397] bn4_2_branch2a -> enet4_2_branch2a (in-place)
I1215 11:21:46.643322  6331 net.cpp:150] Setting up bn4_2_branch2a
I1215 11:21:46.643337  6331 net.cpp:157] Top shape: 4 16 95 311 (1890880)
I1215 11:21:46.643343  6331 net.cpp:165] Memory required for data: 4737364960
I1215 11:21:46.643354  6331 layer_factory.hpp:77] Creating layer relu4_2_branch2a
I1215 11:21:46.643364  6331 net.cpp:106] Creating Layer relu4_2_branch2a
I1215 11:21:46.643371  6331 net.cpp:454] relu4_2_branch2a <- enet4_2_branch2a
I1215 11:21:46.643383  6331 net.cpp:397] relu4_2_branch2a -> enet4_2_branch2a (in-place)
I1215 11:21:46.644687  6331 net.cpp:150] Setting up relu4_2_branch2a
I1215 11:21:46.644704  6331 net.cpp:157] Top shape: 4 16 95 311 (1890880)
I1215 11:21:46.644712  6331 net.cpp:165] Memory required for data: 4744928480
I1215 11:21:46.644719  6331 layer_factory.hpp:77] Creating layer enet4_2_branch2b
I1215 11:21:46.644737  6331 net.cpp:106] Creating Layer enet4_2_branch2b
I1215 11:21:46.644745  6331 net.cpp:454] enet4_2_branch2b <- enet4_2_branch2a
I1215 11:21:46.644758  6331 net.cpp:411] enet4_2_branch2b -> enet4_2_branch2b
I1215 11:21:46.648838  6331 net.cpp:150] Setting up enet4_2_branch2b
I1215 11:21:46.648855  6331 net.cpp:157] Top shape: 4 16 95 311 (1890880)
I1215 11:21:46.648862  6331 net.cpp:165] Memory required for data: 4752492000
I1215 11:21:46.648874  6331 layer_factory.hpp:77] Creating layer bn4_2_branch2b
I1215 11:21:46.648890  6331 net.cpp:106] Creating Layer bn4_2_branch2b
I1215 11:21:46.648897  6331 net.cpp:454] bn4_2_branch2b <- enet4_2_branch2b
I1215 11:21:46.648908  6331 net.cpp:397] bn4_2_branch2b -> enet4_2_branch2b (in-place)
I1215 11:21:46.649334  6331 net.cpp:150] Setting up bn4_2_branch2b
I1215 11:21:46.649348  6331 net.cpp:157] Top shape: 4 16 95 311 (1890880)
I1215 11:21:46.649355  6331 net.cpp:165] Memory required for data: 4760055520
I1215 11:21:46.649374  6331 layer_factory.hpp:77] Creating layer relu4_2_branch2b
I1215 11:21:46.649391  6331 net.cpp:106] Creating Layer relu4_2_branch2b
I1215 11:21:46.649399  6331 net.cpp:454] relu4_2_branch2b <- enet4_2_branch2b
I1215 11:21:46.649413  6331 net.cpp:397] relu4_2_branch2b -> enet4_2_branch2b (in-place)
I1215 11:21:46.650523  6331 net.cpp:150] Setting up relu4_2_branch2b
I1215 11:21:46.650540  6331 net.cpp:157] Top shape: 4 16 95 311 (1890880)
I1215 11:21:46.650547  6331 net.cpp:165] Memory required for data: 4767619040
I1215 11:21:46.650554  6331 layer_factory.hpp:77] Creating layer enet4_2_branch2c
I1215 11:21:46.650573  6331 net.cpp:106] Creating Layer enet4_2_branch2c
I1215 11:21:46.650583  6331 net.cpp:454] enet4_2_branch2c <- enet4_2_branch2b
I1215 11:21:46.650593  6331 net.cpp:411] enet4_2_branch2c -> enet4_2_branch2c
I1215 11:21:46.654526  6331 net.cpp:150] Setting up enet4_2_branch2c
I1215 11:21:46.654544  6331 net.cpp:157] Top shape: 4 64 95 311 (7563520)
I1215 11:21:46.654551  6331 net.cpp:165] Memory required for data: 4797873120
I1215 11:21:46.654561  6331 layer_factory.hpp:77] Creating layer bn4_2_branch2c
I1215 11:21:46.654577  6331 net.cpp:106] Creating Layer bn4_2_branch2c
I1215 11:21:46.654585  6331 net.cpp:454] bn4_2_branch2c <- enet4_2_branch2c
I1215 11:21:46.654597  6331 net.cpp:397] bn4_2_branch2c -> enet4_2_branch2c (in-place)
I1215 11:21:46.655050  6331 net.cpp:150] Setting up bn4_2_branch2c
I1215 11:21:46.655063  6331 net.cpp:157] Top shape: 4 64 95 311 (7563520)
I1215 11:21:46.655074  6331 net.cpp:165] Memory required for data: 4828127200
I1215 11:21:46.655084  6331 layer_factory.hpp:77] Creating layer enet4_2
I1215 11:21:46.655095  6331 net.cpp:106] Creating Layer enet4_2
I1215 11:21:46.655102  6331 net.cpp:454] enet4_2 <- enet4_1_relu4_1_0_split_1
I1215 11:21:46.655112  6331 net.cpp:454] enet4_2 <- enet4_2_branch2c
I1215 11:21:46.655123  6331 net.cpp:411] enet4_2 -> enet4_2
I1215 11:21:46.655172  6331 net.cpp:150] Setting up enet4_2
I1215 11:21:46.655184  6331 net.cpp:157] Top shape: 4 64 95 311 (7563520)
I1215 11:21:46.655191  6331 net.cpp:165] Memory required for data: 4858381280
I1215 11:21:46.655197  6331 layer_factory.hpp:77] Creating layer relu4_2
I1215 11:21:46.655206  6331 net.cpp:106] Creating Layer relu4_2
I1215 11:21:46.655213  6331 net.cpp:454] relu4_2 <- enet4_2
I1215 11:21:46.655226  6331 net.cpp:397] relu4_2 -> enet4_2 (in-place)
I1215 11:21:46.656345  6331 net.cpp:150] Setting up relu4_2
I1215 11:21:46.656363  6331 net.cpp:157] Top shape: 4 64 95 311 (7563520)
I1215 11:21:46.656369  6331 net.cpp:165] Memory required for data: 4888635360
I1215 11:21:46.656376  6331 layer_factory.hpp:77] Creating layer enet4_2_relu4_2_0_split
I1215 11:21:46.656386  6331 net.cpp:106] Creating Layer enet4_2_relu4_2_0_split
I1215 11:21:46.656394  6331 net.cpp:454] enet4_2_relu4_2_0_split <- enet4_2
I1215 11:21:46.656407  6331 net.cpp:411] enet4_2_relu4_2_0_split -> enet4_2_relu4_2_0_split_0
I1215 11:21:46.656420  6331 net.cpp:411] enet4_2_relu4_2_0_split -> enet4_2_relu4_2_0_split_1
I1215 11:21:46.656518  6331 net.cpp:150] Setting up enet4_2_relu4_2_0_split
I1215 11:21:46.656533  6331 net.cpp:157] Top shape: 4 64 95 311 (7563520)
I1215 11:21:46.656540  6331 net.cpp:157] Top shape: 4 64 95 311 (7563520)
I1215 11:21:46.656546  6331 net.cpp:165] Memory required for data: 4949143520
I1215 11:21:46.656553  6331 layer_factory.hpp:77] Creating layer enet5_0_branch2a
I1215 11:21:46.656569  6331 net.cpp:106] Creating Layer enet5_0_branch2a
I1215 11:21:46.656577  6331 net.cpp:454] enet5_0_branch2a <- enet4_2_relu4_2_0_split_0
I1215 11:21:46.656589  6331 net.cpp:411] enet5_0_branch2a -> enet5_0_branch2a
I1215 11:21:46.660315  6331 net.cpp:150] Setting up enet5_0_branch2a
I1215 11:21:46.660333  6331 net.cpp:157] Top shape: 4 4 95 311 (472720)
I1215 11:21:46.660341  6331 net.cpp:165] Memory required for data: 4951034400
I1215 11:21:46.660351  6331 layer_factory.hpp:77] Creating layer bn5_0_branch2a
I1215 11:21:46.660368  6331 net.cpp:106] Creating Layer bn5_0_branch2a
I1215 11:21:46.660384  6331 net.cpp:454] bn5_0_branch2a <- enet5_0_branch2a
I1215 11:21:46.660403  6331 net.cpp:397] bn5_0_branch2a -> enet5_0_branch2a (in-place)
I1215 11:21:46.661757  6331 net.cpp:150] Setting up bn5_0_branch2a
I1215 11:21:46.661774  6331 net.cpp:157] Top shape: 4 4 95 311 (472720)
I1215 11:21:46.661782  6331 net.cpp:165] Memory required for data: 4952925280
I1215 11:21:46.661793  6331 layer_factory.hpp:77] Creating layer relu5_0_branch2a
I1215 11:21:46.661806  6331 net.cpp:106] Creating Layer relu5_0_branch2a
I1215 11:21:46.661814  6331 net.cpp:454] relu5_0_branch2a <- enet5_0_branch2a
I1215 11:21:46.661823  6331 net.cpp:397] relu5_0_branch2a -> enet5_0_branch2a (in-place)
I1215 11:21:46.662946  6331 net.cpp:150] Setting up relu5_0_branch2a
I1215 11:21:46.662963  6331 net.cpp:157] Top shape: 4 4 95 311 (472720)
I1215 11:21:46.662971  6331 net.cpp:165] Memory required for data: 4954816160
I1215 11:21:46.662978  6331 layer_factory.hpp:77] Creating layer enet5_0_branch2b
I1215 11:21:46.662994  6331 net.cpp:106] Creating Layer enet5_0_branch2b
I1215 11:21:46.663002  6331 net.cpp:454] enet5_0_branch2b <- enet5_0_branch2a
I1215 11:21:46.663015  6331 net.cpp:411] enet5_0_branch2b -> enet5_0_branch2b
I1215 11:21:46.663666  6331 net.cpp:150] Setting up enet5_0_branch2b
I1215 11:21:46.663682  6331 net.cpp:157] Top shape: 4 4 189 621 (1877904)
I1215 11:21:46.663688  6331 net.cpp:165] Memory required for data: 4962327776
I1215 11:21:46.663699  6331 layer_factory.hpp:77] Creating layer bn5_0_branch2b
I1215 11:21:46.663715  6331 net.cpp:106] Creating Layer bn5_0_branch2b
I1215 11:21:46.663722  6331 net.cpp:454] bn5_0_branch2b <- enet5_0_branch2b
I1215 11:21:46.663733  6331 net.cpp:397] bn5_0_branch2b -> enet5_0_branch2b (in-place)
I1215 11:21:46.665187  6331 net.cpp:150] Setting up bn5_0_branch2b
I1215 11:21:46.665205  6331 net.cpp:157] Top shape: 4 4 189 621 (1877904)
I1215 11:21:46.665211  6331 net.cpp:165] Memory required for data: 4969839392
I1215 11:21:46.665222  6331 layer_factory.hpp:77] Creating layer relu5_0_branch2b
I1215 11:21:46.665233  6331 net.cpp:106] Creating Layer relu5_0_branch2b
I1215 11:21:46.665241  6331 net.cpp:454] relu5_0_branch2b <- enet5_0_branch2b
I1215 11:21:46.665249  6331 net.cpp:397] relu5_0_branch2b -> enet5_0_branch2b (in-place)
I1215 11:21:46.666553  6331 net.cpp:150] Setting up relu5_0_branch2b
I1215 11:21:46.666569  6331 net.cpp:157] Top shape: 4 4 189 621 (1877904)
I1215 11:21:46.666576  6331 net.cpp:165] Memory required for data: 4977351008
I1215 11:21:46.666584  6331 layer_factory.hpp:77] Creating layer enet5_0_branch2c
I1215 11:21:46.666604  6331 net.cpp:106] Creating Layer enet5_0_branch2c
I1215 11:21:46.666611  6331 net.cpp:454] enet5_0_branch2c <- enet5_0_branch2b
I1215 11:21:46.666622  6331 net.cpp:411] enet5_0_branch2c -> enet5_0_branch2c
I1215 11:21:46.670377  6331 net.cpp:150] Setting up enet5_0_branch2c
I1215 11:21:46.670395  6331 net.cpp:157] Top shape: 4 16 189 621 (7511616)
I1215 11:21:46.670403  6331 net.cpp:165] Memory required for data: 5007397472
I1215 11:21:46.670413  6331 layer_factory.hpp:77] Creating layer bn5_0_branch2c
I1215 11:21:46.670428  6331 net.cpp:106] Creating Layer bn5_0_branch2c
I1215 11:21:46.670436  6331 net.cpp:454] bn5_0_branch2c <- enet5_0_branch2c
I1215 11:21:46.670449  6331 net.cpp:397] bn5_0_branch2c -> enet5_0_branch2c (in-place)
I1215 11:21:46.671916  6331 net.cpp:150] Setting up bn5_0_branch2c
I1215 11:21:46.671933  6331 net.cpp:157] Top shape: 4 16 189 621 (7511616)
I1215 11:21:46.671941  6331 net.cpp:165] Memory required for data: 5037443936
I1215 11:21:46.671952  6331 layer_factory.hpp:77] Creating layer enet5_0_branch1a
I1215 11:21:46.671969  6331 net.cpp:106] Creating Layer enet5_0_branch1a
I1215 11:21:46.671977  6331 net.cpp:454] enet5_0_branch1a <- enet4_2_relu4_2_0_split_1
I1215 11:21:46.671991  6331 net.cpp:411] enet5_0_branch1a -> enet5_0_branch1a
I1215 11:21:46.675958  6331 net.cpp:150] Setting up enet5_0_branch1a
I1215 11:21:46.675976  6331 net.cpp:157] Top shape: 4 16 95 311 (1890880)
I1215 11:21:46.675984  6331 net.cpp:165] Memory required for data: 5045007456
I1215 11:21:46.676002  6331 layer_factory.hpp:77] Creating layer bn5_0_branch1a
I1215 11:21:46.676028  6331 net.cpp:106] Creating Layer bn5_0_branch1a
I1215 11:21:46.676038  6331 net.cpp:454] bn5_0_branch1a <- enet5_0_branch1a
I1215 11:21:46.676048  6331 net.cpp:397] bn5_0_branch1a -> enet5_0_branch1a (in-place)
I1215 11:21:46.676507  6331 net.cpp:150] Setting up bn5_0_branch1a
I1215 11:21:46.676522  6331 net.cpp:157] Top shape: 4 16 95 311 (1890880)
I1215 11:21:46.676528  6331 net.cpp:165] Memory required for data: 5052570976
I1215 11:21:46.676538  6331 layer_factory.hpp:77] Creating layer unpool5_0_branch1a
I1215 11:21:46.676551  6331 net.cpp:106] Creating Layer unpool5_0_branch1a
I1215 11:21:46.676558  6331 net.cpp:454] unpool5_0_branch1a <- enet5_0_branch1a
I1215 11:21:46.676568  6331 net.cpp:454] unpool5_0_branch1a <- pool1_0_branch1a_mask
I1215 11:21:46.676580  6331 net.cpp:411] unpool5_0_branch1a -> unpool5_0_branch1a
I1215 11:21:46.676628  6331 net.cpp:150] Setting up unpool5_0_branch1a
I1215 11:21:46.676645  6331 net.cpp:157] Top shape: 4 16 189 621 (7511616)
I1215 11:21:46.676651  6331 net.cpp:165] Memory required for data: 5082617440
I1215 11:21:46.676658  6331 layer_factory.hpp:77] Creating layer enet5_0
I1215 11:21:46.676668  6331 net.cpp:106] Creating Layer enet5_0
I1215 11:21:46.676676  6331 net.cpp:454] enet5_0 <- unpool5_0_branch1a
I1215 11:21:46.676683  6331 net.cpp:454] enet5_0 <- enet5_0_branch2c
I1215 11:21:46.676692  6331 net.cpp:411] enet5_0 -> enet5_0
I1215 11:21:46.676741  6331 net.cpp:150] Setting up enet5_0
I1215 11:21:46.676754  6331 net.cpp:157] Top shape: 4 16 189 621 (7511616)
I1215 11:21:46.676760  6331 net.cpp:165] Memory required for data: 5112663904
I1215 11:21:46.676767  6331 layer_factory.hpp:77] Creating layer relu5_0
I1215 11:21:46.676779  6331 net.cpp:106] Creating Layer relu5_0
I1215 11:21:46.676786  6331 net.cpp:454] relu5_0 <- enet5_0
I1215 11:21:46.676795  6331 net.cpp:397] relu5_0 -> enet5_0 (in-place)
I1215 11:21:46.677916  6331 net.cpp:150] Setting up relu5_0
I1215 11:21:46.677939  6331 net.cpp:157] Top shape: 4 16 189 621 (7511616)
I1215 11:21:46.677947  6331 net.cpp:165] Memory required for data: 5142710368
I1215 11:21:46.677953  6331 layer_factory.hpp:77] Creating layer enet5_0_relu5_0_0_split
I1215 11:21:46.677963  6331 net.cpp:106] Creating Layer enet5_0_relu5_0_0_split
I1215 11:21:46.677971  6331 net.cpp:454] enet5_0_relu5_0_0_split <- enet5_0
I1215 11:21:46.677980  6331 net.cpp:411] enet5_0_relu5_0_0_split -> enet5_0_relu5_0_0_split_0
I1215 11:21:46.677994  6331 net.cpp:411] enet5_0_relu5_0_0_split -> enet5_0_relu5_0_0_split_1
I1215 11:21:46.678184  6331 net.cpp:150] Setting up enet5_0_relu5_0_0_split
I1215 11:21:46.678200  6331 net.cpp:157] Top shape: 4 16 189 621 (7511616)
I1215 11:21:46.678207  6331 net.cpp:157] Top shape: 4 16 189 621 (7511616)
I1215 11:21:46.678213  6331 net.cpp:165] Memory required for data: 5202803296
I1215 11:21:46.678220  6331 layer_factory.hpp:77] Creating layer enet5_1_branch2a
I1215 11:21:46.678237  6331 net.cpp:106] Creating Layer enet5_1_branch2a
I1215 11:21:46.678246  6331 net.cpp:454] enet5_1_branch2a <- enet5_0_relu5_0_0_split_0
I1215 11:21:46.678259  6331 net.cpp:411] enet5_1_branch2a -> enet5_1_branch2a
I1215 11:21:46.682188  6331 net.cpp:150] Setting up enet5_1_branch2a
I1215 11:21:46.682206  6331 net.cpp:157] Top shape: 4 4 189 621 (1877904)
I1215 11:21:46.682214  6331 net.cpp:165] Memory required for data: 5210314912
I1215 11:21:46.682224  6331 layer_factory.hpp:77] Creating layer bn5_1_branch2a
I1215 11:21:46.682241  6331 net.cpp:106] Creating Layer bn5_1_branch2a
I1215 11:21:46.682250  6331 net.cpp:454] bn5_1_branch2a <- enet5_1_branch2a
I1215 11:21:46.682260  6331 net.cpp:397] bn5_1_branch2a -> enet5_1_branch2a (in-place)
I1215 11:21:46.683727  6331 net.cpp:150] Setting up bn5_1_branch2a
I1215 11:21:46.683744  6331 net.cpp:157] Top shape: 4 4 189 621 (1877904)
I1215 11:21:46.683751  6331 net.cpp:165] Memory required for data: 5217826528
I1215 11:21:46.683763  6331 layer_factory.hpp:77] Creating layer relu5_1_branch2a
I1215 11:21:46.683782  6331 net.cpp:106] Creating Layer relu5_1_branch2a
I1215 11:21:46.683799  6331 net.cpp:454] relu5_1_branch2a <- enet5_1_branch2a
I1215 11:21:46.683809  6331 net.cpp:397] relu5_1_branch2a -> enet5_1_branch2a (in-place)
I1215 11:21:46.685643  6331 net.cpp:150] Setting up relu5_1_branch2a
I1215 11:21:46.685662  6331 net.cpp:157] Top shape: 4 4 189 621 (1877904)
I1215 11:21:46.685668  6331 net.cpp:165] Memory required for data: 5225338144
I1215 11:21:46.685675  6331 layer_factory.hpp:77] Creating layer enet5_1_branch2b
I1215 11:21:46.685695  6331 net.cpp:106] Creating Layer enet5_1_branch2b
I1215 11:21:46.685703  6331 net.cpp:454] enet5_1_branch2b <- enet5_1_branch2a
I1215 11:21:46.685715  6331 net.cpp:411] enet5_1_branch2b -> enet5_1_branch2b
I1215 11:21:46.690879  6331 net.cpp:150] Setting up enet5_1_branch2b
I1215 11:21:46.690899  6331 net.cpp:157] Top shape: 4 4 189 621 (1877904)
I1215 11:21:46.690907  6331 net.cpp:165] Memory required for data: 5232849760
I1215 11:21:46.690918  6331 layer_factory.hpp:77] Creating layer bn5_1_branch2b
I1215 11:21:46.690932  6331 net.cpp:106] Creating Layer bn5_1_branch2b
I1215 11:21:46.690940  6331 net.cpp:454] bn5_1_branch2b <- enet5_1_branch2b
I1215 11:21:46.690951  6331 net.cpp:397] bn5_1_branch2b -> enet5_1_branch2b (in-place)
I1215 11:21:46.692394  6331 net.cpp:150] Setting up bn5_1_branch2b
I1215 11:21:46.692412  6331 net.cpp:157] Top shape: 4 4 189 621 (1877904)
I1215 11:21:46.692420  6331 net.cpp:165] Memory required for data: 5240361376
I1215 11:21:46.692430  6331 layer_factory.hpp:77] Creating layer relu5_1_branch2b
I1215 11:21:46.692441  6331 net.cpp:106] Creating Layer relu5_1_branch2b
I1215 11:21:46.692450  6331 net.cpp:454] relu5_1_branch2b <- enet5_1_branch2b
I1215 11:21:46.692459  6331 net.cpp:397] relu5_1_branch2b -> enet5_1_branch2b (in-place)
I1215 11:21:46.693578  6331 net.cpp:150] Setting up relu5_1_branch2b
I1215 11:21:46.693595  6331 net.cpp:157] Top shape: 4 4 189 621 (1877904)
I1215 11:21:46.693603  6331 net.cpp:165] Memory required for data: 5247872992
I1215 11:21:46.693609  6331 layer_factory.hpp:77] Creating layer enet5_1_branch2c
I1215 11:21:46.693627  6331 net.cpp:106] Creating Layer enet5_1_branch2c
I1215 11:21:46.693635  6331 net.cpp:454] enet5_1_branch2c <- enet5_1_branch2b
I1215 11:21:46.693650  6331 net.cpp:411] enet5_1_branch2c -> enet5_1_branch2c
I1215 11:21:46.697599  6331 net.cpp:150] Setting up enet5_1_branch2c
I1215 11:21:46.697618  6331 net.cpp:157] Top shape: 4 16 189 621 (7511616)
I1215 11:21:46.697625  6331 net.cpp:165] Memory required for data: 5277919456
I1215 11:21:46.697635  6331 layer_factory.hpp:77] Creating layer bn5_1_branch2c
I1215 11:21:46.697651  6331 net.cpp:106] Creating Layer bn5_1_branch2c
I1215 11:21:46.697659  6331 net.cpp:454] bn5_1_branch2c <- enet5_1_branch2c
I1215 11:21:46.697672  6331 net.cpp:397] bn5_1_branch2c -> enet5_1_branch2c (in-place)
I1215 11:21:46.699149  6331 net.cpp:150] Setting up bn5_1_branch2c
I1215 11:21:46.699167  6331 net.cpp:157] Top shape: 4 16 189 621 (7511616)
I1215 11:21:46.699173  6331 net.cpp:165] Memory required for data: 5307965920
I1215 11:21:46.699184  6331 layer_factory.hpp:77] Creating layer enet5_1
I1215 11:21:46.699195  6331 net.cpp:106] Creating Layer enet5_1
I1215 11:21:46.699203  6331 net.cpp:454] enet5_1 <- enet5_0_relu5_0_0_split_1
I1215 11:21:46.699211  6331 net.cpp:454] enet5_1 <- enet5_1_branch2c
I1215 11:21:46.699221  6331 net.cpp:411] enet5_1 -> enet5_1
I1215 11:21:46.699275  6331 net.cpp:150] Setting up enet5_1
I1215 11:21:46.699287  6331 net.cpp:157] Top shape: 4 16 189 621 (7511616)
I1215 11:21:46.699295  6331 net.cpp:165] Memory required for data: 5338012384
I1215 11:21:46.699301  6331 layer_factory.hpp:77] Creating layer relu5_1
I1215 11:21:46.699312  6331 net.cpp:106] Creating Layer relu5_1
I1215 11:21:46.699321  6331 net.cpp:454] relu5_1 <- enet5_1
I1215 11:21:46.699329  6331 net.cpp:397] relu5_1 -> enet5_1 (in-place)
I1215 11:21:46.700675  6331 net.cpp:150] Setting up relu5_1
I1215 11:21:46.700692  6331 net.cpp:157] Top shape: 4 16 189 621 (7511616)
I1215 11:21:46.700708  6331 net.cpp:165] Memory required for data: 5368058848
I1215 11:21:46.700724  6331 layer_factory.hpp:77] Creating layer enet6_0
I1215 11:21:46.700742  6331 net.cpp:106] Creating Layer enet6_0
I1215 11:21:46.700749  6331 net.cpp:454] enet6_0 <- enet5_1
I1215 11:21:46.700760  6331 net.cpp:411] enet6_0 -> enet6_0
I1215 11:21:46.703295  6331 net.cpp:150] Setting up enet6_0
I1215 11:21:46.703313  6331 net.cpp:157] Top shape: 4 2 377 1241 (3742856)
I1215 11:21:46.703320  6331 net.cpp:165] Memory required for data: 5383030272
I1215 11:21:46.703331  6331 layer_factory.hpp:77] Creating layer enet6_0_enet6_0_0_split
I1215 11:21:46.703342  6331 net.cpp:106] Creating Layer enet6_0_enet6_0_0_split
I1215 11:21:46.703349  6331 net.cpp:454] enet6_0_enet6_0_0_split <- enet6_0
I1215 11:21:46.703361  6331 net.cpp:411] enet6_0_enet6_0_0_split -> enet6_0_enet6_0_0_split_0
I1215 11:21:46.703375  6331 net.cpp:411] enet6_0_enet6_0_0_split -> enet6_0_enet6_0_0_split_1
I1215 11:21:46.703461  6331 net.cpp:150] Setting up enet6_0_enet6_0_0_split
I1215 11:21:46.703475  6331 net.cpp:157] Top shape: 4 2 377 1241 (3742856)
I1215 11:21:46.703483  6331 net.cpp:157] Top shape: 4 2 377 1241 (3742856)
I1215 11:21:46.703490  6331 net.cpp:165] Memory required for data: 5412973120
I1215 11:21:46.703496  6331 layer_factory.hpp:77] Creating layer loss
I1215 11:21:46.703522  6331 net.cpp:106] Creating Layer loss
I1215 11:21:46.703531  6331 net.cpp:454] loss <- enet6_0_enet6_0_0_split_0
I1215 11:21:46.703541  6331 net.cpp:454] loss <- label_data_1_split_0
I1215 11:21:46.703552  6331 net.cpp:411] loss -> loss
I1215 11:21:46.703586  6331 layer_factory.hpp:77] Creating layer loss
I1215 11:21:46.718304  6331 net.cpp:150] Setting up loss
I1215 11:21:46.718340  6331 net.cpp:157] Top shape: (1)
I1215 11:21:46.718348  6331 net.cpp:160]     with loss weight 1
I1215 11:21:46.718415  6331 net.cpp:165] Memory required for data: 5412973124
I1215 11:21:46.718425  6331 layer_factory.hpp:77] Creating layer accuracy
I1215 11:21:46.718447  6331 net.cpp:106] Creating Layer accuracy
I1215 11:21:46.718458  6331 net.cpp:454] accuracy <- enet6_0_enet6_0_0_split_1
I1215 11:21:46.718473  6331 net.cpp:454] accuracy <- label_data_1_split_1
I1215 11:21:46.718487  6331 net.cpp:411] accuracy -> accuracy
I1215 11:21:46.718503  6331 net.cpp:411] accuracy -> per_class_accuracy
I1215 11:21:46.718590  6331 net.cpp:150] Setting up accuracy
I1215 11:21:46.718602  6331 net.cpp:157] Top shape: (1)
I1215 11:21:46.718611  6331 net.cpp:157] Top shape: 2 (2)
I1215 11:21:46.718616  6331 net.cpp:165] Memory required for data: 5412973136
I1215 11:21:46.718624  6331 net.cpp:228] accuracy does not need backward computation.
I1215 11:21:46.718631  6331 net.cpp:226] loss needs backward computation.
I1215 11:21:46.718639  6331 net.cpp:226] enet6_0_enet6_0_0_split needs backward computation.
I1215 11:21:46.718647  6331 net.cpp:226] enet6_0 needs backward computation.
…
