…
I0106 14:59:39.612207 23268 solver.cpp:91] Creating training net from net file: /home/map/liuli/caffe_hebei/segnet/Models/enet/enet_train_kitti_road.prototxt
I0106 14:59:39.624667 23268 net.cpp:49] Initializing net from parameters: 
name: "enet"
state {
  phase: TRAIN
}
layer {
  name: "data"
  type: "ImageSegData"
  top: "data"
  top: "label"
  transform_param {
    mirror: true
    mean_value: 0
    mean_value: 0
    mean_value: 0
    scale_factors: 1
  }
  image_data_param {
    source: "/home/map/liuli/datasets/enet_multclass/train/enet_train_2.list"
    batch_size: 4
    shuffle: true
    label_type: PIXEL
  }
}
layer {
  name: "enet_initial_branch2a"
  type: "Convolution"
  bottom: "data"
  top: "enet_initial_branch2a"
  param {
    lr_mult: 1
    decay_mult: 1
  }
  param {
    lr_mult: 2
    decay_mult: 0
  }
  convolution_param {
    num_output: 13
    bias_term: true
    weight_filler {
      type: "msra"
    }
    bias_filler {
      type: "constant"
    }
    pad_h: 1
    pad_w: 1
    kernel_h: 3
    kernel_w: 3
    stride_h: 2
    stride_w: 2
    dilation: 1
  }
}
layer {
  name: "pool_initial_branch1a"
  type: "Pooling"
  bottom: "data"
  top: "pool_initial_branch1a"
  pooling_param {
    pool: MAX
    kernel_size: 2
    stride: 2
  }
}
layer {
  name: "enet_initial"
  type: "Concat"
  bottom: "enet_initial_branch2a"
  bottom: "pool_initial_branch1a"
  top: "enet_initial"
  concat_param {
    axis: 1
  }
}
layer {
  name: "bn_initial"
  type: "BN"
  bottom: "enet_initial"
  top: "enet_initial"
  param {
    lr_mult: 1
    decay_mult: 1
  }
  param {
    lr_mult: 2
    decay_mult: 0
  }
  bn_param {
    scale_filler {
      type: "constant"
      value: 1
    }
    shift_filler {
      type: "constant"
      value: 0.001
    }
  }
}
layer {
  name: "relu_initial"
  type: "PReLU"
  bottom: "enet_initial"
  top: "enet_initial"
}
layer {
  name: "enet1_0_branch2a"
  type: "Convolution"
  bottom: "enet_initial"
  top: "enet1_0_branch2a"
  param {
    lr_mult: 1
    decay_mult: 1
  }
  convolution_param {
    num_output: 16
    bias_term: false
    weight_filler {
      type: "msra"
    }
    bias_filler {
      type: "constant"
    }
    pad_h: 0
    pad_w: 0
    kernel_h: 2
    kernel_w: 2
    stride_h: 2
    stride_w: 2
    dilation: 1
  }
}
layer {
  name: "bn1_0_branch2a"
  type: "BN"
  bottom: "enet1_0_branch2a"
  top: "enet1_0_branch2a"
  param {
    lr_mult: 1
    decay_mult: 1
  }
  param {
    lr_mult: 2
    decay_mult: 0
  }
  bn_param {
    scale_filler {
      type: "constant"
      value: 1
    }
    shift_filler {
      type: "constant"
      value: 0.001
    }
  }
}
layer {
  name: "relu1_0_branch2a"
  type: "PReLU"
  bottom: "enet1_0_branch2a"
  top: "enet1_0_branch2a"
}
layer {
  name: "enet1_0_branch2b"
  type: "Convolution"
  bottom: "enet1_0_branch2a"
  top: "enet1_0_branch2b"
  param {
    lr_mult: 1
    decay_mult: 1
  }
  param {
    lr_mult: 2
    decay_mult: 0
  }
  convolution_param {
    num_output: 16
    bias_term: true
    weight_filler {
      type: "msra"
    }
    bias_filler {
      type: "constant"
    }
    pad_h: 1
    pad_w: 1
    kernel_h: 3
    kernel_w: 3
    stride_h: 1
    stride_w: 1
    dilation: 1
  }
}
layer {
  name: "bn1_0_branch2b"
  type: "BN"
  bottom: "enet1_0_branch2b"
  top: "enet1_0_branch2b"
  param {
    lr_mult: 1
    decay_mult: 1
  }
  param {
    lr_mult: 2
    decay_mult: 0
  }
  bn_param {
    scale_filler {
      type: "constant"
      value: 1
    }
    shift_filler {
      type: "constant"
      value: 0.001
    }
  }
}
layer {
  name: "relu1_0_branch2b"
  type: "PReLU"
  bottom: "enet1_0_branch2b"
  top: "enet1_0_branch2b"
}
layer {
  name: "enet1_0_branch2c"
  type: "Convolution"
  bottom: "enet1_0_branch2b"
  top: "enet1_0_branch2c"
  param {
    lr_mult: 1
    decay_mult: 1
  }
  convolution_param {
    num_output: 64
    bias_term: false
    weight_filler {
      type: "msra"
    }
    bias_filler {
      type: "constant"
    }
    pad_h: 0
    pad_w: 0
    kernel_h: 1
    kernel_w: 1
    stride_h: 1
    stride_w: 1
    dilation: 1
  }
}
layer {
  name: "bn1_0_branch2c"
  type: "BN"
  bottom: "enet1_0_branch2c"
  top: "enet1_0_branch2c"
  param {
    lr_mult: 1
    decay_mult: 1
  }
  param {
    lr_mult: 2
    decay_mult: 0
  }
  bn_param {
    scale_filler {
      type: "constant"
      value: 1
    }
    shift_filler {
      type: "constant"
      value: 0.001
    }
  }
}
layer {
  name: "dropout1_0_branch2c"
  type: "Dropout"
  bottom: "enet1_0_branch2c"
  top: "enet1_0_branch2c"
  dropout_param {
    dropout_ratio: 0.01
  }
}
layer {
  name: "enet1_0_branch1a"
  type: "Convolution"
  bottom: "enet_initial"
  top: "enet1_0_branch1a"
  param {
    lr_mult: 1
    decay_mult: 1
  }
  convolution_param {
    num_output: 64
    bias_term: false
    weight_filler {
      type: "msra"
    }
    bias_filler {
      type: "constant"
    }
    pad_h: 0
    pad_w: 0
    kernel_h: 1
    kernel_w: 1
    stride_h: 1
    stride_w: 1
    dilation: 1
  }
}
layer {
  name: "bn1_0_branch1a"
  type: "BN"
  bottom: "enet1_0_branch1a"
  top: "enet1_0_branch1a"
  param {
    lr_mult: 1
    decay_mult: 1
  }
  param {
    lr_mult: 2
    decay_mult: 0
  }
  bn_param {
    scale_filler {
      type: "constant"
      value: 1
    }
    shift_filler {
      type: "constant"
      value: 0.001
    }
  }
}
layer {
  name: "pool1_0_branch1a"
  type: "Pooling"
  bottom: "enet1_0_branch1a"
  top: "pool1_0_branch1a"
  top: "pool1_0_branch1a_mask"
  pooling_param {
    pool: MAX
    kernel_size: 2
    stride: 2
  }
}
layer {
  name: "enet1_0"
  type: "Eltwise"
  bottom: "pool1_0_branch1a"
  bottom: "enet1_0_branch2c"
  top: "enet1_0"
}
layer {
  name: "relu1_0"
  type: "PReLU"
  bottom: "enet1_0"
  top: "enet1_0"
}
layer {
  name: "enet1_1_branch2a"
  type: "Convolution"
  bottom: "enet1_0"
  top: "enet1_1_branch2a"
  param {
    lr_mult: 1
    decay_mult: 1
  }
  convolution_param {
    num_output: 16
    bias_term: false
    weight_filler {
      type: "msra"
    }
    bias_filler {
      type: "constant"
    }
    pad_h: 0
    pad_w: 0
    kernel_h: 1
    kernel_w: 1
    stride_h: 1
    stride_w: 1
    dilation: 1
  }
}
layer {
  name: "bn1_1_branch2a"
  type: "BN"
  bottom: "enet1_1_branch2a"
  top: "enet1_1_branch2a"
  param {
    lr_mult: 1
    decay_mult: 1
  }
  param {
    lr_mult: 2
    decay_mult: 0
  }
  bn_param {
    scale_filler {
      type: "constant"
      value: 1
    }
    shift_filler {
      type: "constant"
      value: 0.001
    }
  }
}
layer {
  name: "relu1_1_branch2a"
  type: "PReLU"
  bottom: "enet1_1_branch2a"
  top: "enet1_1_branch2a"
}
layer {
  name: "enet1_1_branch2b"
  type: "Convolution"
  bottom: "enet1_1_branch2a"
  top: "enet1_1_branch2b"
  param {
    lr_mult: 1
    decay_mult: 1
  }
  param {
    lr_mult: 2
    decay_mult: 0
  }
  convolution_param {
    num_output: 16
    bias_term: true
    weight_filler {
      type: "msra"
    }
    bias_filler {
      type: "constant"
    }
    pad_h: 1
    pad_w: 1
    kernel_h: 3
    kernel_w: 3
    stride_h: 1
    stride_w: 1
    dilation: 1
  }
}
layer {
  name: "bn1_1_branch2b"
  type: "BN"
  bottom: "enet1_1_branch2b"
  top: "enet1_1_branch2b"
  param {
    lr_mult: 1
    decay_mult: 1
  }
  param {
    lr_mult: 2
    decay_mult: 0
  }
  bn_param {
    scale_filler {
      type: "constant"
      value: 1
    }
    shift_filler {
      type: "constant"
      value: 0.001
    }
  }
}
layer {
  name: "relu1_1_branch2b"
  type: "PReLU"
  bottom: "enet1_1_branch2b"
  top: "enet1_1_branch2b"
}
layer {
  name: "enet1_1_branch2c"
  type: "Convolution"
  bottom: "enet1_1_branch2b"
  top: "enet1_1_branch2c"
  param {
    lr_mult: 1
    decay_mult: 1
  }
  convolution_param {
    num_output: 64
    bias_term: false
    weight_filler {
      type: "msra"
    }
    bias_filler {
      type: "constant"
    }
    pad_h: 0
    pad_w: 0
    kernel_h: 1
    kernel_w: 1
    stride_h: 1
    stride_w: 1
    dilation: 1
  }
}
layer {
  name: "bn1_1_branch2c"
  type: "BN"
  bottom: "enet1_1_branch2c"
  top: "enet1_1_branch2c"
  param {
    lr_mult: 1
    decay_mult: 1
  }
  param {
    lr_mult: 2
    decay_mult: 0
  }
  bn_param {
    scale_filler {
      type: "constant"
      value: 1
    }
    shift_filler {
      type: "constant"
      value: 0.001
    }
  }
}
layer {
  name: "dropout1_1_branch2c"
  type: "Dropout"
  bottom: "enet1_1_branch2c"
  top: "enet1_1_branch2c"
  dropout_param {
    dropout_ratio: 0.01
  }
}
layer {
  name: "enet1_1"
  type: "Eltwise"
  bottom: "enet1_0"
  bottom: "enet1_1_branch2c"
  top: "enet1_1"
}
layer {
  name: "relu1_1"
  type: "PReLU"
  bottom: "enet1_1"
  top: "enet1_1"
}
layer {
  name: "enet1_2_branch2a"
  type: "Convolution"
  bottom: "enet1_1"
  top: "enet1_2_branch2a"
  param {
    lr_mult: 1
    decay_mult: 1
  }
  convolution_param {
    num_output: 16
    bias_term: false
    weight_filler {
      type: "msra"
    }
    bias_filler {
      type: "constant"
    }
    pad_h: 0
    pad_w: 0
    kernel_h: 1
    kernel_w: 1
    stride_h: 1
    stride_w: 1
    dilation: 1
  }
}
layer {
  name: "bn1_2_branch2a"
  type: "BN"
  bottom: "enet1_2_branch2a"
  top: "enet1_2_branch2a"
  param {
    lr_mult: 1
    decay_mult: 1
  }
  param {
    lr_mult: 2
    decay_mult: 0
  }
  bn_param {
    scale_filler {
      type: "constant"
      value: 1
    }
    shift_filler {
      type: "constant"
      value: 0.001
    }
  }
}
layer {
  name: "relu1_2_branch2a"
  type: "PReLU"
  bottom: "enet1_2_branch2a"
  top: "enet1_2_branch2a"
}
layer {
  name: "enet1_2_branch2b"
  type: "Convolution"
  bottom: "enet1_2_branch2a"
  top: "enet1_2_branch2b"
  param {
    lr_mult: 1
    decay_mult: 1
  }
  param {
    lr_mult: 2
    decay_mult: 0
  }
  convolution_param {
    num_output: 16
    bias_term: true
    weight_filler {
      type: "msra"
    }
    bias_filler {
      type: "constant"
    }
    pad_h: 1
    pad_w: 1
    kernel_h: 3
    kernel_w: 3
    stride_h: 1
    stride_w: 1
    dilation: 1
  }
}
layer {
  name: "bn1_2_branch2b"
  type: "BN"
  bottom: "enet1_2_branch2b"
  top: "enet1_2_branch2b"
  param {
    lr_mult: 1
    decay_mult: 1
  }
  param {
    lr_mult: 2
    decay_mult: 0
  }
  bn_param {
    scale_filler {
      type: "constant"
      value: 1
    }
    shift_filler {
      type: "constant"
      value: 0.001
    }
  }
}
layer {
  name: "relu1_2_branch2b"
  type: "PReLU"
  bottom: "enet1_2_branch2b"
  top: "enet1_2_branch2b"
}
layer {
  name: "enet1_2_branch2c"
  type: "Convolution"
  bottom: "enet1_2_branch2b"
  top: "enet1_2_branch2c"
  param {
    lr_mult: 1
    decay_mult: 1
  }
  convolution_param {
    num_output: 64
    bias_term: false
    weight_filler {
      type: "msra"
    }
    bias_filler {
      type: "constant"
    }
    pad_h: 0
    pad_w: 0
    kernel_h: 1
    kernel_w: 1
    stride_h: 1
    stride_w: 1
    dilation: 1
  }
}
layer {
  name: "bn1_2_branch2c"
  type: "BN"
  bottom: "enet1_2_branch2c"
  top: "enet1_2_branch2c"
  param {
    lr_mult: 1
    decay_mult: 1
  }
  param {
    lr_mult: 2
    decay_mult: 0
  }
  bn_param {
    scale_filler {
      type: "constant"
      value: 1
    }
    shift_filler {
      type: "constant"
      value: 0.001
    }
  }
}
layer {
  name: "dropout1_2_branch2c"
  type: "Dropout"
  bottom: "enet1_2_branch2c"
  top: "enet1_2_branch2c"
  dropout_param {
    dropout_ratio: 0.01
  }
}
layer {
  name: "enet1_2"
  type: "Eltwise"
  bottom: "enet1_1"
  bottom: "enet1_2_branch2c"
  top: "enet1_2"
}
layer {
  name: "relu1_2"
  type: "PReLU"
  bottom: "enet1_2"
  top: "enet1_2"
}
layer {
  name: "enet1_3_branch2a"
  type: "Convolution"
  bottom: "enet1_2"
  top: "enet1_3_branch2a"
  param {
    lr_mult: 1
    decay_mult: 1
  }
  convolution_param {
    num_output: 16
    bias_term: false
    weight_filler {
      type: "msra"
    }
    bias_filler {
      type: "constant"
    }
    pad_h: 0
    pad_w: 0
    kernel_h: 1
    kernel_w: 1
    stride_h: 1
    stride_w: 1
    dilation: 1
  }
}
layer {
  name: "bn1_3_branch2a"
  type: "BN"
  bottom: "enet1_3_branch2a"
  top: "enet1_3_branch2a"
  param {
    lr_mult: 1
    decay_mult: 1
  }
  param {
    lr_mult: 2
    decay_mult: 0
  }
  bn_param {
    scale_filler {
      type: "constant"
      value: 1
    }
    shift_filler {
      type: "constant"
      value: 0.001
    }
  }
}
layer {
  name: "relu1_3_branch2a"
  type: "PReLU"
  bottom: "enet1_3_branch2a"
  top: "enet1_3_branch2a"
}
layer {
  name: "enet1_3_branch2b"
  type: "Convolution"
  bottom: "enet1_3_branch2a"
  top: "enet1_3_branch2b"
  param {
    lr_mult: 1
    decay_mult: 1
  }
  param {
    lr_mult: 2
    decay_mult: 0
  }
  convolution_param {
    num_output: 16
    bias_term: true
    weight_filler {
      type: "msra"
    }
    bias_filler {
      type: "constant"
    }
    pad_h: 1
    pad_w: 1
    kernel_h: 3
    kernel_w: 3
    stride_h: 1
    stride_w: 1
    dilation: 1
  }
}
layer {
  name: "bn1_3_branch2b"
  type: "BN"
  bottom: "enet1_3_branch2b"
  top: "enet1_3_branch2b"
  param {
    lr_mult: 1
    decay_mult: 1
  }
  param {
    lr_mult: 2
    decay_mult: 0
  }
  bn_param {
    scale_filler {
      type: "constant"
      value: 1
    }
    shift_filler {
      type: "constant"
      value: 0.001
    }
  }
}
layer {
  name: "relu1_3_branch2b"
  type: "PReLU"
  bottom: "enet1_3_branch2b"
  top: "enet1_3_branch2b"
}
layer {
  name: "enet1_3_branch2c"
  type: "Convolution"
  bottom: "enet1_3_branch2b"
  top: "enet1_3_branch2c"
  param {
    lr_mult: 1
    decay_mult: 1
  }
  convolution_param {
    num_output: 64
    bias_term: false
    weight_filler {
      type: "msra"
    }
    bias_filler {
      type: "constant"
    }
    pad_h: 0
    pad_w: 0
    kernel_h: 1
    kernel_w: 1
    stride_h: 1
    stride_w: 1
    dilation: 1
  }
}
layer {
  name: "bn1_3_branch2c"
  type: "BN"
  bottom: "enet1_3_branch2c"
  top: "enet1_3_branch2c"
  param {
    lr_mult: 1
    decay_mult: 1
  }
  param {
    lr_mult: 2
    decay_mult: 0
  }
  bn_param {
    scale_filler {
      type: "constant"
      value: 1
    }
    shift_filler {
      type: "constant"
      value: 0.001
    }
  }
}
layer {
  name: "dropout1_3_branch2c"
  type: "Dropout"
  bottom: "enet1_3_branch2c"
  top: "enet1_3_branch2c"
  dropout_param {
    dropout_ratio: 0.01
  }
}
layer {
  name: "enet1_3"
  type: "Eltwise"
  bottom: "enet1_2"
  bottom: "enet1_3_branch2c"
  top: "enet1_3"
}
layer {
  name: "relu1_3"
  type: "PReLU"
  bottom: "enet1_3"
  top: "enet1_3"
}
layer {
  name: "enet1_4_branch2a"
  type: "Convolution"
  bottom: "enet1_3"
  top: "enet1_4_branch2a"
  param {
    lr_mult: 1
    decay_mult: 1
  }
  convolution_param {
    num_output: 16
    bias_term: false
    weight_filler {
      type: "msra"
    }
    bias_filler {
      type: "constant"
    }
    pad_h: 0
    pad_w: 0
    kernel_h: 1
    kernel_w: 1
    stride_h: 1
    stride_w: 1
    dilation: 1
  }
}
layer {
  name: "bn1_4_branch2a"
  type: "BN"
  bottom: "enet1_4_branch2a"
  top: "enet1_4_branch2a"
  param {
    lr_mult: 1
    decay_mult: 1
  }
  param {
    lr_mult: 2
    decay_mult: 0
  }
  bn_param {
    scale_filler {
      type: "constant"
      value: 1
    }
    shift_filler {
      type: "constant"
      value: 0.001
    }
  }
}
layer {
  name: "relu1_4_branch2a"
  type: "PReLU"
  bottom: "enet1_4_branch2a"
  top: "enet1_4_branch2a"
}
layer {
  name: "enet1_4_branch2b"
  type: "Convolution"
  bottom: "enet1_4_branch2a"
  top: "enet1_4_branch2b"
  param {
    lr_mult: 1
    decay_mult: 1
  }
  param {
    lr_mult: 2
    decay_mult: 0
  }
  convolution_param {
    num_output: 16
    bias_term: true
    weight_filler {
      type: "msra"
    }
    bias_filler {
      type: "constant"
    }
    pad_h: 1
    pad_w: 1
    kernel_h: 3
    kernel_w: 3
    stride_h: 1
    stride_w: 1
    dilation: 1
  }
}
layer {
  name: "bn1_4_branch2b"
  type: "BN"
  bottom: "enet1_4_branch2b"
  top: "enet1_4_branch2b"
  param {
    lr_mult: 1
    decay_mult: 1
  }
  param {
    lr_mult: 2
    decay_mult: 0
  }
  bn_param {
    scale_filler {
      type: "constant"
      value: 1
    }
    shift_filler {
      type: "constant"
      value: 0.001
    }
  }
}
layer {
  name: "relu1_4_branch2b"
  type: "PReLU"
  bottom: "enet1_4_branch2b"
  top: "enet1_4_branch2b"
}
layer {
  name: "enet1_4_branch2c"
  type: "Convolution"
  bottom: "enet1_4_branch2b"
  top: "enet1_4_branch2c"
  param {
    lr_mult: 1
    decay_mult: 1
  }
  convolution_param {
    num_output: 64
    bias_term: false
    weight_filler {
      type: "msra"
    }
    bias_filler {
      type: "constant"
    }
    pad_h: 0
    pad_w: 0
    kernel_h: 1
    kernel_w: 1
    stride_h: 1
    stride_w: 1
    dilation: 1
  }
}
layer {
  name: "bn1_4_branch2c"
  type: "BN"
  bottom: "enet1_4_branch2c"
  top: "enet1_4_branch2c"
  param {
    lr_mult: 1
    decay_mult: 1
  }
  param {
    lr_mult: 2
    decay_mult: 0
  }
  bn_param {
    scale_filler {
      type: "constant"
      value: 1
    }
    shift_filler {
      type: "constant"
      value: 0.001
    }
  }
}
layer {
  name: "dropout1_4_branch2c"
  type: "Dropout"
  bottom: "enet1_4_branch2c"
  top: "enet1_4_branch2c"
  dropout_param {
    dropout_ratio: 0.01
  }
}
layer {
  name: "enet1_4"
  type: "Eltwise"
  bottom: "enet1_3"
  bottom: "enet1_4_branch2c"
  top: "enet1_4"
}
layer {
  name: "relu1_4"
  type: "PReLU"
  bottom: "enet1_4"
  top: "enet1_4"
}
layer {
  name: "enet2_0_branch2a"
  type: "Convolution"
  bottom: "enet1_4"
  top: "enet2_0_branch2a"
  param {
    lr_mult: 1
    decay_mult: 1
  }
  convolution_param {
    num_output: 32
    bias_term: false
    weight_filler {
      type: "msra"
    }
    bias_filler {
      type: "constant"
    }
    pad_h: 0
    pad_w: 0
    kernel_h: 2
    kernel_w: 2
    stride_h: 2
    stride_w: 2
    dilation: 1
  }
}
layer {
  name: "bn2_0_branch2a"
  type: "BN"
  bottom: "enet2_0_branch2a"
  top: "enet2_0_branch2a"
  param {
    lr_mult: 1
    decay_mult: 1
  }
  param {
    lr_mult: 2
    decay_mult: 0
  }
  bn_param {
    scale_filler {
      type: "constant"
      value: 1
    }
    shift_filler {
      type: "constant"
      value: 0.001
    }
  }
}
layer {
  name: "relu2_0_branch2a"
  type: "PReLU"
  bottom: "enet2_0_branch2a"
  top: "enet2_0_branch2a"
}
layer {
  name: "enet2_0_branch2b"
  type: "Convolution"
  bottom: "enet2_0_branch2a"
  top: "enet2_0_branch2b"
  param {
    lr_mult: 1
    decay_mult: 1
  }
  param {
    lr_mult: 2
    decay_mult: 0
  }
  convolution_param {
    num_output: 32
    bias_term: true
    weight_filler {
      type: "msra"
    }
    bias_filler {
      type: "constant"
    }
    pad_h: 1
    pad_w: 1
    kernel_h: 3
    kernel_w: 3
    stride_h: 1
    stride_w: 1
    dilation: 1
  }
}
layer {
  name: "bn2_0_branch2b"
  type: "BN"
  bottom: "enet2_0_branch2b"
  top: "enet2_0_branch2b"
  param {
    lr_mult: 1
    decay_mult: 1
  }
  param {
    lr_mult: 2
    decay_mult: 0
  }
  bn_param {
    scale_filler {
      type: "constant"
      value: 1
    }
    shift_filler {
      type: "constant"
      value: 0.001
    }
  }
}
layer {
  name: "relu2_0_branch2b"
  type: "PReLU"
  bottom: "enet2_0_branch2b"
  top: "enet2_0_branch2b"
}
layer {
  name: "enet2_0_branch2c"
  type: "Convolution"
  bottom: "enet2_0_branch2b"
  top: "enet2_0_branch2c"
  param {
    lr_mult: 1
    decay_mult: 1
  }
  convolution_param {
    num_output: 128
    bias_term: false
    weight_filler {
      type: "msra"
    }
    bias_filler {
      type: "constant"
    }
    pad_h: 0
    pad_w: 0
    kernel_h: 1
    kernel_w: 1
    stride_h: 1
    stride_w: 1
    dilation: 1
  }
}
layer {
  name: "bn2_0_branch2c"
  type: "BN"
  bottom: "enet2_0_branch2c"
  top: "enet2_0_branch2c"
  param {
    lr_mult: 1
    decay_mult: 1
  }
  param {
    lr_mult: 2
    decay_mult: 0
  }
  bn_param {
    scale_filler {
      type: "constant"
      value: 1
    }
    shift_filler {
      type: "constant"
      value: 0.001
    }
  }
}
layer {
  name: "dropout2_0_branch2c"
  type: "Dropout"
  bottom: "enet2_0_branch2c"
  top: "enet2_0_branch2c"
  dropout_param {
    dropout_ratio: 0.1
  }
}
layer {
  name: "enet2_0_branch1a"
  type: "Convolution"
  bottom: "enet1_4"
  top: "enet2_0_branch1a"
  param {
    lr_mult: 1
    decay_mult: 1
  }
  convolution_param {
    num_output: 128
    bias_term: false
    weight_filler {
      type: "msra"
    }
    bias_filler {
      type: "constant"
    }
    pad_h: 0
    pad_w: 0
    kernel_h: 1
    kernel_w: 1
    stride_h: 1
    stride_w: 1
    dilation: 1
  }
}
layer {
  name: "bn2_0_branch1a"
  type: "BN"
  bottom: "enet2_0_branch1a"
  top: "enet2_0_branch1a"
  param {
    lr_mult: 1
    decay_mult: 1
  }
  param {
    lr_mult: 2
    decay_mult: 0
  }
  bn_param {
    scale_filler {
      type: "constant"
      value: 1
    }
    shift_filler {
      type: "constant"
      value: 0.001
    }
  }
}
layer {
  name: "pool2_0_branch1a"
  type: "Pooling"
  bottom: "enet2_0_branch1a"
  top: "pool2_0_branch1a"
  top: "pool2_0_branch1a_mask"
  pooling_param {
    pool: MAX
    kernel_size: 2
    stride: 2
  }
}
layer {
  name: "enet2_0"
  type: "Eltwise"
  bottom: "pool2_0_branch1a"
  bottom: "enet2_0_branch2c"
  top: "enet2_0"
}
layer {
  name: "relu2_0"
  type: "PReLU"
  bottom: "enet2_0"
  top: "enet2_0"
}
layer {
  name: "enet2_1_branch2a"
  type: "Convolution"
  bottom: "enet2_0"
  top: "enet2_1_branch2a"
  param {
    lr_mult: 1
    decay_mult: 1
  }
  convolution_param {
    num_output: 32
    bias_term: false
    weight_filler {
      type: "msra"
    }
    bias_filler {
      type: "constant"
    }
    pad_h: 0
    pad_w: 0
    kernel_h: 1
    kernel_w: 1
    stride_h: 1
    stride_w: 1
    dilation: 1
  }
}
layer {
  name: "bn2_1_branch2a"
  type: "BN"
  bottom: "enet2_1_branch2a"
  top: "enet2_1_branch2a"
  param {
    lr_mult: 1
    decay_mult: 1
  }
  param {
    lr_mult: 2
    decay_mult: 0
  }
  bn_param {
    scale_filler {
      type: "constant"
      value: 1
    }
    shift_filler {
      type: "constant"
      value: 0.001
    }
  }
}
layer {
  name: "relu2_1_branch2a"
  type: "PReLU"
  bottom: "enet2_1_branch2a"
  top: "enet2_1_branch2a"
}
layer {
  name: "enet2_1_branch2b"
  type: "Convolution"
  bottom: "enet2_1_branch2a"
  top: "enet2_1_branch2b"
  param {
    lr_mult: 1
    decay_mult: 1
  }
  param {
    lr_mult: 2
    decay_mult: 0
  }
  convolution_param {
    num_output: 32
    bias_term: true
    weight_filler {
      type: "msra"
    }
    bias_filler {
      type: "constant"
    }
    pad_h: 1
    pad_w: 1
    kernel_h: 3
    kernel_w: 3
    stride_h: 1
    stride_w: 1
    dilation: 1
  }
}
layer {
  name: "bn2_1_branch2b"
  type: "BN"
  bottom: "enet2_1_branch2b"
  top: "enet2_1_branch2b"
  param {
    lr_mult: 1
    decay_mult: 1
  }
  param {
    lr_mult: 2
    decay_mult: 0
  }
  bn_param {
    scale_filler {
      type: "constant"
      value: 1
    }
    shift_filler {
      type: "constant"
      value: 0.001
    }
  }
}
layer {
  name: "relu2_1_branch2b"
  type: "PReLU"
  bottom: "enet2_1_branch2b"
  top: "enet2_1_branch2b"
}
layer {
  name: "enet2_1_branch2c"
  type: "Convolution"
  bottom: "enet2_1_branch2b"
  top: "enet2_1_branch2c"
  param {
    lr_mult: 1
    decay_mult: 1
  }
  convolution_param {
    num_output: 128
    bias_term: false
    weight_filler {
      type: "msra"
    }
    bias_filler {
      type: "constant"
    }
    pad_h: 0
    pad_w: 0
    kernel_h: 1
    kernel_w: 1
    stride_h: 1
    stride_w: 1
    dilation: 1
  }
}
layer {
  name: "bn2_1_branch2c"
  type: "BN"
  bottom: "enet2_1_branch2c"
  top: "enet2_1_branch2c"
  param {
    lr_mult: 1
    decay_mult: 1
  }
  param {
    lr_mult: 2
    decay_mult: 0
  }
  bn_param {
    scale_filler {
      type: "constant"
      value: 1
    }
    shift_filler {
      type: "constant"
      value: 0.001
    }
  }
}
layer {
  name: "dropout2_1_branch2c"
  type: "Dropout"
  bottom: "enet2_1_branch2c"
  top: "enet2_1_branch2c"
  dropout_param {
    dropout_ratio: 0.1
  }
}
layer {
  name: "enet2_1"
  type: "Eltwise"
  bottom: "enet2_0"
  bottom: "enet2_1_branch2c"
  top: "enet2_1"
}
layer {
  name: "relu2_1"
  type: "PReLU"
  bottom: "enet2_1"
  top: "enet2_1"
}
layer {
  name: "enet2_2_branch2a"
  type: "Convolution"
  bottom: "enet2_1"
  top: "enet2_2_branch2a"
  param {
    lr_mult: 1
    decay_mult: 1
  }
  convolution_param {
    num_output: 32
    bias_term: false
    weight_filler {
      type: "msra"
    }
    bias_filler {
      type: "constant"
    }
    pad_h: 0
    pad_w: 0
    kernel_h: 1
    kernel_w: 1
    stride_h: 1
    stride_w: 1
    dilation: 1
  }
}
layer {
  name: "bn2_2_branch2a"
  type: "BN"
  bottom: "enet2_2_branch2a"
  top: "enet2_2_branch2a"
  param {
    lr_mult: 1
    decay_mult: 1
  }
  param {
    lr_mult: 2
    decay_mult: 0
  }
  bn_param {
    scale_filler {
      type: "constant"
      value: 1
    }
    shift_filler {
      type: "constant"
      value: 0.001
    }
  }
}
layer {
  name: "relu2_2_branch2a"
  type: "PReLU"
  bottom: "enet2_2_branch2a"
  top: "enet2_2_branch2a"
}
layer {
  name: "enet2_2_branch2b"
  type: "Convolution"
  bottom: "enet2_2_branch2a"
  top: "enet2_2_branch2b"
  param {
    lr_mult: 1
    decay_mult: 1
  }
  param {
    lr_mult: 2
    decay_mult: 0
  }
  convolution_param {
    num_output: 32
    bias_term: true
    weight_filler {
      type: "msra"
    }
    bias_filler {
      type: "constant"
    }
    pad_h: 2
    pad_w: 2
    kernel_h: 3
    kernel_w: 3
    stride_h: 1
    stride_w: 1
    dilation: 2
  }
}
layer {
  name: "bn2_2_branch2b"
  type: "BN"
  bottom: "enet2_2_branch2b"
  top: "enet2_2_branch2b"
  param {
    lr_mult: 1
    decay_mult: 1
  }
  param {
    lr_mult: 2
    decay_mult: 0
  }
  bn_param {
    scale_filler {
      type: "constant"
      value: 1
    }
    shift_filler {
      type: "constant"
      value: 0.001
    }
  }
}
layer {
  name: "relu2_2_branch2b"
  type: "PReLU"
  bottom: "enet2_2_branch2b"
  top: "enet2_2_branch2b"
}
layer {
  name: "enet2_2_branch2c"
  type: "Convolution"
  bottom: "enet2_2_branch2b"
  top: "enet2_2_branch2c"
  param {
    lr_mult: 1
    decay_mult: 1
  }
  convolution_param {
    num_output: 128
    bias_term: false
    weight_filler {
      type: "msra"
    }
    bias_filler {
      type: "constant"
    }
    pad_h: 0
    pad_w: 0
    kernel_h: 1
    kernel_w: 1
    stride_h: 1
    stride_w: 1
    dilation: 1
  }
}
layer {
  name: "bn2_2_branch2c"
  type: "BN"
  bottom: "enet2_2_branch2c"
  top: "enet2_2_branch2c"
  param {
    lr_mult: 1
    decay_mult: 1
  }
  param {
    lr_mult: 2
    decay_mult: 0
  }
  bn_param {
    scale_filler {
      type: "constant"
      value: 1
    }
    shift_filler {
      type: "constant"
      value: 0.001
    }
  }
}
layer {
  name: "dropout2_2_branch2c"
  type: "Dropout"
  bottom: "enet2_2_branch2c"
  top: "enet2_2_branch2c"
  dropout_param {
    dropout_ratio: 0.1
  }
}
layer {
  name: "enet2_2"
  type: "Eltwise"
  bottom: "enet2_1"
  bottom: "enet2_2_branch2c"
  top: "enet2_2"
}
layer {
  name: "relu2_2"
  type: "PReLU"
  bottom: "enet2_2"
  top: "enet2_2"
}
layer {
  name: "enet2_3_branch2a"
  type: "Convolution"
  bottom: "enet2_2"
  top: "enet2_3_branch2a"
  param {
    lr_mult: 1
    decay_mult: 1
  }
  convolution_param {
    num_output: 32
    bias_term: false
    weight_filler {
      type: "msra"
    }
    bias_filler {
      type: "constant"
    }
    pad_h: 0
    pad_w: 0
    kernel_h: 1
    kernel_w: 1
    stride_h: 1
    stride_w: 1
    dilation: 1
  }
}
layer {
  name: "bn2_3_branch2a"
  type: "BN"
  bottom: "enet2_3_branch2a"
  top: "enet2_3_branch2a"
  param {
    lr_mult: 1
    decay_mult: 1
  }
  param {
    lr_mult: 2
    decay_mult: 0
  }
  bn_param {
    scale_filler {
      type: "constant"
      value: 1
    }
    shift_filler {
      type: "constant"
      value: 0.001
    }
  }
}
layer {
  name: "relu2_3_branch2a"
  type: "PReLU"
  bottom: "enet2_3_branch2a"
  top: "enet2_3_branch2a"
}
layer {
  name: "enet2_3_branch2b1"
  type: "Convolution"
  bottom: "enet2_3_branch2a"
  top: "enet2_3_branch2b1"
  param {
    lr_mult: 1
    decay_mult: 1
  }
  convolution_param {
    num_output: 32
    bias_term: false
    weight_filler {
      type: "msra"
    }
    bias_filler {
      type: "constant"
    }
    pad_h: 0
    pad_w: 2
    kernel_h: 1
    kernel_w: 5
    stride_h: 1
    stride_w: 1
    dilation: 1
  }
}
layer {
  name: "enet2_3_branch2b"
  type: "Convolution"
  bottom: "enet2_3_branch2b1"
  top: "enet2_3_branch2b"
  param {
    lr_mult: 1
    decay_mult: 1
  }
  param {
    lr_mult: 2
    decay_mult: 0
  }
  convolution_param {
    num_output: 32
    bias_term: true
    weight_filler {
      type: "msra"
    }
    bias_filler {
      type: "constant"
    }
    pad_h: 2
    pad_w: 0
    kernel_h: 5
    kernel_w: 1
    stride_h: 1
    stride_w: 1
    dilation: 1
  }
}
layer {
  name: "bn2_3_branch2b"
  type: "BN"
  bottom: "enet2_3_branch2b"
  top: "enet2_3_branch2b"
  param {
    lr_mult: 1
    decay_mult: 1
  }
  param {
    lr_mult: 2
    decay_mult: 0
  }
  bn_param {
    scale_filler {
      type: "constant"
      value: 1
    }
    shift_filler {
      type: "constant"
      value: 0.001
    }
  }
}
layer {
  name: "relu2_3_branch2b"
  type: "PReLU"
  bottom: "enet2_3_branch2b"
  top: "enet2_3_branch2b"
}
layer {
  name: "enet2_3_branch2c"
  type: "Convolution"
  bottom: "enet2_3_branch2b"
  top: "enet2_3_branch2c"
  param {
    lr_mult: 1
    decay_mult: 1
  }
  convolution_param {
    num_output: 128
    bias_term: false
    weight_filler {
      type: "msra"
    }
    bias_filler {
      type: "constant"
    }
    pad_h: 0
    pad_w: 0
    kernel_h: 1
    kernel_w: 1
    stride_h: 1
    stride_w: 1
    dilation: 1
  }
}
layer {
  name: "bn2_3_branch2c"
  type: "BN"
  bottom: "enet2_3_branch2c"
  top: "enet2_3_branch2c"
  param {
    lr_mult: 1
    decay_mult: 1
  }
  param {
    lr_mult: 2
    decay_mult: 0
  }
  bn_param {
    scale_filler {
      type: "constant"
      value: 1
    }
    shift_filler {
      type: "constant"
      value: 0.001
    }
  }
}
layer {
  name: "dropout2_3_br
I0106 14:59:39.626411 23268 layer_factory.hpp:77] Creating layer data
I0106 14:59:39.626500 23268 net.cpp:106] Creating Layer data
I0106 14:59:39.626518 23268 net.cpp:411] data -> data
I0106 14:59:39.626575 23268 net.cpp:411] data -> label
I0106 14:59:39.626605 23268 net.cpp:411] data -> (automatic)
I0106 14:59:39.627243 23268 image_seg_data_layer.cpp:46] Opening file /home/map/liuli/datasets/enet_multclass/train/enet_train_2.list
I0106 14:59:39.645126 23268 image_seg_data_layer.cpp:63] Shuffling data
I0106 14:59:39.646997 23268 image_seg_data_layer.cpp:68] A total of 11994 images.
I0106 14:59:39.680577 23268 image_seg_data_layer.cpp:147] output data size: 4,3,376,1240
I0106 14:59:39.680599 23268 image_seg_data_layer.cpp:151] output label size: 4,1,376,1240
I0106 14:59:39.680608 23268 image_seg_data_layer.cpp:155] output data_dim size: 4,1,1,2
I0106 14:59:39.842700 23268 net.cpp:150] Setting up data
I0106 14:59:39.842769 23268 net.cpp:157] Top shape: 4 3 376 1240 (5594880)
I0106 14:59:39.842782 23268 net.cpp:157] Top shape: 4 1 376 1240 (1864960)
I0106 14:59:39.842792 23268 net.cpp:157] Top shape: 4 1 1 2 (8)
I0106 14:59:39.842798 23268 net.cpp:165] Memory required for data: 29839392
I0106 14:59:39.842818 23268 layer_factory.hpp:77] Creating layer data_data_0_split
I0106 14:59:39.842844 23268 net.cpp:106] Creating Layer data_data_0_split
I0106 14:59:39.842854 23268 net.cpp:454] data_data_0_split <- data
I0106 14:59:39.842891 23268 net.cpp:411] data_data_0_split -> data_data_0_split_0
I0106 14:59:39.842914 23268 net.cpp:411] data_data_0_split -> data_data_0_split_1
I0106 14:59:39.843000 23268 net.cpp:150] Setting up data_data_0_split
I0106 14:59:39.843014 23268 net.cpp:157] Top shape: 4 3 376 1240 (5594880)
I0106 14:59:39.843022 23268 net.cpp:157] Top shape: 4 3 376 1240 (5594880)
I0106 14:59:39.843029 23268 net.cpp:165] Memory required for data: 74598432
I0106 14:59:39.843036 23268 layer_factory.hpp:77] Creating layer label_data_1_split
I0106 14:59:39.843050 23268 net.cpp:106] Creating Layer label_data_1_split
I0106 14:59:39.843072 23268 net.cpp:454] label_data_1_split <- label
I0106 14:59:39.843097 23268 net.cpp:411] label_data_1_split -> label_data_1_split_0
I0106 14:59:39.843113 23268 net.cpp:411] label_data_1_split -> label_data_1_split_1
I0106 14:59:39.843161 23268 net.cpp:150] Setting up label_data_1_split
I0106 14:59:39.843173 23268 net.cpp:157] Top shape: 4 1 376 1240 (1864960)
I0106 14:59:39.843183 23268 net.cpp:157] Top shape: 4 1 376 1240 (1864960)
I0106 14:59:39.843189 23268 net.cpp:165] Memory required for data: 89518112
I0106 14:59:39.843195 23268 layer_factory.hpp:77] Creating layer enet_initial_branch2a
I0106 14:59:39.843231 23268 net.cpp:106] Creating Layer enet_initial_branch2a
I0106 14:59:39.843240 23268 net.cpp:454] enet_initial_branch2a <- data_data_0_split_0
I0106 14:59:39.843253 23268 net.cpp:411] enet_initial_branch2a -> enet_initial_branch2a
I0106 14:59:39.999269 23268 net.cpp:150] Setting up enet_initial_branch2a
I0106 14:59:39.999320 23268 net.cpp:157] Top shape: 4 13 188 620 (6061120)
I0106 14:59:39.999332 23268 net.cpp:165] Memory required for data: 113762592
I0106 14:59:39.999368 23268 layer_factory.hpp:77] Creating layer pool_initial_branch1a
I0106 14:59:39.999393 23268 net.cpp:106] Creating Layer pool_initial_branch1a
I0106 14:59:39.999402 23268 net.cpp:454] pool_initial_branch1a <- data_data_0_split_1
I0106 14:59:39.999418 23268 net.cpp:411] pool_initial_branch1a -> pool_initial_branch1a
I0106 14:59:39.999511 23268 net.cpp:150] Setting up pool_initial_branch1a
I0106 14:59:39.999526 23268 net.cpp:157] Top shape: 4 3 188 620 (1398720)
I0106 14:59:39.999532 23268 net.cpp:165] Memory required for data: 119357472
I0106 14:59:39.999539 23268 layer_factory.hpp:77] Creating layer enet_initial
I0106 14:59:39.999558 23268 net.cpp:106] Creating Layer enet_initial
I0106 14:59:39.999565 23268 net.cpp:454] enet_initial <- enet_initial_branch2a
I0106 14:59:39.999575 23268 net.cpp:454] enet_initial <- pool_initial_branch1a
I0106 14:59:39.999584 23268 net.cpp:411] enet_initial -> enet_initial
I0106 14:59:39.999629 23268 net.cpp:150] Setting up enet_initial
I0106 14:59:39.999642 23268 net.cpp:157] Top shape: 4 16 188 620 (7459840)
I0106 14:59:39.999650 23268 net.cpp:165] Memory required for data: 149196832
I0106 14:59:39.999656 23268 layer_factory.hpp:77] Creating layer bn_initial
I0106 14:59:39.999681 23268 net.cpp:106] Creating Layer bn_initial
I0106 14:59:39.999691 23268 net.cpp:454] bn_initial <- enet_initial
I0106 14:59:39.999703 23268 net.cpp:397] bn_initial -> enet_initial (in-place)
I0106 14:59:40.000993 23268 net.cpp:150] Setting up bn_initial
I0106 14:59:40.001010 23268 net.cpp:157] Top shape: 4 16 188 620 (7459840)
I0106 14:59:40.001018 23268 net.cpp:165] Memory required for data: 179036192
I0106 14:59:40.001032 23268 layer_factory.hpp:77] Creating layer relu_initial
I0106 14:59:40.001049 23268 net.cpp:106] Creating Layer relu_initial
I0106 14:59:40.001055 23268 net.cpp:454] relu_initial <- enet_initial
I0106 14:59:40.001068 23268 net.cpp:397] relu_initial -> enet_initial (in-place)
I0106 14:59:40.008399 23268 net.cpp:150] Setting up relu_initial
I0106 14:59:40.008422 23268 net.cpp:157] Top shape: 4 16 188 620 (7459840)
I0106 14:59:40.008430 23268 net.cpp:165] Memory required for data: 208875552
I0106 14:59:40.008448 23268 layer_factory.hpp:77] Creating layer enet_initial_relu_initial_0_split
I0106 14:59:40.008465 23268 net.cpp:106] Creating Layer enet_initial_relu_initial_0_split
I0106 14:59:40.008472 23268 net.cpp:454] enet_initial_relu_initial_0_split <- enet_initial
I0106 14:59:40.008487 23268 net.cpp:411] enet_initial_relu_initial_0_split -> enet_initial_relu_initial_0_split_0
I0106 14:59:40.008502 23268 net.cpp:411] enet_initial_relu_initial_0_split -> enet_initial_relu_initial_0_split_1
I0106 14:59:40.008553 23268 net.cpp:150] Setting up enet_initial_relu_initial_0_split
I0106 14:59:40.008569 23268 net.cpp:157] Top shape: 4 16 188 620 (7459840)
I0106 14:59:40.008577 23268 net.cpp:157] Top shape: 4 16 188 620 (7459840)
I0106 14:59:40.008584 23268 net.cpp:165] Memory required for data: 268554272
I0106 14:59:40.008605 23268 layer_factory.hpp:77] Creating layer enet1_0_branch2a
I0106 14:59:40.008641 23268 net.cpp:106] Creating Layer enet1_0_branch2a
I0106 14:59:40.008649 23268 net.cpp:454] enet1_0_branch2a <- enet_initial_relu_initial_0_split_0
I0106 14:59:40.008661 23268 net.cpp:411] enet1_0_branch2a -> enet1_0_branch2a
I0106 14:59:40.011803 23268 net.cpp:150] Setting up enet1_0_branch2a
I0106 14:59:40.011822 23268 net.cpp:157] Top shape: 4 16 94 310 (1864960)
I0106 14:59:40.011831 23268 net.cpp:165] Memory required for data: 276014112
I0106 14:59:40.011840 23268 layer_factory.hpp:77] Creating layer bn1_0_branch2a
I0106 14:59:40.011857 23268 net.cpp:106] Creating Layer bn1_0_branch2a
I0106 14:59:40.011865 23268 net.cpp:454] bn1_0_branch2a <- enet1_0_branch2a
I0106 14:59:40.011876 23268 net.cpp:397] bn1_0_branch2a -> enet1_0_branch2a (in-place)
I0106 14:59:40.013017 23268 net.cpp:150] Setting up bn1_0_branch2a
I0106 14:59:40.013034 23268 net.cpp:157] Top shape: 4 16 94 310 (1864960)
I0106 14:59:40.013042 23268 net.cpp:165] Memory required for data: 283473952
I0106 14:59:40.013053 23268 layer_factory.hpp:77] Creating layer relu1_0_branch2a
I0106 14:59:40.013064 23268 net.cpp:106] Creating Layer relu1_0_branch2a
I0106 14:59:40.013072 23268 net.cpp:454] relu1_0_branch2a <- enet1_0_branch2a
I0106 14:59:40.013082 23268 net.cpp:397] relu1_0_branch2a -> enet1_0_branch2a (in-place)
I0106 14:59:40.015146 23268 net.cpp:150] Setting up relu1_0_branch2a
I0106 14:59:40.015162 23268 net.cpp:157] Top shape: 4 16 94 310 (1864960)
I0106 14:59:40.015169 23268 net.cpp:165] Memory required for data: 290933792
I0106 14:59:40.015183 23268 layer_factory.hpp:77] Creating layer enet1_0_branch2b
I0106 14:59:40.015202 23268 net.cpp:106] Creating Layer enet1_0_branch2b
I0106 14:59:40.015211 23268 net.cpp:454] enet1_0_branch2b <- enet1_0_branch2a
I0106 14:59:40.015223 23268 net.cpp:411] enet1_0_branch2b -> enet1_0_branch2b
I0106 14:59:40.020221 23268 net.cpp:150] Setting up enet1_0_branch2b
I0106 14:59:40.020244 23268 net.cpp:157] Top shape: 4 16 94 310 (1864960)
I0106 14:59:40.020252 23268 net.cpp:165] Memory required for data: 298393632
I0106 14:59:40.020263 23268 layer_factory.hpp:77] Creating layer bn1_0_branch2b
I0106 14:59:40.020277 23268 net.cpp:106] Creating Layer bn1_0_branch2b
I0106 14:59:40.020284 23268 net.cpp:454] bn1_0_branch2b <- enet1_0_branch2b
I0106 14:59:40.020298 23268 net.cpp:397] bn1_0_branch2b -> enet1_0_branch2b (in-place)
I0106 14:59:40.020598 23268 net.cpp:150] Setting up bn1_0_branch2b
I0106 14:59:40.020613 23268 net.cpp:157] Top shape: 4 16 94 310 (1864960)
I0106 14:59:40.020620 23268 net.cpp:165] Memory required for data: 305853472
I0106 14:59:40.020632 23268 layer_factory.hpp:77] Creating layer relu1_0_branch2b
I0106 14:59:40.020642 23268 net.cpp:106] Creating Layer relu1_0_branch2b
I0106 14:59:40.020648 23268 net.cpp:454] relu1_0_branch2b <- enet1_0_branch2b
I0106 14:59:40.020658 23268 net.cpp:397] relu1_0_branch2b -> enet1_0_branch2b (in-place)
I0106 14:59:40.022709 23268 net.cpp:150] Setting up relu1_0_branch2b
I0106 14:59:40.022727 23268 net.cpp:157] Top shape: 4 16 94 310 (1864960)
I0106 14:59:40.022734 23268 net.cpp:165] Memory required for data: 313313312
I0106 14:59:40.022744 23268 layer_factory.hpp:77] Creating layer enet1_0_branch2c
I0106 14:59:40.022766 23268 net.cpp:106] Creating Layer enet1_0_branch2c
I0106 14:59:40.022775 23268 net.cpp:454] enet1_0_branch2c <- enet1_0_branch2b
I0106 14:59:40.022790 23268 net.cpp:411] enet1_0_branch2c -> enet1_0_branch2c
I0106 14:59:40.025753 23268 net.cpp:150] Setting up enet1_0_branch2c
I0106 14:59:40.025779 23268 net.cpp:157] Top shape: 4 64 94 310 (7459840)
I0106 14:59:40.025786 23268 net.cpp:165] Memory required for data: 343152672
I0106 14:59:40.025797 23268 layer_factory.hpp:77] Creating layer bn1_0_branch2c
I0106 14:59:40.025815 23268 net.cpp:106] Creating Layer bn1_0_branch2c
I0106 14:59:40.025823 23268 net.cpp:454] bn1_0_branch2c <- enet1_0_branch2c
I0106 14:59:40.025835 23268 net.cpp:397] bn1_0_branch2c -> enet1_0_branch2c (in-place)
I0106 14:59:40.026152 23268 net.cpp:150] Setting up bn1_0_branch2c
I0106 14:59:40.026180 23268 net.cpp:157] Top shape: 4 64 94 310 (7459840)
I0106 14:59:40.026186 23268 net.cpp:165] Memory required for data: 372992032
I0106 14:59:40.026201 23268 layer_factory.hpp:77] Creating layer dropout1_0_branch2c
I0106 14:59:40.026217 23268 net.cpp:106] Creating Layer dropout1_0_branch2c
I0106 14:59:40.026226 23268 net.cpp:454] dropout1_0_branch2c <- enet1_0_branch2c
I0106 14:59:40.026235 23268 net.cpp:397] dropout1_0_branch2c -> enet1_0_branch2c (in-place)
I0106 14:59:40.026291 23268 net.cpp:150] Setting up dropout1_0_branch2c
I0106 14:59:40.026304 23268 net.cpp:157] Top shape: 4 64 94 310 (7459840)
I0106 14:59:40.026311 23268 net.cpp:165] Memory required for data: 402831392
I0106 14:59:40.026319 23268 layer_factory.hpp:77] Creating layer enet1_0_branch1a
I0106 14:59:40.026335 23268 net.cpp:106] Creating Layer enet1_0_branch1a
I0106 14:59:40.026343 23268 net.cpp:454] enet1_0_branch1a <- enet_initial_relu_initial_0_split_1
I0106 14:59:40.026360 23268 net.cpp:411] enet1_0_branch1a -> enet1_0_branch1a
I0106 14:59:40.029147 23268 net.cpp:150] Setting up enet1_0_branch1a
I0106 14:59:40.029166 23268 net.cpp:157] Top shape: 4 64 188 620 (29839360)
I0106 14:59:40.029173 23268 net.cpp:165] Memory required for data: 522188832
I0106 14:59:40.029183 23268 layer_factory.hpp:77] Creating layer bn1_0_branch1a
I0106 14:59:40.029199 23268 net.cpp:106] Creating Layer bn1_0_branch1a
I0106 14:59:40.029207 23268 net.cpp:454] bn1_0_branch1a <- enet1_0_branch1a
I0106 14:59:40.029218 23268 net.cpp:397] bn1_0_branch1a -> enet1_0_branch1a (in-place)
I0106 14:59:40.030519 23268 net.cpp:150] Setting up bn1_0_branch1a
I0106 14:59:40.030537 23268 net.cpp:157] Top shape: 4 64 188 620 (29839360)
I0106 14:59:40.030545 23268 net.cpp:165] Memory required for data: 641546272
I0106 14:59:40.030556 23268 layer_factory.hpp:77] Creating layer pool1_0_branch1a
I0106 14:59:40.030565 23268 layer_factory.cpp:91] cuDNN does not support multiple tops. Using Caffe's own pooling layer.
I0106 14:59:40.030580 23268 net.cpp:106] Creating Layer pool1_0_branch1a
I0106 14:59:40.030587 23268 net.cpp:454] pool1_0_branch1a <- enet1_0_branch1a
I0106 14:59:40.030601 23268 net.cpp:411] pool1_0_branch1a -> pool1_0_branch1a
I0106 14:59:40.030616 23268 net.cpp:411] pool1_0_branch1a -> pool1_0_branch1a_mask
I0106 14:59:40.030673 23268 net.cpp:150] Setting up pool1_0_branch1a
I0106 14:59:40.030688 23268 net.cpp:157] Top shape: 4 64 94 310 (7459840)
I0106 14:59:40.030695 23268 net.cpp:157] Top shape: 4 64 94 310 (7459840)
I0106 14:59:40.030701 23268 net.cpp:165] Memory required for data: 701224992
I0106 14:59:40.030709 23268 layer_factory.hpp:77] Creating layer enet1_0
I0106 14:59:40.030722 23268 net.cpp:106] Creating Layer enet1_0
I0106 14:59:40.030730 23268 net.cpp:454] enet1_0 <- pool1_0_branch1a
I0106 14:59:40.030738 23268 net.cpp:454] enet1_0 <- enet1_0_branch2c
I0106 14:59:40.030748 23268 net.cpp:411] enet1_0 -> enet1_0
I0106 14:59:40.030799 23268 net.cpp:150] Setting up enet1_0
I0106 14:59:40.030813 23268 net.cpp:157] Top shape: 4 64 94 310 (7459840)
I0106 14:59:40.030823 23268 net.cpp:165] Memory required for data: 731064352
I0106 14:59:40.030830 23268 layer_factory.hpp:77] Creating layer relu1_0
I0106 14:59:40.030839 23268 net.cpp:106] Creating Layer relu1_0
I0106 14:59:40.030846 23268 net.cpp:454] relu1_0 <- enet1_0
I0106 14:59:40.030855 23268 net.cpp:397] relu1_0 -> enet1_0 (in-place)
I0106 14:59:40.038099 23268 net.cpp:150] Setting up relu1_0
I0106 14:59:40.038123 23268 net.cpp:157] Top shape: 4 64 94 310 (7459840)
I0106 14:59:40.038131 23268 net.cpp:165] Memory required for data: 760903712
I0106 14:59:40.038142 23268 layer_factory.hpp:77] Creating layer enet1_0_relu1_0_0_split
I0106 14:59:40.038154 23268 net.cpp:106] Creating Layer enet1_0_relu1_0_0_split
I0106 14:59:40.038161 23268 net.cpp:454] enet1_0_relu1_0_0_split <- enet1_0
I0106 14:59:40.038175 23268 net.cpp:411] enet1_0_relu1_0_0_split -> enet1_0_relu1_0_0_split_0
I0106 14:59:40.038188 23268 net.cpp:411] enet1_0_relu1_0_0_split -> enet1_0_relu1_0_0_split_1
I0106 14:59:40.038249 23268 net.cpp:150] Setting up enet1_0_relu1_0_0_split
I0106 14:59:40.038278 23268 net.cpp:157] Top shape: 4 64 94 310 (7459840)
I0106 14:59:40.038287 23268 net.cpp:157] Top shape: 4 64 94 310 (7459840)
I0106 14:59:40.038293 23268 net.cpp:165] Memory required for data: 820582432
I0106 14:59:40.038300 23268 layer_factory.hpp:77] Creating layer enet1_1_branch2a
I0106 14:59:40.038316 23268 net.cpp:106] Creating Layer enet1_1_branch2a
I0106 14:59:40.038322 23268 net.cpp:454] enet1_1_branch2a <- enet1_0_relu1_0_0_split_0
I0106 14:59:40.038333 23268 net.cpp:411] enet1_1_branch2a -> enet1_1_branch2a
I0106 14:59:40.042129 23268 net.cpp:150] Setting up enet1_1_branch2a
I0106 14:59:40.042147 23268 net.cpp:157] Top shape: 4 16 94 310 (1864960)
I0106 14:59:40.042155 23268 net.cpp:165] Memory required for data: 828042272
I0106 14:59:40.042165 23268 layer_factory.hpp:77] Creating layer bn1_1_branch2a
I0106 14:59:40.042182 23268 net.cpp:106] Creating Layer bn1_1_branch2a
I0106 14:59:40.042191 23268 net.cpp:454] bn1_1_branch2a <- enet1_1_branch2a
I0106 14:59:40.042201 23268 net.cpp:397] bn1_1_branch2a -> enet1_1_branch2a (in-place)
I0106 14:59:40.043576 23268 net.cpp:150] Setting up bn1_1_branch2a
I0106 14:59:40.043593 23268 net.cpp:157] Top shape: 4 16 94 310 (1864960)
I0106 14:59:40.043601 23268 net.cpp:165] Memory required for data: 835502112
I0106 14:59:40.043612 23268 layer_factory.hpp:77] Creating layer relu1_1_branch2a
I0106 14:59:40.043622 23268 net.cpp:106] Creating Layer relu1_1_branch2a
I0106 14:59:40.043629 23268 net.cpp:454] relu1_1_branch2a <- enet1_1_branch2a
I0106 14:59:40.043643 23268 net.cpp:397] relu1_1_branch2a -> enet1_1_branch2a (in-place)
I0106 14:59:40.045733 23268 net.cpp:150] Setting up relu1_1_branch2a
I0106 14:59:40.045750 23268 net.cpp:157] Top shape: 4 16 94 310 (1864960)
I0106 14:59:40.045760 23268 net.cpp:165] Memory required for data: 842961952
I0106 14:59:40.045771 23268 layer_factory.hpp:77] Creating layer enet1_1_branch2b
I0106 14:59:40.045794 23268 net.cpp:106] Creating Layer enet1_1_branch2b
I0106 14:59:40.045802 23268 net.cpp:454] enet1_1_branch2b <- enet1_1_branch2a
I0106 14:59:40.045814 23268 net.cpp:411] enet1_1_branch2b -> enet1_1_branch2b
I0106 14:59:40.048781 23268 net.cpp:150] Setting up enet1_1_branch2b
I0106 14:59:40.048800 23268 net.cpp:157] Top shape: 4 16 94 310 (1864960)
I0106 14:59:40.048809 23268 net.cpp:165] Memory required for data: 850421792
I0106 14:59:40.048820 23268 layer_factory.hpp:77] Creating layer bn1_1_branch2b
I0106 14:59:40.048837 23268 net.cpp:106] Creating Layer bn1_1_branch2b
I0106 14:59:40.048846 23268 net.cpp:454] bn1_1_branch2b <- enet1_1_branch2b
I0106 14:59:40.048857 23268 net.cpp:397] bn1_1_branch2b -> enet1_1_branch2b (in-place)
I0106 14:59:40.049172 23268 net.cpp:150] Setting up bn1_1_branch2b
I0106 14:59:40.049187 23268 net.cpp:157] Top shape: 4 16 94 310 (1864960)
I0106 14:59:40.049195 23268 net.cpp:165] Memory required for data: 857881632
I0106 14:59:40.049206 23268 layer_factory.hpp:77] Creating layer relu1_1_branch2b
I0106 14:59:40.049216 23268 net.cpp:106] Creating Layer relu1_1_branch2b
I0106 14:59:40.049222 23268 net.cpp:454] relu1_1_branch2b <- enet1_1_branch2b
I0106 14:59:40.049235 23268 net.cpp:397] relu1_1_branch2b -> enet1_1_branch2b (in-place)
I0106 14:59:40.051502 23268 net.cpp:150] Setting up relu1_1_branch2b
I0106 14:59:40.051522 23268 net.cpp:157] Top shape: 4 16 94 310 (1864960)
I0106 14:59:40.051528 23268 net.cpp:165] Memory required for data: 865341472
I0106 14:59:40.051538 23268 layer_factory.hpp:77] Creating layer enet1_1_branch2c
I0106 14:59:40.051641 23268 net.cpp:106] Creating Layer enet1_1_branch2c
I0106 14:59:40.051651 23268 net.cpp:454] enet1_1_branch2c <- enet1_1_branch2b
I0106 14:59:40.051662 23268 net.cpp:411] enet1_1_branch2c -> enet1_1_branch2c
I0106 14:59:40.054647 23268 net.cpp:150] Setting up enet1_1_branch2c
I0106 14:59:40.054666 23268 net.cpp:157] Top shape: 4 64 94 310 (7459840)
I0106 14:59:40.054674 23268 net.cpp:165] Memory required for data: 895180832
I0106 14:59:40.054700 23268 layer_factory.hpp:77] Creating layer bn1_1_branch2c
I0106 14:59:40.054729 23268 net.cpp:106] Creating Layer bn1_1_branch2c
I0106 14:59:40.054738 23268 net.cpp:454] bn1_1_branch2c <- enet1_1_branch2c
I0106 14:59:40.054752 23268 net.cpp:397] bn1_1_branch2c -> enet1_1_branch2c (in-place)
I0106 14:59:40.055088 23268 net.cpp:150] Setting up bn1_1_branch2c
I0106 14:59:40.055102 23268 net.cpp:157] Top shape: 4 64 94 310 (7459840)
I0106 14:59:40.055109 23268 net.cpp:165] Memory required for data: 925020192
I0106 14:59:40.055130 23268 layer_factory.hpp:77] Creating layer dropout1_1_branch2c
I0106 14:59:40.055148 23268 net.cpp:106] Creating Layer dropout1_1_branch2c
I0106 14:59:40.055156 23268 net.cpp:454] dropout1_1_branch2c <- enet1_1_branch2c
I0106 14:59:40.055171 23268 net.cpp:397] dropout1_1_branch2c -> enet1_1_branch2c (in-place)
I0106 14:59:40.055212 23268 net.cpp:150] Setting up dropout1_1_branch2c
I0106 14:59:40.055225 23268 net.cpp:157] Top shape: 4 64 94 310 (7459840)
I0106 14:59:40.055233 23268 net.cpp:165] Memory required for data: 954859552
I0106 14:59:40.055238 23268 layer_factory.hpp:77] Creating layer enet1_1
I0106 14:59:40.055253 23268 net.cpp:106] Creating Layer enet1_1
I0106 14:59:40.055261 23268 net.cpp:454] enet1_1 <- enet1_0_relu1_0_0_split_1
I0106 14:59:40.055270 23268 net.cpp:454] enet1_1 <- enet1_1_branch2c
I0106 14:59:40.055279 23268 net.cpp:411] enet1_1 -> enet1_1
I0106 14:59:40.055321 23268 net.cpp:150] Setting up enet1_1
I0106 14:59:40.055335 23268 net.cpp:157] Top shape: 4 64 94 310 (7459840)
I0106 14:59:40.055341 23268 net.cpp:165] Memory required for data: 984698912
I0106 14:59:40.055347 23268 layer_factory.hpp:77] Creating layer relu1_1
I0106 14:59:40.055358 23268 net.cpp:106] Creating Layer relu1_1
I0106 14:59:40.055366 23268 net.cpp:454] relu1_1 <- enet1_1
I0106 14:59:40.055375 23268 net.cpp:397] relu1_1 -> enet1_1 (in-place)
I0106 14:59:40.062713 23268 net.cpp:150] Setting up relu1_1
I0106 14:59:40.062736 23268 net.cpp:157] Top shape: 4 64 94 310 (7459840)
I0106 14:59:40.062743 23268 net.cpp:165] Memory required for data: 1014538272
I0106 14:59:40.062754 23268 layer_factory.hpp:77] Creating layer enet1_1_relu1_1_0_split
I0106 14:59:40.062772 23268 net.cpp:106] Creating Layer enet1_1_relu1_1_0_split
I0106 14:59:40.062779 23268 net.cpp:454] enet1_1_relu1_1_0_split <- enet1_1
I0106 14:59:40.062790 23268 net.cpp:411] enet1_1_relu1_1_0_split -> enet1_1_relu1_1_0_split_0
I0106 14:59:40.062808 23268 net.cpp:411] enet1_1_relu1_1_0_split -> enet1_1_relu1_1_0_split_1
I0106 14:59:40.062861 23268 net.cpp:150] Setting up enet1_1_relu1_1_0_split
I0106 14:59:40.062875 23268 net.cpp:157] Top shape: 4 64 94 310 (7459840)
I0106 14:59:40.062883 23268 net.cpp:157] Top shape: 4 64 94 310 (7459840)
I0106 14:59:40.062889 23268 net.cpp:165] Memory required for data: 1074216992
I0106 14:59:40.062896 23268 layer_factory.hpp:77] Creating layer enet1_2_branch2a
I0106 14:59:40.062916 23268 net.cpp:106] Creating Layer enet1_2_branch2a
I0106 14:59:40.062924 23268 net.cpp:454] enet1_2_branch2a <- enet1_1_relu1_1_0_split_0
I0106 14:59:40.062935 23268 net.cpp:411] enet1_2_branch2a -> enet1_2_branch2a
I0106 14:59:40.065994 23268 net.cpp:150] Setting up enet1_2_branch2a
I0106 14:59:40.066011 23268 net.cpp:157] Top shape: 4 16 94 310 (1864960)
I0106 14:59:40.066020 23268 net.cpp:165] Memory required for data: 1081676832
I0106 14:59:40.066030 23268 layer_factory.hpp:77] Creating layer bn1_2_branch2a
I0106 14:59:40.066049 23268 net.cpp:106] Creating Layer bn1_2_branch2a
I0106 14:59:40.066057 23268 net.cpp:454] bn1_2_branch2a <- enet1_2_branch2a
I0106 14:59:40.066069 23268 net.cpp:397] bn1_2_branch2a -> enet1_2_branch2a (in-place)
I0106 14:59:40.066438 23268 net.cpp:150] Setting up bn1_2_branch2a
I0106 14:59:40.066454 23268 net.cpp:157] Top shape: 4 16 94 310 (1864960)
I0106 14:59:40.066460 23268 net.cpp:165] Memory required for data: 1089136672
I0106 14:59:40.066473 23268 layer_factory.hpp:77] Creating layer relu1_2_branch2a
I0106 14:59:40.066483 23268 net.cpp:106] Creating Layer relu1_2_branch2a
I0106 14:59:40.066503 23268 net.cpp:454] relu1_2_branch2a <- enet1_2_branch2a
I0106 14:59:40.066525 23268 net.cpp:397] relu1_2_branch2a -> enet1_2_branch2a (in-place)
I0106 14:59:40.068627 23268 net.cpp:150] Setting up relu1_2_branch2a
I0106 14:59:40.068645 23268 net.cpp:157] Top shape: 4 16 94 310 (1864960)
I0106 14:59:40.068652 23268 net.cpp:165] Memory required for data: 1096596512
I0106 14:59:40.068662 23268 layer_factory.hpp:77] Creating layer enet1_2_branch2b
I0106 14:59:40.068682 23268 net.cpp:106] Creating Layer enet1_2_branch2b
I0106 14:59:40.068691 23268 net.cpp:454] enet1_2_branch2b <- enet1_2_branch2a
I0106 14:59:40.068702 23268 net.cpp:411] enet1_2_branch2b -> enet1_2_branch2b
I0106 14:59:40.072832 23268 net.cpp:150] Setting up enet1_2_branch2b
I0106 14:59:40.072851 23268 net.cpp:157] Top shape: 4 16 94 310 (1864960)
I0106 14:59:40.072860 23268 net.cpp:165] Memory required for data: 1104056352
I0106 14:59:40.072871 23268 layer_factory.hpp:77] Creating layer bn1_2_branch2b
I0106 14:59:40.072888 23268 net.cpp:106] Creating Layer bn1_2_branch2b
I0106 14:59:40.072897 23268 net.cpp:454] bn1_2_branch2b <- enet1_2_branch2b
I0106 14:59:40.072911 23268 net.cpp:397] bn1_2_branch2b -> enet1_2_branch2b (in-place)
I0106 14:59:40.073246 23268 net.cpp:150] Setting up bn1_2_branch2b
I0106 14:59:40.073261 23268 net.cpp:157] Top shape: 4 16 94 310 (1864960)
I0106 14:59:40.073268 23268 net.cpp:165] Memory required for data: 1111516192
I0106 14:59:40.073278 23268 layer_factory.hpp:77] Creating layer relu1_2_branch2b
I0106 14:59:40.073289 23268 net.cpp:106] Creating Layer relu1_2_branch2b
I0106 14:59:40.073297 23268 net.cpp:454] relu1_2_branch2b <- enet1_2_branch2b
I0106 14:59:40.073305 23268 net.cpp:397] relu1_2_branch2b -> enet1_2_branch2b (in-place)
I0106 14:59:40.076021 23268 net.cpp:150] Setting up relu1_2_branch2b
I0106 14:59:40.076040 23268 net.cpp:157] Top shape: 4 16 94 310 (1864960)
I0106 14:59:40.076047 23268 net.cpp:165] Memory required for data: 1118976032
I0106 14:59:40.076057 23268 layer_factory.hpp:77] Creating layer enet1_2_branch2c
I0106 14:59:40.076076 23268 net.cpp:106] Creating Layer enet1_2_branch2c
I0106 14:59:40.076083 23268 net.cpp:454] enet1_2_branch2c <- enet1_2_branch2b
I0106 14:59:40.076098 23268 net.cpp:411] enet1_2_branch2c -> enet1_2_branch2c
I0106 14:59:40.079376 23268 net.cpp:150] Setting up enet1_2_branch2c
I0106 14:59:40.079396 23268 net.cpp:157] Top shape: 4 64 94 310 (7459840)
I0106 14:59:40.079404 23268 net.cpp:165] Memory required for data: 1148815392
I0106 14:59:40.079414 23268 layer_factory.hpp:77] Creating layer bn1_2_branch2c
I0106 14:59:40.079427 23268 net.cpp:106] Creating Layer bn1_2_branch2c
I0106 14:59:40.079434 23268 net.cpp:454] bn1_2_branch2c <- enet1_2_branch2c
I0106 14:59:40.079448 23268 net.cpp:397] bn1_2_branch2c -> enet1_2_branch2c (in-place)
I0106 14:59:40.079793 23268 net.cpp:150] Setting up bn1_2_branch2c
I0106 14:59:40.079808 23268 net.cpp:157] Top shape: 4 64 94 310 (7459840)
I0106 14:59:40.079815 23268 net.cpp:165] Memory required for data: 1178654752
I0106 14:59:40.079826 23268 layer_factory.hpp:77] Creating layer dropout1_2_branch2c
I0106 14:59:40.079838 23268 net.cpp:106] Creating Layer dropout1_2_branch2c
I0106 14:59:40.079845 23268 net.cpp:454] dropout1_2_branch2c <- enet1_2_branch2c
I0106 14:59:40.079855 23268 net.cpp:397] dropout1_2_branch2c -> enet1_2_branch2c (in-place)
I0106 14:59:40.079896 23268 net.cpp:150] Setting up dropout1_2_branch2c
I0106 14:59:40.079910 23268 net.cpp:157] Top shape: 4 64 94 310 (7459840)
I0106 14:59:40.079916 23268 net.cpp:165] Memory required for data: 1208494112
I0106 14:59:40.079922 23268 layer_factory.hpp:77] Creating layer enet1_2
I0106 14:59:40.079936 23268 net.cpp:106] Creating Layer enet1_2
I0106 14:59:40.079944 23268 net.cpp:454] enet1_2 <- enet1_1_relu1_1_0_split_1
I0106 14:59:40.079952 23268 net.cpp:454] enet1_2 <- enet1_2_branch2c
I0106 14:59:40.079962 23268 net.cpp:411] enet1_2 -> enet1_2
I0106 14:59:40.080006 23268 net.cpp:150] Setting up enet1_2
I0106 14:59:40.080019 23268 net.cpp:157] Top shape: 4 64 94 310 (7459840)
I0106 14:59:40.080034 23268 net.cpp:165] Memory required for data: 1238333472
I0106 14:59:40.080050 23268 layer_factory.hpp:77] Creating layer relu1_2
I0106 14:59:40.080060 23268 net.cpp:106] Creating Layer relu1_2
I0106 14:59:40.080067 23268 net.cpp:454] relu1_2 <- enet1_2
I0106 14:59:40.080080 23268 net.cpp:397] relu1_2 -> enet1_2 (in-place)
I0106 14:59:40.109622 23268 net.cpp:150] Setting up relu1_2
I0106 14:59:40.109647 23268 net.cpp:157] Top shape: 4 64 94 310 (7459840)
I0106 14:59:40.109655 23268 net.cpp:165] Memory required for data: 1268172832
I0106 14:59:40.109666 23268 layer_factory.hpp:77] Creating layer enet1_2_relu1_2_0_split
I0106 14:59:40.109681 23268 net.cpp:106] Creating Layer enet1_2_relu1_2_0_split
I0106 14:59:40.109689 23268 net.cpp:454] enet1_2_relu1_2_0_split <- enet1_2
I0106 14:59:40.109704 23268 net.cpp:411] enet1_2_relu1_2_0_split -> enet1_2_relu1_2_0_split_0
I0106 14:59:40.109717 23268 net.cpp:411] enet1_2_relu1_2_0_split -> enet1_2_relu1_2_0_split_1
I0106 14:59:40.109789 23268 net.cpp:150] Setting up enet1_2_relu1_2_0_split
I0106 14:59:40.109803 23268 net.cpp:157] Top shape: 4 64 94 310 (7459840)
I0106 14:59:40.109813 23268 net.cpp:157] Top shape: 4 64 94 310 (7459840)
I0106 14:59:40.109819 23268 net.cpp:165] Memory required for data: 1327851552
I0106 14:59:40.109827 23268 layer_factory.hpp:77] Creating layer enet1_3_branch2a
I0106 14:59:40.109845 23268 net.cpp:106] Creating Layer enet1_3_branch2a
I0106 14:59:40.109854 23268 net.cpp:454] enet1_3_branch2a <- enet1_2_relu1_2_0_split_0
I0106 14:59:40.109865 23268 net.cpp:411] enet1_3_branch2a -> enet1_3_branch2a
I0106 14:59:40.112783 23268 net.cpp:150] Setting up enet1_3_branch2a
I0106 14:59:40.112802 23268 net.cpp:157] Top shape: 4 16 94 310 (1864960)
I0106 14:59:40.112810 23268 net.cpp:165] Memory required for data: 1335311392
I0106 14:59:40.112819 23268 layer_factory.hpp:77] Creating layer bn1_3_branch2a
I0106 14:59:40.112835 23268 net.cpp:106] Creating Layer bn1_3_branch2a
I0106 14:59:40.112843 23268 net.cpp:454] bn1_3_branch2a <- enet1_3_branch2a
I0106 14:59:40.112857 23268 net.cpp:397] bn1_3_branch2a -> enet1_3_branch2a (in-place)
I0106 14:59:40.113216 23268 net.cpp:150] Setting up bn1_3_branch2a
I0106 14:59:40.113231 23268 net.cpp:157] Top shape: 4 16 94 310 (1864960)
I0106 14:59:40.113239 23268 net.cpp:165] Memory required for data: 1342771232
I0106 14:59:40.113250 23268 layer_factory.hpp:77] Creating layer relu1_3_branch2a
I0106 14:59:40.113262 23268 net.cpp:106] Creating Layer relu1_3_branch2a
I0106 14:59:40.113270 23268 net.cpp:454] relu1_3_branch2a <- enet1_3_branch2a
I0106 14:59:40.113281 23268 net.cpp:397] relu1_3_branch2a -> enet1_3_branch2a (in-place)
I0106 14:59:40.115517 23268 net.cpp:150] Setting up relu1_3_branch2a
I0106 14:59:40.115535 23268 net.cpp:157] Top shape: 4 16 94 310 (1864960)
I0106 14:59:40.115542 23268 net.cpp:165] Memory required for data: 1350231072
I0106 14:59:40.115552 23268 layer_factory.hpp:77] Creating layer enet1_3_branch2b
I0106 14:59:40.115679 23268 net.cpp:106] Creating Layer enet1_3_branch2b
I0106 14:59:40.115687 23268 net.cpp:454] enet1_3_branch2b <- enet1_3_branch2a
I0106 14:59:40.115701 23268 net.cpp:411] enet1_3_branch2b -> enet1_3_branch2b
I0106 14:59:40.122136 23268 net.cpp:150] Setting up enet1_3_branch2b
I0106 14:59:40.122161 23268 net.cpp:157] Top shape: 4 16 94 310 (1864960)
I0106 14:59:40.122169 23268 net.cpp:165] Memory required for data: 1357690912
I0106 14:59:40.122181 23268 layer_factory.hpp:77] Creating layer bn1_3_branch2b
I0106 14:59:40.122200 23268 net.cpp:106] Creating Layer bn1_3_branch2b
I0106 14:59:40.122208 23268 net.cpp:454] bn1_3_branch2b <- enet1_3_branch2b
I0106 14:59:40.122225 23268 net.cpp:397] bn1_3_branch2b -> enet1_3_branch2b (in-place)
I0106 14:59:40.123450 23268 net.cpp:150] Setting up bn1_3_branch2b
I0106 14:59:40.123466 23268 net.cpp:157] Top shape: 4 16 94 310 (1864960)
I0106 14:59:40.123473 23268 net.cpp:165] Memory required for data: 1365150752
I0106 14:59:40.123484 23268 layer_factory.hpp:77] Creating layer relu1_3_branch2b
I0106 14:59:40.123495 23268 net.cpp:106] Creating Layer relu1_3_branch2b
I0106 14:59:40.123517 23268 net.cpp:454] relu1_3_branch2b <- enet1_3_branch2b
I0106 14:59:40.123540 23268 net.cpp:397] relu1_3_branch2b -> enet1_3_branch2b (in-place)
I0106 14:59:40.125746 23268 net.cpp:150] Setting up relu1_3_branch2b
I0106 14:59:40.125768 23268 net.cpp:157] Top shape: 4 16 94 310 (1864960)
I0106 14:59:40.125775 23268 net.cpp:165] Memory required for data: 1372610592
I0106 14:59:40.125787 23268 layer_factory.hpp:77] Creating layer enet1_3_branch2c
I0106 14:59:40.125804 23268 net.cpp:106] Creating Layer enet1_3_branch2c
I0106 14:59:40.125813 23268 net.cpp:454] enet1_3_branch2c <- enet1_3_branch2b
I0106 14:59:40.125828 23268 net.cpp:411] enet1_3_branch2c -> enet1_3_branch2c
I0106 14:59:40.128998 23268 net.cpp:150] Setting up enet1_3_branch2c
I0106 14:59:40.129017 23268 net.cpp:157] Top shape: 4 64 94 310 (7459840)
I0106 14:59:40.129024 23268 net.cpp:165] Memory required for data: 1402449952
I0106 14:59:40.129034 23268 layer_factory.hpp:77] Creating layer bn1_3_branch2c
I0106 14:59:40.129050 23268 net.cpp:106] Creating Layer bn1_3_branch2c
I0106 14:59:40.129060 23268 net.cpp:454] bn1_3_branch2c <- enet1_3_branch2c
I0106 14:59:40.129072 23268 net.cpp:397] bn1_3_branch2c -> enet1_3_branch2c (in-place)
I0106 14:59:40.129437 23268 net.cpp:150] Setting up bn1_3_branch2c
I0106 14:59:40.129452 23268 net.cpp:157] Top shape: 4 64 94 310 (7459840)
I0106 14:59:40.129459 23268 net.cpp:165] Memory required for data: 1432289312
I0106 14:59:40.129470 23268 layer_factory.hpp:77] Creating layer dropout1_3_branch2c
I0106 14:59:40.129482 23268 net.cpp:106] Creating Layer dropout1_3_branch2c
I0106 14:59:40.129489 23268 net.cpp:454] dropout1_3_branch2c <- enet1_3_branch2c
I0106 14:59:40.129499 23268 net.cpp:397] dropout1_3_branch2c -> enet1_3_branch2c (in-place)
I0106 14:59:40.129545 23268 net.cpp:150] Setting up dropout1_3_branch2c
I0106 14:59:40.129559 23268 net.cpp:157] Top shape: 4 64 94 310 (7459840)
I0106 14:59:40.129565 23268 net.cpp:165] Memory required for data: 1462128672
I0106 14:59:40.129572 23268 layer_factory.hpp:77] Creating layer enet1_3
I0106 14:59:40.129582 23268 net.cpp:106] Creating Layer enet1_3
I0106 14:59:40.129590 23268 net.cpp:454] enet1_3 <- enet1_2_relu1_2_0_split_1
I0106 14:59:40.129598 23268 net.cpp:454] enet1_3 <- enet1_3_branch2c
I0106 14:59:40.129611 23268 net.cpp:411] enet1_3 -> enet1_3
I0106 14:59:40.129653 23268 net.cpp:150] Setting up enet1_3
I0106 14:59:40.129667 23268 net.cpp:157] Top shape: 4 64 94 310 (7459840)
I0106 14:59:40.129673 23268 net.cpp:165] Memory required for data: 1491968032
I0106 14:59:40.129679 23268 layer_factory.hpp:77] Creating layer relu1_3
I0106 14:59:40.129691 23268 net.cpp:106] Creating Layer relu1_3
I0106 14:59:40.129699 23268 net.cpp:454] relu1_3 <- enet1_3
I0106 14:59:40.129709 23268 net.cpp:397] relu1_3 -> enet1_3 (in-place)
I0106 14:59:40.137091 23268 net.cpp:150] Setting up relu1_3
I0106 14:59:40.137115 23268 net.cpp:157] Top shape: 4 64 94 310 (7459840)
I0106 14:59:40.137122 23268 net.cpp:165] Memory required for data: 1521807392
I0106 14:59:40.137132 23268 layer_factory.hpp:77] Creating layer enet1_3_relu1_3_0_split
I0106 14:59:40.137150 23268 net.cpp:106] Creating Layer enet1_3_relu1_3_0_split
I0106 14:59:40.137157 23268 net.cpp:454] enet1_3_relu1_3_0_split <- enet1_3
I0106 14:59:40.137168 23268 net.cpp:411] enet1_3_relu1_3_0_split -> enet1_3_relu1_3_0_split_0
I0106 14:59:40.137181 23268 net.cpp:411] enet1_3_relu1_3_0_split -> enet1_3_relu1_3_0_split_1
I0106 14:59:40.137251 23268 net.cpp:150] Setting up enet1_3_relu1_3_0_split
I0106 14:59:40.137265 23268 net.cpp:157] Top shape: 4 64 94 310 (7459840)
I0106 14:59:40.137274 23268 net.cpp:157] Top shape: 4 64 94 310 (7459840)
I0106 14:59:40.137280 23268 net.cpp:165] Memory required for data: 1581486112
I0106 14:59:40.137287 23268 layer_factory.hpp:77] Creating layer enet1_4_branch2a
I0106 14:59:40.137305 23268 net.cpp:106] Creating Layer enet1_4_branch2a
I0106 14:59:40.137313 23268 net.cpp:454] enet1_4_branch2a <- enet1_3_relu1_3_0_split_0
I0106 14:59:40.137325 23268 net.cpp:411] enet1_4_branch2a -> enet1_4_branch2a
I0106 14:59:40.140441 23268 net.cpp:150] Setting up enet1_4_branch2a
I0106 14:59:40.140473 23268 net.cpp:157] Top shape: 4 16 94 310 (1864960)
I0106 14:59:40.140481 23268 net.cpp:165] Memory required for data: 1588945952
I0106 14:59:40.140491 23268 layer_factory.hpp:77] Creating layer bn1_4_branch2a
I0106 14:59:40.140508 23268 net.cpp:106] Creating Layer bn1_4_branch2a
I0106 14:59:40.140516 23268 net.cpp:454] bn1_4_branch2a <- enet1_4_branch2a
I0106 14:59:40.140527 23268 net.cpp:397] bn1_4_branch2a -> enet1_4_branch2a (in-place)
I0106 14:59:40.140933 23268 net.cpp:150] Setting up bn1_4_branch2a
I0106 14:59:40.140947 23268 net.cpp:157] Top shape: 4 16 94 310 (1864960)
I0106 14:59:40.140954 23268 net.cpp:165] Memory required for data: 1596405792
I0106 14:59:40.140965 23268 layer_factory.hpp:77] Creating layer relu1_4_branch2a
I0106 14:59:40.140975 23268 net.cpp:106] Creating Layer relu1_4_branch2a
I0106 14:59:40.140983 23268 net.cpp:454] relu1_4_branch2a <- enet1_4_branch2a
I0106 14:59:40.140992 23268 net.cpp:397] relu1_4_branch2a -> enet1_4_branch2a (in-place)
I0106 14:59:40.143471 23268 net.cpp:150] Setting up relu1_4_branch2a
I0106 14:59:40.143488 23268 net.cpp:157] Top shape: 4 16 94 310 (1864960)
I0106 14:59:40.143496 23268 net.cpp:165] Memory required for data: 1603865632
I0106 14:59:40.143504 23268 layer_factory.hpp:77] Creating layer enet1_4_branch2b
I0106 14:59:40.143523 23268 net.cpp:106] Creating Layer enet1_4_branch2b
I0106 14:59:40.143532 23268 net.cpp:454] enet1_4_branch2b <- enet1_4_branch2a
I0106 14:59:40.143546 23268 net.cpp:411] enet1_4_branch2b -> enet1_4_branch2b
I0106 14:59:40.146878 23268 net.cpp:150] Setting up enet1_4_branch2b
I0106 14:59:40.146896 23268 net.cpp:157] Top shape: 4 16 94 310 (1864960)
I0106 14:59:40.146904 23268 net.cpp:165] Memory required for data: 1611325472
I0106 14:59:40.146935 23268 layer_factory.hpp:77] Creating layer bn1_4_branch2b
I0106 14:59:40.146966 23268 net.cpp:106] Creating Layer bn1_4_branch2b
I0106 14:59:40.146975 23268 net.cpp:454] bn1_4_branch2b <- enet1_4_branch2b
I0106 14:59:40.146987 23268 net.cpp:397] bn1_4_branch2b -> enet1_4_branch2b (in-place)
I0106 14:59:40.148217 23268 net.cpp:150] Setting up bn1_4_branch2b
I0106 14:59:40.148236 23268 net.cpp:157] Top shape: 4 16 94 310 (1864960)
I0106 14:59:40.148242 23268 net.cpp:165] Memory required for data: 1618785312
I0106 14:59:40.148255 23268 layer_factory.hpp:77] Creating layer relu1_4_branch2b
I0106 14:59:40.148267 23268 net.cpp:106] Creating Layer relu1_4_branch2b
I0106 14:59:40.148274 23268 net.cpp:454] relu1_4_branch2b <- enet1_4_branch2b
I0106 14:59:40.148286 23268 net.cpp:397] relu1_4_branch2b -> enet1_4_branch2b (in-place)
I0106 14:59:40.150352 23268 net.cpp:150] Setting up relu1_4_branch2b
I0106 14:59:40.150369 23268 net.cpp:157] Top shape: 4 16 94 310 (1864960)
I0106 14:59:40.150377 23268 net.cpp:165] Memory required for data: 1626245152
I0106 14:59:40.150387 23268 layer_factory.hpp:77] Creating layer enet1_4_branch2c
I0106 14:59:40.150405 23268 net.cpp:106] Creating Layer enet1_4_branch2c
I0106 14:59:40.150414 23268 net.cpp:454] enet1_4_branch2c <- enet1_4_branch2b
I0106 14:59:40.150425 23268 net.cpp:411] enet1_4_branch2c -> enet1_4_branch2c
I0106 14:59:40.154599 23268 net.cpp:150] Setting up enet1_4_branch2c
I0106 14:59:40.154618 23268 net.cpp:157] Top shape: 4 64 94 310 (7459840)
I0106 14:59:40.154626 23268 net.cpp:165] Memory required for data: 1656084512
I0106 14:59:40.154636 23268 layer_factory.hpp:77] Creating layer bn1_4_branch2c
I0106 14:59:40.154651 23268 net.cpp:106] Creating Layer bn1_4_branch2c
I0106 14:59:40.154660 23268 net.cpp:454] bn1_4_branch2c <- enet1_4_branch2c
I0106 14:59:40.154673 23268 net.cpp:397] bn1_4_branch2c -> enet1_4_branch2c (in-place)
I0106 14:59:40.155064 23268 net.cpp:150] Setting up bn1_4_branch2c
I0106 14:59:40.155081 23268 net.cpp:157] Top shape: 4 64 94 310 (7459840)
I0106 14:59:40.155086 23268 net.cpp:165] Memory required for data: 1685923872
I0106 14:59:40.155097 23268 layer_factory.hpp:77] Creating layer dropout1_4_branch2c
I0106 14:59:40.155118 23268 net.cpp:106] Creating Layer dropout1_4_branch2c
I0106 14:59:40.155135 23268 net.cpp:454] dropout1_4_branch2c <- enet1_4_branch2c
I0106 14:59:40.155146 23268 net.cpp:397] dropout1_4_branch2c -> enet1_4_branch2c (in-place)
I0106 14:59:40.155196 23268 net.cpp:150] Setting up dropout1_4_branch2c
I0106 14:59:40.155210 23268 net.cpp:157] Top shape: 4 64 94 310 (7459840)
I0106 14:59:40.155217 23268 net.cpp:165] Memory required for data: 1715763232
I0106 14:59:40.155223 23268 layer_factory.hpp:77] Creating layer enet1_4
I0106 14:59:40.155234 23268 net.cpp:106] Creating Layer enet1_4
I0106 14:59:40.155244 23268 net.cpp:454] enet1_4 <- enet1_3_relu1_3_0_split_1
I0106 14:59:40.155253 23268 net.cpp:454] enet1_4 <- enet1_4_branch2c
I0106 14:59:40.155263 23268 net.cpp:411] enet1_4 -> enet1_4
I0106 14:59:40.155306 23268 net.cpp:150] Setting up enet1_4
I0106 14:59:40.155319 23268 net.cpp:157] Top shape: 4 64 94 310 (7459840)
I0106 14:59:40.155325 23268 net.cpp:165] Memory required for data: 1745602592
I0106 14:59:40.155333 23268 layer_factory.hpp:77] Creating layer relu1_4
I0106 14:59:40.155347 23268 net.cpp:106] Creating Layer relu1_4
I0106 14:59:40.155355 23268 net.cpp:454] relu1_4 <- enet1_4
I0106 14:59:40.155367 23268 net.cpp:397] relu1_4 -> enet1_4 (in-place)
I0106 14:59:40.162696 23268 net.cpp:150] Setting up relu1_4
I0106 14:59:40.162720 23268 net.cpp:157] Top shape: 4 64 94 310 (7459840)
I0106 14:59:40.162727 23268 net.cpp:165] Memory required for data: 1775441952
I0106 14:59:40.162737 23268 layer_factory.hpp:77] Creating layer enet1_4_relu1_4_0_split
I0106 14:59:40.162755 23268 net.cpp:106] Creating Layer enet1_4_relu1_4_0_split
I0106 14:59:40.162766 23268 net.cpp:454] enet1_4_relu1_4_0_split <- enet1_4
I0106 14:59:40.162777 23268 net.cpp:411] enet1_4_relu1_4_0_split -> enet1_4_relu1_4_0_split_0
I0106 14:59:40.162789 23268 net.cpp:411] enet1_4_relu1_4_0_split -> enet1_4_relu1_4_0_split_1
I0106 14:59:40.162863 23268 net.cpp:150] Setting up enet1_4_relu1_4_0_split
I0106 14:59:40.162876 23268 net.cpp:157] Top shape: 4 64 94 310 (7459840)
I0106 14:59:40.162884 23268 net.cpp:157] Top shape: 4 64 94 310 (7459840)
I0106 14:59:40.162890 23268 net.cpp:165] Memory required for data: 1835120672
I0106 14:59:40.162897 23268 layer_factory.hpp:77] Creating layer enet2_0_branch2a
I0106 14:59:40.162916 23268 net.cpp:106] Creating Layer enet2_0_branch2a
I0106 14:59:40.162925 23268 net.cpp:454] enet2_0_branch2a <- enet1_4_relu1_4_0_split_0
I0106 14:59:40.162935 23268 net.cpp:411] enet2_0_branch2a -> enet2_0_branch2a
I0106 14:59:40.167405 23268 net.cpp:150] Setting up enet2_0_branch2a
I0106 14:59:40.167426 23268 net.cpp:157] Top shape: 4 32 47 155 (932480)
I0106 14:59:40.167434 23268 net.cpp:165] Memory required for data: 1838850592
I0106 14:59:40.167445 23268 layer_factory.hpp:77] Creating layer bn2_0_branch2a
I0106 14:59:40.167459 23268 net.cpp:106] Creating Layer bn2_0_branch2a
I0106 14:59:40.167465 23268 net.cpp:454] bn2_0_branch2a <- enet2_0_branch2a
I0106 14:59:40.167479 23268 net.cpp:397] bn2_0_branch2a -> enet2_0_branch2a (in-place)
I0106 14:59:40.167851 23268 net.cpp:150] Setting up bn2_0_branch2a
I0106 14:59:40.167866 23268 net.cpp:157] Top shape: 4 32 47 155 (932480)
I0106 14:59:40.167873 23268 net.cpp:165] Memory required for data: 1842580512
I0106 14:59:40.167884 23268 layer_factory.hpp:77] Creating layer relu2_0_branch2a
I0106 14:59:40.167901 23268 net.cpp:106] Creating Layer relu2_0_branch2a
I0106 14:59:40.167909 23268 net.cpp:454] relu2_0_branch2a <- enet2_0_branch2a
I0106 14:59:40.167922 23268 net.cpp:397] relu2_0_branch2a -> enet2_0_branch2a (in-place)
I0106 14:59:40.169116 23268 net.cpp:150] Setting up relu2_0_branch2a
I0106 14:59:40.169134 23268 net.cpp:157] Top shape: 4 32 47 155 (932480)
I0106 14:59:40.169142 23268 net.cpp:165] Memory required for data: 1846310432
I0106 14:59:40.169152 23268 layer_factory.hpp:77] Creating layer enet2_0_branch2b
I0106 14:59:40.169169 23268 net.cpp:106] Creating Layer enet2_0_branch2b
I0106 14:59:40.169178 23268 net.cpp:454] enet2_0_branch2b <- enet2_0_branch2a
I0106 14:59:40.169193 23268 net.cpp:411] enet2_0_branch2b -> enet2_0_branch2b
I0106 14:59:40.172818 23268 net.cpp:150] Setting up enet2_0_branch2b
I0106 14:59:40.172837 23268 net.cpp:157] Top shape: 4 32 47 155 (932480)
I0106 14:59:40.172845 23268 net.cpp:165] Memory required for data: 1850040352
I0106 14:59:40.172857 23268 layer_factory.hpp:77] Creating layer bn2_0_branch2b
I0106 14:59:40.172873 23268 net.cpp:106] Creating Layer bn2_0_branch2b
I0106 14:59:40.172881 23268 net.cpp:454] bn2_0_branch2b <- enet2_0_branch2b
I0106 14:59:40.172895 23268 net.cpp:397] bn2_0_branch2b -> enet2_0_branch2b (in-place)
I0106 14:59:40.173274 23268 net.cpp:150] Setting up bn2_0_branch2b
I0106 14:59:40.173288 23268 net.cpp:157] Top shape: 4 32 47 155 (932480)
I0106 14:59:40.173295 23268 net.cpp:165] Memory required for data: 1853770272
I0106 14:59:40.173306 23268 layer_factory.hpp:77] Creating layer relu2_0_branch2b
I0106 14:59:40.173319 23268 net.cpp:106] Creating Layer relu2_0_branch2b
I0106 14:59:40.173327 23268 net.cpp:454] relu2_0_branch2b <- enet2_0_branch2b
I0106 14:59:40.173337 23268 net.cpp:397] relu2_0_branch2b -> enet2_0_branch2b (in-place)
I0106 14:59:40.174747 23268 net.cpp:150] Setting up relu2_0_branch2b
I0106 14:59:40.174768 23268 net.cpp:157] Top shape: 4 32 47 155 (932480)
I0106 14:59:40.174777 23268 net.cpp:165] Memory required for data: 1857500192
I0106 14:59:40.174785 23268 layer_factory.hpp:77] Creating layer enet2_0_branch2c
I0106 14:59:40.174803 23268 net.cpp:106] Creating Layer enet2_0_branch2c
I0106 14:59:40.174813 23268 net.cpp:454] enet2_0_branch2c <- enet2_0_branch2b
I0106 14:59:40.174827 23268 net.cpp:411] enet2_0_branch2c -> enet2_0_branch2c
I0106 14:59:40.178068 23268 net.cpp:150] Setting up enet2_0_branch2c
I0106 14:59:40.178087 23268 net.cpp:157] Top shape: 4 128 47 155 (3729920)
I0106 14:59:40.178095 23268 net.cpp:165] Memory required for data: 1872419872
I0106 14:59:40.178105 23268 layer_factory.hpp:77] Creating layer bn2_0_branch2c
I0106 14:59:40.178120 23268 net.cpp:106] Creating Layer bn2_0_branch2c
I0106 14:59:40.178129 23268 net.cpp:454] bn2_0_branch2c <- enet2_0_branch2c
I0106 14:59:40.178143 23268 net.cpp:397] bn2_0_branch2c -> enet2_0_branch2c (in-place)
I0106 14:59:40.178508 23268 net.cpp:150] Setting up bn2_0_branch2c
I0106 14:59:40.178524 23268 net.cpp:157] Top shape: 4 128 47 155 (3729920)
I0106 14:59:40.178530 23268 net.cpp:165] Memory required for data: 1887339552
I0106 14:59:40.178541 23268 layer_factory.hpp:77] Creating layer dropout2_0_branch2c
I0106 14:59:40.178551 23268 net.cpp:106] Creating Layer dropout2_0_branch2c
I0106 14:59:40.178558 23268 net.cpp:454] dropout2_0_branch2c <- enet2_0_branch2c
I0106 14:59:40.178568 23268 net.cpp:397] dropout2_0_branch2c -> enet2_0_branch2c (in-place)
I0106 14:59:40.178618 23268 net.cpp:150] Setting up dropout2_0_branch2c
I0106 14:59:40.178632 23268 net.cpp:157] Top shape: 4 128 47 155 (3729920)
I0106 14:59:40.178638 23268 net.cpp:165] Memory required for data: 1902259232
I0106 14:59:40.178645 23268 layer_factory.hpp:77] Creating layer enet2_0_branch1a
I0106 14:59:40.178658 23268 net.cpp:106] Creating Layer enet2_0_branch1a
I0106 14:59:40.178666 23268 net.cpp:454] enet2_0_branch1a <- enet1_4_relu1_4_0_split_1
I0106 14:59:40.178680 23268 net.cpp:411] enet2_0_branch1a -> enet2_0_branch1a
I0106 14:59:40.182365 23268 net.cpp:150] Setting up enet2_0_branch1a
I0106 14:59:40.182384 23268 net.cpp:157] Top shape: 4 128 94 310 (14919680)
I0106 14:59:40.182396 23268 net.cpp:165] Memory required for data: 1961937952
I0106 14:59:40.182406 23268 layer_factory.hpp:77] Creating layer bn2_0_branch1a
I0106 14:59:40.182418 23268 net.cpp:106] Creating Layer bn2_0_branch1a
I0106 14:59:40.182426 23268 net.cpp:454] bn2_0_branch1a <- enet2_0_branch1a
I0106 14:59:40.182440 23268 net.cpp:397] bn2_0_branch1a -> enet2_0_branch1a (in-place)
I0106 14:59:40.182870 23268 net.cpp:150] Setting up bn2_0_branch1a
I0106 14:59:40.182884 23268 net.cpp:157] Top shape: 4 128 94 310 (14919680)
I0106 14:59:40.182891 23268 net.cpp:165] Memory required for data: 2021616672
I0106 14:59:40.182903 23268 layer_factory.hpp:77] Creating layer pool2_0_branch1a
I0106 14:59:40.182926 23268 layer_factory.cpp:91] cuDNN does not support multiple tops. Using Caffe's own pooling layer.
I0106 14:59:40.182938 23268 net.cpp:106] Creating Layer pool2_0_branch1a
I0106 14:59:40.182945 23268 net.cpp:454] pool2_0_branch1a <- enet2_0_branch1a
I0106 14:59:40.182958 23268 net.cpp:411] pool2_0_branch1a -> pool2_0_branch1a
I0106 14:59:40.182973 23268 net.cpp:411] pool2_0_branch1a -> pool2_0_branch1a_mask
I0106 14:59:40.183046 23268 net.cpp:150] Setting up pool2_0_branch1a
I0106 14:59:40.183060 23268 net.cpp:157] Top shape: 4 128 47 155 (3729920)
I0106 14:59:40.183068 23268 net.cpp:157] Top shape: 4 128 47 155 (3729920)
I0106 14:59:40.183074 23268 net.cpp:165] Memory required for data: 2051456032
I0106 14:59:40.183081 23268 layer_factory.hpp:77] Creating layer enet2_0
I0106 14:59:40.183092 23268 net.cpp:106] Creating Layer enet2_0
I0106 14:59:40.183099 23268 net.cpp:454] enet2_0 <- pool2_0_branch1a
I0106 14:59:40.183109 23268 net.cpp:454] enet2_0 <- enet2_0_branch2c
I0106 14:59:40.183120 23268 net.cpp:411] enet2_0 -> enet2_0
I0106 14:59:40.183166 23268 net.cpp:150] Setting up enet2_0
I0106 14:59:40.183181 23268 net.cpp:157] Top shape: 4 128 47 155 (3729920)
I0106 14:59:40.183187 23268 net.cpp:165] Memory required for data: 2066375712
I0106 14:59:40.183193 23268 layer_factory.hpp:77] Creating layer relu2_0
I0106 14:59:40.183205 23268 net.cpp:106] Creating Layer relu2_0
I0106 14:59:40.183212 23268 net.cpp:454] relu2_0 <- enet2_0
I0106 14:59:40.183223 23268 net.cpp:397] relu2_0 -> enet2_0 (in-place)
I0106 14:59:40.188228 23268 net.cpp:150] Setting up relu2_0
I0106 14:59:40.188247 23268 net.cpp:157] Top shape: 4 128 47 155 (3729920)
I0106 14:59:40.188254 23268 net.cpp:165] Memory required for data: 2081295392
I0106 14:59:40.188264 23268 layer_factory.hpp:77] Creating layer enet2_0_relu2_0_0_split
I0106 14:59:40.188275 23268 net.cpp:106] Creating Layer enet2_0_relu2_0_0_split
I0106 14:59:40.188282 23268 net.cpp:454] enet2_0_relu2_0_0_split <- enet2_0
I0106 14:59:40.188297 23268 net.cpp:411] enet2_0_relu2_0_0_split -> enet2_0_relu2_0_0_split_0
I0106 14:59:40.188309 23268 net.cpp:411] enet2_0_relu2_0_0_split -> enet2_0_relu2_0_0_split_1
I0106 14:59:40.188381 23268 net.cpp:150] Setting up enet2_0_relu2_0_0_split
I0106 14:59:40.188395 23268 net.cpp:157] Top shape: 4 128 47 155 (3729920)
I0106 14:59:40.188403 23268 net.cpp:157] Top shape: 4 128 47 155 (3729920)
I0106 14:59:40.188410 23268 net.cpp:165] Memory required for data: 2111134752
I0106 14:59:40.188416 23268 layer_factory.hpp:77] Creating layer enet2_1_branch2a
I0106 14:59:40.188433 23268 net.cpp:106] Creating Layer enet2_1_branch2a
I0106 14:59:40.188442 23268 net.cpp:454] enet2_1_branch2a <- enet2_0_relu2_0_0_split_0
I0106 14:59:40.188453 23268 net.cpp:411] enet2_1_branch2a -> enet2_1_branch2a
I0106 14:59:40.191678 23268 net.cpp:150] Setting up enet2_1_branch2a
I0106 14:59:40.191695 23268 net.cpp:157] Top shape: 4 32 47 155 (932480)
I0106 14:59:40.191704 23268 net.cpp:165] Memory required for data: 2114864672
I0106 14:59:40.191714 23268 layer_factory.hpp:77] Creating layer bn2_1_branch2a
I0106 14:59:40.191728 23268 net.cpp:106] Creating Layer bn2_1_branch2a
I0106 14:59:40.191736 23268 net.cpp:454] bn2_1_branch2a <- enet2_1_branch2a
I0106 14:59:40.191751 23268 net.cpp:397] bn2_1_branch2a -> enet2_1_branch2a (in-place)
I0106 14:59:40.192145 23268 net.cpp:150] Setting up bn2_1_branch2a
I0106 14:59:40.192160 23268 net.cpp:157] Top shape: 4 32 47 155 (932480)
I0106 14:59:40.192167 23268 net.cpp:165] Memory required for data: 2118594592
I0106 14:59:40.192178 23268 layer_factory.hpp:77] Creating layer relu2_1_branch2a
I0106 14:59:40.192188 23268 net.cpp:106] Creating Layer relu2_1_branch2a
I0106 14:59:40.192196 23268 net.cpp:454] relu2_1_branch2a <- enet2_1_branch2a
I0106 14:59:40.192209 23268 net.cpp:397] relu2_1_branch2a -> enet2_1_branch2a (in-place)
I0106 14:59:40.193388 23268 net.cpp:150] Setting up relu2_1_branch2a
I0106 14:59:40.193406 23268 net.cpp:157] Top shape: 4 32 47 155 (932480)
I0106 14:59:40.193413 23268 net.cpp:165] Memory required for data: 2122324512
I0106 14:59:40.193440 23268 layer_factory.hpp:77] Creating layer enet2_1_branch2b
I0106 14:59:40.193459 23268 net.cpp:106] Creating Layer enet2_1_branch2b
I0106 14:59:40.193467 23268 net.cpp:454] enet2_1_branch2b <- enet2_1_branch2a
I0106 14:59:40.193481 23268 net.cpp:411] enet2_1_branch2b -> enet2_1_branch2b
I0106 14:59:40.197080 23268 net.cpp:150] Setting up enet2_1_branch2b
I0106 14:59:40.197099 23268 net.cpp:157] Top shape: 4 32 47 155 (932480)
I0106 14:59:40.197106 23268 net.cpp:165] Memory required for data: 2126054432
I0106 14:59:40.197118 23268 layer_factory.hpp:77] Creating layer bn2_1_branch2b
I0106 14:59:40.197134 23268 net.cpp:106] Creating Layer bn2_1_branch2b
I0106 14:59:40.197142 23268 net.cpp:454] bn2_1_branch2b <- enet2_1_branch2b
I0106 14:59:40.197154 23268 net.cpp:397] bn2_1_branch2b -> enet2_1_branch2b (in-place)
I0106 14:59:40.197566 23268 net.cpp:150] Setting up bn2_1_branch2b
I0106 14:59:40.197580 23268 net.cpp:157] Top shape: 4 32 47 155 (932480)
I0106 14:59:40.197587 23268 net.cpp:165] Memory required for data: 2129784352
I0106 14:59:40.197598 23268 layer_factory.hpp:77] Creating layer relu2_1_branch2b
I0106 14:59:40.197608 23268 net.cpp:106] Creating Layer relu2_1_branch2b
I0106 14:59:40.197615 23268 net.cpp:454] relu2_1_branch2b <- enet2_1_branch2b
I0106 14:59:40.197628 23268 net.cpp:397] relu2_1_branch2b -> enet2_1_branch2b (in-place)
I0106 14:59:40.198861 23268 net.cpp:150] Setting up relu2_1_branch2b
I0106 14:59:40.198879 23268 net.cpp:157] Top shape: 4 32 47 155 (932480)
I0106 14:59:40.198887 23268 net.cpp:165] Memory required for data: 2133514272
I0106 14:59:40.198896 23268 layer_factory.hpp:77] Creating layer enet2_1_branch2c
I0106 14:59:40.198915 23268 net.cpp:106] Creating Layer enet2_1_branch2c
I0106 14:59:40.198923 23268 net.cpp:454] enet2_1_branch2c <- enet2_1_branch2b
I0106 14:59:40.198935 23268 net.cpp:411] enet2_1_branch2c -> enet2_1_branch2c
I0106 14:59:40.202392 23268 net.cpp:150] Setting up enet2_1_branch2c
I0106 14:59:40.202411 23268 net.cpp:157] Top shape: 4 128 47 155 (3729920)
I0106 14:59:40.202419 23268 net.cpp:165] Memory required for data: 2148433952
I0106 14:59:40.202430 23268 layer_factory.hpp:77] Creating layer bn2_1_branch2c
I0106 14:59:40.202445 23268 net.cpp:106] Creating Layer bn2_1_branch2c
I0106 14:59:40.202453 23268 net.cpp:454] bn2_1_branch2c <- enet2_1_branch2c
I0106 14:59:40.202466 23268 net.cpp:397] bn2_1_branch2c -> enet2_1_branch2c (in-place)
I0106 14:59:40.202865 23268 net.cpp:150] Setting up bn2_1_branch2c
I0106 14:59:40.202879 23268 net.cpp:157] Top shape: 4 128 47 155 (3729920)
I0106 14:59:40.202886 23268 net.cpp:165] Memory required for data: 2163353632
I0106 14:59:40.202898 23268 layer_factory.hpp:77] Creating layer dropout2_1_branch2c
I0106 14:59:40.202913 23268 net.cpp:106] Creating Layer dropout2_1_branch2c
I0106 14:59:40.202920 23268 net.cpp:454] dropout2_1_branch2c <- enet2_1_branch2c
I0106 14:59:40.202930 23268 net.cpp:397] dropout2_1_branch2c -> enet2_1_branch2c (in-place)
I0106 14:59:40.202980 23268 net.cpp:150] Setting up dropout2_1_branch2c
I0106 14:59:40.202992 23268 net.cpp:157] Top shape: 4 128 47 155 (3729920)
I0106 14:59:40.202999 23268 net.cpp:165] Memory required for data: 2178273312
I0106 14:59:40.203006 23268 layer_factory.hpp:77] Creating layer enet2_1
I0106 14:59:40.203016 23268 net.cpp:106] Creating Layer enet2_1
I0106 14:59:40.203024 23268 net.cpp:454] enet2_1 <- enet2_0_relu2_0_0_split_1
I0106 14:59:40.203032 23268 net.cpp:454] enet2_1 <- enet2_1_branch2c
I0106 14:59:40.203045 23268 net.cpp:411] enet2_1 -> enet2_1
I0106 14:59:40.203097 23268 net.cpp:150] Setting up enet2_1
I0106 14:59:40.203111 23268 net.cpp:157] Top shape: 4 128 47 155 (3729920)
I0106 14:59:40.203117 23268 net.cpp:165] Memory required for data: 2193192992
I0106 14:59:40.203125 23268 layer_factory.hpp:77] Creating layer relu2_1
I0106 14:59:40.203133 23268 net.cpp:106] Creating Layer relu2_1
I0106 14:59:40.203141 23268 net.cpp:454] relu2_1 <- enet2_1
I0106 14:59:40.203152 23268 net.cpp:397] relu2_1 -> enet2_1 (in-place)
I0106 14:59:40.207049 23268 net.cpp:150] Setting up relu2_1
I0106 14:59:40.207082 23268 net.cpp:157] Top shape: 4 128 47 155 (3729920)
I0106 14:59:40.207088 23268 net.cpp:165] Memory required for data: 2208112672
I0106 14:59:40.207098 23268 layer_factory.hpp:77] Creating layer enet2_1_relu2_1_0_split
I0106 14:59:40.207109 23268 net.cpp:106] Creating Layer enet2_1_relu2_1_0_split
I0106 14:59:40.207116 23268 net.cpp:454] enet2_1_relu2_1_0_split <- enet2_1
I0106 14:59:40.207130 23268 net.cpp:411] enet2_1_relu2_1_0_split -> enet2_1_relu2_1_0_split_0
I0106 14:59:40.207144 23268 net.cpp:411] enet2_1_relu2_1_0_split -> enet2_1_relu2_1_0_split_1
I0106 14:59:40.207226 23268 net.cpp:150] Setting up enet2_1_relu2_1_0_split
I0106 14:59:40.207239 23268 net.cpp:157] Top shape: 4 128 47 155 (3729920)
I0106 14:59:40.207247 23268 net.cpp:157] Top shape: 4 128 47 155 (3729920)
I0106 14:59:40.207253 23268 net.cpp:165] Memory required for data: 2237952032
I0106 14:59:40.207260 23268 layer_factory.hpp:77] Creating layer enet2_2_branch2a
I0106 14:59:40.207274 23268 net.cpp:106] Creating Layer enet2_2_branch2a
I0106 14:59:40.207283 23268 net.cpp:454] enet2_2_branch2a <- enet2_1_relu2_1_0_split_0
I0106 14:59:40.207293 23268 net.cpp:411] enet2_2_branch2a -> enet2_2_branch2a
I0106 14:59:40.211354 23268 net.cpp:150] Setting up enet2_2_branch2a
I0106 14:59:40.211372 23268 net.cpp:157] Top shape: 4 32 47 155 (932480)
I0106 14:59:40.211380 23268 net.cpp:165] Memory required for data: 2241681952
I0106 14:59:40.211390 23268 layer_factory.hpp:77] Creating layer bn2_2_branch2a
I0106 14:59:40.211405 23268 net.cpp:106] Creating Layer bn2_2_branch2a
I0106 14:59:40.211416 23268 net.cpp:454] bn2_2_branch2a <- enet2_2_branch2a
I0106 14:59:40.211426 23268 net.cpp:397] bn2_2_branch2a -> enet2_2_branch2a (in-place)
I0106 14:59:40.211838 23268 net.cpp:150] Setting up bn2_2_branch2a
I0106 14:59:40.211853 23268 net.cpp:157] Top shape: 4 32 47 155 (932480)
I0106 14:59:40.211860 23268 net.cpp:165] Memory required for data: 2245411872
I0106 14:59:40.211871 23268 layer_factory.hpp:77] Creating layer relu2_2_branch2a
I0106 14:59:40.211882 23268 net.cpp:106] Creating Layer relu2_2_branch2a
I0106 14:59:40.211889 23268 net.cpp:454] relu2_2_branch2a <- enet2_2_branch2a
I0106 14:59:40.211899 23268 net.cpp:397] relu2_2_branch2a -> enet2_2_branch2a (in-place)
I0106 14:59:40.213104 23268 net.cpp:150] Setting up relu2_2_branch2a
I0106 14:59:40.213120 23268 net.cpp:157] Top shape: 4 32 47 155 (932480)
I0106 14:59:40.213127 23268 net.cpp:165] Memory required for data: 2249141792
I0106 14:59:40.213137 23268 layer_factory.hpp:77] Creating layer enet2_2_branch2b
I0106 14:59:40.213160 23268 net.cpp:106] Creating Layer enet2_2_branch2b
I0106 14:59:40.213167 23268 net.cpp:454] enet2_2_branch2b <- enet2_2_branch2a
I0106 14:59:40.213179 23268 net.cpp:411] enet2_2_branch2b -> enet2_2_branch2b
I0106 14:59:40.213870 23268 net.cpp:150] Setting up enet2_2_branch2b
I0106 14:59:40.213886 23268 net.cpp:157] Top shape: 4 32 47 155 (932480)
I0106 14:59:40.213892 23268 net.cpp:165] Memory required for data: 2252871712
I0106 14:59:40.213902 23268 layer_factory.hpp:77] Creating layer bn2_2_branch2b
I0106 14:59:40.213918 23268 net.cpp:106] Creating Layer bn2_2_branch2b
I0106 14:59:40.213927 23268 net.cpp:454] bn2_2_branch2b <- enet2_2_branch2b
I0106 14:59:40.213937 23268 net.cpp:397] bn2_2_branch2b -> enet2_2_branch2b (in-place)
I0106 14:59:40.214344 23268 net.cpp:150] Setting up bn2_2_branch2b
I0106 14:59:40.214357 23268 net.cpp:157] Top shape: 4 32 47 155 (932480)
I0106 14:59:40.214365 23268 net.cpp:165] Memory required for data: 2256601632
I0106 14:59:40.214375 23268 layer_factory.hpp:77] Creating layer relu2_2_branch2b
I0106 14:59:40.214385 23268 net.cpp:106] Creating Layer relu2_2_branch2b
I0106 14:59:40.214392 23268 net.cpp:454] relu2_2_branch2b <- enet2_2_branch2b
I0106 14:59:40.214406 23268 net.cpp:397] relu2_2_branch2b -> enet2_2_branch2b (in-place)
I0106 14:59:40.215606 23268 net.cpp:150] Setting up relu2_2_branch2b
I0106 14:59:40.215623 23268 net.cpp:157] Top shape: 4 32 47 155 (932480)
I0106 14:59:40.215638 23268 net.cpp:165] Memory required for data: 2260331552
I0106 14:59:40.215656 23268 layer_factory.hpp:77] Creating layer enet2_2_branch2c
I0106 14:59:40.215673 23268 net.cpp:106] Creating Layer enet2_2_branch2c
I0106 14:59:40.215682 23268 net.cpp:454] enet2_2_branch2c <- enet2_2_branch2b
I0106 14:59:40.215693 23268 net.cpp:411] enet2_2_branch2c -> enet2_2_branch2c
I0106 14:59:40.220237 23268 net.cpp:150] Setting up enet2_2_branch2c
I0106 14:59:40.220255 23268 net.cpp:157] Top shape: 4 128 47 155 (3729920)
I0106 14:59:40.220263 23268 net.cpp:165] Memory required for data: 2275251232
I0106 14:59:40.220273 23268 layer_factory.hpp:77] Creating layer bn2_2_branch2c
I0106 14:59:40.220288 23268 net.cpp:106] Creating Layer bn2_2_branch2c
I0106 14:59:40.220296 23268 net.cpp:454] bn2_2_branch2c <- enet2_2_branch2c
I0106 14:59:40.220309 23268 net.cpp:397] bn2_2_branch2c -> enet2_2_branch2c (in-place)
I0106 14:59:40.220727 23268 net.cpp:150] Setting up bn2_2_branch2c
I0106 14:59:40.220741 23268 net.cpp:157] Top shape: 4 128 47 155 (3729920)
I0106 14:59:40.220748 23268 net.cpp:165] Memory required for data: 2290170912
I0106 14:59:40.220764 23268 layer_factory.hpp:77] Creating layer dropout2_2_branch2c
I0106 14:59:40.220779 23268 net.cpp:106] Creating Layer dropout2_2_branch2c
I0106 14:59:40.220788 23268 net.cpp:454] dropout2_2_branch2c <- enet2_2_branch2c
I0106 14:59:40.220798 23268 net.cpp:397] dropout2_2_branch2c -> enet2_2_branch2c (in-place)
I0106 14:59:40.220847 23268 net.cpp:150] Setting up dropout2_2_branch2c
I0106 14:59:40.220860 23268 net.cpp:157] Top shape: 4 128 47 155 (3729920)
I0106 14:59:40.220867 23268 net.cpp:165] Memory required for data: 2305090592
I0106 14:59:40.220875 23268 layer_factory.hpp:77] Creating layer enet2_2
I0106 14:59:40.220885 23268 net.cpp:106] Creating Layer enet2_2
I0106 14:59:40.220891 23268 net.cpp:454] enet2_2 <- enet2_1_relu2_1_0_split_1
I0106 14:59:40.220901 23268 net.cpp:454] enet2_2 <- enet2_2_branch2c
I0106 14:59:40.220913 23268 net.cpp:411] enet2_2 -> enet2_2
I0106 14:59:40.220968 23268 net.cpp:150] Setting up enet2_2
I0106 14:59:40.220981 23268 net.cpp:157] Top shape: 4 128 47 155 (3729920)
I0106 14:59:40.220988 23268 net.cpp:165] Memory required for data: 2320010272
I0106 14:59:40.220995 23268 layer_factory.hpp:77] Creating layer relu2_2
I0106 14:59:40.221004 23268 net.cpp:106] Creating Layer relu2_2
I0106 14:59:40.221011 23268 net.cpp:454] relu2_2 <- enet2_2
I0106 14:59:40.221024 23268 net.cpp:397] relu2_2 -> enet2_2 (in-place)
I0106 14:59:40.224881 23268 net.cpp:150] Setting up relu2_2
I0106 14:59:40.224900 23268 net.cpp:157] Top shape: 4 128 47 155 (3729920)
I0106 14:59:40.224907 23268 net.cpp:165] Memory required for data: 2334929952
I0106 14:59:40.224917 23268 layer_factory.hpp:77] Creating layer enet2_2_relu2_2_0_split
I0106 14:59:40.224927 23268 net.cpp:106] Creating Layer enet2_2_relu2_2_0_split
I0106 14:59:40.224936 23268 net.cpp:454] enet2_2_relu2_2_0_split <- enet2_2
I0106 14:59:40.224948 23268 net.cpp:411] enet2_2_relu2_2_0_split -> enet2_2_relu2_2_0_split_0
I0106 14:59:40.224974 23268 net.cpp:411] enet2_2_relu2_2_0_split -> enet2_2_relu2_2_0_split_1
I0106 14:59:40.225052 23268 net.cpp:150] Setting up enet2_2_relu2_2_0_split
I0106 14:59:40.225067 23268 net.cpp:157] Top shape: 4 128 47 155 (3729920)
I0106 14:59:40.225076 23268 net.cpp:157] Top shape: 4 128 47 155 (3729920)
I0106 14:59:40.225082 23268 net.cpp:165] Memory required for data: 2364769312
I0106 14:59:40.225090 23268 layer_factory.hpp:77] Creating layer enet2_3_branch2a
I0106 14:59:40.225106 23268 net.cpp:106] Creating Layer enet2_3_branch2a
I0106 14:59:40.225116 23268 net.cpp:454] enet2_3_branch2a <- enet2_2_relu2_2_0_split_0
I0106 14:59:40.225126 23268 net.cpp:411] enet2_3_branch2a -> enet2_3_branch2a
I0106 14:59:40.228500 23268 net.cpp:150] Setting up enet2_3_branch2a
I0106 14:59:40.228518 23268 net.cpp:157] Top shape: 4 32 47 155 (932480)
I0106 14:59:40.228526 23268 net.cpp:165] Memory required for data: 2368499232
I0106 14:59:40.228535 23268 layer_factory.hpp:77] Creating layer bn2_3_branch2a
I0106 14:59:40.228560 23268 net.cpp:106] Creating Layer bn2_3_branch2a
I0106 14:59:40.228579 23268 net.cpp:454] bn2_3_branch2a <- enet2_3_branch2a
I0106 14:59:40.228590 23268 net.cpp:397] bn2_3_branch2a -> enet2_3_branch2a (in-place)
I0106 14:59:40.229030 23268 net.cpp:150] Setting up bn2_3_branch2a
I0106 14:59:40.229044 23268 net.cpp:157] Top shape: 4 32 47 155 (932480)
I0106 14:59:40.229051 23268 net.cpp:165] Memory required for data: 2372229152
I0106 14:59:40.229063 23268 layer_factory.hpp:77] Creating layer relu2_3_branch2a
I0106 14:59:40.229074 23268 net.cpp:106] Creating Layer relu2_3_branch2a
I0106 14:59:40.229080 23268 net.cpp:454] relu2_3_branch2a <- enet2_3_branch2a
I0106 14:59:40.229089 23268 net.cpp:397] relu2_3_branch2a -> enet2_3_branch2a (in-place)
I0106 14:59:40.230312 23268 net.cpp:150] Setting up relu2_3_branch2a
I0106 14:59:40.230330 23268 net.cpp:157] Top shape: 4 32 47 155 (932480)
I0106 14:59:40.230337 23268 net.cpp:165] Memory required for data: 2375959072
I0106 14:59:40.230347 23268 layer_factory.hpp:77] Creating layer enet2_3_branch2b1
I0106 14:59:40.230365 23268 net.cpp:106] Creating Layer enet2_3_branch2b1
I0106 14:59:40.230373 23268 net.cpp:454] enet2_3_branch2b1 <- enet2_3_branch2a
I0106 14:59:40.230384 23268 net.cpp:411] enet2_3_branch2b1 -> enet2_3_branch2b1
I0106 14:59:40.233958 23268 net.cpp:150] Setting up enet2_3_branch2b1
I0106 14:59:40.233976 23268 net.cpp:157] Top shape: 4 32 47 155 (932480)
I0106 14:59:40.233984 23268 net.cpp:165] Memory required for data: 2379688992
I0106 14:59:40.233994 23268 layer_factory.hpp:77] Creating layer enet2_3_branch2b
I0106 14:59:40.234012 23268 net.cpp:106] Creating Layer enet2_3_branch2b
I0106 14:59:40.234021 23268 net.cpp:454] enet2_3_branch2b <- enet2_3_branch2b1
I0106 14:59:40.234036 23268 net.cpp:411] enet2_3_branch2b -> enet2_3_branch2b
I0106 14:59:40.237691 23268 net.cpp:150] Setting up enet2_3_branch2b
I0106 14:59:40.237709 23268 net.cpp:157] Top shape: 4 32 47 155 (932480)
I0106 14:59:40.237717 23268 net.cpp:165] Memory required for data: 2383418912
I0106 14:59:40.237728 23268 layer_factory.hpp:77] Creating layer bn2_3_branch2b
I0106 14:59:40.237746 23268 net.cpp:106] Creating Layer bn2_3_branch2b
I0106 14:59:40.237754 23268 net.cpp:454] bn2_3_branch2b <- enet2_3_branch2b
I0106 14:59:40.237773 23268 net.cpp:397] bn2_3_branch2b -> enet2_3_branch2b (in-place)
I0106 14:59:40.238229 23268 net.cpp:150] Setting up bn2_3_branch2b
I0106 14:59:40.238245 23268 net.cpp:157] Top shape: 4 32 47 155 (932480)
I0106 14:59:40.238251 23268 net.cpp:165] Memory required for data: 2387148832
I0106 14:59:40.238262 23268 layer_factory.hpp:77] Creating layer relu2_3_branch2b
I0106 14:59:40.238272 23268 net.cpp:106] Creating Layer relu2_3_branch2b
I0106 14:59:40.238279 23268 net.cpp:454] relu2_3_branch2b <- enet2_3_branch2b
I0106 14:59:40.238288 23268 net.cpp:397] relu2_3_branch2b -> enet2_3_branch2b (in-place)
I0106 14:59:40.239722 23268 net.cpp:150] Setting up relu2_3_branch2b
I0106 14:59:40.239739 23268 net.cpp:157] Top shape: 4 32 47 155 (932480)
I0106 14:59:40.239747 23268 net.cpp:165] Memory required for data: 2390878752
I0106 14:59:40.239756 23268 layer_factory.hpp:77] Creating layer enet2_3_branch2c
I0106 14:59:40.239778 23268 net.cpp:106] Creating Layer enet2_3_branch2c
I0106 14:59:40.239787 23268 net.cpp:454] enet2_3_branch2c <- enet2_3_branch2b
I0106 14:59:40.239802 23268 net.cpp:411] enet2_3_branch2c -> enet2_3_branch2c
I0106 14:59:40.243253 23268 net.cpp:150] Setting up enet2_3_branch2c
I0106 14:59:40.243273 23268 net.cpp:157] Top shape: 4 128 47 155 (3729920)
I0106 14:59:40.243280 23268 net.cpp:165] Memory required for data: 2405798432
I0106 14:59:40.243290 23268 layer_factory.hpp:77] Creating layer bn2_3_branch2c
I0106 14:59:40.243309 23268 net.cpp:106] Creating Layer bn2_3_branch2c
I0106 14:59:40.243317 23268 net.cpp:454] bn2_3_branch2c <- enet2_3_branch2c
I0106 14:59:40.243329 23268 net.cpp:397] bn2_3_branch2c -> enet2_3_branch2c (in-place)
I0106 14:59:40.243775 23268 net.cpp:150] Setting up bn2_3_branch2c
I0106 14:59:40.243790 23268 net.cpp:157] Top shape: 4 128 47 155 (3729920)
I0106 14:59:40.243811 23268 net.cpp:165] Memory required for data: 2420718112
I0106 14:59:40.243824 23268 layer_factory.hpp:77] Creating layer dropout2_3_branch2c
I0106 14:59:40.243837 23268 net.cpp:106] Creating Layer dropout2_3_branch2c
I0106 14:59:40.243844 23268 net.cpp:454] dropout2_3_branch2c <- enet2_3_branch2c
I0106 14:59:40.243855 23268 net.cpp:397] dropout2_3_branch2c -> enet2_3_branch2c (in-place)
I0106 14:59:40.243908 23268 net.cpp:150] Setting up dropout2_3_branch2c
I0106 14:59:40.243922 23268 net.cpp:157] Top shape: 4 128 47 155 (3729920)
I0106 14:59:40.243928 23268 net.cpp:165] Memory required for data: 2435637792
I0106 14:59:40.243935 23268 layer_factory.hpp:77] Creating layer enet2_3
I0106 14:59:40.243944 23268 net.cpp:106] Creating Layer enet2_3
I0106 14:59:40.243952 23268 net.cpp:454] enet2_3 <- enet2_2_relu2_2_0_split_1
I0106 14:59:40.243960 23268 net.cpp:454] enet2_3 <- enet2_3_branch2c
I0106 14:59:40.243973 23268 net.cpp:411] enet2_3 -> enet2_3
I0106 14:59:40.244024 23268 net.cpp:150] Setting up enet2_3
I0106 14:59:40.244041 23268 net.cpp:157] Top shape: 4 128 47 155 (3729920)
I0106 14:59:40.244048 23268 net.cpp:165] Memory required for data: 2450557472
I0106 14:59:40.244055 23268 layer_factory.hpp:77] Creating layer relu2_3
I0106 14:59:40.244065 23268 net.cpp:106] Creating Layer relu2_3
I0106 14:59:40.244071 23268 net.cpp:454] relu2_3 <- enet2_3
I0106 14:59:40.244081 23268 net.cpp:397] relu2_3 -> enet2_3 (in-place)
I0106 14:59:40.247951 23268 net.cpp:150] Setting up relu2_3
I0106 14:59:40.247970 23268 net.cpp:157] Top shape: 4 128 47 155 (3729920)
I0106 14:59:40.247977 23268 net.cpp:165] Memory required for data: 2465477152
I0106 14:59:40.248014 23268 layer_factory.hpp:77] Creating layer enet2_3_relu2_3_0_split
I0106 14:59:40.248034 23268 net.cpp:106] Creating Layer enet2_3_relu2_3_0_split
I0106 14:59:40.248041 23268 net.cpp:454] enet2_3_relu2_3_0_split <- enet2_3
I0106 14:59:40.248052 23268 net.cpp:411] enet2_3_relu2_3_0_split -> enet2_3_relu2_3_0_split_0
I0106 14:59:40.248065 23268 net.cpp:411] enet2_3_relu2_3_0_split -> enet2_3_relu2_3_0_split_1
I0106 14:59:40.248145 23268 net.cpp:150] Setting up enet2_3_relu2_3_0_split
I0106 14:59:40.248159 23268 net.cpp:157] Top shape: 4 128 47 155 (3729920)
I0106 14:59:40.248167 23268 net.cpp:157] Top shape: 4 128 47 155 (3729920)
I0106 14:59:40.248173 23268 net.cpp:165] Memory required for data: 2495316512
I0106 14:59:40.248180 23268 layer_factory.hpp:77] Creating layer enet2_4_branch2a
I0106 14:59:40.248198 23268 net.cpp:106] Creating Layer enet2_4_branch2a
I0106 14:59:40.248206 23268 net.cpp:454] enet2_4_branch2a <- enet2_3_relu2_3_0_split_0
I0106 14:59:40.248217 23268 net.cpp:411] enet2_4_branch2a -> enet2_4_branch2a
I0106 14:59:40.252872 23268 net.cpp:150] Setting up enet2_4_branch2a
I0106 14:59:40.252892 23268 net.cpp:157] Top shape: 4 32 47 155 (932480)
I0106 14:59:40.252899 23268 net.cpp:165] Memory required for data: 2499046432
I0106 14:59:40.252910 23268 layer_factory.hpp:77] Creating layer bn2_4_branch2a
I0106 14:59:40.252928 23268 net.cpp:106] Creating Layer bn2_4_branch2a
I0106 14:59:40.252938 23268 net.cpp:454] bn2_4_branch2a <- enet2_4_branch2a
I0106 14:59:40.252951 23268 net.cpp:397] bn2_4_branch2a -> enet2_4_branch2a (in-place)
I0106 14:59:40.257220 23268 net.cpp:150] Setting up bn2_4_branch2a
I0106 14:59:40.257241 23268 net.cpp:157] Top shape: 4 32 47 155 (932480)
I0106 14:59:40.257248 23268 net.cpp:165] Memory required for data: 2502776352
I0106 14:59:40.257261 23268 layer_factory.hpp:77] Creating layer relu2_4_branch2a
I0106 14:59:40.257272 23268 net.cpp:106] Creating Layer relu2_4_branch2a
I0106 14:59:40.257280 23268 net.cpp:454] relu2_4_branch2a <- enet2_4_branch2a
I0106 14:59:40.257290 23268 net.cpp:397] relu2_4_branch2a -> enet2_4_branch2a (in-place)
I0106 14:59:40.258503 23268 net.cpp:150] Setting up relu2_4_branch2a
I0106 14:59:40.258523 23268 net.cpp:157] Top shape: 4 32 47 155 (932480)
I0106 14:59:40.258530 23268 net.cpp:165] Memory required for data: 2506506272
I0106 14:59:40.258540 23268 layer_factory.hpp:77] Creating layer enet2_4_branch2b
I0106 14:59:40.258584 23268 net.cpp:106] Creating Layer enet2_4_branch2b
I0106 14:59:40.258592 23268 net.cpp:454] enet2_4_branch2b <- enet2_4_branch2a
I0106 14:59:40.258605 23268 net.cpp:411] enet2_4_branch2b -> enet2_4_branch2b
I0106 14:59:40.259356 23268 net.cpp:150] Setting up enet2_4_branch2b
I0106 14:59:40.259371 23268 net.cpp:157] Top shape: 4 32 47 155 (932480)
I0106 14:59:40.259377 23268 net.cpp:165] Memory required for data: 2510236192
I0106 14:59:40.259388 23268 layer_factory.hpp:77] Creating layer bn2_4_branch2b
I0106 14:59:40.259424 23268 net.cpp:106] Creating Layer bn2_4_branch2b
I0106 14:59:40.259433 23268 net.cpp:454] bn2_4_branch2b <- enet2_4_branch2b
I0106 14:59:40.259444 23268 net.cpp:397] bn2_4_branch2b -> enet2_4_branch2b (in-place)
I0106 14:59:40.259912 23268 net.cpp:150] Setting up bn2_4_branch2b
I0106 14:59:40.259927 23268 net.cpp:157] Top shape: 4 32 47 155 (932480)
I0106 14:59:40.259933 23268 net.cpp:165] Memory required for data: 2513966112
I0106 14:59:40.259945 23268 layer_factory.hpp:77] Creating layer relu2_4_branch2b
I0106 14:59:40.259955 23268 net.cpp:106] Creating Layer relu2_4_branch2b
I0106 14:59:40.259963 23268 net.cpp:454] relu2_4_branch2b <- enet2_4_branch2b
I0106 14:59:40.259973 23268 net.cpp:397] relu2_4_branch2b -> enet2_4_branch2b (in-place)
I0106 14:59:40.261214 23268 net.cpp:150] Setting up relu2_4_branch2b
I0106 14:59:40.261234 23268 net.cpp:157] Top shape: 4 32 47 155 (932480)
I0106 14:59:40.261241 23268 net.cpp:165] Memory required for data: 2517696032
I0106 14:59:40.261250 23268 layer_factory.hpp:77] Creating layer enet2_4_branch2c
I0106 14:59:40.261268 23268 net.cpp:106] Creating Layer enet2_4_branch2c
I0106 14:59:40.261276 23268 net.cpp:454] enet2_4_branch2c <- enet2_4_branch2b
I0106 14:59:40.261288 23268 net.cpp:411] enet2_4_branch2c -> enet2_4_branch2c
I0106 14:59:40.264976 23268 net.cpp:150] Setting up enet2_4_branch2c
I0106 14:59:40.264994 23268 net.cpp:157] Top shape: 4 128 47 155 (3729920)
I0106 14:59:40.265002 23268 net.cpp:165] Memory required for data: 2532615712
I0106 14:59:40.265012 23268 layer_factory.hpp:77] Creating layer bn2_4_branch2c
I0106 14:59:40.265028 23268 net.cpp:106] Creating Layer bn2_4_branch2c
I0106 14:59:40.265038 23268 net.cpp:454] bn2_4_branch2c <- enet2_4_branch2c
I0106 14:59:40.265050 23268 net.cpp:397] bn2_4_branch2c -> enet2_4_branch2c (in-place)
I0106 14:59:40.265506 23268 net.cpp:150] Setting up bn2_4_branch2c
I0106 14:59:40.265519 23268 net.cpp:157] Top shape: 4 128 47 155 (3729920)
I0106 14:59:40.265527 23268 net.cpp:165] Memory required for data: 2547535392
I0106 14:59:40.265537 23268 layer_factory.hpp:77] Creating layer dropout2_4_branch2c
I0106 14:59:40.265549 23268 net.cpp:106] Creating Layer dropout2_4_branch2c
I0106 14:59:40.265558 23268 net.cpp:454] dropout2_4_branch2c <- enet2_4_branch2c
I0106 14:59:40.265566 23268 net.cpp:397] dropout2_4_branch2c -> enet2_4_branch2c (in-place)
I0106 14:59:40.265621 23268 net.cpp:150] Setting up dropout2_4_branch2c
I0106 14:59:40.265635 23268 net.cpp:157] Top shape: 4 128 47 155 (3729920)
I0106 14:59:40.265641 23268 net.cpp:165] Memory required for data: 2562455072
I0106 14:59:40.265648 23268 layer_factory.hpp:77] Creating layer enet2_4
I0106 14:59:40.265667 23268 net.cpp:106] Creating Layer enet2_4
I0106 14:59:40.265676 23268 net.cpp:454] enet2_4 <- enet2_3_relu2_3_0_split_1
I0106 14:59:40.265686 23268 net.cpp:454] enet2_4 <- enet2_4_branch2c
I0106 14:59:40.265697 23268 net.cpp:411] enet2_4 -> enet2_4
I0106 14:59:40.265753 23268 net.cpp:150] Setting up enet2_4
I0106 14:59:40.265771 23268 net.cpp:157] Top shape: 4 128 47 155 (3729920)
I0106 14:59:40.265779 23268 net.cpp:165] Memory required for data: 2577374752
I0106 14:59:40.265785 23268 layer_factory.hpp:77] Creating layer relu2_4
I0106 14:59:40.265797 23268 net.cpp:106] Creating Layer relu2_4
I0106 14:59:40.265805 23268 net.cpp:454] relu2_4 <- enet2_4
I0106 14:59:40.265815 23268 net.cpp:397] relu2_4 -> enet2_4 (in-place)
I0106 14:59:40.269742 23268 net.cpp:150] Setting up relu2_4
I0106 14:59:40.269776 23268 net.cpp:157] Top shape: 4 128 47 155 (3729920)
I0106 14:59:40.269796 23268 net.cpp:165] Memory required for data: 2592294432
I0106 14:59:40.269807 23268 layer_factory.hpp:77] Creating layer enet2_4_relu2_4_0_split
I0106 14:59:40.269824 23268 net.cpp:106] Creating Layer enet2_4_relu2_4_0_split
I0106 14:59:40.269831 23268 net.cpp:454] enet2_4_relu2_4_0_split <- enet2_4
I0106 14:59:40.269845 23268 net.cpp:411] enet2_4_relu2_4_0_split -> enet2_4_relu2_4_0_split_0
I0106 14:59:40.269858 23268 net.cpp:411] enet2_4_relu2_4_0_split -> enet2_4_relu2_4_0_split_1
I0106 14:59:40.269945 23268 net.cpp:150] Setting up enet2_4_relu2_4_0_split
I0106 14:59:40.269959 23268 net.cpp:157] Top shape: 4 128 47 155 (3729920)
I0106 14:59:40.269971 23268 net.cpp:157] Top shape: 4 128 47 155 (3729920)
I0106 14:59:40.269979 23268 net.cpp:165] Memory required for data: 2622133792
I0106 14:59:40.269985 23268 layer_factory.hpp:77] Creating layer enet2_5_branch2a
I0106 14:59:40.269999 23268 net.cpp:106] Creating Layer enet2_5_branch2a
I0106 14:59:40.270007 23268 net.cpp:454] enet2_5_branch2a <- enet2_4_relu2_4_0_split_0
I0106 14:59:40.270032 23268 net.cpp:411] enet2_5_branch2a -> enet2_5_branch2a
I0106 14:59:40.273674 23268 net.cpp:150] Setting up enet2_5_branch2a
I0106 14:59:40.273692 23268 net.cpp:157] Top shape: 4 32 47 155 (932480)
I0106 14:59:40.273700 23268 net.cpp:165] Memory required for data: 2625863712
I0106 14:59:40.273710 23268 layer_factory.hpp:77] Creating layer bn2_5_branch2a
I0106 14:59:40.273736 23268 net.cpp:106] Creating Layer bn2_5_branch2a
I0106 14:59:40.273747 23268 net.cpp:454] bn2_5_branch2a <- enet2_5_branch2a
I0106 14:59:40.273762 23268 net.cpp:397] bn2_5_branch2a -> enet2_5_branch2a (in-place)
I0106 14:59:40.274256 23268 net.cpp:150] Setting up bn2_5_branch2a
I0106 14:59:40.274271 23268 net.cpp:157] Top shape: 4 32 47 155 (932480)
I0106 14:59:40.274278 23268 net.cpp:165] Memory required for data: 2629593632
I0106 14:59:40.274289 23268 layer_factory.hpp:77] Creating layer relu2_5_branch2a
I0106 14:59:40.274299 23268 net.cpp:106] Creating Layer relu2_5_branch2a
I0106 14:59:40.274307 23268 net.cpp:454] relu2_5_branch2a <- enet2_5_branch2a
I0106 14:59:40.274317 23268 net.cpp:397] relu2_5_branch2a -> enet2_5_branch2a (in-place)
I0106 14:59:40.275717 23268 net.cpp:150] Setting up relu2_5_branch2a
I0106 14:59:40.275738 23268 net.cpp:157] Top shape: 4 32 47 155 (932480)
I0106 14:59:40.275744 23268 net.cpp:165] Memory required for data: 2633323552
I0106 14:59:40.275753 23268 layer_factory.hpp:77] Creating layer enet2_5_branch2b
I0106 14:59:40.275776 23268 net.cpp:106] Creating Layer enet2_5_branch2b
I0106 14:59:40.275784 23268 net.cpp:454] enet2_5_branch2b <- enet2_5_branch2a
I0106 14:59:40.275796 23268 net.cpp:411] enet2_5_branch2b -> enet2_5_branch2b
I0106 14:59:40.279696 23268 net.cpp:150] Setting up enet2_5_branch2b
I0106 14:59:40.279716 23268 net.cpp:157] Top shape: 4 32 47 155 (932480)
I0106 14:59:40.279722 23268 net.cpp:165] Memory required for data: 2637053472
I0106 14:59:40.279734 23268 layer_factory.hpp:77] Creating layer bn2_5_branch2b
I0106 14:59:40.279749 23268 net.cpp:106] Creating Layer bn2_5_branch2b
I0106 14:59:40.279762 23268 net.cpp:454] bn2_5_branch2b <- enet2_5_branch2b
I0106 14:59:40.279773 23268 net.cpp:397] bn2_5_branch2b -> enet2_5_branch2b (in-place)
I0106 14:59:40.280270 23268 net.cpp:150] Setting up bn2_5_branch2b
I0106 14:59:40.280285 23268 net.cpp:157] Top shape: 4 32 47 155 (932480)
I0106 14:59:40.280292 23268 net.cpp:165] Memory required for data: 2640783392
I0106 14:59:40.280303 23268 layer_factory.hpp:77] Creating layer relu2_5_branch2b
I0106 14:59:40.280313 23268 net.cpp:106] Creating Layer relu2_5_branch2b
I0106 14:59:40.280320 23268 net.cpp:454] relu2_5_branch2b <- enet2_5_branch2b
I0106 14:59:40.280330 23268 net.cpp:397] relu2_5_branch2b -> enet2_5_branch2b (in-place)
I0106 14:59:40.281564 23268 net.cpp:150] Setting up relu2_5_branch2b
I0106 14:59:40.281584 23268 net.cpp:157] Top shape: 4 32 47 155 (932480)
I0106 14:59:40.281590 23268 net.cpp:165] Memory required for data: 2644513312
I0106 14:59:40.281608 23268 layer_factory.hpp:77] Creating layer enet2_5_branch2c
I0106 14:59:40.281637 23268 net.cpp:106] Creating Layer enet2_5_branch2c
I0106 14:59:40.281646 23268 net.cpp:454] enet2_5_branch2c <- enet2_5_branch2b
I0106 14:59:40.281658 23268 net.cpp:411] enet2_5_branch2c -> enet2_5_branch2c
I0106 14:59:40.285115 23268 net.cpp:150] Setting up enet2_5_branch2c
I0106 14:59:40.285132 23268 net.cpp:157] Top shape: 4 128 47 155 (3729920)
I0106 14:59:40.285140 23268 net.cpp:165] Memory required for data: 2659432992
I0106 14:59:40.285150 23268 layer_factory.hpp:77] Creating layer bn2_5_branch2c
I0106 14:59:40.285166 23268 net.cpp:106] Creating Layer bn2_5_branch2c
I0106 14:59:40.285173 23268 net.cpp:454] bn2_5_branch2c <- enet2_5_branch2c
I0106 14:59:40.285187 23268 net.cpp:397] bn2_5_branch2c -> enet2_5_branch2c (in-place)
I0106 14:59:40.285670 23268 net.cpp:150] Setting up bn2_5_branch2c
I0106 14:59:40.285686 23268 net.cpp:157] Top shape: 4 128 47 155 (3729920)
I0106 14:59:40.285692 23268 net.cpp:165] Memory required for data: 2674352672
I0106 14:59:40.285703 23268 layer_factory.hpp:77] Creating layer dropout2_5_branch2c
I0106 14:59:40.285717 23268 net.cpp:106] Creating Layer dropout2_5_branch2c
I0106 14:59:40.285725 23268 net.cpp:454] dropout2_5_branch2c <- enet2_5_branch2c
I0106 14:59:40.285735 23268 net.cpp:397] dropout2_5_branch2c -> enet2_5_branch2c (in-place)
I0106 14:59:40.285796 23268 net.cpp:150] Setting up dropout2_5_branch2c
I0106 14:59:40.285809 23268 net.cpp:157] Top shape: 4 128 47 155 (3729920)
I0106 14:59:40.285816 23268 net.cpp:165] Memory required for data: 2689272352
I0106 14:59:40.285823 23268 layer_factory.hpp:77] Creating layer enet2_5
I0106 14:59:40.285833 23268 net.cpp:106] Creating Layer enet2_5
I0106 14:59:40.285841 23268 net.cpp:454] enet2_5 <- enet2_4_relu2_4_0_split_1
I0106 14:59:40.285851 23268 net.cpp:454] enet2_5 <- enet2_5_branch2c
I0106 14:59:40.285862 23268 net.cpp:411] enet2_5 -> enet2_5
I0106 14:59:40.285923 23268 net.cpp:150] Setting up enet2_5
I0106 14:59:40.285938 23268 net.cpp:157] Top shape: 4 128 47 155 (3729920)
I0106 14:59:40.285943 23268 net.cpp:165] Memory required for data: 2704192032
I0106 14:59:40.285950 23268 layer_factory.hpp:77] Creating layer relu2_5
I0106 14:59:40.285959 23268 net.cpp:106] Creating Layer relu2_5
I0106 14:59:40.285966 23268 net.cpp:454] relu2_5 <- enet2_5
I0106 14:59:40.285979 23268 net.cpp:397] relu2_5 -> enet2_5 (in-place)
I0106 14:59:40.291005 23268 net.cpp:150] Setting up relu2_5
I0106 14:59:40.291024 23268 net.cpp:157] Top shape: 4 128 47 155 (3729920)
I0106 14:59:40.291031 23268 net.cpp:165] Memory required for data: 2719111712
I0106 14:59:40.291043 23268 layer_factory.hpp:77] Creating layer enet2_5_relu2_5_0_split
I0106 14:59:40.291056 23268 net.cpp:106] Creating Layer enet2_5_relu2_5_0_split
I0106 14:59:40.291064 23268 net.cpp:454] enet2_5_relu2_5_0_split <- enet2_5
I0106 14:59:40.291074 23268 net.cpp:411] enet2_5_relu2_5_0_split -> enet2_5_relu2_5_0_split_0
I0106 14:59:40.291087 23268 net.cpp:411] enet2_5_relu2_5_0_split -> enet2_5_relu2_5_0_split_1
I0106 14:59:40.291182 23268 net.cpp:150] Setting up enet2_5_relu2_5_0_split
I0106 14:59:40.291196 23268 net.cpp:157] Top shape: 4 128 47 155 (3729920)
I0106 14:59:40.291204 23268 net.cpp:157] Top shape: 4 128 47 155 (3729920)
I0106 14:59:40.291211 23268 net.cpp:165] Memory required for data: 2748951072
I0106 14:59:40.291218 23268 layer_factory.hpp:77] Creating layer enet2_6_branch2a
I0106 14:59:40.291231 23268 net.cpp:106] Creating Layer enet2_6_branch2a
I0106 14:59:40.291239 23268 net.cpp:454] enet2_6_branch2a <- enet2_5_relu2_5_0_split_0
I0106 14:59:40.291254 23268 net.cpp:411] enet2_6_branch2a -> enet2_6_branch2a
I0106 14:59:40.294873 23268 net.cpp:150] Setting up enet2_6_branch2a
I0106 14:59:40.294891 23268 net.cpp:157] Top shape: 4 32 47 155 (932480)
I0106 14:59:40.294899 23268 net.cpp:165] Memory required for data: 2752680992
I0106 14:59:40.294909 23268 layer_factory.hpp:77] Creating layer bn2_6_branch2a
I0106 14:59:40.294924 23268 net.cpp:106] Creating Layer bn2_6_branch2a
I0106 14:59:40.294941 23268 net.cpp:454] bn2_6_branch2a <- enet2_6_branch2a
I0106 14:59:40.294965 23268 net.cpp:397] bn2_6_branch2a -> enet2_6_branch2a (in-place)
I0106 14:59:40.295475 23268 net.cpp:150] Setting up bn2_6_branch2a
I0106 14:59:40.295490 23268 net.cpp:157] Top shape: 4 32 47 155 (932480)
I0106 14:59:40.295497 23268 net.cpp:165] Memory required for data: 2756410912
I0106 14:59:40.295508 23268 layer_factory.hpp:77] Creating layer relu2_6_branch2a
I0106 14:59:40.295522 23268 net.cpp:106] Creating Layer relu2_6_branch2a
I0106 14:59:40.295531 23268 net.cpp:454] relu2_6_branch2a <- enet2_6_branch2a
I0106 14:59:40.295539 23268 net.cpp:397] relu2_6_branch2a -> enet2_6_branch2a (in-place)
I0106 14:59:40.296794 23268 net.cpp:150] Setting up relu2_6_branch2a
I0106 14:59:40.296813 23268 net.cpp:157] Top shape: 4 32 47 155 (932480)
I0106 14:59:40.296819 23268 net.cpp:165] Memory required for data: 2760140832
I0106 14:59:40.296828 23268 layer_factory.hpp:77] Creating layer enet2_6_branch2b
I0106 14:59:40.296847 23268 net.cpp:106] Creating Layer enet2_6_branch2b
I0106 14:59:40.296855 23268 net.cpp:454] enet2_6_branch2b <- enet2_6_branch2a
I0106 14:59:40.296870 23268 net.cpp:411] enet2_6_branch2b -> enet2_6_branch2b
I0106 14:59:40.297662 23268 net.cpp:150] Setting up enet2_6_branch2b
I0106 14:59:40.297678 23268 net.cpp:157] Top shape: 4 32 47 155 (932480)
I0106 14:59:40.297685 23268 net.cpp:165] Memory required for data: 2763870752
I0106 14:59:40.297695 23268 layer_factory.hpp:77] Creating layer bn2_6_branch2b
I0106 14:59:40.297710 23268 net.cpp:106] Creating Layer bn2_6_branch2b
I0106 14:59:40.297719 23268 net.cpp:454] bn2_6_branch2b <- enet2_6_branch2b
I0106 14:59:40.297729 23268 net.cpp:397] bn2_6_branch2b -> enet2_6_branch2b (in-place)
I0106 14:59:40.298243 23268 net.cpp:150] Setting up bn2_6_branch2b
I0106 14:59:40.298257 23268 net.cpp:157] Top shape: 4 32 47 155 (932480)
I0106 14:59:40.298264 23268 net.cpp:165] Memory required for data: 2767600672
I0106 14:59:40.298274 23268 layer_factory.hpp:77] Creating layer relu2_6_branch2b
I0106 14:59:40.298285 23268 net.cpp:106] Creating Layer relu2_6_branch2b
I0106 14:59:40.298291 23268 net.cpp:454] relu2_6_branch2b <- enet2_6_branch2b
I0106 14:59:40.298300 23268 net.cpp:397] relu2_6_branch2b -> enet2_6_branch2b (in-place)
I0106 14:59:40.299552 23268 net.cpp:150] Setting up relu2_6_branch2b
I0106 14:59:40.299572 23268 net.cpp:157] Top shape: 4 32 47 155 (932480)
I0106 14:59:40.299579 23268 net.cpp:165] Memory required for data: 2771330592
I0106 14:59:40.299589 23268 layer_factory.hpp:77] Creating layer enet2_6_branch2c
I0106 14:59:40.299607 23268 net.cpp:106] Creating Layer enet2_6_branch2c
I0106 14:59:40.299615 23268 net.cpp:454] enet2_6_branch2c <- enet2_6_branch2b
I0106 14:59:40.299626 23268 net.cpp:411] enet2_6_branch2c -> enet2_6_branch2c
I0106 14:59:40.303191 23268 net.cpp:150] Setting up enet2_6_branch2c
I0106 14:59:40.303210 23268 net.cpp:157] Top shape: 4 128 47 155 (3729920)
I0106 14:59:40.303217 23268 net.cpp:165] Memory required for data: 2786250272
I0106 14:59:40.303227 23268 layer_factory.hpp:77] Creating layer bn2_6_branch2c
I0106 14:59:40.303243 23268 net.cpp:106] Creating Layer bn2_6_branch2c
I0106 14:59:40.303252 23268 net.cpp:454] bn2_6_branch2c <- enet2_6_branch2c
I0106 14:59:40.303267 23268 net.cpp:397] bn2_6_branch2c -> enet2_6_branch2c (in-place)
I0106 14:59:40.303786 23268 net.cpp:150] Setting up bn2_6_branch2c
I0106 14:59:40.303802 23268 net.cpp:157] Top shape: 4 128 47 155 (3729920)
I0106 14:59:40.303807 23268 net.cpp:165] Memory required for data: 2801169952
I0106 14:59:40.303818 23268 layer_factory.hpp:77] Creating layer dropout2_6_branch2c
I0106 14:59:40.303833 23268 net.cpp:106] Creating Layer dropout2_6_branch2c
I0106 14:59:40.303840 23268 net.cpp:454] dropout2_6_branch2c <- enet2_6_branch2c
I0106 14:59:40.303850 23268 net.cpp:397] dropout2_6_branch2c -> enet2_6_branch2c (in-place)
I0106 14:59:40.303907 23268 net.cpp:150] Setting up dropout2_6_branch2c
I0106 14:59:40.303921 23268 net.cpp:157] Top shape: 4 128 47 155 (3729920)
I0106 14:59:40.303927 23268 net.cpp:165] Memory required for data: 2816089632
I0106 14:59:40.303949 23268 layer_factory.hpp:77] Creating layer enet2_6
I0106 14:59:40.303961 23268 net.cpp:106] Creating Layer enet2_6
I0106 14:59:40.303967 23268 net.cpp:454] enet2_6 <- enet2_5_relu2_5_0_split_1
I0106 14:59:40.303977 23268 net.cpp:454] enet2_6 <- enet2_6_branch2c
I0106 14:59:40.303989 23268 net.cpp:411] enet2_6 -> enet2_6
I0106 14:59:40.304050 23268 net.cpp:150] Setting up enet2_6
I0106 14:59:40.304064 23268 net.cpp:157] Top shape: 4 128 47 155 (3729920)
I0106 14:59:40.304071 23268 net.cpp:165] Memory required for data: 2831009312
I0106 14:59:40.304077 23268 layer_factory.hpp:77] Creating layer relu2_6
I0106 14:59:40.304087 23268 net.cpp:106] Creating Layer relu2_6
I0106 14:59:40.304095 23268 net.cpp:454] relu2_6 <- enet2_6
I0106 14:59:40.304106 23268 net.cpp:397] relu2_6 -> enet2_6 (in-place)
I0106 14:59:40.308023 23268 net.cpp:150] Setting up relu2_6
I0106 14:59:40.308043 23268 net.cpp:157] Top shape: 4 128 47 155 (3729920)
I0106 14:59:40.308049 23268 net.cpp:165] Memory required for data: 2845928992
I0106 14:59:40.308059 23268 layer_factory.hpp:77] Creating layer enet2_6_relu2_6_0_split
I0106 14:59:40.308069 23268 net.cpp:106] Creating Layer enet2_6_relu2_6_0_split
I0106 14:59:40.308078 23268 net.cpp:454] enet2_6_relu2_6_0_split <- enet2_6
I0106 14:59:40.308091 23268 net.cpp:411] enet2_6_relu2_6_0_split -> enet2_6_relu2_6_0_split_0
I0106 14:59:40.308104 23268 net.cpp:411] enet2_6_relu2_6_0_split -> enet2_6_relu2_6_0_split_1
I0106 14:59:40.308202 23268 net.cpp:150] Setting up enet2_6_relu2_6_0_split
I0106 14:59:40.308217 23268 net.cpp:157] Top shape: 4 128 47 155 (3729920)
I0106 14:59:40.308225 23268 net.cpp:157] Top shape: 4 128 47 155 (3729920)
I0106 14:59:40.308231 23268 net.cpp:165] Memory required for data: 2875768352
I0106 14:59:40.308238 23268 layer_factory.hpp:77] Creating layer enet2_7_branch2a
I0106 14:59:40.308251 23268 net.cpp:106] Creating Layer enet2_7_branch2a
I0106 14:59:40.308259 23268 net.cpp:454] enet2_7_branch2a <- enet2_6_relu2_6_0_split_0
I0106 14:59:40.308274 23268 net.cpp:411] enet2_7_branch2a -> enet2_7_branch2a
I0106 14:59:40.312032 23268 net.cpp:150] Setting up enet2_7_branch2a
I0106 14:59:40.312050 23268 net.cpp:157] Top shape: 4 32 47 155 (932480)
I0106 14:59:40.312057 23268 net.cpp:165] Memory required for data: 2879498272
I0106 14:59:40.312067 23268 layer_factory.hpp:77] Creating layer bn2_7_branch2a
I0106 14:59:40.312083 23268 net.cpp:106] Creating Layer bn2_7_branch2a
I0106 14:59:40.312091 23268 net.cpp:454] bn2_7_branch2a <- enet2_7_branch2a
I0106 14:59:40.312105 23268 net.cpp:397] bn2_7_branch2a -> enet2_7_branch2a (in-place)
I0106 14:59:40.312638 23268 net.cpp:150] Setting up bn2_7_branch2a
I0106 14:59:40.312652 23268 net.cpp:157] Top shape: 4 32 47 155 (932480)
I0106 14:59:40.312659 23268 net.cpp:165] Memory required for data: 2883228192
I0106 14:59:40.312669 23268 layer_factory.hpp:77] Creating layer relu2_7_branch2a
I0106 14:59:40.312682 23268 net.cpp:106] Creating Layer relu2_7_branch2a
I0106 14:59:40.312690 23268 net.cpp:454] relu2_7_branch2a <- enet2_7_branch2a
I0106 14:59:40.312700 23268 net.cpp:397] relu2_7_branch2a -> enet2_7_branch2a (in-place)
I0106 14:59:40.313953 23268 net.cpp:150] Setting up relu2_7_branch2a
I0106 14:59:40.313971 23268 net.cpp:157] Top shape: 4 32 47 155 (932480)
I0106 14:59:40.313978 23268 net.cpp:165] Memory required for data: 2886958112
I0106 14:59:40.313987 23268 layer_factory.hpp:77] Creating layer enet2_7_branch2b1
I0106 14:59:40.314004 23268 net.cpp:106] Creating Layer enet2_7_branch2b1
I0106 14:59:40.314013 23268 net.cpp:454] enet2_7_branch2b1 <- enet2_7_branch2a
I0106 14:59:40.314028 23268 net.cpp:411] enet2_7_branch2b1 -> enet2_7_branch2b1
I0106 14:59:40.317709 23268 net.cpp:150] Setting up enet2_7_branch2b1
I0106 14:59:40.317728 23268 net.cpp:157] Top shape: 4 32 47 155 (932480)
I0106 14:59:40.317735 23268 net.cpp:165] Memory required for data: 2890688032
I0106 14:59:40.317745 23268 layer_factory.hpp:77] Creating layer enet2_7_branch2b
I0106 14:59:40.317766 23268 net.cpp:106] Creating Layer enet2_7_branch2b
I0106 14:59:40.317790 23268 net.cpp:454] enet2_7_branch2b <- enet2_7_branch2b1
I0106 14:59:40.317806 23268 net.cpp:411] enet2_7_branch2b -> enet2_7_branch2b
I0106 14:59:40.322449 23268 net.cpp:150] Setting up enet2_7_branch2b
I0106 14:59:40.322468 23268 net.cpp:157] Top shape: 4 32 47 155 (932480)
I0106 14:59:40.322475 23268 net.cpp:165] Memory required for data: 2894417952
I0106 14:59:40.322487 23268 layer_factory.hpp:77] Creating layer bn2_7_branch2b
I0106 14:59:40.322504 23268 net.cpp:106] Creating Layer bn2_7_branch2b
I0106 14:59:40.322511 23268 net.cpp:454] bn2_7_branch2b <- enet2_7_branch2b
I0106 14:59:40.322525 23268 net.cpp:397] bn2_7_branch2b -> enet2_7_branch2b (in-place)
I0106 14:59:40.323091 23268 net.cpp:150] Setting up bn2_7_branch2b
I0106 14:59:40.323107 23268 net.cpp:157] Top shape: 4 32 47 155 (932480)
I0106 14:59:40.323113 23268 net.cpp:165] Memory required for data: 2898147872
I0106 14:59:40.323124 23268 layer_factory.hpp:77] Creating layer relu2_7_branch2b
I0106 14:59:40.323138 23268 net.cpp:106] Creating Layer relu2_7_branch2b
I0106 14:59:40.323146 23268 net.cpp:454] relu2_7_branch2b <- enet2_7_branch2b
I0106 14:59:40.323155 23268 net.cpp:397] relu2_7_branch2b -> enet2_7_branch2b (in-place)
I0106 14:59:40.324431 23268 net.cpp:150] Setting up relu2_7_branch2b
I0106 14:59:40.324450 23268 net.cpp:157] Top shape: 4 32 47 155 (932480)
I0106 14:59:40.324455 23268 net.cpp:165] Memory required for data: 2901877792
I0106 14:59:40.324465 23268 layer_factory.hpp:77] Creating layer enet2_7_branch2c
I0106 14:59:40.324483 23268 net.cpp:106] Creating Layer enet2_7_branch2c
I0106 14:59:40.324491 23268 net.cpp:454] enet2_7_branch2c <- enet2_7_branch2b
I0106 14:59:40.324506 23268 net.cpp:411] enet2_7_branch2c -> enet2_7_branch2c
I0106 14:59:40.328307 23268 net.cpp:150] Setting up enet2_7_branch2c
I0106 14:59:40.328325 23268 net.cpp:157] Top shape: 4 128 47 155 (3729920)
I0106 14:59:40.328333 23268 net.cpp:165] Memory required for data: 2916797472
I0106 14:59:40.328343 23268 layer_factory.hpp:77] Creating layer bn2_7_branch2c
I0106 14:59:40.328356 23268 net.cpp:106] Creating Layer bn2_7_branch2c
I0106 14:59:40.328363 23268 net.cpp:454] bn2_7_branch2c <- enet2_7_branch2c
I0106 14:59:40.328377 23268 net.cpp:397] bn2_7_branch2c -> enet2_7_branch2c (in-place)
I0106 14:59:40.328940 23268 net.cpp:150] Setting up bn2_7_branch2c
I0106 14:59:40.328955 23268 net.cpp:157] Top shape: 4 128 47 155 (3729920)
I0106 14:59:40.328963 23268 net.cpp:165] Memory required for data: 2931717152
I0106 14:59:40.328974 23268 layer_factory.hpp:77] Creating layer dropout2_7_branch2c
I0106 14:59:40.328987 23268 net.cpp:106] Creating Layer dropout2_7_branch2c
I0106 14:59:40.328995 23268 net.cpp:454] dropout2_7_branch2c <- enet2_7_branch2c
I0106 14:59:40.329005 23268 net.cpp:397] dropout2_7_branch2c -> enet2_7_branch2c (in-place)
I0106 14:59:40.329064 23268 net.cpp:150] Setting up dropout2_7_branch2c
I0106 14:59:40.329077 23268 net.cpp:157] Top shape: 4 128 47 155 (3729920)
I0106 14:59:40.329084 23268 net.cpp:165] Memory required for data: 2946636832
I0106 14:59:40.329092 23268 layer_factory.hpp:77] Creating layer enet2_7
I0106 14:59:40.329102 23268 net.cpp:106] Creating Layer enet2_7
I0106 14:59:40.329108 23268 net.cpp:454] enet2_7 <- enet2_6_relu2_6_0_split_1
I0106 14:59:40.329116 23268 net.cpp:454] enet2_7 <- enet2_7_branch2c
I0106 14:59:40.329130 23268 net.cpp:411] enet2_7 -> enet2_7
I0106 14:59:40.329190 23268 net.cpp:150] Setting up enet2_7
I0106 14:59:40.329207 23268 net.cpp:157] Top shape: 4 128 47 155 (3729920)
I0106 14:59:40.329215 23268 net.cpp:165] Memory required for data: 2961556512
I0106 14:59:40.329221 23268 layer_factory.hpp:77] Creating layer relu2_7
I0106 14:59:40.329231 23268 net.cpp:106] Creating Layer relu2_7
I0106 14:59:40.329238 23268 net.cpp:454] relu2_7 <- enet2_7
I0106 14:59:40.329247 23268 net.cpp:397] relu2_7 -> enet2_7 (in-place)
I0106 14:59:40.333155 23268 net.cpp:150] Setting up relu2_7
I0106 14:59:40.333173 23268 net.cpp:157] Top shape: 4 128 47 155 (3729920)
I0106 14:59:40.333189 23268 net.cpp:165] Memory required for data: 2976476192
I0106 14:59:40.333209 23268 layer_factory.hpp:77] Creating layer enet2_7_relu2_7_0_split
I0106 14:59:40.333220 23268 net.cpp:106] Creating Layer enet2_7_relu2_7_0_split
I0106 14:59:40.333227 23268 net.cpp:454] enet2_7_relu2_7_0_split <- enet2_7
I0106 14:59:40.333241 23268 net.cpp:411] enet2_7_relu2_7_0_split -> enet2_7_relu2_7_0_split_0
I0106 14:59:40.333254 23268 net.cpp:411] enet2_7_relu2_7_0_split -> enet2_7_relu2_7_0_split_1
I0106 14:59:40.333354 23268 net.cpp:150] Setting up enet2_7_relu2_7_0_split
I0106 14:59:40.333369 23268 net.cpp:157] Top shape: 4 128 47 155 (3729920)
I0106 14:59:40.333376 23268 net.cpp:157] Top shape: 4 128 47 155 (3729920)
I0106 14:59:40.333382 23268 net.cpp:165] Memory required for data: 3006315552
I0106 14:59:40.333389 23268 layer_factory.hpp:77] Creating layer enet2_8_branch2a
I0106 14:59:40.333407 23268 net.cpp:106] Creating Layer enet2_8_branch2a
I0106 14:59:40.333416 23268 net.cpp:454] enet2_8_branch2a <- enet2_7_relu2_7_0_split_0
I0106 14:59:40.333427 23268 net.cpp:411] enet2_8_branch2a -> enet2_8_branch2a
I0106 14:59:40.337199 23268 net.cpp:150] Setting up enet2_8_branch2a
I0106 14:59:40.337218 23268 net.cpp:157] Top shape: 4 32 47 155 (932480)
I0106 14:59:40.337225 23268 net.cpp:165] Memory required for data: 3010045472
I0106 14:59:40.337235 23268 layer_factory.hpp:77] Creating layer bn2_8_branch2a
I0106 14:59:40.337251 23268 net.cpp:106] Creating Layer bn2_8_branch2a
I0106 14:59:40.337260 23268 net.cpp:454] bn2_8_branch2a <- enet2_8_branch2a
I0106 14:59:40.337275 23268 net.cpp:397] bn2_8_branch2a -> enet2_8_branch2a (in-place)
I0106 14:59:40.337852 23268 net.cpp:150] Setting up bn2_8_branch2a
I0106 14:59:40.337867 23268 net.cpp:157] Top shape: 4 32 47 155 (932480)
I0106 14:59:40.337873 23268 net.cpp:165] Memory required for data: 3013775392
I0106 14:59:40.337884 23268 layer_factory.hpp:77] Creating layer relu2_8_branch2a
I0106 14:59:40.337895 23268 net.cpp:106] Creating Layer relu2_8_branch2a
I0106 14:59:40.337903 23268 net.cpp:454] relu2_8_branch2a <- enet2_8_branch2a
I0106 14:59:40.337913 23268 net.cpp:397] relu2_8_branch2a -> enet2_8_branch2a (in-place)
I0106 14:59:40.339416 23268 net.cpp:150] Setting up relu2_8_branch2a
I0106 14:59:40.339432 23268 net.cpp:157] Top shape: 4 32 47 155 (932480)
I0106 14:59:40.339440 23268 net.cpp:165] Memory required for data: 3017505312
I0106 14:59:40.339449 23268 layer_factory.hpp:77] Creating layer enet2_8_branch2b
I0106 14:59:40.339471 23268 net.cpp:106] Creating Layer enet2_8_branch2b
I0106 14:59:40.339483 23268 net.cpp:454] enet2_8_branch2b <- enet2_8_branch2a
I0106 14:59:40.339494 23268 net.cpp:411] enet2_8_branch2b -> enet2_8_branch2b
I0106 14:59:40.341426 23268 net.cpp:150] Setting up enet2_8_branch2b
I0106 14:59:40.341444 23268 net.cpp:157] Top shape: 4 32 47 155 (932480)
I0106 14:59:40.341450 23268 net.cpp:165] Memory required for data: 3021235232
I0106 14:59:40.341461 23268 layer_factory.hpp:77] Creating layer bn2_8_branch2b
I0106 14:59:40.341473 23268 net.cpp:106] Creating Layer bn2_8_branch2b
I0106 14:59:40.341481 23268 net.cpp:454] bn2_8_branch2b <- enet2_8_branch2b
I0106 14:59:40.341495 23268 net.cpp:397] bn2_8_branch2b -> enet2_8_branch2b (in-place)
I0106 14:59:40.342064 23268 net.cpp:150] Setting up bn2_8_branch2b
I0106 14:59:40.342079 23268 net.cpp:157] Top shape: 4 32 47 155 (932480)
I0106 14:59:40.342087 23268 net.cpp:165] Memory required for data: 3024965152
I0106 14:59:40.342097 23268 layer_factory.hpp:77] Creating layer relu2_8_branch2b
I0106 14:59:40.342108 23268 net.cpp:106] Creating Layer relu2_8_branch2b
I0106 14:59:40.342114 23268 net.cpp:454] relu2_8_branch2b <- enet2_8_branch2b
I0106 14:59:40.342124 23268 net.cpp:397] relu2_8_branch2b -> enet2_8_branch2b (in-place)
I0106 14:59:40.343511 23268 net.cpp:150] Setting up relu2_8_branch2b
I0106 14:59:40.343528 23268 net.cpp:157] Top shape: 4 32 47 155 (932480)
I0106 14:59:40.343534 23268 net.cpp:165] Memory required for data: 3028695072
I0106 14:59:40.343544 23268 layer_factory.hpp:77] Creating layer enet2_8_branch2c
I0106 14:59:40.343569 23268 net.cpp:106] Creating Layer enet2_8_branch2c
I0106 14:59:40.343585 23268 net.cpp:454] enet2_8_branch2c <- enet2_8_branch2b
I0106 14:59:40.343600 23268 net.cpp:411] enet2_8_branch2c -> enet2_8_branch2c
I0106 14:59:40.347625 23268 net.cpp:150] Setting up enet2_8_branch2c
I0106 14:59:40.347643 23268 net.cpp:157] Top shape: 4 128 47 155 (3729920)
I0106 14:59:40.347651 23268 net.cpp:165] Memory required for data: 3043614752
I0106 14:59:40.347661 23268 layer_factory.hpp:77] Creating layer bn2_8_branch2c
I0106 14:59:40.347676 23268 net.cpp:106] Creating Layer bn2_8_branch2c
I0106 14:59:40.347685 23268 net.cpp:454] bn2_8_branch2c <- enet2_8_branch2c
I0106 14:59:40.347698 23268 net.cpp:397] bn2_8_branch2c -> enet2_8_branch2c (in-place)
I0106 14:59:40.348263 23268 net.cpp:150] Setting up bn2_8_branch2c
I0106 14:59:40.348278 23268 net.cpp:157] Top shape: 4 128 47 155 (3729920)
I0106 14:59:40.348284 23268 net.cpp:165] Memory required for data: 3058534432
I0106 14:59:40.348294 23268 layer_factory.hpp:77] Creating layer dropout2_8_branch2c
I0106 14:59:40.348305 23268 net.cpp:106] Creating Layer dropout2_8_branch2c
I0106 14:59:40.348312 23268 net.cpp:454] dropout2_8_branch2c <- enet2_8_branch2c
I0106 14:59:40.348327 23268 net.cpp:397] dropout2_8_branch2c -> enet2_8_branch2c (in-place)
I0106 14:59:40.348388 23268 net.cpp:150] Setting up dropout2_8_branch2c
I0106 14:59:40.348402 23268 net.cpp:157] Top shape: 4 128 47 155 (3729920)
I0106 14:59:40.348409 23268 net.cpp:165] Memory required for data: 3073454112
I0106 14:59:40.348415 23268 layer_factory.hpp:77] Creating layer enet2_8
I0106 14:59:40.348425 23268 net.cpp:106] Creating Layer enet2_8
I0106 14:59:40.348433 23268 net.cpp:454] enet2_8 <- enet2_7_relu2_7_0_split_1
I0106 14:59:40.348441 23268 net.cpp:454] enet2_8 <- enet2_8_branch2c
I0106 14:59:40.348450 23268 net.cpp:411] enet2_8 -> enet2_8
I0106 14:59:40.348513 23268 net.cpp:150] Setting up enet2_8
I0106 14:59:40.348527 23268 net.cpp:157] Top shape: 4 128 47 155 (3729920)
I0106 14:59:40.348534 23268 net.cpp:165] Memory required for data: 3088373792
I0106 14:59:40.348541 23268 layer_factory.hpp:77] Creating layer relu2_8
I0106 14:59:40.348553 23268 net.cpp:106] Creating Layer relu2_8
I0106 14:59:40.348561 23268 net.cpp:454] relu2_8 <- enet2_8
I0106 14:59:40.348570 23268 net.cpp:397] relu2_8 -> enet2_8 (in-place)
I0106 14:59:40.353600 23268 net.cpp:150] Setting up relu2_8
I0106 14:59:40.353618 23268 net.cpp:157] Top shape: 4 128 47 155 (3729920)
I0106 14:59:40.353626 23268 net.cpp:165] Memory required for data: 3103293472
I0106 14:59:40.353634 23268 layer_factory.hpp:77] Creating layer enet2_8_relu2_8_0_split
I0106 14:59:40.353646 23268 net.cpp:106] Creating Layer enet2_8_relu2_8_0_split
I0106 14:59:40.353652 23268 net.cpp:454] enet2_8_relu2_8_0_split <- enet2_8
I0106 14:59:40.353662 23268 net.cpp:411] enet2_8_relu2_8_0_split -> enet2_8_relu2_8_0_split_0
I0106 14:59:40.353678 23268 net.cpp:411] enet2_8_relu2_8_0_split -> enet2_8_relu2_8_0_split_1
I0106 14:59:40.353783 23268 net.cpp:150] Setting up enet2_8_relu2_8_0_split
I0106 14:59:40.353798 23268 net.cpp:157] Top shape: 4 128 47 155 (3729920)
I0106 14:59:40.353806 23268 net.cpp:157] Top shape: 4 128 47 155 (3729920)
I0106 14:59:40.353812 23268 net.cpp:165] Memory required for data: 3133132832
I0106 14:59:40.353819 23268 layer_factory.hpp:77] Creating layer enet3_1_branch2a
I0106 14:59:40.353837 23268 net.cpp:106] Creating Layer enet3_1_branch2a
I0106 14:59:40.353847 23268 net.cpp:454] enet3_1_branch2a <- enet2_8_relu2_8_0_split_0
I0106 14:59:40.353857 23268 net.cpp:411] enet3_1_branch2a -> enet3_1_branch2a
I0106 14:59:40.358381 23268 net.cpp:150] Setting up enet3_1_branch2a
I0106 14:59:40.358399 23268 net.cpp:157] Top shape: 4 32 47 155 (932480)
I0106 14:59:40.358407 23268 net.cpp:165] Memory required for data: 3136862752
I0106 14:59:40.358417 23268 layer_factory.hpp:77] Creating layer bn3_1_branch2a
I0106 14:59:40.358438 23268 net.cpp:106] Creating Layer bn3_1_branch2a
I0106 14:59:40.358448 23268 net.cpp:454] bn3_1_branch2a <- enet3_1_branch2a
I0106 14:59:40.358466 23268 net.cpp:397] bn3_1_branch2a -> enet3_1_branch2a (in-place)
I0106 14:59:40.359071 23268 net.cpp:150] Setting up bn3_1_branch2a
I0106 14:59:40.359086 23268 net.cpp:157] Top shape: 4 32 47 155 (932480)
I0106 14:59:40.359092 23268 net.cpp:165] Memory required for data: 3140592672
I0106 14:59:40.359103 23268 layer_factory.hpp:77] Creating layer relu3_1_branch2a
I0106 14:59:40.359113 23268 net.cpp:106] Creating Layer relu3_1_branch2a
I0106 14:59:40.359120 23268 net.cpp:454] relu3_1_branch2a <- enet3_1_branch2a
I0106 14:59:40.359133 23268 net.cpp:397] relu3_1_branch2a -> enet3_1_branch2a (in-place)
I0106 14:59:40.360419 23268 net.cpp:150] Setting up relu3_1_branch2a
I0106 14:59:40.360437 23268 net.cpp:157] Top shape: 4 32 47 155 (932480)
I0106 14:59:40.360443 23268 net.cpp:165] Memory required for data: 3144322592
I0106 14:59:40.360453 23268 layer_factory.hpp:77] Creating layer enet3_1_branch2b
I0106 14:59:40.360473 23268 net.cpp:106] Creating Layer enet3_1_branch2b
I0106 14:59:40.360482 23268 net.cpp:454] enet3_1_branch2b <- enet3_1_branch2a
I0106 14:59:40.360493 23268 net.cpp:411] enet3_1_branch2b -> enet3_1_branch2b
I0106 14:59:40.364570 23268 net.cpp:150] Setting up enet3_1_branch2b
I0106 14:59:40.364589 23268 net.cpp:157] Top shape: 4 32 47 155 (932480)
I0106 14:59:40.364596 23268 net.cpp:165] Memory required for data: 3148052512
I0106 14:59:40.364609 23268 layer_factory.hpp:77] Creating layer bn3_1_branch2b
I0106 14:59:40.364624 23268 net.cpp:106] Creating Layer bn3_1_branch2b
I0106 14:59:40.364632 23268 net.cpp:454] bn3_1_branch2b <- enet3_1_branch2b
I0106 14:59:40.364646 23268 net.cpp:397] bn3_1_branch2b -> enet3_1_branch2b (in-place)
I0106 14:59:40.365345 23268 net.cpp:150] Setting up bn3_1_branch2b
I0106 14:59:40.365360 23268 net.cpp:157] Top shape: 4 32 47 155 (932480)
I0106 14:59:40.365367 23268 net.cpp:165] Memory required for data: 3151782432
I0106 14:59:40.365378 23268 layer_factory.hpp:77] Creating layer relu3_1_branch2b
I0106 14:59:40.365389 23268 net.cpp:106] Creating Layer relu3_1_branch2b
I0106 14:59:40.365396 23268 net.cpp:454] relu3_1_branch2b <- enet3_1_branch2b
I0106 14:59:40.365406 23268 net.cpp:397] relu3_1_branch2b -> enet3_1_branch2b (in-place)
I0106 14:59:40.366714 23268 net.cpp:150] Setting up relu3_1_branch2b
I0106 14:59:40.366731 23268 net.cpp:157] Top shape: 4 32 47 155 (932480)
I0106 14:59:40.366739 23268 net.cpp:165] Memory required for data: 3155512352
I0106 14:59:40.366747 23268 layer_factory.hpp:77] Creating layer enet3_1_branch2c
I0106 14:59:40.366770 23268 net.cpp:106] Creating Layer enet3_1_branch2c
I0106 14:59:40.366780 23268 net.cpp:454] enet3_1_branch2c <- enet3_1_branch2b
I0106 14:59:40.366793 23268 net.cpp:411] enet3_1_branch2c -> enet3_1_branch2c
I0106 14:59:40.370730 23268 net.cpp:150] Setting up enet3_1_branch2c
I0106 14:59:40.370749 23268 net.cpp:157] Top shape: 4 128 47 155 (3729920)
I0106 14:59:40.370756 23268 net.cpp:165] Memory required for data: 3170432032
I0106 14:59:40.370771 23268 layer_factory.hpp:77] Creating layer bn3_1_branch2c
I0106 14:59:40.370787 23268 net.cpp:106] Creating Layer bn3_1_branch2c
I0106 14:59:40.370796 23268 net.cpp:454] bn3_1_branch2c <- enet3_1_branch2c
I0106 14:59:40.370810 23268 net.cpp:397] bn3_1_branch2c -> enet3_1_branch2c (in-place)
I0106 14:59:40.371407 23268 net.cpp:150] Setting up bn3_1_branch2c
I0106 14:59:40.371421 23268 net.cpp:157] Top shape: 4 128 47 155 (3729920)
I0106 14:59:40.371428 23268 net.cpp:165] Memory required for data: 3185351712
I0106 14:59:40.371439 23268 layer_factory.hpp:77] Creating layer dropout3_1_branch2c
I0106 14:59:40.371449 23268 net.cpp:106] Creating Layer dropout3_1_branch2c
I0106 14:59:40.371456 23268 net.cpp:454] dropout3_1_branch2c <- enet3_1_branch2c
I0106 14:59:40.371466 23268 net.cpp:397] dropout3_1_branch2c -> enet3_1_branch2c (in-place)
I0106 14:59:40.371527 23268 net.cpp:150] Setting up dropout3_1_branch2c
I0106 14:59:40.371541 23268 net.cpp:157] Top shape: 4 128 47 155 (3729920)
I0106 14:59:40.371548 23268 net.cpp:165] Memory required for data: 3200271392
I0106 14:59:40.371556 23268 layer_factory.hpp:77] Creating layer enet3_1
I0106 14:59:40.371583 23268 net.cpp:106] Creating Layer enet3_1
I0106 14:59:40.371593 23268 net.cpp:454] enet3_1 <- enet2_8_relu2_8_0_split_1
I0106 14:59:40.371603 23268 net.cpp:454] enet3_1 <- enet3_1_branch2c
I0106 14:59:40.371614 23268 net.cpp:411] enet3_1 -> enet3_1
I0106 14:59:40.371677 23268 net.cpp:150] Setting up enet3_1
I0106 14:59:40.371691 23268 net.cpp:157] Top shape: 4 128 47 155 (3729920)
I0106 14:59:40.371697 23268 net.cpp:165] Memory required for data: 3215191072
I0106 14:59:40.371704 23268 layer_factory.hpp:77] Creating layer relu3_1
I0106 14:59:40.371717 23268 net.cpp:106] Creating Layer relu3_1
I0106 14:59:40.371726 23268 net.cpp:454] relu3_1 <- enet3_1
I0106 14:59:40.371736 23268 net.cpp:397] relu3_1 -> enet3_1 (in-place)
I0106 14:59:40.376423 23268 net.cpp:150] Setting up relu3_1
I0106 14:59:40.376442 23268 net.cpp:157] Top shape: 4 128 47 155 (3729920)
I0106 14:59:40.376451 23268 net.cpp:165] Memory required for data: 3230110752
I0106 14:59:40.376459 23268 layer_factory.hpp:77] Creating layer enet3_1_relu3_1_0_split
I0106 14:59:40.376473 23268 net.cpp:106] Creating Layer enet3_1_relu3_1_0_split
I0106 14:59:40.376482 23268 net.cpp:454] enet3_1_relu3_1_0_split <- enet3_1
I0106 14:59:40.376494 23268 net.cpp:411] enet3_1_relu3_1_0_split -> enet3_1_relu3_1_0_split_0
I0106 14:59:40.376507 23268 net.cpp:411] enet3_1_relu3_1_0_split -> enet3_1_relu3_1_0_split_1
I0106 14:59:40.376610 23268 net.cpp:150] Setting up enet3_1_relu3_1_0_split
I0106 14:59:40.376623 23268 net.cpp:157] Top shape: 4 128 47 155 (3729920)
I0106 14:59:40.376634 23268 net.cpp:157] Top shape: 4 128 47 155 (3729920)
I0106 14:59:40.376641 23268 net.cpp:165] Memory required for data: 3259950112
I0106 14:59:40.376648 23268 layer_factory.hpp:77] Creating layer enet3_2_branch2a
I0106 14:59:40.376662 23268 net.cpp:106] Creating Layer enet3_2_branch2a
I0106 14:59:40.376670 23268 net.cpp:454] enet3_2_branch2a <- enet3_1_relu3_1_0_split_0
I0106 14:59:40.376684 23268 net.cpp:411] enet3_2_branch2a -> enet3_2_branch2a
I0106 14:59:40.380409 23268 net.cpp:150] Setting up enet3_2_branch2a
I0106 14:59:40.380430 23268 net.cpp:157] Top shape: 4 32 47 155 (932480)
I0106 14:59:40.380439 23268 net.cpp:165] Memory required for data: 3263680032
I0106 14:59:40.380448 23268 layer_factory.hpp:77] Creating layer bn3_2_branch2a
I0106 14:59:40.380460 23268 net.cpp:106] Creating Layer bn3_2_branch2a
I0106 14:59:40.380468 23268 net.cpp:454] bn3_2_branch2a <- enet3_2_branch2a
I0106 14:59:40.380482 23268 net.cpp:397] bn3_2_branch2a -> enet3_2_branch2a (in-place)
I0106 14:59:40.381108 23268 net.cpp:150] Setting up bn3_2_branch2a
I0106 14:59:40.381124 23268 net.cpp:157] Top shape: 4 32 47 155 (932480)
I0106 14:59:40.381130 23268 net.cpp:165] Memory required for data: 3267409952
I0106 14:59:40.381141 23268 layer_factory.hpp:77] Creating layer relu3_2_branch2a
I0106 14:59:40.381151 23268 net.cpp:106] Creating Layer relu3_2_branch2a
I0106 14:59:40.381158 23268 net.cpp:454] relu3_2_branch2a <- enet3_2_branch2a
I0106 14:59:40.381168 23268 net.cpp:397] relu3_2_branch2a -> enet3_2_branch2a (in-place)
I0106 14:59:40.382849 23268 net.cpp:150] Setting up relu3_2_branch2a
I0106 14:59:40.382866 23268 net.cpp:157] Top shape: 4 32 47 155 (932480)
I0106 14:59:40.382874 23268 net.cpp:165] Memory required for data: 3271139872
I0106 14:59:40.382884 23268 layer_factory.hpp:77] Creating layer enet3_2_branch2b
I0106 14:59:40.383261 23268 net.cpp:106] Creating Layer enet3_2_branch2b
I0106 14:59:40.383270 23268 net.cpp:454] enet3_2_branch2b <- enet3_2_branch2a
I0106 14:59:40.383476 23268 net.cpp:411] enet3_2_branch2b -> enet3_2_branch2b
I0106 14:59:40.384523 23268 net.cpp:150] Setting up enet3_2_branch2b
I0106 14:59:40.384539 23268 net.cpp:157] Top shape: 4 32 47 155 (932480)
I0106 14:59:40.384546 23268 net.cpp:165] Memory required for data: 3274869792
I0106 14:59:40.384557 23268 layer_factory.hpp:77] Creating layer bn3_2_branch2b
I0106 14:59:40.384572 23268 net.cpp:106] Creating Layer bn3_2_branch2b
I0106 14:59:40.384579 23268 net.cpp:454] bn3_2_branch2b <- enet3_2_branch2b
I0106 14:59:40.384600 23268 net.cpp:397] bn3_2_branch2b -> enet3_2_branch2b (in-place)
I0106 14:59:40.385223 23268 net.cpp:150] Setting up bn3_2_branch2b
I0106 14:59:40.385238 23268 net.cpp:157] Top shape: 4 32 47 155 (932480)
I0106 14:59:40.385244 23268 net.cpp:165] Memory required for data: 3278599712
I0106 14:59:40.385256 23268 layer_factory.hpp:77] Creating layer relu3_2_branch2b
I0106 14:59:40.385265 23268 net.cpp:106] Creating Layer relu3_2_branch2b
I0106 14:59:40.385272 23268 net.cpp:454] relu3_2_branch2b <- enet3_2_branch2b
I0106 14:59:40.385282 23268 net.cpp:397] relu3_2_branch2b -> enet3_2_branch2b (in-place)
I0106 14:59:40.388664 23268 net.cpp:150] Setting up relu3_2_branch2b
I0106 14:59:40.388681 23268 net.cpp:157] Top shape: 4 32 47 155 (932480)
I0106 14:59:40.388689 23268 net.cpp:165] Memory required for data: 3282329632
I0106 14:59:40.388698 23268 layer_factory.hpp:77] Creating layer enet3_2_branch2c
I0106 14:59:40.388715 23268 net.cpp:106] Creating Layer enet3_2_branch2c
I0106 14:59:40.388725 23268 net.cpp:454] enet3_2_branch2c <- enet3_2_branch2b
I0106 14:59:40.388738 23268 net.cpp:411] enet3_2_branch2c -> enet3_2_branch2c
I0106 14:59:40.393416 23268 net.cpp:150] Setting up enet3_2_branch2c
I0106 14:59:40.393435 23268 net.cpp:157] Top shape: 4 128 47 155 (3729920)
I0106 14:59:40.393443 23268 net.cpp:165] Memory required for data: 3297249312
I0106 14:59:40.393452 23268 layer_factory.hpp:77] Creating layer bn3_2_branch2c
I0106 14:59:40.393468 23268 net.cpp:106] Creating Layer bn3_2_branch2c
I0106 14:59:40.393477 23268 net.cpp:454] bn3_2_branch2c <- enet3_2_branch2c
I0106 14:59:40.393488 23268 net.cpp:397] bn3_2_branch2c -> enet3_2_branch2c (in-place)
I0106 14:59:40.394109 23268 net.cpp:150] Setting up bn3_2_branch2c
I0106 14:59:40.394125 23268 net.cpp:157] Top shape: 4 128 47 155 (3729920)
I0106 14:59:40.394132 23268 net.cpp:165] Memory required for data: 3312168992
I0106 14:59:40.394143 23268 layer_factory.hpp:77] Creating layer dropout3_2_branch2c
I0106 14:59:40.394155 23268 net.cpp:106] Creating Layer dropout3_2_branch2c
I0106 14:59:40.394161 23268 net.cpp:454] dropout3_2_branch2c <- enet3_2_branch2c
I0106 14:59:40.394171 23268 net.cpp:397] dropout3_2_branch2c -> enet3_2_branch2c (in-place)
I0106 14:59:40.394239 23268 net.cpp:150] Setting up dropout3_2_branch2c
I0106 14:59:40.394253 23268 net.cpp:157] Top shape: 4 128 47 155 (3729920)
I0106 14:59:40.394259 23268 net.cpp:165] Memory required for data: 3327088672
I0106 14:59:40.394266 23268 layer_factory.hpp:77] Creating layer enet3_2
I0106 14:59:40.394276 23268 net.cpp:106] Creating Layer enet3_2
I0106 14:59:40.394290 23268 net.cpp:454] enet3_2 <- enet3_1_relu3_1_0_split_1
I0106 14:59:40.394299 23268 net.cpp:454] enet3_2 <- enet3_2_branch2c
I0106 14:59:40.394309 23268 net.cpp:411] enet3_2 -> enet3_2
I0106 14:59:40.394371 23268 net.cpp:150] Setting up enet3_2
I0106 14:59:40.394385 23268 net.cpp:157] Top shape: 4 128 47 155 (3729920)
I0106 14:59:40.394392 23268 net.cpp:165] Memory required for data: 3342008352
I0106 14:59:40.394398 23268 layer_factory.hpp:77] Creating layer relu3_2
I0106 14:59:40.394418 23268 net.cpp:106] Creating Layer relu3_2
I0106 14:59:40.394426 23268 net.cpp:454] relu3_2 <- enet3_2
I0106 14:59:40.394438 23268 net.cpp:397] relu3_2 -> enet3_2 (in-place)
I0106 14:59:40.398403 23268 net.cpp:150] Setting up relu3_2
I0106 14:59:40.398422 23268 net.cpp:157] Top shape: 4 128 47 155 (3729920)
I0106 14:59:40.398428 23268 net.cpp:165] Memory required for data: 3356928032
I0106 14:59:40.398438 23268 layer_factory.hpp:77] Creating layer enet3_2_relu3_2_0_split
I0106 14:59:40.398452 23268 net.cpp:106] Creating Layer enet3_2_relu3_2_0_split
I0106 14:59:40.398460 23268 net.cpp:454] enet3_2_relu3_2_0_split <- enet3_2
I0106 14:59:40.398471 23268 net.cpp:411] enet3_2_relu3_2_0_split -> enet3_2_relu3_2_0_split_0
I0106 14:59:40.398483 23268 net.cpp:411] enet3_2_relu3_2_0_split -> enet3_2_relu3_2_0_split_1
I0106 14:59:40.398591 23268 net.cpp:150] Setting up enet3_2_relu3_2_0_split
I0106 14:59:40.398607 23268 net.cpp:157] Top shape: 4 128 47 155 (3729920)
I0106 14:59:40.398623 23268 net.cpp:157] Top shape: 4 128 47 155 (3729920)
I0106 14:59:40.398639 23268 net.cpp:165] Memory required for data: 3386767392
I0106 14:59:40.398646 23268 layer_factory.hpp:77] Creating layer enet3_3_branch2a
I0106 14:59:40.398663 23268 net.cpp:106] Creating Layer enet3_3_branch2a
I0106 14:59:40.398672 23268 net.cpp:454] enet3_3_branch2a <- enet3_2_relu3_2_0_split_0
I0106 14:59:40.398684 23268 net.cpp:411] enet3_3_branch2a -> enet3_3_branch2a
I0106 14:59:40.402634 23268 net.cpp:150] Setting up enet3_3_branch2a
I0106 14:59:40.402652 23268 net.cpp:157] Top shape: 4 32 47 155 (932480)
I0106 14:59:40.402660 23268 net.cpp:165] Memory required for data: 3390497312
I0106 14:59:40.402670 23268 layer_factory.hpp:77] Creating layer bn3_3_branch2a
I0106 14:59:40.402686 23268 net.cpp:106] Creating Layer bn3_3_branch2a
I0106 14:59:40.402695 23268 net.cpp:454] bn3_3_branch2a <- enet3_3_branch2a
I0106 14:59:40.402709 23268 net.cpp:397] bn3_3_branch2a -> enet3_3_branch2a (in-place)
I0106 14:59:40.403363 23268 net.cpp:150] Setting up bn3_3_branch2a
I0106 14:59:40.403378 23268 net.cpp:157] Top shape: 4 32 47 155 (932480)
I0106 14:59:40.403385 23268 net.cpp:165] Memory required for data: 3394227232
I0106 14:59:40.403396 23268 layer_factory.hpp:77] Creating layer relu3_3_branch2a
I0106 14:59:40.403406 23268 net.cpp:106] Creating Layer relu3_3_branch2a
I0106 14:59:40.403414 23268 net.cpp:454] relu3_3_branch2a <- enet3_3_branch2a
I0106 14:59:40.403422 23268 net.cpp:397] relu3_3_branch2a -> enet3_3_branch2a (in-place)
I0106 14:59:40.404724 23268 net.cpp:150] Setting up relu3_3_branch2a
I0106 14:59:40.404742 23268 net.cpp:157] Top shape: 4 32 47 155 (932480)
I0106 14:59:40.404749 23268 net.cpp:165] Memory required for data: 3397957152
I0106 14:59:40.404763 23268 layer_factory.hpp:77] Creating layer enet3_3_branch2b1
I0106 14:59:40.404783 23268 net.cpp:106] Creating Layer enet3_3_branch2b1
I0106 14:59:40.404791 23268 net.cpp:454] enet3_3_branch2b1 <- enet3_3_branch2a
I0106 14:59:40.404805 23268 net.cpp:411] enet3_3_branch2b1 -> enet3_3_branch2b1
I0106 14:59:40.408663 23268 net.cpp:150] Setting up enet3_3_branch2b1
I0106 14:59:40.408682 23268 net.cpp:157] Top shape: 4 32 47 155 (932480)
I0106 14:59:40.408690 23268 net.cpp:165] Memory required for data: 3401687072
I0106 14:59:40.408699 23268 layer_factory.hpp:77] Creating layer enet3_3_branch2b
I0106 14:59:40.408720 23268 net.cpp:106] Creating Layer enet3_3_branch2b
I0106 14:59:40.408730 23268 net.cpp:454] enet3_3_branch2b <- enet3_3_branch2b1
I0106 14:59:40.408741 23268 net.cpp:411] enet3_3_branch2b -> enet3_3_branch2b
I0106 14:59:40.412957 23268 net.cpp:150] Setting up enet3_3_branch2b
I0106 14:59:40.412976 23268 net.cpp:157] Top shape: 4 32 47 155 (932480)
I0106 14:59:40.412983 23268 net.cpp:165] Memory required for data: 3405416992
I0106 14:59:40.412994 23268 layer_factory.hpp:77] Creating layer bn3_3_branch2b
I0106 14:59:40.413012 23268 net.cpp:106] Creating Layer bn3_3_branch2b
I0106 14:59:40.413020 23268 net.cpp:454] bn3_3_branch2b <- enet3_3_branch2b
…
I0106 14:59:40.485285 23268 net.cpp:411] enet3_6_relu3_6_0_split -> enet3_6_relu3_6_0_split_1
I0106 14:59:40.485339 23268 net.cpp:150] Setting up enet3_6_relu3_6_0_split
I0106 14:59:40.485352 23268 net.cpp:157] Top shape: 4 128 47 155 (3729920)
I0106 14:59:40.485360 23268 net.cpp:157] Top shape: 4 128 47 155 (3729920)
I0106 14:59:40.485366 23268 net.cpp:165] Memory required for data: 3897766432
I0106 14:59:40.485373 23268 layer_factory.hpp:77] Creating layer enet3_7_branch2a
I0106 14:59:40.485386 23268 net.cpp:106] Creating Layer enet3_7_branch2a
I0106 14:59:40.485394 23268 net.cpp:454] enet3_7_branch2a <- enet3_6_relu3_6_0_split_0
I0106 14:59:40.485409 23268 net.cpp:411] enet3_7_branch2a -> enet3_7_branch2a
I0106 14:59:40.488957 23268 net.cpp:150] Setting up enet3_7_branch2a
I0106 14:59:40.488976 23268 net.cpp:157] Top shape: 4 32 47 155 (932480)
I0106 14:59:40.488983 23268 net.cpp:165] Memory required for data: 3901496352
I0106 14:59:40.488993 23268 layer_factory.hpp:77] Creating layer bn3_7_branch2a
I0106 14:59:40.489009 23268 net.cpp:106] Creating Layer bn3_7_branch2a
I0106 14:59:40.489017 23268 net.cpp:454] bn3_7_branch2a <- enet3_7_branch2a
I0106 14:59:40.489028 23268 net.cpp:397] bn3_7_branch2a -> enet3_7_branch2a (in-place)
I0106 14:59:40.489334 23268 net.cpp:150] Setting up bn3_7_branch2a
I0106 14:59:40.489348 23268 net.cpp:157] Top shape: 4 32 47 155 (932480)
I0106 14:59:40.489356 23268 net.cpp:165] Memory required for data: 3905226272
I0106 14:59:40.489367 23268 layer_factory.hpp:77] Creating layer relu3_7_branch2a
I0106 14:59:40.489377 23268 net.cpp:106] Creating Layer relu3_7_branch2a
I0106 14:59:40.489383 23268 net.cpp:454] relu3_7_branch2a <- enet3_7_branch2a
I0106 14:59:40.489397 23268 net.cpp:397] relu3_7_branch2a -> enet3_7_branch2a (in-place)
I0106 14:59:40.490593 23268 net.cpp:150] Setting up relu3_7_branch2a
I0106 14:59:40.490617 23268 net.cpp:157] Top shape: 4 32 47 155 (932480)
I0106 14:59:40.490633 23268 net.cpp:165] Memory required for data: 3908956192
I0106 14:59:40.490643 23268 layer_factory.hpp:77] Creating layer enet3_7_branch2b1
I0106 14:59:40.490664 23268 net.cpp:106] Creating Layer enet3_7_branch2b1
I0106 14:59:40.490671 23268 net.cpp:454] enet3_7_branch2b1 <- enet3_7_branch2a
I0106 14:59:40.490684 23268 net.cpp:411] enet3_7_branch2b1 -> enet3_7_branch2b1
I0106 14:59:40.494401 23268 net.cpp:150] Setting up enet3_7_branch2b1
I0106 14:59:40.494422 23268 net.cpp:157] Top shape: 4 32 47 155 (932480)
I0106 14:59:40.494429 23268 net.cpp:165] Memory required for data: 3912686112
I0106 14:59:40.494439 23268 layer_factory.hpp:77] Creating layer enet3_7_branch2b
I0106 14:59:40.494458 23268 net.cpp:106] Creating Layer enet3_7_branch2b
I0106 14:59:40.494467 23268 net.cpp:454] enet3_7_branch2b <- enet3_7_branch2b1
I0106 14:59:40.494478 23268 net.cpp:411] enet3_7_branch2b -> enet3_7_branch2b
I0106 14:59:40.498121 23268 net.cpp:150] Setting up enet3_7_branch2b
I0106 14:59:40.498139 23268 net.cpp:157] Top shape: 4 32 47 155 (932480)
I0106 14:59:40.498147 23268 net.cpp:165] Memory required for data: 3916416032
I0106 14:59:40.498158 23268 layer_factory.hpp:77] Creating layer bn3_7_branch2b
I0106 14:59:40.498174 23268 net.cpp:106] Creating Layer bn3_7_branch2b
I0106 14:59:40.498183 23268 net.cpp:454] bn3_7_branch2b <- enet3_7_branch2b
I0106 14:59:40.498198 23268 net.cpp:397] bn3_7_branch2b -> enet3_7_branch2b (in-place)
I0106 14:59:40.498510 23268 net.cpp:150] Setting up bn3_7_branch2b
I0106 14:59:40.498524 23268 net.cpp:157] Top shape: 4 32 47 155 (932480)
I0106 14:59:40.498531 23268 net.cpp:165] Memory required for data: 3920145952
I0106 14:59:40.498543 23268 layer_factory.hpp:77] Creating layer relu3_7_branch2b
I0106 14:59:40.498553 23268 net.cpp:106] Creating Layer relu3_7_branch2b
I0106 14:59:40.498560 23268 net.cpp:454] relu3_7_branch2b <- enet3_7_branch2b
I0106 14:59:40.498569 23268 net.cpp:397] relu3_7_branch2b -> enet3_7_branch2b (in-place)
I0106 14:59:40.499779 23268 net.cpp:150] Setting up relu3_7_branch2b
I0106 14:59:40.499797 23268 net.cpp:157] Top shape: 4 32 47 155 (932480)
I0106 14:59:40.499804 23268 net.cpp:165] Memory required for data: 3923875872
I0106 14:59:40.499814 23268 layer_factory.hpp:77] Creating layer enet3_7_branch2c
I0106 14:59:40.499832 23268 net.cpp:106] Creating Layer enet3_7_branch2c
I0106 14:59:40.499840 23268 net.cpp:454] enet3_7_branch2c <- enet3_7_branch2b
I0106 14:59:40.499858 23268 net.cpp:411] enet3_7_branch2c -> enet3_7_branch2c
I0106 14:59:40.503783 23268 net.cpp:150] Setting up enet3_7_branch2c
I0106 14:59:40.503803 23268 net.cpp:157] Top shape: 4 128 47 155 (3729920)
I0106 14:59:40.503810 23268 net.cpp:165] Memory required for data: 3938795552
I0106 14:59:40.503819 23268 layer_factory.hpp:77] Creating layer bn3_7_branch2c
I0106 14:59:40.503836 23268 net.cpp:106] Creating Layer bn3_7_branch2c
I0106 14:59:40.503845 23268 net.cpp:454] bn3_7_branch2c <- enet3_7_branch2c
I0106 14:59:40.503859 23268 net.cpp:397] bn3_7_branch2c -> enet3_7_branch2c (in-place)
I0106 14:59:40.504179 23268 net.cpp:150] Setting up bn3_7_branch2c
I0106 14:59:40.504194 23268 net.cpp:157] Top shape: 4 128 47 155 (3729920)
I0106 14:59:40.504201 23268 net.cpp:165] Memory required for data: 3953715232
I0106 14:59:40.504212 23268 layer_factory.hpp:77] Creating layer dropout3_7_branch2c
I0106 14:59:40.504222 23268 net.cpp:106] Creating Layer dropout3_7_branch2c
I0106 14:59:40.504230 23268 net.cpp:454] dropout3_7_branch2c <- enet3_7_branch2c
I0106 14:59:40.504243 23268 net.cpp:397] dropout3_7_branch2c -> enet3_7_branch2c (in-place)
I0106 14:59:40.504283 23268 net.cpp:150] Setting up dropout3_7_branch2c
I0106 14:59:40.504295 23268 net.cpp:157] Top shape: 4 128 47 155 (3729920)
I0106 14:59:40.504302 23268 net.cpp:165] Memory required for data: 3968634912
I0106 14:59:40.504308 23268 layer_factory.hpp:77] Creating layer enet3_7
I0106 14:59:40.504318 23268 net.cpp:106] Creating Layer enet3_7
I0106 14:59:40.504325 23268 net.cpp:454] enet3_7 <- enet3_6_relu3_6_0_split_1
I0106 14:59:40.504346 23268 net.cpp:454] enet3_7 <- enet3_7_branch2c
I0106 14:59:40.504364 23268 net.cpp:411] enet3_7 -> enet3_7
I0106 14:59:40.504408 23268 net.cpp:150] Setting up enet3_7
I0106 14:59:40.504421 23268 net.cpp:157] Top shape: 4 128 47 155 (3729920)
I0106 14:59:40.504427 23268 net.cpp:165] Memory required for data: 3983554592
I0106 14:59:40.504434 23268 layer_factory.hpp:77] Creating layer relu3_7
I0106 14:59:40.504447 23268 net.cpp:106] Creating Layer relu3_7
I0106 14:59:40.504456 23268 net.cpp:454] relu3_7 <- enet3_7
I0106 14:59:40.504464 23268 net.cpp:397] relu3_7 -> enet3_7 (in-place)
I0106 14:59:40.508641 23268 net.cpp:150] Setting up relu3_7
I0106 14:59:40.508662 23268 net.cpp:157] Top shape: 4 128 47 155 (3729920)
I0106 14:59:40.508669 23268 net.cpp:165] Memory required for data: 3998474272
I0106 14:59:40.508679 23268 layer_factory.hpp:77] Creating layer enet3_7_relu3_7_0_split
I0106 14:59:40.508690 23268 net.cpp:106] Creating Layer enet3_7_relu3_7_0_split
I0106 14:59:40.508698 23268 net.cpp:454] enet3_7_relu3_7_0_split <- enet3_7
I0106 14:59:40.508708 23268 net.cpp:411] enet3_7_relu3_7_0_split -> enet3_7_relu3_7_0_split_0
I0106 14:59:40.508720 23268 net.cpp:411] enet3_7_relu3_7_0_split -> enet3_7_relu3_7_0_split_1
I0106 14:59:40.508785 23268 net.cpp:150] Setting up enet3_7_relu3_7_0_split
I0106 14:59:40.508798 23268 net.cpp:157] Top shape: 4 128 47 155 (3729920)
I0106 14:59:40.508807 23268 net.cpp:157] Top shape: 4 128 47 155 (3729920)
I0106 14:59:40.508813 23268 net.cpp:165] Memory required for data: 4028313632
I0106 14:59:40.508821 23268 layer_factory.hpp:77] Creating layer enet3_8_branch2a
I0106 14:59:40.508836 23268 net.cpp:106] Creating Layer enet3_8_branch2a
I0106 14:59:40.508844 23268 net.cpp:454] enet3_8_branch2a <- enet3_7_relu3_7_0_split_0
I0106 14:59:40.508857 23268 net.cpp:411] enet3_8_branch2a -> enet3_8_branch2a
I0106 14:59:40.514564 23268 net.cpp:150] Setting up enet3_8_branch2a
I0106 14:59:40.514585 23268 net.cpp:157] Top shape: 4 32 47 155 (932480)
I0106 14:59:40.514592 23268 net.cpp:165] Memory required for data: 4032043552
I0106 14:59:40.514602 23268 layer_factory.hpp:77] Creating layer bn3_8_branch2a
I0106 14:59:40.514614 23268 net.cpp:106] Creating Layer bn3_8_branch2a
I0106 14:59:40.514623 23268 net.cpp:454] bn3_8_branch2a <- enet3_8_branch2a
I0106 14:59:40.514636 23268 net.cpp:397] bn3_8_branch2a -> enet3_8_branch2a (in-place)
I0106 14:59:40.514976 23268 net.cpp:150] Setting up bn3_8_branch2a
I0106 14:59:40.514991 23268 net.cpp:157] Top shape: 4 32 47 155 (932480)
I0106 14:59:40.514997 23268 net.cpp:165] Memory required for data: 4035773472
I0106 14:59:40.515008 23268 layer_factory.hpp:77] Creating layer relu3_8_branch2a
I0106 14:59:40.515018 23268 net.cpp:106] Creating Layer relu3_8_branch2a
I0106 14:59:40.515027 23268 net.cpp:454] relu3_8_branch2a <- enet3_8_branch2a
I0106 14:59:40.515036 23268 net.cpp:397] relu3_8_branch2a -> enet3_8_branch2a (in-place)
I0106 14:59:40.516242 23268 net.cpp:150] Setting up relu3_8_branch2a
I0106 14:59:40.516261 23268 net.cpp:157] Top shape: 4 32 47 155 (932480)
I0106 14:59:40.516269 23268 net.cpp:165] Memory required for data: 4039503392
I0106 14:59:40.516279 23268 layer_factory.hpp:77] Creating layer enet3_8_branch2b
I0106 14:59:40.516294 23268 net.cpp:106] Creating Layer enet3_8_branch2b
I0106 14:59:40.516302 23268 net.cpp:454] enet3_8_branch2b <- enet3_8_branch2a
I0106 14:59:40.516316 23268 net.cpp:411] enet3_8_branch2b -> enet3_8_branch2b
I0106 14:59:40.516916 23268 net.cpp:150] Setting up enet3_8_branch2b
I0106 14:59:40.516932 23268 net.cpp:157] Top shape: 4 32 47 155 (932480)
I0106 14:59:40.516938 23268 net.cpp:165] Memory required for data: 4043233312
I0106 14:59:40.516949 23268 layer_factory.hpp:77] Creating layer bn3_8_branch2b
I0106 14:59:40.516964 23268 net.cpp:106] Creating Layer bn3_8_branch2b
I0106 14:59:40.516973 23268 net.cpp:454] bn3_8_branch2b <- enet3_8_branch2b
I0106 14:59:40.516985 23268 net.cpp:397] bn3_8_branch2b -> enet3_8_branch2b (in-place)
I0106 14:59:40.517307 23268 net.cpp:150] Setting up bn3_8_branch2b
I0106 14:59:40.517330 23268 net.cpp:157] Top shape: 4 32 47 155 (932480)
I0106 14:59:40.517345 23268 net.cpp:165] Memory required for data: 4046963232
I0106 14:59:40.517356 23268 layer_factory.hpp:77] Creating layer relu3_8_branch2b
I0106 14:59:40.517366 23268 net.cpp:106] Creating Layer relu3_8_branch2b
I0106 14:59:40.517374 23268 net.cpp:454] relu3_8_branch2b <- enet3_8_branch2b
I0106 14:59:40.517382 23268 net.cpp:397] relu3_8_branch2b -> enet3_8_branch2b (in-place)
I0106 14:59:40.518568 23268 net.cpp:150] Setting up relu3_8_branch2b
I0106 14:59:40.518584 23268 net.cpp:157] Top shape: 4 32 47 155 (932480)
I0106 14:59:40.518592 23268 net.cpp:165] Memory required for data: 4050693152
I0106 14:59:40.518601 23268 layer_factory.hpp:77] Creating layer enet3_8_branch2c
I0106 14:59:40.518618 23268 net.cpp:106] Creating Layer enet3_8_branch2c
I0106 14:59:40.518626 23268 net.cpp:454] enet3_8_branch2c <- enet3_8_branch2b
I0106 14:59:40.518640 23268 net.cpp:411] enet3_8_branch2c -> enet3_8_branch2c
I0106 14:59:40.522267 23268 net.cpp:150] Setting up enet3_8_branch2c
I0106 14:59:40.522285 23268 net.cpp:157] Top shape: 4 128 47 155 (3729920)
I0106 14:59:40.522294 23268 net.cpp:165] Memory required for data: 4065612832
I0106 14:59:40.522303 23268 layer_factory.hpp:77] Creating layer bn3_8_branch2c
I0106 14:59:40.522320 23268 net.cpp:106] Creating Layer bn3_8_branch2c
I0106 14:59:40.522327 23268 net.cpp:454] bn3_8_branch2c <- enet3_8_branch2c
I0106 14:59:40.522338 23268 net.cpp:397] bn3_8_branch2c -> enet3_8_branch2c (in-place)
I0106 14:59:40.523525 23268 net.cpp:150] Setting up bn3_8_branch2c
I0106 14:59:40.523543 23268 net.cpp:157] Top shape: 4 128 47 155 (3729920)
I0106 14:59:40.523550 23268 net.cpp:165] Memory required for data: 4080532512
I0106 14:59:40.523561 23268 layer_factory.hpp:77] Creating layer dropout3_8_branch2c
I0106 14:59:40.523572 23268 net.cpp:106] Creating Layer dropout3_8_branch2c
I0106 14:59:40.523581 23268 net.cpp:454] dropout3_8_branch2c <- enet3_8_branch2c
I0106 14:59:40.523591 23268 net.cpp:397] dropout3_8_branch2c -> enet3_8_branch2c (in-place)
I0106 14:59:40.523630 23268 net.cpp:150] Setting up dropout3_8_branch2c
I0106 14:59:40.523643 23268 net.cpp:157] Top shape: 4 128 47 155 (3729920)
I0106 14:59:40.523649 23268 net.cpp:165] Memory required for data: 4095452192
I0106 14:59:40.523656 23268 layer_factory.hpp:77] Creating layer enet3_8
I0106 14:59:40.523669 23268 net.cpp:106] Creating Layer enet3_8
I0106 14:59:40.523679 23268 net.cpp:454] enet3_8 <- enet3_7_relu3_7_0_split_1
I0106 14:59:40.523686 23268 net.cpp:454] enet3_8 <- enet3_8_branch2c
I0106 14:59:40.523699 23268 net.cpp:411] enet3_8 -> enet3_8
I0106 14:59:40.523738 23268 net.cpp:150] Setting up enet3_8
I0106 14:59:40.523751 23268 net.cpp:157] Top shape: 4 128 47 155 (3729920)
I0106 14:59:40.523756 23268 net.cpp:165] Memory required for data: 4110371872
I0106 14:59:40.523767 23268 layer_factory.hpp:77] Creating layer relu3_8
I0106 14:59:40.523779 23268 net.cpp:106] Creating Layer relu3_8
I0106 14:59:40.523787 23268 net.cpp:454] relu3_8 <- enet3_8
I0106 14:59:40.523797 23268 net.cpp:397] relu3_8 -> enet3_8 (in-place)
I0106 14:59:40.548620 23268 net.cpp:150] Setting up relu3_8
I0106 14:59:40.548640 23268 net.cpp:157] Top shape: 4 128 47 155 (3729920)
I0106 14:59:40.548646 23268 net.cpp:165] Memory required for data: 4125291552
I0106 14:59:40.548656 23268 layer_factory.hpp:77] Creating layer enet3_8_relu3_8_0_split
I0106 14:59:40.548669 23268 net.cpp:106] Creating Layer enet3_8_relu3_8_0_split
I0106 14:59:40.548678 23268 net.cpp:454] enet3_8_relu3_8_0_split <- enet3_8
I0106 14:59:40.548691 23268 net.cpp:411] enet3_8_relu3_8_0_split -> enet3_8_relu3_8_0_split_0
I0106 14:59:40.548704 23268 net.cpp:411] enet3_8_relu3_8_0_split -> enet3_8_relu3_8_0_split_1
I0106 14:59:40.548770 23268 net.cpp:150] Setting up enet3_8_relu3_8_0_split
I0106 14:59:40.548786 23268 net.cpp:157] Top shape: 4 128 47 155 (3729920)
I0106 14:59:40.548795 23268 net.cpp:157] Top shape: 4 128 47 155 (3729920)
I0106 14:59:40.548801 23268 net.cpp:165] Memory required for data: 4155130912
I0106 14:59:40.548816 23268 layer_factory.hpp:77] Creating layer enet4_0_branch2a
I0106 14:59:40.548838 23268 net.cpp:106] Creating Layer enet4_0_branch2a
I0106 14:59:40.548847 23268 net.cpp:454] enet4_0_branch2a <- enet3_8_relu3_8_0_split_0
I0106 14:59:40.548861 23268 net.cpp:411] enet4_0_branch2a -> enet4_0_branch2a
I0106 14:59:40.552567 23268 net.cpp:150] Setting up enet4_0_branch2a
I0106 14:59:40.552585 23268 net.cpp:157] Top shape: 4 16 47 155 (466240)
I0106 14:59:40.552592 23268 net.cpp:165] Memory required for data: 4156995872
I0106 14:59:40.552603 23268 layer_factory.hpp:77] Creating layer bn4_0_branch2a
I0106 14:59:40.552618 23268 net.cpp:106] Creating Layer bn4_0_branch2a
I0106 14:59:40.552626 23268 net.cpp:454] bn4_0_branch2a <- enet4_0_branch2a
I0106 14:59:40.552640 23268 net.cpp:397] bn4_0_branch2a -> enet4_0_branch2a (in-place)
I0106 14:59:40.552979 23268 net.cpp:150] Setting up bn4_0_branch2a
I0106 14:59:40.552994 23268 net.cpp:157] Top shape: 4 16 47 155 (466240)
I0106 14:59:40.553000 23268 net.cpp:165] Memory required for data: 4158860832
I0106 14:59:40.553011 23268 layer_factory.hpp:77] Creating layer relu4_0_branch2a
I0106 14:59:40.553030 23268 net.cpp:106] Creating Layer relu4_0_branch2a
I0106 14:59:40.553037 23268 net.cpp:454] relu4_0_branch2a <- enet4_0_branch2a
I0106 14:59:40.553046 23268 net.cpp:397] relu4_0_branch2a -> enet4_0_branch2a (in-place)
I0106 14:59:40.554117 23268 net.cpp:150] Setting up relu4_0_branch2a
I0106 14:59:40.554136 23268 net.cpp:157] Top shape: 4 16 47 155 (466240)
I0106 14:59:40.554142 23268 net.cpp:165] Memory required for data: 4160725792
I0106 14:59:40.554149 23268 layer_factory.hpp:77] Creating layer enet4_0_branch2b
I0106 14:59:40.554168 23268 net.cpp:106] Creating Layer enet4_0_branch2b
I0106 14:59:40.554177 23268 net.cpp:454] enet4_0_branch2b <- enet4_0_branch2a
I0106 14:59:40.554191 23268 net.cpp:411] enet4_0_branch2b -> enet4_0_branch2b
I0106 14:59:40.554769 23268 net.cpp:150] Setting up enet4_0_branch2b
I0106 14:59:40.554783 23268 net.cpp:157] Top shape: 4 16 94 310 (1864960)
I0106 14:59:40.554790 23268 net.cpp:165] Memory required for data: 4168185632
I0106 14:59:40.554802 23268 layer_factory.hpp:77] Creating layer bn4_0_branch2b
I0106 14:59:40.554817 23268 net.cpp:106] Creating Layer bn4_0_branch2b
I0106 14:59:40.554826 23268 net.cpp:454] bn4_0_branch2b <- enet4_0_branch2b
I0106 14:59:40.554838 23268 net.cpp:397] bn4_0_branch2b -> enet4_0_branch2b (in-place)
I0106 14:59:40.555265 23268 net.cpp:150] Setting up bn4_0_branch2b
I0106 14:59:40.555280 23268 net.cpp:157] Top shape: 4 16 94 310 (1864960)
I0106 14:59:40.555287 23268 net.cpp:165] Memory required for data: 4175645472
I0106 14:59:40.555297 23268 layer_factory.hpp:77] Creating layer relu4_0_branch2b
I0106 14:59:40.555307 23268 net.cpp:106] Creating Layer relu4_0_branch2b
I0106 14:59:40.555315 23268 net.cpp:454] relu4_0_branch2b <- enet4_0_branch2b
I0106 14:59:40.555325 23268 net.cpp:397] relu4_0_branch2b -> enet4_0_branch2b (in-place)
I0106 14:59:40.556404 23268 net.cpp:150] Setting up relu4_0_branch2b
I0106 14:59:40.556421 23268 net.cpp:157] Top shape: 4 16 94 310 (1864960)
I0106 14:59:40.556429 23268 net.cpp:165] Memory required for data: 4183105312
I0106 14:59:40.556437 23268 layer_factory.hpp:77] Creating layer enet4_0_branch2c
I0106 14:59:40.556453 23268 net.cpp:106] Creating Layer enet4_0_branch2c
I0106 14:59:40.556463 23268 net.cpp:454] enet4_0_branch2c <- enet4_0_branch2b
I0106 14:59:40.556476 23268 net.cpp:411] enet4_0_branch2c -> enet4_0_branch2c
I0106 14:59:40.560199 23268 net.cpp:150] Setting up enet4_0_branch2c
I0106 14:59:40.560216 23268 net.cpp:157] Top shape: 4 64 94 310 (7459840)
I0106 14:59:40.560223 23268 net.cpp:165] Memory required for data: 4212944672
I0106 14:59:40.560233 23268 layer_factory.hpp:77] Creating layer bn4_0_branch2c
I0106 14:59:40.560248 23268 net.cpp:106] Creating Layer bn4_0_branch2c
I0106 14:59:40.560257 23268 net.cpp:454] bn4_0_branch2c <- enet4_0_branch2c
I0106 14:59:40.560272 23268 net.cpp:397] bn4_0_branch2c -> enet4_0_branch2c (in-place)
I0106 14:59:40.561519 23268 net.cpp:150] Setting up bn4_0_branch2c
I0106 14:59:40.561547 23268 net.cpp:157] Top shape: 4 64 94 310 (7459840)
I0106 14:59:40.561554 23268 net.cpp:165] Memory required for data: 4242784032
I0106 14:59:40.561565 23268 layer_factory.hpp:77] Creating layer enet4_0_branch1a
I0106 14:59:40.561583 23268 net.cpp:106] Creating Layer enet4_0_branch1a
I0106 14:59:40.561592 23268 net.cpp:454] enet4_0_branch1a <- enet3_8_relu3_8_0_split_1
I0106 14:59:40.561606 23268 net.cpp:411] enet4_0_branch1a -> enet4_0_branch1a
I0106 14:59:40.565536 23268 net.cpp:150] Setting up enet4_0_branch1a
I0106 14:59:40.565556 23268 net.cpp:157] Top shape: 4 64 47 155 (1864960)
I0106 14:59:40.565562 23268 net.cpp:165] Memory required for data: 4250243872
I0106 14:59:40.565572 23268 layer_factory.hpp:77] Creating layer bn4_0_branch1a
I0106 14:59:40.565587 23268 net.cpp:106] Creating Layer bn4_0_branch1a
I0106 14:59:40.565596 23268 net.cpp:454] bn4_0_branch1a <- enet4_0_branch1a
I0106 14:59:40.565609 23268 net.cpp:397] bn4_0_branch1a -> enet4_0_branch1a (in-place)
I0106 14:59:40.565946 23268 net.cpp:150] Setting up bn4_0_branch1a
I0106 14:59:40.565961 23268 net.cpp:157] Top shape: 4 64 47 155 (1864960)
I0106 14:59:40.565968 23268 net.cpp:165] Memory required for data: 4257703712
I0106 14:59:40.565979 23268 layer_factory.hpp:77] Creating layer unpool4_0_branch1a
I0106 14:59:40.565992 23268 net.cpp:106] Creating Layer unpool4_0_branch1a
I0106 14:59:40.565999 23268 net.cpp:454] unpool4_0_branch1a <- enet4_0_branch1a
I0106 14:59:40.566009 23268 net.cpp:454] unpool4_0_branch1a <- pool2_0_branch1a_mask
I0106 14:59:40.566020 23268 net.cpp:411] unpool4_0_branch1a -> unpool4_0_branch1a
I0106 14:59:40.566082 23268 net.cpp:150] Setting up unpool4_0_branch1a
I0106 14:59:40.566094 23268 net.cpp:157] Top shape: 4 64 94 310 (7459840)
I0106 14:59:40.566102 23268 net.cpp:165] Memory required for data: 4287543072
I0106 14:59:40.566108 23268 layer_factory.hpp:77] Creating layer enet4_0
I0106 14:59:40.566123 23268 net.cpp:106] Creating Layer enet4_0
I0106 14:59:40.566130 23268 net.cpp:454] enet4_0 <- unpool4_0_branch1a
I0106 14:59:40.566139 23268 net.cpp:454] enet4_0 <- enet4_0_branch2c
I0106 14:59:40.566148 23268 net.cpp:411] enet4_0 -> enet4_0
I0106 14:59:40.566193 23268 net.cpp:150] Setting up enet4_0
I0106 14:59:40.566206 23268 net.cpp:157] Top shape: 4 64 94 310 (7459840)
I0106 14:59:40.566212 23268 net.cpp:165] Memory required for data: 4317382432
I0106 14:59:40.566220 23268 layer_factory.hpp:77] Creating layer relu4_0
I0106 14:59:40.566228 23268 net.cpp:106] Creating Layer relu4_0
I0106 14:59:40.566236 23268 net.cpp:454] relu4_0 <- enet4_0
I0106 14:59:40.566247 23268 net.cpp:397] relu4_0 -> enet4_0 (in-place)
I0106 14:59:40.567349 23268 net.cpp:150] Setting up relu4_0
I0106 14:59:40.567368 23268 net.cpp:157] Top shape: 4 64 94 310 (7459840)
I0106 14:59:40.567375 23268 net.cpp:165] Memory required for data: 4347221792
I0106 14:59:40.567383 23268 layer_factory.hpp:77] Creating layer enet4_0_relu4_0_0_split
I0106 14:59:40.567395 23268 net.cpp:106] Creating Layer enet4_0_relu4_0_0_split
I0106 14:59:40.567404 23268 net.cpp:454] enet4_0_relu4_0_0_split <- enet4_0
I0106 14:59:40.567414 23268 net.cpp:411] enet4_0_relu4_0_0_split -> enet4_0_relu4_0_0_split_0
I0106 14:59:40.567430 23268 net.cpp:411] enet4_0_relu4_0_0_split -> enet4_0_relu4_0_0_split_1
I0106 14:59:40.567497 23268 net.cpp:150] Setting up enet4_0_relu4_0_0_split
I0106 14:59:40.567510 23268 net.cpp:157] Top shape: 4 64 94 310 (7459840)
I0106 14:59:40.567518 23268 net.cpp:157] Top shape: 4 64 94 310 (7459840)
I0106 14:59:40.567524 23268 net.cpp:165] Memory required for data: 4406900512
I0106 14:59:40.567531 23268 layer_factory.hpp:77] Creating layer enet4_1_branch2a
I0106 14:59:40.567548 23268 net.cpp:106] Creating Layer enet4_1_branch2a
I0106 14:59:40.567556 23268 net.cpp:454] enet4_1_branch2a <- enet4_0_relu4_0_0_split_0
I0106 14:59:40.567570 23268 net.cpp:411] enet4_1_branch2a -> enet4_1_branch2a
I0106 14:59:40.571341 23268 net.cpp:150] Setting up enet4_1_branch2a
I0106 14:59:40.571359 23268 net.cpp:157] Top shape: 4 16 94 310 (1864960)
I0106 14:59:40.571380 23268 net.cpp:165] Memory required for data: 4414360352
I0106 14:59:40.571391 23268 layer_factory.hpp:77] Creating layer bn4_1_branch2a
I0106 14:59:40.571406 23268 net.cpp:106] Creating Layer bn4_1_branch2a
I0106 14:59:40.571415 23268 net.cpp:454] bn4_1_branch2a <- enet4_1_branch2a
I0106 14:59:40.571426 23268 net.cpp:397] bn4_1_branch2a -> enet4_1_branch2a (in-place)
I0106 14:59:40.571801 23268 net.cpp:150] Setting up bn4_1_branch2a
I0106 14:59:40.571816 23268 net.cpp:157] Top shape: 4 16 94 310 (1864960)
I0106 14:59:40.571823 23268 net.cpp:165] Memory required for data: 4421820192
I0106 14:59:40.571835 23268 layer_factory.hpp:77] Creating layer relu4_1_branch2a
I0106 14:59:40.571844 23268 net.cpp:106] Creating Layer relu4_1_branch2a
I0106 14:59:40.571851 23268 net.cpp:454] relu4_1_branch2a <- enet4_1_branch2a
I0106 14:59:40.571861 23268 net.cpp:397] relu4_1_branch2a -> enet4_1_branch2a (in-place)
I0106 14:59:40.572962 23268 net.cpp:150] Setting up relu4_1_branch2a
I0106 14:59:40.572980 23268 net.cpp:157] Top shape: 4 16 94 310 (1864960)
I0106 14:59:40.572988 23268 net.cpp:165] Memory required for data: 4429280032
I0106 14:59:40.572994 23268 layer_factory.hpp:77] Creating layer enet4_1_branch2b
I0106 14:59:40.573012 23268 net.cpp:106] Creating Layer enet4_1_branch2b
I0106 14:59:40.573020 23268 net.cpp:454] enet4_1_branch2b <- enet4_1_branch2a
I0106 14:59:40.573035 23268 net.cpp:411] enet4_1_branch2b -> enet4_1_branch2b
I0106 14:59:40.577014 23268 net.cpp:150] Setting up enet4_1_branch2b
I0106 14:59:40.577033 23268 net.cpp:157] Top shape: 4 16 94 310 (1864960)
I0106 14:59:40.577040 23268 net.cpp:165] Memory required for data: 4436739872
I0106 14:59:40.577051 23268 layer_factory.hpp:77] Creating layer bn4_1_branch2b
I0106 14:59:40.577067 23268 net.cpp:106] Creating Layer bn4_1_branch2b
I0106 14:59:40.577076 23268 net.cpp:454] bn4_1_branch2b <- enet4_1_branch2b
I0106 14:59:40.577087 23268 net.cpp:397] bn4_1_branch2b -> enet4_1_branch2b (in-place)
I0106 14:59:40.577464 23268 net.cpp:150] Setting up bn4_1_branch2b
I0106 14:59:40.577479 23268 net.cpp:157] Top shape: 4 16 94 310 (1864960)
I0106 14:59:40.577486 23268 net.cpp:165] Memory required for data: 4444199712
I0106 14:59:40.577497 23268 layer_factory.hpp:77] Creating layer relu4_1_branch2b
I0106 14:59:40.577508 23268 net.cpp:106] Creating Layer relu4_1_branch2b
I0106 14:59:40.577515 23268 net.cpp:454] relu4_1_branch2b <- enet4_1_branch2b
I0106 14:59:40.577527 23268 net.cpp:397] relu4_1_branch2b -> enet4_1_branch2b (in-place)
I0106 14:59:40.578639 23268 net.cpp:150] Setting up relu4_1_branch2b
I0106 14:59:40.578656 23268 net.cpp:157] Top shape: 4 16 94 310 (1864960)
I0106 14:59:40.578663 23268 net.cpp:165] Memory required for data: 4451659552
I0106 14:59:40.578671 23268 layer_factory.hpp:77] Creating layer enet4_1_branch2c
I0106 14:59:40.578691 23268 net.cpp:106] Creating Layer enet4_1_branch2c
I0106 14:59:40.578701 23268 net.cpp:454] enet4_1_branch2c <- enet4_1_branch2b
I0106 14:59:40.578712 23268 net.cpp:411] enet4_1_branch2c -> enet4_1_branch2c
I0106 14:59:40.582350 23268 net.cpp:150] Setting up enet4_1_branch2c
I0106 14:59:40.582366 23268 net.cpp:157] Top shape: 4 64 94 310 (7459840)
I0106 14:59:40.582375 23268 net.cpp:165] Memory required for data: 4481498912
I0106 14:59:40.582384 23268 layer_factory.hpp:77] Creating layer bn4_1_branch2c
I0106 14:59:40.582401 23268 net.cpp:106] Creating Layer bn4_1_branch2c
I0106 14:59:40.582411 23268 net.cpp:454] bn4_1_branch2c <- enet4_1_branch2c
I0106 14:59:40.582424 23268 net.cpp:397] bn4_1_branch2c -> enet4_1_branch2c (in-place)
I0106 14:59:40.583686 23268 net.cpp:150] Setting up bn4_1_branch2c
I0106 14:59:40.583704 23268 net.cpp:157] Top shape: 4 64 94 310 (7459840)
I0106 14:59:40.583711 23268 net.cpp:165] Memory required for data: 4511338272
I0106 14:59:40.583722 23268 layer_factory.hpp:77] Creating layer enet4_1
I0106 14:59:40.583734 23268 net.cpp:106] Creating Layer enet4_1
I0106 14:59:40.583741 23268 net.cpp:454] enet4_1 <- enet4_0_relu4_0_0_split_1
I0106 14:59:40.583761 23268 net.cpp:454] enet4_1 <- enet4_1_branch2c
I0106 14:59:40.583784 23268 net.cpp:411] enet4_1 -> enet4_1
I0106 14:59:40.583835 23268 net.cpp:150] Setting up enet4_1
I0106 14:59:40.583848 23268 net.cpp:157] Top shape: 4 64 94 310 (7459840)
I0106 14:59:40.583855 23268 net.cpp:165] Memory required for data: 4541177632
I0106 14:59:40.583863 23268 layer_factory.hpp:77] Creating layer relu4_1
I0106 14:59:40.583871 23268 net.cpp:106] Creating Layer relu4_1
I0106 14:59:40.583879 23268 net.cpp:454] relu4_1 <- enet4_1
I0106 14:59:40.583889 23268 net.cpp:397] relu4_1 -> enet4_1 (in-place)
I0106 14:59:40.585171 23268 net.cpp:150] Setting up relu4_1
I0106 14:59:40.585191 23268 net.cpp:157] Top shape: 4 64 94 310 (7459840)
I0106 14:59:40.585199 23268 net.cpp:165] Memory required for data: 4571016992
I0106 14:59:40.585207 23268 layer_factory.hpp:77] Creating layer enet4_1_relu4_1_0_split
I0106 14:59:40.585217 23268 net.cpp:106] Creating Layer enet4_1_relu4_1_0_split
I0106 14:59:40.585224 23268 net.cpp:454] enet4_1_relu4_1_0_split <- enet4_1
I0106 14:59:40.585237 23268 net.cpp:411] enet4_1_relu4_1_0_split -> enet4_1_relu4_1_0_split_0
I0106 14:59:40.585250 23268 net.cpp:411] enet4_1_relu4_1_0_split -> enet4_1_relu4_1_0_split_1
I0106 14:59:40.585321 23268 net.cpp:150] Setting up enet4_1_relu4_1_0_split
I0106 14:59:40.585337 23268 net.cpp:157] Top shape: 4 64 94 310 (7459840)
I0106 14:59:40.585345 23268 net.cpp:157] Top shape: 4 64 94 310 (7459840)
I0106 14:59:40.585352 23268 net.cpp:165] Memory required for data: 4630695712
I0106 14:59:40.585360 23268 layer_factory.hpp:77] Creating layer enet4_2_branch2a
I0106 14:59:40.585372 23268 net.cpp:106] Creating Layer enet4_2_branch2a
I0106 14:59:40.585381 23268 net.cpp:454] enet4_2_branch2a <- enet4_1_relu4_1_0_split_0
I0106 14:59:40.585394 23268 net.cpp:411] enet4_2_branch2a -> enet4_2_branch2a
I0106 14:59:40.589071 23268 net.cpp:150] Setting up enet4_2_branch2a
I0106 14:59:40.589089 23268 net.cpp:157] Top shape: 4 16 94 310 (1864960)
I0106 14:59:40.589097 23268 net.cpp:165] Memory required for data: 4638155552
I0106 14:59:40.589107 23268 layer_factory.hpp:77] Creating layer bn4_2_branch2a
I0106 14:59:40.589123 23268 net.cpp:106] Creating Layer bn4_2_branch2a
I0106 14:59:40.589131 23268 net.cpp:454] bn4_2_branch2a <- enet4_2_branch2a
I0106 14:59:40.589144 23268 net.cpp:397] bn4_2_branch2a -> enet4_2_branch2a (in-place)
I0106 14:59:40.589534 23268 net.cpp:150] Setting up bn4_2_branch2a
I0106 14:59:40.589550 23268 net.cpp:157] Top shape: 4 16 94 310 (1864960)
I0106 14:59:40.589556 23268 net.cpp:165] Memory required for data: 4645615392
I0106 14:59:40.589567 23268 layer_factory.hpp:77] Creating layer relu4_2_branch2a
I0106 14:59:40.589578 23268 net.cpp:106] Creating Layer relu4_2_branch2a
I0106 14:59:40.589586 23268 net.cpp:454] relu4_2_branch2a <- enet4_2_branch2a
I0106 14:59:40.589597 23268 net.cpp:397] relu4_2_branch2a -> enet4_2_branch2a (in-place)
I0106 14:59:40.590919 23268 net.cpp:150] Setting up relu4_2_branch2a
I0106 14:59:40.590939 23268 net.cpp:157] Top shape: 4 16 94 310 (1864960)
I0106 14:59:40.590946 23268 net.cpp:165] Memory required for data: 4653075232
I0106 14:59:40.590955 23268 layer_factory.hpp:77] Creating layer enet4_2_branch2b
I0106 14:59:40.590971 23268 net.cpp:106] Creating Layer enet4_2_branch2b
I0106 14:59:40.590979 23268 net.cpp:454] enet4_2_branch2b <- enet4_2_branch2a
I0106 14:59:40.590991 23268 net.cpp:411] enet4_2_branch2b -> enet4_2_branch2b
I0106 14:59:40.595000 23268 net.cpp:150] Setting up enet4_2_branch2b
I0106 14:59:40.595017 23268 net.cpp:157] Top shape: 4 16 94 310 (1864960)
I0106 14:59:40.595026 23268 net.cpp:165] Memory required for data: 4660535072
I0106 14:59:40.595036 23268 layer_factory.hpp:77] Creating layer bn4_2_branch2b
I0106 14:59:40.595052 23268 net.cpp:106] Creating Layer bn4_2_branch2b
I0106 14:59:40.595060 23268 net.cpp:454] bn4_2_branch2b <- enet4_2_branch2b
I0106 14:59:40.595073 23268 net.cpp:397] bn4_2_branch2b -> enet4_2_branch2b (in-place)
I0106 14:59:40.595471 23268 net.cpp:150] Setting up bn4_2_branch2b
I0106 14:59:40.595486 23268 net.cpp:157] Top shape: 4 16 94 310 (1864960)
I0106 14:59:40.595507 23268 net.cpp:165] Memory required for data: 4667994912
I0106 14:59:40.595520 23268 layer_factory.hpp:77] Creating layer relu4_2_branch2b
I0106 14:59:40.595532 23268 net.cpp:106] Creating Layer relu4_2_branch2b
I0106 14:59:40.595541 23268 net.cpp:454] relu4_2_branch2b <- enet4_2_branch2b
I0106 14:59:40.595551 23268 net.cpp:397] relu4_2_branch2b -> enet4_2_branch2b (in-place)
I0106 14:59:40.596688 23268 net.cpp:150] Setting up relu4_2_branch2b
I0106 14:59:40.596704 23268 net.cpp:157] Top shape: 4 16 94 310 (1864960)
I0106 14:59:40.596711 23268 net.cpp:165] Memory required for data: 4675454752
I0106 14:59:40.596719 23268 layer_factory.hpp:77] Creating layer enet4_2_branch2c
I0106 14:59:40.596740 23268 net.cpp:106] Creating Layer enet4_2_branch2c
I0106 14:59:40.596750 23268 net.cpp:454] enet4_2_branch2c <- enet4_2_branch2b
I0106 14:59:40.596765 23268 net.cpp:411] enet4_2_branch2c -> enet4_2_branch2c
I0106 14:59:40.600644 23268 net.cpp:150] Setting up enet4_2_branch2c
I0106 14:59:40.600662 23268 net.cpp:157] Top shape: 4 64 94 310 (7459840)
I0106 14:59:40.600670 23268 net.cpp:165] Memory required for data: 4705294112
I0106 14:59:40.600680 23268 layer_factory.hpp:77] Creating layer bn4_2_branch2c
I0106 14:59:40.600697 23268 net.cpp:106] Creating Layer bn4_2_branch2c
I0106 14:59:40.600704 23268 net.cpp:454] bn4_2_branch2c <- enet4_2_branch2c
I0106 14:59:40.600718 23268 net.cpp:397] bn4_2_branch2c -> enet4_2_branch2c (in-place)
I0106 14:59:40.601138 23268 net.cpp:150] Setting up bn4_2_branch2c
I0106 14:59:40.601153 23268 net.cpp:157] Top shape: 4 64 94 310 (7459840)
I0106 14:59:40.601161 23268 net.cpp:165] Memory required for data: 4735133472
I0106 14:59:40.601171 23268 layer_factory.hpp:77] Creating layer enet4_2
I0106 14:59:40.601184 23268 net.cpp:106] Creating Layer enet4_2
I0106 14:59:40.601192 23268 net.cpp:454] enet4_2 <- enet4_1_relu4_1_0_split_1
I0106 14:59:40.601202 23268 net.cpp:454] enet4_2 <- enet4_2_branch2c
I0106 14:59:40.601212 23268 net.cpp:411] enet4_2 -> enet4_2
I0106 14:59:40.601258 23268 net.cpp:150] Setting up enet4_2
I0106 14:59:40.601270 23268 net.cpp:157] Top shape: 4 64 94 310 (7459840)
I0106 14:59:40.601276 23268 net.cpp:165] Memory required for data: 4764972832
I0106 14:59:40.601284 23268 layer_factory.hpp:77] Creating layer relu4_2
I0106 14:59:40.601292 23268 net.cpp:106] Creating Layer relu4_2
I0106 14:59:40.601300 23268 net.cpp:454] relu4_2 <- enet4_2
I0106 14:59:40.601313 23268 net.cpp:397] relu4_2 -> enet4_2 (in-place)
I0106 14:59:40.602419 23268 net.cpp:150] Setting up relu4_2
I0106 14:59:40.602437 23268 net.cpp:157] Top shape: 4 64 94 310 (7459840)
I0106 14:59:40.602443 23268 net.cpp:165] Memory required for data: 4794812192
I0106 14:59:40.602450 23268 layer_factory.hpp:77] Creating layer enet4_2_relu4_2_0_split
I0106 14:59:40.602463 23268 net.cpp:106] Creating Layer enet4_2_relu4_2_0_split
I0106 14:59:40.602471 23268 net.cpp:454] enet4_2_relu4_2_0_split <- enet4_2
I0106 14:59:40.602483 23268 net.cpp:411] enet4_2_relu4_2_0_split -> enet4_2_relu4_2_0_split_0
I0106 14:59:40.602494 23268 net.cpp:411] enet4_2_relu4_2_0_split -> enet4_2_relu4_2_0_split_1
I0106 14:59:40.602573 23268 net.cpp:150] Setting up enet4_2_relu4_2_0_split
I0106 14:59:40.602587 23268 net.cpp:157] Top shape: 4 64 94 310 (7459840)
I0106 14:59:40.602596 23268 net.cpp:157] Top shape: 4 64 94 310 (7459840)
I0106 14:59:40.602602 23268 net.cpp:165] Memory required for data: 4854490912
I0106 14:59:40.602609 23268 layer_factory.hpp:77] Creating layer enet5_0_branch2a
I0106 14:59:40.602625 23268 net.cpp:106] Creating Layer enet5_0_branch2a
I0106 14:59:40.602634 23268 net.cpp:454] enet5_0_branch2a <- enet4_2_relu4_2_0_split_0
I0106 14:59:40.602648 23268 net.cpp:411] enet5_0_branch2a -> enet5_0_branch2a
I0106 14:59:40.606317 23268 net.cpp:150] Setting up enet5_0_branch2a
I0106 14:59:40.606335 23268 net.cpp:157] Top shape: 4 4 94 310 (466240)
I0106 14:59:40.606343 23268 net.cpp:165] Memory required for data: 4856355872
I0106 14:59:40.606353 23268 layer_factory.hpp:77] Creating layer bn5_0_branch2a
I0106 14:59:40.606375 23268 net.cpp:106] Creating Layer bn5_0_branch2a
I0106 14:59:40.606391 23268 net.cpp:454] bn5_0_branch2a <- enet5_0_branch2a
I0106 14:59:40.606403 23268 net.cpp:397] bn5_0_branch2a -> enet5_0_branch2a (in-place)
I0106 14:59:40.607694 23268 net.cpp:150] Setting up bn5_0_branch2a
I0106 14:59:40.607712 23268 net.cpp:157] Top shape: 4 4 94 310 (466240)
I0106 14:59:40.607719 23268 net.cpp:165] Memory required for data: 4858220832
I0106 14:59:40.607731 23268 layer_factory.hpp:77] Creating layer relu5_0_branch2a
I0106 14:59:40.607741 23268 net.cpp:106] Creating Layer relu5_0_branch2a
I0106 14:59:40.607749 23268 net.cpp:454] relu5_0_branch2a <- enet5_0_branch2a
I0106 14:59:40.607766 23268 net.cpp:397] relu5_0_branch2a -> enet5_0_branch2a (in-place)
I0106 14:59:40.608887 23268 net.cpp:150] Setting up relu5_0_branch2a
I0106 14:59:40.608904 23268 net.cpp:157] Top shape: 4 4 94 310 (466240)
I0106 14:59:40.608912 23268 net.cpp:165] Memory required for data: 4860085792
I0106 14:59:40.608919 23268 layer_factory.hpp:77] Creating layer enet5_0_branch2b
I0106 14:59:40.608935 23268 net.cpp:106] Creating Layer enet5_0_branch2b
I0106 14:59:40.608943 23268 net.cpp:454] enet5_0_branch2b <- enet5_0_branch2a
I0106 14:59:40.608958 23268 net.cpp:411] enet5_0_branch2b -> enet5_0_branch2b
I0106 14:59:40.609545 23268 net.cpp:150] Setting up enet5_0_branch2b
I0106 14:59:40.609561 23268 net.cpp:157] Top shape: 4 4 188 620 (1864960)
I0106 14:59:40.609568 23268 net.cpp:165] Memory required for data: 4867545632
I0106 14:59:40.609580 23268 layer_factory.hpp:77] Creating layer bn5_0_branch2b
I0106 14:59:40.609591 23268 net.cpp:106] Creating Layer bn5_0_branch2b
I0106 14:59:40.609599 23268 net.cpp:454] bn5_0_branch2b <- enet5_0_branch2b
I0106 14:59:40.609612 23268 net.cpp:397] bn5_0_branch2b -> enet5_0_branch2b (in-place)
I0106 14:59:40.611026 23268 net.cpp:150] Setting up bn5_0_branch2b
I0106 14:59:40.611042 23268 net.cpp:157] Top shape: 4 4 188 620 (1864960)
I0106 14:59:40.611049 23268 net.cpp:165] Memory required for data: 4875005472
I0106 14:59:40.611062 23268 layer_factory.hpp:77] Creating layer relu5_0_branch2b
I0106 14:59:40.611071 23268 net.cpp:106] Creating Layer relu5_0_branch2b
I0106 14:59:40.611078 23268 net.cpp:454] relu5_0_branch2b <- enet5_0_branch2b
I0106 14:59:40.611088 23268 net.cpp:397] relu5_0_branch2b -> enet5_0_branch2b (in-place)
I0106 14:59:40.612392 23268 net.cpp:150] Setting up relu5_0_branch2b
I0106 14:59:40.612409 23268 net.cpp:157] Top shape: 4 4 188 620 (1864960)
I0106 14:59:40.612417 23268 net.cpp:165] Memory required for data: 4882465312
I0106 14:59:40.612424 23268 layer_factory.hpp:77] Creating layer enet5_0_branch2c
I0106 14:59:40.612443 23268 net.cpp:106] Creating Layer enet5_0_branch2c
I0106 14:59:40.612452 23268 net.cpp:454] enet5_0_branch2c <- enet5_0_branch2b
I0106 14:59:40.612463 23268 net.cpp:411] enet5_0_branch2c -> enet5_0_branch2c
I0106 14:59:40.616154 23268 net.cpp:150] Setting up enet5_0_branch2c
I0106 14:59:40.616173 23268 net.cpp:157] Top shape: 4 16 188 620 (7459840)
I0106 14:59:40.616180 23268 net.cpp:165] Memory required for data: 4912304672
I0106 14:59:40.616189 23268 layer_factory.hpp:77] Creating layer bn5_0_branch2c
I0106 14:59:40.616205 23268 net.cpp:106] Creating Layer bn5_0_branch2c
I0106 14:59:40.616214 23268 net.cpp:454] bn5_0_branch2c <- enet5_0_branch2c
I0106 14:59:40.616227 23268 net.cpp:397] bn5_0_branch2c -> enet5_0_branch2c (in-place)
I0106 14:59:40.617635 23268 net.cpp:150] Setting up bn5_0_branch2c
I0106 14:59:40.617651 23268 net.cpp:157] Top shape: 4 16 188 620 (7459840)
I0106 14:59:40.617658 23268 net.cpp:165] Memory required for data: 4942144032
I0106 14:59:40.617669 23268 layer_factory.hpp:77] Creating layer enet5_0_branch1a
I0106 14:59:40.617687 23268 net.cpp:106] Creating Layer enet5_0_branch1a
I0106 14:59:40.617697 23268 net.cpp:454] enet5_0_branch1a <- enet4_2_relu4_2_0_split_1
I0106 14:59:40.617710 23268 net.cpp:411] enet5_0_branch1a -> enet5_0_branch1a
I0106 14:59:40.621656 23268 net.cpp:150] Setting up enet5_0_branch1a
I0106 14:59:40.621682 23268 net.cpp:157] Top shape: 4 16 94 310 (1864960)
I0106 14:59:40.621698 23268 net.cpp:165] Memory required for data: 4949603872
I0106 14:59:40.621709 23268 layer_factory.hpp:77] Creating layer bn5_0_branch1a
I0106 14:59:40.621726 23268 net.cpp:106] Creating Layer bn5_0_branch1a
I0106 14:59:40.621734 23268 net.cpp:454] bn5_0_branch1a <- enet5_0_branch1a
I0106 14:59:40.621745 23268 net.cpp:397] bn5_0_branch1a -> enet5_0_branch1a (in-place)
I0106 14:59:40.622185 23268 net.cpp:150] Setting up bn5_0_branch1a
I0106 14:59:40.622200 23268 net.cpp:157] Top shape: 4 16 94 310 (1864960)
I0106 14:59:40.622207 23268 net.cpp:165] Memory required for data: 4957063712
I0106 14:59:40.622217 23268 layer_factory.hpp:77] Creating layer unpool5_0_branch1a
I0106 14:59:40.622231 23268 net.cpp:106] Creating Layer unpool5_0_branch1a
I0106 14:59:40.622237 23268 net.cpp:454] unpool5_0_branch1a <- enet5_0_branch1a
I0106 14:59:40.622247 23268 net.cpp:454] unpool5_0_branch1a <- pool1_0_branch1a_mask
I0106 14:59:40.622259 23268 net.cpp:411] unpool5_0_branch1a -> unpool5_0_branch1a
I0106 14:59:40.622310 23268 net.cpp:150] Setting up unpool5_0_branch1a
I0106 14:59:40.622328 23268 net.cpp:157] Top shape: 4 16 188 620 (7459840)
I0106 14:59:40.622334 23268 net.cpp:165] Memory required for data: 4986903072
I0106 14:59:40.622341 23268 layer_factory.hpp:77] Creating layer enet5_0
I0106 14:59:40.622351 23268 net.cpp:106] Creating Layer enet5_0
I0106 14:59:40.622357 23268 net.cpp:454] enet5_0 <- unpool5_0_branch1a
I0106 14:59:40.622366 23268 net.cpp:454] enet5_0 <- enet5_0_branch2c
I0106 14:59:40.622375 23268 net.cpp:411] enet5_0 -> enet5_0
I0106 14:59:40.622426 23268 net.cpp:150] Setting up enet5_0
I0106 14:59:40.622439 23268 net.cpp:157] Top shape: 4 16 188 620 (7459840)
I0106 14:59:40.622445 23268 net.cpp:165] Memory required for data: 5016742432
I0106 14:59:40.622452 23268 layer_factory.hpp:77] Creating layer relu5_0
I0106 14:59:40.622464 23268 net.cpp:106] Creating Layer relu5_0
I0106 14:59:40.622473 23268 net.cpp:454] relu5_0 <- enet5_0
I0106 14:59:40.622481 23268 net.cpp:397] relu5_0 -> enet5_0 (in-place)
I0106 14:59:40.623602 23268 net.cpp:150] Setting up relu5_0
I0106 14:59:40.623620 23268 net.cpp:157] Top shape: 4 16 188 620 (7459840)
I0106 14:59:40.623631 23268 net.cpp:165] Memory required for data: 5046581792
I0106 14:59:40.623637 23268 layer_factory.hpp:77] Creating layer enet5_0_relu5_0_0_split
I0106 14:59:40.623647 23268 net.cpp:106] Creating Layer enet5_0_relu5_0_0_split
I0106 14:59:40.623656 23268 net.cpp:454] enet5_0_relu5_0_0_split <- enet5_0
I0106 14:59:40.623666 23268 net.cpp:411] enet5_0_relu5_0_0_split -> enet5_0_relu5_0_0_split_0
I0106 14:59:40.623677 23268 net.cpp:411] enet5_0_relu5_0_0_split -> enet5_0_relu5_0_0_split_1
I0106 14:59:40.623762 23268 net.cpp:150] Setting up enet5_0_relu5_0_0_split
I0106 14:59:40.623776 23268 net.cpp:157] Top shape: 4 16 188 620 (7459840)
I0106 14:59:40.623785 23268 net.cpp:157] Top shape: 4 16 188 620 (7459840)
I0106 14:59:40.623791 23268 net.cpp:165] Memory required for data: 5106260512
I0106 14:59:40.623797 23268 layer_factory.hpp:77] Creating layer enet5_1_branch2a
I0106 14:59:40.623814 23268 net.cpp:106] Creating Layer enet5_1_branch2a
I0106 14:59:40.623822 23268 net.cpp:454] enet5_1_branch2a <- enet5_0_relu5_0_0_split_0
I0106 14:59:40.623836 23268 net.cpp:411] enet5_1_branch2a -> enet5_1_branch2a
I0106 14:59:40.627727 23268 net.cpp:150] Setting up enet5_1_branch2a
I0106 14:59:40.627746 23268 net.cpp:157] Top shape: 4 4 188 620 (1864960)
I0106 14:59:40.627753 23268 net.cpp:165] Memory required for data: 5113720352
I0106 14:59:40.627768 23268 layer_factory.hpp:77] Creating layer bn5_1_branch2a
I0106 14:59:40.627784 23268 net.cpp:106] Creating Layer bn5_1_branch2a
I0106 14:59:40.627794 23268 net.cpp:454] bn5_1_branch2a <- enet5_1_branch2a
I0106 14:59:40.627805 23268 net.cpp:397] bn5_1_branch2a -> enet5_1_branch2a (in-place)
I0106 14:59:40.629220 23268 net.cpp:150] Setting up bn5_1_branch2a
I0106 14:59:40.629236 23268 net.cpp:157] Top shape: 4 4 188 620 (1864960)
I0106 14:59:40.629243 23268 net.cpp:165] Memory required for data: 5121180192
I0106 14:59:40.629269 23268 layer_factory.hpp:77] Creating layer relu5_1_branch2a
I0106 14:59:40.629283 23268 net.cpp:106] Creating Layer relu5_1_branch2a
I0106 14:59:40.629292 23268 net.cpp:454] relu5_1_branch2a <- enet5_1_branch2a
I0106 14:59:40.629302 23268 net.cpp:397] relu5_1_branch2a -> enet5_1_branch2a (in-place)
I0106 14:59:40.630430 23268 net.cpp:150] Setting up relu5_1_branch2a
I0106 14:59:40.630447 23268 net.cpp:157] Top shape: 4 4 188 620 (1864960)
I0106 14:59:40.630455 23268 net.cpp:165] Memory required for data: 5128640032
I0106 14:59:40.630462 23268 layer_factory.hpp:77] Creating layer enet5_1_branch2b
I0106 14:59:40.630481 23268 net.cpp:106] Creating Layer enet5_1_branch2b
I0106 14:59:40.630491 23268 net.cpp:454] enet5_1_branch2b <- enet5_1_branch2a
I0106 14:59:40.630502 23268 net.cpp:411] enet5_1_branch2b -> enet5_1_branch2b
I0106 14:59:40.636245 23268 net.cpp:150] Setting up enet5_1_branch2b
I0106 14:59:40.636265 23268 net.cpp:157] Top shape: 4 4 188 620 (1864960)
I0106 14:59:40.636274 23268 net.cpp:165] Memory required for data: 5136099872
I0106 14:59:40.636286 23268 layer_factory.hpp:77] Creating layer bn5_1_branch2b
I0106 14:59:40.636298 23268 net.cpp:106] Creating Layer bn5_1_branch2b
I0106 14:59:40.636307 23268 net.cpp:454] bn5_1_branch2b <- enet5_1_branch2b
I0106 14:59:40.636318 23268 net.cpp:397] bn5_1_branch2b -> enet5_1_branch2b (in-place)
I0106 14:59:40.637720 23268 net.cpp:150] Setting up bn5_1_branch2b
I0106 14:59:40.637737 23268 net.cpp:157] Top shape: 4 4 188 620 (1864960)
I0106 14:59:40.637745 23268 net.cpp:165] Memory required for data: 5143559712
I0106 14:59:40.637756 23268 layer_factory.hpp:77] Creating layer relu5_1_branch2b
I0106 14:59:40.637771 23268 net.cpp:106] Creating Layer relu5_1_branch2b
I0106 14:59:40.637779 23268 net.cpp:454] relu5_1_branch2b <- enet5_1_branch2b
I0106 14:59:40.637789 23268 net.cpp:397] relu5_1_branch2b -> enet5_1_branch2b (in-place)
I0106 14:59:40.638959 23268 net.cpp:150] Setting up relu5_1_branch2b
I0106 14:59:40.638978 23268 net.cpp:157] Top shape: 4 4 188 620 (1864960)
I0106 14:59:40.638985 23268 net.cpp:165] Memory required for data: 5151019552
I0106 14:59:40.638993 23268 layer_factory.hpp:77] Creating layer enet5_1_branch2c
I0106 14:59:40.639009 23268 net.cpp:106] Creating Layer enet5_1_branch2c
I0106 14:59:40.639019 23268 net.cpp:454] enet5_1_branch2c <- enet5_1_branch2b
I0106 14:59:40.639032 23268 net.cpp:411] enet5_1_branch2c -> enet5_1_branch2c
I0106 14:59:40.642980 23268 net.cpp:150] Setting up enet5_1_branch2c
I0106 14:59:40.642998 23268 net.cpp:157] Top shape: 4 16 188 620 (7459840)
I0106 14:59:40.643007 23268 net.cpp:165] Memory required for data: 5180858912
I0106 14:59:40.643015 23268 layer_factory.hpp:77] Creating layer bn5_1_branch2c
I0106 14:59:40.643030 23268 net.cpp:106] Creating Layer bn5_1_branch2c
I0106 14:59:40.643039 23268 net.cpp:454] bn5_1_branch2c <- enet5_1_branch2c
I0106 14:59:40.643050 23268 net.cpp:397] bn5_1_branch2c -> enet5_1_branch2c (in-place)
I0106 14:59:40.644490 23268 net.cpp:150] Setting up bn5_1_branch2c
I0106 14:59:40.644507 23268 net.cpp:157] Top shape: 4 16 188 620 (7459840)
I0106 14:59:40.644515 23268 net.cpp:165] Memory required for data: 5210698272
I0106 14:59:40.644526 23268 layer_factory.hpp:77] Creating layer enet5_1
I0106 14:59:40.644536 23268 net.cpp:106] Creating Layer enet5_1
I0106 14:59:40.644546 23268 net.cpp:454] enet5_1 <- enet5_0_relu5_0_0_split_1
I0106 14:59:40.644554 23268 net.cpp:454] enet5_1 <- enet5_1_branch2c
I0106 14:59:40.644563 23268 net.cpp:411] enet5_1 -> enet5_1
I0106 14:59:40.644618 23268 net.cpp:150] Setting up enet5_1
I0106 14:59:40.644632 23268 net.cpp:157] Top shape: 4 16 188 620 (7459840)
I0106 14:59:40.644639 23268 net.cpp:165] Memory required for data: 5240537632
I0106 14:59:40.644645 23268 layer_factory.hpp:77] Creating layer relu5_1
I0106 14:59:40.644659 23268 net.cpp:106] Creating Layer relu5_1
I0106 14:59:40.644665 23268 net.cpp:454] relu5_1 <- enet5_1
I0106 14:59:40.644675 23268 net.cpp:397] relu5_1 -> enet5_1 (in-place)
I0106 14:59:40.646069 23268 net.cpp:150] Setting up relu5_1
I0106 14:59:40.646097 23268 net.cpp:157] Top shape: 4 16 188 620 (7459840)
I0106 14:59:40.646106 23268 net.cpp:165] Memory required for data: 5270376992
I0106 14:59:40.646113 23268 layer_factory.hpp:77] Creating layer enet6_0
I0106 14:59:40.646128 23268 net.cpp:106] Creating Layer enet6_0
I0106 14:59:40.646139 23268 net.cpp:454] enet6_0 <- enet5_1
I0106 14:59:40.646150 23268 net.cpp:411] enet6_0 -> enet6_0
I0106 14:59:40.648627 23268 net.cpp:150] Setting up enet6_0
I0106 14:59:40.648645 23268 net.cpp:157] Top shape: 4 4 376 1240 (7459840)
I0106 14:59:40.648653 23268 net.cpp:165] Memory required for data: 5300216352
I0106 14:59:40.648664 23268 layer_factory.hpp:77] Creating layer enet6_0_enet6_0_0_split
I0106 14:59:40.648675 23268 net.cpp:106] Creating Layer enet6_0_enet6_0_0_split
I0106 14:59:40.648684 23268 net.cpp:454] enet6_0_enet6_0_0_split <- enet6_0
I0106 14:59:40.648694 23268 net.cpp:411] enet6_0_enet6_0_0_split -> enet6_0_enet6_0_0_split_0
I0106 14:59:40.648710 23268 net.cpp:411] enet6_0_enet6_0_0_split -> enet6_0_enet6_0_0_split_1
I0106 14:59:40.648802 23268 net.cpp:150] Setting up enet6_0_enet6_0_0_split
I0106 14:59:40.648815 23268 net.cpp:157] Top shape: 4 4 376 1240 (7459840)
I0106 14:59:40.648824 23268 net.cpp:157] Top shape: 4 4 376 1240 (7459840)
I0106 14:59:40.648830 23268 net.cpp:165] Memory required for data: 5359895072
I0106 14:59:40.648838 23268 layer_factory.hpp:77] Creating layer loss
I0106 14:59:40.648864 23268 net.cpp:106] Creating Layer loss
I0106 14:59:40.648874 23268 net.cpp:454] loss <- enet6_0_enet6_0_0_split_0
I0106 14:59:40.648883 23268 net.cpp:454] loss <- label_data_1_split_0
I0106 14:59:40.648898 23268 net.cpp:411] loss -> loss
I0106 14:59:40.648933 23268 layer_factory.hpp:77] Creating layer loss
I0106 14:59:40.678087 23268 net.cpp:150] Setting up loss
I0106 14:59:40.678141 23268 net.cpp:157] Top shape: (1)
I0106 14:59:40.678149 23268 net.cpp:160]     with loss weight 1
I0106 14:59:40.678215 23268 net.cpp:165] Memory required for data: 5359895076
I0106 14:59:40.678227 23268 layer_factory.hpp:77] Creating layer accuracy
I0106 14:59:40.678248 23268 net.cpp:106] Creating Layer accuracy
I0106 14:59:40.678258 23268 net.cpp:454] accuracy <- enet6_0_enet6_0_0_split_1
I0106 14:59:40.678274 23268 net.cpp:454] accuracy <- label_data_1_split_1
I0106 14:59:40.678285 23268 net.cpp:411] accuracy -> accuracy
I0106 14:59:40.678305 23268 net.cpp:411] accuracy -> per_class_accuracy
I0106 14:59:40.678390 23268 net.cpp:150] Setting up accuracy
I0106 14:59:40.678403 23268 net.cpp:157] Top shape: (1)
I0106 14:59:40.678412 23268 net.cpp:157] Top shape: 4 (4)
I0106 14:59:40.678418 23268 net.cpp:165] Memory required for data: 5359895096
I0106 14:59:40.678426 23268 net.cpp:228] accuracy does not need backward computation.
I0106 14:59:40.678434 23268 net.cpp:226] loss needs backward computation.
I0106 14:59:40.678442 23268 net.cpp:226] enet6_0_enet6_0_0_split needs backward computation.
I0106 14:59:40.678449 23268 net.cpp:226] enet6_0 needs backward computation.
…
