…
I0109 11:23:12.463748 18073 solver.cpp:91] Creating training net from net file: /home/map/liuli/caffe_hebei/segnet/Models/enet/enet_train_kitti_road.prototxt
I0109 11:23:12.476217 18073 net.cpp:49] Initializing net from parameters: 
name: "enet"
state {
  phase: TRAIN
}
layer {
  name: "data"
  type: "ImageSegData"
  top: "data"
  top: "label"
  transform_param {
    mirror: true
    mean_value: 0
    mean_value: 0
    mean_value: 0
    scale_factors: 1
  }
  image_data_param {
    source: "/home/map/liuli/datasets/enet_multclass/train/enet_train_2.list"
    batch_size: 4
    shuffle: true
    label_type: PIXEL
  }
}
layer {
  name: "enet_initial_branch2a"
  type: "Convolution"
  bottom: "data"
  top: "enet_initial_branch2a"
  param {
    lr_mult: 1
    decay_mult: 1
  }
  param {
    lr_mult: 2
    decay_mult: 0
  }
  convolution_param {
    num_output: 13
    bias_term: true
    weight_filler {
      type: "msra"
    }
    bias_filler {
      type: "constant"
    }
    pad_h: 1
    pad_w: 1
    kernel_h: 3
    kernel_w: 3
    stride_h: 2
    stride_w: 2
    dilation: 1
  }
}
layer {
  name: "pool_initial_branch1a"
  type: "Pooling"
  bottom: "data"
  top: "pool_initial_branch1a"
  pooling_param {
    pool: MAX
    kernel_size: 2
    stride: 2
  }
}
layer {
  name: "enet_initial"
  type: "Concat"
  bottom: "enet_initial_branch2a"
  bottom: "pool_initial_branch1a"
  top: "enet_initial"
  concat_param {
    axis: 1
  }
}
layer {
  name: "bn_initial"
  type: "BN"
  bottom: "enet_initial"
  top: "enet_initial"
  param {
    lr_mult: 1
    decay_mult: 1
  }
  param {
    lr_mult: 2
    decay_mult: 0
  }
  bn_param {
    scale_filler {
      type: "constant"
      value: 1
    }
    shift_filler {
      type: "constant"
      value: 0.001
    }
  }
}
layer {
  name: "relu_initial"
  type: "PReLU"
  bottom: "enet_initial"
  top: "enet_initial"
}
layer {
  name: "enet1_0_branch2a"
  type: "Convolution"
  bottom: "enet_initial"
  top: "enet1_0_branch2a"
  param {
    lr_mult: 1
    decay_mult: 1
  }
  convolution_param {
    num_output: 16
    bias_term: false
    weight_filler {
      type: "msra"
    }
    bias_filler {
      type: "constant"
    }
    pad_h: 0
    pad_w: 0
    kernel_h: 2
    kernel_w: 2
    stride_h: 2
    stride_w: 2
    dilation: 1
  }
}
layer {
  name: "bn1_0_branch2a"
  type: "BN"
  bottom: "enet1_0_branch2a"
  top: "enet1_0_branch2a"
  param {
    lr_mult: 1
    decay_mult: 1
  }
  param {
    lr_mult: 2
    decay_mult: 0
  }
  bn_param {
    scale_filler {
      type: "constant"
      value: 1
    }
    shift_filler {
      type: "constant"
      value: 0.001
    }
  }
}
layer {
  name: "relu1_0_branch2a"
  type: "PReLU"
  bottom: "enet1_0_branch2a"
  top: "enet1_0_branch2a"
}
layer {
  name: "enet1_0_branch2b"
  type: "Convolution"
  bottom: "enet1_0_branch2a"
  top: "enet1_0_branch2b"
  param {
    lr_mult: 1
    decay_mult: 1
  }
  param {
    lr_mult: 2
    decay_mult: 0
  }
  convolution_param {
    num_output: 16
    bias_term: true
    weight_filler {
      type: "msra"
    }
    bias_filler {
      type: "constant"
    }
    pad_h: 1
    pad_w: 1
    kernel_h: 3
    kernel_w: 3
    stride_h: 1
    stride_w: 1
    dilation: 1
  }
}
layer {
  name: "bn1_0_branch2b"
  type: "BN"
  bottom: "enet1_0_branch2b"
  top: "enet1_0_branch2b"
  param {
    lr_mult: 1
    decay_mult: 1
  }
  param {
    lr_mult: 2
    decay_mult: 0
  }
  bn_param {
    scale_filler {
      type: "constant"
      value: 1
    }
    shift_filler {
      type: "constant"
      value: 0.001
    }
  }
}
layer {
  name: "relu1_0_branch2b"
  type: "PReLU"
  bottom: "enet1_0_branch2b"
  top: "enet1_0_branch2b"
}
layer {
  name: "enet1_0_branch2c"
  type: "Convolution"
  bottom: "enet1_0_branch2b"
  top: "enet1_0_branch2c"
  param {
    lr_mult: 1
    decay_mult: 1
  }
  convolution_param {
    num_output: 64
    bias_term: false
    weight_filler {
      type: "msra"
    }
    bias_filler {
      type: "constant"
    }
    pad_h: 0
    pad_w: 0
    kernel_h: 1
    kernel_w: 1
    stride_h: 1
    stride_w: 1
    dilation: 1
  }
}
layer {
  name: "bn1_0_branch2c"
  type: "BN"
  bottom: "enet1_0_branch2c"
  top: "enet1_0_branch2c"
  param {
    lr_mult: 1
    decay_mult: 1
  }
  param {
    lr_mult: 2
    decay_mult: 0
  }
  bn_param {
    scale_filler {
      type: "constant"
      value: 1
    }
    shift_filler {
      type: "constant"
      value: 0.001
    }
  }
}
layer {
  name: "dropout1_0_branch2c"
  type: "Dropout"
  bottom: "enet1_0_branch2c"
  top: "enet1_0_branch2c"
  dropout_param {
    dropout_ratio: 0.01
  }
}
layer {
  name: "enet1_0_branch1a"
  type: "Convolution"
  bottom: "enet_initial"
  top: "enet1_0_branch1a"
  param {
    lr_mult: 1
    decay_mult: 1
  }
  convolution_param {
    num_output: 64
    bias_term: false
    weight_filler {
      type: "msra"
    }
    bias_filler {
      type: "constant"
    }
    pad_h: 0
    pad_w: 0
    kernel_h: 1
    kernel_w: 1
    stride_h: 1
    stride_w: 1
    dilation: 1
  }
}
layer {
  name: "bn1_0_branch1a"
  type: "BN"
  bottom: "enet1_0_branch1a"
  top: "enet1_0_branch1a"
  param {
    lr_mult: 1
    decay_mult: 1
  }
  param {
    lr_mult: 2
    decay_mult: 0
  }
  bn_param {
    scale_filler {
      type: "constant"
      value: 1
    }
    shift_filler {
      type: "constant"
      value: 0.001
    }
  }
}
layer {
  name: "pool1_0_branch1a"
  type: "Pooling"
  bottom: "enet1_0_branch1a"
  top: "pool1_0_branch1a"
  top: "pool1_0_branch1a_mask"
  pooling_param {
    pool: MAX
    kernel_size: 2
    stride: 2
  }
}
layer {
  name: "enet1_0"
  type: "Eltwise"
  bottom: "pool1_0_branch1a"
  bottom: "enet1_0_branch2c"
  top: "enet1_0"
}
layer {
  name: "relu1_0"
  type: "PReLU"
  bottom: "enet1_0"
  top: "enet1_0"
}
layer {
  name: "enet1_1_branch2a"
  type: "Convolution"
  bottom: "enet1_0"
  top: "enet1_1_branch2a"
  param {
    lr_mult: 1
    decay_mult: 1
  }
  convolution_param {
    num_output: 16
    bias_term: false
    weight_filler {
      type: "msra"
    }
    bias_filler {
      type: "constant"
    }
    pad_h: 0
    pad_w: 0
    kernel_h: 1
    kernel_w: 1
    stride_h: 1
    stride_w: 1
    dilation: 1
  }
}
layer {
  name: "bn1_1_branch2a"
  type: "BN"
  bottom: "enet1_1_branch2a"
  top: "enet1_1_branch2a"
  param {
    lr_mult: 1
    decay_mult: 1
  }
  param {
    lr_mult: 2
    decay_mult: 0
  }
  bn_param {
    scale_filler {
      type: "constant"
      value: 1
    }
    shift_filler {
      type: "constant"
      value: 0.001
    }
  }
}
layer {
  name: "relu1_1_branch2a"
  type: "PReLU"
  bottom: "enet1_1_branch2a"
  top: "enet1_1_branch2a"
}
layer {
  name: "enet1_1_branch2b"
  type: "Convolution"
  bottom: "enet1_1_branch2a"
  top: "enet1_1_branch2b"
  param {
    lr_mult: 1
    decay_mult: 1
  }
  param {
    lr_mult: 2
    decay_mult: 0
  }
  convolution_param {
    num_output: 16
    bias_term: true
    weight_filler {
      type: "msra"
    }
    bias_filler {
      type: "constant"
    }
    pad_h: 1
    pad_w: 1
    kernel_h: 3
    kernel_w: 3
    stride_h: 1
    stride_w: 1
    dilation: 1
  }
}
layer {
  name: "bn1_1_branch2b"
  type: "BN"
  bottom: "enet1_1_branch2b"
  top: "enet1_1_branch2b"
  param {
    lr_mult: 1
    decay_mult: 1
  }
  param {
    lr_mult: 2
    decay_mult: 0
  }
  bn_param {
    scale_filler {
      type: "constant"
      value: 1
    }
    shift_filler {
      type: "constant"
      value: 0.001
    }
  }
}
layer {
  name: "relu1_1_branch2b"
  type: "PReLU"
  bottom: "enet1_1_branch2b"
  top: "enet1_1_branch2b"
}
layer {
  name: "enet1_1_branch2c"
  type: "Convolution"
  bottom: "enet1_1_branch2b"
  top: "enet1_1_branch2c"
  param {
    lr_mult: 1
    decay_mult: 1
  }
  convolution_param {
    num_output: 64
    bias_term: false
    weight_filler {
      type: "msra"
    }
    bias_filler {
      type: "constant"
    }
    pad_h: 0
    pad_w: 0
    kernel_h: 1
    kernel_w: 1
    stride_h: 1
    stride_w: 1
    dilation: 1
  }
}
layer {
  name: "bn1_1_branch2c"
  type: "BN"
  bottom: "enet1_1_branch2c"
  top: "enet1_1_branch2c"
  param {
    lr_mult: 1
    decay_mult: 1
  }
  param {
    lr_mult: 2
    decay_mult: 0
  }
  bn_param {
    scale_filler {
      type: "constant"
      value: 1
    }
    shift_filler {
      type: "constant"
      value: 0.001
    }
  }
}
layer {
  name: "dropout1_1_branch2c"
  type: "Dropout"
  bottom: "enet1_1_branch2c"
  top: "enet1_1_branch2c"
  dropout_param {
    dropout_ratio: 0.01
  }
}
layer {
  name: "enet1_1"
  type: "Eltwise"
  bottom: "enet1_0"
  bottom: "enet1_1_branch2c"
  top: "enet1_1"
}
layer {
  name: "relu1_1"
  type: "PReLU"
  bottom: "enet1_1"
  top: "enet1_1"
}
layer {
  name: "enet1_2_branch2a"
  type: "Convolution"
  bottom: "enet1_1"
  top: "enet1_2_branch2a"
  param {
    lr_mult: 1
    decay_mult: 1
  }
  convolution_param {
    num_output: 16
    bias_term: false
    weight_filler {
      type: "msra"
    }
    bias_filler {
      type: "constant"
    }
    pad_h: 0
    pad_w: 0
    kernel_h: 1
    kernel_w: 1
    stride_h: 1
    stride_w: 1
    dilation: 1
  }
}
layer {
  name: "bn1_2_branch2a"
  type: "BN"
  bottom: "enet1_2_branch2a"
  top: "enet1_2_branch2a"
  param {
    lr_mult: 1
    decay_mult: 1
  }
  param {
    lr_mult: 2
    decay_mult: 0
  }
  bn_param {
    scale_filler {
      type: "constant"
      value: 1
    }
    shift_filler {
      type: "constant"
      value: 0.001
    }
  }
}
layer {
  name: "relu1_2_branch2a"
  type: "PReLU"
  bottom: "enet1_2_branch2a"
  top: "enet1_2_branch2a"
}
layer {
  name: "enet1_2_branch2b"
  type: "Convolution"
  bottom: "enet1_2_branch2a"
  top: "enet1_2_branch2b"
  param {
    lr_mult: 1
    decay_mult: 1
  }
  param {
    lr_mult: 2
    decay_mult: 0
  }
  convolution_param {
    num_output: 16
    bias_term: true
    weight_filler {
      type: "msra"
    }
    bias_filler {
      type: "constant"
    }
    pad_h: 1
    pad_w: 1
    kernel_h: 3
    kernel_w: 3
    stride_h: 1
    stride_w: 1
    dilation: 1
  }
}
layer {
  name: "bn1_2_branch2b"
  type: "BN"
  bottom: "enet1_2_branch2b"
  top: "enet1_2_branch2b"
  param {
    lr_mult: 1
    decay_mult: 1
  }
  param {
    lr_mult: 2
    decay_mult: 0
  }
  bn_param {
    scale_filler {
      type: "constant"
      value: 1
    }
    shift_filler {
      type: "constant"
      value: 0.001
    }
  }
}
layer {
  name: "relu1_2_branch2b"
  type: "PReLU"
  bottom: "enet1_2_branch2b"
  top: "enet1_2_branch2b"
}
layer {
  name: "enet1_2_branch2c"
  type: "Convolution"
  bottom: "enet1_2_branch2b"
  top: "enet1_2_branch2c"
  param {
    lr_mult: 1
    decay_mult: 1
  }
  convolution_param {
    num_output: 64
    bias_term: false
    weight_filler {
      type: "msra"
    }
    bias_filler {
      type: "constant"
    }
    pad_h: 0
    pad_w: 0
    kernel_h: 1
    kernel_w: 1
    stride_h: 1
    stride_w: 1
    dilation: 1
  }
}
layer {
  name: "bn1_2_branch2c"
  type: "BN"
  bottom: "enet1_2_branch2c"
  top: "enet1_2_branch2c"
  param {
    lr_mult: 1
    decay_mult: 1
  }
  param {
    lr_mult: 2
    decay_mult: 0
  }
  bn_param {
    scale_filler {
      type: "constant"
      value: 1
    }
    shift_filler {
      type: "constant"
      value: 0.001
    }
  }
}
layer {
  name: "dropout1_2_branch2c"
  type: "Dropout"
  bottom: "enet1_2_branch2c"
  top: "enet1_2_branch2c"
  dropout_param {
    dropout_ratio: 0.01
  }
}
layer {
  name: "enet1_2"
  type: "Eltwise"
  bottom: "enet1_1"
  bottom: "enet1_2_branch2c"
  top: "enet1_2"
}
layer {
  name: "relu1_2"
  type: "PReLU"
  bottom: "enet1_2"
  top: "enet1_2"
}
layer {
  name: "enet1_3_branch2a"
  type: "Convolution"
  bottom: "enet1_2"
  top: "enet1_3_branch2a"
  param {
    lr_mult: 1
    decay_mult: 1
  }
  convolution_param {
    num_output: 16
    bias_term: false
    weight_filler {
      type: "msra"
    }
    bias_filler {
      type: "constant"
    }
    pad_h: 0
    pad_w: 0
    kernel_h: 1
    kernel_w: 1
    stride_h: 1
    stride_w: 1
    dilation: 1
  }
}
layer {
  name: "bn1_3_branch2a"
  type: "BN"
  bottom: "enet1_3_branch2a"
  top: "enet1_3_branch2a"
  param {
    lr_mult: 1
    decay_mult: 1
  }
  param {
    lr_mult: 2
    decay_mult: 0
  }
  bn_param {
    scale_filler {
      type: "constant"
      value: 1
    }
    shift_filler {
      type: "constant"
      value: 0.001
    }
  }
}
layer {
  name: "relu1_3_branch2a"
  type: "PReLU"
  bottom: "enet1_3_branch2a"
  top: "enet1_3_branch2a"
}
layer {
  name: "enet1_3_branch2b"
  type: "Convolution"
  bottom: "enet1_3_branch2a"
  top: "enet1_3_branch2b"
  param {
    lr_mult: 1
    decay_mult: 1
  }
  param {
    lr_mult: 2
    decay_mult: 0
  }
  convolution_param {
    num_output: 16
    bias_term: true
    weight_filler {
      type: "msra"
    }
    bias_filler {
      type: "constant"
    }
    pad_h: 1
    pad_w: 1
    kernel_h: 3
    kernel_w: 3
    stride_h: 1
    stride_w: 1
    dilation: 1
  }
}
layer {
  name: "bn1_3_branch2b"
  type: "BN"
  bottom: "enet1_3_branch2b"
  top: "enet1_3_branch2b"
  param {
    lr_mult: 1
    decay_mult: 1
  }
  param {
    lr_mult: 2
    decay_mult: 0
  }
  bn_param {
    scale_filler {
      type: "constant"
      value: 1
    }
    shift_filler {
      type: "constant"
      value: 0.001
    }
  }
}
layer {
  name: "relu1_3_branch2b"
  type: "PReLU"
  bottom: "enet1_3_branch2b"
  top: "enet1_3_branch2b"
}
layer {
  name: "enet1_3_branch2c"
  type: "Convolution"
  bottom: "enet1_3_branch2b"
  top: "enet1_3_branch2c"
  param {
    lr_mult: 1
    decay_mult: 1
  }
  convolution_param {
    num_output: 64
    bias_term: false
    weight_filler {
      type: "msra"
    }
    bias_filler {
      type: "constant"
    }
    pad_h: 0
    pad_w: 0
    kernel_h: 1
    kernel_w: 1
    stride_h: 1
    stride_w: 1
    dilation: 1
  }
}
layer {
  name: "bn1_3_branch2c"
  type: "BN"
  bottom: "enet1_3_branch2c"
  top: "enet1_3_branch2c"
  param {
    lr_mult: 1
    decay_mult: 1
  }
  param {
    lr_mult: 2
    decay_mult: 0
  }
  bn_param {
    scale_filler {
      type: "constant"
      value: 1
    }
    shift_filler {
      type: "constant"
      value: 0.001
    }
  }
}
layer {
  name: "dropout1_3_branch2c"
  type: "Dropout"
  bottom: "enet1_3_branch2c"
  top: "enet1_3_branch2c"
  dropout_param {
    dropout_ratio: 0.01
  }
}
layer {
  name: "enet1_3"
  type: "Eltwise"
  bottom: "enet1_2"
  bottom: "enet1_3_branch2c"
  top: "enet1_3"
}
layer {
  name: "relu1_3"
  type: "PReLU"
  bottom: "enet1_3"
  top: "enet1_3"
}
layer {
  name: "enet1_4_branch2a"
  type: "Convolution"
  bottom: "enet1_3"
  top: "enet1_4_branch2a"
  param {
    lr_mult: 1
    decay_mult: 1
  }
  convolution_param {
    num_output: 16
    bias_term: false
    weight_filler {
      type: "msra"
    }
    bias_filler {
      type: "constant"
    }
    pad_h: 0
    pad_w: 0
    kernel_h: 1
    kernel_w: 1
    stride_h: 1
    stride_w: 1
    dilation: 1
  }
}
layer {
  name: "bn1_4_branch2a"
  type: "BN"
  bottom: "enet1_4_branch2a"
  top: "enet1_4_branch2a"
  param {
    lr_mult: 1
    decay_mult: 1
  }
  param {
    lr_mult: 2
    decay_mult: 0
  }
  bn_param {
    scale_filler {
      type: "constant"
      value: 1
    }
    shift_filler {
      type: "constant"
      value: 0.001
    }
  }
}
layer {
  name: "relu1_4_branch2a"
  type: "PReLU"
  bottom: "enet1_4_branch2a"
  top: "enet1_4_branch2a"
}
layer {
  name: "enet1_4_branch2b"
  type: "Convolution"
  bottom: "enet1_4_branch2a"
  top: "enet1_4_branch2b"
  param {
    lr_mult: 1
    decay_mult: 1
  }
  param {
    lr_mult: 2
    decay_mult: 0
  }
  convolution_param {
    num_output: 16
    bias_term: true
    weight_filler {
      type: "msra"
    }
    bias_filler {
      type: "constant"
    }
    pad_h: 1
    pad_w: 1
    kernel_h: 3
    kernel_w: 3
    stride_h: 1
    stride_w: 1
    dilation: 1
  }
}
layer {
  name: "bn1_4_branch2b"
  type: "BN"
  bottom: "enet1_4_branch2b"
  top: "enet1_4_branch2b"
  param {
    lr_mult: 1
    decay_mult: 1
  }
  param {
    lr_mult: 2
    decay_mult: 0
  }
  bn_param {
    scale_filler {
      type: "constant"
      value: 1
    }
    shift_filler {
      type: "constant"
      value: 0.001
    }
  }
}
layer {
  name: "relu1_4_branch2b"
  type: "PReLU"
  bottom: "enet1_4_branch2b"
  top: "enet1_4_branch2b"
}
layer {
  name: "enet1_4_branch2c"
  type: "Convolution"
  bottom: "enet1_4_branch2b"
  top: "enet1_4_branch2c"
  param {
    lr_mult: 1
    decay_mult: 1
  }
  convolution_param {
    num_output: 64
    bias_term: false
    weight_filler {
      type: "msra"
    }
    bias_filler {
      type: "constant"
    }
    pad_h: 0
    pad_w: 0
    kernel_h: 1
    kernel_w: 1
    stride_h: 1
    stride_w: 1
    dilation: 1
  }
}
layer {
  name: "bn1_4_branch2c"
  type: "BN"
  bottom: "enet1_4_branch2c"
  top: "enet1_4_branch2c"
  param {
    lr_mult: 1
    decay_mult: 1
  }
  param {
    lr_mult: 2
    decay_mult: 0
  }
  bn_param {
    scale_filler {
      type: "constant"
      value: 1
    }
    shift_filler {
      type: "constant"
      value: 0.001
    }
  }
}
layer {
  name: "dropout1_4_branch2c"
  type: "Dropout"
  bottom: "enet1_4_branch2c"
  top: "enet1_4_branch2c"
  dropout_param {
    dropout_ratio: 0.01
  }
}
layer {
  name: "enet1_4"
  type: "Eltwise"
  bottom: "enet1_3"
  bottom: "enet1_4_branch2c"
  top: "enet1_4"
}
layer {
  name: "relu1_4"
  type: "PReLU"
  bottom: "enet1_4"
  top: "enet1_4"
}
layer {
  name: "enet2_0_branch2a"
  type: "Convolution"
  bottom: "enet1_4"
  top: "enet2_0_branch2a"
  param {
    lr_mult: 1
    decay_mult: 1
  }
  convolution_param {
    num_output: 32
    bias_term: false
    weight_filler {
      type: "msra"
    }
    bias_filler {
      type: "constant"
    }
    pad_h: 0
    pad_w: 0
    kernel_h: 2
    kernel_w: 2
    stride_h: 2
    stride_w: 2
    dilation: 1
  }
}
layer {
  name: "bn2_0_branch2a"
  type: "BN"
  bottom: "enet2_0_branch2a"
  top: "enet2_0_branch2a"
  param {
    lr_mult: 1
    decay_mult: 1
  }
  param {
    lr_mult: 2
    decay_mult: 0
  }
  bn_param {
    scale_filler {
      type: "constant"
      value: 1
    }
    shift_filler {
      type: "constant"
      value: 0.001
    }
  }
}
layer {
  name: "relu2_0_branch2a"
  type: "PReLU"
  bottom: "enet2_0_branch2a"
  top: "enet2_0_branch2a"
}
layer {
  name: "enet2_0_branch2b"
  type: "Convolution"
  bottom: "enet2_0_branch2a"
  top: "enet2_0_branch2b"
  param {
    lr_mult: 1
    decay_mult: 1
  }
  param {
    lr_mult: 2
    decay_mult: 0
  }
  convolution_param {
    num_output: 32
    bias_term: true
    weight_filler {
      type: "msra"
    }
    bias_filler {
      type: "constant"
    }
    pad_h: 1
    pad_w: 1
    kernel_h: 3
    kernel_w: 3
    stride_h: 1
    stride_w: 1
    dilation: 1
  }
}
layer {
  name: "bn2_0_branch2b"
  type: "BN"
  bottom: "enet2_0_branch2b"
  top: "enet2_0_branch2b"
  param {
    lr_mult: 1
    decay_mult: 1
  }
  param {
    lr_mult: 2
    decay_mult: 0
  }
  bn_param {
    scale_filler {
      type: "constant"
      value: 1
    }
    shift_filler {
      type: "constant"
      value: 0.001
    }
  }
}
layer {
  name: "relu2_0_branch2b"
  type: "PReLU"
  bottom: "enet2_0_branch2b"
  top: "enet2_0_branch2b"
}
layer {
  name: "enet2_0_branch2c"
  type: "Convolution"
  bottom: "enet2_0_branch2b"
  top: "enet2_0_branch2c"
  param {
    lr_mult: 1
    decay_mult: 1
  }
  convolution_param {
    num_output: 128
    bias_term: false
    weight_filler {
      type: "msra"
    }
    bias_filler {
      type: "constant"
    }
    pad_h: 0
    pad_w: 0
    kernel_h: 1
    kernel_w: 1
    stride_h: 1
    stride_w: 1
    dilation: 1
  }
}
layer {
  name: "bn2_0_branch2c"
  type: "BN"
  bottom: "enet2_0_branch2c"
  top: "enet2_0_branch2c"
  param {
    lr_mult: 1
    decay_mult: 1
  }
  param {
    lr_mult: 2
    decay_mult: 0
  }
  bn_param {
    scale_filler {
      type: "constant"
      value: 1
    }
    shift_filler {
      type: "constant"
      value: 0.001
    }
  }
}
layer {
  name: "dropout2_0_branch2c"
  type: "Dropout"
  bottom: "enet2_0_branch2c"
  top: "enet2_0_branch2c"
  dropout_param {
    dropout_ratio: 0.1
  }
}
layer {
  name: "enet2_0_branch1a"
  type: "Convolution"
  bottom: "enet1_4"
  top: "enet2_0_branch1a"
  param {
    lr_mult: 1
    decay_mult: 1
  }
  convolution_param {
    num_output: 128
    bias_term: false
    weight_filler {
      type: "msra"
    }
    bias_filler {
      type: "constant"
    }
    pad_h: 0
    pad_w: 0
    kernel_h: 1
    kernel_w: 1
    stride_h: 1
    stride_w: 1
    dilation: 1
  }
}
layer {
  name: "bn2_0_branch1a"
  type: "BN"
  bottom: "enet2_0_branch1a"
  top: "enet2_0_branch1a"
  param {
    lr_mult: 1
    decay_mult: 1
  }
  param {
    lr_mult: 2
    decay_mult: 0
  }
  bn_param {
    scale_filler {
      type: "constant"
      value: 1
    }
    shift_filler {
      type: "constant"
      value: 0.001
    }
  }
}
layer {
  name: "pool2_0_branch1a"
  type: "Pooling"
  bottom: "enet2_0_branch1a"
  top: "pool2_0_branch1a"
  top: "pool2_0_branch1a_mask"
  pooling_param {
    pool: MAX
    kernel_size: 2
    stride: 2
  }
}
layer {
  name: "enet2_0"
  type: "Eltwise"
  bottom: "pool2_0_branch1a"
  bottom: "enet2_0_branch2c"
  top: "enet2_0"
}
layer {
  name: "relu2_0"
  type: "PReLU"
  bottom: "enet2_0"
  top: "enet2_0"
}
layer {
  name: "enet2_1_branch2a"
  type: "Convolution"
  bottom: "enet2_0"
  top: "enet2_1_branch2a"
  param {
    lr_mult: 1
    decay_mult: 1
  }
  convolution_param {
    num_output: 32
    bias_term: false
    weight_filler {
      type: "msra"
    }
    bias_filler {
      type: "constant"
    }
    pad_h: 0
    pad_w: 0
    kernel_h: 1
    kernel_w: 1
    stride_h: 1
    stride_w: 1
    dilation: 1
  }
}
layer {
  name: "bn2_1_branch2a"
  type: "BN"
  bottom: "enet2_1_branch2a"
  top: "enet2_1_branch2a"
  param {
    lr_mult: 1
    decay_mult: 1
  }
  param {
    lr_mult: 2
    decay_mult: 0
  }
  bn_param {
    scale_filler {
      type: "constant"
      value: 1
    }
    shift_filler {
      type: "constant"
      value: 0.001
    }
  }
}
layer {
  name: "relu2_1_branch2a"
  type: "PReLU"
  bottom: "enet2_1_branch2a"
  top: "enet2_1_branch2a"
}
layer {
  name: "enet2_1_branch2b"
  type: "Convolution"
  bottom: "enet2_1_branch2a"
  top: "enet2_1_branch2b"
  param {
    lr_mult: 1
    decay_mult: 1
  }
  param {
    lr_mult: 2
    decay_mult: 0
  }
  convolution_param {
    num_output: 32
    bias_term: true
    weight_filler {
      type: "msra"
    }
    bias_filler {
      type: "constant"
    }
    pad_h: 1
    pad_w: 1
    kernel_h: 3
    kernel_w: 3
    stride_h: 1
    stride_w: 1
    dilation: 1
  }
}
layer {
  name: "bn2_1_branch2b"
  type: "BN"
  bottom: "enet2_1_branch2b"
  top: "enet2_1_branch2b"
  param {
    lr_mult: 1
    decay_mult: 1
  }
  param {
    lr_mult: 2
    decay_mult: 0
  }
  bn_param {
    scale_filler {
      type: "constant"
      value: 1
    }
    shift_filler {
      type: "constant"
      value: 0.001
    }
  }
}
layer {
  name: "relu2_1_branch2b"
  type: "PReLU"
  bottom: "enet2_1_branch2b"
  top: "enet2_1_branch2b"
}
layer {
  name: "enet2_1_branch2c"
  type: "Convolution"
  bottom: "enet2_1_branch2b"
  top: "enet2_1_branch2c"
  param {
    lr_mult: 1
    decay_mult: 1
  }
  convolution_param {
    num_output: 128
    bias_term: false
    weight_filler {
      type: "msra"
    }
    bias_filler {
      type: "constant"
    }
    pad_h: 0
    pad_w: 0
    kernel_h: 1
    kernel_w: 1
    stride_h: 1
    stride_w: 1
    dilation: 1
  }
}
layer {
  name: "bn2_1_branch2c"
  type: "BN"
  bottom: "enet2_1_branch2c"
  top: "enet2_1_branch2c"
  param {
    lr_mult: 1
    decay_mult: 1
  }
  param {
    lr_mult: 2
    decay_mult: 0
  }
  bn_param {
    scale_filler {
      type: "constant"
      value: 1
    }
    shift_filler {
      type: "constant"
      value: 0.001
    }
  }
}
layer {
  name: "dropout2_1_branch2c"
  type: "Dropout"
  bottom: "enet2_1_branch2c"
  top: "enet2_1_branch2c"
  dropout_param {
    dropout_ratio: 0.1
  }
}
layer {
  name: "enet2_1"
  type: "Eltwise"
  bottom: "enet2_0"
  bottom: "enet2_1_branch2c"
  top: "enet2_1"
}
layer {
  name: "relu2_1"
  type: "PReLU"
  bottom: "enet2_1"
  top: "enet2_1"
}
layer {
  name: "enet2_2_branch2a"
  type: "Convolution"
  bottom: "enet2_1"
  top: "enet2_2_branch2a"
  param {
    lr_mult: 1
    decay_mult: 1
  }
  convolution_param {
    num_output: 32
    bias_term: false
    weight_filler {
      type: "msra"
    }
    bias_filler {
      type: "constant"
    }
    pad_h: 0
    pad_w: 0
    kernel_h: 1
    kernel_w: 1
    stride_h: 1
    stride_w: 1
    dilation: 1
  }
}
layer {
  name: "bn2_2_branch2a"
  type: "BN"
  bottom: "enet2_2_branch2a"
  top: "enet2_2_branch2a"
  param {
    lr_mult: 1
    decay_mult: 1
  }
  param {
    lr_mult: 2
    decay_mult: 0
  }
  bn_param {
    scale_filler {
      type: "constant"
      value: 1
    }
    shift_filler {
      type: "constant"
      value: 0.001
    }
  }
}
layer {
  name: "relu2_2_branch2a"
  type: "PReLU"
  bottom: "enet2_2_branch2a"
  top: "enet2_2_branch2a"
}
layer {
  name: "enet2_2_branch2b"
  type: "Convolution"
  bottom: "enet2_2_branch2a"
  top: "enet2_2_branch2b"
  param {
    lr_mult: 1
    decay_mult: 1
  }
  param {
    lr_mult: 2
    decay_mult: 0
  }
  convolution_param {
    num_output: 32
    bias_term: true
    weight_filler {
      type: "msra"
    }
    bias_filler {
      type: "constant"
    }
    pad_h: 2
    pad_w: 2
    kernel_h: 3
    kernel_w: 3
    stride_h: 1
    stride_w: 1
    dilation: 2
  }
}
layer {
  name: "bn2_2_branch2b"
  type: "BN"
  bottom: "enet2_2_branch2b"
  top: "enet2_2_branch2b"
  param {
    lr_mult: 1
    decay_mult: 1
  }
  param {
    lr_mult: 2
    decay_mult: 0
  }
  bn_param {
    scale_filler {
      type: "constant"
      value: 1
    }
    shift_filler {
      type: "constant"
      value: 0.001
    }
  }
}
layer {
  name: "relu2_2_branch2b"
  type: "PReLU"
  bottom: "enet2_2_branch2b"
  top: "enet2_2_branch2b"
}
layer {
  name: "enet2_2_branch2c"
  type: "Convolution"
  bottom: "enet2_2_branch2b"
  top: "enet2_2_branch2c"
  param {
    lr_mult: 1
    decay_mult: 1
  }
  convolution_param {
    num_output: 128
    bias_term: false
    weight_filler {
      type: "msra"
    }
    bias_filler {
      type: "constant"
    }
    pad_h: 0
    pad_w: 0
    kernel_h: 1
    kernel_w: 1
    stride_h: 1
    stride_w: 1
    dilation: 1
  }
}
layer {
  name: "bn2_2_branch2c"
  type: "BN"
  bottom: "enet2_2_branch2c"
  top: "enet2_2_branch2c"
  param {
    lr_mult: 1
    decay_mult: 1
  }
  param {
    lr_mult: 2
    decay_mult: 0
  }
  bn_param {
    scale_filler {
      type: "constant"
      value: 1
    }
    shift_filler {
      type: "constant"
      value: 0.001
    }
  }
}
layer {
  name: "dropout2_2_branch2c"
  type: "Dropout"
  bottom: "enet2_2_branch2c"
  top: "enet2_2_branch2c"
  dropout_param {
    dropout_ratio: 0.1
  }
}
layer {
  name: "enet2_2"
  type: "Eltwise"
  bottom: "enet2_1"
  bottom: "enet2_2_branch2c"
  top: "enet2_2"
}
layer {
  name: "relu2_2"
  type: "PReLU"
  bottom: "enet2_2"
  top: "enet2_2"
}
layer {
  name: "enet2_3_branch2a"
  type: "Convolution"
  bottom: "enet2_2"
  top: "enet2_3_branch2a"
  param {
    lr_mult: 1
    decay_mult: 1
  }
  convolution_param {
    num_output: 32
    bias_term: false
    weight_filler {
      type: "msra"
    }
    bias_filler {
      type: "constant"
    }
    pad_h: 0
    pad_w: 0
    kernel_h: 1
    kernel_w: 1
    stride_h: 1
    stride_w: 1
    dilation: 1
  }
}
layer {
  name: "bn2_3_branch2a"
  type: "BN"
  bottom: "enet2_3_branch2a"
  top: "enet2_3_branch2a"
  param {
    lr_mult: 1
    decay_mult: 1
  }
  param {
    lr_mult: 2
    decay_mult: 0
  }
  bn_param {
    scale_filler {
      type: "constant"
      value: 1
    }
    shift_filler {
      type: "constant"
      value: 0.001
    }
  }
}
layer {
  name: "relu2_3_branch2a"
  type: "PReLU"
  bottom: "enet2_3_branch2a"
  top: "enet2_3_branch2a"
}
layer {
  name: "enet2_3_branch2b1"
  type: "Convolution"
  bottom: "enet2_3_branch2a"
  top: "enet2_3_branch2b1"
  param {
    lr_mult: 1
    decay_mult: 1
  }
  convolution_param {
    num_output: 32
    bias_term: false
    weight_filler {
      type: "msra"
    }
    bias_filler {
      type: "constant"
    }
    pad_h: 0
    pad_w: 2
    kernel_h: 1
    kernel_w: 5
    stride_h: 1
    stride_w: 1
    dilation: 1
  }
}
layer {
  name: "enet2_3_branch2b"
  type: "Convolution"
  bottom: "enet2_3_branch2b1"
  top: "enet2_3_branch2b"
  param {
    lr_mult: 1
    decay_mult: 1
  }
  param {
    lr_mult: 2
    decay_mult: 0
  }
  convolution_param {
    num_output: 32
    bias_term: true
    weight_filler {
      type: "msra"
    }
    bias_filler {
      type: "constant"
    }
    pad_h: 2
    pad_w: 0
    kernel_h: 5
    kernel_w: 1
    stride_h: 1
    stride_w: 1
    dilation: 1
  }
}
layer {
  name: "bn2_3_branch2b"
  type: "BN"
  bottom: "enet2_3_branch2b"
  top: "enet2_3_branch2b"
  param {
    lr_mult: 1
    decay_mult: 1
  }
  param {
    lr_mult: 2
    decay_mult: 0
  }
  bn_param {
    scale_filler {
      type: "constant"
      value: 1
    }
    shift_filler {
      type: "constant"
      value: 0.001
    }
  }
}
layer {
  name: "relu2_3_branch2b"
  type: "PReLU"
  bottom: "enet2_3_branch2b"
  top: "enet2_3_branch2b"
}
layer {
  name: "enet2_3_branch2c"
  type: "Convolution"
  bottom: "enet2_3_branch2b"
  top: "enet2_3_branch2c"
  param {
    lr_mult: 1
    decay_mult: 1
  }
  convolution_param {
    num_output: 128
    bias_term: false
    weight_filler {
      type: "msra"
    }
    bias_filler {
      type: "constant"
    }
    pad_h: 0
    pad_w: 0
    kernel_h: 1
    kernel_w: 1
    stride_h: 1
    stride_w: 1
    dilation: 1
  }
}
layer {
  name: "bn2_3_branch2c"
  type: "BN"
  bottom: "enet2_3_branch2c"
  top: "enet2_3_branch2c"
  param {
    lr_mult: 1
    decay_mult: 1
  }
  param {
    lr_mult: 2
    decay_mult: 0
  }
  bn_param {
    scale_filler {
      type: "constant"
      value: 1
    }
    shift_filler {
      type: "constant"
      value: 0.001
    }
  }
}
layer {
  name: "dropout2_3_br
I0109 11:23:12.477962 18073 layer_factory.hpp:77] Creating layer data
I0109 11:23:12.478049 18073 net.cpp:106] Creating Layer data
I0109 11:23:12.478067 18073 net.cpp:411] data -> data
I0109 11:23:12.478127 18073 net.cpp:411] data -> label
I0109 11:23:12.478153 18073 net.cpp:411] data -> (automatic)
I0109 11:23:12.478755 18073 image_seg_data_layer.cpp:46] Opening file /home/map/liuli/datasets/enet_multclass/train/enet_train_2.list
I0109 11:23:12.496351 18073 image_seg_data_layer.cpp:63] Shuffling data
I0109 11:23:12.498219 18073 image_seg_data_layer.cpp:68] A total of 11994 images.
I0109 11:23:12.532783 18073 image_seg_data_layer.cpp:147] output data size: 4,3,376,1240
I0109 11:23:12.532802 18073 image_seg_data_layer.cpp:151] output label size: 4,1,376,1240
I0109 11:23:12.532809 18073 image_seg_data_layer.cpp:155] output data_dim size: 4,1,1,2
I0109 11:23:12.699908 18073 net.cpp:150] Setting up data
I0109 11:23:12.699971 18073 net.cpp:157] Top shape: 4 3 376 1240 (5594880)
I0109 11:23:12.699983 18073 net.cpp:157] Top shape: 4 1 376 1240 (1864960)
I0109 11:23:12.699992 18073 net.cpp:157] Top shape: 4 1 1 2 (8)
I0109 11:23:12.700000 18073 net.cpp:165] Memory required for data: 29839392
I0109 11:23:12.700017 18073 layer_factory.hpp:77] Creating layer data_data_0_split
I0109 11:23:12.700044 18073 net.cpp:106] Creating Layer data_data_0_split
I0109 11:23:12.700053 18073 net.cpp:454] data_data_0_split <- data
I0109 11:23:12.700086 18073 net.cpp:411] data_data_0_split -> data_data_0_split_0
I0109 11:23:12.700108 18073 net.cpp:411] data_data_0_split -> data_data_0_split_1
I0109 11:23:12.700198 18073 net.cpp:150] Setting up data_data_0_split
I0109 11:23:12.700212 18073 net.cpp:157] Top shape: 4 3 376 1240 (5594880)
I0109 11:23:12.700220 18073 net.cpp:157] Top shape: 4 3 376 1240 (5594880)
I0109 11:23:12.700227 18073 net.cpp:165] Memory required for data: 74598432
I0109 11:23:12.700233 18073 layer_factory.hpp:77] Creating layer label_data_1_split
I0109 11:23:12.700243 18073 net.cpp:106] Creating Layer label_data_1_split
I0109 11:23:12.700268 18073 net.cpp:454] label_data_1_split <- label
I0109 11:23:12.700290 18073 net.cpp:411] label_data_1_split -> label_data_1_split_0
I0109 11:23:12.700302 18073 net.cpp:411] label_data_1_split -> label_data_1_split_1
I0109 11:23:12.700348 18073 net.cpp:150] Setting up label_data_1_split
I0109 11:23:12.700361 18073 net.cpp:157] Top shape: 4 1 376 1240 (1864960)
I0109 11:23:12.700368 18073 net.cpp:157] Top shape: 4 1 376 1240 (1864960)
I0109 11:23:12.700374 18073 net.cpp:165] Memory required for data: 89518112
I0109 11:23:12.700381 18073 layer_factory.hpp:77] Creating layer enet_initial_branch2a
I0109 11:23:12.700417 18073 net.cpp:106] Creating Layer enet_initial_branch2a
I0109 11:23:12.700425 18073 net.cpp:454] enet_initial_branch2a <- data_data_0_split_0
I0109 11:23:12.700438 18073 net.cpp:411] enet_initial_branch2a -> enet_initial_branch2a
I0109 11:23:12.855875 18073 net.cpp:150] Setting up enet_initial_branch2a
I0109 11:23:12.855924 18073 net.cpp:157] Top shape: 4 13 188 620 (6061120)
I0109 11:23:12.855934 18073 net.cpp:165] Memory required for data: 113762592
I0109 11:23:12.855969 18073 layer_factory.hpp:77] Creating layer pool_initial_branch1a
I0109 11:23:12.855995 18073 net.cpp:106] Creating Layer pool_initial_branch1a
I0109 11:23:12.856004 18073 net.cpp:454] pool_initial_branch1a <- data_data_0_split_1
I0109 11:23:12.856019 18073 net.cpp:411] pool_initial_branch1a -> pool_initial_branch1a
I0109 11:23:12.856113 18073 net.cpp:150] Setting up pool_initial_branch1a
I0109 11:23:12.856128 18073 net.cpp:157] Top shape: 4 3 188 620 (1398720)
I0109 11:23:12.856135 18073 net.cpp:165] Memory required for data: 119357472
I0109 11:23:12.856142 18073 layer_factory.hpp:77] Creating layer enet_initial
I0109 11:23:12.856158 18073 net.cpp:106] Creating Layer enet_initial
I0109 11:23:12.856165 18073 net.cpp:454] enet_initial <- enet_initial_branch2a
I0109 11:23:12.856174 18073 net.cpp:454] enet_initial <- pool_initial_branch1a
I0109 11:23:12.856186 18073 net.cpp:411] enet_initial -> enet_initial
I0109 11:23:12.856227 18073 net.cpp:150] Setting up enet_initial
I0109 11:23:12.856240 18073 net.cpp:157] Top shape: 4 16 188 620 (7459840)
I0109 11:23:12.856246 18073 net.cpp:165] Memory required for data: 149196832
I0109 11:23:12.856252 18073 layer_factory.hpp:77] Creating layer bn_initial
I0109 11:23:12.856278 18073 net.cpp:106] Creating Layer bn_initial
I0109 11:23:12.856287 18073 net.cpp:454] bn_initial <- enet_initial
I0109 11:23:12.856297 18073 net.cpp:397] bn_initial -> enet_initial (in-place)
I0109 11:23:12.857552 18073 net.cpp:150] Setting up bn_initial
I0109 11:23:12.857568 18073 net.cpp:157] Top shape: 4 16 188 620 (7459840)
I0109 11:23:12.857575 18073 net.cpp:165] Memory required for data: 179036192
I0109 11:23:12.857590 18073 layer_factory.hpp:77] Creating layer relu_initial
I0109 11:23:12.857609 18073 net.cpp:106] Creating Layer relu_initial
I0109 11:23:12.857616 18073 net.cpp:454] relu_initial <- enet_initial
I0109 11:23:12.857626 18073 net.cpp:397] relu_initial -> enet_initial (in-place)
I0109 11:23:12.864915 18073 net.cpp:150] Setting up relu_initial
I0109 11:23:12.864938 18073 net.cpp:157] Top shape: 4 16 188 620 (7459840)
I0109 11:23:12.864945 18073 net.cpp:165] Memory required for data: 208875552
I0109 11:23:12.864960 18073 layer_factory.hpp:77] Creating layer enet_initial_relu_initial_0_split
I0109 11:23:12.864979 18073 net.cpp:106] Creating Layer enet_initial_relu_initial_0_split
I0109 11:23:12.864985 18073 net.cpp:454] enet_initial_relu_initial_0_split <- enet_initial
I0109 11:23:12.864997 18073 net.cpp:411] enet_initial_relu_initial_0_split -> enet_initial_relu_initial_0_split_0
I0109 11:23:12.865010 18073 net.cpp:411] enet_initial_relu_initial_0_split -> enet_initial_relu_initial_0_split_1
I0109 11:23:12.865066 18073 net.cpp:150] Setting up enet_initial_relu_initial_0_split
I0109 11:23:12.865077 18073 net.cpp:157] Top shape: 4 16 188 620 (7459840)
I0109 11:23:12.865085 18073 net.cpp:157] Top shape: 4 16 188 620 (7459840)
I0109 11:23:12.865092 18073 net.cpp:165] Memory required for data: 268554272
I0109 11:23:12.865114 18073 layer_factory.hpp:77] Creating layer enet1_0_branch2a
I0109 11:23:12.865152 18073 net.cpp:106] Creating Layer enet1_0_branch2a
I0109 11:23:12.865160 18073 net.cpp:454] enet1_0_branch2a <- enet_initial_relu_initial_0_split_0
I0109 11:23:12.865175 18073 net.cpp:411] enet1_0_branch2a -> enet1_0_branch2a
I0109 11:23:12.868044 18073 net.cpp:150] Setting up enet1_0_branch2a
I0109 11:23:12.868063 18073 net.cpp:157] Top shape: 4 16 94 310 (1864960)
I0109 11:23:12.868072 18073 net.cpp:165] Memory required for data: 276014112
I0109 11:23:12.868082 18073 layer_factory.hpp:77] Creating layer bn1_0_branch2a
I0109 11:23:12.868098 18073 net.cpp:106] Creating Layer bn1_0_branch2a
I0109 11:23:12.868106 18073 net.cpp:454] bn1_0_branch2a <- enet1_0_branch2a
I0109 11:23:12.868119 18073 net.cpp:397] bn1_0_branch2a -> enet1_0_branch2a (in-place)
I0109 11:23:12.869472 18073 net.cpp:150] Setting up bn1_0_branch2a
I0109 11:23:12.869490 18073 net.cpp:157] Top shape: 4 16 94 310 (1864960)
I0109 11:23:12.869498 18073 net.cpp:165] Memory required for data: 283473952
I0109 11:23:12.869509 18073 layer_factory.hpp:77] Creating layer relu1_0_branch2a
I0109 11:23:12.869520 18073 net.cpp:106] Creating Layer relu1_0_branch2a
I0109 11:23:12.869529 18073 net.cpp:454] relu1_0_branch2a <- enet1_0_branch2a
I0109 11:23:12.869540 18073 net.cpp:397] relu1_0_branch2a -> enet1_0_branch2a (in-place)
I0109 11:23:12.871794 18073 net.cpp:150] Setting up relu1_0_branch2a
I0109 11:23:12.871811 18073 net.cpp:157] Top shape: 4 16 94 310 (1864960)
I0109 11:23:12.871819 18073 net.cpp:165] Memory required for data: 290933792
I0109 11:23:12.871834 18073 layer_factory.hpp:77] Creating layer enet1_0_branch2b
I0109 11:23:12.871851 18073 net.cpp:106] Creating Layer enet1_0_branch2b
I0109 11:23:12.871860 18073 net.cpp:454] enet1_0_branch2b <- enet1_0_branch2a
I0109 11:23:12.871873 18073 net.cpp:411] enet1_0_branch2b -> enet1_0_branch2b
I0109 11:23:12.875838 18073 net.cpp:150] Setting up enet1_0_branch2b
I0109 11:23:12.875856 18073 net.cpp:157] Top shape: 4 16 94 310 (1864960)
I0109 11:23:12.875864 18073 net.cpp:165] Memory required for data: 298393632
I0109 11:23:12.875875 18073 layer_factory.hpp:77] Creating layer bn1_0_branch2b
I0109 11:23:12.875891 18073 net.cpp:106] Creating Layer bn1_0_branch2b
I0109 11:23:12.875900 18073 net.cpp:454] bn1_0_branch2b <- enet1_0_branch2b
I0109 11:23:12.875913 18073 net.cpp:397] bn1_0_branch2b -> enet1_0_branch2b (in-place)
I0109 11:23:12.876206 18073 net.cpp:150] Setting up bn1_0_branch2b
I0109 11:23:12.876221 18073 net.cpp:157] Top shape: 4 16 94 310 (1864960)
I0109 11:23:12.876227 18073 net.cpp:165] Memory required for data: 305853472
I0109 11:23:12.876238 18073 layer_factory.hpp:77] Creating layer relu1_0_branch2b
I0109 11:23:12.876248 18073 net.cpp:106] Creating Layer relu1_0_branch2b
I0109 11:23:12.876255 18073 net.cpp:454] relu1_0_branch2b <- enet1_0_branch2b
I0109 11:23:12.876265 18073 net.cpp:397] relu1_0_branch2b -> enet1_0_branch2b (in-place)
I0109 11:23:12.879462 18073 net.cpp:150] Setting up relu1_0_branch2b
I0109 11:23:12.879480 18073 net.cpp:157] Top shape: 4 16 94 310 (1864960)
I0109 11:23:12.879487 18073 net.cpp:165] Memory required for data: 313313312
I0109 11:23:12.879498 18073 layer_factory.hpp:77] Creating layer enet1_0_branch2c
I0109 11:23:12.879513 18073 net.cpp:106] Creating Layer enet1_0_branch2c
I0109 11:23:12.879521 18073 net.cpp:454] enet1_0_branch2c <- enet1_0_branch2b
I0109 11:23:12.879535 18073 net.cpp:411] enet1_0_branch2c -> enet1_0_branch2c
I0109 11:23:12.882426 18073 net.cpp:150] Setting up enet1_0_branch2c
I0109 11:23:12.882444 18073 net.cpp:157] Top shape: 4 64 94 310 (7459840)
I0109 11:23:12.882452 18073 net.cpp:165] Memory required for data: 343152672
I0109 11:23:12.882462 18073 layer_factory.hpp:77] Creating layer bn1_0_branch2c
I0109 11:23:12.882479 18073 net.cpp:106] Creating Layer bn1_0_branch2c
I0109 11:23:12.882488 18073 net.cpp:454] bn1_0_branch2c <- enet1_0_branch2c
I0109 11:23:12.882501 18073 net.cpp:397] bn1_0_branch2c -> enet1_0_branch2c (in-place)
I0109 11:23:12.882827 18073 net.cpp:150] Setting up bn1_0_branch2c
I0109 11:23:12.882851 18073 net.cpp:157] Top shape: 4 64 94 310 (7459840)
I0109 11:23:12.882858 18073 net.cpp:165] Memory required for data: 372992032
I0109 11:23:12.882872 18073 layer_factory.hpp:77] Creating layer dropout1_0_branch2c
I0109 11:23:12.882889 18073 net.cpp:106] Creating Layer dropout1_0_branch2c
I0109 11:23:12.882897 18073 net.cpp:454] dropout1_0_branch2c <- enet1_0_branch2c
I0109 11:23:12.882912 18073 net.cpp:397] dropout1_0_branch2c -> enet1_0_branch2c (in-place)
I0109 11:23:12.882964 18073 net.cpp:150] Setting up dropout1_0_branch2c
I0109 11:23:12.882982 18073 net.cpp:157] Top shape: 4 64 94 310 (7459840)
I0109 11:23:12.882988 18073 net.cpp:165] Memory required for data: 402831392
I0109 11:23:12.882995 18073 layer_factory.hpp:77] Creating layer enet1_0_branch1a
I0109 11:23:12.883008 18073 net.cpp:106] Creating Layer enet1_0_branch1a
I0109 11:23:12.883015 18073 net.cpp:454] enet1_0_branch1a <- enet_initial_relu_initial_0_split_1
I0109 11:23:12.883029 18073 net.cpp:411] enet1_0_branch1a -> enet1_0_branch1a
I0109 11:23:12.885808 18073 net.cpp:150] Setting up enet1_0_branch1a
I0109 11:23:12.885826 18073 net.cpp:157] Top shape: 4 64 188 620 (29839360)
I0109 11:23:12.885834 18073 net.cpp:165] Memory required for data: 522188832
I0109 11:23:12.885844 18073 layer_factory.hpp:77] Creating layer bn1_0_branch1a
I0109 11:23:12.885859 18073 net.cpp:106] Creating Layer bn1_0_branch1a
I0109 11:23:12.885867 18073 net.cpp:454] bn1_0_branch1a <- enet1_0_branch1a
I0109 11:23:12.885884 18073 net.cpp:397] bn1_0_branch1a -> enet1_0_branch1a (in-place)
I0109 11:23:12.887183 18073 net.cpp:150] Setting up bn1_0_branch1a
I0109 11:23:12.887202 18073 net.cpp:157] Top shape: 4 64 188 620 (29839360)
I0109 11:23:12.887208 18073 net.cpp:165] Memory required for data: 641546272
I0109 11:23:12.887219 18073 layer_factory.hpp:77] Creating layer pool1_0_branch1a
I0109 11:23:12.887228 18073 layer_factory.cpp:91] cuDNN does not support multiple tops. Using Caffe's own pooling layer.
I0109 11:23:12.887238 18073 net.cpp:106] Creating Layer pool1_0_branch1a
I0109 11:23:12.887244 18073 net.cpp:454] pool1_0_branch1a <- enet1_0_branch1a
I0109 11:23:12.887255 18073 net.cpp:411] pool1_0_branch1a -> pool1_0_branch1a
I0109 11:23:12.887270 18073 net.cpp:411] pool1_0_branch1a -> pool1_0_branch1a_mask
I0109 11:23:12.887328 18073 net.cpp:150] Setting up pool1_0_branch1a
I0109 11:23:12.887342 18073 net.cpp:157] Top shape: 4 64 94 310 (7459840)
I0109 11:23:12.887351 18073 net.cpp:157] Top shape: 4 64 94 310 (7459840)
I0109 11:23:12.887356 18073 net.cpp:165] Memory required for data: 701224992
I0109 11:23:12.887362 18073 layer_factory.hpp:77] Creating layer enet1_0
I0109 11:23:12.887377 18073 net.cpp:106] Creating Layer enet1_0
I0109 11:23:12.887384 18073 net.cpp:454] enet1_0 <- pool1_0_branch1a
I0109 11:23:12.887395 18073 net.cpp:454] enet1_0 <- enet1_0_branch2c
I0109 11:23:12.887405 18073 net.cpp:411] enet1_0 -> enet1_0
I0109 11:23:12.887452 18073 net.cpp:150] Setting up enet1_0
I0109 11:23:12.887465 18073 net.cpp:157] Top shape: 4 64 94 310 (7459840)
I0109 11:23:12.887471 18073 net.cpp:165] Memory required for data: 731064352
I0109 11:23:12.887478 18073 layer_factory.hpp:77] Creating layer relu1_0
I0109 11:23:12.887487 18073 net.cpp:106] Creating Layer relu1_0
I0109 11:23:12.887493 18073 net.cpp:454] relu1_0 <- enet1_0
I0109 11:23:12.887506 18073 net.cpp:397] relu1_0 -> enet1_0 (in-place)
I0109 11:23:12.894789 18073 net.cpp:150] Setting up relu1_0
I0109 11:23:12.894814 18073 net.cpp:157] Top shape: 4 64 94 310 (7459840)
I0109 11:23:12.894820 18073 net.cpp:165] Memory required for data: 760903712
I0109 11:23:12.894830 18073 layer_factory.hpp:77] Creating layer enet1_0_relu1_0_0_split
I0109 11:23:12.894845 18073 net.cpp:106] Creating Layer enet1_0_relu1_0_0_split
I0109 11:23:12.894853 18073 net.cpp:454] enet1_0_relu1_0_0_split <- enet1_0
I0109 11:23:12.894865 18073 net.cpp:411] enet1_0_relu1_0_0_split -> enet1_0_relu1_0_0_split_0
I0109 11:23:12.894879 18073 net.cpp:411] enet1_0_relu1_0_0_split -> enet1_0_relu1_0_0_split_1
I0109 11:23:12.894944 18073 net.cpp:150] Setting up enet1_0_relu1_0_0_split
I0109 11:23:12.894968 18073 net.cpp:157] Top shape: 4 64 94 310 (7459840)
I0109 11:23:12.894976 18073 net.cpp:157] Top shape: 4 64 94 310 (7459840)
I0109 11:23:12.894982 18073 net.cpp:165] Memory required for data: 820582432
I0109 11:23:12.894989 18073 layer_factory.hpp:77] Creating layer enet1_1_branch2a
I0109 11:23:12.895002 18073 net.cpp:106] Creating Layer enet1_1_branch2a
I0109 11:23:12.895010 18073 net.cpp:454] enet1_1_branch2a <- enet1_0_relu1_0_0_split_0
I0109 11:23:12.895025 18073 net.cpp:411] enet1_1_branch2a -> enet1_1_branch2a
I0109 11:23:12.898835 18073 net.cpp:150] Setting up enet1_1_branch2a
I0109 11:23:12.898857 18073 net.cpp:157] Top shape: 4 16 94 310 (1864960)
I0109 11:23:12.898865 18073 net.cpp:165] Memory required for data: 828042272
I0109 11:23:12.898875 18073 layer_factory.hpp:77] Creating layer bn1_1_branch2a
I0109 11:23:12.898888 18073 net.cpp:106] Creating Layer bn1_1_branch2a
I0109 11:23:12.898896 18073 net.cpp:454] bn1_1_branch2a <- enet1_1_branch2a
I0109 11:23:12.898910 18073 net.cpp:397] bn1_1_branch2a -> enet1_1_branch2a (in-place)
I0109 11:23:12.900276 18073 net.cpp:150] Setting up bn1_1_branch2a
I0109 11:23:12.900295 18073 net.cpp:157] Top shape: 4 16 94 310 (1864960)
I0109 11:23:12.900301 18073 net.cpp:165] Memory required for data: 835502112
I0109 11:23:12.900312 18073 layer_factory.hpp:77] Creating layer relu1_1_branch2a
I0109 11:23:12.900323 18073 net.cpp:106] Creating Layer relu1_1_branch2a
I0109 11:23:12.900331 18073 net.cpp:454] relu1_1_branch2a <- enet1_1_branch2a
I0109 11:23:12.900341 18073 net.cpp:397] relu1_1_branch2a -> enet1_1_branch2a (in-place)
I0109 11:23:12.902705 18073 net.cpp:150] Setting up relu1_1_branch2a
I0109 11:23:12.902724 18073 net.cpp:157] Top shape: 4 16 94 310 (1864960)
I0109 11:23:12.902730 18073 net.cpp:165] Memory required for data: 842961952
I0109 11:23:12.902740 18073 layer_factory.hpp:77] Creating layer enet1_1_branch2b
I0109 11:23:12.902760 18073 net.cpp:106] Creating Layer enet1_1_branch2b
I0109 11:23:12.902770 18073 net.cpp:454] enet1_1_branch2b <- enet1_1_branch2a
I0109 11:23:12.902783 18073 net.cpp:411] enet1_1_branch2b -> enet1_1_branch2b
I0109 11:23:12.905725 18073 net.cpp:150] Setting up enet1_1_branch2b
I0109 11:23:12.905743 18073 net.cpp:157] Top shape: 4 16 94 310 (1864960)
I0109 11:23:12.905753 18073 net.cpp:165] Memory required for data: 850421792
I0109 11:23:12.905769 18073 layer_factory.hpp:77] Creating layer bn1_1_branch2b
I0109 11:23:12.905782 18073 net.cpp:106] Creating Layer bn1_1_branch2b
I0109 11:23:12.905791 18073 net.cpp:454] bn1_1_branch2b <- enet1_1_branch2b
I0109 11:23:12.905803 18073 net.cpp:397] bn1_1_branch2b -> enet1_1_branch2b (in-place)
I0109 11:23:12.906124 18073 net.cpp:150] Setting up bn1_1_branch2b
I0109 11:23:12.906139 18073 net.cpp:157] Top shape: 4 16 94 310 (1864960)
I0109 11:23:12.906146 18073 net.cpp:165] Memory required for data: 857881632
I0109 11:23:12.906157 18073 layer_factory.hpp:77] Creating layer relu1_1_branch2b
I0109 11:23:12.906169 18073 net.cpp:106] Creating Layer relu1_1_branch2b
I0109 11:23:12.906177 18073 net.cpp:454] relu1_1_branch2b <- enet1_1_branch2b
I0109 11:23:12.906185 18073 net.cpp:397] relu1_1_branch2b -> enet1_1_branch2b (in-place)
I0109 11:23:12.908234 18073 net.cpp:150] Setting up relu1_1_branch2b
I0109 11:23:12.908252 18073 net.cpp:157] Top shape: 4 16 94 310 (1864960)
I0109 11:23:12.908258 18073 net.cpp:165] Memory required for data: 865341472
I0109 11:23:12.908268 18073 layer_factory.hpp:77] Creating layer enet1_1_branch2c
I0109 11:23:12.908285 18073 net.cpp:106] Creating Layer enet1_1_branch2c
I0109 11:23:12.908293 18073 net.cpp:454] enet1_1_branch2c <- enet1_1_branch2b
I0109 11:23:12.908306 18073 net.cpp:411] enet1_1_branch2c -> enet1_1_branch2c
I0109 11:23:12.912062 18073 net.cpp:150] Setting up enet1_1_branch2c
I0109 11:23:12.912081 18073 net.cpp:157] Top shape: 4 64 94 310 (7459840)
I0109 11:23:12.912089 18073 net.cpp:165] Memory required for data: 895180832
I0109 11:23:12.912113 18073 layer_factory.hpp:77] Creating layer bn1_1_branch2c
I0109 11:23:12.912142 18073 net.cpp:106] Creating Layer bn1_1_branch2c
I0109 11:23:12.912150 18073 net.cpp:454] bn1_1_branch2c <- enet1_1_branch2c
I0109 11:23:12.912163 18073 net.cpp:397] bn1_1_branch2c -> enet1_1_branch2c (in-place)
I0109 11:23:12.912495 18073 net.cpp:150] Setting up bn1_1_branch2c
I0109 11:23:12.912510 18073 net.cpp:157] Top shape: 4 64 94 310 (7459840)
I0109 11:23:12.912518 18073 net.cpp:165] Memory required for data: 925020192
I0109 11:23:12.912535 18073 layer_factory.hpp:77] Creating layer dropout1_1_branch2c
I0109 11:23:12.912555 18073 net.cpp:106] Creating Layer dropout1_1_branch2c
I0109 11:23:12.912564 18073 net.cpp:454] dropout1_1_branch2c <- enet1_1_branch2c
I0109 11:23:12.912573 18073 net.cpp:397] dropout1_1_branch2c -> enet1_1_branch2c (in-place)
I0109 11:23:12.912617 18073 net.cpp:150] Setting up dropout1_1_branch2c
I0109 11:23:12.912629 18073 net.cpp:157] Top shape: 4 64 94 310 (7459840)
I0109 11:23:12.912636 18073 net.cpp:165] Memory required for data: 954859552
I0109 11:23:12.912642 18073 layer_factory.hpp:77] Creating layer enet1_1
I0109 11:23:12.912652 18073 net.cpp:106] Creating Layer enet1_1
I0109 11:23:12.912659 18073 net.cpp:454] enet1_1 <- enet1_0_relu1_0_0_split_1
I0109 11:23:12.912668 18073 net.cpp:454] enet1_1 <- enet1_1_branch2c
I0109 11:23:12.912681 18073 net.cpp:411] enet1_1 -> enet1_1
I0109 11:23:12.912720 18073 net.cpp:150] Setting up enet1_1
I0109 11:23:12.912736 18073 net.cpp:157] Top shape: 4 64 94 310 (7459840)
I0109 11:23:12.912744 18073 net.cpp:165] Memory required for data: 984698912
I0109 11:23:12.912750 18073 layer_factory.hpp:77] Creating layer relu1_1
I0109 11:23:12.912763 18073 net.cpp:106] Creating Layer relu1_1
I0109 11:23:12.912770 18073 net.cpp:454] relu1_1 <- enet1_1
I0109 11:23:12.912781 18073 net.cpp:397] relu1_1 -> enet1_1 (in-place)
I0109 11:23:12.920207 18073 net.cpp:150] Setting up relu1_1
I0109 11:23:12.920238 18073 net.cpp:157] Top shape: 4 64 94 310 (7459840)
I0109 11:23:12.920244 18073 net.cpp:165] Memory required for data: 1014538272
I0109 11:23:12.920256 18073 layer_factory.hpp:77] Creating layer enet1_1_relu1_1_0_split
I0109 11:23:12.920270 18073 net.cpp:106] Creating Layer enet1_1_relu1_1_0_split
I0109 11:23:12.920279 18073 net.cpp:454] enet1_1_relu1_1_0_split <- enet1_1
I0109 11:23:12.920294 18073 net.cpp:411] enet1_1_relu1_1_0_split -> enet1_1_relu1_1_0_split_0
I0109 11:23:12.920308 18073 net.cpp:411] enet1_1_relu1_1_0_split -> enet1_1_relu1_1_0_split_1
I0109 11:23:12.920372 18073 net.cpp:150] Setting up enet1_1_relu1_1_0_split
I0109 11:23:12.920385 18073 net.cpp:157] Top shape: 4 64 94 310 (7459840)
I0109 11:23:12.920394 18073 net.cpp:157] Top shape: 4 64 94 310 (7459840)
I0109 11:23:12.920400 18073 net.cpp:165] Memory required for data: 1074216992
I0109 11:23:12.920406 18073 layer_factory.hpp:77] Creating layer enet1_2_branch2a
I0109 11:23:12.920423 18073 net.cpp:106] Creating Layer enet1_2_branch2a
I0109 11:23:12.920431 18073 net.cpp:454] enet1_2_branch2a <- enet1_1_relu1_1_0_split_0
I0109 11:23:12.920445 18073 net.cpp:411] enet1_2_branch2a -> enet1_2_branch2a
I0109 11:23:12.923523 18073 net.cpp:150] Setting up enet1_2_branch2a
I0109 11:23:12.923542 18073 net.cpp:157] Top shape: 4 16 94 310 (1864960)
I0109 11:23:12.923549 18073 net.cpp:165] Memory required for data: 1081676832
I0109 11:23:12.923559 18073 layer_factory.hpp:77] Creating layer bn1_2_branch2a
I0109 11:23:12.923576 18073 net.cpp:106] Creating Layer bn1_2_branch2a
I0109 11:23:12.923584 18073 net.cpp:454] bn1_2_branch2a <- enet1_2_branch2a
I0109 11:23:12.923600 18073 net.cpp:397] bn1_2_branch2a -> enet1_2_branch2a (in-place)
I0109 11:23:12.923967 18073 net.cpp:150] Setting up bn1_2_branch2a
I0109 11:23:12.923982 18073 net.cpp:157] Top shape: 4 16 94 310 (1864960)
I0109 11:23:12.923990 18073 net.cpp:165] Memory required for data: 1089136672
I0109 11:23:12.924000 18073 layer_factory.hpp:77] Creating layer relu1_2_branch2a
I0109 11:23:12.924015 18073 net.cpp:106] Creating Layer relu1_2_branch2a
I0109 11:23:12.924036 18073 net.cpp:454] relu1_2_branch2a <- enet1_2_branch2a
I0109 11:23:12.924058 18073 net.cpp:397] relu1_2_branch2a -> enet1_2_branch2a (in-place)
I0109 11:23:12.926153 18073 net.cpp:150] Setting up relu1_2_branch2a
I0109 11:23:12.926172 18073 net.cpp:157] Top shape: 4 16 94 310 (1864960)
I0109 11:23:12.926178 18073 net.cpp:165] Memory required for data: 1096596512
I0109 11:23:12.926188 18073 layer_factory.hpp:77] Creating layer enet1_2_branch2b
I0109 11:23:12.926205 18073 net.cpp:106] Creating Layer enet1_2_branch2b
I0109 11:23:12.926213 18073 net.cpp:454] enet1_2_branch2b <- enet1_2_branch2a
I0109 11:23:12.926228 18073 net.cpp:411] enet1_2_branch2b -> enet1_2_branch2b
I0109 11:23:12.930371 18073 net.cpp:150] Setting up enet1_2_branch2b
I0109 11:23:12.930393 18073 net.cpp:157] Top shape: 4 16 94 310 (1864960)
I0109 11:23:12.930402 18073 net.cpp:165] Memory required for data: 1104056352
I0109 11:23:12.930413 18073 layer_factory.hpp:77] Creating layer bn1_2_branch2b
I0109 11:23:12.930428 18073 net.cpp:106] Creating Layer bn1_2_branch2b
I0109 11:23:12.930436 18073 net.cpp:454] bn1_2_branch2b <- enet1_2_branch2b
I0109 11:23:12.930447 18073 net.cpp:397] bn1_2_branch2b -> enet1_2_branch2b (in-place)
I0109 11:23:12.930788 18073 net.cpp:150] Setting up bn1_2_branch2b
I0109 11:23:12.930804 18073 net.cpp:157] Top shape: 4 16 94 310 (1864960)
I0109 11:23:12.930809 18073 net.cpp:165] Memory required for data: 1111516192
I0109 11:23:12.930820 18073 layer_factory.hpp:77] Creating layer relu1_2_branch2b
I0109 11:23:12.930830 18073 net.cpp:106] Creating Layer relu1_2_branch2b
I0109 11:23:12.930837 18073 net.cpp:454] relu1_2_branch2b <- enet1_2_branch2b
I0109 11:23:12.930850 18073 net.cpp:397] relu1_2_branch2b -> enet1_2_branch2b (in-place)
I0109 11:23:12.933250 18073 net.cpp:150] Setting up relu1_2_branch2b
I0109 11:23:12.933267 18073 net.cpp:157] Top shape: 4 16 94 310 (1864960)
I0109 11:23:12.933274 18073 net.cpp:165] Memory required for data: 1118976032
I0109 11:23:12.933284 18073 layer_factory.hpp:77] Creating layer enet1_2_branch2c
I0109 11:23:12.933305 18073 net.cpp:106] Creating Layer enet1_2_branch2c
I0109 11:23:12.933313 18073 net.cpp:454] enet1_2_branch2c <- enet1_2_branch2b
I0109 11:23:12.933326 18073 net.cpp:411] enet1_2_branch2c -> enet1_2_branch2c
I0109 11:23:12.936545 18073 net.cpp:150] Setting up enet1_2_branch2c
I0109 11:23:12.936563 18073 net.cpp:157] Top shape: 4 64 94 310 (7459840)
I0109 11:23:12.936571 18073 net.cpp:165] Memory required for data: 1148815392
I0109 11:23:12.936581 18073 layer_factory.hpp:77] Creating layer bn1_2_branch2c
I0109 11:23:12.936596 18073 net.cpp:106] Creating Layer bn1_2_branch2c
I0109 11:23:12.936604 18073 net.cpp:454] bn1_2_branch2c <- enet1_2_branch2c
I0109 11:23:12.936617 18073 net.cpp:397] bn1_2_branch2c -> enet1_2_branch2c (in-place)
I0109 11:23:12.936961 18073 net.cpp:150] Setting up bn1_2_branch2c
I0109 11:23:12.936976 18073 net.cpp:157] Top shape: 4 64 94 310 (7459840)
I0109 11:23:12.936983 18073 net.cpp:165] Memory required for data: 1178654752
I0109 11:23:12.936993 18073 layer_factory.hpp:77] Creating layer dropout1_2_branch2c
I0109 11:23:12.937005 18073 net.cpp:106] Creating Layer dropout1_2_branch2c
I0109 11:23:12.937012 18073 net.cpp:454] dropout1_2_branch2c <- enet1_2_branch2c
I0109 11:23:12.937022 18073 net.cpp:397] dropout1_2_branch2c -> enet1_2_branch2c (in-place)
I0109 11:23:12.937067 18073 net.cpp:150] Setting up dropout1_2_branch2c
I0109 11:23:12.937079 18073 net.cpp:157] Top shape: 4 64 94 310 (7459840)
I0109 11:23:12.937086 18073 net.cpp:165] Memory required for data: 1208494112
I0109 11:23:12.937093 18073 layer_factory.hpp:77] Creating layer enet1_2
I0109 11:23:12.937103 18073 net.cpp:106] Creating Layer enet1_2
I0109 11:23:12.937110 18073 net.cpp:454] enet1_2 <- enet1_1_relu1_1_0_split_1
I0109 11:23:12.937119 18073 net.cpp:454] enet1_2 <- enet1_2_branch2c
I0109 11:23:12.937130 18073 net.cpp:411] enet1_2 -> enet1_2
I0109 11:23:12.937170 18073 net.cpp:150] Setting up enet1_2
I0109 11:23:12.937182 18073 net.cpp:157] Top shape: 4 64 94 310 (7459840)
I0109 11:23:12.937198 18073 net.cpp:165] Memory required for data: 1238333472
I0109 11:23:12.937214 18073 layer_factory.hpp:77] Creating layer relu1_2
I0109 11:23:12.937227 18073 net.cpp:106] Creating Layer relu1_2
I0109 11:23:12.937234 18073 net.cpp:454] relu1_2 <- enet1_2
I0109 11:23:12.937247 18073 net.cpp:397] relu1_2 -> enet1_2 (in-place)
I0109 11:23:12.966867 18073 net.cpp:150] Setting up relu1_2
I0109 11:23:12.966897 18073 net.cpp:157] Top shape: 4 64 94 310 (7459840)
I0109 11:23:12.966904 18073 net.cpp:165] Memory required for data: 1268172832
I0109 11:23:12.966917 18073 layer_factory.hpp:77] Creating layer enet1_2_relu1_2_0_split
I0109 11:23:12.966933 18073 net.cpp:106] Creating Layer enet1_2_relu1_2_0_split
I0109 11:23:12.966941 18073 net.cpp:454] enet1_2_relu1_2_0_split <- enet1_2
I0109 11:23:12.966953 18073 net.cpp:411] enet1_2_relu1_2_0_split -> enet1_2_relu1_2_0_split_0
I0109 11:23:12.966966 18073 net.cpp:411] enet1_2_relu1_2_0_split -> enet1_2_relu1_2_0_split_1
I0109 11:23:12.967042 18073 net.cpp:150] Setting up enet1_2_relu1_2_0_split
I0109 11:23:12.967056 18073 net.cpp:157] Top shape: 4 64 94 310 (7459840)
I0109 11:23:12.967066 18073 net.cpp:157] Top shape: 4 64 94 310 (7459840)
I0109 11:23:12.967072 18073 net.cpp:165] Memory required for data: 1327851552
I0109 11:23:12.967078 18073 layer_factory.hpp:77] Creating layer enet1_3_branch2a
I0109 11:23:12.967097 18073 net.cpp:106] Creating Layer enet1_3_branch2a
I0109 11:23:12.967104 18073 net.cpp:454] enet1_3_branch2a <- enet1_2_relu1_2_0_split_0
I0109 11:23:12.967116 18073 net.cpp:411] enet1_3_branch2a -> enet1_3_branch2a
I0109 11:23:12.970068 18073 net.cpp:150] Setting up enet1_3_branch2a
I0109 11:23:12.970088 18073 net.cpp:157] Top shape: 4 16 94 310 (1864960)
I0109 11:23:12.970095 18073 net.cpp:165] Memory required for data: 1335311392
I0109 11:23:12.970105 18073 layer_factory.hpp:77] Creating layer bn1_3_branch2a
I0109 11:23:12.970120 18073 net.cpp:106] Creating Layer bn1_3_branch2a
I0109 11:23:12.970129 18073 net.cpp:454] bn1_3_branch2a <- enet1_3_branch2a
I0109 11:23:12.970142 18073 net.cpp:397] bn1_3_branch2a -> enet1_3_branch2a (in-place)
I0109 11:23:12.970510 18073 net.cpp:150] Setting up bn1_3_branch2a
I0109 11:23:12.970525 18073 net.cpp:157] Top shape: 4 16 94 310 (1864960)
I0109 11:23:12.970531 18073 net.cpp:165] Memory required for data: 1342771232
I0109 11:23:12.970542 18073 layer_factory.hpp:77] Creating layer relu1_3_branch2a
I0109 11:23:12.970552 18073 net.cpp:106] Creating Layer relu1_3_branch2a
I0109 11:23:12.970561 18073 net.cpp:454] relu1_3_branch2a <- enet1_3_branch2a
I0109 11:23:12.970569 18073 net.cpp:397] relu1_3_branch2a -> enet1_3_branch2a (in-place)
I0109 11:23:12.973809 18073 net.cpp:150] Setting up relu1_3_branch2a
I0109 11:23:12.973827 18073 net.cpp:157] Top shape: 4 16 94 310 (1864960)
I0109 11:23:12.973834 18073 net.cpp:165] Memory required for data: 1350231072
I0109 11:23:12.973850 18073 layer_factory.hpp:77] Creating layer enet1_3_branch2b
I0109 11:23:12.973866 18073 net.cpp:106] Creating Layer enet1_3_branch2b
I0109 11:23:12.973875 18073 net.cpp:454] enet1_3_branch2b <- enet1_3_branch2a
I0109 11:23:12.973888 18073 net.cpp:411] enet1_3_branch2b -> enet1_3_branch2b
I0109 11:23:12.980275 18073 net.cpp:150] Setting up enet1_3_branch2b
I0109 11:23:12.980301 18073 net.cpp:157] Top shape: 4 16 94 310 (1864960)
I0109 11:23:12.980309 18073 net.cpp:165] Memory required for data: 1357690912
I0109 11:23:12.980322 18073 layer_factory.hpp:77] Creating layer bn1_3_branch2b
I0109 11:23:12.980341 18073 net.cpp:106] Creating Layer bn1_3_branch2b
I0109 11:23:12.980350 18073 net.cpp:454] bn1_3_branch2b <- enet1_3_branch2b
I0109 11:23:12.980365 18073 net.cpp:397] bn1_3_branch2b -> enet1_3_branch2b (in-place)
I0109 11:23:12.981596 18073 net.cpp:150] Setting up bn1_3_branch2b
I0109 11:23:12.981613 18073 net.cpp:157] Top shape: 4 16 94 310 (1864960)
I0109 11:23:12.981621 18073 net.cpp:165] Memory required for data: 1365150752
I0109 11:23:12.981632 18073 layer_factory.hpp:77] Creating layer relu1_3_branch2b
I0109 11:23:12.981642 18073 net.cpp:106] Creating Layer relu1_3_branch2b
I0109 11:23:12.981667 18073 net.cpp:454] relu1_3_branch2b <- enet1_3_branch2b
I0109 11:23:12.981691 18073 net.cpp:397] relu1_3_branch2b -> enet1_3_branch2b (in-place)
I0109 11:23:12.983777 18073 net.cpp:150] Setting up relu1_3_branch2b
I0109 11:23:12.983794 18073 net.cpp:157] Top shape: 4 16 94 310 (1864960)
I0109 11:23:12.983801 18073 net.cpp:165] Memory required for data: 1372610592
I0109 11:23:12.983810 18073 layer_factory.hpp:77] Creating layer enet1_3_branch2c
I0109 11:23:12.983831 18073 net.cpp:106] Creating Layer enet1_3_branch2c
I0109 11:23:12.983839 18073 net.cpp:454] enet1_3_branch2c <- enet1_3_branch2b
I0109 11:23:12.983855 18073 net.cpp:411] enet1_3_branch2c -> enet1_3_branch2c
I0109 11:23:12.986981 18073 net.cpp:150] Setting up enet1_3_branch2c
I0109 11:23:12.987000 18073 net.cpp:157] Top shape: 4 64 94 310 (7459840)
I0109 11:23:12.987009 18073 net.cpp:165] Memory required for data: 1402449952
I0109 11:23:12.987018 18073 layer_factory.hpp:77] Creating layer bn1_3_branch2c
I0109 11:23:12.987033 18073 net.cpp:106] Creating Layer bn1_3_branch2c
I0109 11:23:12.987043 18073 net.cpp:454] bn1_3_branch2c <- enet1_3_branch2c
I0109 11:23:12.987054 18073 net.cpp:397] bn1_3_branch2c -> enet1_3_branch2c (in-place)
I0109 11:23:12.987416 18073 net.cpp:150] Setting up bn1_3_branch2c
I0109 11:23:12.987431 18073 net.cpp:157] Top shape: 4 64 94 310 (7459840)
I0109 11:23:12.987437 18073 net.cpp:165] Memory required for data: 1432289312
I0109 11:23:12.987447 18073 layer_factory.hpp:77] Creating layer dropout1_3_branch2c
I0109 11:23:12.987459 18073 net.cpp:106] Creating Layer dropout1_3_branch2c
I0109 11:23:12.987467 18073 net.cpp:454] dropout1_3_branch2c <- enet1_3_branch2c
I0109 11:23:12.987475 18073 net.cpp:397] dropout1_3_branch2c -> enet1_3_branch2c (in-place)
I0109 11:23:12.987521 18073 net.cpp:150] Setting up dropout1_3_branch2c
I0109 11:23:12.987534 18073 net.cpp:157] Top shape: 4 64 94 310 (7459840)
I0109 11:23:12.987540 18073 net.cpp:165] Memory required for data: 1462128672
I0109 11:23:12.987547 18073 layer_factory.hpp:77] Creating layer enet1_3
I0109 11:23:12.987560 18073 net.cpp:106] Creating Layer enet1_3
I0109 11:23:12.987568 18073 net.cpp:454] enet1_3 <- enet1_2_relu1_2_0_split_1
I0109 11:23:12.987577 18073 net.cpp:454] enet1_3 <- enet1_3_branch2c
I0109 11:23:12.987586 18073 net.cpp:411] enet1_3 -> enet1_3
I0109 11:23:12.987630 18073 net.cpp:150] Setting up enet1_3
I0109 11:23:12.987643 18073 net.cpp:157] Top shape: 4 64 94 310 (7459840)
I0109 11:23:12.987649 18073 net.cpp:165] Memory required for data: 1491968032
I0109 11:23:12.987656 18073 layer_factory.hpp:77] Creating layer relu1_3
I0109 11:23:12.987665 18073 net.cpp:106] Creating Layer relu1_3
I0109 11:23:12.987673 18073 net.cpp:454] relu1_3 <- enet1_3
I0109 11:23:12.987684 18073 net.cpp:397] relu1_3 -> enet1_3 (in-place)
I0109 11:23:12.995023 18073 net.cpp:150] Setting up relu1_3
I0109 11:23:12.995046 18073 net.cpp:157] Top shape: 4 64 94 310 (7459840)
I0109 11:23:12.995054 18073 net.cpp:165] Memory required for data: 1521807392
I0109 11:23:12.995064 18073 layer_factory.hpp:77] Creating layer enet1_3_relu1_3_0_split
I0109 11:23:12.995075 18073 net.cpp:106] Creating Layer enet1_3_relu1_3_0_split
I0109 11:23:12.995084 18073 net.cpp:454] enet1_3_relu1_3_0_split <- enet1_3
I0109 11:23:12.995093 18073 net.cpp:411] enet1_3_relu1_3_0_split -> enet1_3_relu1_3_0_split_0
I0109 11:23:12.995111 18073 net.cpp:411] enet1_3_relu1_3_0_split -> enet1_3_relu1_3_0_split_1
I0109 11:23:12.995178 18073 net.cpp:150] Setting up enet1_3_relu1_3_0_split
I0109 11:23:12.995192 18073 net.cpp:157] Top shape: 4 64 94 310 (7459840)
I0109 11:23:12.995199 18073 net.cpp:157] Top shape: 4 64 94 310 (7459840)
I0109 11:23:12.995205 18073 net.cpp:165] Memory required for data: 1581486112
I0109 11:23:12.995213 18073 layer_factory.hpp:77] Creating layer enet1_4_branch2a
I0109 11:23:12.995229 18073 net.cpp:106] Creating Layer enet1_4_branch2a
I0109 11:23:12.995239 18073 net.cpp:454] enet1_4_branch2a <- enet1_3_relu1_3_0_split_0
I0109 11:23:12.995249 18073 net.cpp:411] enet1_4_branch2a -> enet1_4_branch2a
I0109 11:23:12.998360 18073 net.cpp:150] Setting up enet1_4_branch2a
I0109 11:23:12.998391 18073 net.cpp:157] Top shape: 4 16 94 310 (1864960)
I0109 11:23:12.998399 18073 net.cpp:165] Memory required for data: 1588945952
I0109 11:23:12.998409 18073 layer_factory.hpp:77] Creating layer bn1_4_branch2a
I0109 11:23:12.998426 18073 net.cpp:106] Creating Layer bn1_4_branch2a
I0109 11:23:12.998435 18073 net.cpp:454] bn1_4_branch2a <- enet1_4_branch2a
I0109 11:23:12.998448 18073 net.cpp:397] bn1_4_branch2a -> enet1_4_branch2a (in-place)
I0109 11:23:12.998847 18073 net.cpp:150] Setting up bn1_4_branch2a
I0109 11:23:12.998863 18073 net.cpp:157] Top shape: 4 16 94 310 (1864960)
I0109 11:23:12.998869 18073 net.cpp:165] Memory required for data: 1596405792
I0109 11:23:12.998880 18073 layer_factory.hpp:77] Creating layer relu1_4_branch2a
I0109 11:23:12.998891 18073 net.cpp:106] Creating Layer relu1_4_branch2a
I0109 11:23:12.998898 18073 net.cpp:454] relu1_4_branch2a <- enet1_4_branch2a
I0109 11:23:12.998908 18073 net.cpp:397] relu1_4_branch2a -> enet1_4_branch2a (in-place)
I0109 11:23:13.001457 18073 net.cpp:150] Setting up relu1_4_branch2a
I0109 11:23:13.001477 18073 net.cpp:157] Top shape: 4 16 94 310 (1864960)
I0109 11:23:13.001484 18073 net.cpp:165] Memory required for data: 1603865632
I0109 11:23:13.001493 18073 layer_factory.hpp:77] Creating layer enet1_4_branch2b
I0109 11:23:13.001512 18073 net.cpp:106] Creating Layer enet1_4_branch2b
I0109 11:23:13.001520 18073 net.cpp:454] enet1_4_branch2b <- enet1_4_branch2a
I0109 11:23:13.001534 18073 net.cpp:411] enet1_4_branch2b -> enet1_4_branch2b
I0109 11:23:13.004808 18073 net.cpp:150] Setting up enet1_4_branch2b
I0109 11:23:13.004827 18073 net.cpp:157] Top shape: 4 16 94 310 (1864960)
I0109 11:23:13.004834 18073 net.cpp:165] Memory required for data: 1611325472
I0109 11:23:13.004870 18073 layer_factory.hpp:77] Creating layer bn1_4_branch2b
I0109 11:23:13.004901 18073 net.cpp:106] Creating Layer bn1_4_branch2b
I0109 11:23:13.004911 18073 net.cpp:454] bn1_4_branch2b <- enet1_4_branch2b
I0109 11:23:13.004922 18073 net.cpp:397] bn1_4_branch2b -> enet1_4_branch2b (in-place)
I0109 11:23:13.006158 18073 net.cpp:150] Setting up bn1_4_branch2b
I0109 11:23:13.006176 18073 net.cpp:157] Top shape: 4 16 94 310 (1864960)
I0109 11:23:13.006183 18073 net.cpp:165] Memory required for data: 1618785312
I0109 11:23:13.006196 18073 layer_factory.hpp:77] Creating layer relu1_4_branch2b
I0109 11:23:13.006208 18073 net.cpp:106] Creating Layer relu1_4_branch2b
I0109 11:23:13.006217 18073 net.cpp:454] relu1_4_branch2b <- enet1_4_branch2b
I0109 11:23:13.006228 18073 net.cpp:397] relu1_4_branch2b -> enet1_4_branch2b (in-place)
I0109 11:23:13.008304 18073 net.cpp:150] Setting up relu1_4_branch2b
I0109 11:23:13.008322 18073 net.cpp:157] Top shape: 4 16 94 310 (1864960)
I0109 11:23:13.008328 18073 net.cpp:165] Memory required for data: 1626245152
I0109 11:23:13.008338 18073 layer_factory.hpp:77] Creating layer enet1_4_branch2c
I0109 11:23:13.008354 18073 net.cpp:106] Creating Layer enet1_4_branch2c
I0109 11:23:13.008363 18073 net.cpp:454] enet1_4_branch2c <- enet1_4_branch2b
I0109 11:23:13.008376 18073 net.cpp:411] enet1_4_branch2c -> enet1_4_branch2c
I0109 11:23:13.012373 18073 net.cpp:150] Setting up enet1_4_branch2c
I0109 11:23:13.012394 18073 net.cpp:157] Top shape: 4 64 94 310 (7459840)
I0109 11:23:13.012403 18073 net.cpp:165] Memory required for data: 1656084512
I0109 11:23:13.012413 18073 layer_factory.hpp:77] Creating layer bn1_4_branch2c
I0109 11:23:13.012428 18073 net.cpp:106] Creating Layer bn1_4_branch2c
I0109 11:23:13.012435 18073 net.cpp:454] bn1_4_branch2c <- enet1_4_branch2c
I0109 11:23:13.012446 18073 net.cpp:397] bn1_4_branch2c -> enet1_4_branch2c (in-place)
I0109 11:23:13.012837 18073 net.cpp:150] Setting up bn1_4_branch2c
I0109 11:23:13.012856 18073 net.cpp:157] Top shape: 4 64 94 310 (7459840)
I0109 11:23:13.012862 18073 net.cpp:165] Memory required for data: 1685923872
I0109 11:23:13.012873 18073 layer_factory.hpp:77] Creating layer dropout1_4_branch2c
I0109 11:23:13.012893 18073 net.cpp:106] Creating Layer dropout1_4_branch2c
I0109 11:23:13.012912 18073 net.cpp:454] dropout1_4_branch2c <- enet1_4_branch2c
I0109 11:23:13.012924 18073 net.cpp:397] dropout1_4_branch2c -> enet1_4_branch2c (in-place)
I0109 11:23:13.012972 18073 net.cpp:150] Setting up dropout1_4_branch2c
I0109 11:23:13.012989 18073 net.cpp:157] Top shape: 4 64 94 310 (7459840)
I0109 11:23:13.012996 18073 net.cpp:165] Memory required for data: 1715763232
I0109 11:23:13.013002 18073 layer_factory.hpp:77] Creating layer enet1_4
I0109 11:23:13.013013 18073 net.cpp:106] Creating Layer enet1_4
I0109 11:23:13.013020 18073 net.cpp:454] enet1_4 <- enet1_3_relu1_3_0_split_1
I0109 11:23:13.013029 18073 net.cpp:454] enet1_4 <- enet1_4_branch2c
I0109 11:23:13.013038 18073 net.cpp:411] enet1_4 -> enet1_4
I0109 11:23:13.013085 18073 net.cpp:150] Setting up enet1_4
I0109 11:23:13.013098 18073 net.cpp:157] Top shape: 4 64 94 310 (7459840)
I0109 11:23:13.013105 18073 net.cpp:165] Memory required for data: 1745602592
I0109 11:23:13.013111 18073 layer_factory.hpp:77] Creating layer relu1_4
I0109 11:23:13.013123 18073 net.cpp:106] Creating Layer relu1_4
I0109 11:23:13.013130 18073 net.cpp:454] relu1_4 <- enet1_4
I0109 11:23:13.013139 18073 net.cpp:397] relu1_4 -> enet1_4 (in-place)
I0109 11:23:13.020468 18073 net.cpp:150] Setting up relu1_4
I0109 11:23:13.020490 18073 net.cpp:157] Top shape: 4 64 94 310 (7459840)
I0109 11:23:13.020498 18073 net.cpp:165] Memory required for data: 1775441952
I0109 11:23:13.020509 18073 layer_factory.hpp:77] Creating layer enet1_4_relu1_4_0_split
I0109 11:23:13.020520 18073 net.cpp:106] Creating Layer enet1_4_relu1_4_0_split
I0109 11:23:13.020529 18073 net.cpp:454] enet1_4_relu1_4_0_split <- enet1_4
I0109 11:23:13.020542 18073 net.cpp:411] enet1_4_relu1_4_0_split -> enet1_4_relu1_4_0_split_0
I0109 11:23:13.020555 18073 net.cpp:411] enet1_4_relu1_4_0_split -> enet1_4_relu1_4_0_split_1
I0109 11:23:13.020623 18073 net.cpp:150] Setting up enet1_4_relu1_4_0_split
I0109 11:23:13.020637 18073 net.cpp:157] Top shape: 4 64 94 310 (7459840)
I0109 11:23:13.020645 18073 net.cpp:157] Top shape: 4 64 94 310 (7459840)
I0109 11:23:13.020651 18073 net.cpp:165] Memory required for data: 1835120672
I0109 11:23:13.020658 18073 layer_factory.hpp:77] Creating layer enet2_0_branch2a
I0109 11:23:13.020675 18073 net.cpp:106] Creating Layer enet2_0_branch2a
I0109 11:23:13.020684 18073 net.cpp:454] enet2_0_branch2a <- enet1_4_relu1_4_0_split_0
I0109 11:23:13.020695 18073 net.cpp:411] enet2_0_branch2a -> enet2_0_branch2a
I0109 11:23:13.024955 18073 net.cpp:150] Setting up enet2_0_branch2a
I0109 11:23:13.024973 18073 net.cpp:157] Top shape: 4 32 47 155 (932480)
I0109 11:23:13.024981 18073 net.cpp:165] Memory required for data: 1838850592
I0109 11:23:13.024991 18073 layer_factory.hpp:77] Creating layer bn2_0_branch2a
I0109 11:23:13.025007 18073 net.cpp:106] Creating Layer bn2_0_branch2a
I0109 11:23:13.025017 18073 net.cpp:454] bn2_0_branch2a <- enet2_0_branch2a
I0109 11:23:13.025029 18073 net.cpp:397] bn2_0_branch2a -> enet2_0_branch2a (in-place)
I0109 11:23:13.025394 18073 net.cpp:150] Setting up bn2_0_branch2a
I0109 11:23:13.025408 18073 net.cpp:157] Top shape: 4 32 47 155 (932480)
I0109 11:23:13.025415 18073 net.cpp:165] Memory required for data: 1842580512
I0109 11:23:13.025425 18073 layer_factory.hpp:77] Creating layer relu2_0_branch2a
I0109 11:23:13.025436 18073 net.cpp:106] Creating Layer relu2_0_branch2a
I0109 11:23:13.025444 18073 net.cpp:454] relu2_0_branch2a <- enet2_0_branch2a
I0109 11:23:13.025452 18073 net.cpp:397] relu2_0_branch2a -> enet2_0_branch2a (in-place)
I0109 11:23:13.026654 18073 net.cpp:150] Setting up relu2_0_branch2a
I0109 11:23:13.026670 18073 net.cpp:157] Top shape: 4 32 47 155 (932480)
I0109 11:23:13.026677 18073 net.cpp:165] Memory required for data: 1846310432
I0109 11:23:13.026687 18073 layer_factory.hpp:77] Creating layer enet2_0_branch2b
I0109 11:23:13.026705 18073 net.cpp:106] Creating Layer enet2_0_branch2b
I0109 11:23:13.026712 18073 net.cpp:454] enet2_0_branch2b <- enet2_0_branch2a
I0109 11:23:13.026726 18073 net.cpp:411] enet2_0_branch2b -> enet2_0_branch2b
I0109 11:23:13.030328 18073 net.cpp:150] Setting up enet2_0_branch2b
I0109 11:23:13.030346 18073 net.cpp:157] Top shape: 4 32 47 155 (932480)
I0109 11:23:13.030354 18073 net.cpp:165] Memory required for data: 1850040352
I0109 11:23:13.030366 18073 layer_factory.hpp:77] Creating layer bn2_0_branch2b
I0109 11:23:13.030381 18073 net.cpp:106] Creating Layer bn2_0_branch2b
I0109 11:23:13.030390 18073 net.cpp:454] bn2_0_branch2b <- enet2_0_branch2b
I0109 11:23:13.030400 18073 net.cpp:397] bn2_0_branch2b -> enet2_0_branch2b (in-place)
I0109 11:23:13.030774 18073 net.cpp:150] Setting up bn2_0_branch2b
I0109 11:23:13.030789 18073 net.cpp:157] Top shape: 4 32 47 155 (932480)
I0109 11:23:13.030797 18073 net.cpp:165] Memory required for data: 1853770272
I0109 11:23:13.030807 18073 layer_factory.hpp:77] Creating layer relu2_0_branch2b
I0109 11:23:13.030817 18073 net.cpp:106] Creating Layer relu2_0_branch2b
I0109 11:23:13.030823 18073 net.cpp:454] relu2_0_branch2b <- enet2_0_branch2b
I0109 11:23:13.030833 18073 net.cpp:397] relu2_0_branch2b -> enet2_0_branch2b (in-place)
I0109 11:23:13.032232 18073 net.cpp:150] Setting up relu2_0_branch2b
I0109 11:23:13.032249 18073 net.cpp:157] Top shape: 4 32 47 155 (932480)
I0109 11:23:13.032256 18073 net.cpp:165] Memory required for data: 1857500192
I0109 11:23:13.032266 18073 layer_factory.hpp:77] Creating layer enet2_0_branch2c
I0109 11:23:13.032284 18073 net.cpp:106] Creating Layer enet2_0_branch2c
I0109 11:23:13.032291 18073 net.cpp:454] enet2_0_branch2c <- enet2_0_branch2b
I0109 11:23:13.032305 18073 net.cpp:411] enet2_0_branch2c -> enet2_0_branch2c
I0109 11:23:13.035508 18073 net.cpp:150] Setting up enet2_0_branch2c
I0109 11:23:13.035529 18073 net.cpp:157] Top shape: 4 128 47 155 (3729920)
I0109 11:23:13.035537 18073 net.cpp:165] Memory required for data: 1872419872
I0109 11:23:13.035547 18073 layer_factory.hpp:77] Creating layer bn2_0_branch2c
I0109 11:23:13.035559 18073 net.cpp:106] Creating Layer bn2_0_branch2c
I0109 11:23:13.035567 18073 net.cpp:454] bn2_0_branch2c <- enet2_0_branch2c
I0109 11:23:13.035580 18073 net.cpp:397] bn2_0_branch2c -> enet2_0_branch2c (in-place)
I0109 11:23:13.035950 18073 net.cpp:150] Setting up bn2_0_branch2c
I0109 11:23:13.035964 18073 net.cpp:157] Top shape: 4 128 47 155 (3729920)
I0109 11:23:13.035971 18073 net.cpp:165] Memory required for data: 1887339552
I0109 11:23:13.035982 18073 layer_factory.hpp:77] Creating layer dropout2_0_branch2c
I0109 11:23:13.035993 18073 net.cpp:106] Creating Layer dropout2_0_branch2c
I0109 11:23:13.036000 18073 net.cpp:454] dropout2_0_branch2c <- enet2_0_branch2c
I0109 11:23:13.036012 18073 net.cpp:397] dropout2_0_branch2c -> enet2_0_branch2c (in-place)
I0109 11:23:13.036059 18073 net.cpp:150] Setting up dropout2_0_branch2c
I0109 11:23:13.036072 18073 net.cpp:157] Top shape: 4 128 47 155 (3729920)
I0109 11:23:13.036078 18073 net.cpp:165] Memory required for data: 1902259232
I0109 11:23:13.036085 18073 layer_factory.hpp:77] Creating layer enet2_0_branch1a
I0109 11:23:13.036101 18073 net.cpp:106] Creating Layer enet2_0_branch1a
I0109 11:23:13.036109 18073 net.cpp:454] enet2_0_branch1a <- enet1_4_relu1_4_0_split_1
I0109 11:23:13.036123 18073 net.cpp:411] enet2_0_branch1a -> enet2_0_branch1a
I0109 11:23:13.040140 18073 net.cpp:150] Setting up enet2_0_branch1a
I0109 11:23:13.040159 18073 net.cpp:157] Top shape: 4 128 94 310 (14919680)
I0109 11:23:13.040166 18073 net.cpp:165] Memory required for data: 1961937952
I0109 11:23:13.040176 18073 layer_factory.hpp:77] Creating layer bn2_0_branch1a
I0109 11:23:13.040539 18073 net.cpp:106] Creating Layer bn2_0_branch1a
I0109 11:23:13.040549 18073 net.cpp:454] bn2_0_branch1a <- enet2_0_branch1a
I0109 11:23:13.040760 18073 net.cpp:397] bn2_0_branch1a -> enet2_0_branch1a (in-place)
I0109 11:23:13.041256 18073 net.cpp:150] Setting up bn2_0_branch1a
I0109 11:23:13.041272 18073 net.cpp:157] Top shape: 4 128 94 310 (14919680)
I0109 11:23:13.041280 18073 net.cpp:165] Memory required for data: 2021616672
I0109 11:23:13.041290 18073 layer_factory.hpp:77] Creating layer pool2_0_branch1a
I0109 11:23:13.041312 18073 layer_factory.cpp:91] cuDNN does not support multiple tops. Using Caffe's own pooling layer.
I0109 11:23:13.041327 18073 net.cpp:106] Creating Layer pool2_0_branch1a
I0109 11:23:13.041335 18073 net.cpp:454] pool2_0_branch1a <- enet2_0_branch1a
I0109 11:23:13.041347 18073 net.cpp:411] pool2_0_branch1a -> pool2_0_branch1a
I0109 11:23:13.041359 18073 net.cpp:411] pool2_0_branch1a -> pool2_0_branch1a_mask
I0109 11:23:13.041434 18073 net.cpp:150] Setting up pool2_0_branch1a
I0109 11:23:13.041446 18073 net.cpp:157] Top shape: 4 128 47 155 (3729920)
I0109 11:23:13.041455 18073 net.cpp:157] Top shape: 4 128 47 155 (3729920)
I0109 11:23:13.041461 18073 net.cpp:165] Memory required for data: 2051456032
I0109 11:23:13.041467 18073 layer_factory.hpp:77] Creating layer enet2_0
I0109 11:23:13.041481 18073 net.cpp:106] Creating Layer enet2_0
I0109 11:23:13.041487 18073 net.cpp:454] enet2_0 <- pool2_0_branch1a
I0109 11:23:13.041496 18073 net.cpp:454] enet2_0 <- enet2_0_branch2c
I0109 11:23:13.041506 18073 net.cpp:411] enet2_0 -> enet2_0
I0109 11:23:13.041554 18073 net.cpp:150] Setting up enet2_0
I0109 11:23:13.041568 18073 net.cpp:157] Top shape: 4 128 47 155 (3729920)
I0109 11:23:13.041574 18073 net.cpp:165] Memory required for data: 2066375712
I0109 11:23:13.041581 18073 layer_factory.hpp:77] Creating layer relu2_0
I0109 11:23:13.041590 18073 net.cpp:106] Creating Layer relu2_0
I0109 11:23:13.041601 18073 net.cpp:454] relu2_0 <- enet2_0
I0109 11:23:13.041610 18073 net.cpp:397] relu2_0 -> enet2_0 (in-place)
I0109 11:23:13.045441 18073 net.cpp:150] Setting up relu2_0
I0109 11:23:13.045460 18073 net.cpp:157] Top shape: 4 128 47 155 (3729920)
I0109 11:23:13.045467 18073 net.cpp:165] Memory required for data: 2081295392
I0109 11:23:13.045477 18073 layer_factory.hpp:77] Creating layer enet2_0_relu2_0_0_split
I0109 11:23:13.045492 18073 net.cpp:106] Creating Layer enet2_0_relu2_0_0_split
I0109 11:23:13.045500 18073 net.cpp:454] enet2_0_relu2_0_0_split <- enet2_0
I0109 11:23:13.045509 18073 net.cpp:411] enet2_0_relu2_0_0_split -> enet2_0_relu2_0_0_split_0
I0109 11:23:13.045522 18073 net.cpp:411] enet2_0_relu2_0_0_split -> enet2_0_relu2_0_0_split_1
I0109 11:23:13.045593 18073 net.cpp:150] Setting up enet2_0_relu2_0_0_split
I0109 11:23:13.045606 18073 net.cpp:157] Top shape: 4 128 47 155 (3729920)
I0109 11:23:13.045614 18073 net.cpp:157] Top shape: 4 128 47 155 (3729920)
I0109 11:23:13.045621 18073 net.cpp:165] Memory required for data: 2111134752
I0109 11:23:13.045627 18073 layer_factory.hpp:77] Creating layer enet2_1_branch2a
I0109 11:23:13.045644 18073 net.cpp:106] Creating Layer enet2_1_branch2a
I0109 11:23:13.045652 18073 net.cpp:454] enet2_1_branch2a <- enet2_0_relu2_0_0_split_0
I0109 11:23:13.045663 18073 net.cpp:411] enet2_1_branch2a -> enet2_1_branch2a
I0109 11:23:13.048892 18073 net.cpp:150] Setting up enet2_1_branch2a
I0109 11:23:13.048910 18073 net.cpp:157] Top shape: 4 32 47 155 (932480)
I0109 11:23:13.048918 18073 net.cpp:165] Memory required for data: 2114864672
I0109 11:23:13.048928 18073 layer_factory.hpp:77] Creating layer bn2_1_branch2a
I0109 11:23:13.048943 18073 net.cpp:106] Creating Layer bn2_1_branch2a
I0109 11:23:13.048950 18073 net.cpp:454] bn2_1_branch2a <- enet2_1_branch2a
I0109 11:23:13.048961 18073 net.cpp:397] bn2_1_branch2a -> enet2_1_branch2a (in-place)
I0109 11:23:13.049352 18073 net.cpp:150] Setting up bn2_1_branch2a
I0109 11:23:13.049367 18073 net.cpp:157] Top shape: 4 32 47 155 (932480)
I0109 11:23:13.049373 18073 net.cpp:165] Memory required for data: 2118594592
I0109 11:23:13.049384 18073 layer_factory.hpp:77] Creating layer relu2_1_branch2a
I0109 11:23:13.049401 18073 net.cpp:106] Creating Layer relu2_1_branch2a
I0109 11:23:13.049407 18073 net.cpp:454] relu2_1_branch2a <- enet2_1_branch2a
I0109 11:23:13.049417 18073 net.cpp:397] relu2_1_branch2a -> enet2_1_branch2a (in-place)
I0109 11:23:13.050613 18073 net.cpp:150] Setting up relu2_1_branch2a
I0109 11:23:13.050631 18073 net.cpp:157] Top shape: 4 32 47 155 (932480)
I0109 11:23:13.050637 18073 net.cpp:165] Memory required for data: 2122324512
I0109 11:23:13.050662 18073 layer_factory.hpp:77] Creating layer enet2_1_branch2b
I0109 11:23:13.050680 18073 net.cpp:106] Creating Layer enet2_1_branch2b
I0109 11:23:13.050688 18073 net.cpp:454] enet2_1_branch2b <- enet2_1_branch2a
I0109 11:23:13.050703 18073 net.cpp:411] enet2_1_branch2b -> enet2_1_branch2b
I0109 11:23:13.054318 18073 net.cpp:150] Setting up enet2_1_branch2b
I0109 11:23:13.054339 18073 net.cpp:157] Top shape: 4 32 47 155 (932480)
I0109 11:23:13.054348 18073 net.cpp:165] Memory required for data: 2126054432
I0109 11:23:13.054359 18073 layer_factory.hpp:77] Creating layer bn2_1_branch2b
I0109 11:23:13.054371 18073 net.cpp:106] Creating Layer bn2_1_branch2b
I0109 11:23:13.054379 18073 net.cpp:454] bn2_1_branch2b <- enet2_1_branch2b
I0109 11:23:13.054394 18073 net.cpp:397] bn2_1_branch2b -> enet2_1_branch2b (in-place)
I0109 11:23:13.054814 18073 net.cpp:150] Setting up bn2_1_branch2b
I0109 11:23:13.054829 18073 net.cpp:157] Top shape: 4 32 47 155 (932480)
I0109 11:23:13.054836 18073 net.cpp:165] Memory required for data: 2129784352
I0109 11:23:13.054852 18073 layer_factory.hpp:77] Creating layer relu2_1_branch2b
I0109 11:23:13.054865 18073 net.cpp:106] Creating Layer relu2_1_branch2b
I0109 11:23:13.054873 18073 net.cpp:454] relu2_1_branch2b <- enet2_1_branch2b
I0109 11:23:13.054883 18073 net.cpp:397] relu2_1_branch2b -> enet2_1_branch2b (in-place)
I0109 11:23:13.056100 18073 net.cpp:150] Setting up relu2_1_branch2b
I0109 11:23:13.056118 18073 net.cpp:157] Top shape: 4 32 47 155 (932480)
I0109 11:23:13.056125 18073 net.cpp:165] Memory required for data: 2133514272
I0109 11:23:13.056135 18073 layer_factory.hpp:77] Creating layer enet2_1_branch2c
I0109 11:23:13.056152 18073 net.cpp:106] Creating Layer enet2_1_branch2c
I0109 11:23:13.056160 18073 net.cpp:454] enet2_1_branch2c <- enet2_1_branch2b
I0109 11:23:13.056174 18073 net.cpp:411] enet2_1_branch2c -> enet2_1_branch2c
I0109 11:23:13.059633 18073 net.cpp:150] Setting up enet2_1_branch2c
I0109 11:23:13.059653 18073 net.cpp:157] Top shape: 4 128 47 155 (3729920)
I0109 11:23:13.059659 18073 net.cpp:165] Memory required for data: 2148433952
I0109 11:23:13.059669 18073 layer_factory.hpp:77] Creating layer bn2_1_branch2c
I0109 11:23:13.059685 18073 net.cpp:106] Creating Layer bn2_1_branch2c
I0109 11:23:13.059695 18073 net.cpp:454] bn2_1_branch2c <- enet2_1_branch2c
I0109 11:23:13.059707 18073 net.cpp:397] bn2_1_branch2c -> enet2_1_branch2c (in-place)
I0109 11:23:13.060120 18073 net.cpp:150] Setting up bn2_1_branch2c
I0109 11:23:13.060135 18073 net.cpp:157] Top shape: 4 128 47 155 (3729920)
I0109 11:23:13.060142 18073 net.cpp:165] Memory required for data: 2163353632
I0109 11:23:13.060153 18073 layer_factory.hpp:77] Creating layer dropout2_1_branch2c
I0109 11:23:13.060164 18073 net.cpp:106] Creating Layer dropout2_1_branch2c
I0109 11:23:13.060171 18073 net.cpp:454] dropout2_1_branch2c <- enet2_1_branch2c
I0109 11:23:13.060180 18073 net.cpp:397] dropout2_1_branch2c -> enet2_1_branch2c (in-place)
I0109 11:23:13.060228 18073 net.cpp:150] Setting up dropout2_1_branch2c
I0109 11:23:13.060241 18073 net.cpp:157] Top shape: 4 128 47 155 (3729920)
I0109 11:23:13.060247 18073 net.cpp:165] Memory required for data: 2178273312
I0109 11:23:13.060255 18073 layer_factory.hpp:77] Creating layer enet2_1
I0109 11:23:13.060268 18073 net.cpp:106] Creating Layer enet2_1
I0109 11:23:13.060276 18073 net.cpp:454] enet2_1 <- enet2_0_relu2_0_0_split_1
I0109 11:23:13.060284 18073 net.cpp:454] enet2_1 <- enet2_1_branch2c
I0109 11:23:13.060293 18073 net.cpp:411] enet2_1 -> enet2_1
I0109 11:23:13.060344 18073 net.cpp:150] Setting up enet2_1
I0109 11:23:13.060358 18073 net.cpp:157] Top shape: 4 128 47 155 (3729920)
I0109 11:23:13.060364 18073 net.cpp:165] Memory required for data: 2193192992
I0109 11:23:13.060369 18073 layer_factory.hpp:77] Creating layer relu2_1
I0109 11:23:13.060384 18073 net.cpp:106] Creating Layer relu2_1
I0109 11:23:13.060390 18073 net.cpp:454] relu2_1 <- enet2_1
I0109 11:23:13.060400 18073 net.cpp:397] relu2_1 -> enet2_1 (in-place)
I0109 11:23:13.064921 18073 net.cpp:150] Setting up relu2_1
I0109 11:23:13.064949 18073 net.cpp:157] Top shape: 4 128 47 155 (3729920)
I0109 11:23:13.064957 18073 net.cpp:165] Memory required for data: 2208112672
I0109 11:23:13.064966 18073 layer_factory.hpp:77] Creating layer enet2_1_relu2_1_0_split
I0109 11:23:13.064980 18073 net.cpp:106] Creating Layer enet2_1_relu2_1_0_split
I0109 11:23:13.064987 18073 net.cpp:454] enet2_1_relu2_1_0_split <- enet2_1
I0109 11:23:13.065002 18073 net.cpp:411] enet2_1_relu2_1_0_split -> enet2_1_relu2_1_0_split_0
I0109 11:23:13.065016 18073 net.cpp:411] enet2_1_relu2_1_0_split -> enet2_1_relu2_1_0_split_1
I0109 11:23:13.065090 18073 net.cpp:150] Setting up enet2_1_relu2_1_0_split
I0109 11:23:13.065104 18073 net.cpp:157] Top shape: 4 128 47 155 (3729920)
I0109 11:23:13.065112 18073 net.cpp:157] Top shape: 4 128 47 155 (3729920)
I0109 11:23:13.065119 18073 net.cpp:165] Memory required for data: 2237952032
I0109 11:23:13.065124 18073 layer_factory.hpp:77] Creating layer enet2_2_branch2a
I0109 11:23:13.065140 18073 net.cpp:106] Creating Layer enet2_2_branch2a
I0109 11:23:13.065150 18073 net.cpp:454] enet2_2_branch2a <- enet2_1_relu2_1_0_split_0
I0109 11:23:13.065162 18073 net.cpp:411] enet2_2_branch2a -> enet2_2_branch2a
I0109 11:23:13.069113 18073 net.cpp:150] Setting up enet2_2_branch2a
I0109 11:23:13.069131 18073 net.cpp:157] Top shape: 4 32 47 155 (932480)
I0109 11:23:13.069139 18073 net.cpp:165] Memory required for data: 2241681952
I0109 11:23:13.069149 18073 layer_factory.hpp:77] Creating layer bn2_2_branch2a
I0109 11:23:13.069164 18073 net.cpp:106] Creating Layer bn2_2_branch2a
I0109 11:23:13.069172 18073 net.cpp:454] bn2_2_branch2a <- enet2_2_branch2a
I0109 11:23:13.069185 18073 net.cpp:397] bn2_2_branch2a -> enet2_2_branch2a (in-place)
I0109 11:23:13.069602 18073 net.cpp:150] Setting up bn2_2_branch2a
I0109 11:23:13.069617 18073 net.cpp:157] Top shape: 4 32 47 155 (932480)
I0109 11:23:13.069623 18073 net.cpp:165] Memory required for data: 2245411872
I0109 11:23:13.069634 18073 layer_factory.hpp:77] Creating layer relu2_2_branch2a
I0109 11:23:13.069648 18073 net.cpp:106] Creating Layer relu2_2_branch2a
I0109 11:23:13.069654 18073 net.cpp:454] relu2_2_branch2a <- enet2_2_branch2a
I0109 11:23:13.069664 18073 net.cpp:397] relu2_2_branch2a -> enet2_2_branch2a (in-place)
I0109 11:23:13.072036 18073 net.cpp:150] Setting up relu2_2_branch2a
I0109 11:23:13.072053 18073 net.cpp:157] Top shape: 4 32 47 155 (932480)
I0109 11:23:13.072060 18073 net.cpp:165] Memory required for data: 2249141792
I0109 11:23:13.072070 18073 layer_factory.hpp:77] Creating layer enet2_2_branch2b
I0109 11:23:13.072088 18073 net.cpp:106] Creating Layer enet2_2_branch2b
I0109 11:23:13.072096 18073 net.cpp:454] enet2_2_branch2b <- enet2_2_branch2a
I0109 11:23:13.072110 18073 net.cpp:411] enet2_2_branch2b -> enet2_2_branch2b
I0109 11:23:13.072791 18073 net.cpp:150] Setting up enet2_2_branch2b
I0109 11:23:13.072806 18073 net.cpp:157] Top shape: 4 32 47 155 (932480)
I0109 11:23:13.072813 18073 net.cpp:165] Memory required for data: 2252871712
I0109 11:23:13.072824 18073 layer_factory.hpp:77] Creating layer bn2_2_branch2b
I0109 11:23:13.072835 18073 net.cpp:106] Creating Layer bn2_2_branch2b
I0109 11:23:13.072846 18073 net.cpp:454] bn2_2_branch2b <- enet2_2_branch2b
I0109 11:23:13.072860 18073 net.cpp:397] bn2_2_branch2b -> enet2_2_branch2b (in-place)
I0109 11:23:13.073281 18073 net.cpp:150] Setting up bn2_2_branch2b
I0109 11:23:13.073295 18073 net.cpp:157] Top shape: 4 32 47 155 (932480)
I0109 11:23:13.073302 18073 net.cpp:165] Memory required for data: 2256601632
I0109 11:23:13.073312 18073 layer_factory.hpp:77] Creating layer relu2_2_branch2b
I0109 11:23:13.073325 18073 net.cpp:106] Creating Layer relu2_2_branch2b
I0109 11:23:13.073333 18073 net.cpp:454] relu2_2_branch2b <- enet2_2_branch2b
I0109 11:23:13.073343 18073 net.cpp:397] relu2_2_branch2b -> enet2_2_branch2b (in-place)
I0109 11:23:13.074553 18073 net.cpp:150] Setting up relu2_2_branch2b
I0109 11:23:13.074570 18073 net.cpp:157] Top shape: 4 32 47 155 (932480)
I0109 11:23:13.074584 18073 net.cpp:165] Memory required for data: 2260331552
I0109 11:23:13.074602 18073 layer_factory.hpp:77] Creating layer enet2_2_branch2c
I0109 11:23:13.074620 18073 net.cpp:106] Creating Layer enet2_2_branch2c
I0109 11:23:13.074628 18073 net.cpp:454] enet2_2_branch2c <- enet2_2_branch2b
I0109 11:23:13.074641 18073 net.cpp:411] enet2_2_branch2c -> enet2_2_branch2c
I0109 11:23:13.078112 18073 net.cpp:150] Setting up enet2_2_branch2c
I0109 11:23:13.078131 18073 net.cpp:157] Top shape: 4 128 47 155 (3729920)
I0109 11:23:13.078140 18073 net.cpp:165] Memory required for data: 2275251232
I0109 11:23:13.078150 18073 layer_factory.hpp:77] Creating layer bn2_2_branch2c
I0109 11:23:13.078164 18073 net.cpp:106] Creating Layer bn2_2_branch2c
I0109 11:23:13.078173 18073 net.cpp:454] bn2_2_branch2c <- enet2_2_branch2c
I0109 11:23:13.078186 18073 net.cpp:397] bn2_2_branch2c -> enet2_2_branch2c (in-place)
I0109 11:23:13.078606 18073 net.cpp:150] Setting up bn2_2_branch2c
I0109 11:23:13.078621 18073 net.cpp:157] Top shape: 4 128 47 155 (3729920)
I0109 11:23:13.078629 18073 net.cpp:165] Memory required for data: 2290170912
I0109 11:23:13.078639 18073 layer_factory.hpp:77] Creating layer dropout2_2_branch2c
I0109 11:23:13.078649 18073 net.cpp:106] Creating Layer dropout2_2_branch2c
I0109 11:23:13.078656 18073 net.cpp:454] dropout2_2_branch2c <- enet2_2_branch2c
I0109 11:23:13.078665 18073 net.cpp:397] dropout2_2_branch2c -> enet2_2_branch2c (in-place)
I0109 11:23:13.078714 18073 net.cpp:150] Setting up dropout2_2_branch2c
I0109 11:23:13.078727 18073 net.cpp:157] Top shape: 4 128 47 155 (3729920)
I0109 11:23:13.078734 18073 net.cpp:165] Memory required for data: 2305090592
I0109 11:23:13.078742 18073 layer_factory.hpp:77] Creating layer enet2_2
I0109 11:23:13.078754 18073 net.cpp:106] Creating Layer enet2_2
I0109 11:23:13.078763 18073 net.cpp:454] enet2_2 <- enet2_1_relu2_1_0_split_1
I0109 11:23:13.078771 18073 net.cpp:454] enet2_2 <- enet2_2_branch2c
I0109 11:23:13.078780 18073 net.cpp:411] enet2_2 -> enet2_2
I0109 11:23:13.078832 18073 net.cpp:150] Setting up enet2_2
I0109 11:23:13.078850 18073 net.cpp:157] Top shape: 4 128 47 155 (3729920)
I0109 11:23:13.078856 18073 net.cpp:165] Memory required for data: 2320010272
I0109 11:23:13.078863 18073 layer_factory.hpp:77] Creating layer relu2_2
I0109 11:23:13.078876 18073 net.cpp:106] Creating Layer relu2_2
I0109 11:23:13.078883 18073 net.cpp:454] relu2_2 <- enet2_2
I0109 11:23:13.078892 18073 net.cpp:397] relu2_2 -> enet2_2 (in-place)
I0109 11:23:13.082747 18073 net.cpp:150] Setting up relu2_2
I0109 11:23:13.082767 18073 net.cpp:157] Top shape: 4 128 47 155 (3729920)
I0109 11:23:13.082773 18073 net.cpp:165] Memory required for data: 2334929952
I0109 11:23:13.082782 18073 layer_factory.hpp:77] Creating layer enet2_2_relu2_2_0_split
I0109 11:23:13.082797 18073 net.cpp:106] Creating Layer enet2_2_relu2_2_0_split
I0109 11:23:13.082804 18073 net.cpp:454] enet2_2_relu2_2_0_split <- enet2_2
I0109 11:23:13.082818 18073 net.cpp:411] enet2_2_relu2_2_0_split -> enet2_2_relu2_2_0_split_0
I0109 11:23:13.082844 18073 net.cpp:411] enet2_2_relu2_2_0_split -> enet2_2_relu2_2_0_split_1
I0109 11:23:13.082926 18073 net.cpp:150] Setting up enet2_2_relu2_2_0_split
I0109 11:23:13.082940 18073 net.cpp:157] Top shape: 4 128 47 155 (3729920)
I0109 11:23:13.082948 18073 net.cpp:157] Top shape: 4 128 47 155 (3729920)
I0109 11:23:13.082954 18073 net.cpp:165] Memory required for data: 2364769312
I0109 11:23:13.082962 18073 layer_factory.hpp:77] Creating layer enet2_3_branch2a
I0109 11:23:13.082978 18073 net.cpp:106] Creating Layer enet2_3_branch2a
I0109 11:23:13.082988 18073 net.cpp:454] enet2_3_branch2a <- enet2_2_relu2_2_0_split_0
I0109 11:23:13.082998 18073 net.cpp:411] enet2_3_branch2a -> enet2_3_branch2a
I0109 11:23:13.086334 18073 net.cpp:150] Setting up enet2_3_branch2a
I0109 11:23:13.086354 18073 net.cpp:157] Top shape: 4 32 47 155 (932480)
I0109 11:23:13.086361 18073 net.cpp:165] Memory required for data: 2368499232
I0109 11:23:13.086370 18073 layer_factory.hpp:77] Creating layer bn2_3_branch2a
I0109 11:23:13.086398 18073 net.cpp:106] Creating Layer bn2_3_branch2a
I0109 11:23:13.086414 18073 net.cpp:454] bn2_3_branch2a <- enet2_3_branch2a
I0109 11:23:13.086429 18073 net.cpp:397] bn2_3_branch2a -> enet2_3_branch2a (in-place)
I0109 11:23:13.086869 18073 net.cpp:150] Setting up bn2_3_branch2a
I0109 11:23:13.086884 18073 net.cpp:157] Top shape: 4 32 47 155 (932480)
I0109 11:23:13.086890 18073 net.cpp:165] Memory required for data: 2372229152
I0109 11:23:13.086901 18073 layer_factory.hpp:77] Creating layer relu2_3_branch2a
I0109 11:23:13.086911 18073 net.cpp:106] Creating Layer relu2_3_branch2a
I0109 11:23:13.086918 18073 net.cpp:454] relu2_3_branch2a <- enet2_3_branch2a
I0109 11:23:13.086927 18073 net.cpp:397] relu2_3_branch2a -> enet2_3_branch2a (in-place)
I0109 11:23:13.088158 18073 net.cpp:150] Setting up relu2_3_branch2a
I0109 11:23:13.088176 18073 net.cpp:157] Top shape: 4 32 47 155 (932480)
I0109 11:23:13.088182 18073 net.cpp:165] Memory required for data: 2375959072
I0109 11:23:13.088192 18073 layer_factory.hpp:77] Creating layer enet2_3_branch2b1
I0109 11:23:13.088209 18073 net.cpp:106] Creating Layer enet2_3_branch2b1
I0109 11:23:13.088217 18073 net.cpp:454] enet2_3_branch2b1 <- enet2_3_branch2a
I0109 11:23:13.088234 18073 net.cpp:411] enet2_3_branch2b1 -> enet2_3_branch2b1
I0109 11:23:13.091794 18073 net.cpp:150] Setting up enet2_3_branch2b1
I0109 11:23:13.091812 18073 net.cpp:157] Top shape: 4 32 47 155 (932480)
I0109 11:23:13.091820 18073 net.cpp:165] Memory required for data: 2379688992
I0109 11:23:13.091830 18073 layer_factory.hpp:77] Creating layer enet2_3_branch2b
I0109 11:23:13.091855 18073 net.cpp:106] Creating Layer enet2_3_branch2b
I0109 11:23:13.091864 18073 net.cpp:454] enet2_3_branch2b <- enet2_3_branch2b1
I0109 11:23:13.091876 18073 net.cpp:411] enet2_3_branch2b -> enet2_3_branch2b
I0109 11:23:13.095502 18073 net.cpp:150] Setting up enet2_3_branch2b
I0109 11:23:13.095521 18073 net.cpp:157] Top shape: 4 32 47 155 (932480)
I0109 11:23:13.095528 18073 net.cpp:165] Memory required for data: 2383418912
I0109 11:23:13.095540 18073 layer_factory.hpp:77] Creating layer bn2_3_branch2b
I0109 11:23:13.095554 18073 net.cpp:106] Creating Layer bn2_3_branch2b
I0109 11:23:13.095563 18073 net.cpp:454] bn2_3_branch2b <- enet2_3_branch2b
I0109 11:23:13.095579 18073 net.cpp:397] bn2_3_branch2b -> enet2_3_branch2b (in-place)
I0109 11:23:13.096030 18073 net.cpp:150] Setting up bn2_3_branch2b
I0109 11:23:13.096045 18073 net.cpp:157] Top shape: 4 32 47 155 (932480)
I0109 11:23:13.096051 18073 net.cpp:165] Memory required for data: 2387148832
I0109 11:23:13.096061 18073 layer_factory.hpp:77] Creating layer relu2_3_branch2b
I0109 11:23:13.096071 18073 net.cpp:106] Creating Layer relu2_3_branch2b
I0109 11:23:13.096079 18073 net.cpp:454] relu2_3_branch2b <- enet2_3_branch2b
I0109 11:23:13.096088 18073 net.cpp:397] relu2_3_branch2b -> enet2_3_branch2b (in-place)
I0109 11:23:13.097301 18073 net.cpp:150] Setting up relu2_3_branch2b
I0109 11:23:13.097317 18073 net.cpp:157] Top shape: 4 32 47 155 (932480)
I0109 11:23:13.097324 18073 net.cpp:165] Memory required for data: 2390878752
I0109 11:23:13.097334 18073 layer_factory.hpp:77] Creating layer enet2_3_branch2c
I0109 11:23:13.097353 18073 net.cpp:106] Creating Layer enet2_3_branch2c
I0109 11:23:13.097362 18073 net.cpp:454] enet2_3_branch2c <- enet2_3_branch2b
I0109 11:23:13.097373 18073 net.cpp:411] enet2_3_branch2c -> enet2_3_branch2c
I0109 11:23:13.100718 18073 net.cpp:150] Setting up enet2_3_branch2c
I0109 11:23:13.100735 18073 net.cpp:157] Top shape: 4 128 47 155 (3729920)
I0109 11:23:13.100742 18073 net.cpp:165] Memory required for data: 2405798432
I0109 11:23:13.100752 18073 layer_factory.hpp:77] Creating layer bn2_3_branch2c
I0109 11:23:13.100767 18073 net.cpp:106] Creating Layer bn2_3_branch2c
I0109 11:23:13.100776 18073 net.cpp:454] bn2_3_branch2c <- enet2_3_branch2c
I0109 11:23:13.100788 18073 net.cpp:397] bn2_3_branch2c -> enet2_3_branch2c (in-place)
I0109 11:23:13.102260 18073 net.cpp:150] Setting up bn2_3_branch2c
I0109 11:23:13.102275 18073 net.cpp:157] Top shape: 4 128 47 155 (3729920)
I0109 11:23:13.102298 18073 net.cpp:165] Memory required for data: 2420718112
I0109 11:23:13.102309 18073 layer_factory.hpp:77] Creating layer dropout2_3_branch2c
I0109 11:23:13.102320 18073 net.cpp:106] Creating Layer dropout2_3_branch2c
I0109 11:23:13.102329 18073 net.cpp:454] dropout2_3_branch2c <- enet2_3_branch2c
I0109 11:23:13.102337 18073 net.cpp:397] dropout2_3_branch2c -> enet2_3_branch2c (in-place)
I0109 11:23:13.102393 18073 net.cpp:150] Setting up dropout2_3_branch2c
I0109 11:23:13.102406 18073 net.cpp:157] Top shape: 4 128 47 155 (3729920)
I0109 11:23:13.102413 18073 net.cpp:165] Memory required for data: 2435637792
I0109 11:23:13.102419 18073 layer_factory.hpp:77] Creating layer enet2_3
I0109 11:23:13.102432 18073 net.cpp:106] Creating Layer enet2_3
I0109 11:23:13.102440 18073 net.cpp:454] enet2_3 <- enet2_2_relu2_2_0_split_1
I0109 11:23:13.102448 18073 net.cpp:454] enet2_3 <- enet2_3_branch2c
I0109 11:23:13.102458 18073 net.cpp:411] enet2_3 -> enet2_3
I0109 11:23:13.102511 18073 net.cpp:150] Setting up enet2_3
I0109 11:23:13.102524 18073 net.cpp:157] Top shape: 4 128 47 155 (3729920)
I0109 11:23:13.102531 18073 net.cpp:165] Memory required for data: 2450557472
I0109 11:23:13.102537 18073 layer_factory.hpp:77] Creating layer relu2_3
I0109 11:23:13.102546 18073 net.cpp:106] Creating Layer relu2_3
I0109 11:23:13.102553 18073 net.cpp:454] relu2_3 <- enet2_3
I0109 11:23:13.102568 18073 net.cpp:397] relu2_3 -> enet2_3 (in-place)
I0109 11:23:13.107648 18073 net.cpp:150] Setting up relu2_3
I0109 11:23:13.107667 18073 net.cpp:157] Top shape: 4 128 47 155 (3729920)
I0109 11:23:13.107676 18073 net.cpp:165] Memory required for data: 2465477152
I0109 11:23:13.107713 18073 layer_factory.hpp:77] Creating layer enet2_3_relu2_3_0_split
I0109 11:23:13.107727 18073 net.cpp:106] Creating Layer enet2_3_relu2_3_0_split
I0109 11:23:13.107734 18073 net.cpp:454] enet2_3_relu2_3_0_split <- enet2_3
I0109 11:23:13.107745 18073 net.cpp:411] enet2_3_relu2_3_0_split -> enet2_3_relu2_3_0_split_0
I0109 11:23:13.107758 18073 net.cpp:411] enet2_3_relu2_3_0_split -> enet2_3_relu2_3_0_split_1
I0109 11:23:13.108495 18073 net.cpp:150] Setting up enet2_3_relu2_3_0_split
I0109 11:23:13.108510 18073 net.cpp:157] Top shape: 4 128 47 155 (3729920)
I0109 11:23:13.108520 18073 net.cpp:157] Top shape: 4 128 47 155 (3729920)
I0109 11:23:13.108525 18073 net.cpp:165] Memory required for data: 2495316512
I0109 11:23:13.108533 18073 layer_factory.hpp:77] Creating layer enet2_4_branch2a
I0109 11:23:13.108552 18073 net.cpp:106] Creating Layer enet2_4_branch2a
I0109 11:23:13.108561 18073 net.cpp:454] enet2_4_branch2a <- enet2_3_relu2_3_0_split_0
I0109 11:23:13.108572 18073 net.cpp:411] enet2_4_branch2a -> enet2_4_branch2a
I0109 11:23:13.112107 18073 net.cpp:150] Setting up enet2_4_branch2a
I0109 11:23:13.112128 18073 net.cpp:157] Top shape: 4 32 47 155 (932480)
I0109 11:23:13.112138 18073 net.cpp:165] Memory required for data: 2499046432
I0109 11:23:13.112148 18073 layer_factory.hpp:77] Creating layer bn2_4_branch2a
I0109 11:23:13.112160 18073 net.cpp:106] Creating Layer bn2_4_branch2a
I0109 11:23:13.112169 18073 net.cpp:454] bn2_4_branch2a <- enet2_4_branch2a
I0109 11:23:13.112181 18073 net.cpp:397] bn2_4_branch2a -> enet2_4_branch2a (in-place)
I0109 11:23:13.113514 18073 net.cpp:150] Setting up bn2_4_branch2a
I0109 11:23:13.113531 18073 net.cpp:157] Top shape: 4 32 47 155 (932480)
I0109 11:23:13.113538 18073 net.cpp:165] Memory required for data: 2502776352
I0109 11:23:13.113549 18073 layer_factory.hpp:77] Creating layer relu2_4_branch2a
I0109 11:23:13.113559 18073 net.cpp:106] Creating Layer relu2_4_branch2a
I0109 11:23:13.113567 18073 net.cpp:454] relu2_4_branch2a <- enet2_4_branch2a
I0109 11:23:13.113576 18073 net.cpp:397] relu2_4_branch2a -> enet2_4_branch2a (in-place)
I0109 11:23:13.114814 18073 net.cpp:150] Setting up relu2_4_branch2a
I0109 11:23:13.114830 18073 net.cpp:157] Top shape: 4 32 47 155 (932480)
I0109 11:23:13.114836 18073 net.cpp:165] Memory required for data: 2506506272
I0109 11:23:13.114850 18073 layer_factory.hpp:77] Creating layer enet2_4_branch2b
I0109 11:23:13.114886 18073 net.cpp:106] Creating Layer enet2_4_branch2b
I0109 11:23:13.114895 18073 net.cpp:454] enet2_4_branch2b <- enet2_4_branch2a
I0109 11:23:13.114909 18073 net.cpp:411] enet2_4_branch2b -> enet2_4_branch2b
I0109 11:23:13.115648 18073 net.cpp:150] Setting up enet2_4_branch2b
I0109 11:23:13.115664 18073 net.cpp:157] Top shape: 4 32 47 155 (932480)
I0109 11:23:13.115669 18073 net.cpp:165] Memory required for data: 2510236192
I0109 11:23:13.115680 18073 layer_factory.hpp:77] Creating layer bn2_4_branch2b
I0109 11:23:13.115715 18073 net.cpp:106] Creating Layer bn2_4_branch2b
I0109 11:23:13.115725 18073 net.cpp:454] bn2_4_branch2b <- enet2_4_branch2b
I0109 11:23:13.115736 18073 net.cpp:397] bn2_4_branch2b -> enet2_4_branch2b (in-place)
I0109 11:23:13.116199 18073 net.cpp:150] Setting up bn2_4_branch2b
I0109 11:23:13.116214 18073 net.cpp:157] Top shape: 4 32 47 155 (932480)
I0109 11:23:13.116220 18073 net.cpp:165] Memory required for data: 2513966112
I0109 11:23:13.116231 18073 layer_factory.hpp:77] Creating layer relu2_4_branch2b
I0109 11:23:13.116241 18073 net.cpp:106] Creating Layer relu2_4_branch2b
I0109 11:23:13.116248 18073 net.cpp:454] relu2_4_branch2b <- enet2_4_branch2b
I0109 11:23:13.116257 18073 net.cpp:397] relu2_4_branch2b -> enet2_4_branch2b (in-place)
I0109 11:23:13.117496 18073 net.cpp:150] Setting up relu2_4_branch2b
I0109 11:23:13.117513 18073 net.cpp:157] Top shape: 4 32 47 155 (932480)
I0109 11:23:13.117521 18073 net.cpp:165] Memory required for data: 2517696032
I0109 11:23:13.117529 18073 layer_factory.hpp:77] Creating layer enet2_4_branch2c
I0109 11:23:13.117547 18073 net.cpp:106] Creating Layer enet2_4_branch2c
I0109 11:23:13.117555 18073 net.cpp:454] enet2_4_branch2c <- enet2_4_branch2b
I0109 11:23:13.117568 18073 net.cpp:411] enet2_4_branch2c -> enet2_4_branch2c
I0109 11:23:13.121199 18073 net.cpp:150] Setting up enet2_4_branch2c
I0109 11:23:13.121218 18073 net.cpp:157] Top shape: 4 128 47 155 (3729920)
I0109 11:23:13.121227 18073 net.cpp:165] Memory required for data: 2532615712
I0109 11:23:13.121237 18073 layer_factory.hpp:77] Creating layer bn2_4_branch2c
I0109 11:23:13.121251 18073 net.cpp:106] Creating Layer bn2_4_branch2c
I0109 11:23:13.121259 18073 net.cpp:454] bn2_4_branch2c <- enet2_4_branch2c
I0109 11:23:13.121270 18073 net.cpp:397] bn2_4_branch2c -> enet2_4_branch2c (in-place)
I0109 11:23:13.121727 18073 net.cpp:150] Setting up bn2_4_branch2c
I0109 11:23:13.121742 18073 net.cpp:157] Top shape: 4 128 47 155 (3729920)
I0109 11:23:13.121749 18073 net.cpp:165] Memory required for data: 2547535392
I0109 11:23:13.121759 18073 layer_factory.hpp:77] Creating layer dropout2_4_branch2c
I0109 11:23:13.121770 18073 net.cpp:106] Creating Layer dropout2_4_branch2c
I0109 11:23:13.121778 18073 net.cpp:454] dropout2_4_branch2c <- enet2_4_branch2c
I0109 11:23:13.121788 18073 net.cpp:397] dropout2_4_branch2c -> enet2_4_branch2c (in-place)
I0109 11:23:13.121850 18073 net.cpp:150] Setting up dropout2_4_branch2c
I0109 11:23:13.121865 18073 net.cpp:157] Top shape: 4 128 47 155 (3729920)
I0109 11:23:13.121870 18073 net.cpp:165] Memory required for data: 2562455072
I0109 11:23:13.121877 18073 layer_factory.hpp:77] Creating layer enet2_4
I0109 11:23:13.121889 18073 net.cpp:106] Creating Layer enet2_4
I0109 11:23:13.121897 18073 net.cpp:454] enet2_4 <- enet2_3_relu2_3_0_split_1
I0109 11:23:13.121906 18073 net.cpp:454] enet2_4 <- enet2_4_branch2c
I0109 11:23:13.121915 18073 net.cpp:411] enet2_4 -> enet2_4
I0109 11:23:13.121968 18073 net.cpp:150] Setting up enet2_4
I0109 11:23:13.121985 18073 net.cpp:157] Top shape: 4 128 47 155 (3729920)
I0109 11:23:13.121992 18073 net.cpp:165] Memory required for data: 2577374752
I0109 11:23:13.121999 18073 layer_factory.hpp:77] Creating layer relu2_4
I0109 11:23:13.122009 18073 net.cpp:106] Creating Layer relu2_4
I0109 11:23:13.122015 18073 net.cpp:454] relu2_4 <- enet2_4
I0109 11:23:13.122026 18073 net.cpp:397] relu2_4 -> enet2_4 (in-place)
I0109 11:23:13.125880 18073 net.cpp:150] Setting up relu2_4
I0109 11:23:13.125905 18073 net.cpp:157] Top shape: 4 128 47 155 (3729920)
I0109 11:23:13.125921 18073 net.cpp:165] Memory required for data: 2592294432
I0109 11:23:13.125931 18073 layer_factory.hpp:77] Creating layer enet2_4_relu2_4_0_split
I0109 11:23:13.125944 18073 net.cpp:106] Creating Layer enet2_4_relu2_4_0_split
I0109 11:23:13.125952 18073 net.cpp:454] enet2_4_relu2_4_0_split <- enet2_4
I0109 11:23:13.125963 18073 net.cpp:411] enet2_4_relu2_4_0_split -> enet2_4_relu2_4_0_split_0
I0109 11:23:13.125975 18073 net.cpp:411] enet2_4_relu2_4_0_split -> enet2_4_relu2_4_0_split_1
I0109 11:23:13.126065 18073 net.cpp:150] Setting up enet2_4_relu2_4_0_split
I0109 11:23:13.126077 18073 net.cpp:157] Top shape: 4 128 47 155 (3729920)
I0109 11:23:13.126086 18073 net.cpp:157] Top shape: 4 128 47 155 (3729920)
I0109 11:23:13.126092 18073 net.cpp:165] Memory required for data: 2622133792
I0109 11:23:13.126098 18073 layer_factory.hpp:77] Creating layer enet2_5_branch2a
I0109 11:23:13.126116 18073 net.cpp:106] Creating Layer enet2_5_branch2a
I0109 11:23:13.126123 18073 net.cpp:454] enet2_5_branch2a <- enet2_4_relu2_4_0_split_0
I0109 11:23:13.126134 18073 net.cpp:411] enet2_5_branch2a -> enet2_5_branch2a
I0109 11:23:13.129755 18073 net.cpp:150] Setting up enet2_5_branch2a
I0109 11:23:13.129773 18073 net.cpp:157] Top shape: 4 32 47 155 (932480)
I0109 11:23:13.129781 18073 net.cpp:165] Memory required for data: 2625863712
I0109 11:23:13.129791 18073 layer_factory.hpp:77] Creating layer bn2_5_branch2a
I0109 11:23:13.129812 18073 net.cpp:106] Creating Layer bn2_5_branch2a
I0109 11:23:13.129820 18073 net.cpp:454] bn2_5_branch2a <- enet2_5_branch2a
I0109 11:23:13.129835 18073 net.cpp:397] bn2_5_branch2a -> enet2_5_branch2a (in-place)
I0109 11:23:13.130327 18073 net.cpp:150] Setting up bn2_5_branch2a
I0109 11:23:13.130342 18073 net.cpp:157] Top shape: 4 32 47 155 (932480)
I0109 11:23:13.130348 18073 net.cpp:165] Memory required for data: 2629593632
I0109 11:23:13.130359 18073 layer_factory.hpp:77] Creating layer relu2_5_branch2a
I0109 11:23:13.130369 18073 net.cpp:106] Creating Layer relu2_5_branch2a
I0109 11:23:13.130376 18073 net.cpp:454] relu2_5_branch2a <- enet2_5_branch2a
I0109 11:23:13.130385 18073 net.cpp:397] relu2_5_branch2a -> enet2_5_branch2a (in-place)
I0109 11:23:13.131829 18073 net.cpp:150] Setting up relu2_5_branch2a
I0109 11:23:13.131850 18073 net.cpp:157] Top shape: 4 32 47 155 (932480)
I0109 11:23:13.131857 18073 net.cpp:165] Memory required for data: 2633323552
I0109 11:23:13.131867 18073 layer_factory.hpp:77] Creating layer enet2_5_branch2b
I0109 11:23:13.131885 18073 net.cpp:106] Creating Layer enet2_5_branch2b
I0109 11:23:13.131892 18073 net.cpp:454] enet2_5_branch2b <- enet2_5_branch2a
I0109 11:23:13.131907 18073 net.cpp:411] enet2_5_branch2b -> enet2_5_branch2b
I0109 11:23:13.135736 18073 net.cpp:150] Setting up enet2_5_branch2b
I0109 11:23:13.135754 18073 net.cpp:157] Top shape: 4 32 47 155 (932480)
I0109 11:23:13.135762 18073 net.cpp:165] Memory required for data: 2637053472
I0109 11:23:13.135773 18073 layer_factory.hpp:77] Creating layer bn2_5_branch2b
I0109 11:23:13.135788 18073 net.cpp:106] Creating Layer bn2_5_branch2b
I0109 11:23:13.135797 18073 net.cpp:454] bn2_5_branch2b <- enet2_5_branch2b
I0109 11:23:13.135810 18073 net.cpp:397] bn2_5_branch2b -> enet2_5_branch2b (in-place)
I0109 11:23:13.136304 18073 net.cpp:150] Setting up bn2_5_branch2b
I0109 11:23:13.136318 18073 net.cpp:157] Top shape: 4 32 47 155 (932480)
I0109 11:23:13.136325 18073 net.cpp:165] Memory required for data: 2640783392
I0109 11:23:13.136337 18073 layer_factory.hpp:77] Creating layer relu2_5_branch2b
I0109 11:23:13.136346 18073 net.cpp:106] Creating Layer relu2_5_branch2b
I0109 11:23:13.136353 18073 net.cpp:454] relu2_5_branch2b <- enet2_5_branch2b
I0109 11:23:13.136363 18073 net.cpp:397] relu2_5_branch2b -> enet2_5_branch2b (in-place)
I0109 11:23:13.137600 18073 net.cpp:150] Setting up relu2_5_branch2b
I0109 11:23:13.137616 18073 net.cpp:157] Top shape: 4 32 47 155 (932480)
I0109 11:23:13.137624 18073 net.cpp:165] Memory required for data: 2644513312
I0109 11:23:13.137640 18073 layer_factory.hpp:77] Creating layer enet2_5_branch2c
I0109 11:23:13.137665 18073 net.cpp:106] Creating Layer enet2_5_branch2c
I0109 11:23:13.137673 18073 net.cpp:454] enet2_5_branch2c <- enet2_5_branch2b
I0109 11:23:13.137686 18073 net.cpp:411] enet2_5_branch2c -> enet2_5_branch2c
I0109 11:23:13.142154 18073 net.cpp:150] Setting up enet2_5_branch2c
I0109 11:23:13.142173 18073 net.cpp:157] Top shape: 4 128 47 155 (3729920)
I0109 11:23:13.142180 18073 net.cpp:165] Memory required for data: 2659432992
I0109 11:23:13.142190 18073 layer_factory.hpp:77] Creating layer bn2_5_branch2c
I0109 11:23:13.142205 18073 net.cpp:106] Creating Layer bn2_5_branch2c
I0109 11:23:13.142213 18073 net.cpp:454] bn2_5_branch2c <- enet2_5_branch2c
I0109 11:23:13.142227 18073 net.cpp:397] bn2_5_branch2c -> enet2_5_branch2c (in-place)
I0109 11:23:13.142709 18073 net.cpp:150] Setting up bn2_5_branch2c
I0109 11:23:13.142724 18073 net.cpp:157] Top shape: 4 128 47 155 (3729920)
I0109 11:23:13.142730 18073 net.cpp:165] Memory required for data: 2674352672
I0109 11:23:13.142741 18073 layer_factory.hpp:77] Creating layer dropout2_5_branch2c
I0109 11:23:13.142751 18073 net.cpp:106] Creating Layer dropout2_5_branch2c
I0109 11:23:13.142760 18073 net.cpp:454] dropout2_5_branch2c <- enet2_5_branch2c
I0109 11:23:13.142768 18073 net.cpp:397] dropout2_5_branch2c -> enet2_5_branch2c (in-place)
I0109 11:23:13.142823 18073 net.cpp:150] Setting up dropout2_5_branch2c
I0109 11:23:13.142837 18073 net.cpp:157] Top shape: 4 128 47 155 (3729920)
I0109 11:23:13.142848 18073 net.cpp:165] Memory required for data: 2689272352
I0109 11:23:13.142854 18073 layer_factory.hpp:77] Creating layer enet2_5
I0109 11:23:13.142868 18073 net.cpp:106] Creating Layer enet2_5
I0109 11:23:13.142875 18073 net.cpp:454] enet2_5 <- enet2_4_relu2_4_0_split_1
I0109 11:23:13.142884 18073 net.cpp:454] enet2_5 <- enet2_5_branch2c
I0109 11:23:13.142895 18073 net.cpp:411] enet2_5 -> enet2_5
I0109 11:23:13.142951 18073 net.cpp:150] Setting up enet2_5
I0109 11:23:13.142964 18073 net.cpp:157] Top shape: 4 128 47 155 (3729920)
I0109 11:23:13.142971 18073 net.cpp:165] Memory required for data: 2704192032
I0109 11:23:13.142977 18073 layer_factory.hpp:77] Creating layer relu2_5
I0109 11:23:13.142990 18073 net.cpp:106] Creating Layer relu2_5
I0109 11:23:13.142998 18073 net.cpp:454] relu2_5 <- enet2_5
I0109 11:23:13.143007 18073 net.cpp:397] relu2_5 -> enet2_5 (in-place)
I0109 11:23:13.146914 18073 net.cpp:150] Setting up relu2_5
I0109 11:23:13.146931 18073 net.cpp:157] Top shape: 4 128 47 155 (3729920)
I0109 11:23:13.146939 18073 net.cpp:165] Memory required for data: 2719111712
I0109 11:23:13.146947 18073 layer_factory.hpp:77] Creating layer enet2_5_relu2_5_0_split
I0109 11:23:13.146960 18073 net.cpp:106] Creating Layer enet2_5_relu2_5_0_split
I0109 11:23:13.146968 18073 net.cpp:454] enet2_5_relu2_5_0_split <- enet2_5
I0109 11:23:13.146981 18073 net.cpp:411] enet2_5_relu2_5_0_split -> enet2_5_relu2_5_0_split_0
I0109 11:23:13.146994 18073 net.cpp:411] enet2_5_relu2_5_0_split -> enet2_5_relu2_5_0_split_1
I0109 11:23:13.147083 18073 net.cpp:150] Setting up enet2_5_relu2_5_0_split
I0109 11:23:13.147095 18073 net.cpp:157] Top shape: 4 128 47 155 (3729920)
I0109 11:23:13.147107 18073 net.cpp:157] Top shape: 4 128 47 155 (3729920)
I0109 11:23:13.147114 18073 net.cpp:165] Memory required for data: 2748951072
I0109 11:23:13.147120 18073 layer_factory.hpp:77] Creating layer enet2_6_branch2a
I0109 11:23:13.147135 18073 net.cpp:106] Creating Layer enet2_6_branch2a
I0109 11:23:13.147142 18073 net.cpp:454] enet2_6_branch2a <- enet2_5_relu2_5_0_split_0
I0109 11:23:13.147156 18073 net.cpp:411] enet2_6_branch2a -> enet2_6_branch2a
I0109 11:23:13.150765 18073 net.cpp:150] Setting up enet2_6_branch2a
I0109 11:23:13.150784 18073 net.cpp:157] Top shape: 4 32 47 155 (932480)
I0109 11:23:13.150791 18073 net.cpp:165] Memory required for data: 2752680992
I0109 11:23:13.150801 18073 layer_factory.hpp:77] Creating layer bn2_6_branch2a
I0109 11:23:13.150816 18073 net.cpp:106] Creating Layer bn2_6_branch2a
I0109 11:23:13.150832 18073 net.cpp:454] bn2_6_branch2a <- enet2_6_branch2a
I0109 11:23:13.150856 18073 net.cpp:397] bn2_6_branch2a -> enet2_6_branch2a (in-place)
I0109 11:23:13.151368 18073 net.cpp:150] Setting up bn2_6_branch2a
I0109 11:23:13.151383 18073 net.cpp:157] Top shape: 4 32 47 155 (932480)
I0109 11:23:13.151391 18073 net.cpp:165] Memory required for data: 2756410912
I0109 11:23:13.151401 18073 layer_factory.hpp:77] Creating layer relu2_6_branch2a
I0109 11:23:13.151412 18073 net.cpp:106] Creating Layer relu2_6_branch2a
I0109 11:23:13.151418 18073 net.cpp:454] relu2_6_branch2a <- enet2_6_branch2a
I0109 11:23:13.151427 18073 net.cpp:397] relu2_6_branch2a -> enet2_6_branch2a (in-place)
I0109 11:23:13.152683 18073 net.cpp:150] Setting up relu2_6_branch2a
I0109 11:23:13.152700 18073 net.cpp:157] Top shape: 4 32 47 155 (932480)
I0109 11:23:13.152707 18073 net.cpp:165] Memory required for data: 2760140832
I0109 11:23:13.152717 18073 layer_factory.hpp:77] Creating layer enet2_6_branch2b
I0109 11:23:13.152734 18073 net.cpp:106] Creating Layer enet2_6_branch2b
I0109 11:23:13.152743 18073 net.cpp:454] enet2_6_branch2b <- enet2_6_branch2a
I0109 11:23:13.152755 18073 net.cpp:411] enet2_6_branch2b -> enet2_6_branch2b
I0109 11:23:13.153568 18073 net.cpp:150] Setting up enet2_6_branch2b
I0109 11:23:13.153583 18073 net.cpp:157] Top shape: 4 32 47 155 (932480)
I0109 11:23:13.153589 18073 net.cpp:165] Memory required for data: 2763870752
I0109 11:23:13.153599 18073 layer_factory.hpp:77] Creating layer bn2_6_branch2b
I0109 11:23:13.153614 18073 net.cpp:106] Creating Layer bn2_6_branch2b
I0109 11:23:13.153622 18073 net.cpp:454] bn2_6_branch2b <- enet2_6_branch2b
I0109 11:23:13.153635 18073 net.cpp:397] bn2_6_branch2b -> enet2_6_branch2b (in-place)
I0109 11:23:13.154161 18073 net.cpp:150] Setting up bn2_6_branch2b
I0109 11:23:13.154176 18073 net.cpp:157] Top shape: 4 32 47 155 (932480)
I0109 11:23:13.154183 18073 net.cpp:165] Memory required for data: 2767600672
I0109 11:23:13.154193 18073 layer_factory.hpp:77] Creating layer relu2_6_branch2b
I0109 11:23:13.154203 18073 net.cpp:106] Creating Layer relu2_6_branch2b
I0109 11:23:13.154211 18073 net.cpp:454] relu2_6_branch2b <- enet2_6_branch2b
I0109 11:23:13.154219 18073 net.cpp:397] relu2_6_branch2b -> enet2_6_branch2b (in-place)
I0109 11:23:13.155464 18073 net.cpp:150] Setting up relu2_6_branch2b
I0109 11:23:13.155480 18073 net.cpp:157] Top shape: 4 32 47 155 (932480)
I0109 11:23:13.155488 18073 net.cpp:165] Memory required for data: 2771330592
I0109 11:23:13.155496 18073 layer_factory.hpp:77] Creating layer enet2_6_branch2c
I0109 11:23:13.155514 18073 net.cpp:106] Creating Layer enet2_6_branch2c
I0109 11:23:13.155522 18073 net.cpp:454] enet2_6_branch2c <- enet2_6_branch2b
I0109 11:23:13.155536 18073 net.cpp:411] enet2_6_branch2c -> enet2_6_branch2c
I0109 11:23:13.159093 18073 net.cpp:150] Setting up enet2_6_branch2c
I0109 11:23:13.159111 18073 net.cpp:157] Top shape: 4 128 47 155 (3729920)
I0109 11:23:13.159119 18073 net.cpp:165] Memory required for data: 2786250272
I0109 11:23:13.159129 18073 layer_factory.hpp:77] Creating layer bn2_6_branch2c
I0109 11:23:13.159145 18073 net.cpp:106] Creating Layer bn2_6_branch2c
I0109 11:23:13.159153 18073 net.cpp:454] bn2_6_branch2c <- enet2_6_branch2c
I0109 11:23:13.159168 18073 net.cpp:397] bn2_6_branch2c -> enet2_6_branch2c (in-place)
I0109 11:23:13.159687 18073 net.cpp:150] Setting up bn2_6_branch2c
I0109 11:23:13.159703 18073 net.cpp:157] Top shape: 4 128 47 155 (3729920)
I0109 11:23:13.159708 18073 net.cpp:165] Memory required for data: 2801169952
I0109 11:23:13.159719 18073 layer_factory.hpp:77] Creating layer dropout2_6_branch2c
I0109 11:23:13.159730 18073 net.cpp:106] Creating Layer dropout2_6_branch2c
I0109 11:23:13.159737 18073 net.cpp:454] dropout2_6_branch2c <- enet2_6_branch2c
I0109 11:23:13.159746 18073 net.cpp:397] dropout2_6_branch2c -> enet2_6_branch2c (in-place)
I0109 11:23:13.159803 18073 net.cpp:150] Setting up dropout2_6_branch2c
I0109 11:23:13.159816 18073 net.cpp:157] Top shape: 4 128 47 155 (3729920)
I0109 11:23:13.159823 18073 net.cpp:165] Memory required for data: 2816089632
I0109 11:23:13.159848 18073 layer_factory.hpp:77] Creating layer enet2_6
I0109 11:23:13.159863 18073 net.cpp:106] Creating Layer enet2_6
I0109 11:23:13.159871 18073 net.cpp:454] enet2_6 <- enet2_5_relu2_5_0_split_1
I0109 11:23:13.159880 18073 net.cpp:454] enet2_6 <- enet2_6_branch2c
I0109 11:23:13.159893 18073 net.cpp:411] enet2_6 -> enet2_6
I0109 11:23:13.159950 18073 net.cpp:150] Setting up enet2_6
I0109 11:23:13.159965 18073 net.cpp:157] Top shape: 4 128 47 155 (3729920)
I0109 11:23:13.159970 18073 net.cpp:165] Memory required for data: 2831009312
I0109 11:23:13.159977 18073 layer_factory.hpp:77] Creating layer relu2_6
I0109 11:23:13.159991 18073 net.cpp:106] Creating Layer relu2_6
I0109 11:23:13.159998 18073 net.cpp:454] relu2_6 <- enet2_6
I0109 11:23:13.160007 18073 net.cpp:397] relu2_6 -> enet2_6 (in-place)
I0109 11:23:13.164568 18073 net.cpp:150] Setting up relu2_6
I0109 11:23:13.164587 18073 net.cpp:157] Top shape: 4 128 47 155 (3729920)
I0109 11:23:13.164594 18073 net.cpp:165] Memory required for data: 2845928992
I0109 11:23:13.164604 18073 layer_factory.hpp:77] Creating layer enet2_6_relu2_6_0_split
I0109 11:23:13.164616 18073 net.cpp:106] Creating Layer enet2_6_relu2_6_0_split
I0109 11:23:13.164624 18073 net.cpp:454] enet2_6_relu2_6_0_split <- enet2_6
I0109 11:23:13.164638 18073 net.cpp:411] enet2_6_relu2_6_0_split -> enet2_6_relu2_6_0_split_0
I0109 11:23:13.164650 18073 net.cpp:411] enet2_6_relu2_6_0_split -> enet2_6_relu2_6_0_split_1
I0109 11:23:13.164741 18073 net.cpp:150] Setting up enet2_6_relu2_6_0_split
I0109 11:23:13.164753 18073 net.cpp:157] Top shape: 4 128 47 155 (3729920)
I0109 11:23:13.164764 18073 net.cpp:157] Top shape: 4 128 47 155 (3729920)
I0109 11:23:13.164772 18073 net.cpp:165] Memory required for data: 2875768352
I0109 11:23:13.164777 18073 layer_factory.hpp:77] Creating layer enet2_7_branch2a
I0109 11:23:13.164791 18073 net.cpp:106] Creating Layer enet2_7_branch2a
I0109 11:23:13.164799 18073 net.cpp:454] enet2_7_branch2a <- enet2_6_relu2_6_0_split_0
I0109 11:23:13.164813 18073 net.cpp:411] enet2_7_branch2a -> enet2_7_branch2a
I0109 11:23:13.168432 18073 net.cpp:150] Setting up enet2_7_branch2a
I0109 11:23:13.168449 18073 net.cpp:157] Top shape: 4 32 47 155 (932480)
I0109 11:23:13.168457 18073 net.cpp:165] Memory required for data: 2879498272
I0109 11:23:13.168467 18073 layer_factory.hpp:77] Creating layer bn2_7_branch2a
I0109 11:23:13.168483 18073 net.cpp:106] Creating Layer bn2_7_branch2a
I0109 11:23:13.168490 18073 net.cpp:454] bn2_7_branch2a <- enet2_7_branch2a
I0109 11:23:13.168501 18073 net.cpp:397] bn2_7_branch2a -> enet2_7_branch2a (in-place)
I0109 11:23:13.169044 18073 net.cpp:150] Setting up bn2_7_branch2a
I0109 11:23:13.169059 18073 net.cpp:157] Top shape: 4 32 47 155 (932480)
I0109 11:23:13.169064 18073 net.cpp:165] Memory required for data: 2883228192
I0109 11:23:13.169075 18073 layer_factory.hpp:77] Creating layer relu2_7_branch2a
I0109 11:23:13.169085 18073 net.cpp:106] Creating Layer relu2_7_branch2a
I0109 11:23:13.169092 18073 net.cpp:454] relu2_7_branch2a <- enet2_7_branch2a
I0109 11:23:13.169102 18073 net.cpp:397] relu2_7_branch2a -> enet2_7_branch2a (in-place)
I0109 11:23:13.171505 18073 net.cpp:150] Setting up relu2_7_branch2a
I0109 11:23:13.171525 18073 net.cpp:157] Top shape: 4 32 47 155 (932480)
I0109 11:23:13.171532 18073 net.cpp:165] Memory required for data: 2886958112
I0109 11:23:13.171541 18073 layer_factory.hpp:77] Creating layer enet2_7_branch2b1
I0109 11:23:13.171558 18073 net.cpp:106] Creating Layer enet2_7_branch2b1
I0109 11:23:13.171566 18073 net.cpp:454] enet2_7_branch2b1 <- enet2_7_branch2a
I0109 11:23:13.171577 18073 net.cpp:411] enet2_7_branch2b1 -> enet2_7_branch2b1
I0109 11:23:13.175281 18073 net.cpp:150] Setting up enet2_7_branch2b1
I0109 11:23:13.175298 18073 net.cpp:157] Top shape: 4 32 47 155 (932480)
I0109 11:23:13.175305 18073 net.cpp:165] Memory required for data: 2890688032
I0109 11:23:13.175315 18073 layer_factory.hpp:77] Creating layer enet2_7_branch2b
I0109 11:23:13.175335 18073 net.cpp:106] Creating Layer enet2_7_branch2b
I0109 11:23:13.175359 18073 net.cpp:454] enet2_7_branch2b <- enet2_7_branch2b1
I0109 11:23:13.175371 18073 net.cpp:411] enet2_7_branch2b -> enet2_7_branch2b
I0109 11:23:13.179080 18073 net.cpp:150] Setting up enet2_7_branch2b
I0109 11:23:13.179098 18073 net.cpp:157] Top shape: 4 32 47 155 (932480)
I0109 11:23:13.179105 18073 net.cpp:165] Memory required for data: 2894417952
I0109 11:23:13.179117 18073 layer_factory.hpp:77] Creating layer bn2_7_branch2b
I0109 11:23:13.179129 18073 net.cpp:106] Creating Layer bn2_7_branch2b
I0109 11:23:13.179138 18073 net.cpp:454] bn2_7_branch2b <- enet2_7_branch2b
I0109 11:23:13.179152 18073 net.cpp:397] bn2_7_branch2b -> enet2_7_branch2b (in-place)
I0109 11:23:13.179709 18073 net.cpp:150] Setting up bn2_7_branch2b
I0109 11:23:13.179724 18073 net.cpp:157] Top shape: 4 32 47 155 (932480)
I0109 11:23:13.179731 18073 net.cpp:165] Memory required for data: 2898147872
I0109 11:23:13.179743 18073 layer_factory.hpp:77] Creating layer relu2_7_branch2b
I0109 11:23:13.179752 18073 net.cpp:106] Creating Layer relu2_7_branch2b
I0109 11:23:13.179759 18073 net.cpp:454] relu2_7_branch2b <- enet2_7_branch2b
I0109 11:23:13.179769 18073 net.cpp:397] relu2_7_branch2b -> enet2_7_branch2b (in-place)
I0109 11:23:13.181041 18073 net.cpp:150] Setting up relu2_7_branch2b
I0109 11:23:13.181061 18073 net.cpp:157] Top shape: 4 32 47 155 (932480)
I0109 11:23:13.181067 18073 net.cpp:165] Memory required for data: 2901877792
I0109 11:23:13.181077 18073 layer_factory.hpp:77] Creating layer enet2_7_branch2c
I0109 11:23:13.181094 18073 net.cpp:106] Creating Layer enet2_7_branch2c
I0109 11:23:13.181103 18073 net.cpp:454] enet2_7_branch2c <- enet2_7_branch2b
I0109 11:23:13.181114 18073 net.cpp:411] enet2_7_branch2c -> enet2_7_branch2c
I0109 11:23:13.184886 18073 net.cpp:150] Setting up enet2_7_branch2c
I0109 11:23:13.184904 18073 net.cpp:157] Top shape: 4 128 47 155 (3729920)
I0109 11:23:13.184912 18073 net.cpp:165] Memory required for data: 2916797472
I0109 11:23:13.184922 18073 layer_factory.hpp:77] Creating layer bn2_7_branch2c
I0109 11:23:13.184937 18073 net.cpp:106] Creating Layer bn2_7_branch2c
I0109 11:23:13.184947 18073 net.cpp:454] bn2_7_branch2c <- enet2_7_branch2c
I0109 11:23:13.184959 18073 net.cpp:397] bn2_7_branch2c -> enet2_7_branch2c (in-place)
I0109 11:23:13.185513 18073 net.cpp:150] Setting up bn2_7_branch2c
I0109 11:23:13.185526 18073 net.cpp:157] Top shape: 4 128 47 155 (3729920)
I0109 11:23:13.185534 18073 net.cpp:165] Memory required for data: 2931717152
I0109 11:23:13.185544 18073 layer_factory.hpp:77] Creating layer dropout2_7_branch2c
I0109 11:23:13.185554 18073 net.cpp:106] Creating Layer dropout2_7_branch2c
I0109 11:23:13.185562 18073 net.cpp:454] dropout2_7_branch2c <- enet2_7_branch2c
I0109 11:23:13.185571 18073 net.cpp:397] dropout2_7_branch2c -> enet2_7_branch2c (in-place)
I0109 11:23:13.185631 18073 net.cpp:150] Setting up dropout2_7_branch2c
I0109 11:23:13.185643 18073 net.cpp:157] Top shape: 4 128 47 155 (3729920)
I0109 11:23:13.185650 18073 net.cpp:165] Memory required for data: 2946636832
I0109 11:23:13.185657 18073 layer_factory.hpp:77] Creating layer enet2_7
I0109 11:23:13.185670 18073 net.cpp:106] Creating Layer enet2_7
I0109 11:23:13.185678 18073 net.cpp:454] enet2_7 <- enet2_6_relu2_6_0_split_1
I0109 11:23:13.185688 18073 net.cpp:454] enet2_7 <- enet2_7_branch2c
I0109 11:23:13.185696 18073 net.cpp:411] enet2_7 -> enet2_7
I0109 11:23:13.185758 18073 net.cpp:150] Setting up enet2_7
I0109 11:23:13.185772 18073 net.cpp:157] Top shape: 4 128 47 155 (3729920)
I0109 11:23:13.185780 18073 net.cpp:165] Memory required for data: 2961556512
I0109 11:23:13.185786 18073 layer_factory.hpp:77] Creating layer relu2_7
I0109 11:23:13.185794 18073 net.cpp:106] Creating Layer relu2_7
I0109 11:23:13.185801 18073 net.cpp:454] relu2_7 <- enet2_7
I0109 11:23:13.185813 18073 net.cpp:397] relu2_7 -> enet2_7 (in-place)
I0109 11:23:13.189745 18073 net.cpp:150] Setting up relu2_7
I0109 11:23:13.189764 18073 net.cpp:157] Top shape: 4 128 47 155 (3729920)
I0109 11:23:13.189780 18073 net.cpp:165] Memory required for data: 2976476192
I0109 11:23:13.189801 18073 layer_factory.hpp:77] Creating layer enet2_7_relu2_7_0_split
I0109 11:23:13.189815 18073 net.cpp:106] Creating Layer enet2_7_relu2_7_0_split
I0109 11:23:13.189823 18073 net.cpp:454] enet2_7_relu2_7_0_split <- enet2_7
I0109 11:23:13.189834 18073 net.cpp:411] enet2_7_relu2_7_0_split -> enet2_7_relu2_7_0_split_0
I0109 11:23:13.189851 18073 net.cpp:411] enet2_7_relu2_7_0_split -> enet2_7_relu2_7_0_split_1
I0109 11:23:13.189952 18073 net.cpp:150] Setting up enet2_7_relu2_7_0_split
I0109 11:23:13.189966 18073 net.cpp:157] Top shape: 4 128 47 155 (3729920)
I0109 11:23:13.189975 18073 net.cpp:157] Top shape: 4 128 47 155 (3729920)
I0109 11:23:13.189980 18073 net.cpp:165] Memory required for data: 3006315552
I0109 11:23:13.189987 18073 layer_factory.hpp:77] Creating layer enet2_8_branch2a
I0109 11:23:13.190001 18073 net.cpp:106] Creating Layer enet2_8_branch2a
I0109 11:23:13.190008 18073 net.cpp:454] enet2_8_branch2a <- enet2_7_relu2_7_0_split_0
I0109 11:23:13.190023 18073 net.cpp:411] enet2_8_branch2a -> enet2_8_branch2a
I0109 11:23:13.193816 18073 net.cpp:150] Setting up enet2_8_branch2a
I0109 11:23:13.193835 18073 net.cpp:157] Top shape: 4 32 47 155 (932480)
I0109 11:23:13.193845 18073 net.cpp:165] Memory required for data: 3010045472
I0109 11:23:13.193856 18073 layer_factory.hpp:77] Creating layer bn2_8_branch2a
I0109 11:23:13.193871 18073 net.cpp:106] Creating Layer bn2_8_branch2a
I0109 11:23:13.193879 18073 net.cpp:454] bn2_8_branch2a <- enet2_8_branch2a
I0109 11:23:13.193891 18073 net.cpp:397] bn2_8_branch2a -> enet2_8_branch2a (in-place)
I0109 11:23:13.194458 18073 net.cpp:150] Setting up bn2_8_branch2a
I0109 11:23:13.194473 18073 net.cpp:157] Top shape: 4 32 47 155 (932480)
I0109 11:23:13.194478 18073 net.cpp:165] Memory required for data: 3013775392
I0109 11:23:13.194489 18073 layer_factory.hpp:77] Creating layer relu2_8_branch2a
I0109 11:23:13.194499 18073 net.cpp:106] Creating Layer relu2_8_branch2a
I0109 11:23:13.194506 18073 net.cpp:454] relu2_8_branch2a <- enet2_8_branch2a
I0109 11:23:13.194519 18073 net.cpp:397] relu2_8_branch2a -> enet2_8_branch2a (in-place)
I0109 11:23:13.195796 18073 net.cpp:150] Setting up relu2_8_branch2a
I0109 11:23:13.195812 18073 net.cpp:157] Top shape: 4 32 47 155 (932480)
I0109 11:23:13.195822 18073 net.cpp:165] Memory required for data: 3017505312
I0109 11:23:13.195832 18073 layer_factory.hpp:77] Creating layer enet2_8_branch2b
I0109 11:23:13.195853 18073 net.cpp:106] Creating Layer enet2_8_branch2b
I0109 11:23:13.195863 18073 net.cpp:454] enet2_8_branch2b <- enet2_8_branch2a
I0109 11:23:13.195873 18073 net.cpp:411] enet2_8_branch2b -> enet2_8_branch2b
I0109 11:23:13.197569 18073 net.cpp:150] Setting up enet2_8_branch2b
I0109 11:23:13.197587 18073 net.cpp:157] Top shape: 4 32 47 155 (932480)
I0109 11:23:13.197593 18073 net.cpp:165] Memory required for data: 3021235232
I0109 11:23:13.197604 18073 layer_factory.hpp:77] Creating layer bn2_8_branch2b
I0109 11:23:13.197619 18073 net.cpp:106] Creating Layer bn2_8_branch2b
I0109 11:23:13.197628 18073 net.cpp:454] bn2_8_branch2b <- enet2_8_branch2b
I0109 11:23:13.197640 18073 net.cpp:397] bn2_8_branch2b -> enet2_8_branch2b (in-place)
I0109 11:23:13.198194 18073 net.cpp:150] Setting up bn2_8_branch2b
I0109 11:23:13.198207 18073 net.cpp:157] Top shape: 4 32 47 155 (932480)
I0109 11:23:13.198215 18073 net.cpp:165] Memory required for data: 3024965152
I0109 11:23:13.198225 18073 layer_factory.hpp:77] Creating layer relu2_8_branch2b
I0109 11:23:13.198235 18073 net.cpp:106] Creating Layer relu2_8_branch2b
I0109 11:23:13.198241 18073 net.cpp:454] relu2_8_branch2b <- enet2_8_branch2b
I0109 11:23:13.198251 18073 net.cpp:397] relu2_8_branch2b -> enet2_8_branch2b (in-place)
I0109 11:23:13.199506 18073 net.cpp:150] Setting up relu2_8_branch2b
I0109 11:23:13.199522 18073 net.cpp:157] Top shape: 4 32 47 155 (932480)
I0109 11:23:13.199527 18073 net.cpp:165] Memory required for data: 3028695072
I0109 11:23:13.199537 18073 layer_factory.hpp:77] Creating layer enet2_8_branch2c
I0109 11:23:13.199561 18073 net.cpp:106] Creating Layer enet2_8_branch2c
I0109 11:23:13.199579 18073 net.cpp:454] enet2_8_branch2c <- enet2_8_branch2b
I0109 11:23:13.199592 18073 net.cpp:411] enet2_8_branch2c -> enet2_8_branch2c
I0109 11:23:13.204277 18073 net.cpp:150] Setting up enet2_8_branch2c
I0109 11:23:13.204296 18073 net.cpp:157] Top shape: 4 128 47 155 (3729920)
I0109 11:23:13.204304 18073 net.cpp:165] Memory required for data: 3043614752
I0109 11:23:13.204313 18073 layer_factory.hpp:77] Creating layer bn2_8_branch2c
I0109 11:23:13.204329 18073 net.cpp:106] Creating Layer bn2_8_branch2c
I0109 11:23:13.204339 18073 net.cpp:454] bn2_8_branch2c <- enet2_8_branch2c
I0109 11:23:13.204349 18073 net.cpp:397] bn2_8_branch2c -> enet2_8_branch2c (in-place)
I0109 11:23:13.204924 18073 net.cpp:150] Setting up bn2_8_branch2c
I0109 11:23:13.204939 18073 net.cpp:157] Top shape: 4 128 47 155 (3729920)
I0109 11:23:13.204946 18073 net.cpp:165] Memory required for data: 3058534432
I0109 11:23:13.204957 18073 layer_factory.hpp:77] Creating layer dropout2_8_branch2c
I0109 11:23:13.204972 18073 net.cpp:106] Creating Layer dropout2_8_branch2c
I0109 11:23:13.204979 18073 net.cpp:454] dropout2_8_branch2c <- enet2_8_branch2c
I0109 11:23:13.204988 18073 net.cpp:397] dropout2_8_branch2c -> enet2_8_branch2c (in-place)
I0109 11:23:13.205049 18073 net.cpp:150] Setting up dropout2_8_branch2c
I0109 11:23:13.205062 18073 net.cpp:157] Top shape: 4 128 47 155 (3729920)
I0109 11:23:13.205068 18073 net.cpp:165] Memory required for data: 3073454112
I0109 11:23:13.205075 18073 layer_factory.hpp:77] Creating layer enet2_8
I0109 11:23:13.205085 18073 net.cpp:106] Creating Layer enet2_8
I0109 11:23:13.205092 18073 net.cpp:454] enet2_8 <- enet2_7_relu2_7_0_split_1
I0109 11:23:13.205101 18073 net.cpp:454] enet2_8 <- enet2_8_branch2c
I0109 11:23:13.205116 18073 net.cpp:411] enet2_8 -> enet2_8
I0109 11:23:13.205180 18073 net.cpp:150] Setting up enet2_8
I0109 11:23:13.205194 18073 net.cpp:157] Top shape: 4 128 47 155 (3729920)
I0109 11:23:13.205200 18073 net.cpp:165] Memory required for data: 3088373792
I0109 11:23:13.205207 18073 layer_factory.hpp:77] Creating layer relu2_8
I0109 11:23:13.205216 18073 net.cpp:106] Creating Layer relu2_8
I0109 11:23:13.205224 18073 net.cpp:454] relu2_8 <- enet2_8
I0109 11:23:13.205232 18073 net.cpp:397] relu2_8 -> enet2_8 (in-place)
I0109 11:23:13.209156 18073 net.cpp:150] Setting up relu2_8
I0109 11:23:13.209174 18073 net.cpp:157] Top shape: 4 128 47 155 (3729920)
I0109 11:23:13.209182 18073 net.cpp:165] Memory required for data: 3103293472
I0109 11:23:13.209192 18073 layer_factory.hpp:77] Creating layer enet2_8_relu2_8_0_split
I0109 11:23:13.209202 18073 net.cpp:106] Creating Layer enet2_8_relu2_8_0_split
I0109 11:23:13.209208 18073 net.cpp:454] enet2_8_relu2_8_0_split <- enet2_8
I0109 11:23:13.209223 18073 net.cpp:411] enet2_8_relu2_8_0_split -> enet2_8_relu2_8_0_split_0
I0109 11:23:13.209235 18073 net.cpp:411] enet2_8_relu2_8_0_split -> enet2_8_relu2_8_0_split_1
I0109 11:23:13.209337 18073 net.cpp:150] Setting up enet2_8_relu2_8_0_split
I0109 11:23:13.209355 18073 net.cpp:157] Top shape: 4 128 47 155 (3729920)
I0109 11:23:13.209364 18073 net.cpp:157] Top shape: 4 128 47 155 (3729920)
I0109 11:23:13.209370 18073 net.cpp:165] Memory required for data: 3133132832
I0109 11:23:13.209378 18073 layer_factory.hpp:77] Creating layer enet3_1_branch2a
I0109 11:23:13.209390 18073 net.cpp:106] Creating Layer enet3_1_branch2a
I0109 11:23:13.209398 18073 net.cpp:454] enet3_1_branch2a <- enet2_8_relu2_8_0_split_0
I0109 11:23:13.209409 18073 net.cpp:411] enet3_1_branch2a -> enet3_1_branch2a
I0109 11:23:13.213929 18073 net.cpp:150] Setting up enet3_1_branch2a
I0109 11:23:13.213948 18073 net.cpp:157] Top shape: 4 32 47 155 (932480)
I0109 11:23:13.213956 18073 net.cpp:165] Memory required for data: 3136862752
I0109 11:23:13.213965 18073 layer_factory.hpp:77] Creating layer bn3_1_branch2a
I0109 11:23:13.213981 18073 net.cpp:106] Creating Layer bn3_1_branch2a
I0109 11:23:13.213989 18073 net.cpp:454] bn3_1_branch2a <- enet3_1_branch2a
I0109 11:23:13.214012 18073 net.cpp:397] bn3_1_branch2a -> enet3_1_branch2a (in-place)
I0109 11:23:13.214612 18073 net.cpp:150] Setting up bn3_1_branch2a
I0109 11:23:13.214627 18073 net.cpp:157] Top shape: 4 32 47 155 (932480)
I0109 11:23:13.214634 18073 net.cpp:165] Memory required for data: 3140592672
I0109 11:23:13.214644 18073 layer_factory.hpp:77] Creating layer relu3_1_branch2a
I0109 11:23:13.214658 18073 net.cpp:106] Creating Layer relu3_1_branch2a
I0109 11:23:13.214665 18073 net.cpp:454] relu3_1_branch2a <- enet3_1_branch2a
I0109 11:23:13.214675 18073 net.cpp:397] relu3_1_branch2a -> enet3_1_branch2a (in-place)
I0109 11:23:13.215966 18073 net.cpp:150] Setting up relu3_1_branch2a
I0109 11:23:13.215984 18073 net.cpp:157] Top shape: 4 32 47 155 (932480)
I0109 11:23:13.215991 18073 net.cpp:165] Memory required for data: 3144322592
I0109 11:23:13.216001 18073 layer_factory.hpp:77] Creating layer enet3_1_branch2b
I0109 11:23:13.216017 18073 net.cpp:106] Creating Layer enet3_1_branch2b
I0109 11:23:13.216027 18073 net.cpp:454] enet3_1_branch2b <- enet3_1_branch2a
I0109 11:23:13.216039 18073 net.cpp:411] enet3_1_branch2b -> enet3_1_branch2b
I0109 11:23:13.219995 18073 net.cpp:150] Setting up enet3_1_branch2b
I0109 11:23:13.220012 18073 net.cpp:157] Top shape: 4 32 47 155 (932480)
I0109 11:23:13.220021 18073 net.cpp:165] Memory required for data: 3148052512
I0109 11:23:13.220032 18073 layer_factory.hpp:77] Creating layer bn3_1_branch2b
I0109 11:23:13.220047 18073 net.cpp:106] Creating Layer bn3_1_branch2b
I0109 11:23:13.220057 18073 net.cpp:454] bn3_1_branch2b <- enet3_1_branch2b
I0109 11:23:13.220069 18073 net.cpp:397] bn3_1_branch2b -> enet3_1_branch2b (in-place)
I0109 11:23:13.220662 18073 net.cpp:150] Setting up bn3_1_branch2b
I0109 11:23:13.220677 18073 net.cpp:157] Top shape: 4 32 47 155 (932480)
I0109 11:23:13.220685 18073 net.cpp:165] Memory required for data: 3151782432
I0109 11:23:13.220695 18073 layer_factory.hpp:77] Creating layer relu3_1_branch2b
I0109 11:23:13.220705 18073 net.cpp:106] Creating Layer relu3_1_branch2b
I0109 11:23:13.220711 18073 net.cpp:454] relu3_1_branch2b <- enet3_1_branch2b
I0109 11:23:13.220721 18073 net.cpp:397] relu3_1_branch2b -> enet3_1_branch2b (in-place)
I0109 11:23:13.222228 18073 net.cpp:150] Setting up relu3_1_branch2b
I0109 11:23:13.222244 18073 net.cpp:157] Top shape: 4 32 47 155 (932480)
I0109 11:23:13.222251 18073 net.cpp:165] Memory required for data: 3155512352
I0109 11:23:13.222261 18073 layer_factory.hpp:77] Creating layer enet3_1_branch2c
I0109 11:23:13.222280 18073 net.cpp:106] Creating Layer enet3_1_branch2c
I0109 11:23:13.222290 18073 net.cpp:454] enet3_1_branch2c <- enet3_1_branch2b
I0109 11:23:13.222301 18073 net.cpp:411] enet3_1_branch2c -> enet3_1_branch2c
I0109 11:23:13.226207 18073 net.cpp:150] Setting up enet3_1_branch2c
I0109 11:23:13.226224 18073 net.cpp:157] Top shape: 4 128 47 155 (3729920)
I0109 11:23:13.226233 18073 net.cpp:165] Memory required for data: 3170432032
I0109 11:23:13.226243 18073 layer_factory.hpp:77] Creating layer bn3_1_branch2c
I0109 11:23:13.226256 18073 net.cpp:106] Creating Layer bn3_1_branch2c
I0109 11:23:13.226265 18073 net.cpp:454] bn3_1_branch2c <- enet3_1_branch2c
I0109 11:23:13.226275 18073 net.cpp:397] bn3_1_branch2c -> enet3_1_branch2c (in-place)
I0109 11:23:13.226868 18073 net.cpp:150] Setting up bn3_1_branch2c
I0109 11:23:13.226882 18073 net.cpp:157] Top shape: 4 128 47 155 (3729920)
I0109 11:23:13.226889 18073 net.cpp:165] Memory required for data: 3185351712
I0109 11:23:13.226899 18073 layer_factory.hpp:77] Creating layer dropout3_1_branch2c
I0109 11:23:13.226910 18073 net.cpp:106] Creating Layer dropout3_1_branch2c
I0109 11:23:13.226917 18073 net.cpp:454] dropout3_1_branch2c <- enet3_1_branch2c
I0109 11:23:13.226927 18073 net.cpp:397] dropout3_1_branch2c -> enet3_1_branch2c (in-place)
I0109 11:23:13.226991 18073 net.cpp:150] Setting up dropout3_1_branch2c
I0109 11:23:13.227005 18073 net.cpp:157] Top shape: 4 128 47 155 (3729920)
I0109 11:23:13.227012 18073 net.cpp:165] Memory required for data: 3200271392
I0109 11:23:13.227018 18073 layer_factory.hpp:77] Creating layer enet3_1
I0109 11:23:13.227046 18073 net.cpp:106] Creating Layer enet3_1
I0109 11:23:13.227054 18073 net.cpp:454] enet3_1 <- enet2_8_relu2_8_0_split_1
I0109 11:23:13.227063 18073 net.cpp:454] enet3_1 <- enet3_1_branch2c
I0109 11:23:13.227072 18073 net.cpp:411] enet3_1 -> enet3_1
I0109 11:23:13.227138 18073 net.cpp:150] Setting up enet3_1
I0109 11:23:13.227151 18073 net.cpp:157] Top shape: 4 128 47 155 (3729920)
I0109 11:23:13.227157 18073 net.cpp:165] Memory required for data: 3215191072
I0109 11:23:13.227164 18073 layer_factory.hpp:77] Creating layer relu3_1
I0109 11:23:13.227174 18073 net.cpp:106] Creating Layer relu3_1
I0109 11:23:13.227180 18073 net.cpp:454] relu3_1 <- enet3_1
I0109 11:23:13.227192 18073 net.cpp:397] relu3_1 -> enet3_1 (in-place)
I0109 11:23:13.231163 18073 net.cpp:150] Setting up relu3_1
I0109 11:23:13.231182 18073 net.cpp:157] Top shape: 4 128 47 155 (3729920)
I0109 11:23:13.231189 18073 net.cpp:165] Memory required for data: 3230110752
I0109 11:23:13.231199 18073 layer_factory.hpp:77] Creating layer enet3_1_relu3_1_0_split
I0109 11:23:13.231369 18073 net.cpp:106] Creating Layer enet3_1_relu3_1_0_split
I0109 11:23:13.231377 18073 net.cpp:454] enet3_1_relu3_1_0_split <- enet3_1
I0109 11:23:13.231389 18073 net.cpp:411] enet3_1_relu3_1_0_split -> enet3_1_relu3_1_0_split_0
I0109 11:23:13.231400 18073 net.cpp:411] enet3_1_relu3_1_0_split -> enet3_1_relu3_1_0_split_1
I0109 11:23:13.231783 18073 net.cpp:150] Setting up enet3_1_relu3_1_0_split
I0109 11:23:13.231798 18073 net.cpp:157] Top shape: 4 128 47 155 (3729920)
I0109 11:23:13.231806 18073 net.cpp:157] Top shape: 4 128 47 155 (3729920)
I0109 11:23:13.231812 18073 net.cpp:165] Memory required for data: 3259950112
I0109 11:23:13.231819 18073 layer_factory.hpp:77] Creating layer enet3_2_branch2a
I0109 11:23:13.231923 18073 net.cpp:106] Creating Layer enet3_2_branch2a
I0109 11:23:13.231933 18073 net.cpp:454] enet3_2_branch2a <- enet3_1_relu3_1_0_split_0
I0109 11:23:13.231945 18073 net.cpp:411] enet3_2_branch2a -> enet3_2_branch2a
I0109 11:23:13.238811 18073 net.cpp:150] Setting up enet3_2_branch2a
I0109 11:23:13.238828 18073 net.cpp:157] Top shape: 4 32 47 155 (932480)
I0109 11:23:13.238837 18073 net.cpp:165] Memory required for data: 3263680032
I0109 11:23:13.238850 18073 layer_factory.hpp:77] Creating layer bn3_2_branch2a
I0109 11:23:13.238867 18073 net.cpp:106] Creating Layer bn3_2_branch2a
I0109 11:23:13.238874 18073 net.cpp:454] bn3_2_branch2a <- enet3_2_branch2a
I0109 11:23:13.238888 18073 net.cpp:397] bn3_2_branch2a -> enet3_2_branch2a (in-place)
I0109 11:23:13.239512 18073 net.cpp:150] Setting up bn3_2_branch2a
I0109 11:23:13.239526 18073 net.cpp:157] Top shape: 4 32 47 155 (932480)
I0109 11:23:13.239533 18073 net.cpp:165] Memory required for data: 3267409952
I0109 11:23:13.239544 18073 layer_factory.hpp:77] Creating layer relu3_2_branch2a
I0109 11:23:13.239554 18073 net.cpp:106] Creating Layer relu3_2_branch2a
I0109 11:23:13.239562 18073 net.cpp:454] relu3_2_branch2a <- enet3_2_branch2a
I0109 11:23:13.239572 18073 net.cpp:397] relu3_2_branch2a -> enet3_2_branch2a (in-place)
I0109 11:23:13.240870 18073 net.cpp:150] Setting up relu3_2_branch2a
I0109 11:23:13.240887 18073 net.cpp:157] Top shape: 4 32 47 155 (932480)
I0109 11:23:13.240895 18073 net.cpp:165] Memory required for data: 3271139872
I0109 11:23:13.240905 18073 layer_factory.hpp:77] Creating layer enet3_2_branch2b
I0109 11:23:13.240922 18073 net.cpp:106] Creating Layer enet3_2_branch2b
I0109 11:23:13.240931 18073 net.cpp:454] enet3_2_branch2b <- enet3_2_branch2a
I0109 11:23:13.240944 18073 net.cpp:411] enet3_2_branch2b -> enet3_2_branch2b
I0109 11:23:13.241869 18073 net.cpp:150] Setting up enet3_2_branch2b
I0109 11:23:13.241884 18073 net.cpp:157] Top shape: 4 32 47 155 (932480)
I0109 11:23:13.241891 18073 net.cpp:165] Memory required for data: 3274869792
I0109 11:23:13.241902 18073 layer_factory.hpp:77] Creating layer bn3_2_branch2b
I0109 11:23:13.241916 18073 net.cpp:106] Creating Layer bn3_2_branch2b
I0109 11:23:13.241925 18073 net.cpp:454] bn3_2_branch2b <- enet3_2_branch2b
I0109 11:23:13.241945 18073 net.cpp:397] bn3_2_branch2b -> enet3_2_branch2b (in-place)
I0109 11:23:13.242570 18073 net.cpp:150] Setting up bn3_2_branch2b
I0109 11:23:13.242585 18073 net.cpp:157] Top shape: 4 32 47 155 (932480)
I0109 11:23:13.242591 18073 net.cpp:165] Memory required for data: 3278599712
I0109 11:23:13.242601 18073 layer_factory.hpp:77] Creating layer relu3_2_branch2b
I0109 11:23:13.242611 18073 net.cpp:106] Creating Layer relu3_2_branch2b
I0109 11:23:13.242619 18073 net.cpp:454] relu3_2_branch2b <- enet3_2_branch2b
I0109 11:23:13.242627 18073 net.cpp:397] relu3_2_branch2b -> enet3_2_branch2b (in-place)
I0109 11:23:13.243927 18073 net.cpp:150] Setting up relu3_2_branch2b
I0109 11:23:13.243943 18073 net.cpp:157] Top shape: 4 32 47 155 (932480)
I0109 11:23:13.243950 18073 net.cpp:165] Memory required for data: 3282329632
I0109 11:23:13.243960 18073 layer_factory.hpp:77] Creating layer enet3_2_branch2c
I0109 11:23:13.243979 18073 net.cpp:106] Creating Layer enet3_2_branch2c
I0109 11:23:13.243988 18073 net.cpp:454] enet3_2_branch2c <- enet3_2_branch2b
I0109 11:23:13.243999 18073 net.cpp:411] enet3_2_branch2c -> enet3_2_branch2c
I0109 11:23:13.247930 18073 net.cpp:150] Setting up enet3_2_branch2c
I0109 11:23:13.247947 18073 net.cpp:157] Top shape: 4 128 47 155 (3729920)
I0109 11:23:13.247956 18073 net.cpp:165] Memory required for data: 3297249312
I0109 11:23:13.247966 18073 layer_factory.hpp:77] Creating layer bn3_2_branch2c
I0109 11:23:13.247980 18073 net.cpp:106] Creating Layer bn3_2_branch2c
I0109 11:23:13.247988 18073 net.cpp:454] bn3_2_branch2c <- enet3_2_branch2c
I0109 11:23:13.248001 18073 net.cpp:397] bn3_2_branch2c -> enet3_2_branch2c (in-place)
I0109 11:23:13.248631 18073 net.cpp:150] Setting up bn3_2_branch2c
I0109 11:23:13.248646 18073 net.cpp:157] Top shape: 4 128 47 155 (3729920)
I0109 11:23:13.248651 18073 net.cpp:165] Memory required for data: 3312168992
I0109 11:23:13.248662 18073 layer_factory.hpp:77] Creating layer dropout3_2_branch2c
I0109 11:23:13.248673 18073 net.cpp:106] Creating Layer dropout3_2_branch2c
I0109 11:23:13.248680 18073 net.cpp:454] dropout3_2_branch2c <- enet3_2_branch2c
I0109 11:23:13.248692 18073 net.cpp:397] dropout3_2_branch2c -> enet3_2_branch2c (in-place)
I0109 11:23:13.248756 18073 net.cpp:150] Setting up dropout3_2_branch2c
I0109 11:23:13.248769 18073 net.cpp:157] Top shape: 4 128 47 155 (3729920)
I0109 11:23:13.248776 18073 net.cpp:165] Memory required for data: 3327088672
I0109 11:23:13.248783 18073 layer_factory.hpp:77] Creating layer enet3_2
I0109 11:23:13.248792 18073 net.cpp:106] Creating Layer enet3_2
I0109 11:23:13.248800 18073 net.cpp:454] enet3_2 <- enet3_1_relu3_1_0_split_1
I0109 11:23:13.248808 18073 net.cpp:454] enet3_2 <- enet3_2_branch2c
I0109 11:23:13.248817 18073 net.cpp:411] enet3_2 -> enet3_2
I0109 11:23:13.248888 18073 net.cpp:150] Setting up enet3_2
I0109 11:23:13.248901 18073 net.cpp:157] Top shape: 4 128 47 155 (3729920)
I0109 11:23:13.248908 18073 net.cpp:165] Memory required for data: 3342008352
I0109 11:23:13.248914 18073 layer_factory.hpp:77] Creating layer relu3_2
I0109 11:23:13.248926 18073 net.cpp:106] Creating Layer relu3_2
I0109 11:23:13.248934 18073 net.cpp:454] relu3_2 <- enet3_2
I0109 11:23:13.248944 18073 net.cpp:397] relu3_2 -> enet3_2 (in-place)
I0109 11:23:13.252902 18073 net.cpp:150] Setting up relu3_2
I0109 11:23:13.252920 18073 net.cpp:157] Top shape: 4 128 47 155 (3729920)
I0109 11:23:13.252928 18073 net.cpp:165] Memory required for data: 3356928032
I0109 11:23:13.252938 18073 layer_factory.hpp:77] Creating layer enet3_2_relu3_2_0_split
I0109 11:23:13.252948 18073 net.cpp:106] Creating Layer enet3_2_relu3_2_0_split
I0109 11:23:13.252955 18073 net.cpp:454] enet3_2_relu3_2_0_split <- enet3_2
I0109 11:23:13.252965 18073 net.cpp:411] enet3_2_relu3_2_0_split -> enet3_2_relu3_2_0_split_0
I0109 11:23:13.252980 18073 net.cpp:411] enet3_2_relu3_2_0_split -> enet3_2_relu3_2_0_split_1
I0109 11:23:13.253087 18073 net.cpp:150] Setting up enet3_2_relu3_2_0_split
I0109 11:23:13.253101 18073 net.cpp:157] Top shape: 4 128 47 155 (3729920)
I0109 11:23:13.253118 18073 net.cpp:157] Top shape: 4 128 47 155 (3729920)
I0109 11:23:13.253134 18073 net.cpp:165] Memory required for data: 3386767392
I0109 11:23:13.253141 18073 layer_factory.hpp:77] Creating layer enet3_3_branch2a
I0109 11:23:13.253159 18073 net.cpp:106] Creating Layer enet3_3_branch2a
I0109 11:23:13.253167 18073 net.cpp:454] enet3_3_branch2a <- enet3_2_relu3_2_0_split_0
I0109 11:23:13.253178 18073 net.cpp:411] enet3_3_branch2a -> enet3_3_branch2a
I0109 11:23:13.257150 18073 net.cpp:150] Setting up enet3_3_branch2a
I0109 11:23:13.257169 18073 net.cpp:157] Top shape: 4 32 47 155 (932480)
I0109 11:23:13.257176 18073 net.cpp:165] Memory required for data: 3390497312
I0109 11:23:13.257186 18073 layer_factory.hpp:77] Creating layer bn3_3_branch2a
I0109 11:23:13.257205 18073 net.cpp:106] Creating Layer bn3_3_branch2a
I0109 11:23:13.257213 18073 net.cpp:454] bn3_3_branch2a <- enet3_3_branch2a
I0109 11:23:13.257225 18073 net.cpp:397] bn3_3_branch2a -> enet3_3_branch2a (in-place)
I0109 11:23:13.257879 18073 net.cpp:150] Setting up bn3_3_branch2a
I0109 11:23:13.257894 18073 net.cpp:157] Top shape: 4 32 47 155 (932480)
I0109 11:23:13.257900 18073 net.cpp:165] Memory required for data: 3394227232
I0109 11:23:13.257911 18073 layer_factory.hpp:77] Creating layer relu3_3_branch2a
I0109 11:23:13.257921 18073 net.cpp:106] Creating Layer relu3_3_branch2a
I0109 11:23:13.257928 18073 net.cpp:454] relu3_3_branch2a <- enet3_3_branch2a
I0109 11:23:13.257941 18073 net.cpp:397] relu3_3_branch2a -> enet3_3_branch2a (in-place)
I0109 11:23:13.259433 18073 net.cpp:150] Setting up relu3_3_branch2a
I0109 11:23:13.259451 18073 net.cpp:157] Top shape: 4 32 47 155 (932480)
I0109 11:23:13.259459 18073 net.cpp:165] Memory required for data: 3397957152
I0109 11:23:13.259467 18073 layer_factory.hpp:77] Creating layer enet3_3_branch2b1
I0109 11:23:13.259488 18073 net.cpp:106] Creating Layer enet3_3_branch2b1
I0109 11:23:13.259496 18073 net.cpp:454] enet3_3_branch2b1 <- enet3_3_branch2a
I0109 11:23:13.259507 18073 net.cpp:411] enet3_3_branch2b1 -> enet3_3_branch2b1
I0109 11:23:13.263260 18073 net.cpp:150] Setting up enet3_3_branch2b1
I0109 11:23:13.263279 18073 net.cpp:157] Top shape: 4 32 47 155 (932480)
I0109 11:23:13.263286 18073 net.cpp:165] Memory required for data: 3401687072
I0109 11:23:13.263296 18073 layer_factory.hpp:77] Creating layer enet3_3_branch2b
I0109 11:23:13.263315 18073 net.cpp:106] Creating Layer enet3_3_branch2b
I0109 11:23:13.263324 18073 net.cpp:454] enet3_3_branch2b <- enet3_3_branch2b1
I0109 11:23:13.263335 18073 net.cpp:411] enet3_3_branch2b -> enet3_3_branch2b
I0109 11:23:13.268117 18073 net.cpp:150] Setting up enet3_3_branch2b
I0109 11:23:13.268136 18073 net.cpp:157] Top shape: 4 32 47 155 (932480)
I0109 11:23:13.268146 18073 net.cpp:165] Memory required for data: 3405416992
I0109 11:23:13.268157 18073 layer_factory.hpp:77] Creating layer bn3_3_branch2b
I0109 11:23:13.268174 18073 net.cpp:106] Creating Layer bn3_3_branch2b
I0109 11:23:13.268198 18073 net.cpp:454] bn3_3_branch2b <- enet3_3_branch2b
…
I0109 11:23:13.338244 18073 net.cpp:411] enet3_6_relu3_6_0_split -> enet3_6_relu3_6_0_split_1
I0109 11:23:13.338299 18073 net.cpp:150] Setting up enet3_6_relu3_6_0_split
I0109 11:23:13.338310 18073 net.cpp:157] Top shape: 4 128 47 155 (3729920)
I0109 11:23:13.338318 18073 net.cpp:157] Top shape: 4 128 47 155 (3729920)
I0109 11:23:13.338325 18073 net.cpp:165] Memory required for data: 3897766432
I0109 11:23:13.338332 18073 layer_factory.hpp:77] Creating layer enet3_7_branch2a
I0109 11:23:13.338347 18073 net.cpp:106] Creating Layer enet3_7_branch2a
I0109 11:23:13.338356 18073 net.cpp:454] enet3_7_branch2a <- enet3_6_relu3_6_0_split_0
I0109 11:23:13.338367 18073 net.cpp:411] enet3_7_branch2a -> enet3_7_branch2a
I0109 11:23:13.341898 18073 net.cpp:150] Setting up enet3_7_branch2a
I0109 11:23:13.341917 18073 net.cpp:157] Top shape: 4 32 47 155 (932480)
I0109 11:23:13.341923 18073 net.cpp:165] Memory required for data: 3901496352
I0109 11:23:13.341933 18073 layer_factory.hpp:77] Creating layer bn3_7_branch2a
I0109 11:23:13.341948 18073 net.cpp:106] Creating Layer bn3_7_branch2a
I0109 11:23:13.341956 18073 net.cpp:454] bn3_7_branch2a <- enet3_7_branch2a
I0109 11:23:13.341974 18073 net.cpp:397] bn3_7_branch2a -> enet3_7_branch2a (in-place)
I0109 11:23:13.342284 18073 net.cpp:150] Setting up bn3_7_branch2a
I0109 11:23:13.342298 18073 net.cpp:157] Top shape: 4 32 47 155 (932480)
I0109 11:23:13.342305 18073 net.cpp:165] Memory required for data: 3905226272
I0109 11:23:13.342315 18073 layer_factory.hpp:77] Creating layer relu3_7_branch2a
I0109 11:23:13.342329 18073 net.cpp:106] Creating Layer relu3_7_branch2a
I0109 11:23:13.342336 18073 net.cpp:454] relu3_7_branch2a <- enet3_7_branch2a
I0109 11:23:13.342345 18073 net.cpp:397] relu3_7_branch2a -> enet3_7_branch2a (in-place)
I0109 11:23:13.343547 18073 net.cpp:150] Setting up relu3_7_branch2a
I0109 11:23:13.343571 18073 net.cpp:157] Top shape: 4 32 47 155 (932480)
I0109 11:23:13.343586 18073 net.cpp:165] Memory required for data: 3908956192
I0109 11:23:13.343596 18073 layer_factory.hpp:77] Creating layer enet3_7_branch2b1
I0109 11:23:13.343613 18073 net.cpp:106] Creating Layer enet3_7_branch2b1
I0109 11:23:13.343622 18073 net.cpp:454] enet3_7_branch2b1 <- enet3_7_branch2a
I0109 11:23:13.343636 18073 net.cpp:411] enet3_7_branch2b1 -> enet3_7_branch2b1
I0109 11:23:13.347398 18073 net.cpp:150] Setting up enet3_7_branch2b1
I0109 11:23:13.347416 18073 net.cpp:157] Top shape: 4 32 47 155 (932480)
I0109 11:23:13.347424 18073 net.cpp:165] Memory required for data: 3912686112
I0109 11:23:13.347434 18073 layer_factory.hpp:77] Creating layer enet3_7_branch2b
I0109 11:23:13.347452 18073 net.cpp:106] Creating Layer enet3_7_branch2b
I0109 11:23:13.347461 18073 net.cpp:454] enet3_7_branch2b <- enet3_7_branch2b1
I0109 11:23:13.347476 18073 net.cpp:411] enet3_7_branch2b -> enet3_7_branch2b
I0109 11:23:13.351192 18073 net.cpp:150] Setting up enet3_7_branch2b
I0109 11:23:13.351209 18073 net.cpp:157] Top shape: 4 32 47 155 (932480)
I0109 11:23:13.351217 18073 net.cpp:165] Memory required for data: 3916416032
I0109 11:23:13.351228 18073 layer_factory.hpp:77] Creating layer bn3_7_branch2b
I0109 11:23:13.351244 18073 net.cpp:106] Creating Layer bn3_7_branch2b
I0109 11:23:13.351253 18073 net.cpp:454] bn3_7_branch2b <- enet3_7_branch2b
I0109 11:23:13.351263 18073 net.cpp:397] bn3_7_branch2b -> enet3_7_branch2b (in-place)
I0109 11:23:13.351573 18073 net.cpp:150] Setting up bn3_7_branch2b
I0109 11:23:13.351588 18073 net.cpp:157] Top shape: 4 32 47 155 (932480)
I0109 11:23:13.351594 18073 net.cpp:165] Memory required for data: 3920145952
I0109 11:23:13.351604 18073 layer_factory.hpp:77] Creating layer relu3_7_branch2b
I0109 11:23:13.351615 18073 net.cpp:106] Creating Layer relu3_7_branch2b
I0109 11:23:13.351622 18073 net.cpp:454] relu3_7_branch2b <- enet3_7_branch2b
I0109 11:23:13.351634 18073 net.cpp:397] relu3_7_branch2b -> enet3_7_branch2b (in-place)
I0109 11:23:13.352820 18073 net.cpp:150] Setting up relu3_7_branch2b
I0109 11:23:13.352838 18073 net.cpp:157] Top shape: 4 32 47 155 (932480)
I0109 11:23:13.352849 18073 net.cpp:165] Memory required for data: 3923875872
I0109 11:23:13.352859 18073 layer_factory.hpp:77] Creating layer enet3_7_branch2c
I0109 11:23:13.352877 18073 net.cpp:106] Creating Layer enet3_7_branch2c
I0109 11:23:13.352886 18073 net.cpp:454] enet3_7_branch2c <- enet3_7_branch2b
I0109 11:23:13.352897 18073 net.cpp:411] enet3_7_branch2c -> enet3_7_branch2c
I0109 11:23:13.356634 18073 net.cpp:150] Setting up enet3_7_branch2c
I0109 11:23:13.356653 18073 net.cpp:157] Top shape: 4 128 47 155 (3729920)
I0109 11:23:13.356660 18073 net.cpp:165] Memory required for data: 3938795552
I0109 11:23:13.356670 18073 layer_factory.hpp:77] Creating layer bn3_7_branch2c
I0109 11:23:13.356683 18073 net.cpp:106] Creating Layer bn3_7_branch2c
I0109 11:23:13.356691 18073 net.cpp:454] bn3_7_branch2c <- enet3_7_branch2c
I0109 11:23:13.356704 18073 net.cpp:397] bn3_7_branch2c -> enet3_7_branch2c (in-place)
I0109 11:23:13.357023 18073 net.cpp:150] Setting up bn3_7_branch2c
I0109 11:23:13.357036 18073 net.cpp:157] Top shape: 4 128 47 155 (3729920)
I0109 11:23:13.357043 18073 net.cpp:165] Memory required for data: 3953715232
I0109 11:23:13.357053 18073 layer_factory.hpp:77] Creating layer dropout3_7_branch2c
I0109 11:23:13.357067 18073 net.cpp:106] Creating Layer dropout3_7_branch2c
I0109 11:23:13.357075 18073 net.cpp:454] dropout3_7_branch2c <- enet3_7_branch2c
I0109 11:23:13.357085 18073 net.cpp:397] dropout3_7_branch2c -> enet3_7_branch2c (in-place)
I0109 11:23:13.357123 18073 net.cpp:150] Setting up dropout3_7_branch2c
I0109 11:23:13.357136 18073 net.cpp:157] Top shape: 4 128 47 155 (3729920)
I0109 11:23:13.357142 18073 net.cpp:165] Memory required for data: 3968634912
I0109 11:23:13.357148 18073 layer_factory.hpp:77] Creating layer enet3_7
I0109 11:23:13.357158 18073 net.cpp:106] Creating Layer enet3_7
I0109 11:23:13.357166 18073 net.cpp:454] enet3_7 <- enet3_6_relu3_6_0_split_1
I0109 11:23:13.357182 18073 net.cpp:454] enet3_7 <- enet3_7_branch2c
I0109 11:23:13.357203 18073 net.cpp:411] enet3_7 -> enet3_7
I0109 11:23:13.357242 18073 net.cpp:150] Setting up enet3_7
I0109 11:23:13.357257 18073 net.cpp:157] Top shape: 4 128 47 155 (3729920)
I0109 11:23:13.357264 18073 net.cpp:165] Memory required for data: 3983554592
I0109 11:23:13.357270 18073 layer_factory.hpp:77] Creating layer relu3_7
I0109 11:23:13.357280 18073 net.cpp:106] Creating Layer relu3_7
I0109 11:23:13.357287 18073 net.cpp:454] relu3_7 <- enet3_7
I0109 11:23:13.357295 18073 net.cpp:397] relu3_7 -> enet3_7 (in-place)
I0109 11:23:13.362293 18073 net.cpp:150] Setting up relu3_7
I0109 11:23:13.362313 18073 net.cpp:157] Top shape: 4 128 47 155 (3729920)
I0109 11:23:13.362319 18073 net.cpp:165] Memory required for data: 3998474272
I0109 11:23:13.362329 18073 layer_factory.hpp:77] Creating layer enet3_7_relu3_7_0_split
I0109 11:23:13.362339 18073 net.cpp:106] Creating Layer enet3_7_relu3_7_0_split
I0109 11:23:13.362347 18073 net.cpp:454] enet3_7_relu3_7_0_split <- enet3_7
I0109 11:23:13.362360 18073 net.cpp:411] enet3_7_relu3_7_0_split -> enet3_7_relu3_7_0_split_0
I0109 11:23:13.362373 18073 net.cpp:411] enet3_7_relu3_7_0_split -> enet3_7_relu3_7_0_split_1
I0109 11:23:13.362431 18073 net.cpp:150] Setting up enet3_7_relu3_7_0_split
I0109 11:23:13.362443 18073 net.cpp:157] Top shape: 4 128 47 155 (3729920)
I0109 11:23:13.362452 18073 net.cpp:157] Top shape: 4 128 47 155 (3729920)
I0109 11:23:13.362457 18073 net.cpp:165] Memory required for data: 4028313632
I0109 11:23:13.362463 18073 layer_factory.hpp:77] Creating layer enet3_8_branch2a
I0109 11:23:13.362479 18073 net.cpp:106] Creating Layer enet3_8_branch2a
I0109 11:23:13.362488 18073 net.cpp:454] enet3_8_branch2a <- enet3_7_relu3_7_0_split_0
I0109 11:23:13.362499 18073 net.cpp:411] enet3_8_branch2a -> enet3_8_branch2a
I0109 11:23:13.367136 18073 net.cpp:150] Setting up enet3_8_branch2a
I0109 11:23:13.367154 18073 net.cpp:157] Top shape: 4 32 47 155 (932480)
I0109 11:23:13.367161 18073 net.cpp:165] Memory required for data: 4032043552
I0109 11:23:13.367172 18073 layer_factory.hpp:77] Creating layer bn3_8_branch2a
I0109 11:23:13.367187 18073 net.cpp:106] Creating Layer bn3_8_branch2a
I0109 11:23:13.367195 18073 net.cpp:454] bn3_8_branch2a <- enet3_8_branch2a
I0109 11:23:13.367208 18073 net.cpp:397] bn3_8_branch2a -> enet3_8_branch2a (in-place)
I0109 11:23:13.367535 18073 net.cpp:150] Setting up bn3_8_branch2a
I0109 11:23:13.367549 18073 net.cpp:157] Top shape: 4 32 47 155 (932480)
I0109 11:23:13.367555 18073 net.cpp:165] Memory required for data: 4035773472
I0109 11:23:13.367566 18073 layer_factory.hpp:77] Creating layer relu3_8_branch2a
I0109 11:23:13.367576 18073 net.cpp:106] Creating Layer relu3_8_branch2a
I0109 11:23:13.367583 18073 net.cpp:454] relu3_8_branch2a <- enet3_8_branch2a
I0109 11:23:13.367594 18073 net.cpp:397] relu3_8_branch2a -> enet3_8_branch2a (in-place)
I0109 11:23:13.368770 18073 net.cpp:150] Setting up relu3_8_branch2a
I0109 11:23:13.368788 18073 net.cpp:157] Top shape: 4 32 47 155 (932480)
I0109 11:23:13.368794 18073 net.cpp:165] Memory required for data: 4039503392
I0109 11:23:13.368804 18073 layer_factory.hpp:77] Creating layer enet3_8_branch2b
I0109 11:23:13.368821 18073 net.cpp:106] Creating Layer enet3_8_branch2b
I0109 11:23:13.368829 18073 net.cpp:454] enet3_8_branch2b <- enet3_8_branch2a
I0109 11:23:13.368846 18073 net.cpp:411] enet3_8_branch2b -> enet3_8_branch2b
I0109 11:23:13.369443 18073 net.cpp:150] Setting up enet3_8_branch2b
I0109 11:23:13.369458 18073 net.cpp:157] Top shape: 4 32 47 155 (932480)
I0109 11:23:13.369465 18073 net.cpp:165] Memory required for data: 4043233312
I0109 11:23:13.369475 18073 layer_factory.hpp:77] Creating layer bn3_8_branch2b
I0109 11:23:13.369490 18073 net.cpp:106] Creating Layer bn3_8_branch2b
I0109 11:23:13.369500 18073 net.cpp:454] bn3_8_branch2b <- enet3_8_branch2b
I0109 11:23:13.369510 18073 net.cpp:397] bn3_8_branch2b -> enet3_8_branch2b (in-place)
I0109 11:23:13.369833 18073 net.cpp:150] Setting up bn3_8_branch2b
I0109 11:23:13.369858 18073 net.cpp:157] Top shape: 4 32 47 155 (932480)
I0109 11:23:13.369874 18073 net.cpp:165] Memory required for data: 4046963232
I0109 11:23:13.369884 18073 layer_factory.hpp:77] Creating layer relu3_8_branch2b
I0109 11:23:13.369894 18073 net.cpp:106] Creating Layer relu3_8_branch2b
I0109 11:23:13.369901 18073 net.cpp:454] relu3_8_branch2b <- enet3_8_branch2b
I0109 11:23:13.369910 18073 net.cpp:397] relu3_8_branch2b -> enet3_8_branch2b (in-place)
I0109 11:23:13.371094 18073 net.cpp:150] Setting up relu3_8_branch2b
I0109 11:23:13.371111 18073 net.cpp:157] Top shape: 4 32 47 155 (932480)
I0109 11:23:13.371119 18073 net.cpp:165] Memory required for data: 4050693152
I0109 11:23:13.371129 18073 layer_factory.hpp:77] Creating layer enet3_8_branch2c
I0109 11:23:13.371146 18073 net.cpp:106] Creating Layer enet3_8_branch2c
I0109 11:23:13.371155 18073 net.cpp:454] enet3_8_branch2c <- enet3_8_branch2b
I0109 11:23:13.371165 18073 net.cpp:411] enet3_8_branch2c -> enet3_8_branch2c
I0109 11:23:13.374792 18073 net.cpp:150] Setting up enet3_8_branch2c
I0109 11:23:13.374810 18073 net.cpp:157] Top shape: 4 128 47 155 (3729920)
I0109 11:23:13.374819 18073 net.cpp:165] Memory required for data: 4065612832
I0109 11:23:13.374828 18073 layer_factory.hpp:77] Creating layer bn3_8_branch2c
I0109 11:23:13.374846 18073 net.cpp:106] Creating Layer bn3_8_branch2c
I0109 11:23:13.374855 18073 net.cpp:454] bn3_8_branch2c <- enet3_8_branch2c
I0109 11:23:13.374868 18073 net.cpp:397] bn3_8_branch2c -> enet3_8_branch2c (in-place)
I0109 11:23:13.376055 18073 net.cpp:150] Setting up bn3_8_branch2c
I0109 11:23:13.376071 18073 net.cpp:157] Top shape: 4 128 47 155 (3729920)
I0109 11:23:13.376078 18073 net.cpp:165] Memory required for data: 4080532512
I0109 11:23:13.376090 18073 layer_factory.hpp:77] Creating layer dropout3_8_branch2c
I0109 11:23:13.376101 18073 net.cpp:106] Creating Layer dropout3_8_branch2c
I0109 11:23:13.376108 18073 net.cpp:454] dropout3_8_branch2c <- enet3_8_branch2c
I0109 11:23:13.376118 18073 net.cpp:397] dropout3_8_branch2c -> enet3_8_branch2c (in-place)
I0109 11:23:13.376163 18073 net.cpp:150] Setting up dropout3_8_branch2c
I0109 11:23:13.376174 18073 net.cpp:157] Top shape: 4 128 47 155 (3729920)
I0109 11:23:13.376181 18073 net.cpp:165] Memory required for data: 4095452192
I0109 11:23:13.376188 18073 layer_factory.hpp:77] Creating layer enet3_8
I0109 11:23:13.376199 18073 net.cpp:106] Creating Layer enet3_8
I0109 11:23:13.376207 18073 net.cpp:454] enet3_8 <- enet3_7_relu3_7_0_split_1
I0109 11:23:13.376216 18073 net.cpp:454] enet3_8 <- enet3_8_branch2c
I0109 11:23:13.376225 18073 net.cpp:411] enet3_8 -> enet3_8
I0109 11:23:13.376267 18073 net.cpp:150] Setting up enet3_8
I0109 11:23:13.376279 18073 net.cpp:157] Top shape: 4 128 47 155 (3729920)
I0109 11:23:13.376286 18073 net.cpp:165] Memory required for data: 4110371872
I0109 11:23:13.376292 18073 layer_factory.hpp:77] Creating layer relu3_8
I0109 11:23:13.376302 18073 net.cpp:106] Creating Layer relu3_8
I0109 11:23:13.376308 18073 net.cpp:454] relu3_8 <- enet3_8
I0109 11:23:13.376320 18073 net.cpp:397] relu3_8 -> enet3_8 (in-place)
I0109 11:23:13.401139 18073 net.cpp:150] Setting up relu3_8
I0109 11:23:13.401159 18073 net.cpp:157] Top shape: 4 128 47 155 (3729920)
I0109 11:23:13.401165 18073 net.cpp:165] Memory required for data: 4125291552
I0109 11:23:13.401175 18073 layer_factory.hpp:77] Creating layer enet3_8_relu3_8_0_split
I0109 11:23:13.401187 18073 net.cpp:106] Creating Layer enet3_8_relu3_8_0_split
I0109 11:23:13.401196 18073 net.cpp:454] enet3_8_relu3_8_0_split <- enet3_8
I0109 11:23:13.401206 18073 net.cpp:411] enet3_8_relu3_8_0_split -> enet3_8_relu3_8_0_split_0
I0109 11:23:13.401218 18073 net.cpp:411] enet3_8_relu3_8_0_split -> enet3_8_relu3_8_0_split_1
I0109 11:23:13.401281 18073 net.cpp:150] Setting up enet3_8_relu3_8_0_split
I0109 11:23:13.401294 18073 net.cpp:157] Top shape: 4 128 47 155 (3729920)
I0109 11:23:13.401302 18073 net.cpp:157] Top shape: 4 128 47 155 (3729920)
I0109 11:23:13.401309 18073 net.cpp:165] Memory required for data: 4155130912
I0109 11:23:13.401324 18073 layer_factory.hpp:77] Creating layer enet4_0_branch2a
I0109 11:23:13.401350 18073 net.cpp:106] Creating Layer enet4_0_branch2a
I0109 11:23:13.401360 18073 net.cpp:454] enet4_0_branch2a <- enet3_8_relu3_8_0_split_0
I0109 11:23:13.401371 18073 net.cpp:411] enet4_0_branch2a -> enet4_0_branch2a
I0109 11:23:13.405120 18073 net.cpp:150] Setting up enet4_0_branch2a
I0109 11:23:13.405139 18073 net.cpp:157] Top shape: 4 16 47 155 (466240)
I0109 11:23:13.405146 18073 net.cpp:165] Memory required for data: 4156995872
I0109 11:23:13.405156 18073 layer_factory.hpp:77] Creating layer bn4_0_branch2a
I0109 11:23:13.405174 18073 net.cpp:106] Creating Layer bn4_0_branch2a
I0109 11:23:13.405181 18073 net.cpp:454] bn4_0_branch2a <- enet4_0_branch2a
I0109 11:23:13.405192 18073 net.cpp:397] bn4_0_branch2a -> enet4_0_branch2a (in-place)
I0109 11:23:13.405531 18073 net.cpp:150] Setting up bn4_0_branch2a
I0109 11:23:13.405546 18073 net.cpp:157] Top shape: 4 16 47 155 (466240)
I0109 11:23:13.405552 18073 net.cpp:165] Memory required for data: 4158860832
I0109 11:23:13.405563 18073 layer_factory.hpp:77] Creating layer relu4_0_branch2a
I0109 11:23:13.405580 18073 net.cpp:106] Creating Layer relu4_0_branch2a
I0109 11:23:13.405588 18073 net.cpp:454] relu4_0_branch2a <- enet4_0_branch2a
I0109 11:23:13.405601 18073 net.cpp:397] relu4_0_branch2a -> enet4_0_branch2a (in-place)
I0109 11:23:13.406669 18073 net.cpp:150] Setting up relu4_0_branch2a
I0109 11:23:13.406687 18073 net.cpp:157] Top shape: 4 16 47 155 (466240)
I0109 11:23:13.406694 18073 net.cpp:165] Memory required for data: 4160725792
I0109 11:23:13.406702 18073 layer_factory.hpp:77] Creating layer enet4_0_branch2b
I0109 11:23:13.406723 18073 net.cpp:106] Creating Layer enet4_0_branch2b
I0109 11:23:13.406731 18073 net.cpp:454] enet4_0_branch2b <- enet4_0_branch2a
I0109 11:23:13.406745 18073 net.cpp:411] enet4_0_branch2b -> enet4_0_branch2b
I0109 11:23:13.407335 18073 net.cpp:150] Setting up enet4_0_branch2b
I0109 11:23:13.407352 18073 net.cpp:157] Top shape: 4 16 94 310 (1864960)
I0109 11:23:13.407361 18073 net.cpp:165] Memory required for data: 4168185632
I0109 11:23:13.407371 18073 layer_factory.hpp:77] Creating layer bn4_0_branch2b
I0109 11:23:13.407385 18073 net.cpp:106] Creating Layer bn4_0_branch2b
I0109 11:23:13.407393 18073 net.cpp:454] bn4_0_branch2b <- enet4_0_branch2b
I0109 11:23:13.407403 18073 net.cpp:397] bn4_0_branch2b -> enet4_0_branch2b (in-place)
I0109 11:23:13.407827 18073 net.cpp:150] Setting up bn4_0_branch2b
I0109 11:23:13.407845 18073 net.cpp:157] Top shape: 4 16 94 310 (1864960)
I0109 11:23:13.407852 18073 net.cpp:165] Memory required for data: 4175645472
I0109 11:23:13.407863 18073 layer_factory.hpp:77] Creating layer relu4_0_branch2b
I0109 11:23:13.407873 18073 net.cpp:106] Creating Layer relu4_0_branch2b
I0109 11:23:13.407881 18073 net.cpp:454] relu4_0_branch2b <- enet4_0_branch2b
I0109 11:23:13.407892 18073 net.cpp:397] relu4_0_branch2b -> enet4_0_branch2b (in-place)
I0109 11:23:13.408968 18073 net.cpp:150] Setting up relu4_0_branch2b
I0109 11:23:13.408985 18073 net.cpp:157] Top shape: 4 16 94 310 (1864960)
I0109 11:23:13.408993 18073 net.cpp:165] Memory required for data: 4183105312
I0109 11:23:13.409000 18073 layer_factory.hpp:77] Creating layer enet4_0_branch2c
I0109 11:23:13.409016 18073 net.cpp:106] Creating Layer enet4_0_branch2c
I0109 11:23:13.409025 18073 net.cpp:454] enet4_0_branch2c <- enet4_0_branch2b
I0109 11:23:13.409039 18073 net.cpp:411] enet4_0_branch2c -> enet4_0_branch2c
I0109 11:23:13.412747 18073 net.cpp:150] Setting up enet4_0_branch2c
I0109 11:23:13.412765 18073 net.cpp:157] Top shape: 4 64 94 310 (7459840)
I0109 11:23:13.412773 18073 net.cpp:165] Memory required for data: 4212944672
I0109 11:23:13.412783 18073 layer_factory.hpp:77] Creating layer bn4_0_branch2c
I0109 11:23:13.412799 18073 net.cpp:106] Creating Layer bn4_0_branch2c
I0109 11:23:13.412808 18073 net.cpp:454] bn4_0_branch2c <- enet4_0_branch2c
I0109 11:23:13.412818 18073 net.cpp:397] bn4_0_branch2c -> enet4_0_branch2c (in-place)
I0109 11:23:13.414062 18073 net.cpp:150] Setting up bn4_0_branch2c
I0109 11:23:13.414088 18073 net.cpp:157] Top shape: 4 64 94 310 (7459840)
I0109 11:23:13.414096 18073 net.cpp:165] Memory required for data: 4242784032
I0109 11:23:13.414108 18073 layer_factory.hpp:77] Creating layer enet4_0_branch1a
I0109 11:23:13.414129 18073 net.cpp:106] Creating Layer enet4_0_branch1a
I0109 11:23:13.414137 18073 net.cpp:454] enet4_0_branch1a <- enet3_8_relu3_8_0_split_1
I0109 11:23:13.414149 18073 net.cpp:411] enet4_0_branch1a -> enet4_0_branch1a
I0109 11:23:13.417867 18073 net.cpp:150] Setting up enet4_0_branch1a
I0109 11:23:13.417886 18073 net.cpp:157] Top shape: 4 64 47 155 (1864960)
I0109 11:23:13.417892 18073 net.cpp:165] Memory required for data: 4250243872
I0109 11:23:13.417902 18073 layer_factory.hpp:77] Creating layer bn4_0_branch1a
I0109 11:23:13.417917 18073 net.cpp:106] Creating Layer bn4_0_branch1a
I0109 11:23:13.417927 18073 net.cpp:454] bn4_0_branch1a <- enet4_0_branch1a
I0109 11:23:13.417943 18073 net.cpp:397] bn4_0_branch1a -> enet4_0_branch1a (in-place)
I0109 11:23:13.418272 18073 net.cpp:150] Setting up bn4_0_branch1a
I0109 11:23:13.418287 18073 net.cpp:157] Top shape: 4 64 47 155 (1864960)
I0109 11:23:13.418293 18073 net.cpp:165] Memory required for data: 4257703712
I0109 11:23:13.418303 18073 layer_factory.hpp:77] Creating layer unpool4_0_branch1a
I0109 11:23:13.418316 18073 net.cpp:106] Creating Layer unpool4_0_branch1a
I0109 11:23:13.418323 18073 net.cpp:454] unpool4_0_branch1a <- enet4_0_branch1a
I0109 11:23:13.418334 18073 net.cpp:454] unpool4_0_branch1a <- pool2_0_branch1a_mask
I0109 11:23:13.418342 18073 net.cpp:411] unpool4_0_branch1a -> unpool4_0_branch1a
I0109 11:23:13.418407 18073 net.cpp:150] Setting up unpool4_0_branch1a
I0109 11:23:13.418421 18073 net.cpp:157] Top shape: 4 64 94 310 (7459840)
I0109 11:23:13.418426 18073 net.cpp:165] Memory required for data: 4287543072
I0109 11:23:13.418433 18073 layer_factory.hpp:77] Creating layer enet4_0
I0109 11:23:13.418443 18073 net.cpp:106] Creating Layer enet4_0
I0109 11:23:13.418450 18073 net.cpp:454] enet4_0 <- unpool4_0_branch1a
I0109 11:23:13.418458 18073 net.cpp:454] enet4_0 <- enet4_0_branch2c
I0109 11:23:13.418470 18073 net.cpp:411] enet4_0 -> enet4_0
I0109 11:23:13.418510 18073 net.cpp:150] Setting up enet4_0
I0109 11:23:13.418522 18073 net.cpp:157] Top shape: 4 64 94 310 (7459840)
I0109 11:23:13.418529 18073 net.cpp:165] Memory required for data: 4317382432
I0109 11:23:13.418535 18073 layer_factory.hpp:77] Creating layer relu4_0
I0109 11:23:13.418547 18073 net.cpp:106] Creating Layer relu4_0
I0109 11:23:13.418555 18073 net.cpp:454] relu4_0 <- enet4_0
I0109 11:23:13.418566 18073 net.cpp:397] relu4_0 -> enet4_0 (in-place)
I0109 11:23:13.419667 18073 net.cpp:150] Setting up relu4_0
I0109 11:23:13.419683 18073 net.cpp:157] Top shape: 4 64 94 310 (7459840)
I0109 11:23:13.419690 18073 net.cpp:165] Memory required for data: 4347221792
I0109 11:23:13.419697 18073 layer_factory.hpp:77] Creating layer enet4_0_relu4_0_0_split
I0109 11:23:13.419708 18073 net.cpp:106] Creating Layer enet4_0_relu4_0_0_split
I0109 11:23:13.419715 18073 net.cpp:454] enet4_0_relu4_0_0_split <- enet4_0
I0109 11:23:13.419728 18073 net.cpp:411] enet4_0_relu4_0_0_split -> enet4_0_relu4_0_0_split_0
I0109 11:23:13.419741 18073 net.cpp:411] enet4_0_relu4_0_0_split -> enet4_0_relu4_0_0_split_1
I0109 11:23:13.419809 18073 net.cpp:150] Setting up enet4_0_relu4_0_0_split
I0109 11:23:13.419822 18073 net.cpp:157] Top shape: 4 64 94 310 (7459840)
I0109 11:23:13.419831 18073 net.cpp:157] Top shape: 4 64 94 310 (7459840)
I0109 11:23:13.419836 18073 net.cpp:165] Memory required for data: 4406900512
I0109 11:23:13.419847 18073 layer_factory.hpp:77] Creating layer enet4_1_branch2a
I0109 11:23:13.419863 18073 net.cpp:106] Creating Layer enet4_1_branch2a
I0109 11:23:13.419872 18073 net.cpp:454] enet4_1_branch2a <- enet4_0_relu4_0_0_split_0
I0109 11:23:13.419883 18073 net.cpp:411] enet4_1_branch2a -> enet4_1_branch2a
I0109 11:23:13.423629 18073 net.cpp:150] Setting up enet4_1_branch2a
I0109 11:23:13.423647 18073 net.cpp:157] Top shape: 4 16 94 310 (1864960)
I0109 11:23:13.423668 18073 net.cpp:165] Memory required for data: 4414360352
I0109 11:23:13.423679 18073 layer_factory.hpp:77] Creating layer bn4_1_branch2a
I0109 11:23:13.423694 18073 net.cpp:106] Creating Layer bn4_1_branch2a
I0109 11:23:13.423702 18073 net.cpp:454] bn4_1_branch2a <- enet4_1_branch2a
I0109 11:23:13.423715 18073 net.cpp:397] bn4_1_branch2a -> enet4_1_branch2a (in-place)
I0109 11:23:13.424091 18073 net.cpp:150] Setting up bn4_1_branch2a
I0109 11:23:13.424106 18073 net.cpp:157] Top shape: 4 16 94 310 (1864960)
I0109 11:23:13.424113 18073 net.cpp:165] Memory required for data: 4421820192
I0109 11:23:13.424123 18073 layer_factory.hpp:77] Creating layer relu4_1_branch2a
I0109 11:23:13.424134 18073 net.cpp:106] Creating Layer relu4_1_branch2a
I0109 11:23:13.424140 18073 net.cpp:454] relu4_1_branch2a <- enet4_1_branch2a
I0109 11:23:13.424149 18073 net.cpp:397] relu4_1_branch2a -> enet4_1_branch2a (in-place)
I0109 11:23:13.425235 18073 net.cpp:150] Setting up relu4_1_branch2a
I0109 11:23:13.425252 18073 net.cpp:157] Top shape: 4 16 94 310 (1864960)
I0109 11:23:13.425259 18073 net.cpp:165] Memory required for data: 4429280032
I0109 11:23:13.425266 18073 layer_factory.hpp:77] Creating layer enet4_1_branch2b
I0109 11:23:13.425283 18073 net.cpp:106] Creating Layer enet4_1_branch2b
I0109 11:23:13.425292 18073 net.cpp:454] enet4_1_branch2b <- enet4_1_branch2a
I0109 11:23:13.425305 18073 net.cpp:411] enet4_1_branch2b -> enet4_1_branch2b
I0109 11:23:13.429224 18073 net.cpp:150] Setting up enet4_1_branch2b
I0109 11:23:13.429242 18073 net.cpp:157] Top shape: 4 16 94 310 (1864960)
I0109 11:23:13.429253 18073 net.cpp:165] Memory required for data: 4436739872
I0109 11:23:13.429265 18073 layer_factory.hpp:77] Creating layer bn4_1_branch2b
I0109 11:23:13.429277 18073 net.cpp:106] Creating Layer bn4_1_branch2b
I0109 11:23:13.429286 18073 net.cpp:454] bn4_1_branch2b <- enet4_1_branch2b
I0109 11:23:13.429298 18073 net.cpp:397] bn4_1_branch2b -> enet4_1_branch2b (in-place)
I0109 11:23:13.429677 18073 net.cpp:150] Setting up bn4_1_branch2b
I0109 11:23:13.429690 18073 net.cpp:157] Top shape: 4 16 94 310 (1864960)
I0109 11:23:13.429697 18073 net.cpp:165] Memory required for data: 4444199712
I0109 11:23:13.429708 18073 layer_factory.hpp:77] Creating layer relu4_1_branch2b
I0109 11:23:13.429723 18073 net.cpp:106] Creating Layer relu4_1_branch2b
I0109 11:23:13.429730 18073 net.cpp:454] relu4_1_branch2b <- enet4_1_branch2b
I0109 11:23:13.429740 18073 net.cpp:397] relu4_1_branch2b -> enet4_1_branch2b (in-place)
I0109 11:23:13.430830 18073 net.cpp:150] Setting up relu4_1_branch2b
I0109 11:23:13.430851 18073 net.cpp:157] Top shape: 4 16 94 310 (1864960)
I0109 11:23:13.430860 18073 net.cpp:165] Memory required for data: 4451659552
I0109 11:23:13.430866 18073 layer_factory.hpp:77] Creating layer enet4_1_branch2c
I0109 11:23:13.430884 18073 net.cpp:106] Creating Layer enet4_1_branch2c
I0109 11:23:13.430893 18073 net.cpp:454] enet4_1_branch2c <- enet4_1_branch2b
I0109 11:23:13.430907 18073 net.cpp:411] enet4_1_branch2c -> enet4_1_branch2c
I0109 11:23:13.434525 18073 net.cpp:150] Setting up enet4_1_branch2c
I0109 11:23:13.434545 18073 net.cpp:157] Top shape: 4 64 94 310 (7459840)
I0109 11:23:13.434552 18073 net.cpp:165] Memory required for data: 4481498912
I0109 11:23:13.434562 18073 layer_factory.hpp:77] Creating layer bn4_1_branch2c
I0109 11:23:13.434577 18073 net.cpp:106] Creating Layer bn4_1_branch2c
I0109 11:23:13.434586 18073 net.cpp:454] bn4_1_branch2c <- enet4_1_branch2c
I0109 11:23:13.434597 18073 net.cpp:397] bn4_1_branch2c -> enet4_1_branch2c (in-place)
I0109 11:23:13.435870 18073 net.cpp:150] Setting up bn4_1_branch2c
I0109 11:23:13.435889 18073 net.cpp:157] Top shape: 4 64 94 310 (7459840)
I0109 11:23:13.435895 18073 net.cpp:165] Memory required for data: 4511338272
I0109 11:23:13.435906 18073 layer_factory.hpp:77] Creating layer enet4_1
I0109 11:23:13.435920 18073 net.cpp:106] Creating Layer enet4_1
I0109 11:23:13.435927 18073 net.cpp:454] enet4_1 <- enet4_0_relu4_0_0_split_1
I0109 11:23:13.435943 18073 net.cpp:454] enet4_1 <- enet4_1_branch2c
I0109 11:23:13.435964 18073 net.cpp:411] enet4_1 -> enet4_1
I0109 11:23:13.436010 18073 net.cpp:150] Setting up enet4_1
I0109 11:23:13.436023 18073 net.cpp:157] Top shape: 4 64 94 310 (7459840)
I0109 11:23:13.436030 18073 net.cpp:165] Memory required for data: 4541177632
I0109 11:23:13.436038 18073 layer_factory.hpp:77] Creating layer relu4_1
I0109 11:23:13.436049 18073 net.cpp:106] Creating Layer relu4_1
I0109 11:23:13.436056 18073 net.cpp:454] relu4_1 <- enet4_1
I0109 11:23:13.436066 18073 net.cpp:397] relu4_1 -> enet4_1 (in-place)
I0109 11:23:13.437331 18073 net.cpp:150] Setting up relu4_1
I0109 11:23:13.437348 18073 net.cpp:157] Top shape: 4 64 94 310 (7459840)
I0109 11:23:13.437356 18073 net.cpp:165] Memory required for data: 4571016992
I0109 11:23:13.437363 18073 layer_factory.hpp:77] Creating layer enet4_1_relu4_1_0_split
I0109 11:23:13.437376 18073 net.cpp:106] Creating Layer enet4_1_relu4_1_0_split
I0109 11:23:13.437383 18073 net.cpp:454] enet4_1_relu4_1_0_split <- enet4_1
I0109 11:23:13.437393 18073 net.cpp:411] enet4_1_relu4_1_0_split -> enet4_1_relu4_1_0_split_0
I0109 11:23:13.437407 18073 net.cpp:411] enet4_1_relu4_1_0_split -> enet4_1_relu4_1_0_split_1
I0109 11:23:13.437479 18073 net.cpp:150] Setting up enet4_1_relu4_1_0_split
I0109 11:23:13.437491 18073 net.cpp:157] Top shape: 4 64 94 310 (7459840)
I0109 11:23:13.437500 18073 net.cpp:157] Top shape: 4 64 94 310 (7459840)
I0109 11:23:13.437505 18073 net.cpp:165] Memory required for data: 4630695712
I0109 11:23:13.437512 18073 layer_factory.hpp:77] Creating layer enet4_2_branch2a
I0109 11:23:13.437527 18073 net.cpp:106] Creating Layer enet4_2_branch2a
I0109 11:23:13.437536 18073 net.cpp:454] enet4_2_branch2a <- enet4_1_relu4_1_0_split_0
I0109 11:23:13.437551 18073 net.cpp:411] enet4_2_branch2a -> enet4_2_branch2a
I0109 11:23:13.441164 18073 net.cpp:150] Setting up enet4_2_branch2a
I0109 11:23:13.441184 18073 net.cpp:157] Top shape: 4 16 94 310 (1864960)
I0109 11:23:13.441192 18073 net.cpp:165] Memory required for data: 4638155552
I0109 11:23:13.441202 18073 layer_factory.hpp:77] Creating layer bn4_2_branch2a
I0109 11:23:13.441215 18073 net.cpp:106] Creating Layer bn4_2_branch2a
I0109 11:23:13.441222 18073 net.cpp:454] bn4_2_branch2a <- enet4_2_branch2a
I0109 11:23:13.441236 18073 net.cpp:397] bn4_2_branch2a -> enet4_2_branch2a (in-place)
I0109 11:23:13.441629 18073 net.cpp:150] Setting up bn4_2_branch2a
I0109 11:23:13.441643 18073 net.cpp:157] Top shape: 4 16 94 310 (1864960)
I0109 11:23:13.441650 18073 net.cpp:165] Memory required for data: 4645615392
I0109 11:23:13.441660 18073 layer_factory.hpp:77] Creating layer relu4_2_branch2a
I0109 11:23:13.441671 18073 net.cpp:106] Creating Layer relu4_2_branch2a
I0109 11:23:13.441679 18073 net.cpp:454] relu4_2_branch2a <- enet4_2_branch2a
I0109 11:23:13.441687 18073 net.cpp:397] relu4_2_branch2a -> enet4_2_branch2a (in-place)
I0109 11:23:13.442991 18073 net.cpp:150] Setting up relu4_2_branch2a
I0109 11:23:13.443008 18073 net.cpp:157] Top shape: 4 16 94 310 (1864960)
I0109 11:23:13.443015 18073 net.cpp:165] Memory required for data: 4653075232
I0109 11:23:13.443023 18073 layer_factory.hpp:77] Creating layer enet4_2_branch2b
I0109 11:23:13.443039 18073 net.cpp:106] Creating Layer enet4_2_branch2b
I0109 11:23:13.443048 18073 net.cpp:454] enet4_2_branch2b <- enet4_2_branch2a
I0109 11:23:13.443063 18073 net.cpp:411] enet4_2_branch2b -> enet4_2_branch2b
I0109 11:23:13.447026 18073 net.cpp:150] Setting up enet4_2_branch2b
I0109 11:23:13.447046 18073 net.cpp:157] Top shape: 4 16 94 310 (1864960)
I0109 11:23:13.447054 18073 net.cpp:165] Memory required for data: 4660535072
I0109 11:23:13.447065 18073 layer_factory.hpp:77] Creating layer bn4_2_branch2b
I0109 11:23:13.447077 18073 net.cpp:106] Creating Layer bn4_2_branch2b
I0109 11:23:13.447085 18073 net.cpp:454] bn4_2_branch2b <- enet4_2_branch2b
I0109 11:23:13.447099 18073 net.cpp:397] bn4_2_branch2b -> enet4_2_branch2b (in-place)
I0109 11:23:13.447496 18073 net.cpp:150] Setting up bn4_2_branch2b
I0109 11:23:13.447511 18073 net.cpp:157] Top shape: 4 16 94 310 (1864960)
I0109 11:23:13.447531 18073 net.cpp:165] Memory required for data: 4667994912
I0109 11:23:13.447543 18073 layer_factory.hpp:77] Creating layer relu4_2_branch2b
I0109 11:23:13.447553 18073 net.cpp:106] Creating Layer relu4_2_branch2b
I0109 11:23:13.447561 18073 net.cpp:454] relu4_2_branch2b <- enet4_2_branch2b
I0109 11:23:13.447571 18073 net.cpp:397] relu4_2_branch2b -> enet4_2_branch2b (in-place)
I0109 11:23:13.448668 18073 net.cpp:150] Setting up relu4_2_branch2b
I0109 11:23:13.448684 18073 net.cpp:157] Top shape: 4 16 94 310 (1864960)
I0109 11:23:13.448691 18073 net.cpp:165] Memory required for data: 4675454752
I0109 11:23:13.448698 18073 layer_factory.hpp:77] Creating layer enet4_2_branch2c
I0109 11:23:13.448715 18073 net.cpp:106] Creating Layer enet4_2_branch2c
I0109 11:23:13.448724 18073 net.cpp:454] enet4_2_branch2c <- enet4_2_branch2b
I0109 11:23:13.448737 18073 net.cpp:411] enet4_2_branch2c -> enet4_2_branch2c
I0109 11:23:13.452585 18073 net.cpp:150] Setting up enet4_2_branch2c
I0109 11:23:13.452603 18073 net.cpp:157] Top shape: 4 64 94 310 (7459840)
I0109 11:23:13.452610 18073 net.cpp:165] Memory required for data: 4705294112
I0109 11:23:13.452620 18073 layer_factory.hpp:77] Creating layer bn4_2_branch2c
I0109 11:23:13.452633 18073 net.cpp:106] Creating Layer bn4_2_branch2c
I0109 11:23:13.452641 18073 net.cpp:454] bn4_2_branch2c <- enet4_2_branch2c
I0109 11:23:13.452654 18073 net.cpp:397] bn4_2_branch2c -> enet4_2_branch2c (in-place)
I0109 11:23:13.453066 18073 net.cpp:150] Setting up bn4_2_branch2c
I0109 11:23:13.453081 18073 net.cpp:157] Top shape: 4 64 94 310 (7459840)
I0109 11:23:13.453088 18073 net.cpp:165] Memory required for data: 4735133472
I0109 11:23:13.453099 18073 layer_factory.hpp:77] Creating layer enet4_2
I0109 11:23:13.453109 18073 net.cpp:106] Creating Layer enet4_2
I0109 11:23:13.453116 18073 net.cpp:454] enet4_2 <- enet4_1_relu4_1_0_split_1
I0109 11:23:13.453125 18073 net.cpp:454] enet4_2 <- enet4_2_branch2c
I0109 11:23:13.453135 18073 net.cpp:411] enet4_2 -> enet4_2
I0109 11:23:13.453179 18073 net.cpp:150] Setting up enet4_2
I0109 11:23:13.453192 18073 net.cpp:157] Top shape: 4 64 94 310 (7459840)
I0109 11:23:13.453199 18073 net.cpp:165] Memory required for data: 4764972832
I0109 11:23:13.453205 18073 layer_factory.hpp:77] Creating layer relu4_2
I0109 11:23:13.453219 18073 net.cpp:106] Creating Layer relu4_2
I0109 11:23:13.453227 18073 net.cpp:454] relu4_2 <- enet4_2
I0109 11:23:13.453236 18073 net.cpp:397] relu4_2 -> enet4_2 (in-place)
I0109 11:23:13.454337 18073 net.cpp:150] Setting up relu4_2
I0109 11:23:13.454355 18073 net.cpp:157] Top shape: 4 64 94 310 (7459840)
I0109 11:23:13.454361 18073 net.cpp:165] Memory required for data: 4794812192
I0109 11:23:13.454370 18073 layer_factory.hpp:77] Creating layer enet4_2_relu4_2_0_split
I0109 11:23:13.454380 18073 net.cpp:106] Creating Layer enet4_2_relu4_2_0_split
I0109 11:23:13.454386 18073 net.cpp:454] enet4_2_relu4_2_0_split <- enet4_2
I0109 11:23:13.454401 18073 net.cpp:411] enet4_2_relu4_2_0_split -> enet4_2_relu4_2_0_split_0
I0109 11:23:13.454413 18073 net.cpp:411] enet4_2_relu4_2_0_split -> enet4_2_relu4_2_0_split_1
I0109 11:23:13.454488 18073 net.cpp:150] Setting up enet4_2_relu4_2_0_split
I0109 11:23:13.454504 18073 net.cpp:157] Top shape: 4 64 94 310 (7459840)
I0109 11:23:13.454511 18073 net.cpp:157] Top shape: 4 64 94 310 (7459840)
I0109 11:23:13.454519 18073 net.cpp:165] Memory required for data: 4854490912
I0109 11:23:13.454524 18073 layer_factory.hpp:77] Creating layer enet5_0_branch2a
I0109 11:23:13.454540 18073 net.cpp:106] Creating Layer enet5_0_branch2a
I0109 11:23:13.454550 18073 net.cpp:454] enet5_0_branch2a <- enet4_2_relu4_2_0_split_0
I0109 11:23:13.454560 18073 net.cpp:411] enet5_0_branch2a -> enet5_0_branch2a
I0109 11:23:13.458171 18073 net.cpp:150] Setting up enet5_0_branch2a
I0109 11:23:13.458189 18073 net.cpp:157] Top shape: 4 4 94 310 (466240)
I0109 11:23:13.458199 18073 net.cpp:165] Memory required for data: 4856355872
I0109 11:23:13.458209 18073 layer_factory.hpp:77] Creating layer bn5_0_branch2a
I0109 11:23:13.458228 18073 net.cpp:106] Creating Layer bn5_0_branch2a
I0109 11:23:13.458245 18073 net.cpp:454] bn5_0_branch2a <- enet5_0_branch2a
I0109 11:23:13.458258 18073 net.cpp:397] bn5_0_branch2a -> enet5_0_branch2a (in-place)
I0109 11:23:13.459543 18073 net.cpp:150] Setting up bn5_0_branch2a
I0109 11:23:13.459561 18073 net.cpp:157] Top shape: 4 4 94 310 (466240)
I0109 11:23:13.459568 18073 net.cpp:165] Memory required for data: 4858220832
I0109 11:23:13.459579 18073 layer_factory.hpp:77] Creating layer relu5_0_branch2a
I0109 11:23:13.459590 18073 net.cpp:106] Creating Layer relu5_0_branch2a
I0109 11:23:13.459597 18073 net.cpp:454] relu5_0_branch2a <- enet5_0_branch2a
I0109 11:23:13.459607 18073 net.cpp:397] relu5_0_branch2a -> enet5_0_branch2a (in-place)
I0109 11:23:13.460711 18073 net.cpp:150] Setting up relu5_0_branch2a
I0109 11:23:13.460731 18073 net.cpp:157] Top shape: 4 4 94 310 (466240)
I0109 11:23:13.460738 18073 net.cpp:165] Memory required for data: 4860085792
I0109 11:23:13.460746 18073 layer_factory.hpp:77] Creating layer enet5_0_branch2b
I0109 11:23:13.460758 18073 net.cpp:106] Creating Layer enet5_0_branch2b
I0109 11:23:13.460767 18073 net.cpp:454] enet5_0_branch2b <- enet5_0_branch2a
I0109 11:23:13.460780 18073 net.cpp:411] enet5_0_branch2b -> enet5_0_branch2b
I0109 11:23:13.461370 18073 net.cpp:150] Setting up enet5_0_branch2b
I0109 11:23:13.461385 18073 net.cpp:157] Top shape: 4 4 188 620 (1864960)
I0109 11:23:13.461392 18073 net.cpp:165] Memory required for data: 4867545632
I0109 11:23:13.461403 18073 layer_factory.hpp:77] Creating layer bn5_0_branch2b
I0109 11:23:13.461417 18073 net.cpp:106] Creating Layer bn5_0_branch2b
I0109 11:23:13.461426 18073 net.cpp:454] bn5_0_branch2b <- enet5_0_branch2b
I0109 11:23:13.461438 18073 net.cpp:397] bn5_0_branch2b -> enet5_0_branch2b (in-place)
I0109 11:23:13.462834 18073 net.cpp:150] Setting up bn5_0_branch2b
I0109 11:23:13.462854 18073 net.cpp:157] Top shape: 4 4 188 620 (1864960)
I0109 11:23:13.462862 18073 net.cpp:165] Memory required for data: 4875005472
I0109 11:23:13.462872 18073 layer_factory.hpp:77] Creating layer relu5_0_branch2b
I0109 11:23:13.462883 18073 net.cpp:106] Creating Layer relu5_0_branch2b
I0109 11:23:13.462890 18073 net.cpp:454] relu5_0_branch2b <- enet5_0_branch2b
I0109 11:23:13.462905 18073 net.cpp:397] relu5_0_branch2b -> enet5_0_branch2b (in-place)
I0109 11:23:13.464200 18073 net.cpp:150] Setting up relu5_0_branch2b
I0109 11:23:13.464218 18073 net.cpp:157] Top shape: 4 4 188 620 (1864960)
I0109 11:23:13.464226 18073 net.cpp:165] Memory required for data: 4882465312
I0109 11:23:13.464232 18073 layer_factory.hpp:77] Creating layer enet5_0_branch2c
I0109 11:23:13.464249 18073 net.cpp:106] Creating Layer enet5_0_branch2c
I0109 11:23:13.464258 18073 net.cpp:454] enet5_0_branch2c <- enet5_0_branch2b
I0109 11:23:13.464272 18073 net.cpp:411] enet5_0_branch2c -> enet5_0_branch2c
I0109 11:23:13.467924 18073 net.cpp:150] Setting up enet5_0_branch2c
I0109 11:23:13.467941 18073 net.cpp:157] Top shape: 4 16 188 620 (7459840)
I0109 11:23:13.467949 18073 net.cpp:165] Memory required for data: 4912304672
I0109 11:23:13.467959 18073 layer_factory.hpp:77] Creating layer bn5_0_branch2c
I0109 11:23:13.467977 18073 net.cpp:106] Creating Layer bn5_0_branch2c
I0109 11:23:13.467984 18073 net.cpp:454] bn5_0_branch2c <- enet5_0_branch2c
I0109 11:23:13.467995 18073 net.cpp:397] bn5_0_branch2c -> enet5_0_branch2c (in-place)
I0109 11:23:13.469403 18073 net.cpp:150] Setting up bn5_0_branch2c
I0109 11:23:13.469419 18073 net.cpp:157] Top shape: 4 16 188 620 (7459840)
I0109 11:23:13.469426 18073 net.cpp:165] Memory required for data: 4942144032
I0109 11:23:13.469439 18073 layer_factory.hpp:77] Creating layer enet5_0_branch1a
I0109 11:23:13.469456 18073 net.cpp:106] Creating Layer enet5_0_branch1a
I0109 11:23:13.469465 18073 net.cpp:454] enet5_0_branch1a <- enet4_2_relu4_2_0_split_1
I0109 11:23:13.469477 18073 net.cpp:411] enet5_0_branch1a -> enet5_0_branch1a
I0109 11:23:13.473352 18073 net.cpp:150] Setting up enet5_0_branch1a
I0109 11:23:13.473378 18073 net.cpp:157] Top shape: 4 16 94 310 (1864960)
I0109 11:23:13.473393 18073 net.cpp:165] Memory required for data: 4949603872
I0109 11:23:13.473403 18073 layer_factory.hpp:77] Creating layer bn5_0_branch1a
I0109 11:23:13.473419 18073 net.cpp:106] Creating Layer bn5_0_branch1a
I0109 11:23:13.473428 18073 net.cpp:454] bn5_0_branch1a <- enet5_0_branch1a
I0109 11:23:13.473440 18073 net.cpp:397] bn5_0_branch1a -> enet5_0_branch1a (in-place)
I0109 11:23:13.473881 18073 net.cpp:150] Setting up bn5_0_branch1a
I0109 11:23:13.473896 18073 net.cpp:157] Top shape: 4 16 94 310 (1864960)
I0109 11:23:13.473901 18073 net.cpp:165] Memory required for data: 4957063712
I0109 11:23:13.473912 18073 layer_factory.hpp:77] Creating layer unpool5_0_branch1a
I0109 11:23:13.473927 18073 net.cpp:106] Creating Layer unpool5_0_branch1a
I0109 11:23:13.473934 18073 net.cpp:454] unpool5_0_branch1a <- enet5_0_branch1a
I0109 11:23:13.473943 18073 net.cpp:454] unpool5_0_branch1a <- pool1_0_branch1a_mask
I0109 11:23:13.473953 18073 net.cpp:411] unpool5_0_branch1a -> unpool5_0_branch1a
I0109 11:23:13.474004 18073 net.cpp:150] Setting up unpool5_0_branch1a
I0109 11:23:13.474015 18073 net.cpp:157] Top shape: 4 16 188 620 (7459840)
I0109 11:23:13.474022 18073 net.cpp:165] Memory required for data: 4986903072
I0109 11:23:13.474028 18073 layer_factory.hpp:77] Creating layer enet5_0
I0109 11:23:13.474038 18073 net.cpp:106] Creating Layer enet5_0
I0109 11:23:13.474045 18073 net.cpp:454] enet5_0 <- unpool5_0_branch1a
I0109 11:23:13.474053 18073 net.cpp:454] enet5_0 <- enet5_0_branch2c
I0109 11:23:13.474066 18073 net.cpp:411] enet5_0 -> enet5_0
I0109 11:23:13.474112 18073 net.cpp:150] Setting up enet5_0
I0109 11:23:13.474128 18073 net.cpp:157] Top shape: 4 16 188 620 (7459840)
I0109 11:23:13.474134 18073 net.cpp:165] Memory required for data: 5016742432
I0109 11:23:13.474141 18073 layer_factory.hpp:77] Creating layer relu5_0
I0109 11:23:13.474150 18073 net.cpp:106] Creating Layer relu5_0
I0109 11:23:13.474158 18073 net.cpp:454] relu5_0 <- enet5_0
I0109 11:23:13.474166 18073 net.cpp:397] relu5_0 -> enet5_0 (in-place)
I0109 11:23:13.475270 18073 net.cpp:150] Setting up relu5_0
I0109 11:23:13.475287 18073 net.cpp:157] Top shape: 4 16 188 620 (7459840)
I0109 11:23:13.475294 18073 net.cpp:165] Memory required for data: 5046581792
I0109 11:23:13.475301 18073 layer_factory.hpp:77] Creating layer enet5_0_relu5_0_0_split
I0109 11:23:13.475311 18073 net.cpp:106] Creating Layer enet5_0_relu5_0_0_split
I0109 11:23:13.475319 18073 net.cpp:454] enet5_0_relu5_0_0_split <- enet5_0
I0109 11:23:13.475332 18073 net.cpp:411] enet5_0_relu5_0_0_split -> enet5_0_relu5_0_0_split_0
I0109 11:23:13.475345 18073 net.cpp:411] enet5_0_relu5_0_0_split -> enet5_0_relu5_0_0_split_1
I0109 11:23:13.475422 18073 net.cpp:150] Setting up enet5_0_relu5_0_0_split
I0109 11:23:13.475435 18073 net.cpp:157] Top shape: 4 16 188 620 (7459840)
I0109 11:23:13.475445 18073 net.cpp:157] Top shape: 4 16 188 620 (7459840)
I0109 11:23:13.475450 18073 net.cpp:165] Memory required for data: 5106260512
I0109 11:23:13.475456 18073 layer_factory.hpp:77] Creating layer enet5_1_branch2a
I0109 11:23:13.475474 18073 net.cpp:106] Creating Layer enet5_1_branch2a
I0109 11:23:13.475483 18073 net.cpp:454] enet5_1_branch2a <- enet5_0_relu5_0_0_split_0
I0109 11:23:13.475494 18073 net.cpp:411] enet5_1_branch2a -> enet5_1_branch2a
I0109 11:23:13.479353 18073 net.cpp:150] Setting up enet5_1_branch2a
I0109 11:23:13.479372 18073 net.cpp:157] Top shape: 4 4 188 620 (1864960)
I0109 11:23:13.479379 18073 net.cpp:165] Memory required for data: 5113720352
I0109 11:23:13.479389 18073 layer_factory.hpp:77] Creating layer bn5_1_branch2a
I0109 11:23:13.479403 18073 net.cpp:106] Creating Layer bn5_1_branch2a
I0109 11:23:13.479413 18073 net.cpp:454] bn5_1_branch2a <- enet5_1_branch2a
I0109 11:23:13.479423 18073 net.cpp:397] bn5_1_branch2a -> enet5_1_branch2a (in-place)
I0109 11:23:13.480831 18073 net.cpp:150] Setting up bn5_1_branch2a
I0109 11:23:13.480851 18073 net.cpp:157] Top shape: 4 4 188 620 (1864960)
I0109 11:23:13.480859 18073 net.cpp:165] Memory required for data: 5121180192
I0109 11:23:13.480885 18073 layer_factory.hpp:77] Creating layer relu5_1_branch2a
I0109 11:23:13.480895 18073 net.cpp:106] Creating Layer relu5_1_branch2a
I0109 11:23:13.480903 18073 net.cpp:454] relu5_1_branch2a <- enet5_1_branch2a
I0109 11:23:13.480916 18073 net.cpp:397] relu5_1_branch2a -> enet5_1_branch2a (in-place)
I0109 11:23:13.482033 18073 net.cpp:150] Setting up relu5_1_branch2a
I0109 11:23:13.482050 18073 net.cpp:157] Top shape: 4 4 188 620 (1864960)
I0109 11:23:13.482058 18073 net.cpp:165] Memory required for data: 5128640032
I0109 11:23:13.482064 18073 layer_factory.hpp:77] Creating layer enet5_1_branch2b
I0109 11:23:13.482081 18073 net.cpp:106] Creating Layer enet5_1_branch2b
I0109 11:23:13.482090 18073 net.cpp:454] enet5_1_branch2b <- enet5_1_branch2a
I0109 11:23:13.482105 18073 net.cpp:411] enet5_1_branch2b -> enet5_1_branch2b
I0109 11:23:13.487782 18073 net.cpp:150] Setting up enet5_1_branch2b
I0109 11:23:13.487800 18073 net.cpp:157] Top shape: 4 4 188 620 (1864960)
I0109 11:23:13.487809 18073 net.cpp:165] Memory required for data: 5136099872
I0109 11:23:13.487820 18073 layer_factory.hpp:77] Creating layer bn5_1_branch2b
I0109 11:23:13.487833 18073 net.cpp:106] Creating Layer bn5_1_branch2b
I0109 11:23:13.487845 18073 net.cpp:454] bn5_1_branch2b <- enet5_1_branch2b
I0109 11:23:13.487856 18073 net.cpp:397] bn5_1_branch2b -> enet5_1_branch2b (in-place)
I0109 11:23:13.489250 18073 net.cpp:150] Setting up bn5_1_branch2b
I0109 11:23:13.489267 18073 net.cpp:157] Top shape: 4 4 188 620 (1864960)
I0109 11:23:13.489274 18073 net.cpp:165] Memory required for data: 5143559712
I0109 11:23:13.489285 18073 layer_factory.hpp:77] Creating layer relu5_1_branch2b
I0109 11:23:13.489296 18073 net.cpp:106] Creating Layer relu5_1_branch2b
I0109 11:23:13.489305 18073 net.cpp:454] relu5_1_branch2b <- enet5_1_branch2b
I0109 11:23:13.489315 18073 net.cpp:397] relu5_1_branch2b -> enet5_1_branch2b (in-place)
I0109 11:23:13.490422 18073 net.cpp:150] Setting up relu5_1_branch2b
I0109 11:23:13.490440 18073 net.cpp:157] Top shape: 4 4 188 620 (1864960)
I0109 11:23:13.490447 18073 net.cpp:165] Memory required for data: 5151019552
I0109 11:23:13.490454 18073 layer_factory.hpp:77] Creating layer enet5_1_branch2c
I0109 11:23:13.490473 18073 net.cpp:106] Creating Layer enet5_1_branch2c
I0109 11:23:13.490483 18073 net.cpp:454] enet5_1_branch2c <- enet5_1_branch2b
I0109 11:23:13.490494 18073 net.cpp:411] enet5_1_branch2c -> enet5_1_branch2c
I0109 11:23:13.494398 18073 net.cpp:150] Setting up enet5_1_branch2c
I0109 11:23:13.494416 18073 net.cpp:157] Top shape: 4 16 188 620 (7459840)
I0109 11:23:13.494424 18073 net.cpp:165] Memory required for data: 5180858912
I0109 11:23:13.494434 18073 layer_factory.hpp:77] Creating layer bn5_1_branch2c
I0109 11:23:13.494448 18073 net.cpp:106] Creating Layer bn5_1_branch2c
I0109 11:23:13.494457 18073 net.cpp:454] bn5_1_branch2c <- enet5_1_branch2c
I0109 11:23:13.494473 18073 net.cpp:397] bn5_1_branch2c -> enet5_1_branch2c (in-place)
I0109 11:23:13.495904 18073 net.cpp:150] Setting up bn5_1_branch2c
I0109 11:23:13.495921 18073 net.cpp:157] Top shape: 4 16 188 620 (7459840)
I0109 11:23:13.495929 18073 net.cpp:165] Memory required for data: 5210698272
I0109 11:23:13.495940 18073 layer_factory.hpp:77] Creating layer enet5_1
I0109 11:23:13.495950 18073 net.cpp:106] Creating Layer enet5_1
I0109 11:23:13.495959 18073 net.cpp:454] enet5_1 <- enet5_0_relu5_0_0_split_1
I0109 11:23:13.495967 18073 net.cpp:454] enet5_1 <- enet5_1_branch2c
I0109 11:23:13.495980 18073 net.cpp:411] enet5_1 -> enet5_1
I0109 11:23:13.496033 18073 net.cpp:150] Setting up enet5_1
I0109 11:23:13.496047 18073 net.cpp:157] Top shape: 4 16 188 620 (7459840)
I0109 11:23:13.496053 18073 net.cpp:165] Memory required for data: 5240537632
I0109 11:23:13.496060 18073 layer_factory.hpp:77] Creating layer relu5_1
I0109 11:23:13.496069 18073 net.cpp:106] Creating Layer relu5_1
I0109 11:23:13.496076 18073 net.cpp:454] relu5_1 <- enet5_1
I0109 11:23:13.496085 18073 net.cpp:397] relu5_1 -> enet5_1 (in-place)
I0109 11:23:13.497423 18073 net.cpp:150] Setting up relu5_1
I0109 11:23:13.497452 18073 net.cpp:157] Top shape: 4 16 188 620 (7459840)
I0109 11:23:13.497459 18073 net.cpp:165] Memory required for data: 5270376992
I0109 11:23:13.497467 18073 layer_factory.hpp:77] Creating layer enet6_0
I0109 11:23:13.497481 18073 net.cpp:106] Creating Layer enet6_0
I0109 11:23:13.497489 18073 net.cpp:454] enet6_0 <- enet5_1
I0109 11:23:13.497503 18073 net.cpp:411] enet6_0 -> enet6_0
I0109 11:23:13.499975 18073 net.cpp:150] Setting up enet6_0
I0109 11:23:13.499994 18073 net.cpp:157] Top shape: 4 4 376 1240 (7459840)
I0109 11:23:13.500000 18073 net.cpp:165] Memory required for data: 5300216352
I0109 11:23:13.500011 18073 layer_factory.hpp:77] Creating layer enet6_0_enet6_0_0_split
I0109 11:23:13.500025 18073 net.cpp:106] Creating Layer enet6_0_enet6_0_0_split
I0109 11:23:13.500033 18073 net.cpp:454] enet6_0_enet6_0_0_split <- enet6_0
I0109 11:23:13.500043 18073 net.cpp:411] enet6_0_enet6_0_0_split -> enet6_0_enet6_0_0_split_0
I0109 11:23:13.500056 18073 net.cpp:411] enet6_0_enet6_0_0_split -> enet6_0_enet6_0_0_split_1
I0109 11:23:13.500143 18073 net.cpp:150] Setting up enet6_0_enet6_0_0_split
I0109 11:23:13.500156 18073 net.cpp:157] Top shape: 4 4 376 1240 (7459840)
I0109 11:23:13.500164 18073 net.cpp:157] Top shape: 4 4 376 1240 (7459840)
I0109 11:23:13.500170 18073 net.cpp:165] Memory required for data: 5359895072
I0109 11:23:13.500177 18073 layer_factory.hpp:77] Creating layer loss
I0109 11:23:13.500200 18073 net.cpp:106] Creating Layer loss
I0109 11:23:13.500212 18073 net.cpp:454] loss <- enet6_0_enet6_0_0_split_0
I0109 11:23:13.500221 18073 net.cpp:454] loss <- label_data_1_split_0
I0109 11:23:13.500231 18073 net.cpp:411] loss -> loss
I0109 11:23:13.500267 18073 layer_factory.hpp:77] Creating layer loss
I0109 11:23:13.529384 18073 net.cpp:150] Setting up loss
I0109 11:23:13.529438 18073 net.cpp:157] Top shape: (1)
I0109 11:23:13.529444 18073 net.cpp:160]     with loss weight 1
I0109 11:23:13.529512 18073 net.cpp:165] Memory required for data: 5359895076
I0109 11:23:13.529523 18073 layer_factory.hpp:77] Creating layer accuracy
I0109 11:23:13.529546 18073 net.cpp:106] Creating Layer accuracy
I0109 11:23:13.529556 18073 net.cpp:454] accuracy <- enet6_0_enet6_0_0_split_1
I0109 11:23:13.529572 18073 net.cpp:454] accuracy <- label_data_1_split_1
I0109 11:23:13.529587 18073 net.cpp:411] accuracy -> accuracy
I0109 11:23:13.529603 18073 net.cpp:411] accuracy -> per_class_accuracy
I0109 11:23:13.529691 18073 net.cpp:150] Setting up accuracy
I0109 11:23:13.529706 18073 net.cpp:157] Top shape: (1)
I0109 11:23:13.529713 18073 net.cpp:157] Top shape: 4 (4)
I0109 11:23:13.529719 18073 net.cpp:165] Memory required for data: 5359895096
I0109 11:23:13.529726 18073 net.cpp:228] accuracy does not need backward computation.
I0109 11:23:13.529734 18073 net.cpp:226] loss needs backward computation.
I0109 11:23:13.529742 18073 net.cpp:226] enet6_0_enet6_0_0_split needs backward computation.
I0109 11:23:13.529749 18073 net.cpp:226] enet6_0 needs backward computation.
…
