…
I0110 14:43:29.743415 29226 solver.cpp:91] Creating training net from net file: /home/map/liuli/caffe_hebei/segnet/Models/enet/enet_train_kitti_road_enet_new.prototxt
I0110 14:43:29.755779 29226 net.cpp:49] Initializing net from parameters: 
name: "enet"
state {
  phase: TRAIN
}
layer {
  name: "data"
  type: "ImageSegData"
  top: "data"
  top: "label"
  transform_param {
    mirror: true
    mean_value: 0
    mean_value: 0
    mean_value: 0
    scale_factors: 1
  }
  image_data_param {
    source: "/home/map/liuli/datasets/enet_multclass/train_new/enet_train.list"
    batch_size: 4
    shuffle: true
    label_type: PIXEL
  }
}
layer {
  name: "enet_initial_branch2a"
  type: "Convolution"
  bottom: "data"
  top: "enet_initial_branch2a"
  param {
    lr_mult: 1
    decay_mult: 1
  }
  param {
    lr_mult: 2
    decay_mult: 0
  }
  convolution_param {
    num_output: 13
    bias_term: true
    weight_filler {
      type: "msra"
    }
    bias_filler {
      type: "constant"
    }
    pad_h: 1
    pad_w: 1
    kernel_h: 3
    kernel_w: 3
    stride_h: 2
    stride_w: 2
    dilation: 1
  }
}
layer {
  name: "pool_initial_branch1a"
  type: "Pooling"
  bottom: "data"
  top: "pool_initial_branch1a"
  pooling_param {
    pool: MAX
    kernel_size: 2
    stride: 2
  }
}
layer {
  name: "enet_initial"
  type: "Concat"
  bottom: "enet_initial_branch2a"
  bottom: "pool_initial_branch1a"
  top: "enet_initial"
  concat_param {
    axis: 1
  }
}
layer {
  name: "bn_initial"
  type: "BN"
  bottom: "enet_initial"
  top: "enet_initial"
  param {
    lr_mult: 1
    decay_mult: 1
  }
  param {
    lr_mult: 2
    decay_mult: 0
  }
  bn_param {
    scale_filler {
      type: "constant"
      value: 1
    }
    shift_filler {
      type: "constant"
      value: 0.001
    }
  }
}
layer {
  name: "relu_initial"
  type: "PReLU"
  bottom: "enet_initial"
  top: "enet_initial"
}
layer {
  name: "enet1_0_branch2a"
  type: "Convolution"
  bottom: "enet_initial"
  top: "enet1_0_branch2a"
  param {
    lr_mult: 1
    decay_mult: 1
  }
  convolution_param {
    num_output: 16
    bias_term: false
    weight_filler {
      type: "msra"
    }
    bias_filler {
      type: "constant"
    }
    pad_h: 0
    pad_w: 0
    kernel_h: 2
    kernel_w: 2
    stride_h: 2
    stride_w: 2
    dilation: 1
  }
}
layer {
  name: "bn1_0_branch2a"
  type: "BN"
  bottom: "enet1_0_branch2a"
  top: "enet1_0_branch2a"
  param {
    lr_mult: 1
    decay_mult: 1
  }
  param {
    lr_mult: 2
    decay_mult: 0
  }
  bn_param {
    scale_filler {
      type: "constant"
      value: 1
    }
    shift_filler {
      type: "constant"
      value: 0.001
    }
  }
}
layer {
  name: "relu1_0_branch2a"
  type: "PReLU"
  bottom: "enet1_0_branch2a"
  top: "enet1_0_branch2a"
}
layer {
  name: "enet1_0_branch2b"
  type: "Convolution"
  bottom: "enet1_0_branch2a"
  top: "enet1_0_branch2b"
  param {
    lr_mult: 1
    decay_mult: 1
  }
  param {
    lr_mult: 2
    decay_mult: 0
  }
  convolution_param {
    num_output: 16
    bias_term: true
    weight_filler {
      type: "msra"
    }
    bias_filler {
      type: "constant"
    }
    pad_h: 1
    pad_w: 1
    kernel_h: 3
    kernel_w: 3
    stride_h: 1
    stride_w: 1
    dilation: 1
  }
}
layer {
  name: "bn1_0_branch2b"
  type: "BN"
  bottom: "enet1_0_branch2b"
  top: "enet1_0_branch2b"
  param {
    lr_mult: 1
    decay_mult: 1
  }
  param {
    lr_mult: 2
    decay_mult: 0
  }
  bn_param {
    scale_filler {
      type: "constant"
      value: 1
    }
    shift_filler {
      type: "constant"
      value: 0.001
    }
  }
}
layer {
  name: "relu1_0_branch2b"
  type: "PReLU"
  bottom: "enet1_0_branch2b"
  top: "enet1_0_branch2b"
}
layer {
  name: "enet1_0_branch2c"
  type: "Convolution"
  bottom: "enet1_0_branch2b"
  top: "enet1_0_branch2c"
  param {
    lr_mult: 1
    decay_mult: 1
  }
  convolution_param {
    num_output: 64
    bias_term: false
    weight_filler {
      type: "msra"
    }
    bias_filler {
      type: "constant"
    }
    pad_h: 0
    pad_w: 0
    kernel_h: 1
    kernel_w: 1
    stride_h: 1
    stride_w: 1
    dilation: 1
  }
}
layer {
  name: "bn1_0_branch2c"
  type: "BN"
  bottom: "enet1_0_branch2c"
  top: "enet1_0_branch2c"
  param {
    lr_mult: 1
    decay_mult: 1
  }
  param {
    lr_mult: 2
    decay_mult: 0
  }
  bn_param {
    scale_filler {
      type: "constant"
      value: 1
    }
    shift_filler {
      type: "constant"
      value: 0.001
    }
  }
}
layer {
  name: "dropout1_0_branch2c"
  type: "Dropout"
  bottom: "enet1_0_branch2c"
  top: "enet1_0_branch2c"
  dropout_param {
    dropout_ratio: 0.01
  }
}
layer {
  name: "enet1_0_branch1a"
  type: "Convolution"
  bottom: "enet_initial"
  top: "enet1_0_branch1a"
  param {
    lr_mult: 1
    decay_mult: 1
  }
  convolution_param {
    num_output: 64
    bias_term: false
    weight_filler {
      type: "msra"
    }
    bias_filler {
      type: "constant"
    }
    pad_h: 0
    pad_w: 0
    kernel_h: 1
    kernel_w: 1
    stride_h: 1
    stride_w: 1
    dilation: 1
  }
}
layer {
  name: "bn1_0_branch1a"
  type: "BN"
  bottom: "enet1_0_branch1a"
  top: "enet1_0_branch1a"
  param {
    lr_mult: 1
    decay_mult: 1
  }
  param {
    lr_mult: 2
    decay_mult: 0
  }
  bn_param {
    scale_filler {
      type: "constant"
      value: 1
    }
    shift_filler {
      type: "constant"
      value: 0.001
    }
  }
}
layer {
  name: "pool1_0_branch1a"
  type: "Pooling"
  bottom: "enet1_0_branch1a"
  top: "pool1_0_branch1a"
  top: "pool1_0_branch1a_mask"
  pooling_param {
    pool: MAX
    kernel_size: 2
    stride: 2
  }
}
layer {
  name: "enet1_0"
  type: "Eltwise"
  bottom: "pool1_0_branch1a"
  bottom: "enet1_0_branch2c"
  top: "enet1_0"
}
layer {
  name: "relu1_0"
  type: "PReLU"
  bottom: "enet1_0"
  top: "enet1_0"
}
layer {
  name: "enet1_1_branch2a"
  type: "Convolution"
  bottom: "enet1_0"
  top: "enet1_1_branch2a"
  param {
    lr_mult: 1
    decay_mult: 1
  }
  convolution_param {
    num_output: 16
    bias_term: false
    weight_filler {
      type: "msra"
    }
    bias_filler {
      type: "constant"
    }
    pad_h: 0
    pad_w: 0
    kernel_h: 1
    kernel_w: 1
    stride_h: 1
    stride_w: 1
    dilation: 1
  }
}
layer {
  name: "bn1_1_branch2a"
  type: "BN"
  bottom: "enet1_1_branch2a"
  top: "enet1_1_branch2a"
  param {
    lr_mult: 1
    decay_mult: 1
  }
  param {
    lr_mult: 2
    decay_mult: 0
  }
  bn_param {
    scale_filler {
      type: "constant"
      value: 1
    }
    shift_filler {
      type: "constant"
      value: 0.001
    }
  }
}
layer {
  name: "relu1_1_branch2a"
  type: "PReLU"
  bottom: "enet1_1_branch2a"
  top: "enet1_1_branch2a"
}
layer {
  name: "enet1_1_branch2b"
  type: "Convolution"
  bottom: "enet1_1_branch2a"
  top: "enet1_1_branch2b"
  param {
    lr_mult: 1
    decay_mult: 1
  }
  param {
    lr_mult: 2
    decay_mult: 0
  }
  convolution_param {
    num_output: 16
    bias_term: true
    weight_filler {
      type: "msra"
    }
    bias_filler {
      type: "constant"
    }
    pad_h: 1
    pad_w: 1
    kernel_h: 3
    kernel_w: 3
    stride_h: 1
    stride_w: 1
    dilation: 1
  }
}
layer {
  name: "bn1_1_branch2b"
  type: "BN"
  bottom: "enet1_1_branch2b"
  top: "enet1_1_branch2b"
  param {
    lr_mult: 1
    decay_mult: 1
  }
  param {
    lr_mult: 2
    decay_mult: 0
  }
  bn_param {
    scale_filler {
      type: "constant"
      value: 1
    }
    shift_filler {
      type: "constant"
      value: 0.001
    }
  }
}
layer {
  name: "relu1_1_branch2b"
  type: "PReLU"
  bottom: "enet1_1_branch2b"
  top: "enet1_1_branch2b"
}
layer {
  name: "enet1_1_branch2c"
  type: "Convolution"
  bottom: "enet1_1_branch2b"
  top: "enet1_1_branch2c"
  param {
    lr_mult: 1
    decay_mult: 1
  }
  convolution_param {
    num_output: 64
    bias_term: false
    weight_filler {
      type: "msra"
    }
    bias_filler {
      type: "constant"
    }
    pad_h: 0
    pad_w: 0
    kernel_h: 1
    kernel_w: 1
    stride_h: 1
    stride_w: 1
    dilation: 1
  }
}
layer {
  name: "bn1_1_branch2c"
  type: "BN"
  bottom: "enet1_1_branch2c"
  top: "enet1_1_branch2c"
  param {
    lr_mult: 1
    decay_mult: 1
  }
  param {
    lr_mult: 2
    decay_mult: 0
  }
  bn_param {
    scale_filler {
      type: "constant"
      value: 1
    }
    shift_filler {
      type: "constant"
      value: 0.001
    }
  }
}
layer {
  name: "dropout1_1_branch2c"
  type: "Dropout"
  bottom: "enet1_1_branch2c"
  top: "enet1_1_branch2c"
  dropout_param {
    dropout_ratio: 0.01
  }
}
layer {
  name: "enet1_1"
  type: "Eltwise"
  bottom: "enet1_0"
  bottom: "enet1_1_branch2c"
  top: "enet1_1"
}
layer {
  name: "relu1_1"
  type: "PReLU"
  bottom: "enet1_1"
  top: "enet1_1"
}
layer {
  name: "enet1_2_branch2a"
  type: "Convolution"
  bottom: "enet1_1"
  top: "enet1_2_branch2a"
  param {
    lr_mult: 1
    decay_mult: 1
  }
  convolution_param {
    num_output: 16
    bias_term: false
    weight_filler {
      type: "msra"
    }
    bias_filler {
      type: "constant"
    }
    pad_h: 0
    pad_w: 0
    kernel_h: 1
    kernel_w: 1
    stride_h: 1
    stride_w: 1
    dilation: 1
  }
}
layer {
  name: "bn1_2_branch2a"
  type: "BN"
  bottom: "enet1_2_branch2a"
  top: "enet1_2_branch2a"
  param {
    lr_mult: 1
    decay_mult: 1
  }
  param {
    lr_mult: 2
    decay_mult: 0
  }
  bn_param {
    scale_filler {
      type: "constant"
      value: 1
    }
    shift_filler {
      type: "constant"
      value: 0.001
    }
  }
}
layer {
  name: "relu1_2_branch2a"
  type: "PReLU"
  bottom: "enet1_2_branch2a"
  top: "enet1_2_branch2a"
}
layer {
  name: "enet1_2_branch2b"
  type: "Convolution"
  bottom: "enet1_2_branch2a"
  top: "enet1_2_branch2b"
  param {
    lr_mult: 1
    decay_mult: 1
  }
  param {
    lr_mult: 2
    decay_mult: 0
  }
  convolution_param {
    num_output: 16
    bias_term: true
    weight_filler {
      type: "msra"
    }
    bias_filler {
      type: "constant"
    }
    pad_h: 1
    pad_w: 1
    kernel_h: 3
    kernel_w: 3
    stride_h: 1
    stride_w: 1
    dilation: 1
  }
}
layer {
  name: "bn1_2_branch2b"
  type: "BN"
  bottom: "enet1_2_branch2b"
  top: "enet1_2_branch2b"
  param {
    lr_mult: 1
    decay_mult: 1
  }
  param {
    lr_mult: 2
    decay_mult: 0
  }
  bn_param {
    scale_filler {
      type: "constant"
      value: 1
    }
    shift_filler {
      type: "constant"
      value: 0.001
    }
  }
}
layer {
  name: "relu1_2_branch2b"
  type: "PReLU"
  bottom: "enet1_2_branch2b"
  top: "enet1_2_branch2b"
}
layer {
  name: "enet1_2_branch2c"
  type: "Convolution"
  bottom: "enet1_2_branch2b"
  top: "enet1_2_branch2c"
  param {
    lr_mult: 1
    decay_mult: 1
  }
  convolution_param {
    num_output: 64
    bias_term: false
    weight_filler {
      type: "msra"
    }
    bias_filler {
      type: "constant"
    }
    pad_h: 0
    pad_w: 0
    kernel_h: 1
    kernel_w: 1
    stride_h: 1
    stride_w: 1
    dilation: 1
  }
}
layer {
  name: "bn1_2_branch2c"
  type: "BN"
  bottom: "enet1_2_branch2c"
  top: "enet1_2_branch2c"
  param {
    lr_mult: 1
    decay_mult: 1
  }
  param {
    lr_mult: 2
    decay_mult: 0
  }
  bn_param {
    scale_filler {
      type: "constant"
      value: 1
    }
    shift_filler {
      type: "constant"
      value: 0.001
    }
  }
}
layer {
  name: "dropout1_2_branch2c"
  type: "Dropout"
  bottom: "enet1_2_branch2c"
  top: "enet1_2_branch2c"
  dropout_param {
    dropout_ratio: 0.01
  }
}
layer {
  name: "enet1_2"
  type: "Eltwise"
  bottom: "enet1_1"
  bottom: "enet1_2_branch2c"
  top: "enet1_2"
}
layer {
  name: "relu1_2"
  type: "PReLU"
  bottom: "enet1_2"
  top: "enet1_2"
}
layer {
  name: "enet1_3_branch2a"
  type: "Convolution"
  bottom: "enet1_2"
  top: "enet1_3_branch2a"
  param {
    lr_mult: 1
    decay_mult: 1
  }
  convolution_param {
    num_output: 16
    bias_term: false
    weight_filler {
      type: "msra"
    }
    bias_filler {
      type: "constant"
    }
    pad_h: 0
    pad_w: 0
    kernel_h: 1
    kernel_w: 1
    stride_h: 1
    stride_w: 1
    dilation: 1
  }
}
layer {
  name: "bn1_3_branch2a"
  type: "BN"
  bottom: "enet1_3_branch2a"
  top: "enet1_3_branch2a"
  param {
    lr_mult: 1
    decay_mult: 1
  }
  param {
    lr_mult: 2
    decay_mult: 0
  }
  bn_param {
    scale_filler {
      type: "constant"
      value: 1
    }
    shift_filler {
      type: "constant"
      value: 0.001
    }
  }
}
layer {
  name: "relu1_3_branch2a"
  type: "PReLU"
  bottom: "enet1_3_branch2a"
  top: "enet1_3_branch2a"
}
layer {
  name: "enet1_3_branch2b"
  type: "Convolution"
  bottom: "enet1_3_branch2a"
  top: "enet1_3_branch2b"
  param {
    lr_mult: 1
    decay_mult: 1
  }
  param {
    lr_mult: 2
    decay_mult: 0
  }
  convolution_param {
    num_output: 16
    bias_term: true
    weight_filler {
      type: "msra"
    }
    bias_filler {
      type: "constant"
    }
    pad_h: 1
    pad_w: 1
    kernel_h: 3
    kernel_w: 3
    stride_h: 1
    stride_w: 1
    dilation: 1
  }
}
layer {
  name: "bn1_3_branch2b"
  type: "BN"
  bottom: "enet1_3_branch2b"
  top: "enet1_3_branch2b"
  param {
    lr_mult: 1
    decay_mult: 1
  }
  param {
    lr_mult: 2
    decay_mult: 0
  }
  bn_param {
    scale_filler {
      type: "constant"
      value: 1
    }
    shift_filler {
      type: "constant"
      value: 0.001
    }
  }
}
layer {
  name: "relu1_3_branch2b"
  type: "PReLU"
  bottom: "enet1_3_branch2b"
  top: "enet1_3_branch2b"
}
layer {
  name: "enet1_3_branch2c"
  type: "Convolution"
  bottom: "enet1_3_branch2b"
  top: "enet1_3_branch2c"
  param {
    lr_mult: 1
    decay_mult: 1
  }
  convolution_param {
    num_output: 64
    bias_term: false
    weight_filler {
      type: "msra"
    }
    bias_filler {
      type: "constant"
    }
    pad_h: 0
    pad_w: 0
    kernel_h: 1
    kernel_w: 1
    stride_h: 1
    stride_w: 1
    dilation: 1
  }
}
layer {
  name: "bn1_3_branch2c"
  type: "BN"
  bottom: "enet1_3_branch2c"
  top: "enet1_3_branch2c"
  param {
    lr_mult: 1
    decay_mult: 1
  }
  param {
    lr_mult: 2
    decay_mult: 0
  }
  bn_param {
    scale_filler {
      type: "constant"
      value: 1
    }
    shift_filler {
      type: "constant"
      value: 0.001
    }
  }
}
layer {
  name: "dropout1_3_branch2c"
  type: "Dropout"
  bottom: "enet1_3_branch2c"
  top: "enet1_3_branch2c"
  dropout_param {
    dropout_ratio: 0.01
  }
}
layer {
  name: "enet1_3"
  type: "Eltwise"
  bottom: "enet1_2"
  bottom: "enet1_3_branch2c"
  top: "enet1_3"
}
layer {
  name: "relu1_3"
  type: "PReLU"
  bottom: "enet1_3"
  top: "enet1_3"
}
layer {
  name: "enet1_4_branch2a"
  type: "Convolution"
  bottom: "enet1_3"
  top: "enet1_4_branch2a"
  param {
    lr_mult: 1
    decay_mult: 1
  }
  convolution_param {
    num_output: 16
    bias_term: false
    weight_filler {
      type: "msra"
    }
    bias_filler {
      type: "constant"
    }
    pad_h: 0
    pad_w: 0
    kernel_h: 1
    kernel_w: 1
    stride_h: 1
    stride_w: 1
    dilation: 1
  }
}
layer {
  name: "bn1_4_branch2a"
  type: "BN"
  bottom: "enet1_4_branch2a"
  top: "enet1_4_branch2a"
  param {
    lr_mult: 1
    decay_mult: 1
  }
  param {
    lr_mult: 2
    decay_mult: 0
  }
  bn_param {
    scale_filler {
      type: "constant"
      value: 1
    }
    shift_filler {
      type: "constant"
      value: 0.001
    }
  }
}
layer {
  name: "relu1_4_branch2a"
  type: "PReLU"
  bottom: "enet1_4_branch2a"
  top: "enet1_4_branch2a"
}
layer {
  name: "enet1_4_branch2b"
  type: "Convolution"
  bottom: "enet1_4_branch2a"
  top: "enet1_4_branch2b"
  param {
    lr_mult: 1
    decay_mult: 1
  }
  param {
    lr_mult: 2
    decay_mult: 0
  }
  convolution_param {
    num_output: 16
    bias_term: true
    weight_filler {
      type: "msra"
    }
    bias_filler {
      type: "constant"
    }
    pad_h: 1
    pad_w: 1
    kernel_h: 3
    kernel_w: 3
    stride_h: 1
    stride_w: 1
    dilation: 1
  }
}
layer {
  name: "bn1_4_branch2b"
  type: "BN"
  bottom: "enet1_4_branch2b"
  top: "enet1_4_branch2b"
  param {
    lr_mult: 1
    decay_mult: 1
  }
  param {
    lr_mult: 2
    decay_mult: 0
  }
  bn_param {
    scale_filler {
      type: "constant"
      value: 1
    }
    shift_filler {
      type: "constant"
      value: 0.001
    }
  }
}
layer {
  name: "relu1_4_branch2b"
  type: "PReLU"
  bottom: "enet1_4_branch2b"
  top: "enet1_4_branch2b"
}
layer {
  name: "enet1_4_branch2c"
  type: "Convolution"
  bottom: "enet1_4_branch2b"
  top: "enet1_4_branch2c"
  param {
    lr_mult: 1
    decay_mult: 1
  }
  convolution_param {
    num_output: 64
    bias_term: false
    weight_filler {
      type: "msra"
    }
    bias_filler {
      type: "constant"
    }
    pad_h: 0
    pad_w: 0
    kernel_h: 1
    kernel_w: 1
    stride_h: 1
    stride_w: 1
    dilation: 1
  }
}
layer {
  name: "bn1_4_branch2c"
  type: "BN"
  bottom: "enet1_4_branch2c"
  top: "enet1_4_branch2c"
  param {
    lr_mult: 1
    decay_mult: 1
  }
  param {
    lr_mult: 2
    decay_mult: 0
  }
  bn_param {
    scale_filler {
      type: "constant"
      value: 1
    }
    shift_filler {
      type: "constant"
      value: 0.001
    }
  }
}
layer {
  name: "dropout1_4_branch2c"
  type: "Dropout"
  bottom: "enet1_4_branch2c"
  top: "enet1_4_branch2c"
  dropout_param {
    dropout_ratio: 0.01
  }
}
layer {
  name: "enet1_4"
  type: "Eltwise"
  bottom: "enet1_3"
  bottom: "enet1_4_branch2c"
  top: "enet1_4"
}
layer {
  name: "relu1_4"
  type: "PReLU"
  bottom: "enet1_4"
  top: "enet1_4"
}
layer {
  name: "enet2_0_branch2a"
  type: "Convolution"
  bottom: "enet1_4"
  top: "enet2_0_branch2a"
  param {
    lr_mult: 1
    decay_mult: 1
  }
  convolution_param {
    num_output: 32
    bias_term: false
    weight_filler {
      type: "msra"
    }
    bias_filler {
      type: "constant"
    }
    pad_h: 0
    pad_w: 0
    kernel_h: 2
    kernel_w: 2
    stride_h: 2
    stride_w: 2
    dilation: 1
  }
}
layer {
  name: "bn2_0_branch2a"
  type: "BN"
  bottom: "enet2_0_branch2a"
  top: "enet2_0_branch2a"
  param {
    lr_mult: 1
    decay_mult: 1
  }
  param {
    lr_mult: 2
    decay_mult: 0
  }
  bn_param {
    scale_filler {
      type: "constant"
      value: 1
    }
    shift_filler {
      type: "constant"
      value: 0.001
    }
  }
}
layer {
  name: "relu2_0_branch2a"
  type: "PReLU"
  bottom: "enet2_0_branch2a"
  top: "enet2_0_branch2a"
}
layer {
  name: "enet2_0_branch2b"
  type: "Convolution"
  bottom: "enet2_0_branch2a"
  top: "enet2_0_branch2b"
  param {
    lr_mult: 1
    decay_mult: 1
  }
  param {
    lr_mult: 2
    decay_mult: 0
  }
  convolution_param {
    num_output: 32
    bias_term: true
    weight_filler {
      type: "msra"
    }
    bias_filler {
      type: "constant"
    }
    pad_h: 1
    pad_w: 1
    kernel_h: 3
    kernel_w: 3
    stride_h: 1
    stride_w: 1
    dilation: 1
  }
}
layer {
  name: "bn2_0_branch2b"
  type: "BN"
  bottom: "enet2_0_branch2b"
  top: "enet2_0_branch2b"
  param {
    lr_mult: 1
    decay_mult: 1
  }
  param {
    lr_mult: 2
    decay_mult: 0
  }
  bn_param {
    scale_filler {
      type: "constant"
      value: 1
    }
    shift_filler {
      type: "constant"
      value: 0.001
    }
  }
}
layer {
  name: "relu2_0_branch2b"
  type: "PReLU"
  bottom: "enet2_0_branch2b"
  top: "enet2_0_branch2b"
}
layer {
  name: "enet2_0_branch2c"
  type: "Convolution"
  bottom: "enet2_0_branch2b"
  top: "enet2_0_branch2c"
  param {
    lr_mult: 1
    decay_mult: 1
  }
  convolution_param {
    num_output: 128
    bias_term: false
    weight_filler {
      type: "msra"
    }
    bias_filler {
      type: "constant"
    }
    pad_h: 0
    pad_w: 0
    kernel_h: 1
    kernel_w: 1
    stride_h: 1
    stride_w: 1
    dilation: 1
  }
}
layer {
  name: "bn2_0_branch2c"
  type: "BN"
  bottom: "enet2_0_branch2c"
  top: "enet2_0_branch2c"
  param {
    lr_mult: 1
    decay_mult: 1
  }
  param {
    lr_mult: 2
    decay_mult: 0
  }
  bn_param {
    scale_filler {
      type: "constant"
      value: 1
    }
    shift_filler {
      type: "constant"
      value: 0.001
    }
  }
}
layer {
  name: "dropout2_0_branch2c"
  type: "Dropout"
  bottom: "enet2_0_branch2c"
  top: "enet2_0_branch2c"
  dropout_param {
    dropout_ratio: 0.1
  }
}
layer {
  name: "enet2_0_branch1a"
  type: "Convolution"
  bottom: "enet1_4"
  top: "enet2_0_branch1a"
  param {
    lr_mult: 1
    decay_mult: 1
  }
  convolution_param {
    num_output: 128
    bias_term: false
    weight_filler {
      type: "msra"
    }
    bias_filler {
      type: "constant"
    }
    pad_h: 0
    pad_w: 0
    kernel_h: 1
    kernel_w: 1
    stride_h: 1
    stride_w: 1
    dilation: 1
  }
}
layer {
  name: "bn2_0_branch1a"
  type: "BN"
  bottom: "enet2_0_branch1a"
  top: "enet2_0_branch1a"
  param {
    lr_mult: 1
    decay_mult: 1
  }
  param {
    lr_mult: 2
    decay_mult: 0
  }
  bn_param {
    scale_filler {
      type: "constant"
      value: 1
    }
    shift_filler {
      type: "constant"
      value: 0.001
    }
  }
}
layer {
  name: "pool2_0_branch1a"
  type: "Pooling"
  bottom: "enet2_0_branch1a"
  top: "pool2_0_branch1a"
  top: "pool2_0_branch1a_mask"
  pooling_param {
    pool: MAX
    kernel_size: 2
    stride: 2
  }
}
layer {
  name: "enet2_0"
  type: "Eltwise"
  bottom: "pool2_0_branch1a"
  bottom: "enet2_0_branch2c"
  top: "enet2_0"
}
layer {
  name: "relu2_0"
  type: "PReLU"
  bottom: "enet2_0"
  top: "enet2_0"
}
layer {
  name: "enet2_1_branch2a"
  type: "Convolution"
  bottom: "enet2_0"
  top: "enet2_1_branch2a"
  param {
    lr_mult: 1
    decay_mult: 1
  }
  convolution_param {
    num_output: 32
    bias_term: false
    weight_filler {
      type: "msra"
    }
    bias_filler {
      type: "constant"
    }
    pad_h: 0
    pad_w: 0
    kernel_h: 1
    kernel_w: 1
    stride_h: 1
    stride_w: 1
    dilation: 1
  }
}
layer {
  name: "bn2_1_branch2a"
  type: "BN"
  bottom: "enet2_1_branch2a"
  top: "enet2_1_branch2a"
  param {
    lr_mult: 1
    decay_mult: 1
  }
  param {
    lr_mult: 2
    decay_mult: 0
  }
  bn_param {
    scale_filler {
      type: "constant"
      value: 1
    }
    shift_filler {
      type: "constant"
      value: 0.001
    }
  }
}
layer {
  name: "relu2_1_branch2a"
  type: "PReLU"
  bottom: "enet2_1_branch2a"
  top: "enet2_1_branch2a"
}
layer {
  name: "enet2_1_branch2b"
  type: "Convolution"
  bottom: "enet2_1_branch2a"
  top: "enet2_1_branch2b"
  param {
    lr_mult: 1
    decay_mult: 1
  }
  param {
    lr_mult: 2
    decay_mult: 0
  }
  convolution_param {
    num_output: 32
    bias_term: true
    weight_filler {
      type: "msra"
    }
    bias_filler {
      type: "constant"
    }
    pad_h: 1
    pad_w: 1
    kernel_h: 3
    kernel_w: 3
    stride_h: 1
    stride_w: 1
    dilation: 1
  }
}
layer {
  name: "bn2_1_branch2b"
  type: "BN"
  bottom: "enet2_1_branch2b"
  top: "enet2_1_branch2b"
  param {
    lr_mult: 1
    decay_mult: 1
  }
  param {
    lr_mult: 2
    decay_mult: 0
  }
  bn_param {
    scale_filler {
      type: "constant"
      value: 1
    }
    shift_filler {
      type: "constant"
      value: 0.001
    }
  }
}
layer {
  name: "relu2_1_branch2b"
  type: "PReLU"
  bottom: "enet2_1_branch2b"
  top: "enet2_1_branch2b"
}
layer {
  name: "enet2_1_branch2c"
  type: "Convolution"
  bottom: "enet2_1_branch2b"
  top: "enet2_1_branch2c"
  param {
    lr_mult: 1
    decay_mult: 1
  }
  convolution_param {
    num_output: 128
    bias_term: false
    weight_filler {
      type: "msra"
    }
    bias_filler {
      type: "constant"
    }
    pad_h: 0
    pad_w: 0
    kernel_h: 1
    kernel_w: 1
    stride_h: 1
    stride_w: 1
    dilation: 1
  }
}
layer {
  name: "bn2_1_branch2c"
  type: "BN"
  bottom: "enet2_1_branch2c"
  top: "enet2_1_branch2c"
  param {
    lr_mult: 1
    decay_mult: 1
  }
  param {
    lr_mult: 2
    decay_mult: 0
  }
  bn_param {
    scale_filler {
      type: "constant"
      value: 1
    }
    shift_filler {
      type: "constant"
      value: 0.001
    }
  }
}
layer {
  name: "dropout2_1_branch2c"
  type: "Dropout"
  bottom: "enet2_1_branch2c"
  top: "enet2_1_branch2c"
  dropout_param {
    dropout_ratio: 0.1
  }
}
layer {
  name: "enet2_1"
  type: "Eltwise"
  bottom: "enet2_0"
  bottom: "enet2_1_branch2c"
  top: "enet2_1"
}
layer {
  name: "relu2_1"
  type: "PReLU"
  bottom: "enet2_1"
  top: "enet2_1"
}
layer {
  name: "enet2_2_branch2a"
  type: "Convolution"
  bottom: "enet2_1"
  top: "enet2_2_branch2a"
  param {
    lr_mult: 1
    decay_mult: 1
  }
  convolution_param {
    num_output: 32
    bias_term: false
    weight_filler {
      type: "msra"
    }
    bias_filler {
      type: "constant"
    }
    pad_h: 0
    pad_w: 0
    kernel_h: 1
    kernel_w: 1
    stride_h: 1
    stride_w: 1
    dilation: 1
  }
}
layer {
  name: "bn2_2_branch2a"
  type: "BN"
  bottom: "enet2_2_branch2a"
  top: "enet2_2_branch2a"
  param {
    lr_mult: 1
    decay_mult: 1
  }
  param {
    lr_mult: 2
    decay_mult: 0
  }
  bn_param {
    scale_filler {
      type: "constant"
      value: 1
    }
    shift_filler {
      type: "constant"
      value: 0.001
    }
  }
}
layer {
  name: "relu2_2_branch2a"
  type: "PReLU"
  bottom: "enet2_2_branch2a"
  top: "enet2_2_branch2a"
}
layer {
  name: "enet2_2_branch2b"
  type: "Convolution"
  bottom: "enet2_2_branch2a"
  top: "enet2_2_branch2b"
  param {
    lr_mult: 1
    decay_mult: 1
  }
  param {
    lr_mult: 2
    decay_mult: 0
  }
  convolution_param {
    num_output: 32
    bias_term: true
    weight_filler {
      type: "msra"
    }
    bias_filler {
      type: "constant"
    }
    pad_h: 2
    pad_w: 2
    kernel_h: 3
    kernel_w: 3
    stride_h: 1
    stride_w: 1
    dilation: 2
  }
}
layer {
  name: "bn2_2_branch2b"
  type: "BN"
  bottom: "enet2_2_branch2b"
  top: "enet2_2_branch2b"
  param {
    lr_mult: 1
    decay_mult: 1
  }
  param {
    lr_mult: 2
    decay_mult: 0
  }
  bn_param {
    scale_filler {
      type: "constant"
      value: 1
    }
    shift_filler {
      type: "constant"
      value: 0.001
    }
  }
}
layer {
  name: "relu2_2_branch2b"
  type: "PReLU"
  bottom: "enet2_2_branch2b"
  top: "enet2_2_branch2b"
}
layer {
  name: "enet2_2_branch2c"
  type: "Convolution"
  bottom: "enet2_2_branch2b"
  top: "enet2_2_branch2c"
  param {
    lr_mult: 1
    decay_mult: 1
  }
  convolution_param {
    num_output: 128
    bias_term: false
    weight_filler {
      type: "msra"
    }
    bias_filler {
      type: "constant"
    }
    pad_h: 0
    pad_w: 0
    kernel_h: 1
    kernel_w: 1
    stride_h: 1
    stride_w: 1
    dilation: 1
  }
}
layer {
  name: "bn2_2_branch2c"
  type: "BN"
  bottom: "enet2_2_branch2c"
  top: "enet2_2_branch2c"
  param {
    lr_mult: 1
    decay_mult: 1
  }
  param {
    lr_mult: 2
    decay_mult: 0
  }
  bn_param {
    scale_filler {
      type: "constant"
      value: 1
    }
    shift_filler {
      type: "constant"
      value: 0.001
    }
  }
}
layer {
  name: "dropout2_2_branch2c"
  type: "Dropout"
  bottom: "enet2_2_branch2c"
  top: "enet2_2_branch2c"
  dropout_param {
    dropout_ratio: 0.1
  }
}
layer {
  name: "enet2_2"
  type: "Eltwise"
  bottom: "enet2_1"
  bottom: "enet2_2_branch2c"
  top: "enet2_2"
}
layer {
  name: "relu2_2"
  type: "PReLU"
  bottom: "enet2_2"
  top: "enet2_2"
}
layer {
  name: "enet2_3_branch2a"
  type: "Convolution"
  bottom: "enet2_2"
  top: "enet2_3_branch2a"
  param {
    lr_mult: 1
    decay_mult: 1
  }
  convolution_param {
    num_output: 32
    bias_term: false
    weight_filler {
      type: "msra"
    }
    bias_filler {
      type: "constant"
    }
    pad_h: 0
    pad_w: 0
    kernel_h: 1
    kernel_w: 1
    stride_h: 1
    stride_w: 1
    dilation: 1
  }
}
layer {
  name: "bn2_3_branch2a"
  type: "BN"
  bottom: "enet2_3_branch2a"
  top: "enet2_3_branch2a"
  param {
    lr_mult: 1
    decay_mult: 1
  }
  param {
    lr_mult: 2
    decay_mult: 0
  }
  bn_param {
    scale_filler {
      type: "constant"
      value: 1
    }
    shift_filler {
      type: "constant"
      value: 0.001
    }
  }
}
layer {
  name: "relu2_3_branch2a"
  type: "PReLU"
  bottom: "enet2_3_branch2a"
  top: "enet2_3_branch2a"
}
layer {
  name: "enet2_3_branch2b1"
  type: "Convolution"
  bottom: "enet2_3_branch2a"
  top: "enet2_3_branch2b1"
  param {
    lr_mult: 1
    decay_mult: 1
  }
  convolution_param {
    num_output: 32
    bias_term: false
    weight_filler {
      type: "msra"
    }
    bias_filler {
      type: "constant"
    }
    pad_h: 0
    pad_w: 2
    kernel_h: 1
    kernel_w: 5
    stride_h: 1
    stride_w: 1
    dilation: 1
  }
}
layer {
  name: "enet2_3_branch2b"
  type: "Convolution"
  bottom: "enet2_3_branch2b1"
  top: "enet2_3_branch2b"
  param {
    lr_mult: 1
    decay_mult: 1
  }
  param {
    lr_mult: 2
    decay_mult: 0
  }
  convolution_param {
    num_output: 32
    bias_term: true
    weight_filler {
      type: "msra"
    }
    bias_filler {
      type: "constant"
    }
    pad_h: 2
    pad_w: 0
    kernel_h: 5
    kernel_w: 1
    stride_h: 1
    stride_w: 1
    dilation: 1
  }
}
layer {
  name: "bn2_3_branch2b"
  type: "BN"
  bottom: "enet2_3_branch2b"
  top: "enet2_3_branch2b"
  param {
    lr_mult: 1
    decay_mult: 1
  }
  param {
    lr_mult: 2
    decay_mult: 0
  }
  bn_param {
    scale_filler {
      type: "constant"
      value: 1
    }
    shift_filler {
      type: "constant"
      value: 0.001
    }
  }
}
layer {
  name: "relu2_3_branch2b"
  type: "PReLU"
  bottom: "enet2_3_branch2b"
  top: "enet2_3_branch2b"
}
layer {
  name: "enet2_3_branch2c"
  type: "Convolution"
  bottom: "enet2_3_branch2b"
  top: "enet2_3_branch2c"
  param {
    lr_mult: 1
    decay_mult: 1
  }
  convolution_param {
    num_output: 128
    bias_term: false
    weight_filler {
      type: "msra"
    }
    bias_filler {
      type: "constant"
    }
    pad_h: 0
    pad_w: 0
    kernel_h: 1
    kernel_w: 1
    stride_h: 1
    stride_w: 1
    dilation: 1
  }
}
layer {
  name: "bn2_3_branch2c"
  type: "BN"
  bottom: "enet2_3_branch2c"
  top: "enet2_3_branch2c"
  param {
    lr_mult: 1
    decay_mult: 1
  }
  param {
    lr_mult: 2
    decay_mult: 0
  }
  bn_param {
    scale_filler {
      type: "constant"
      value: 1
    }
    shift_filler {
      type: "constant"
      value: 0.001
    }
  }
}
layer {
  name: "dropout2_3_
I0110 14:43:29.757521 29226 layer_factory.hpp:77] Creating layer data
I0110 14:43:29.757596 29226 net.cpp:106] Creating Layer data
I0110 14:43:29.757611 29226 net.cpp:411] data -> data
I0110 14:43:29.757659 29226 net.cpp:411] data -> label
I0110 14:43:29.757684 29226 net.cpp:411] data -> (automatic)
I0110 14:43:29.758281 29226 image_seg_data_layer.cpp:46] Opening file /home/map/liuli/datasets/enet_multclass/train_new/enet_train.list
I0110 14:43:29.782598 29226 image_seg_data_layer.cpp:63] Shuffling data
I0110 14:43:29.785727 29226 image_seg_data_layer.cpp:68] A total of 15998 images.
I0110 14:43:29.819733 29226 image_seg_data_layer.cpp:147] output data size: 4,3,376,1240
I0110 14:43:29.819756 29226 image_seg_data_layer.cpp:151] output label size: 4,1,376,1240
I0110 14:43:29.819762 29226 image_seg_data_layer.cpp:155] output data_dim size: 4,1,1,2
I0110 14:43:30.020823 29226 net.cpp:150] Setting up data
I0110 14:43:30.020867 29226 net.cpp:157] Top shape: 4 3 376 1240 (5594880)
I0110 14:43:30.020879 29226 net.cpp:157] Top shape: 4 1 376 1240 (1864960)
I0110 14:43:30.020887 29226 net.cpp:157] Top shape: 4 1 1 2 (8)
I0110 14:43:30.020895 29226 net.cpp:165] Memory required for data: 29839392
I0110 14:43:30.020910 29226 layer_factory.hpp:77] Creating layer data_data_0_split
I0110 14:43:30.020931 29226 net.cpp:106] Creating Layer data_data_0_split
I0110 14:43:30.020941 29226 net.cpp:454] data_data_0_split <- data
I0110 14:43:30.020968 29226 net.cpp:411] data_data_0_split -> data_data_0_split_0
I0110 14:43:30.020985 29226 net.cpp:411] data_data_0_split -> data_data_0_split_1
I0110 14:43:30.021049 29226 net.cpp:150] Setting up data_data_0_split
I0110 14:43:30.021062 29226 net.cpp:157] Top shape: 4 3 376 1240 (5594880)
I0110 14:43:30.021071 29226 net.cpp:157] Top shape: 4 3 376 1240 (5594880)
I0110 14:43:30.021077 29226 net.cpp:165] Memory required for data: 74598432
I0110 14:43:30.021085 29226 layer_factory.hpp:77] Creating layer label_data_1_split
I0110 14:43:30.021097 29226 net.cpp:106] Creating Layer label_data_1_split
I0110 14:43:30.021138 29226 net.cpp:454] label_data_1_split <- label
I0110 14:43:30.021149 29226 net.cpp:411] label_data_1_split -> label_data_1_split_0
I0110 14:43:30.021164 29226 net.cpp:411] label_data_1_split -> label_data_1_split_1
I0110 14:43:30.021211 29226 net.cpp:150] Setting up label_data_1_split
I0110 14:43:30.021224 29226 net.cpp:157] Top shape: 4 1 376 1240 (1864960)
I0110 14:43:30.021230 29226 net.cpp:157] Top shape: 4 1 376 1240 (1864960)
I0110 14:43:30.021236 29226 net.cpp:165] Memory required for data: 89518112
I0110 14:43:30.021244 29226 layer_factory.hpp:77] Creating layer enet_initial_branch2a
I0110 14:43:30.021275 29226 net.cpp:106] Creating Layer enet_initial_branch2a
I0110 14:43:30.021282 29226 net.cpp:454] enet_initial_branch2a <- data_data_0_split_0
I0110 14:43:30.021294 29226 net.cpp:411] enet_initial_branch2a -> enet_initial_branch2a
I0110 14:43:30.171571 29226 net.cpp:150] Setting up enet_initial_branch2a
I0110 14:43:30.171610 29226 net.cpp:157] Top shape: 4 13 188 620 (6061120)
I0110 14:43:30.171619 29226 net.cpp:165] Memory required for data: 113762592
I0110 14:43:30.171650 29226 layer_factory.hpp:77] Creating layer pool_initial_branch1a
I0110 14:43:30.171670 29226 net.cpp:106] Creating Layer pool_initial_branch1a
I0110 14:43:30.171679 29226 net.cpp:454] pool_initial_branch1a <- data_data_0_split_1
I0110 14:43:30.171694 29226 net.cpp:411] pool_initial_branch1a -> pool_initial_branch1a
I0110 14:43:30.171778 29226 net.cpp:150] Setting up pool_initial_branch1a
I0110 14:43:30.171792 29226 net.cpp:157] Top shape: 4 3 188 620 (1398720)
I0110 14:43:30.171799 29226 net.cpp:165] Memory required for data: 119357472
I0110 14:43:30.171805 29226 layer_factory.hpp:77] Creating layer enet_initial
I0110 14:43:30.171819 29226 net.cpp:106] Creating Layer enet_initial
I0110 14:43:30.171826 29226 net.cpp:454] enet_initial <- enet_initial_branch2a
I0110 14:43:30.171834 29226 net.cpp:454] enet_initial <- pool_initial_branch1a
I0110 14:43:30.171844 29226 net.cpp:411] enet_initial -> enet_initial
I0110 14:43:30.171886 29226 net.cpp:150] Setting up enet_initial
I0110 14:43:30.171898 29226 net.cpp:157] Top shape: 4 16 188 620 (7459840)
I0110 14:43:30.171905 29226 net.cpp:165] Memory required for data: 149196832
I0110 14:43:30.171911 29226 layer_factory.hpp:77] Creating layer bn_initial
I0110 14:43:30.171931 29226 net.cpp:106] Creating Layer bn_initial
I0110 14:43:30.171939 29226 net.cpp:454] bn_initial <- enet_initial
I0110 14:43:30.171952 29226 net.cpp:397] bn_initial -> enet_initial (in-place)
I0110 14:43:30.173352 29226 net.cpp:150] Setting up bn_initial
I0110 14:43:30.173368 29226 net.cpp:157] Top shape: 4 16 188 620 (7459840)
I0110 14:43:30.173375 29226 net.cpp:165] Memory required for data: 179036192
I0110 14:43:30.173389 29226 layer_factory.hpp:77] Creating layer relu_initial
I0110 14:43:30.173404 29226 net.cpp:106] Creating Layer relu_initial
I0110 14:43:30.173411 29226 net.cpp:454] relu_initial <- enet_initial
I0110 14:43:30.173421 29226 net.cpp:397] relu_initial -> enet_initial (in-place)
I0110 14:43:30.181951 29226 net.cpp:150] Setting up relu_initial
I0110 14:43:30.181993 29226 net.cpp:157] Top shape: 4 16 188 620 (7459840)
I0110 14:43:30.182001 29226 net.cpp:165] Memory required for data: 208875552
I0110 14:43:30.182021 29226 layer_factory.hpp:77] Creating layer enet_initial_relu_initial_0_split
I0110 14:43:30.182040 29226 net.cpp:106] Creating Layer enet_initial_relu_initial_0_split
I0110 14:43:30.182049 29226 net.cpp:454] enet_initial_relu_initial_0_split <- enet_initial
I0110 14:43:30.182066 29226 net.cpp:411] enet_initial_relu_initial_0_split -> enet_initial_relu_initial_0_split_0
I0110 14:43:30.182083 29226 net.cpp:411] enet_initial_relu_initial_0_split -> enet_initial_relu_initial_0_split_1
I0110 14:43:30.182144 29226 net.cpp:150] Setting up enet_initial_relu_initial_0_split
I0110 14:43:30.182157 29226 net.cpp:157] Top shape: 4 16 188 620 (7459840)
I0110 14:43:30.182164 29226 net.cpp:157] Top shape: 4 16 188 620 (7459840)
I0110 14:43:30.182171 29226 net.cpp:165] Memory required for data: 268554272
I0110 14:43:30.182207 29226 layer_factory.hpp:77] Creating layer enet1_0_branch2a
I0110 14:43:30.182232 29226 net.cpp:106] Creating Layer enet1_0_branch2a
I0110 14:43:30.182240 29226 net.cpp:454] enet1_0_branch2a <- enet_initial_relu_initial_0_split_0
I0110 14:43:30.182252 29226 net.cpp:411] enet1_0_branch2a -> enet1_0_branch2a
I0110 14:43:30.185678 29226 net.cpp:150] Setting up enet1_0_branch2a
I0110 14:43:30.185701 29226 net.cpp:157] Top shape: 4 16 94 310 (1864960)
I0110 14:43:30.185709 29226 net.cpp:165] Memory required for data: 276014112
I0110 14:43:30.185720 29226 layer_factory.hpp:77] Creating layer bn1_0_branch2a
I0110 14:43:30.185739 29226 net.cpp:106] Creating Layer bn1_0_branch2a
I0110 14:43:30.185747 29226 net.cpp:454] bn1_0_branch2a <- enet1_0_branch2a
I0110 14:43:30.185758 29226 net.cpp:397] bn1_0_branch2a -> enet1_0_branch2a (in-place)
I0110 14:43:30.187214 29226 net.cpp:150] Setting up bn1_0_branch2a
I0110 14:43:30.187233 29226 net.cpp:157] Top shape: 4 16 94 310 (1864960)
I0110 14:43:30.187240 29226 net.cpp:165] Memory required for data: 283473952
I0110 14:43:30.187252 29226 layer_factory.hpp:77] Creating layer relu1_0_branch2a
I0110 14:43:30.187264 29226 net.cpp:106] Creating Layer relu1_0_branch2a
I0110 14:43:30.187271 29226 net.cpp:454] relu1_0_branch2a <- enet1_0_branch2a
I0110 14:43:30.187284 29226 net.cpp:397] relu1_0_branch2a -> enet1_0_branch2a (in-place)
I0110 14:43:30.190016 29226 net.cpp:150] Setting up relu1_0_branch2a
I0110 14:43:30.190037 29226 net.cpp:157] Top shape: 4 16 94 310 (1864960)
I0110 14:43:30.190043 29226 net.cpp:165] Memory required for data: 290933792
I0110 14:43:30.190358 29226 layer_factory.hpp:77] Creating layer enet1_0_branch2b
I0110 14:43:30.190533 29226 net.cpp:106] Creating Layer enet1_0_branch2b
I0110 14:43:30.190543 29226 net.cpp:454] enet1_0_branch2b <- enet1_0_branch2a
I0110 14:43:30.190557 29226 net.cpp:411] enet1_0_branch2b -> enet1_0_branch2b
I0110 14:43:30.195286 29226 net.cpp:150] Setting up enet1_0_branch2b
I0110 14:43:30.195304 29226 net.cpp:157] Top shape: 4 16 94 310 (1864960)
I0110 14:43:30.195312 29226 net.cpp:165] Memory required for data: 298393632
I0110 14:43:30.195327 29226 layer_factory.hpp:77] Creating layer bn1_0_branch2b
I0110 14:43:30.195344 29226 net.cpp:106] Creating Layer bn1_0_branch2b
I0110 14:43:30.195353 29226 net.cpp:454] bn1_0_branch2b <- enet1_0_branch2b
I0110 14:43:30.195363 29226 net.cpp:397] bn1_0_branch2b -> enet1_0_branch2b (in-place)
I0110 14:43:30.195667 29226 net.cpp:150] Setting up bn1_0_branch2b
I0110 14:43:30.195683 29226 net.cpp:157] Top shape: 4 16 94 310 (1864960)
I0110 14:43:30.195689 29226 net.cpp:165] Memory required for data: 305853472
I0110 14:43:30.195699 29226 layer_factory.hpp:77] Creating layer relu1_0_branch2b
I0110 14:43:30.195710 29226 net.cpp:106] Creating Layer relu1_0_branch2b
I0110 14:43:30.195718 29226 net.cpp:454] relu1_0_branch2b <- enet1_0_branch2b
I0110 14:43:30.195729 29226 net.cpp:397] relu1_0_branch2b -> enet1_0_branch2b (in-place)
I0110 14:43:30.198037 29226 net.cpp:150] Setting up relu1_0_branch2b
I0110 14:43:30.198055 29226 net.cpp:157] Top shape: 4 16 94 310 (1864960)
I0110 14:43:30.198061 29226 net.cpp:165] Memory required for data: 313313312
I0110 14:43:30.198071 29226 layer_factory.hpp:77] Creating layer enet1_0_branch2c
I0110 14:43:30.198093 29226 net.cpp:106] Creating Layer enet1_0_branch2c
I0110 14:43:30.198102 29226 net.cpp:454] enet1_0_branch2c <- enet1_0_branch2b
I0110 14:43:30.198114 29226 net.cpp:411] enet1_0_branch2c -> enet1_0_branch2c
I0110 14:43:30.201649 29226 net.cpp:150] Setting up enet1_0_branch2c
I0110 14:43:30.201671 29226 net.cpp:157] Top shape: 4 64 94 310 (7459840)
I0110 14:43:30.201679 29226 net.cpp:165] Memory required for data: 343152672
I0110 14:43:30.201689 29226 layer_factory.hpp:77] Creating layer bn1_0_branch2c
I0110 14:43:30.201706 29226 net.cpp:106] Creating Layer bn1_0_branch2c
I0110 14:43:30.201714 29226 net.cpp:454] bn1_0_branch2c <- enet1_0_branch2c
I0110 14:43:30.201725 29226 net.cpp:397] bn1_0_branch2c -> enet1_0_branch2c (in-place)
I0110 14:43:30.202052 29226 net.cpp:150] Setting up bn1_0_branch2c
I0110 14:43:30.202080 29226 net.cpp:157] Top shape: 4 64 94 310 (7459840)
I0110 14:43:30.202086 29226 net.cpp:165] Memory required for data: 372992032
I0110 14:43:30.202105 29226 layer_factory.hpp:77] Creating layer dropout1_0_branch2c
I0110 14:43:30.202123 29226 net.cpp:106] Creating Layer dropout1_0_branch2c
I0110 14:43:30.202131 29226 net.cpp:454] dropout1_0_branch2c <- enet1_0_branch2c
I0110 14:43:30.202141 29226 net.cpp:397] dropout1_0_branch2c -> enet1_0_branch2c (in-place)
I0110 14:43:30.202193 29226 net.cpp:150] Setting up dropout1_0_branch2c
I0110 14:43:30.202206 29226 net.cpp:157] Top shape: 4 64 94 310 (7459840)
I0110 14:43:30.202213 29226 net.cpp:165] Memory required for data: 402831392
I0110 14:43:30.202219 29226 layer_factory.hpp:77] Creating layer enet1_0_branch1a
I0110 14:43:30.202235 29226 net.cpp:106] Creating Layer enet1_0_branch1a
I0110 14:43:30.202244 29226 net.cpp:454] enet1_0_branch1a <- enet_initial_relu_initial_0_split_1
I0110 14:43:30.202256 29226 net.cpp:411] enet1_0_branch1a -> enet1_0_branch1a
I0110 14:43:30.205638 29226 net.cpp:150] Setting up enet1_0_branch1a
I0110 14:43:30.205657 29226 net.cpp:157] Top shape: 4 64 188 620 (29839360)
I0110 14:43:30.205663 29226 net.cpp:165] Memory required for data: 522188832
I0110 14:43:30.205673 29226 layer_factory.hpp:77] Creating layer bn1_0_branch1a
I0110 14:43:30.205688 29226 net.cpp:106] Creating Layer bn1_0_branch1a
I0110 14:43:30.205696 29226 net.cpp:454] bn1_0_branch1a <- enet1_0_branch1a
I0110 14:43:30.205709 29226 net.cpp:397] bn1_0_branch1a -> enet1_0_branch1a (in-place)
I0110 14:43:30.207195 29226 net.cpp:150] Setting up bn1_0_branch1a
I0110 14:43:30.207212 29226 net.cpp:157] Top shape: 4 64 188 620 (29839360)
I0110 14:43:30.207219 29226 net.cpp:165] Memory required for data: 641546272
I0110 14:43:30.207231 29226 layer_factory.hpp:77] Creating layer pool1_0_branch1a
I0110 14:43:30.207238 29226 layer_factory.cpp:91] cuDNN does not support multiple tops. Using Caffe's own pooling layer.
I0110 14:43:30.207248 29226 net.cpp:106] Creating Layer pool1_0_branch1a
I0110 14:43:30.207255 29226 net.cpp:454] pool1_0_branch1a <- enet1_0_branch1a
I0110 14:43:30.207268 29226 net.cpp:411] pool1_0_branch1a -> pool1_0_branch1a
I0110 14:43:30.207284 29226 net.cpp:411] pool1_0_branch1a -> pool1_0_branch1a_mask
I0110 14:43:30.207342 29226 net.cpp:150] Setting up pool1_0_branch1a
I0110 14:43:30.207355 29226 net.cpp:157] Top shape: 4 64 94 310 (7459840)
I0110 14:43:30.207365 29226 net.cpp:157] Top shape: 4 64 94 310 (7459840)
I0110 14:43:30.207370 29226 net.cpp:165] Memory required for data: 701224992
I0110 14:43:30.207376 29226 layer_factory.hpp:77] Creating layer enet1_0
I0110 14:43:30.207389 29226 net.cpp:106] Creating Layer enet1_0
I0110 14:43:30.207396 29226 net.cpp:454] enet1_0 <- pool1_0_branch1a
I0110 14:43:30.207404 29226 net.cpp:454] enet1_0 <- enet1_0_branch2c
I0110 14:43:30.207417 29226 net.cpp:411] enet1_0 -> enet1_0
I0110 14:43:30.207458 29226 net.cpp:150] Setting up enet1_0
I0110 14:43:30.207469 29226 net.cpp:157] Top shape: 4 64 94 310 (7459840)
I0110 14:43:30.207476 29226 net.cpp:165] Memory required for data: 731064352
I0110 14:43:30.207482 29226 layer_factory.hpp:77] Creating layer relu1_0
I0110 14:43:30.207497 29226 net.cpp:106] Creating Layer relu1_0
I0110 14:43:30.207504 29226 net.cpp:454] relu1_0 <- enet1_0
I0110 14:43:30.207516 29226 net.cpp:397] relu1_0 -> enet1_0 (in-place)
I0110 14:43:30.215999 29226 net.cpp:150] Setting up relu1_0
I0110 14:43:30.216042 29226 net.cpp:157] Top shape: 4 64 94 310 (7459840)
I0110 14:43:30.216048 29226 net.cpp:165] Memory required for data: 760903712
I0110 14:43:30.216063 29226 layer_factory.hpp:77] Creating layer enet1_0_relu1_0_0_split
I0110 14:43:30.216081 29226 net.cpp:106] Creating Layer enet1_0_relu1_0_0_split
I0110 14:43:30.216089 29226 net.cpp:454] enet1_0_relu1_0_0_split <- enet1_0
I0110 14:43:30.216109 29226 net.cpp:411] enet1_0_relu1_0_0_split -> enet1_0_relu1_0_0_split_0
I0110 14:43:30.216125 29226 net.cpp:411] enet1_0_relu1_0_0_split -> enet1_0_relu1_0_0_split_1
I0110 14:43:30.216219 29226 net.cpp:150] Setting up enet1_0_relu1_0_0_split
I0110 14:43:30.216233 29226 net.cpp:157] Top shape: 4 64 94 310 (7459840)
I0110 14:43:30.216240 29226 net.cpp:157] Top shape: 4 64 94 310 (7459840)
I0110 14:43:30.216246 29226 net.cpp:165] Memory required for data: 820582432
I0110 14:43:30.216253 29226 layer_factory.hpp:77] Creating layer enet1_1_branch2a
I0110 14:43:30.216274 29226 net.cpp:106] Creating Layer enet1_1_branch2a
I0110 14:43:30.216282 29226 net.cpp:454] enet1_1_branch2a <- enet1_0_relu1_0_0_split_0
I0110 14:43:30.216294 29226 net.cpp:411] enet1_1_branch2a -> enet1_1_branch2a
I0110 14:43:30.221194 29226 net.cpp:150] Setting up enet1_1_branch2a
I0110 14:43:30.221225 29226 net.cpp:157] Top shape: 4 16 94 310 (1864960)
I0110 14:43:30.221232 29226 net.cpp:165] Memory required for data: 828042272
I0110 14:43:30.221243 29226 layer_factory.hpp:77] Creating layer bn1_1_branch2a
I0110 14:43:30.221262 29226 net.cpp:106] Creating Layer bn1_1_branch2a
I0110 14:43:30.221271 29226 net.cpp:454] bn1_1_branch2a <- enet1_1_branch2a
I0110 14:43:30.221287 29226 net.cpp:397] bn1_1_branch2a -> enet1_1_branch2a (in-place)
I0110 14:43:30.222674 29226 net.cpp:150] Setting up bn1_1_branch2a
I0110 14:43:30.222692 29226 net.cpp:157] Top shape: 4 16 94 310 (1864960)
I0110 14:43:30.222699 29226 net.cpp:165] Memory required for data: 835502112
I0110 14:43:30.222710 29226 layer_factory.hpp:77] Creating layer relu1_1_branch2a
I0110 14:43:30.222723 29226 net.cpp:106] Creating Layer relu1_1_branch2a
I0110 14:43:30.222729 29226 net.cpp:454] relu1_1_branch2a <- enet1_1_branch2a
I0110 14:43:30.222743 29226 net.cpp:397] relu1_1_branch2a -> enet1_1_branch2a (in-place)
I0110 14:43:30.226085 29226 net.cpp:150] Setting up relu1_1_branch2a
I0110 14:43:30.226106 29226 net.cpp:157] Top shape: 4 16 94 310 (1864960)
I0110 14:43:30.226114 29226 net.cpp:165] Memory required for data: 842961952
I0110 14:43:30.226124 29226 layer_factory.hpp:77] Creating layer enet1_1_branch2b
I0110 14:43:30.226145 29226 net.cpp:106] Creating Layer enet1_1_branch2b
I0110 14:43:30.226153 29226 net.cpp:454] enet1_1_branch2b <- enet1_1_branch2a
I0110 14:43:30.226166 29226 net.cpp:411] enet1_1_branch2b -> enet1_1_branch2b
I0110 14:43:30.229753 29226 net.cpp:150] Setting up enet1_1_branch2b
I0110 14:43:30.229771 29226 net.cpp:157] Top shape: 4 16 94 310 (1864960)
I0110 14:43:30.229779 29226 net.cpp:165] Memory required for data: 850421792
I0110 14:43:30.229790 29226 layer_factory.hpp:77] Creating layer bn1_1_branch2b
I0110 14:43:30.229806 29226 net.cpp:106] Creating Layer bn1_1_branch2b
I0110 14:43:30.229815 29226 net.cpp:454] bn1_1_branch2b <- enet1_1_branch2b
I0110 14:43:30.229827 29226 net.cpp:397] bn1_1_branch2b -> enet1_1_branch2b (in-place)
I0110 14:43:30.230164 29226 net.cpp:150] Setting up bn1_1_branch2b
I0110 14:43:30.230178 29226 net.cpp:157] Top shape: 4 16 94 310 (1864960)
I0110 14:43:30.230185 29226 net.cpp:165] Memory required for data: 857881632
I0110 14:43:30.230195 29226 layer_factory.hpp:77] Creating layer relu1_1_branch2b
I0110 14:43:30.230206 29226 net.cpp:106] Creating Layer relu1_1_branch2b
I0110 14:43:30.230212 29226 net.cpp:454] relu1_1_branch2b <- enet1_1_branch2b
I0110 14:43:30.230221 29226 net.cpp:397] relu1_1_branch2b -> enet1_1_branch2b (in-place)
I0110 14:43:30.232482 29226 net.cpp:150] Setting up relu1_1_branch2b
I0110 14:43:30.232499 29226 net.cpp:157] Top shape: 4 16 94 310 (1864960)
I0110 14:43:30.232506 29226 net.cpp:165] Memory required for data: 865341472
I0110 14:43:30.232517 29226 layer_factory.hpp:77] Creating layer enet1_1_branch2c
I0110 14:43:30.232532 29226 net.cpp:106] Creating Layer enet1_1_branch2c
I0110 14:43:30.232540 29226 net.cpp:454] enet1_1_branch2c <- enet1_1_branch2b
I0110 14:43:30.232554 29226 net.cpp:411] enet1_1_branch2c -> enet1_1_branch2c
I0110 14:43:30.236254 29226 net.cpp:150] Setting up enet1_1_branch2c
I0110 14:43:30.236273 29226 net.cpp:157] Top shape: 4 64 94 310 (7459840)
I0110 14:43:30.236280 29226 net.cpp:165] Memory required for data: 895180832
I0110 14:43:30.236310 29226 layer_factory.hpp:77] Creating layer bn1_1_branch2c
I0110 14:43:30.236340 29226 net.cpp:106] Creating Layer bn1_1_branch2c
I0110 14:43:30.236349 29226 net.cpp:454] bn1_1_branch2c <- enet1_1_branch2c
I0110 14:43:30.236359 29226 net.cpp:397] bn1_1_branch2c -> enet1_1_branch2c (in-place)
I0110 14:43:30.236692 29226 net.cpp:150] Setting up bn1_1_branch2c
I0110 14:43:30.236708 29226 net.cpp:157] Top shape: 4 64 94 310 (7459840)
I0110 14:43:30.236714 29226 net.cpp:165] Memory required for data: 925020192
I0110 14:43:30.236734 29226 layer_factory.hpp:77] Creating layer dropout1_1_branch2c
I0110 14:43:30.236753 29226 net.cpp:106] Creating Layer dropout1_1_branch2c
I0110 14:43:30.236760 29226 net.cpp:454] dropout1_1_branch2c <- enet1_1_branch2c
I0110 14:43:30.236770 29226 net.cpp:397] dropout1_1_branch2c -> enet1_1_branch2c (in-place)
I0110 14:43:30.236809 29226 net.cpp:150] Setting up dropout1_1_branch2c
I0110 14:43:30.236821 29226 net.cpp:157] Top shape: 4 64 94 310 (7459840)
I0110 14:43:30.236827 29226 net.cpp:165] Memory required for data: 954859552
I0110 14:43:30.236835 29226 layer_factory.hpp:77] Creating layer enet1_1
I0110 14:43:30.236850 29226 net.cpp:106] Creating Layer enet1_1
I0110 14:43:30.236857 29226 net.cpp:454] enet1_1 <- enet1_0_relu1_0_0_split_1
I0110 14:43:30.236865 29226 net.cpp:454] enet1_1 <- enet1_1_branch2c
I0110 14:43:30.236874 29226 net.cpp:411] enet1_1 -> enet1_1
I0110 14:43:30.236914 29226 net.cpp:150] Setting up enet1_1
I0110 14:43:30.236927 29226 net.cpp:157] Top shape: 4 64 94 310 (7459840)
I0110 14:43:30.236932 29226 net.cpp:165] Memory required for data: 984698912
I0110 14:43:30.236939 29226 layer_factory.hpp:77] Creating layer relu1_1
I0110 14:43:30.236951 29226 net.cpp:106] Creating Layer relu1_1
I0110 14:43:30.236958 29226 net.cpp:454] relu1_1 <- enet1_1
I0110 14:43:30.236968 29226 net.cpp:397] relu1_1 -> enet1_1 (in-place)
I0110 14:43:30.245157 29226 net.cpp:150] Setting up relu1_1
I0110 14:43:30.245187 29226 net.cpp:157] Top shape: 4 64 94 310 (7459840)
I0110 14:43:30.245194 29226 net.cpp:165] Memory required for data: 1014538272
I0110 14:43:30.245205 29226 layer_factory.hpp:77] Creating layer enet1_1_relu1_1_0_split
I0110 14:43:30.245219 29226 net.cpp:106] Creating Layer enet1_1_relu1_1_0_split
I0110 14:43:30.245226 29226 net.cpp:454] enet1_1_relu1_1_0_split <- enet1_1
I0110 14:43:30.245241 29226 net.cpp:411] enet1_1_relu1_1_0_split -> enet1_1_relu1_1_0_split_0
I0110 14:43:30.245255 29226 net.cpp:411] enet1_1_relu1_1_0_split -> enet1_1_relu1_1_0_split_1
I0110 14:43:30.245316 29226 net.cpp:150] Setting up enet1_1_relu1_1_0_split
I0110 14:43:30.245329 29226 net.cpp:157] Top shape: 4 64 94 310 (7459840)
I0110 14:43:30.245337 29226 net.cpp:157] Top shape: 4 64 94 310 (7459840)
I0110 14:43:30.245343 29226 net.cpp:165] Memory required for data: 1074216992
I0110 14:43:30.245349 29226 layer_factory.hpp:77] Creating layer enet1_2_branch2a
I0110 14:43:30.245368 29226 net.cpp:106] Creating Layer enet1_2_branch2a
I0110 14:43:30.245376 29226 net.cpp:454] enet1_2_branch2a <- enet1_1_relu1_1_0_split_0
I0110 14:43:30.245388 29226 net.cpp:411] enet1_2_branch2a -> enet1_2_branch2a
I0110 14:43:30.249166 29226 net.cpp:150] Setting up enet1_2_branch2a
I0110 14:43:30.249189 29226 net.cpp:157] Top shape: 4 16 94 310 (1864960)
I0110 14:43:30.249197 29226 net.cpp:165] Memory required for data: 1081676832
I0110 14:43:30.249207 29226 layer_factory.hpp:77] Creating layer bn1_2_branch2a
I0110 14:43:30.249231 29226 net.cpp:106] Creating Layer bn1_2_branch2a
I0110 14:43:30.249241 29226 net.cpp:454] bn1_2_branch2a <- enet1_2_branch2a
I0110 14:43:30.249253 29226 net.cpp:397] bn1_2_branch2a -> enet1_2_branch2a (in-place)
I0110 14:43:30.249625 29226 net.cpp:150] Setting up bn1_2_branch2a
I0110 14:43:30.249640 29226 net.cpp:157] Top shape: 4 16 94 310 (1864960)
I0110 14:43:30.249647 29226 net.cpp:165] Memory required for data: 1089136672
I0110 14:43:30.249657 29226 layer_factory.hpp:77] Creating layer relu1_2_branch2a
I0110 14:43:30.249670 29226 net.cpp:106] Creating Layer relu1_2_branch2a
I0110 14:43:30.249693 29226 net.cpp:454] relu1_2_branch2a <- enet1_2_branch2a
I0110 14:43:30.249716 29226 net.cpp:397] relu1_2_branch2a -> enet1_2_branch2a (in-place)
I0110 14:43:30.252179 29226 net.cpp:150] Setting up relu1_2_branch2a
I0110 14:43:30.252202 29226 net.cpp:157] Top shape: 4 16 94 310 (1864960)
I0110 14:43:30.252209 29226 net.cpp:165] Memory required for data: 1096596512
I0110 14:43:30.252219 29226 layer_factory.hpp:77] Creating layer enet1_2_branch2b
I0110 14:43:30.252239 29226 net.cpp:106] Creating Layer enet1_2_branch2b
I0110 14:43:30.252248 29226 net.cpp:454] enet1_2_branch2b <- enet1_2_branch2a
I0110 14:43:30.252265 29226 net.cpp:411] enet1_2_branch2b -> enet1_2_branch2b
I0110 14:43:30.257860 29226 net.cpp:150] Setting up enet1_2_branch2b
I0110 14:43:30.257889 29226 net.cpp:157] Top shape: 4 16 94 310 (1864960)
I0110 14:43:30.257896 29226 net.cpp:165] Memory required for data: 1104056352
I0110 14:43:30.257910 29226 layer_factory.hpp:77] Creating layer bn1_2_branch2b
I0110 14:43:30.257925 29226 net.cpp:106] Creating Layer bn1_2_branch2b
I0110 14:43:30.257935 29226 net.cpp:454] bn1_2_branch2b <- enet1_2_branch2b
I0110 14:43:30.257948 29226 net.cpp:397] bn1_2_branch2b -> enet1_2_branch2b (in-place)
I0110 14:43:30.258297 29226 net.cpp:150] Setting up bn1_2_branch2b
I0110 14:43:30.258312 29226 net.cpp:157] Top shape: 4 16 94 310 (1864960)
I0110 14:43:30.258319 29226 net.cpp:165] Memory required for data: 1111516192
I0110 14:43:30.258329 29226 layer_factory.hpp:77] Creating layer relu1_2_branch2b
I0110 14:43:30.258344 29226 net.cpp:106] Creating Layer relu1_2_branch2b
I0110 14:43:30.258352 29226 net.cpp:454] relu1_2_branch2b <- enet1_2_branch2b
I0110 14:43:30.258360 29226 net.cpp:397] relu1_2_branch2b -> enet1_2_branch2b (in-place)
I0110 14:43:30.260627 29226 net.cpp:150] Setting up relu1_2_branch2b
I0110 14:43:30.260644 29226 net.cpp:157] Top shape: 4 16 94 310 (1864960)
I0110 14:43:30.260651 29226 net.cpp:165] Memory required for data: 1118976032
I0110 14:43:30.260661 29226 layer_factory.hpp:77] Creating layer enet1_2_branch2c
I0110 14:43:30.260679 29226 net.cpp:106] Creating Layer enet1_2_branch2c
I0110 14:43:30.260686 29226 net.cpp:454] enet1_2_branch2c <- enet1_2_branch2b
I0110 14:43:30.260700 29226 net.cpp:411] enet1_2_branch2c -> enet1_2_branch2c
I0110 14:43:30.264719 29226 net.cpp:150] Setting up enet1_2_branch2c
I0110 14:43:30.264736 29226 net.cpp:157] Top shape: 4 64 94 310 (7459840)
I0110 14:43:30.264744 29226 net.cpp:165] Memory required for data: 1148815392
I0110 14:43:30.264753 29226 layer_factory.hpp:77] Creating layer bn1_2_branch2c
I0110 14:43:30.264768 29226 net.cpp:106] Creating Layer bn1_2_branch2c
I0110 14:43:30.264776 29226 net.cpp:454] bn1_2_branch2c <- enet1_2_branch2c
I0110 14:43:30.264787 29226 net.cpp:397] bn1_2_branch2c -> enet1_2_branch2c (in-place)
I0110 14:43:30.265130 29226 net.cpp:150] Setting up bn1_2_branch2c
I0110 14:43:30.265146 29226 net.cpp:157] Top shape: 4 64 94 310 (7459840)
I0110 14:43:30.265152 29226 net.cpp:165] Memory required for data: 1178654752
I0110 14:43:30.265162 29226 layer_factory.hpp:77] Creating layer dropout1_2_branch2c
I0110 14:43:30.265173 29226 net.cpp:106] Creating Layer dropout1_2_branch2c
I0110 14:43:30.265182 29226 net.cpp:454] dropout1_2_branch2c <- enet1_2_branch2c
I0110 14:43:30.265193 29226 net.cpp:397] dropout1_2_branch2c -> enet1_2_branch2c (in-place)
I0110 14:43:30.265234 29226 net.cpp:150] Setting up dropout1_2_branch2c
I0110 14:43:30.265249 29226 net.cpp:157] Top shape: 4 64 94 310 (7459840)
I0110 14:43:30.265256 29226 net.cpp:165] Memory required for data: 1208494112
I0110 14:43:30.265262 29226 layer_factory.hpp:77] Creating layer enet1_2
I0110 14:43:30.265272 29226 net.cpp:106] Creating Layer enet1_2
I0110 14:43:30.265280 29226 net.cpp:454] enet1_2 <- enet1_1_relu1_1_0_split_1
I0110 14:43:30.265288 29226 net.cpp:454] enet1_2 <- enet1_2_branch2c
I0110 14:43:30.265297 29226 net.cpp:411] enet1_2 -> enet1_2
I0110 14:43:30.265339 29226 net.cpp:150] Setting up enet1_2
I0110 14:43:30.265352 29226 net.cpp:157] Top shape: 4 64 94 310 (7459840)
I0110 14:43:30.265372 29226 net.cpp:165] Memory required for data: 1238333472
I0110 14:43:30.265391 29226 layer_factory.hpp:77] Creating layer relu1_2
I0110 14:43:30.265405 29226 net.cpp:106] Creating Layer relu1_2
I0110 14:43:30.265413 29226 net.cpp:454] relu1_2 <- enet1_2
I0110 14:43:30.265421 29226 net.cpp:397] relu1_2 -> enet1_2 (in-place)
I0110 14:43:30.311144 29226 net.cpp:150] Setting up relu1_2
I0110 14:43:30.311187 29226 net.cpp:157] Top shape: 4 64 94 310 (7459840)
I0110 14:43:30.311195 29226 net.cpp:165] Memory required for data: 1268172832
I0110 14:43:30.311208 29226 layer_factory.hpp:77] Creating layer enet1_2_relu1_2_0_split
I0110 14:43:30.311225 29226 net.cpp:106] Creating Layer enet1_2_relu1_2_0_split
I0110 14:43:30.311233 29226 net.cpp:454] enet1_2_relu1_2_0_split <- enet1_2
I0110 14:43:30.311251 29226 net.cpp:411] enet1_2_relu1_2_0_split -> enet1_2_relu1_2_0_split_0
I0110 14:43:30.311269 29226 net.cpp:411] enet1_2_relu1_2_0_split -> enet1_2_relu1_2_0_split_1
I0110 14:43:30.311975 29226 net.cpp:150] Setting up enet1_2_relu1_2_0_split
I0110 14:43:30.311988 29226 net.cpp:157] Top shape: 4 64 94 310 (7459840)
I0110 14:43:30.311998 29226 net.cpp:157] Top shape: 4 64 94 310 (7459840)
I0110 14:43:30.312005 29226 net.cpp:165] Memory required for data: 1327851552
I0110 14:43:30.312013 29226 layer_factory.hpp:77] Creating layer enet1_3_branch2a
I0110 14:43:30.312033 29226 net.cpp:106] Creating Layer enet1_3_branch2a
I0110 14:43:30.312041 29226 net.cpp:454] enet1_3_branch2a <- enet1_2_relu1_2_0_split_0
I0110 14:43:30.312057 29226 net.cpp:411] enet1_3_branch2a -> enet1_3_branch2a
I0110 14:43:30.315878 29226 net.cpp:150] Setting up enet1_3_branch2a
I0110 14:43:30.315897 29226 net.cpp:157] Top shape: 4 16 94 310 (1864960)
I0110 14:43:30.315906 29226 net.cpp:165] Memory required for data: 1335311392
I0110 14:43:30.315915 29226 layer_factory.hpp:77] Creating layer bn1_3_branch2a
I0110 14:43:30.315934 29226 net.cpp:106] Creating Layer bn1_3_branch2a
I0110 14:43:30.315943 29226 net.cpp:454] bn1_3_branch2a <- enet1_3_branch2a
I0110 14:43:30.315953 29226 net.cpp:397] bn1_3_branch2a -> enet1_3_branch2a (in-place)
I0110 14:43:30.316346 29226 net.cpp:150] Setting up bn1_3_branch2a
I0110 14:43:30.316362 29226 net.cpp:157] Top shape: 4 16 94 310 (1864960)
I0110 14:43:30.316368 29226 net.cpp:165] Memory required for data: 1342771232
I0110 14:43:30.316380 29226 layer_factory.hpp:77] Creating layer relu1_3_branch2a
I0110 14:43:30.316390 29226 net.cpp:106] Creating Layer relu1_3_branch2a
I0110 14:43:30.316397 29226 net.cpp:454] relu1_3_branch2a <- enet1_3_branch2a
I0110 14:43:30.316411 29226 net.cpp:397] relu1_3_branch2a -> enet1_3_branch2a (in-place)
I0110 14:43:30.318734 29226 net.cpp:150] Setting up relu1_3_branch2a
I0110 14:43:30.318752 29226 net.cpp:157] Top shape: 4 16 94 310 (1864960)
I0110 14:43:30.318758 29226 net.cpp:165] Memory required for data: 1350231072
I0110 14:43:30.318768 29226 layer_factory.hpp:77] Creating layer enet1_3_branch2b
I0110 14:43:30.318786 29226 net.cpp:106] Creating Layer enet1_3_branch2b
I0110 14:43:30.318795 29226 net.cpp:454] enet1_3_branch2b <- enet1_3_branch2a
I0110 14:43:30.318806 29226 net.cpp:411] enet1_3_branch2b -> enet1_3_branch2b
I0110 14:43:30.322643 29226 net.cpp:150] Setting up enet1_3_branch2b
I0110 14:43:30.322662 29226 net.cpp:157] Top shape: 4 16 94 310 (1864960)
I0110 14:43:30.322670 29226 net.cpp:165] Memory required for data: 1357690912
I0110 14:43:30.322681 29226 layer_factory.hpp:77] Creating layer bn1_3_branch2b
I0110 14:43:30.322698 29226 net.cpp:106] Creating Layer bn1_3_branch2b
I0110 14:43:30.322706 29226 net.cpp:454] bn1_3_branch2b <- enet1_3_branch2b
I0110 14:43:30.322717 29226 net.cpp:397] bn1_3_branch2b -> enet1_3_branch2b (in-place)
I0110 14:43:30.324139 29226 net.cpp:150] Setting up bn1_3_branch2b
I0110 14:43:30.324157 29226 net.cpp:157] Top shape: 4 16 94 310 (1864960)
I0110 14:43:30.324164 29226 net.cpp:165] Memory required for data: 1365150752
I0110 14:43:30.324175 29226 layer_factory.hpp:77] Creating layer relu1_3_branch2b
I0110 14:43:30.324188 29226 net.cpp:106] Creating Layer relu1_3_branch2b
I0110 14:43:30.324223 29226 net.cpp:454] relu1_3_branch2b <- enet1_3_branch2b
I0110 14:43:30.324234 29226 net.cpp:397] relu1_3_branch2b -> enet1_3_branch2b (in-place)
I0110 14:43:30.326632 29226 net.cpp:150] Setting up relu1_3_branch2b
I0110 14:43:30.326648 29226 net.cpp:157] Top shape: 4 16 94 310 (1864960)
I0110 14:43:30.326655 29226 net.cpp:165] Memory required for data: 1372610592
I0110 14:43:30.326664 29226 layer_factory.hpp:77] Creating layer enet1_3_branch2c
I0110 14:43:30.326681 29226 net.cpp:106] Creating Layer enet1_3_branch2c
I0110 14:43:30.326689 29226 net.cpp:454] enet1_3_branch2c <- enet1_3_branch2b
I0110 14:43:30.326704 29226 net.cpp:411] enet1_3_branch2c -> enet1_3_branch2c
I0110 14:43:30.330500 29226 net.cpp:150] Setting up enet1_3_branch2c
I0110 14:43:30.330520 29226 net.cpp:157] Top shape: 4 64 94 310 (7459840)
I0110 14:43:30.330528 29226 net.cpp:165] Memory required for data: 1402449952
I0110 14:43:30.330538 29226 layer_factory.hpp:77] Creating layer bn1_3_branch2c
I0110 14:43:30.330554 29226 net.cpp:106] Creating Layer bn1_3_branch2c
I0110 14:43:30.330561 29226 net.cpp:454] bn1_3_branch2c <- enet1_3_branch2c
I0110 14:43:30.330574 29226 net.cpp:397] bn1_3_branch2c -> enet1_3_branch2c (in-place)
I0110 14:43:30.330955 29226 net.cpp:150] Setting up bn1_3_branch2c
I0110 14:43:30.330971 29226 net.cpp:157] Top shape: 4 64 94 310 (7459840)
I0110 14:43:30.330976 29226 net.cpp:165] Memory required for data: 1432289312
I0110 14:43:30.330987 29226 layer_factory.hpp:77] Creating layer dropout1_3_branch2c
I0110 14:43:30.331001 29226 net.cpp:106] Creating Layer dropout1_3_branch2c
I0110 14:43:30.331008 29226 net.cpp:454] dropout1_3_branch2c <- enet1_3_branch2c
I0110 14:43:30.331018 29226 net.cpp:397] dropout1_3_branch2c -> enet1_3_branch2c (in-place)
I0110 14:43:30.331061 29226 net.cpp:150] Setting up dropout1_3_branch2c
I0110 14:43:30.331073 29226 net.cpp:157] Top shape: 4 64 94 310 (7459840)
I0110 14:43:30.331079 29226 net.cpp:165] Memory required for data: 1462128672
I0110 14:43:30.331086 29226 layer_factory.hpp:77] Creating layer enet1_3
I0110 14:43:30.331101 29226 net.cpp:106] Creating Layer enet1_3
I0110 14:43:30.331110 29226 net.cpp:454] enet1_3 <- enet1_2_relu1_2_0_split_1
I0110 14:43:30.331118 29226 net.cpp:454] enet1_3 <- enet1_3_branch2c
I0110 14:43:30.331131 29226 net.cpp:411] enet1_3 -> enet1_3
I0110 14:43:30.331177 29226 net.cpp:150] Setting up enet1_3
I0110 14:43:30.331190 29226 net.cpp:157] Top shape: 4 64 94 310 (7459840)
I0110 14:43:30.331197 29226 net.cpp:165] Memory required for data: 1491968032
I0110 14:43:30.331203 29226 layer_factory.hpp:77] Creating layer relu1_3
I0110 14:43:30.331212 29226 net.cpp:106] Creating Layer relu1_3
I0110 14:43:30.331218 29226 net.cpp:454] relu1_3 <- enet1_3
I0110 14:43:30.331228 29226 net.cpp:397] relu1_3 -> enet1_3 (in-place)
I0110 14:43:30.340306 29226 net.cpp:150] Setting up relu1_3
I0110 14:43:30.340354 29226 net.cpp:157] Top shape: 4 64 94 310 (7459840)
I0110 14:43:30.340361 29226 net.cpp:165] Memory required for data: 1521807392
I0110 14:43:30.340375 29226 layer_factory.hpp:77] Creating layer enet1_3_relu1_3_0_split
I0110 14:43:30.340399 29226 net.cpp:106] Creating Layer enet1_3_relu1_3_0_split
I0110 14:43:30.340409 29226 net.cpp:454] enet1_3_relu1_3_0_split <- enet1_3
I0110 14:43:30.340423 29226 net.cpp:411] enet1_3_relu1_3_0_split -> enet1_3_relu1_3_0_split_0
I0110 14:43:30.340440 29226 net.cpp:411] enet1_3_relu1_3_0_split -> enet1_3_relu1_3_0_split_1
I0110 14:43:30.340515 29226 net.cpp:150] Setting up enet1_3_relu1_3_0_split
I0110 14:43:30.340528 29226 net.cpp:157] Top shape: 4 64 94 310 (7459840)
I0110 14:43:30.340538 29226 net.cpp:157] Top shape: 4 64 94 310 (7459840)
I0110 14:43:30.340543 29226 net.cpp:165] Memory required for data: 1581486112
I0110 14:43:30.340550 29226 layer_factory.hpp:77] Creating layer enet1_4_branch2a
I0110 14:43:30.340569 29226 net.cpp:106] Creating Layer enet1_4_branch2a
I0110 14:43:30.340576 29226 net.cpp:454] enet1_4_branch2a <- enet1_3_relu1_3_0_split_0
I0110 14:43:30.340590 29226 net.cpp:411] enet1_4_branch2a -> enet1_4_branch2a
I0110 14:43:30.345283 29226 net.cpp:150] Setting up enet1_4_branch2a
I0110 14:43:30.345301 29226 net.cpp:157] Top shape: 4 16 94 310 (1864960)
I0110 14:43:30.345309 29226 net.cpp:165] Memory required for data: 1588945952
I0110 14:43:30.345319 29226 layer_factory.hpp:77] Creating layer bn1_4_branch2a
I0110 14:43:30.345336 29226 net.cpp:106] Creating Layer bn1_4_branch2a
I0110 14:43:30.345345 29226 net.cpp:454] bn1_4_branch2a <- enet1_4_branch2a
I0110 14:43:30.345355 29226 net.cpp:397] bn1_4_branch2a -> enet1_4_branch2a (in-place)
I0110 14:43:30.345774 29226 net.cpp:150] Setting up bn1_4_branch2a
I0110 14:43:30.345788 29226 net.cpp:157] Top shape: 4 16 94 310 (1864960)
I0110 14:43:30.345795 29226 net.cpp:165] Memory required for data: 1596405792
I0110 14:43:30.345805 29226 layer_factory.hpp:77] Creating layer relu1_4_branch2a
I0110 14:43:30.345816 29226 net.cpp:106] Creating Layer relu1_4_branch2a
I0110 14:43:30.345824 29226 net.cpp:454] relu1_4_branch2a <- enet1_4_branch2a
I0110 14:43:30.345836 29226 net.cpp:397] relu1_4_branch2a -> enet1_4_branch2a (in-place)
I0110 14:43:30.348245 29226 net.cpp:150] Setting up relu1_4_branch2a
I0110 14:43:30.348263 29226 net.cpp:157] Top shape: 4 16 94 310 (1864960)
I0110 14:43:30.348270 29226 net.cpp:165] Memory required for data: 1603865632
I0110 14:43:30.348280 29226 layer_factory.hpp:77] Creating layer enet1_4_branch2b
I0110 14:43:30.348296 29226 net.cpp:106] Creating Layer enet1_4_branch2b
I0110 14:43:30.348304 29226 net.cpp:454] enet1_4_branch2b <- enet1_4_branch2a
I0110 14:43:30.348318 29226 net.cpp:411] enet1_4_branch2b -> enet1_4_branch2b
I0110 14:43:30.352257 29226 net.cpp:150] Setting up enet1_4_branch2b
I0110 14:43:30.352275 29226 net.cpp:157] Top shape: 4 16 94 310 (1864960)
I0110 14:43:30.352283 29226 net.cpp:165] Memory required for data: 1611325472
I0110 14:43:30.352315 29226 layer_factory.hpp:77] Creating layer bn1_4_branch2b
I0110 14:43:30.352340 29226 net.cpp:106] Creating Layer bn1_4_branch2b
I0110 14:43:30.352349 29226 net.cpp:454] bn1_4_branch2b <- enet1_4_branch2b
I0110 14:43:30.352363 29226 net.cpp:397] bn1_4_branch2b -> enet1_4_branch2b (in-place)
I0110 14:43:30.353904 29226 net.cpp:150] Setting up bn1_4_branch2b
I0110 14:43:30.353921 29226 net.cpp:157] Top shape: 4 16 94 310 (1864960)
I0110 14:43:30.353929 29226 net.cpp:165] Memory required for data: 1618785312
I0110 14:43:30.353940 29226 layer_factory.hpp:77] Creating layer relu1_4_branch2b
I0110 14:43:30.353951 29226 net.cpp:106] Creating Layer relu1_4_branch2b
I0110 14:43:30.353958 29226 net.cpp:454] relu1_4_branch2b <- enet1_4_branch2b
I0110 14:43:30.353967 29226 net.cpp:397] relu1_4_branch2b -> enet1_4_branch2b (in-place)
I0110 14:43:30.356364 29226 net.cpp:150] Setting up relu1_4_branch2b
I0110 14:43:30.356381 29226 net.cpp:157] Top shape: 4 16 94 310 (1864960)
I0110 14:43:30.356389 29226 net.cpp:165] Memory required for data: 1626245152
I0110 14:43:30.356397 29226 layer_factory.hpp:77] Creating layer enet1_4_branch2c
I0110 14:43:30.356415 29226 net.cpp:106] Creating Layer enet1_4_branch2c
I0110 14:43:30.356423 29226 net.cpp:454] enet1_4_branch2c <- enet1_4_branch2b
I0110 14:43:30.356437 29226 net.cpp:411] enet1_4_branch2c -> enet1_4_branch2c
I0110 14:43:30.360023 29226 net.cpp:150] Setting up enet1_4_branch2c
I0110 14:43:30.360046 29226 net.cpp:157] Top shape: 4 64 94 310 (7459840)
I0110 14:43:30.360054 29226 net.cpp:165] Memory required for data: 1656084512
I0110 14:43:30.360064 29226 layer_factory.hpp:77] Creating layer bn1_4_branch2c
I0110 14:43:30.360076 29226 net.cpp:106] Creating Layer bn1_4_branch2c
I0110 14:43:30.360085 29226 net.cpp:454] bn1_4_branch2c <- enet1_4_branch2c
I0110 14:43:30.360102 29226 net.cpp:397] bn1_4_branch2c -> enet1_4_branch2c (in-place)
I0110 14:43:30.360510 29226 net.cpp:150] Setting up bn1_4_branch2c
I0110 14:43:30.360525 29226 net.cpp:157] Top shape: 4 64 94 310 (7459840)
I0110 14:43:30.360532 29226 net.cpp:165] Memory required for data: 1685923872
I0110 14:43:30.360543 29226 layer_factory.hpp:77] Creating layer dropout1_4_branch2c
I0110 14:43:30.360570 29226 net.cpp:106] Creating Layer dropout1_4_branch2c
I0110 14:43:30.360591 29226 net.cpp:454] dropout1_4_branch2c <- enet1_4_branch2c
I0110 14:43:30.360602 29226 net.cpp:397] dropout1_4_branch2c -> enet1_4_branch2c (in-place)
I0110 14:43:30.360648 29226 net.cpp:150] Setting up dropout1_4_branch2c
I0110 14:43:30.360661 29226 net.cpp:157] Top shape: 4 64 94 310 (7459840)
I0110 14:43:30.360668 29226 net.cpp:165] Memory required for data: 1715763232
I0110 14:43:30.360674 29226 layer_factory.hpp:77] Creating layer enet1_4
I0110 14:43:30.360687 29226 net.cpp:106] Creating Layer enet1_4
I0110 14:43:30.360695 29226 net.cpp:454] enet1_4 <- enet1_3_relu1_3_0_split_1
I0110 14:43:30.360704 29226 net.cpp:454] enet1_4 <- enet1_4_branch2c
I0110 14:43:30.360713 29226 net.cpp:411] enet1_4 -> enet1_4
I0110 14:43:30.360760 29226 net.cpp:150] Setting up enet1_4
I0110 14:43:30.360774 29226 net.cpp:157] Top shape: 4 64 94 310 (7459840)
I0110 14:43:30.360780 29226 net.cpp:165] Memory required for data: 1745602592
I0110 14:43:30.360786 29226 layer_factory.hpp:77] Creating layer relu1_4
I0110 14:43:30.360795 29226 net.cpp:106] Creating Layer relu1_4
I0110 14:43:30.360802 29226 net.cpp:454] relu1_4 <- enet1_4
I0110 14:43:30.360815 29226 net.cpp:397] relu1_4 -> enet1_4 (in-place)
I0110 14:43:30.369879 29226 net.cpp:150] Setting up relu1_4
I0110 14:43:30.369930 29226 net.cpp:157] Top shape: 4 64 94 310 (7459840)
I0110 14:43:30.369937 29226 net.cpp:165] Memory required for data: 1775441952
I0110 14:43:30.369951 29226 layer_factory.hpp:77] Creating layer enet1_4_relu1_4_0_split
I0110 14:43:30.369971 29226 net.cpp:106] Creating Layer enet1_4_relu1_4_0_split
I0110 14:43:30.369981 29226 net.cpp:454] enet1_4_relu1_4_0_split <- enet1_4
I0110 14:43:30.369998 29226 net.cpp:411] enet1_4_relu1_4_0_split -> enet1_4_relu1_4_0_split_0
I0110 14:43:30.370015 29226 net.cpp:411] enet1_4_relu1_4_0_split -> enet1_4_relu1_4_0_split_1
I0110 14:43:30.370090 29226 net.cpp:150] Setting up enet1_4_relu1_4_0_split
I0110 14:43:30.370107 29226 net.cpp:157] Top shape: 4 64 94 310 (7459840)
I0110 14:43:30.370115 29226 net.cpp:157] Top shape: 4 64 94 310 (7459840)
I0110 14:43:30.370121 29226 net.cpp:165] Memory required for data: 1835120672
I0110 14:43:30.370128 29226 layer_factory.hpp:77] Creating layer enet2_0_branch2a
I0110 14:43:30.370147 29226 net.cpp:106] Creating Layer enet2_0_branch2a
I0110 14:43:30.370154 29226 net.cpp:454] enet2_0_branch2a <- enet1_4_relu1_4_0_split_0
I0110 14:43:30.370169 29226 net.cpp:411] enet2_0_branch2a -> enet2_0_branch2a
I0110 14:43:30.375641 29226 net.cpp:150] Setting up enet2_0_branch2a
I0110 14:43:30.375660 29226 net.cpp:157] Top shape: 4 32 47 155 (932480)
I0110 14:43:30.375668 29226 net.cpp:165] Memory required for data: 1838850592
I0110 14:43:30.375677 29226 layer_factory.hpp:77] Creating layer bn2_0_branch2a
I0110 14:43:30.375695 29226 net.cpp:106] Creating Layer bn2_0_branch2a
I0110 14:43:30.375704 29226 net.cpp:454] bn2_0_branch2a <- enet2_0_branch2a
I0110 14:43:30.375715 29226 net.cpp:397] bn2_0_branch2a -> enet2_0_branch2a (in-place)
I0110 14:43:30.376080 29226 net.cpp:150] Setting up bn2_0_branch2a
I0110 14:43:30.376097 29226 net.cpp:157] Top shape: 4 32 47 155 (932480)
I0110 14:43:30.376106 29226 net.cpp:165] Memory required for data: 1842580512
I0110 14:43:30.376116 29226 layer_factory.hpp:77] Creating layer relu2_0_branch2a
I0110 14:43:30.376127 29226 net.cpp:106] Creating Layer relu2_0_branch2a
I0110 14:43:30.376134 29226 net.cpp:454] relu2_0_branch2a <- enet2_0_branch2a
I0110 14:43:30.376143 29226 net.cpp:397] relu2_0_branch2a -> enet2_0_branch2a (in-place)
I0110 14:43:30.377444 29226 net.cpp:150] Setting up relu2_0_branch2a
I0110 14:43:30.377461 29226 net.cpp:157] Top shape: 4 32 47 155 (932480)
I0110 14:43:30.377468 29226 net.cpp:165] Memory required for data: 1846310432
I0110 14:43:30.377478 29226 layer_factory.hpp:77] Creating layer enet2_0_branch2b
I0110 14:43:30.377496 29226 net.cpp:106] Creating Layer enet2_0_branch2b
I0110 14:43:30.377506 29226 net.cpp:454] enet2_0_branch2b <- enet2_0_branch2a
I0110 14:43:30.377532 29226 net.cpp:411] enet2_0_branch2b -> enet2_0_branch2b
I0110 14:43:30.381074 29226 net.cpp:150] Setting up enet2_0_branch2b
I0110 14:43:30.381096 29226 net.cpp:157] Top shape: 4 32 47 155 (932480)
I0110 14:43:30.381105 29226 net.cpp:165] Memory required for data: 1850040352
I0110 14:43:30.381116 29226 layer_factory.hpp:77] Creating layer bn2_0_branch2b
I0110 14:43:30.381131 29226 net.cpp:106] Creating Layer bn2_0_branch2b
I0110 14:43:30.381142 29226 net.cpp:454] bn2_0_branch2b <- enet2_0_branch2b
I0110 14:43:30.381152 29226 net.cpp:397] bn2_0_branch2b -> enet2_0_branch2b (in-place)
I0110 14:43:30.381523 29226 net.cpp:150] Setting up bn2_0_branch2b
I0110 14:43:30.381538 29226 net.cpp:157] Top shape: 4 32 47 155 (932480)
I0110 14:43:30.381544 29226 net.cpp:165] Memory required for data: 1853770272
I0110 14:43:30.381554 29226 layer_factory.hpp:77] Creating layer relu2_0_branch2b
I0110 14:43:30.381566 29226 net.cpp:106] Creating Layer relu2_0_branch2b
I0110 14:43:30.381572 29226 net.cpp:454] relu2_0_branch2b <- enet2_0_branch2b
I0110 14:43:30.381582 29226 net.cpp:397] relu2_0_branch2b -> enet2_0_branch2b (in-place)
I0110 14:43:30.382817 29226 net.cpp:150] Setting up relu2_0_branch2b
I0110 14:43:30.382834 29226 net.cpp:157] Top shape: 4 32 47 155 (932480)
I0110 14:43:30.382841 29226 net.cpp:165] Memory required for data: 1857500192
I0110 14:43:30.382850 29226 layer_factory.hpp:77] Creating layer enet2_0_branch2c
I0110 14:43:30.382869 29226 net.cpp:106] Creating Layer enet2_0_branch2c
I0110 14:43:30.382877 29226 net.cpp:454] enet2_0_branch2c <- enet2_0_branch2b
I0110 14:43:30.382889 29226 net.cpp:411] enet2_0_branch2c -> enet2_0_branch2c
I0110 14:43:30.386193 29226 net.cpp:150] Setting up enet2_0_branch2c
I0110 14:43:30.386212 29226 net.cpp:157] Top shape: 4 128 47 155 (3729920)
I0110 14:43:30.386220 29226 net.cpp:165] Memory required for data: 1872419872
I0110 14:43:30.386229 29226 layer_factory.hpp:77] Creating layer bn2_0_branch2c
I0110 14:43:30.386245 29226 net.cpp:106] Creating Layer bn2_0_branch2c
I0110 14:43:30.386253 29226 net.cpp:454] bn2_0_branch2c <- enet2_0_branch2c
I0110 14:43:30.386266 29226 net.cpp:397] bn2_0_branch2c -> enet2_0_branch2c (in-place)
I0110 14:43:30.386636 29226 net.cpp:150] Setting up bn2_0_branch2c
I0110 14:43:30.386651 29226 net.cpp:157] Top shape: 4 128 47 155 (3729920)
I0110 14:43:30.386657 29226 net.cpp:165] Memory required for data: 1887339552
I0110 14:43:30.386668 29226 layer_factory.hpp:77] Creating layer dropout2_0_branch2c
I0110 14:43:30.386679 29226 net.cpp:106] Creating Layer dropout2_0_branch2c
I0110 14:43:30.386687 29226 net.cpp:454] dropout2_0_branch2c <- enet2_0_branch2c
I0110 14:43:30.386696 29226 net.cpp:397] dropout2_0_branch2c -> enet2_0_branch2c (in-place)
I0110 14:43:30.386742 29226 net.cpp:150] Setting up dropout2_0_branch2c
I0110 14:43:30.386755 29226 net.cpp:157] Top shape: 4 128 47 155 (3729920)
I0110 14:43:30.386761 29226 net.cpp:165] Memory required for data: 1902259232
I0110 14:43:30.386767 29226 layer_factory.hpp:77] Creating layer enet2_0_branch1a
I0110 14:43:30.386787 29226 net.cpp:106] Creating Layer enet2_0_branch1a
I0110 14:43:30.386795 29226 net.cpp:454] enet2_0_branch1a <- enet1_4_relu1_4_0_split_1
I0110 14:43:30.386806 29226 net.cpp:411] enet2_0_branch1a -> enet2_0_branch1a
I0110 14:43:30.390610 29226 net.cpp:150] Setting up enet2_0_branch1a
I0110 14:43:30.390630 29226 net.cpp:157] Top shape: 4 128 94 310 (14919680)
I0110 14:43:30.390638 29226 net.cpp:165] Memory required for data: 1961937952
I0110 14:43:30.390648 29226 layer_factory.hpp:77] Creating layer bn2_0_branch1a
I0110 14:43:30.390666 29226 net.cpp:106] Creating Layer bn2_0_branch1a
I0110 14:43:30.390674 29226 net.cpp:454] bn2_0_branch1a <- enet2_0_branch1a
I0110 14:43:30.390686 29226 net.cpp:397] bn2_0_branch1a -> enet2_0_branch1a (in-place)
I0110 14:43:30.391119 29226 net.cpp:150] Setting up bn2_0_branch1a
I0110 14:43:30.391134 29226 net.cpp:157] Top shape: 4 128 94 310 (14919680)
I0110 14:43:30.391141 29226 net.cpp:165] Memory required for data: 2021616672
I0110 14:43:30.391161 29226 layer_factory.hpp:77] Creating layer pool2_0_branch1a
I0110 14:43:30.391177 29226 layer_factory.cpp:91] cuDNN does not support multiple tops. Using Caffe's own pooling layer.
I0110 14:43:30.391188 29226 net.cpp:106] Creating Layer pool2_0_branch1a
I0110 14:43:30.391196 29226 net.cpp:454] pool2_0_branch1a <- enet2_0_branch1a
I0110 14:43:30.391206 29226 net.cpp:411] pool2_0_branch1a -> pool2_0_branch1a
I0110 14:43:30.391219 29226 net.cpp:411] pool2_0_branch1a -> pool2_0_branch1a_mask
I0110 14:43:30.391297 29226 net.cpp:150] Setting up pool2_0_branch1a
I0110 14:43:30.391310 29226 net.cpp:157] Top shape: 4 128 47 155 (3729920)
I0110 14:43:30.391319 29226 net.cpp:157] Top shape: 4 128 47 155 (3729920)
I0110 14:43:30.391324 29226 net.cpp:165] Memory required for data: 2051456032
I0110 14:43:30.391331 29226 layer_factory.hpp:77] Creating layer enet2_0
I0110 14:43:30.391341 29226 net.cpp:106] Creating Layer enet2_0
I0110 14:43:30.391348 29226 net.cpp:454] enet2_0 <- pool2_0_branch1a
I0110 14:43:30.391356 29226 net.cpp:454] enet2_0 <- enet2_0_branch2c
I0110 14:43:30.391368 29226 net.cpp:411] enet2_0 -> enet2_0
I0110 14:43:30.391418 29226 net.cpp:150] Setting up enet2_0
I0110 14:43:30.391432 29226 net.cpp:157] Top shape: 4 128 47 155 (3729920)
I0110 14:43:30.391438 29226 net.cpp:165] Memory required for data: 2066375712
I0110 14:43:30.391444 29226 layer_factory.hpp:77] Creating layer relu2_0
I0110 14:43:30.391453 29226 net.cpp:106] Creating Layer relu2_0
I0110 14:43:30.391459 29226 net.cpp:454] relu2_0 <- enet2_0
I0110 14:43:30.391469 29226 net.cpp:397] relu2_0 -> enet2_0 (in-place)
I0110 14:43:30.396070 29226 net.cpp:150] Setting up relu2_0
I0110 14:43:30.396111 29226 net.cpp:157] Top shape: 4 128 47 155 (3729920)
I0110 14:43:30.396118 29226 net.cpp:165] Memory required for data: 2081295392
I0110 14:43:30.396131 29226 layer_factory.hpp:77] Creating layer enet2_0_relu2_0_0_split
I0110 14:43:30.396144 29226 net.cpp:106] Creating Layer enet2_0_relu2_0_0_split
I0110 14:43:30.396153 29226 net.cpp:454] enet2_0_relu2_0_0_split <- enet2_0
I0110 14:43:30.396168 29226 net.cpp:411] enet2_0_relu2_0_0_split -> enet2_0_relu2_0_0_split_0
I0110 14:43:30.396183 29226 net.cpp:411] enet2_0_relu2_0_0_split -> enet2_0_relu2_0_0_split_1
I0110 14:43:30.396260 29226 net.cpp:150] Setting up enet2_0_relu2_0_0_split
I0110 14:43:30.396277 29226 net.cpp:157] Top shape: 4 128 47 155 (3729920)
I0110 14:43:30.396286 29226 net.cpp:157] Top shape: 4 128 47 155 (3729920)
I0110 14:43:30.396291 29226 net.cpp:165] Memory required for data: 2111134752
I0110 14:43:30.396298 29226 layer_factory.hpp:77] Creating layer enet2_1_branch2a
I0110 14:43:30.396317 29226 net.cpp:106] Creating Layer enet2_1_branch2a
I0110 14:43:30.396324 29226 net.cpp:454] enet2_1_branch2a <- enet2_0_relu2_0_0_split_0
I0110 14:43:30.396335 29226 net.cpp:411] enet2_1_branch2a -> enet2_1_branch2a
I0110 14:43:30.399830 29226 net.cpp:150] Setting up enet2_1_branch2a
I0110 14:43:30.399857 29226 net.cpp:157] Top shape: 4 32 47 155 (932480)
I0110 14:43:30.399864 29226 net.cpp:165] Memory required for data: 2114864672
I0110 14:43:30.399875 29226 layer_factory.hpp:77] Creating layer bn2_1_branch2a
I0110 14:43:30.399893 29226 net.cpp:106] Creating Layer bn2_1_branch2a
I0110 14:43:30.399902 29226 net.cpp:454] bn2_1_branch2a <- enet2_1_branch2a
I0110 14:43:30.399916 29226 net.cpp:397] bn2_1_branch2a -> enet2_1_branch2a (in-place)
I0110 14:43:30.400322 29226 net.cpp:150] Setting up bn2_1_branch2a
I0110 14:43:30.400336 29226 net.cpp:157] Top shape: 4 32 47 155 (932480)
I0110 14:43:30.400343 29226 net.cpp:165] Memory required for data: 2118594592
I0110 14:43:30.400353 29226 layer_factory.hpp:77] Creating layer relu2_1_branch2a
I0110 14:43:30.400365 29226 net.cpp:106] Creating Layer relu2_1_branch2a
I0110 14:43:30.400372 29226 net.cpp:454] relu2_1_branch2a <- enet2_1_branch2a
I0110 14:43:30.400382 29226 net.cpp:397] relu2_1_branch2a -> enet2_1_branch2a (in-place)
I0110 14:43:30.402559 29226 net.cpp:150] Setting up relu2_1_branch2a
I0110 14:43:30.402576 29226 net.cpp:157] Top shape: 4 32 47 155 (932480)
I0110 14:43:30.402598 29226 net.cpp:165] Memory required for data: 2122324512
I0110 14:43:30.402618 29226 layer_factory.hpp:77] Creating layer enet2_1_branch2b
I0110 14:43:30.402637 29226 net.cpp:106] Creating Layer enet2_1_branch2b
I0110 14:43:30.402645 29226 net.cpp:454] enet2_1_branch2b <- enet2_1_branch2a
I0110 14:43:30.402658 29226 net.cpp:411] enet2_1_branch2b -> enet2_1_branch2b
I0110 14:43:30.406357 29226 net.cpp:150] Setting up enet2_1_branch2b
I0110 14:43:30.406374 29226 net.cpp:157] Top shape: 4 32 47 155 (932480)
I0110 14:43:30.406383 29226 net.cpp:165] Memory required for data: 2126054432
I0110 14:43:30.406394 29226 layer_factory.hpp:77] Creating layer bn2_1_branch2b
I0110 14:43:30.406409 29226 net.cpp:106] Creating Layer bn2_1_branch2b
I0110 14:43:30.406417 29226 net.cpp:454] bn2_1_branch2b <- enet2_1_branch2b
I0110 14:43:30.406430 29226 net.cpp:397] bn2_1_branch2b -> enet2_1_branch2b (in-place)
I0110 14:43:30.406836 29226 net.cpp:150] Setting up bn2_1_branch2b
I0110 14:43:30.406850 29226 net.cpp:157] Top shape: 4 32 47 155 (932480)
I0110 14:43:30.406857 29226 net.cpp:165] Memory required for data: 2129784352
I0110 14:43:30.406867 29226 layer_factory.hpp:77] Creating layer relu2_1_branch2b
I0110 14:43:30.406877 29226 net.cpp:106] Creating Layer relu2_1_branch2b
I0110 14:43:30.406884 29226 net.cpp:454] relu2_1_branch2b <- enet2_1_branch2b
I0110 14:43:30.406893 29226 net.cpp:397] relu2_1_branch2b -> enet2_1_branch2b (in-place)
I0110 14:43:30.408205 29226 net.cpp:150] Setting up relu2_1_branch2b
I0110 14:43:30.408223 29226 net.cpp:157] Top shape: 4 32 47 155 (932480)
I0110 14:43:30.408231 29226 net.cpp:165] Memory required for data: 2133514272
I0110 14:43:30.408239 29226 layer_factory.hpp:77] Creating layer enet2_1_branch2c
I0110 14:43:30.408257 29226 net.cpp:106] Creating Layer enet2_1_branch2c
I0110 14:43:30.408264 29226 net.cpp:454] enet2_1_branch2c <- enet2_1_branch2b
I0110 14:43:30.408278 29226 net.cpp:411] enet2_1_branch2c -> enet2_1_branch2c
I0110 14:43:30.411713 29226 net.cpp:150] Setting up enet2_1_branch2c
I0110 14:43:30.411731 29226 net.cpp:157] Top shape: 4 128 47 155 (3729920)
I0110 14:43:30.411739 29226 net.cpp:165] Memory required for data: 2148433952
I0110 14:43:30.411748 29226 layer_factory.hpp:77] Creating layer bn2_1_branch2c
I0110 14:43:30.411763 29226 net.cpp:106] Creating Layer bn2_1_branch2c
I0110 14:43:30.411772 29226 net.cpp:454] bn2_1_branch2c <- enet2_1_branch2c
I0110 14:43:30.411785 29226 net.cpp:397] bn2_1_branch2c -> enet2_1_branch2c (in-place)
I0110 14:43:30.412191 29226 net.cpp:150] Setting up bn2_1_branch2c
I0110 14:43:30.412206 29226 net.cpp:157] Top shape: 4 128 47 155 (3729920)
I0110 14:43:30.412212 29226 net.cpp:165] Memory required for data: 2163353632
I0110 14:43:30.412223 29226 layer_factory.hpp:77] Creating layer dropout2_1_branch2c
I0110 14:43:30.412235 29226 net.cpp:106] Creating Layer dropout2_1_branch2c
I0110 14:43:30.412242 29226 net.cpp:454] dropout2_1_branch2c <- enet2_1_branch2c
I0110 14:43:30.412251 29226 net.cpp:397] dropout2_1_branch2c -> enet2_1_branch2c (in-place)
I0110 14:43:30.412303 29226 net.cpp:150] Setting up dropout2_1_branch2c
I0110 14:43:30.412317 29226 net.cpp:157] Top shape: 4 128 47 155 (3729920)
I0110 14:43:30.412323 29226 net.cpp:165] Memory required for data: 2178273312
I0110 14:43:30.412330 29226 layer_factory.hpp:77] Creating layer enet2_1
I0110 14:43:30.412339 29226 net.cpp:106] Creating Layer enet2_1
I0110 14:43:30.412346 29226 net.cpp:454] enet2_1 <- enet2_0_relu2_0_0_split_1
I0110 14:43:30.412355 29226 net.cpp:454] enet2_1 <- enet2_1_branch2c
I0110 14:43:30.412364 29226 net.cpp:411] enet2_1 -> enet2_1
I0110 14:43:30.412415 29226 net.cpp:150] Setting up enet2_1
I0110 14:43:30.412427 29226 net.cpp:157] Top shape: 4 128 47 155 (3729920)
I0110 14:43:30.412434 29226 net.cpp:165] Memory required for data: 2193192992
I0110 14:43:30.412441 29226 layer_factory.hpp:77] Creating layer relu2_1
I0110 14:43:30.412449 29226 net.cpp:106] Creating Layer relu2_1
I0110 14:43:30.412456 29226 net.cpp:454] relu2_1 <- enet2_1
I0110 14:43:30.412467 29226 net.cpp:397] relu2_1 -> enet2_1 (in-place)
I0110 14:43:30.416474 29226 net.cpp:150] Setting up relu2_1
I0110 14:43:30.416493 29226 net.cpp:157] Top shape: 4 128 47 155 (3729920)
I0110 14:43:30.416501 29226 net.cpp:165] Memory required for data: 2208112672
I0110 14:43:30.416510 29226 layer_factory.hpp:77] Creating layer enet2_1_relu2_1_0_split
I0110 14:43:30.416523 29226 net.cpp:106] Creating Layer enet2_1_relu2_1_0_split
I0110 14:43:30.416532 29226 net.cpp:454] enet2_1_relu2_1_0_split <- enet2_1
I0110 14:43:30.416543 29226 net.cpp:411] enet2_1_relu2_1_0_split -> enet2_1_relu2_1_0_split_0
I0110 14:43:30.416554 29226 net.cpp:411] enet2_1_relu2_1_0_split -> enet2_1_relu2_1_0_split_1
I0110 14:43:30.416630 29226 net.cpp:150] Setting up enet2_1_relu2_1_0_split
I0110 14:43:30.416645 29226 net.cpp:157] Top shape: 4 128 47 155 (3729920)
I0110 14:43:30.416652 29226 net.cpp:157] Top shape: 4 128 47 155 (3729920)
I0110 14:43:30.416658 29226 net.cpp:165] Memory required for data: 2237952032
I0110 14:43:30.416664 29226 layer_factory.hpp:77] Creating layer enet2_2_branch2a
I0110 14:43:30.416681 29226 net.cpp:106] Creating Layer enet2_2_branch2a
I0110 14:43:30.416688 29226 net.cpp:454] enet2_2_branch2a <- enet2_1_relu2_1_0_split_0
I0110 14:43:30.416699 29226 net.cpp:411] enet2_2_branch2a -> enet2_2_branch2a
I0110 14:43:30.421169 29226 net.cpp:150] Setting up enet2_2_branch2a
I0110 14:43:30.421190 29226 net.cpp:157] Top shape: 4 32 47 155 (932480)
I0110 14:43:30.421197 29226 net.cpp:165] Memory required for data: 2241681952
I0110 14:43:30.421206 29226 layer_factory.hpp:77] Creating layer bn2_2_branch2a
I0110 14:43:30.421222 29226 net.cpp:106] Creating Layer bn2_2_branch2a
I0110 14:43:30.421231 29226 net.cpp:454] bn2_2_branch2a <- enet2_2_branch2a
I0110 14:43:30.421241 29226 net.cpp:397] bn2_2_branch2a -> enet2_2_branch2a (in-place)
I0110 14:43:30.421666 29226 net.cpp:150] Setting up bn2_2_branch2a
I0110 14:43:30.421680 29226 net.cpp:157] Top shape: 4 32 47 155 (932480)
I0110 14:43:30.421687 29226 net.cpp:165] Memory required for data: 2245411872
I0110 14:43:30.421697 29226 layer_factory.hpp:77] Creating layer relu2_2_branch2a
I0110 14:43:30.421708 29226 net.cpp:106] Creating Layer relu2_2_branch2a
I0110 14:43:30.421715 29226 net.cpp:454] relu2_2_branch2a <- enet2_2_branch2a
I0110 14:43:30.421725 29226 net.cpp:397] relu2_2_branch2a -> enet2_2_branch2a (in-place)
I0110 14:43:30.423153 29226 net.cpp:150] Setting up relu2_2_branch2a
I0110 14:43:30.423173 29226 net.cpp:157] Top shape: 4 32 47 155 (932480)
I0110 14:43:30.423180 29226 net.cpp:165] Memory required for data: 2249141792
I0110 14:43:30.423190 29226 layer_factory.hpp:77] Creating layer enet2_2_branch2b
I0110 14:43:30.423208 29226 net.cpp:106] Creating Layer enet2_2_branch2b
I0110 14:43:30.423218 29226 net.cpp:454] enet2_2_branch2b <- enet2_2_branch2a
I0110 14:43:30.423228 29226 net.cpp:411] enet2_2_branch2b -> enet2_2_branch2b
I0110 14:43:30.423920 29226 net.cpp:150] Setting up enet2_2_branch2b
I0110 14:43:30.423935 29226 net.cpp:157] Top shape: 4 32 47 155 (932480)
I0110 14:43:30.423943 29226 net.cpp:165] Memory required for data: 2252871712
I0110 14:43:30.423952 29226 layer_factory.hpp:77] Creating layer bn2_2_branch2b
I0110 14:43:30.423967 29226 net.cpp:106] Creating Layer bn2_2_branch2b
I0110 14:43:30.423975 29226 net.cpp:454] bn2_2_branch2b <- enet2_2_branch2b
I0110 14:43:30.423988 29226 net.cpp:397] bn2_2_branch2b -> enet2_2_branch2b (in-place)
I0110 14:43:30.424412 29226 net.cpp:150] Setting up bn2_2_branch2b
I0110 14:43:30.424427 29226 net.cpp:157] Top shape: 4 32 47 155 (932480)
I0110 14:43:30.424433 29226 net.cpp:165] Memory required for data: 2256601632
I0110 14:43:30.424443 29226 layer_factory.hpp:77] Creating layer relu2_2_branch2b
I0110 14:43:30.424453 29226 net.cpp:106] Creating Layer relu2_2_branch2b
I0110 14:43:30.424460 29226 net.cpp:454] relu2_2_branch2b <- enet2_2_branch2b
I0110 14:43:30.424470 29226 net.cpp:397] relu2_2_branch2b -> enet2_2_branch2b (in-place)
I0110 14:43:30.425876 29226 net.cpp:150] Setting up relu2_2_branch2b
I0110 14:43:30.425894 29226 net.cpp:157] Top shape: 4 32 47 155 (932480)
I0110 14:43:30.425915 29226 net.cpp:165] Memory required for data: 2260331552
I0110 14:43:30.425940 29226 layer_factory.hpp:77] Creating layer enet2_2_branch2c
I0110 14:43:30.425957 29226 net.cpp:106] Creating Layer enet2_2_branch2c
I0110 14:43:30.425966 29226 net.cpp:454] enet2_2_branch2c <- enet2_2_branch2b
I0110 14:43:30.425979 29226 net.cpp:411] enet2_2_branch2c -> enet2_2_branch2c
I0110 14:43:30.429611 29226 net.cpp:150] Setting up enet2_2_branch2c
I0110 14:43:30.429639 29226 net.cpp:157] Top shape: 4 128 47 155 (3729920)
I0110 14:43:30.429646 29226 net.cpp:165] Memory required for data: 2275251232
I0110 14:43:30.429657 29226 layer_factory.hpp:77] Creating layer bn2_2_branch2c
I0110 14:43:30.429675 29226 net.cpp:106] Creating Layer bn2_2_branch2c
I0110 14:43:30.429683 29226 net.cpp:454] bn2_2_branch2c <- enet2_2_branch2c
I0110 14:43:30.429697 29226 net.cpp:397] bn2_2_branch2c -> enet2_2_branch2c (in-place)
I0110 14:43:30.430127 29226 net.cpp:150] Setting up bn2_2_branch2c
I0110 14:43:30.430142 29226 net.cpp:157] Top shape: 4 128 47 155 (3729920)
I0110 14:43:30.430148 29226 net.cpp:165] Memory required for data: 2290170912
I0110 14:43:30.430160 29226 layer_factory.hpp:77] Creating layer dropout2_2_branch2c
I0110 14:43:30.430171 29226 net.cpp:106] Creating Layer dropout2_2_branch2c
I0110 14:43:30.430178 29226 net.cpp:454] dropout2_2_branch2c <- enet2_2_branch2c
I0110 14:43:30.430188 29226 net.cpp:397] dropout2_2_branch2c -> enet2_2_branch2c (in-place)
I0110 14:43:30.430243 29226 net.cpp:150] Setting up dropout2_2_branch2c
I0110 14:43:30.430255 29226 net.cpp:157] Top shape: 4 128 47 155 (3729920)
I0110 14:43:30.430261 29226 net.cpp:165] Memory required for data: 2305090592
I0110 14:43:30.430269 29226 layer_factory.hpp:77] Creating layer enet2_2
I0110 14:43:30.430279 29226 net.cpp:106] Creating Layer enet2_2
I0110 14:43:30.430285 29226 net.cpp:454] enet2_2 <- enet2_1_relu2_1_0_split_1
I0110 14:43:30.430294 29226 net.cpp:454] enet2_2 <- enet2_2_branch2c
I0110 14:43:30.430305 29226 net.cpp:411] enet2_2 -> enet2_2
I0110 14:43:30.430356 29226 net.cpp:150] Setting up enet2_2
I0110 14:43:30.430371 29226 net.cpp:157] Top shape: 4 128 47 155 (3729920)
I0110 14:43:30.430377 29226 net.cpp:165] Memory required for data: 2320010272
I0110 14:43:30.430383 29226 layer_factory.hpp:77] Creating layer relu2_2
I0110 14:43:30.430393 29226 net.cpp:106] Creating Layer relu2_2
I0110 14:43:30.430400 29226 net.cpp:454] relu2_2 <- enet2_2
I0110 14:43:30.430413 29226 net.cpp:397] relu2_2 -> enet2_2 (in-place)
I0110 14:43:30.435467 29226 net.cpp:150] Setting up relu2_2
I0110 14:43:30.435485 29226 net.cpp:157] Top shape: 4 128 47 155 (3729920)
I0110 14:43:30.435492 29226 net.cpp:165] Memory required for data: 2334929952
I0110 14:43:30.435503 29226 layer_factory.hpp:77] Creating layer enet2_2_relu2_2_0_split
I0110 14:43:30.435518 29226 net.cpp:106] Creating Layer enet2_2_relu2_2_0_split
I0110 14:43:30.435525 29226 net.cpp:454] enet2_2_relu2_2_0_split <- enet2_2
I0110 14:43:30.435535 29226 net.cpp:411] enet2_2_relu2_2_0_split -> enet2_2_relu2_2_0_split_0
I0110 14:43:30.435560 29226 net.cpp:411] enet2_2_relu2_2_0_split -> enet2_2_relu2_2_0_split_1
I0110 14:43:30.435641 29226 net.cpp:150] Setting up enet2_2_relu2_2_0_split
I0110 14:43:30.435657 29226 net.cpp:157] Top shape: 4 128 47 155 (3729920)
I0110 14:43:30.435667 29226 net.cpp:157] Top shape: 4 128 47 155 (3729920)
I0110 14:43:30.435672 29226 net.cpp:165] Memory required for data: 2364769312
I0110 14:43:30.435679 29226 layer_factory.hpp:77] Creating layer enet2_3_branch2a
I0110 14:43:30.435693 29226 net.cpp:106] Creating Layer enet2_3_branch2a
I0110 14:43:30.435701 29226 net.cpp:454] enet2_3_branch2a <- enet2_2_relu2_2_0_split_0
I0110 14:43:30.435714 29226 net.cpp:411] enet2_3_branch2a -> enet2_3_branch2a
I0110 14:43:30.442154 29226 net.cpp:150] Setting up enet2_3_branch2a
I0110 14:43:30.442173 29226 net.cpp:157] Top shape: 4 32 47 155 (932480)
I0110 14:43:30.442180 29226 net.cpp:165] Memory required for data: 2368499232
I0110 14:43:30.442190 29226 layer_factory.hpp:77] Creating layer bn2_3_branch2a
I0110 14:43:30.442231 29226 net.cpp:106] Creating Layer bn2_3_branch2a
I0110 14:43:30.442241 29226 net.cpp:454] bn2_3_branch2a <- enet2_3_branch2a
I0110 14:43:30.442255 29226 net.cpp:397] bn2_3_branch2a -> enet2_3_branch2a (in-place)
I0110 14:43:30.442687 29226 net.cpp:150] Setting up bn2_3_branch2a
I0110 14:43:30.442703 29226 net.cpp:157] Top shape: 4 32 47 155 (932480)
I0110 14:43:30.442708 29226 net.cpp:165] Memory required for data: 2372229152
I0110 14:43:30.442719 29226 layer_factory.hpp:77] Creating layer relu2_3_branch2a
I0110 14:43:30.442731 29226 net.cpp:106] Creating Layer relu2_3_branch2a
I0110 14:43:30.442739 29226 net.cpp:454] relu2_3_branch2a <- enet2_3_branch2a
I0110 14:43:30.442749 29226 net.cpp:397] relu2_3_branch2a -> enet2_3_branch2a (in-place)
I0110 14:43:30.443981 29226 net.cpp:150] Setting up relu2_3_branch2a
I0110 14:43:30.444000 29226 net.cpp:157] Top shape: 4 32 47 155 (932480)
I0110 14:43:30.444006 29226 net.cpp:165] Memory required for data: 2375959072
I0110 14:43:30.444015 29226 layer_factory.hpp:77] Creating layer enet2_3_branch2b1
I0110 14:43:30.444032 29226 net.cpp:106] Creating Layer enet2_3_branch2b1
I0110 14:43:30.444041 29226 net.cpp:454] enet2_3_branch2b1 <- enet2_3_branch2a
I0110 14:43:30.444054 29226 net.cpp:411] enet2_3_branch2b1 -> enet2_3_branch2b1
I0110 14:43:30.447605 29226 net.cpp:150] Setting up enet2_3_branch2b1
I0110 14:43:30.447624 29226 net.cpp:157] Top shape: 4 32 47 155 (932480)
I0110 14:43:30.447631 29226 net.cpp:165] Memory required for data: 2379688992
I0110 14:43:30.447641 29226 layer_factory.hpp:77] Creating layer enet2_3_branch2b
I0110 14:43:30.447659 29226 net.cpp:106] Creating Layer enet2_3_branch2b
I0110 14:43:30.447667 29226 net.cpp:454] enet2_3_branch2b <- enet2_3_branch2b1
I0110 14:43:30.447680 29226 net.cpp:411] enet2_3_branch2b -> enet2_3_branch2b
I0110 14:43:30.451318 29226 net.cpp:150] Setting up enet2_3_branch2b
I0110 14:43:30.451336 29226 net.cpp:157] Top shape: 4 32 47 155 (932480)
I0110 14:43:30.451344 29226 net.cpp:165] Memory required for data: 2383418912
I0110 14:43:30.451355 29226 layer_factory.hpp:77] Creating layer bn2_3_branch2b
I0110 14:43:30.451370 29226 net.cpp:106] Creating Layer bn2_3_branch2b
I0110 14:43:30.451380 29226 net.cpp:454] bn2_3_branch2b <- enet2_3_branch2b
I0110 14:43:30.451392 29226 net.cpp:397] bn2_3_branch2b -> enet2_3_branch2b (in-place)
I0110 14:43:30.451848 29226 net.cpp:150] Setting up bn2_3_branch2b
I0110 14:43:30.451861 29226 net.cpp:157] Top shape: 4 32 47 155 (932480)
I0110 14:43:30.451869 29226 net.cpp:165] Memory required for data: 2387148832
I0110 14:43:30.451879 29226 layer_factory.hpp:77] Creating layer relu2_3_branch2b
I0110 14:43:30.451892 29226 net.cpp:106] Creating Layer relu2_3_branch2b
I0110 14:43:30.451900 29226 net.cpp:454] relu2_3_branch2b <- enet2_3_branch2b
I0110 14:43:30.451910 29226 net.cpp:397] relu2_3_branch2b -> enet2_3_branch2b (in-place)
I0110 14:43:30.453210 29226 net.cpp:150] Setting up relu2_3_branch2b
I0110 14:43:30.453227 29226 net.cpp:157] Top shape: 4 32 47 155 (932480)
I0110 14:43:30.453234 29226 net.cpp:165] Memory required for data: 2390878752
I0110 14:43:30.453243 29226 layer_factory.hpp:77] Creating layer enet2_3_branch2c
I0110 14:43:30.453260 29226 net.cpp:106] Creating Layer enet2_3_branch2c
I0110 14:43:30.453269 29226 net.cpp:454] enet2_3_branch2c <- enet2_3_branch2b
I0110 14:43:30.453284 29226 net.cpp:411] enet2_3_branch2c -> enet2_3_branch2c
I0110 14:43:30.456725 29226 net.cpp:150] Setting up enet2_3_branch2c
I0110 14:43:30.456744 29226 net.cpp:157] Top shape: 4 128 47 155 (3729920)
I0110 14:43:30.456753 29226 net.cpp:165] Memory required for data: 2405798432
I0110 14:43:30.456761 29226 layer_factory.hpp:77] Creating layer bn2_3_branch2c
I0110 14:43:30.456776 29226 net.cpp:106] Creating Layer bn2_3_branch2c
I0110 14:43:30.456785 29226 net.cpp:454] bn2_3_branch2c <- enet2_3_branch2c
I0110 14:43:30.456795 29226 net.cpp:397] bn2_3_branch2c -> enet2_3_branch2c (in-place)
I0110 14:43:30.457257 29226 net.cpp:150] Setting up bn2_3_branch2c
I0110 14:43:30.457279 29226 net.cpp:157] Top shape: 4 128 47 155 (3729920)
I0110 14:43:30.457295 29226 net.cpp:165] Memory required for data: 2420718112
I0110 14:43:30.457306 29226 layer_factory.hpp:77] Creating layer dropout2_3_branch2c
I0110 14:43:30.457317 29226 net.cpp:106] Creating Layer dropout2_3_branch2c
I0110 14:43:30.457324 29226 net.cpp:454] dropout2_3_branch2c <- enet2_3_branch2c
I0110 14:43:30.457334 29226 net.cpp:397] dropout2_3_branch2c -> enet2_3_branch2c (in-place)
I0110 14:43:30.457392 29226 net.cpp:150] Setting up dropout2_3_branch2c
I0110 14:43:30.457406 29226 net.cpp:157] Top shape: 4 128 47 155 (3729920)
I0110 14:43:30.457412 29226 net.cpp:165] Memory required for data: 2435637792
I0110 14:43:30.457418 29226 layer_factory.hpp:77] Creating layer enet2_3
I0110 14:43:30.457430 29226 net.cpp:106] Creating Layer enet2_3
I0110 14:43:30.457438 29226 net.cpp:454] enet2_3 <- enet2_2_relu2_2_0_split_1
I0110 14:43:30.457447 29226 net.cpp:454] enet2_3 <- enet2_3_branch2c
I0110 14:43:30.457455 29226 net.cpp:411] enet2_3 -> enet2_3
I0110 14:43:30.457511 29226 net.cpp:150] Setting up enet2_3
I0110 14:43:30.457525 29226 net.cpp:157] Top shape: 4 128 47 155 (3729920)
I0110 14:43:30.457531 29226 net.cpp:165] Memory required for data: 2450557472
I0110 14:43:30.457537 29226 layer_factory.hpp:77] Creating layer relu2_3
I0110 14:43:30.457546 29226 net.cpp:106] Creating Layer relu2_3
I0110 14:43:30.457553 29226 net.cpp:454] relu2_3 <- enet2_3
I0110 14:43:30.457566 29226 net.cpp:397] relu2_3 -> enet2_3 (in-place)
I0110 14:43:30.462167 29226 net.cpp:150] Setting up relu2_3
I0110 14:43:30.462200 29226 net.cpp:157] Top shape: 4 128 47 155 (3729920)
I0110 14:43:30.462208 29226 net.cpp:165] Memory required for data: 2465477152
I0110 14:43:30.462252 29226 layer_factory.hpp:77] Creating layer enet2_3_relu2_3_0_split
I0110 14:43:30.462268 29226 net.cpp:106] Creating Layer enet2_3_relu2_3_0_split
I0110 14:43:30.462277 29226 net.cpp:454] enet2_3_relu2_3_0_split <- enet2_3
I0110 14:43:30.462290 29226 net.cpp:411] enet2_3_relu2_3_0_split -> enet2_3_relu2_3_0_split_0
I0110 14:43:30.462306 29226 net.cpp:411] enet2_3_relu2_3_0_split -> enet2_3_relu2_3_0_split_1
I0110 14:43:30.462394 29226 net.cpp:150] Setting up enet2_3_relu2_3_0_split
I0110 14:43:30.462409 29226 net.cpp:157] Top shape: 4 128 47 155 (3729920)
I0110 14:43:30.462417 29226 net.cpp:157] Top shape: 4 128 47 155 (3729920)
I0110 14:43:30.462424 29226 net.cpp:165] Memory required for data: 2495316512
I0110 14:43:30.462430 29226 layer_factory.hpp:77] Creating layer enet2_4_branch2a
I0110 14:43:30.462446 29226 net.cpp:106] Creating Layer enet2_4_branch2a
I0110 14:43:30.462455 29226 net.cpp:454] enet2_4_branch2a <- enet2_3_relu2_3_0_split_0
I0110 14:43:30.462468 29226 net.cpp:411] enet2_4_branch2a -> enet2_4_branch2a
I0110 14:43:30.466208 29226 net.cpp:150] Setting up enet2_4_branch2a
I0110 14:43:30.466233 29226 net.cpp:157] Top shape: 4 32 47 155 (932480)
I0110 14:43:30.466241 29226 net.cpp:165] Memory required for data: 2499046432
I0110 14:43:30.466251 29226 layer_factory.hpp:77] Creating layer bn2_4_branch2a
I0110 14:43:30.466271 29226 net.cpp:106] Creating Layer bn2_4_branch2a
I0110 14:43:30.466280 29226 net.cpp:454] bn2_4_branch2a <- enet2_4_branch2a
I0110 14:43:30.466295 29226 net.cpp:397] bn2_4_branch2a -> enet2_4_branch2a (in-place)
I0110 14:43:30.467809 29226 net.cpp:150] Setting up bn2_4_branch2a
I0110 14:43:30.467826 29226 net.cpp:157] Top shape: 4 32 47 155 (932480)
I0110 14:43:30.467834 29226 net.cpp:165] Memory required for data: 2502776352
I0110 14:43:30.467845 29226 layer_factory.hpp:77] Creating layer relu2_4_branch2a
I0110 14:43:30.467857 29226 net.cpp:106] Creating Layer relu2_4_branch2a
I0110 14:43:30.467864 29226 net.cpp:454] relu2_4_branch2a <- enet2_4_branch2a
I0110 14:43:30.467878 29226 net.cpp:397] relu2_4_branch2a -> enet2_4_branch2a (in-place)
I0110 14:43:30.469254 29226 net.cpp:150] Setting up relu2_4_branch2a
I0110 14:43:30.469270 29226 net.cpp:157] Top shape: 4 32 47 155 (932480)
I0110 14:43:30.469277 29226 net.cpp:165] Memory required for data: 2506506272
I0110 14:43:30.469305 29226 layer_factory.hpp:77] Creating layer enet2_4_branch2b
I0110 14:43:30.469346 29226 net.cpp:106] Creating Layer enet2_4_branch2b
I0110 14:43:30.469354 29226 net.cpp:454] enet2_4_branch2b <- enet2_4_branch2a
I0110 14:43:30.469367 29226 net.cpp:411] enet2_4_branch2b -> enet2_4_branch2b
I0110 14:43:30.470386 29226 net.cpp:150] Setting up enet2_4_branch2b
I0110 14:43:30.470404 29226 net.cpp:157] Top shape: 4 32 47 155 (932480)
I0110 14:43:30.470412 29226 net.cpp:165] Memory required for data: 2510236192
I0110 14:43:30.470422 29226 layer_factory.hpp:77] Creating layer bn2_4_branch2b
I0110 14:43:30.470458 29226 net.cpp:106] Creating Layer bn2_4_branch2b
I0110 14:43:30.470468 29226 net.cpp:454] bn2_4_branch2b <- enet2_4_branch2b
I0110 14:43:30.470479 29226 net.cpp:397] bn2_4_branch2b -> enet2_4_branch2b (in-place)
I0110 14:43:30.470942 29226 net.cpp:150] Setting up bn2_4_branch2b
I0110 14:43:30.470957 29226 net.cpp:157] Top shape: 4 32 47 155 (932480)
I0110 14:43:30.470963 29226 net.cpp:165] Memory required for data: 2513966112
I0110 14:43:30.470974 29226 layer_factory.hpp:77] Creating layer relu2_4_branch2b
I0110 14:43:30.470985 29226 net.cpp:106] Creating Layer relu2_4_branch2b
I0110 14:43:30.470993 29226 net.cpp:454] relu2_4_branch2b <- enet2_4_branch2b
I0110 14:43:30.471004 29226 net.cpp:397] relu2_4_branch2b -> enet2_4_branch2b (in-place)
I0110 14:43:30.472342 29226 net.cpp:150] Setting up relu2_4_branch2b
I0110 14:43:30.472359 29226 net.cpp:157] Top shape: 4 32 47 155 (932480)
I0110 14:43:30.472365 29226 net.cpp:165] Memory required for data: 2517696032
I0110 14:43:30.472374 29226 layer_factory.hpp:77] Creating layer enet2_4_branch2c
I0110 14:43:30.472393 29226 net.cpp:106] Creating Layer enet2_4_branch2c
I0110 14:43:30.472401 29226 net.cpp:454] enet2_4_branch2c <- enet2_4_branch2b
I0110 14:43:30.472414 29226 net.cpp:411] enet2_4_branch2c -> enet2_4_branch2c
I0110 14:43:30.476207 29226 net.cpp:150] Setting up enet2_4_branch2c
I0110 14:43:30.476228 29226 net.cpp:157] Top shape: 4 128 47 155 (3729920)
I0110 14:43:30.476236 29226 net.cpp:165] Memory required for data: 2532615712
I0110 14:43:30.476246 29226 layer_factory.hpp:77] Creating layer bn2_4_branch2c
I0110 14:43:30.476259 29226 net.cpp:106] Creating Layer bn2_4_branch2c
I0110 14:43:30.476266 29226 net.cpp:454] bn2_4_branch2c <- enet2_4_branch2c
I0110 14:43:30.476280 29226 net.cpp:397] bn2_4_branch2c -> enet2_4_branch2c (in-place)
I0110 14:43:30.476744 29226 net.cpp:150] Setting up bn2_4_branch2c
I0110 14:43:30.476758 29226 net.cpp:157] Top shape: 4 128 47 155 (3729920)
I0110 14:43:30.476765 29226 net.cpp:165] Memory required for data: 2547535392
I0110 14:43:30.476775 29226 layer_factory.hpp:77] Creating layer dropout2_4_branch2c
I0110 14:43:30.476788 29226 net.cpp:106] Creating Layer dropout2_4_branch2c
I0110 14:43:30.476796 29226 net.cpp:454] dropout2_4_branch2c <- enet2_4_branch2c
I0110 14:43:30.476809 29226 net.cpp:397] dropout2_4_branch2c -> enet2_4_branch2c (in-place)
I0110 14:43:30.476863 29226 net.cpp:150] Setting up dropout2_4_branch2c
I0110 14:43:30.476876 29226 net.cpp:157] Top shape: 4 128 47 155 (3729920)
I0110 14:43:30.476883 29226 net.cpp:165] Memory required for data: 2562455072
I0110 14:43:30.476889 29226 layer_factory.hpp:77] Creating layer enet2_4
I0110 14:43:30.476899 29226 net.cpp:106] Creating Layer enet2_4
I0110 14:43:30.476907 29226 net.cpp:454] enet2_4 <- enet2_3_relu2_3_0_split_1
I0110 14:43:30.476914 29226 net.cpp:454] enet2_4 <- enet2_4_branch2c
I0110 14:43:30.476927 29226 net.cpp:411] enet2_4 -> enet2_4
I0110 14:43:30.476981 29226 net.cpp:150] Setting up enet2_4
I0110 14:43:30.476999 29226 net.cpp:157] Top shape: 4 128 47 155 (3729920)
I0110 14:43:30.477005 29226 net.cpp:165] Memory required for data: 2577374752
I0110 14:43:30.477011 29226 layer_factory.hpp:77] Creating layer relu2_4
I0110 14:43:30.477020 29226 net.cpp:106] Creating Layer relu2_4
I0110 14:43:30.477027 29226 net.cpp:454] relu2_4 <- enet2_4
I0110 14:43:30.477036 29226 net.cpp:397] relu2_4 -> enet2_4 (in-place)
I0110 14:43:30.480988 29226 net.cpp:150] Setting up relu2_4
I0110 14:43:30.481012 29226 net.cpp:157] Top shape: 4 128 47 155 (3729920)
I0110 14:43:30.481027 29226 net.cpp:165] Memory required for data: 2592294432
I0110 14:43:30.481037 29226 layer_factory.hpp:77] Creating layer enet2_4_relu2_4_0_split
I0110 14:43:30.481048 29226 net.cpp:106] Creating Layer enet2_4_relu2_4_0_split
I0110 14:43:30.481055 29226 net.cpp:454] enet2_4_relu2_4_0_split <- enet2_4
I0110 14:43:30.481068 29226 net.cpp:411] enet2_4_relu2_4_0_split -> enet2_4_relu2_4_0_split_0
I0110 14:43:30.481081 29226 net.cpp:411] enet2_4_relu2_4_0_split -> enet2_4_relu2_4_0_split_1
I0110 14:43:30.481173 29226 net.cpp:150] Setting up enet2_4_relu2_4_0_split
I0110 14:43:30.481186 29226 net.cpp:157] Top shape: 4 128 47 155 (3729920)
I0110 14:43:30.481194 29226 net.cpp:157] Top shape: 4 128 47 155 (3729920)
I0110 14:43:30.481200 29226 net.cpp:165] Memory required for data: 2622133792
I0110 14:43:30.481206 29226 layer_factory.hpp:77] Creating layer enet2_5_branch2a
I0110 14:43:30.481223 29226 net.cpp:106] Creating Layer enet2_5_branch2a
I0110 14:43:30.481231 29226 net.cpp:454] enet2_5_branch2a <- enet2_4_relu2_4_0_split_0
I0110 14:43:30.481242 29226 net.cpp:411] enet2_5_branch2a -> enet2_5_branch2a
I0110 14:43:30.485270 29226 net.cpp:150] Setting up enet2_5_branch2a
I0110 14:43:30.485306 29226 net.cpp:157] Top shape: 4 32 47 155 (932480)
I0110 14:43:30.485314 29226 net.cpp:165] Memory required for data: 2625863712
I0110 14:43:30.485328 29226 layer_factory.hpp:77] Creating layer bn2_5_branch2a
I0110 14:43:30.485352 29226 net.cpp:106] Creating Layer bn2_5_branch2a
I0110 14:43:30.485363 29226 net.cpp:454] bn2_5_branch2a <- enet2_5_branch2a
I0110 14:43:30.485379 29226 net.cpp:397] bn2_5_branch2a -> enet2_5_branch2a (in-place)
I0110 14:43:30.485904 29226 net.cpp:150] Setting up bn2_5_branch2a
I0110 14:43:30.485919 29226 net.cpp:157] Top shape: 4 32 47 155 (932480)
I0110 14:43:30.485926 29226 net.cpp:165] Memory required for data: 2629593632
I0110 14:43:30.485937 29226 layer_factory.hpp:77] Creating layer relu2_5_branch2a
I0110 14:43:30.485950 29226 net.cpp:106] Creating Layer relu2_5_branch2a
I0110 14:43:30.485957 29226 net.cpp:454] relu2_5_branch2a <- enet2_5_branch2a
I0110 14:43:30.485970 29226 net.cpp:397] relu2_5_branch2a -> enet2_5_branch2a (in-place)
I0110 14:43:30.487202 29226 net.cpp:150] Setting up relu2_5_branch2a
I0110 14:43:30.487220 29226 net.cpp:157] Top shape: 4 32 47 155 (932480)
I0110 14:43:30.487226 29226 net.cpp:165] Memory required for data: 2633323552
I0110 14:43:30.487237 29226 layer_factory.hpp:77] Creating layer enet2_5_branch2b
I0110 14:43:30.487260 29226 net.cpp:106] Creating Layer enet2_5_branch2b
I0110 14:43:30.487268 29226 net.cpp:454] enet2_5_branch2b <- enet2_5_branch2a
I0110 14:43:30.487288 29226 net.cpp:411] enet2_5_branch2b -> enet2_5_branch2b
I0110 14:43:30.491287 29226 net.cpp:150] Setting up enet2_5_branch2b
I0110 14:43:30.491307 29226 net.cpp:157] Top shape: 4 32 47 155 (932480)
I0110 14:43:30.491314 29226 net.cpp:165] Memory required for data: 2637053472
I0110 14:43:30.491327 29226 layer_factory.hpp:77] Creating layer bn2_5_branch2b
I0110 14:43:30.491343 29226 net.cpp:106] Creating Layer bn2_5_branch2b
I0110 14:43:30.491353 29226 net.cpp:454] bn2_5_branch2b <- enet2_5_branch2b
I0110 14:43:30.491364 29226 net.cpp:397] bn2_5_branch2b -> enet2_5_branch2b (in-place)
I0110 14:43:30.491883 29226 net.cpp:150] Setting up bn2_5_branch2b
I0110 14:43:30.491897 29226 net.cpp:157] Top shape: 4 32 47 155 (932480)
I0110 14:43:30.491904 29226 net.cpp:165] Memory required for data: 2640783392
I0110 14:43:30.491915 29226 layer_factory.hpp:77] Creating layer relu2_5_branch2b
I0110 14:43:30.491927 29226 net.cpp:106] Creating Layer relu2_5_branch2b
I0110 14:43:30.491935 29226 net.cpp:454] relu2_5_branch2b <- enet2_5_branch2b
I0110 14:43:30.491947 29226 net.cpp:397] relu2_5_branch2b -> enet2_5_branch2b (in-place)
I0110 14:43:30.493422 29226 net.cpp:150] Setting up relu2_5_branch2b
I0110 14:43:30.493439 29226 net.cpp:157] Top shape: 4 32 47 155 (932480)
I0110 14:43:30.493446 29226 net.cpp:165] Memory required for data: 2644513312
I0110 14:43:30.493471 29226 layer_factory.hpp:77] Creating layer enet2_5_branch2c
I0110 14:43:30.493505 29226 net.cpp:106] Creating Layer enet2_5_branch2c
I0110 14:43:30.493515 29226 net.cpp:454] enet2_5_branch2c <- enet2_5_branch2b
I0110 14:43:30.493526 29226 net.cpp:411] enet2_5_branch2c -> enet2_5_branch2c
I0110 14:43:30.497059 29226 net.cpp:150] Setting up enet2_5_branch2c
I0110 14:43:30.497077 29226 net.cpp:157] Top shape: 4 128 47 155 (3729920)
I0110 14:43:30.497086 29226 net.cpp:165] Memory required for data: 2659432992
I0110 14:43:30.497095 29226 layer_factory.hpp:77] Creating layer bn2_5_branch2c
I0110 14:43:30.497112 29226 net.cpp:106] Creating Layer bn2_5_branch2c
I0110 14:43:30.497119 29226 net.cpp:454] bn2_5_branch2c <- enet2_5_branch2c
I0110 14:43:30.497133 29226 net.cpp:397] bn2_5_branch2c -> enet2_5_branch2c (in-place)
I0110 14:43:30.497630 29226 net.cpp:150] Setting up bn2_5_branch2c
I0110 14:43:30.497645 29226 net.cpp:157] Top shape: 4 128 47 155 (3729920)
I0110 14:43:30.497651 29226 net.cpp:165] Memory required for data: 2674352672
I0110 14:43:30.497663 29226 layer_factory.hpp:77] Creating layer dropout2_5_branch2c
I0110 14:43:30.497674 29226 net.cpp:106] Creating Layer dropout2_5_branch2c
I0110 14:43:30.497683 29226 net.cpp:454] dropout2_5_branch2c <- enet2_5_branch2c
I0110 14:43:30.497694 29226 net.cpp:397] dropout2_5_branch2c -> enet2_5_branch2c (in-place)
I0110 14:43:30.497752 29226 net.cpp:150] Setting up dropout2_5_branch2c
I0110 14:43:30.497771 29226 net.cpp:157] Top shape: 4 128 47 155 (3729920)
I0110 14:43:30.497776 29226 net.cpp:165] Memory required for data: 2689272352
I0110 14:43:30.497783 29226 layer_factory.hpp:77] Creating layer enet2_5
I0110 14:43:30.497794 29226 net.cpp:106] Creating Layer enet2_5
I0110 14:43:30.497802 29226 net.cpp:454] enet2_5 <- enet2_4_relu2_4_0_split_1
I0110 14:43:30.497810 29226 net.cpp:454] enet2_5 <- enet2_5_branch2c
I0110 14:43:30.497819 29226 net.cpp:411] enet2_5 -> enet2_5
I0110 14:43:30.497879 29226 net.cpp:150] Setting up enet2_5
I0110 14:43:30.497892 29226 net.cpp:157] Top shape: 4 128 47 155 (3729920)
I0110 14:43:30.497900 29226 net.cpp:165] Memory required for data: 2704192032
I0110 14:43:30.497905 29226 layer_factory.hpp:77] Creating layer relu2_5
I0110 14:43:30.497917 29226 net.cpp:106] Creating Layer relu2_5
I0110 14:43:30.497925 29226 net.cpp:454] relu2_5 <- enet2_5
I0110 14:43:30.497934 29226 net.cpp:397] relu2_5 -> enet2_5 (in-place)
I0110 14:43:30.502858 29226 net.cpp:150] Setting up relu2_5
I0110 14:43:30.502882 29226 net.cpp:157] Top shape: 4 128 47 155 (3729920)
I0110 14:43:30.502888 29226 net.cpp:165] Memory required for data: 2719111712
I0110 14:43:30.502898 29226 layer_factory.hpp:77] Creating layer enet2_5_relu2_5_0_split
I0110 14:43:30.502912 29226 net.cpp:106] Creating Layer enet2_5_relu2_5_0_split
I0110 14:43:30.502918 29226 net.cpp:454] enet2_5_relu2_5_0_split <- enet2_5
I0110 14:43:30.502928 29226 net.cpp:411] enet2_5_relu2_5_0_split -> enet2_5_relu2_5_0_split_0
I0110 14:43:30.502940 29226 net.cpp:411] enet2_5_relu2_5_0_split -> enet2_5_relu2_5_0_split_1
I0110 14:43:30.503033 29226 net.cpp:150] Setting up enet2_5_relu2_5_0_split
I0110 14:43:30.503047 29226 net.cpp:157] Top shape: 4 128 47 155 (3729920)
I0110 14:43:30.503057 29226 net.cpp:157] Top shape: 4 128 47 155 (3729920)
I0110 14:43:30.503062 29226 net.cpp:165] Memory required for data: 2748951072
I0110 14:43:30.503068 29226 layer_factory.hpp:77] Creating layer enet2_6_branch2a
I0110 14:43:30.503087 29226 net.cpp:106] Creating Layer enet2_6_branch2a
I0110 14:43:30.503094 29226 net.cpp:454] enet2_6_branch2a <- enet2_5_relu2_5_0_split_0
I0110 14:43:30.503106 29226 net.cpp:411] enet2_6_branch2a -> enet2_6_branch2a
I0110 14:43:30.506883 29226 net.cpp:150] Setting up enet2_6_branch2a
I0110 14:43:30.506902 29226 net.cpp:157] Top shape: 4 32 47 155 (932480)
I0110 14:43:30.506909 29226 net.cpp:165] Memory required for data: 2752680992
I0110 14:43:30.506919 29226 layer_factory.hpp:77] Creating layer bn2_6_branch2a
I0110 14:43:30.506935 29226 net.cpp:106] Creating Layer bn2_6_branch2a
I0110 14:43:30.506952 29226 net.cpp:454] bn2_6_branch2a <- enet2_6_branch2a
I0110 14:43:30.506974 29226 net.cpp:397] bn2_6_branch2a -> enet2_6_branch2a (in-place)
I0110 14:43:30.507493 29226 net.cpp:150] Setting up bn2_6_branch2a
I0110 14:43:30.507506 29226 net.cpp:157] Top shape: 4 32 47 155 (932480)
I0110 14:43:30.507513 29226 net.cpp:165] Memory required for data: 2756410912
I0110 14:43:30.507524 29226 layer_factory.hpp:77] Creating layer relu2_6_branch2a
I0110 14:43:30.507535 29226 net.cpp:106] Creating Layer relu2_6_branch2a
I0110 14:43:30.507542 29226 net.cpp:454] relu2_6_branch2a <- enet2_6_branch2a
I0110 14:43:30.507551 29226 net.cpp:397] relu2_6_branch2a -> enet2_6_branch2a (in-place)
I0110 14:43:30.508908 29226 net.cpp:150] Setting up relu2_6_branch2a
I0110 14:43:30.508924 29226 net.cpp:157] Top shape: 4 32 47 155 (932480)
I0110 14:43:30.508931 29226 net.cpp:165] Memory required for data: 2760140832
I0110 14:43:30.508941 29226 layer_factory.hpp:77] Creating layer enet2_6_branch2b
I0110 14:43:30.508960 29226 net.cpp:106] Creating Layer enet2_6_branch2b
I0110 14:43:30.508970 29226 net.cpp:454] enet2_6_branch2b <- enet2_6_branch2a
I0110 14:43:30.508982 29226 net.cpp:411] enet2_6_branch2b -> enet2_6_branch2b
I0110 14:43:30.509783 29226 net.cpp:150] Setting up enet2_6_branch2b
I0110 14:43:30.509798 29226 net.cpp:157] Top shape: 4 32 47 155 (932480)
I0110 14:43:30.509804 29226 net.cpp:165] Memory required for data: 2763870752
I0110 14:43:30.509814 29226 layer_factory.hpp:77] Creating layer bn2_6_branch2b
I0110 14:43:30.509829 29226 net.cpp:106] Creating Layer bn2_6_branch2b
I0110 14:43:30.509837 29226 net.cpp:454] bn2_6_branch2b <- enet2_6_branch2b
I0110 14:43:30.509847 29226 net.cpp:397] bn2_6_branch2b -> enet2_6_branch2b (in-place)
I0110 14:43:30.510362 29226 net.cpp:150] Setting up bn2_6_branch2b
I0110 14:43:30.510376 29226 net.cpp:157] Top shape: 4 32 47 155 (932480)
I0110 14:43:30.510383 29226 net.cpp:165] Memory required for data: 2767600672
I0110 14:43:30.510393 29226 layer_factory.hpp:77] Creating layer relu2_6_branch2b
I0110 14:43:30.510404 29226 net.cpp:106] Creating Layer relu2_6_branch2b
I0110 14:43:30.510411 29226 net.cpp:454] relu2_6_branch2b <- enet2_6_branch2b
I0110 14:43:30.510424 29226 net.cpp:397] relu2_6_branch2b -> enet2_6_branch2b (in-place)
I0110 14:43:30.511754 29226 net.cpp:150] Setting up relu2_6_branch2b
I0110 14:43:30.511773 29226 net.cpp:157] Top shape: 4 32 47 155 (932480)
I0110 14:43:30.511781 29226 net.cpp:165] Memory required for data: 2771330592
I0110 14:43:30.511790 29226 layer_factory.hpp:77] Creating layer enet2_6_branch2c
I0110 14:43:30.511814 29226 net.cpp:106] Creating Layer enet2_6_branch2c
I0110 14:43:30.511823 29226 net.cpp:454] enet2_6_branch2c <- enet2_6_branch2b
I0110 14:43:30.511834 29226 net.cpp:411] enet2_6_branch2c -> enet2_6_branch2c
I0110 14:43:30.515425 29226 net.cpp:150] Setting up enet2_6_branch2c
I0110 14:43:30.515444 29226 net.cpp:157] Top shape: 4 128 47 155 (3729920)
I0110 14:43:30.515451 29226 net.cpp:165] Memory required for data: 2786250272
I0110 14:43:30.515461 29226 layer_factory.hpp:77] Creating layer bn2_6_branch2c
I0110 14:43:30.515477 29226 net.cpp:106] Creating Layer bn2_6_branch2c
I0110 14:43:30.515486 29226 net.cpp:454] bn2_6_branch2c <- enet2_6_branch2c
I0110 14:43:30.515499 29226 net.cpp:397] bn2_6_branch2c -> enet2_6_branch2c (in-place)
I0110 14:43:30.516088 29226 net.cpp:150] Setting up bn2_6_branch2c
I0110 14:43:30.516104 29226 net.cpp:157] Top shape: 4 128 47 155 (3729920)
I0110 14:43:30.516110 29226 net.cpp:165] Memory required for data: 2801169952
I0110 14:43:30.516121 29226 layer_factory.hpp:77] Creating layer dropout2_6_branch2c
I0110 14:43:30.516132 29226 net.cpp:106] Creating Layer dropout2_6_branch2c
I0110 14:43:30.516140 29226 net.cpp:454] dropout2_6_branch2c <- enet2_6_branch2c
I0110 14:43:30.516152 29226 net.cpp:397] dropout2_6_branch2c -> enet2_6_branch2c (in-place)
I0110 14:43:30.516211 29226 net.cpp:150] Setting up dropout2_6_branch2c
I0110 14:43:30.516224 29226 net.cpp:157] Top shape: 4 128 47 155 (3729920)
I0110 14:43:30.516238 29226 net.cpp:165] Memory required for data: 2816089632
I0110 14:43:30.516254 29226 layer_factory.hpp:77] Creating layer enet2_6
I0110 14:43:30.516265 29226 net.cpp:106] Creating Layer enet2_6
I0110 14:43:30.516273 29226 net.cpp:454] enet2_6 <- enet2_5_relu2_5_0_split_1
I0110 14:43:30.516281 29226 net.cpp:454] enet2_6 <- enet2_6_branch2c
I0110 14:43:30.516290 29226 net.cpp:411] enet2_6 -> enet2_6
I0110 14:43:30.516351 29226 net.cpp:150] Setting up enet2_6
I0110 14:43:30.516366 29226 net.cpp:157] Top shape: 4 128 47 155 (3729920)
I0110 14:43:30.516372 29226 net.cpp:165] Memory required for data: 2831009312
I0110 14:43:30.516378 29226 layer_factory.hpp:77] Creating layer relu2_6
I0110 14:43:30.516391 29226 net.cpp:106] Creating Layer relu2_6
I0110 14:43:30.516398 29226 net.cpp:454] relu2_6 <- enet2_6
I0110 14:43:30.516407 29226 net.cpp:397] relu2_6 -> enet2_6 (in-place)
I0110 14:43:30.520607 29226 net.cpp:150] Setting up relu2_6
I0110 14:43:30.520625 29226 net.cpp:157] Top shape: 4 128 47 155 (3729920)
I0110 14:43:30.520633 29226 net.cpp:165] Memory required for data: 2845928992
I0110 14:43:30.520642 29226 layer_factory.hpp:77] Creating layer enet2_6_relu2_6_0_split
I0110 14:43:30.520656 29226 net.cpp:106] Creating Layer enet2_6_relu2_6_0_split
I0110 14:43:30.520664 29226 net.cpp:454] enet2_6_relu2_6_0_split <- enet2_6
I0110 14:43:30.520674 29226 net.cpp:411] enet2_6_relu2_6_0_split -> enet2_6_relu2_6_0_split_0
I0110 14:43:30.520687 29226 net.cpp:411] enet2_6_relu2_6_0_split -> enet2_6_relu2_6_0_split_1
I0110 14:43:30.520790 29226 net.cpp:150] Setting up enet2_6_relu2_6_0_split
I0110 14:43:30.520804 29226 net.cpp:157] Top shape: 4 128 47 155 (3729920)
I0110 14:43:30.520812 29226 net.cpp:157] Top shape: 4 128 47 155 (3729920)
I0110 14:43:30.520818 29226 net.cpp:165] Memory required for data: 2875768352
I0110 14:43:30.520825 29226 layer_factory.hpp:77] Creating layer enet2_7_branch2a
I0110 14:43:30.520843 29226 net.cpp:106] Creating Layer enet2_7_branch2a
I0110 14:43:30.520851 29226 net.cpp:454] enet2_7_branch2a <- enet2_6_relu2_6_0_split_0
I0110 14:43:30.520862 29226 net.cpp:411] enet2_7_branch2a -> enet2_7_branch2a
I0110 14:43:30.524613 29226 net.cpp:150] Setting up enet2_7_branch2a
I0110 14:43:30.524631 29226 net.cpp:157] Top shape: 4 32 47 155 (932480)
I0110 14:43:30.524639 29226 net.cpp:165] Memory required for data: 2879498272
I0110 14:43:30.524649 29226 layer_factory.hpp:77] Creating layer bn2_7_branch2a
I0110 14:43:30.524664 29226 net.cpp:106] Creating Layer bn2_7_branch2a
I0110 14:43:30.524672 29226 net.cpp:454] bn2_7_branch2a <- enet2_7_branch2a
I0110 14:43:30.524687 29226 net.cpp:397] bn2_7_branch2a -> enet2_7_branch2a (in-place)
I0110 14:43:30.525231 29226 net.cpp:150] Setting up bn2_7_branch2a
I0110 14:43:30.525246 29226 net.cpp:157] Top shape: 4 32 47 155 (932480)
I0110 14:43:30.525254 29226 net.cpp:165] Memory required for data: 2883228192
I0110 14:43:30.525264 29226 layer_factory.hpp:77] Creating layer relu2_7_branch2a
I0110 14:43:30.525275 29226 net.cpp:106] Creating Layer relu2_7_branch2a
I0110 14:43:30.525282 29226 net.cpp:454] relu2_7_branch2a <- enet2_7_branch2a
I0110 14:43:30.525291 29226 net.cpp:397] relu2_7_branch2a -> enet2_7_branch2a (in-place)
I0110 14:43:30.526621 29226 net.cpp:150] Setting up relu2_7_branch2a
I0110 14:43:30.526638 29226 net.cpp:157] Top shape: 4 32 47 155 (932480)
I0110 14:43:30.526645 29226 net.cpp:165] Memory required for data: 2886958112
I0110 14:43:30.526655 29226 layer_factory.hpp:77] Creating layer enet2_7_branch2b1
I0110 14:43:30.526674 29226 net.cpp:106] Creating Layer enet2_7_branch2b1
I0110 14:43:30.526682 29226 net.cpp:454] enet2_7_branch2b1 <- enet2_7_branch2a
I0110 14:43:30.526695 29226 net.cpp:411] enet2_7_branch2b1 -> enet2_7_branch2b1
I0110 14:43:30.531666 29226 net.cpp:150] Setting up enet2_7_branch2b1
I0110 14:43:30.531702 29226 net.cpp:157] Top shape: 4 32 47 155 (932480)
I0110 14:43:30.531710 29226 net.cpp:165] Memory required for data: 2890688032
I0110 14:43:30.531724 29226 layer_factory.hpp:77] Creating layer enet2_7_branch2b
I0110 14:43:30.531767 29226 net.cpp:106] Creating Layer enet2_7_branch2b
I0110 14:43:30.531792 29226 net.cpp:454] enet2_7_branch2b <- enet2_7_branch2b1
I0110 14:43:30.531811 29226 net.cpp:411] enet2_7_branch2b -> enet2_7_branch2b
I0110 14:43:30.535660 29226 net.cpp:150] Setting up enet2_7_branch2b
I0110 14:43:30.535679 29226 net.cpp:157] Top shape: 4 32 47 155 (932480)
I0110 14:43:30.535686 29226 net.cpp:165] Memory required for data: 2894417952
I0110 14:43:30.535698 29226 layer_factory.hpp:77] Creating layer bn2_7_branch2b
I0110 14:43:30.535715 29226 net.cpp:106] Creating Layer bn2_7_branch2b
I0110 14:43:30.535724 29226 net.cpp:454] bn2_7_branch2b <- enet2_7_branch2b
I0110 14:43:30.535737 29226 net.cpp:397] bn2_7_branch2b -> enet2_7_branch2b (in-place)
I0110 14:43:30.536308 29226 net.cpp:150] Setting up bn2_7_branch2b
I0110 14:43:30.536322 29226 net.cpp:157] Top shape: 4 32 47 155 (932480)
I0110 14:43:30.536329 29226 net.cpp:165] Memory required for data: 2898147872
I0110 14:43:30.536339 29226 layer_factory.hpp:77] Creating layer relu2_7_branch2b
I0110 14:43:30.536351 29226 net.cpp:106] Creating Layer relu2_7_branch2b
I0110 14:43:30.536358 29226 net.cpp:454] relu2_7_branch2b <- enet2_7_branch2b
I0110 14:43:30.536367 29226 net.cpp:397] relu2_7_branch2b -> enet2_7_branch2b (in-place)
I0110 14:43:30.537734 29226 net.cpp:150] Setting up relu2_7_branch2b
I0110 14:43:30.537751 29226 net.cpp:157] Top shape: 4 32 47 155 (932480)
I0110 14:43:30.537758 29226 net.cpp:165] Memory required for data: 2901877792
I0110 14:43:30.537768 29226 layer_factory.hpp:77] Creating layer enet2_7_branch2c
I0110 14:43:30.537786 29226 net.cpp:106] Creating Layer enet2_7_branch2c
I0110 14:43:30.537796 29226 net.cpp:454] enet2_7_branch2c <- enet2_7_branch2b
I0110 14:43:30.537807 29226 net.cpp:411] enet2_7_branch2c -> enet2_7_branch2c
I0110 14:43:30.541607 29226 net.cpp:150] Setting up enet2_7_branch2c
I0110 14:43:30.541626 29226 net.cpp:157] Top shape: 4 128 47 155 (3729920)
I0110 14:43:30.541635 29226 net.cpp:165] Memory required for data: 2916797472
I0110 14:43:30.541643 29226 layer_factory.hpp:77] Creating layer bn2_7_branch2c
I0110 14:43:30.541658 29226 net.cpp:106] Creating Layer bn2_7_branch2c
I0110 14:43:30.541667 29226 net.cpp:454] bn2_7_branch2c <- enet2_7_branch2c
I0110 14:43:30.541678 29226 net.cpp:397] bn2_7_branch2c -> enet2_7_branch2c (in-place)
I0110 14:43:30.542240 29226 net.cpp:150] Setting up bn2_7_branch2c
I0110 14:43:30.542254 29226 net.cpp:157] Top shape: 4 128 47 155 (3729920)
I0110 14:43:30.542261 29226 net.cpp:165] Memory required for data: 2931717152
I0110 14:43:30.542273 29226 layer_factory.hpp:77] Creating layer dropout2_7_branch2c
I0110 14:43:30.542284 29226 net.cpp:106] Creating Layer dropout2_7_branch2c
I0110 14:43:30.542291 29226 net.cpp:454] dropout2_7_branch2c <- enet2_7_branch2c
I0110 14:43:30.542301 29226 net.cpp:397] dropout2_7_branch2c -> enet2_7_branch2c (in-place)
I0110 14:43:30.542366 29226 net.cpp:150] Setting up dropout2_7_branch2c
I0110 14:43:30.542379 29226 net.cpp:157] Top shape: 4 128 47 155 (3729920)
I0110 14:43:30.542385 29226 net.cpp:165] Memory required for data: 2946636832
I0110 14:43:30.542392 29226 layer_factory.hpp:77] Creating layer enet2_7
I0110 14:43:30.542402 29226 net.cpp:106] Creating Layer enet2_7
I0110 14:43:30.542413 29226 net.cpp:454] enet2_7 <- enet2_6_relu2_6_0_split_1
I0110 14:43:30.542423 29226 net.cpp:454] enet2_7 <- enet2_7_branch2c
I0110 14:43:30.542433 29226 net.cpp:411] enet2_7 -> enet2_7
I0110 14:43:30.542491 29226 net.cpp:150] Setting up enet2_7
I0110 14:43:30.542505 29226 net.cpp:157] Top shape: 4 128 47 155 (3729920)
I0110 14:43:30.542511 29226 net.cpp:165] Memory required for data: 2961556512
I0110 14:43:30.542517 29226 layer_factory.hpp:77] Creating layer relu2_7
I0110 14:43:30.542529 29226 net.cpp:106] Creating Layer relu2_7
I0110 14:43:30.542537 29226 net.cpp:454] relu2_7 <- enet2_7
I0110 14:43:30.542548 29226 net.cpp:397] relu2_7 -> enet2_7 (in-place)
I0110 14:43:30.546577 29226 net.cpp:150] Setting up relu2_7
I0110 14:43:30.546596 29226 net.cpp:157] Top shape: 4 128 47 155 (3729920)
I0110 14:43:30.546610 29226 net.cpp:165] Memory required for data: 2976476192
I0110 14:43:30.546629 29226 layer_factory.hpp:77] Creating layer enet2_7_relu2_7_0_split
I0110 14:43:30.546644 29226 net.cpp:106] Creating Layer enet2_7_relu2_7_0_split
I0110 14:43:30.546653 29226 net.cpp:454] enet2_7_relu2_7_0_split <- enet2_7
I0110 14:43:30.546663 29226 net.cpp:411] enet2_7_relu2_7_0_split -> enet2_7_relu2_7_0_split_0
I0110 14:43:30.546675 29226 net.cpp:411] enet2_7_relu2_7_0_split -> enet2_7_relu2_7_0_split_1
I0110 14:43:30.546775 29226 net.cpp:150] Setting up enet2_7_relu2_7_0_split
I0110 14:43:30.546789 29226 net.cpp:157] Top shape: 4 128 47 155 (3729920)
I0110 14:43:30.546797 29226 net.cpp:157] Top shape: 4 128 47 155 (3729920)
I0110 14:43:30.546803 29226 net.cpp:165] Memory required for data: 3006315552
I0110 14:43:30.546810 29226 layer_factory.hpp:77] Creating layer enet2_8_branch2a
I0110 14:43:30.546826 29226 net.cpp:106] Creating Layer enet2_8_branch2a
I0110 14:43:30.546835 29226 net.cpp:454] enet2_8_branch2a <- enet2_7_relu2_7_0_split_0
I0110 14:43:30.546846 29226 net.cpp:411] enet2_8_branch2a -> enet2_8_branch2a
I0110 14:43:30.550721 29226 net.cpp:150] Setting up enet2_8_branch2a
I0110 14:43:30.550746 29226 net.cpp:157] Top shape: 4 32 47 155 (932480)
I0110 14:43:30.550755 29226 net.cpp:165] Memory required for data: 3010045472
I0110 14:43:30.550765 29226 layer_factory.hpp:77] Creating layer bn2_8_branch2a
I0110 14:43:30.550779 29226 net.cpp:106] Creating Layer bn2_8_branch2a
I0110 14:43:30.550788 29226 net.cpp:454] bn2_8_branch2a <- enet2_8_branch2a
I0110 14:43:30.550802 29226 net.cpp:397] bn2_8_branch2a -> enet2_8_branch2a (in-place)
I0110 14:43:30.551407 29226 net.cpp:150] Setting up bn2_8_branch2a
I0110 14:43:30.551422 29226 net.cpp:157] Top shape: 4 32 47 155 (932480)
I0110 14:43:30.551429 29226 net.cpp:165] Memory required for data: 3013775392
I0110 14:43:30.551440 29226 layer_factory.hpp:77] Creating layer relu2_8_branch2a
I0110 14:43:30.551450 29226 net.cpp:106] Creating Layer relu2_8_branch2a
I0110 14:43:30.551458 29226 net.cpp:454] relu2_8_branch2a <- enet2_8_branch2a
I0110 14:43:30.551467 29226 net.cpp:397] relu2_8_branch2a -> enet2_8_branch2a (in-place)
I0110 14:43:30.552953 29226 net.cpp:150] Setting up relu2_8_branch2a
I0110 14:43:30.552976 29226 net.cpp:157] Top shape: 4 32 47 155 (932480)
I0110 14:43:30.552984 29226 net.cpp:165] Memory required for data: 3017505312
I0110 14:43:30.552994 29226 layer_factory.hpp:77] Creating layer enet2_8_branch2b
I0110 14:43:30.553017 29226 net.cpp:106] Creating Layer enet2_8_branch2b
I0110 14:43:30.553026 29226 net.cpp:454] enet2_8_branch2b <- enet2_8_branch2a
I0110 14:43:30.553038 29226 net.cpp:411] enet2_8_branch2b -> enet2_8_branch2b
I0110 14:43:30.554939 29226 net.cpp:150] Setting up enet2_8_branch2b
I0110 14:43:30.554958 29226 net.cpp:157] Top shape: 4 32 47 155 (932480)
I0110 14:43:30.554965 29226 net.cpp:165] Memory required for data: 3021235232
I0110 14:43:30.554977 29226 layer_factory.hpp:77] Creating layer bn2_8_branch2b
I0110 14:43:30.554993 29226 net.cpp:106] Creating Layer bn2_8_branch2b
I0110 14:43:30.555001 29226 net.cpp:454] bn2_8_branch2b <- enet2_8_branch2b
I0110 14:43:30.555018 29226 net.cpp:397] bn2_8_branch2b -> enet2_8_branch2b (in-place)
I0110 14:43:30.555584 29226 net.cpp:150] Setting up bn2_8_branch2b
I0110 14:43:30.555598 29226 net.cpp:157] Top shape: 4 32 47 155 (932480)
I0110 14:43:30.555605 29226 net.cpp:165] Memory required for data: 3024965152
I0110 14:43:30.555616 29226 layer_factory.hpp:77] Creating layer relu2_8_branch2b
I0110 14:43:30.555627 29226 net.cpp:106] Creating Layer relu2_8_branch2b
I0110 14:43:30.555634 29226 net.cpp:454] relu2_8_branch2b <- enet2_8_branch2b
I0110 14:43:30.555646 29226 net.cpp:397] relu2_8_branch2b -> enet2_8_branch2b (in-place)
I0110 14:43:30.557073 29226 net.cpp:150] Setting up relu2_8_branch2b
I0110 14:43:30.557090 29226 net.cpp:157] Top shape: 4 32 47 155 (932480)
I0110 14:43:30.557096 29226 net.cpp:165] Memory required for data: 3028695072
I0110 14:43:30.557106 29226 layer_factory.hpp:77] Creating layer enet2_8_branch2c
I0110 14:43:30.557140 29226 net.cpp:106] Creating Layer enet2_8_branch2c
I0110 14:43:30.557163 29226 net.cpp:454] enet2_8_branch2c <- enet2_8_branch2b
I0110 14:43:30.557174 29226 net.cpp:411] enet2_8_branch2c -> enet2_8_branch2c
I0110 14:43:30.562167 29226 net.cpp:150] Setting up enet2_8_branch2c
I0110 14:43:30.562189 29226 net.cpp:157] Top shape: 4 128 47 155 (3729920)
I0110 14:43:30.562197 29226 net.cpp:165] Memory required for data: 3043614752
I0110 14:43:30.562208 29226 layer_factory.hpp:77] Creating layer bn2_8_branch2c
I0110 14:43:30.562224 29226 net.cpp:106] Creating Layer bn2_8_branch2c
I0110 14:43:30.562235 29226 net.cpp:454] bn2_8_branch2c <- enet2_8_branch2c
I0110 14:43:30.562247 29226 net.cpp:397] bn2_8_branch2c -> enet2_8_branch2c (in-place)
I0110 14:43:30.562824 29226 net.cpp:150] Setting up bn2_8_branch2c
I0110 14:43:30.562839 29226 net.cpp:157] Top shape: 4 128 47 155 (3729920)
I0110 14:43:30.562845 29226 net.cpp:165] Memory required for data: 3058534432
I0110 14:43:30.562856 29226 layer_factory.hpp:77] Creating layer dropout2_8_branch2c
I0110 14:43:30.562867 29226 net.cpp:106] Creating Layer dropout2_8_branch2c
I0110 14:43:30.562875 29226 net.cpp:454] dropout2_8_branch2c <- enet2_8_branch2c
I0110 14:43:30.562885 29226 net.cpp:397] dropout2_8_branch2c -> enet2_8_branch2c (in-place)
I0110 14:43:30.562945 29226 net.cpp:150] Setting up dropout2_8_branch2c
I0110 14:43:30.562959 29226 net.cpp:157] Top shape: 4 128 47 155 (3729920)
I0110 14:43:30.562965 29226 net.cpp:165] Memory required for data: 3073454112
I0110 14:43:30.562973 29226 layer_factory.hpp:77] Creating layer enet2_8
I0110 14:43:30.562985 29226 net.cpp:106] Creating Layer enet2_8
I0110 14:43:30.562994 29226 net.cpp:454] enet2_8 <- enet2_7_relu2_7_0_split_1
I0110 14:43:30.563002 29226 net.cpp:454] enet2_8 <- enet2_8_branch2c
I0110 14:43:30.563017 29226 net.cpp:411] enet2_8 -> enet2_8
I0110 14:43:30.563084 29226 net.cpp:150] Setting up enet2_8
I0110 14:43:30.563098 29226 net.cpp:157] Top shape: 4 128 47 155 (3729920)
I0110 14:43:30.563105 29226 net.cpp:165] Memory required for data: 3088373792
I0110 14:43:30.563112 29226 layer_factory.hpp:77] Creating layer relu2_8
I0110 14:43:30.563123 29226 net.cpp:106] Creating Layer relu2_8
I0110 14:43:30.563132 29226 net.cpp:454] relu2_8 <- enet2_8
I0110 14:43:30.563140 29226 net.cpp:397] relu2_8 -> enet2_8 (in-place)
I0110 14:43:30.570161 29226 net.cpp:150] Setting up relu2_8
I0110 14:43:30.570179 29226 net.cpp:157] Top shape: 4 128 47 155 (3729920)
I0110 14:43:30.570186 29226 net.cpp:165] Memory required for data: 3103293472
I0110 14:43:30.570196 29226 layer_factory.hpp:77] Creating layer enet2_8_relu2_8_0_split
I0110 14:43:30.570207 29226 net.cpp:106] Creating Layer enet2_8_relu2_8_0_split
I0110 14:43:30.570214 29226 net.cpp:454] enet2_8_relu2_8_0_split <- enet2_8
I0110 14:43:30.570228 29226 net.cpp:411] enet2_8_relu2_8_0_split -> enet2_8_relu2_8_0_split_0
I0110 14:43:30.570240 29226 net.cpp:411] enet2_8_relu2_8_0_split -> enet2_8_relu2_8_0_split_1
I0110 14:43:30.570340 29226 net.cpp:150] Setting up enet2_8_relu2_8_0_split
I0110 14:43:30.570356 29226 net.cpp:157] Top shape: 4 128 47 155 (3729920)
I0110 14:43:30.570365 29226 net.cpp:157] Top shape: 4 128 47 155 (3729920)
I0110 14:43:30.570371 29226 net.cpp:165] Memory required for data: 3133132832
I0110 14:43:30.570377 29226 layer_factory.hpp:77] Creating layer enet3_1_branch2a
I0110 14:43:30.570394 29226 net.cpp:106] Creating Layer enet3_1_branch2a
I0110 14:43:30.570402 29226 net.cpp:454] enet3_1_branch2a <- enet2_8_relu2_8_0_split_0
I0110 14:43:30.570413 29226 net.cpp:411] enet3_1_branch2a -> enet3_1_branch2a
I0110 14:43:30.575426 29226 net.cpp:150] Setting up enet3_1_branch2a
I0110 14:43:30.575445 29226 net.cpp:157] Top shape: 4 32 47 155 (932480)
I0110 14:43:30.575453 29226 net.cpp:165] Memory required for data: 3136862752
I0110 14:43:30.575462 29226 layer_factory.hpp:77] Creating layer bn3_1_branch2a
I0110 14:43:30.575479 29226 net.cpp:106] Creating Layer bn3_1_branch2a
I0110 14:43:30.575489 29226 net.cpp:454] bn3_1_branch2a <- enet3_1_branch2a
I0110 14:43:30.575511 29226 net.cpp:397] bn3_1_branch2a -> enet3_1_branch2a (in-place)
I0110 14:43:30.576131 29226 net.cpp:150] Setting up bn3_1_branch2a
I0110 14:43:30.576146 29226 net.cpp:157] Top shape: 4 32 47 155 (932480)
I0110 14:43:30.576153 29226 net.cpp:165] Memory required for data: 3140592672
I0110 14:43:30.576164 29226 layer_factory.hpp:77] Creating layer relu3_1_branch2a
I0110 14:43:30.576174 29226 net.cpp:106] Creating Layer relu3_1_branch2a
I0110 14:43:30.576180 29226 net.cpp:454] relu3_1_branch2a <- enet3_1_branch2a
I0110 14:43:30.576190 29226 net.cpp:397] relu3_1_branch2a -> enet3_1_branch2a (in-place)
I0110 14:43:30.577527 29226 net.cpp:150] Setting up relu3_1_branch2a
I0110 14:43:30.577545 29226 net.cpp:157] Top shape: 4 32 47 155 (932480)
I0110 14:43:30.577553 29226 net.cpp:165] Memory required for data: 3144322592
I0110 14:43:30.577561 29226 layer_factory.hpp:77] Creating layer enet3_1_branch2b
I0110 14:43:30.577579 29226 net.cpp:106] Creating Layer enet3_1_branch2b
I0110 14:43:30.577587 29226 net.cpp:454] enet3_1_branch2b <- enet3_1_branch2a
I0110 14:43:30.577601 29226 net.cpp:411] enet3_1_branch2b -> enet3_1_branch2b
I0110 14:43:30.581626 29226 net.cpp:150] Setting up enet3_1_branch2b
I0110 14:43:30.581645 29226 net.cpp:157] Top shape: 4 32 47 155 (932480)
I0110 14:43:30.581652 29226 net.cpp:165] Memory required for data: 3148052512
I0110 14:43:30.581663 29226 layer_factory.hpp:77] Creating layer bn3_1_branch2b
I0110 14:43:30.581678 29226 net.cpp:106] Creating Layer bn3_1_branch2b
I0110 14:43:30.581686 29226 net.cpp:454] bn3_1_branch2b <- enet3_1_branch2b
I0110 14:43:30.581701 29226 net.cpp:397] bn3_1_branch2b -> enet3_1_branch2b (in-place)
I0110 14:43:30.582322 29226 net.cpp:150] Setting up bn3_1_branch2b
I0110 14:43:30.582337 29226 net.cpp:157] Top shape: 4 32 47 155 (932480)
I0110 14:43:30.582345 29226 net.cpp:165] Memory required for data: 3151782432
I0110 14:43:30.582355 29226 layer_factory.hpp:77] Creating layer relu3_1_branch2b
I0110 14:43:30.582368 29226 net.cpp:106] Creating Layer relu3_1_branch2b
I0110 14:43:30.582376 29226 net.cpp:454] relu3_1_branch2b <- enet3_1_branch2b
I0110 14:43:30.582386 29226 net.cpp:397] relu3_1_branch2b -> enet3_1_branch2b (in-place)
I0110 14:43:30.583772 29226 net.cpp:150] Setting up relu3_1_branch2b
I0110 14:43:30.583789 29226 net.cpp:157] Top shape: 4 32 47 155 (932480)
I0110 14:43:30.583796 29226 net.cpp:165] Memory required for data: 3155512352
I0110 14:43:30.583806 29226 layer_factory.hpp:77] Creating layer enet3_1_branch2c
I0110 14:43:30.583823 29226 net.cpp:106] Creating Layer enet3_1_branch2c
I0110 14:43:30.583832 29226 net.cpp:454] enet3_1_branch2c <- enet3_1_branch2b
I0110 14:43:30.583845 29226 net.cpp:411] enet3_1_branch2c -> enet3_1_branch2c
I0110 14:43:30.587849 29226 net.cpp:150] Setting up enet3_1_branch2c
I0110 14:43:30.587874 29226 net.cpp:157] Top shape: 4 128 47 155 (3729920)
I0110 14:43:30.587882 29226 net.cpp:165] Memory required for data: 3170432032
I0110 14:43:30.587893 29226 layer_factory.hpp:77] Creating layer bn3_1_branch2c
I0110 14:43:30.587906 29226 net.cpp:106] Creating Layer bn3_1_branch2c
I0110 14:43:30.587914 29226 net.cpp:454] bn3_1_branch2c <- enet3_1_branch2c
I0110 14:43:30.587929 29226 net.cpp:397] bn3_1_branch2c -> enet3_1_branch2c (in-place)
I0110 14:43:30.588558 29226 net.cpp:150] Setting up bn3_1_branch2c
I0110 14:43:30.588573 29226 net.cpp:157] Top shape: 4 128 47 155 (3729920)
I0110 14:43:30.588579 29226 net.cpp:165] Memory required for data: 3185351712
I0110 14:43:30.588590 29226 layer_factory.hpp:77] Creating layer dropout3_1_branch2c
I0110 14:43:30.588604 29226 net.cpp:106] Creating Layer dropout3_1_branch2c
I0110 14:43:30.588613 29226 net.cpp:454] dropout3_1_branch2c <- enet3_1_branch2c
I0110 14:43:30.588623 29226 net.cpp:397] dropout3_1_branch2c -> enet3_1_branch2c (in-place)
I0110 14:43:30.588687 29226 net.cpp:150] Setting up dropout3_1_branch2c
I0110 14:43:30.588701 29226 net.cpp:157] Top shape: 4 128 47 155 (3729920)
I0110 14:43:30.588707 29226 net.cpp:165] Memory required for data: 3200271392
I0110 14:43:30.588727 29226 layer_factory.hpp:77] Creating layer enet3_1
I0110 14:43:30.588749 29226 net.cpp:106] Creating Layer enet3_1
I0110 14:43:30.588757 29226 net.cpp:454] enet3_1 <- enet2_8_relu2_8_0_split_1
I0110 14:43:30.588767 29226 net.cpp:454] enet3_1 <- enet3_1_branch2c
I0110 14:43:30.588779 29226 net.cpp:411] enet3_1 -> enet3_1
I0110 14:43:30.588843 29226 net.cpp:150] Setting up enet3_1
I0110 14:43:30.588861 29226 net.cpp:157] Top shape: 4 128 47 155 (3729920)
I0110 14:43:30.588868 29226 net.cpp:165] Memory required for data: 3215191072
I0110 14:43:30.588874 29226 layer_factory.hpp:77] Creating layer relu3_1
I0110 14:43:30.588884 29226 net.cpp:106] Creating Layer relu3_1
I0110 14:43:30.588891 29226 net.cpp:454] relu3_1 <- enet3_1
I0110 14:43:30.588901 29226 net.cpp:397] relu3_1 -> enet3_1 (in-place)
I0110 14:43:30.593513 29226 net.cpp:150] Setting up relu3_1
I0110 14:43:30.593550 29226 net.cpp:157] Top shape: 4 128 47 155 (3729920)
I0110 14:43:30.593559 29226 net.cpp:165] Memory required for data: 3230110752
I0110 14:43:30.593570 29226 layer_factory.hpp:77] Creating layer enet3_1_relu3_1_0_split
I0110 14:43:30.593585 29226 net.cpp:106] Creating Layer enet3_1_relu3_1_0_split
I0110 14:43:30.593593 29226 net.cpp:454] enet3_1_relu3_1_0_split <- enet3_1
I0110 14:43:30.593610 29226 net.cpp:411] enet3_1_relu3_1_0_split -> enet3_1_relu3_1_0_split_0
I0110 14:43:30.593624 29226 net.cpp:411] enet3_1_relu3_1_0_split -> enet3_1_relu3_1_0_split_1
I0110 14:43:30.593739 29226 net.cpp:150] Setting up enet3_1_relu3_1_0_split
I0110 14:43:30.593752 29226 net.cpp:157] Top shape: 4 128 47 155 (3729920)
I0110 14:43:30.593760 29226 net.cpp:157] Top shape: 4 128 47 155 (3729920)
I0110 14:43:30.593766 29226 net.cpp:165] Memory required for data: 3259950112
I0110 14:43:30.593773 29226 layer_factory.hpp:77] Creating layer enet3_2_branch2a
I0110 14:43:30.593794 29226 net.cpp:106] Creating Layer enet3_2_branch2a
I0110 14:43:30.593802 29226 net.cpp:454] enet3_2_branch2a <- enet3_1_relu3_1_0_split_0
I0110 14:43:30.593814 29226 net.cpp:411] enet3_2_branch2a -> enet3_2_branch2a
I0110 14:43:30.598407 29226 net.cpp:150] Setting up enet3_2_branch2a
I0110 14:43:30.598426 29226 net.cpp:157] Top shape: 4 32 47 155 (932480)
I0110 14:43:30.598433 29226 net.cpp:165] Memory required for data: 3263680032
I0110 14:43:30.598443 29226 layer_factory.hpp:77] Creating layer bn3_2_branch2a
I0110 14:43:30.598462 29226 net.cpp:106] Creating Layer bn3_2_branch2a
I0110 14:43:30.598471 29226 net.cpp:454] bn3_2_branch2a <- enet3_2_branch2a
I0110 14:43:30.598482 29226 net.cpp:397] bn3_2_branch2a -> enet3_2_branch2a (in-place)
I0110 14:43:30.599143 29226 net.cpp:150] Setting up bn3_2_branch2a
I0110 14:43:30.599159 29226 net.cpp:157] Top shape: 4 32 47 155 (932480)
I0110 14:43:30.599165 29226 net.cpp:165] Memory required for data: 3267409952
I0110 14:43:30.599176 29226 layer_factory.hpp:77] Creating layer relu3_2_branch2a
I0110 14:43:30.599187 29226 net.cpp:106] Creating Layer relu3_2_branch2a
I0110 14:43:30.599195 29226 net.cpp:454] relu3_2_branch2a <- enet3_2_branch2a
I0110 14:43:30.599206 29226 net.cpp:397] relu3_2_branch2a -> enet3_2_branch2a (in-place)
I0110 14:43:30.600653 29226 net.cpp:150] Setting up relu3_2_branch2a
I0110 14:43:30.600670 29226 net.cpp:157] Top shape: 4 32 47 155 (932480)
I0110 14:43:30.600677 29226 net.cpp:165] Memory required for data: 3271139872
I0110 14:43:30.600687 29226 layer_factory.hpp:77] Creating layer enet3_2_branch2b
I0110 14:43:30.600708 29226 net.cpp:106] Creating Layer enet3_2_branch2b
I0110 14:43:30.600716 29226 net.cpp:454] enet3_2_branch2b <- enet3_2_branch2a
I0110 14:43:30.600728 29226 net.cpp:411] enet3_2_branch2b -> enet3_2_branch2b
I0110 14:43:30.601660 29226 net.cpp:150] Setting up enet3_2_branch2b
I0110 14:43:30.601675 29226 net.cpp:157] Top shape: 4 32 47 155 (932480)
I0110 14:43:30.601681 29226 net.cpp:165] Memory required for data: 3274869792
I0110 14:43:30.601691 29226 layer_factory.hpp:77] Creating layer bn3_2_branch2b
I0110 14:43:30.601706 29226 net.cpp:106] Creating Layer bn3_2_branch2b
I0110 14:43:30.601714 29226 net.cpp:454] bn3_2_branch2b <- enet3_2_branch2b
I0110 14:43:30.601752 29226 net.cpp:397] bn3_2_branch2b -> enet3_2_branch2b (in-place)
I0110 14:43:30.602393 29226 net.cpp:150] Setting up bn3_2_branch2b
I0110 14:43:30.602407 29226 net.cpp:157] Top shape: 4 32 47 155 (932480)
I0110 14:43:30.602414 29226 net.cpp:165] Memory required for data: 3278599712
I0110 14:43:30.602424 29226 layer_factory.hpp:77] Creating layer relu3_2_branch2b
I0110 14:43:30.602437 29226 net.cpp:106] Creating Layer relu3_2_branch2b
I0110 14:43:30.602444 29226 net.cpp:454] relu3_2_branch2b <- enet3_2_branch2b
I0110 14:43:30.602453 29226 net.cpp:397] relu3_2_branch2b -> enet3_2_branch2b (in-place)
I0110 14:43:30.603749 29226 net.cpp:150] Setting up relu3_2_branch2b
I0110 14:43:30.603765 29226 net.cpp:157] Top shape: 4 32 47 155 (932480)
I0110 14:43:30.603772 29226 net.cpp:165] Memory required for data: 3282329632
I0110 14:43:30.603781 29226 layer_factory.hpp:77] Creating layer enet3_2_branch2c
I0110 14:43:30.603797 29226 net.cpp:106] Creating Layer enet3_2_branch2c
I0110 14:43:30.603806 29226 net.cpp:454] enet3_2_branch2c <- enet3_2_branch2b
I0110 14:43:30.603819 29226 net.cpp:411] enet3_2_branch2c -> enet3_2_branch2c
I0110 14:43:30.607874 29226 net.cpp:150] Setting up enet3_2_branch2c
I0110 14:43:30.607894 29226 net.cpp:157] Top shape: 4 128 47 155 (3729920)
I0110 14:43:30.607902 29226 net.cpp:165] Memory required for data: 3297249312
I0110 14:43:30.607911 29226 layer_factory.hpp:77] Creating layer bn3_2_branch2c
I0110 14:43:30.607926 29226 net.cpp:106] Creating Layer bn3_2_branch2c
I0110 14:43:30.607935 29226 net.cpp:454] bn3_2_branch2c <- enet3_2_branch2c
I0110 14:43:30.607949 29226 net.cpp:397] bn3_2_branch2c -> enet3_2_branch2c (in-place)
I0110 14:43:30.608582 29226 net.cpp:150] Setting up bn3_2_branch2c
I0110 14:43:30.608597 29226 net.cpp:157] Top shape: 4 128 47 155 (3729920)
I0110 14:43:30.608603 29226 net.cpp:165] Memory required for data: 3312168992
I0110 14:43:30.608614 29226 layer_factory.hpp:77] Creating layer dropout3_2_branch2c
I0110 14:43:30.608628 29226 net.cpp:106] Creating Layer dropout3_2_branch2c
I0110 14:43:30.608635 29226 net.cpp:454] dropout3_2_branch2c <- enet3_2_branch2c
I0110 14:43:30.608645 29226 net.cpp:397] dropout3_2_branch2c -> enet3_2_branch2c (in-place)
I0110 14:43:30.608711 29226 net.cpp:150] Setting up dropout3_2_branch2c
I0110 14:43:30.608724 29226 net.cpp:157] Top shape: 4 128 47 155 (3729920)
I0110 14:43:30.608731 29226 net.cpp:165] Memory required for data: 3327088672
I0110 14:43:30.608737 29226 layer_factory.hpp:77] Creating layer enet3_2
I0110 14:43:30.608754 29226 net.cpp:106] Creating Layer enet3_2
I0110 14:43:30.608762 29226 net.cpp:454] enet3_2 <- enet3_1_relu3_1_0_split_1
I0110 14:43:30.608772 29226 net.cpp:454] enet3_2 <- enet3_2_branch2c
I0110 14:43:30.608780 29226 net.cpp:411] enet3_2 -> enet3_2
I0110 14:43:30.608849 29226 net.cpp:150] Setting up enet3_2
I0110 14:43:30.608862 29226 net.cpp:157] Top shape: 4 128 47 155 (3729920)
I0110 14:43:30.608868 29226 net.cpp:165] Memory required for data: 3342008352
I0110 14:43:30.608875 29226 layer_factory.hpp:77] Creating layer relu3_2
I0110 14:43:30.608885 29226 net.cpp:106] Creating Layer relu3_2
I0110 14:43:30.608891 29226 net.cpp:454] relu3_2 <- enet3_2
I0110 14:43:30.608903 29226 net.cpp:397] relu3_2 -> enet3_2 (in-place)
I0110 14:43:30.613070 29226 net.cpp:150] Setting up relu3_2
I0110 14:43:30.613087 29226 net.cpp:157] Top shape: 4 128 47 155 (3729920)
I0110 14:43:30.613095 29226 net.cpp:165] Memory required for data: 3356928032
I0110 14:43:30.613104 29226 layer_factory.hpp:77] Creating layer enet3_2_relu3_2_0_split
I0110 14:43:30.613117 29226 net.cpp:106] Creating Layer enet3_2_relu3_2_0_split
I0110 14:43:30.613126 29226 net.cpp:454] enet3_2_relu3_2_0_split <- enet3_2
I0110 14:43:30.613135 29226 net.cpp:411] enet3_2_relu3_2_0_split -> enet3_2_relu3_2_0_split_0
I0110 14:43:30.613148 29226 net.cpp:411] enet3_2_relu3_2_0_split -> enet3_2_relu3_2_0_split_1
I0110 14:43:30.613260 29226 net.cpp:150] Setting up enet3_2_relu3_2_0_split
I0110 14:43:30.613275 29226 net.cpp:157] Top shape: 4 128 47 155 (3729920)
I0110 14:43:30.613297 29226 net.cpp:157] Top shape: 4 128 47 155 (3729920)
I0110 14:43:30.613304 29226 net.cpp:165] Memory required for data: 3386767392
I0110 14:43:30.613310 29226 layer_factory.hpp:77] Creating layer enet3_3_branch2a
I0110 14:43:30.613324 29226 net.cpp:106] Creating Layer enet3_3_branch2a
I0110 14:43:30.613332 29226 net.cpp:454] enet3_3_branch2a <- enet3_2_relu3_2_0_split_0
I0110 14:43:30.613346 29226 net.cpp:411] enet3_3_branch2a -> enet3_3_branch2a
I0110 14:43:30.617418 29226 net.cpp:150] Setting up enet3_3_branch2a
I0110 14:43:30.617439 29226 net.cpp:157] Top shape: 4 32 47 155 (932480)
I0110 14:43:30.617450 29226 net.cpp:165] Memory required for data: 3390497312
I0110 14:43:30.617460 29226 layer_factory.hpp:77] Creating layer bn3_3_branch2a
I0110 14:43:30.617475 29226 net.cpp:106] Creating Layer bn3_3_branch2a
I0110 14:43:30.617482 29226 net.cpp:454] bn3_3_branch2a <- enet3_3_branch2a
I0110 14:43:30.617499 29226 net.cpp:397] bn3_3_branch2a -> enet3_3_branch2a (in-place)
I0110 14:43:30.618187 29226 net.cpp:150] Setting up bn3_3_branch2a
I0110 14:43:30.618202 29226 net.cpp:157] Top shape: 4 32 47 155 (932480)
I0110 14:43:30.618209 29226 net.cpp:165] Memory required for data: 3394227232
I0110 14:43:30.618219 29226 layer_factory.hpp:77] Creating layer relu3_3_branch2a
I0110 14:43:30.618233 29226 net.cpp:106] Creating Layer relu3_3_branch2a
I0110 14:43:30.618242 29226 net.cpp:454] relu3_3_branch2a <- enet3_3_branch2a
I0110 14:43:30.618250 29226 net.cpp:397] relu3_3_branch2a -> enet3_3_branch2a (in-place)
I0110 14:43:30.619906 29226 net.cpp:150] Setting up relu3_3_branch2a
I0110 14:43:30.619930 29226 net.cpp:157] Top shape: 4 32 47 155 (932480)
I0110 14:43:30.619938 29226 net.cpp:165] Memory required for data: 3397957152
I0110 14:43:30.619949 29226 layer_factory.hpp:77] Creating layer enet3_3_branch2b1
I0110 14:43:30.619971 29226 net.cpp:106] Creating Layer enet3_3_branch2b1
I0110 14:43:30.619981 29226 net.cpp:454] enet3_3_branch2b1 <- enet3_3_branch2a
I0110 14:43:30.620007 29226 net.cpp:411] enet3_3_branch2b1 -> enet3_3_branch2b1
I0110 14:43:30.623956 29226 net.cpp:150] Setting up enet3_3_branch2b1
I0110 14:43:30.623977 29226 net.cpp:157] Top shape: 4 32 47 155 (932480)
I0110 14:43:30.623986 29226 net.cpp:165] Memory required for data: 3401687072
I0110 14:43:30.623996 29226 layer_factory.hpp:77] Creating layer enet3_3_branch2b
I0110 14:43:30.624016 29226 net.cpp:106] Creating Layer enet3_3_branch2b
I0110 14:43:30.624023 29226 net.cpp:454] enet3_3_branch2b <- enet3_3_branch2b1
I0110 14:43:30.624037 29226 net.cpp:411] enet3_3_branch2b -> enet3_3_branch2b
I0110 14:43:30.628865 29226 net.cpp:150] Setting up enet3_3_branch2b
I0110 14:43:30.628885 29226 net.cpp:157] Top shape: 4 32 47 155 (932480)
I0110 14:43:30.628891 29226 net.cpp:165] Memory required for data: 3405416992
I0110 14:43:30.628902 29226 layer_factory.hpp:77] Creating layer bn3_3_branch2b
I0110 14:43:30.628921 29226 net.cpp:106] Creating Layer bn3_3_branch2b
I0110 14:43:30.628929 29226 net.cpp:454] bn3_3_branch2b <- enet3_3_branch2b
…
I0110 14:43:30.702236 29226 net.cpp:411] enet3_6_relu3_6_0_split -> enet3_6_relu3_6_0_split_1
I0110 14:43:30.702288 29226 net.cpp:150] Setting up enet3_6_relu3_6_0_split
I0110 14:43:30.702301 29226 net.cpp:157] Top shape: 4 128 47 155 (3729920)
I0110 14:43:30.702308 29226 net.cpp:157] Top shape: 4 128 47 155 (3729920)
I0110 14:43:30.702314 29226 net.cpp:165] Memory required for data: 3897766432
I0110 14:43:30.702320 29226 layer_factory.hpp:77] Creating layer enet3_7_branch2a
I0110 14:43:30.702337 29226 net.cpp:106] Creating Layer enet3_7_branch2a
I0110 14:43:30.702347 29226 net.cpp:454] enet3_7_branch2a <- enet3_6_relu3_6_0_split_0
I0110 14:43:30.702358 29226 net.cpp:411] enet3_7_branch2a -> enet3_7_branch2a
I0110 14:43:30.705943 29226 net.cpp:150] Setting up enet3_7_branch2a
I0110 14:43:30.705961 29226 net.cpp:157] Top shape: 4 32 47 155 (932480)
I0110 14:43:30.705970 29226 net.cpp:165] Memory required for data: 3901496352
I0110 14:43:30.705978 29226 layer_factory.hpp:77] Creating layer bn3_7_branch2a
I0110 14:43:30.705993 29226 net.cpp:106] Creating Layer bn3_7_branch2a
I0110 14:43:30.706002 29226 net.cpp:454] bn3_7_branch2a <- enet3_7_branch2a
I0110 14:43:30.706020 29226 net.cpp:397] bn3_7_branch2a -> enet3_7_branch2a (in-place)
I0110 14:43:30.706322 29226 net.cpp:150] Setting up bn3_7_branch2a
I0110 14:43:30.706336 29226 net.cpp:157] Top shape: 4 32 47 155 (932480)
I0110 14:43:30.706343 29226 net.cpp:165] Memory required for data: 3905226272
I0110 14:43:30.706353 29226 layer_factory.hpp:77] Creating layer relu3_7_branch2a
I0110 14:43:30.706363 29226 net.cpp:106] Creating Layer relu3_7_branch2a
I0110 14:43:30.706372 29226 net.cpp:454] relu3_7_branch2a <- enet3_7_branch2a
I0110 14:43:30.706380 29226 net.cpp:397] relu3_7_branch2a -> enet3_7_branch2a (in-place)
I0110 14:43:30.707681 29226 net.cpp:150] Setting up relu3_7_branch2a
I0110 14:43:30.707705 29226 net.cpp:157] Top shape: 4 32 47 155 (932480)
I0110 14:43:30.707720 29226 net.cpp:165] Memory required for data: 3908956192
I0110 14:43:30.707729 29226 layer_factory.hpp:77] Creating layer enet3_7_branch2b1
I0110 14:43:30.707746 29226 net.cpp:106] Creating Layer enet3_7_branch2b1
I0110 14:43:30.707754 29226 net.cpp:454] enet3_7_branch2b1 <- enet3_7_branch2a
I0110 14:43:30.707768 29226 net.cpp:411] enet3_7_branch2b1 -> enet3_7_branch2b1
I0110 14:43:30.711530 29226 net.cpp:150] Setting up enet3_7_branch2b1
I0110 14:43:30.711551 29226 net.cpp:157] Top shape: 4 32 47 155 (932480)
I0110 14:43:30.711560 29226 net.cpp:165] Memory required for data: 3912686112
I0110 14:43:30.711568 29226 layer_factory.hpp:77] Creating layer enet3_7_branch2b
I0110 14:43:30.711586 29226 net.cpp:106] Creating Layer enet3_7_branch2b
I0110 14:43:30.711596 29226 net.cpp:454] enet3_7_branch2b <- enet3_7_branch2b1
I0110 14:43:30.711609 29226 net.cpp:411] enet3_7_branch2b -> enet3_7_branch2b
I0110 14:43:30.715286 29226 net.cpp:150] Setting up enet3_7_branch2b
I0110 14:43:30.715307 29226 net.cpp:157] Top shape: 4 32 47 155 (932480)
I0110 14:43:30.715315 29226 net.cpp:165] Memory required for data: 3916416032
I0110 14:43:30.715327 29226 layer_factory.hpp:77] Creating layer bn3_7_branch2b
I0110 14:43:30.715338 29226 net.cpp:106] Creating Layer bn3_7_branch2b
I0110 14:43:30.715347 29226 net.cpp:454] bn3_7_branch2b <- enet3_7_branch2b
I0110 14:43:30.715360 29226 net.cpp:397] bn3_7_branch2b -> enet3_7_branch2b (in-place)
I0110 14:43:30.715675 29226 net.cpp:150] Setting up bn3_7_branch2b
I0110 14:43:30.715689 29226 net.cpp:157] Top shape: 4 32 47 155 (932480)
I0110 14:43:30.715697 29226 net.cpp:165] Memory required for data: 3920145952
I0110 14:43:30.715706 29226 layer_factory.hpp:77] Creating layer relu3_7_branch2b
I0110 14:43:30.715721 29226 net.cpp:106] Creating Layer relu3_7_branch2b
I0110 14:43:30.715728 29226 net.cpp:454] relu3_7_branch2b <- enet3_7_branch2b
I0110 14:43:30.715739 29226 net.cpp:397] relu3_7_branch2b -> enet3_7_branch2b (in-place)
I0110 14:43:30.717140 29226 net.cpp:150] Setting up relu3_7_branch2b
I0110 14:43:30.717159 29226 net.cpp:157] Top shape: 4 32 47 155 (932480)
I0110 14:43:30.717165 29226 net.cpp:165] Memory required for data: 3923875872
I0110 14:43:30.717175 29226 layer_factory.hpp:77] Creating layer enet3_7_branch2c
I0110 14:43:30.717192 29226 net.cpp:106] Creating Layer enet3_7_branch2c
I0110 14:43:30.717200 29226 net.cpp:454] enet3_7_branch2c <- enet3_7_branch2b
I0110 14:43:30.717214 29226 net.cpp:411] enet3_7_branch2c -> enet3_7_branch2c
I0110 14:43:30.721068 29226 net.cpp:150] Setting up enet3_7_branch2c
I0110 14:43:30.721087 29226 net.cpp:157] Top shape: 4 128 47 155 (3729920)
I0110 14:43:30.721094 29226 net.cpp:165] Memory required for data: 3938795552
I0110 14:43:30.721104 29226 layer_factory.hpp:77] Creating layer bn3_7_branch2c
I0110 14:43:30.721119 29226 net.cpp:106] Creating Layer bn3_7_branch2c
I0110 14:43:30.721128 29226 net.cpp:454] bn3_7_branch2c <- enet3_7_branch2c
I0110 14:43:30.721141 29226 net.cpp:397] bn3_7_branch2c -> enet3_7_branch2c (in-place)
I0110 14:43:30.721448 29226 net.cpp:150] Setting up bn3_7_branch2c
I0110 14:43:30.721462 29226 net.cpp:157] Top shape: 4 128 47 155 (3729920)
I0110 14:43:30.721469 29226 net.cpp:165] Memory required for data: 3953715232
I0110 14:43:30.721480 29226 layer_factory.hpp:77] Creating layer dropout3_7_branch2c
I0110 14:43:30.721491 29226 net.cpp:106] Creating Layer dropout3_7_branch2c
I0110 14:43:30.721498 29226 net.cpp:454] dropout3_7_branch2c <- enet3_7_branch2c
I0110 14:43:30.721508 29226 net.cpp:397] dropout3_7_branch2c -> enet3_7_branch2c (in-place)
I0110 14:43:30.721546 29226 net.cpp:150] Setting up dropout3_7_branch2c
I0110 14:43:30.721559 29226 net.cpp:157] Top shape: 4 128 47 155 (3729920)
I0110 14:43:30.721565 29226 net.cpp:165] Memory required for data: 3968634912
I0110 14:43:30.721571 29226 layer_factory.hpp:77] Creating layer enet3_7
I0110 14:43:30.721585 29226 net.cpp:106] Creating Layer enet3_7
I0110 14:43:30.721592 29226 net.cpp:454] enet3_7 <- enet3_6_relu3_6_0_split_1
I0110 14:43:30.721614 29226 net.cpp:454] enet3_7 <- enet3_7_branch2c
I0110 14:43:30.721627 29226 net.cpp:411] enet3_7 -> enet3_7
I0110 14:43:30.721667 29226 net.cpp:150] Setting up enet3_7
I0110 14:43:30.721678 29226 net.cpp:157] Top shape: 4 128 47 155 (3729920)
I0110 14:43:30.721685 29226 net.cpp:165] Memory required for data: 3983554592
I0110 14:43:30.721691 29226 layer_factory.hpp:77] Creating layer relu3_7
I0110 14:43:30.721704 29226 net.cpp:106] Creating Layer relu3_7
I0110 14:43:30.721711 29226 net.cpp:454] relu3_7 <- enet3_7
I0110 14:43:30.721720 29226 net.cpp:397] relu3_7 -> enet3_7 (in-place)
I0110 14:43:30.725975 29226 net.cpp:150] Setting up relu3_7
I0110 14:43:30.725993 29226 net.cpp:157] Top shape: 4 128 47 155 (3729920)
I0110 14:43:30.726001 29226 net.cpp:165] Memory required for data: 3998474272
I0110 14:43:30.726013 29226 layer_factory.hpp:77] Creating layer enet3_7_relu3_7_0_split
I0110 14:43:30.726027 29226 net.cpp:106] Creating Layer enet3_7_relu3_7_0_split
I0110 14:43:30.726035 29226 net.cpp:454] enet3_7_relu3_7_0_split <- enet3_7
I0110 14:43:30.726048 29226 net.cpp:411] enet3_7_relu3_7_0_split -> enet3_7_relu3_7_0_split_0
I0110 14:43:30.726061 29226 net.cpp:411] enet3_7_relu3_7_0_split -> enet3_7_relu3_7_0_split_1
I0110 14:43:30.726119 29226 net.cpp:150] Setting up enet3_7_relu3_7_0_split
I0110 14:43:30.726130 29226 net.cpp:157] Top shape: 4 128 47 155 (3729920)
I0110 14:43:30.726141 29226 net.cpp:157] Top shape: 4 128 47 155 (3729920)
I0110 14:43:30.726147 29226 net.cpp:165] Memory required for data: 4028313632
I0110 14:43:30.726155 29226 layer_factory.hpp:77] Creating layer enet3_8_branch2a
I0110 14:43:30.726167 29226 net.cpp:106] Creating Layer enet3_8_branch2a
I0110 14:43:30.726176 29226 net.cpp:454] enet3_8_branch2a <- enet3_7_relu3_7_0_split_0
I0110 14:43:30.726188 29226 net.cpp:411] enet3_8_branch2a -> enet3_8_branch2a
I0110 14:43:30.731366 29226 net.cpp:150] Setting up enet3_8_branch2a
I0110 14:43:30.731389 29226 net.cpp:157] Top shape: 4 32 47 155 (932480)
I0110 14:43:30.731396 29226 net.cpp:165] Memory required for data: 4032043552
I0110 14:43:30.731406 29226 layer_factory.hpp:77] Creating layer bn3_8_branch2a
I0110 14:43:30.731421 29226 net.cpp:106] Creating Layer bn3_8_branch2a
I0110 14:43:30.731429 29226 net.cpp:454] bn3_8_branch2a <- enet3_8_branch2a
I0110 14:43:30.731441 29226 net.cpp:397] bn3_8_branch2a -> enet3_8_branch2a (in-place)
I0110 14:43:30.731768 29226 net.cpp:150] Setting up bn3_8_branch2a
I0110 14:43:30.731782 29226 net.cpp:157] Top shape: 4 32 47 155 (932480)
I0110 14:43:30.731789 29226 net.cpp:165] Memory required for data: 4035773472
I0110 14:43:30.731799 29226 layer_factory.hpp:77] Creating layer relu3_8_branch2a
I0110 14:43:30.731809 29226 net.cpp:106] Creating Layer relu3_8_branch2a
I0110 14:43:30.731817 29226 net.cpp:454] relu3_8_branch2a <- enet3_8_branch2a
I0110 14:43:30.731829 29226 net.cpp:397] relu3_8_branch2a -> enet3_8_branch2a (in-place)
I0110 14:43:30.733157 29226 net.cpp:150] Setting up relu3_8_branch2a
I0110 14:43:30.733173 29226 net.cpp:157] Top shape: 4 32 47 155 (932480)
I0110 14:43:30.733180 29226 net.cpp:165] Memory required for data: 4039503392
I0110 14:43:30.733191 29226 layer_factory.hpp:77] Creating layer enet3_8_branch2b
I0110 14:43:30.733209 29226 net.cpp:106] Creating Layer enet3_8_branch2b
I0110 14:43:30.733218 29226 net.cpp:454] enet3_8_branch2b <- enet3_8_branch2a
I0110 14:43:30.733230 29226 net.cpp:411] enet3_8_branch2b -> enet3_8_branch2b
I0110 14:43:30.733808 29226 net.cpp:150] Setting up enet3_8_branch2b
I0110 14:43:30.733824 29226 net.cpp:157] Top shape: 4 32 47 155 (932480)
I0110 14:43:30.733829 29226 net.cpp:165] Memory required for data: 4043233312
I0110 14:43:30.733840 29226 layer_factory.hpp:77] Creating layer bn3_8_branch2b
I0110 14:43:30.733855 29226 net.cpp:106] Creating Layer bn3_8_branch2b
I0110 14:43:30.733862 29226 net.cpp:454] bn3_8_branch2b <- enet3_8_branch2b
I0110 14:43:30.733875 29226 net.cpp:397] bn3_8_branch2b -> enet3_8_branch2b (in-place)
I0110 14:43:30.734205 29226 net.cpp:150] Setting up bn3_8_branch2b
I0110 14:43:30.734236 29226 net.cpp:157] Top shape: 4 32 47 155 (932480)
I0110 14:43:30.734242 29226 net.cpp:165] Memory required for data: 4046963232
I0110 14:43:30.734252 29226 layer_factory.hpp:77] Creating layer relu3_8_branch2b
I0110 14:43:30.734266 29226 net.cpp:106] Creating Layer relu3_8_branch2b
I0110 14:43:30.734273 29226 net.cpp:454] relu3_8_branch2b <- enet3_8_branch2b
I0110 14:43:30.734282 29226 net.cpp:397] relu3_8_branch2b -> enet3_8_branch2b (in-place)
I0110 14:43:30.735604 29226 net.cpp:150] Setting up relu3_8_branch2b
I0110 14:43:30.735620 29226 net.cpp:157] Top shape: 4 32 47 155 (932480)
I0110 14:43:30.735628 29226 net.cpp:165] Memory required for data: 4050693152
I0110 14:43:30.735637 29226 layer_factory.hpp:77] Creating layer enet3_8_branch2c
I0110 14:43:30.735654 29226 net.cpp:106] Creating Layer enet3_8_branch2c
I0110 14:43:30.735662 29226 net.cpp:454] enet3_8_branch2c <- enet3_8_branch2b
I0110 14:43:30.735677 29226 net.cpp:411] enet3_8_branch2c -> enet3_8_branch2c
I0110 14:43:30.739395 29226 net.cpp:150] Setting up enet3_8_branch2c
I0110 14:43:30.739413 29226 net.cpp:157] Top shape: 4 128 47 155 (3729920)
I0110 14:43:30.739421 29226 net.cpp:165] Memory required for data: 4065612832
I0110 14:43:30.739431 29226 layer_factory.hpp:77] Creating layer bn3_8_branch2c
I0110 14:43:30.739446 29226 net.cpp:106] Creating Layer bn3_8_branch2c
I0110 14:43:30.739454 29226 net.cpp:454] bn3_8_branch2c <- enet3_8_branch2c
I0110 14:43:30.739465 29226 net.cpp:397] bn3_8_branch2c -> enet3_8_branch2c (in-place)
I0110 14:43:30.740784 29226 net.cpp:150] Setting up bn3_8_branch2c
I0110 14:43:30.740802 29226 net.cpp:157] Top shape: 4 128 47 155 (3729920)
I0110 14:43:30.740808 29226 net.cpp:165] Memory required for data: 4080532512
I0110 14:43:30.740819 29226 layer_factory.hpp:77] Creating layer dropout3_8_branch2c
I0110 14:43:30.740833 29226 net.cpp:106] Creating Layer dropout3_8_branch2c
I0110 14:43:30.740841 29226 net.cpp:454] dropout3_8_branch2c <- enet3_8_branch2c
I0110 14:43:30.740851 29226 net.cpp:397] dropout3_8_branch2c -> enet3_8_branch2c (in-place)
I0110 14:43:30.740896 29226 net.cpp:150] Setting up dropout3_8_branch2c
I0110 14:43:30.740908 29226 net.cpp:157] Top shape: 4 128 47 155 (3729920)
I0110 14:43:30.740916 29226 net.cpp:165] Memory required for data: 4095452192
I0110 14:43:30.740921 29226 layer_factory.hpp:77] Creating layer enet3_8
I0110 14:43:30.740931 29226 net.cpp:106] Creating Layer enet3_8
I0110 14:43:30.740937 29226 net.cpp:454] enet3_8 <- enet3_7_relu3_7_0_split_1
I0110 14:43:30.740947 29226 net.cpp:454] enet3_8 <- enet3_8_branch2c
I0110 14:43:30.740958 29226 net.cpp:411] enet3_8 -> enet3_8
I0110 14:43:30.740998 29226 net.cpp:150] Setting up enet3_8
I0110 14:43:30.741016 29226 net.cpp:157] Top shape: 4 128 47 155 (3729920)
I0110 14:43:30.741024 29226 net.cpp:165] Memory required for data: 4110371872
I0110 14:43:30.741030 29226 layer_factory.hpp:77] Creating layer relu3_8
I0110 14:43:30.741039 29226 net.cpp:106] Creating Layer relu3_8
I0110 14:43:30.741046 29226 net.cpp:454] relu3_8 <- enet3_8
I0110 14:43:30.741055 29226 net.cpp:397] relu3_8 -> enet3_8 (in-place)
I0110 14:43:30.780611 29226 net.cpp:150] Setting up relu3_8
I0110 14:43:30.780628 29226 net.cpp:157] Top shape: 4 128 47 155 (3729920)
I0110 14:43:30.780635 29226 net.cpp:165] Memory required for data: 4125291552
I0110 14:43:30.780645 29226 layer_factory.hpp:77] Creating layer enet3_8_relu3_8_0_split
I0110 14:43:30.780655 29226 net.cpp:106] Creating Layer enet3_8_relu3_8_0_split
I0110 14:43:30.780663 29226 net.cpp:454] enet3_8_relu3_8_0_split <- enet3_8
I0110 14:43:30.780675 29226 net.cpp:411] enet3_8_relu3_8_0_split -> enet3_8_relu3_8_0_split_0
I0110 14:43:30.780689 29226 net.cpp:411] enet3_8_relu3_8_0_split -> enet3_8_relu3_8_0_split_1
I0110 14:43:30.780750 29226 net.cpp:150] Setting up enet3_8_relu3_8_0_split
I0110 14:43:30.780762 29226 net.cpp:157] Top shape: 4 128 47 155 (3729920)
I0110 14:43:30.780771 29226 net.cpp:157] Top shape: 4 128 47 155 (3729920)
I0110 14:43:30.780776 29226 net.cpp:165] Memory required for data: 4155130912
I0110 14:43:30.780808 29226 layer_factory.hpp:77] Creating layer enet4_0_branch2a
I0110 14:43:30.780825 29226 net.cpp:106] Creating Layer enet4_0_branch2a
I0110 14:43:30.780834 29226 net.cpp:454] enet4_0_branch2a <- enet3_8_relu3_8_0_split_0
I0110 14:43:30.780845 29226 net.cpp:411] enet4_0_branch2a -> enet4_0_branch2a
I0110 14:43:30.784647 29226 net.cpp:150] Setting up enet4_0_branch2a
I0110 14:43:30.784668 29226 net.cpp:157] Top shape: 4 16 47 155 (466240)
I0110 14:43:30.784677 29226 net.cpp:165] Memory required for data: 4156995872
I0110 14:43:30.784685 29226 layer_factory.hpp:77] Creating layer bn4_0_branch2a
I0110 14:43:30.784698 29226 net.cpp:106] Creating Layer bn4_0_branch2a
I0110 14:43:30.784706 29226 net.cpp:454] bn4_0_branch2a <- enet4_0_branch2a
I0110 14:43:30.784719 29226 net.cpp:397] bn4_0_branch2a -> enet4_0_branch2a (in-place)
I0110 14:43:30.785064 29226 net.cpp:150] Setting up bn4_0_branch2a
I0110 14:43:30.785079 29226 net.cpp:157] Top shape: 4 16 47 155 (466240)
I0110 14:43:30.785085 29226 net.cpp:165] Memory required for data: 4158860832
I0110 14:43:30.785096 29226 layer_factory.hpp:77] Creating layer relu4_0_branch2a
I0110 14:43:30.785115 29226 net.cpp:106] Creating Layer relu4_0_branch2a
I0110 14:43:30.785123 29226 net.cpp:454] relu4_0_branch2a <- enet4_0_branch2a
I0110 14:43:30.785132 29226 net.cpp:397] relu4_0_branch2a -> enet4_0_branch2a (in-place)
I0110 14:43:30.786231 29226 net.cpp:150] Setting up relu4_0_branch2a
I0110 14:43:30.786247 29226 net.cpp:157] Top shape: 4 16 47 155 (466240)
I0110 14:43:30.786255 29226 net.cpp:165] Memory required for data: 4160725792
I0110 14:43:30.786262 29226 layer_factory.hpp:77] Creating layer enet4_0_branch2b
I0110 14:43:30.786279 29226 net.cpp:106] Creating Layer enet4_0_branch2b
I0110 14:43:30.786288 29226 net.cpp:454] enet4_0_branch2b <- enet4_0_branch2a
I0110 14:43:30.786303 29226 net.cpp:411] enet4_0_branch2b -> enet4_0_branch2b
I0110 14:43:30.786873 29226 net.cpp:150] Setting up enet4_0_branch2b
I0110 14:43:30.786888 29226 net.cpp:157] Top shape: 4 16 94 310 (1864960)
I0110 14:43:30.786895 29226 net.cpp:165] Memory required for data: 4168185632
I0110 14:43:30.786906 29226 layer_factory.hpp:77] Creating layer bn4_0_branch2b
I0110 14:43:30.786917 29226 net.cpp:106] Creating Layer bn4_0_branch2b
I0110 14:43:30.786926 29226 net.cpp:454] bn4_0_branch2b <- enet4_0_branch2b
I0110 14:43:30.786938 29226 net.cpp:397] bn4_0_branch2b -> enet4_0_branch2b (in-place)
I0110 14:43:30.787372 29226 net.cpp:150] Setting up bn4_0_branch2b
I0110 14:43:30.787387 29226 net.cpp:157] Top shape: 4 16 94 310 (1864960)
I0110 14:43:30.787395 29226 net.cpp:165] Memory required for data: 4175645472
I0110 14:43:30.787405 29226 layer_factory.hpp:77] Creating layer relu4_0_branch2b
I0110 14:43:30.787417 29226 net.cpp:106] Creating Layer relu4_0_branch2b
I0110 14:43:30.787425 29226 net.cpp:454] relu4_0_branch2b <- enet4_0_branch2b
I0110 14:43:30.787434 29226 net.cpp:397] relu4_0_branch2b -> enet4_0_branch2b (in-place)
I0110 14:43:30.788547 29226 net.cpp:150] Setting up relu4_0_branch2b
I0110 14:43:30.788564 29226 net.cpp:157] Top shape: 4 16 94 310 (1864960)
I0110 14:43:30.788571 29226 net.cpp:165] Memory required for data: 4183105312
I0110 14:43:30.788578 29226 layer_factory.hpp:77] Creating layer enet4_0_branch2c
I0110 14:43:30.788595 29226 net.cpp:106] Creating Layer enet4_0_branch2c
I0110 14:43:30.788604 29226 net.cpp:454] enet4_0_branch2c <- enet4_0_branch2b
I0110 14:43:30.788619 29226 net.cpp:411] enet4_0_branch2c -> enet4_0_branch2c
I0110 14:43:30.792454 29226 net.cpp:150] Setting up enet4_0_branch2c
I0110 14:43:30.792474 29226 net.cpp:157] Top shape: 4 64 94 310 (7459840)
I0110 14:43:30.792482 29226 net.cpp:165] Memory required for data: 4212944672
I0110 14:43:30.792491 29226 layer_factory.hpp:77] Creating layer bn4_0_branch2c
I0110 14:43:30.792503 29226 net.cpp:106] Creating Layer bn4_0_branch2c
I0110 14:43:30.792511 29226 net.cpp:454] bn4_0_branch2c <- enet4_0_branch2c
I0110 14:43:30.792524 29226 net.cpp:397] bn4_0_branch2c -> enet4_0_branch2c (in-place)
I0110 14:43:30.793903 29226 net.cpp:150] Setting up bn4_0_branch2c
I0110 14:43:30.793929 29226 net.cpp:157] Top shape: 4 64 94 310 (7459840)
I0110 14:43:30.793936 29226 net.cpp:165] Memory required for data: 4242784032
I0110 14:43:30.793948 29226 layer_factory.hpp:77] Creating layer enet4_0_branch1a
I0110 14:43:30.793962 29226 net.cpp:106] Creating Layer enet4_0_branch1a
I0110 14:43:30.793970 29226 net.cpp:454] enet4_0_branch1a <- enet3_8_relu3_8_0_split_1
I0110 14:43:30.793984 29226 net.cpp:411] enet4_0_branch1a -> enet4_0_branch1a
I0110 14:43:30.797792 29226 net.cpp:150] Setting up enet4_0_branch1a
I0110 14:43:30.797811 29226 net.cpp:157] Top shape: 4 64 47 155 (1864960)
I0110 14:43:30.797818 29226 net.cpp:165] Memory required for data: 4250243872
I0110 14:43:30.797828 29226 layer_factory.hpp:77] Creating layer bn4_0_branch1a
I0110 14:43:30.797843 29226 net.cpp:106] Creating Layer bn4_0_branch1a
I0110 14:43:30.797852 29226 net.cpp:454] bn4_0_branch1a <- enet4_0_branch1a
I0110 14:43:30.797865 29226 net.cpp:397] bn4_0_branch1a -> enet4_0_branch1a (in-place)
I0110 14:43:30.798204 29226 net.cpp:150] Setting up bn4_0_branch1a
I0110 14:43:30.798218 29226 net.cpp:157] Top shape: 4 64 47 155 (1864960)
I0110 14:43:30.798225 29226 net.cpp:165] Memory required for data: 4257703712
I0110 14:43:30.798236 29226 layer_factory.hpp:77] Creating layer unpool4_0_branch1a
I0110 14:43:30.798249 29226 net.cpp:106] Creating Layer unpool4_0_branch1a
I0110 14:43:30.798255 29226 net.cpp:454] unpool4_0_branch1a <- enet4_0_branch1a
I0110 14:43:30.798265 29226 net.cpp:454] unpool4_0_branch1a <- pool2_0_branch1a_mask
I0110 14:43:30.798279 29226 net.cpp:411] unpool4_0_branch1a -> unpool4_0_branch1a
I0110 14:43:30.798336 29226 net.cpp:150] Setting up unpool4_0_branch1a
I0110 14:43:30.798349 29226 net.cpp:157] Top shape: 4 64 94 310 (7459840)
I0110 14:43:30.798355 29226 net.cpp:165] Memory required for data: 4287543072
I0110 14:43:30.798362 29226 layer_factory.hpp:77] Creating layer enet4_0
I0110 14:43:30.798372 29226 net.cpp:106] Creating Layer enet4_0
I0110 14:43:30.798379 29226 net.cpp:454] enet4_0 <- unpool4_0_branch1a
I0110 14:43:30.798388 29226 net.cpp:454] enet4_0 <- enet4_0_branch2c
I0110 14:43:30.798398 29226 net.cpp:411] enet4_0 -> enet4_0
I0110 14:43:30.798440 29226 net.cpp:150] Setting up enet4_0
I0110 14:43:30.798454 29226 net.cpp:157] Top shape: 4 64 94 310 (7459840)
I0110 14:43:30.798460 29226 net.cpp:165] Memory required for data: 4317382432
I0110 14:43:30.798465 29226 layer_factory.hpp:77] Creating layer relu4_0
I0110 14:43:30.798477 29226 net.cpp:106] Creating Layer relu4_0
I0110 14:43:30.798485 29226 net.cpp:454] relu4_0 <- enet4_0
I0110 14:43:30.798494 29226 net.cpp:397] relu4_0 -> enet4_0 (in-place)
I0110 14:43:30.799610 29226 net.cpp:150] Setting up relu4_0
I0110 14:43:30.799628 29226 net.cpp:157] Top shape: 4 64 94 310 (7459840)
I0110 14:43:30.799634 29226 net.cpp:165] Memory required for data: 4347221792
I0110 14:43:30.799641 29226 layer_factory.hpp:77] Creating layer enet4_0_relu4_0_0_split
I0110 14:43:30.799651 29226 net.cpp:106] Creating Layer enet4_0_relu4_0_0_split
I0110 14:43:30.799659 29226 net.cpp:454] enet4_0_relu4_0_0_split <- enet4_0
I0110 14:43:30.799669 29226 net.cpp:411] enet4_0_relu4_0_0_split -> enet4_0_relu4_0_0_split_0
I0110 14:43:30.799685 29226 net.cpp:411] enet4_0_relu4_0_0_split -> enet4_0_relu4_0_0_split_1
I0110 14:43:30.799752 29226 net.cpp:150] Setting up enet4_0_relu4_0_0_split
I0110 14:43:30.799765 29226 net.cpp:157] Top shape: 4 64 94 310 (7459840)
I0110 14:43:30.799773 29226 net.cpp:157] Top shape: 4 64 94 310 (7459840)
I0110 14:43:30.799779 29226 net.cpp:165] Memory required for data: 4406900512
I0110 14:43:30.799787 29226 layer_factory.hpp:77] Creating layer enet4_1_branch2a
I0110 14:43:30.799804 29226 net.cpp:106] Creating Layer enet4_1_branch2a
I0110 14:43:30.799813 29226 net.cpp:454] enet4_1_branch2a <- enet4_0_relu4_0_0_split_0
I0110 14:43:30.799824 29226 net.cpp:411] enet4_1_branch2a -> enet4_1_branch2a
I0110 14:43:30.803674 29226 net.cpp:150] Setting up enet4_1_branch2a
I0110 14:43:30.803699 29226 net.cpp:157] Top shape: 4 16 94 310 (1864960)
I0110 14:43:30.803714 29226 net.cpp:165] Memory required for data: 4414360352
I0110 14:43:30.803725 29226 layer_factory.hpp:77] Creating layer bn4_1_branch2a
I0110 14:43:30.803740 29226 net.cpp:106] Creating Layer bn4_1_branch2a
I0110 14:43:30.803747 29226 net.cpp:454] bn4_1_branch2a <- enet4_1_branch2a
I0110 14:43:30.803758 29226 net.cpp:397] bn4_1_branch2a -> enet4_1_branch2a (in-place)
I0110 14:43:30.804129 29226 net.cpp:150] Setting up bn4_1_branch2a
I0110 14:43:30.804143 29226 net.cpp:157] Top shape: 4 16 94 310 (1864960)
I0110 14:43:30.804150 29226 net.cpp:165] Memory required for data: 4421820192
I0110 14:43:30.804162 29226 layer_factory.hpp:77] Creating layer relu4_1_branch2a
I0110 14:43:30.804172 29226 net.cpp:106] Creating Layer relu4_1_branch2a
I0110 14:43:30.804178 29226 net.cpp:454] relu4_1_branch2a <- enet4_1_branch2a
I0110 14:43:30.804189 29226 net.cpp:397] relu4_1_branch2a -> enet4_1_branch2a (in-place)
I0110 14:43:30.805310 29226 net.cpp:150] Setting up relu4_1_branch2a
I0110 14:43:30.805326 29226 net.cpp:157] Top shape: 4 16 94 310 (1864960)
I0110 14:43:30.805333 29226 net.cpp:165] Memory required for data: 4429280032
I0110 14:43:30.805341 29226 layer_factory.hpp:77] Creating layer enet4_1_branch2b
I0110 14:43:30.805359 29226 net.cpp:106] Creating Layer enet4_1_branch2b
I0110 14:43:30.805464 29226 net.cpp:454] enet4_1_branch2b <- enet4_1_branch2a
I0110 14:43:30.805482 29226 net.cpp:411] enet4_1_branch2b -> enet4_1_branch2b
I0110 14:43:30.809505 29226 net.cpp:150] Setting up enet4_1_branch2b
I0110 14:43:30.809525 29226 net.cpp:157] Top shape: 4 16 94 310 (1864960)
I0110 14:43:30.809532 29226 net.cpp:165] Memory required for data: 4436739872
I0110 14:43:30.809543 29226 layer_factory.hpp:77] Creating layer bn4_1_branch2b
I0110 14:43:30.809559 29226 net.cpp:106] Creating Layer bn4_1_branch2b
I0110 14:43:30.809567 29226 net.cpp:454] bn4_1_branch2b <- enet4_1_branch2b
I0110 14:43:30.809581 29226 net.cpp:397] bn4_1_branch2b -> enet4_1_branch2b (in-place)
I0110 14:43:30.809953 29226 net.cpp:150] Setting up bn4_1_branch2b
I0110 14:43:30.809968 29226 net.cpp:157] Top shape: 4 16 94 310 (1864960)
I0110 14:43:30.809974 29226 net.cpp:165] Memory required for data: 4444199712
I0110 14:43:30.809985 29226 layer_factory.hpp:77] Creating layer relu4_1_branch2b
I0110 14:43:30.809995 29226 net.cpp:106] Creating Layer relu4_1_branch2b
I0110 14:43:30.810003 29226 net.cpp:454] relu4_1_branch2b <- enet4_1_branch2b
I0110 14:43:30.810016 29226 net.cpp:397] relu4_1_branch2b -> enet4_1_branch2b (in-place)
I0110 14:43:30.811136 29226 net.cpp:150] Setting up relu4_1_branch2b
I0110 14:43:30.811156 29226 net.cpp:157] Top shape: 4 16 94 310 (1864960)
I0110 14:43:30.811163 29226 net.cpp:165] Memory required for data: 4451659552
I0110 14:43:30.811170 29226 layer_factory.hpp:77] Creating layer enet4_1_branch2c
I0110 14:43:30.811187 29226 net.cpp:106] Creating Layer enet4_1_branch2c
I0110 14:43:30.811197 29226 net.cpp:454] enet4_1_branch2c <- enet4_1_branch2b
I0110 14:43:30.811208 29226 net.cpp:411] enet4_1_branch2c -> enet4_1_branch2c
I0110 14:43:30.814894 29226 net.cpp:150] Setting up enet4_1_branch2c
I0110 14:43:30.814914 29226 net.cpp:157] Top shape: 4 64 94 310 (7459840)
I0110 14:43:30.814923 29226 net.cpp:165] Memory required for data: 4481498912
I0110 14:43:30.814932 29226 layer_factory.hpp:77] Creating layer bn4_1_branch2c
I0110 14:43:30.814944 29226 net.cpp:106] Creating Layer bn4_1_branch2c
I0110 14:43:30.814952 29226 net.cpp:454] bn4_1_branch2c <- enet4_1_branch2c
I0110 14:43:30.814965 29226 net.cpp:397] bn4_1_branch2c -> enet4_1_branch2c (in-place)
I0110 14:43:30.816375 29226 net.cpp:150] Setting up bn4_1_branch2c
I0110 14:43:30.816392 29226 net.cpp:157] Top shape: 4 64 94 310 (7459840)
I0110 14:43:30.816400 29226 net.cpp:165] Memory required for data: 4511338272
I0110 14:43:30.816411 29226 layer_factory.hpp:77] Creating layer enet4_1
I0110 14:43:30.816421 29226 net.cpp:106] Creating Layer enet4_1
I0110 14:43:30.816429 29226 net.cpp:454] enet4_1 <- enet4_0_relu4_0_0_split_1
I0110 14:43:30.816447 29226 net.cpp:454] enet4_1 <- enet4_1_branch2c
I0110 14:43:30.816463 29226 net.cpp:411] enet4_1 -> enet4_1
I0110 14:43:30.816511 29226 net.cpp:150] Setting up enet4_1
I0110 14:43:30.816525 29226 net.cpp:157] Top shape: 4 64 94 310 (7459840)
I0110 14:43:30.816531 29226 net.cpp:165] Memory required for data: 4541177632
I0110 14:43:30.816539 29226 layer_factory.hpp:77] Creating layer relu4_1
I0110 14:43:30.816547 29226 net.cpp:106] Creating Layer relu4_1
I0110 14:43:30.816555 29226 net.cpp:454] relu4_1 <- enet4_1
I0110 14:43:30.816565 29226 net.cpp:397] relu4_1 -> enet4_1 (in-place)
I0110 14:43:30.817888 29226 net.cpp:150] Setting up relu4_1
I0110 14:43:30.817905 29226 net.cpp:157] Top shape: 4 64 94 310 (7459840)
I0110 14:43:30.817912 29226 net.cpp:165] Memory required for data: 4571016992
I0110 14:43:30.817919 29226 layer_factory.hpp:77] Creating layer enet4_1_relu4_1_0_split
I0110 14:43:30.817929 29226 net.cpp:106] Creating Layer enet4_1_relu4_1_0_split
I0110 14:43:30.817936 29226 net.cpp:454] enet4_1_relu4_1_0_split <- enet4_1
I0110 14:43:30.817950 29226 net.cpp:411] enet4_1_relu4_1_0_split -> enet4_1_relu4_1_0_split_0
I0110 14:43:30.817961 29226 net.cpp:411] enet4_1_relu4_1_0_split -> enet4_1_relu4_1_0_split_1
I0110 14:43:30.818037 29226 net.cpp:150] Setting up enet4_1_relu4_1_0_split
I0110 14:43:30.818050 29226 net.cpp:157] Top shape: 4 64 94 310 (7459840)
I0110 14:43:30.818058 29226 net.cpp:157] Top shape: 4 64 94 310 (7459840)
I0110 14:43:30.818064 29226 net.cpp:165] Memory required for data: 4630695712
I0110 14:43:30.818071 29226 layer_factory.hpp:77] Creating layer enet4_2_branch2a
I0110 14:43:30.818089 29226 net.cpp:106] Creating Layer enet4_2_branch2a
I0110 14:43:30.818097 29226 net.cpp:454] enet4_2_branch2a <- enet4_1_relu4_1_0_split_0
I0110 14:43:30.818109 29226 net.cpp:411] enet4_2_branch2a -> enet4_2_branch2a
I0110 14:43:30.821835 29226 net.cpp:150] Setting up enet4_2_branch2a
I0110 14:43:30.821853 29226 net.cpp:157] Top shape: 4 16 94 310 (1864960)
I0110 14:43:30.821861 29226 net.cpp:165] Memory required for data: 4638155552
I0110 14:43:30.821871 29226 layer_factory.hpp:77] Creating layer bn4_2_branch2a
I0110 14:43:30.821887 29226 net.cpp:106] Creating Layer bn4_2_branch2a
I0110 14:43:30.821894 29226 net.cpp:454] bn4_2_branch2a <- enet4_2_branch2a
I0110 14:43:30.821907 29226 net.cpp:397] bn4_2_branch2a -> enet4_2_branch2a (in-place)
I0110 14:43:30.822295 29226 net.cpp:150] Setting up bn4_2_branch2a
I0110 14:43:30.822310 29226 net.cpp:157] Top shape: 4 16 94 310 (1864960)
I0110 14:43:30.822316 29226 net.cpp:165] Memory required for data: 4645615392
I0110 14:43:30.822327 29226 layer_factory.hpp:77] Creating layer relu4_2_branch2a
I0110 14:43:30.822337 29226 net.cpp:106] Creating Layer relu4_2_branch2a
I0110 14:43:30.822345 29226 net.cpp:454] relu4_2_branch2a <- enet4_2_branch2a
I0110 14:43:30.822353 29226 net.cpp:397] relu4_2_branch2a -> enet4_2_branch2a (in-place)
I0110 14:43:30.823699 29226 net.cpp:150] Setting up relu4_2_branch2a
I0110 14:43:30.823716 29226 net.cpp:157] Top shape: 4 16 94 310 (1864960)
I0110 14:43:30.823724 29226 net.cpp:165] Memory required for data: 4653075232
I0110 14:43:30.823731 29226 layer_factory.hpp:77] Creating layer enet4_2_branch2b
I0110 14:43:30.823750 29226 net.cpp:106] Creating Layer enet4_2_branch2b
I0110 14:43:30.823758 29226 net.cpp:454] enet4_2_branch2b <- enet4_2_branch2a
I0110 14:43:30.823770 29226 net.cpp:411] enet4_2_branch2b -> enet4_2_branch2b
I0110 14:43:30.827843 29226 net.cpp:150] Setting up enet4_2_branch2b
I0110 14:43:30.827862 29226 net.cpp:157] Top shape: 4 16 94 310 (1864960)
I0110 14:43:30.827868 29226 net.cpp:165] Memory required for data: 4660535072
I0110 14:43:30.827880 29226 layer_factory.hpp:77] Creating layer bn4_2_branch2b
I0110 14:43:30.827895 29226 net.cpp:106] Creating Layer bn4_2_branch2b
I0110 14:43:30.827904 29226 net.cpp:454] bn4_2_branch2b <- enet4_2_branch2b
I0110 14:43:30.827917 29226 net.cpp:397] bn4_2_branch2b -> enet4_2_branch2b (in-place)
I0110 14:43:30.828315 29226 net.cpp:150] Setting up bn4_2_branch2b
I0110 14:43:30.828336 29226 net.cpp:157] Top shape: 4 16 94 310 (1864960)
I0110 14:43:30.828351 29226 net.cpp:165] Memory required for data: 4667994912
I0110 14:43:30.828361 29226 layer_factory.hpp:77] Creating layer relu4_2_branch2b
I0110 14:43:30.828372 29226 net.cpp:106] Creating Layer relu4_2_branch2b
I0110 14:43:30.828379 29226 net.cpp:454] relu4_2_branch2b <- enet4_2_branch2b
I0110 14:43:30.828388 29226 net.cpp:397] relu4_2_branch2b -> enet4_2_branch2b (in-place)
I0110 14:43:30.829524 29226 net.cpp:150] Setting up relu4_2_branch2b
I0110 14:43:30.829540 29226 net.cpp:157] Top shape: 4 16 94 310 (1864960)
I0110 14:43:30.829547 29226 net.cpp:165] Memory required for data: 4675454752
I0110 14:43:30.829555 29226 layer_factory.hpp:77] Creating layer enet4_2_branch2c
I0110 14:43:30.829571 29226 net.cpp:106] Creating Layer enet4_2_branch2c
I0110 14:43:30.829581 29226 net.cpp:454] enet4_2_branch2c <- enet4_2_branch2b
I0110 14:43:30.829594 29226 net.cpp:411] enet4_2_branch2c -> enet4_2_branch2c
I0110 14:43:30.833514 29226 net.cpp:150] Setting up enet4_2_branch2c
I0110 14:43:30.833533 29226 net.cpp:157] Top shape: 4 64 94 310 (7459840)
I0110 14:43:30.833540 29226 net.cpp:165] Memory required for data: 4705294112
I0110 14:43:30.833549 29226 layer_factory.hpp:77] Creating layer bn4_2_branch2c
I0110 14:43:30.833564 29226 net.cpp:106] Creating Layer bn4_2_branch2c
I0110 14:43:30.833573 29226 net.cpp:454] bn4_2_branch2c <- enet4_2_branch2c
I0110 14:43:30.833586 29226 net.cpp:397] bn4_2_branch2c -> enet4_2_branch2c (in-place)
I0110 14:43:30.833989 29226 net.cpp:150] Setting up bn4_2_branch2c
I0110 14:43:30.834004 29226 net.cpp:157] Top shape: 4 64 94 310 (7459840)
I0110 14:43:30.834014 29226 net.cpp:165] Memory required for data: 4735133472
I0110 14:43:30.834027 29226 layer_factory.hpp:77] Creating layer enet4_2
I0110 14:43:30.834036 29226 net.cpp:106] Creating Layer enet4_2
I0110 14:43:30.834044 29226 net.cpp:454] enet4_2 <- enet4_1_relu4_1_0_split_1
I0110 14:43:30.834053 29226 net.cpp:454] enet4_2 <- enet4_2_branch2c
I0110 14:43:30.834061 29226 net.cpp:411] enet4_2 -> enet4_2
I0110 14:43:30.834111 29226 net.cpp:150] Setting up enet4_2
I0110 14:43:30.834125 29226 net.cpp:157] Top shape: 4 64 94 310 (7459840)
I0110 14:43:30.834131 29226 net.cpp:165] Memory required for data: 4764972832
I0110 14:43:30.834137 29226 layer_factory.hpp:77] Creating layer relu4_2
I0110 14:43:30.834149 29226 net.cpp:106] Creating Layer relu4_2
I0110 14:43:30.834156 29226 net.cpp:454] relu4_2 <- enet4_2
I0110 14:43:30.834167 29226 net.cpp:397] relu4_2 -> enet4_2 (in-place)
I0110 14:43:30.835301 29226 net.cpp:150] Setting up relu4_2
I0110 14:43:30.835320 29226 net.cpp:157] Top shape: 4 64 94 310 (7459840)
I0110 14:43:30.835328 29226 net.cpp:165] Memory required for data: 4794812192
I0110 14:43:30.835335 29226 layer_factory.hpp:77] Creating layer enet4_2_relu4_2_0_split
I0110 14:43:30.835345 29226 net.cpp:106] Creating Layer enet4_2_relu4_2_0_split
I0110 14:43:30.835352 29226 net.cpp:454] enet4_2_relu4_2_0_split <- enet4_2
I0110 14:43:30.835363 29226 net.cpp:411] enet4_2_relu4_2_0_split -> enet4_2_relu4_2_0_split_0
I0110 14:43:30.835376 29226 net.cpp:411] enet4_2_relu4_2_0_split -> enet4_2_relu4_2_0_split_1
I0110 14:43:30.835451 29226 net.cpp:150] Setting up enet4_2_relu4_2_0_split
I0110 14:43:30.835465 29226 net.cpp:157] Top shape: 4 64 94 310 (7459840)
I0110 14:43:30.835474 29226 net.cpp:157] Top shape: 4 64 94 310 (7459840)
I0110 14:43:30.835479 29226 net.cpp:165] Memory required for data: 4854490912
I0110 14:43:30.835485 29226 layer_factory.hpp:77] Creating layer enet5_0_branch2a
I0110 14:43:30.835501 29226 net.cpp:106] Creating Layer enet5_0_branch2a
I0110 14:43:30.835510 29226 net.cpp:454] enet5_0_branch2a <- enet4_2_relu4_2_0_split_0
I0110 14:43:30.835523 29226 net.cpp:411] enet5_0_branch2a -> enet5_0_branch2a
I0110 14:43:30.839241 29226 net.cpp:150] Setting up enet5_0_branch2a
I0110 14:43:30.839259 29226 net.cpp:157] Top shape: 4 4 94 310 (466240)
I0110 14:43:30.839267 29226 net.cpp:165] Memory required for data: 4856355872
I0110 14:43:30.839277 29226 layer_factory.hpp:77] Creating layer bn5_0_branch2a
I0110 14:43:30.839304 29226 net.cpp:106] Creating Layer bn5_0_branch2a
I0110 14:43:30.839314 29226 net.cpp:454] bn5_0_branch2a <- enet5_0_branch2a
I0110 14:43:30.839328 29226 net.cpp:397] bn5_0_branch2a -> enet5_0_branch2a (in-place)
I0110 14:43:30.840750 29226 net.cpp:150] Setting up bn5_0_branch2a
I0110 14:43:30.840768 29226 net.cpp:157] Top shape: 4 4 94 310 (466240)
I0110 14:43:30.840775 29226 net.cpp:165] Memory required for data: 4858220832
I0110 14:43:30.840786 29226 layer_factory.hpp:77] Creating layer relu5_0_branch2a
I0110 14:43:30.840796 29226 net.cpp:106] Creating Layer relu5_0_branch2a
I0110 14:43:30.840804 29226 net.cpp:454] relu5_0_branch2a <- enet5_0_branch2a
I0110 14:43:30.840816 29226 net.cpp:397] relu5_0_branch2a -> enet5_0_branch2a (in-place)
I0110 14:43:30.841949 29226 net.cpp:150] Setting up relu5_0_branch2a
I0110 14:43:30.841967 29226 net.cpp:157] Top shape: 4 4 94 310 (466240)
I0110 14:43:30.841974 29226 net.cpp:165] Memory required for data: 4860085792
I0110 14:43:30.841981 29226 layer_factory.hpp:77] Creating layer enet5_0_branch2b
I0110 14:43:30.841996 29226 net.cpp:106] Creating Layer enet5_0_branch2b
I0110 14:43:30.842005 29226 net.cpp:454] enet5_0_branch2b <- enet5_0_branch2a
I0110 14:43:30.842023 29226 net.cpp:411] enet5_0_branch2b -> enet5_0_branch2b
I0110 14:43:30.842597 29226 net.cpp:150] Setting up enet5_0_branch2b
I0110 14:43:30.842615 29226 net.cpp:157] Top shape: 4 4 188 620 (1864960)
I0110 14:43:30.842622 29226 net.cpp:165] Memory required for data: 4867545632
I0110 14:43:30.842633 29226 layer_factory.hpp:77] Creating layer bn5_0_branch2b
I0110 14:43:30.842648 29226 net.cpp:106] Creating Layer bn5_0_branch2b
I0110 14:43:30.842656 29226 net.cpp:454] bn5_0_branch2b <- enet5_0_branch2b
I0110 14:43:30.842666 29226 net.cpp:397] bn5_0_branch2b -> enet5_0_branch2b (in-place)
I0110 14:43:30.844198 29226 net.cpp:150] Setting up bn5_0_branch2b
I0110 14:43:30.844215 29226 net.cpp:157] Top shape: 4 4 188 620 (1864960)
I0110 14:43:30.844223 29226 net.cpp:165] Memory required for data: 4875005472
I0110 14:43:30.844233 29226 layer_factory.hpp:77] Creating layer relu5_0_branch2b
I0110 14:43:30.844245 29226 net.cpp:106] Creating Layer relu5_0_branch2b
I0110 14:43:30.844254 29226 net.cpp:454] relu5_0_branch2b <- enet5_0_branch2b
I0110 14:43:30.844265 29226 net.cpp:397] relu5_0_branch2b -> enet5_0_branch2b (in-place)
I0110 14:43:30.845598 29226 net.cpp:150] Setting up relu5_0_branch2b
I0110 14:43:30.845618 29226 net.cpp:157] Top shape: 4 4 188 620 (1864960)
I0110 14:43:30.845625 29226 net.cpp:165] Memory required for data: 4882465312
I0110 14:43:30.845633 29226 layer_factory.hpp:77] Creating layer enet5_0_branch2c
I0110 14:43:30.845651 29226 net.cpp:106] Creating Layer enet5_0_branch2c
I0110 14:43:30.845660 29226 net.cpp:454] enet5_0_branch2c <- enet5_0_branch2b
I0110 14:43:30.845672 29226 net.cpp:411] enet5_0_branch2c -> enet5_0_branch2c
I0110 14:43:30.849405 29226 net.cpp:150] Setting up enet5_0_branch2c
I0110 14:43:30.849422 29226 net.cpp:157] Top shape: 4 16 188 620 (7459840)
I0110 14:43:30.849432 29226 net.cpp:165] Memory required for data: 4912304672
I0110 14:43:30.849442 29226 layer_factory.hpp:77] Creating layer bn5_0_branch2c
I0110 14:43:30.849454 29226 net.cpp:106] Creating Layer bn5_0_branch2c
I0110 14:43:30.849462 29226 net.cpp:454] bn5_0_branch2c <- enet5_0_branch2c
I0110 14:43:30.849478 29226 net.cpp:397] bn5_0_branch2c -> enet5_0_branch2c (in-place)
I0110 14:43:30.851047 29226 net.cpp:150] Setting up bn5_0_branch2c
I0110 14:43:30.851063 29226 net.cpp:157] Top shape: 4 16 188 620 (7459840)
I0110 14:43:30.851071 29226 net.cpp:165] Memory required for data: 4942144032
I0110 14:43:30.851083 29226 layer_factory.hpp:77] Creating layer enet5_0_branch1a
I0110 14:43:30.851096 29226 net.cpp:106] Creating Layer enet5_0_branch1a
I0110 14:43:30.851104 29226 net.cpp:454] enet5_0_branch1a <- enet4_2_relu4_2_0_split_1
I0110 14:43:30.851119 29226 net.cpp:411] enet5_0_branch1a -> enet5_0_branch1a
I0110 14:43:30.855145 29226 net.cpp:150] Setting up enet5_0_branch1a
I0110 14:43:30.855170 29226 net.cpp:157] Top shape: 4 16 94 310 (1864960)
I0110 14:43:30.855186 29226 net.cpp:165] Memory required for data: 4949603872
I0110 14:43:30.855197 29226 layer_factory.hpp:77] Creating layer bn5_0_branch1a
I0110 14:43:30.855212 29226 net.cpp:106] Creating Layer bn5_0_branch1a
I0110 14:43:30.855221 29226 net.cpp:454] bn5_0_branch1a <- enet5_0_branch1a
I0110 14:43:30.855232 29226 net.cpp:397] bn5_0_branch1a -> enet5_0_branch1a (in-place)
I0110 14:43:30.855664 29226 net.cpp:150] Setting up bn5_0_branch1a
I0110 14:43:30.855679 29226 net.cpp:157] Top shape: 4 16 94 310 (1864960)
I0110 14:43:30.855686 29226 net.cpp:165] Memory required for data: 4957063712
I0110 14:43:30.855696 29226 layer_factory.hpp:77] Creating layer unpool5_0_branch1a
I0110 14:43:30.855708 29226 net.cpp:106] Creating Layer unpool5_0_branch1a
I0110 14:43:30.855716 29226 net.cpp:454] unpool5_0_branch1a <- enet5_0_branch1a
I0110 14:43:30.855726 29226 net.cpp:454] unpool5_0_branch1a <- pool1_0_branch1a_mask
I0110 14:43:30.855736 29226 net.cpp:411] unpool5_0_branch1a -> unpool5_0_branch1a
I0110 14:43:30.855784 29226 net.cpp:150] Setting up unpool5_0_branch1a
I0110 14:43:30.855798 29226 net.cpp:157] Top shape: 4 16 188 620 (7459840)
I0110 14:43:30.855803 29226 net.cpp:165] Memory required for data: 4986903072
I0110 14:43:30.855809 29226 layer_factory.hpp:77] Creating layer enet5_0
I0110 14:43:30.855823 29226 net.cpp:106] Creating Layer enet5_0
I0110 14:43:30.855829 29226 net.cpp:454] enet5_0 <- unpool5_0_branch1a
I0110 14:43:30.855839 29226 net.cpp:454] enet5_0 <- enet5_0_branch2c
I0110 14:43:30.855850 29226 net.cpp:411] enet5_0 -> enet5_0
I0110 14:43:30.855896 29226 net.cpp:150] Setting up enet5_0
I0110 14:43:30.855909 29226 net.cpp:157] Top shape: 4 16 188 620 (7459840)
I0110 14:43:30.855916 29226 net.cpp:165] Memory required for data: 5016742432
I0110 14:43:30.855922 29226 layer_factory.hpp:77] Creating layer relu5_0
I0110 14:43:30.855934 29226 net.cpp:106] Creating Layer relu5_0
I0110 14:43:30.855942 29226 net.cpp:454] relu5_0 <- enet5_0
I0110 14:43:30.855952 29226 net.cpp:397] relu5_0 -> enet5_0 (in-place)
I0110 14:43:30.857105 29226 net.cpp:150] Setting up relu5_0
I0110 14:43:30.857121 29226 net.cpp:157] Top shape: 4 16 188 620 (7459840)
I0110 14:43:30.857130 29226 net.cpp:165] Memory required for data: 5046581792
I0110 14:43:30.857137 29226 layer_factory.hpp:77] Creating layer enet5_0_relu5_0_0_split
I0110 14:43:30.857151 29226 net.cpp:106] Creating Layer enet5_0_relu5_0_0_split
I0110 14:43:30.857157 29226 net.cpp:454] enet5_0_relu5_0_0_split <- enet5_0
I0110 14:43:30.857170 29226 net.cpp:411] enet5_0_relu5_0_0_split -> enet5_0_relu5_0_0_split_0
I0110 14:43:30.857183 29226 net.cpp:411] enet5_0_relu5_0_0_split -> enet5_0_relu5_0_0_split_1
I0110 14:43:30.857259 29226 net.cpp:150] Setting up enet5_0_relu5_0_0_split
I0110 14:43:30.857273 29226 net.cpp:157] Top shape: 4 16 188 620 (7459840)
I0110 14:43:30.857281 29226 net.cpp:157] Top shape: 4 16 188 620 (7459840)
I0110 14:43:30.857287 29226 net.cpp:165] Memory required for data: 5106260512
I0110 14:43:30.857293 29226 layer_factory.hpp:77] Creating layer enet5_1_branch2a
I0110 14:43:30.857309 29226 net.cpp:106] Creating Layer enet5_1_branch2a
I0110 14:43:30.857317 29226 net.cpp:454] enet5_1_branch2a <- enet5_0_relu5_0_0_split_0
I0110 14:43:30.857331 29226 net.cpp:411] enet5_1_branch2a -> enet5_1_branch2a
I0110 14:43:30.861291 29226 net.cpp:150] Setting up enet5_1_branch2a
I0110 14:43:30.861310 29226 net.cpp:157] Top shape: 4 4 188 620 (1864960)
I0110 14:43:30.861316 29226 net.cpp:165] Memory required for data: 5113720352
I0110 14:43:30.861326 29226 layer_factory.hpp:77] Creating layer bn5_1_branch2a
I0110 14:43:30.861341 29226 net.cpp:106] Creating Layer bn5_1_branch2a
I0110 14:43:30.861351 29226 net.cpp:454] bn5_1_branch2a <- enet5_1_branch2a
I0110 14:43:30.861361 29226 net.cpp:397] bn5_1_branch2a -> enet5_1_branch2a (in-place)
I0110 14:43:30.862920 29226 net.cpp:150] Setting up bn5_1_branch2a
I0110 14:43:30.862937 29226 net.cpp:157] Top shape: 4 4 188 620 (1864960)
I0110 14:43:30.862951 29226 net.cpp:165] Memory required for data: 5121180192
I0110 14:43:30.862969 29226 layer_factory.hpp:77] Creating layer relu5_1_branch2a
I0110 14:43:30.862982 29226 net.cpp:106] Creating Layer relu5_1_branch2a
I0110 14:43:30.862988 29226 net.cpp:454] relu5_1_branch2a <- enet5_1_branch2a
I0110 14:43:30.862998 29226 net.cpp:397] relu5_1_branch2a -> enet5_1_branch2a (in-place)
I0110 14:43:30.864162 29226 net.cpp:150] Setting up relu5_1_branch2a
I0110 14:43:30.864179 29226 net.cpp:157] Top shape: 4 4 188 620 (1864960)
I0110 14:43:30.864187 29226 net.cpp:165] Memory required for data: 5128640032
I0110 14:43:30.864194 29226 layer_factory.hpp:77] Creating layer enet5_1_branch2b
I0110 14:43:30.864212 29226 net.cpp:106] Creating Layer enet5_1_branch2b
I0110 14:43:30.864219 29226 net.cpp:454] enet5_1_branch2b <- enet5_1_branch2a
I0110 14:43:30.864234 29226 net.cpp:411] enet5_1_branch2b -> enet5_1_branch2b
I0110 14:43:30.870609 29226 net.cpp:150] Setting up enet5_1_branch2b
I0110 14:43:30.870630 29226 net.cpp:157] Top shape: 4 4 188 620 (1864960)
I0110 14:43:30.870637 29226 net.cpp:165] Memory required for data: 5136099872
I0110 14:43:30.870649 29226 layer_factory.hpp:77] Creating layer bn5_1_branch2b
I0110 14:43:30.870661 29226 net.cpp:106] Creating Layer bn5_1_branch2b
I0110 14:43:30.870671 29226 net.cpp:454] bn5_1_branch2b <- enet5_1_branch2b
I0110 14:43:30.870682 29226 net.cpp:397] bn5_1_branch2b -> enet5_1_branch2b (in-place)
I0110 14:43:30.872203 29226 net.cpp:150] Setting up bn5_1_branch2b
I0110 14:43:30.872220 29226 net.cpp:157] Top shape: 4 4 188 620 (1864960)
I0110 14:43:30.872227 29226 net.cpp:165] Memory required for data: 5143559712
I0110 14:43:30.872238 29226 layer_factory.hpp:77] Creating layer relu5_1_branch2b
I0110 14:43:30.872249 29226 net.cpp:106] Creating Layer relu5_1_branch2b
I0110 14:43:30.872257 29226 net.cpp:454] relu5_1_branch2b <- enet5_1_branch2b
I0110 14:43:30.872267 29226 net.cpp:397] relu5_1_branch2b -> enet5_1_branch2b (in-place)
I0110 14:43:30.873402 29226 net.cpp:150] Setting up relu5_1_branch2b
I0110 14:43:30.873420 29226 net.cpp:157] Top shape: 4 4 188 620 (1864960)
I0110 14:43:30.873427 29226 net.cpp:165] Memory required for data: 5151019552
I0110 14:43:30.873435 29226 layer_factory.hpp:77] Creating layer enet5_1_branch2c
I0110 14:43:30.873452 29226 net.cpp:106] Creating Layer enet5_1_branch2c
I0110 14:43:30.873461 29226 net.cpp:454] enet5_1_branch2c <- enet5_1_branch2b
I0110 14:43:30.873473 29226 net.cpp:411] enet5_1_branch2c -> enet5_1_branch2c
I0110 14:43:30.877467 29226 net.cpp:150] Setting up enet5_1_branch2c
I0110 14:43:30.877485 29226 net.cpp:157] Top shape: 4 16 188 620 (7459840)
I0110 14:43:30.877492 29226 net.cpp:165] Memory required for data: 5180858912
I0110 14:43:30.877502 29226 layer_factory.hpp:77] Creating layer bn5_1_branch2c
I0110 14:43:30.877517 29226 net.cpp:106] Creating Layer bn5_1_branch2c
I0110 14:43:30.877526 29226 net.cpp:454] bn5_1_branch2c <- enet5_1_branch2c
I0110 14:43:30.877537 29226 net.cpp:397] bn5_1_branch2c -> enet5_1_branch2c (in-place)
I0110 14:43:30.879103 29226 net.cpp:150] Setting up bn5_1_branch2c
I0110 14:43:30.879122 29226 net.cpp:157] Top shape: 4 16 188 620 (7459840)
I0110 14:43:30.879128 29226 net.cpp:165] Memory required for data: 5210698272
I0110 14:43:30.879139 29226 layer_factory.hpp:77] Creating layer enet5_1
I0110 14:43:30.879149 29226 net.cpp:106] Creating Layer enet5_1
I0110 14:43:30.879158 29226 net.cpp:454] enet5_1 <- enet5_0_relu5_0_0_split_1
I0110 14:43:30.879166 29226 net.cpp:454] enet5_1 <- enet5_1_branch2c
I0110 14:43:30.879179 29226 net.cpp:411] enet5_1 -> enet5_1
I0110 14:43:30.879230 29226 net.cpp:150] Setting up enet5_1
I0110 14:43:30.879241 29226 net.cpp:157] Top shape: 4 16 188 620 (7459840)
I0110 14:43:30.879248 29226 net.cpp:165] Memory required for data: 5240537632
I0110 14:43:30.879256 29226 layer_factory.hpp:77] Creating layer relu5_1
I0110 14:43:30.879267 29226 net.cpp:106] Creating Layer relu5_1
I0110 14:43:30.879276 29226 net.cpp:454] relu5_1 <- enet5_1
I0110 14:43:30.879283 29226 net.cpp:397] relu5_1 -> enet5_1 (in-place)
I0110 14:43:30.880667 29226 net.cpp:150] Setting up relu5_1
I0110 14:43:30.880693 29226 net.cpp:157] Top shape: 4 16 188 620 (7459840)
I0110 14:43:30.880702 29226 net.cpp:165] Memory required for data: 5270376992
I0110 14:43:30.880708 29226 layer_factory.hpp:77] Creating layer enet6_0
I0110 14:43:30.880723 29226 net.cpp:106] Creating Layer enet6_0
I0110 14:43:30.880731 29226 net.cpp:454] enet6_0 <- enet5_1
I0110 14:43:30.880743 29226 net.cpp:411] enet6_0 -> enet6_0
I0110 14:43:30.883468 29226 net.cpp:150] Setting up enet6_0
I0110 14:43:30.883487 29226 net.cpp:157] Top shape: 4 4 376 1240 (7459840)
I0110 14:43:30.883494 29226 net.cpp:165] Memory required for data: 5300216352
I0110 14:43:30.883505 29226 layer_factory.hpp:77] Creating layer enet6_0_enet6_0_0_split
I0110 14:43:30.883515 29226 net.cpp:106] Creating Layer enet6_0_enet6_0_0_split
I0110 14:43:30.883523 29226 net.cpp:454] enet6_0_enet6_0_0_split <- enet6_0
I0110 14:43:30.883536 29226 net.cpp:411] enet6_0_enet6_0_0_split -> enet6_0_enet6_0_0_split_0
I0110 14:43:30.883549 29226 net.cpp:411] enet6_0_enet6_0_0_split -> enet6_0_enet6_0_0_split_1
I0110 14:43:30.883632 29226 net.cpp:150] Setting up enet6_0_enet6_0_0_split
I0110 14:43:30.883648 29226 net.cpp:157] Top shape: 4 4 376 1240 (7459840)
I0110 14:43:30.883656 29226 net.cpp:157] Top shape: 4 4 376 1240 (7459840)
I0110 14:43:30.883662 29226 net.cpp:165] Memory required for data: 5359895072
I0110 14:43:30.883669 29226 layer_factory.hpp:77] Creating layer loss
I0110 14:43:30.883692 29226 net.cpp:106] Creating Layer loss
I0110 14:43:30.883699 29226 net.cpp:454] loss <- enet6_0_enet6_0_0_split_0
I0110 14:43:30.883708 29226 net.cpp:454] loss <- label_data_1_split_0
I0110 14:43:30.883721 29226 net.cpp:411] loss -> loss
I0110 14:43:30.883750 29226 layer_factory.hpp:77] Creating layer loss
I0110 14:43:30.916599 29226 net.cpp:150] Setting up loss
I0110 14:43:30.916642 29226 net.cpp:157] Top shape: (1)
I0110 14:43:30.916651 29226 net.cpp:160]     with loss weight 1
I0110 14:43:30.916831 29226 net.cpp:165] Memory required for data: 5359895076
I0110 14:43:30.916841 29226 layer_factory.hpp:77] Creating layer accuracy
I0110 14:43:30.916860 29226 net.cpp:106] Creating Layer accuracy
I0110 14:43:30.916870 29226 net.cpp:454] accuracy <- enet6_0_enet6_0_0_split_1
I0110 14:43:30.916884 29226 net.cpp:454] accuracy <- label_data_1_split_1
I0110 14:43:30.916899 29226 net.cpp:411] accuracy -> accuracy
I0110 14:43:30.916913 29226 net.cpp:411] accuracy -> per_class_accuracy
I0110 14:43:30.916998 29226 net.cpp:150] Setting up accuracy
I0110 14:43:30.917016 29226 net.cpp:157] Top shape: (1)
I0110 14:43:30.917026 29226 net.cpp:157] Top shape: 4 (4)
I0110 14:43:30.917032 29226 net.cpp:165] Memory required for data: 5359895096
I0110 14:43:30.917038 29226 net.cpp:228] accuracy does not need backward computation.
I0110 14:43:30.917047 29226 net.cpp:226] loss needs backward computation.
I0110 14:43:30.917053 29226 net.cpp:226] enet6_0_enet6_0_0_split needs backward computation.
I0110 14:43:30.917060 29226 net.cpp:226] enet6_0 needs backward computation.
…
