…
I1213 16:41:42.412232  9787 solver.cpp:91] Creating training net from net file: /home/map/liuli/caffe_hebei/segnet/Models/enet/enet_train.prototxt
I1213 16:41:42.424572  9787 net.cpp:49] Initializing net from parameters: 
name: "enet"
state {
  phase: TRAIN
}
layer {
  name: "data"
  type: "ImageSegData"
  top: "data"
  top: "label"
  transform_param {
    mirror: true
    mean_value: 0
    mean_value: 0
    mean_value: 0
    scale_factors: 1
  }
  image_data_param {
    source: "/home/map/liuli/datasets/kitti/enet_train_test/train/enet_train.list"
    batch_size: 4
    shuffle: false
    label_type: PIXEL
  }
}
layer {
  name: "enet_initial_branch2a"
  type: "Convolution"
  bottom: "data"
  top: "enet_initial_branch2a"
  param {
    lr_mult: 1
    decay_mult: 1
  }
  param {
    lr_mult: 2
    decay_mult: 0
  }
  convolution_param {
    num_output: 13
    bias_term: true
    weight_filler {
      type: "msra"
    }
    bias_filler {
      type: "constant"
    }
    pad_h: 1
    pad_w: 1
    kernel_h: 3
    kernel_w: 3
    stride_h: 2
    stride_w: 2
    dilation: 1
  }
}
layer {
  name: "pool_initial_branch1a"
  type: "Pooling"
  bottom: "data"
  top: "pool_initial_branch1a"
  pooling_param {
    pool: MAX
    kernel_size: 2
    stride: 2
  }
}
layer {
  name: "enet_initial"
  type: "Concat"
  bottom: "enet_initial_branch2a"
  bottom: "pool_initial_branch1a"
  top: "enet_initial"
  concat_param {
    axis: 1
  }
}
layer {
  name: "bn_initial"
  type: "BN"
  bottom: "enet_initial"
  top: "enet_initial"
  param {
    lr_mult: 1
    decay_mult: 1
  }
  param {
    lr_mult: 2
    decay_mult: 0
  }
  bn_param {
    scale_filler {
      type: "constant"
      value: 1
    }
    shift_filler {
      type: "constant"
      value: 0.001
    }
  }
}
layer {
  name: "relu_initial"
  type: "PReLU"
  bottom: "enet_initial"
  top: "enet_initial"
}
layer {
  name: "enet1_0_branch2a"
  type: "Convolution"
  bottom: "enet_initial"
  top: "enet1_0_branch2a"
  param {
    lr_mult: 1
    decay_mult: 1
  }
  convolution_param {
    num_output: 16
    bias_term: false
    weight_filler {
      type: "msra"
    }
    bias_filler {
      type: "constant"
    }
    pad_h: 1
    pad_w: 1
    kernel_h: 2
    kernel_w: 2
    stride_h: 2
    stride_w: 2
    dilation: 1
  }
}
layer {
  name: "bn1_0_branch2a"
  type: "BN"
  bottom: "enet1_0_branch2a"
  top: "enet1_0_branch2a"
  param {
    lr_mult: 1
    decay_mult: 1
  }
  param {
    lr_mult: 2
    decay_mult: 0
  }
  bn_param {
    scale_filler {
      type: "constant"
      value: 1
    }
    shift_filler {
      type: "constant"
      value: 0.001
    }
  }
}
layer {
  name: "relu1_0_branch2a"
  type: "PReLU"
  bottom: "enet1_0_branch2a"
  top: "enet1_0_branch2a"
}
layer {
  name: "enet1_0_branch2b"
  type: "Convolution"
  bottom: "enet1_0_branch2a"
  top: "enet1_0_branch2b"
  param {
    lr_mult: 1
    decay_mult: 1
  }
  param {
    lr_mult: 2
    decay_mult: 0
  }
  convolution_param {
    num_output: 16
    bias_term: true
    weight_filler {
      type: "msra"
    }
    bias_filler {
      type: "constant"
    }
    pad_h: 1
    pad_w: 1
    kernel_h: 3
    kernel_w: 3
    stride_h: 1
    stride_w: 1
    dilation: 1
  }
}
layer {
  name: "bn1_0_branch2b"
  type: "BN"
  bottom: "enet1_0_branch2b"
  top: "enet1_0_branch2b"
  param {
    lr_mult: 1
    decay_mult: 1
  }
  param {
    lr_mult: 2
    decay_mult: 0
  }
  bn_param {
    scale_filler {
      type: "constant"
      value: 1
    }
    shift_filler {
      type: "constant"
      value: 0.001
    }
  }
}
layer {
  name: "relu1_0_branch2b"
  type: "PReLU"
  bottom: "enet1_0_branch2b"
  top: "enet1_0_branch2b"
}
layer {
  name: "enet1_0_branch2c"
  type: "Convolution"
  bottom: "enet1_0_branch2b"
  top: "enet1_0_branch2c"
  param {
    lr_mult: 1
    decay_mult: 1
  }
  convolution_param {
    num_output: 64
    bias_term: false
    weight_filler {
      type: "msra"
    }
    bias_filler {
      type: "constant"
    }
    pad_h: 0
    pad_w: 0
    kernel_h: 1
    kernel_w: 1
    stride_h: 1
    stride_w: 1
    dilation: 1
  }
}
layer {
  name: "bn1_0_branch2c"
  type: "BN"
  bottom: "enet1_0_branch2c"
  top: "enet1_0_branch2c"
  param {
    lr_mult: 1
    decay_mult: 1
  }
  param {
    lr_mult: 2
    decay_mult: 0
  }
  bn_param {
    scale_filler {
      type: "constant"
      value: 1
    }
    shift_filler {
      type: "constant"
      value: 0.001
    }
  }
}
layer {
  name: "dropout1_0_branch2c"
  type: "Dropout"
  bottom: "enet1_0_branch2c"
  top: "enet1_0_branch2c"
  dropout_param {
    dropout_ratio: 0.01
  }
}
layer {
  name: "enet1_0_branch1a"
  type: "Convolution"
  bottom: "enet_initial"
  top: "enet1_0_branch1a"
  param {
    lr_mult: 1
    decay_mult: 1
  }
  convolution_param {
    num_output: 64
    bias_term: false
    weight_filler {
      type: "msra"
    }
    bias_filler {
      type: "constant"
    }
    pad_h: 0
    pad_w: 0
    kernel_h: 1
    kernel_w: 1
    stride_h: 1
    stride_w: 1
    dilation: 1
  }
}
layer {
  name: "bn1_0_branch1a"
  type: "BN"
  bottom: "enet1_0_branch1a"
  top: "enet1_0_branch1a"
  param {
    lr_mult: 1
    decay_mult: 1
  }
  param {
    lr_mult: 2
    decay_mult: 0
  }
  bn_param {
    scale_filler {
      type: "constant"
      value: 1
    }
    shift_filler {
      type: "constant"
      value: 0.001
    }
  }
}
layer {
  name: "pool1_0_branch1a"
  type: "Pooling"
  bottom: "enet1_0_branch1a"
  top: "pool1_0_branch1a"
  top: "pool1_0_branch1a_mask"
  pooling_param {
    pool: MAX
    kernel_size: 2
    stride: 2
  }
}
layer {
  name: "enet1_0"
  type: "Eltwise"
  bottom: "pool1_0_branch1a"
  bottom: "enet1_0_branch2c"
  top: "enet1_0"
}
layer {
  name: "relu1_0"
  type: "PReLU"
  bottom: "enet1_0"
  top: "enet1_0"
}
layer {
  name: "enet1_1_branch2a"
  type: "Convolution"
  bottom: "enet1_0"
  top: "enet1_1_branch2a"
  param {
    lr_mult: 1
    decay_mult: 1
  }
  convolution_param {
    num_output: 16
    bias_term: false
    weight_filler {
      type: "msra"
    }
    bias_filler {
      type: "constant"
    }
    pad_h: 0
    pad_w: 0
    kernel_h: 1
    kernel_w: 1
    stride_h: 1
    stride_w: 1
    dilation: 1
  }
}
layer {
  name: "bn1_1_branch2a"
  type: "BN"
  bottom: "enet1_1_branch2a"
  top: "enet1_1_branch2a"
  param {
    lr_mult: 1
    decay_mult: 1
  }
  param {
    lr_mult: 2
    decay_mult: 0
  }
  bn_param {
    scale_filler {
      type: "constant"
      value: 1
    }
    shift_filler {
      type: "constant"
      value: 0.001
    }
  }
}
layer {
  name: "relu1_1_branch2a"
  type: "PReLU"
  bottom: "enet1_1_branch2a"
  top: "enet1_1_branch2a"
}
layer {
  name: "enet1_1_branch2b"
  type: "Convolution"
  bottom: "enet1_1_branch2a"
  top: "enet1_1_branch2b"
  param {
    lr_mult: 1
    decay_mult: 1
  }
  param {
    lr_mult: 2
    decay_mult: 0
  }
  convolution_param {
    num_output: 16
    bias_term: true
    weight_filler {
      type: "msra"
    }
    bias_filler {
      type: "constant"
    }
    pad_h: 1
    pad_w: 1
    kernel_h: 3
    kernel_w: 3
    stride_h: 1
    stride_w: 1
    dilation: 1
  }
}
layer {
  name: "bn1_1_branch2b"
  type: "BN"
  bottom: "enet1_1_branch2b"
  top: "enet1_1_branch2b"
  param {
    lr_mult: 1
    decay_mult: 1
  }
  param {
    lr_mult: 2
    decay_mult: 0
  }
  bn_param {
    scale_filler {
      type: "constant"
      value: 1
    }
    shift_filler {
      type: "constant"
      value: 0.001
    }
  }
}
layer {
  name: "relu1_1_branch2b"
  type: "PReLU"
  bottom: "enet1_1_branch2b"
  top: "enet1_1_branch2b"
}
layer {
  name: "enet1_1_branch2c"
  type: "Convolution"
  bottom: "enet1_1_branch2b"
  top: "enet1_1_branch2c"
  param {
    lr_mult: 1
    decay_mult: 1
  }
  convolution_param {
    num_output: 64
    bias_term: false
    weight_filler {
      type: "msra"
    }
    bias_filler {
      type: "constant"
    }
    pad_h: 0
    pad_w: 0
    kernel_h: 1
    kernel_w: 1
    stride_h: 1
    stride_w: 1
    dilation: 1
  }
}
layer {
  name: "bn1_1_branch2c"
  type: "BN"
  bottom: "enet1_1_branch2c"
  top: "enet1_1_branch2c"
  param {
    lr_mult: 1
    decay_mult: 1
  }
  param {
    lr_mult: 2
    decay_mult: 0
  }
  bn_param {
    scale_filler {
      type: "constant"
      value: 1
    }
    shift_filler {
      type: "constant"
      value: 0.001
    }
  }
}
layer {
  name: "dropout1_1_branch2c"
  type: "Dropout"
  bottom: "enet1_1_branch2c"
  top: "enet1_1_branch2c"
  dropout_param {
    dropout_ratio: 0.01
  }
}
layer {
  name: "enet1_1"
  type: "Eltwise"
  bottom: "enet1_0"
  bottom: "enet1_1_branch2c"
  top: "enet1_1"
}
layer {
  name: "relu1_1"
  type: "PReLU"
  bottom: "enet1_1"
  top: "enet1_1"
}
layer {
  name: "enet1_2_branch2a"
  type: "Convolution"
  bottom: "enet1_1"
  top: "enet1_2_branch2a"
  param {
    lr_mult: 1
    decay_mult: 1
  }
  convolution_param {
    num_output: 16
    bias_term: false
    weight_filler {
      type: "msra"
    }
    bias_filler {
      type: "constant"
    }
    pad_h: 0
    pad_w: 0
    kernel_h: 1
    kernel_w: 1
    stride_h: 1
    stride_w: 1
    dilation: 1
  }
}
layer {
  name: "bn1_2_branch2a"
  type: "BN"
  bottom: "enet1_2_branch2a"
  top: "enet1_2_branch2a"
  param {
    lr_mult: 1
    decay_mult: 1
  }
  param {
    lr_mult: 2
    decay_mult: 0
  }
  bn_param {
    scale_filler {
      type: "constant"
      value: 1
    }
    shift_filler {
      type: "constant"
      value: 0.001
    }
  }
}
layer {
  name: "relu1_2_branch2a"
  type: "PReLU"
  bottom: "enet1_2_branch2a"
  top: "enet1_2_branch2a"
}
layer {
  name: "enet1_2_branch2b"
  type: "Convolution"
  bottom: "enet1_2_branch2a"
  top: "enet1_2_branch2b"
  param {
    lr_mult: 1
    decay_mult: 1
  }
  param {
    lr_mult: 2
    decay_mult: 0
  }
  convolution_param {
    num_output: 16
    bias_term: true
    weight_filler {
      type: "msra"
    }
    bias_filler {
      type: "constant"
    }
    pad_h: 1
    pad_w: 1
    kernel_h: 3
    kernel_w: 3
    stride_h: 1
    stride_w: 1
    dilation: 1
  }
}
layer {
  name: "bn1_2_branch2b"
  type: "BN"
  bottom: "enet1_2_branch2b"
  top: "enet1_2_branch2b"
  param {
    lr_mult: 1
    decay_mult: 1
  }
  param {
    lr_mult: 2
    decay_mult: 0
  }
  bn_param {
    scale_filler {
      type: "constant"
      value: 1
    }
    shift_filler {
      type: "constant"
      value: 0.001
    }
  }
}
layer {
  name: "relu1_2_branch2b"
  type: "PReLU"
  bottom: "enet1_2_branch2b"
  top: "enet1_2_branch2b"
}
layer {
  name: "enet1_2_branch2c"
  type: "Convolution"
  bottom: "enet1_2_branch2b"
  top: "enet1_2_branch2c"
  param {
    lr_mult: 1
    decay_mult: 1
  }
  convolution_param {
    num_output: 64
    bias_term: false
    weight_filler {
      type: "msra"
    }
    bias_filler {
      type: "constant"
    }
    pad_h: 0
    pad_w: 0
    kernel_h: 1
    kernel_w: 1
    stride_h: 1
    stride_w: 1
    dilation: 1
  }
}
layer {
  name: "bn1_2_branch2c"
  type: "BN"
  bottom: "enet1_2_branch2c"
  top: "enet1_2_branch2c"
  param {
    lr_mult: 1
    decay_mult: 1
  }
  param {
    lr_mult: 2
    decay_mult: 0
  }
  bn_param {
    scale_filler {
      type: "constant"
      value: 1
    }
    shift_filler {
      type: "constant"
      value: 0.001
    }
  }
}
layer {
  name: "dropout1_2_branch2c"
  type: "Dropout"
  bottom: "enet1_2_branch2c"
  top: "enet1_2_branch2c"
  dropout_param {
    dropout_ratio: 0.01
  }
}
layer {
  name: "enet1_2"
  type: "Eltwise"
  bottom: "enet1_1"
  bottom: "enet1_2_branch2c"
  top: "enet1_2"
}
layer {
  name: "relu1_2"
  type: "PReLU"
  bottom: "enet1_2"
  top: "enet1_2"
}
layer {
  name: "enet1_3_branch2a"
  type: "Convolution"
  bottom: "enet1_2"
  top: "enet1_3_branch2a"
  param {
    lr_mult: 1
    decay_mult: 1
  }
  convolution_param {
    num_output: 16
    bias_term: false
    weight_filler {
      type: "msra"
    }
    bias_filler {
      type: "constant"
    }
    pad_h: 0
    pad_w: 0
    kernel_h: 1
    kernel_w: 1
    stride_h: 1
    stride_w: 1
    dilation: 1
  }
}
layer {
  name: "bn1_3_branch2a"
  type: "BN"
  bottom: "enet1_3_branch2a"
  top: "enet1_3_branch2a"
  param {
    lr_mult: 1
    decay_mult: 1
  }
  param {
    lr_mult: 2
    decay_mult: 0
  }
  bn_param {
    scale_filler {
      type: "constant"
      value: 1
    }
    shift_filler {
      type: "constant"
      value: 0.001
    }
  }
}
layer {
  name: "relu1_3_branch2a"
  type: "PReLU"
  bottom: "enet1_3_branch2a"
  top: "enet1_3_branch2a"
}
layer {
  name: "enet1_3_branch2b"
  type: "Convolution"
  bottom: "enet1_3_branch2a"
  top: "enet1_3_branch2b"
  param {
    lr_mult: 1
    decay_mult: 1
  }
  param {
    lr_mult: 2
    decay_mult: 0
  }
  convolution_param {
    num_output: 16
    bias_term: true
    weight_filler {
      type: "msra"
    }
    bias_filler {
      type: "constant"
    }
    pad_h: 1
    pad_w: 1
    kernel_h: 3
    kernel_w: 3
    stride_h: 1
    stride_w: 1
    dilation: 1
  }
}
layer {
  name: "bn1_3_branch2b"
  type: "BN"
  bottom: "enet1_3_branch2b"
  top: "enet1_3_branch2b"
  param {
    lr_mult: 1
    decay_mult: 1
  }
  param {
    lr_mult: 2
    decay_mult: 0
  }
  bn_param {
    scale_filler {
      type: "constant"
      value: 1
    }
    shift_filler {
      type: "constant"
      value: 0.001
    }
  }
}
layer {
  name: "relu1_3_branch2b"
  type: "PReLU"
  bottom: "enet1_3_branch2b"
  top: "enet1_3_branch2b"
}
layer {
  name: "enet1_3_branch2c"
  type: "Convolution"
  bottom: "enet1_3_branch2b"
  top: "enet1_3_branch2c"
  param {
    lr_mult: 1
    decay_mult: 1
  }
  convolution_param {
    num_output: 64
    bias_term: false
    weight_filler {
      type: "msra"
    }
    bias_filler {
      type: "constant"
    }
    pad_h: 0
    pad_w: 0
    kernel_h: 1
    kernel_w: 1
    stride_h: 1
    stride_w: 1
    dilation: 1
  }
}
layer {
  name: "bn1_3_branch2c"
  type: "BN"
  bottom: "enet1_3_branch2c"
  top: "enet1_3_branch2c"
  param {
    lr_mult: 1
    decay_mult: 1
  }
  param {
    lr_mult: 2
    decay_mult: 0
  }
  bn_param {
    scale_filler {
      type: "constant"
      value: 1
    }
    shift_filler {
      type: "constant"
      value: 0.001
    }
  }
}
layer {
  name: "dropout1_3_branch2c"
  type: "Dropout"
  bottom: "enet1_3_branch2c"
  top: "enet1_3_branch2c"
  dropout_param {
    dropout_ratio: 0.01
  }
}
layer {
  name: "enet1_3"
  type: "Eltwise"
  bottom: "enet1_2"
  bottom: "enet1_3_branch2c"
  top: "enet1_3"
}
layer {
  name: "relu1_3"
  type: "PReLU"
  bottom: "enet1_3"
  top: "enet1_3"
}
layer {
  name: "enet1_4_branch2a"
  type: "Convolution"
  bottom: "enet1_3"
  top: "enet1_4_branch2a"
  param {
    lr_mult: 1
    decay_mult: 1
  }
  convolution_param {
    num_output: 16
    bias_term: false
    weight_filler {
      type: "msra"
    }
    bias_filler {
      type: "constant"
    }
    pad_h: 0
    pad_w: 0
    kernel_h: 1
    kernel_w: 1
    stride_h: 1
    stride_w: 1
    dilation: 1
  }
}
layer {
  name: "bn1_4_branch2a"
  type: "BN"
  bottom: "enet1_4_branch2a"
  top: "enet1_4_branch2a"
  param {
    lr_mult: 1
    decay_mult: 1
  }
  param {
    lr_mult: 2
    decay_mult: 0
  }
  bn_param {
    scale_filler {
      type: "constant"
      value: 1
    }
    shift_filler {
      type: "constant"
      value: 0.001
    }
  }
}
layer {
  name: "relu1_4_branch2a"
  type: "PReLU"
  bottom: "enet1_4_branch2a"
  top: "enet1_4_branch2a"
}
layer {
  name: "enet1_4_branch2b"
  type: "Convolution"
  bottom: "enet1_4_branch2a"
  top: "enet1_4_branch2b"
  param {
    lr_mult: 1
    decay_mult: 1
  }
  param {
    lr_mult: 2
    decay_mult: 0
  }
  convolution_param {
    num_output: 16
    bias_term: true
    weight_filler {
      type: "msra"
    }
    bias_filler {
      type: "constant"
    }
    pad_h: 1
    pad_w: 1
    kernel_h: 3
    kernel_w: 3
    stride_h: 1
    stride_w: 1
    dilation: 1
  }
}
layer {
  name: "bn1_4_branch2b"
  type: "BN"
  bottom: "enet1_4_branch2b"
  top: "enet1_4_branch2b"
  param {
    lr_mult: 1
    decay_mult: 1
  }
  param {
    lr_mult: 2
    decay_mult: 0
  }
  bn_param {
    scale_filler {
      type: "constant"
      value: 1
    }
    shift_filler {
      type: "constant"
      value: 0.001
    }
  }
}
layer {
  name: "relu1_4_branch2b"
  type: "PReLU"
  bottom: "enet1_4_branch2b"
  top: "enet1_4_branch2b"
}
layer {
  name: "enet1_4_branch2c"
  type: "Convolution"
  bottom: "enet1_4_branch2b"
  top: "enet1_4_branch2c"
  param {
    lr_mult: 1
    decay_mult: 1
  }
  convolution_param {
    num_output: 64
    bias_term: false
    weight_filler {
      type: "msra"
    }
    bias_filler {
      type: "constant"
    }
    pad_h: 0
    pad_w: 0
    kernel_h: 1
    kernel_w: 1
    stride_h: 1
    stride_w: 1
    dilation: 1
  }
}
layer {
  name: "bn1_4_branch2c"
  type: "BN"
  bottom: "enet1_4_branch2c"
  top: "enet1_4_branch2c"
  param {
    lr_mult: 1
    decay_mult: 1
  }
  param {
    lr_mult: 2
    decay_mult: 0
  }
  bn_param {
    scale_filler {
      type: "constant"
      value: 1
    }
    shift_filler {
      type: "constant"
      value: 0.001
    }
  }
}
layer {
  name: "dropout1_4_branch2c"
  type: "Dropout"
  bottom: "enet1_4_branch2c"
  top: "enet1_4_branch2c"
  dropout_param {
    dropout_ratio: 0.01
  }
}
layer {
  name: "enet1_4"
  type: "Eltwise"
  bottom: "enet1_3"
  bottom: "enet1_4_branch2c"
  top: "enet1_4"
}
layer {
  name: "relu1_4"
  type: "PReLU"
  bottom: "enet1_4"
  top: "enet1_4"
}
layer {
  name: "enet2_0_branch2a"
  type: "Convolution"
  bottom: "enet1_4"
  top: "enet2_0_branch2a"
  param {
    lr_mult: 1
    decay_mult: 1
  }
  convolution_param {
    num_output: 32
    bias_term: false
    weight_filler {
      type: "msra"
    }
    bias_filler {
      type: "constant"
    }
    pad_h: 1
    pad_w: 1
    kernel_h: 2
    kernel_w: 2
    stride_h: 2
    stride_w: 2
    dilation: 1
  }
}
layer {
  name: "bn2_0_branch2a"
  type: "BN"
  bottom: "enet2_0_branch2a"
  top: "enet2_0_branch2a"
  param {
    lr_mult: 1
    decay_mult: 1
  }
  param {
    lr_mult: 2
    decay_mult: 0
  }
  bn_param {
    scale_filler {
      type: "constant"
      value: 1
    }
    shift_filler {
      type: "constant"
      value: 0.001
    }
  }
}
layer {
  name: "relu2_0_branch2a"
  type: "PReLU"
  bottom: "enet2_0_branch2a"
  top: "enet2_0_branch2a"
}
layer {
  name: "enet2_0_branch2b"
  type: "Convolution"
  bottom: "enet2_0_branch2a"
  top: "enet2_0_branch2b"
  param {
    lr_mult: 1
    decay_mult: 1
  }
  param {
    lr_mult: 2
    decay_mult: 0
  }
  convolution_param {
    num_output: 32
    bias_term: true
    weight_filler {
      type: "msra"
    }
    bias_filler {
      type: "constant"
    }
    pad_h: 1
    pad_w: 1
    kernel_h: 3
    kernel_w: 3
    stride_h: 1
    stride_w: 1
    dilation: 1
  }
}
layer {
  name: "bn2_0_branch2b"
  type: "BN"
  bottom: "enet2_0_branch2b"
  top: "enet2_0_branch2b"
  param {
    lr_mult: 1
    decay_mult: 1
  }
  param {
    lr_mult: 2
    decay_mult: 0
  }
  bn_param {
    scale_filler {
      type: "constant"
      value: 1
    }
    shift_filler {
      type: "constant"
      value: 0.001
    }
  }
}
layer {
  name: "relu2_0_branch2b"
  type: "PReLU"
  bottom: "enet2_0_branch2b"
  top: "enet2_0_branch2b"
}
layer {
  name: "enet2_0_branch2c"
  type: "Convolution"
  bottom: "enet2_0_branch2b"
  top: "enet2_0_branch2c"
  param {
    lr_mult: 1
    decay_mult: 1
  }
  convolution_param {
    num_output: 128
    bias_term: false
    weight_filler {
      type: "msra"
    }
    bias_filler {
      type: "constant"
    }
    pad_h: 0
    pad_w: 0
    kernel_h: 1
    kernel_w: 1
    stride_h: 1
    stride_w: 1
    dilation: 1
  }
}
layer {
  name: "bn2_0_branch2c"
  type: "BN"
  bottom: "enet2_0_branch2c"
  top: "enet2_0_branch2c"
  param {
    lr_mult: 1
    decay_mult: 1
  }
  param {
    lr_mult: 2
    decay_mult: 0
  }
  bn_param {
    scale_filler {
      type: "constant"
      value: 1
    }
    shift_filler {
      type: "constant"
      value: 0.001
    }
  }
}
layer {
  name: "dropout2_0_branch2c"
  type: "Dropout"
  bottom: "enet2_0_branch2c"
  top: "enet2_0_branch2c"
  dropout_param {
    dropout_ratio: 0.1
  }
}
layer {
  name: "enet2_0_branch1a"
  type: "Convolution"
  bottom: "enet1_4"
  top: "enet2_0_branch1a"
  param {
    lr_mult: 1
    decay_mult: 1
  }
  convolution_param {
    num_output: 128
    bias_term: false
    weight_filler {
      type: "msra"
    }
    bias_filler {
      type: "constant"
    }
    pad_h: 0
    pad_w: 0
    kernel_h: 1
    kernel_w: 1
    stride_h: 1
    stride_w: 1
    dilation: 1
  }
}
layer {
  name: "bn2_0_branch1a"
  type: "BN"
  bottom: "enet2_0_branch1a"
  top: "enet2_0_branch1a"
  param {
    lr_mult: 1
    decay_mult: 1
  }
  param {
    lr_mult: 2
    decay_mult: 0
  }
  bn_param {
    scale_filler {
      type: "constant"
      value: 1
    }
    shift_filler {
      type: "constant"
      value: 0.001
    }
  }
}
layer {
  name: "pool2_0_branch1a"
  type: "Pooling"
  bottom: "enet2_0_branch1a"
  top: "pool2_0_branch1a"
  top: "pool2_0_branch1a_mask"
  pooling_param {
    pool: MAX
    kernel_size: 2
    stride: 2
  }
}
layer {
  name: "enet2_0"
  type: "Eltwise"
  bottom: "pool2_0_branch1a"
  bottom: "enet2_0_branch2c"
  top: "enet2_0"
}
layer {
  name: "relu2_0"
  type: "PReLU"
  bottom: "enet2_0"
  top: "enet2_0"
}
layer {
  name: "enet2_1_branch2a"
  type: "Convolution"
  bottom: "enet2_0"
  top: "enet2_1_branch2a"
  param {
    lr_mult: 1
    decay_mult: 1
  }
  convolution_param {
    num_output: 32
    bias_term: false
    weight_filler {
      type: "msra"
    }
    bias_filler {
      type: "constant"
    }
    pad_h: 0
    pad_w: 0
    kernel_h: 1
    kernel_w: 1
    stride_h: 1
    stride_w: 1
    dilation: 1
  }
}
layer {
  name: "bn2_1_branch2a"
  type: "BN"
  bottom: "enet2_1_branch2a"
  top: "enet2_1_branch2a"
  param {
    lr_mult: 1
    decay_mult: 1
  }
  param {
    lr_mult: 2
    decay_mult: 0
  }
  bn_param {
    scale_filler {
      type: "constant"
      value: 1
    }
    shift_filler {
      type: "constant"
      value: 0.001
    }
  }
}
layer {
  name: "relu2_1_branch2a"
  type: "PReLU"
  bottom: "enet2_1_branch2a"
  top: "enet2_1_branch2a"
}
layer {
  name: "enet2_1_branch2b"
  type: "Convolution"
  bottom: "enet2_1_branch2a"
  top: "enet2_1_branch2b"
  param {
    lr_mult: 1
    decay_mult: 1
  }
  param {
    lr_mult: 2
    decay_mult: 0
  }
  convolution_param {
    num_output: 32
    bias_term: true
    weight_filler {
      type: "msra"
    }
    bias_filler {
      type: "constant"
    }
    pad_h: 1
    pad_w: 1
    kernel_h: 3
    kernel_w: 3
    stride_h: 1
    stride_w: 1
    dilation: 1
  }
}
layer {
  name: "bn2_1_branch2b"
  type: "BN"
  bottom: "enet2_1_branch2b"
  top: "enet2_1_branch2b"
  param {
    lr_mult: 1
    decay_mult: 1
  }
  param {
    lr_mult: 2
    decay_mult: 0
  }
  bn_param {
    scale_filler {
      type: "constant"
      value: 1
    }
    shift_filler {
      type: "constant"
      value: 0.001
    }
  }
}
layer {
  name: "relu2_1_branch2b"
  type: "PReLU"
  bottom: "enet2_1_branch2b"
  top: "enet2_1_branch2b"
}
layer {
  name: "enet2_1_branch2c"
  type: "Convolution"
  bottom: "enet2_1_branch2b"
  top: "enet2_1_branch2c"
  param {
    lr_mult: 1
    decay_mult: 1
  }
  convolution_param {
    num_output: 128
    bias_term: false
    weight_filler {
      type: "msra"
    }
    bias_filler {
      type: "constant"
    }
    pad_h: 0
    pad_w: 0
    kernel_h: 1
    kernel_w: 1
    stride_h: 1
    stride_w: 1
    dilation: 1
  }
}
layer {
  name: "bn2_1_branch2c"
  type: "BN"
  bottom: "enet2_1_branch2c"
  top: "enet2_1_branch2c"
  param {
    lr_mult: 1
    decay_mult: 1
  }
  param {
    lr_mult: 2
    decay_mult: 0
  }
  bn_param {
    scale_filler {
      type: "constant"
      value: 1
    }
    shift_filler {
      type: "constant"
      value: 0.001
    }
  }
}
layer {
  name: "dropout2_1_branch2c"
  type: "Dropout"
  bottom: "enet2_1_branch2c"
  top: "enet2_1_branch2c"
  dropout_param {
    dropout_ratio: 0.1
  }
}
layer {
  name: "enet2_1"
  type: "Eltwise"
  bottom: "enet2_0"
  bottom: "enet2_1_branch2c"
  top: "enet2_1"
}
layer {
  name: "relu2_1"
  type: "PReLU"
  bottom: "enet2_1"
  top: "enet2_1"
}
layer {
  name: "enet2_2_branch2a"
  type: "Convolution"
  bottom: "enet2_1"
  top: "enet2_2_branch2a"
  param {
    lr_mult: 1
    decay_mult: 1
  }
  convolution_param {
    num_output: 32
    bias_term: false
    weight_filler {
      type: "msra"
    }
    bias_filler {
      type: "constant"
    }
    pad_h: 0
    pad_w: 0
    kernel_h: 1
    kernel_w: 1
    stride_h: 1
    stride_w: 1
    dilation: 1
  }
}
layer {
  name: "bn2_2_branch2a"
  type: "BN"
  bottom: "enet2_2_branch2a"
  top: "enet2_2_branch2a"
  param {
    lr_mult: 1
    decay_mult: 1
  }
  param {
    lr_mult: 2
    decay_mult: 0
  }
  bn_param {
    scale_filler {
      type: "constant"
      value: 1
    }
    shift_filler {
      type: "constant"
      value: 0.001
    }
  }
}
layer {
  name: "relu2_2_branch2a"
  type: "PReLU"
  bottom: "enet2_2_branch2a"
  top: "enet2_2_branch2a"
}
layer {
  name: "enet2_2_branch2b"
  type: "Convolution"
  bottom: "enet2_2_branch2a"
  top: "enet2_2_branch2b"
  param {
    lr_mult: 1
    decay_mult: 1
  }
  param {
    lr_mult: 2
    decay_mult: 0
  }
  convolution_param {
    num_output: 32
    bias_term: true
    weight_filler {
      type: "msra"
    }
    bias_filler {
      type: "constant"
    }
    pad_h: 2
    pad_w: 2
    kernel_h: 3
    kernel_w: 3
    stride_h: 1
    stride_w: 1
    dilation: 2
  }
}
layer {
  name: "bn2_2_branch2b"
  type: "BN"
  bottom: "enet2_2_branch2b"
  top: "enet2_2_branch2b"
  param {
    lr_mult: 1
    decay_mult: 1
  }
  param {
    lr_mult: 2
    decay_mult: 0
  }
  bn_param {
    scale_filler {
      type: "constant"
      value: 1
    }
    shift_filler {
      type: "constant"
      value: 0.001
    }
  }
}
layer {
  name: "relu2_2_branch2b"
  type: "PReLU"
  bottom: "enet2_2_branch2b"
  top: "enet2_2_branch2b"
}
layer {
  name: "enet2_2_branch2c"
  type: "Convolution"
  bottom: "enet2_2_branch2b"
  top: "enet2_2_branch2c"
  param {
    lr_mult: 1
    decay_mult: 1
  }
  convolution_param {
    num_output: 128
    bias_term: false
    weight_filler {
      type: "msra"
    }
    bias_filler {
      type: "constant"
    }
    pad_h: 0
    pad_w: 0
    kernel_h: 1
    kernel_w: 1
    stride_h: 1
    stride_w: 1
    dilation: 1
  }
}
layer {
  name: "bn2_2_branch2c"
  type: "BN"
  bottom: "enet2_2_branch2c"
  top: "enet2_2_branch2c"
  param {
    lr_mult: 1
    decay_mult: 1
  }
  param {
    lr_mult: 2
    decay_mult: 0
  }
  bn_param {
    scale_filler {
      type: "constant"
      value: 1
    }
    shift_filler {
      type: "constant"
      value: 0.001
    }
  }
}
layer {
  name: "dropout2_2_branch2c"
  type: "Dropout"
  bottom: "enet2_2_branch2c"
  top: "enet2_2_branch2c"
  dropout_param {
    dropout_ratio: 0.1
  }
}
layer {
  name: "enet2_2"
  type: "Eltwise"
  bottom: "enet2_1"
  bottom: "enet2_2_branch2c"
  top: "enet2_2"
}
layer {
  name: "relu2_2"
  type: "PReLU"
  bottom: "enet2_2"
  top: "enet2_2"
}
layer {
  name: "enet2_3_branch2a"
  type: "Convolution"
  bottom: "enet2_2"
  top: "enet2_3_branch2a"
  param {
    lr_mult: 1
    decay_mult: 1
  }
  convolution_param {
    num_output: 32
    bias_term: false
    weight_filler {
      type: "msra"
    }
    bias_filler {
      type: "constant"
    }
    pad_h: 0
    pad_w: 0
    kernel_h: 1
    kernel_w: 1
    stride_h: 1
    stride_w: 1
    dilation: 1
  }
}
layer {
  name: "bn2_3_branch2a"
  type: "BN"
  bottom: "enet2_3_branch2a"
  top: "enet2_3_branch2a"
  param {
    lr_mult: 1
    decay_mult: 1
  }
  param {
    lr_mult: 2
    decay_mult: 0
  }
  bn_param {
    scale_filler {
      type: "constant"
      value: 1
    }
    shift_filler {
      type: "constant"
      value: 0.001
    }
  }
}
layer {
  name: "relu2_3_branch2a"
  type: "PReLU"
  bottom: "enet2_3_branch2a"
  top: "enet2_3_branch2a"
}
layer {
  name: "enet2_3_branch2b1"
  type: "Convolution"
  bottom: "enet2_3_branch2a"
  top: "enet2_3_branch2b1"
  param {
    lr_mult: 1
    decay_mult: 1
  }
  convolution_param {
    num_output: 32
    bias_term: false
    weight_filler {
      type: "msra"
    }
    bias_filler {
      type: "constant"
    }
    pad_h: 0
    pad_w: 2
    kernel_h: 1
    kernel_w: 5
    stride_h: 1
    stride_w: 1
    dilation: 1
  }
}
layer {
  name: "enet2_3_branch2b"
  type: "Convolution"
  bottom: "enet2_3_branch2b1"
  top: "enet2_3_branch2b"
  param {
    lr_mult: 1
    decay_mult: 1
  }
  param {
    lr_mult: 2
    decay_mult: 0
  }
  convolution_param {
    num_output: 32
    bias_term: true
    weight_filler {
      type: "msra"
    }
    bias_filler {
      type: "constant"
    }
    pad_h: 2
    pad_w: 0
    kernel_h: 5
    kernel_w: 1
    stride_h: 1
    stride_w: 1
    dilation: 1
  }
}
layer {
  name: "bn2_3_branch2b"
  type: "BN"
  bottom: "enet2_3_branch2b"
  top: "enet2_3_branch2b"
  param {
    lr_mult: 1
    decay_mult: 1
  }
  param {
    lr_mult: 2
    decay_mult: 0
  }
  bn_param {
    scale_filler {
      type: "constant"
      value: 1
    }
    shift_filler {
      type: "constant"
      value: 0.001
    }
  }
}
layer {
  name: "relu2_3_branch2b"
  type: "PReLU"
  bottom: "enet2_3_branch2b"
  top: "enet2_3_branch2b"
}
layer {
  name: "enet2_3_branch2c"
  type: "Convolution"
  bottom: "enet2_3_branch2b"
  top: "enet2_3_branch2c"
  param {
    lr_mult: 1
    decay_mult: 1
  }
  convolution_param {
    num_output: 128
    bias_term: false
    weight_filler {
      type: "msra"
    }
    bias_filler {
      type: "constant"
    }
    pad_h: 0
    pad_w: 0
    kernel_h: 1
    kernel_w: 1
    stride_h: 1
    stride_w: 1
    dilation: 1
  }
}
layer {
  name: "bn2_3_branch2c"
  type: "BN"
  bottom: "enet2_3_branch2c"
  top: "enet2_3_branch2c"
  param {
    lr_mult: 1
    decay_mult: 1
  }
  param {
    lr_mult: 2
    decay_mult: 0
  }
  bn_param {
    scale_filler {
      type: "constant"
      value: 1
    }
    shift_filler {
      type: "constant"
      value: 0.001
    }
  }
}
layer {
  name: "dropout
I1213 16:41:42.426301  9787 layer_factory.hpp:77] Creating layer data
I1213 16:41:42.426383  9787 net.cpp:106] Creating Layer data
I1213 16:41:42.426399  9787 net.cpp:411] data -> data
I1213 16:41:42.426450  9787 net.cpp:411] data -> label
I1213 16:41:42.426476  9787 net.cpp:411] data -> (automatic)
I1213 16:41:42.427074  9787 image_seg_data_layer.cpp:46] Opening file /home/map/liuli/datasets/kitti/enet_train_test/train/enet_train.list
I1213 16:41:42.458436  9787 image_seg_data_layer.cpp:68] A total of 19941 images.
I1213 16:41:42.493927  9787 image_seg_data_layer.cpp:147] output data size: 4,3,377,1241
I1213 16:41:42.493950  9787 image_seg_data_layer.cpp:151] output label size: 4,1,377,1241
I1213 16:41:42.493958  9787 image_seg_data_layer.cpp:155] output data_dim size: 4,1,1,2
I1213 16:41:42.701270  9787 net.cpp:150] Setting up data
I1213 16:41:42.701329  9787 net.cpp:157] Top shape: 4 3 377 1241 (5614284)
I1213 16:41:42.701340  9787 net.cpp:157] Top shape: 4 1 377 1241 (1871428)
I1213 16:41:42.701349  9787 net.cpp:157] Top shape: 4 1 1 2 (8)
I1213 16:41:42.701355  9787 net.cpp:165] Memory required for data: 29942880
I1213 16:41:42.701370  9787 layer_factory.hpp:77] Creating layer data_data_0_split
I1213 16:41:42.701391  9787 net.cpp:106] Creating Layer data_data_0_split
I1213 16:41:42.701401  9787 net.cpp:454] data_data_0_split <- data
I1213 16:41:42.701433  9787 net.cpp:411] data_data_0_split -> data_data_0_split_0
I1213 16:41:42.701457  9787 net.cpp:411] data_data_0_split -> data_data_0_split_1
I1213 16:41:42.701521  9787 net.cpp:150] Setting up data_data_0_split
I1213 16:41:42.701534  9787 net.cpp:157] Top shape: 4 3 377 1241 (5614284)
I1213 16:41:42.701546  9787 net.cpp:157] Top shape: 4 3 377 1241 (5614284)
I1213 16:41:42.701552  9787 net.cpp:165] Memory required for data: 74857152
I1213 16:41:42.701560  9787 layer_factory.hpp:77] Creating layer label_data_1_split
I1213 16:41:42.701570  9787 net.cpp:106] Creating Layer label_data_1_split
I1213 16:41:42.701576  9787 net.cpp:454] label_data_1_split <- label
I1213 16:41:42.701606  9787 net.cpp:411] label_data_1_split -> label_data_1_split_0
I1213 16:41:42.701630  9787 net.cpp:411] label_data_1_split -> label_data_1_split_1
I1213 16:41:42.701678  9787 net.cpp:150] Setting up label_data_1_split
I1213 16:41:42.701689  9787 net.cpp:157] Top shape: 4 1 377 1241 (1871428)
I1213 16:41:42.701697  9787 net.cpp:157] Top shape: 4 1 377 1241 (1871428)
I1213 16:41:42.701704  9787 net.cpp:165] Memory required for data: 89828576
I1213 16:41:42.701709  9787 layer_factory.hpp:77] Creating layer enet_initial_branch2a
I1213 16:41:42.701740  9787 net.cpp:106] Creating Layer enet_initial_branch2a
I1213 16:41:42.701748  9787 net.cpp:454] enet_initial_branch2a <- data_data_0_split_0
I1213 16:41:42.701761  9787 net.cpp:411] enet_initial_branch2a -> enet_initial_branch2a
I1213 16:41:42.858206  9787 net.cpp:150] Setting up enet_initial_branch2a
I1213 16:41:42.858244  9787 net.cpp:157] Top shape: 4 13 189 621 (6103188)
I1213 16:41:42.858253  9787 net.cpp:165] Memory required for data: 114241328
I1213 16:41:42.858281  9787 layer_factory.hpp:77] Creating layer pool_initial_branch1a
I1213 16:41:42.858304  9787 net.cpp:106] Creating Layer pool_initial_branch1a
I1213 16:41:42.858314  9787 net.cpp:454] pool_initial_branch1a <- data_data_0_split_1
I1213 16:41:42.858327  9787 net.cpp:411] pool_initial_branch1a -> pool_initial_branch1a
I1213 16:41:42.858410  9787 net.cpp:150] Setting up pool_initial_branch1a
I1213 16:41:42.858424  9787 net.cpp:157] Top shape: 4 3 189 621 (1408428)
I1213 16:41:42.858431  9787 net.cpp:165] Memory required for data: 119875040
I1213 16:41:42.858438  9787 layer_factory.hpp:77] Creating layer enet_initial
I1213 16:41:42.858460  9787 net.cpp:106] Creating Layer enet_initial
I1213 16:41:42.858469  9787 net.cpp:454] enet_initial <- enet_initial_branch2a
I1213 16:41:42.858476  9787 net.cpp:454] enet_initial <- pool_initial_branch1a
I1213 16:41:42.858486  9787 net.cpp:411] enet_initial -> enet_initial
I1213 16:41:42.858530  9787 net.cpp:150] Setting up enet_initial
I1213 16:41:42.858541  9787 net.cpp:157] Top shape: 4 16 189 621 (7511616)
I1213 16:41:42.858548  9787 net.cpp:165] Memory required for data: 149921504
I1213 16:41:42.858556  9787 layer_factory.hpp:77] Creating layer bn_initial
I1213 16:41:42.858575  9787 net.cpp:106] Creating Layer bn_initial
I1213 16:41:42.858583  9787 net.cpp:454] bn_initial <- enet_initial
I1213 16:41:42.858593  9787 net.cpp:397] bn_initial -> enet_initial (in-place)
I1213 16:41:42.860016  9787 net.cpp:150] Setting up bn_initial
I1213 16:41:42.860033  9787 net.cpp:157] Top shape: 4 16 189 621 (7511616)
I1213 16:41:42.860040  9787 net.cpp:165] Memory required for data: 179967968
I1213 16:41:42.860054  9787 layer_factory.hpp:77] Creating layer relu_initial
I1213 16:41:42.860069  9787 net.cpp:106] Creating Layer relu_initial
I1213 16:41:42.860076  9787 net.cpp:454] relu_initial <- enet_initial
I1213 16:41:42.860090  9787 net.cpp:397] relu_initial -> enet_initial (in-place)
I1213 16:41:42.868844  9787 net.cpp:150] Setting up relu_initial
I1213 16:41:42.868872  9787 net.cpp:157] Top shape: 4 16 189 621 (7511616)
I1213 16:41:42.868880  9787 net.cpp:165] Memory required for data: 210014432
I1213 16:41:42.868898  9787 layer_factory.hpp:77] Creating layer enet_initial_relu_initial_0_split
I1213 16:41:42.868914  9787 net.cpp:106] Creating Layer enet_initial_relu_initial_0_split
I1213 16:41:42.868922  9787 net.cpp:454] enet_initial_relu_initial_0_split <- enet_initial
I1213 16:41:42.868934  9787 net.cpp:411] enet_initial_relu_initial_0_split -> enet_initial_relu_initial_0_split_0
I1213 16:41:42.868952  9787 net.cpp:411] enet_initial_relu_initial_0_split -> enet_initial_relu_initial_0_split_1
I1213 16:41:42.869006  9787 net.cpp:150] Setting up enet_initial_relu_initial_0_split
I1213 16:41:42.869019  9787 net.cpp:157] Top shape: 4 16 189 621 (7511616)
I1213 16:41:42.869026  9787 net.cpp:157] Top shape: 4 16 189 621 (7511616)
I1213 16:41:42.869034  9787 net.cpp:165] Memory required for data: 270107360
I1213 16:41:42.869040  9787 layer_factory.hpp:77] Creating layer enet1_0_branch2a
I1213 16:41:42.869079  9787 net.cpp:106] Creating Layer enet1_0_branch2a
I1213 16:41:42.869101  9787 net.cpp:454] enet1_0_branch2a <- enet_initial_relu_initial_0_split_0
I1213 16:41:42.869112  9787 net.cpp:411] enet1_0_branch2a -> enet1_0_branch2a
I1213 16:41:42.872103  9787 net.cpp:150] Setting up enet1_0_branch2a
I1213 16:41:42.872126  9787 net.cpp:157] Top shape: 4 16 95 311 (1890880)
I1213 16:41:42.872134  9787 net.cpp:165] Memory required for data: 277670880
I1213 16:41:42.872144  9787 layer_factory.hpp:77] Creating layer bn1_0_branch2a
I1213 16:41:42.872164  9787 net.cpp:106] Creating Layer bn1_0_branch2a
I1213 16:41:42.872172  9787 net.cpp:454] bn1_0_branch2a <- enet1_0_branch2a
I1213 16:41:42.872184  9787 net.cpp:397] bn1_0_branch2a -> enet1_0_branch2a (in-place)
I1213 16:41:42.873590  9787 net.cpp:150] Setting up bn1_0_branch2a
I1213 16:41:42.873608  9787 net.cpp:157] Top shape: 4 16 95 311 (1890880)
I1213 16:41:42.873616  9787 net.cpp:165] Memory required for data: 285234400
I1213 16:41:42.873627  9787 layer_factory.hpp:77] Creating layer relu1_0_branch2a
I1213 16:41:42.873641  9787 net.cpp:106] Creating Layer relu1_0_branch2a
I1213 16:41:42.873649  9787 net.cpp:454] relu1_0_branch2a <- enet1_0_branch2a
I1213 16:41:42.873659  9787 net.cpp:397] relu1_0_branch2a -> enet1_0_branch2a (in-place)
I1213 16:41:42.876071  9787 net.cpp:150] Setting up relu1_0_branch2a
I1213 16:41:42.876093  9787 net.cpp:157] Top shape: 4 16 95 311 (1890880)
I1213 16:41:42.876101  9787 net.cpp:165] Memory required for data: 292797920
I1213 16:41:42.876117  9787 layer_factory.hpp:77] Creating layer enet1_0_branch2b
I1213 16:41:42.876138  9787 net.cpp:106] Creating Layer enet1_0_branch2b
I1213 16:41:42.876145  9787 net.cpp:454] enet1_0_branch2b <- enet1_0_branch2a
I1213 16:41:42.876159  9787 net.cpp:411] enet1_0_branch2b -> enet1_0_branch2b
I1213 16:41:42.881322  9787 net.cpp:150] Setting up enet1_0_branch2b
I1213 16:41:42.881346  9787 net.cpp:157] Top shape: 4 16 95 311 (1890880)
I1213 16:41:42.881356  9787 net.cpp:165] Memory required for data: 300361440
I1213 16:41:42.881371  9787 layer_factory.hpp:77] Creating layer bn1_0_branch2b
I1213 16:41:42.881389  9787 net.cpp:106] Creating Layer bn1_0_branch2b
I1213 16:41:42.881397  9787 net.cpp:454] bn1_0_branch2b <- enet1_0_branch2b
I1213 16:41:42.881412  9787 net.cpp:397] bn1_0_branch2b -> enet1_0_branch2b (in-place)
I1213 16:41:42.881737  9787 net.cpp:150] Setting up bn1_0_branch2b
I1213 16:41:42.881752  9787 net.cpp:157] Top shape: 4 16 95 311 (1890880)
I1213 16:41:42.881758  9787 net.cpp:165] Memory required for data: 307924960
I1213 16:41:42.881768  9787 layer_factory.hpp:77] Creating layer relu1_0_branch2b
I1213 16:41:42.881779  9787 net.cpp:106] Creating Layer relu1_0_branch2b
I1213 16:41:42.881786  9787 net.cpp:454] relu1_0_branch2b <- enet1_0_branch2b
I1213 16:41:42.881795  9787 net.cpp:397] relu1_0_branch2b -> enet1_0_branch2b (in-place)
I1213 16:41:42.884166  9787 net.cpp:150] Setting up relu1_0_branch2b
I1213 16:41:42.884182  9787 net.cpp:157] Top shape: 4 16 95 311 (1890880)
I1213 16:41:42.884189  9787 net.cpp:165] Memory required for data: 315488480
I1213 16:41:42.884199  9787 layer_factory.hpp:77] Creating layer enet1_0_branch2c
I1213 16:41:42.884218  9787 net.cpp:106] Creating Layer enet1_0_branch2c
I1213 16:41:42.884225  9787 net.cpp:454] enet1_0_branch2c <- enet1_0_branch2b
I1213 16:41:42.884239  9787 net.cpp:411] enet1_0_branch2c -> enet1_0_branch2c
I1213 16:41:42.887236  9787 net.cpp:150] Setting up enet1_0_branch2c
I1213 16:41:42.887254  9787 net.cpp:157] Top shape: 4 64 95 311 (7563520)
I1213 16:41:42.887261  9787 net.cpp:165] Memory required for data: 345742560
I1213 16:41:42.887271  9787 layer_factory.hpp:77] Creating layer bn1_0_branch2c
I1213 16:41:42.887293  9787 net.cpp:106] Creating Layer bn1_0_branch2c
I1213 16:41:42.887301  9787 net.cpp:454] bn1_0_branch2c <- enet1_0_branch2c
I1213 16:41:42.887312  9787 net.cpp:397] bn1_0_branch2c -> enet1_0_branch2c (in-place)
I1213 16:41:42.887639  9787 net.cpp:150] Setting up bn1_0_branch2c
I1213 16:41:42.887655  9787 net.cpp:157] Top shape: 4 64 95 311 (7563520)
I1213 16:41:42.887686  9787 net.cpp:165] Memory required for data: 375996640
I1213 16:41:42.887702  9787 layer_factory.hpp:77] Creating layer dropout1_0_branch2c
I1213 16:41:42.887720  9787 net.cpp:106] Creating Layer dropout1_0_branch2c
I1213 16:41:42.887728  9787 net.cpp:454] dropout1_0_branch2c <- enet1_0_branch2c
I1213 16:41:42.887738  9787 net.cpp:397] dropout1_0_branch2c -> enet1_0_branch2c (in-place)
I1213 16:41:42.887794  9787 net.cpp:150] Setting up dropout1_0_branch2c
I1213 16:41:42.887806  9787 net.cpp:157] Top shape: 4 64 95 311 (7563520)
I1213 16:41:42.887814  9787 net.cpp:165] Memory required for data: 406250720
I1213 16:41:42.887820  9787 layer_factory.hpp:77] Creating layer enet1_0_branch1a
I1213 16:41:42.887835  9787 net.cpp:106] Creating Layer enet1_0_branch1a
I1213 16:41:42.887843  9787 net.cpp:454] enet1_0_branch1a <- enet_initial_relu_initial_0_split_1
I1213 16:41:42.887857  9787 net.cpp:411] enet1_0_branch1a -> enet1_0_branch1a
I1213 16:41:42.890753  9787 net.cpp:150] Setting up enet1_0_branch1a
I1213 16:41:42.890771  9787 net.cpp:157] Top shape: 4 64 189 621 (30046464)
I1213 16:41:42.890779  9787 net.cpp:165] Memory required for data: 526436576
I1213 16:41:42.890789  9787 layer_factory.hpp:77] Creating layer bn1_0_branch1a
I1213 16:41:42.890800  9787 net.cpp:106] Creating Layer bn1_0_branch1a
I1213 16:41:42.890807  9787 net.cpp:454] bn1_0_branch1a <- enet1_0_branch1a
I1213 16:41:42.890821  9787 net.cpp:397] bn1_0_branch1a -> enet1_0_branch1a (in-place)
I1213 16:41:42.892247  9787 net.cpp:150] Setting up bn1_0_branch1a
I1213 16:41:42.892264  9787 net.cpp:157] Top shape: 4 64 189 621 (30046464)
I1213 16:41:42.892272  9787 net.cpp:165] Memory required for data: 646622432
I1213 16:41:42.892283  9787 layer_factory.hpp:77] Creating layer pool1_0_branch1a
I1213 16:41:42.892292  9787 layer_factory.cpp:91] cuDNN does not support multiple tops. Using Caffe's own pooling layer.
I1213 16:41:42.892302  9787 net.cpp:106] Creating Layer pool1_0_branch1a
I1213 16:41:42.892308  9787 net.cpp:454] pool1_0_branch1a <- enet1_0_branch1a
I1213 16:41:42.892318  9787 net.cpp:411] pool1_0_branch1a -> pool1_0_branch1a
I1213 16:41:42.892338  9787 net.cpp:411] pool1_0_branch1a -> pool1_0_branch1a_mask
I1213 16:41:42.892393  9787 net.cpp:150] Setting up pool1_0_branch1a
I1213 16:41:42.892406  9787 net.cpp:157] Top shape: 4 64 95 311 (7563520)
I1213 16:41:42.892415  9787 net.cpp:157] Top shape: 4 64 95 311 (7563520)
I1213 16:41:42.892421  9787 net.cpp:165] Memory required for data: 707130592
I1213 16:41:42.892427  9787 layer_factory.hpp:77] Creating layer enet1_0
I1213 16:41:42.892448  9787 net.cpp:106] Creating Layer enet1_0
I1213 16:41:42.892457  9787 net.cpp:454] enet1_0 <- pool1_0_branch1a
I1213 16:41:42.892464  9787 net.cpp:454] enet1_0 <- enet1_0_branch2c
I1213 16:41:42.892473  9787 net.cpp:411] enet1_0 -> enet1_0
I1213 16:41:42.892518  9787 net.cpp:150] Setting up enet1_0
I1213 16:41:42.892529  9787 net.cpp:157] Top shape: 4 64 95 311 (7563520)
I1213 16:41:42.892536  9787 net.cpp:165] Memory required for data: 737384672
I1213 16:41:42.892544  9787 layer_factory.hpp:77] Creating layer relu1_0
I1213 16:41:42.892555  9787 net.cpp:106] Creating Layer relu1_0
I1213 16:41:42.892562  9787 net.cpp:454] relu1_0 <- enet1_0
I1213 16:41:42.892571  9787 net.cpp:397] relu1_0 -> enet1_0 (in-place)
I1213 16:41:42.900774  9787 net.cpp:150] Setting up relu1_0
I1213 16:41:42.900799  9787 net.cpp:157] Top shape: 4 64 95 311 (7563520)
I1213 16:41:42.900805  9787 net.cpp:165] Memory required for data: 767638752
I1213 16:41:42.900816  9787 layer_factory.hpp:77] Creating layer enet1_0_relu1_0_0_split
I1213 16:41:42.900827  9787 net.cpp:106] Creating Layer enet1_0_relu1_0_0_split
I1213 16:41:42.900835  9787 net.cpp:454] enet1_0_relu1_0_0_split <- enet1_0
I1213 16:41:42.900848  9787 net.cpp:411] enet1_0_relu1_0_0_split -> enet1_0_relu1_0_0_split_0
I1213 16:41:42.900861  9787 net.cpp:411] enet1_0_relu1_0_0_split -> enet1_0_relu1_0_0_split_1
I1213 16:41:42.900915  9787 net.cpp:150] Setting up enet1_0_relu1_0_0_split
I1213 16:41:42.900938  9787 net.cpp:157] Top shape: 4 64 95 311 (7563520)
I1213 16:41:42.900956  9787 net.cpp:157] Top shape: 4 64 95 311 (7563520)
I1213 16:41:42.900964  9787 net.cpp:165] Memory required for data: 828146912
I1213 16:41:42.900969  9787 layer_factory.hpp:77] Creating layer enet1_1_branch2a
I1213 16:41:42.900987  9787 net.cpp:106] Creating Layer enet1_1_branch2a
I1213 16:41:42.900995  9787 net.cpp:454] enet1_1_branch2a <- enet1_0_relu1_0_0_split_0
I1213 16:41:42.901006  9787 net.cpp:411] enet1_1_branch2a -> enet1_1_branch2a
I1213 16:41:42.905339  9787 net.cpp:150] Setting up enet1_1_branch2a
I1213 16:41:42.905367  9787 net.cpp:157] Top shape: 4 16 95 311 (1890880)
I1213 16:41:42.905375  9787 net.cpp:165] Memory required for data: 835710432
I1213 16:41:42.905386  9787 layer_factory.hpp:77] Creating layer bn1_1_branch2a
I1213 16:41:42.905405  9787 net.cpp:106] Creating Layer bn1_1_branch2a
I1213 16:41:42.905413  9787 net.cpp:454] bn1_1_branch2a <- enet1_1_branch2a
I1213 16:41:42.905424  9787 net.cpp:397] bn1_1_branch2a -> enet1_1_branch2a (in-place)
I1213 16:41:42.906883  9787 net.cpp:150] Setting up bn1_1_branch2a
I1213 16:41:42.906903  9787 net.cpp:157] Top shape: 4 16 95 311 (1890880)
I1213 16:41:42.906909  9787 net.cpp:165] Memory required for data: 843273952
I1213 16:41:42.906920  9787 layer_factory.hpp:77] Creating layer relu1_1_branch2a
I1213 16:41:42.906932  9787 net.cpp:106] Creating Layer relu1_1_branch2a
I1213 16:41:42.906939  9787 net.cpp:454] relu1_1_branch2a <- enet1_1_branch2a
I1213 16:41:42.906949  9787 net.cpp:397] relu1_1_branch2a -> enet1_1_branch2a (in-place)
I1213 16:41:42.909354  9787 net.cpp:150] Setting up relu1_1_branch2a
I1213 16:41:42.909373  9787 net.cpp:157] Top shape: 4 16 95 311 (1890880)
I1213 16:41:42.909381  9787 net.cpp:165] Memory required for data: 850837472
I1213 16:41:42.909391  9787 layer_factory.hpp:77] Creating layer enet1_1_branch2b
I1213 16:41:42.909415  9787 net.cpp:106] Creating Layer enet1_1_branch2b
I1213 16:41:42.909422  9787 net.cpp:454] enet1_1_branch2b <- enet1_1_branch2a
I1213 16:41:42.909433  9787 net.cpp:411] enet1_1_branch2b -> enet1_1_branch2b
I1213 16:41:42.912592  9787 net.cpp:150] Setting up enet1_1_branch2b
I1213 16:41:42.912617  9787 net.cpp:157] Top shape: 4 16 95 311 (1890880)
I1213 16:41:42.912624  9787 net.cpp:165] Memory required for data: 858400992
I1213 16:41:42.912636  9787 layer_factory.hpp:77] Creating layer bn1_1_branch2b
I1213 16:41:42.912654  9787 net.cpp:106] Creating Layer bn1_1_branch2b
I1213 16:41:42.912662  9787 net.cpp:454] bn1_1_branch2b <- enet1_1_branch2b
I1213 16:41:42.912673  9787 net.cpp:397] bn1_1_branch2b -> enet1_1_branch2b (in-place)
I1213 16:41:42.913018  9787 net.cpp:150] Setting up bn1_1_branch2b
I1213 16:41:42.913033  9787 net.cpp:157] Top shape: 4 16 95 311 (1890880)
I1213 16:41:42.913040  9787 net.cpp:165] Memory required for data: 865964512
I1213 16:41:42.913051  9787 layer_factory.hpp:77] Creating layer relu1_1_branch2b
I1213 16:41:42.913063  9787 net.cpp:106] Creating Layer relu1_1_branch2b
I1213 16:41:42.913069  9787 net.cpp:454] relu1_1_branch2b <- enet1_1_branch2b
I1213 16:41:42.913079  9787 net.cpp:397] relu1_1_branch2b -> enet1_1_branch2b (in-place)
I1213 16:41:42.916262  9787 net.cpp:150] Setting up relu1_1_branch2b
I1213 16:41:42.916281  9787 net.cpp:157] Top shape: 4 16 95 311 (1890880)
I1213 16:41:42.916290  9787 net.cpp:165] Memory required for data: 873528032
I1213 16:41:42.916299  9787 layer_factory.hpp:77] Creating layer enet1_1_branch2c
I1213 16:41:42.916317  9787 net.cpp:106] Creating Layer enet1_1_branch2c
I1213 16:41:42.916326  9787 net.cpp:454] enet1_1_branch2c <- enet1_1_branch2b
I1213 16:41:42.916337  9787 net.cpp:411] enet1_1_branch2c -> enet1_1_branch2c
I1213 16:41:42.919415  9787 net.cpp:150] Setting up enet1_1_branch2c
I1213 16:41:42.919435  9787 net.cpp:157] Top shape: 4 64 95 311 (7563520)
I1213 16:41:42.919446  9787 net.cpp:165] Memory required for data: 903782112
I1213 16:41:42.919457  9787 layer_factory.hpp:77] Creating layer bn1_1_branch2c
I1213 16:41:42.919472  9787 net.cpp:106] Creating Layer bn1_1_branch2c
I1213 16:41:42.919500  9787 net.cpp:454] bn1_1_branch2c <- enet1_1_branch2c
I1213 16:41:42.919529  9787 net.cpp:397] bn1_1_branch2c -> enet1_1_branch2c (in-place)
I1213 16:41:42.919874  9787 net.cpp:150] Setting up bn1_1_branch2c
I1213 16:41:42.919888  9787 net.cpp:157] Top shape: 4 64 95 311 (7563520)
I1213 16:41:42.919894  9787 net.cpp:165] Memory required for data: 934036192
I1213 16:41:42.919914  9787 layer_factory.hpp:77] Creating layer dropout1_1_branch2c
I1213 16:41:42.919932  9787 net.cpp:106] Creating Layer dropout1_1_branch2c
I1213 16:41:42.919940  9787 net.cpp:454] dropout1_1_branch2c <- enet1_1_branch2c
I1213 16:41:42.919952  9787 net.cpp:397] dropout1_1_branch2c -> enet1_1_branch2c (in-place)
I1213 16:41:42.919992  9787 net.cpp:150] Setting up dropout1_1_branch2c
I1213 16:41:42.920004  9787 net.cpp:157] Top shape: 4 64 95 311 (7563520)
I1213 16:41:42.920011  9787 net.cpp:165] Memory required for data: 964290272
I1213 16:41:42.920017  9787 layer_factory.hpp:77] Creating layer enet1_1
I1213 16:41:42.920027  9787 net.cpp:106] Creating Layer enet1_1
I1213 16:41:42.920033  9787 net.cpp:454] enet1_1 <- enet1_0_relu1_0_0_split_1
I1213 16:41:42.920047  9787 net.cpp:454] enet1_1 <- enet1_1_branch2c
I1213 16:41:42.920058  9787 net.cpp:411] enet1_1 -> enet1_1
I1213 16:41:42.920099  9787 net.cpp:150] Setting up enet1_1
I1213 16:41:42.920111  9787 net.cpp:157] Top shape: 4 64 95 311 (7563520)
I1213 16:41:42.920117  9787 net.cpp:165] Memory required for data: 994544352
I1213 16:41:42.920125  9787 layer_factory.hpp:77] Creating layer relu1_1
I1213 16:41:42.920133  9787 net.cpp:106] Creating Layer relu1_1
I1213 16:41:42.920140  9787 net.cpp:454] relu1_1 <- enet1_1
I1213 16:41:42.920152  9787 net.cpp:397] relu1_1 -> enet1_1 (in-place)
I1213 16:41:42.928176  9787 net.cpp:150] Setting up relu1_1
I1213 16:41:42.928200  9787 net.cpp:157] Top shape: 4 64 95 311 (7563520)
I1213 16:41:42.928208  9787 net.cpp:165] Memory required for data: 1024798432
I1213 16:41:42.928220  9787 layer_factory.hpp:77] Creating layer enet1_1_relu1_1_0_split
I1213 16:41:42.928233  9787 net.cpp:106] Creating Layer enet1_1_relu1_1_0_split
I1213 16:41:42.928241  9787 net.cpp:454] enet1_1_relu1_1_0_split <- enet1_1
I1213 16:41:42.928251  9787 net.cpp:411] enet1_1_relu1_1_0_split -> enet1_1_relu1_1_0_split_0
I1213 16:41:42.928267  9787 net.cpp:411] enet1_1_relu1_1_0_split -> enet1_1_relu1_1_0_split_1
I1213 16:41:42.928328  9787 net.cpp:150] Setting up enet1_1_relu1_1_0_split
I1213 16:41:42.928340  9787 net.cpp:157] Top shape: 4 64 95 311 (7563520)
I1213 16:41:42.928349  9787 net.cpp:157] Top shape: 4 64 95 311 (7563520)
I1213 16:41:42.928354  9787 net.cpp:165] Memory required for data: 1085306592
I1213 16:41:42.928361  9787 layer_factory.hpp:77] Creating layer enet1_2_branch2a
I1213 16:41:42.928376  9787 net.cpp:106] Creating Layer enet1_2_branch2a
I1213 16:41:42.928383  9787 net.cpp:454] enet1_2_branch2a <- enet1_1_relu1_1_0_split_0
I1213 16:41:42.928398  9787 net.cpp:411] enet1_2_branch2a -> enet1_2_branch2a
I1213 16:41:42.931545  9787 net.cpp:150] Setting up enet1_2_branch2a
I1213 16:41:42.931562  9787 net.cpp:157] Top shape: 4 16 95 311 (1890880)
I1213 16:41:42.931573  9787 net.cpp:165] Memory required for data: 1092870112
I1213 16:41:42.931583  9787 layer_factory.hpp:77] Creating layer bn1_2_branch2a
I1213 16:41:42.931596  9787 net.cpp:106] Creating Layer bn1_2_branch2a
I1213 16:41:42.931603  9787 net.cpp:454] bn1_2_branch2a <- enet1_2_branch2a
I1213 16:41:42.931618  9787 net.cpp:397] bn1_2_branch2a -> enet1_2_branch2a (in-place)
I1213 16:41:42.931987  9787 net.cpp:150] Setting up bn1_2_branch2a
I1213 16:41:42.932000  9787 net.cpp:157] Top shape: 4 16 95 311 (1890880)
I1213 16:41:42.932006  9787 net.cpp:165] Memory required for data: 1100433632
I1213 16:41:42.932018  9787 layer_factory.hpp:77] Creating layer relu1_2_branch2a
I1213 16:41:42.932030  9787 net.cpp:106] Creating Layer relu1_2_branch2a
I1213 16:41:42.932039  9787 net.cpp:454] relu1_2_branch2a <- enet1_2_branch2a
I1213 16:41:42.932047  9787 net.cpp:397] relu1_2_branch2a -> enet1_2_branch2a (in-place)
I1213 16:41:42.934458  9787 net.cpp:150] Setting up relu1_2_branch2a
I1213 16:41:42.934475  9787 net.cpp:157] Top shape: 4 16 95 311 (1890880)
I1213 16:41:42.934483  9787 net.cpp:165] Memory required for data: 1107997152
I1213 16:41:42.934492  9787 layer_factory.hpp:77] Creating layer enet1_2_branch2b
I1213 16:41:42.934510  9787 net.cpp:106] Creating Layer enet1_2_branch2b
I1213 16:41:42.934518  9787 net.cpp:454] enet1_2_branch2b <- enet1_2_branch2a
I1213 16:41:42.934532  9787 net.cpp:411] enet1_2_branch2b -> enet1_2_branch2b
I1213 16:41:42.938838  9787 net.cpp:150] Setting up enet1_2_branch2b
I1213 16:41:42.938865  9787 net.cpp:157] Top shape: 4 16 95 311 (1890880)
I1213 16:41:42.938872  9787 net.cpp:165] Memory required for data: 1115560672
I1213 16:41:42.938885  9787 layer_factory.hpp:77] Creating layer bn1_2_branch2b
I1213 16:41:42.938902  9787 net.cpp:106] Creating Layer bn1_2_branch2b
I1213 16:41:42.938911  9787 net.cpp:454] bn1_2_branch2b <- enet1_2_branch2b
I1213 16:41:42.938925  9787 net.cpp:397] bn1_2_branch2b -> enet1_2_branch2b (in-place)
I1213 16:41:42.939275  9787 net.cpp:150] Setting up bn1_2_branch2b
I1213 16:41:42.939290  9787 net.cpp:157] Top shape: 4 16 95 311 (1890880)
I1213 16:41:42.939296  9787 net.cpp:165] Memory required for data: 1123124192
I1213 16:41:42.939307  9787 layer_factory.hpp:77] Creating layer relu1_2_branch2b
I1213 16:41:42.939321  9787 net.cpp:106] Creating Layer relu1_2_branch2b
I1213 16:41:42.939328  9787 net.cpp:454] relu1_2_branch2b <- enet1_2_branch2b
I1213 16:41:42.939337  9787 net.cpp:397] relu1_2_branch2b -> enet1_2_branch2b (in-place)
I1213 16:41:42.941840  9787 net.cpp:150] Setting up relu1_2_branch2b
I1213 16:41:42.941862  9787 net.cpp:157] Top shape: 4 16 95 311 (1890880)
I1213 16:41:42.941869  9787 net.cpp:165] Memory required for data: 1130687712
I1213 16:41:42.941880  9787 layer_factory.hpp:77] Creating layer enet1_2_branch2c
I1213 16:41:42.941901  9787 net.cpp:106] Creating Layer enet1_2_branch2c
I1213 16:41:42.941910  9787 net.cpp:454] enet1_2_branch2c <- enet1_2_branch2b
I1213 16:41:42.941923  9787 net.cpp:411] enet1_2_branch2c -> enet1_2_branch2c
I1213 16:41:42.945348  9787 net.cpp:150] Setting up enet1_2_branch2c
I1213 16:41:42.945374  9787 net.cpp:157] Top shape: 4 64 95 311 (7563520)
I1213 16:41:42.945381  9787 net.cpp:165] Memory required for data: 1160941792
I1213 16:41:42.945392  9787 layer_factory.hpp:77] Creating layer bn1_2_branch2c
I1213 16:41:42.945410  9787 net.cpp:106] Creating Layer bn1_2_branch2c
I1213 16:41:42.945417  9787 net.cpp:454] bn1_2_branch2c <- enet1_2_branch2c
I1213 16:41:42.945430  9787 net.cpp:397] bn1_2_branch2c -> enet1_2_branch2c (in-place)
I1213 16:41:42.945806  9787 net.cpp:150] Setting up bn1_2_branch2c
I1213 16:41:42.945821  9787 net.cpp:157] Top shape: 4 64 95 311 (7563520)
I1213 16:41:42.945827  9787 net.cpp:165] Memory required for data: 1191195872
I1213 16:41:42.945838  9787 layer_factory.hpp:77] Creating layer dropout1_2_branch2c
I1213 16:41:42.945849  9787 net.cpp:106] Creating Layer dropout1_2_branch2c
I1213 16:41:42.945857  9787 net.cpp:454] dropout1_2_branch2c <- enet1_2_branch2c
I1213 16:41:42.945865  9787 net.cpp:397] dropout1_2_branch2c -> enet1_2_branch2c (in-place)
I1213 16:41:42.945910  9787 net.cpp:150] Setting up dropout1_2_branch2c
I1213 16:41:42.945922  9787 net.cpp:157] Top shape: 4 64 95 311 (7563520)
I1213 16:41:42.945930  9787 net.cpp:165] Memory required for data: 1221449952
I1213 16:41:42.945935  9787 layer_factory.hpp:77] Creating layer enet1_2
I1213 16:41:42.945948  9787 net.cpp:106] Creating Layer enet1_2
I1213 16:41:42.945956  9787 net.cpp:454] enet1_2 <- enet1_1_relu1_1_0_split_1
I1213 16:41:42.945966  9787 net.cpp:454] enet1_2 <- enet1_2_branch2c
I1213 16:41:42.945974  9787 net.cpp:411] enet1_2 -> enet1_2
I1213 16:41:42.946017  9787 net.cpp:150] Setting up enet1_2
I1213 16:41:42.946029  9787 net.cpp:157] Top shape: 4 64 95 311 (7563520)
I1213 16:41:42.946035  9787 net.cpp:165] Memory required for data: 1251704032
I1213 16:41:42.946043  9787 layer_factory.hpp:77] Creating layer relu1_2
I1213 16:41:42.946070  9787 net.cpp:106] Creating Layer relu1_2
I1213 16:41:42.946092  9787 net.cpp:454] relu1_2 <- enet1_2
I1213 16:41:42.946110  9787 net.cpp:397] relu1_2 -> enet1_2 (in-place)
I1213 16:41:42.993089  9787 net.cpp:150] Setting up relu1_2
I1213 16:41:42.993139  9787 net.cpp:157] Top shape: 4 64 95 311 (7563520)
I1213 16:41:42.993146  9787 net.cpp:165] Memory required for data: 1281958112
I1213 16:41:42.993161  9787 layer_factory.hpp:77] Creating layer enet1_2_relu1_2_0_split
I1213 16:41:42.993177  9787 net.cpp:106] Creating Layer enet1_2_relu1_2_0_split
I1213 16:41:42.993185  9787 net.cpp:454] enet1_2_relu1_2_0_split <- enet1_2
I1213 16:41:42.993201  9787 net.cpp:411] enet1_2_relu1_2_0_split -> enet1_2_relu1_2_0_split_0
I1213 16:41:42.993218  9787 net.cpp:411] enet1_2_relu1_2_0_split -> enet1_2_relu1_2_0_split_1
I1213 16:41:42.993909  9787 net.cpp:150] Setting up enet1_2_relu1_2_0_split
I1213 16:41:42.993924  9787 net.cpp:157] Top shape: 4 64 95 311 (7563520)
I1213 16:41:42.993937  9787 net.cpp:157] Top shape: 4 64 95 311 (7563520)
I1213 16:41:42.993943  9787 net.cpp:165] Memory required for data: 1342466272
I1213 16:41:42.993950  9787 layer_factory.hpp:77] Creating layer enet1_3_branch2a
I1213 16:41:42.993973  9787 net.cpp:106] Creating Layer enet1_3_branch2a
I1213 16:41:42.993980  9787 net.cpp:454] enet1_3_branch2a <- enet1_2_relu1_2_0_split_0
I1213 16:41:42.993991  9787 net.cpp:411] enet1_3_branch2a -> enet1_3_branch2a
I1213 16:41:42.997179  9787 net.cpp:150] Setting up enet1_3_branch2a
I1213 16:41:42.997197  9787 net.cpp:157] Top shape: 4 16 95 311 (1890880)
I1213 16:41:42.997205  9787 net.cpp:165] Memory required for data: 1350029792
I1213 16:41:42.997215  9787 layer_factory.hpp:77] Creating layer bn1_3_branch2a
I1213 16:41:42.997233  9787 net.cpp:106] Creating Layer bn1_3_branch2a
I1213 16:41:42.997241  9787 net.cpp:454] bn1_3_branch2a <- enet1_3_branch2a
I1213 16:41:42.997254  9787 net.cpp:397] bn1_3_branch2a -> enet1_3_branch2a (in-place)
I1213 16:41:42.997653  9787 net.cpp:150] Setting up bn1_3_branch2a
I1213 16:41:42.997668  9787 net.cpp:157] Top shape: 4 16 95 311 (1890880)
I1213 16:41:42.997673  9787 net.cpp:165] Memory required for data: 1357593312
I1213 16:41:42.997684  9787 layer_factory.hpp:77] Creating layer relu1_3_branch2a
I1213 16:41:42.997696  9787 net.cpp:106] Creating Layer relu1_3_branch2a
I1213 16:41:42.997704  9787 net.cpp:454] relu1_3_branch2a <- enet1_3_branch2a
I1213 16:41:42.997712  9787 net.cpp:397] relu1_3_branch2a -> enet1_3_branch2a (in-place)
I1213 16:41:42.999990  9787 net.cpp:150] Setting up relu1_3_branch2a
I1213 16:41:43.000007  9787 net.cpp:157] Top shape: 4 16 95 311 (1890880)
I1213 16:41:43.000015  9787 net.cpp:165] Memory required for data: 1365156832
I1213 16:41:43.000025  9787 layer_factory.hpp:77] Creating layer enet1_3_branch2b
I1213 16:41:43.000041  9787 net.cpp:106] Creating Layer enet1_3_branch2b
I1213 16:41:43.000049  9787 net.cpp:454] enet1_3_branch2b <- enet1_3_branch2a
I1213 16:41:43.000066  9787 net.cpp:411] enet1_3_branch2b -> enet1_3_branch2b
I1213 16:41:43.003374  9787 net.cpp:150] Setting up enet1_3_branch2b
I1213 16:41:43.003393  9787 net.cpp:157] Top shape: 4 16 95 311 (1890880)
I1213 16:41:43.003401  9787 net.cpp:165] Memory required for data: 1372720352
I1213 16:41:43.003412  9787 layer_factory.hpp:77] Creating layer bn1_3_branch2b
I1213 16:41:43.003428  9787 net.cpp:106] Creating Layer bn1_3_branch2b
I1213 16:41:43.003437  9787 net.cpp:454] bn1_3_branch2b <- enet1_3_branch2b
I1213 16:41:43.003458  9787 net.cpp:397] bn1_3_branch2b -> enet1_3_branch2b (in-place)
I1213 16:41:43.004812  9787 net.cpp:150] Setting up bn1_3_branch2b
I1213 16:41:43.004828  9787 net.cpp:157] Top shape: 4 16 95 311 (1890880)
I1213 16:41:43.004835  9787 net.cpp:165] Memory required for data: 1380283872
I1213 16:41:43.004847  9787 layer_factory.hpp:77] Creating layer relu1_3_branch2b
I1213 16:41:43.004858  9787 net.cpp:106] Creating Layer relu1_3_branch2b
I1213 16:41:43.004864  9787 net.cpp:454] relu1_3_branch2b <- enet1_3_branch2b
I1213 16:41:43.004894  9787 net.cpp:397] relu1_3_branch2b -> enet1_3_branch2b (in-place)
I1213 16:41:43.007294  9787 net.cpp:150] Setting up relu1_3_branch2b
I1213 16:41:43.007314  9787 net.cpp:157] Top shape: 4 16 95 311 (1890880)
I1213 16:41:43.007321  9787 net.cpp:165] Memory required for data: 1387847392
I1213 16:41:43.007331  9787 layer_factory.hpp:77] Creating layer enet1_3_branch2c
I1213 16:41:43.007351  9787 net.cpp:106] Creating Layer enet1_3_branch2c
I1213 16:41:43.007359  9787 net.cpp:454] enet1_3_branch2c <- enet1_3_branch2b
I1213 16:41:43.007371  9787 net.cpp:411] enet1_3_branch2c -> enet1_3_branch2c
I1213 16:41:43.010697  9787 net.cpp:150] Setting up enet1_3_branch2c
I1213 16:41:43.010715  9787 net.cpp:157] Top shape: 4 64 95 311 (7563520)
I1213 16:41:43.010723  9787 net.cpp:165] Memory required for data: 1418101472
I1213 16:41:43.010733  9787 layer_factory.hpp:77] Creating layer bn1_3_branch2c
I1213 16:41:43.010749  9787 net.cpp:106] Creating Layer bn1_3_branch2c
I1213 16:41:43.010757  9787 net.cpp:454] bn1_3_branch2c <- enet1_3_branch2c
I1213 16:41:43.010768  9787 net.cpp:397] bn1_3_branch2c -> enet1_3_branch2c (in-place)
I1213 16:41:43.011148  9787 net.cpp:150] Setting up bn1_3_branch2c
I1213 16:41:43.011162  9787 net.cpp:157] Top shape: 4 64 95 311 (7563520)
I1213 16:41:43.011168  9787 net.cpp:165] Memory required for data: 1448355552
I1213 16:41:43.011179  9787 layer_factory.hpp:77] Creating layer dropout1_3_branch2c
I1213 16:41:43.011190  9787 net.cpp:106] Creating Layer dropout1_3_branch2c
I1213 16:41:43.011198  9787 net.cpp:454] dropout1_3_branch2c <- enet1_3_branch2c
I1213 16:41:43.011210  9787 net.cpp:397] dropout1_3_branch2c -> enet1_3_branch2c (in-place)
I1213 16:41:43.011252  9787 net.cpp:150] Setting up dropout1_3_branch2c
I1213 16:41:43.011270  9787 net.cpp:157] Top shape: 4 64 95 311 (7563520)
I1213 16:41:43.011276  9787 net.cpp:165] Memory required for data: 1478609632
I1213 16:41:43.011282  9787 layer_factory.hpp:77] Creating layer enet1_3
I1213 16:41:43.011293  9787 net.cpp:106] Creating Layer enet1_3
I1213 16:41:43.011301  9787 net.cpp:454] enet1_3 <- enet1_2_relu1_2_0_split_1
I1213 16:41:43.011308  9787 net.cpp:454] enet1_3 <- enet1_3_branch2c
I1213 16:41:43.011317  9787 net.cpp:411] enet1_3 -> enet1_3
I1213 16:41:43.011363  9787 net.cpp:150] Setting up enet1_3
I1213 16:41:43.011375  9787 net.cpp:157] Top shape: 4 64 95 311 (7563520)
I1213 16:41:43.011382  9787 net.cpp:165] Memory required for data: 1508863712
I1213 16:41:43.011389  9787 layer_factory.hpp:77] Creating layer relu1_3
I1213 16:41:43.011400  9787 net.cpp:106] Creating Layer relu1_3
I1213 16:41:43.011407  9787 net.cpp:454] relu1_3 <- enet1_3
I1213 16:41:43.011416  9787 net.cpp:397] relu1_3 -> enet1_3 (in-place)
I1213 16:41:43.020123  9787 net.cpp:150] Setting up relu1_3
I1213 16:41:43.020153  9787 net.cpp:157] Top shape: 4 64 95 311 (7563520)
I1213 16:41:43.020161  9787 net.cpp:165] Memory required for data: 1539117792
I1213 16:41:43.020171  9787 layer_factory.hpp:77] Creating layer enet1_3_relu1_3_0_split
I1213 16:41:43.020184  9787 net.cpp:106] Creating Layer enet1_3_relu1_3_0_split
I1213 16:41:43.020191  9787 net.cpp:454] enet1_3_relu1_3_0_split <- enet1_3
I1213 16:41:43.020211  9787 net.cpp:411] enet1_3_relu1_3_0_split -> enet1_3_relu1_3_0_split_0
I1213 16:41:43.020226  9787 net.cpp:411] enet1_3_relu1_3_0_split -> enet1_3_relu1_3_0_split_1
I1213 16:41:43.020298  9787 net.cpp:150] Setting up enet1_3_relu1_3_0_split
I1213 16:41:43.020310  9787 net.cpp:157] Top shape: 4 64 95 311 (7563520)
I1213 16:41:43.020318  9787 net.cpp:157] Top shape: 4 64 95 311 (7563520)
I1213 16:41:43.020324  9787 net.cpp:165] Memory required for data: 1599625952
I1213 16:41:43.020331  9787 layer_factory.hpp:77] Creating layer enet1_4_branch2a
I1213 16:41:43.020350  9787 net.cpp:106] Creating Layer enet1_4_branch2a
I1213 16:41:43.020359  9787 net.cpp:454] enet1_4_branch2a <- enet1_3_relu1_3_0_split_0
I1213 16:41:43.020370  9787 net.cpp:411] enet1_4_branch2a -> enet1_4_branch2a
I1213 16:41:43.023597  9787 net.cpp:150] Setting up enet1_4_branch2a
I1213 16:41:43.023639  9787 net.cpp:157] Top shape: 4 16 95 311 (1890880)
I1213 16:41:43.023658  9787 net.cpp:165] Memory required for data: 1607189472
I1213 16:41:43.023670  9787 layer_factory.hpp:77] Creating layer bn1_4_branch2a
I1213 16:41:43.023689  9787 net.cpp:106] Creating Layer bn1_4_branch2a
I1213 16:41:43.023697  9787 net.cpp:454] bn1_4_branch2a <- enet1_4_branch2a
I1213 16:41:43.023710  9787 net.cpp:397] bn1_4_branch2a -> enet1_4_branch2a (in-place)
I1213 16:41:43.024121  9787 net.cpp:150] Setting up bn1_4_branch2a
I1213 16:41:43.024134  9787 net.cpp:157] Top shape: 4 16 95 311 (1890880)
I1213 16:41:43.024140  9787 net.cpp:165] Memory required for data: 1614752992
I1213 16:41:43.024152  9787 layer_factory.hpp:77] Creating layer relu1_4_branch2a
I1213 16:41:43.024163  9787 net.cpp:106] Creating Layer relu1_4_branch2a
I1213 16:41:43.024169  9787 net.cpp:454] relu1_4_branch2a <- enet1_4_branch2a
I1213 16:41:43.024183  9787 net.cpp:397] relu1_4_branch2a -> enet1_4_branch2a (in-place)
I1213 16:41:43.026684  9787 net.cpp:150] Setting up relu1_4_branch2a
I1213 16:41:43.026712  9787 net.cpp:157] Top shape: 4 16 95 311 (1890880)
I1213 16:41:43.026720  9787 net.cpp:165] Memory required for data: 1622316512
I1213 16:41:43.026731  9787 layer_factory.hpp:77] Creating layer enet1_4_branch2b
I1213 16:41:43.026752  9787 net.cpp:106] Creating Layer enet1_4_branch2b
I1213 16:41:43.026760  9787 net.cpp:454] enet1_4_branch2b <- enet1_4_branch2a
I1213 16:41:43.026773  9787 net.cpp:411] enet1_4_branch2b -> enet1_4_branch2b
I1213 16:41:43.031164  9787 net.cpp:150] Setting up enet1_4_branch2b
I1213 16:41:43.031183  9787 net.cpp:157] Top shape: 4 16 95 311 (1890880)
I1213 16:41:43.031191  9787 net.cpp:165] Memory required for data: 1629880032
I1213 16:41:43.031224  9787 layer_factory.hpp:77] Creating layer bn1_4_branch2b
I1213 16:41:43.031255  9787 net.cpp:106] Creating Layer bn1_4_branch2b
I1213 16:41:43.031263  9787 net.cpp:454] bn1_4_branch2b <- enet1_4_branch2b
I1213 16:41:43.031280  9787 net.cpp:397] bn1_4_branch2b -> enet1_4_branch2b (in-place)
I1213 16:41:43.032656  9787 net.cpp:150] Setting up bn1_4_branch2b
I1213 16:41:43.032673  9787 net.cpp:157] Top shape: 4 16 95 311 (1890880)
I1213 16:41:43.032680  9787 net.cpp:165] Memory required for data: 1637443552
I1213 16:41:43.032692  9787 layer_factory.hpp:77] Creating layer relu1_4_branch2b
I1213 16:41:43.032703  9787 net.cpp:106] Creating Layer relu1_4_branch2b
I1213 16:41:43.032711  9787 net.cpp:454] relu1_4_branch2b <- enet1_4_branch2b
I1213 16:41:43.032721  9787 net.cpp:397] relu1_4_branch2b -> enet1_4_branch2b (in-place)
I1213 16:41:43.034950  9787 net.cpp:150] Setting up relu1_4_branch2b
I1213 16:41:43.034970  9787 net.cpp:157] Top shape: 4 16 95 311 (1890880)
I1213 16:41:43.034977  9787 net.cpp:165] Memory required for data: 1645007072
I1213 16:41:43.034987  9787 layer_factory.hpp:77] Creating layer enet1_4_branch2c
I1213 16:41:43.035006  9787 net.cpp:106] Creating Layer enet1_4_branch2c
I1213 16:41:43.035013  9787 net.cpp:454] enet1_4_branch2c <- enet1_4_branch2b
I1213 16:41:43.035024  9787 net.cpp:411] enet1_4_branch2c -> enet1_4_branch2c
I1213 16:41:43.038172  9787 net.cpp:150] Setting up enet1_4_branch2c
I1213 16:41:43.038190  9787 net.cpp:157] Top shape: 4 64 95 311 (7563520)
I1213 16:41:43.038197  9787 net.cpp:165] Memory required for data: 1675261152
I1213 16:41:43.038208  9787 layer_factory.hpp:77] Creating layer bn1_4_branch2c
I1213 16:41:43.038223  9787 net.cpp:106] Creating Layer bn1_4_branch2c
I1213 16:41:43.038231  9787 net.cpp:454] bn1_4_branch2c <- enet1_4_branch2c
I1213 16:41:43.038244  9787 net.cpp:397] bn1_4_branch2c -> enet1_4_branch2c (in-place)
I1213 16:41:43.038661  9787 net.cpp:150] Setting up bn1_4_branch2c
I1213 16:41:43.038674  9787 net.cpp:157] Top shape: 4 64 95 311 (7563520)
I1213 16:41:43.038681  9787 net.cpp:165] Memory required for data: 1705515232
I1213 16:41:43.038692  9787 layer_factory.hpp:77] Creating layer dropout1_4_branch2c
I1213 16:41:43.038707  9787 net.cpp:106] Creating Layer dropout1_4_branch2c
I1213 16:41:43.038713  9787 net.cpp:454] dropout1_4_branch2c <- enet1_4_branch2c
I1213 16:41:43.038735  9787 net.cpp:397] dropout1_4_branch2c -> enet1_4_branch2c (in-place)
I1213 16:41:43.038790  9787 net.cpp:150] Setting up dropout1_4_branch2c
I1213 16:41:43.038805  9787 net.cpp:157] Top shape: 4 64 95 311 (7563520)
I1213 16:41:43.038810  9787 net.cpp:165] Memory required for data: 1735769312
I1213 16:41:43.038817  9787 layer_factory.hpp:77] Creating layer enet1_4
I1213 16:41:43.038827  9787 net.cpp:106] Creating Layer enet1_4
I1213 16:41:43.038835  9787 net.cpp:454] enet1_4 <- enet1_3_relu1_3_0_split_1
I1213 16:41:43.038842  9787 net.cpp:454] enet1_4 <- enet1_4_branch2c
I1213 16:41:43.038856  9787 net.cpp:411] enet1_4 -> enet1_4
I1213 16:41:43.038899  9787 net.cpp:150] Setting up enet1_4
I1213 16:41:43.038915  9787 net.cpp:157] Top shape: 4 64 95 311 (7563520)
I1213 16:41:43.038921  9787 net.cpp:165] Memory required for data: 1766023392
I1213 16:41:43.038928  9787 layer_factory.hpp:77] Creating layer relu1_4
I1213 16:41:43.038938  9787 net.cpp:106] Creating Layer relu1_4
I1213 16:41:43.038944  9787 net.cpp:454] relu1_4 <- enet1_4
I1213 16:41:43.038954  9787 net.cpp:397] relu1_4 -> enet1_4 (in-place)
I1213 16:41:43.047549  9787 net.cpp:150] Setting up relu1_4
I1213 16:41:43.047576  9787 net.cpp:157] Top shape: 4 64 95 311 (7563520)
I1213 16:41:43.047583  9787 net.cpp:165] Memory required for data: 1796277472
I1213 16:41:43.047595  9787 layer_factory.hpp:77] Creating layer enet1_4_relu1_4_0_split
I1213 16:41:43.047606  9787 net.cpp:106] Creating Layer enet1_4_relu1_4_0_split
I1213 16:41:43.047613  9787 net.cpp:454] enet1_4_relu1_4_0_split <- enet1_4
I1213 16:41:43.047628  9787 net.cpp:411] enet1_4_relu1_4_0_split -> enet1_4_relu1_4_0_split_0
I1213 16:41:43.047642  9787 net.cpp:411] enet1_4_relu1_4_0_split -> enet1_4_relu1_4_0_split_1
I1213 16:41:43.047719  9787 net.cpp:150] Setting up enet1_4_relu1_4_0_split
I1213 16:41:43.047731  9787 net.cpp:157] Top shape: 4 64 95 311 (7563520)
I1213 16:41:43.047739  9787 net.cpp:157] Top shape: 4 64 95 311 (7563520)
I1213 16:41:43.047747  9787 net.cpp:165] Memory required for data: 1856785632
I1213 16:41:43.047755  9787 layer_factory.hpp:77] Creating layer enet2_0_branch2a
I1213 16:41:43.047777  9787 net.cpp:106] Creating Layer enet2_0_branch2a
I1213 16:41:43.047785  9787 net.cpp:454] enet2_0_branch2a <- enet1_4_relu1_4_0_split_0
I1213 16:41:43.047799  9787 net.cpp:411] enet2_0_branch2a -> enet2_0_branch2a
I1213 16:41:43.052505  9787 net.cpp:150] Setting up enet2_0_branch2a
I1213 16:41:43.052532  9787 net.cpp:157] Top shape: 4 32 48 156 (958464)
I1213 16:41:43.052541  9787 net.cpp:165] Memory required for data: 1860619488
I1213 16:41:43.052551  9787 layer_factory.hpp:77] Creating layer bn2_0_branch2a
I1213 16:41:43.052569  9787 net.cpp:106] Creating Layer bn2_0_branch2a
I1213 16:41:43.052577  9787 net.cpp:454] bn2_0_branch2a <- enet2_0_branch2a
I1213 16:41:43.052592  9787 net.cpp:397] bn2_0_branch2a -> enet2_0_branch2a (in-place)
I1213 16:41:43.052976  9787 net.cpp:150] Setting up bn2_0_branch2a
I1213 16:41:43.052990  9787 net.cpp:157] Top shape: 4 32 48 156 (958464)
I1213 16:41:43.052996  9787 net.cpp:165] Memory required for data: 1864453344
I1213 16:41:43.053007  9787 layer_factory.hpp:77] Creating layer relu2_0_branch2a
I1213 16:41:43.053017  9787 net.cpp:106] Creating Layer relu2_0_branch2a
I1213 16:41:43.053025  9787 net.cpp:454] relu2_0_branch2a <- enet2_0_branch2a
I1213 16:41:43.053035  9787 net.cpp:397] relu2_0_branch2a -> enet2_0_branch2a (in-place)
I1213 16:41:43.054489  9787 net.cpp:150] Setting up relu2_0_branch2a
I1213 16:41:43.054512  9787 net.cpp:157] Top shape: 4 32 48 156 (958464)
I1213 16:41:43.054519  9787 net.cpp:165] Memory required for data: 1868287200
I1213 16:41:43.054529  9787 layer_factory.hpp:77] Creating layer enet2_0_branch2b
I1213 16:41:43.054548  9787 net.cpp:106] Creating Layer enet2_0_branch2b
I1213 16:41:43.054556  9787 net.cpp:454] enet2_0_branch2b <- enet2_0_branch2a
I1213 16:41:43.054570  9787 net.cpp:411] enet2_0_branch2b -> enet2_0_branch2b
I1213 16:41:43.058312  9787 net.cpp:150] Setting up enet2_0_branch2b
I1213 16:41:43.058352  9787 net.cpp:157] Top shape: 4 32 48 156 (958464)
I1213 16:41:43.058370  9787 net.cpp:165] Memory required for data: 1872121056
I1213 16:41:43.058383  9787 layer_factory.hpp:77] Creating layer bn2_0_branch2b
I1213 16:41:43.058401  9787 net.cpp:106] Creating Layer bn2_0_branch2b
I1213 16:41:43.058410  9787 net.cpp:454] bn2_0_branch2b <- enet2_0_branch2b
I1213 16:41:43.058424  9787 net.cpp:397] bn2_0_branch2b -> enet2_0_branch2b (in-place)
I1213 16:41:43.058818  9787 net.cpp:150] Setting up bn2_0_branch2b
I1213 16:41:43.058833  9787 net.cpp:157] Top shape: 4 32 48 156 (958464)
I1213 16:41:43.058840  9787 net.cpp:165] Memory required for data: 1875954912
I1213 16:41:43.058851  9787 layer_factory.hpp:77] Creating layer relu2_0_branch2b
I1213 16:41:43.058861  9787 net.cpp:106] Creating Layer relu2_0_branch2b
I1213 16:41:43.058867  9787 net.cpp:454] relu2_0_branch2b <- enet2_0_branch2b
I1213 16:41:43.058876  9787 net.cpp:397] relu2_0_branch2b -> enet2_0_branch2b (in-place)
I1213 16:41:43.060272  9787 net.cpp:150] Setting up relu2_0_branch2b
I1213 16:41:43.060292  9787 net.cpp:157] Top shape: 4 32 48 156 (958464)
I1213 16:41:43.060299  9787 net.cpp:165] Memory required for data: 1879788768
I1213 16:41:43.060309  9787 layer_factory.hpp:77] Creating layer enet2_0_branch2c
I1213 16:41:43.060613  9787 net.cpp:106] Creating Layer enet2_0_branch2c
I1213 16:41:43.060624  9787 net.cpp:454] enet2_0_branch2c <- enet2_0_branch2b
I1213 16:41:43.060936  9787 net.cpp:411] enet2_0_branch2c -> enet2_0_branch2c
I1213 16:41:43.064406  9787 net.cpp:150] Setting up enet2_0_branch2c
I1213 16:41:43.064424  9787 net.cpp:157] Top shape: 4 128 48 156 (3833856)
I1213 16:41:43.064432  9787 net.cpp:165] Memory required for data: 1895124192
I1213 16:41:43.064447  9787 layer_factory.hpp:77] Creating layer bn2_0_branch2c
I1213 16:41:43.064463  9787 net.cpp:106] Creating Layer bn2_0_branch2c
I1213 16:41:43.064471  9787 net.cpp:454] bn2_0_branch2c <- enet2_0_branch2c
I1213 16:41:43.064484  9787 net.cpp:397] bn2_0_branch2c -> enet2_0_branch2c (in-place)
I1213 16:41:43.064865  9787 net.cpp:150] Setting up bn2_0_branch2c
I1213 16:41:43.064880  9787 net.cpp:157] Top shape: 4 128 48 156 (3833856)
I1213 16:41:43.064887  9787 net.cpp:165] Memory required for data: 1910459616
I1213 16:41:43.064898  9787 layer_factory.hpp:77] Creating layer dropout2_0_branch2c
I1213 16:41:43.064911  9787 net.cpp:106] Creating Layer dropout2_0_branch2c
I1213 16:41:43.064919  9787 net.cpp:454] dropout2_0_branch2c <- enet2_0_branch2c
I1213 16:41:43.064929  9787 net.cpp:397] dropout2_0_branch2c -> enet2_0_branch2c (in-place)
I1213 16:41:43.064975  9787 net.cpp:150] Setting up dropout2_0_branch2c
I1213 16:41:43.064987  9787 net.cpp:157] Top shape: 4 128 48 156 (3833856)
I1213 16:41:43.064995  9787 net.cpp:165] Memory required for data: 1925795040
I1213 16:41:43.065001  9787 layer_factory.hpp:77] Creating layer enet2_0_branch1a
I1213 16:41:43.065017  9787 net.cpp:106] Creating Layer enet2_0_branch1a
I1213 16:41:43.065026  9787 net.cpp:454] enet2_0_branch1a <- enet1_4_relu1_4_0_split_1
I1213 16:41:43.065039  9787 net.cpp:411] enet2_0_branch1a -> enet2_0_branch1a
I1213 16:41:43.068856  9787 net.cpp:150] Setting up enet2_0_branch1a
I1213 16:41:43.068876  9787 net.cpp:157] Top shape: 4 128 95 311 (15127040)
I1213 16:41:43.068882  9787 net.cpp:165] Memory required for data: 1986303200
I1213 16:41:43.068892  9787 layer_factory.hpp:77] Creating layer bn2_0_branch1a
I1213 16:41:43.068907  9787 net.cpp:106] Creating Layer bn2_0_branch1a
I1213 16:41:43.068915  9787 net.cpp:454] bn2_0_branch1a <- enet2_0_branch1a
I1213 16:41:43.068928  9787 net.cpp:397] bn2_0_branch1a -> enet2_0_branch1a (in-place)
I1213 16:41:43.069366  9787 net.cpp:150] Setting up bn2_0_branch1a
I1213 16:41:43.069380  9787 net.cpp:157] Top shape: 4 128 95 311 (15127040)
I1213 16:41:43.069387  9787 net.cpp:165] Memory required for data: 2046811360
I1213 16:41:43.069398  9787 layer_factory.hpp:77] Creating layer pool2_0_branch1a
I1213 16:41:43.069406  9787 layer_factory.cpp:91] cuDNN does not support multiple tops. Using Caffe's own pooling layer.
I1213 16:41:43.069435  9787 net.cpp:106] Creating Layer pool2_0_branch1a
I1213 16:41:43.069449  9787 net.cpp:454] pool2_0_branch1a <- enet2_0_branch1a
I1213 16:41:43.069460  9787 net.cpp:411] pool2_0_branch1a -> pool2_0_branch1a
I1213 16:41:43.069473  9787 net.cpp:411] pool2_0_branch1a -> pool2_0_branch1a_mask
I1213 16:41:43.069550  9787 net.cpp:150] Setting up pool2_0_branch1a
I1213 16:41:43.069563  9787 net.cpp:157] Top shape: 4 128 48 156 (3833856)
I1213 16:41:43.069571  9787 net.cpp:157] Top shape: 4 128 48 156 (3833856)
I1213 16:41:43.069577  9787 net.cpp:165] Memory required for data: 2077482208
I1213 16:41:43.069584  9787 layer_factory.hpp:77] Creating layer enet2_0
I1213 16:41:43.069594  9787 net.cpp:106] Creating Layer enet2_0
I1213 16:41:43.069602  9787 net.cpp:454] enet2_0 <- pool2_0_branch1a
I1213 16:41:43.069609  9787 net.cpp:454] enet2_0 <- enet2_0_branch2c
I1213 16:41:43.069618  9787 net.cpp:411] enet2_0 -> enet2_0
I1213 16:41:43.069669  9787 net.cpp:150] Setting up enet2_0
I1213 16:41:43.069681  9787 net.cpp:157] Top shape: 4 128 48 156 (3833856)
I1213 16:41:43.069687  9787 net.cpp:165] Memory required for data: 2092817632
I1213 16:41:43.069694  9787 layer_factory.hpp:77] Creating layer relu2_0
I1213 16:41:43.069705  9787 net.cpp:106] Creating Layer relu2_0
I1213 16:41:43.069713  9787 net.cpp:454] relu2_0 <- enet2_0
I1213 16:41:43.069722  9787 net.cpp:397] relu2_0 -> enet2_0 (in-place)
I1213 16:41:43.074141  9787 net.cpp:150] Setting up relu2_0
I1213 16:41:43.074165  9787 net.cpp:157] Top shape: 4 128 48 156 (3833856)
I1213 16:41:43.074172  9787 net.cpp:165] Memory required for data: 2108153056
I1213 16:41:43.074183  9787 layer_factory.hpp:77] Creating layer enet2_0_relu2_0_0_split
I1213 16:41:43.074195  9787 net.cpp:106] Creating Layer enet2_0_relu2_0_0_split
I1213 16:41:43.074203  9787 net.cpp:454] enet2_0_relu2_0_0_split <- enet2_0
I1213 16:41:43.074214  9787 net.cpp:411] enet2_0_relu2_0_0_split -> enet2_0_relu2_0_0_split_0
I1213 16:41:43.074230  9787 net.cpp:411] enet2_0_relu2_0_0_split -> enet2_0_relu2_0_0_split_1
I1213 16:41:43.074306  9787 net.cpp:150] Setting up enet2_0_relu2_0_0_split
I1213 16:41:43.074318  9787 net.cpp:157] Top shape: 4 128 48 156 (3833856)
I1213 16:41:43.074326  9787 net.cpp:157] Top shape: 4 128 48 156 (3833856)
I1213 16:41:43.074332  9787 net.cpp:165] Memory required for data: 2138823904
I1213 16:41:43.074339  9787 layer_factory.hpp:77] Creating layer enet2_1_branch2a
I1213 16:41:43.074357  9787 net.cpp:106] Creating Layer enet2_1_branch2a
I1213 16:41:43.074365  9787 net.cpp:454] enet2_1_branch2a <- enet2_0_relu2_0_0_split_0
I1213 16:41:43.074378  9787 net.cpp:411] enet2_1_branch2a -> enet2_1_branch2a
I1213 16:41:43.077797  9787 net.cpp:150] Setting up enet2_1_branch2a
I1213 16:41:43.077816  9787 net.cpp:157] Top shape: 4 32 48 156 (958464)
I1213 16:41:43.077822  9787 net.cpp:165] Memory required for data: 2142657760
I1213 16:41:43.077832  9787 layer_factory.hpp:77] Creating layer bn2_1_branch2a
I1213 16:41:43.077848  9787 net.cpp:106] Creating Layer bn2_1_branch2a
I1213 16:41:43.077857  9787 net.cpp:454] bn2_1_branch2a <- enet2_1_branch2a
I1213 16:41:43.077870  9787 net.cpp:397] bn2_1_branch2a -> enet2_1_branch2a (in-place)
I1213 16:41:43.078284  9787 net.cpp:150] Setting up bn2_1_branch2a
I1213 16:41:43.078299  9787 net.cpp:157] Top shape: 4 32 48 156 (958464)
I1213 16:41:43.078305  9787 net.cpp:165] Memory required for data: 2146491616
I1213 16:41:43.078316  9787 layer_factory.hpp:77] Creating layer relu2_1_branch2a
I1213 16:41:43.078326  9787 net.cpp:106] Creating Layer relu2_1_branch2a
I1213 16:41:43.078333  9787 net.cpp:454] relu2_1_branch2a <- enet2_1_branch2a
I1213 16:41:43.078342  9787 net.cpp:397] relu2_1_branch2a -> enet2_1_branch2a (in-place)
I1213 16:41:43.079684  9787 net.cpp:150] Setting up relu2_1_branch2a
I1213 16:41:43.079704  9787 net.cpp:157] Top shape: 4 32 48 156 (958464)
I1213 16:41:43.079710  9787 net.cpp:165] Memory required for data: 2150325472
I1213 16:41:43.079720  9787 layer_factory.hpp:77] Creating layer enet2_1_branch2b
I1213 16:41:43.079747  9787 net.cpp:106] Creating Layer enet2_1_branch2b
I1213 16:41:43.079766  9787 net.cpp:454] enet2_1_branch2b <- enet2_1_branch2a
I1213 16:41:43.079777  9787 net.cpp:411] enet2_1_branch2b -> enet2_1_branch2b
I1213 16:41:43.083642  9787 net.cpp:150] Setting up enet2_1_branch2b
I1213 16:41:43.083673  9787 net.cpp:157] Top shape: 4 32 48 156 (958464)
I1213 16:41:43.083680  9787 net.cpp:165] Memory required for data: 2154159328
I1213 16:41:43.083693  9787 layer_factory.hpp:77] Creating layer bn2_1_branch2b
I1213 16:41:43.083709  9787 net.cpp:106] Creating Layer bn2_1_branch2b
I1213 16:41:43.083719  9787 net.cpp:454] bn2_1_branch2b <- enet2_1_branch2b
I1213 16:41:43.083729  9787 net.cpp:397] bn2_1_branch2b -> enet2_1_branch2b (in-place)
I1213 16:41:43.084163  9787 net.cpp:150] Setting up bn2_1_branch2b
I1213 16:41:43.084177  9787 net.cpp:157] Top shape: 4 32 48 156 (958464)
I1213 16:41:43.084184  9787 net.cpp:165] Memory required for data: 2157993184
I1213 16:41:43.084194  9787 layer_factory.hpp:77] Creating layer relu2_1_branch2b
I1213 16:41:43.084204  9787 net.cpp:106] Creating Layer relu2_1_branch2b
I1213 16:41:43.084211  9787 net.cpp:454] relu2_1_branch2b <- enet2_1_branch2b
I1213 16:41:43.084221  9787 net.cpp:397] relu2_1_branch2b -> enet2_1_branch2b (in-place)
I1213 16:41:43.085681  9787 net.cpp:150] Setting up relu2_1_branch2b
I1213 16:41:43.085701  9787 net.cpp:157] Top shape: 4 32 48 156 (958464)
I1213 16:41:43.085708  9787 net.cpp:165] Memory required for data: 2161827040
I1213 16:41:43.085718  9787 layer_factory.hpp:77] Creating layer enet2_1_branch2c
I1213 16:41:43.085736  9787 net.cpp:106] Creating Layer enet2_1_branch2c
I1213 16:41:43.085744  9787 net.cpp:454] enet2_1_branch2c <- enet2_1_branch2b
I1213 16:41:43.085755  9787 net.cpp:411] enet2_1_branch2c -> enet2_1_branch2c
I1213 16:41:43.089385  9787 net.cpp:150] Setting up enet2_1_branch2c
I1213 16:41:43.089414  9787 net.cpp:157] Top shape: 4 128 48 156 (3833856)
I1213 16:41:43.089421  9787 net.cpp:165] Memory required for data: 2177162464
I1213 16:41:43.089432  9787 layer_factory.hpp:77] Creating layer bn2_1_branch2c
I1213 16:41:43.089457  9787 net.cpp:106] Creating Layer bn2_1_branch2c
I1213 16:41:43.089467  9787 net.cpp:454] bn2_1_branch2c <- enet2_1_branch2c
I1213 16:41:43.089478  9787 net.cpp:397] bn2_1_branch2c -> enet2_1_branch2c (in-place)
I1213 16:41:43.089895  9787 net.cpp:150] Setting up bn2_1_branch2c
I1213 16:41:43.089910  9787 net.cpp:157] Top shape: 4 128 48 156 (3833856)
I1213 16:41:43.089916  9787 net.cpp:165] Memory required for data: 2192497888
I1213 16:41:43.089927  9787 layer_factory.hpp:77] Creating layer dropout2_1_branch2c
I1213 16:41:43.089938  9787 net.cpp:106] Creating Layer dropout2_1_branch2c
I1213 16:41:43.089946  9787 net.cpp:454] dropout2_1_branch2c <- enet2_1_branch2c
I1213 16:41:43.089956  9787 net.cpp:397] dropout2_1_branch2c -> enet2_1_branch2c (in-place)
I1213 16:41:43.090008  9787 net.cpp:150] Setting up dropout2_1_branch2c
I1213 16:41:43.090021  9787 net.cpp:157] Top shape: 4 128 48 156 (3833856)
I1213 16:41:43.090029  9787 net.cpp:165] Memory required for data: 2207833312
I1213 16:41:43.090034  9787 layer_factory.hpp:77] Creating layer enet2_1
I1213 16:41:43.090045  9787 net.cpp:106] Creating Layer enet2_1
I1213 16:41:43.090052  9787 net.cpp:454] enet2_1 <- enet2_0_relu2_0_0_split_1
I1213 16:41:43.090061  9787 net.cpp:454] enet2_1 <- enet2_1_branch2c
I1213 16:41:43.090072  9787 net.cpp:411] enet2_1 -> enet2_1
I1213 16:41:43.090122  9787 net.cpp:150] Setting up enet2_1
I1213 16:41:43.090136  9787 net.cpp:157] Top shape: 4 128 48 156 (3833856)
I1213 16:41:43.090142  9787 net.cpp:165] Memory required for data: 2223168736
I1213 16:41:43.090148  9787 layer_factory.hpp:77] Creating layer relu2_1
I1213 16:41:43.090160  9787 net.cpp:106] Creating Layer relu2_1
I1213 16:41:43.090168  9787 net.cpp:454] relu2_1 <- enet2_1
I1213 16:41:43.090178  9787 net.cpp:397] relu2_1 -> enet2_1 (in-place)
I1213 16:41:43.094836  9787 net.cpp:150] Setting up relu2_1
I1213 16:41:43.094861  9787 net.cpp:157] Top shape: 4 128 48 156 (3833856)
I1213 16:41:43.094898  9787 net.cpp:165] Memory required for data: 2238504160
I1213 16:41:43.094910  9787 layer_factory.hpp:77] Creating layer enet2_1_relu2_1_0_split
I1213 16:41:43.094923  9787 net.cpp:106] Creating Layer enet2_1_relu2_1_0_split
I1213 16:41:43.094929  9787 net.cpp:454] enet2_1_relu2_1_0_split <- enet2_1
I1213 16:41:43.094944  9787 net.cpp:411] enet2_1_relu2_1_0_split -> enet2_1_relu2_1_0_split_0
I1213 16:41:43.094956  9787 net.cpp:411] enet2_1_relu2_1_0_split -> enet2_1_relu2_1_0_split_1
I1213 16:41:43.095036  9787 net.cpp:150] Setting up enet2_1_relu2_1_0_split
I1213 16:41:43.095051  9787 net.cpp:157] Top shape: 4 128 48 156 (3833856)
I1213 16:41:43.095059  9787 net.cpp:157] Top shape: 4 128 48 156 (3833856)
I1213 16:41:43.095065  9787 net.cpp:165] Memory required for data: 2269175008
I1213 16:41:43.095072  9787 layer_factory.hpp:77] Creating layer enet2_2_branch2a
I1213 16:41:43.095090  9787 net.cpp:106] Creating Layer enet2_2_branch2a
I1213 16:41:43.095098  9787 net.cpp:454] enet2_2_branch2a <- enet2_1_relu2_1_0_split_0
I1213 16:41:43.095109  9787 net.cpp:411] enet2_2_branch2a -> enet2_2_branch2a
I1213 16:41:43.099809  9787 net.cpp:150] Setting up enet2_2_branch2a
I1213 16:41:43.099828  9787 net.cpp:157] Top shape: 4 32 48 156 (958464)
I1213 16:41:43.099836  9787 net.cpp:165] Memory required for data: 2273008864
I1213 16:41:43.099846  9787 layer_factory.hpp:77] Creating layer bn2_2_branch2a
I1213 16:41:43.099862  9787 net.cpp:106] Creating Layer bn2_2_branch2a
I1213 16:41:43.099871  9787 net.cpp:454] bn2_2_branch2a <- enet2_2_branch2a
I1213 16:41:43.099884  9787 net.cpp:397] bn2_2_branch2a -> enet2_2_branch2a (in-place)
I1213 16:41:43.100327  9787 net.cpp:150] Setting up bn2_2_branch2a
I1213 16:41:43.100342  9787 net.cpp:157] Top shape: 4 32 48 156 (958464)
I1213 16:41:43.100348  9787 net.cpp:165] Memory required for data: 2276842720
I1213 16:41:43.100358  9787 layer_factory.hpp:77] Creating layer relu2_2_branch2a
I1213 16:41:43.100373  9787 net.cpp:106] Creating Layer relu2_2_branch2a
I1213 16:41:43.100379  9787 net.cpp:454] relu2_2_branch2a <- enet2_2_branch2a
I1213 16:41:43.100389  9787 net.cpp:397] relu2_2_branch2a -> enet2_2_branch2a (in-place)
I1213 16:41:43.101743  9787 net.cpp:150] Setting up relu2_2_branch2a
I1213 16:41:43.101760  9787 net.cpp:157] Top shape: 4 32 48 156 (958464)
I1213 16:41:43.101768  9787 net.cpp:165] Memory required for data: 2280676576
I1213 16:41:43.101778  9787 layer_factory.hpp:77] Creating layer enet2_2_branch2b
I1213 16:41:43.101794  9787 net.cpp:106] Creating Layer enet2_2_branch2b
I1213 16:41:43.101802  9787 net.cpp:454] enet2_2_branch2b <- enet2_2_branch2a
I1213 16:41:43.101816  9787 net.cpp:411] enet2_2_branch2b -> enet2_2_branch2b
I1213 16:41:43.102510  9787 net.cpp:150] Setting up enet2_2_branch2b
I1213 16:41:43.102525  9787 net.cpp:157] Top shape: 4 32 48 156 (958464)
I1213 16:41:43.102532  9787 net.cpp:165] Memory required for data: 2284510432
I1213 16:41:43.102542  9787 layer_factory.hpp:77] Creating layer bn2_2_branch2b
I1213 16:41:43.102555  9787 net.cpp:106] Creating Layer bn2_2_branch2b
I1213 16:41:43.102562  9787 net.cpp:454] bn2_2_branch2b <- enet2_2_branch2b
I1213 16:41:43.102576  9787 net.cpp:397] bn2_2_branch2b -> enet2_2_branch2b (in-place)
I1213 16:41:43.103004  9787 net.cpp:150] Setting up bn2_2_branch2b
I1213 16:41:43.103018  9787 net.cpp:157] Top shape: 4 32 48 156 (958464)
I1213 16:41:43.103025  9787 net.cpp:165] Memory required for data: 2288344288
I1213 16:41:43.103035  9787 layer_factory.hpp:77] Creating layer relu2_2_branch2b
I1213 16:41:43.103045  9787 net.cpp:106] Creating Layer relu2_2_branch2b
I1213 16:41:43.103052  9787 net.cpp:454] relu2_2_branch2b <- enet2_2_branch2b
I1213 16:41:43.103062  9787 net.cpp:397] relu2_2_branch2b -> enet2_2_branch2b (in-place)
I1213 16:41:43.104367  9787 net.cpp:150] Setting up relu2_2_branch2b
I1213 16:41:43.104385  9787 net.cpp:157] Top shape: 4 32 48 156 (958464)
I1213 16:41:43.104393  9787 net.cpp:165] Memory required for data: 2292178144
I1213 16:41:43.104401  9787 layer_factory.hpp:77] Creating layer enet2_2_branch2c
I1213 16:41:43.104434  9787 net.cpp:106] Creating Layer enet2_2_branch2c
I1213 16:41:43.104446  9787 net.cpp:454] enet2_2_branch2c <- enet2_2_branch2b
I1213 16:41:43.104459  9787 net.cpp:411] enet2_2_branch2c -> enet2_2_branch2c
I1213 16:41:43.108060  9787 net.cpp:150] Setting up enet2_2_branch2c
I1213 16:41:43.108079  9787 net.cpp:157] Top shape: 4 128 48 156 (3833856)
I1213 16:41:43.108086  9787 net.cpp:165] Memory required for data: 2307513568
I1213 16:41:43.108096  9787 layer_factory.hpp:77] Creating layer bn2_2_branch2c
I1213 16:41:43.108113  9787 net.cpp:106] Creating Layer bn2_2_branch2c
I1213 16:41:43.108122  9787 net.cpp:454] bn2_2_branch2c <- enet2_2_branch2c
I1213 16:41:43.108132  9787 net.cpp:397] bn2_2_branch2c -> enet2_2_branch2c (in-place)
I1213 16:41:43.108566  9787 net.cpp:150] Setting up bn2_2_branch2c
I1213 16:41:43.108580  9787 net.cpp:157] Top shape: 4 128 48 156 (3833856)
I1213 16:41:43.108587  9787 net.cpp:165] Memory required for data: 2322848992
I1213 16:41:43.108597  9787 layer_factory.hpp:77] Creating layer dropout2_2_branch2c
I1213 16:41:43.108608  9787 net.cpp:106] Creating Layer dropout2_2_branch2c
I1213 16:41:43.108615  9787 net.cpp:454] dropout2_2_branch2c <- enet2_2_branch2c
I1213 16:41:43.108624  9787 net.cpp:397] dropout2_2_branch2c -> enet2_2_branch2c (in-place)
I1213 16:41:43.108676  9787 net.cpp:150] Setting up dropout2_2_branch2c
I1213 16:41:43.108690  9787 net.cpp:157] Top shape: 4 128 48 156 (3833856)
I1213 16:41:43.108696  9787 net.cpp:165] Memory required for data: 2338184416
I1213 16:41:43.108702  9787 layer_factory.hpp:77] Creating layer enet2_2
I1213 16:41:43.108716  9787 net.cpp:106] Creating Layer enet2_2
I1213 16:41:43.108724  9787 net.cpp:454] enet2_2 <- enet2_1_relu2_1_0_split_1
I1213 16:41:43.108732  9787 net.cpp:454] enet2_2 <- enet2_2_branch2c
I1213 16:41:43.108744  9787 net.cpp:411] enet2_2 -> enet2_2
I1213 16:41:43.108794  9787 net.cpp:150] Setting up enet2_2
I1213 16:41:43.108808  9787 net.cpp:157] Top shape: 4 128 48 156 (3833856)
I1213 16:41:43.108814  9787 net.cpp:165] Memory required for data: 2353519840
I1213 16:41:43.108820  9787 layer_factory.hpp:77] Creating layer relu2_2
I1213 16:41:43.108834  9787 net.cpp:106] Creating Layer relu2_2
I1213 16:41:43.108840  9787 net.cpp:454] relu2_2 <- enet2_2
I1213 16:41:43.108850  9787 net.cpp:397] relu2_2 -> enet2_2 (in-place)
I1213 16:41:43.113168  9787 net.cpp:150] Setting up relu2_2
I1213 16:41:43.113186  9787 net.cpp:157] Top shape: 4 128 48 156 (3833856)
I1213 16:41:43.113194  9787 net.cpp:165] Memory required for data: 2368855264
I1213 16:41:43.113204  9787 layer_factory.hpp:77] Creating layer enet2_2_relu2_2_0_split
I1213 16:41:43.113217  9787 net.cpp:106] Creating Layer enet2_2_relu2_2_0_split
I1213 16:41:43.113225  9787 net.cpp:454] enet2_2_relu2_2_0_split <- enet2_2
I1213 16:41:43.113239  9787 net.cpp:411] enet2_2_relu2_2_0_split -> enet2_2_relu2_2_0_split_0
I1213 16:41:43.113260  9787 net.cpp:411] enet2_2_relu2_2_0_split -> enet2_2_relu2_2_0_split_1
I1213 16:41:43.113343  9787 net.cpp:150] Setting up enet2_2_relu2_2_0_split
I1213 16:41:43.113358  9787 net.cpp:157] Top shape: 4 128 48 156 (3833856)
I1213 16:41:43.113366  9787 net.cpp:157] Top shape: 4 128 48 156 (3833856)
I1213 16:41:43.113373  9787 net.cpp:165] Memory required for data: 2399526112
I1213 16:41:43.113379  9787 layer_factory.hpp:77] Creating layer enet2_3_branch2a
I1213 16:41:43.113396  9787 net.cpp:106] Creating Layer enet2_3_branch2a
I1213 16:41:43.113405  9787 net.cpp:454] enet2_3_branch2a <- enet2_2_relu2_2_0_split_0
I1213 16:41:43.113416  9787 net.cpp:411] enet2_3_branch2a -> enet2_3_branch2a
I1213 16:41:43.116955  9787 net.cpp:150] Setting up enet2_3_branch2a
I1213 16:41:43.116973  9787 net.cpp:157] Top shape: 4 32 48 156 (958464)
I1213 16:41:43.116981  9787 net.cpp:165] Memory required for data: 2403359968
I1213 16:41:43.116991  9787 layer_factory.hpp:77] Creating layer bn2_3_branch2a
I1213 16:41:43.117012  9787 net.cpp:106] Creating Layer bn2_3_branch2a
I1213 16:41:43.117019  9787 net.cpp:454] bn2_3_branch2a <- enet2_3_branch2a
I1213 16:41:43.117049  9787 net.cpp:397] bn2_3_branch2a -> enet2_3_branch2a (in-place)
I1213 16:41:43.117507  9787 net.cpp:150] Setting up bn2_3_branch2a
I1213 16:41:43.117522  9787 net.cpp:157] Top shape: 4 32 48 156 (958464)
I1213 16:41:43.117528  9787 net.cpp:165] Memory required for data: 2407193824
I1213 16:41:43.117539  9787 layer_factory.hpp:77] Creating layer relu2_3_branch2a
I1213 16:41:43.117549  9787 net.cpp:106] Creating Layer relu2_3_branch2a
I1213 16:41:43.117557  9787 net.cpp:454] relu2_3_branch2a <- enet2_3_branch2a
I1213 16:41:43.117565  9787 net.cpp:397] relu2_3_branch2a -> enet2_3_branch2a (in-place)
I1213 16:41:43.119101  9787 net.cpp:150] Setting up relu2_3_branch2a
I1213 16:41:43.119117  9787 net.cpp:157] Top shape: 4 32 48 156 (958464)
I1213 16:41:43.119124  9787 net.cpp:165] Memory required for data: 2411027680
I1213 16:41:43.119133  9787 layer_factory.hpp:77] Creating layer enet2_3_branch2b1
I1213 16:41:43.119154  9787 net.cpp:106] Creating Layer enet2_3_branch2b1
I1213 16:41:43.119163  9787 net.cpp:454] enet2_3_branch2b1 <- enet2_3_branch2a
I1213 16:41:43.119174  9787 net.cpp:411] enet2_3_branch2b1 -> enet2_3_branch2b1
I1213 16:41:43.122838  9787 net.cpp:150] Setting up enet2_3_branch2b1
I1213 16:41:43.122856  9787 net.cpp:157] Top shape: 4 32 48 156 (958464)
I1213 16:41:43.122864  9787 net.cpp:165] Memory required for data: 2414861536
I1213 16:41:43.122874  9787 layer_factory.hpp:77] Creating layer enet2_3_branch2b
I1213 16:41:43.122894  9787 net.cpp:106] Creating Layer enet2_3_branch2b
I1213 16:41:43.122901  9787 net.cpp:454] enet2_3_branch2b <- enet2_3_branch2b1
I1213 16:41:43.122913  9787 net.cpp:411] enet2_3_branch2b -> enet2_3_branch2b
I1213 16:41:43.126646  9787 net.cpp:150] Setting up enet2_3_branch2b
I1213 16:41:43.126662  9787 net.cpp:157] Top shape: 4 32 48 156 (958464)
I1213 16:41:43.126670  9787 net.cpp:165] Memory required for data: 2418695392
I1213 16:41:43.126682  9787 layer_factory.hpp:77] Creating layer bn2_3_branch2b
I1213 16:41:43.126699  9787 net.cpp:106] Creating Layer bn2_3_branch2b
I1213 16:41:43.126708  9787 net.cpp:454] bn2_3_branch2b <- enet2_3_branch2b
I1213 16:41:43.126718  9787 net.cpp:397] bn2_3_branch2b -> enet2_3_branch2b (in-place)
I1213 16:41:43.127188  9787 net.cpp:150] Setting up bn2_3_branch2b
I1213 16:41:43.127202  9787 net.cpp:157] Top shape: 4 32 48 156 (958464)
I1213 16:41:43.127208  9787 net.cpp:165] Memory required for data: 2422529248
I1213 16:41:43.127219  9787 layer_factory.hpp:77] Creating layer relu2_3_branch2b
I1213 16:41:43.127229  9787 net.cpp:106] Creating Layer relu2_3_branch2b
I1213 16:41:43.127236  9787 net.cpp:454] relu2_3_branch2b <- enet2_3_branch2b
I1213 16:41:43.127249  9787 net.cpp:397] relu2_3_branch2b -> enet2_3_branch2b (in-place)
I1213 16:41:43.129787  9787 net.cpp:150] Setting up relu2_3_branch2b
I1213 16:41:43.129804  9787 net.cpp:157] Top shape: 4 32 48 156 (958464)
I1213 16:41:43.129811  9787 net.cpp:165] Memory required for data: 2426363104
I1213 16:41:43.129820  9787 layer_factory.hpp:77] Creating layer enet2_3_branch2c
I1213 16:41:43.129839  9787 net.cpp:106] Creating Layer enet2_3_branch2c
I1213 16:41:43.129848  9787 net.cpp:454] enet2_3_branch2c <- enet2_3_branch2b
I1213 16:41:43.129859  9787 net.cpp:411] enet2_3_branch2c -> enet2_3_branch2c
I1213 16:41:43.136580  9787 net.cpp:150] Setting up enet2_3_branch2c
I1213 16:41:43.136598  9787 net.cpp:157] Top shape: 4 128 48 156 (3833856)
I1213 16:41:43.136606  9787 net.cpp:165] Memory required for data: 2441698528
I1213 16:41:43.136616  9787 layer_factory.hpp:77] Creating layer bn2_3_branch2c
I1213 16:41:43.136631  9787 net.cpp:106] Creating Layer bn2_3_branch2c
I1213 16:41:43.136641  9787 net.cpp:454] bn2_3_branch2c <- enet2_3_branch2c
I1213 16:41:43.136653  9787 net.cpp:397] bn2_3_branch2c -> enet2_3_branch2c (in-place)
I1213 16:41:43.138120  9787 net.cpp:150] Setting up bn2_3_branch2c
I1213 16:41:43.138136  9787 net.cpp:157] Top shape: 4 128 48 156 (3833856)
I1213 16:41:43.138144  9787 net.cpp:165] Memory required for data: 2457033952
I1213 16:41:43.138165  9787 layer_factory.hpp:77] Creating layer dropout2_3_branch2c
I1213 16:41:43.138185  9787 net.cpp:106] Creating Layer dropout2_3_branch2c
I1213 16:41:43.138193  9787 net.cpp:454] dropout2_3_branch2c <- enet2_3_branch2c
I1213 16:41:43.138202  9787 net.cpp:397] dropout2_3_branch2c -> enet2_3_branch2c (in-place)
I1213 16:41:43.138262  9787 net.cpp:150] Setting up dropout2_3_branch2c
I1213 16:41:43.138275  9787 net.cpp:157] Top shape: 4 128 48 156 (3833856)
I1213 16:41:43.138281  9787 net.cpp:165] Memory required for data: 2472369376
I1213 16:41:43.138288  9787 layer_factory.hpp:77] Creating layer enet2_3
I1213 16:41:43.138301  9787 net.cpp:106] Creating Layer enet2_3
I1213 16:41:43.138309  9787 net.cpp:454] enet2_3 <- enet2_2_relu2_2_0_split_1
I1213 16:41:43.138317  9787 net.cpp:454] enet2_3 <- enet2_3_branch2c
I1213 16:41:43.138327  9787 net.cpp:411] enet2_3 -> enet2_3
I1213 16:41:43.138382  9787 net.cpp:150] Setting up enet2_3
I1213 16:41:43.138396  9787 net.cpp:157] Top shape: 4 128 48 156 (3833856)
I1213 16:41:43.138401  9787 net.cpp:165] Memory required for data: 2487704800
I1213 16:41:43.138408  9787 layer_factory.hpp:77] Creating layer relu2_3
I1213 16:41:43.138417  9787 net.cpp:106] Creating Layer relu2_3
I1213 16:41:43.138424  9787 net.cpp:454] relu2_3 <- enet2_3
I1213 16:41:43.138437  9787 net.cpp:397] relu2_3 -> enet2_3 (in-place)
I1213 16:41:43.142992  9787 net.cpp:150] Setting up relu2_3
I1213 16:41:43.143010  9787 net.cpp:157] Top shape: 4 128 48 156 (3833856)
I1213 16:41:43.143018  9787 net.cpp:165] Memory required for data: 2503040224
I1213 16:41:43.143056  9787 layer_factory.hpp:77] Creating layer enet2_3_relu2_3_0_split
I1213 16:41:43.143069  9787 net.cpp:106] Creating Layer enet2_3_relu2_3_0_split
I1213 16:41:43.143076  9787 net.cpp:454] enet2_3_relu2_3_0_split <- enet2_3
I1213 16:41:43.143086  9787 net.cpp:411] enet2_3_relu2_3_0_split -> enet2_3_relu2_3_0_split_0
I1213 16:41:43.143100  9787 net.cpp:411] enet2_3_relu2_3_0_split -> enet2_3_relu2_3_0_split_1
I1213 16:41:43.143187  9787 net.cpp:150] Setting up enet2_3_relu2_3_0_split
I1213 16:41:43.143199  9787 net.cpp:157] Top shape: 4 128 48 156 (3833856)
I1213 16:41:43.143208  9787 net.cpp:157] Top shape: 4 128 48 156 (3833856)
I1213 16:41:43.143213  9787 net.cpp:165] Memory required for data: 2533711072
I1213 16:41:43.143220  9787 layer_factory.hpp:77] Creating layer enet2_4_branch2a
I1213 16:41:43.143235  9787 net.cpp:106] Creating Layer enet2_4_branch2a
I1213 16:41:43.143244  9787 net.cpp:454] enet2_4_branch2a <- enet2_3_relu2_3_0_split_0
I1213 16:41:43.143257  9787 net.cpp:411] enet2_4_branch2a -> enet2_4_branch2a
I1213 16:41:43.146999  9787 net.cpp:150] Setting up enet2_4_branch2a
I1213 16:41:43.147017  9787 net.cpp:157] Top shape: 4 32 48 156 (958464)
I1213 16:41:43.147025  9787 net.cpp:165] Memory required for data: 2537544928
I1213 16:41:43.147035  9787 layer_factory.hpp:77] Creating layer bn2_4_branch2a
I1213 16:41:43.147050  9787 net.cpp:106] Creating Layer bn2_4_branch2a
I1213 16:41:43.147059  9787 net.cpp:454] bn2_4_branch2a <- enet2_4_branch2a
I1213 16:41:43.147073  9787 net.cpp:397] bn2_4_branch2a -> enet2_4_branch2a (in-place)
I1213 16:41:43.147564  9787 net.cpp:150] Setting up bn2_4_branch2a
I1213 16:41:43.147579  9787 net.cpp:157] Top shape: 4 32 48 156 (958464)
I1213 16:41:43.147586  9787 net.cpp:165] Memory required for data: 2541378784
I1213 16:41:43.147596  9787 layer_factory.hpp:77] Creating layer relu2_4_branch2a
I1213 16:41:43.147608  9787 net.cpp:106] Creating Layer relu2_4_branch2a
I1213 16:41:43.147614  9787 net.cpp:454] relu2_4_branch2a <- enet2_4_branch2a
I1213 16:41:43.147624  9787 net.cpp:397] relu2_4_branch2a -> enet2_4_branch2a (in-place)
I1213 16:41:43.149029  9787 net.cpp:150] Setting up relu2_4_branch2a
I1213 16:41:43.149046  9787 net.cpp:157] Top shape: 4 32 48 156 (958464)
I1213 16:41:43.149052  9787 net.cpp:165] Memory required for data: 2545212640
I1213 16:41:43.149062  9787 layer_factory.hpp:77] Creating layer enet2_4_branch2b
I1213 16:41:43.149080  9787 net.cpp:106] Creating Layer enet2_4_branch2b
I1213 16:41:43.149096  9787 net.cpp:454] enet2_4_branch2b <- enet2_4_branch2a
I1213 16:41:43.149118  9787 net.cpp:411] enet2_4_branch2b -> enet2_4_branch2b
I1213 16:41:43.149884  9787 net.cpp:150] Setting up enet2_4_branch2b
I1213 16:41:43.149900  9787 net.cpp:157] Top shape: 4 32 48 156 (958464)
I1213 16:41:43.149907  9787 net.cpp:165] Memory required for data: 2549046496
I1213 16:41:43.149917  9787 layer_factory.hpp:77] Creating layer bn2_4_branch2b
I1213 16:41:43.149953  9787 net.cpp:106] Creating Layer bn2_4_branch2b
I1213 16:41:43.149961  9787 net.cpp:454] bn2_4_branch2b <- enet2_4_branch2b
I1213 16:41:43.149972  9787 net.cpp:397] bn2_4_branch2b -> enet2_4_branch2b (in-place)
I1213 16:41:43.150439  9787 net.cpp:150] Setting up bn2_4_branch2b
I1213 16:41:43.150457  9787 net.cpp:157] Top shape: 4 32 48 156 (958464)
I1213 16:41:43.150465  9787 net.cpp:165] Memory required for data: 2552880352
I1213 16:41:43.150475  9787 layer_factory.hpp:77] Creating layer relu2_4_branch2b
I1213 16:41:43.150485  9787 net.cpp:106] Creating Layer relu2_4_branch2b
I1213 16:41:43.150492  9787 net.cpp:454] relu2_4_branch2b <- enet2_4_branch2b
I1213 16:41:43.150501  9787 net.cpp:397] relu2_4_branch2b -> enet2_4_branch2b (in-place)
I1213 16:41:43.151895  9787 net.cpp:150] Setting up relu2_4_branch2b
I1213 16:41:43.151913  9787 net.cpp:157] Top shape: 4 32 48 156 (958464)
I1213 16:41:43.151921  9787 net.cpp:165] Memory required for data: 2556714208
I1213 16:41:43.151929  9787 layer_factory.hpp:77] Creating layer enet2_4_branch2c
I1213 16:41:43.151947  9787 net.cpp:106] Creating Layer enet2_4_branch2c
I1213 16:41:43.151954  9787 net.cpp:454] enet2_4_branch2c <- enet2_4_branch2b
I1213 16:41:43.151968  9787 net.cpp:411] enet2_4_branch2c -> enet2_4_branch2c
I1213 16:41:43.155817  9787 net.cpp:150] Setting up enet2_4_branch2c
I1213 16:41:43.155834  9787 net.cpp:157] Top shape: 4 128 48 156 (3833856)
I1213 16:41:43.155843  9787 net.cpp:165] Memory required for data: 2572049632
I1213 16:41:43.155853  9787 layer_factory.hpp:77] Creating layer bn2_4_branch2c
I1213 16:41:43.155867  9787 net.cpp:106] Creating Layer bn2_4_branch2c
I1213 16:41:43.155875  9787 net.cpp:454] bn2_4_branch2c <- enet2_4_branch2c
I1213 16:41:43.155886  9787 net.cpp:397] bn2_4_branch2c -> enet2_4_branch2c (in-place)
I1213 16:41:43.156364  9787 net.cpp:150] Setting up bn2_4_branch2c
I1213 16:41:43.156378  9787 net.cpp:157] Top shape: 4 128 48 156 (3833856)
I1213 16:41:43.156385  9787 net.cpp:165] Memory required for data: 2587385056
I1213 16:41:43.156395  9787 layer_factory.hpp:77] Creating layer dropout2_4_branch2c
I1213 16:41:43.156406  9787 net.cpp:106] Creating Layer dropout2_4_branch2c
I1213 16:41:43.156414  9787 net.cpp:454] dropout2_4_branch2c <- enet2_4_branch2c
I1213 16:41:43.156424  9787 net.cpp:397] dropout2_4_branch2c -> enet2_4_branch2c (in-place)
I1213 16:41:43.156502  9787 net.cpp:150] Setting up dropout2_4_branch2c
I1213 16:41:43.156517  9787 net.cpp:157] Top shape: 4 128 48 156 (3833856)
I1213 16:41:43.156524  9787 net.cpp:165] Memory required for data: 2602720480
I1213 16:41:43.156530  9787 layer_factory.hpp:77] Creating layer enet2_4
I1213 16:41:43.156544  9787 net.cpp:106] Creating Layer enet2_4
I1213 16:41:43.156553  9787 net.cpp:454] enet2_4 <- enet2_3_relu2_3_0_split_1
I1213 16:41:43.156561  9787 net.cpp:454] enet2_4 <- enet2_4_branch2c
I1213 16:41:43.156570  9787 net.cpp:411] enet2_4 -> enet2_4
I1213 16:41:43.156630  9787 net.cpp:150] Setting up enet2_4
I1213 16:41:43.156643  9787 net.cpp:157] Top shape: 4 128 48 156 (3833856)
I1213 16:41:43.156649  9787 net.cpp:165] Memory required for data: 2618055904
I1213 16:41:43.156656  9787 layer_factory.hpp:77] Creating layer relu2_4
I1213 16:41:43.156666  9787 net.cpp:106] Creating Layer relu2_4
I1213 16:41:43.156672  9787 net.cpp:454] relu2_4 <- enet2_4
I1213 16:41:43.156684  9787 net.cpp:397] relu2_4 -> enet2_4 (in-place)
I1213 16:41:43.161962  9787 net.cpp:150] Setting up relu2_4
I1213 16:41:43.161980  9787 net.cpp:157] Top shape: 4 128 48 156 (3833856)
I1213 16:41:43.161988  9787 net.cpp:165] Memory required for data: 2633391328
I1213 16:41:43.162014  9787 layer_factory.hpp:77] Creating layer enet2_4_relu2_4_0_split
I1213 16:41:43.162027  9787 net.cpp:106] Creating Layer enet2_4_relu2_4_0_split
I1213 16:41:43.162035  9787 net.cpp:454] enet2_4_relu2_4_0_split <- enet2_4
I1213 16:41:43.162045  9787 net.cpp:411] enet2_4_relu2_4_0_split -> enet2_4_relu2_4_0_split_0
I1213 16:41:43.162057  9787 net.cpp:411] enet2_4_relu2_4_0_split -> enet2_4_relu2_4_0_split_1
I1213 16:41:43.162147  9787 net.cpp:150] Setting up enet2_4_relu2_4_0_split
I1213 16:41:43.162159  9787 net.cpp:157] Top shape: 4 128 48 156 (3833856)
I1213 16:41:43.162168  9787 net.cpp:157] Top shape: 4 128 48 156 (3833856)
I1213 16:41:43.162174  9787 net.cpp:165] Memory required for data: 2664062176
I1213 16:41:43.162180  9787 layer_factory.hpp:77] Creating layer enet2_5_branch2a
I1213 16:41:43.162196  9787 net.cpp:106] Creating Layer enet2_5_branch2a
I1213 16:41:43.162205  9787 net.cpp:454] enet2_5_branch2a <- enet2_4_relu2_4_0_split_0
I1213 16:41:43.162216  9787 net.cpp:411] enet2_5_branch2a -> enet2_5_branch2a
I1213 16:41:43.165930  9787 net.cpp:150] Setting up enet2_5_branch2a
I1213 16:41:43.165948  9787 net.cpp:157] Top shape: 4 32 48 156 (958464)
I1213 16:41:43.165956  9787 net.cpp:165] Memory required for data: 2667896032
I1213 16:41:43.165966  9787 layer_factory.hpp:77] Creating layer bn2_5_branch2a
I1213 16:41:43.165983  9787 net.cpp:106] Creating Layer bn2_5_branch2a
I1213 16:41:43.165992  9787 net.cpp:454] bn2_5_branch2a <- enet2_5_branch2a
I1213 16:41:43.166005  9787 net.cpp:397] bn2_5_branch2a -> enet2_5_branch2a (in-place)
I1213 16:41:43.166510  9787 net.cpp:150] Setting up bn2_5_branch2a
I1213 16:41:43.166525  9787 net.cpp:157] Top shape: 4 32 48 156 (958464)
I1213 16:41:43.166532  9787 net.cpp:165] Memory required for data: 2671729888
I1213 16:41:43.166543  9787 layer_factory.hpp:77] Creating layer relu2_5_branch2a
I1213 16:41:43.166553  9787 net.cpp:106] Creating Layer relu2_5_branch2a
I1213 16:41:43.166560  9787 net.cpp:454] relu2_5_branch2a <- enet2_5_branch2a
I1213 16:41:43.166569  9787 net.cpp:397] relu2_5_branch2a -> enet2_5_branch2a (in-place)
I1213 16:41:43.167966  9787 net.cpp:150] Setting up relu2_5_branch2a
I1213 16:41:43.167984  9787 net.cpp:157] Top shape: 4 32 48 156 (958464)
I1213 16:41:43.167990  9787 net.cpp:165] Memory required for data: 2675563744
I1213 16:41:43.168000  9787 layer_factory.hpp:77] Creating layer enet2_5_branch2b
I1213 16:41:43.168017  9787 net.cpp:106] Creating Layer enet2_5_branch2b
I1213 16:41:43.168025  9787 net.cpp:454] enet2_5_branch2b <- enet2_5_branch2a
I1213 16:41:43.168042  9787 net.cpp:411] enet2_5_branch2b -> enet2_5_branch2b
I1213 16:41:43.172772  9787 net.cpp:150] Setting up enet2_5_branch2b
I1213 16:41:43.172791  9787 net.cpp:157] Top shape: 4 32 48 156 (958464)
I1213 16:41:43.172797  9787 net.cpp:165] Memory required for data: 2679397600
I1213 16:41:43.172809  9787 layer_factory.hpp:77] Creating layer bn2_5_branch2b
I1213 16:41:43.172824  9787 net.cpp:106] Creating Layer bn2_5_branch2b
I1213 16:41:43.172832  9787 net.cpp:454] bn2_5_branch2b <- enet2_5_branch2b
I1213 16:41:43.172849  9787 net.cpp:397] bn2_5_branch2b -> enet2_5_branch2b (in-place)
I1213 16:41:43.173353  9787 net.cpp:150] Setting up bn2_5_branch2b
I1213 16:41:43.173367  9787 net.cpp:157] Top shape: 4 32 48 156 (958464)
I1213 16:41:43.173374  9787 net.cpp:165] Memory required for data: 2683231456
I1213 16:41:43.173384  9787 layer_factory.hpp:77] Creating layer relu2_5_branch2b
I1213 16:41:43.173394  9787 net.cpp:106] Creating Layer relu2_5_branch2b
I1213 16:41:43.173401  9787 net.cpp:454] relu2_5_branch2b <- enet2_5_branch2b
I1213 16:41:43.173411  9787 net.cpp:397] relu2_5_branch2b -> enet2_5_branch2b (in-place)
I1213 16:41:43.174819  9787 net.cpp:150] Setting up relu2_5_branch2b
I1213 16:41:43.174835  9787 net.cpp:157] Top shape: 4 32 48 156 (958464)
I1213 16:41:43.174842  9787 net.cpp:165] Memory required for data: 2687065312
I1213 16:41:43.174852  9787 layer_factory.hpp:77] Creating layer enet2_5_branch2c
I1213 16:41:43.174870  9787 net.cpp:106] Creating Layer enet2_5_branch2c
I1213 16:41:43.174892  9787 net.cpp:454] enet2_5_branch2c <- enet2_5_branch2b
I1213 16:41:43.174907  9787 net.cpp:411] enet2_5_branch2c -> enet2_5_branch2c
I1213 16:41:43.178534  9787 net.cpp:150] Setting up enet2_5_branch2c
I1213 16:41:43.178551  9787 net.cpp:157] Top shape: 4 128 48 156 (3833856)
I1213 16:41:43.178558  9787 net.cpp:165] Memory required for data: 2702400736
I1213 16:41:43.178568  9787 layer_factory.hpp:77] Creating layer bn2_5_branch2c
I1213 16:41:43.178583  9787 net.cpp:106] Creating Layer bn2_5_branch2c
I1213 16:41:43.178591  9787 net.cpp:454] bn2_5_branch2c <- enet2_5_branch2c
I1213 16:41:43.178606  9787 net.cpp:397] bn2_5_branch2c -> enet2_5_branch2c (in-place)
I1213 16:41:43.179103  9787 net.cpp:150] Setting up bn2_5_branch2c
I1213 16:41:43.179118  9787 net.cpp:157] Top shape: 4 128 48 156 (3833856)
I1213 16:41:43.179124  9787 net.cpp:165] Memory required for data: 2717736160
I1213 16:41:43.179136  9787 layer_factory.hpp:77] Creating layer dropout2_5_branch2c
I1213 16:41:43.179147  9787 net.cpp:106] Creating Layer dropout2_5_branch2c
I1213 16:41:43.179153  9787 net.cpp:454] dropout2_5_branch2c <- enet2_5_branch2c
I1213 16:41:43.179163  9787 net.cpp:397] dropout2_5_branch2c -> enet2_5_branch2c (in-place)
I1213 16:41:43.179219  9787 net.cpp:150] Setting up dropout2_5_branch2c
I1213 16:41:43.179231  9787 net.cpp:157] Top shape: 4 128 48 156 (3833856)
I1213 16:41:43.179239  9787 net.cpp:165] Memory required for data: 2733071584
I1213 16:41:43.179244  9787 layer_factory.hpp:77] Creating layer enet2_5
I1213 16:41:43.179258  9787 net.cpp:106] Creating Layer enet2_5
I1213 16:41:43.179266  9787 net.cpp:454] enet2_5 <- enet2_4_relu2_4_0_split_1
I1213 16:41:43.179275  9787 net.cpp:454] enet2_5 <- enet2_5_branch2c
I1213 16:41:43.179286  9787 net.cpp:411] enet2_5 -> enet2_5
I1213 16:41:43.179342  9787 net.cpp:150] Setting up enet2_5
I1213 16:41:43.179355  9787 net.cpp:157] Top shape: 4 128 48 156 (3833856)
I1213 16:41:43.179363  9787 net.cpp:165] Memory required for data: 2748407008
I1213 16:41:43.179368  9787 layer_factory.hpp:77] Creating layer relu2_5
I1213 16:41:43.179381  9787 net.cpp:106] Creating Layer relu2_5
I1213 16:41:43.179389  9787 net.cpp:454] relu2_5 <- enet2_5
I1213 16:41:43.179399  9787 net.cpp:397] relu2_5 -> enet2_5 (in-place)
I1213 16:41:43.183935  9787 net.cpp:150] Setting up relu2_5
I1213 16:41:43.183954  9787 net.cpp:157] Top shape: 4 128 48 156 (3833856)
I1213 16:41:43.183962  9787 net.cpp:165] Memory required for data: 2763742432
I1213 16:41:43.183971  9787 layer_factory.hpp:77] Creating layer enet2_5_relu2_5_0_split
I1213 16:41:43.183985  9787 net.cpp:106] Creating Layer enet2_5_relu2_5_0_split
I1213 16:41:43.183993  9787 net.cpp:454] enet2_5_relu2_5_0_split <- enet2_5
I1213 16:41:43.184006  9787 net.cpp:411] enet2_5_relu2_5_0_split -> enet2_5_relu2_5_0_split_0
I1213 16:41:43.184020  9787 net.cpp:411] enet2_5_relu2_5_0_split -> enet2_5_relu2_5_0_split_1
I1213 16:41:43.184108  9787 net.cpp:150] Setting up enet2_5_relu2_5_0_split
I1213 16:41:43.184120  9787 net.cpp:157] Top shape: 4 128 48 156 (3833856)
I1213 16:41:43.184129  9787 net.cpp:157] Top shape: 4 128 48 156 (3833856)
I1213 16:41:43.184135  9787 net.cpp:165] Memory required for data: 2794413280
I1213 16:41:43.184142  9787 layer_factory.hpp:77] Creating layer enet2_6_branch2a
I1213 16:41:43.184159  9787 net.cpp:106] Creating Layer enet2_6_branch2a
I1213 16:41:43.184166  9787 net.cpp:454] enet2_6_branch2a <- enet2_5_relu2_5_0_split_0
I1213 16:41:43.184180  9787 net.cpp:411] enet2_6_branch2a -> enet2_6_branch2a
I1213 16:41:43.187968  9787 net.cpp:150] Setting up enet2_6_branch2a
I1213 16:41:43.187985  9787 net.cpp:157] Top shape: 4 32 48 156 (958464)
I1213 16:41:43.187993  9787 net.cpp:165] Memory required for data: 2798247136
I1213 16:41:43.188002  9787 layer_factory.hpp:77] Creating layer bn2_6_branch2a
I1213 16:41:43.188015  9787 net.cpp:106] Creating Layer bn2_6_branch2a
I1213 16:41:43.188022  9787 net.cpp:454] bn2_6_branch2a <- enet2_6_branch2a
I1213 16:41:43.188036  9787 net.cpp:397] bn2_6_branch2a -> enet2_6_branch2a (in-place)
I1213 16:41:43.188593  9787 net.cpp:150] Setting up bn2_6_branch2a
I1213 16:41:43.188608  9787 net.cpp:157] Top shape: 4 32 48 156 (958464)
I1213 16:41:43.188614  9787 net.cpp:165] Memory required for data: 2802080992
I1213 16:41:43.188626  9787 layer_factory.hpp:77] Creating layer relu2_6_branch2a
I1213 16:41:43.188635  9787 net.cpp:106] Creating Layer relu2_6_branch2a
I1213 16:41:43.188643  9787 net.cpp:454] relu2_6_branch2a <- enet2_6_branch2a
I1213 16:41:43.188652  9787 net.cpp:397] relu2_6_branch2a -> enet2_6_branch2a (in-place)
I1213 16:41:43.190143  9787 net.cpp:150] Setting up relu2_6_branch2a
I1213 16:41:43.190163  9787 net.cpp:157] Top shape: 4 32 48 156 (958464)
I1213 16:41:43.190171  9787 net.cpp:165] Memory required for data: 2805914848
I1213 16:41:43.190181  9787 layer_factory.hpp:77] Creating layer enet2_6_branch2b
I1213 16:41:43.190201  9787 net.cpp:106] Creating Layer enet2_6_branch2b
I1213 16:41:43.190209  9787 net.cpp:454] enet2_6_branch2b <- enet2_6_branch2a
I1213 16:41:43.190220  9787 net.cpp:411] enet2_6_branch2b -> enet2_6_branch2b
I1213 16:41:43.191043  9787 net.cpp:150] Setting up enet2_6_branch2b
I1213 16:41:43.191058  9787 net.cpp:157] Top shape: 4 32 48 156 (958464)
I1213 16:41:43.191066  9787 net.cpp:165] Memory required for data: 2809748704
I1213 16:41:43.191076  9787 layer_factory.hpp:77] Creating layer bn2_6_branch2b
I1213 16:41:43.191090  9787 net.cpp:106] Creating Layer bn2_6_branch2b
I1213 16:41:43.191098  9787 net.cpp:454] bn2_6_branch2b <- enet2_6_branch2b
I1213 16:41:43.191112  9787 net.cpp:397] bn2_6_branch2b -> enet2_6_branch2b (in-place)
I1213 16:41:43.191648  9787 net.cpp:150] Setting up bn2_6_branch2b
I1213 16:41:43.191661  9787 net.cpp:157] Top shape: 4 32 48 156 (958464)
I1213 16:41:43.191668  9787 net.cpp:165] Memory required for data: 2813582560
I1213 16:41:43.191679  9787 layer_factory.hpp:77] Creating layer relu2_6_branch2b
I1213 16:41:43.191689  9787 net.cpp:106] Creating Layer relu2_6_branch2b
I1213 16:41:43.191696  9787 net.cpp:454] relu2_6_branch2b <- enet2_6_branch2b
I1213 16:41:43.191705  9787 net.cpp:397] relu2_6_branch2b -> enet2_6_branch2b (in-place)
I1213 16:41:43.193210  9787 net.cpp:150] Setting up relu2_6_branch2b
I1213 16:41:43.193228  9787 net.cpp:157] Top shape: 4 32 48 156 (958464)
I1213 16:41:43.193234  9787 net.cpp:165] Memory required for data: 2817416416
I1213 16:41:43.193244  9787 layer_factory.hpp:77] Creating layer enet2_6_branch2c
I1213 16:41:43.193261  9787 net.cpp:106] Creating Layer enet2_6_branch2c
I1213 16:41:43.193269  9787 net.cpp:454] enet2_6_branch2c <- enet2_6_branch2b
I1213 16:41:43.193284  9787 net.cpp:411] enet2_6_branch2c -> enet2_6_branch2c
I1213 16:41:43.197023  9787 net.cpp:150] Setting up enet2_6_branch2c
I1213 16:41:43.197049  9787 net.cpp:157] Top shape: 4 128 48 156 (3833856)
I1213 16:41:43.197057  9787 net.cpp:165] Memory required for data: 2832751840
I1213 16:41:43.197067  9787 layer_factory.hpp:77] Creating layer bn2_6_branch2c
I1213 16:41:43.197083  9787 net.cpp:106] Creating Layer bn2_6_branch2c
I1213 16:41:43.197093  9787 net.cpp:454] bn2_6_branch2c <- enet2_6_branch2c
I1213 16:41:43.197106  9787 net.cpp:397] bn2_6_branch2c -> enet2_6_branch2c (in-place)
I1213 16:41:43.197648  9787 net.cpp:150] Setting up bn2_6_branch2c
I1213 16:41:43.197661  9787 net.cpp:157] Top shape: 4 128 48 156 (3833856)
I1213 16:41:43.197669  9787 net.cpp:165] Memory required for data: 2848087264
I1213 16:41:43.197679  9787 layer_factory.hpp:77] Creating layer dropout2_6_branch2c
I1213 16:41:43.197690  9787 net.cpp:106] Creating Layer dropout2_6_branch2c
I1213 16:41:43.197698  9787 net.cpp:454] dropout2_6_branch2c <- enet2_6_branch2c
I1213 16:41:43.197707  9787 net.cpp:397] dropout2_6_branch2c -> enet2_6_branch2c (in-place)
I1213 16:41:43.197767  9787 net.cpp:150] Setting up dropout2_6_branch2c
I1213 16:41:43.197780  9787 net.cpp:157] Top shape: 4 128 48 156 (3833856)
I1213 16:41:43.197788  9787 net.cpp:165] Memory required for data: 2863422688
I1213 16:41:43.197793  9787 layer_factory.hpp:77] Creating layer enet2_6
I1213 16:41:43.197825  9787 net.cpp:106] Creating Layer enet2_6
I1213 16:41:43.197849  9787 net.cpp:454] enet2_6 <- enet2_5_relu2_5_0_split_1
I1213 16:41:43.197857  9787 net.cpp:454] enet2_6 <- enet2_6_branch2c
I1213 16:41:43.197867  9787 net.cpp:411] enet2_6 -> enet2_6
I1213 16:41:43.197928  9787 net.cpp:150] Setting up enet2_6
I1213 16:41:43.197942  9787 net.cpp:157] Top shape: 4 128 48 156 (3833856)
I1213 16:41:43.197949  9787 net.cpp:165] Memory required for data: 2878758112
I1213 16:41:43.197955  9787 layer_factory.hpp:77] Creating layer relu2_6
I1213 16:41:43.197968  9787 net.cpp:106] Creating Layer relu2_6
I1213 16:41:43.197976  9787 net.cpp:454] relu2_6 <- enet2_6
I1213 16:41:43.197985  9787 net.cpp:397] relu2_6 -> enet2_6 (in-place)
I1213 16:41:43.202735  9787 net.cpp:150] Setting up relu2_6
I1213 16:41:43.202761  9787 net.cpp:157] Top shape: 4 128 48 156 (3833856)
I1213 16:41:43.202769  9787 net.cpp:165] Memory required for data: 2894093536
I1213 16:41:43.202781  9787 layer_factory.hpp:77] Creating layer enet2_6_relu2_6_0_split
I1213 16:41:43.202797  9787 net.cpp:106] Creating Layer enet2_6_relu2_6_0_split
I1213 16:41:43.202805  9787 net.cpp:454] enet2_6_relu2_6_0_split <- enet2_6
I1213 16:41:43.202817  9787 net.cpp:411] enet2_6_relu2_6_0_split -> enet2_6_relu2_6_0_split_0
I1213 16:41:43.202833  9787 net.cpp:411] enet2_6_relu2_6_0_split -> enet2_6_relu2_6_0_split_1
I1213 16:41:43.202929  9787 net.cpp:150] Setting up enet2_6_relu2_6_0_split
I1213 16:41:43.202944  9787 net.cpp:157] Top shape: 4 128 48 156 (3833856)
I1213 16:41:43.202951  9787 net.cpp:157] Top shape: 4 128 48 156 (3833856)
I1213 16:41:43.202958  9787 net.cpp:165] Memory required for data: 2924764384
I1213 16:41:43.202965  9787 layer_factory.hpp:77] Creating layer enet2_7_branch2a
I1213 16:41:43.202983  9787 net.cpp:106] Creating Layer enet2_7_branch2a
I1213 16:41:43.202992  9787 net.cpp:454] enet2_7_branch2a <- enet2_6_relu2_6_0_split_0
I1213 16:41:43.203006  9787 net.cpp:411] enet2_7_branch2a -> enet2_7_branch2a
I1213 16:41:43.206957  9787 net.cpp:150] Setting up enet2_7_branch2a
I1213 16:41:43.206977  9787 net.cpp:157] Top shape: 4 32 48 156 (958464)
I1213 16:41:43.206985  9787 net.cpp:165] Memory required for data: 2928598240
I1213 16:41:43.206995  9787 layer_factory.hpp:77] Creating layer bn2_7_branch2a
I1213 16:41:43.207008  9787 net.cpp:106] Creating Layer bn2_7_branch2a
I1213 16:41:43.207016  9787 net.cpp:454] bn2_7_branch2a <- enet2_7_branch2a
I1213 16:41:43.207031  9787 net.cpp:397] bn2_7_branch2a -> enet2_7_branch2a (in-place)
I1213 16:41:43.207605  9787 net.cpp:150] Setting up bn2_7_branch2a
I1213 16:41:43.207619  9787 net.cpp:157] Top shape: 4 32 48 156 (958464)
I1213 16:41:43.207626  9787 net.cpp:165] Memory required for data: 2932432096
I1213 16:41:43.207638  9787 layer_factory.hpp:77] Creating layer relu2_7_branch2a
I1213 16:41:43.207648  9787 net.cpp:106] Creating Layer relu2_7_branch2a
I1213 16:41:43.207656  9787 net.cpp:454] relu2_7_branch2a <- enet2_7_branch2a
I1213 16:41:43.207665  9787 net.cpp:397] relu2_7_branch2a -> enet2_7_branch2a (in-place)
I1213 16:41:43.209089  9787 net.cpp:150] Setting up relu2_7_branch2a
I1213 16:41:43.209107  9787 net.cpp:157] Top shape: 4 32 48 156 (958464)
I1213 16:41:43.209115  9787 net.cpp:165] Memory required for data: 2936265952
I1213 16:41:43.209123  9787 layer_factory.hpp:77] Creating layer enet2_7_branch2b1
I1213 16:41:43.209139  9787 net.cpp:106] Creating Layer enet2_7_branch2b1
I1213 16:41:43.209148  9787 net.cpp:454] enet2_7_branch2b1 <- enet2_7_branch2a
I1213 16:41:43.209161  9787 net.cpp:411] enet2_7_branch2b1 -> enet2_7_branch2b1
I1213 16:41:43.212962  9787 net.cpp:150] Setting up enet2_7_branch2b1
I1213 16:41:43.212980  9787 net.cpp:157] Top shape: 4 32 48 156 (958464)
I1213 16:41:43.212987  9787 net.cpp:165] Memory required for data: 2940099808
I1213 16:41:43.212997  9787 layer_factory.hpp:77] Creating layer enet2_7_branch2b
I1213 16:41:43.213016  9787 net.cpp:106] Creating Layer enet2_7_branch2b
I1213 16:41:43.213024  9787 net.cpp:454] enet2_7_branch2b <- enet2_7_branch2b1
I1213 16:41:43.213052  9787 net.cpp:411] enet2_7_branch2b -> enet2_7_branch2b
I1213 16:41:43.216845  9787 net.cpp:150] Setting up enet2_7_branch2b
I1213 16:41:43.216866  9787 net.cpp:157] Top shape: 4 32 48 156 (958464)
I1213 16:41:43.216872  9787 net.cpp:165] Memory required for data: 2943933664
I1213 16:41:43.216884  9787 layer_factory.hpp:77] Creating layer bn2_7_branch2b
I1213 16:41:43.216897  9787 net.cpp:106] Creating Layer bn2_7_branch2b
I1213 16:41:43.216904  9787 net.cpp:454] bn2_7_branch2b <- enet2_7_branch2b
I1213 16:41:43.216917  9787 net.cpp:397] bn2_7_branch2b -> enet2_7_branch2b (in-place)
I1213 16:41:43.217489  9787 net.cpp:150] Setting up bn2_7_branch2b
I1213 16:41:43.217504  9787 net.cpp:157] Top shape: 4 32 48 156 (958464)
I1213 16:41:43.217510  9787 net.cpp:165] Memory required for data: 2947767520
I1213 16:41:43.217520  9787 layer_factory.hpp:77] Creating layer relu2_7_branch2b
I1213 16:41:43.217533  9787 net.cpp:106] Creating Layer relu2_7_branch2b
I1213 16:41:43.217541  9787 net.cpp:454] relu2_7_branch2b <- enet2_7_branch2b
I1213 16:41:43.217550  9787 net.cpp:397] relu2_7_branch2b -> enet2_7_branch2b (in-place)
I1213 16:41:43.218905  9787 net.cpp:150] Setting up relu2_7_branch2b
I1213 16:41:43.218924  9787 net.cpp:157] Top shape: 4 32 48 156 (958464)
I1213 16:41:43.218930  9787 net.cpp:165] Memory required for data: 2951601376
I1213 16:41:43.218940  9787 layer_factory.hpp:77] Creating layer enet2_7_branch2c
I1213 16:41:43.218956  9787 net.cpp:106] Creating Layer enet2_7_branch2c
I1213 16:41:43.218964  9787 net.cpp:454] enet2_7_branch2c <- enet2_7_branch2b
I1213 16:41:43.218978  9787 net.cpp:411] enet2_7_branch2c -> enet2_7_branch2c
I1213 16:41:43.222880  9787 net.cpp:150] Setting up enet2_7_branch2c
I1213 16:41:43.222899  9787 net.cpp:157] Top shape: 4 128 48 156 (3833856)
I1213 16:41:43.222908  9787 net.cpp:165] Memory required for data: 2966936800
I1213 16:41:43.222918  9787 layer_factory.hpp:77] Creating layer bn2_7_branch2c
I1213 16:41:43.222934  9787 net.cpp:106] Creating Layer bn2_7_branch2c
I1213 16:41:43.222941  9787 net.cpp:454] bn2_7_branch2c <- enet2_7_branch2c
I1213 16:41:43.222954  9787 net.cpp:397] bn2_7_branch2c -> enet2_7_branch2c (in-place)
I1213 16:41:43.223531  9787 net.cpp:150] Setting up bn2_7_branch2c
I1213 16:41:43.223546  9787 net.cpp:157] Top shape: 4 128 48 156 (3833856)
I1213 16:41:43.223552  9787 net.cpp:165] Memory required for data: 2982272224
I1213 16:41:43.223563  9787 layer_factory.hpp:77] Creating layer dropout2_7_branch2c
I1213 16:41:43.223578  9787 net.cpp:106] Creating Layer dropout2_7_branch2c
I1213 16:41:43.223587  9787 net.cpp:454] dropout2_7_branch2c <- enet2_7_branch2c
I1213 16:41:43.223595  9787 net.cpp:397] dropout2_7_branch2c -> enet2_7_branch2c (in-place)
I1213 16:41:43.223656  9787 net.cpp:150] Setting up dropout2_7_branch2c
I1213 16:41:43.223670  9787 net.cpp:157] Top shape: 4 128 48 156 (3833856)
I1213 16:41:43.223677  9787 net.cpp:165] Memory required for data: 2997607648
I1213 16:41:43.223683  9787 layer_factory.hpp:77] Creating layer enet2_7
I1213 16:41:43.223695  9787 net.cpp:106] Creating Layer enet2_7
I1213 16:41:43.223701  9787 net.cpp:454] enet2_7 <- enet2_6_relu2_6_0_split_1
I1213 16:41:43.223709  9787 net.cpp:454] enet2_7 <- enet2_7_branch2c
I1213 16:41:43.223722  9787 net.cpp:411] enet2_7 -> enet2_7
I1213 16:41:43.223786  9787 net.cpp:150] Setting up enet2_7
I1213 16:41:43.223799  9787 net.cpp:157] Top shape: 4 128 48 156 (3833856)
I1213 16:41:43.223806  9787 net.cpp:165] Memory required for data: 3012943072
I1213 16:41:43.223812  9787 layer_factory.hpp:77] Creating layer relu2_7
I1213 16:41:43.223822  9787 net.cpp:106] Creating Layer relu2_7
I1213 16:41:43.223829  9787 net.cpp:454] relu2_7 <- enet2_7
I1213 16:41:43.223841  9787 net.cpp:397] relu2_7 -> enet2_7 (in-place)
I1213 16:41:43.228781  9787 net.cpp:150] Setting up relu2_7
I1213 16:41:43.228819  9787 net.cpp:157] Top shape: 4 128 48 156 (3833856)
I1213 16:41:43.228827  9787 net.cpp:165] Memory required for data: 3028278496
I1213 16:41:43.228839  9787 layer_factory.hpp:77] Creating layer enet2_7_relu2_7_0_split
I1213 16:41:43.228883  9787 net.cpp:106] Creating Layer enet2_7_relu2_7_0_split
I1213 16:41:43.228893  9787 net.cpp:454] enet2_7_relu2_7_0_split <- enet2_7
I1213 16:41:43.228909  9787 net.cpp:411] enet2_7_relu2_7_0_split -> enet2_7_relu2_7_0_split_0
I1213 16:41:43.228924  9787 net.cpp:411] enet2_7_relu2_7_0_split -> enet2_7_relu2_7_0_split_1
I1213 16:41:43.229032  9787 net.cpp:150] Setting up enet2_7_relu2_7_0_split
I1213 16:41:43.229046  9787 net.cpp:157] Top shape: 4 128 48 156 (3833856)
I1213 16:41:43.229054  9787 net.cpp:157] Top shape: 4 128 48 156 (3833856)
I1213 16:41:43.229060  9787 net.cpp:165] Memory required for data: 3058949344
I1213 16:41:43.229068  9787 layer_factory.hpp:77] Creating layer enet2_8_branch2a
I1213 16:41:43.229085  9787 net.cpp:106] Creating Layer enet2_8_branch2a
I1213 16:41:43.229092  9787 net.cpp:454] enet2_8_branch2a <- enet2_7_relu2_7_0_split_0
I1213 16:41:43.229107  9787 net.cpp:411] enet2_8_branch2a -> enet2_8_branch2a
I1213 16:41:43.233116  9787 net.cpp:150] Setting up enet2_8_branch2a
I1213 16:41:43.233144  9787 net.cpp:157] Top shape: 4 32 48 156 (958464)
I1213 16:41:43.233151  9787 net.cpp:165] Memory required for data: 3062783200
I1213 16:41:43.233161  9787 layer_factory.hpp:77] Creating layer bn2_8_branch2a
I1213 16:41:43.233181  9787 net.cpp:106] Creating Layer bn2_8_branch2a
I1213 16:41:43.233191  9787 net.cpp:454] bn2_8_branch2a <- enet2_8_branch2a
I1213 16:41:43.233201  9787 net.cpp:397] bn2_8_branch2a -> enet2_8_branch2a (in-place)
I1213 16:41:43.235812  9787 net.cpp:150] Setting up bn2_8_branch2a
I1213 16:41:43.235831  9787 net.cpp:157] Top shape: 4 32 48 156 (958464)
I1213 16:41:43.235837  9787 net.cpp:165] Memory required for data: 3066617056
I1213 16:41:43.235849  9787 layer_factory.hpp:77] Creating layer relu2_8_branch2a
I1213 16:41:43.235864  9787 net.cpp:106] Creating Layer relu2_8_branch2a
I1213 16:41:43.235872  9787 net.cpp:454] relu2_8_branch2a <- enet2_8_branch2a
I1213 16:41:43.235885  9787 net.cpp:397] relu2_8_branch2a -> enet2_8_branch2a (in-place)
I1213 16:41:43.237284  9787 net.cpp:150] Setting up relu2_8_branch2a
I1213 16:41:43.237300  9787 net.cpp:157] Top shape: 4 32 48 156 (958464)
I1213 16:41:43.237308  9787 net.cpp:165] Memory required for data: 3070450912
I1213 16:41:43.237318  9787 layer_factory.hpp:77] Creating layer enet2_8_branch2b
I1213 16:41:43.237335  9787 net.cpp:106] Creating Layer enet2_8_branch2b
I1213 16:41:43.237344  9787 net.cpp:454] enet2_8_branch2b <- enet2_8_branch2a
I1213 16:41:43.237357  9787 net.cpp:411] enet2_8_branch2b -> enet2_8_branch2b
I1213 16:41:43.238229  9787 net.cpp:150] Setting up enet2_8_branch2b
I1213 16:41:43.238243  9787 net.cpp:157] Top shape: 4 32 48 156 (958464)
I1213 16:41:43.238250  9787 net.cpp:165] Memory required for data: 3074284768
I1213 16:41:43.238260  9787 layer_factory.hpp:77] Creating layer bn2_8_branch2b
I1213 16:41:43.238276  9787 net.cpp:106] Creating Layer bn2_8_branch2b
I1213 16:41:43.238283  9787 net.cpp:454] bn2_8_branch2b <- enet2_8_branch2b
I1213 16:41:43.238293  9787 net.cpp:397] bn2_8_branch2b -> enet2_8_branch2b (in-place)
I1213 16:41:43.238870  9787 net.cpp:150] Setting up bn2_8_branch2b
I1213 16:41:43.238885  9787 net.cpp:157] Top shape: 4 32 48 156 (958464)
I1213 16:41:43.238891  9787 net.cpp:165] Memory required for data: 3078118624
I1213 16:41:43.238903  9787 layer_factory.hpp:77] Creating layer relu2_8_branch2b
I1213 16:41:43.238912  9787 net.cpp:106] Creating Layer relu2_8_branch2b
I1213 16:41:43.238919  9787 net.cpp:454] relu2_8_branch2b <- enet2_8_branch2b
I1213 16:41:43.238929  9787 net.cpp:397] relu2_8_branch2b -> enet2_8_branch2b (in-place)
I1213 16:41:43.240231  9787 net.cpp:150] Setting up relu2_8_branch2b
I1213 16:41:43.240247  9787 net.cpp:157] Top shape: 4 32 48 156 (958464)
I1213 16:41:43.240254  9787 net.cpp:165] Memory required for data: 3081952480
I1213 16:41:43.240263  9787 layer_factory.hpp:77] Creating layer enet2_8_branch2c
I1213 16:41:43.240280  9787 net.cpp:106] Creating Layer enet2_8_branch2c
I1213 16:41:43.240288  9787 net.cpp:454] enet2_8_branch2c <- enet2_8_branch2b
I1213 16:41:43.240326  9787 net.cpp:411] enet2_8_branch2c -> enet2_8_branch2c
I1213 16:41:43.244470  9787 net.cpp:150] Setting up enet2_8_branch2c
I1213 16:41:43.244491  9787 net.cpp:157] Top shape: 4 128 48 156 (3833856)
I1213 16:41:43.244498  9787 net.cpp:165] Memory required for data: 3097287904
I1213 16:41:43.244508  9787 layer_factory.hpp:77] Creating layer bn2_8_branch2c
I1213 16:41:43.244520  9787 net.cpp:106] Creating Layer bn2_8_branch2c
I1213 16:41:43.244529  9787 net.cpp:454] bn2_8_branch2c <- enet2_8_branch2c
I1213 16:41:43.244541  9787 net.cpp:397] bn2_8_branch2c -> enet2_8_branch2c (in-place)
I1213 16:41:43.245113  9787 net.cpp:150] Setting up bn2_8_branch2c
I1213 16:41:43.245128  9787 net.cpp:157] Top shape: 4 128 48 156 (3833856)
I1213 16:41:43.245134  9787 net.cpp:165] Memory required for data: 3112623328
I1213 16:41:43.245146  9787 layer_factory.hpp:77] Creating layer dropout2_8_branch2c
I1213 16:41:43.245157  9787 net.cpp:106] Creating Layer dropout2_8_branch2c
I1213 16:41:43.245163  9787 net.cpp:454] dropout2_8_branch2c <- enet2_8_branch2c
I1213 16:41:43.245177  9787 net.cpp:397] dropout2_8_branch2c -> enet2_8_branch2c (in-place)
I1213 16:41:43.245239  9787 net.cpp:150] Setting up dropout2_8_branch2c
I1213 16:41:43.245252  9787 net.cpp:157] Top shape: 4 128 48 156 (3833856)
I1213 16:41:43.245260  9787 net.cpp:165] Memory required for data: 3127958752
I1213 16:41:43.245265  9787 layer_factory.hpp:77] Creating layer enet2_8
I1213 16:41:43.245276  9787 net.cpp:106] Creating Layer enet2_8
I1213 16:41:43.245283  9787 net.cpp:454] enet2_8 <- enet2_7_relu2_7_0_split_1
I1213 16:41:43.245292  9787 net.cpp:454] enet2_8 <- enet2_8_branch2c
I1213 16:41:43.245306  9787 net.cpp:411] enet2_8 -> enet2_8
I1213 16:41:43.245367  9787 net.cpp:150] Setting up enet2_8
I1213 16:41:43.245383  9787 net.cpp:157] Top shape: 4 128 48 156 (3833856)
I1213 16:41:43.245389  9787 net.cpp:165] Memory required for data: 3143294176
I1213 16:41:43.245396  9787 layer_factory.hpp:77] Creating layer relu2_8
I1213 16:41:43.245406  9787 net.cpp:106] Creating Layer relu2_8
I1213 16:41:43.245414  9787 net.cpp:454] relu2_8 <- enet2_8
I1213 16:41:43.245422  9787 net.cpp:397] relu2_8 -> enet2_8 (in-place)
I1213 16:41:43.249737  9787 net.cpp:150] Setting up relu2_8
I1213 16:41:43.249754  9787 net.cpp:157] Top shape: 4 128 48 156 (3833856)
I1213 16:41:43.249763  9787 net.cpp:165] Memory required for data: 3158629600
I1213 16:41:43.249771  9787 layer_factory.hpp:77] Creating layer enet2_8_relu2_8_0_split
I1213 16:41:43.249783  9787 net.cpp:106] Creating Layer enet2_8_relu2_8_0_split
I1213 16:41:43.249790  9787 net.cpp:454] enet2_8_relu2_8_0_split <- enet2_8
I1213 16:41:43.249804  9787 net.cpp:411] enet2_8_relu2_8_0_split -> enet2_8_relu2_8_0_split_0
I1213 16:41:43.249815  9787 net.cpp:411] enet2_8_relu2_8_0_split -> enet2_8_relu2_8_0_split_1
I1213 16:41:43.249919  9787 net.cpp:150] Setting up enet2_8_relu2_8_0_split
I1213 16:41:43.249933  9787 net.cpp:157] Top shape: 4 128 48 156 (3833856)
I1213 16:41:43.249941  9787 net.cpp:157] Top shape: 4 128 48 156 (3833856)
I1213 16:41:43.249948  9787 net.cpp:165] Memory required for data: 3189300448
I1213 16:41:43.249954  9787 layer_factory.hpp:77] Creating layer enet3_1_branch2a
I1213 16:41:43.249970  9787 net.cpp:106] Creating Layer enet3_1_branch2a
I1213 16:41:43.249979  9787 net.cpp:454] enet3_1_branch2a <- enet2_8_relu2_8_0_split_0
I1213 16:41:43.249990  9787 net.cpp:411] enet3_1_branch2a -> enet3_1_branch2a
I1213 16:41:43.255100  9787 net.cpp:150] Setting up enet3_1_branch2a
I1213 16:41:43.255120  9787 net.cpp:157] Top shape: 4 32 48 156 (958464)
I1213 16:41:43.255127  9787 net.cpp:165] Memory required for data: 3193134304
I1213 16:41:43.255137  9787 layer_factory.hpp:77] Creating layer bn3_1_branch2a
I1213 16:41:43.255153  9787 net.cpp:106] Creating Layer bn3_1_branch2a
I1213 16:41:43.255162  9787 net.cpp:454] bn3_1_branch2a <- enet3_1_branch2a
I1213 16:41:43.255172  9787 net.cpp:397] bn3_1_branch2a -> enet3_1_branch2a (in-place)
I1213 16:41:43.255789  9787 net.cpp:150] Setting up bn3_1_branch2a
I1213 16:41:43.255826  9787 net.cpp:157] Top shape: 4 32 48 156 (958464)
I1213 16:41:43.255834  9787 net.cpp:165] Memory required for data: 3196968160
I1213 16:41:43.255846  9787 layer_factory.hpp:77] Creating layer relu3_1_branch2a
I1213 16:41:43.255856  9787 net.cpp:106] Creating Layer relu3_1_branch2a
I1213 16:41:43.255862  9787 net.cpp:454] relu3_1_branch2a <- enet3_1_branch2a
I1213 16:41:43.255875  9787 net.cpp:397] relu3_1_branch2a -> enet3_1_branch2a (in-place)
I1213 16:41:43.257400  9787 net.cpp:150] Setting up relu3_1_branch2a
I1213 16:41:43.257416  9787 net.cpp:157] Top shape: 4 32 48 156 (958464)
I1213 16:41:43.257423  9787 net.cpp:165] Memory required for data: 3200802016
I1213 16:41:43.257433  9787 layer_factory.hpp:77] Creating layer enet3_1_branch2b
I1213 16:41:43.257458  9787 net.cpp:106] Creating Layer enet3_1_branch2b
I1213 16:41:43.257467  9787 net.cpp:454] enet3_1_branch2b <- enet3_1_branch2a
I1213 16:41:43.257479  9787 net.cpp:411] enet3_1_branch2b -> enet3_1_branch2b
I1213 16:41:43.261524  9787 net.cpp:150] Setting up enet3_1_branch2b
I1213 16:41:43.261549  9787 net.cpp:157] Top shape: 4 32 48 156 (958464)
I1213 16:41:43.261557  9787 net.cpp:165] Memory required for data: 3204635872
I1213 16:41:43.261569  9787 layer_factory.hpp:77] Creating layer bn3_1_branch2b
I1213 16:41:43.261587  9787 net.cpp:106] Creating Layer bn3_1_branch2b
I1213 16:41:43.261595  9787 net.cpp:454] bn3_1_branch2b <- enet3_1_branch2b
I1213 16:41:43.261610  9787 net.cpp:397] bn3_1_branch2b -> enet3_1_branch2b (in-place)
I1213 16:41:43.262217  9787 net.cpp:150] Setting up bn3_1_branch2b
I1213 16:41:43.262231  9787 net.cpp:157] Top shape: 4 32 48 156 (958464)
I1213 16:41:43.262238  9787 net.cpp:165] Memory required for data: 3208469728
I1213 16:41:43.262249  9787 layer_factory.hpp:77] Creating layer relu3_1_branch2b
I1213 16:41:43.262260  9787 net.cpp:106] Creating Layer relu3_1_branch2b
I1213 16:41:43.262267  9787 net.cpp:454] relu3_1_branch2b <- enet3_1_branch2b
I1213 16:41:43.262276  9787 net.cpp:397] relu3_1_branch2b -> enet3_1_branch2b (in-place)
I1213 16:41:43.263795  9787 net.cpp:150] Setting up relu3_1_branch2b
I1213 16:41:43.263813  9787 net.cpp:157] Top shape: 4 32 48 156 (958464)
I1213 16:41:43.263819  9787 net.cpp:165] Memory required for data: 3212303584
I1213 16:41:43.263829  9787 layer_factory.hpp:77] Creating layer enet3_1_branch2c
I1213 16:41:43.263849  9787 net.cpp:106] Creating Layer enet3_1_branch2c
I1213 16:41:43.263856  9787 net.cpp:454] enet3_1_branch2c <- enet3_1_branch2b
I1213 16:41:43.263870  9787 net.cpp:411] enet3_1_branch2c -> enet3_1_branch2c
I1213 16:41:43.268915  9787 net.cpp:150] Setting up enet3_1_branch2c
I1213 16:41:43.268934  9787 net.cpp:157] Top shape: 4 128 48 156 (3833856)
I1213 16:41:43.268942  9787 net.cpp:165] Memory required for data: 3227639008
I1213 16:41:43.268952  9787 layer_factory.hpp:77] Creating layer bn3_1_branch2c
I1213 16:41:43.268971  9787 net.cpp:106] Creating Layer bn3_1_branch2c
I1213 16:41:43.268980  9787 net.cpp:454] bn3_1_branch2c <- enet3_1_branch2c
I1213 16:41:43.268990  9787 net.cpp:397] bn3_1_branch2c -> enet3_1_branch2c (in-place)
I1213 16:41:43.269603  9787 net.cpp:150] Setting up bn3_1_branch2c
I1213 16:41:43.269618  9787 net.cpp:157] Top shape: 4 128 48 156 (3833856)
I1213 16:41:43.269625  9787 net.cpp:165] Memory required for data: 3242974432
I1213 16:41:43.269636  9787 layer_factory.hpp:77] Creating layer dropout3_1_branch2c
I1213 16:41:43.269649  9787 net.cpp:106] Creating Layer dropout3_1_branch2c
I1213 16:41:43.269655  9787 net.cpp:454] dropout3_1_branch2c <- enet3_1_branch2c
I1213 16:41:43.269665  9787 net.cpp:397] dropout3_1_branch2c -> enet3_1_branch2c (in-place)
I1213 16:41:43.269731  9787 net.cpp:150] Setting up dropout3_1_branch2c
I1213 16:41:43.269745  9787 net.cpp:157] Top shape: 4 128 48 156 (3833856)
I1213 16:41:43.269752  9787 net.cpp:165] Memory required for data: 3258309856
I1213 16:41:43.269758  9787 layer_factory.hpp:77] Creating layer enet3_1
I1213 16:41:43.269769  9787 net.cpp:106] Creating Layer enet3_1
I1213 16:41:43.269795  9787 net.cpp:454] enet3_1 <- enet2_8_relu2_8_0_split_1
I1213 16:41:43.269820  9787 net.cpp:454] enet3_1 <- enet3_1_branch2c
I1213 16:41:43.269834  9787 net.cpp:411] enet3_1 -> enet3_1
I1213 16:41:43.269896  9787 net.cpp:150] Setting up enet3_1
I1213 16:41:43.269911  9787 net.cpp:157] Top shape: 4 128 48 156 (3833856)
I1213 16:41:43.269917  9787 net.cpp:165] Memory required for data: 3273645280
I1213 16:41:43.269923  9787 layer_factory.hpp:77] Creating layer relu3_1
I1213 16:41:43.269937  9787 net.cpp:106] Creating Layer relu3_1
I1213 16:41:43.269944  9787 net.cpp:454] relu3_1 <- enet3_1
I1213 16:41:43.269953  9787 net.cpp:397] relu3_1 -> enet3_1 (in-place)
I1213 16:41:43.275380  9787 net.cpp:150] Setting up relu3_1
I1213 16:41:43.275398  9787 net.cpp:157] Top shape: 4 128 48 156 (3833856)
I1213 16:41:43.275405  9787 net.cpp:165] Memory required for data: 3288980704
I1213 16:41:43.275415  9787 layer_factory.hpp:77] Creating layer enet3_1_relu3_1_0_split
I1213 16:41:43.275427  9787 net.cpp:106] Creating Layer enet3_1_relu3_1_0_split
I1213 16:41:43.275434  9787 net.cpp:454] enet3_1_relu3_1_0_split <- enet3_1
I1213 16:41:43.275452  9787 net.cpp:411] enet3_1_relu3_1_0_split -> enet3_1_relu3_1_0_split_0
I1213 16:41:43.275466  9787 net.cpp:411] enet3_1_relu3_1_0_split -> enet3_1_relu3_1_0_split_1
I1213 16:41:43.276250  9787 net.cpp:150] Setting up enet3_1_relu3_1_0_split
I1213 16:41:43.276269  9787 net.cpp:157] Top shape: 4 128 48 156 (3833856)
I1213 16:41:43.276278  9787 net.cpp:157] Top shape: 4 128 48 156 (3833856)
I1213 16:41:43.276284  9787 net.cpp:165] Memory required for data: 3319651552
I1213 16:41:43.276291  9787 layer_factory.hpp:77] Creating layer enet3_2_branch2a
I1213 16:41:43.276307  9787 net.cpp:106] Creating Layer enet3_2_branch2a
I1213 16:41:43.276316  9787 net.cpp:454] enet3_2_branch2a <- enet3_1_relu3_1_0_split_0
I1213 16:41:43.276327  9787 net.cpp:411] enet3_2_branch2a -> enet3_2_branch2a
I1213 16:41:43.280083  9787 net.cpp:150] Setting up enet3_2_branch2a
I1213 16:41:43.280102  9787 net.cpp:157] Top shape: 4 32 48 156 (958464)
I1213 16:41:43.280108  9787 net.cpp:165] Memory required for data: 3323485408
I1213 16:41:43.280118  9787 layer_factory.hpp:77] Creating layer bn3_2_branch2a
I1213 16:41:43.280130  9787 net.cpp:106] Creating Layer bn3_2_branch2a
I1213 16:41:43.280138  9787 net.cpp:454] bn3_2_branch2a <- enet3_2_branch2a
I1213 16:41:43.280151  9787 net.cpp:397] bn3_2_branch2a -> enet3_2_branch2a (in-place)
I1213 16:41:43.280799  9787 net.cpp:150] Setting up bn3_2_branch2a
I1213 16:41:43.280813  9787 net.cpp:157] Top shape: 4 32 48 156 (958464)
I1213 16:41:43.280820  9787 net.cpp:165] Memory required for data: 3327319264
I1213 16:41:43.280831  9787 layer_factory.hpp:77] Creating layer relu3_2_branch2a
I1213 16:41:43.280841  9787 net.cpp:106] Creating Layer relu3_2_branch2a
I1213 16:41:43.280848  9787 net.cpp:454] relu3_2_branch2a <- enet3_2_branch2a
I1213 16:41:43.280858  9787 net.cpp:397] relu3_2_branch2a -> enet3_2_branch2a (in-place)
I1213 16:41:43.282230  9787 net.cpp:150] Setting up relu3_2_branch2a
I1213 16:41:43.282248  9787 net.cpp:157] Top shape: 4 32 48 156 (958464)
I1213 16:41:43.282256  9787 net.cpp:165] Memory required for data: 3331153120
I1213 16:41:43.282265  9787 layer_factory.hpp:77] Creating layer enet3_2_branch2b
I1213 16:41:43.282280  9787 net.cpp:106] Creating Layer enet3_2_branch2b
I1213 16:41:43.282287  9787 net.cpp:454] enet3_2_branch2b <- enet3_2_branch2a
I1213 16:41:43.282302  9787 net.cpp:411] enet3_2_branch2b -> enet3_2_branch2b
I1213 16:41:43.283233  9787 net.cpp:150] Setting up enet3_2_branch2b
I1213 16:41:43.283248  9787 net.cpp:157] Top shape: 4 32 48 156 (958464)
I1213 16:41:43.283255  9787 net.cpp:165] Memory required for data: 3334986976
I1213 16:41:43.283265  9787 layer_factory.hpp:77] Creating layer bn3_2_branch2b
I1213 16:41:43.283280  9787 net.cpp:106] Creating Layer bn3_2_branch2b
I1213 16:41:43.283288  9787 net.cpp:454] bn3_2_branch2b <- enet3_2_branch2b
I1213 16:41:43.283300  9787 net.cpp:397] bn3_2_branch2b -> enet3_2_branch2b (in-place)
I1213 16:41:43.283932  9787 net.cpp:150] Setting up bn3_2_branch2b
I1213 16:41:43.283956  9787 net.cpp:157] Top shape: 4 32 48 156 (958464)
I1213 16:41:43.283962  9787 net.cpp:165] Memory required for data: 3338820832
I1213 16:41:43.283972  9787 layer_factory.hpp:77] Creating layer relu3_2_branch2b
I1213 16:41:43.283983  9787 net.cpp:106] Creating Layer relu3_2_branch2b
I1213 16:41:43.283990  9787 net.cpp:454] relu3_2_branch2b <- enet3_2_branch2b
I1213 16:41:43.283999  9787 net.cpp:397] relu3_2_branch2b -> enet3_2_branch2b (in-place)
I1213 16:41:43.285418  9787 net.cpp:150] Setting up relu3_2_branch2b
I1213 16:41:43.285434  9787 net.cpp:157] Top shape: 4 32 48 156 (958464)
I1213 16:41:43.285445  9787 net.cpp:165] Memory required for data: 3342654688
I1213 16:41:43.285455  9787 layer_factory.hpp:77] Creating layer enet3_2_branch2c
I1213 16:41:43.285472  9787 net.cpp:106] Creating Layer enet3_2_branch2c
I1213 16:41:43.285480  9787 net.cpp:454] enet3_2_branch2c <- enet3_2_branch2b
I1213 16:41:43.285493  9787 net.cpp:411] enet3_2_branch2c -> enet3_2_branch2c
I1213 16:41:43.289508  9787 net.cpp:150] Setting up enet3_2_branch2c
I1213 16:41:43.289526  9787 net.cpp:157] Top shape: 4 128 48 156 (3833856)
I1213 16:41:43.289535  9787 net.cpp:165] Memory required for data: 3357990112
I1213 16:41:43.289544  9787 layer_factory.hpp:77] Creating layer bn3_2_branch2c
I1213 16:41:43.289559  9787 net.cpp:106] Creating Layer bn3_2_branch2c
I1213 16:41:43.289567  9787 net.cpp:454] bn3_2_branch2c <- enet3_2_branch2c
I1213 16:41:43.289578  9787 net.cpp:397] bn3_2_branch2c -> enet3_2_branch2c (in-place)
I1213 16:41:43.290199  9787 net.cpp:150] Setting up bn3_2_branch2c
I1213 16:41:43.290213  9787 net.cpp:157] Top shape: 4 128 48 156 (3833856)
I1213 16:41:43.290220  9787 net.cpp:165] Memory required for data: 3373325536
I1213 16:41:43.290231  9787 layer_factory.hpp:77] Creating layer dropout3_2_branch2c
I1213 16:41:43.290241  9787 net.cpp:106] Creating Layer dropout3_2_branch2c
I1213 16:41:43.290248  9787 net.cpp:454] dropout3_2_branch2c <- enet3_2_branch2c
I1213 16:41:43.290258  9787 net.cpp:397] dropout3_2_branch2c -> enet3_2_branch2c (in-place)
I1213 16:41:43.290325  9787 net.cpp:150] Setting up dropout3_2_branch2c
I1213 16:41:43.290339  9787 net.cpp:157] Top shape: 4 128 48 156 (3833856)
I1213 16:41:43.290346  9787 net.cpp:165] Memory required for data: 3388660960
I1213 16:41:43.290352  9787 layer_factory.hpp:77] Creating layer enet3_2
I1213 16:41:43.290365  9787 net.cpp:106] Creating Layer enet3_2
I1213 16:41:43.290372  9787 net.cpp:454] enet3_2 <- enet3_1_relu3_1_0_split_1
I1213 16:41:43.290381  9787 net.cpp:454] enet3_2 <- enet3_2_branch2c
I1213 16:41:43.290390  9787 net.cpp:411] enet3_2 -> enet3_2
I1213 16:41:43.290462  9787 net.cpp:150] Setting up enet3_2
I1213 16:41:43.290477  9787 net.cpp:157] Top shape: 4 128 48 156 (3833856)
I1213 16:41:43.290482  9787 net.cpp:165] Memory required for data: 3403996384
I1213 16:41:43.290489  9787 layer_factory.hpp:77] Creating layer relu3_2
I1213 16:41:43.290498  9787 net.cpp:106] Creating Layer relu3_2
I1213 16:41:43.290505  9787 net.cpp:454] relu3_2 <- enet3_2
I1213 16:41:43.290516  9787 net.cpp:397] relu3_2 -> enet3_2 (in-place)
I1213 16:41:43.295022  9787 net.cpp:150] Setting up relu3_2
I1213 16:41:43.295039  9787 net.cpp:157] Top shape: 4 128 48 156 (3833856)
I1213 16:41:43.295047  9787 net.cpp:165] Memory required for data: 3419331808
I1213 16:41:43.295056  9787 layer_factory.hpp:77] Creating layer enet3_2_relu3_2_0_split
I1213 16:41:43.295070  9787 net.cpp:106] Creating Layer enet3_2_relu3_2_0_split
I1213 16:41:43.295078  9787 net.cpp:454] enet3_2_relu3_2_0_split <- enet3_2
I1213 16:41:43.295087  9787 net.cpp:411] enet3_2_relu3_2_0_split -> enet3_2_relu3_2_0_split_0
I1213 16:41:43.295100  9787 net.cpp:411] enet3_2_relu3_2_0_split -> enet3_2_relu3_2_0_split_1
I1213 16:41:43.295207  9787 net.cpp:150] Setting up enet3_2_relu3_2_0_split
I1213 16:41:43.295222  9787 net.cpp:157] Top shape: 4 128 48 156 (3833856)
I1213 16:41:43.295229  9787 net.cpp:157] Top shape: 4 128 48 156 (3833856)
I1213 16:41:43.295243  9787 net.cpp:165] Memory required for data: 3450002656
I1213 16:41:43.295258  9787 layer_factory.hpp:77] Creating layer enet3_3_branch2a
I1213 16:41:43.295276  9787 net.cpp:106] Creating Layer enet3_3_branch2a
I1213 16:41:43.295284  9787 net.cpp:454] enet3_3_branch2a <- enet3_2_relu3_2_0_split_0
I1213 16:41:43.295295  9787 net.cpp:411] enet3_3_branch2a -> enet3_3_branch2a
I1213 16:41:43.299410  9787 net.cpp:150] Setting up enet3_3_branch2a
I1213 16:41:43.299432  9787 net.cpp:157] Top shape: 4 32 48 156 (958464)
I1213 16:41:43.299439  9787 net.cpp:165] Memory required for data: 3453836512
I1213 16:41:43.299454  9787 layer_factory.hpp:77] Creating layer bn3_3_branch2a
I1213 16:41:43.299471  9787 net.cpp:106] Creating Layer bn3_3_branch2a
I1213 16:41:43.299480  9787 net.cpp:454] bn3_3_branch2a <- enet3_3_branch2a
I1213 16:41:43.299494  9787 net.cpp:397] bn3_3_branch2a -> enet3_3_branch2a (in-place)
I1213 16:41:43.300150  9787 net.cpp:150] Setting up bn3_3_branch2a
I1213 16:41:43.300165  9787 net.cpp:157] Top shape: 4 32 48 156 (958464)
I1213 16:41:43.300171  9787 net.cpp:165] Memory required for data: 3457670368
I1213 16:41:43.300182  9787 layer_factory.hpp:77] Creating layer relu3_3_branch2a
I1213 16:41:43.300194  9787 net.cpp:106] Creating Layer relu3_3_branch2a
I1213 16:41:43.300200  9787 net.cpp:454] relu3_3_branch2a <- enet3_3_branch2a
I1213 16:41:43.300209  9787 net.cpp:397] relu3_3_branch2a -> enet3_3_branch2a (in-place)
I1213 16:41:43.301762  9787 net.cpp:150] Setting up relu3_3_branch2a
I1213 16:41:43.301779  9787 net.cpp:157] Top shape: 4 32 48 156 (958464)
I1213 16:41:43.301786  9787 net.cpp:165] Memory required for data: 3461504224
I1213 16:41:43.301795  9787 layer_factory.hpp:77] Creating layer enet3_3_branch2b1
I1213 16:41:43.301815  9787 net.cpp:106] Creating Layer enet3_3_branch2b1
I1213 16:41:43.301822  9787 net.cpp:454] enet3_3_branch2b1 <- enet3_3_branch2a
I1213 16:41:43.301836  9787 net.cpp:411] enet3_3_branch2b1 -> enet3_3_branch2b1
I1213 16:41:43.305727  9787 net.cpp:150] Setting up enet3_3_branch2b1
I1213 16:41:43.305752  9787 net.cpp:157] Top shape: 4 32 48 156 (958464)
I1213 16:41:43.305760  9787 net.cpp:165] Memory required for data: 3465338080
I1213 16:41:43.305771  9787 layer_factory.hpp:77] Creating layer enet3_3_branch2b
I1213 16:41:43.305791  9787 net.cpp:106] Creating Layer enet3_3_branch2b
I1213 16:41:43.305800  9787 net.cpp:454] enet3_3_branch2b <- enet3_3_branch2b1
I1213 16:41:43.305814  9787 net.cpp:411] enet3_3_branch2b -> enet3_3_branch2b
I1213 16:41:43.310793  9787 net.cpp:150] Setting up enet3_3_branch2b
I1213 16:41:43.310814  9787 net.cpp:157] Top shape: 4 32 48 156 (958464)
I1213 16:41:43.310822  9787 net.cpp:165] Memory required for data: 3469171936
I1213 16:41:43.310833  9787 layer_factory.hpp:77] Creating layer bn3_3_branch2b
I1213 16:41:43.310850  9787 net.cpp:106] Creating Layer bn3_3_branch2b
I1213 16:41:43.310859  9787 net.cpp:454] bn3_3_branch2b <- enet3_3_branch2b
I1213 16:41:43.310873  9787 net.cpp:397] bn3_3_branch2b -> enet3_3_branch2b (in-place)
…
I1213 16:41:43.384927  9787 net.cpp:411] enet3_6_relu3_6_0_split -> enet3_6_relu3_6_0_split_1
I1213 16:41:43.384982  9787 net.cpp:150] Setting up enet3_6_relu3_6_0_split
I1213 16:41:43.384994  9787 net.cpp:157] Top shape: 4 128 48 156 (3833856)
I1213 16:41:43.385002  9787 net.cpp:157] Top shape: 4 128 48 156 (3833856)
I1213 16:41:43.385010  9787 net.cpp:165] Memory required for data: 3975240928
I1213 16:41:43.385015  9787 layer_factory.hpp:77] Creating layer enet3_7_branch2a
I1213 16:41:43.385028  9787 net.cpp:106] Creating Layer enet3_7_branch2a
I1213 16:41:43.385036  9787 net.cpp:454] enet3_7_branch2a <- enet3_6_relu3_6_0_split_0
I1213 16:41:43.385051  9787 net.cpp:411] enet3_7_branch2a -> enet3_7_branch2a
I1213 16:41:43.388739  9787 net.cpp:150] Setting up enet3_7_branch2a
I1213 16:41:43.388757  9787 net.cpp:157] Top shape: 4 32 48 156 (958464)
I1213 16:41:43.388766  9787 net.cpp:165] Memory required for data: 3979074784
I1213 16:41:43.388775  9787 layer_factory.hpp:77] Creating layer bn3_7_branch2a
I1213 16:41:43.388792  9787 net.cpp:106] Creating Layer bn3_7_branch2a
I1213 16:41:43.388800  9787 net.cpp:454] bn3_7_branch2a <- enet3_7_branch2a
I1213 16:41:43.388811  9787 net.cpp:397] bn3_7_branch2a -> enet3_7_branch2a (in-place)
I1213 16:41:43.389125  9787 net.cpp:150] Setting up bn3_7_branch2a
I1213 16:41:43.389140  9787 net.cpp:157] Top shape: 4 32 48 156 (958464)
I1213 16:41:43.389147  9787 net.cpp:165] Memory required for data: 3982908640
I1213 16:41:43.389158  9787 layer_factory.hpp:77] Creating layer relu3_7_branch2a
I1213 16:41:43.389168  9787 net.cpp:106] Creating Layer relu3_7_branch2a
I1213 16:41:43.389175  9787 net.cpp:454] relu3_7_branch2a <- enet3_7_branch2a
I1213 16:41:43.389188  9787 net.cpp:397] relu3_7_branch2a -> enet3_7_branch2a (in-place)
I1213 16:41:43.390552  9787 net.cpp:150] Setting up relu3_7_branch2a
I1213 16:41:43.390568  9787 net.cpp:157] Top shape: 4 32 48 156 (958464)
I1213 16:41:43.390574  9787 net.cpp:165] Memory required for data: 3986742496
I1213 16:41:43.390593  9787 layer_factory.hpp:77] Creating layer enet3_7_branch2b1
I1213 16:41:43.390620  9787 net.cpp:106] Creating Layer enet3_7_branch2b1
I1213 16:41:43.390628  9787 net.cpp:454] enet3_7_branch2b1 <- enet3_7_branch2a
I1213 16:41:43.390640  9787 net.cpp:411] enet3_7_branch2b1 -> enet3_7_branch2b1
I1213 16:41:43.394484  9787 net.cpp:150] Setting up enet3_7_branch2b1
I1213 16:41:43.394501  9787 net.cpp:157] Top shape: 4 32 48 156 (958464)
I1213 16:41:43.394508  9787 net.cpp:165] Memory required for data: 3990576352
I1213 16:41:43.394518  9787 layer_factory.hpp:77] Creating layer enet3_7_branch2b
I1213 16:41:43.394536  9787 net.cpp:106] Creating Layer enet3_7_branch2b
I1213 16:41:43.394544  9787 net.cpp:454] enet3_7_branch2b <- enet3_7_branch2b1
I1213 16:41:43.394559  9787 net.cpp:411] enet3_7_branch2b -> enet3_7_branch2b
I1213 16:41:43.398316  9787 net.cpp:150] Setting up enet3_7_branch2b
I1213 16:41:43.398334  9787 net.cpp:157] Top shape: 4 32 48 156 (958464)
I1213 16:41:43.398342  9787 net.cpp:165] Memory required for data: 3994410208
I1213 16:41:43.398353  9787 layer_factory.hpp:77] Creating layer bn3_7_branch2b
I1213 16:41:43.398368  9787 net.cpp:106] Creating Layer bn3_7_branch2b
I1213 16:41:43.398376  9787 net.cpp:454] bn3_7_branch2b <- enet3_7_branch2b
I1213 16:41:43.398391  9787 net.cpp:397] bn3_7_branch2b -> enet3_7_branch2b (in-place)
I1213 16:41:43.398720  9787 net.cpp:150] Setting up bn3_7_branch2b
I1213 16:41:43.398735  9787 net.cpp:157] Top shape: 4 32 48 156 (958464)
I1213 16:41:43.398741  9787 net.cpp:165] Memory required for data: 3998244064
I1213 16:41:43.398751  9787 layer_factory.hpp:77] Creating layer relu3_7_branch2b
I1213 16:41:43.398761  9787 net.cpp:106] Creating Layer relu3_7_branch2b
I1213 16:41:43.398769  9787 net.cpp:454] relu3_7_branch2b <- enet3_7_branch2b
I1213 16:41:43.398778  9787 net.cpp:397] relu3_7_branch2b -> enet3_7_branch2b (in-place)
I1213 16:41:43.400207  9787 net.cpp:150] Setting up relu3_7_branch2b
I1213 16:41:43.400224  9787 net.cpp:157] Top shape: 4 32 48 156 (958464)
I1213 16:41:43.400231  9787 net.cpp:165] Memory required for data: 4002077920
I1213 16:41:43.400241  9787 layer_factory.hpp:77] Creating layer enet3_7_branch2c
I1213 16:41:43.400259  9787 net.cpp:106] Creating Layer enet3_7_branch2c
I1213 16:41:43.400266  9787 net.cpp:454] enet3_7_branch2c <- enet3_7_branch2b
I1213 16:41:43.400281  9787 net.cpp:411] enet3_7_branch2c -> enet3_7_branch2c
I1213 16:41:43.404269  9787 net.cpp:150] Setting up enet3_7_branch2c
I1213 16:41:43.404292  9787 net.cpp:157] Top shape: 4 128 48 156 (3833856)
I1213 16:41:43.404300  9787 net.cpp:165] Memory required for data: 4017413344
I1213 16:41:43.404310  9787 layer_factory.hpp:77] Creating layer bn3_7_branch2c
I1213 16:41:43.404328  9787 net.cpp:106] Creating Layer bn3_7_branch2c
I1213 16:41:43.404336  9787 net.cpp:454] bn3_7_branch2c <- enet3_7_branch2c
I1213 16:41:43.404348  9787 net.cpp:397] bn3_7_branch2c -> enet3_7_branch2c (in-place)
I1213 16:41:43.404672  9787 net.cpp:150] Setting up bn3_7_branch2c
I1213 16:41:43.404687  9787 net.cpp:157] Top shape: 4 128 48 156 (3833856)
I1213 16:41:43.404695  9787 net.cpp:165] Memory required for data: 4032748768
I1213 16:41:43.404705  9787 layer_factory.hpp:77] Creating layer dropout3_7_branch2c
I1213 16:41:43.404716  9787 net.cpp:106] Creating Layer dropout3_7_branch2c
I1213 16:41:43.404723  9787 net.cpp:454] dropout3_7_branch2c <- enet3_7_branch2c
I1213 16:41:43.404733  9787 net.cpp:397] dropout3_7_branch2c -> enet3_7_branch2c (in-place)
I1213 16:41:43.404778  9787 net.cpp:150] Setting up dropout3_7_branch2c
I1213 16:41:43.404790  9787 net.cpp:157] Top shape: 4 128 48 156 (3833856)
I1213 16:41:43.404796  9787 net.cpp:165] Memory required for data: 4048084192
I1213 16:41:43.404803  9787 layer_factory.hpp:77] Creating layer enet3_7
I1213 16:41:43.404817  9787 net.cpp:106] Creating Layer enet3_7
I1213 16:41:43.404825  9787 net.cpp:454] enet3_7 <- enet3_6_relu3_6_0_split_1
I1213 16:41:43.404834  9787 net.cpp:454] enet3_7 <- enet3_7_branch2c
I1213 16:41:43.404861  9787 net.cpp:411] enet3_7 -> enet3_7
I1213 16:41:43.404919  9787 net.cpp:150] Setting up enet3_7
I1213 16:41:43.404932  9787 net.cpp:157] Top shape: 4 128 48 156 (3833856)
I1213 16:41:43.404938  9787 net.cpp:165] Memory required for data: 4063419616
I1213 16:41:43.404944  9787 layer_factory.hpp:77] Creating layer relu3_7
I1213 16:41:43.404954  9787 net.cpp:106] Creating Layer relu3_7
I1213 16:41:43.404961  9787 net.cpp:454] relu3_7 <- enet3_7
I1213 16:41:43.404973  9787 net.cpp:397] relu3_7 -> enet3_7 (in-place)
I1213 16:41:43.409668  9787 net.cpp:150] Setting up relu3_7
I1213 16:41:43.409708  9787 net.cpp:157] Top shape: 4 128 48 156 (3833856)
I1213 16:41:43.409715  9787 net.cpp:165] Memory required for data: 4078755040
I1213 16:41:43.409728  9787 layer_factory.hpp:77] Creating layer enet3_7_relu3_7_0_split
I1213 16:41:43.409744  9787 net.cpp:106] Creating Layer enet3_7_relu3_7_0_split
I1213 16:41:43.409754  9787 net.cpp:454] enet3_7_relu3_7_0_split <- enet3_7
I1213 16:41:43.409767  9787 net.cpp:411] enet3_7_relu3_7_0_split -> enet3_7_relu3_7_0_split_0
I1213 16:41:43.409782  9787 net.cpp:411] enet3_7_relu3_7_0_split -> enet3_7_relu3_7_0_split_1
I1213 16:41:43.409848  9787 net.cpp:150] Setting up enet3_7_relu3_7_0_split
I1213 16:41:43.409860  9787 net.cpp:157] Top shape: 4 128 48 156 (3833856)
I1213 16:41:43.409869  9787 net.cpp:157] Top shape: 4 128 48 156 (3833856)
I1213 16:41:43.409875  9787 net.cpp:165] Memory required for data: 4109425888
I1213 16:41:43.409881  9787 layer_factory.hpp:77] Creating layer enet3_8_branch2a
I1213 16:41:43.409901  9787 net.cpp:106] Creating Layer enet3_8_branch2a
I1213 16:41:43.409910  9787 net.cpp:454] enet3_8_branch2a <- enet3_7_relu3_7_0_split_0
I1213 16:41:43.409921  9787 net.cpp:411] enet3_8_branch2a -> enet3_8_branch2a
I1213 16:41:43.416018  9787 net.cpp:150] Setting up enet3_8_branch2a
I1213 16:41:43.416035  9787 net.cpp:157] Top shape: 4 32 48 156 (958464)
I1213 16:41:43.416043  9787 net.cpp:165] Memory required for data: 4113259744
I1213 16:41:43.416054  9787 layer_factory.hpp:77] Creating layer bn3_8_branch2a
I1213 16:41:43.416069  9787 net.cpp:106] Creating Layer bn3_8_branch2a
I1213 16:41:43.416079  9787 net.cpp:454] bn3_8_branch2a <- enet3_8_branch2a
I1213 16:41:43.416091  9787 net.cpp:397] bn3_8_branch2a -> enet3_8_branch2a (in-place)
I1213 16:41:43.416438  9787 net.cpp:150] Setting up bn3_8_branch2a
I1213 16:41:43.416458  9787 net.cpp:157] Top shape: 4 32 48 156 (958464)
I1213 16:41:43.416465  9787 net.cpp:165] Memory required for data: 4117093600
I1213 16:41:43.416476  9787 layer_factory.hpp:77] Creating layer relu3_8_branch2a
I1213 16:41:43.416489  9787 net.cpp:106] Creating Layer relu3_8_branch2a
I1213 16:41:43.416497  9787 net.cpp:454] relu3_8_branch2a <- enet3_8_branch2a
I1213 16:41:43.416507  9787 net.cpp:397] relu3_8_branch2a -> enet3_8_branch2a (in-place)
I1213 16:41:43.417743  9787 net.cpp:150] Setting up relu3_8_branch2a
I1213 16:41:43.417759  9787 net.cpp:157] Top shape: 4 32 48 156 (958464)
I1213 16:41:43.417767  9787 net.cpp:165] Memory required for data: 4120927456
I1213 16:41:43.417776  9787 layer_factory.hpp:77] Creating layer enet3_8_branch2b
I1213 16:41:43.417793  9787 net.cpp:106] Creating Layer enet3_8_branch2b
I1213 16:41:43.417801  9787 net.cpp:454] enet3_8_branch2b <- enet3_8_branch2a
I1213 16:41:43.417815  9787 net.cpp:411] enet3_8_branch2b -> enet3_8_branch2b
I1213 16:41:43.454854  9787 net.cpp:150] Setting up enet3_8_branch2b
I1213 16:41:43.454870  9787 net.cpp:157] Top shape: 4 32 48 156 (958464)
I1213 16:41:43.454877  9787 net.cpp:165] Memory required for data: 4124761312
I1213 16:41:43.454888  9787 layer_factory.hpp:77] Creating layer bn3_8_branch2b
I1213 16:41:43.454903  9787 net.cpp:106] Creating Layer bn3_8_branch2b
I1213 16:41:43.454911  9787 net.cpp:454] bn3_8_branch2b <- enet3_8_branch2b
I1213 16:41:43.454923  9787 net.cpp:397] bn3_8_branch2b -> enet3_8_branch2b (in-place)
I1213 16:41:43.455229  9787 net.cpp:150] Setting up bn3_8_branch2b
I1213 16:41:43.455243  9787 net.cpp:157] Top shape: 4 32 48 156 (958464)
I1213 16:41:43.455267  9787 net.cpp:165] Memory required for data: 4128595168
I1213 16:41:43.455291  9787 layer_factory.hpp:77] Creating layer relu3_8_branch2b
I1213 16:41:43.455302  9787 net.cpp:106] Creating Layer relu3_8_branch2b
I1213 16:41:43.455308  9787 net.cpp:454] relu3_8_branch2b <- enet3_8_branch2b
I1213 16:41:43.455317  9787 net.cpp:397] relu3_8_branch2b -> enet3_8_branch2b (in-place)
I1213 16:41:43.456596  9787 net.cpp:150] Setting up relu3_8_branch2b
I1213 16:41:43.456614  9787 net.cpp:157] Top shape: 4 32 48 156 (958464)
I1213 16:41:43.456619  9787 net.cpp:165] Memory required for data: 4132429024
I1213 16:41:43.456629  9787 layer_factory.hpp:77] Creating layer enet3_8_branch2c
I1213 16:41:43.456646  9787 net.cpp:106] Creating Layer enet3_8_branch2c
I1213 16:41:43.456655  9787 net.cpp:454] enet3_8_branch2c <- enet3_8_branch2b
I1213 16:41:43.456668  9787 net.cpp:411] enet3_8_branch2c -> enet3_8_branch2c
I1213 16:41:43.460357  9787 net.cpp:150] Setting up enet3_8_branch2c
I1213 16:41:43.460376  9787 net.cpp:157] Top shape: 4 128 48 156 (3833856)
I1213 16:41:43.460382  9787 net.cpp:165] Memory required for data: 4147764448
I1213 16:41:43.460392  9787 layer_factory.hpp:77] Creating layer bn3_8_branch2c
I1213 16:41:43.460407  9787 net.cpp:106] Creating Layer bn3_8_branch2c
I1213 16:41:43.460415  9787 net.cpp:454] bn3_8_branch2c <- enet3_8_branch2c
I1213 16:41:43.460428  9787 net.cpp:397] bn3_8_branch2c -> enet3_8_branch2c (in-place)
I1213 16:41:43.460747  9787 net.cpp:150] Setting up bn3_8_branch2c
I1213 16:41:43.460760  9787 net.cpp:157] Top shape: 4 128 48 156 (3833856)
I1213 16:41:43.460767  9787 net.cpp:165] Memory required for data: 4163099872
I1213 16:41:43.460777  9787 layer_factory.hpp:77] Creating layer dropout3_8_branch2c
I1213 16:41:43.460788  9787 net.cpp:106] Creating Layer dropout3_8_branch2c
I1213 16:41:43.460796  9787 net.cpp:454] dropout3_8_branch2c <- enet3_8_branch2c
I1213 16:41:43.460805  9787 net.cpp:397] dropout3_8_branch2c -> enet3_8_branch2c (in-place)
I1213 16:41:43.460846  9787 net.cpp:150] Setting up dropout3_8_branch2c
I1213 16:41:43.460858  9787 net.cpp:157] Top shape: 4 128 48 156 (3833856)
I1213 16:41:43.460865  9787 net.cpp:165] Memory required for data: 4178435296
I1213 16:41:43.460871  9787 layer_factory.hpp:77] Creating layer enet3_8
I1213 16:41:43.460885  9787 net.cpp:106] Creating Layer enet3_8
I1213 16:41:43.460892  9787 net.cpp:454] enet3_8 <- enet3_7_relu3_7_0_split_1
I1213 16:41:43.460901  9787 net.cpp:454] enet3_8 <- enet3_8_branch2c
I1213 16:41:43.460911  9787 net.cpp:411] enet3_8 -> enet3_8
I1213 16:41:43.460952  9787 net.cpp:150] Setting up enet3_8
I1213 16:41:43.460964  9787 net.cpp:157] Top shape: 4 128 48 156 (3833856)
I1213 16:41:43.460970  9787 net.cpp:165] Memory required for data: 4193770720
I1213 16:41:43.460978  9787 layer_factory.hpp:77] Creating layer relu3_8
I1213 16:41:43.460986  9787 net.cpp:106] Creating Layer relu3_8
I1213 16:41:43.460994  9787 net.cpp:454] relu3_8 <- enet3_8
I1213 16:41:43.461004  9787 net.cpp:397] relu3_8 -> enet3_8 (in-place)
I1213 16:41:43.465322  9787 net.cpp:150] Setting up relu3_8
I1213 16:41:43.465339  9787 net.cpp:157] Top shape: 4 128 48 156 (3833856)
I1213 16:41:43.465347  9787 net.cpp:165] Memory required for data: 4209106144
I1213 16:41:43.465356  9787 layer_factory.hpp:77] Creating layer enet3_8_relu3_8_0_split
I1213 16:41:43.465369  9787 net.cpp:106] Creating Layer enet3_8_relu3_8_0_split
I1213 16:41:43.465378  9787 net.cpp:454] enet3_8_relu3_8_0_split <- enet3_8
I1213 16:41:43.465387  9787 net.cpp:411] enet3_8_relu3_8_0_split -> enet3_8_relu3_8_0_split_0
I1213 16:41:43.465399  9787 net.cpp:411] enet3_8_relu3_8_0_split -> enet3_8_relu3_8_0_split_1
I1213 16:41:43.465466  9787 net.cpp:150] Setting up enet3_8_relu3_8_0_split
I1213 16:41:43.465479  9787 net.cpp:157] Top shape: 4 128 48 156 (3833856)
I1213 16:41:43.465487  9787 net.cpp:157] Top shape: 4 128 48 156 (3833856)
I1213 16:41:43.465493  9787 net.cpp:165] Memory required for data: 4239776992
I1213 16:41:43.465500  9787 layer_factory.hpp:77] Creating layer enet4_0_branch2a
I1213 16:41:43.465520  9787 net.cpp:106] Creating Layer enet4_0_branch2a
I1213 16:41:43.465536  9787 net.cpp:454] enet4_0_branch2a <- enet3_8_relu3_8_0_split_0
I1213 16:41:43.465551  9787 net.cpp:411] enet4_0_branch2a -> enet4_0_branch2a
I1213 16:41:43.469363  9787 net.cpp:150] Setting up enet4_0_branch2a
I1213 16:41:43.469382  9787 net.cpp:157] Top shape: 4 16 48 156 (479232)
I1213 16:41:43.469388  9787 net.cpp:165] Memory required for data: 4241693920
I1213 16:41:43.469398  9787 layer_factory.hpp:77] Creating layer bn4_0_branch2a
I1213 16:41:43.469413  9787 net.cpp:106] Creating Layer bn4_0_branch2a
I1213 16:41:43.469421  9787 net.cpp:454] bn4_0_branch2a <- enet4_0_branch2a
I1213 16:41:43.469434  9787 net.cpp:397] bn4_0_branch2a -> enet4_0_branch2a (in-place)
I1213 16:41:43.469775  9787 net.cpp:150] Setting up bn4_0_branch2a
I1213 16:41:43.469789  9787 net.cpp:157] Top shape: 4 16 48 156 (479232)
I1213 16:41:43.469796  9787 net.cpp:165] Memory required for data: 4243610848
I1213 16:41:43.469807  9787 layer_factory.hpp:77] Creating layer relu4_0_branch2a
I1213 16:41:43.469823  9787 net.cpp:106] Creating Layer relu4_0_branch2a
I1213 16:41:43.469831  9787 net.cpp:454] relu4_0_branch2a <- enet4_0_branch2a
I1213 16:41:43.469841  9787 net.cpp:397] relu4_0_branch2a -> enet4_0_branch2a (in-place)
I1213 16:41:43.470952  9787 net.cpp:150] Setting up relu4_0_branch2a
I1213 16:41:43.470969  9787 net.cpp:157] Top shape: 4 16 48 156 (479232)
I1213 16:41:43.470976  9787 net.cpp:165] Memory required for data: 4245527776
I1213 16:41:43.470984  9787 layer_factory.hpp:77] Creating layer enet4_0_branch2b
I1213 16:41:43.471001  9787 net.cpp:106] Creating Layer enet4_0_branch2b
I1213 16:41:43.471009  9787 net.cpp:454] enet4_0_branch2b <- enet4_0_branch2a
I1213 16:41:43.471022  9787 net.cpp:411] enet4_0_branch2b -> enet4_0_branch2b
I1213 16:41:43.471555  9787 net.cpp:150] Setting up enet4_0_branch2b
I1213 16:41:43.471570  9787 net.cpp:157] Top shape: 4 16 95 311 (1890880)
I1213 16:41:43.471577  9787 net.cpp:165] Memory required for data: 4253091296
I1213 16:41:43.471587  9787 layer_factory.hpp:77] Creating layer bn4_0_branch2b
I1213 16:41:43.471602  9787 net.cpp:106] Creating Layer bn4_0_branch2b
I1213 16:41:43.471611  9787 net.cpp:454] bn4_0_branch2b <- enet4_0_branch2b
I1213 16:41:43.471623  9787 net.cpp:397] bn4_0_branch2b -> enet4_0_branch2b (in-place)
I1213 16:41:43.472040  9787 net.cpp:150] Setting up bn4_0_branch2b
I1213 16:41:43.472054  9787 net.cpp:157] Top shape: 4 16 95 311 (1890880)
I1213 16:41:43.472060  9787 net.cpp:165] Memory required for data: 4260654816
I1213 16:41:43.472071  9787 layer_factory.hpp:77] Creating layer relu4_0_branch2b
I1213 16:41:43.472081  9787 net.cpp:106] Creating Layer relu4_0_branch2b
I1213 16:41:43.472088  9787 net.cpp:454] relu4_0_branch2b <- enet4_0_branch2b
I1213 16:41:43.472097  9787 net.cpp:397] relu4_0_branch2b -> enet4_0_branch2b (in-place)
I1213 16:41:43.473204  9787 net.cpp:150] Setting up relu4_0_branch2b
I1213 16:41:43.473222  9787 net.cpp:157] Top shape: 4 16 95 311 (1890880)
I1213 16:41:43.473232  9787 net.cpp:165] Memory required for data: 4268218336
I1213 16:41:43.473239  9787 layer_factory.hpp:77] Creating layer enet4_0_branch2c
I1213 16:41:43.473253  9787 net.cpp:106] Creating Layer enet4_0_branch2c
I1213 16:41:43.473260  9787 net.cpp:454] enet4_0_branch2c <- enet4_0_branch2b
I1213 16:41:43.473274  9787 net.cpp:411] enet4_0_branch2c -> enet4_0_branch2c
I1213 16:41:43.477062  9787 net.cpp:150] Setting up enet4_0_branch2c
I1213 16:41:43.477080  9787 net.cpp:157] Top shape: 4 64 95 311 (7563520)
I1213 16:41:43.477088  9787 net.cpp:165] Memory required for data: 4298472416
I1213 16:41:43.477097  9787 layer_factory.hpp:77] Creating layer bn4_0_branch2c
I1213 16:41:43.477113  9787 net.cpp:106] Creating Layer bn4_0_branch2c
I1213 16:41:43.477120  9787 net.cpp:454] bn4_0_branch2c <- enet4_0_branch2c
I1213 16:41:43.477133  9787 net.cpp:397] bn4_0_branch2c -> enet4_0_branch2c (in-place)
I1213 16:41:43.478521  9787 net.cpp:150] Setting up bn4_0_branch2c
I1213 16:41:43.478538  9787 net.cpp:157] Top shape: 4 64 95 311 (7563520)
I1213 16:41:43.478554  9787 net.cpp:165] Memory required for data: 4328726496
I1213 16:41:43.478572  9787 layer_factory.hpp:77] Creating layer enet4_0_branch1a
I1213 16:41:43.478590  9787 net.cpp:106] Creating Layer enet4_0_branch1a
I1213 16:41:43.478600  9787 net.cpp:454] enet4_0_branch1a <- enet3_8_relu3_8_0_split_1
I1213 16:41:43.478613  9787 net.cpp:411] enet4_0_branch1a -> enet4_0_branch1a
I1213 16:41:43.482450  9787 net.cpp:150] Setting up enet4_0_branch1a
I1213 16:41:43.482470  9787 net.cpp:157] Top shape: 4 64 48 156 (1916928)
I1213 16:41:43.482478  9787 net.cpp:165] Memory required for data: 4336394208
I1213 16:41:43.482488  9787 layer_factory.hpp:77] Creating layer bn4_0_branch1a
I1213 16:41:43.482501  9787 net.cpp:106] Creating Layer bn4_0_branch1a
I1213 16:41:43.482508  9787 net.cpp:454] bn4_0_branch1a <- enet4_0_branch1a
I1213 16:41:43.482522  9787 net.cpp:397] bn4_0_branch1a -> enet4_0_branch1a (in-place)
I1213 16:41:43.482853  9787 net.cpp:150] Setting up bn4_0_branch1a
I1213 16:41:43.482867  9787 net.cpp:157] Top shape: 4 64 48 156 (1916928)
I1213 16:41:43.482874  9787 net.cpp:165] Memory required for data: 4344061920
I1213 16:41:43.482884  9787 layer_factory.hpp:77] Creating layer unpool4_0_branch1a
I1213 16:41:43.482903  9787 net.cpp:106] Creating Layer unpool4_0_branch1a
I1213 16:41:43.482910  9787 net.cpp:454] unpool4_0_branch1a <- enet4_0_branch1a
I1213 16:41:43.482920  9787 net.cpp:454] unpool4_0_branch1a <- pool2_0_branch1a_mask
I1213 16:41:43.482929  9787 net.cpp:411] unpool4_0_branch1a -> unpool4_0_branch1a
I1213 16:41:43.482985  9787 net.cpp:150] Setting up unpool4_0_branch1a
I1213 16:41:43.482998  9787 net.cpp:157] Top shape: 4 64 95 311 (7563520)
I1213 16:41:43.483006  9787 net.cpp:165] Memory required for data: 4374316000
I1213 16:41:43.483011  9787 layer_factory.hpp:77] Creating layer enet4_0
I1213 16:41:43.483021  9787 net.cpp:106] Creating Layer enet4_0
I1213 16:41:43.483028  9787 net.cpp:454] enet4_0 <- unpool4_0_branch1a
I1213 16:41:43.483036  9787 net.cpp:454] enet4_0 <- enet4_0_branch2c
I1213 16:41:43.483049  9787 net.cpp:411] enet4_0 -> enet4_0
I1213 16:41:43.483093  9787 net.cpp:150] Setting up enet4_0
I1213 16:41:43.483106  9787 net.cpp:157] Top shape: 4 64 95 311 (7563520)
I1213 16:41:43.483113  9787 net.cpp:165] Memory required for data: 4404570080
I1213 16:41:43.483119  9787 layer_factory.hpp:77] Creating layer relu4_0
I1213 16:41:43.483129  9787 net.cpp:106] Creating Layer relu4_0
I1213 16:41:43.483135  9787 net.cpp:454] relu4_0 <- enet4_0
I1213 16:41:43.483144  9787 net.cpp:397] relu4_0 -> enet4_0 (in-place)
I1213 16:41:43.484251  9787 net.cpp:150] Setting up relu4_0
I1213 16:41:43.484268  9787 net.cpp:157] Top shape: 4 64 95 311 (7563520)
I1213 16:41:43.484275  9787 net.cpp:165] Memory required for data: 4434824160
I1213 16:41:43.484282  9787 layer_factory.hpp:77] Creating layer enet4_0_relu4_0_0_split
I1213 16:41:43.484292  9787 net.cpp:106] Creating Layer enet4_0_relu4_0_0_split
I1213 16:41:43.484299  9787 net.cpp:454] enet4_0_relu4_0_0_split <- enet4_0
I1213 16:41:43.484313  9787 net.cpp:411] enet4_0_relu4_0_0_split -> enet4_0_relu4_0_0_split_0
I1213 16:41:43.484325  9787 net.cpp:411] enet4_0_relu4_0_0_split -> enet4_0_relu4_0_0_split_1
I1213 16:41:43.484393  9787 net.cpp:150] Setting up enet4_0_relu4_0_0_split
I1213 16:41:43.484411  9787 net.cpp:157] Top shape: 4 64 95 311 (7563520)
I1213 16:41:43.484419  9787 net.cpp:157] Top shape: 4 64 95 311 (7563520)
I1213 16:41:43.484426  9787 net.cpp:165] Memory required for data: 4495332320
I1213 16:41:43.484432  9787 layer_factory.hpp:77] Creating layer enet4_1_branch2a
I1213 16:41:43.484453  9787 net.cpp:106] Creating Layer enet4_1_branch2a
I1213 16:41:43.484462  9787 net.cpp:454] enet4_1_branch2a <- enet4_0_relu4_0_0_split_0
I1213 16:41:43.484473  9787 net.cpp:411] enet4_1_branch2a -> enet4_1_branch2a
I1213 16:41:43.488320  9787 net.cpp:150] Setting up enet4_1_branch2a
I1213 16:41:43.488337  9787 net.cpp:157] Top shape: 4 16 95 311 (1890880)
I1213 16:41:43.488345  9787 net.cpp:165] Memory required for data: 4502895840
I1213 16:41:43.488363  9787 layer_factory.hpp:77] Creating layer bn4_1_branch2a
I1213 16:41:43.488389  9787 net.cpp:106] Creating Layer bn4_1_branch2a
I1213 16:41:43.488396  9787 net.cpp:454] bn4_1_branch2a <- enet4_1_branch2a
I1213 16:41:43.488409  9787 net.cpp:397] bn4_1_branch2a -> enet4_1_branch2a (in-place)
I1213 16:41:43.488786  9787 net.cpp:150] Setting up bn4_1_branch2a
I1213 16:41:43.488801  9787 net.cpp:157] Top shape: 4 16 95 311 (1890880)
I1213 16:41:43.488807  9787 net.cpp:165] Memory required for data: 4510459360
I1213 16:41:43.488818  9787 layer_factory.hpp:77] Creating layer relu4_1_branch2a
I1213 16:41:43.488831  9787 net.cpp:106] Creating Layer relu4_1_branch2a
I1213 16:41:43.488838  9787 net.cpp:454] relu4_1_branch2a <- enet4_1_branch2a
I1213 16:41:43.488848  9787 net.cpp:397] relu4_1_branch2a -> enet4_1_branch2a (in-place)
I1213 16:41:43.489969  9787 net.cpp:150] Setting up relu4_1_branch2a
I1213 16:41:43.489985  9787 net.cpp:157] Top shape: 4 16 95 311 (1890880)
I1213 16:41:43.489992  9787 net.cpp:165] Memory required for data: 4518022880
I1213 16:41:43.490000  9787 layer_factory.hpp:77] Creating layer enet4_1_branch2b
I1213 16:41:43.490015  9787 net.cpp:106] Creating Layer enet4_1_branch2b
I1213 16:41:43.490025  9787 net.cpp:454] enet4_1_branch2b <- enet4_1_branch2a
I1213 16:41:43.490038  9787 net.cpp:411] enet4_1_branch2b -> enet4_1_branch2b
I1213 16:41:43.494083  9787 net.cpp:150] Setting up enet4_1_branch2b
I1213 16:41:43.494102  9787 net.cpp:157] Top shape: 4 16 95 311 (1890880)
I1213 16:41:43.494109  9787 net.cpp:165] Memory required for data: 4525586400
I1213 16:41:43.494120  9787 layer_factory.hpp:77] Creating layer bn4_1_branch2b
I1213 16:41:43.494135  9787 net.cpp:106] Creating Layer bn4_1_branch2b
I1213 16:41:43.494146  9787 net.cpp:454] bn4_1_branch2b <- enet4_1_branch2b
I1213 16:41:43.494158  9787 net.cpp:397] bn4_1_branch2b -> enet4_1_branch2b (in-place)
I1213 16:41:43.494540  9787 net.cpp:150] Setting up bn4_1_branch2b
I1213 16:41:43.494554  9787 net.cpp:157] Top shape: 4 16 95 311 (1890880)
I1213 16:41:43.494561  9787 net.cpp:165] Memory required for data: 4533149920
I1213 16:41:43.494572  9787 layer_factory.hpp:77] Creating layer relu4_1_branch2b
I1213 16:41:43.494582  9787 net.cpp:106] Creating Layer relu4_1_branch2b
I1213 16:41:43.494590  9787 net.cpp:454] relu4_1_branch2b <- enet4_1_branch2b
I1213 16:41:43.494598  9787 net.cpp:397] relu4_1_branch2b -> enet4_1_branch2b (in-place)
I1213 16:41:43.495735  9787 net.cpp:150] Setting up relu4_1_branch2b
I1213 16:41:43.495753  9787 net.cpp:157] Top shape: 4 16 95 311 (1890880)
I1213 16:41:43.495759  9787 net.cpp:165] Memory required for data: 4540713440
I1213 16:41:43.495766  9787 layer_factory.hpp:77] Creating layer enet4_1_branch2c
I1213 16:41:43.495784  9787 net.cpp:106] Creating Layer enet4_1_branch2c
I1213 16:41:43.495792  9787 net.cpp:454] enet4_1_branch2c <- enet4_1_branch2b
I1213 16:41:43.495806  9787 net.cpp:411] enet4_1_branch2c -> enet4_1_branch2c
I1213 16:41:43.499526  9787 net.cpp:150] Setting up enet4_1_branch2c
I1213 16:41:43.499543  9787 net.cpp:157] Top shape: 4 64 95 311 (7563520)
I1213 16:41:43.499550  9787 net.cpp:165] Memory required for data: 4570967520
I1213 16:41:43.499560  9787 layer_factory.hpp:77] Creating layer bn4_1_branch2c
I1213 16:41:43.499575  9787 net.cpp:106] Creating Layer bn4_1_branch2c
I1213 16:41:43.499583  9787 net.cpp:454] bn4_1_branch2c <- enet4_1_branch2c
I1213 16:41:43.499596  9787 net.cpp:397] bn4_1_branch2c -> enet4_1_branch2c (in-place)
I1213 16:41:43.501011  9787 net.cpp:150] Setting up bn4_1_branch2c
I1213 16:41:43.501029  9787 net.cpp:157] Top shape: 4 64 95 311 (7563520)
I1213 16:41:43.501035  9787 net.cpp:165] Memory required for data: 4601221600
I1213 16:41:43.501046  9787 layer_factory.hpp:77] Creating layer enet4_1
I1213 16:41:43.501057  9787 net.cpp:106] Creating Layer enet4_1
I1213 16:41:43.501065  9787 net.cpp:454] enet4_1 <- enet4_0_relu4_0_0_split_1
I1213 16:41:43.501073  9787 net.cpp:454] enet4_1 <- enet4_1_branch2c
I1213 16:41:43.501083  9787 net.cpp:411] enet4_1 -> enet4_1
I1213 16:41:43.501140  9787 net.cpp:150] Setting up enet4_1
I1213 16:41:43.501164  9787 net.cpp:157] Top shape: 4 64 95 311 (7563520)
I1213 16:41:43.501171  9787 net.cpp:165] Memory required for data: 4631475680
I1213 16:41:43.501178  9787 layer_factory.hpp:77] Creating layer relu4_1
I1213 16:41:43.501188  9787 net.cpp:106] Creating Layer relu4_1
I1213 16:41:43.501195  9787 net.cpp:454] relu4_1 <- enet4_1
I1213 16:41:43.501204  9787 net.cpp:397] relu4_1 -> enet4_1 (in-place)
I1213 16:41:43.502532  9787 net.cpp:150] Setting up relu4_1
I1213 16:41:43.502549  9787 net.cpp:157] Top shape: 4 64 95 311 (7563520)
I1213 16:41:43.502557  9787 net.cpp:165] Memory required for data: 4661729760
I1213 16:41:43.502563  9787 layer_factory.hpp:77] Creating layer enet4_1_relu4_1_0_split
I1213 16:41:43.502576  9787 net.cpp:106] Creating Layer enet4_1_relu4_1_0_split
I1213 16:41:43.502584  9787 net.cpp:454] enet4_1_relu4_1_0_split <- enet4_1
I1213 16:41:43.502594  9787 net.cpp:411] enet4_1_relu4_1_0_split -> enet4_1_relu4_1_0_split_0
I1213 16:41:43.502606  9787 net.cpp:411] enet4_1_relu4_1_0_split -> enet4_1_relu4_1_0_split_1
I1213 16:41:43.502681  9787 net.cpp:150] Setting up enet4_1_relu4_1_0_split
I1213 16:41:43.502694  9787 net.cpp:157] Top shape: 4 64 95 311 (7563520)
I1213 16:41:43.502702  9787 net.cpp:157] Top shape: 4 64 95 311 (7563520)
I1213 16:41:43.502708  9787 net.cpp:165] Memory required for data: 4722237920
I1213 16:41:43.502715  9787 layer_factory.hpp:77] Creating layer enet4_2_branch2a
I1213 16:41:43.502730  9787 net.cpp:106] Creating Layer enet4_2_branch2a
I1213 16:41:43.502739  9787 net.cpp:454] enet4_2_branch2a <- enet4_1_relu4_1_0_split_0
I1213 16:41:43.502756  9787 net.cpp:411] enet4_2_branch2a -> enet4_2_branch2a
I1213 16:41:43.506481  9787 net.cpp:150] Setting up enet4_2_branch2a
I1213 16:41:43.506499  9787 net.cpp:157] Top shape: 4 16 95 311 (1890880)
I1213 16:41:43.506506  9787 net.cpp:165] Memory required for data: 4729801440
I1213 16:41:43.506516  9787 layer_factory.hpp:77] Creating layer bn4_2_branch2a
I1213 16:41:43.506533  9787 net.cpp:106] Creating Layer bn4_2_branch2a
I1213 16:41:43.506541  9787 net.cpp:454] bn4_2_branch2a <- enet4_2_branch2a
I1213 16:41:43.506552  9787 net.cpp:397] bn4_2_branch2a -> enet4_2_branch2a (in-place)
I1213 16:41:43.506937  9787 net.cpp:150] Setting up bn4_2_branch2a
I1213 16:41:43.506950  9787 net.cpp:157] Top shape: 4 16 95 311 (1890880)
I1213 16:41:43.506958  9787 net.cpp:165] Memory required for data: 4737364960
I1213 16:41:43.506968  9787 layer_factory.hpp:77] Creating layer relu4_2_branch2a
I1213 16:41:43.506978  9787 net.cpp:106] Creating Layer relu4_2_branch2a
I1213 16:41:43.506985  9787 net.cpp:454] relu4_2_branch2a <- enet4_2_branch2a
I1213 16:41:43.506997  9787 net.cpp:397] relu4_2_branch2a -> enet4_2_branch2a (in-place)
I1213 16:41:43.508343  9787 net.cpp:150] Setting up relu4_2_branch2a
I1213 16:41:43.508360  9787 net.cpp:157] Top shape: 4 16 95 311 (1890880)
I1213 16:41:43.508368  9787 net.cpp:165] Memory required for data: 4744928480
I1213 16:41:43.508374  9787 layer_factory.hpp:77] Creating layer enet4_2_branch2b
I1213 16:41:43.508391  9787 net.cpp:106] Creating Layer enet4_2_branch2b
I1213 16:41:43.508399  9787 net.cpp:454] enet4_2_branch2b <- enet4_2_branch2a
I1213 16:41:43.508414  9787 net.cpp:411] enet4_2_branch2b -> enet4_2_branch2b
I1213 16:41:43.512529  9787 net.cpp:150] Setting up enet4_2_branch2b
I1213 16:41:43.512547  9787 net.cpp:157] Top shape: 4 16 95 311 (1890880)
I1213 16:41:43.512554  9787 net.cpp:165] Memory required for data: 4752492000
I1213 16:41:43.512565  9787 layer_factory.hpp:77] Creating layer bn4_2_branch2b
I1213 16:41:43.512583  9787 net.cpp:106] Creating Layer bn4_2_branch2b
I1213 16:41:43.512591  9787 net.cpp:454] bn4_2_branch2b <- enet4_2_branch2b
I1213 16:41:43.512601  9787 net.cpp:397] bn4_2_branch2b -> enet4_2_branch2b (in-place)
I1213 16:41:43.512991  9787 net.cpp:150] Setting up bn4_2_branch2b
I1213 16:41:43.513005  9787 net.cpp:157] Top shape: 4 16 95 311 (1890880)
I1213 16:41:43.513012  9787 net.cpp:165] Memory required for data: 4760055520
I1213 16:41:43.513031  9787 layer_factory.hpp:77] Creating layer relu4_2_branch2b
I1213 16:41:43.513048  9787 net.cpp:106] Creating Layer relu4_2_branch2b
I1213 16:41:43.513056  9787 net.cpp:454] relu4_2_branch2b <- enet4_2_branch2b
I1213 16:41:43.513068  9787 net.cpp:397] relu4_2_branch2b -> enet4_2_branch2b (in-place)
I1213 16:41:43.514200  9787 net.cpp:150] Setting up relu4_2_branch2b
I1213 16:41:43.514217  9787 net.cpp:157] Top shape: 4 16 95 311 (1890880)
I1213 16:41:43.514225  9787 net.cpp:165] Memory required for data: 4767619040
I1213 16:41:43.514231  9787 layer_factory.hpp:77] Creating layer enet4_2_branch2c
I1213 16:41:43.514247  9787 net.cpp:106] Creating Layer enet4_2_branch2c
I1213 16:41:43.514256  9787 net.cpp:454] enet4_2_branch2c <- enet4_2_branch2b
I1213 16:41:43.514271  9787 net.cpp:411] enet4_2_branch2c -> enet4_2_branch2c
I1213 16:41:43.518229  9787 net.cpp:150] Setting up enet4_2_branch2c
I1213 16:41:43.518247  9787 net.cpp:157] Top shape: 4 64 95 311 (7563520)
I1213 16:41:43.518254  9787 net.cpp:165] Memory required for data: 4797873120
I1213 16:41:43.518265  9787 layer_factory.hpp:77] Creating layer bn4_2_branch2c
I1213 16:41:43.518280  9787 net.cpp:106] Creating Layer bn4_2_branch2c
I1213 16:41:43.518287  9787 net.cpp:454] bn4_2_branch2c <- enet4_2_branch2c
I1213 16:41:43.518297  9787 net.cpp:397] bn4_2_branch2c -> enet4_2_branch2c (in-place)
I1213 16:41:43.518703  9787 net.cpp:150] Setting up bn4_2_branch2c
I1213 16:41:43.518718  9787 net.cpp:157] Top shape: 4 64 95 311 (7563520)
I1213 16:41:43.518724  9787 net.cpp:165] Memory required for data: 4828127200
I1213 16:41:43.518735  9787 layer_factory.hpp:77] Creating layer enet4_2
I1213 16:41:43.518745  9787 net.cpp:106] Creating Layer enet4_2
I1213 16:41:43.518754  9787 net.cpp:454] enet4_2 <- enet4_1_relu4_1_0_split_1
I1213 16:41:43.518762  9787 net.cpp:454] enet4_2 <- enet4_2_branch2c
I1213 16:41:43.518774  9787 net.cpp:411] enet4_2 -> enet4_2
I1213 16:41:43.518824  9787 net.cpp:150] Setting up enet4_2
I1213 16:41:43.518837  9787 net.cpp:157] Top shape: 4 64 95 311 (7563520)
I1213 16:41:43.518843  9787 net.cpp:165] Memory required for data: 4858381280
I1213 16:41:43.518851  9787 layer_factory.hpp:77] Creating layer relu4_2
I1213 16:41:43.518859  9787 net.cpp:106] Creating Layer relu4_2
I1213 16:41:43.518867  9787 net.cpp:454] relu4_2 <- enet4_2
I1213 16:41:43.518875  9787 net.cpp:397] relu4_2 -> enet4_2 (in-place)
I1213 16:41:43.520009  9787 net.cpp:150] Setting up relu4_2
I1213 16:41:43.520025  9787 net.cpp:157] Top shape: 4 64 95 311 (7563520)
I1213 16:41:43.520032  9787 net.cpp:165] Memory required for data: 4888635360
I1213 16:41:43.520040  9787 layer_factory.hpp:77] Creating layer enet4_2_relu4_2_0_split
I1213 16:41:43.520050  9787 net.cpp:106] Creating Layer enet4_2_relu4_2_0_split
I1213 16:41:43.520056  9787 net.cpp:454] enet4_2_relu4_2_0_split <- enet4_2
I1213 16:41:43.520069  9787 net.cpp:411] enet4_2_relu4_2_0_split -> enet4_2_relu4_2_0_split_0
I1213 16:41:43.520082  9787 net.cpp:411] enet4_2_relu4_2_0_split -> enet4_2_relu4_2_0_split_1
I1213 16:41:43.520159  9787 net.cpp:150] Setting up enet4_2_relu4_2_0_split
I1213 16:41:43.520174  9787 net.cpp:157] Top shape: 4 64 95 311 (7563520)
I1213 16:41:43.520181  9787 net.cpp:157] Top shape: 4 64 95 311 (7563520)
I1213 16:41:43.520187  9787 net.cpp:165] Memory required for data: 4949143520
I1213 16:41:43.520195  9787 layer_factory.hpp:77] Creating layer enet5_0_branch2a
I1213 16:41:43.520212  9787 net.cpp:106] Creating Layer enet5_0_branch2a
I1213 16:41:43.520221  9787 net.cpp:454] enet5_0_branch2a <- enet4_2_relu4_2_0_split_0
I1213 16:41:43.520232  9787 net.cpp:411] enet5_0_branch2a -> enet5_0_branch2a
I1213 16:41:43.523952  9787 net.cpp:150] Setting up enet5_0_branch2a
I1213 16:41:43.523969  9787 net.cpp:157] Top shape: 4 4 95 311 (472720)
I1213 16:41:43.523977  9787 net.cpp:165] Memory required for data: 4951034400
I1213 16:41:43.523986  9787 layer_factory.hpp:77] Creating layer bn5_0_branch2a
I1213 16:41:43.524003  9787 net.cpp:106] Creating Layer bn5_0_branch2a
I1213 16:41:43.524019  9787 net.cpp:454] bn5_0_branch2a <- enet5_0_branch2a
I1213 16:41:43.524036  9787 net.cpp:397] bn5_0_branch2a -> enet5_0_branch2a (in-place)
I1213 16:41:43.525488  9787 net.cpp:150] Setting up bn5_0_branch2a
I1213 16:41:43.525506  9787 net.cpp:157] Top shape: 4 4 95 311 (472720)
I1213 16:41:43.525512  9787 net.cpp:165] Memory required for data: 4952925280
I1213 16:41:43.525523  9787 layer_factory.hpp:77] Creating layer relu5_0_branch2a
I1213 16:41:43.525537  9787 net.cpp:106] Creating Layer relu5_0_branch2a
I1213 16:41:43.525545  9787 net.cpp:454] relu5_0_branch2a <- enet5_0_branch2a
I1213 16:41:43.525554  9787 net.cpp:397] relu5_0_branch2a -> enet5_0_branch2a (in-place)
I1213 16:41:43.526703  9787 net.cpp:150] Setting up relu5_0_branch2a
I1213 16:41:43.526721  9787 net.cpp:157] Top shape: 4 4 95 311 (472720)
I1213 16:41:43.526727  9787 net.cpp:165] Memory required for data: 4954816160
I1213 16:41:43.526734  9787 layer_factory.hpp:77] Creating layer enet5_0_branch2b
I1213 16:41:43.526756  9787 net.cpp:106] Creating Layer enet5_0_branch2b
I1213 16:41:43.526763  9787 net.cpp:454] enet5_0_branch2b <- enet5_0_branch2a
I1213 16:41:43.526774  9787 net.cpp:411] enet5_0_branch2b -> enet5_0_branch2b
I1213 16:41:43.527359  9787 net.cpp:150] Setting up enet5_0_branch2b
I1213 16:41:43.527374  9787 net.cpp:157] Top shape: 4 4 189 621 (1877904)
I1213 16:41:43.527381  9787 net.cpp:165] Memory required for data: 4962327776
I1213 16:41:43.527392  9787 layer_factory.hpp:77] Creating layer bn5_0_branch2b
I1213 16:41:43.527405  9787 net.cpp:106] Creating Layer bn5_0_branch2b
I1213 16:41:43.527411  9787 net.cpp:454] bn5_0_branch2b <- enet5_0_branch2b
I1213 16:41:43.527425  9787 net.cpp:397] bn5_0_branch2b -> enet5_0_branch2b (in-place)
I1213 16:41:43.528975  9787 net.cpp:150] Setting up bn5_0_branch2b
I1213 16:41:43.528992  9787 net.cpp:157] Top shape: 4 4 189 621 (1877904)
I1213 16:41:43.529000  9787 net.cpp:165] Memory required for data: 4969839392
I1213 16:41:43.529011  9787 layer_factory.hpp:77] Creating layer relu5_0_branch2b
I1213 16:41:43.529021  9787 net.cpp:106] Creating Layer relu5_0_branch2b
I1213 16:41:43.529028  9787 net.cpp:454] relu5_0_branch2b <- enet5_0_branch2b
I1213 16:41:43.529037  9787 net.cpp:397] relu5_0_branch2b -> enet5_0_branch2b (in-place)
I1213 16:41:43.530369  9787 net.cpp:150] Setting up relu5_0_branch2b
I1213 16:41:43.530385  9787 net.cpp:157] Top shape: 4 4 189 621 (1877904)
I1213 16:41:43.530392  9787 net.cpp:165] Memory required for data: 4977351008
I1213 16:41:43.530400  9787 layer_factory.hpp:77] Creating layer enet5_0_branch2c
I1213 16:41:43.530418  9787 net.cpp:106] Creating Layer enet5_0_branch2c
I1213 16:41:43.530427  9787 net.cpp:454] enet5_0_branch2c <- enet5_0_branch2b
I1213 16:41:43.530438  9787 net.cpp:411] enet5_0_branch2c -> enet5_0_branch2c
I1213 16:41:43.534186  9787 net.cpp:150] Setting up enet5_0_branch2c
I1213 16:41:43.534204  9787 net.cpp:157] Top shape: 4 16 189 621 (7511616)
I1213 16:41:43.534211  9787 net.cpp:165] Memory required for data: 5007397472
I1213 16:41:43.534221  9787 layer_factory.hpp:77] Creating layer bn5_0_branch2c
I1213 16:41:43.534237  9787 net.cpp:106] Creating Layer bn5_0_branch2c
I1213 16:41:43.534245  9787 net.cpp:454] bn5_0_branch2c <- enet5_0_branch2c
I1213 16:41:43.534258  9787 net.cpp:397] bn5_0_branch2c -> enet5_0_branch2c (in-place)
I1213 16:41:43.535843  9787 net.cpp:150] Setting up bn5_0_branch2c
I1213 16:41:43.535861  9787 net.cpp:157] Top shape: 4 16 189 621 (7511616)
I1213 16:41:43.535867  9787 net.cpp:165] Memory required for data: 5037443936
I1213 16:41:43.535878  9787 layer_factory.hpp:77] Creating layer enet5_0_branch1a
I1213 16:41:43.535895  9787 net.cpp:106] Creating Layer enet5_0_branch1a
I1213 16:41:43.535904  9787 net.cpp:454] enet5_0_branch1a <- enet4_2_relu4_2_0_split_1
I1213 16:41:43.535918  9787 net.cpp:411] enet5_0_branch1a -> enet5_0_branch1a
I1213 16:41:43.539942  9787 net.cpp:150] Setting up enet5_0_branch1a
I1213 16:41:43.539958  9787 net.cpp:157] Top shape: 4 16 95 311 (1890880)
I1213 16:41:43.539966  9787 net.cpp:165] Memory required for data: 5045007456
I1213 16:41:43.539985  9787 layer_factory.hpp:77] Creating layer bn5_0_branch1a
I1213 16:41:43.540009  9787 net.cpp:106] Creating Layer bn5_0_branch1a
I1213 16:41:43.540017  9787 net.cpp:454] bn5_0_branch1a <- enet5_0_branch1a
I1213 16:41:43.540030  9787 net.cpp:397] bn5_0_branch1a -> enet5_0_branch1a (in-place)
I1213 16:41:43.540478  9787 net.cpp:150] Setting up bn5_0_branch1a
I1213 16:41:43.540493  9787 net.cpp:157] Top shape: 4 16 95 311 (1890880)
I1213 16:41:43.540499  9787 net.cpp:165] Memory required for data: 5052570976
I1213 16:41:43.540510  9787 layer_factory.hpp:77] Creating layer unpool5_0_branch1a
I1213 16:41:43.540521  9787 net.cpp:106] Creating Layer unpool5_0_branch1a
I1213 16:41:43.540529  9787 net.cpp:454] unpool5_0_branch1a <- enet5_0_branch1a
I1213 16:41:43.540537  9787 net.cpp:454] unpool5_0_branch1a <- pool1_0_branch1a_mask
I1213 16:41:43.540547  9787 net.cpp:411] unpool5_0_branch1a -> unpool5_0_branch1a
I1213 16:41:43.540598  9787 net.cpp:150] Setting up unpool5_0_branch1a
I1213 16:41:43.540611  9787 net.cpp:157] Top shape: 4 16 189 621 (7511616)
I1213 16:41:43.540618  9787 net.cpp:165] Memory required for data: 5082617440
I1213 16:41:43.540624  9787 layer_factory.hpp:77] Creating layer enet5_0
I1213 16:41:43.540637  9787 net.cpp:106] Creating Layer enet5_0
I1213 16:41:43.540643  9787 net.cpp:454] enet5_0 <- unpool5_0_branch1a
I1213 16:41:43.540652  9787 net.cpp:454] enet5_0 <- enet5_0_branch2c
I1213 16:41:43.540662  9787 net.cpp:411] enet5_0 -> enet5_0
I1213 16:41:43.540709  9787 net.cpp:150] Setting up enet5_0
I1213 16:41:43.540722  9787 net.cpp:157] Top shape: 4 16 189 621 (7511616)
I1213 16:41:43.540729  9787 net.cpp:165] Memory required for data: 5112663904
I1213 16:41:43.540735  9787 layer_factory.hpp:77] Creating layer relu5_0
I1213 16:41:43.540745  9787 net.cpp:106] Creating Layer relu5_0
I1213 16:41:43.540751  9787 net.cpp:454] relu5_0 <- enet5_0
I1213 16:41:43.540763  9787 net.cpp:397] relu5_0 -> enet5_0 (in-place)
I1213 16:41:43.541908  9787 net.cpp:150] Setting up relu5_0
I1213 16:41:43.541925  9787 net.cpp:157] Top shape: 4 16 189 621 (7511616)
I1213 16:41:43.541932  9787 net.cpp:165] Memory required for data: 5142710368
I1213 16:41:43.541939  9787 layer_factory.hpp:77] Creating layer enet5_0_relu5_0_0_split
I1213 16:41:43.541952  9787 net.cpp:106] Creating Layer enet5_0_relu5_0_0_split
I1213 16:41:43.541960  9787 net.cpp:454] enet5_0_relu5_0_0_split <- enet5_0
I1213 16:41:43.541970  9787 net.cpp:411] enet5_0_relu5_0_0_split -> enet5_0_relu5_0_0_split_0
I1213 16:41:43.541982  9787 net.cpp:411] enet5_0_relu5_0_0_split -> enet5_0_relu5_0_0_split_1
I1213 16:41:43.542062  9787 net.cpp:150] Setting up enet5_0_relu5_0_0_split
I1213 16:41:43.542075  9787 net.cpp:157] Top shape: 4 16 189 621 (7511616)
I1213 16:41:43.542083  9787 net.cpp:157] Top shape: 4 16 189 621 (7511616)
I1213 16:41:43.542089  9787 net.cpp:165] Memory required for data: 5202803296
I1213 16:41:43.542095  9787 layer_factory.hpp:77] Creating layer enet5_1_branch2a
I1213 16:41:43.542111  9787 net.cpp:106] Creating Layer enet5_1_branch2a
I1213 16:41:43.542119  9787 net.cpp:454] enet5_1_branch2a <- enet5_0_relu5_0_0_split_0
I1213 16:41:43.542134  9787 net.cpp:411] enet5_1_branch2a -> enet5_1_branch2a
I1213 16:41:43.546097  9787 net.cpp:150] Setting up enet5_1_branch2a
I1213 16:41:43.546115  9787 net.cpp:157] Top shape: 4 4 189 621 (1877904)
I1213 16:41:43.546123  9787 net.cpp:165] Memory required for data: 5210314912
I1213 16:41:43.546131  9787 layer_factory.hpp:77] Creating layer bn5_1_branch2a
I1213 16:41:43.546147  9787 net.cpp:106] Creating Layer bn5_1_branch2a
I1213 16:41:43.546155  9787 net.cpp:454] bn5_1_branch2a <- enet5_1_branch2a
I1213 16:41:43.546169  9787 net.cpp:397] bn5_1_branch2a -> enet5_1_branch2a (in-place)
I1213 16:41:43.547749  9787 net.cpp:150] Setting up bn5_1_branch2a
I1213 16:41:43.547766  9787 net.cpp:157] Top shape: 4 4 189 621 (1877904)
I1213 16:41:43.547773  9787 net.cpp:165] Memory required for data: 5217826528
I1213 16:41:43.547785  9787 layer_factory.hpp:77] Creating layer relu5_1_branch2a
I1213 16:41:43.547806  9787 net.cpp:106] Creating Layer relu5_1_branch2a
I1213 16:41:43.547821  9787 net.cpp:454] relu5_1_branch2a <- enet5_1_branch2a
I1213 16:41:43.547834  9787 net.cpp:397] relu5_1_branch2a -> enet5_1_branch2a (in-place)
I1213 16:41:43.550130  9787 net.cpp:150] Setting up relu5_1_branch2a
I1213 16:41:43.550148  9787 net.cpp:157] Top shape: 4 4 189 621 (1877904)
I1213 16:41:43.550154  9787 net.cpp:165] Memory required for data: 5225338144
I1213 16:41:43.550161  9787 layer_factory.hpp:77] Creating layer enet5_1_branch2b
I1213 16:41:43.550184  9787 net.cpp:106] Creating Layer enet5_1_branch2b
I1213 16:41:43.550191  9787 net.cpp:454] enet5_1_branch2b <- enet5_1_branch2a
I1213 16:41:43.550204  9787 net.cpp:411] enet5_1_branch2b -> enet5_1_branch2b
I1213 16:41:43.555488  9787 net.cpp:150] Setting up enet5_1_branch2b
I1213 16:41:43.555508  9787 net.cpp:157] Top shape: 4 4 189 621 (1877904)
I1213 16:41:43.555516  9787 net.cpp:165] Memory required for data: 5232849760
I1213 16:41:43.555527  9787 layer_factory.hpp:77] Creating layer bn5_1_branch2b
I1213 16:41:43.555541  9787 net.cpp:106] Creating Layer bn5_1_branch2b
I1213 16:41:43.555549  9787 net.cpp:454] bn5_1_branch2b <- enet5_1_branch2b
I1213 16:41:43.555560  9787 net.cpp:397] bn5_1_branch2b -> enet5_1_branch2b (in-place)
I1213 16:41:43.557128  9787 net.cpp:150] Setting up bn5_1_branch2b
I1213 16:41:43.557145  9787 net.cpp:157] Top shape: 4 4 189 621 (1877904)
I1213 16:41:43.557152  9787 net.cpp:165] Memory required for data: 5240361376
I1213 16:41:43.557163  9787 layer_factory.hpp:77] Creating layer relu5_1_branch2b
I1213 16:41:43.557174  9787 net.cpp:106] Creating Layer relu5_1_branch2b
I1213 16:41:43.557183  9787 net.cpp:454] relu5_1_branch2b <- enet5_1_branch2b
I1213 16:41:43.557193  9787 net.cpp:397] relu5_1_branch2b -> enet5_1_branch2b (in-place)
I1213 16:41:43.558333  9787 net.cpp:150] Setting up relu5_1_branch2b
I1213 16:41:43.558351  9787 net.cpp:157] Top shape: 4 4 189 621 (1877904)
I1213 16:41:43.558357  9787 net.cpp:165] Memory required for data: 5247872992
I1213 16:41:43.558364  9787 layer_factory.hpp:77] Creating layer enet5_1_branch2c
I1213 16:41:43.558382  9787 net.cpp:106] Creating Layer enet5_1_branch2c
I1213 16:41:43.558389  9787 net.cpp:454] enet5_1_branch2c <- enet5_1_branch2b
I1213 16:41:43.558404  9787 net.cpp:411] enet5_1_branch2c -> enet5_1_branch2c
I1213 16:41:43.562427  9787 net.cpp:150] Setting up enet5_1_branch2c
I1213 16:41:43.562448  9787 net.cpp:157] Top shape: 4 16 189 621 (7511616)
I1213 16:41:43.562456  9787 net.cpp:165] Memory required for data: 5277919456
I1213 16:41:43.562465  9787 layer_factory.hpp:77] Creating layer bn5_1_branch2c
I1213 16:41:43.562479  9787 net.cpp:106] Creating Layer bn5_1_branch2c
I1213 16:41:43.562486  9787 net.cpp:454] bn5_1_branch2c <- enet5_1_branch2c
I1213 16:41:43.562500  9787 net.cpp:397] bn5_1_branch2c -> enet5_1_branch2c (in-place)
I1213 16:41:43.564103  9787 net.cpp:150] Setting up bn5_1_branch2c
I1213 16:41:43.564121  9787 net.cpp:157] Top shape: 4 16 189 621 (7511616)
I1213 16:41:43.564127  9787 net.cpp:165] Memory required for data: 5307965920
I1213 16:41:43.564138  9787 layer_factory.hpp:77] Creating layer enet5_1
I1213 16:41:43.564149  9787 net.cpp:106] Creating Layer enet5_1
I1213 16:41:43.564157  9787 net.cpp:454] enet5_1 <- enet5_0_relu5_0_0_split_1
I1213 16:41:43.564167  9787 net.cpp:454] enet5_1 <- enet5_1_branch2c
I1213 16:41:43.564175  9787 net.cpp:411] enet5_1 -> enet5_1
I1213 16:41:43.564229  9787 net.cpp:150] Setting up enet5_1
I1213 16:41:43.564242  9787 net.cpp:157] Top shape: 4 16 189 621 (7511616)
I1213 16:41:43.564249  9787 net.cpp:165] Memory required for data: 5338012384
I1213 16:41:43.564255  9787 layer_factory.hpp:77] Creating layer relu5_1
I1213 16:41:43.564266  9787 net.cpp:106] Creating Layer relu5_1
I1213 16:41:43.564275  9787 net.cpp:454] relu5_1 <- enet5_1
I1213 16:41:43.564283  9787 net.cpp:397] relu5_1 -> enet5_1 (in-place)
I1213 16:41:43.565659  9787 net.cpp:150] Setting up relu5_1
I1213 16:41:43.565675  9787 net.cpp:157] Top shape: 4 16 189 621 (7511616)
I1213 16:41:43.565690  9787 net.cpp:165] Memory required for data: 5368058848
I1213 16:41:43.565704  9787 layer_factory.hpp:77] Creating layer enet6_0
I1213 16:41:43.565721  9787 net.cpp:106] Creating Layer enet6_0
I1213 16:41:43.565729  9787 net.cpp:454] enet6_0 <- enet5_1
I1213 16:41:43.565742  9787 net.cpp:411] enet6_0 -> enet6_0
I1213 16:41:43.568508  9787 net.cpp:150] Setting up enet6_0
I1213 16:41:43.568526  9787 net.cpp:157] Top shape: 4 2 377 1241 (3742856)
I1213 16:41:43.568532  9787 net.cpp:165] Memory required for data: 5383030272
I1213 16:41:43.568544  9787 layer_factory.hpp:77] Creating layer enet6_0_enet6_0_0_split
I1213 16:41:43.568554  9787 net.cpp:106] Creating Layer enet6_0_enet6_0_0_split
I1213 16:41:43.568562  9787 net.cpp:454] enet6_0_enet6_0_0_split <- enet6_0
I1213 16:41:43.568572  9787 net.cpp:411] enet6_0_enet6_0_0_split -> enet6_0_enet6_0_0_split_0
I1213 16:41:43.568585  9787 net.cpp:411] enet6_0_enet6_0_0_split -> enet6_0_enet6_0_0_split_1
I1213 16:41:43.568671  9787 net.cpp:150] Setting up enet6_0_enet6_0_0_split
I1213 16:41:43.568686  9787 net.cpp:157] Top shape: 4 2 377 1241 (3742856)
I1213 16:41:43.568693  9787 net.cpp:157] Top shape: 4 2 377 1241 (3742856)
I1213 16:41:43.568699  9787 net.cpp:165] Memory required for data: 5412973120
I1213 16:41:43.568706  9787 layer_factory.hpp:77] Creating layer loss
I1213 16:41:43.568730  9787 net.cpp:106] Creating Layer loss
I1213 16:41:43.568738  9787 net.cpp:454] loss <- enet6_0_enet6_0_0_split_0
I1213 16:41:43.568747  9787 net.cpp:454] loss <- label_data_1_split_0
I1213 16:41:43.568758  9787 net.cpp:411] loss -> loss
I1213 16:41:43.568785  9787 layer_factory.hpp:77] Creating layer loss
I1213 16:41:43.585644  9787 net.cpp:150] Setting up loss
I1213 16:41:43.585687  9787 net.cpp:157] Top shape: (1)
I1213 16:41:43.585695  9787 net.cpp:160]     with loss weight 1
I1213 16:41:43.585753  9787 net.cpp:165] Memory required for data: 5412973124
I1213 16:41:43.585762  9787 layer_factory.hpp:77] Creating layer accuracy
I1213 16:41:43.585780  9787 net.cpp:106] Creating Layer accuracy
I1213 16:41:43.585790  9787 net.cpp:454] accuracy <- enet6_0_enet6_0_0_split_1
I1213 16:41:43.585803  9787 net.cpp:454] accuracy <- label_data_1_split_1
I1213 16:41:43.585813  9787 net.cpp:411] accuracy -> accuracy
I1213 16:41:43.585826  9787 net.cpp:411] accuracy -> per_class_accuracy
I1213 16:41:43.585912  9787 net.cpp:150] Setting up accuracy
I1213 16:41:43.585927  9787 net.cpp:157] Top shape: (1)
I1213 16:41:43.585934  9787 net.cpp:157] Top shape: 2 (2)
I1213 16:41:43.585940  9787 net.cpp:165] Memory required for data: 5412973136
I1213 16:41:43.585947  9787 net.cpp:228] accuracy does not need backward computation.
I1213 16:41:43.585955  9787 net.cpp:226] loss needs backward computation.
I1213 16:41:43.585963  9787 net.cpp:226] enet6_0_enet6_0_0_split needs backward computation.
I1213 16:41:43.585969  9787 net.cpp:226] enet6_0 needs backward computation.
…
