…
I0112 16:13:05.782233 14514 solver.cpp:91] Creating training net from net file: /home/map/liuli/caffe_hebei/segnet/Models/enet/enet_train_kitti_road_carD.prototxt
I0112 16:13:05.795044 14514 net.cpp:49] Initializing net from parameters: 
name: "enet"
state {
  phase: TRAIN
}
layer {
  name: "data"
  type: "ImageSegData"
  top: "data"
  top: "label"
  transform_param {
    mirror: true
    mean_value: 0
    mean_value: 0
    mean_value: 0
    scale_factors: 1
  }
  image_data_param {
    source: "/home/map/liuli/datasets/enet_multclass/train_new_carD/train/enet_train.list"
    batch_size: 4
    shuffle: true
    label_type: PIXEL
  }
}
layer {
  name: "enet_initial_branch2a"
  type: "Convolution"
  bottom: "data"
  top: "enet_initial_branch2a"
  param {
    lr_mult: 1
    decay_mult: 1
  }
  param {
    lr_mult: 2
    decay_mult: 0
  }
  convolution_param {
    num_output: 13
    bias_term: true
    weight_filler {
      type: "msra"
    }
    bias_filler {
      type: "constant"
    }
    pad_h: 1
    pad_w: 1
    kernel_h: 3
    kernel_w: 3
    stride_h: 2
    stride_w: 2
    dilation: 1
  }
}
layer {
  name: "pool_initial_branch1a"
  type: "Pooling"
  bottom: "data"
  top: "pool_initial_branch1a"
  pooling_param {
    pool: MAX
    kernel_size: 2
    stride: 2
  }
}
layer {
  name: "enet_initial"
  type: "Concat"
  bottom: "enet_initial_branch2a"
  bottom: "pool_initial_branch1a"
  top: "enet_initial"
  concat_param {
    axis: 1
  }
}
layer {
  name: "bn_initial"
  type: "BN"
  bottom: "enet_initial"
  top: "enet_initial"
  param {
    lr_mult: 1
    decay_mult: 1
  }
  param {
    lr_mult: 2
    decay_mult: 0
  }
  bn_param {
    scale_filler {
      type: "constant"
      value: 1
    }
    shift_filler {
      type: "constant"
      value: 0.001
    }
  }
}
layer {
  name: "relu_initial"
  type: "PReLU"
  bottom: "enet_initial"
  top: "enet_initial"
}
layer {
  name: "enet1_0_branch2a"
  type: "Convolution"
  bottom: "enet_initial"
  top: "enet1_0_branch2a"
  param {
    lr_mult: 1
    decay_mult: 1
  }
  convolution_param {
    num_output: 16
    bias_term: false
    weight_filler {
      type: "msra"
    }
    bias_filler {
      type: "constant"
    }
    pad_h: 0
    pad_w: 0
    kernel_h: 2
    kernel_w: 2
    stride_h: 2
    stride_w: 2
    dilation: 1
  }
}
layer {
  name: "bn1_0_branch2a"
  type: "BN"
  bottom: "enet1_0_branch2a"
  top: "enet1_0_branch2a"
  param {
    lr_mult: 1
    decay_mult: 1
  }
  param {
    lr_mult: 2
    decay_mult: 0
  }
  bn_param {
    scale_filler {
      type: "constant"
      value: 1
    }
    shift_filler {
      type: "constant"
      value: 0.001
    }
  }
}
layer {
  name: "relu1_0_branch2a"
  type: "PReLU"
  bottom: "enet1_0_branch2a"
  top: "enet1_0_branch2a"
}
layer {
  name: "enet1_0_branch2b"
  type: "Convolution"
  bottom: "enet1_0_branch2a"
  top: "enet1_0_branch2b"
  param {
    lr_mult: 1
    decay_mult: 1
  }
  param {
    lr_mult: 2
    decay_mult: 0
  }
  convolution_param {
    num_output: 16
    bias_term: true
    weight_filler {
      type: "msra"
    }
    bias_filler {
      type: "constant"
    }
    pad_h: 1
    pad_w: 1
    kernel_h: 3
    kernel_w: 3
    stride_h: 1
    stride_w: 1
    dilation: 1
  }
}
layer {
  name: "bn1_0_branch2b"
  type: "BN"
  bottom: "enet1_0_branch2b"
  top: "enet1_0_branch2b"
  param {
    lr_mult: 1
    decay_mult: 1
  }
  param {
    lr_mult: 2
    decay_mult: 0
  }
  bn_param {
    scale_filler {
      type: "constant"
      value: 1
    }
    shift_filler {
      type: "constant"
      value: 0.001
    }
  }
}
layer {
  name: "relu1_0_branch2b"
  type: "PReLU"
  bottom: "enet1_0_branch2b"
  top: "enet1_0_branch2b"
}
layer {
  name: "enet1_0_branch2c"
  type: "Convolution"
  bottom: "enet1_0_branch2b"
  top: "enet1_0_branch2c"
  param {
    lr_mult: 1
    decay_mult: 1
  }
  convolution_param {
    num_output: 64
    bias_term: false
    weight_filler {
      type: "msra"
    }
    bias_filler {
      type: "constant"
    }
    pad_h: 0
    pad_w: 0
    kernel_h: 1
    kernel_w: 1
    stride_h: 1
    stride_w: 1
    dilation: 1
  }
}
layer {
  name: "bn1_0_branch2c"
  type: "BN"
  bottom: "enet1_0_branch2c"
  top: "enet1_0_branch2c"
  param {
    lr_mult: 1
    decay_mult: 1
  }
  param {
    lr_mult: 2
    decay_mult: 0
  }
  bn_param {
    scale_filler {
      type: "constant"
      value: 1
    }
    shift_filler {
      type: "constant"
      value: 0.001
    }
  }
}
layer {
  name: "dropout1_0_branch2c"
  type: "Dropout"
  bottom: "enet1_0_branch2c"
  top: "enet1_0_branch2c"
  dropout_param {
    dropout_ratio: 0.01
  }
}
layer {
  name: "enet1_0_branch1a"
  type: "Convolution"
  bottom: "enet_initial"
  top: "enet1_0_branch1a"
  param {
    lr_mult: 1
    decay_mult: 1
  }
  convolution_param {
    num_output: 64
    bias_term: false
    weight_filler {
      type: "msra"
    }
    bias_filler {
      type: "constant"
    }
    pad_h: 0
    pad_w: 0
    kernel_h: 1
    kernel_w: 1
    stride_h: 1
    stride_w: 1
    dilation: 1
  }
}
layer {
  name: "bn1_0_branch1a"
  type: "BN"
  bottom: "enet1_0_branch1a"
  top: "enet1_0_branch1a"
  param {
    lr_mult: 1
    decay_mult: 1
  }
  param {
    lr_mult: 2
    decay_mult: 0
  }
  bn_param {
    scale_filler {
      type: "constant"
      value: 1
    }
    shift_filler {
      type: "constant"
      value: 0.001
    }
  }
}
layer {
  name: "pool1_0_branch1a"
  type: "Pooling"
  bottom: "enet1_0_branch1a"
  top: "pool1_0_branch1a"
  top: "pool1_0_branch1a_mask"
  pooling_param {
    pool: MAX
    kernel_size: 2
    stride: 2
  }
}
layer {
  name: "enet1_0"
  type: "Eltwise"
  bottom: "pool1_0_branch1a"
  bottom: "enet1_0_branch2c"
  top: "enet1_0"
}
layer {
  name: "relu1_0"
  type: "PReLU"
  bottom: "enet1_0"
  top: "enet1_0"
}
layer {
  name: "enet1_1_branch2a"
  type: "Convolution"
  bottom: "enet1_0"
  top: "enet1_1_branch2a"
  param {
    lr_mult: 1
    decay_mult: 1
  }
  convolution_param {
    num_output: 16
    bias_term: false
    weight_filler {
      type: "msra"
    }
    bias_filler {
      type: "constant"
    }
    pad_h: 0
    pad_w: 0
    kernel_h: 1
    kernel_w: 1
    stride_h: 1
    stride_w: 1
    dilation: 1
  }
}
layer {
  name: "bn1_1_branch2a"
  type: "BN"
  bottom: "enet1_1_branch2a"
  top: "enet1_1_branch2a"
  param {
    lr_mult: 1
    decay_mult: 1
  }
  param {
    lr_mult: 2
    decay_mult: 0
  }
  bn_param {
    scale_filler {
      type: "constant"
      value: 1
    }
    shift_filler {
      type: "constant"
      value: 0.001
    }
  }
}
layer {
  name: "relu1_1_branch2a"
  type: "PReLU"
  bottom: "enet1_1_branch2a"
  top: "enet1_1_branch2a"
}
layer {
  name: "enet1_1_branch2b"
  type: "Convolution"
  bottom: "enet1_1_branch2a"
  top: "enet1_1_branch2b"
  param {
    lr_mult: 1
    decay_mult: 1
  }
  param {
    lr_mult: 2
    decay_mult: 0
  }
  convolution_param {
    num_output: 16
    bias_term: true
    weight_filler {
      type: "msra"
    }
    bias_filler {
      type: "constant"
    }
    pad_h: 1
    pad_w: 1
    kernel_h: 3
    kernel_w: 3
    stride_h: 1
    stride_w: 1
    dilation: 1
  }
}
layer {
  name: "bn1_1_branch2b"
  type: "BN"
  bottom: "enet1_1_branch2b"
  top: "enet1_1_branch2b"
  param {
    lr_mult: 1
    decay_mult: 1
  }
  param {
    lr_mult: 2
    decay_mult: 0
  }
  bn_param {
    scale_filler {
      type: "constant"
      value: 1
    }
    shift_filler {
      type: "constant"
      value: 0.001
    }
  }
}
layer {
  name: "relu1_1_branch2b"
  type: "PReLU"
  bottom: "enet1_1_branch2b"
  top: "enet1_1_branch2b"
}
layer {
  name: "enet1_1_branch2c"
  type: "Convolution"
  bottom: "enet1_1_branch2b"
  top: "enet1_1_branch2c"
  param {
    lr_mult: 1
    decay_mult: 1
  }
  convolution_param {
    num_output: 64
    bias_term: false
    weight_filler {
      type: "msra"
    }
    bias_filler {
      type: "constant"
    }
    pad_h: 0
    pad_w: 0
    kernel_h: 1
    kernel_w: 1
    stride_h: 1
    stride_w: 1
    dilation: 1
  }
}
layer {
  name: "bn1_1_branch2c"
  type: "BN"
  bottom: "enet1_1_branch2c"
  top: "enet1_1_branch2c"
  param {
    lr_mult: 1
    decay_mult: 1
  }
  param {
    lr_mult: 2
    decay_mult: 0
  }
  bn_param {
    scale_filler {
      type: "constant"
      value: 1
    }
    shift_filler {
      type: "constant"
      value: 0.001
    }
  }
}
layer {
  name: "dropout1_1_branch2c"
  type: "Dropout"
  bottom: "enet1_1_branch2c"
  top: "enet1_1_branch2c"
  dropout_param {
    dropout_ratio: 0.01
  }
}
layer {
  name: "enet1_1"
  type: "Eltwise"
  bottom: "enet1_0"
  bottom: "enet1_1_branch2c"
  top: "enet1_1"
}
layer {
  name: "relu1_1"
  type: "PReLU"
  bottom: "enet1_1"
  top: "enet1_1"
}
layer {
  name: "enet1_2_branch2a"
  type: "Convolution"
  bottom: "enet1_1"
  top: "enet1_2_branch2a"
  param {
    lr_mult: 1
    decay_mult: 1
  }
  convolution_param {
    num_output: 16
    bias_term: false
    weight_filler {
      type: "msra"
    }
    bias_filler {
      type: "constant"
    }
    pad_h: 0
    pad_w: 0
    kernel_h: 1
    kernel_w: 1
    stride_h: 1
    stride_w: 1
    dilation: 1
  }
}
layer {
  name: "bn1_2_branch2a"
  type: "BN"
  bottom: "enet1_2_branch2a"
  top: "enet1_2_branch2a"
  param {
    lr_mult: 1
    decay_mult: 1
  }
  param {
    lr_mult: 2
    decay_mult: 0
  }
  bn_param {
    scale_filler {
      type: "constant"
      value: 1
    }
    shift_filler {
      type: "constant"
      value: 0.001
    }
  }
}
layer {
  name: "relu1_2_branch2a"
  type: "PReLU"
  bottom: "enet1_2_branch2a"
  top: "enet1_2_branch2a"
}
layer {
  name: "enet1_2_branch2b"
  type: "Convolution"
  bottom: "enet1_2_branch2a"
  top: "enet1_2_branch2b"
  param {
    lr_mult: 1
    decay_mult: 1
  }
  param {
    lr_mult: 2
    decay_mult: 0
  }
  convolution_param {
    num_output: 16
    bias_term: true
    weight_filler {
      type: "msra"
    }
    bias_filler {
      type: "constant"
    }
    pad_h: 1
    pad_w: 1
    kernel_h: 3
    kernel_w: 3
    stride_h: 1
    stride_w: 1
    dilation: 1
  }
}
layer {
  name: "bn1_2_branch2b"
  type: "BN"
  bottom: "enet1_2_branch2b"
  top: "enet1_2_branch2b"
  param {
    lr_mult: 1
    decay_mult: 1
  }
  param {
    lr_mult: 2
    decay_mult: 0
  }
  bn_param {
    scale_filler {
      type: "constant"
      value: 1
    }
    shift_filler {
      type: "constant"
      value: 0.001
    }
  }
}
layer {
  name: "relu1_2_branch2b"
  type: "PReLU"
  bottom: "enet1_2_branch2b"
  top: "enet1_2_branch2b"
}
layer {
  name: "enet1_2_branch2c"
  type: "Convolution"
  bottom: "enet1_2_branch2b"
  top: "enet1_2_branch2c"
  param {
    lr_mult: 1
    decay_mult: 1
  }
  convolution_param {
    num_output: 64
    bias_term: false
    weight_filler {
      type: "msra"
    }
    bias_filler {
      type: "constant"
    }
    pad_h: 0
    pad_w: 0
    kernel_h: 1
    kernel_w: 1
    stride_h: 1
    stride_w: 1
    dilation: 1
  }
}
layer {
  name: "bn1_2_branch2c"
  type: "BN"
  bottom: "enet1_2_branch2c"
  top: "enet1_2_branch2c"
  param {
    lr_mult: 1
    decay_mult: 1
  }
  param {
    lr_mult: 2
    decay_mult: 0
  }
  bn_param {
    scale_filler {
      type: "constant"
      value: 1
    }
    shift_filler {
      type: "constant"
      value: 0.001
    }
  }
}
layer {
  name: "dropout1_2_branch2c"
  type: "Dropout"
  bottom: "enet1_2_branch2c"
  top: "enet1_2_branch2c"
  dropout_param {
    dropout_ratio: 0.01
  }
}
layer {
  name: "enet1_2"
  type: "Eltwise"
  bottom: "enet1_1"
  bottom: "enet1_2_branch2c"
  top: "enet1_2"
}
layer {
  name: "relu1_2"
  type: "PReLU"
  bottom: "enet1_2"
  top: "enet1_2"
}
layer {
  name: "enet1_3_branch2a"
  type: "Convolution"
  bottom: "enet1_2"
  top: "enet1_3_branch2a"
  param {
    lr_mult: 1
    decay_mult: 1
  }
  convolution_param {
    num_output: 16
    bias_term: false
    weight_filler {
      type: "msra"
    }
    bias_filler {
      type: "constant"
    }
    pad_h: 0
    pad_w: 0
    kernel_h: 1
    kernel_w: 1
    stride_h: 1
    stride_w: 1
    dilation: 1
  }
}
layer {
  name: "bn1_3_branch2a"
  type: "BN"
  bottom: "enet1_3_branch2a"
  top: "enet1_3_branch2a"
  param {
    lr_mult: 1
    decay_mult: 1
  }
  param {
    lr_mult: 2
    decay_mult: 0
  }
  bn_param {
    scale_filler {
      type: "constant"
      value: 1
    }
    shift_filler {
      type: "constant"
      value: 0.001
    }
  }
}
layer {
  name: "relu1_3_branch2a"
  type: "PReLU"
  bottom: "enet1_3_branch2a"
  top: "enet1_3_branch2a"
}
layer {
  name: "enet1_3_branch2b"
  type: "Convolution"
  bottom: "enet1_3_branch2a"
  top: "enet1_3_branch2b"
  param {
    lr_mult: 1
    decay_mult: 1
  }
  param {
    lr_mult: 2
    decay_mult: 0
  }
  convolution_param {
    num_output: 16
    bias_term: true
    weight_filler {
      type: "msra"
    }
    bias_filler {
      type: "constant"
    }
    pad_h: 1
    pad_w: 1
    kernel_h: 3
    kernel_w: 3
    stride_h: 1
    stride_w: 1
    dilation: 1
  }
}
layer {
  name: "bn1_3_branch2b"
  type: "BN"
  bottom: "enet1_3_branch2b"
  top: "enet1_3_branch2b"
  param {
    lr_mult: 1
    decay_mult: 1
  }
  param {
    lr_mult: 2
    decay_mult: 0
  }
  bn_param {
    scale_filler {
      type: "constant"
      value: 1
    }
    shift_filler {
      type: "constant"
      value: 0.001
    }
  }
}
layer {
  name: "relu1_3_branch2b"
  type: "PReLU"
  bottom: "enet1_3_branch2b"
  top: "enet1_3_branch2b"
}
layer {
  name: "enet1_3_branch2c"
  type: "Convolution"
  bottom: "enet1_3_branch2b"
  top: "enet1_3_branch2c"
  param {
    lr_mult: 1
    decay_mult: 1
  }
  convolution_param {
    num_output: 64
    bias_term: false
    weight_filler {
      type: "msra"
    }
    bias_filler {
      type: "constant"
    }
    pad_h: 0
    pad_w: 0
    kernel_h: 1
    kernel_w: 1
    stride_h: 1
    stride_w: 1
    dilation: 1
  }
}
layer {
  name: "bn1_3_branch2c"
  type: "BN"
  bottom: "enet1_3_branch2c"
  top: "enet1_3_branch2c"
  param {
    lr_mult: 1
    decay_mult: 1
  }
  param {
    lr_mult: 2
    decay_mult: 0
  }
  bn_param {
    scale_filler {
      type: "constant"
      value: 1
    }
    shift_filler {
      type: "constant"
      value: 0.001
    }
  }
}
layer {
  name: "dropout1_3_branch2c"
  type: "Dropout"
  bottom: "enet1_3_branch2c"
  top: "enet1_3_branch2c"
  dropout_param {
    dropout_ratio: 0.01
  }
}
layer {
  name: "enet1_3"
  type: "Eltwise"
  bottom: "enet1_2"
  bottom: "enet1_3_branch2c"
  top: "enet1_3"
}
layer {
  name: "relu1_3"
  type: "PReLU"
  bottom: "enet1_3"
  top: "enet1_3"
}
layer {
  name: "enet1_4_branch2a"
  type: "Convolution"
  bottom: "enet1_3"
  top: "enet1_4_branch2a"
  param {
    lr_mult: 1
    decay_mult: 1
  }
  convolution_param {
    num_output: 16
    bias_term: false
    weight_filler {
      type: "msra"
    }
    bias_filler {
      type: "constant"
    }
    pad_h: 0
    pad_w: 0
    kernel_h: 1
    kernel_w: 1
    stride_h: 1
    stride_w: 1
    dilation: 1
  }
}
layer {
  name: "bn1_4_branch2a"
  type: "BN"
  bottom: "enet1_4_branch2a"
  top: "enet1_4_branch2a"
  param {
    lr_mult: 1
    decay_mult: 1
  }
  param {
    lr_mult: 2
    decay_mult: 0
  }
  bn_param {
    scale_filler {
      type: "constant"
      value: 1
    }
    shift_filler {
      type: "constant"
      value: 0.001
    }
  }
}
layer {
  name: "relu1_4_branch2a"
  type: "PReLU"
  bottom: "enet1_4_branch2a"
  top: "enet1_4_branch2a"
}
layer {
  name: "enet1_4_branch2b"
  type: "Convolution"
  bottom: "enet1_4_branch2a"
  top: "enet1_4_branch2b"
  param {
    lr_mult: 1
    decay_mult: 1
  }
  param {
    lr_mult: 2
    decay_mult: 0
  }
  convolution_param {
    num_output: 16
    bias_term: true
    weight_filler {
      type: "msra"
    }
    bias_filler {
      type: "constant"
    }
    pad_h: 1
    pad_w: 1
    kernel_h: 3
    kernel_w: 3
    stride_h: 1
    stride_w: 1
    dilation: 1
  }
}
layer {
  name: "bn1_4_branch2b"
  type: "BN"
  bottom: "enet1_4_branch2b"
  top: "enet1_4_branch2b"
  param {
    lr_mult: 1
    decay_mult: 1
  }
  param {
    lr_mult: 2
    decay_mult: 0
  }
  bn_param {
    scale_filler {
      type: "constant"
      value: 1
    }
    shift_filler {
      type: "constant"
      value: 0.001
    }
  }
}
layer {
  name: "relu1_4_branch2b"
  type: "PReLU"
  bottom: "enet1_4_branch2b"
  top: "enet1_4_branch2b"
}
layer {
  name: "enet1_4_branch2c"
  type: "Convolution"
  bottom: "enet1_4_branch2b"
  top: "enet1_4_branch2c"
  param {
    lr_mult: 1
    decay_mult: 1
  }
  convolution_param {
    num_output: 64
    bias_term: false
    weight_filler {
      type: "msra"
    }
    bias_filler {
      type: "constant"
    }
    pad_h: 0
    pad_w: 0
    kernel_h: 1
    kernel_w: 1
    stride_h: 1
    stride_w: 1
    dilation: 1
  }
}
layer {
  name: "bn1_4_branch2c"
  type: "BN"
  bottom: "enet1_4_branch2c"
  top: "enet1_4_branch2c"
  param {
    lr_mult: 1
    decay_mult: 1
  }
  param {
    lr_mult: 2
    decay_mult: 0
  }
  bn_param {
    scale_filler {
      type: "constant"
      value: 1
    }
    shift_filler {
      type: "constant"
      value: 0.001
    }
  }
}
layer {
  name: "dropout1_4_branch2c"
  type: "Dropout"
  bottom: "enet1_4_branch2c"
  top: "enet1_4_branch2c"
  dropout_param {
    dropout_ratio: 0.01
  }
}
layer {
  name: "enet1_4"
  type: "Eltwise"
  bottom: "enet1_3"
  bottom: "enet1_4_branch2c"
  top: "enet1_4"
}
layer {
  name: "relu1_4"
  type: "PReLU"
  bottom: "enet1_4"
  top: "enet1_4"
}
layer {
  name: "enet2_0_branch2a"
  type: "Convolution"
  bottom: "enet1_4"
  top: "enet2_0_branch2a"
  param {
    lr_mult: 1
    decay_mult: 1
  }
  convolution_param {
    num_output: 32
    bias_term: false
    weight_filler {
      type: "msra"
    }
    bias_filler {
      type: "constant"
    }
    pad_h: 0
    pad_w: 0
    kernel_h: 2
    kernel_w: 2
    stride_h: 2
    stride_w: 2
    dilation: 1
  }
}
layer {
  name: "bn2_0_branch2a"
  type: "BN"
  bottom: "enet2_0_branch2a"
  top: "enet2_0_branch2a"
  param {
    lr_mult: 1
    decay_mult: 1
  }
  param {
    lr_mult: 2
    decay_mult: 0
  }
  bn_param {
    scale_filler {
      type: "constant"
      value: 1
    }
    shift_filler {
      type: "constant"
      value: 0.001
    }
  }
}
layer {
  name: "relu2_0_branch2a"
  type: "PReLU"
  bottom: "enet2_0_branch2a"
  top: "enet2_0_branch2a"
}
layer {
  name: "enet2_0_branch2b"
  type: "Convolution"
  bottom: "enet2_0_branch2a"
  top: "enet2_0_branch2b"
  param {
    lr_mult: 1
    decay_mult: 1
  }
  param {
    lr_mult: 2
    decay_mult: 0
  }
  convolution_param {
    num_output: 32
    bias_term: true
    weight_filler {
      type: "msra"
    }
    bias_filler {
      type: "constant"
    }
    pad_h: 1
    pad_w: 1
    kernel_h: 3
    kernel_w: 3
    stride_h: 1
    stride_w: 1
    dilation: 1
  }
}
layer {
  name: "bn2_0_branch2b"
  type: "BN"
  bottom: "enet2_0_branch2b"
  top: "enet2_0_branch2b"
  param {
    lr_mult: 1
    decay_mult: 1
  }
  param {
    lr_mult: 2
    decay_mult: 0
  }
  bn_param {
    scale_filler {
      type: "constant"
      value: 1
    }
    shift_filler {
      type: "constant"
      value: 0.001
    }
  }
}
layer {
  name: "relu2_0_branch2b"
  type: "PReLU"
  bottom: "enet2_0_branch2b"
  top: "enet2_0_branch2b"
}
layer {
  name: "enet2_0_branch2c"
  type: "Convolution"
  bottom: "enet2_0_branch2b"
  top: "enet2_0_branch2c"
  param {
    lr_mult: 1
    decay_mult: 1
  }
  convolution_param {
    num_output: 128
    bias_term: false
    weight_filler {
      type: "msra"
    }
    bias_filler {
      type: "constant"
    }
    pad_h: 0
    pad_w: 0
    kernel_h: 1
    kernel_w: 1
    stride_h: 1
    stride_w: 1
    dilation: 1
  }
}
layer {
  name: "bn2_0_branch2c"
  type: "BN"
  bottom: "enet2_0_branch2c"
  top: "enet2_0_branch2c"
  param {
    lr_mult: 1
    decay_mult: 1
  }
  param {
    lr_mult: 2
    decay_mult: 0
  }
  bn_param {
    scale_filler {
      type: "constant"
      value: 1
    }
    shift_filler {
      type: "constant"
      value: 0.001
    }
  }
}
layer {
  name: "dropout2_0_branch2c"
  type: "Dropout"
  bottom: "enet2_0_branch2c"
  top: "enet2_0_branch2c"
  dropout_param {
    dropout_ratio: 0.1
  }
}
layer {
  name: "enet2_0_branch1a"
  type: "Convolution"
  bottom: "enet1_4"
  top: "enet2_0_branch1a"
  param {
    lr_mult: 1
    decay_mult: 1
  }
  convolution_param {
    num_output: 128
    bias_term: false
    weight_filler {
      type: "msra"
    }
    bias_filler {
      type: "constant"
    }
    pad_h: 0
    pad_w: 0
    kernel_h: 1
    kernel_w: 1
    stride_h: 1
    stride_w: 1
    dilation: 1
  }
}
layer {
  name: "bn2_0_branch1a"
  type: "BN"
  bottom: "enet2_0_branch1a"
  top: "enet2_0_branch1a"
  param {
    lr_mult: 1
    decay_mult: 1
  }
  param {
    lr_mult: 2
    decay_mult: 0
  }
  bn_param {
    scale_filler {
      type: "constant"
      value: 1
    }
    shift_filler {
      type: "constant"
      value: 0.001
    }
  }
}
layer {
  name: "pool2_0_branch1a"
  type: "Pooling"
  bottom: "enet2_0_branch1a"
  top: "pool2_0_branch1a"
  top: "pool2_0_branch1a_mask"
  pooling_param {
    pool: MAX
    kernel_size: 2
    stride: 2
  }
}
layer {
  name: "enet2_0"
  type: "Eltwise"
  bottom: "pool2_0_branch1a"
  bottom: "enet2_0_branch2c"
  top: "enet2_0"
}
layer {
  name: "relu2_0"
  type: "PReLU"
  bottom: "enet2_0"
  top: "enet2_0"
}
layer {
  name: "enet2_1_branch2a"
  type: "Convolution"
  bottom: "enet2_0"
  top: "enet2_1_branch2a"
  param {
    lr_mult: 1
    decay_mult: 1
  }
  convolution_param {
    num_output: 32
    bias_term: false
    weight_filler {
      type: "msra"
    }
    bias_filler {
      type: "constant"
    }
    pad_h: 0
    pad_w: 0
    kernel_h: 1
    kernel_w: 1
    stride_h: 1
    stride_w: 1
    dilation: 1
  }
}
layer {
  name: "bn2_1_branch2a"
  type: "BN"
  bottom: "enet2_1_branch2a"
  top: "enet2_1_branch2a"
  param {
    lr_mult: 1
    decay_mult: 1
  }
  param {
    lr_mult: 2
    decay_mult: 0
  }
  bn_param {
    scale_filler {
      type: "constant"
      value: 1
    }
    shift_filler {
      type: "constant"
      value: 0.001
    }
  }
}
layer {
  name: "relu2_1_branch2a"
  type: "PReLU"
  bottom: "enet2_1_branch2a"
  top: "enet2_1_branch2a"
}
layer {
  name: "enet2_1_branch2b"
  type: "Convolution"
  bottom: "enet2_1_branch2a"
  top: "enet2_1_branch2b"
  param {
    lr_mult: 1
    decay_mult: 1
  }
  param {
    lr_mult: 2
    decay_mult: 0
  }
  convolution_param {
    num_output: 32
    bias_term: true
    weight_filler {
      type: "msra"
    }
    bias_filler {
      type: "constant"
    }
    pad_h: 1
    pad_w: 1
    kernel_h: 3
    kernel_w: 3
    stride_h: 1
    stride_w: 1
    dilation: 1
  }
}
layer {
  name: "bn2_1_branch2b"
  type: "BN"
  bottom: "enet2_1_branch2b"
  top: "enet2_1_branch2b"
  param {
    lr_mult: 1
    decay_mult: 1
  }
  param {
    lr_mult: 2
    decay_mult: 0
  }
  bn_param {
    scale_filler {
      type: "constant"
      value: 1
    }
    shift_filler {
      type: "constant"
      value: 0.001
    }
  }
}
layer {
  name: "relu2_1_branch2b"
  type: "PReLU"
  bottom: "enet2_1_branch2b"
  top: "enet2_1_branch2b"
}
layer {
  name: "enet2_1_branch2c"
  type: "Convolution"
  bottom: "enet2_1_branch2b"
  top: "enet2_1_branch2c"
  param {
    lr_mult: 1
    decay_mult: 1
  }
  convolution_param {
    num_output: 128
    bias_term: false
    weight_filler {
      type: "msra"
    }
    bias_filler {
      type: "constant"
    }
    pad_h: 0
    pad_w: 0
    kernel_h: 1
    kernel_w: 1
    stride_h: 1
    stride_w: 1
    dilation: 1
  }
}
layer {
  name: "bn2_1_branch2c"
  type: "BN"
  bottom: "enet2_1_branch2c"
  top: "enet2_1_branch2c"
  param {
    lr_mult: 1
    decay_mult: 1
  }
  param {
    lr_mult: 2
    decay_mult: 0
  }
  bn_param {
    scale_filler {
      type: "constant"
      value: 1
    }
    shift_filler {
      type: "constant"
      value: 0.001
    }
  }
}
layer {
  name: "dropout2_1_branch2c"
  type: "Dropout"
  bottom: "enet2_1_branch2c"
  top: "enet2_1_branch2c"
  dropout_param {
    dropout_ratio: 0.1
  }
}
layer {
  name: "enet2_1"
  type: "Eltwise"
  bottom: "enet2_0"
  bottom: "enet2_1_branch2c"
  top: "enet2_1"
}
layer {
  name: "relu2_1"
  type: "PReLU"
  bottom: "enet2_1"
  top: "enet2_1"
}
layer {
  name: "enet2_2_branch2a"
  type: "Convolution"
  bottom: "enet2_1"
  top: "enet2_2_branch2a"
  param {
    lr_mult: 1
    decay_mult: 1
  }
  convolution_param {
    num_output: 32
    bias_term: false
    weight_filler {
      type: "msra"
    }
    bias_filler {
      type: "constant"
    }
    pad_h: 0
    pad_w: 0
    kernel_h: 1
    kernel_w: 1
    stride_h: 1
    stride_w: 1
    dilation: 1
  }
}
layer {
  name: "bn2_2_branch2a"
  type: "BN"
  bottom: "enet2_2_branch2a"
  top: "enet2_2_branch2a"
  param {
    lr_mult: 1
    decay_mult: 1
  }
  param {
    lr_mult: 2
    decay_mult: 0
  }
  bn_param {
    scale_filler {
      type: "constant"
      value: 1
    }
    shift_filler {
      type: "constant"
      value: 0.001
    }
  }
}
layer {
  name: "relu2_2_branch2a"
  type: "PReLU"
  bottom: "enet2_2_branch2a"
  top: "enet2_2_branch2a"
}
layer {
  name: "enet2_2_branch2b"
  type: "Convolution"
  bottom: "enet2_2_branch2a"
  top: "enet2_2_branch2b"
  param {
    lr_mult: 1
    decay_mult: 1
  }
  param {
    lr_mult: 2
    decay_mult: 0
  }
  convolution_param {
    num_output: 32
    bias_term: true
    weight_filler {
      type: "msra"
    }
    bias_filler {
      type: "constant"
    }
    pad_h: 2
    pad_w: 2
    kernel_h: 3
    kernel_w: 3
    stride_h: 1
    stride_w: 1
    dilation: 2
  }
}
layer {
  name: "bn2_2_branch2b"
  type: "BN"
  bottom: "enet2_2_branch2b"
  top: "enet2_2_branch2b"
  param {
    lr_mult: 1
    decay_mult: 1
  }
  param {
    lr_mult: 2
    decay_mult: 0
  }
  bn_param {
    scale_filler {
      type: "constant"
      value: 1
    }
    shift_filler {
      type: "constant"
      value: 0.001
    }
  }
}
layer {
  name: "relu2_2_branch2b"
  type: "PReLU"
  bottom: "enet2_2_branch2b"
  top: "enet2_2_branch2b"
}
layer {
  name: "enet2_2_branch2c"
  type: "Convolution"
  bottom: "enet2_2_branch2b"
  top: "enet2_2_branch2c"
  param {
    lr_mult: 1
    decay_mult: 1
  }
  convolution_param {
    num_output: 128
    bias_term: false
    weight_filler {
      type: "msra"
    }
    bias_filler {
      type: "constant"
    }
    pad_h: 0
    pad_w: 0
    kernel_h: 1
    kernel_w: 1
    stride_h: 1
    stride_w: 1
    dilation: 1
  }
}
layer {
  name: "bn2_2_branch2c"
  type: "BN"
  bottom: "enet2_2_branch2c"
  top: "enet2_2_branch2c"
  param {
    lr_mult: 1
    decay_mult: 1
  }
  param {
    lr_mult: 2
    decay_mult: 0
  }
  bn_param {
    scale_filler {
      type: "constant"
      value: 1
    }
    shift_filler {
      type: "constant"
      value: 0.001
    }
  }
}
layer {
  name: "dropout2_2_branch2c"
  type: "Dropout"
  bottom: "enet2_2_branch2c"
  top: "enet2_2_branch2c"
  dropout_param {
    dropout_ratio: 0.1
  }
}
layer {
  name: "enet2_2"
  type: "Eltwise"
  bottom: "enet2_1"
  bottom: "enet2_2_branch2c"
  top: "enet2_2"
}
layer {
  name: "relu2_2"
  type: "PReLU"
  bottom: "enet2_2"
  top: "enet2_2"
}
layer {
  name: "enet2_3_branch2a"
  type: "Convolution"
  bottom: "enet2_2"
  top: "enet2_3_branch2a"
  param {
    lr_mult: 1
    decay_mult: 1
  }
  convolution_param {
    num_output: 32
    bias_term: false
    weight_filler {
      type: "msra"
    }
    bias_filler {
      type: "constant"
    }
    pad_h: 0
    pad_w: 0
    kernel_h: 1
    kernel_w: 1
    stride_h: 1
    stride_w: 1
    dilation: 1
  }
}
layer {
  name: "bn2_3_branch2a"
  type: "BN"
  bottom: "enet2_3_branch2a"
  top: "enet2_3_branch2a"
  param {
    lr_mult: 1
    decay_mult: 1
  }
  param {
    lr_mult: 2
    decay_mult: 0
  }
  bn_param {
    scale_filler {
      type: "constant"
      value: 1
    }
    shift_filler {
      type: "constant"
      value: 0.001
    }
  }
}
layer {
  name: "relu2_3_branch2a"
  type: "PReLU"
  bottom: "enet2_3_branch2a"
  top: "enet2_3_branch2a"
}
layer {
  name: "enet2_3_branch2b1"
  type: "Convolution"
  bottom: "enet2_3_branch2a"
  top: "enet2_3_branch2b1"
  param {
    lr_mult: 1
    decay_mult: 1
  }
  convolution_param {
    num_output: 32
    bias_term: false
    weight_filler {
      type: "msra"
    }
    bias_filler {
      type: "constant"
    }
    pad_h: 0
    pad_w: 2
    kernel_h: 1
    kernel_w: 5
    stride_h: 1
    stride_w: 1
    dilation: 1
  }
}
layer {
  name: "enet2_3_branch2b"
  type: "Convolution"
  bottom: "enet2_3_branch2b1"
  top: "enet2_3_branch2b"
  param {
    lr_mult: 1
    decay_mult: 1
  }
  param {
    lr_mult: 2
    decay_mult: 0
  }
  convolution_param {
    num_output: 32
    bias_term: true
    weight_filler {
      type: "msra"
    }
    bias_filler {
      type: "constant"
    }
    pad_h: 2
    pad_w: 0
    kernel_h: 5
    kernel_w: 1
    stride_h: 1
    stride_w: 1
    dilation: 1
  }
}
layer {
  name: "bn2_3_branch2b"
  type: "BN"
  bottom: "enet2_3_branch2b"
  top: "enet2_3_branch2b"
  param {
    lr_mult: 1
    decay_mult: 1
  }
  param {
    lr_mult: 2
    decay_mult: 0
  }
  bn_param {
    scale_filler {
      type: "constant"
      value: 1
    }
    shift_filler {
      type: "constant"
      value: 0.001
    }
  }
}
layer {
  name: "relu2_3_branch2b"
  type: "PReLU"
  bottom: "enet2_3_branch2b"
  top: "enet2_3_branch2b"
}
layer {
  name: "enet2_3_branch2c"
  type: "Convolution"
  bottom: "enet2_3_branch2b"
  top: "enet2_3_branch2c"
  param {
    lr_mult: 1
    decay_mult: 1
  }
  convolution_param {
    num_output: 128
    bias_term: false
    weight_filler {
      type: "msra"
    }
    bias_filler {
      type: "constant"
    }
    pad_h: 0
    pad_w: 0
    kernel_h: 1
    kernel_w: 1
    stride_h: 1
    stride_w: 1
    dilation: 1
  }
}
layer {
  name: "bn2_3_branch2c"
  type: "BN"
  bottom: "enet2_3_branch2c"
  top: "enet2_3_branch2c"
  param {
    lr_mult: 1
    decay_mult: 1
  }
  param {
    lr_mult: 2
    decay_mult: 0
  }
  bn_param {
    scale_filler {
      type: "constant"
      value: 1
    }
    shift_filler {
      type: "constant"
      value: 0.001
    }
  }
}
layer {
  name: "
I0112 16:13:05.796784 14514 layer_factory.hpp:77] Creating layer data
I0112 16:13:05.796867 14514 net.cpp:106] Creating Layer data
I0112 16:13:05.796885 14514 net.cpp:411] data -> data
I0112 16:13:05.796934 14514 net.cpp:411] data -> label
I0112 16:13:05.796960 14514 net.cpp:411] data -> (automatic)
I0112 16:13:05.797557 14514 image_seg_data_layer.cpp:46] Opening file /home/map/liuli/datasets/enet_multclass/train_new_carD/train/enet_train.list
I0112 16:13:05.813165 14514 image_seg_data_layer.cpp:63] Shuffling data
I0112 16:13:05.814692 14514 image_seg_data_layer.cpp:68] A total of 9840 images.
I0112 16:13:05.847980 14514 image_seg_data_layer.cpp:147] output data size: 4,3,376,1240
I0112 16:13:05.848001 14514 image_seg_data_layer.cpp:151] output label size: 4,1,376,1240
I0112 16:13:05.848008 14514 image_seg_data_layer.cpp:155] output data_dim size: 4,1,1,2
I0112 16:13:06.051990 14514 net.cpp:150] Setting up data
I0112 16:13:06.052043 14514 net.cpp:157] Top shape: 4 3 376 1240 (5594880)
I0112 16:13:06.052059 14514 net.cpp:157] Top shape: 4 1 376 1240 (1864960)
I0112 16:13:06.052068 14514 net.cpp:157] Top shape: 4 1 1 2 (8)
I0112 16:13:06.052075 14514 net.cpp:165] Memory required for data: 29839392
I0112 16:13:06.052090 14514 layer_factory.hpp:77] Creating layer data_data_0_split
I0112 16:13:06.052114 14514 net.cpp:106] Creating Layer data_data_0_split
I0112 16:13:06.052124 14514 net.cpp:454] data_data_0_split <- data
I0112 16:13:06.052151 14514 net.cpp:411] data_data_0_split -> data_data_0_split_0
I0112 16:13:06.052170 14514 net.cpp:411] data_data_0_split -> data_data_0_split_1
I0112 16:13:06.052239 14514 net.cpp:150] Setting up data_data_0_split
I0112 16:13:06.052253 14514 net.cpp:157] Top shape: 4 3 376 1240 (5594880)
I0112 16:13:06.052263 14514 net.cpp:157] Top shape: 4 3 376 1240 (5594880)
I0112 16:13:06.052268 14514 net.cpp:165] Memory required for data: 74598432
I0112 16:13:06.052275 14514 layer_factory.hpp:77] Creating layer label_data_1_split
I0112 16:13:06.052285 14514 net.cpp:106] Creating Layer label_data_1_split
I0112 16:13:06.052322 14514 net.cpp:454] label_data_1_split <- label
I0112 16:13:06.052336 14514 net.cpp:411] label_data_1_split -> label_data_1_split_0
I0112 16:13:06.052348 14514 net.cpp:411] label_data_1_split -> label_data_1_split_1
I0112 16:13:06.052395 14514 net.cpp:150] Setting up label_data_1_split
I0112 16:13:06.052407 14514 net.cpp:157] Top shape: 4 1 376 1240 (1864960)
I0112 16:13:06.052415 14514 net.cpp:157] Top shape: 4 1 376 1240 (1864960)
I0112 16:13:06.052422 14514 net.cpp:165] Memory required for data: 89518112
I0112 16:13:06.052428 14514 layer_factory.hpp:77] Creating layer enet_initial_branch2a
I0112 16:13:06.052460 14514 net.cpp:106] Creating Layer enet_initial_branch2a
I0112 16:13:06.052469 14514 net.cpp:454] enet_initial_branch2a <- data_data_0_split_0
I0112 16:13:06.052481 14514 net.cpp:411] enet_initial_branch2a -> enet_initial_branch2a
I0112 16:13:06.207633 14514 net.cpp:150] Setting up enet_initial_branch2a
I0112 16:13:06.207679 14514 net.cpp:157] Top shape: 4 13 188 620 (6061120)
I0112 16:13:06.207687 14514 net.cpp:165] Memory required for data: 113762592
I0112 16:13:06.207718 14514 layer_factory.hpp:77] Creating layer pool_initial_branch1a
I0112 16:13:06.207743 14514 net.cpp:106] Creating Layer pool_initial_branch1a
I0112 16:13:06.207752 14514 net.cpp:454] pool_initial_branch1a <- data_data_0_split_1
I0112 16:13:06.207764 14514 net.cpp:411] pool_initial_branch1a -> pool_initial_branch1a
I0112 16:13:06.207851 14514 net.cpp:150] Setting up pool_initial_branch1a
I0112 16:13:06.207867 14514 net.cpp:157] Top shape: 4 3 188 620 (1398720)
I0112 16:13:06.207873 14514 net.cpp:165] Memory required for data: 119357472
I0112 16:13:06.207880 14514 layer_factory.hpp:77] Creating layer enet_initial
I0112 16:13:06.207895 14514 net.cpp:106] Creating Layer enet_initial
I0112 16:13:06.207902 14514 net.cpp:454] enet_initial <- enet_initial_branch2a
I0112 16:13:06.207911 14514 net.cpp:454] enet_initial <- pool_initial_branch1a
I0112 16:13:06.207923 14514 net.cpp:411] enet_initial -> enet_initial
I0112 16:13:06.207968 14514 net.cpp:150] Setting up enet_initial
I0112 16:13:06.207980 14514 net.cpp:157] Top shape: 4 16 188 620 (7459840)
I0112 16:13:06.207988 14514 net.cpp:165] Memory required for data: 149196832
I0112 16:13:06.207994 14514 layer_factory.hpp:77] Creating layer bn_initial
I0112 16:13:06.208014 14514 net.cpp:106] Creating Layer bn_initial
I0112 16:13:06.208021 14514 net.cpp:454] bn_initial <- enet_initial
I0112 16:13:06.208034 14514 net.cpp:397] bn_initial -> enet_initial (in-place)
I0112 16:13:06.209487 14514 net.cpp:150] Setting up bn_initial
I0112 16:13:06.209504 14514 net.cpp:157] Top shape: 4 16 188 620 (7459840)
I0112 16:13:06.209512 14514 net.cpp:165] Memory required for data: 179036192
I0112 16:13:06.209527 14514 layer_factory.hpp:77] Creating layer relu_initial
I0112 16:13:06.209542 14514 net.cpp:106] Creating Layer relu_initial
I0112 16:13:06.209549 14514 net.cpp:454] relu_initial <- enet_initial
I0112 16:13:06.209559 14514 net.cpp:397] relu_initial -> enet_initial (in-place)
I0112 16:13:06.218355 14514 net.cpp:150] Setting up relu_initial
I0112 16:13:06.218400 14514 net.cpp:157] Top shape: 4 16 188 620 (7459840)
I0112 16:13:06.218408 14514 net.cpp:165] Memory required for data: 208875552
I0112 16:13:06.218428 14514 layer_factory.hpp:77] Creating layer enet_initial_relu_initial_0_split
I0112 16:13:06.218451 14514 net.cpp:106] Creating Layer enet_initial_relu_initial_0_split
I0112 16:13:06.218461 14514 net.cpp:454] enet_initial_relu_initial_0_split <- enet_initial
I0112 16:13:06.218475 14514 net.cpp:411] enet_initial_relu_initial_0_split -> enet_initial_relu_initial_0_split_0
I0112 16:13:06.218497 14514 net.cpp:411] enet_initial_relu_initial_0_split -> enet_initial_relu_initial_0_split_1
I0112 16:13:06.218552 14514 net.cpp:150] Setting up enet_initial_relu_initial_0_split
I0112 16:13:06.218565 14514 net.cpp:157] Top shape: 4 16 188 620 (7459840)
I0112 16:13:06.218575 14514 net.cpp:157] Top shape: 4 16 188 620 (7459840)
I0112 16:13:06.218580 14514 net.cpp:165] Memory required for data: 268554272
I0112 16:13:06.218618 14514 layer_factory.hpp:77] Creating layer enet1_0_branch2a
I0112 16:13:06.218642 14514 net.cpp:106] Creating Layer enet1_0_branch2a
I0112 16:13:06.218650 14514 net.cpp:454] enet1_0_branch2a <- enet_initial_relu_initial_0_split_0
I0112 16:13:06.218663 14514 net.cpp:411] enet1_0_branch2a -> enet1_0_branch2a
I0112 16:13:06.221742 14514 net.cpp:150] Setting up enet1_0_branch2a
I0112 16:13:06.221765 14514 net.cpp:157] Top shape: 4 16 94 310 (1864960)
I0112 16:13:06.221772 14514 net.cpp:165] Memory required for data: 276014112
I0112 16:13:06.221782 14514 layer_factory.hpp:77] Creating layer bn1_0_branch2a
I0112 16:13:06.221801 14514 net.cpp:106] Creating Layer bn1_0_branch2a
I0112 16:13:06.221808 14514 net.cpp:454] bn1_0_branch2a <- enet1_0_branch2a
I0112 16:13:06.221822 14514 net.cpp:397] bn1_0_branch2a -> enet1_0_branch2a (in-place)
I0112 16:13:06.223235 14514 net.cpp:150] Setting up bn1_0_branch2a
I0112 16:13:06.223254 14514 net.cpp:157] Top shape: 4 16 94 310 (1864960)
I0112 16:13:06.223263 14514 net.cpp:165] Memory required for data: 283473952
I0112 16:13:06.223273 14514 layer_factory.hpp:77] Creating layer relu1_0_branch2a
I0112 16:13:06.223285 14514 net.cpp:106] Creating Layer relu1_0_branch2a
I0112 16:13:06.223294 14514 net.cpp:454] relu1_0_branch2a <- enet1_0_branch2a
I0112 16:13:06.223302 14514 net.cpp:397] relu1_0_branch2a -> enet1_0_branch2a (in-place)
I0112 16:13:06.225740 14514 net.cpp:150] Setting up relu1_0_branch2a
I0112 16:13:06.225760 14514 net.cpp:157] Top shape: 4 16 94 310 (1864960)
I0112 16:13:06.225767 14514 net.cpp:165] Memory required for data: 290933792
I0112 16:13:06.225785 14514 layer_factory.hpp:77] Creating layer enet1_0_branch2b
I0112 16:13:06.225806 14514 net.cpp:106] Creating Layer enet1_0_branch2b
I0112 16:13:06.225816 14514 net.cpp:454] enet1_0_branch2b <- enet1_0_branch2a
I0112 16:13:06.225829 14514 net.cpp:411] enet1_0_branch2b -> enet1_0_branch2b
I0112 16:13:06.231154 14514 net.cpp:150] Setting up enet1_0_branch2b
I0112 16:13:06.231174 14514 net.cpp:157] Top shape: 4 16 94 310 (1864960)
I0112 16:13:06.231182 14514 net.cpp:165] Memory required for data: 298393632
I0112 16:13:06.231194 14514 layer_factory.hpp:77] Creating layer bn1_0_branch2b
I0112 16:13:06.231211 14514 net.cpp:106] Creating Layer bn1_0_branch2b
I0112 16:13:06.231220 14514 net.cpp:454] bn1_0_branch2b <- enet1_0_branch2b
I0112 16:13:06.231233 14514 net.cpp:397] bn1_0_branch2b -> enet1_0_branch2b (in-place)
I0112 16:13:06.231549 14514 net.cpp:150] Setting up bn1_0_branch2b
I0112 16:13:06.231564 14514 net.cpp:157] Top shape: 4 16 94 310 (1864960)
I0112 16:13:06.231571 14514 net.cpp:165] Memory required for data: 305853472
I0112 16:13:06.231581 14514 layer_factory.hpp:77] Creating layer relu1_0_branch2b
I0112 16:13:06.231596 14514 net.cpp:106] Creating Layer relu1_0_branch2b
I0112 16:13:06.231604 14514 net.cpp:454] relu1_0_branch2b <- enet1_0_branch2b
I0112 16:13:06.231613 14514 net.cpp:397] relu1_0_branch2b -> enet1_0_branch2b (in-place)
I0112 16:13:06.233850 14514 net.cpp:150] Setting up relu1_0_branch2b
I0112 16:13:06.233867 14514 net.cpp:157] Top shape: 4 16 94 310 (1864960)
I0112 16:13:06.233875 14514 net.cpp:165] Memory required for data: 313313312
I0112 16:13:06.233885 14514 layer_factory.hpp:77] Creating layer enet1_0_branch2c
I0112 16:13:06.233901 14514 net.cpp:106] Creating Layer enet1_0_branch2c
I0112 16:13:06.233911 14514 net.cpp:454] enet1_0_branch2c <- enet1_0_branch2b
I0112 16:13:06.233924 14514 net.cpp:411] enet1_0_branch2c -> enet1_0_branch2c
I0112 16:13:06.236889 14514 net.cpp:150] Setting up enet1_0_branch2c
I0112 16:13:06.236907 14514 net.cpp:157] Top shape: 4 64 94 310 (7459840)
I0112 16:13:06.236915 14514 net.cpp:165] Memory required for data: 343152672
I0112 16:13:06.236925 14514 layer_factory.hpp:77] Creating layer bn1_0_branch2c
I0112 16:13:06.236943 14514 net.cpp:106] Creating Layer bn1_0_branch2c
I0112 16:13:06.236953 14514 net.cpp:454] bn1_0_branch2c <- enet1_0_branch2c
I0112 16:13:06.236965 14514 net.cpp:397] bn1_0_branch2c -> enet1_0_branch2c (in-place)
I0112 16:13:06.237304 14514 net.cpp:150] Setting up bn1_0_branch2c
I0112 16:13:06.237334 14514 net.cpp:157] Top shape: 4 64 94 310 (7459840)
I0112 16:13:06.237340 14514 net.cpp:165] Memory required for data: 372992032
I0112 16:13:06.237357 14514 layer_factory.hpp:77] Creating layer dropout1_0_branch2c
I0112 16:13:06.237375 14514 net.cpp:106] Creating Layer dropout1_0_branch2c
I0112 16:13:06.237382 14514 net.cpp:454] dropout1_0_branch2c <- enet1_0_branch2c
I0112 16:13:06.237392 14514 net.cpp:397] dropout1_0_branch2c -> enet1_0_branch2c (in-place)
I0112 16:13:06.237444 14514 net.cpp:150] Setting up dropout1_0_branch2c
I0112 16:13:06.237457 14514 net.cpp:157] Top shape: 4 64 94 310 (7459840)
I0112 16:13:06.237464 14514 net.cpp:165] Memory required for data: 402831392
I0112 16:13:06.237470 14514 layer_factory.hpp:77] Creating layer enet1_0_branch1a
I0112 16:13:06.237488 14514 net.cpp:106] Creating Layer enet1_0_branch1a
I0112 16:13:06.237496 14514 net.cpp:454] enet1_0_branch1a <- enet_initial_relu_initial_0_split_1
I0112 16:13:06.237509 14514 net.cpp:411] enet1_0_branch1a -> enet1_0_branch1a
I0112 16:13:06.240346 14514 net.cpp:150] Setting up enet1_0_branch1a
I0112 16:13:06.240365 14514 net.cpp:157] Top shape: 4 64 188 620 (29839360)
I0112 16:13:06.240372 14514 net.cpp:165] Memory required for data: 522188832
I0112 16:13:06.240382 14514 layer_factory.hpp:77] Creating layer bn1_0_branch1a
I0112 16:13:06.240397 14514 net.cpp:106] Creating Layer bn1_0_branch1a
I0112 16:13:06.240406 14514 net.cpp:454] bn1_0_branch1a <- enet1_0_branch1a
I0112 16:13:06.240418 14514 net.cpp:397] bn1_0_branch1a -> enet1_0_branch1a (in-place)
I0112 16:13:06.241848 14514 net.cpp:150] Setting up bn1_0_branch1a
I0112 16:13:06.241866 14514 net.cpp:157] Top shape: 4 64 188 620 (29839360)
I0112 16:13:06.241873 14514 net.cpp:165] Memory required for data: 641546272
I0112 16:13:06.241884 14514 layer_factory.hpp:77] Creating layer pool1_0_branch1a
I0112 16:13:06.241892 14514 layer_factory.cpp:91] cuDNN does not support multiple tops. Using Caffe's own pooling layer.
I0112 16:13:06.241906 14514 net.cpp:106] Creating Layer pool1_0_branch1a
I0112 16:13:06.241914 14514 net.cpp:454] pool1_0_branch1a <- enet1_0_branch1a
I0112 16:13:06.241925 14514 net.cpp:411] pool1_0_branch1a -> pool1_0_branch1a
I0112 16:13:06.241942 14514 net.cpp:411] pool1_0_branch1a -> pool1_0_branch1a_mask
I0112 16:13:06.241997 14514 net.cpp:150] Setting up pool1_0_branch1a
I0112 16:13:06.242010 14514 net.cpp:157] Top shape: 4 64 94 310 (7459840)
I0112 16:13:06.242019 14514 net.cpp:157] Top shape: 4 64 94 310 (7459840)
I0112 16:13:06.242025 14514 net.cpp:165] Memory required for data: 701224992
I0112 16:13:06.242032 14514 layer_factory.hpp:77] Creating layer enet1_0
I0112 16:13:06.242048 14514 net.cpp:106] Creating Layer enet1_0
I0112 16:13:06.242059 14514 net.cpp:454] enet1_0 <- pool1_0_branch1a
I0112 16:13:06.242069 14514 net.cpp:454] enet1_0 <- enet1_0_branch2c
I0112 16:13:06.242077 14514 net.cpp:411] enet1_0 -> enet1_0
I0112 16:13:06.242122 14514 net.cpp:150] Setting up enet1_0
I0112 16:13:06.242136 14514 net.cpp:157] Top shape: 4 64 94 310 (7459840)
I0112 16:13:06.242141 14514 net.cpp:165] Memory required for data: 731064352
I0112 16:13:06.242148 14514 layer_factory.hpp:77] Creating layer relu1_0
I0112 16:13:06.242161 14514 net.cpp:106] Creating Layer relu1_0
I0112 16:13:06.242167 14514 net.cpp:454] relu1_0 <- enet1_0
I0112 16:13:06.242177 14514 net.cpp:397] relu1_0 -> enet1_0 (in-place)
I0112 16:13:06.250771 14514 net.cpp:150] Setting up relu1_0
I0112 16:13:06.250815 14514 net.cpp:157] Top shape: 4 64 94 310 (7459840)
I0112 16:13:06.250823 14514 net.cpp:165] Memory required for data: 760903712
I0112 16:13:06.250836 14514 layer_factory.hpp:77] Creating layer enet1_0_relu1_0_0_split
I0112 16:13:06.250854 14514 net.cpp:106] Creating Layer enet1_0_relu1_0_0_split
I0112 16:13:06.250862 14514 net.cpp:454] enet1_0_relu1_0_0_split <- enet1_0
I0112 16:13:06.250876 14514 net.cpp:411] enet1_0_relu1_0_0_split -> enet1_0_relu1_0_0_split_0
I0112 16:13:06.250896 14514 net.cpp:411] enet1_0_relu1_0_0_split -> enet1_0_relu1_0_0_split_1
I0112 16:13:06.250988 14514 net.cpp:150] Setting up enet1_0_relu1_0_0_split
I0112 16:13:06.251000 14514 net.cpp:157] Top shape: 4 64 94 310 (7459840)
I0112 16:13:06.251008 14514 net.cpp:157] Top shape: 4 64 94 310 (7459840)
I0112 16:13:06.251015 14514 net.cpp:165] Memory required for data: 820582432
I0112 16:13:06.251021 14514 layer_factory.hpp:77] Creating layer enet1_1_branch2a
I0112 16:13:06.251044 14514 net.cpp:106] Creating Layer enet1_1_branch2a
I0112 16:13:06.251056 14514 net.cpp:454] enet1_1_branch2a <- enet1_0_relu1_0_0_split_0
I0112 16:13:06.251070 14514 net.cpp:411] enet1_1_branch2a -> enet1_1_branch2a
I0112 16:13:06.255460 14514 net.cpp:150] Setting up enet1_1_branch2a
I0112 16:13:06.255489 14514 net.cpp:157] Top shape: 4 16 94 310 (1864960)
I0112 16:13:06.255496 14514 net.cpp:165] Memory required for data: 828042272
I0112 16:13:06.255507 14514 layer_factory.hpp:77] Creating layer bn1_1_branch2a
I0112 16:13:06.255528 14514 net.cpp:106] Creating Layer bn1_1_branch2a
I0112 16:13:06.255537 14514 net.cpp:454] bn1_1_branch2a <- enet1_1_branch2a
I0112 16:13:06.255549 14514 net.cpp:397] bn1_1_branch2a -> enet1_1_branch2a (in-place)
I0112 16:13:06.257009 14514 net.cpp:150] Setting up bn1_1_branch2a
I0112 16:13:06.257026 14514 net.cpp:157] Top shape: 4 16 94 310 (1864960)
I0112 16:13:06.257035 14514 net.cpp:165] Memory required for data: 835502112
I0112 16:13:06.257045 14514 layer_factory.hpp:77] Creating layer relu1_1_branch2a
I0112 16:13:06.257066 14514 net.cpp:106] Creating Layer relu1_1_branch2a
I0112 16:13:06.257072 14514 net.cpp:454] relu1_1_branch2a <- enet1_1_branch2a
I0112 16:13:06.257083 14514 net.cpp:397] relu1_1_branch2a -> enet1_1_branch2a (in-place)
I0112 16:13:06.259907 14514 net.cpp:150] Setting up relu1_1_branch2a
I0112 16:13:06.259928 14514 net.cpp:157] Top shape: 4 16 94 310 (1864960)
I0112 16:13:06.259935 14514 net.cpp:165] Memory required for data: 842961952
I0112 16:13:06.259946 14514 layer_factory.hpp:77] Creating layer enet1_1_branch2b
I0112 16:13:06.260143 14514 net.cpp:106] Creating Layer enet1_1_branch2b
I0112 16:13:06.260152 14514 net.cpp:454] enet1_1_branch2b <- enet1_1_branch2a
I0112 16:13:06.260169 14514 net.cpp:411] enet1_1_branch2b -> enet1_1_branch2b
I0112 16:13:06.263346 14514 net.cpp:150] Setting up enet1_1_branch2b
I0112 16:13:06.263366 14514 net.cpp:157] Top shape: 4 16 94 310 (1864960)
I0112 16:13:06.263375 14514 net.cpp:165] Memory required for data: 850421792
I0112 16:13:06.263386 14514 layer_factory.hpp:77] Creating layer bn1_1_branch2b
I0112 16:13:06.263402 14514 net.cpp:106] Creating Layer bn1_1_branch2b
I0112 16:13:06.263413 14514 net.cpp:454] bn1_1_branch2b <- enet1_1_branch2b
I0112 16:13:06.263424 14514 net.cpp:397] bn1_1_branch2b -> enet1_1_branch2b (in-place)
I0112 16:13:06.263756 14514 net.cpp:150] Setting up bn1_1_branch2b
I0112 16:13:06.263772 14514 net.cpp:157] Top shape: 4 16 94 310 (1864960)
I0112 16:13:06.263777 14514 net.cpp:165] Memory required for data: 857881632
I0112 16:13:06.263788 14514 layer_factory.hpp:77] Creating layer relu1_1_branch2b
I0112 16:13:06.263799 14514 net.cpp:106] Creating Layer relu1_1_branch2b
I0112 16:13:06.263806 14514 net.cpp:454] relu1_1_branch2b <- enet1_1_branch2b
I0112 16:13:06.263816 14514 net.cpp:397] relu1_1_branch2b -> enet1_1_branch2b (in-place)
I0112 16:13:06.266072 14514 net.cpp:150] Setting up relu1_1_branch2b
I0112 16:13:06.266089 14514 net.cpp:157] Top shape: 4 16 94 310 (1864960)
I0112 16:13:06.266096 14514 net.cpp:165] Memory required for data: 865341472
I0112 16:13:06.266106 14514 layer_factory.hpp:77] Creating layer enet1_1_branch2c
I0112 16:13:06.266124 14514 net.cpp:106] Creating Layer enet1_1_branch2c
I0112 16:13:06.266134 14514 net.cpp:454] enet1_1_branch2c <- enet1_1_branch2b
I0112 16:13:06.266144 14514 net.cpp:411] enet1_1_branch2c -> enet1_1_branch2c
I0112 16:13:06.269228 14514 net.cpp:150] Setting up enet1_1_branch2c
I0112 16:13:06.269248 14514 net.cpp:157] Top shape: 4 64 94 310 (7459840)
I0112 16:13:06.269254 14514 net.cpp:165] Memory required for data: 895180832
I0112 16:13:06.269287 14514 layer_factory.hpp:77] Creating layer bn1_1_branch2c
I0112 16:13:06.269320 14514 net.cpp:106] Creating Layer bn1_1_branch2c
I0112 16:13:06.269330 14514 net.cpp:454] bn1_1_branch2c <- enet1_1_branch2c
I0112 16:13:06.269340 14514 net.cpp:397] bn1_1_branch2c -> enet1_1_branch2c (in-place)
I0112 16:13:06.269675 14514 net.cpp:150] Setting up bn1_1_branch2c
I0112 16:13:06.269690 14514 net.cpp:157] Top shape: 4 64 94 310 (7459840)
I0112 16:13:06.269696 14514 net.cpp:165] Memory required for data: 925020192
I0112 16:13:06.269718 14514 layer_factory.hpp:77] Creating layer dropout1_1_branch2c
I0112 16:13:06.269738 14514 net.cpp:106] Creating Layer dropout1_1_branch2c
I0112 16:13:06.269747 14514 net.cpp:454] dropout1_1_branch2c <- enet1_1_branch2c
I0112 16:13:06.269757 14514 net.cpp:397] dropout1_1_branch2c -> enet1_1_branch2c (in-place)
I0112 16:13:06.269801 14514 net.cpp:150] Setting up dropout1_1_branch2c
I0112 16:13:06.269814 14514 net.cpp:157] Top shape: 4 64 94 310 (7459840)
I0112 16:13:06.269820 14514 net.cpp:165] Memory required for data: 954859552
I0112 16:13:06.269826 14514 layer_factory.hpp:77] Creating layer enet1_1
I0112 16:13:06.269837 14514 net.cpp:106] Creating Layer enet1_1
I0112 16:13:06.269845 14514 net.cpp:454] enet1_1 <- enet1_0_relu1_0_0_split_1
I0112 16:13:06.269853 14514 net.cpp:454] enet1_1 <- enet1_1_branch2c
I0112 16:13:06.269865 14514 net.cpp:411] enet1_1 -> enet1_1
I0112 16:13:06.269903 14514 net.cpp:150] Setting up enet1_1
I0112 16:13:06.269915 14514 net.cpp:157] Top shape: 4 64 94 310 (7459840)
I0112 16:13:06.269922 14514 net.cpp:165] Memory required for data: 984698912
I0112 16:13:06.269928 14514 layer_factory.hpp:77] Creating layer relu1_1
I0112 16:13:06.269940 14514 net.cpp:106] Creating Layer relu1_1
I0112 16:13:06.269948 14514 net.cpp:454] relu1_1 <- enet1_1
I0112 16:13:06.269958 14514 net.cpp:397] relu1_1 -> enet1_1 (in-place)
I0112 16:13:06.278283 14514 net.cpp:150] Setting up relu1_1
I0112 16:13:06.278311 14514 net.cpp:157] Top shape: 4 64 94 310 (7459840)
I0112 16:13:06.278317 14514 net.cpp:165] Memory required for data: 1014538272
I0112 16:13:06.278328 14514 layer_factory.hpp:77] Creating layer enet1_1_relu1_1_0_split
I0112 16:13:06.278344 14514 net.cpp:106] Creating Layer enet1_1_relu1_1_0_split
I0112 16:13:06.278352 14514 net.cpp:454] enet1_1_relu1_1_0_split <- enet1_1
I0112 16:13:06.278363 14514 net.cpp:411] enet1_1_relu1_1_0_split -> enet1_1_relu1_1_0_split_0
I0112 16:13:06.278378 14514 net.cpp:411] enet1_1_relu1_1_0_split -> enet1_1_relu1_1_0_split_1
I0112 16:13:06.278439 14514 net.cpp:150] Setting up enet1_1_relu1_1_0_split
I0112 16:13:06.278451 14514 net.cpp:157] Top shape: 4 64 94 310 (7459840)
I0112 16:13:06.278460 14514 net.cpp:157] Top shape: 4 64 94 310 (7459840)
I0112 16:13:06.278465 14514 net.cpp:165] Memory required for data: 1074216992
I0112 16:13:06.278471 14514 layer_factory.hpp:77] Creating layer enet1_2_branch2a
I0112 16:13:06.278491 14514 net.cpp:106] Creating Layer enet1_2_branch2a
I0112 16:13:06.278498 14514 net.cpp:454] enet1_2_branch2a <- enet1_1_relu1_1_0_split_0
I0112 16:13:06.278509 14514 net.cpp:411] enet1_2_branch2a -> enet1_2_branch2a
I0112 16:13:06.281826 14514 net.cpp:150] Setting up enet1_2_branch2a
I0112 16:13:06.281847 14514 net.cpp:157] Top shape: 4 16 94 310 (1864960)
I0112 16:13:06.281855 14514 net.cpp:165] Memory required for data: 1081676832
I0112 16:13:06.281867 14514 layer_factory.hpp:77] Creating layer bn1_2_branch2a
I0112 16:13:06.281891 14514 net.cpp:106] Creating Layer bn1_2_branch2a
I0112 16:13:06.281901 14514 net.cpp:454] bn1_2_branch2a <- enet1_2_branch2a
I0112 16:13:06.281916 14514 net.cpp:397] bn1_2_branch2a -> enet1_2_branch2a (in-place)
I0112 16:13:06.282289 14514 net.cpp:150] Setting up bn1_2_branch2a
I0112 16:13:06.282305 14514 net.cpp:157] Top shape: 4 16 94 310 (1864960)
I0112 16:13:06.282311 14514 net.cpp:165] Memory required for data: 1089136672
I0112 16:13:06.282322 14514 layer_factory.hpp:77] Creating layer relu1_2_branch2a
I0112 16:13:06.282333 14514 net.cpp:106] Creating Layer relu1_2_branch2a
I0112 16:13:06.282361 14514 net.cpp:454] relu1_2_branch2a <- enet1_2_branch2a
I0112 16:13:06.282387 14514 net.cpp:397] relu1_2_branch2a -> enet1_2_branch2a (in-place)
I0112 16:13:06.284979 14514 net.cpp:150] Setting up relu1_2_branch2a
I0112 16:13:06.285001 14514 net.cpp:157] Top shape: 4 16 94 310 (1864960)
I0112 16:13:06.285008 14514 net.cpp:165] Memory required for data: 1096596512
I0112 16:13:06.285018 14514 layer_factory.hpp:77] Creating layer enet1_2_branch2b
I0112 16:13:06.285040 14514 net.cpp:106] Creating Layer enet1_2_branch2b
I0112 16:13:06.285048 14514 net.cpp:454] enet1_2_branch2b <- enet1_2_branch2a
I0112 16:13:06.285068 14514 net.cpp:411] enet1_2_branch2b -> enet1_2_branch2b
I0112 16:13:06.289357 14514 net.cpp:150] Setting up enet1_2_branch2b
I0112 16:13:06.289391 14514 net.cpp:157] Top shape: 4 16 94 310 (1864960)
I0112 16:13:06.289398 14514 net.cpp:165] Memory required for data: 1104056352
I0112 16:13:06.289412 14514 layer_factory.hpp:77] Creating layer bn1_2_branch2b
I0112 16:13:06.289433 14514 net.cpp:106] Creating Layer bn1_2_branch2b
I0112 16:13:06.289441 14514 net.cpp:454] bn1_2_branch2b <- enet1_2_branch2b
I0112 16:13:06.289456 14514 net.cpp:397] bn1_2_branch2b -> enet1_2_branch2b (in-place)
I0112 16:13:06.289801 14514 net.cpp:150] Setting up bn1_2_branch2b
I0112 16:13:06.289816 14514 net.cpp:157] Top shape: 4 16 94 310 (1864960)
I0112 16:13:06.289824 14514 net.cpp:165] Memory required for data: 1111516192
I0112 16:13:06.289834 14514 layer_factory.hpp:77] Creating layer relu1_2_branch2b
I0112 16:13:06.289846 14514 net.cpp:106] Creating Layer relu1_2_branch2b
I0112 16:13:06.289854 14514 net.cpp:454] relu1_2_branch2b <- enet1_2_branch2b
I0112 16:13:06.289862 14514 net.cpp:397] relu1_2_branch2b -> enet1_2_branch2b (in-place)
I0112 16:13:06.293438 14514 net.cpp:150] Setting up relu1_2_branch2b
I0112 16:13:06.293457 14514 net.cpp:157] Top shape: 4 16 94 310 (1864960)
I0112 16:13:06.293463 14514 net.cpp:165] Memory required for data: 1118976032
I0112 16:13:06.293473 14514 layer_factory.hpp:77] Creating layer enet1_2_branch2c
I0112 16:13:06.293495 14514 net.cpp:106] Creating Layer enet1_2_branch2c
I0112 16:13:06.293503 14514 net.cpp:454] enet1_2_branch2c <- enet1_2_branch2b
I0112 16:13:06.293517 14514 net.cpp:411] enet1_2_branch2c -> enet1_2_branch2c
I0112 16:13:06.296958 14514 net.cpp:150] Setting up enet1_2_branch2c
I0112 16:13:06.296977 14514 net.cpp:157] Top shape: 4 64 94 310 (7459840)
I0112 16:13:06.296984 14514 net.cpp:165] Memory required for data: 1148815392
I0112 16:13:06.296994 14514 layer_factory.hpp:77] Creating layer bn1_2_branch2c
I0112 16:13:06.297009 14514 net.cpp:106] Creating Layer bn1_2_branch2c
I0112 16:13:06.297019 14514 net.cpp:454] bn1_2_branch2c <- enet1_2_branch2c
I0112 16:13:06.297031 14514 net.cpp:397] bn1_2_branch2c -> enet1_2_branch2c (in-place)
I0112 16:13:06.297392 14514 net.cpp:150] Setting up bn1_2_branch2c
I0112 16:13:06.297407 14514 net.cpp:157] Top shape: 4 64 94 310 (7459840)
I0112 16:13:06.297415 14514 net.cpp:165] Memory required for data: 1178654752
I0112 16:13:06.297425 14514 layer_factory.hpp:77] Creating layer dropout1_2_branch2c
I0112 16:13:06.297441 14514 net.cpp:106] Creating Layer dropout1_2_branch2c
I0112 16:13:06.297447 14514 net.cpp:454] dropout1_2_branch2c <- enet1_2_branch2c
I0112 16:13:06.297458 14514 net.cpp:397] dropout1_2_branch2c -> enet1_2_branch2c (in-place)
I0112 16:13:06.297499 14514 net.cpp:150] Setting up dropout1_2_branch2c
I0112 16:13:06.297511 14514 net.cpp:157] Top shape: 4 64 94 310 (7459840)
I0112 16:13:06.297518 14514 net.cpp:165] Memory required for data: 1208494112
I0112 16:13:06.297524 14514 layer_factory.hpp:77] Creating layer enet1_2
I0112 16:13:06.297535 14514 net.cpp:106] Creating Layer enet1_2
I0112 16:13:06.297543 14514 net.cpp:454] enet1_2 <- enet1_1_relu1_1_0_split_1
I0112 16:13:06.297551 14514 net.cpp:454] enet1_2 <- enet1_2_branch2c
I0112 16:13:06.297564 14514 net.cpp:411] enet1_2 -> enet1_2
I0112 16:13:06.297610 14514 net.cpp:150] Setting up enet1_2
I0112 16:13:06.297622 14514 net.cpp:157] Top shape: 4 64 94 310 (7459840)
I0112 16:13:06.297648 14514 net.cpp:165] Memory required for data: 1238333472
I0112 16:13:06.297669 14514 layer_factory.hpp:77] Creating layer relu1_2
I0112 16:13:06.297678 14514 net.cpp:106] Creating Layer relu1_2
I0112 16:13:06.297685 14514 net.cpp:454] relu1_2 <- enet1_2
I0112 16:13:06.297694 14514 net.cpp:397] relu1_2 -> enet1_2 (in-place)
I0112 16:13:06.343523 14514 net.cpp:150] Setting up relu1_2
I0112 16:13:06.343570 14514 net.cpp:157] Top shape: 4 64 94 310 (7459840)
I0112 16:13:06.343578 14514 net.cpp:165] Memory required for data: 1268172832
I0112 16:13:06.343592 14514 layer_factory.hpp:77] Creating layer enet1_2_relu1_2_0_split
I0112 16:13:06.343613 14514 net.cpp:106] Creating Layer enet1_2_relu1_2_0_split
I0112 16:13:06.343623 14514 net.cpp:454] enet1_2_relu1_2_0_split <- enet1_2
I0112 16:13:06.343639 14514 net.cpp:411] enet1_2_relu1_2_0_split -> enet1_2_relu1_2_0_split_0
I0112 16:13:06.343657 14514 net.cpp:411] enet1_2_relu1_2_0_split -> enet1_2_relu1_2_0_split_1
I0112 16:13:06.344343 14514 net.cpp:150] Setting up enet1_2_relu1_2_0_split
I0112 16:13:06.344358 14514 net.cpp:157] Top shape: 4 64 94 310 (7459840)
I0112 16:13:06.344368 14514 net.cpp:157] Top shape: 4 64 94 310 (7459840)
I0112 16:13:06.344375 14514 net.cpp:165] Memory required for data: 1327851552
I0112 16:13:06.344384 14514 layer_factory.hpp:77] Creating layer enet1_3_branch2a
I0112 16:13:06.344410 14514 net.cpp:106] Creating Layer enet1_3_branch2a
I0112 16:13:06.344419 14514 net.cpp:454] enet1_3_branch2a <- enet1_2_relu1_2_0_split_0
I0112 16:13:06.344429 14514 net.cpp:411] enet1_3_branch2a -> enet1_3_branch2a
I0112 16:13:06.347638 14514 net.cpp:150] Setting up enet1_3_branch2a
I0112 16:13:06.347657 14514 net.cpp:157] Top shape: 4 16 94 310 (1864960)
I0112 16:13:06.347666 14514 net.cpp:165] Memory required for data: 1335311392
I0112 16:13:06.347674 14514 layer_factory.hpp:77] Creating layer bn1_3_branch2a
I0112 16:13:06.347692 14514 net.cpp:106] Creating Layer bn1_3_branch2a
I0112 16:13:06.347702 14514 net.cpp:454] bn1_3_branch2a <- enet1_3_branch2a
I0112 16:13:06.347712 14514 net.cpp:397] bn1_3_branch2a -> enet1_3_branch2a (in-place)
I0112 16:13:06.348107 14514 net.cpp:150] Setting up bn1_3_branch2a
I0112 16:13:06.348122 14514 net.cpp:157] Top shape: 4 16 94 310 (1864960)
I0112 16:13:06.348129 14514 net.cpp:165] Memory required for data: 1342771232
I0112 16:13:06.348141 14514 layer_factory.hpp:77] Creating layer relu1_3_branch2a
I0112 16:13:06.348152 14514 net.cpp:106] Creating Layer relu1_3_branch2a
I0112 16:13:06.348160 14514 net.cpp:454] relu1_3_branch2a <- enet1_3_branch2a
I0112 16:13:06.348171 14514 net.cpp:397] relu1_3_branch2a -> enet1_3_branch2a (in-place)
I0112 16:13:06.350553 14514 net.cpp:150] Setting up relu1_3_branch2a
I0112 16:13:06.350569 14514 net.cpp:157] Top shape: 4 16 94 310 (1864960)
I0112 16:13:06.350576 14514 net.cpp:165] Memory required for data: 1350231072
I0112 16:13:06.350586 14514 layer_factory.hpp:77] Creating layer enet1_3_branch2b
I0112 16:13:06.350603 14514 net.cpp:106] Creating Layer enet1_3_branch2b
I0112 16:13:06.350612 14514 net.cpp:454] enet1_3_branch2b <- enet1_3_branch2a
I0112 16:13:06.350626 14514 net.cpp:411] enet1_3_branch2b -> enet1_3_branch2b
I0112 16:13:06.353963 14514 net.cpp:150] Setting up enet1_3_branch2b
I0112 16:13:06.353982 14514 net.cpp:157] Top shape: 4 16 94 310 (1864960)
I0112 16:13:06.353991 14514 net.cpp:165] Memory required for data: 1357690912
I0112 16:13:06.354001 14514 layer_factory.hpp:77] Creating layer bn1_3_branch2b
I0112 16:13:06.354017 14514 net.cpp:106] Creating Layer bn1_3_branch2b
I0112 16:13:06.354025 14514 net.cpp:454] bn1_3_branch2b <- enet1_3_branch2b
I0112 16:13:06.354037 14514 net.cpp:397] bn1_3_branch2b -> enet1_3_branch2b (in-place)
I0112 16:13:06.355417 14514 net.cpp:150] Setting up bn1_3_branch2b
I0112 16:13:06.355434 14514 net.cpp:157] Top shape: 4 16 94 310 (1864960)
I0112 16:13:06.355442 14514 net.cpp:165] Memory required for data: 1365150752
I0112 16:13:06.355453 14514 layer_factory.hpp:77] Creating layer relu1_3_branch2b
I0112 16:13:06.355463 14514 net.cpp:106] Creating Layer relu1_3_branch2b
I0112 16:13:06.355504 14514 net.cpp:454] relu1_3_branch2b <- enet1_3_branch2b
I0112 16:13:06.355520 14514 net.cpp:397] relu1_3_branch2b -> enet1_3_branch2b (in-place)
I0112 16:13:06.357908 14514 net.cpp:150] Setting up relu1_3_branch2b
I0112 16:13:06.357928 14514 net.cpp:157] Top shape: 4 16 94 310 (1864960)
I0112 16:13:06.357936 14514 net.cpp:165] Memory required for data: 1372610592
I0112 16:13:06.357946 14514 layer_factory.hpp:77] Creating layer enet1_3_branch2c
I0112 16:13:06.357964 14514 net.cpp:106] Creating Layer enet1_3_branch2c
I0112 16:13:06.357971 14514 net.cpp:454] enet1_3_branch2c <- enet1_3_branch2b
I0112 16:13:06.357982 14514 net.cpp:411] enet1_3_branch2c -> enet1_3_branch2c
I0112 16:13:06.361248 14514 net.cpp:150] Setting up enet1_3_branch2c
I0112 16:13:06.361266 14514 net.cpp:157] Top shape: 4 64 94 310 (7459840)
I0112 16:13:06.361274 14514 net.cpp:165] Memory required for data: 1402449952
I0112 16:13:06.361284 14514 layer_factory.hpp:77] Creating layer bn1_3_branch2c
I0112 16:13:06.361296 14514 net.cpp:106] Creating Layer bn1_3_branch2c
I0112 16:13:06.361304 14514 net.cpp:454] bn1_3_branch2c <- enet1_3_branch2c
I0112 16:13:06.361317 14514 net.cpp:397] bn1_3_branch2c -> enet1_3_branch2c (in-place)
I0112 16:13:06.361695 14514 net.cpp:150] Setting up bn1_3_branch2c
I0112 16:13:06.361711 14514 net.cpp:157] Top shape: 4 64 94 310 (7459840)
I0112 16:13:06.361716 14514 net.cpp:165] Memory required for data: 1432289312
I0112 16:13:06.361727 14514 layer_factory.hpp:77] Creating layer dropout1_3_branch2c
I0112 16:13:06.361739 14514 net.cpp:106] Creating Layer dropout1_3_branch2c
I0112 16:13:06.361747 14514 net.cpp:454] dropout1_3_branch2c <- enet1_3_branch2c
I0112 16:13:06.361755 14514 net.cpp:397] dropout1_3_branch2c -> enet1_3_branch2c (in-place)
I0112 16:13:06.361799 14514 net.cpp:150] Setting up dropout1_3_branch2c
I0112 16:13:06.361811 14514 net.cpp:157] Top shape: 4 64 94 310 (7459840)
I0112 16:13:06.361817 14514 net.cpp:165] Memory required for data: 1462128672
I0112 16:13:06.361824 14514 layer_factory.hpp:77] Creating layer enet1_3
I0112 16:13:06.361838 14514 net.cpp:106] Creating Layer enet1_3
I0112 16:13:06.361845 14514 net.cpp:454] enet1_3 <- enet1_2_relu1_2_0_split_1
I0112 16:13:06.361855 14514 net.cpp:454] enet1_3 <- enet1_3_branch2c
I0112 16:13:06.361863 14514 net.cpp:411] enet1_3 -> enet1_3
I0112 16:13:06.361909 14514 net.cpp:150] Setting up enet1_3
I0112 16:13:06.361922 14514 net.cpp:157] Top shape: 4 64 94 310 (7459840)
I0112 16:13:06.361928 14514 net.cpp:165] Memory required for data: 1491968032
I0112 16:13:06.361934 14514 layer_factory.hpp:77] Creating layer relu1_3
I0112 16:13:06.361943 14514 net.cpp:106] Creating Layer relu1_3
I0112 16:13:06.361950 14514 net.cpp:454] relu1_3 <- enet1_3
I0112 16:13:06.361963 14514 net.cpp:397] relu1_3 -> enet1_3 (in-place)
I0112 16:13:06.370769 14514 net.cpp:150] Setting up relu1_3
I0112 16:13:06.370813 14514 net.cpp:157] Top shape: 4 64 94 310 (7459840)
I0112 16:13:06.370821 14514 net.cpp:165] Memory required for data: 1521807392
I0112 16:13:06.370836 14514 layer_factory.hpp:77] Creating layer enet1_3_relu1_3_0_split
I0112 16:13:06.370857 14514 net.cpp:106] Creating Layer enet1_3_relu1_3_0_split
I0112 16:13:06.370867 14514 net.cpp:454] enet1_3_relu1_3_0_split <- enet1_3
I0112 16:13:06.370883 14514 net.cpp:411] enet1_3_relu1_3_0_split -> enet1_3_relu1_3_0_split_0
I0112 16:13:06.370901 14514 net.cpp:411] enet1_3_relu1_3_0_split -> enet1_3_relu1_3_0_split_1
I0112 16:13:06.370978 14514 net.cpp:150] Setting up enet1_3_relu1_3_0_split
I0112 16:13:06.370991 14514 net.cpp:157] Top shape: 4 64 94 310 (7459840)
I0112 16:13:06.371001 14514 net.cpp:157] Top shape: 4 64 94 310 (7459840)
I0112 16:13:06.371006 14514 net.cpp:165] Memory required for data: 1581486112
I0112 16:13:06.371012 14514 layer_factory.hpp:77] Creating layer enet1_4_branch2a
I0112 16:13:06.371035 14514 net.cpp:106] Creating Layer enet1_4_branch2a
I0112 16:13:06.371044 14514 net.cpp:454] enet1_4_branch2a <- enet1_3_relu1_3_0_split_0
I0112 16:13:06.371059 14514 net.cpp:411] enet1_4_branch2a -> enet1_4_branch2a
I0112 16:13:06.374397 14514 net.cpp:150] Setting up enet1_4_branch2a
I0112 16:13:06.374419 14514 net.cpp:157] Top shape: 4 16 94 310 (1864960)
I0112 16:13:06.374430 14514 net.cpp:165] Memory required for data: 1588945952
I0112 16:13:06.374440 14514 layer_factory.hpp:77] Creating layer bn1_4_branch2a
I0112 16:13:06.374456 14514 net.cpp:106] Creating Layer bn1_4_branch2a
I0112 16:13:06.374464 14514 net.cpp:454] bn1_4_branch2a <- enet1_4_branch2a
I0112 16:13:06.374478 14514 net.cpp:397] bn1_4_branch2a -> enet1_4_branch2a (in-place)
I0112 16:13:06.374897 14514 net.cpp:150] Setting up bn1_4_branch2a
I0112 16:13:06.374912 14514 net.cpp:157] Top shape: 4 16 94 310 (1864960)
I0112 16:13:06.374918 14514 net.cpp:165] Memory required for data: 1596405792
I0112 16:13:06.374929 14514 layer_factory.hpp:77] Creating layer relu1_4_branch2a
I0112 16:13:06.374943 14514 net.cpp:106] Creating Layer relu1_4_branch2a
I0112 16:13:06.374951 14514 net.cpp:454] relu1_4_branch2a <- enet1_4_branch2a
I0112 16:13:06.374961 14514 net.cpp:397] relu1_4_branch2a -> enet1_4_branch2a (in-place)
I0112 16:13:06.377503 14514 net.cpp:150] Setting up relu1_4_branch2a
I0112 16:13:06.377526 14514 net.cpp:157] Top shape: 4 16 94 310 (1864960)
I0112 16:13:06.377534 14514 net.cpp:165] Memory required for data: 1603865632
I0112 16:13:06.377544 14514 layer_factory.hpp:77] Creating layer enet1_4_branch2b
I0112 16:13:06.377566 14514 net.cpp:106] Creating Layer enet1_4_branch2b
I0112 16:13:06.377575 14514 net.cpp:454] enet1_4_branch2b <- enet1_4_branch2a
I0112 16:13:06.377589 14514 net.cpp:411] enet1_4_branch2b -> enet1_4_branch2b
I0112 16:13:06.382129 14514 net.cpp:150] Setting up enet1_4_branch2b
I0112 16:13:06.382150 14514 net.cpp:157] Top shape: 4 16 94 310 (1864960)
I0112 16:13:06.382158 14514 net.cpp:165] Memory required for data: 1611325472
I0112 16:13:06.382192 14514 layer_factory.hpp:77] Creating layer bn1_4_branch2b
I0112 16:13:06.382222 14514 net.cpp:106] Creating Layer bn1_4_branch2b
I0112 16:13:06.382231 14514 net.cpp:454] bn1_4_branch2b <- enet1_4_branch2b
I0112 16:13:06.382247 14514 net.cpp:397] bn1_4_branch2b -> enet1_4_branch2b (in-place)
I0112 16:13:06.383683 14514 net.cpp:150] Setting up bn1_4_branch2b
I0112 16:13:06.383702 14514 net.cpp:157] Top shape: 4 16 94 310 (1864960)
I0112 16:13:06.383708 14514 net.cpp:165] Memory required for data: 1618785312
I0112 16:13:06.383720 14514 layer_factory.hpp:77] Creating layer relu1_4_branch2b
I0112 16:13:06.383731 14514 net.cpp:106] Creating Layer relu1_4_branch2b
I0112 16:13:06.383739 14514 net.cpp:454] relu1_4_branch2b <- enet1_4_branch2b
I0112 16:13:06.383749 14514 net.cpp:397] relu1_4_branch2b -> enet1_4_branch2b (in-place)
I0112 16:13:06.385948 14514 net.cpp:150] Setting up relu1_4_branch2b
I0112 16:13:06.385965 14514 net.cpp:157] Top shape: 4 16 94 310 (1864960)
I0112 16:13:06.385972 14514 net.cpp:165] Memory required for data: 1626245152
I0112 16:13:06.385982 14514 layer_factory.hpp:77] Creating layer enet1_4_branch2c
I0112 16:13:06.386001 14514 net.cpp:106] Creating Layer enet1_4_branch2c
I0112 16:13:06.386009 14514 net.cpp:454] enet1_4_branch2c <- enet1_4_branch2b
I0112 16:13:06.386021 14514 net.cpp:411] enet1_4_branch2c -> enet1_4_branch2c
I0112 16:13:06.389154 14514 net.cpp:150] Setting up enet1_4_branch2c
I0112 16:13:06.389173 14514 net.cpp:157] Top shape: 4 64 94 310 (7459840)
I0112 16:13:06.389180 14514 net.cpp:165] Memory required for data: 1656084512
I0112 16:13:06.389190 14514 layer_factory.hpp:77] Creating layer bn1_4_branch2c
I0112 16:13:06.389205 14514 net.cpp:106] Creating Layer bn1_4_branch2c
I0112 16:13:06.389214 14514 net.cpp:454] bn1_4_branch2c <- enet1_4_branch2c
I0112 16:13:06.389227 14514 net.cpp:397] bn1_4_branch2c -> enet1_4_branch2c (in-place)
I0112 16:13:06.389616 14514 net.cpp:150] Setting up bn1_4_branch2c
I0112 16:13:06.389631 14514 net.cpp:157] Top shape: 4 64 94 310 (7459840)
I0112 16:13:06.389637 14514 net.cpp:165] Memory required for data: 1685923872
I0112 16:13:06.389648 14514 layer_factory.hpp:77] Creating layer dropout1_4_branch2c
I0112 16:13:06.389677 14514 net.cpp:106] Creating Layer dropout1_4_branch2c
I0112 16:13:06.389698 14514 net.cpp:454] dropout1_4_branch2c <- enet1_4_branch2c
I0112 16:13:06.389709 14514 net.cpp:397] dropout1_4_branch2c -> enet1_4_branch2c (in-place)
I0112 16:13:06.389755 14514 net.cpp:150] Setting up dropout1_4_branch2c
I0112 16:13:06.389767 14514 net.cpp:157] Top shape: 4 64 94 310 (7459840)
I0112 16:13:06.389773 14514 net.cpp:165] Memory required for data: 1715763232
I0112 16:13:06.389780 14514 layer_factory.hpp:77] Creating layer enet1_4
I0112 16:13:06.389794 14514 net.cpp:106] Creating Layer enet1_4
I0112 16:13:06.389802 14514 net.cpp:454] enet1_4 <- enet1_3_relu1_3_0_split_1
I0112 16:13:06.389811 14514 net.cpp:454] enet1_4 <- enet1_4_branch2c
I0112 16:13:06.389822 14514 net.cpp:411] enet1_4 -> enet1_4
I0112 16:13:06.389866 14514 net.cpp:150] Setting up enet1_4
I0112 16:13:06.389879 14514 net.cpp:157] Top shape: 4 64 94 310 (7459840)
I0112 16:13:06.389885 14514 net.cpp:165] Memory required for data: 1745602592
I0112 16:13:06.389891 14514 layer_factory.hpp:77] Creating layer relu1_4
I0112 16:13:06.389904 14514 net.cpp:106] Creating Layer relu1_4
I0112 16:13:06.389911 14514 net.cpp:454] relu1_4 <- enet1_4
I0112 16:13:06.389920 14514 net.cpp:397] relu1_4 -> enet1_4 (in-place)
I0112 16:13:06.398321 14514 net.cpp:150] Setting up relu1_4
I0112 16:13:06.398349 14514 net.cpp:157] Top shape: 4 64 94 310 (7459840)
I0112 16:13:06.398356 14514 net.cpp:165] Memory required for data: 1775441952
I0112 16:13:06.398367 14514 layer_factory.hpp:77] Creating layer enet1_4_relu1_4_0_split
I0112 16:13:06.398381 14514 net.cpp:106] Creating Layer enet1_4_relu1_4_0_split
I0112 16:13:06.398389 14514 net.cpp:454] enet1_4_relu1_4_0_split <- enet1_4
I0112 16:13:06.398404 14514 net.cpp:411] enet1_4_relu1_4_0_split -> enet1_4_relu1_4_0_split_0
I0112 16:13:06.398419 14514 net.cpp:411] enet1_4_relu1_4_0_split -> enet1_4_relu1_4_0_split_1
I0112 16:13:06.398491 14514 net.cpp:150] Setting up enet1_4_relu1_4_0_split
I0112 16:13:06.398504 14514 net.cpp:157] Top shape: 4 64 94 310 (7459840)
I0112 16:13:06.398514 14514 net.cpp:157] Top shape: 4 64 94 310 (7459840)
I0112 16:13:06.398519 14514 net.cpp:165] Memory required for data: 1835120672
I0112 16:13:06.398525 14514 layer_factory.hpp:77] Creating layer enet2_0_branch2a
I0112 16:13:06.398545 14514 net.cpp:106] Creating Layer enet2_0_branch2a
I0112 16:13:06.398553 14514 net.cpp:454] enet2_0_branch2a <- enet1_4_relu1_4_0_split_0
I0112 16:13:06.398564 14514 net.cpp:411] enet2_0_branch2a -> enet2_0_branch2a
I0112 16:13:06.403365 14514 net.cpp:150] Setting up enet2_0_branch2a
I0112 16:13:06.403396 14514 net.cpp:157] Top shape: 4 32 47 155 (932480)
I0112 16:13:06.403404 14514 net.cpp:165] Memory required for data: 1838850592
I0112 16:13:06.403415 14514 layer_factory.hpp:77] Creating layer bn2_0_branch2a
I0112 16:13:06.403436 14514 net.cpp:106] Creating Layer bn2_0_branch2a
I0112 16:13:06.403445 14514 net.cpp:454] bn2_0_branch2a <- enet2_0_branch2a
I0112 16:13:06.403460 14514 net.cpp:397] bn2_0_branch2a -> enet2_0_branch2a (in-place)
I0112 16:13:06.403838 14514 net.cpp:150] Setting up bn2_0_branch2a
I0112 16:13:06.403853 14514 net.cpp:157] Top shape: 4 32 47 155 (932480)
I0112 16:13:06.403861 14514 net.cpp:165] Memory required for data: 1842580512
I0112 16:13:06.403872 14514 layer_factory.hpp:77] Creating layer relu2_0_branch2a
I0112 16:13:06.403882 14514 net.cpp:106] Creating Layer relu2_0_branch2a
I0112 16:13:06.403889 14514 net.cpp:454] relu2_0_branch2a <- enet2_0_branch2a
I0112 16:13:06.403903 14514 net.cpp:397] relu2_0_branch2a -> enet2_0_branch2a (in-place)
I0112 16:13:06.405364 14514 net.cpp:150] Setting up relu2_0_branch2a
I0112 16:13:06.405381 14514 net.cpp:157] Top shape: 4 32 47 155 (932480)
I0112 16:13:06.405388 14514 net.cpp:165] Memory required for data: 1846310432
I0112 16:13:06.405400 14514 layer_factory.hpp:77] Creating layer enet2_0_branch2b
I0112 16:13:06.405421 14514 net.cpp:106] Creating Layer enet2_0_branch2b
I0112 16:13:06.405429 14514 net.cpp:454] enet2_0_branch2b <- enet2_0_branch2a
I0112 16:13:06.405462 14514 net.cpp:411] enet2_0_branch2b -> enet2_0_branch2b
I0112 16:13:06.409127 14514 net.cpp:150] Setting up enet2_0_branch2b
I0112 16:13:06.409155 14514 net.cpp:157] Top shape: 4 32 47 155 (932480)
I0112 16:13:06.409163 14514 net.cpp:165] Memory required for data: 1850040352
I0112 16:13:06.409176 14514 layer_factory.hpp:77] Creating layer bn2_0_branch2b
I0112 16:13:06.409195 14514 net.cpp:106] Creating Layer bn2_0_branch2b
I0112 16:13:06.409204 14514 net.cpp:454] bn2_0_branch2b <- enet2_0_branch2b
I0112 16:13:06.409216 14514 net.cpp:397] bn2_0_branch2b -> enet2_0_branch2b (in-place)
I0112 16:13:06.409598 14514 net.cpp:150] Setting up bn2_0_branch2b
I0112 16:13:06.409613 14514 net.cpp:157] Top shape: 4 32 47 155 (932480)
I0112 16:13:06.409620 14514 net.cpp:165] Memory required for data: 1853770272
I0112 16:13:06.409631 14514 layer_factory.hpp:77] Creating layer relu2_0_branch2b
I0112 16:13:06.409642 14514 net.cpp:106] Creating Layer relu2_0_branch2b
I0112 16:13:06.409649 14514 net.cpp:454] relu2_0_branch2b <- enet2_0_branch2b
I0112 16:13:06.409662 14514 net.cpp:397] relu2_0_branch2b -> enet2_0_branch2b (in-place)
I0112 16:13:06.411586 14514 net.cpp:150] Setting up relu2_0_branch2b
I0112 16:13:06.411604 14514 net.cpp:157] Top shape: 4 32 47 155 (932480)
I0112 16:13:06.411612 14514 net.cpp:165] Memory required for data: 1857500192
I0112 16:13:06.411623 14514 layer_factory.hpp:77] Creating layer enet2_0_branch2c
I0112 16:13:06.411816 14514 net.cpp:106] Creating Layer enet2_0_branch2c
I0112 16:13:06.411825 14514 net.cpp:454] enet2_0_branch2c <- enet2_0_branch2b
I0112 16:13:06.411837 14514 net.cpp:411] enet2_0_branch2c -> enet2_0_branch2c
I0112 16:13:06.415226 14514 net.cpp:150] Setting up enet2_0_branch2c
I0112 16:13:06.415246 14514 net.cpp:157] Top shape: 4 128 47 155 (3729920)
I0112 16:13:06.415253 14514 net.cpp:165] Memory required for data: 1872419872
I0112 16:13:06.415263 14514 layer_factory.hpp:77] Creating layer bn2_0_branch2c
I0112 16:13:06.415282 14514 net.cpp:106] Creating Layer bn2_0_branch2c
I0112 16:13:06.415289 14514 net.cpp:454] bn2_0_branch2c <- enet2_0_branch2c
I0112 16:13:06.415300 14514 net.cpp:397] bn2_0_branch2c -> enet2_0_branch2c (in-place)
I0112 16:13:06.415675 14514 net.cpp:150] Setting up bn2_0_branch2c
I0112 16:13:06.415690 14514 net.cpp:157] Top shape: 4 128 47 155 (3729920)
I0112 16:13:06.415698 14514 net.cpp:165] Memory required for data: 1887339552
I0112 16:13:06.415709 14514 layer_factory.hpp:77] Creating layer dropout2_0_branch2c
I0112 16:13:06.415720 14514 net.cpp:106] Creating Layer dropout2_0_branch2c
I0112 16:13:06.415727 14514 net.cpp:454] dropout2_0_branch2c <- enet2_0_branch2c
I0112 16:13:06.415737 14514 net.cpp:397] dropout2_0_branch2c -> enet2_0_branch2c (in-place)
I0112 16:13:06.415788 14514 net.cpp:150] Setting up dropout2_0_branch2c
I0112 16:13:06.415802 14514 net.cpp:157] Top shape: 4 128 47 155 (3729920)
I0112 16:13:06.415808 14514 net.cpp:165] Memory required for data: 1902259232
I0112 16:13:06.415814 14514 layer_factory.hpp:77] Creating layer enet2_0_branch1a
I0112 16:13:06.415832 14514 net.cpp:106] Creating Layer enet2_0_branch1a
I0112 16:13:06.415839 14514 net.cpp:454] enet2_0_branch1a <- enet1_4_relu1_4_0_split_1
I0112 16:13:06.415853 14514 net.cpp:411] enet2_0_branch1a -> enet2_0_branch1a
I0112 16:13:06.419682 14514 net.cpp:150] Setting up enet2_0_branch1a
I0112 16:13:06.419700 14514 net.cpp:157] Top shape: 4 128 94 310 (14919680)
I0112 16:13:06.419708 14514 net.cpp:165] Memory required for data: 1961937952
I0112 16:13:06.419718 14514 layer_factory.hpp:77] Creating layer bn2_0_branch1a
I0112 16:13:06.419735 14514 net.cpp:106] Creating Layer bn2_0_branch1a
I0112 16:13:06.419744 14514 net.cpp:454] bn2_0_branch1a <- enet2_0_branch1a
I0112 16:13:06.419755 14514 net.cpp:397] bn2_0_branch1a -> enet2_0_branch1a (in-place)
I0112 16:13:06.420195 14514 net.cpp:150] Setting up bn2_0_branch1a
I0112 16:13:06.420210 14514 net.cpp:157] Top shape: 4 128 94 310 (14919680)
I0112 16:13:06.420217 14514 net.cpp:165] Memory required for data: 2021616672
I0112 16:13:06.420244 14514 layer_factory.hpp:77] Creating layer pool2_0_branch1a
I0112 16:13:06.420265 14514 layer_factory.cpp:91] cuDNN does not support multiple tops. Using Caffe's own pooling layer.
I0112 16:13:06.420275 14514 net.cpp:106] Creating Layer pool2_0_branch1a
I0112 16:13:06.420282 14514 net.cpp:454] pool2_0_branch1a <- enet2_0_branch1a
I0112 16:13:06.420294 14514 net.cpp:411] pool2_0_branch1a -> pool2_0_branch1a
I0112 16:13:06.420310 14514 net.cpp:411] pool2_0_branch1a -> pool2_0_branch1a_mask
I0112 16:13:06.420383 14514 net.cpp:150] Setting up pool2_0_branch1a
I0112 16:13:06.420397 14514 net.cpp:157] Top shape: 4 128 47 155 (3729920)
I0112 16:13:06.420405 14514 net.cpp:157] Top shape: 4 128 47 155 (3729920)
I0112 16:13:06.420411 14514 net.cpp:165] Memory required for data: 2051456032
I0112 16:13:06.420418 14514 layer_factory.hpp:77] Creating layer enet2_0
I0112 16:13:06.420433 14514 net.cpp:106] Creating Layer enet2_0
I0112 16:13:06.420440 14514 net.cpp:454] enet2_0 <- pool2_0_branch1a
I0112 16:13:06.420449 14514 net.cpp:454] enet2_0 <- enet2_0_branch2c
I0112 16:13:06.420457 14514 net.cpp:411] enet2_0 -> enet2_0
I0112 16:13:06.420508 14514 net.cpp:150] Setting up enet2_0
I0112 16:13:06.420521 14514 net.cpp:157] Top shape: 4 128 47 155 (3729920)
I0112 16:13:06.420527 14514 net.cpp:165] Memory required for data: 2066375712
I0112 16:13:06.420534 14514 layer_factory.hpp:77] Creating layer relu2_0
I0112 16:13:06.420543 14514 net.cpp:106] Creating Layer relu2_0
I0112 16:13:06.420550 14514 net.cpp:454] relu2_0 <- enet2_0
I0112 16:13:06.420562 14514 net.cpp:397] relu2_0 -> enet2_0 (in-place)
I0112 16:13:06.424695 14514 net.cpp:150] Setting up relu2_0
I0112 16:13:06.424712 14514 net.cpp:157] Top shape: 4 128 47 155 (3729920)
I0112 16:13:06.424720 14514 net.cpp:165] Memory required for data: 2081295392
I0112 16:13:06.424729 14514 layer_factory.hpp:77] Creating layer enet2_0_relu2_0_0_split
I0112 16:13:06.424743 14514 net.cpp:106] Creating Layer enet2_0_relu2_0_0_split
I0112 16:13:06.424751 14514 net.cpp:454] enet2_0_relu2_0_0_split <- enet2_0
I0112 16:13:06.424762 14514 net.cpp:411] enet2_0_relu2_0_0_split -> enet2_0_relu2_0_0_split_0
I0112 16:13:06.424777 14514 net.cpp:411] enet2_0_relu2_0_0_split -> enet2_0_relu2_0_0_split_1
I0112 16:13:06.424849 14514 net.cpp:150] Setting up enet2_0_relu2_0_0_split
I0112 16:13:06.424862 14514 net.cpp:157] Top shape: 4 128 47 155 (3729920)
I0112 16:13:06.424870 14514 net.cpp:157] Top shape: 4 128 47 155 (3729920)
I0112 16:13:06.424876 14514 net.cpp:165] Memory required for data: 2111134752
I0112 16:13:06.424883 14514 layer_factory.hpp:77] Creating layer enet2_1_branch2a
I0112 16:13:06.424896 14514 net.cpp:106] Creating Layer enet2_1_branch2a
I0112 16:13:06.424904 14514 net.cpp:454] enet2_1_branch2a <- enet2_0_relu2_0_0_split_0
I0112 16:13:06.424918 14514 net.cpp:411] enet2_1_branch2a -> enet2_1_branch2a
I0112 16:13:06.428241 14514 net.cpp:150] Setting up enet2_1_branch2a
I0112 16:13:06.428258 14514 net.cpp:157] Top shape: 4 32 47 155 (932480)
I0112 16:13:06.428267 14514 net.cpp:165] Memory required for data: 2114864672
I0112 16:13:06.428275 14514 layer_factory.hpp:77] Creating layer bn2_1_branch2a
I0112 16:13:06.428292 14514 net.cpp:106] Creating Layer bn2_1_branch2a
I0112 16:13:06.428299 14514 net.cpp:454] bn2_1_branch2a <- enet2_1_branch2a
I0112 16:13:06.428309 14514 net.cpp:397] bn2_1_branch2a -> enet2_1_branch2a (in-place)
I0112 16:13:06.428700 14514 net.cpp:150] Setting up bn2_1_branch2a
I0112 16:13:06.428715 14514 net.cpp:157] Top shape: 4 32 47 155 (932480)
I0112 16:13:06.428721 14514 net.cpp:165] Memory required for data: 2118594592
I0112 16:13:06.428732 14514 layer_factory.hpp:77] Creating layer relu2_1_branch2a
I0112 16:13:06.428742 14514 net.cpp:106] Creating Layer relu2_1_branch2a
I0112 16:13:06.428750 14514 net.cpp:454] relu2_1_branch2a <- enet2_1_branch2a
I0112 16:13:06.428761 14514 net.cpp:397] relu2_1_branch2a -> enet2_1_branch2a (in-place)
I0112 16:13:06.430127 14514 net.cpp:150] Setting up relu2_1_branch2a
I0112 16:13:06.430145 14514 net.cpp:157] Top shape: 4 32 47 155 (932480)
I0112 16:13:06.430161 14514 net.cpp:165] Memory required for data: 2122324512
I0112 16:13:06.430181 14514 layer_factory.hpp:77] Creating layer enet2_1_branch2b
I0112 16:13:06.430202 14514 net.cpp:106] Creating Layer enet2_1_branch2b
I0112 16:13:06.430210 14514 net.cpp:454] enet2_1_branch2b <- enet2_1_branch2a
I0112 16:13:06.430222 14514 net.cpp:411] enet2_1_branch2b -> enet2_1_branch2b
I0112 16:13:06.433986 14514 net.cpp:150] Setting up enet2_1_branch2b
I0112 16:13:06.434010 14514 net.cpp:157] Top shape: 4 32 47 155 (932480)
I0112 16:13:06.434017 14514 net.cpp:165] Memory required for data: 2126054432
I0112 16:13:06.434028 14514 layer_factory.hpp:77] Creating layer bn2_1_branch2b
I0112 16:13:06.434048 14514 net.cpp:106] Creating Layer bn2_1_branch2b
I0112 16:13:06.434062 14514 net.cpp:454] bn2_1_branch2b <- enet2_1_branch2b
I0112 16:13:06.434073 14514 net.cpp:397] bn2_1_branch2b -> enet2_1_branch2b (in-place)
I0112 16:13:06.434489 14514 net.cpp:150] Setting up bn2_1_branch2b
I0112 16:13:06.434504 14514 net.cpp:157] Top shape: 4 32 47 155 (932480)
I0112 16:13:06.434510 14514 net.cpp:165] Memory required for data: 2129784352
I0112 16:13:06.434521 14514 layer_factory.hpp:77] Creating layer relu2_1_branch2b
I0112 16:13:06.434532 14514 net.cpp:106] Creating Layer relu2_1_branch2b
I0112 16:13:06.434540 14514 net.cpp:454] relu2_1_branch2b <- enet2_1_branch2b
I0112 16:13:06.434552 14514 net.cpp:397] relu2_1_branch2b -> enet2_1_branch2b (in-place)
I0112 16:13:06.436044 14514 net.cpp:150] Setting up relu2_1_branch2b
I0112 16:13:06.436066 14514 net.cpp:157] Top shape: 4 32 47 155 (932480)
I0112 16:13:06.436074 14514 net.cpp:165] Memory required for data: 2133514272
I0112 16:13:06.436084 14514 layer_factory.hpp:77] Creating layer enet2_1_branch2c
I0112 16:13:06.436105 14514 net.cpp:106] Creating Layer enet2_1_branch2c
I0112 16:13:06.436113 14514 net.cpp:454] enet2_1_branch2c <- enet2_1_branch2b
I0112 16:13:06.436125 14514 net.cpp:411] enet2_1_branch2c -> enet2_1_branch2c
I0112 16:13:06.439659 14514 net.cpp:150] Setting up enet2_1_branch2c
I0112 16:13:06.439687 14514 net.cpp:157] Top shape: 4 128 47 155 (3729920)
I0112 16:13:06.439695 14514 net.cpp:165] Memory required for data: 2148433952
I0112 16:13:06.439705 14514 layer_factory.hpp:77] Creating layer bn2_1_branch2c
I0112 16:13:06.439721 14514 net.cpp:106] Creating Layer bn2_1_branch2c
I0112 16:13:06.439729 14514 net.cpp:454] bn2_1_branch2c <- enet2_1_branch2c
I0112 16:13:06.439744 14514 net.cpp:397] bn2_1_branch2c -> enet2_1_branch2c (in-place)
I0112 16:13:06.440156 14514 net.cpp:150] Setting up bn2_1_branch2c
I0112 16:13:06.440171 14514 net.cpp:157] Top shape: 4 128 47 155 (3729920)
I0112 16:13:06.440178 14514 net.cpp:165] Memory required for data: 2163353632
I0112 16:13:06.440188 14514 layer_factory.hpp:77] Creating layer dropout2_1_branch2c
I0112 16:13:06.440201 14514 net.cpp:106] Creating Layer dropout2_1_branch2c
I0112 16:13:06.440208 14514 net.cpp:454] dropout2_1_branch2c <- enet2_1_branch2c
I0112 16:13:06.440220 14514 net.cpp:397] dropout2_1_branch2c -> enet2_1_branch2c (in-place)
I0112 16:13:06.440271 14514 net.cpp:150] Setting up dropout2_1_branch2c
I0112 16:13:06.440284 14514 net.cpp:157] Top shape: 4 128 47 155 (3729920)
I0112 16:13:06.440291 14514 net.cpp:165] Memory required for data: 2178273312
I0112 16:13:06.440297 14514 layer_factory.hpp:77] Creating layer enet2_1
I0112 16:13:06.440309 14514 net.cpp:106] Creating Layer enet2_1
I0112 16:13:06.440316 14514 net.cpp:454] enet2_1 <- enet2_0_relu2_0_0_split_1
I0112 16:13:06.440325 14514 net.cpp:454] enet2_1 <- enet2_1_branch2c
I0112 16:13:06.440335 14514 net.cpp:411] enet2_1 -> enet2_1
I0112 16:13:06.440385 14514 net.cpp:150] Setting up enet2_1
I0112 16:13:06.440399 14514 net.cpp:157] Top shape: 4 128 47 155 (3729920)
I0112 16:13:06.440405 14514 net.cpp:165] Memory required for data: 2193192992
I0112 16:13:06.440412 14514 layer_factory.hpp:77] Creating layer relu2_1
I0112 16:13:06.440425 14514 net.cpp:106] Creating Layer relu2_1
I0112 16:13:06.440433 14514 net.cpp:454] relu2_1 <- enet2_1
I0112 16:13:06.440443 14514 net.cpp:397] relu2_1 -> enet2_1 (in-place)
I0112 16:13:06.446274 14514 net.cpp:150] Setting up relu2_1
I0112 16:13:06.446295 14514 net.cpp:157] Top shape: 4 128 47 155 (3729920)
I0112 16:13:06.446302 14514 net.cpp:165] Memory required for data: 2208112672
I0112 16:13:06.446313 14514 layer_factory.hpp:77] Creating layer enet2_1_relu2_1_0_split
I0112 16:13:06.446326 14514 net.cpp:106] Creating Layer enet2_1_relu2_1_0_split
I0112 16:13:06.446333 14514 net.cpp:454] enet2_1_relu2_1_0_split <- enet2_1
I0112 16:13:06.446347 14514 net.cpp:411] enet2_1_relu2_1_0_split -> enet2_1_relu2_1_0_split_0
I0112 16:13:06.446362 14514 net.cpp:411] enet2_1_relu2_1_0_split -> enet2_1_relu2_1_0_split_1
I0112 16:13:06.446439 14514 net.cpp:150] Setting up enet2_1_relu2_1_0_split
I0112 16:13:06.446452 14514 net.cpp:157] Top shape: 4 128 47 155 (3729920)
I0112 16:13:06.446460 14514 net.cpp:157] Top shape: 4 128 47 155 (3729920)
I0112 16:13:06.446466 14514 net.cpp:165] Memory required for data: 2237952032
I0112 16:13:06.446473 14514 layer_factory.hpp:77] Creating layer enet2_2_branch2a
I0112 16:13:06.446492 14514 net.cpp:106] Creating Layer enet2_2_branch2a
I0112 16:13:06.446501 14514 net.cpp:454] enet2_2_branch2a <- enet2_1_relu2_1_0_split_0
I0112 16:13:06.446511 14514 net.cpp:411] enet2_2_branch2a -> enet2_2_branch2a
I0112 16:13:06.451108 14514 net.cpp:150] Setting up enet2_2_branch2a
I0112 16:13:06.451126 14514 net.cpp:157] Top shape: 4 32 47 155 (932480)
I0112 16:13:06.451133 14514 net.cpp:165] Memory required for data: 2241681952
I0112 16:13:06.451143 14514 layer_factory.hpp:77] Creating layer bn2_2_branch2a
I0112 16:13:06.451160 14514 net.cpp:106] Creating Layer bn2_2_branch2a
I0112 16:13:06.451169 14514 net.cpp:454] bn2_2_branch2a <- enet2_2_branch2a
I0112 16:13:06.451182 14514 net.cpp:397] bn2_2_branch2a -> enet2_2_branch2a (in-place)
I0112 16:13:06.451609 14514 net.cpp:150] Setting up bn2_2_branch2a
I0112 16:13:06.451623 14514 net.cpp:157] Top shape: 4 32 47 155 (932480)
I0112 16:13:06.451630 14514 net.cpp:165] Memory required for data: 2245411872
I0112 16:13:06.451642 14514 layer_factory.hpp:77] Creating layer relu2_2_branch2a
I0112 16:13:06.451653 14514 net.cpp:106] Creating Layer relu2_2_branch2a
I0112 16:13:06.451659 14514 net.cpp:454] relu2_2_branch2a <- enet2_2_branch2a
I0112 16:13:06.451668 14514 net.cpp:397] relu2_2_branch2a -> enet2_2_branch2a (in-place)
I0112 16:13:06.452968 14514 net.cpp:150] Setting up relu2_2_branch2a
I0112 16:13:06.452986 14514 net.cpp:157] Top shape: 4 32 47 155 (932480)
I0112 16:13:06.452992 14514 net.cpp:165] Memory required for data: 2249141792
I0112 16:13:06.453002 14514 layer_factory.hpp:77] Creating layer enet2_2_branch2b
I0112 16:13:06.453019 14514 net.cpp:106] Creating Layer enet2_2_branch2b
I0112 16:13:06.453028 14514 net.cpp:454] enet2_2_branch2b <- enet2_2_branch2a
I0112 16:13:06.453042 14514 net.cpp:411] enet2_2_branch2b -> enet2_2_branch2b
I0112 16:13:06.453744 14514 net.cpp:150] Setting up enet2_2_branch2b
I0112 16:13:06.453759 14514 net.cpp:157] Top shape: 4 32 47 155 (932480)
I0112 16:13:06.453766 14514 net.cpp:165] Memory required for data: 2252871712
I0112 16:13:06.453776 14514 layer_factory.hpp:77] Creating layer bn2_2_branch2b
I0112 16:13:06.453790 14514 net.cpp:106] Creating Layer bn2_2_branch2b
I0112 16:13:06.453799 14514 net.cpp:454] bn2_2_branch2b <- enet2_2_branch2b
I0112 16:13:06.453809 14514 net.cpp:397] bn2_2_branch2b -> enet2_2_branch2b (in-place)
I0112 16:13:06.454226 14514 net.cpp:150] Setting up bn2_2_branch2b
I0112 16:13:06.454239 14514 net.cpp:157] Top shape: 4 32 47 155 (932480)
I0112 16:13:06.454246 14514 net.cpp:165] Memory required for data: 2256601632
I0112 16:13:06.454257 14514 layer_factory.hpp:77] Creating layer relu2_2_branch2b
I0112 16:13:06.454267 14514 net.cpp:106] Creating Layer relu2_2_branch2b
I0112 16:13:06.454273 14514 net.cpp:454] relu2_2_branch2b <- enet2_2_branch2b
I0112 16:13:06.454284 14514 net.cpp:397] relu2_2_branch2b -> enet2_2_branch2b (in-place)
I0112 16:13:06.455601 14514 net.cpp:150] Setting up relu2_2_branch2b
I0112 16:13:06.455618 14514 net.cpp:157] Top shape: 4 32 47 155 (932480)
I0112 16:13:06.455637 14514 net.cpp:165] Memory required for data: 2260331552
I0112 16:13:06.455662 14514 layer_factory.hpp:77] Creating layer enet2_2_branch2c
I0112 16:13:06.455682 14514 net.cpp:106] Creating Layer enet2_2_branch2c
I0112 16:13:06.455689 14514 net.cpp:454] enet2_2_branch2c <- enet2_2_branch2b
I0112 16:13:06.455700 14514 net.cpp:411] enet2_2_branch2c -> enet2_2_branch2c
I0112 16:13:06.459233 14514 net.cpp:150] Setting up enet2_2_branch2c
I0112 16:13:06.459254 14514 net.cpp:157] Top shape: 4 128 47 155 (3729920)
I0112 16:13:06.459261 14514 net.cpp:165] Memory required for data: 2275251232
I0112 16:13:06.459271 14514 layer_factory.hpp:77] Creating layer bn2_2_branch2c
I0112 16:13:06.459283 14514 net.cpp:106] Creating Layer bn2_2_branch2c
I0112 16:13:06.459291 14514 net.cpp:454] bn2_2_branch2c <- enet2_2_branch2c
I0112 16:13:06.459306 14514 net.cpp:397] bn2_2_branch2c -> enet2_2_branch2c (in-place)
I0112 16:13:06.459729 14514 net.cpp:150] Setting up bn2_2_branch2c
I0112 16:13:06.459743 14514 net.cpp:157] Top shape: 4 128 47 155 (3729920)
I0112 16:13:06.459750 14514 net.cpp:165] Memory required for data: 2290170912
I0112 16:13:06.459761 14514 layer_factory.hpp:77] Creating layer dropout2_2_branch2c
I0112 16:13:06.459772 14514 net.cpp:106] Creating Layer dropout2_2_branch2c
I0112 16:13:06.459779 14514 net.cpp:454] dropout2_2_branch2c <- enet2_2_branch2c
I0112 16:13:06.459792 14514 net.cpp:397] dropout2_2_branch2c -> enet2_2_branch2c (in-place)
I0112 16:13:06.459842 14514 net.cpp:150] Setting up dropout2_2_branch2c
I0112 16:13:06.459856 14514 net.cpp:157] Top shape: 4 128 47 155 (3729920)
I0112 16:13:06.459862 14514 net.cpp:165] Memory required for data: 2305090592
I0112 16:13:06.459868 14514 layer_factory.hpp:77] Creating layer enet2_2
I0112 16:13:06.459878 14514 net.cpp:106] Creating Layer enet2_2
I0112 16:13:06.459885 14514 net.cpp:454] enet2_2 <- enet2_1_relu2_1_0_split_1
I0112 16:13:06.459894 14514 net.cpp:454] enet2_2 <- enet2_2_branch2c
I0112 16:13:06.459903 14514 net.cpp:411] enet2_2 -> enet2_2
I0112 16:13:06.459955 14514 net.cpp:150] Setting up enet2_2
I0112 16:13:06.459969 14514 net.cpp:157] Top shape: 4 128 47 155 (3729920)
I0112 16:13:06.459975 14514 net.cpp:165] Memory required for data: 2320010272
I0112 16:13:06.459982 14514 layer_factory.hpp:77] Creating layer relu2_2
I0112 16:13:06.459995 14514 net.cpp:106] Creating Layer relu2_2
I0112 16:13:06.460002 14514 net.cpp:454] relu2_2 <- enet2_2
I0112 16:13:06.460011 14514 net.cpp:397] relu2_2 -> enet2_2 (in-place)
I0112 16:13:06.464434 14514 net.cpp:150] Setting up relu2_2
I0112 16:13:06.464457 14514 net.cpp:157] Top shape: 4 128 47 155 (3729920)
I0112 16:13:06.464464 14514 net.cpp:165] Memory required for data: 2334929952
I0112 16:13:06.464475 14514 layer_factory.hpp:77] Creating layer enet2_2_relu2_2_0_split
I0112 16:13:06.464486 14514 net.cpp:106] Creating Layer enet2_2_relu2_2_0_split
I0112 16:13:06.464494 14514 net.cpp:454] enet2_2_relu2_2_0_split <- enet2_2
I0112 16:13:06.464505 14514 net.cpp:411] enet2_2_relu2_2_0_split -> enet2_2_relu2_2_0_split_0
I0112 16:13:06.464534 14514 net.cpp:411] enet2_2_relu2_2_0_split -> enet2_2_relu2_2_0_split_1
I0112 16:13:06.464613 14514 net.cpp:150] Setting up enet2_2_relu2_2_0_split
I0112 16:13:06.464628 14514 net.cpp:157] Top shape: 4 128 47 155 (3729920)
I0112 16:13:06.464637 14514 net.cpp:157] Top shape: 4 128 47 155 (3729920)
I0112 16:13:06.464643 14514 net.cpp:165] Memory required for data: 2364769312
I0112 16:13:06.464649 14514 layer_factory.hpp:77] Creating layer enet2_3_branch2a
I0112 16:13:06.464664 14514 net.cpp:106] Creating Layer enet2_3_branch2a
I0112 16:13:06.464673 14514 net.cpp:454] enet2_3_branch2a <- enet2_2_relu2_2_0_split_0
I0112 16:13:06.464685 14514 net.cpp:411] enet2_3_branch2a -> enet2_3_branch2a
I0112 16:13:06.468186 14514 net.cpp:150] Setting up enet2_3_branch2a
I0112 16:13:06.468211 14514 net.cpp:157] Top shape: 4 32 47 155 (932480)
I0112 16:13:06.468219 14514 net.cpp:165] Memory required for data: 2368499232
I0112 16:13:06.468230 14514 layer_factory.hpp:77] Creating layer bn2_3_branch2a
I0112 16:13:06.468277 14514 net.cpp:106] Creating Layer bn2_3_branch2a
I0112 16:13:06.468286 14514 net.cpp:454] bn2_3_branch2a <- enet2_3_branch2a
I0112 16:13:06.468302 14514 net.cpp:397] bn2_3_branch2a -> enet2_3_branch2a (in-place)
I0112 16:13:06.468755 14514 net.cpp:150] Setting up bn2_3_branch2a
I0112 16:13:06.468768 14514 net.cpp:157] Top shape: 4 32 47 155 (932480)
I0112 16:13:06.468775 14514 net.cpp:165] Memory required for data: 2372229152
I0112 16:13:06.468786 14514 layer_factory.hpp:77] Creating layer relu2_3_branch2a
I0112 16:13:06.468801 14514 net.cpp:106] Creating Layer relu2_3_branch2a
I0112 16:13:06.468808 14514 net.cpp:454] relu2_3_branch2a <- enet2_3_branch2a
I0112 16:13:06.468817 14514 net.cpp:397] relu2_3_branch2a -> enet2_3_branch2a (in-place)
I0112 16:13:06.470286 14514 net.cpp:150] Setting up relu2_3_branch2a
I0112 16:13:06.470304 14514 net.cpp:157] Top shape: 4 32 47 155 (932480)
I0112 16:13:06.470311 14514 net.cpp:165] Memory required for data: 2375959072
I0112 16:13:06.470321 14514 layer_factory.hpp:77] Creating layer enet2_3_branch2b1
I0112 16:13:06.470341 14514 net.cpp:106] Creating Layer enet2_3_branch2b1
I0112 16:13:06.470350 14514 net.cpp:454] enet2_3_branch2b1 <- enet2_3_branch2a
I0112 16:13:06.470365 14514 net.cpp:411] enet2_3_branch2b1 -> enet2_3_branch2b1
I0112 16:13:06.473978 14514 net.cpp:150] Setting up enet2_3_branch2b1
I0112 16:13:06.474004 14514 net.cpp:157] Top shape: 4 32 47 155 (932480)
I0112 16:13:06.474011 14514 net.cpp:165] Memory required for data: 2379688992
I0112 16:13:06.474021 14514 layer_factory.hpp:77] Creating layer enet2_3_branch2b
I0112 16:13:06.474041 14514 net.cpp:106] Creating Layer enet2_3_branch2b
I0112 16:13:06.474056 14514 net.cpp:454] enet2_3_branch2b <- enet2_3_branch2b1
I0112 16:13:06.474071 14514 net.cpp:411] enet2_3_branch2b -> enet2_3_branch2b
I0112 16:13:06.481240 14514 net.cpp:150] Setting up enet2_3_branch2b
I0112 16:13:06.481261 14514 net.cpp:157] Top shape: 4 32 47 155 (932480)
I0112 16:13:06.481269 14514 net.cpp:165] Memory required for data: 2383418912
I0112 16:13:06.481281 14514 layer_factory.hpp:77] Creating layer bn2_3_branch2b
I0112 16:13:06.481297 14514 net.cpp:106] Creating Layer bn2_3_branch2b
I0112 16:13:06.481304 14514 net.cpp:454] bn2_3_branch2b <- enet2_3_branch2b
I0112 16:13:06.481318 14514 net.cpp:397] bn2_3_branch2b -> enet2_3_branch2b (in-place)
I0112 16:13:06.482463 14514 net.cpp:150] Setting up bn2_3_branch2b
I0112 16:13:06.482478 14514 net.cpp:157] Top shape: 4 32 47 155 (932480)
I0112 16:13:06.482486 14514 net.cpp:165] Memory required for data: 2387148832
I0112 16:13:06.482496 14514 layer_factory.hpp:77] Creating layer relu2_3_branch2b
I0112 16:13:06.482508 14514 net.cpp:106] Creating Layer relu2_3_branch2b
I0112 16:13:06.482516 14514 net.cpp:454] relu2_3_branch2b <- enet2_3_branch2b
I0112 16:13:06.482525 14514 net.cpp:397] relu2_3_branch2b -> enet2_3_branch2b (in-place)
I0112 16:13:06.483930 14514 net.cpp:150] Setting up relu2_3_branch2b
I0112 16:13:06.483947 14514 net.cpp:157] Top shape: 4 32 47 155 (932480)
I0112 16:13:06.483954 14514 net.cpp:165] Memory required for data: 2390878752
I0112 16:13:06.483964 14514 layer_factory.hpp:77] Creating layer enet2_3_branch2c
I0112 16:13:06.483980 14514 net.cpp:106] Creating Layer enet2_3_branch2c
I0112 16:13:06.483989 14514 net.cpp:454] enet2_3_branch2c <- enet2_3_branch2b
I0112 16:13:06.484004 14514 net.cpp:411] enet2_3_branch2c -> enet2_3_branch2c
I0112 16:13:06.487440 14514 net.cpp:150] Setting up enet2_3_branch2c
I0112 16:13:06.487459 14514 net.cpp:157] Top shape: 4 128 47 155 (3729920)
I0112 16:13:06.487467 14514 net.cpp:165] Memory required for data: 2405798432
I0112 16:13:06.487476 14514 layer_factory.hpp:77] Creating layer bn2_3_branch2c
I0112 16:13:06.487491 14514 net.cpp:106] Creating Layer bn2_3_branch2c
I0112 16:13:06.487500 14514 net.cpp:454] bn2_3_branch2c <- enet2_3_branch2c
I0112 16:13:06.487514 14514 net.cpp:397] bn2_3_branch2c -> enet2_3_branch2c (in-place)
I0112 16:13:06.487969 14514 net.cpp:150] Setting up bn2_3_branch2c
I0112 16:13:06.488003 14514 net.cpp:157] Top shape: 4 128 47 155 (3729920)
I0112 16:13:06.488023 14514 net.cpp:165] Memory required for data: 2420718112
I0112 16:13:06.488034 14514 layer_factory.hpp:77] Creating layer dropout2_3_branch2c
I0112 16:13:06.488046 14514 net.cpp:106] Creating Layer dropout2_3_branch2c
I0112 16:13:06.488057 14514 net.cpp:454] dropout2_3_branch2c <- enet2_3_branch2c
I0112 16:13:06.488070 14514 net.cpp:397] dropout2_3_branch2c -> enet2_3_branch2c (in-place)
I0112 16:13:06.488126 14514 net.cpp:150] Setting up dropout2_3_branch2c
I0112 16:13:06.488139 14514 net.cpp:157] Top shape: 4 128 47 155 (3729920)
I0112 16:13:06.488147 14514 net.cpp:165] Memory required for data: 2435637792
I0112 16:13:06.488153 14514 layer_factory.hpp:77] Creating layer enet2_3
I0112 16:13:06.488163 14514 net.cpp:106] Creating Layer enet2_3
I0112 16:13:06.488170 14514 net.cpp:454] enet2_3 <- enet2_2_relu2_2_0_split_1
I0112 16:13:06.488179 14514 net.cpp:454] enet2_3 <- enet2_3_branch2c
I0112 16:13:06.488188 14514 net.cpp:411] enet2_3 -> enet2_3
I0112 16:13:06.488243 14514 net.cpp:150] Setting up enet2_3
I0112 16:13:06.488257 14514 net.cpp:157] Top shape: 4 128 47 155 (3729920)
I0112 16:13:06.488263 14514 net.cpp:165] Memory required for data: 2450557472
I0112 16:13:06.488270 14514 layer_factory.hpp:77] Creating layer relu2_3
I0112 16:13:06.488281 14514 net.cpp:106] Creating Layer relu2_3
I0112 16:13:06.488288 14514 net.cpp:454] relu2_3 <- enet2_3
I0112 16:13:06.488297 14514 net.cpp:397] relu2_3 -> enet2_3 (in-place)
I0112 16:13:06.492460 14514 net.cpp:150] Setting up relu2_3
I0112 16:13:06.492477 14514 net.cpp:157] Top shape: 4 128 47 155 (3729920)
I0112 16:13:06.492486 14514 net.cpp:165] Memory required for data: 2465477152
I0112 16:13:06.492524 14514 layer_factory.hpp:77] Creating layer enet2_3_relu2_3_0_split
I0112 16:13:06.492537 14514 net.cpp:106] Creating Layer enet2_3_relu2_3_0_split
I0112 16:13:06.492545 14514 net.cpp:454] enet2_3_relu2_3_0_split <- enet2_3
I0112 16:13:06.492558 14514 net.cpp:411] enet2_3_relu2_3_0_split -> enet2_3_relu2_3_0_split_0
I0112 16:13:06.492573 14514 net.cpp:411] enet2_3_relu2_3_0_split -> enet2_3_relu2_3_0_split_1
I0112 16:13:06.492653 14514 net.cpp:150] Setting up enet2_3_relu2_3_0_split
I0112 16:13:06.492667 14514 net.cpp:157] Top shape: 4 128 47 155 (3729920)
I0112 16:13:06.492676 14514 net.cpp:157] Top shape: 4 128 47 155 (3729920)
I0112 16:13:06.492681 14514 net.cpp:165] Memory required for data: 2495316512
I0112 16:13:06.492688 14514 layer_factory.hpp:77] Creating layer enet2_4_branch2a
I0112 16:13:06.492705 14514 net.cpp:106] Creating Layer enet2_4_branch2a
I0112 16:13:06.492714 14514 net.cpp:454] enet2_4_branch2a <- enet2_3_relu2_3_0_split_0
I0112 16:13:06.492725 14514 net.cpp:411] enet2_4_branch2a -> enet2_4_branch2a
I0112 16:13:06.496361 14514 net.cpp:150] Setting up enet2_4_branch2a
I0112 16:13:06.496381 14514 net.cpp:157] Top shape: 4 32 47 155 (932480)
I0112 16:13:06.496387 14514 net.cpp:165] Memory required for data: 2499046432
I0112 16:13:06.496397 14514 layer_factory.hpp:77] Creating layer bn2_4_branch2a
I0112 16:13:06.496415 14514 net.cpp:106] Creating Layer bn2_4_branch2a
I0112 16:13:06.496423 14514 net.cpp:454] bn2_4_branch2a <- enet2_4_branch2a
I0112 16:13:06.496434 14514 net.cpp:397] bn2_4_branch2a -> enet2_4_branch2a (in-place)
I0112 16:13:06.497927 14514 net.cpp:150] Setting up bn2_4_branch2a
I0112 16:13:06.497944 14514 net.cpp:157] Top shape: 4 32 47 155 (932480)
I0112 16:13:06.497951 14514 net.cpp:165] Memory required for data: 2502776352
I0112 16:13:06.497962 14514 layer_factory.hpp:77] Creating layer relu2_4_branch2a
I0112 16:13:06.497977 14514 net.cpp:106] Creating Layer relu2_4_branch2a
I0112 16:13:06.497984 14514 net.cpp:454] relu2_4_branch2a <- enet2_4_branch2a
I0112 16:13:06.497994 14514 net.cpp:397] relu2_4_branch2a -> enet2_4_branch2a (in-place)
I0112 16:13:06.499397 14514 net.cpp:150] Setting up relu2_4_branch2a
I0112 16:13:06.499413 14514 net.cpp:157] Top shape: 4 32 47 155 (932480)
I0112 16:13:06.499420 14514 net.cpp:165] Memory required for data: 2506506272
I0112 16:13:06.499442 14514 layer_factory.hpp:77] Creating layer enet2_4_branch2b
I0112 16:13:06.499472 14514 net.cpp:106] Creating Layer enet2_4_branch2b
I0112 16:13:06.499481 14514 net.cpp:454] enet2_4_branch2b <- enet2_4_branch2a
I0112 16:13:06.499495 14514 net.cpp:411] enet2_4_branch2b -> enet2_4_branch2b
I0112 16:13:06.500253 14514 net.cpp:150] Setting up enet2_4_branch2b
I0112 16:13:06.500269 14514 net.cpp:157] Top shape: 4 32 47 155 (932480)
I0112 16:13:06.500275 14514 net.cpp:165] Memory required for data: 2510236192
I0112 16:13:06.500285 14514 layer_factory.hpp:77] Creating layer bn2_4_branch2b
I0112 16:13:06.500322 14514 net.cpp:106] Creating Layer bn2_4_branch2b
I0112 16:13:06.500331 14514 net.cpp:454] bn2_4_branch2b <- enet2_4_branch2b
I0112 16:13:06.500345 14514 net.cpp:397] bn2_4_branch2b -> enet2_4_branch2b (in-place)
I0112 16:13:06.500809 14514 net.cpp:150] Setting up bn2_4_branch2b
I0112 16:13:06.500824 14514 net.cpp:157] Top shape: 4 32 47 155 (932480)
I0112 16:13:06.500830 14514 net.cpp:165] Memory required for data: 2513966112
I0112 16:13:06.500843 14514 layer_factory.hpp:77] Creating layer relu2_4_branch2b
I0112 16:13:06.500855 14514 net.cpp:106] Creating Layer relu2_4_branch2b
I0112 16:13:06.500862 14514 net.cpp:454] relu2_4_branch2b <- enet2_4_branch2b
I0112 16:13:06.500871 14514 net.cpp:397] relu2_4_branch2b -> enet2_4_branch2b (in-place)
I0112 16:13:06.502365 14514 net.cpp:150] Setting up relu2_4_branch2b
I0112 16:13:06.502383 14514 net.cpp:157] Top shape: 4 32 47 155 (932480)
I0112 16:13:06.502390 14514 net.cpp:165] Memory required for data: 2517696032
I0112 16:13:06.502400 14514 layer_factory.hpp:77] Creating layer enet2_4_branch2c
I0112 16:13:06.502418 14514 net.cpp:106] Creating Layer enet2_4_branch2c
I0112 16:13:06.502426 14514 net.cpp:454] enet2_4_branch2c <- enet2_4_branch2b
I0112 16:13:06.502444 14514 net.cpp:411] enet2_4_branch2c -> enet2_4_branch2c
I0112 16:13:06.506278 14514 net.cpp:150] Setting up enet2_4_branch2c
I0112 16:13:06.506302 14514 net.cpp:157] Top shape: 4 128 47 155 (3729920)
I0112 16:13:06.506310 14514 net.cpp:165] Memory required for data: 2532615712
I0112 16:13:06.506320 14514 layer_factory.hpp:77] Creating layer bn2_4_branch2c
I0112 16:13:06.506340 14514 net.cpp:106] Creating Layer bn2_4_branch2c
I0112 16:13:06.506348 14514 net.cpp:454] bn2_4_branch2c <- enet2_4_branch2c
I0112 16:13:06.506361 14514 net.cpp:397] bn2_4_branch2c -> enet2_4_branch2c (in-place)
I0112 16:13:06.506831 14514 net.cpp:150] Setting up bn2_4_branch2c
I0112 16:13:06.506846 14514 net.cpp:157] Top shape: 4 128 47 155 (3729920)
I0112 16:13:06.506853 14514 net.cpp:165] Memory required for data: 2547535392
I0112 16:13:06.506865 14514 layer_factory.hpp:77] Creating layer dropout2_4_branch2c
I0112 16:13:06.506882 14514 net.cpp:106] Creating Layer dropout2_4_branch2c
I0112 16:13:06.506891 14514 net.cpp:454] dropout2_4_branch2c <- enet2_4_branch2c
I0112 16:13:06.506901 14514 net.cpp:397] dropout2_4_branch2c -> enet2_4_branch2c (in-place)
I0112 16:13:06.506955 14514 net.cpp:150] Setting up dropout2_4_branch2c
I0112 16:13:06.506969 14514 net.cpp:157] Top shape: 4 128 47 155 (3729920)
I0112 16:13:06.506975 14514 net.cpp:165] Memory required for data: 2562455072
I0112 16:13:06.506983 14514 layer_factory.hpp:77] Creating layer enet2_4
I0112 16:13:06.506996 14514 net.cpp:106] Creating Layer enet2_4
I0112 16:13:06.507004 14514 net.cpp:454] enet2_4 <- enet2_3_relu2_3_0_split_1
I0112 16:13:06.507014 14514 net.cpp:454] enet2_4 <- enet2_4_branch2c
I0112 16:13:06.507024 14514 net.cpp:411] enet2_4 -> enet2_4
I0112 16:13:06.507089 14514 net.cpp:150] Setting up enet2_4
I0112 16:13:06.507103 14514 net.cpp:157] Top shape: 4 128 47 155 (3729920)
I0112 16:13:06.507109 14514 net.cpp:165] Memory required for data: 2577374752
I0112 16:13:06.507117 14514 layer_factory.hpp:77] Creating layer relu2_4
I0112 16:13:06.507125 14514 net.cpp:106] Creating Layer relu2_4
I0112 16:13:06.507133 14514 net.cpp:454] relu2_4 <- enet2_4
I0112 16:13:06.507144 14514 net.cpp:397] relu2_4 -> enet2_4 (in-place)
I0112 16:13:06.512538 14514 net.cpp:150] Setting up relu2_4
I0112 16:13:06.512599 14514 net.cpp:157] Top shape: 4 128 47 155 (3729920)
I0112 16:13:06.512621 14514 net.cpp:165] Memory required for data: 2592294432
I0112 16:13:06.512636 14514 layer_factory.hpp:77] Creating layer enet2_4_relu2_4_0_split
I0112 16:13:06.512760 14514 net.cpp:106] Creating Layer enet2_4_relu2_4_0_split
I0112 16:13:06.512771 14514 net.cpp:454] enet2_4_relu2_4_0_split <- enet2_4
I0112 16:13:06.512785 14514 net.cpp:411] enet2_4_relu2_4_0_split -> enet2_4_relu2_4_0_split_0
I0112 16:13:06.512800 14514 net.cpp:411] enet2_4_relu2_4_0_split -> enet2_4_relu2_4_0_split_1
I0112 16:13:06.512940 14514 net.cpp:150] Setting up enet2_4_relu2_4_0_split
I0112 16:13:06.512955 14514 net.cpp:157] Top shape: 4 128 47 155 (3729920)
I0112 16:13:06.512964 14514 net.cpp:157] Top shape: 4 128 47 155 (3729920)
I0112 16:13:06.512969 14514 net.cpp:165] Memory required for data: 2622133792
I0112 16:13:06.512976 14514 layer_factory.hpp:77] Creating layer enet2_5_branch2a
I0112 16:13:06.512995 14514 net.cpp:106] Creating Layer enet2_5_branch2a
I0112 16:13:06.513003 14514 net.cpp:454] enet2_5_branch2a <- enet2_4_relu2_4_0_split_0
I0112 16:13:06.513017 14514 net.cpp:411] enet2_5_branch2a -> enet2_5_branch2a
I0112 16:13:06.516871 14514 net.cpp:150] Setting up enet2_5_branch2a
I0112 16:13:06.516890 14514 net.cpp:157] Top shape: 4 32 47 155 (932480)
I0112 16:13:06.516897 14514 net.cpp:165] Memory required for data: 2625863712
I0112 16:13:06.516907 14514 layer_factory.hpp:77] Creating layer bn2_5_branch2a
I0112 16:13:06.516926 14514 net.cpp:106] Creating Layer bn2_5_branch2a
I0112 16:13:06.516933 14514 net.cpp:454] bn2_5_branch2a <- enet2_5_branch2a
I0112 16:13:06.516947 14514 net.cpp:397] bn2_5_branch2a -> enet2_5_branch2a (in-place)
I0112 16:13:06.517465 14514 net.cpp:150] Setting up bn2_5_branch2a
I0112 16:13:06.517480 14514 net.cpp:157] Top shape: 4 32 47 155 (932480)
I0112 16:13:06.517488 14514 net.cpp:165] Memory required for data: 2629593632
I0112 16:13:06.517498 14514 layer_factory.hpp:77] Creating layer relu2_5_branch2a
I0112 16:13:06.517513 14514 net.cpp:106] Creating Layer relu2_5_branch2a
I0112 16:13:06.517520 14514 net.cpp:454] relu2_5_branch2a <- enet2_5_branch2a
I0112 16:13:06.517529 14514 net.cpp:397] relu2_5_branch2a -> enet2_5_branch2a (in-place)
I0112 16:13:06.518932 14514 net.cpp:150] Setting up relu2_5_branch2a
I0112 16:13:06.518949 14514 net.cpp:157] Top shape: 4 32 47 155 (932480)
I0112 16:13:06.518956 14514 net.cpp:165] Memory required for data: 2633323552
I0112 16:13:06.518965 14514 layer_factory.hpp:77] Creating layer enet2_5_branch2b
I0112 16:13:06.518983 14514 net.cpp:106] Creating Layer enet2_5_branch2b
I0112 16:13:06.518991 14514 net.cpp:454] enet2_5_branch2b <- enet2_5_branch2a
I0112 16:13:06.519006 14514 net.cpp:411] enet2_5_branch2b -> enet2_5_branch2b
I0112 16:13:06.522924 14514 net.cpp:150] Setting up enet2_5_branch2b
I0112 16:13:06.522943 14514 net.cpp:157] Top shape: 4 32 47 155 (932480)
I0112 16:13:06.522950 14514 net.cpp:165] Memory required for data: 2637053472
I0112 16:13:06.522963 14514 layer_factory.hpp:77] Creating layer bn2_5_branch2b
I0112 16:13:06.522977 14514 net.cpp:106] Creating Layer bn2_5_branch2b
I0112 16:13:06.522985 14514 net.cpp:454] bn2_5_branch2b <- enet2_5_branch2b
I0112 16:13:06.522999 14514 net.cpp:397] bn2_5_branch2b -> enet2_5_branch2b (in-place)
I0112 16:13:06.523509 14514 net.cpp:150] Setting up bn2_5_branch2b
I0112 16:13:06.523524 14514 net.cpp:157] Top shape: 4 32 47 155 (932480)
I0112 16:13:06.523530 14514 net.cpp:165] Memory required for data: 2640783392
I0112 16:13:06.523540 14514 layer_factory.hpp:77] Creating layer relu2_5_branch2b
I0112 16:13:06.523553 14514 net.cpp:106] Creating Layer relu2_5_branch2b
I0112 16:13:06.523561 14514 net.cpp:454] relu2_5_branch2b <- enet2_5_branch2b
I0112 16:13:06.523571 14514 net.cpp:397] relu2_5_branch2b -> enet2_5_branch2b (in-place)
I0112 16:13:06.524929 14514 net.cpp:150] Setting up relu2_5_branch2b
I0112 16:13:06.524945 14514 net.cpp:157] Top shape: 4 32 47 155 (932480)
I0112 16:13:06.524952 14514 net.cpp:165] Memory required for data: 2644513312
I0112 16:13:06.524971 14514 layer_factory.hpp:77] Creating layer enet2_5_branch2c
I0112 16:13:06.524996 14514 net.cpp:106] Creating Layer enet2_5_branch2c
I0112 16:13:06.525004 14514 net.cpp:454] enet2_5_branch2c <- enet2_5_branch2b
I0112 16:13:06.525018 14514 net.cpp:411] enet2_5_branch2c -> enet2_5_branch2c
I0112 16:13:06.528645 14514 net.cpp:150] Setting up enet2_5_branch2c
I0112 16:13:06.528667 14514 net.cpp:157] Top shape: 4 128 47 155 (3729920)
I0112 16:13:06.528676 14514 net.cpp:165] Memory required for data: 2659432992
I0112 16:13:06.528686 14514 layer_factory.hpp:77] Creating layer bn2_5_branch2c
I0112 16:13:06.528698 14514 net.cpp:106] Creating Layer bn2_5_branch2c
I0112 16:13:06.528707 14514 net.cpp:454] bn2_5_branch2c <- enet2_5_branch2c
I0112 16:13:06.528719 14514 net.cpp:397] bn2_5_branch2c -> enet2_5_branch2c (in-place)
I0112 16:13:06.529229 14514 net.cpp:150] Setting up bn2_5_branch2c
I0112 16:13:06.529244 14514 net.cpp:157] Top shape: 4 128 47 155 (3729920)
I0112 16:13:06.529251 14514 net.cpp:165] Memory required for data: 2674352672
I0112 16:13:06.529261 14514 layer_factory.hpp:77] Creating layer dropout2_5_branch2c
I0112 16:13:06.529273 14514 net.cpp:106] Creating Layer dropout2_5_branch2c
I0112 16:13:06.529280 14514 net.cpp:454] dropout2_5_branch2c <- enet2_5_branch2c
I0112 16:13:06.529294 14514 net.cpp:397] dropout2_5_branch2c -> enet2_5_branch2c (in-place)
I0112 16:13:06.529351 14514 net.cpp:150] Setting up dropout2_5_branch2c
I0112 16:13:06.529366 14514 net.cpp:157] Top shape: 4 128 47 155 (3729920)
I0112 16:13:06.529371 14514 net.cpp:165] Memory required for data: 2689272352
I0112 16:13:06.529378 14514 layer_factory.hpp:77] Creating layer enet2_5
I0112 16:13:06.529388 14514 net.cpp:106] Creating Layer enet2_5
I0112 16:13:06.529397 14514 net.cpp:454] enet2_5 <- enet2_4_relu2_4_0_split_1
I0112 16:13:06.529405 14514 net.cpp:454] enet2_5 <- enet2_5_branch2c
I0112 16:13:06.529418 14514 net.cpp:411] enet2_5 -> enet2_5
I0112 16:13:06.529474 14514 net.cpp:150] Setting up enet2_5
I0112 16:13:06.529491 14514 net.cpp:157] Top shape: 4 128 47 155 (3729920)
I0112 16:13:06.529498 14514 net.cpp:165] Memory required for data: 2704192032
I0112 16:13:06.529505 14514 layer_factory.hpp:77] Creating layer relu2_5
I0112 16:13:06.529515 14514 net.cpp:106] Creating Layer relu2_5
I0112 16:13:06.529521 14514 net.cpp:454] relu2_5 <- enet2_5
I0112 16:13:06.529531 14514 net.cpp:397] relu2_5 -> enet2_5 (in-place)
I0112 16:13:06.534435 14514 net.cpp:150] Setting up relu2_5
I0112 16:13:06.534474 14514 net.cpp:157] Top shape: 4 128 47 155 (3729920)
I0112 16:13:06.534482 14514 net.cpp:165] Memory required for data: 2719111712
I0112 16:13:06.534494 14514 layer_factory.hpp:77] Creating layer enet2_5_relu2_5_0_split
I0112 16:13:06.534510 14514 net.cpp:106] Creating Layer enet2_5_relu2_5_0_split
I0112 16:13:06.534519 14514 net.cpp:454] enet2_5_relu2_5_0_split <- enet2_5
I0112 16:13:06.534535 14514 net.cpp:411] enet2_5_relu2_5_0_split -> enet2_5_relu2_5_0_split_0
I0112 16:13:06.534551 14514 net.cpp:411] enet2_5_relu2_5_0_split -> enet2_5_relu2_5_0_split_1
I0112 16:13:06.534646 14514 net.cpp:150] Setting up enet2_5_relu2_5_0_split
I0112 16:13:06.534660 14514 net.cpp:157] Top shape: 4 128 47 155 (3729920)
I0112 16:13:06.534668 14514 net.cpp:157] Top shape: 4 128 47 155 (3729920)
I0112 16:13:06.534675 14514 net.cpp:165] Memory required for data: 2748951072
I0112 16:13:06.534682 14514 layer_factory.hpp:77] Creating layer enet2_6_branch2a
I0112 16:13:06.534703 14514 net.cpp:106] Creating Layer enet2_6_branch2a
I0112 16:13:06.534713 14514 net.cpp:454] enet2_6_branch2a <- enet2_5_relu2_5_0_split_0
I0112 16:13:06.534724 14514 net.cpp:411] enet2_6_branch2a -> enet2_6_branch2a
I0112 16:13:06.538691 14514 net.cpp:150] Setting up enet2_6_branch2a
I0112 16:13:06.538718 14514 net.cpp:157] Top shape: 4 32 47 155 (932480)
I0112 16:13:06.538727 14514 net.cpp:165] Memory required for data: 2752680992
I0112 16:13:06.538738 14514 layer_factory.hpp:77] Creating layer bn2_6_branch2a
I0112 16:13:06.538758 14514 net.cpp:106] Creating Layer bn2_6_branch2a
I0112 16:13:06.538785 14514 net.cpp:454] bn2_6_branch2a <- enet2_6_branch2a
I0112 16:13:06.538812 14514 net.cpp:397] bn2_6_branch2a -> enet2_6_branch2a (in-place)
I0112 16:13:06.539353 14514 net.cpp:150] Setting up bn2_6_branch2a
I0112 16:13:06.539368 14514 net.cpp:157] Top shape: 4 32 47 155 (932480)
I0112 16:13:06.539374 14514 net.cpp:165] Memory required for data: 2756410912
I0112 16:13:06.539386 14514 layer_factory.hpp:77] Creating layer relu2_6_branch2a
I0112 16:13:06.539397 14514 net.cpp:106] Creating Layer relu2_6_branch2a
I0112 16:13:06.539404 14514 net.cpp:454] relu2_6_branch2a <- enet2_6_branch2a
I0112 16:13:06.539422 14514 net.cpp:397] relu2_6_branch2a -> enet2_6_branch2a (in-place)
I0112 16:13:06.542073 14514 net.cpp:150] Setting up relu2_6_branch2a
I0112 16:13:06.542091 14514 net.cpp:157] Top shape: 4 32 47 155 (932480)
I0112 16:13:06.542098 14514 net.cpp:165] Memory required for data: 2760140832
I0112 16:13:06.542109 14514 layer_factory.hpp:77] Creating layer enet2_6_branch2b
I0112 16:13:06.542131 14514 net.cpp:106] Creating Layer enet2_6_branch2b
I0112 16:13:06.542140 14514 net.cpp:454] enet2_6_branch2b <- enet2_6_branch2a
I0112 16:13:06.542151 14514 net.cpp:411] enet2_6_branch2b -> enet2_6_branch2b
I0112 16:13:06.542948 14514 net.cpp:150] Setting up enet2_6_branch2b
I0112 16:13:06.542965 14514 net.cpp:157] Top shape: 4 32 47 155 (932480)
I0112 16:13:06.542973 14514 net.cpp:165] Memory required for data: 2763870752
I0112 16:13:06.542984 14514 layer_factory.hpp:77] Creating layer bn2_6_branch2b
I0112 16:13:06.542994 14514 net.cpp:106] Creating Layer bn2_6_branch2b
I0112 16:13:06.543002 14514 net.cpp:454] bn2_6_branch2b <- enet2_6_branch2b
I0112 16:13:06.543015 14514 net.cpp:397] bn2_6_branch2b -> enet2_6_branch2b (in-place)
I0112 16:13:06.543541 14514 net.cpp:150] Setting up bn2_6_branch2b
I0112 16:13:06.543555 14514 net.cpp:157] Top shape: 4 32 47 155 (932480)
I0112 16:13:06.543562 14514 net.cpp:165] Memory required for data: 2767600672
I0112 16:13:06.543572 14514 layer_factory.hpp:77] Creating layer relu2_6_branch2b
I0112 16:13:06.543586 14514 net.cpp:106] Creating Layer relu2_6_branch2b
I0112 16:13:06.543593 14514 net.cpp:454] relu2_6_branch2b <- enet2_6_branch2b
I0112 16:13:06.543602 14514 net.cpp:397] relu2_6_branch2b -> enet2_6_branch2b (in-place)
I0112 16:13:06.544961 14514 net.cpp:150] Setting up relu2_6_branch2b
I0112 16:13:06.544978 14514 net.cpp:157] Top shape: 4 32 47 155 (932480)
I0112 16:13:06.544986 14514 net.cpp:165] Memory required for data: 2771330592
I0112 16:13:06.544994 14514 layer_factory.hpp:77] Creating layer enet2_6_branch2c
I0112 16:13:06.545012 14514 net.cpp:106] Creating Layer enet2_6_branch2c
I0112 16:13:06.545020 14514 net.cpp:454] enet2_6_branch2c <- enet2_6_branch2b
I0112 16:13:06.545033 14514 net.cpp:411] enet2_6_branch2c -> enet2_6_branch2c
I0112 16:13:06.548657 14514 net.cpp:150] Setting up enet2_6_branch2c
I0112 16:13:06.548678 14514 net.cpp:157] Top shape: 4 128 47 155 (3729920)
I0112 16:13:06.548686 14514 net.cpp:165] Memory required for data: 2786250272
I0112 16:13:06.548696 14514 layer_factory.hpp:77] Creating layer bn2_6_branch2c
I0112 16:13:06.548708 14514 net.cpp:106] Creating Layer bn2_6_branch2c
I0112 16:13:06.548717 14514 net.cpp:454] bn2_6_branch2c <- enet2_6_branch2c
I0112 16:13:06.548729 14514 net.cpp:397] bn2_6_branch2c -> enet2_6_branch2c (in-place)
I0112 16:13:06.549255 14514 net.cpp:150] Setting up bn2_6_branch2c
I0112 16:13:06.549270 14514 net.cpp:157] Top shape: 4 128 47 155 (3729920)
I0112 16:13:06.549278 14514 net.cpp:165] Memory required for data: 2801169952
I0112 16:13:06.549288 14514 layer_factory.hpp:77] Creating layer dropout2_6_branch2c
I0112 16:13:06.549299 14514 net.cpp:106] Creating Layer dropout2_6_branch2c
I0112 16:13:06.549307 14514 net.cpp:454] dropout2_6_branch2c <- enet2_6_branch2c
I0112 16:13:06.549319 14514 net.cpp:397] dropout2_6_branch2c -> enet2_6_branch2c (in-place)
I0112 16:13:06.549378 14514 net.cpp:150] Setting up dropout2_6_branch2c
I0112 16:13:06.549392 14514 net.cpp:157] Top shape: 4 128 47 155 (3729920)
I0112 16:13:06.549407 14514 net.cpp:165] Memory required for data: 2816089632
I0112 16:13:06.549422 14514 layer_factory.hpp:77] Creating layer enet2_6
I0112 16:13:06.549432 14514 net.cpp:106] Creating Layer enet2_6
I0112 16:13:06.549440 14514 net.cpp:454] enet2_6 <- enet2_5_relu2_5_0_split_1
I0112 16:13:06.549448 14514 net.cpp:454] enet2_6 <- enet2_6_branch2c
I0112 16:13:06.549461 14514 net.cpp:411] enet2_6 -> enet2_6
I0112 16:13:06.549520 14514 net.cpp:150] Setting up enet2_6
I0112 16:13:06.549537 14514 net.cpp:157] Top shape: 4 128 47 155 (3729920)
I0112 16:13:06.549545 14514 net.cpp:165] Memory required for data: 2831009312
I0112 16:13:06.549551 14514 layer_factory.hpp:77] Creating layer relu2_6
I0112 16:13:06.549559 14514 net.cpp:106] Creating Layer relu2_6
I0112 16:13:06.549566 14514 net.cpp:454] relu2_6 <- enet2_6
I0112 16:13:06.549576 14514 net.cpp:397] relu2_6 -> enet2_6 (in-place)
I0112 16:13:06.553804 14514 net.cpp:150] Setting up relu2_6
I0112 16:13:06.553823 14514 net.cpp:157] Top shape: 4 128 47 155 (3729920)
I0112 16:13:06.553830 14514 net.cpp:165] Memory required for data: 2845928992
I0112 16:13:06.553840 14514 layer_factory.hpp:77] Creating layer enet2_6_relu2_6_0_split
I0112 16:13:06.553853 14514 net.cpp:106] Creating Layer enet2_6_relu2_6_0_split
I0112 16:13:06.553859 14514 net.cpp:454] enet2_6_relu2_6_0_split <- enet2_6
I0112 16:13:06.553872 14514 net.cpp:411] enet2_6_relu2_6_0_split -> enet2_6_relu2_6_0_split_0
I0112 16:13:06.553885 14514 net.cpp:411] enet2_6_relu2_6_0_split -> enet2_6_relu2_6_0_split_1
I0112 16:13:06.553978 14514 net.cpp:150] Setting up enet2_6_relu2_6_0_split
I0112 16:13:06.553992 14514 net.cpp:157] Top shape: 4 128 47 155 (3729920)
I0112 16:13:06.554000 14514 net.cpp:157] Top shape: 4 128 47 155 (3729920)
I0112 16:13:06.554006 14514 net.cpp:165] Memory required for data: 2875768352
I0112 16:13:06.554013 14514 layer_factory.hpp:77] Creating layer enet2_7_branch2a
I0112 16:13:06.554028 14514 net.cpp:106] Creating Layer enet2_7_branch2a
I0112 16:13:06.554038 14514 net.cpp:454] enet2_7_branch2a <- enet2_6_relu2_6_0_split_0
I0112 16:13:06.554049 14514 net.cpp:411] enet2_7_branch2a -> enet2_7_branch2a
I0112 16:13:06.557854 14514 net.cpp:150] Setting up enet2_7_branch2a
I0112 16:13:06.557873 14514 net.cpp:157] Top shape: 4 32 47 155 (932480)
I0112 16:13:06.557880 14514 net.cpp:165] Memory required for data: 2879498272
I0112 16:13:06.557890 14514 layer_factory.hpp:77] Creating layer bn2_7_branch2a
I0112 16:13:06.557905 14514 net.cpp:106] Creating Layer bn2_7_branch2a
I0112 16:13:06.557914 14514 net.cpp:454] bn2_7_branch2a <- enet2_7_branch2a
I0112 16:13:06.557925 14514 net.cpp:397] bn2_7_branch2a -> enet2_7_branch2a (in-place)
I0112 16:13:06.558475 14514 net.cpp:150] Setting up bn2_7_branch2a
I0112 16:13:06.558490 14514 net.cpp:157] Top shape: 4 32 47 155 (932480)
I0112 16:13:06.558496 14514 net.cpp:165] Memory required for data: 2883228192
I0112 16:13:06.558506 14514 layer_factory.hpp:77] Creating layer relu2_7_branch2a
I0112 16:13:06.558516 14514 net.cpp:106] Creating Layer relu2_7_branch2a
I0112 16:13:06.558523 14514 net.cpp:454] relu2_7_branch2a <- enet2_7_branch2a
I0112 16:13:06.558537 14514 net.cpp:397] relu2_7_branch2a -> enet2_7_branch2a (in-place)
I0112 16:13:06.559967 14514 net.cpp:150] Setting up relu2_7_branch2a
I0112 16:13:06.559984 14514 net.cpp:157] Top shape: 4 32 47 155 (932480)
I0112 16:13:06.559990 14514 net.cpp:165] Memory required for data: 2886958112
I0112 16:13:06.560000 14514 layer_factory.hpp:77] Creating layer enet2_7_branch2b1
I0112 16:13:06.560020 14514 net.cpp:106] Creating Layer enet2_7_branch2b1
I0112 16:13:06.560029 14514 net.cpp:454] enet2_7_branch2b1 <- enet2_7_branch2a
I0112 16:13:06.560040 14514 net.cpp:411] enet2_7_branch2b1 -> enet2_7_branch2b1
I0112 16:13:06.563942 14514 net.cpp:150] Setting up enet2_7_branch2b1
I0112 16:13:06.563966 14514 net.cpp:157] Top shape: 4 32 47 155 (932480)
I0112 16:13:06.563972 14514 net.cpp:165] Memory required for data: 2890688032
I0112 16:13:06.563982 14514 layer_factory.hpp:77] Creating layer enet2_7_branch2b
I0112 16:13:06.564018 14514 net.cpp:106] Creating Layer enet2_7_branch2b
I0112 16:13:06.564040 14514 net.cpp:454] enet2_7_branch2b <- enet2_7_branch2b1
I0112 16:13:06.564061 14514 net.cpp:411] enet2_7_branch2b -> enet2_7_branch2b
I0112 16:13:06.567926 14514 net.cpp:150] Setting up enet2_7_branch2b
I0112 16:13:06.567950 14514 net.cpp:157] Top shape: 4 32 47 155 (932480)
I0112 16:13:06.567958 14514 net.cpp:165] Memory required for data: 2894417952
I0112 16:13:06.567970 14514 layer_factory.hpp:77] Creating layer bn2_7_branch2b
I0112 16:13:06.567988 14514 net.cpp:106] Creating Layer bn2_7_branch2b
I0112 16:13:06.567997 14514 net.cpp:454] bn2_7_branch2b <- enet2_7_branch2b
I0112 16:13:06.568008 14514 net.cpp:397] bn2_7_branch2b -> enet2_7_branch2b (in-place)
I0112 16:13:06.568580 14514 net.cpp:150] Setting up bn2_7_branch2b
I0112 16:13:06.568595 14514 net.cpp:157] Top shape: 4 32 47 155 (932480)
I0112 16:13:06.568601 14514 net.cpp:165] Memory required for data: 2898147872
I0112 16:13:06.568612 14514 layer_factory.hpp:77] Creating layer relu2_7_branch2b
I0112 16:13:06.568624 14514 net.cpp:106] Creating Layer relu2_7_branch2b
I0112 16:13:06.568631 14514 net.cpp:454] relu2_7_branch2b <- enet2_7_branch2b
I0112 16:13:06.568644 14514 net.cpp:397] relu2_7_branch2b -> enet2_7_branch2b (in-place)
I0112 16:13:06.570188 14514 net.cpp:150] Setting up relu2_7_branch2b
I0112 16:13:06.570206 14514 net.cpp:157] Top shape: 4 32 47 155 (932480)
I0112 16:13:06.570214 14514 net.cpp:165] Memory required for data: 2901877792
I0112 16:13:06.570225 14514 layer_factory.hpp:77] Creating layer enet2_7_branch2c
I0112 16:13:06.570246 14514 net.cpp:106] Creating Layer enet2_7_branch2c
I0112 16:13:06.570255 14514 net.cpp:454] enet2_7_branch2c <- enet2_7_branch2b
I0112 16:13:06.570266 14514 net.cpp:411] enet2_7_branch2c -> enet2_7_branch2c
I0112 16:13:06.575289 14514 net.cpp:150] Setting up enet2_7_branch2c
I0112 16:13:06.575309 14514 net.cpp:157] Top shape: 4 128 47 155 (3729920)
I0112 16:13:06.575317 14514 net.cpp:165] Memory required for data: 2916797472
I0112 16:13:06.575326 14514 layer_factory.hpp:77] Creating layer bn2_7_branch2c
I0112 16:13:06.575345 14514 net.cpp:106] Creating Layer bn2_7_branch2c
I0112 16:13:06.575352 14514 net.cpp:454] bn2_7_branch2c <- enet2_7_branch2c
I0112 16:13:06.575366 14514 net.cpp:397] bn2_7_branch2c -> enet2_7_branch2c (in-place)
I0112 16:13:06.575934 14514 net.cpp:150] Setting up bn2_7_branch2c
I0112 16:13:06.575949 14514 net.cpp:157] Top shape: 4 128 47 155 (3729920)
I0112 16:13:06.575956 14514 net.cpp:165] Memory required for data: 2931717152
I0112 16:13:06.575966 14514 layer_factory.hpp:77] Creating layer dropout2_7_branch2c
I0112 16:13:06.575979 14514 net.cpp:106] Creating Layer dropout2_7_branch2c
I0112 16:13:06.575986 14514 net.cpp:454] dropout2_7_branch2c <- enet2_7_branch2c
I0112 16:13:06.575999 14514 net.cpp:397] dropout2_7_branch2c -> enet2_7_branch2c (in-place)
I0112 16:13:06.576066 14514 net.cpp:150] Setting up dropout2_7_branch2c
I0112 16:13:06.576079 14514 net.cpp:157] Top shape: 4 128 47 155 (3729920)
I0112 16:13:06.576086 14514 net.cpp:165] Memory required for data: 2946636832
I0112 16:13:06.576092 14514 layer_factory.hpp:77] Creating layer enet2_7
I0112 16:13:06.576103 14514 net.cpp:106] Creating Layer enet2_7
I0112 16:13:06.576110 14514 net.cpp:454] enet2_7 <- enet2_6_relu2_6_0_split_1
I0112 16:13:06.576119 14514 net.cpp:454] enet2_7 <- enet2_7_branch2c
I0112 16:13:06.576129 14514 net.cpp:411] enet2_7 -> enet2_7
I0112 16:13:06.576194 14514 net.cpp:150] Setting up enet2_7
I0112 16:13:06.576207 14514 net.cpp:157] Top shape: 4 128 47 155 (3729920)
I0112 16:13:06.576215 14514 net.cpp:165] Memory required for data: 2961556512
I0112 16:13:06.576220 14514 layer_factory.hpp:77] Creating layer relu2_7
I0112 16:13:06.576234 14514 net.cpp:106] Creating Layer relu2_7
I0112 16:13:06.576241 14514 net.cpp:454] relu2_7 <- enet2_7
I0112 16:13:06.576251 14514 net.cpp:397] relu2_7 -> enet2_7 (in-place)
I0112 16:13:06.580471 14514 net.cpp:150] Setting up relu2_7
I0112 16:13:06.580492 14514 net.cpp:157] Top shape: 4 128 47 155 (3729920)
I0112 16:13:06.580515 14514 net.cpp:165] Memory required for data: 2976476192
I0112 16:13:06.580539 14514 layer_factory.hpp:77] Creating layer enet2_7_relu2_7_0_split
I0112 16:13:06.580551 14514 net.cpp:106] Creating Layer enet2_7_relu2_7_0_split
I0112 16:13:06.580559 14514 net.cpp:454] enet2_7_relu2_7_0_split <- enet2_7
I0112 16:13:06.580569 14514 net.cpp:411] enet2_7_relu2_7_0_split -> enet2_7_relu2_7_0_split_0
I0112 16:13:06.580581 14514 net.cpp:411] enet2_7_relu2_7_0_split -> enet2_7_relu2_7_0_split_1
I0112 16:13:06.580682 14514 net.cpp:150] Setting up enet2_7_relu2_7_0_split
I0112 16:13:06.580696 14514 net.cpp:157] Top shape: 4 128 47 155 (3729920)
I0112 16:13:06.580704 14514 net.cpp:157] Top shape: 4 128 47 155 (3729920)
I0112 16:13:06.580710 14514 net.cpp:165] Memory required for data: 3006315552
I0112 16:13:06.580718 14514 layer_factory.hpp:77] Creating layer enet2_8_branch2a
I0112 16:13:06.580734 14514 net.cpp:106] Creating Layer enet2_8_branch2a
I0112 16:13:06.580742 14514 net.cpp:454] enet2_8_branch2a <- enet2_7_relu2_7_0_split_0
I0112 16:13:06.580754 14514 net.cpp:411] enet2_8_branch2a -> enet2_8_branch2a
I0112 16:13:06.584547 14514 net.cpp:150] Setting up enet2_8_branch2a
I0112 16:13:06.584565 14514 net.cpp:157] Top shape: 4 32 47 155 (932480)
I0112 16:13:06.584573 14514 net.cpp:165] Memory required for data: 3010045472
I0112 16:13:06.584581 14514 layer_factory.hpp:77] Creating layer bn2_8_branch2a
I0112 16:13:06.584597 14514 net.cpp:106] Creating Layer bn2_8_branch2a
I0112 16:13:06.584605 14514 net.cpp:454] bn2_8_branch2a <- enet2_8_branch2a
I0112 16:13:06.584621 14514 net.cpp:397] bn2_8_branch2a -> enet2_8_branch2a (in-place)
I0112 16:13:06.585204 14514 net.cpp:150] Setting up bn2_8_branch2a
I0112 16:13:06.585219 14514 net.cpp:157] Top shape: 4 32 47 155 (932480)
I0112 16:13:06.585225 14514 net.cpp:165] Memory required for data: 3013775392
I0112 16:13:06.585237 14514 layer_factory.hpp:77] Creating layer relu2_8_branch2a
I0112 16:13:06.585247 14514 net.cpp:106] Creating Layer relu2_8_branch2a
I0112 16:13:06.585254 14514 net.cpp:454] relu2_8_branch2a <- enet2_8_branch2a
I0112 16:13:06.585263 14514 net.cpp:397] relu2_8_branch2a -> enet2_8_branch2a (in-place)
I0112 16:13:06.586659 14514 net.cpp:150] Setting up relu2_8_branch2a
I0112 16:13:06.586678 14514 net.cpp:157] Top shape: 4 32 47 155 (932480)
I0112 16:13:06.586684 14514 net.cpp:165] Memory required for data: 3017505312
I0112 16:13:06.586694 14514 layer_factory.hpp:77] Creating layer enet2_8_branch2b
I0112 16:13:06.586711 14514 net.cpp:106] Creating Layer enet2_8_branch2b
I0112 16:13:06.586720 14514 net.cpp:454] enet2_8_branch2b <- enet2_8_branch2a
I0112 16:13:06.586735 14514 net.cpp:411] enet2_8_branch2b -> enet2_8_branch2b
I0112 16:13:06.588615 14514 net.cpp:150] Setting up enet2_8_branch2b
I0112 16:13:06.588632 14514 net.cpp:157] Top shape: 4 32 47 155 (932480)
I0112 16:13:06.588639 14514 net.cpp:165] Memory required for data: 3021235232
I0112 16:13:06.588650 14514 layer_factory.hpp:77] Creating layer bn2_8_branch2b
I0112 16:13:06.588665 14514 net.cpp:106] Creating Layer bn2_8_branch2b
I0112 16:13:06.588673 14514 net.cpp:454] bn2_8_branch2b <- enet2_8_branch2b
I0112 16:13:06.588686 14514 net.cpp:397] bn2_8_branch2b -> enet2_8_branch2b (in-place)
I0112 16:13:06.589265 14514 net.cpp:150] Setting up bn2_8_branch2b
I0112 16:13:06.589279 14514 net.cpp:157] Top shape: 4 32 47 155 (932480)
I0112 16:13:06.589287 14514 net.cpp:165] Memory required for data: 3024965152
I0112 16:13:06.589296 14514 layer_factory.hpp:77] Creating layer relu2_8_branch2b
I0112 16:13:06.589309 14514 net.cpp:106] Creating Layer relu2_8_branch2b
I0112 16:13:06.589316 14514 net.cpp:454] relu2_8_branch2b <- enet2_8_branch2b
I0112 16:13:06.589326 14514 net.cpp:397] relu2_8_branch2b -> enet2_8_branch2b (in-place)
I0112 16:13:06.590751 14514 net.cpp:150] Setting up relu2_8_branch2b
I0112 16:13:06.590768 14514 net.cpp:157] Top shape: 4 32 47 155 (932480)
I0112 16:13:06.590775 14514 net.cpp:165] Memory required for data: 3028695072
I0112 16:13:06.590785 14514 layer_factory.hpp:77] Creating layer enet2_8_branch2c
I0112 16:13:06.590809 14514 net.cpp:106] Creating Layer enet2_8_branch2c
I0112 16:13:06.590826 14514 net.cpp:454] enet2_8_branch2c <- enet2_8_branch2b
I0112 16:13:06.590842 14514 net.cpp:411] enet2_8_branch2c -> enet2_8_branch2c
I0112 16:13:06.595055 14514 net.cpp:150] Setting up enet2_8_branch2c
I0112 16:13:06.595078 14514 net.cpp:157] Top shape: 4 128 47 155 (3729920)
I0112 16:13:06.595087 14514 net.cpp:165] Memory required for data: 3043614752
I0112 16:13:06.595096 14514 layer_factory.hpp:77] Creating layer bn2_8_branch2c
I0112 16:13:06.595113 14514 net.cpp:106] Creating Layer bn2_8_branch2c
I0112 16:13:06.595121 14514 net.cpp:454] bn2_8_branch2c <- enet2_8_branch2c
I0112 16:13:06.595132 14514 net.cpp:397] bn2_8_branch2c -> enet2_8_branch2c (in-place)
I0112 16:13:06.595724 14514 net.cpp:150] Setting up bn2_8_branch2c
I0112 16:13:06.595739 14514 net.cpp:157] Top shape: 4 128 47 155 (3729920)
I0112 16:13:06.595746 14514 net.cpp:165] Memory required for data: 3058534432
I0112 16:13:06.595757 14514 layer_factory.hpp:77] Creating layer dropout2_8_branch2c
I0112 16:13:06.595768 14514 net.cpp:106] Creating Layer dropout2_8_branch2c
I0112 16:13:06.595777 14514 net.cpp:454] dropout2_8_branch2c <- enet2_8_branch2c
I0112 16:13:06.595785 14514 net.cpp:397] dropout2_8_branch2c -> enet2_8_branch2c (in-place)
I0112 16:13:06.595851 14514 net.cpp:150] Setting up dropout2_8_branch2c
I0112 16:13:06.595865 14514 net.cpp:157] Top shape: 4 128 47 155 (3729920)
I0112 16:13:06.595872 14514 net.cpp:165] Memory required for data: 3073454112
I0112 16:13:06.595880 14514 layer_factory.hpp:77] Creating layer enet2_8
I0112 16:13:06.595892 14514 net.cpp:106] Creating Layer enet2_8
I0112 16:13:06.595901 14514 net.cpp:454] enet2_8 <- enet2_7_relu2_7_0_split_1
I0112 16:13:06.595908 14514 net.cpp:454] enet2_8 <- enet2_8_branch2c
I0112 16:13:06.595918 14514 net.cpp:411] enet2_8 -> enet2_8
I0112 16:13:06.595984 14514 net.cpp:150] Setting up enet2_8
I0112 16:13:06.595998 14514 net.cpp:157] Top shape: 4 128 47 155 (3729920)
I0112 16:13:06.596004 14514 net.cpp:165] Memory required for data: 3088373792
I0112 16:13:06.596010 14514 layer_factory.hpp:77] Creating layer relu2_8
I0112 16:13:06.596020 14514 net.cpp:106] Creating Layer relu2_8
I0112 16:13:06.596027 14514 net.cpp:454] relu2_8 <- enet2_8
I0112 16:13:06.596040 14514 net.cpp:397] relu2_8 -> enet2_8 (in-place)
I0112 16:13:06.600982 14514 net.cpp:150] Setting up relu2_8
I0112 16:13:06.601023 14514 net.cpp:157] Top shape: 4 128 47 155 (3729920)
I0112 16:13:06.601032 14514 net.cpp:165] Memory required for data: 3103293472
I0112 16:13:06.601044 14514 layer_factory.hpp:77] Creating layer enet2_8_relu2_8_0_split
I0112 16:13:06.601066 14514 net.cpp:106] Creating Layer enet2_8_relu2_8_0_split
I0112 16:13:06.601076 14514 net.cpp:454] enet2_8_relu2_8_0_split <- enet2_8
I0112 16:13:06.601090 14514 net.cpp:411] enet2_8_relu2_8_0_split -> enet2_8_relu2_8_0_split_0
I0112 16:13:06.601106 14514 net.cpp:411] enet2_8_relu2_8_0_split -> enet2_8_relu2_8_0_split_1
I0112 16:13:06.601222 14514 net.cpp:150] Setting up enet2_8_relu2_8_0_split
I0112 16:13:06.601236 14514 net.cpp:157] Top shape: 4 128 47 155 (3729920)
I0112 16:13:06.601244 14514 net.cpp:157] Top shape: 4 128 47 155 (3729920)
I0112 16:13:06.601250 14514 net.cpp:165] Memory required for data: 3133132832
I0112 16:13:06.601258 14514 layer_factory.hpp:77] Creating layer enet3_1_branch2a
I0112 16:13:06.601279 14514 net.cpp:106] Creating Layer enet3_1_branch2a
I0112 16:13:06.601287 14514 net.cpp:454] enet3_1_branch2a <- enet2_8_relu2_8_0_split_0
I0112 16:13:06.601300 14514 net.cpp:411] enet3_1_branch2a -> enet3_1_branch2a
I0112 16:13:06.607650 14514 net.cpp:150] Setting up enet3_1_branch2a
I0112 16:13:06.607672 14514 net.cpp:157] Top shape: 4 32 47 155 (932480)
I0112 16:13:06.607681 14514 net.cpp:165] Memory required for data: 3136862752
I0112 16:13:06.607692 14514 layer_factory.hpp:77] Creating layer bn3_1_branch2a
I0112 16:13:06.607709 14514 net.cpp:106] Creating Layer bn3_1_branch2a
I0112 16:13:06.607718 14514 net.cpp:454] bn3_1_branch2a <- enet3_1_branch2a
I0112 16:13:06.607753 14514 net.cpp:397] bn3_1_branch2a -> enet3_1_branch2a (in-place)
I0112 16:13:06.608394 14514 net.cpp:150] Setting up bn3_1_branch2a
I0112 16:13:06.608409 14514 net.cpp:157] Top shape: 4 32 47 155 (932480)
I0112 16:13:06.608415 14514 net.cpp:165] Memory required for data: 3140592672
I0112 16:13:06.608427 14514 layer_factory.hpp:77] Creating layer relu3_1_branch2a
I0112 16:13:06.608438 14514 net.cpp:106] Creating Layer relu3_1_branch2a
I0112 16:13:06.608444 14514 net.cpp:454] relu3_1_branch2a <- enet3_1_branch2a
I0112 16:13:06.608454 14514 net.cpp:397] relu3_1_branch2a -> enet3_1_branch2a (in-place)
I0112 16:13:06.612092 14514 net.cpp:150] Setting up relu3_1_branch2a
I0112 16:13:06.612110 14514 net.cpp:157] Top shape: 4 32 47 155 (932480)
I0112 16:13:06.612118 14514 net.cpp:165] Memory required for data: 3144322592
I0112 16:13:06.612128 14514 layer_factory.hpp:77] Creating layer enet3_1_branch2b
I0112 16:13:06.612145 14514 net.cpp:106] Creating Layer enet3_1_branch2b
I0112 16:13:06.612154 14514 net.cpp:454] enet3_1_branch2b <- enet3_1_branch2a
I0112 16:13:06.612167 14514 net.cpp:411] enet3_1_branch2b -> enet3_1_branch2b
I0112 16:13:06.616888 14514 net.cpp:150] Setting up enet3_1_branch2b
I0112 16:13:06.616909 14514 net.cpp:157] Top shape: 4 32 47 155 (932480)
I0112 16:13:06.616916 14514 net.cpp:165] Memory required for data: 3148052512
I0112 16:13:06.616927 14514 layer_factory.hpp:77] Creating layer bn3_1_branch2b
I0112 16:13:06.616940 14514 net.cpp:106] Creating Layer bn3_1_branch2b
I0112 16:13:06.616947 14514 net.cpp:454] bn3_1_branch2b <- enet3_1_branch2b
I0112 16:13:06.616961 14514 net.cpp:397] bn3_1_branch2b -> enet3_1_branch2b (in-place)
I0112 16:13:06.617576 14514 net.cpp:150] Setting up bn3_1_branch2b
I0112 16:13:06.617591 14514 net.cpp:157] Top shape: 4 32 47 155 (932480)
I0112 16:13:06.617599 14514 net.cpp:165] Memory required for data: 3151782432
I0112 16:13:06.617609 14514 layer_factory.hpp:77] Creating layer relu3_1_branch2b
I0112 16:13:06.617619 14514 net.cpp:106] Creating Layer relu3_1_branch2b
I0112 16:13:06.617626 14514 net.cpp:454] relu3_1_branch2b <- enet3_1_branch2b
I0112 16:13:06.617635 14514 net.cpp:397] relu3_1_branch2b -> enet3_1_branch2b (in-place)
I0112 16:13:06.618990 14514 net.cpp:150] Setting up relu3_1_branch2b
I0112 16:13:06.619010 14514 net.cpp:157] Top shape: 4 32 47 155 (932480)
I0112 16:13:06.619017 14514 net.cpp:165] Memory required for data: 3155512352
I0112 16:13:06.619027 14514 layer_factory.hpp:77] Creating layer enet3_1_branch2c
I0112 16:13:06.619043 14514 net.cpp:106] Creating Layer enet3_1_branch2c
I0112 16:13:06.619056 14514 net.cpp:454] enet3_1_branch2c <- enet3_1_branch2b
I0112 16:13:06.619068 14514 net.cpp:411] enet3_1_branch2c -> enet3_1_branch2c
I0112 16:13:06.623018 14514 net.cpp:150] Setting up enet3_1_branch2c
I0112 16:13:06.623036 14514 net.cpp:157] Top shape: 4 128 47 155 (3729920)
I0112 16:13:06.623044 14514 net.cpp:165] Memory required for data: 3170432032
I0112 16:13:06.623057 14514 layer_factory.hpp:77] Creating layer bn3_1_branch2c
I0112 16:13:06.623072 14514 net.cpp:106] Creating Layer bn3_1_branch2c
I0112 16:13:06.623080 14514 net.cpp:454] bn3_1_branch2c <- enet3_1_branch2c
I0112 16:13:06.623093 14514 net.cpp:397] bn3_1_branch2c -> enet3_1_branch2c (in-place)
I0112 16:13:06.623692 14514 net.cpp:150] Setting up bn3_1_branch2c
I0112 16:13:06.623706 14514 net.cpp:157] Top shape: 4 128 47 155 (3729920)
I0112 16:13:06.623713 14514 net.cpp:165] Memory required for data: 3185351712
I0112 16:13:06.623724 14514 layer_factory.hpp:77] Creating layer dropout3_1_branch2c
I0112 16:13:06.623739 14514 net.cpp:106] Creating Layer dropout3_1_branch2c
I0112 16:13:06.623746 14514 net.cpp:454] dropout3_1_branch2c <- enet3_1_branch2c
I0112 16:13:06.623756 14514 net.cpp:397] dropout3_1_branch2c -> enet3_1_branch2c (in-place)
I0112 16:13:06.623819 14514 net.cpp:150] Setting up dropout3_1_branch2c
I0112 16:13:06.623833 14514 net.cpp:157] Top shape: 4 128 47 155 (3729920)
I0112 16:13:06.623841 14514 net.cpp:165] Memory required for data: 3200271392
I0112 16:13:06.623853 14514 layer_factory.hpp:77] Creating layer enet3_1
I0112 16:13:06.623875 14514 net.cpp:106] Creating Layer enet3_1
I0112 16:13:06.623884 14514 net.cpp:454] enet3_1 <- enet2_8_relu2_8_0_split_1
I0112 16:13:06.623893 14514 net.cpp:454] enet3_1 <- enet3_1_branch2c
I0112 16:13:06.623903 14514 net.cpp:411] enet3_1 -> enet3_1
I0112 16:13:06.623970 14514 net.cpp:150] Setting up enet3_1
I0112 16:13:06.623983 14514 net.cpp:157] Top shape: 4 128 47 155 (3729920)
I0112 16:13:06.623991 14514 net.cpp:165] Memory required for data: 3215191072
I0112 16:13:06.623996 14514 layer_factory.hpp:77] Creating layer relu3_1
I0112 16:13:06.624006 14514 net.cpp:106] Creating Layer relu3_1
I0112 16:13:06.624012 14514 net.cpp:454] relu3_1 <- enet3_1
I0112 16:13:06.624024 14514 net.cpp:397] relu3_1 -> enet3_1 (in-place)
I0112 16:13:06.628399 14514 net.cpp:150] Setting up relu3_1
I0112 16:13:06.628418 14514 net.cpp:157] Top shape: 4 128 47 155 (3729920)
I0112 16:13:06.628425 14514 net.cpp:165] Memory required for data: 3230110752
I0112 16:13:06.628435 14514 layer_factory.hpp:77] Creating layer enet3_1_relu3_1_0_split
I0112 16:13:06.628449 14514 net.cpp:106] Creating Layer enet3_1_relu3_1_0_split
I0112 16:13:06.628458 14514 net.cpp:454] enet3_1_relu3_1_0_split <- enet3_1
I0112 16:13:06.628468 14514 net.cpp:411] enet3_1_relu3_1_0_split -> enet3_1_relu3_1_0_split_0
I0112 16:13:06.628479 14514 net.cpp:411] enet3_1_relu3_1_0_split -> enet3_1_relu3_1_0_split_1
I0112 16:13:06.628589 14514 net.cpp:150] Setting up enet3_1_relu3_1_0_split
I0112 16:13:06.628603 14514 net.cpp:157] Top shape: 4 128 47 155 (3729920)
I0112 16:13:06.628612 14514 net.cpp:157] Top shape: 4 128 47 155 (3729920)
I0112 16:13:06.628618 14514 net.cpp:165] Memory required for data: 3259950112
I0112 16:13:06.628624 14514 layer_factory.hpp:77] Creating layer enet3_2_branch2a
I0112 16:13:06.628638 14514 net.cpp:106] Creating Layer enet3_2_branch2a
I0112 16:13:06.628645 14514 net.cpp:454] enet3_2_branch2a <- enet3_1_relu3_1_0_split_0
I0112 16:13:06.628659 14514 net.cpp:411] enet3_2_branch2a -> enet3_2_branch2a
I0112 16:13:06.632536 14514 net.cpp:150] Setting up enet3_2_branch2a
I0112 16:13:06.632558 14514 net.cpp:157] Top shape: 4 32 47 155 (932480)
I0112 16:13:06.632566 14514 net.cpp:165] Memory required for data: 3263680032
I0112 16:13:06.632576 14514 layer_factory.hpp:77] Creating layer bn3_2_branch2a
I0112 16:13:06.632592 14514 net.cpp:106] Creating Layer bn3_2_branch2a
I0112 16:13:06.632601 14514 net.cpp:454] bn3_2_branch2a <- enet3_2_branch2a
I0112 16:13:06.632616 14514 net.cpp:397] bn3_2_branch2a -> enet3_2_branch2a (in-place)
I0112 16:13:06.633266 14514 net.cpp:150] Setting up bn3_2_branch2a
I0112 16:13:06.633281 14514 net.cpp:157] Top shape: 4 32 47 155 (932480)
I0112 16:13:06.633288 14514 net.cpp:165] Memory required for data: 3267409952
I0112 16:13:06.633298 14514 layer_factory.hpp:77] Creating layer relu3_2_branch2a
I0112 16:13:06.633312 14514 net.cpp:106] Creating Layer relu3_2_branch2a
I0112 16:13:06.633321 14514 net.cpp:454] relu3_2_branch2a <- enet3_2_branch2a
I0112 16:13:06.633330 14514 net.cpp:397] relu3_2_branch2a -> enet3_2_branch2a (in-place)
I0112 16:13:06.634922 14514 net.cpp:150] Setting up relu3_2_branch2a
I0112 16:13:06.634939 14514 net.cpp:157] Top shape: 4 32 47 155 (932480)
I0112 16:13:06.634946 14514 net.cpp:165] Memory required for data: 3271139872
I0112 16:13:06.634958 14514 layer_factory.hpp:77] Creating layer enet3_2_branch2b
I0112 16:13:06.634976 14514 net.cpp:106] Creating Layer enet3_2_branch2b
I0112 16:13:06.634985 14514 net.cpp:454] enet3_2_branch2b <- enet3_2_branch2a
I0112 16:13:06.634999 14514 net.cpp:411] enet3_2_branch2b -> enet3_2_branch2b
I0112 16:13:06.635934 14514 net.cpp:150] Setting up enet3_2_branch2b
I0112 16:13:06.635949 14514 net.cpp:157] Top shape: 4 32 47 155 (932480)
I0112 16:13:06.635957 14514 net.cpp:165] Memory required for data: 3274869792
I0112 16:13:06.635967 14514 layer_factory.hpp:77] Creating layer bn3_2_branch2b
I0112 16:13:06.635980 14514 net.cpp:106] Creating Layer bn3_2_branch2b
I0112 16:13:06.635987 14514 net.cpp:454] bn3_2_branch2b <- enet3_2_branch2b
I0112 16:13:06.636039 14514 net.cpp:397] bn3_2_branch2b -> enet3_2_branch2b (in-place)
I0112 16:13:06.636669 14514 net.cpp:150] Setting up bn3_2_branch2b
I0112 16:13:06.636684 14514 net.cpp:157] Top shape: 4 32 47 155 (932480)
I0112 16:13:06.636692 14514 net.cpp:165] Memory required for data: 3278599712
I0112 16:13:06.636701 14514 layer_factory.hpp:77] Creating layer relu3_2_branch2b
I0112 16:13:06.636711 14514 net.cpp:106] Creating Layer relu3_2_branch2b
I0112 16:13:06.636718 14514 net.cpp:454] relu3_2_branch2b <- enet3_2_branch2b
I0112 16:13:06.636728 14514 net.cpp:397] relu3_2_branch2b -> enet3_2_branch2b (in-place)
I0112 16:13:06.638252 14514 net.cpp:150] Setting up relu3_2_branch2b
I0112 16:13:06.638272 14514 net.cpp:157] Top shape: 4 32 47 155 (932480)
I0112 16:13:06.638279 14514 net.cpp:165] Memory required for data: 3282329632
I0112 16:13:06.638289 14514 layer_factory.hpp:77] Creating layer enet3_2_branch2c
I0112 16:13:06.638308 14514 net.cpp:106] Creating Layer enet3_2_branch2c
I0112 16:13:06.638315 14514 net.cpp:454] enet3_2_branch2c <- enet3_2_branch2b
I0112 16:13:06.638326 14514 net.cpp:411] enet3_2_branch2c -> enet3_2_branch2c
I0112 16:13:06.643216 14514 net.cpp:150] Setting up enet3_2_branch2c
I0112 16:13:06.643249 14514 net.cpp:157] Top shape: 4 128 47 155 (3729920)
I0112 16:13:06.643256 14514 net.cpp:165] Memory required for data: 3297249312
I0112 16:13:06.643267 14514 layer_factory.hpp:77] Creating layer bn3_2_branch2c
I0112 16:13:06.643437 14514 net.cpp:106] Creating Layer bn3_2_branch2c
I0112 16:13:06.643447 14514 net.cpp:454] bn3_2_branch2c <- enet3_2_branch2c
I0112 16:13:06.643462 14514 net.cpp:397] bn3_2_branch2c -> enet3_2_branch2c (in-place)
I0112 16:13:06.644116 14514 net.cpp:150] Setting up bn3_2_branch2c
I0112 16:13:06.644132 14514 net.cpp:157] Top shape: 4 128 47 155 (3729920)
I0112 16:13:06.644140 14514 net.cpp:165] Memory required for data: 3312168992
I0112 16:13:06.644150 14514 layer_factory.hpp:77] Creating layer dropout3_2_branch2c
I0112 16:13:06.644162 14514 net.cpp:106] Creating Layer dropout3_2_branch2c
I0112 16:13:06.644170 14514 net.cpp:454] dropout3_2_branch2c <- enet3_2_branch2c
I0112 16:13:06.644179 14514 net.cpp:397] dropout3_2_branch2c -> enet3_2_branch2c (in-place)
I0112 16:13:06.644244 14514 net.cpp:150] Setting up dropout3_2_branch2c
I0112 16:13:06.644258 14514 net.cpp:157] Top shape: 4 128 47 155 (3729920)
I0112 16:13:06.644265 14514 net.cpp:165] Memory required for data: 3327088672
I0112 16:13:06.644271 14514 layer_factory.hpp:77] Creating layer enet3_2
I0112 16:13:06.644285 14514 net.cpp:106] Creating Layer enet3_2
I0112 16:13:06.644294 14514 net.cpp:454] enet3_2 <- enet3_1_relu3_1_0_split_1
I0112 16:13:06.644304 14514 net.cpp:454] enet3_2 <- enet3_2_branch2c
I0112 16:13:06.644315 14514 net.cpp:411] enet3_2 -> enet3_2
I0112 16:13:06.644379 14514 net.cpp:150] Setting up enet3_2
I0112 16:13:06.644393 14514 net.cpp:157] Top shape: 4 128 47 155 (3729920)
I0112 16:13:06.644400 14514 net.cpp:165] Memory required for data: 3342008352
I0112 16:13:06.644407 14514 layer_factory.hpp:77] Creating layer relu3_2
I0112 16:13:06.644423 14514 net.cpp:106] Creating Layer relu3_2
I0112 16:13:06.644430 14514 net.cpp:454] relu3_2 <- enet3_2
I0112 16:13:06.644439 14514 net.cpp:397] relu3_2 -> enet3_2 (in-place)
I0112 16:13:06.648726 14514 net.cpp:150] Setting up relu3_2
I0112 16:13:06.648744 14514 net.cpp:157] Top shape: 4 128 47 155 (3729920)
I0112 16:13:06.648751 14514 net.cpp:165] Memory required for data: 3356928032
I0112 16:13:06.648761 14514 layer_factory.hpp:77] Creating layer enet3_2_relu3_2_0_split
I0112 16:13:06.648775 14514 net.cpp:106] Creating Layer enet3_2_relu3_2_0_split
I0112 16:13:06.648783 14514 net.cpp:454] enet3_2_relu3_2_0_split <- enet3_2
I0112 16:13:06.648795 14514 net.cpp:411] enet3_2_relu3_2_0_split -> enet3_2_relu3_2_0_split_0
I0112 16:13:06.648808 14514 net.cpp:411] enet3_2_relu3_2_0_split -> enet3_2_relu3_2_0_split_1
I0112 16:13:06.648916 14514 net.cpp:150] Setting up enet3_2_relu3_2_0_split
I0112 16:13:06.648932 14514 net.cpp:157] Top shape: 4 128 47 155 (3729920)
I0112 16:13:06.648970 14514 net.cpp:157] Top shape: 4 128 47 155 (3729920)
I0112 16:13:06.648977 14514 net.cpp:165] Memory required for data: 3386767392
I0112 16:13:06.648984 14514 layer_factory.hpp:77] Creating layer enet3_3_branch2a
I0112 16:13:06.648998 14514 net.cpp:106] Creating Layer enet3_3_branch2a
I0112 16:13:06.649005 14514 net.cpp:454] enet3_3_branch2a <- enet3_2_relu3_2_0_split_0
I0112 16:13:06.649019 14514 net.cpp:411] enet3_3_branch2a -> enet3_3_branch2a
I0112 16:13:06.653007 14514 net.cpp:150] Setting up enet3_3_branch2a
I0112 16:13:06.653026 14514 net.cpp:157] Top shape: 4 32 47 155 (932480)
I0112 16:13:06.653034 14514 net.cpp:165] Memory required for data: 3390497312
I0112 16:13:06.653043 14514 layer_factory.hpp:77] Creating layer bn3_3_branch2a
I0112 16:13:06.653064 14514 net.cpp:106] Creating Layer bn3_3_branch2a
I0112 16:13:06.653072 14514 net.cpp:454] bn3_3_branch2a <- enet3_3_branch2a
I0112 16:13:06.653084 14514 net.cpp:397] bn3_3_branch2a -> enet3_3_branch2a (in-place)
I0112 16:13:06.653750 14514 net.cpp:150] Setting up bn3_3_branch2a
I0112 16:13:06.653764 14514 net.cpp:157] Top shape: 4 32 47 155 (932480)
I0112 16:13:06.653771 14514 net.cpp:165] Memory required for data: 3394227232
I0112 16:13:06.653782 14514 layer_factory.hpp:77] Creating layer relu3_3_branch2a
I0112 16:13:06.653792 14514 net.cpp:106] Creating Layer relu3_3_branch2a
I0112 16:13:06.653800 14514 net.cpp:454] relu3_3_branch2a <- enet3_3_branch2a
I0112 16:13:06.653808 14514 net.cpp:397] relu3_3_branch2a -> enet3_3_branch2a (in-place)
I0112 16:13:06.655230 14514 net.cpp:150] Setting up relu3_3_branch2a
I0112 16:13:06.655248 14514 net.cpp:157] Top shape: 4 32 47 155 (932480)
I0112 16:13:06.655256 14514 net.cpp:165] Memory required for data: 3397957152
I0112 16:13:06.655266 14514 layer_factory.hpp:77] Creating layer enet3_3_branch2b1
I0112 16:13:06.655282 14514 net.cpp:106] Creating Layer enet3_3_branch2b1
I0112 16:13:06.655290 14514 net.cpp:454] enet3_3_branch2b1 <- enet3_3_branch2a
I0112 16:13:06.655303 14514 net.cpp:411] enet3_3_branch2b1 -> enet3_3_branch2b1
I0112 16:13:06.659188 14514 net.cpp:150] Setting up enet3_3_branch2b1
I0112 16:13:06.659206 14514 net.cpp:157] Top shape: 4 32 47 155 (932480)
I0112 16:13:06.659214 14514 net.cpp:165] Memory required for data: 3401687072
I0112 16:13:06.659224 14514 layer_factory.hpp:77] Creating layer enet3_3_branch2b
I0112 16:13:06.659241 14514 net.cpp:106] Creating Layer enet3_3_branch2b
I0112 16:13:06.659250 14514 net.cpp:454] enet3_3_branch2b <- enet3_3_branch2b1
I0112 16:13:06.659265 14514 net.cpp:411] enet3_3_branch2b -> enet3_3_branch2b
I0112 16:13:06.663501 14514 net.cpp:150] Setting up enet3_3_branch2b
I0112 16:13:06.663522 14514 net.cpp:157] Top shape: 4 32 47 155 (932480)
I0112 16:13:06.663529 14514 net.cpp:165] Memory required for data: 3405416992
I0112 16:13:06.663540 14514 layer_factory.hpp:77] Creating layer bn3_3_branch2b
I0112 16:13:06.663556 14514 net.cpp:106] Creating Layer bn3_3_branch2b
I0112 16:13:06.663565 14514 net.cpp:454] bn3_3_branch2b <- enet3_3_branch2b
…
I0112 16:13:06.741216 14514 net.cpp:411] enet3_6_relu3_6_0_split -> enet3_6_relu3_6_0_split_1
I0112 16:13:06.741268 14514 net.cpp:150] Setting up enet3_6_relu3_6_0_split
I0112 16:13:06.741282 14514 net.cpp:157] Top shape: 4 128 47 155 (3729920)
I0112 16:13:06.741291 14514 net.cpp:157] Top shape: 4 128 47 155 (3729920)
I0112 16:13:06.741297 14514 net.cpp:165] Memory required for data: 3897766432
I0112 16:13:06.741304 14514 layer_factory.hpp:77] Creating layer enet3_7_branch2a
I0112 16:13:06.741319 14514 net.cpp:106] Creating Layer enet3_7_branch2a
I0112 16:13:06.741328 14514 net.cpp:454] enet3_7_branch2a <- enet3_6_relu3_6_0_split_0
I0112 16:13:06.741338 14514 net.cpp:411] enet3_7_branch2a -> enet3_7_branch2a
I0112 16:13:06.744954 14514 net.cpp:150] Setting up enet3_7_branch2a
I0112 16:13:06.744972 14514 net.cpp:157] Top shape: 4 32 47 155 (932480)
I0112 16:13:06.744981 14514 net.cpp:165] Memory required for data: 3901496352
I0112 16:13:06.744989 14514 layer_factory.hpp:77] Creating layer bn3_7_branch2a
I0112 16:13:06.745004 14514 net.cpp:106] Creating Layer bn3_7_branch2a
I0112 16:13:06.745013 14514 net.cpp:454] bn3_7_branch2a <- enet3_7_branch2a
I0112 16:13:06.745026 14514 net.cpp:397] bn3_7_branch2a -> enet3_7_branch2a (in-place)
I0112 16:13:06.745342 14514 net.cpp:150] Setting up bn3_7_branch2a
I0112 16:13:06.745357 14514 net.cpp:157] Top shape: 4 32 47 155 (932480)
I0112 16:13:06.745363 14514 net.cpp:165] Memory required for data: 3905226272
I0112 16:13:06.745373 14514 layer_factory.hpp:77] Creating layer relu3_7_branch2a
I0112 16:13:06.745383 14514 net.cpp:106] Creating Layer relu3_7_branch2a
I0112 16:13:06.745390 14514 net.cpp:454] relu3_7_branch2a <- enet3_7_branch2a
I0112 16:13:06.745400 14514 net.cpp:397] relu3_7_branch2a -> enet3_7_branch2a (in-place)
I0112 16:13:06.746673 14514 net.cpp:150] Setting up relu3_7_branch2a
I0112 16:13:06.746697 14514 net.cpp:157] Top shape: 4 32 47 155 (932480)
I0112 16:13:06.746714 14514 net.cpp:165] Memory required for data: 3908956192
I0112 16:13:06.746726 14514 layer_factory.hpp:77] Creating layer enet3_7_branch2b1
I0112 16:13:06.746743 14514 net.cpp:106] Creating Layer enet3_7_branch2b1
I0112 16:13:06.746752 14514 net.cpp:454] enet3_7_branch2b1 <- enet3_7_branch2a
I0112 16:13:06.746763 14514 net.cpp:411] enet3_7_branch2b1 -> enet3_7_branch2b1
I0112 16:13:06.750584 14514 net.cpp:150] Setting up enet3_7_branch2b1
I0112 16:13:06.750602 14514 net.cpp:157] Top shape: 4 32 47 155 (932480)
I0112 16:13:06.750610 14514 net.cpp:165] Memory required for data: 3912686112
I0112 16:13:06.750619 14514 layer_factory.hpp:77] Creating layer enet3_7_branch2b
I0112 16:13:06.750638 14514 net.cpp:106] Creating Layer enet3_7_branch2b
I0112 16:13:06.750645 14514 net.cpp:454] enet3_7_branch2b <- enet3_7_branch2b1
I0112 16:13:06.750661 14514 net.cpp:411] enet3_7_branch2b -> enet3_7_branch2b
I0112 16:13:06.754359 14514 net.cpp:150] Setting up enet3_7_branch2b
I0112 16:13:06.754377 14514 net.cpp:157] Top shape: 4 32 47 155 (932480)
I0112 16:13:06.754385 14514 net.cpp:165] Memory required for data: 3916416032
I0112 16:13:06.754397 14514 layer_factory.hpp:77] Creating layer bn3_7_branch2b
I0112 16:13:06.754412 14514 net.cpp:106] Creating Layer bn3_7_branch2b
I0112 16:13:06.754420 14514 net.cpp:454] bn3_7_branch2b <- enet3_7_branch2b
I0112 16:13:06.754433 14514 net.cpp:397] bn3_7_branch2b -> enet3_7_branch2b (in-place)
I0112 16:13:06.754745 14514 net.cpp:150] Setting up bn3_7_branch2b
I0112 16:13:06.754760 14514 net.cpp:157] Top shape: 4 32 47 155 (932480)
I0112 16:13:06.754766 14514 net.cpp:165] Memory required for data: 3920145952
I0112 16:13:06.754776 14514 layer_factory.hpp:77] Creating layer relu3_7_branch2b
I0112 16:13:06.754787 14514 net.cpp:106] Creating Layer relu3_7_branch2b
I0112 16:13:06.754794 14514 net.cpp:454] relu3_7_branch2b <- enet3_7_branch2b
I0112 16:13:06.754803 14514 net.cpp:397] relu3_7_branch2b -> enet3_7_branch2b (in-place)
I0112 16:13:06.756116 14514 net.cpp:150] Setting up relu3_7_branch2b
I0112 16:13:06.756134 14514 net.cpp:157] Top shape: 4 32 47 155 (932480)
I0112 16:13:06.756141 14514 net.cpp:165] Memory required for data: 3923875872
I0112 16:13:06.756151 14514 layer_factory.hpp:77] Creating layer enet3_7_branch2c
I0112 16:13:06.756168 14514 net.cpp:106] Creating Layer enet3_7_branch2c
I0112 16:13:06.756176 14514 net.cpp:454] enet3_7_branch2c <- enet3_7_branch2b
I0112 16:13:06.756191 14514 net.cpp:411] enet3_7_branch2c -> enet3_7_branch2c
I0112 16:13:06.760066 14514 net.cpp:150] Setting up enet3_7_branch2c
I0112 16:13:06.760084 14514 net.cpp:157] Top shape: 4 128 47 155 (3729920)
I0112 16:13:06.760092 14514 net.cpp:165] Memory required for data: 3938795552
I0112 16:13:06.760102 14514 layer_factory.hpp:77] Creating layer bn3_7_branch2c
I0112 16:13:06.760118 14514 net.cpp:106] Creating Layer bn3_7_branch2c
I0112 16:13:06.760125 14514 net.cpp:454] bn3_7_branch2c <- enet3_7_branch2c
I0112 16:13:06.760136 14514 net.cpp:397] bn3_7_branch2c -> enet3_7_branch2c (in-place)
I0112 16:13:06.760444 14514 net.cpp:150] Setting up bn3_7_branch2c
I0112 16:13:06.760459 14514 net.cpp:157] Top shape: 4 128 47 155 (3729920)
I0112 16:13:06.760466 14514 net.cpp:165] Memory required for data: 3953715232
I0112 16:13:06.760476 14514 layer_factory.hpp:77] Creating layer dropout3_7_branch2c
I0112 16:13:06.760488 14514 net.cpp:106] Creating Layer dropout3_7_branch2c
I0112 16:13:06.760495 14514 net.cpp:454] dropout3_7_branch2c <- enet3_7_branch2c
I0112 16:13:06.760504 14514 net.cpp:397] dropout3_7_branch2c -> enet3_7_branch2c (in-place)
I0112 16:13:06.760546 14514 net.cpp:150] Setting up dropout3_7_branch2c
I0112 16:13:06.760558 14514 net.cpp:157] Top shape: 4 128 47 155 (3729920)
I0112 16:13:06.760565 14514 net.cpp:165] Memory required for data: 3968634912
I0112 16:13:06.760571 14514 layer_factory.hpp:77] Creating layer enet3_7
I0112 16:13:06.760581 14514 net.cpp:106] Creating Layer enet3_7
I0112 16:13:06.760591 14514 net.cpp:454] enet3_7 <- enet3_6_relu3_6_0_split_1
I0112 16:13:06.760615 14514 net.cpp:454] enet3_7 <- enet3_7_branch2c
I0112 16:13:06.760627 14514 net.cpp:411] enet3_7 -> enet3_7
I0112 16:13:06.760664 14514 net.cpp:150] Setting up enet3_7
I0112 16:13:06.760676 14514 net.cpp:157] Top shape: 4 128 47 155 (3729920)
I0112 16:13:06.760684 14514 net.cpp:165] Memory required for data: 3983554592
I0112 16:13:06.760689 14514 layer_factory.hpp:77] Creating layer relu3_7
I0112 16:13:06.760704 14514 net.cpp:106] Creating Layer relu3_7
I0112 16:13:06.760711 14514 net.cpp:454] relu3_7 <- enet3_7
I0112 16:13:06.760722 14514 net.cpp:397] relu3_7 -> enet3_7 (in-place)
I0112 16:13:06.765094 14514 net.cpp:150] Setting up relu3_7
I0112 16:13:06.765112 14514 net.cpp:157] Top shape: 4 128 47 155 (3729920)
I0112 16:13:06.765120 14514 net.cpp:165] Memory required for data: 3998474272
I0112 16:13:06.765130 14514 layer_factory.hpp:77] Creating layer enet3_7_relu3_7_0_split
I0112 16:13:06.765143 14514 net.cpp:106] Creating Layer enet3_7_relu3_7_0_split
I0112 16:13:06.765151 14514 net.cpp:454] enet3_7_relu3_7_0_split <- enet3_7
I0112 16:13:06.765161 14514 net.cpp:411] enet3_7_relu3_7_0_split -> enet3_7_relu3_7_0_split_0
I0112 16:13:06.765173 14514 net.cpp:411] enet3_7_relu3_7_0_split -> enet3_7_relu3_7_0_split_1
I0112 16:13:06.765234 14514 net.cpp:150] Setting up enet3_7_relu3_7_0_split
I0112 16:13:06.765247 14514 net.cpp:157] Top shape: 4 128 47 155 (3729920)
I0112 16:13:06.765255 14514 net.cpp:157] Top shape: 4 128 47 155 (3729920)
I0112 16:13:06.765261 14514 net.cpp:165] Memory required for data: 4028313632
I0112 16:13:06.765267 14514 layer_factory.hpp:77] Creating layer enet3_8_branch2a
I0112 16:13:06.765285 14514 net.cpp:106] Creating Layer enet3_8_branch2a
I0112 16:13:06.765292 14514 net.cpp:454] enet3_8_branch2a <- enet3_7_relu3_7_0_split_0
I0112 16:13:06.765303 14514 net.cpp:411] enet3_8_branch2a -> enet3_8_branch2a
I0112 16:13:06.770519 14514 net.cpp:150] Setting up enet3_8_branch2a
I0112 16:13:06.770539 14514 net.cpp:157] Top shape: 4 32 47 155 (932480)
I0112 16:13:06.770546 14514 net.cpp:165] Memory required for data: 4032043552
I0112 16:13:06.770556 14514 layer_factory.hpp:77] Creating layer bn3_8_branch2a
I0112 16:13:06.770571 14514 net.cpp:106] Creating Layer bn3_8_branch2a
I0112 16:13:06.770579 14514 net.cpp:454] bn3_8_branch2a <- enet3_8_branch2a
I0112 16:13:06.770592 14514 net.cpp:397] bn3_8_branch2a -> enet3_8_branch2a (in-place)
I0112 16:13:06.770927 14514 net.cpp:150] Setting up bn3_8_branch2a
I0112 16:13:06.770942 14514 net.cpp:157] Top shape: 4 32 47 155 (932480)
I0112 16:13:06.770948 14514 net.cpp:165] Memory required for data: 4035773472
I0112 16:13:06.770959 14514 layer_factory.hpp:77] Creating layer relu3_8_branch2a
I0112 16:13:06.770972 14514 net.cpp:106] Creating Layer relu3_8_branch2a
I0112 16:13:06.770980 14514 net.cpp:454] relu3_8_branch2a <- enet3_8_branch2a
I0112 16:13:06.770989 14514 net.cpp:397] relu3_8_branch2a -> enet3_8_branch2a (in-place)
I0112 16:13:06.772383 14514 net.cpp:150] Setting up relu3_8_branch2a
I0112 16:13:06.772400 14514 net.cpp:157] Top shape: 4 32 47 155 (932480)
I0112 16:13:06.772408 14514 net.cpp:165] Memory required for data: 4039503392
I0112 16:13:06.772418 14514 layer_factory.hpp:77] Creating layer enet3_8_branch2b
I0112 16:13:06.772435 14514 net.cpp:106] Creating Layer enet3_8_branch2b
I0112 16:13:06.772444 14514 net.cpp:454] enet3_8_branch2b <- enet3_8_branch2a
I0112 16:13:06.772459 14514 net.cpp:411] enet3_8_branch2b -> enet3_8_branch2b
I0112 16:13:06.773061 14514 net.cpp:150] Setting up enet3_8_branch2b
I0112 16:13:06.773075 14514 net.cpp:157] Top shape: 4 32 47 155 (932480)
I0112 16:13:06.773082 14514 net.cpp:165] Memory required for data: 4043233312
I0112 16:13:06.773092 14514 layer_factory.hpp:77] Creating layer bn3_8_branch2b
I0112 16:13:06.773105 14514 net.cpp:106] Creating Layer bn3_8_branch2b
I0112 16:13:06.773113 14514 net.cpp:454] bn3_8_branch2b <- enet3_8_branch2b
I0112 16:13:06.773128 14514 net.cpp:397] bn3_8_branch2b -> enet3_8_branch2b (in-place)
I0112 16:13:06.773458 14514 net.cpp:150] Setting up bn3_8_branch2b
I0112 16:13:06.773493 14514 net.cpp:157] Top shape: 4 32 47 155 (932480)
I0112 16:13:06.773499 14514 net.cpp:165] Memory required for data: 4046963232
I0112 16:13:06.773510 14514 layer_factory.hpp:77] Creating layer relu3_8_branch2b
I0112 16:13:06.773519 14514 net.cpp:106] Creating Layer relu3_8_branch2b
I0112 16:13:06.773526 14514 net.cpp:454] relu3_8_branch2b <- enet3_8_branch2b
I0112 16:13:06.773536 14514 net.cpp:397] relu3_8_branch2b -> enet3_8_branch2b (in-place)
I0112 16:13:06.774927 14514 net.cpp:150] Setting up relu3_8_branch2b
I0112 16:13:06.774947 14514 net.cpp:157] Top shape: 4 32 47 155 (932480)
I0112 16:13:06.774955 14514 net.cpp:165] Memory required for data: 4050693152
I0112 16:13:06.774965 14514 layer_factory.hpp:77] Creating layer enet3_8_branch2c
I0112 16:13:06.774981 14514 net.cpp:106] Creating Layer enet3_8_branch2c
I0112 16:13:06.774989 14514 net.cpp:454] enet3_8_branch2c <- enet3_8_branch2b
I0112 16:13:06.775001 14514 net.cpp:411] enet3_8_branch2c -> enet3_8_branch2c
I0112 16:13:06.778735 14514 net.cpp:150] Setting up enet3_8_branch2c
I0112 16:13:06.778754 14514 net.cpp:157] Top shape: 4 128 47 155 (3729920)
I0112 16:13:06.778764 14514 net.cpp:165] Memory required for data: 4065612832
I0112 16:13:06.778774 14514 layer_factory.hpp:77] Creating layer bn3_8_branch2c
I0112 16:13:06.778786 14514 net.cpp:106] Creating Layer bn3_8_branch2c
I0112 16:13:06.778795 14514 net.cpp:454] bn3_8_branch2c <- enet3_8_branch2c
I0112 16:13:06.778806 14514 net.cpp:397] bn3_8_branch2c -> enet3_8_branch2c (in-place)
I0112 16:13:06.780192 14514 net.cpp:150] Setting up bn3_8_branch2c
I0112 16:13:06.780210 14514 net.cpp:157] Top shape: 4 128 47 155 (3729920)
I0112 16:13:06.780217 14514 net.cpp:165] Memory required for data: 4080532512
I0112 16:13:06.780228 14514 layer_factory.hpp:77] Creating layer dropout3_8_branch2c
I0112 16:13:06.780243 14514 net.cpp:106] Creating Layer dropout3_8_branch2c
I0112 16:13:06.780251 14514 net.cpp:454] dropout3_8_branch2c <- enet3_8_branch2c
I0112 16:13:06.780261 14514 net.cpp:397] dropout3_8_branch2c -> enet3_8_branch2c (in-place)
I0112 16:13:06.780303 14514 net.cpp:150] Setting up dropout3_8_branch2c
I0112 16:13:06.780315 14514 net.cpp:157] Top shape: 4 128 47 155 (3729920)
I0112 16:13:06.780323 14514 net.cpp:165] Memory required for data: 4095452192
I0112 16:13:06.780329 14514 layer_factory.hpp:77] Creating layer enet3_8
I0112 16:13:06.780342 14514 net.cpp:106] Creating Layer enet3_8
I0112 16:13:06.780350 14514 net.cpp:454] enet3_8 <- enet3_7_relu3_7_0_split_1
I0112 16:13:06.780359 14514 net.cpp:454] enet3_8 <- enet3_8_branch2c
I0112 16:13:06.780369 14514 net.cpp:411] enet3_8 -> enet3_8
I0112 16:13:06.780411 14514 net.cpp:150] Setting up enet3_8
I0112 16:13:06.780424 14514 net.cpp:157] Top shape: 4 128 47 155 (3729920)
I0112 16:13:06.780431 14514 net.cpp:165] Memory required for data: 4110371872
I0112 16:13:06.780437 14514 layer_factory.hpp:77] Creating layer relu3_8
I0112 16:13:06.780447 14514 net.cpp:106] Creating Layer relu3_8
I0112 16:13:06.780453 14514 net.cpp:454] relu3_8 <- enet3_8
I0112 16:13:06.780465 14514 net.cpp:397] relu3_8 -> enet3_8 (in-place)
I0112 16:13:06.820143 14514 net.cpp:150] Setting up relu3_8
I0112 16:13:06.820163 14514 net.cpp:157] Top shape: 4 128 47 155 (3729920)
I0112 16:13:06.820169 14514 net.cpp:165] Memory required for data: 4125291552
I0112 16:13:06.820179 14514 layer_factory.hpp:77] Creating layer enet3_8_relu3_8_0_split
I0112 16:13:06.820194 14514 net.cpp:106] Creating Layer enet3_8_relu3_8_0_split
I0112 16:13:06.820201 14514 net.cpp:454] enet3_8_relu3_8_0_split <- enet3_8
I0112 16:13:06.820211 14514 net.cpp:411] enet3_8_relu3_8_0_split -> enet3_8_relu3_8_0_split_0
I0112 16:13:06.820225 14514 net.cpp:411] enet3_8_relu3_8_0_split -> enet3_8_relu3_8_0_split_1
I0112 16:13:06.820289 14514 net.cpp:150] Setting up enet3_8_relu3_8_0_split
I0112 16:13:06.820302 14514 net.cpp:157] Top shape: 4 128 47 155 (3729920)
I0112 16:13:06.820310 14514 net.cpp:157] Top shape: 4 128 47 155 (3729920)
I0112 16:13:06.820317 14514 net.cpp:165] Memory required for data: 4155130912
I0112 16:13:06.820345 14514 layer_factory.hpp:77] Creating layer enet4_0_branch2a
I0112 16:13:06.820360 14514 net.cpp:106] Creating Layer enet4_0_branch2a
I0112 16:13:06.820369 14514 net.cpp:454] enet4_0_branch2a <- enet3_8_relu3_8_0_split_0
I0112 16:13:06.820382 14514 net.cpp:411] enet4_0_branch2a -> enet4_0_branch2a
I0112 16:13:06.824260 14514 net.cpp:150] Setting up enet4_0_branch2a
I0112 16:13:06.824280 14514 net.cpp:157] Top shape: 4 16 47 155 (466240)
I0112 16:13:06.824287 14514 net.cpp:165] Memory required for data: 4156995872
I0112 16:13:06.824296 14514 layer_factory.hpp:77] Creating layer bn4_0_branch2a
I0112 16:13:06.824312 14514 net.cpp:106] Creating Layer bn4_0_branch2a
I0112 16:13:06.824321 14514 net.cpp:454] bn4_0_branch2a <- enet4_0_branch2a
I0112 16:13:06.824331 14514 net.cpp:397] bn4_0_branch2a -> enet4_0_branch2a (in-place)
I0112 16:13:06.824672 14514 net.cpp:150] Setting up bn4_0_branch2a
I0112 16:13:06.824687 14514 net.cpp:157] Top shape: 4 16 47 155 (466240)
I0112 16:13:06.824693 14514 net.cpp:165] Memory required for data: 4158860832
I0112 16:13:06.824704 14514 layer_factory.hpp:77] Creating layer relu4_0_branch2a
I0112 16:13:06.824720 14514 net.cpp:106] Creating Layer relu4_0_branch2a
I0112 16:13:06.824728 14514 net.cpp:454] relu4_0_branch2a <- enet4_0_branch2a
I0112 16:13:06.824738 14514 net.cpp:397] relu4_0_branch2a -> enet4_0_branch2a (in-place)
I0112 16:13:06.825860 14514 net.cpp:150] Setting up relu4_0_branch2a
I0112 16:13:06.825878 14514 net.cpp:157] Top shape: 4 16 47 155 (466240)
I0112 16:13:06.825886 14514 net.cpp:165] Memory required for data: 4160725792
I0112 16:13:06.825892 14514 layer_factory.hpp:77] Creating layer enet4_0_branch2b
I0112 16:13:06.825911 14514 net.cpp:106] Creating Layer enet4_0_branch2b
I0112 16:13:06.825918 14514 net.cpp:454] enet4_0_branch2b <- enet4_0_branch2a
I0112 16:13:06.825932 14514 net.cpp:411] enet4_0_branch2b -> enet4_0_branch2b
I0112 16:13:06.826514 14514 net.cpp:150] Setting up enet4_0_branch2b
I0112 16:13:06.826529 14514 net.cpp:157] Top shape: 4 16 94 310 (1864960)
I0112 16:13:06.826536 14514 net.cpp:165] Memory required for data: 4168185632
I0112 16:13:06.826546 14514 layer_factory.hpp:77] Creating layer bn4_0_branch2b
I0112 16:13:06.826561 14514 net.cpp:106] Creating Layer bn4_0_branch2b
I0112 16:13:06.826570 14514 net.cpp:454] bn4_0_branch2b <- enet4_0_branch2b
I0112 16:13:06.826583 14514 net.cpp:397] bn4_0_branch2b -> enet4_0_branch2b (in-place)
I0112 16:13:06.827013 14514 net.cpp:150] Setting up bn4_0_branch2b
I0112 16:13:06.827028 14514 net.cpp:157] Top shape: 4 16 94 310 (1864960)
I0112 16:13:06.827034 14514 net.cpp:165] Memory required for data: 4175645472
I0112 16:13:06.827044 14514 layer_factory.hpp:77] Creating layer relu4_0_branch2b
I0112 16:13:06.827059 14514 net.cpp:106] Creating Layer relu4_0_branch2b
I0112 16:13:06.827066 14514 net.cpp:454] relu4_0_branch2b <- enet4_0_branch2b
I0112 16:13:06.827076 14514 net.cpp:397] relu4_0_branch2b -> enet4_0_branch2b (in-place)
I0112 16:13:06.828191 14514 net.cpp:150] Setting up relu4_0_branch2b
I0112 16:13:06.828209 14514 net.cpp:157] Top shape: 4 16 94 310 (1864960)
I0112 16:13:06.828217 14514 net.cpp:165] Memory required for data: 4183105312
I0112 16:13:06.828223 14514 layer_factory.hpp:77] Creating layer enet4_0_branch2c
I0112 16:13:06.828240 14514 net.cpp:106] Creating Layer enet4_0_branch2c
I0112 16:13:06.828248 14514 net.cpp:454] enet4_0_branch2c <- enet4_0_branch2b
I0112 16:13:06.828263 14514 net.cpp:411] enet4_0_branch2c -> enet4_0_branch2c
I0112 16:13:06.832111 14514 net.cpp:150] Setting up enet4_0_branch2c
I0112 16:13:06.832129 14514 net.cpp:157] Top shape: 4 64 94 310 (7459840)
I0112 16:13:06.832137 14514 net.cpp:165] Memory required for data: 4212944672
I0112 16:13:06.832146 14514 layer_factory.hpp:77] Creating layer bn4_0_branch2c
I0112 16:13:06.832161 14514 net.cpp:106] Creating Layer bn4_0_branch2c
I0112 16:13:06.832170 14514 net.cpp:454] bn4_0_branch2c <- enet4_0_branch2c
I0112 16:13:06.832183 14514 net.cpp:397] bn4_0_branch2c -> enet4_0_branch2c (in-place)
I0112 16:13:06.833636 14514 net.cpp:150] Setting up bn4_0_branch2c
I0112 16:13:06.833663 14514 net.cpp:157] Top shape: 4 64 94 310 (7459840)
I0112 16:13:06.833670 14514 net.cpp:165] Memory required for data: 4242784032
I0112 16:13:06.833681 14514 layer_factory.hpp:77] Creating layer enet4_0_branch1a
I0112 16:13:06.833698 14514 net.cpp:106] Creating Layer enet4_0_branch1a
I0112 16:13:06.833708 14514 net.cpp:454] enet4_0_branch1a <- enet3_8_relu3_8_0_split_1
I0112 16:13:06.833721 14514 net.cpp:411] enet4_0_branch1a -> enet4_0_branch1a
I0112 16:13:06.837563 14514 net.cpp:150] Setting up enet4_0_branch1a
I0112 16:13:06.837584 14514 net.cpp:157] Top shape: 4 64 47 155 (1864960)
I0112 16:13:06.837592 14514 net.cpp:165] Memory required for data: 4250243872
I0112 16:13:06.837601 14514 layer_factory.hpp:77] Creating layer bn4_0_branch1a
I0112 16:13:06.837613 14514 net.cpp:106] Creating Layer bn4_0_branch1a
I0112 16:13:06.837621 14514 net.cpp:454] bn4_0_branch1a <- enet4_0_branch1a
I0112 16:13:06.837635 14514 net.cpp:397] bn4_0_branch1a -> enet4_0_branch1a (in-place)
I0112 16:13:06.837972 14514 net.cpp:150] Setting up bn4_0_branch1a
I0112 16:13:06.837987 14514 net.cpp:157] Top shape: 4 64 47 155 (1864960)
I0112 16:13:06.837993 14514 net.cpp:165] Memory required for data: 4257703712
I0112 16:13:06.838004 14514 layer_factory.hpp:77] Creating layer unpool4_0_branch1a
I0112 16:13:06.838019 14514 net.cpp:106] Creating Layer unpool4_0_branch1a
I0112 16:13:06.838027 14514 net.cpp:454] unpool4_0_branch1a <- enet4_0_branch1a
I0112 16:13:06.838037 14514 net.cpp:454] unpool4_0_branch1a <- pool2_0_branch1a_mask
I0112 16:13:06.838047 14514 net.cpp:411] unpool4_0_branch1a -> unpool4_0_branch1a
I0112 16:13:06.838109 14514 net.cpp:150] Setting up unpool4_0_branch1a
I0112 16:13:06.838122 14514 net.cpp:157] Top shape: 4 64 94 310 (7459840)
I0112 16:13:06.838129 14514 net.cpp:165] Memory required for data: 4287543072
I0112 16:13:06.838135 14514 layer_factory.hpp:77] Creating layer enet4_0
I0112 16:13:06.838145 14514 net.cpp:106] Creating Layer enet4_0
I0112 16:13:06.838152 14514 net.cpp:454] enet4_0 <- unpool4_0_branch1a
I0112 16:13:06.838160 14514 net.cpp:454] enet4_0 <- enet4_0_branch2c
I0112 16:13:06.838173 14514 net.cpp:411] enet4_0 -> enet4_0
I0112 16:13:06.838217 14514 net.cpp:150] Setting up enet4_0
I0112 16:13:06.838230 14514 net.cpp:157] Top shape: 4 64 94 310 (7459840)
I0112 16:13:06.838237 14514 net.cpp:165] Memory required for data: 4317382432
I0112 16:13:06.838243 14514 layer_factory.hpp:77] Creating layer relu4_0
I0112 16:13:06.838253 14514 net.cpp:106] Creating Layer relu4_0
I0112 16:13:06.838259 14514 net.cpp:454] relu4_0 <- enet4_0
I0112 16:13:06.838268 14514 net.cpp:397] relu4_0 -> enet4_0 (in-place)
I0112 16:13:06.839399 14514 net.cpp:150] Setting up relu4_0
I0112 16:13:06.839417 14514 net.cpp:157] Top shape: 4 64 94 310 (7459840)
I0112 16:13:06.839424 14514 net.cpp:165] Memory required for data: 4347221792
I0112 16:13:06.839432 14514 layer_factory.hpp:77] Creating layer enet4_0_relu4_0_0_split
I0112 16:13:06.839440 14514 net.cpp:106] Creating Layer enet4_0_relu4_0_0_split
I0112 16:13:06.839448 14514 net.cpp:454] enet4_0_relu4_0_0_split <- enet4_0
I0112 16:13:06.839462 14514 net.cpp:411] enet4_0_relu4_0_0_split -> enet4_0_relu4_0_0_split_0
I0112 16:13:06.839474 14514 net.cpp:411] enet4_0_relu4_0_0_split -> enet4_0_relu4_0_0_split_1
I0112 16:13:06.839541 14514 net.cpp:150] Setting up enet4_0_relu4_0_0_split
I0112 16:13:06.839557 14514 net.cpp:157] Top shape: 4 64 94 310 (7459840)
I0112 16:13:06.839566 14514 net.cpp:157] Top shape: 4 64 94 310 (7459840)
I0112 16:13:06.839572 14514 net.cpp:165] Memory required for data: 4406900512
I0112 16:13:06.839578 14514 layer_factory.hpp:77] Creating layer enet4_1_branch2a
I0112 16:13:06.839594 14514 net.cpp:106] Creating Layer enet4_1_branch2a
I0112 16:13:06.839603 14514 net.cpp:454] enet4_1_branch2a <- enet4_0_relu4_0_0_split_0
I0112 16:13:06.839614 14514 net.cpp:411] enet4_1_branch2a -> enet4_1_branch2a
I0112 16:13:06.843492 14514 net.cpp:150] Setting up enet4_1_branch2a
I0112 16:13:06.843518 14514 net.cpp:157] Top shape: 4 16 94 310 (1864960)
I0112 16:13:06.843533 14514 net.cpp:165] Memory required for data: 4414360352
I0112 16:13:06.843544 14514 layer_factory.hpp:77] Creating layer bn4_1_branch2a
I0112 16:13:06.843559 14514 net.cpp:106] Creating Layer bn4_1_branch2a
I0112 16:13:06.843567 14514 net.cpp:454] bn4_1_branch2a <- enet4_1_branch2a
I0112 16:13:06.843580 14514 net.cpp:397] bn4_1_branch2a -> enet4_1_branch2a (in-place)
I0112 16:13:06.843955 14514 net.cpp:150] Setting up bn4_1_branch2a
I0112 16:13:06.843969 14514 net.cpp:157] Top shape: 4 16 94 310 (1864960)
I0112 16:13:06.843976 14514 net.cpp:165] Memory required for data: 4421820192
I0112 16:13:06.843986 14514 layer_factory.hpp:77] Creating layer relu4_1_branch2a
I0112 16:13:06.843999 14514 net.cpp:106] Creating Layer relu4_1_branch2a
I0112 16:13:06.844007 14514 net.cpp:454] relu4_1_branch2a <- enet4_1_branch2a
I0112 16:13:06.844017 14514 net.cpp:397] relu4_1_branch2a -> enet4_1_branch2a (in-place)
I0112 16:13:06.845140 14514 net.cpp:150] Setting up relu4_1_branch2a
I0112 16:13:06.845157 14514 net.cpp:157] Top shape: 4 16 94 310 (1864960)
I0112 16:13:06.845165 14514 net.cpp:165] Memory required for data: 4429280032
I0112 16:13:06.845171 14514 layer_factory.hpp:77] Creating layer enet4_1_branch2b
I0112 16:13:06.845188 14514 net.cpp:106] Creating Layer enet4_1_branch2b
I0112 16:13:06.845196 14514 net.cpp:454] enet4_1_branch2b <- enet4_1_branch2a
I0112 16:13:06.845211 14514 net.cpp:411] enet4_1_branch2b -> enet4_1_branch2b
I0112 16:13:06.849246 14514 net.cpp:150] Setting up enet4_1_branch2b
I0112 16:13:06.849265 14514 net.cpp:157] Top shape: 4 16 94 310 (1864960)
I0112 16:13:06.849272 14514 net.cpp:165] Memory required for data: 4436739872
I0112 16:13:06.849284 14514 layer_factory.hpp:77] Creating layer bn4_1_branch2b
I0112 16:13:06.849299 14514 net.cpp:106] Creating Layer bn4_1_branch2b
I0112 16:13:06.849309 14514 net.cpp:454] bn4_1_branch2b <- enet4_1_branch2b
I0112 16:13:06.849320 14514 net.cpp:397] bn4_1_branch2b -> enet4_1_branch2b (in-place)
I0112 16:13:06.849700 14514 net.cpp:150] Setting up bn4_1_branch2b
I0112 16:13:06.849715 14514 net.cpp:157] Top shape: 4 16 94 310 (1864960)
I0112 16:13:06.849721 14514 net.cpp:165] Memory required for data: 4444199712
I0112 16:13:06.849732 14514 layer_factory.hpp:77] Creating layer relu4_1_branch2b
I0112 16:13:06.849743 14514 net.cpp:106] Creating Layer relu4_1_branch2b
I0112 16:13:06.849750 14514 net.cpp:454] relu4_1_branch2b <- enet4_1_branch2b
I0112 16:13:06.849759 14514 net.cpp:397] relu4_1_branch2b -> enet4_1_branch2b (in-place)
I0112 16:13:06.850883 14514 net.cpp:150] Setting up relu4_1_branch2b
I0112 16:13:06.850899 14514 net.cpp:157] Top shape: 4 16 94 310 (1864960)
I0112 16:13:06.850906 14514 net.cpp:165] Memory required for data: 4451659552
I0112 16:13:06.850914 14514 layer_factory.hpp:77] Creating layer enet4_1_branch2c
I0112 16:13:06.850932 14514 net.cpp:106] Creating Layer enet4_1_branch2c
I0112 16:13:06.850940 14514 net.cpp:454] enet4_1_branch2c <- enet4_1_branch2b
I0112 16:13:06.850960 14514 net.cpp:411] enet4_1_branch2c -> enet4_1_branch2c
I0112 16:13:06.854681 14514 net.cpp:150] Setting up enet4_1_branch2c
I0112 16:13:06.854699 14514 net.cpp:157] Top shape: 4 64 94 310 (7459840)
I0112 16:13:06.854707 14514 net.cpp:165] Memory required for data: 4481498912
I0112 16:13:06.854717 14514 layer_factory.hpp:77] Creating layer bn4_1_branch2c
I0112 16:13:06.854730 14514 net.cpp:106] Creating Layer bn4_1_branch2c
I0112 16:13:06.854739 14514 net.cpp:454] bn4_1_branch2c <- enet4_1_branch2c
I0112 16:13:06.854753 14514 net.cpp:397] bn4_1_branch2c -> enet4_1_branch2c (in-place)
I0112 16:13:06.856235 14514 net.cpp:150] Setting up bn4_1_branch2c
I0112 16:13:06.856253 14514 net.cpp:157] Top shape: 4 64 94 310 (7459840)
I0112 16:13:06.856261 14514 net.cpp:165] Memory required for data: 4511338272
I0112 16:13:06.856271 14514 layer_factory.hpp:77] Creating layer enet4_1
I0112 16:13:06.856282 14514 net.cpp:106] Creating Layer enet4_1
I0112 16:13:06.856289 14514 net.cpp:454] enet4_1 <- enet4_0_relu4_0_0_split_1
I0112 16:13:06.856307 14514 net.cpp:454] enet4_1 <- enet4_1_branch2c
I0112 16:13:06.856324 14514 net.cpp:411] enet4_1 -> enet4_1
I0112 16:13:06.856374 14514 net.cpp:150] Setting up enet4_1
I0112 16:13:06.856387 14514 net.cpp:157] Top shape: 4 64 94 310 (7459840)
I0112 16:13:06.856396 14514 net.cpp:165] Memory required for data: 4541177632
I0112 16:13:06.856403 14514 layer_factory.hpp:77] Creating layer relu4_1
I0112 16:13:06.856411 14514 net.cpp:106] Creating Layer relu4_1
I0112 16:13:06.856418 14514 net.cpp:454] relu4_1 <- enet4_1
I0112 16:13:06.856427 14514 net.cpp:397] relu4_1 -> enet4_1 (in-place)
I0112 16:13:06.857745 14514 net.cpp:150] Setting up relu4_1
I0112 16:13:06.857763 14514 net.cpp:157] Top shape: 4 64 94 310 (7459840)
I0112 16:13:06.857769 14514 net.cpp:165] Memory required for data: 4571016992
I0112 16:13:06.857776 14514 layer_factory.hpp:77] Creating layer enet4_1_relu4_1_0_split
I0112 16:13:06.857789 14514 net.cpp:106] Creating Layer enet4_1_relu4_1_0_split
I0112 16:13:06.857797 14514 net.cpp:454] enet4_1_relu4_1_0_split <- enet4_1
I0112 16:13:06.857807 14514 net.cpp:411] enet4_1_relu4_1_0_split -> enet4_1_relu4_1_0_split_0
I0112 16:13:06.857820 14514 net.cpp:411] enet4_1_relu4_1_0_split -> enet4_1_relu4_1_0_split_1
I0112 16:13:06.857892 14514 net.cpp:150] Setting up enet4_1_relu4_1_0_split
I0112 16:13:06.857906 14514 net.cpp:157] Top shape: 4 64 94 310 (7459840)
I0112 16:13:06.857914 14514 net.cpp:157] Top shape: 4 64 94 310 (7459840)
I0112 16:13:06.857920 14514 net.cpp:165] Memory required for data: 4630695712
I0112 16:13:06.857928 14514 layer_factory.hpp:77] Creating layer enet4_2_branch2a
I0112 16:13:06.857944 14514 net.cpp:106] Creating Layer enet4_2_branch2a
I0112 16:13:06.857952 14514 net.cpp:454] enet4_2_branch2a <- enet4_1_relu4_1_0_split_0
I0112 16:13:06.857965 14514 net.cpp:411] enet4_2_branch2a -> enet4_2_branch2a
I0112 16:13:06.861706 14514 net.cpp:150] Setting up enet4_2_branch2a
I0112 16:13:06.861724 14514 net.cpp:157] Top shape: 4 16 94 310 (1864960)
I0112 16:13:06.861732 14514 net.cpp:165] Memory required for data: 4638155552
I0112 16:13:06.861742 14514 layer_factory.hpp:77] Creating layer bn4_2_branch2a
I0112 16:13:06.861758 14514 net.cpp:106] Creating Layer bn4_2_branch2a
I0112 16:13:06.861766 14514 net.cpp:454] bn4_2_branch2a <- enet4_2_branch2a
I0112 16:13:06.861778 14514 net.cpp:397] bn4_2_branch2a -> enet4_2_branch2a (in-place)
I0112 16:13:06.862174 14514 net.cpp:150] Setting up bn4_2_branch2a
I0112 16:13:06.862188 14514 net.cpp:157] Top shape: 4 16 94 310 (1864960)
I0112 16:13:06.862195 14514 net.cpp:165] Memory required for data: 4645615392
I0112 16:13:06.862205 14514 layer_factory.hpp:77] Creating layer relu4_2_branch2a
I0112 16:13:06.862215 14514 net.cpp:106] Creating Layer relu4_2_branch2a
I0112 16:13:06.862223 14514 net.cpp:454] relu4_2_branch2a <- enet4_2_branch2a
I0112 16:13:06.862234 14514 net.cpp:397] relu4_2_branch2a -> enet4_2_branch2a (in-place)
I0112 16:13:06.863579 14514 net.cpp:150] Setting up relu4_2_branch2a
I0112 16:13:06.863595 14514 net.cpp:157] Top shape: 4 16 94 310 (1864960)
I0112 16:13:06.863602 14514 net.cpp:165] Memory required for data: 4653075232
I0112 16:13:06.863610 14514 layer_factory.hpp:77] Creating layer enet4_2_branch2b
I0112 16:13:06.863627 14514 net.cpp:106] Creating Layer enet4_2_branch2b
I0112 16:13:06.863636 14514 net.cpp:454] enet4_2_branch2b <- enet4_2_branch2a
I0112 16:13:06.863649 14514 net.cpp:411] enet4_2_branch2b -> enet4_2_branch2b
I0112 16:13:06.867745 14514 net.cpp:150] Setting up enet4_2_branch2b
I0112 16:13:06.867764 14514 net.cpp:157] Top shape: 4 16 94 310 (1864960)
I0112 16:13:06.867771 14514 net.cpp:165] Memory required for data: 4660535072
I0112 16:13:06.867782 14514 layer_factory.hpp:77] Creating layer bn4_2_branch2b
I0112 16:13:06.867799 14514 net.cpp:106] Creating Layer bn4_2_branch2b
I0112 16:13:06.867808 14514 net.cpp:454] bn4_2_branch2b <- enet4_2_branch2b
I0112 16:13:06.867820 14514 net.cpp:397] bn4_2_branch2b -> enet4_2_branch2b (in-place)
I0112 16:13:06.868221 14514 net.cpp:150] Setting up bn4_2_branch2b
I0112 16:13:06.868243 14514 net.cpp:157] Top shape: 4 16 94 310 (1864960)
I0112 16:13:06.868258 14514 net.cpp:165] Memory required for data: 4667994912
I0112 16:13:06.868269 14514 layer_factory.hpp:77] Creating layer relu4_2_branch2b
I0112 16:13:06.868279 14514 net.cpp:106] Creating Layer relu4_2_branch2b
I0112 16:13:06.868286 14514 net.cpp:454] relu4_2_branch2b <- enet4_2_branch2b
I0112 16:13:06.868304 14514 net.cpp:397] relu4_2_branch2b -> enet4_2_branch2b (in-place)
I0112 16:13:06.869438 14514 net.cpp:150] Setting up relu4_2_branch2b
I0112 16:13:06.869455 14514 net.cpp:157] Top shape: 4 16 94 310 (1864960)
I0112 16:13:06.869463 14514 net.cpp:165] Memory required for data: 4675454752
I0112 16:13:06.869469 14514 layer_factory.hpp:77] Creating layer enet4_2_branch2c
I0112 16:13:06.869487 14514 net.cpp:106] Creating Layer enet4_2_branch2c
I0112 16:13:06.869495 14514 net.cpp:454] enet4_2_branch2c <- enet4_2_branch2b
I0112 16:13:06.869509 14514 net.cpp:411] enet4_2_branch2c -> enet4_2_branch2c
I0112 16:13:06.873471 14514 net.cpp:150] Setting up enet4_2_branch2c
I0112 16:13:06.873488 14514 net.cpp:157] Top shape: 4 64 94 310 (7459840)
I0112 16:13:06.873497 14514 net.cpp:165] Memory required for data: 4705294112
I0112 16:13:06.873505 14514 layer_factory.hpp:77] Creating layer bn4_2_branch2c
I0112 16:13:06.873522 14514 net.cpp:106] Creating Layer bn4_2_branch2c
I0112 16:13:06.873530 14514 net.cpp:454] bn4_2_branch2c <- enet4_2_branch2c
I0112 16:13:06.873540 14514 net.cpp:397] bn4_2_branch2c -> enet4_2_branch2c (in-place)
I0112 16:13:06.873950 14514 net.cpp:150] Setting up bn4_2_branch2c
I0112 16:13:06.873965 14514 net.cpp:157] Top shape: 4 64 94 310 (7459840)
I0112 16:13:06.873972 14514 net.cpp:165] Memory required for data: 4735133472
I0112 16:13:06.873982 14514 layer_factory.hpp:77] Creating layer enet4_2
I0112 16:13:06.873992 14514 net.cpp:106] Creating Layer enet4_2
I0112 16:13:06.874001 14514 net.cpp:454] enet4_2 <- enet4_1_relu4_1_0_split_1
I0112 16:13:06.874008 14514 net.cpp:454] enet4_2 <- enet4_2_branch2c
I0112 16:13:06.874020 14514 net.cpp:411] enet4_2 -> enet4_2
I0112 16:13:06.874073 14514 net.cpp:150] Setting up enet4_2
I0112 16:13:06.874088 14514 net.cpp:157] Top shape: 4 64 94 310 (7459840)
I0112 16:13:06.874094 14514 net.cpp:165] Memory required for data: 4764972832
I0112 16:13:06.874100 14514 layer_factory.hpp:77] Creating layer relu4_2
I0112 16:13:06.874109 14514 net.cpp:106] Creating Layer relu4_2
I0112 16:13:06.874116 14514 net.cpp:454] relu4_2 <- enet4_2
I0112 16:13:06.874125 14514 net.cpp:397] relu4_2 -> enet4_2 (in-place)
I0112 16:13:06.875257 14514 net.cpp:150] Setting up relu4_2
I0112 16:13:06.875275 14514 net.cpp:157] Top shape: 4 64 94 310 (7459840)
I0112 16:13:06.875283 14514 net.cpp:165] Memory required for data: 4794812192
I0112 16:13:06.875289 14514 layer_factory.hpp:77] Creating layer enet4_2_relu4_2_0_split
I0112 16:13:06.875299 14514 net.cpp:106] Creating Layer enet4_2_relu4_2_0_split
I0112 16:13:06.875306 14514 net.cpp:454] enet4_2_relu4_2_0_split <- enet4_2
I0112 16:13:06.875320 14514 net.cpp:411] enet4_2_relu4_2_0_split -> enet4_2_relu4_2_0_split_0
I0112 16:13:06.875334 14514 net.cpp:411] enet4_2_relu4_2_0_split -> enet4_2_relu4_2_0_split_1
I0112 16:13:06.875411 14514 net.cpp:150] Setting up enet4_2_relu4_2_0_split
I0112 16:13:06.875423 14514 net.cpp:157] Top shape: 4 64 94 310 (7459840)
I0112 16:13:06.875432 14514 net.cpp:157] Top shape: 4 64 94 310 (7459840)
I0112 16:13:06.875437 14514 net.cpp:165] Memory required for data: 4854490912
I0112 16:13:06.875444 14514 layer_factory.hpp:77] Creating layer enet5_0_branch2a
I0112 16:13:06.875463 14514 net.cpp:106] Creating Layer enet5_0_branch2a
I0112 16:13:06.875471 14514 net.cpp:454] enet5_0_branch2a <- enet4_2_relu4_2_0_split_0
I0112 16:13:06.875483 14514 net.cpp:411] enet5_0_branch2a -> enet5_0_branch2a
I0112 16:13:06.879204 14514 net.cpp:150] Setting up enet5_0_branch2a
I0112 16:13:06.879222 14514 net.cpp:157] Top shape: 4 4 94 310 (466240)
I0112 16:13:06.879230 14514 net.cpp:165] Memory required for data: 4856355872
I0112 16:13:06.879240 14514 layer_factory.hpp:77] Creating layer bn5_0_branch2a
I0112 16:13:06.879271 14514 net.cpp:106] Creating Layer bn5_0_branch2a
I0112 16:13:06.879279 14514 net.cpp:454] bn5_0_branch2a <- enet5_0_branch2a
I0112 16:13:06.879292 14514 net.cpp:397] bn5_0_branch2a -> enet5_0_branch2a (in-place)
I0112 16:13:06.880782 14514 net.cpp:150] Setting up bn5_0_branch2a
I0112 16:13:06.880800 14514 net.cpp:157] Top shape: 4 4 94 310 (466240)
I0112 16:13:06.880807 14514 net.cpp:165] Memory required for data: 4858220832
I0112 16:13:06.880818 14514 layer_factory.hpp:77] Creating layer relu5_0_branch2a
I0112 16:13:06.880831 14514 net.cpp:106] Creating Layer relu5_0_branch2a
I0112 16:13:06.880839 14514 net.cpp:454] relu5_0_branch2a <- enet5_0_branch2a
I0112 16:13:06.880849 14514 net.cpp:397] relu5_0_branch2a -> enet5_0_branch2a (in-place)
I0112 16:13:06.881989 14514 net.cpp:150] Setting up relu5_0_branch2a
I0112 16:13:06.882006 14514 net.cpp:157] Top shape: 4 4 94 310 (466240)
I0112 16:13:06.882014 14514 net.cpp:165] Memory required for data: 4860085792
I0112 16:13:06.882020 14514 layer_factory.hpp:77] Creating layer enet5_0_branch2b
I0112 16:13:06.882038 14514 net.cpp:106] Creating Layer enet5_0_branch2b
I0112 16:13:06.882046 14514 net.cpp:454] enet5_0_branch2b <- enet5_0_branch2a
I0112 16:13:06.882062 14514 net.cpp:411] enet5_0_branch2b -> enet5_0_branch2b
I0112 16:13:06.882642 14514 net.cpp:150] Setting up enet5_0_branch2b
I0112 16:13:06.882661 14514 net.cpp:157] Top shape: 4 4 188 620 (1864960)
I0112 16:13:06.882668 14514 net.cpp:165] Memory required for data: 4867545632
I0112 16:13:06.882679 14514 layer_factory.hpp:77] Creating layer bn5_0_branch2b
I0112 16:13:06.882691 14514 net.cpp:106] Creating Layer bn5_0_branch2b
I0112 16:13:06.882699 14514 net.cpp:454] bn5_0_branch2b <- enet5_0_branch2b
I0112 16:13:06.882712 14514 net.cpp:397] bn5_0_branch2b -> enet5_0_branch2b (in-place)
I0112 16:13:06.884332 14514 net.cpp:150] Setting up bn5_0_branch2b
I0112 16:13:06.884351 14514 net.cpp:157] Top shape: 4 4 188 620 (1864960)
I0112 16:13:06.884357 14514 net.cpp:165] Memory required for data: 4875005472
I0112 16:13:06.884368 14514 layer_factory.hpp:77] Creating layer relu5_0_branch2b
I0112 16:13:06.884378 14514 net.cpp:106] Creating Layer relu5_0_branch2b
I0112 16:13:06.884387 14514 net.cpp:454] relu5_0_branch2b <- enet5_0_branch2b
I0112 16:13:06.884395 14514 net.cpp:397] relu5_0_branch2b -> enet5_0_branch2b (in-place)
I0112 16:13:06.885738 14514 net.cpp:150] Setting up relu5_0_branch2b
I0112 16:13:06.885756 14514 net.cpp:157] Top shape: 4 4 188 620 (1864960)
I0112 16:13:06.885763 14514 net.cpp:165] Memory required for data: 4882465312
I0112 16:13:06.885771 14514 layer_factory.hpp:77] Creating layer enet5_0_branch2c
I0112 16:13:06.885787 14514 net.cpp:106] Creating Layer enet5_0_branch2c
I0112 16:13:06.885795 14514 net.cpp:454] enet5_0_branch2c <- enet5_0_branch2b
I0112 16:13:06.885809 14514 net.cpp:411] enet5_0_branch2c -> enet5_0_branch2c
I0112 16:13:06.889571 14514 net.cpp:150] Setting up enet5_0_branch2c
I0112 16:13:06.889590 14514 net.cpp:157] Top shape: 4 16 188 620 (7459840)
I0112 16:13:06.889597 14514 net.cpp:165] Memory required for data: 4912304672
I0112 16:13:06.889607 14514 layer_factory.hpp:77] Creating layer bn5_0_branch2c
I0112 16:13:06.889621 14514 net.cpp:106] Creating Layer bn5_0_branch2c
I0112 16:13:06.889631 14514 net.cpp:454] bn5_0_branch2c <- enet5_0_branch2c
I0112 16:13:06.889641 14514 net.cpp:397] bn5_0_branch2c -> enet5_0_branch2c (in-place)
I0112 16:13:06.891263 14514 net.cpp:150] Setting up bn5_0_branch2c
I0112 16:13:06.891279 14514 net.cpp:157] Top shape: 4 16 188 620 (7459840)
I0112 16:13:06.891286 14514 net.cpp:165] Memory required for data: 4942144032
I0112 16:13:06.891297 14514 layer_factory.hpp:77] Creating layer enet5_0_branch1a
I0112 16:13:06.891315 14514 net.cpp:106] Creating Layer enet5_0_branch1a
I0112 16:13:06.891324 14514 net.cpp:454] enet5_0_branch1a <- enet4_2_relu4_2_0_split_1
I0112 16:13:06.891335 14514 net.cpp:411] enet5_0_branch1a -> enet5_0_branch1a
I0112 16:13:06.895368 14514 net.cpp:150] Setting up enet5_0_branch1a
I0112 16:13:06.895395 14514 net.cpp:157] Top shape: 4 16 94 310 (1864960)
I0112 16:13:06.895411 14514 net.cpp:165] Memory required for data: 4949603872
I0112 16:13:06.895421 14514 layer_factory.hpp:77] Creating layer bn5_0_branch1a
I0112 16:13:06.895437 14514 net.cpp:106] Creating Layer bn5_0_branch1a
I0112 16:13:06.895445 14514 net.cpp:454] bn5_0_branch1a <- enet5_0_branch1a
I0112 16:13:06.895458 14514 net.cpp:397] bn5_0_branch1a -> enet5_0_branch1a (in-place)
I0112 16:13:06.895900 14514 net.cpp:150] Setting up bn5_0_branch1a
I0112 16:13:06.895915 14514 net.cpp:157] Top shape: 4 16 94 310 (1864960)
I0112 16:13:06.895920 14514 net.cpp:165] Memory required for data: 4957063712
I0112 16:13:06.895931 14514 layer_factory.hpp:77] Creating layer unpool5_0_branch1a
I0112 16:13:06.895942 14514 net.cpp:106] Creating Layer unpool5_0_branch1a
I0112 16:13:06.895951 14514 net.cpp:454] unpool5_0_branch1a <- enet5_0_branch1a
I0112 16:13:06.895959 14514 net.cpp:454] unpool5_0_branch1a <- pool1_0_branch1a_mask
I0112 16:13:06.895968 14514 net.cpp:411] unpool5_0_branch1a -> unpool5_0_branch1a
I0112 16:13:06.896020 14514 net.cpp:150] Setting up unpool5_0_branch1a
I0112 16:13:06.896034 14514 net.cpp:157] Top shape: 4 16 188 620 (7459840)
I0112 16:13:06.896040 14514 net.cpp:165] Memory required for data: 4986903072
I0112 16:13:06.896046 14514 layer_factory.hpp:77] Creating layer enet5_0
I0112 16:13:06.896064 14514 net.cpp:106] Creating Layer enet5_0
I0112 16:13:06.896070 14514 net.cpp:454] enet5_0 <- unpool5_0_branch1a
I0112 16:13:06.896080 14514 net.cpp:454] enet5_0 <- enet5_0_branch2c
I0112 16:13:06.896088 14514 net.cpp:411] enet5_0 -> enet5_0
I0112 16:13:06.896136 14514 net.cpp:150] Setting up enet5_0
I0112 16:13:06.896148 14514 net.cpp:157] Top shape: 4 16 188 620 (7459840)
I0112 16:13:06.896155 14514 net.cpp:165] Memory required for data: 5016742432
I0112 16:13:06.896162 14514 layer_factory.hpp:77] Creating layer relu5_0
I0112 16:13:06.896174 14514 net.cpp:106] Creating Layer relu5_0
I0112 16:13:06.896181 14514 net.cpp:454] relu5_0 <- enet5_0
I0112 16:13:06.896193 14514 net.cpp:397] relu5_0 -> enet5_0 (in-place)
I0112 16:13:06.897338 14514 net.cpp:150] Setting up relu5_0
I0112 16:13:06.897356 14514 net.cpp:157] Top shape: 4 16 188 620 (7459840)
I0112 16:13:06.897363 14514 net.cpp:165] Memory required for data: 5046581792
I0112 16:13:06.897370 14514 layer_factory.hpp:77] Creating layer enet5_0_relu5_0_0_split
I0112 16:13:06.897380 14514 net.cpp:106] Creating Layer enet5_0_relu5_0_0_split
I0112 16:13:06.897395 14514 net.cpp:454] enet5_0_relu5_0_0_split <- enet5_0
I0112 16:13:06.897406 14514 net.cpp:411] enet5_0_relu5_0_0_split -> enet5_0_relu5_0_0_split_0
I0112 16:13:06.897419 14514 net.cpp:411] enet5_0_relu5_0_0_split -> enet5_0_relu5_0_0_split_1
I0112 16:13:06.897500 14514 net.cpp:150] Setting up enet5_0_relu5_0_0_split
I0112 16:13:06.897512 14514 net.cpp:157] Top shape: 4 16 188 620 (7459840)
I0112 16:13:06.897521 14514 net.cpp:157] Top shape: 4 16 188 620 (7459840)
I0112 16:13:06.897527 14514 net.cpp:165] Memory required for data: 5106260512
I0112 16:13:06.897533 14514 layer_factory.hpp:77] Creating layer enet5_1_branch2a
I0112 16:13:06.897549 14514 net.cpp:106] Creating Layer enet5_1_branch2a
I0112 16:13:06.897557 14514 net.cpp:454] enet5_1_branch2a <- enet5_0_relu5_0_0_split_0
I0112 16:13:06.897572 14514 net.cpp:411] enet5_1_branch2a -> enet5_1_branch2a
I0112 16:13:06.901593 14514 net.cpp:150] Setting up enet5_1_branch2a
I0112 16:13:06.901612 14514 net.cpp:157] Top shape: 4 4 188 620 (1864960)
I0112 16:13:06.901619 14514 net.cpp:165] Memory required for data: 5113720352
I0112 16:13:06.901628 14514 layer_factory.hpp:77] Creating layer bn5_1_branch2a
I0112 16:13:06.901643 14514 net.cpp:106] Creating Layer bn5_1_branch2a
I0112 16:13:06.901651 14514 net.cpp:454] bn5_1_branch2a <- enet5_1_branch2a
I0112 16:13:06.901664 14514 net.cpp:397] bn5_1_branch2a -> enet5_1_branch2a (in-place)
I0112 16:13:06.903292 14514 net.cpp:150] Setting up bn5_1_branch2a
I0112 16:13:06.903311 14514 net.cpp:157] Top shape: 4 4 188 620 (1864960)
I0112 16:13:06.903326 14514 net.cpp:165] Memory required for data: 5121180192
I0112 16:13:06.903343 14514 layer_factory.hpp:77] Creating layer relu5_1_branch2a
I0112 16:13:06.903354 14514 net.cpp:106] Creating Layer relu5_1_branch2a
I0112 16:13:06.903362 14514 net.cpp:454] relu5_1_branch2a <- enet5_1_branch2a
I0112 16:13:06.903375 14514 net.cpp:397] relu5_1_branch2a -> enet5_1_branch2a (in-place)
I0112 16:13:06.904533 14514 net.cpp:150] Setting up relu5_1_branch2a
I0112 16:13:06.904551 14514 net.cpp:157] Top shape: 4 4 188 620 (1864960)
I0112 16:13:06.904558 14514 net.cpp:165] Memory required for data: 5128640032
I0112 16:13:06.904566 14514 layer_factory.hpp:77] Creating layer enet5_1_branch2b
I0112 16:13:06.904584 14514 net.cpp:106] Creating Layer enet5_1_branch2b
I0112 16:13:06.904592 14514 net.cpp:454] enet5_1_branch2b <- enet5_1_branch2a
I0112 16:13:06.904604 14514 net.cpp:411] enet5_1_branch2b -> enet5_1_branch2b
I0112 16:13:06.911186 14514 net.cpp:150] Setting up enet5_1_branch2b
I0112 16:13:06.911206 14514 net.cpp:157] Top shape: 4 4 188 620 (1864960)
I0112 16:13:06.911214 14514 net.cpp:165] Memory required for data: 5136099872
I0112 16:13:06.911226 14514 layer_factory.hpp:77] Creating layer bn5_1_branch2b
I0112 16:13:06.911238 14514 net.cpp:106] Creating Layer bn5_1_branch2b
I0112 16:13:06.911247 14514 net.cpp:454] bn5_1_branch2b <- enet5_1_branch2b
I0112 16:13:06.911257 14514 net.cpp:397] bn5_1_branch2b -> enet5_1_branch2b (in-place)
I0112 16:13:06.912860 14514 net.cpp:150] Setting up bn5_1_branch2b
I0112 16:13:06.912878 14514 net.cpp:157] Top shape: 4 4 188 620 (1864960)
I0112 16:13:06.912885 14514 net.cpp:165] Memory required for data: 5143559712
I0112 16:13:06.912897 14514 layer_factory.hpp:77] Creating layer relu5_1_branch2b
I0112 16:13:06.912907 14514 net.cpp:106] Creating Layer relu5_1_branch2b
I0112 16:13:06.912915 14514 net.cpp:454] relu5_1_branch2b <- enet5_1_branch2b
I0112 16:13:06.912925 14514 net.cpp:397] relu5_1_branch2b -> enet5_1_branch2b (in-place)
I0112 16:13:06.914086 14514 net.cpp:150] Setting up relu5_1_branch2b
I0112 16:13:06.914104 14514 net.cpp:157] Top shape: 4 4 188 620 (1864960)
I0112 16:13:06.914111 14514 net.cpp:165] Memory required for data: 5151019552
I0112 16:13:06.914119 14514 layer_factory.hpp:77] Creating layer enet5_1_branch2c
I0112 16:13:06.914135 14514 net.cpp:106] Creating Layer enet5_1_branch2c
I0112 16:13:06.914144 14514 net.cpp:454] enet5_1_branch2c <- enet5_1_branch2b
I0112 16:13:06.914155 14514 net.cpp:411] enet5_1_branch2c -> enet5_1_branch2c
I0112 16:13:06.918198 14514 net.cpp:150] Setting up enet5_1_branch2c
I0112 16:13:06.918216 14514 net.cpp:157] Top shape: 4 16 188 620 (7459840)
I0112 16:13:06.918227 14514 net.cpp:165] Memory required for data: 5180858912
I0112 16:13:06.918237 14514 layer_factory.hpp:77] Creating layer bn5_1_branch2c
I0112 16:13:06.918249 14514 net.cpp:106] Creating Layer bn5_1_branch2c
I0112 16:13:06.918257 14514 net.cpp:454] bn5_1_branch2c <- enet5_1_branch2c
I0112 16:13:06.918272 14514 net.cpp:397] bn5_1_branch2c -> enet5_1_branch2c (in-place)
I0112 16:13:06.919914 14514 net.cpp:150] Setting up bn5_1_branch2c
I0112 16:13:06.919931 14514 net.cpp:157] Top shape: 4 16 188 620 (7459840)
I0112 16:13:06.919939 14514 net.cpp:165] Memory required for data: 5210698272
I0112 16:13:06.919950 14514 layer_factory.hpp:77] Creating layer enet5_1
I0112 16:13:06.919960 14514 net.cpp:106] Creating Layer enet5_1
I0112 16:13:06.919967 14514 net.cpp:454] enet5_1 <- enet5_0_relu5_0_0_split_1
I0112 16:13:06.919976 14514 net.cpp:454] enet5_1 <- enet5_1_branch2c
I0112 16:13:06.919986 14514 net.cpp:411] enet5_1 -> enet5_1
I0112 16:13:06.920040 14514 net.cpp:150] Setting up enet5_1
I0112 16:13:06.920058 14514 net.cpp:157] Top shape: 4 16 188 620 (7459840)
I0112 16:13:06.920065 14514 net.cpp:165] Memory required for data: 5240537632
I0112 16:13:06.920071 14514 layer_factory.hpp:77] Creating layer relu5_1
I0112 16:13:06.920081 14514 net.cpp:106] Creating Layer relu5_1
I0112 16:13:06.920089 14514 net.cpp:454] relu5_1 <- enet5_1
I0112 16:13:06.920100 14514 net.cpp:397] relu5_1 -> enet5_1 (in-place)
I0112 16:13:06.921490 14514 net.cpp:150] Setting up relu5_1
I0112 16:13:06.921517 14514 net.cpp:157] Top shape: 4 16 188 620 (7459840)
I0112 16:13:06.921525 14514 net.cpp:165] Memory required for data: 5270376992
I0112 16:13:06.921531 14514 layer_factory.hpp:77] Creating layer enet6_0
I0112 16:13:06.921547 14514 net.cpp:106] Creating Layer enet6_0
I0112 16:13:06.921555 14514 net.cpp:454] enet6_0 <- enet5_1
I0112 16:13:06.921568 14514 net.cpp:411] enet6_0 -> enet6_0
I0112 16:13:06.924437 14514 net.cpp:150] Setting up enet6_0
I0112 16:13:06.924458 14514 net.cpp:157] Top shape: 4 4 376 1240 (7459840)
I0112 16:13:06.924466 14514 net.cpp:165] Memory required for data: 5300216352
I0112 16:13:06.924477 14514 layer_factory.hpp:77] Creating layer enet6_0_enet6_0_0_split
I0112 16:13:06.924487 14514 net.cpp:106] Creating Layer enet6_0_enet6_0_0_split
I0112 16:13:06.924495 14514 net.cpp:454] enet6_0_enet6_0_0_split <- enet6_0
I0112 16:13:06.924505 14514 net.cpp:411] enet6_0_enet6_0_0_split -> enet6_0_enet6_0_0_split_0
I0112 16:13:06.924517 14514 net.cpp:411] enet6_0_enet6_0_0_split -> enet6_0_enet6_0_0_split_1
I0112 16:13:06.924604 14514 net.cpp:150] Setting up enet6_0_enet6_0_0_split
I0112 16:13:06.924618 14514 net.cpp:157] Top shape: 4 4 376 1240 (7459840)
I0112 16:13:06.924626 14514 net.cpp:157] Top shape: 4 4 376 1240 (7459840)
I0112 16:13:06.924633 14514 net.cpp:165] Memory required for data: 5359895072
I0112 16:13:06.924638 14514 layer_factory.hpp:77] Creating layer loss
I0112 16:13:06.924661 14514 net.cpp:106] Creating Layer loss
I0112 16:13:06.924669 14514 net.cpp:454] loss <- enet6_0_enet6_0_0_split_0
I0112 16:13:06.924681 14514 net.cpp:454] loss <- label_data_1_split_0
I0112 16:13:06.924692 14514 net.cpp:411] loss -> loss
I0112 16:13:06.924722 14514 layer_factory.hpp:77] Creating layer loss
I0112 16:13:06.959352 14514 net.cpp:150] Setting up loss
I0112 16:13:06.959404 14514 net.cpp:157] Top shape: (1)
I0112 16:13:06.959411 14514 net.cpp:160]     with loss weight 1
I0112 16:13:06.959475 14514 net.cpp:165] Memory required for data: 5359895076
I0112 16:13:06.959484 14514 layer_factory.hpp:77] Creating layer accuracy
I0112 16:13:06.959509 14514 net.cpp:106] Creating Layer accuracy
I0112 16:13:06.959520 14514 net.cpp:454] accuracy <- enet6_0_enet6_0_0_split_1
I0112 16:13:06.959534 14514 net.cpp:454] accuracy <- label_data_1_split_1
I0112 16:13:06.959545 14514 net.cpp:411] accuracy -> accuracy
I0112 16:13:06.959560 14514 net.cpp:411] accuracy -> per_class_accuracy
I0112 16:13:06.959648 14514 net.cpp:150] Setting up accuracy
I0112 16:13:06.959662 14514 net.cpp:157] Top shape: (1)
I0112 16:13:06.959671 14514 net.cpp:157] Top shape: 4 (4)
I0112 16:13:06.959676 14514 net.cpp:165] Memory required for data: 5359895096
I0112 16:13:06.959684 14514 net.cpp:228] accuracy does not need backward computation.
I0112 16:13:06.959692 14514 net.cpp:226] loss needs backward computation.
I0112 16:13:06.959698 14514 net.cpp:226] enet6_0_enet6_0_0_split needs backward computation.
I0112 16:13:06.959705 14514 net.cpp:226] enet6_0 needs backward computation.
…
