…
I0110 15:07:15.202097 30030 solver.cpp:91] Creating training net from net file: /home/map/liuli/caffe_hebei/segnet/Models/enet/enet_train_kitti_road_carD.prototxt
I0110 15:07:15.214678 30030 net.cpp:49] Initializing net from parameters: 
name: "enet"
state {
  phase: TRAIN
}
layer {
  name: "data"
  type: "ImageSegData"
  top: "data"
  top: "label"
  transform_param {
    mirror: true
    mean_value: 0
    mean_value: 0
    mean_value: 0
    scale_factors: 1
  }
  image_data_param {
    source: "/home/map/liuli/datasets/enet_multclass/train_new_carD/train/enet_train.list"
    batch_size: 4
    shuffle: true
    label_type: PIXEL
  }
}
layer {
  name: "enet_initial_branch2a"
  type: "Convolution"
  bottom: "data"
  top: "enet_initial_branch2a"
  param {
    lr_mult: 1
    decay_mult: 1
  }
  param {
    lr_mult: 2
    decay_mult: 0
  }
  convolution_param {
    num_output: 13
    bias_term: true
    weight_filler {
      type: "msra"
    }
    bias_filler {
      type: "constant"
    }
    pad_h: 1
    pad_w: 1
    kernel_h: 3
    kernel_w: 3
    stride_h: 2
    stride_w: 2
    dilation: 1
  }
}
layer {
  name: "pool_initial_branch1a"
  type: "Pooling"
  bottom: "data"
  top: "pool_initial_branch1a"
  pooling_param {
    pool: MAX
    kernel_size: 2
    stride: 2
  }
}
layer {
  name: "enet_initial"
  type: "Concat"
  bottom: "enet_initial_branch2a"
  bottom: "pool_initial_branch1a"
  top: "enet_initial"
  concat_param {
    axis: 1
  }
}
layer {
  name: "bn_initial"
  type: "BN"
  bottom: "enet_initial"
  top: "enet_initial"
  param {
    lr_mult: 1
    decay_mult: 1
  }
  param {
    lr_mult: 2
    decay_mult: 0
  }
  bn_param {
    scale_filler {
      type: "constant"
      value: 1
    }
    shift_filler {
      type: "constant"
      value: 0.001
    }
  }
}
layer {
  name: "relu_initial"
  type: "PReLU"
  bottom: "enet_initial"
  top: "enet_initial"
}
layer {
  name: "enet1_0_branch2a"
  type: "Convolution"
  bottom: "enet_initial"
  top: "enet1_0_branch2a"
  param {
    lr_mult: 1
    decay_mult: 1
  }
  convolution_param {
    num_output: 16
    bias_term: false
    weight_filler {
      type: "msra"
    }
    bias_filler {
      type: "constant"
    }
    pad_h: 0
    pad_w: 0
    kernel_h: 2
    kernel_w: 2
    stride_h: 2
    stride_w: 2
    dilation: 1
  }
}
layer {
  name: "bn1_0_branch2a"
  type: "BN"
  bottom: "enet1_0_branch2a"
  top: "enet1_0_branch2a"
  param {
    lr_mult: 1
    decay_mult: 1
  }
  param {
    lr_mult: 2
    decay_mult: 0
  }
  bn_param {
    scale_filler {
      type: "constant"
      value: 1
    }
    shift_filler {
      type: "constant"
      value: 0.001
    }
  }
}
layer {
  name: "relu1_0_branch2a"
  type: "PReLU"
  bottom: "enet1_0_branch2a"
  top: "enet1_0_branch2a"
}
layer {
  name: "enet1_0_branch2b"
  type: "Convolution"
  bottom: "enet1_0_branch2a"
  top: "enet1_0_branch2b"
  param {
    lr_mult: 1
    decay_mult: 1
  }
  param {
    lr_mult: 2
    decay_mult: 0
  }
  convolution_param {
    num_output: 16
    bias_term: true
    weight_filler {
      type: "msra"
    }
    bias_filler {
      type: "constant"
    }
    pad_h: 1
    pad_w: 1
    kernel_h: 3
    kernel_w: 3
    stride_h: 1
    stride_w: 1
    dilation: 1
  }
}
layer {
  name: "bn1_0_branch2b"
  type: "BN"
  bottom: "enet1_0_branch2b"
  top: "enet1_0_branch2b"
  param {
    lr_mult: 1
    decay_mult: 1
  }
  param {
    lr_mult: 2
    decay_mult: 0
  }
  bn_param {
    scale_filler {
      type: "constant"
      value: 1
    }
    shift_filler {
      type: "constant"
      value: 0.001
    }
  }
}
layer {
  name: "relu1_0_branch2b"
  type: "PReLU"
  bottom: "enet1_0_branch2b"
  top: "enet1_0_branch2b"
}
layer {
  name: "enet1_0_branch2c"
  type: "Convolution"
  bottom: "enet1_0_branch2b"
  top: "enet1_0_branch2c"
  param {
    lr_mult: 1
    decay_mult: 1
  }
  convolution_param {
    num_output: 64
    bias_term: false
    weight_filler {
      type: "msra"
    }
    bias_filler {
      type: "constant"
    }
    pad_h: 0
    pad_w: 0
    kernel_h: 1
    kernel_w: 1
    stride_h: 1
    stride_w: 1
    dilation: 1
  }
}
layer {
  name: "bn1_0_branch2c"
  type: "BN"
  bottom: "enet1_0_branch2c"
  top: "enet1_0_branch2c"
  param {
    lr_mult: 1
    decay_mult: 1
  }
  param {
    lr_mult: 2
    decay_mult: 0
  }
  bn_param {
    scale_filler {
      type: "constant"
      value: 1
    }
    shift_filler {
      type: "constant"
      value: 0.001
    }
  }
}
layer {
  name: "dropout1_0_branch2c"
  type: "Dropout"
  bottom: "enet1_0_branch2c"
  top: "enet1_0_branch2c"
  dropout_param {
    dropout_ratio: 0.01
  }
}
layer {
  name: "enet1_0_branch1a"
  type: "Convolution"
  bottom: "enet_initial"
  top: "enet1_0_branch1a"
  param {
    lr_mult: 1
    decay_mult: 1
  }
  convolution_param {
    num_output: 64
    bias_term: false
    weight_filler {
      type: "msra"
    }
    bias_filler {
      type: "constant"
    }
    pad_h: 0
    pad_w: 0
    kernel_h: 1
    kernel_w: 1
    stride_h: 1
    stride_w: 1
    dilation: 1
  }
}
layer {
  name: "bn1_0_branch1a"
  type: "BN"
  bottom: "enet1_0_branch1a"
  top: "enet1_0_branch1a"
  param {
    lr_mult: 1
    decay_mult: 1
  }
  param {
    lr_mult: 2
    decay_mult: 0
  }
  bn_param {
    scale_filler {
      type: "constant"
      value: 1
    }
    shift_filler {
      type: "constant"
      value: 0.001
    }
  }
}
layer {
  name: "pool1_0_branch1a"
  type: "Pooling"
  bottom: "enet1_0_branch1a"
  top: "pool1_0_branch1a"
  top: "pool1_0_branch1a_mask"
  pooling_param {
    pool: MAX
    kernel_size: 2
    stride: 2
  }
}
layer {
  name: "enet1_0"
  type: "Eltwise"
  bottom: "pool1_0_branch1a"
  bottom: "enet1_0_branch2c"
  top: "enet1_0"
}
layer {
  name: "relu1_0"
  type: "PReLU"
  bottom: "enet1_0"
  top: "enet1_0"
}
layer {
  name: "enet1_1_branch2a"
  type: "Convolution"
  bottom: "enet1_0"
  top: "enet1_1_branch2a"
  param {
    lr_mult: 1
    decay_mult: 1
  }
  convolution_param {
    num_output: 16
    bias_term: false
    weight_filler {
      type: "msra"
    }
    bias_filler {
      type: "constant"
    }
    pad_h: 0
    pad_w: 0
    kernel_h: 1
    kernel_w: 1
    stride_h: 1
    stride_w: 1
    dilation: 1
  }
}
layer {
  name: "bn1_1_branch2a"
  type: "BN"
  bottom: "enet1_1_branch2a"
  top: "enet1_1_branch2a"
  param {
    lr_mult: 1
    decay_mult: 1
  }
  param {
    lr_mult: 2
    decay_mult: 0
  }
  bn_param {
    scale_filler {
      type: "constant"
      value: 1
    }
    shift_filler {
      type: "constant"
      value: 0.001
    }
  }
}
layer {
  name: "relu1_1_branch2a"
  type: "PReLU"
  bottom: "enet1_1_branch2a"
  top: "enet1_1_branch2a"
}
layer {
  name: "enet1_1_branch2b"
  type: "Convolution"
  bottom: "enet1_1_branch2a"
  top: "enet1_1_branch2b"
  param {
    lr_mult: 1
    decay_mult: 1
  }
  param {
    lr_mult: 2
    decay_mult: 0
  }
  convolution_param {
    num_output: 16
    bias_term: true
    weight_filler {
      type: "msra"
    }
    bias_filler {
      type: "constant"
    }
    pad_h: 1
    pad_w: 1
    kernel_h: 3
    kernel_w: 3
    stride_h: 1
    stride_w: 1
    dilation: 1
  }
}
layer {
  name: "bn1_1_branch2b"
  type: "BN"
  bottom: "enet1_1_branch2b"
  top: "enet1_1_branch2b"
  param {
    lr_mult: 1
    decay_mult: 1
  }
  param {
    lr_mult: 2
    decay_mult: 0
  }
  bn_param {
    scale_filler {
      type: "constant"
      value: 1
    }
    shift_filler {
      type: "constant"
      value: 0.001
    }
  }
}
layer {
  name: "relu1_1_branch2b"
  type: "PReLU"
  bottom: "enet1_1_branch2b"
  top: "enet1_1_branch2b"
}
layer {
  name: "enet1_1_branch2c"
  type: "Convolution"
  bottom: "enet1_1_branch2b"
  top: "enet1_1_branch2c"
  param {
    lr_mult: 1
    decay_mult: 1
  }
  convolution_param {
    num_output: 64
    bias_term: false
    weight_filler {
      type: "msra"
    }
    bias_filler {
      type: "constant"
    }
    pad_h: 0
    pad_w: 0
    kernel_h: 1
    kernel_w: 1
    stride_h: 1
    stride_w: 1
    dilation: 1
  }
}
layer {
  name: "bn1_1_branch2c"
  type: "BN"
  bottom: "enet1_1_branch2c"
  top: "enet1_1_branch2c"
  param {
    lr_mult: 1
    decay_mult: 1
  }
  param {
    lr_mult: 2
    decay_mult: 0
  }
  bn_param {
    scale_filler {
      type: "constant"
      value: 1
    }
    shift_filler {
      type: "constant"
      value: 0.001
    }
  }
}
layer {
  name: "dropout1_1_branch2c"
  type: "Dropout"
  bottom: "enet1_1_branch2c"
  top: "enet1_1_branch2c"
  dropout_param {
    dropout_ratio: 0.01
  }
}
layer {
  name: "enet1_1"
  type: "Eltwise"
  bottom: "enet1_0"
  bottom: "enet1_1_branch2c"
  top: "enet1_1"
}
layer {
  name: "relu1_1"
  type: "PReLU"
  bottom: "enet1_1"
  top: "enet1_1"
}
layer {
  name: "enet1_2_branch2a"
  type: "Convolution"
  bottom: "enet1_1"
  top: "enet1_2_branch2a"
  param {
    lr_mult: 1
    decay_mult: 1
  }
  convolution_param {
    num_output: 16
    bias_term: false
    weight_filler {
      type: "msra"
    }
    bias_filler {
      type: "constant"
    }
    pad_h: 0
    pad_w: 0
    kernel_h: 1
    kernel_w: 1
    stride_h: 1
    stride_w: 1
    dilation: 1
  }
}
layer {
  name: "bn1_2_branch2a"
  type: "BN"
  bottom: "enet1_2_branch2a"
  top: "enet1_2_branch2a"
  param {
    lr_mult: 1
    decay_mult: 1
  }
  param {
    lr_mult: 2
    decay_mult: 0
  }
  bn_param {
    scale_filler {
      type: "constant"
      value: 1
    }
    shift_filler {
      type: "constant"
      value: 0.001
    }
  }
}
layer {
  name: "relu1_2_branch2a"
  type: "PReLU"
  bottom: "enet1_2_branch2a"
  top: "enet1_2_branch2a"
}
layer {
  name: "enet1_2_branch2b"
  type: "Convolution"
  bottom: "enet1_2_branch2a"
  top: "enet1_2_branch2b"
  param {
    lr_mult: 1
    decay_mult: 1
  }
  param {
    lr_mult: 2
    decay_mult: 0
  }
  convolution_param {
    num_output: 16
    bias_term: true
    weight_filler {
      type: "msra"
    }
    bias_filler {
      type: "constant"
    }
    pad_h: 1
    pad_w: 1
    kernel_h: 3
    kernel_w: 3
    stride_h: 1
    stride_w: 1
    dilation: 1
  }
}
layer {
  name: "bn1_2_branch2b"
  type: "BN"
  bottom: "enet1_2_branch2b"
  top: "enet1_2_branch2b"
  param {
    lr_mult: 1
    decay_mult: 1
  }
  param {
    lr_mult: 2
    decay_mult: 0
  }
  bn_param {
    scale_filler {
      type: "constant"
      value: 1
    }
    shift_filler {
      type: "constant"
      value: 0.001
    }
  }
}
layer {
  name: "relu1_2_branch2b"
  type: "PReLU"
  bottom: "enet1_2_branch2b"
  top: "enet1_2_branch2b"
}
layer {
  name: "enet1_2_branch2c"
  type: "Convolution"
  bottom: "enet1_2_branch2b"
  top: "enet1_2_branch2c"
  param {
    lr_mult: 1
    decay_mult: 1
  }
  convolution_param {
    num_output: 64
    bias_term: false
    weight_filler {
      type: "msra"
    }
    bias_filler {
      type: "constant"
    }
    pad_h: 0
    pad_w: 0
    kernel_h: 1
    kernel_w: 1
    stride_h: 1
    stride_w: 1
    dilation: 1
  }
}
layer {
  name: "bn1_2_branch2c"
  type: "BN"
  bottom: "enet1_2_branch2c"
  top: "enet1_2_branch2c"
  param {
    lr_mult: 1
    decay_mult: 1
  }
  param {
    lr_mult: 2
    decay_mult: 0
  }
  bn_param {
    scale_filler {
      type: "constant"
      value: 1
    }
    shift_filler {
      type: "constant"
      value: 0.001
    }
  }
}
layer {
  name: "dropout1_2_branch2c"
  type: "Dropout"
  bottom: "enet1_2_branch2c"
  top: "enet1_2_branch2c"
  dropout_param {
    dropout_ratio: 0.01
  }
}
layer {
  name: "enet1_2"
  type: "Eltwise"
  bottom: "enet1_1"
  bottom: "enet1_2_branch2c"
  top: "enet1_2"
}
layer {
  name: "relu1_2"
  type: "PReLU"
  bottom: "enet1_2"
  top: "enet1_2"
}
layer {
  name: "enet1_3_branch2a"
  type: "Convolution"
  bottom: "enet1_2"
  top: "enet1_3_branch2a"
  param {
    lr_mult: 1
    decay_mult: 1
  }
  convolution_param {
    num_output: 16
    bias_term: false
    weight_filler {
      type: "msra"
    }
    bias_filler {
      type: "constant"
    }
    pad_h: 0
    pad_w: 0
    kernel_h: 1
    kernel_w: 1
    stride_h: 1
    stride_w: 1
    dilation: 1
  }
}
layer {
  name: "bn1_3_branch2a"
  type: "BN"
  bottom: "enet1_3_branch2a"
  top: "enet1_3_branch2a"
  param {
    lr_mult: 1
    decay_mult: 1
  }
  param {
    lr_mult: 2
    decay_mult: 0
  }
  bn_param {
    scale_filler {
      type: "constant"
      value: 1
    }
    shift_filler {
      type: "constant"
      value: 0.001
    }
  }
}
layer {
  name: "relu1_3_branch2a"
  type: "PReLU"
  bottom: "enet1_3_branch2a"
  top: "enet1_3_branch2a"
}
layer {
  name: "enet1_3_branch2b"
  type: "Convolution"
  bottom: "enet1_3_branch2a"
  top: "enet1_3_branch2b"
  param {
    lr_mult: 1
    decay_mult: 1
  }
  param {
    lr_mult: 2
    decay_mult: 0
  }
  convolution_param {
    num_output: 16
    bias_term: true
    weight_filler {
      type: "msra"
    }
    bias_filler {
      type: "constant"
    }
    pad_h: 1
    pad_w: 1
    kernel_h: 3
    kernel_w: 3
    stride_h: 1
    stride_w: 1
    dilation: 1
  }
}
layer {
  name: "bn1_3_branch2b"
  type: "BN"
  bottom: "enet1_3_branch2b"
  top: "enet1_3_branch2b"
  param {
    lr_mult: 1
    decay_mult: 1
  }
  param {
    lr_mult: 2
    decay_mult: 0
  }
  bn_param {
    scale_filler {
      type: "constant"
      value: 1
    }
    shift_filler {
      type: "constant"
      value: 0.001
    }
  }
}
layer {
  name: "relu1_3_branch2b"
  type: "PReLU"
  bottom: "enet1_3_branch2b"
  top: "enet1_3_branch2b"
}
layer {
  name: "enet1_3_branch2c"
  type: "Convolution"
  bottom: "enet1_3_branch2b"
  top: "enet1_3_branch2c"
  param {
    lr_mult: 1
    decay_mult: 1
  }
  convolution_param {
    num_output: 64
    bias_term: false
    weight_filler {
      type: "msra"
    }
    bias_filler {
      type: "constant"
    }
    pad_h: 0
    pad_w: 0
    kernel_h: 1
    kernel_w: 1
    stride_h: 1
    stride_w: 1
    dilation: 1
  }
}
layer {
  name: "bn1_3_branch2c"
  type: "BN"
  bottom: "enet1_3_branch2c"
  top: "enet1_3_branch2c"
  param {
    lr_mult: 1
    decay_mult: 1
  }
  param {
    lr_mult: 2
    decay_mult: 0
  }
  bn_param {
    scale_filler {
      type: "constant"
      value: 1
    }
    shift_filler {
      type: "constant"
      value: 0.001
    }
  }
}
layer {
  name: "dropout1_3_branch2c"
  type: "Dropout"
  bottom: "enet1_3_branch2c"
  top: "enet1_3_branch2c"
  dropout_param {
    dropout_ratio: 0.01
  }
}
layer {
  name: "enet1_3"
  type: "Eltwise"
  bottom: "enet1_2"
  bottom: "enet1_3_branch2c"
  top: "enet1_3"
}
layer {
  name: "relu1_3"
  type: "PReLU"
  bottom: "enet1_3"
  top: "enet1_3"
}
layer {
  name: "enet1_4_branch2a"
  type: "Convolution"
  bottom: "enet1_3"
  top: "enet1_4_branch2a"
  param {
    lr_mult: 1
    decay_mult: 1
  }
  convolution_param {
    num_output: 16
    bias_term: false
    weight_filler {
      type: "msra"
    }
    bias_filler {
      type: "constant"
    }
    pad_h: 0
    pad_w: 0
    kernel_h: 1
    kernel_w: 1
    stride_h: 1
    stride_w: 1
    dilation: 1
  }
}
layer {
  name: "bn1_4_branch2a"
  type: "BN"
  bottom: "enet1_4_branch2a"
  top: "enet1_4_branch2a"
  param {
    lr_mult: 1
    decay_mult: 1
  }
  param {
    lr_mult: 2
    decay_mult: 0
  }
  bn_param {
    scale_filler {
      type: "constant"
      value: 1
    }
    shift_filler {
      type: "constant"
      value: 0.001
    }
  }
}
layer {
  name: "relu1_4_branch2a"
  type: "PReLU"
  bottom: "enet1_4_branch2a"
  top: "enet1_4_branch2a"
}
layer {
  name: "enet1_4_branch2b"
  type: "Convolution"
  bottom: "enet1_4_branch2a"
  top: "enet1_4_branch2b"
  param {
    lr_mult: 1
    decay_mult: 1
  }
  param {
    lr_mult: 2
    decay_mult: 0
  }
  convolution_param {
    num_output: 16
    bias_term: true
    weight_filler {
      type: "msra"
    }
    bias_filler {
      type: "constant"
    }
    pad_h: 1
    pad_w: 1
    kernel_h: 3
    kernel_w: 3
    stride_h: 1
    stride_w: 1
    dilation: 1
  }
}
layer {
  name: "bn1_4_branch2b"
  type: "BN"
  bottom: "enet1_4_branch2b"
  top: "enet1_4_branch2b"
  param {
    lr_mult: 1
    decay_mult: 1
  }
  param {
    lr_mult: 2
    decay_mult: 0
  }
  bn_param {
    scale_filler {
      type: "constant"
      value: 1
    }
    shift_filler {
      type: "constant"
      value: 0.001
    }
  }
}
layer {
  name: "relu1_4_branch2b"
  type: "PReLU"
  bottom: "enet1_4_branch2b"
  top: "enet1_4_branch2b"
}
layer {
  name: "enet1_4_branch2c"
  type: "Convolution"
  bottom: "enet1_4_branch2b"
  top: "enet1_4_branch2c"
  param {
    lr_mult: 1
    decay_mult: 1
  }
  convolution_param {
    num_output: 64
    bias_term: false
    weight_filler {
      type: "msra"
    }
    bias_filler {
      type: "constant"
    }
    pad_h: 0
    pad_w: 0
    kernel_h: 1
    kernel_w: 1
    stride_h: 1
    stride_w: 1
    dilation: 1
  }
}
layer {
  name: "bn1_4_branch2c"
  type: "BN"
  bottom: "enet1_4_branch2c"
  top: "enet1_4_branch2c"
  param {
    lr_mult: 1
    decay_mult: 1
  }
  param {
    lr_mult: 2
    decay_mult: 0
  }
  bn_param {
    scale_filler {
      type: "constant"
      value: 1
    }
    shift_filler {
      type: "constant"
      value: 0.001
    }
  }
}
layer {
  name: "dropout1_4_branch2c"
  type: "Dropout"
  bottom: "enet1_4_branch2c"
  top: "enet1_4_branch2c"
  dropout_param {
    dropout_ratio: 0.01
  }
}
layer {
  name: "enet1_4"
  type: "Eltwise"
  bottom: "enet1_3"
  bottom: "enet1_4_branch2c"
  top: "enet1_4"
}
layer {
  name: "relu1_4"
  type: "PReLU"
  bottom: "enet1_4"
  top: "enet1_4"
}
layer {
  name: "enet2_0_branch2a"
  type: "Convolution"
  bottom: "enet1_4"
  top: "enet2_0_branch2a"
  param {
    lr_mult: 1
    decay_mult: 1
  }
  convolution_param {
    num_output: 32
    bias_term: false
    weight_filler {
      type: "msra"
    }
    bias_filler {
      type: "constant"
    }
    pad_h: 0
    pad_w: 0
    kernel_h: 2
    kernel_w: 2
    stride_h: 2
    stride_w: 2
    dilation: 1
  }
}
layer {
  name: "bn2_0_branch2a"
  type: "BN"
  bottom: "enet2_0_branch2a"
  top: "enet2_0_branch2a"
  param {
    lr_mult: 1
    decay_mult: 1
  }
  param {
    lr_mult: 2
    decay_mult: 0
  }
  bn_param {
    scale_filler {
      type: "constant"
      value: 1
    }
    shift_filler {
      type: "constant"
      value: 0.001
    }
  }
}
layer {
  name: "relu2_0_branch2a"
  type: "PReLU"
  bottom: "enet2_0_branch2a"
  top: "enet2_0_branch2a"
}
layer {
  name: "enet2_0_branch2b"
  type: "Convolution"
  bottom: "enet2_0_branch2a"
  top: "enet2_0_branch2b"
  param {
    lr_mult: 1
    decay_mult: 1
  }
  param {
    lr_mult: 2
    decay_mult: 0
  }
  convolution_param {
    num_output: 32
    bias_term: true
    weight_filler {
      type: "msra"
    }
    bias_filler {
      type: "constant"
    }
    pad_h: 1
    pad_w: 1
    kernel_h: 3
    kernel_w: 3
    stride_h: 1
    stride_w: 1
    dilation: 1
  }
}
layer {
  name: "bn2_0_branch2b"
  type: "BN"
  bottom: "enet2_0_branch2b"
  top: "enet2_0_branch2b"
  param {
    lr_mult: 1
    decay_mult: 1
  }
  param {
    lr_mult: 2
    decay_mult: 0
  }
  bn_param {
    scale_filler {
      type: "constant"
      value: 1
    }
    shift_filler {
      type: "constant"
      value: 0.001
    }
  }
}
layer {
  name: "relu2_0_branch2b"
  type: "PReLU"
  bottom: "enet2_0_branch2b"
  top: "enet2_0_branch2b"
}
layer {
  name: "enet2_0_branch2c"
  type: "Convolution"
  bottom: "enet2_0_branch2b"
  top: "enet2_0_branch2c"
  param {
    lr_mult: 1
    decay_mult: 1
  }
  convolution_param {
    num_output: 128
    bias_term: false
    weight_filler {
      type: "msra"
    }
    bias_filler {
      type: "constant"
    }
    pad_h: 0
    pad_w: 0
    kernel_h: 1
    kernel_w: 1
    stride_h: 1
    stride_w: 1
    dilation: 1
  }
}
layer {
  name: "bn2_0_branch2c"
  type: "BN"
  bottom: "enet2_0_branch2c"
  top: "enet2_0_branch2c"
  param {
    lr_mult: 1
    decay_mult: 1
  }
  param {
    lr_mult: 2
    decay_mult: 0
  }
  bn_param {
    scale_filler {
      type: "constant"
      value: 1
    }
    shift_filler {
      type: "constant"
      value: 0.001
    }
  }
}
layer {
  name: "dropout2_0_branch2c"
  type: "Dropout"
  bottom: "enet2_0_branch2c"
  top: "enet2_0_branch2c"
  dropout_param {
    dropout_ratio: 0.1
  }
}
layer {
  name: "enet2_0_branch1a"
  type: "Convolution"
  bottom: "enet1_4"
  top: "enet2_0_branch1a"
  param {
    lr_mult: 1
    decay_mult: 1
  }
  convolution_param {
    num_output: 128
    bias_term: false
    weight_filler {
      type: "msra"
    }
    bias_filler {
      type: "constant"
    }
    pad_h: 0
    pad_w: 0
    kernel_h: 1
    kernel_w: 1
    stride_h: 1
    stride_w: 1
    dilation: 1
  }
}
layer {
  name: "bn2_0_branch1a"
  type: "BN"
  bottom: "enet2_0_branch1a"
  top: "enet2_0_branch1a"
  param {
    lr_mult: 1
    decay_mult: 1
  }
  param {
    lr_mult: 2
    decay_mult: 0
  }
  bn_param {
    scale_filler {
      type: "constant"
      value: 1
    }
    shift_filler {
      type: "constant"
      value: 0.001
    }
  }
}
layer {
  name: "pool2_0_branch1a"
  type: "Pooling"
  bottom: "enet2_0_branch1a"
  top: "pool2_0_branch1a"
  top: "pool2_0_branch1a_mask"
  pooling_param {
    pool: MAX
    kernel_size: 2
    stride: 2
  }
}
layer {
  name: "enet2_0"
  type: "Eltwise"
  bottom: "pool2_0_branch1a"
  bottom: "enet2_0_branch2c"
  top: "enet2_0"
}
layer {
  name: "relu2_0"
  type: "PReLU"
  bottom: "enet2_0"
  top: "enet2_0"
}
layer {
  name: "enet2_1_branch2a"
  type: "Convolution"
  bottom: "enet2_0"
  top: "enet2_1_branch2a"
  param {
    lr_mult: 1
    decay_mult: 1
  }
  convolution_param {
    num_output: 32
    bias_term: false
    weight_filler {
      type: "msra"
    }
    bias_filler {
      type: "constant"
    }
    pad_h: 0
    pad_w: 0
    kernel_h: 1
    kernel_w: 1
    stride_h: 1
    stride_w: 1
    dilation: 1
  }
}
layer {
  name: "bn2_1_branch2a"
  type: "BN"
  bottom: "enet2_1_branch2a"
  top: "enet2_1_branch2a"
  param {
    lr_mult: 1
    decay_mult: 1
  }
  param {
    lr_mult: 2
    decay_mult: 0
  }
  bn_param {
    scale_filler {
      type: "constant"
      value: 1
    }
    shift_filler {
      type: "constant"
      value: 0.001
    }
  }
}
layer {
  name: "relu2_1_branch2a"
  type: "PReLU"
  bottom: "enet2_1_branch2a"
  top: "enet2_1_branch2a"
}
layer {
  name: "enet2_1_branch2b"
  type: "Convolution"
  bottom: "enet2_1_branch2a"
  top: "enet2_1_branch2b"
  param {
    lr_mult: 1
    decay_mult: 1
  }
  param {
    lr_mult: 2
    decay_mult: 0
  }
  convolution_param {
    num_output: 32
    bias_term: true
    weight_filler {
      type: "msra"
    }
    bias_filler {
      type: "constant"
    }
    pad_h: 1
    pad_w: 1
    kernel_h: 3
    kernel_w: 3
    stride_h: 1
    stride_w: 1
    dilation: 1
  }
}
layer {
  name: "bn2_1_branch2b"
  type: "BN"
  bottom: "enet2_1_branch2b"
  top: "enet2_1_branch2b"
  param {
    lr_mult: 1
    decay_mult: 1
  }
  param {
    lr_mult: 2
    decay_mult: 0
  }
  bn_param {
    scale_filler {
      type: "constant"
      value: 1
    }
    shift_filler {
      type: "constant"
      value: 0.001
    }
  }
}
layer {
  name: "relu2_1_branch2b"
  type: "PReLU"
  bottom: "enet2_1_branch2b"
  top: "enet2_1_branch2b"
}
layer {
  name: "enet2_1_branch2c"
  type: "Convolution"
  bottom: "enet2_1_branch2b"
  top: "enet2_1_branch2c"
  param {
    lr_mult: 1
    decay_mult: 1
  }
  convolution_param {
    num_output: 128
    bias_term: false
    weight_filler {
      type: "msra"
    }
    bias_filler {
      type: "constant"
    }
    pad_h: 0
    pad_w: 0
    kernel_h: 1
    kernel_w: 1
    stride_h: 1
    stride_w: 1
    dilation: 1
  }
}
layer {
  name: "bn2_1_branch2c"
  type: "BN"
  bottom: "enet2_1_branch2c"
  top: "enet2_1_branch2c"
  param {
    lr_mult: 1
    decay_mult: 1
  }
  param {
    lr_mult: 2
    decay_mult: 0
  }
  bn_param {
    scale_filler {
      type: "constant"
      value: 1
    }
    shift_filler {
      type: "constant"
      value: 0.001
    }
  }
}
layer {
  name: "dropout2_1_branch2c"
  type: "Dropout"
  bottom: "enet2_1_branch2c"
  top: "enet2_1_branch2c"
  dropout_param {
    dropout_ratio: 0.1
  }
}
layer {
  name: "enet2_1"
  type: "Eltwise"
  bottom: "enet2_0"
  bottom: "enet2_1_branch2c"
  top: "enet2_1"
}
layer {
  name: "relu2_1"
  type: "PReLU"
  bottom: "enet2_1"
  top: "enet2_1"
}
layer {
  name: "enet2_2_branch2a"
  type: "Convolution"
  bottom: "enet2_1"
  top: "enet2_2_branch2a"
  param {
    lr_mult: 1
    decay_mult: 1
  }
  convolution_param {
    num_output: 32
    bias_term: false
    weight_filler {
      type: "msra"
    }
    bias_filler {
      type: "constant"
    }
    pad_h: 0
    pad_w: 0
    kernel_h: 1
    kernel_w: 1
    stride_h: 1
    stride_w: 1
    dilation: 1
  }
}
layer {
  name: "bn2_2_branch2a"
  type: "BN"
  bottom: "enet2_2_branch2a"
  top: "enet2_2_branch2a"
  param {
    lr_mult: 1
    decay_mult: 1
  }
  param {
    lr_mult: 2
    decay_mult: 0
  }
  bn_param {
    scale_filler {
      type: "constant"
      value: 1
    }
    shift_filler {
      type: "constant"
      value: 0.001
    }
  }
}
layer {
  name: "relu2_2_branch2a"
  type: "PReLU"
  bottom: "enet2_2_branch2a"
  top: "enet2_2_branch2a"
}
layer {
  name: "enet2_2_branch2b"
  type: "Convolution"
  bottom: "enet2_2_branch2a"
  top: "enet2_2_branch2b"
  param {
    lr_mult: 1
    decay_mult: 1
  }
  param {
    lr_mult: 2
    decay_mult: 0
  }
  convolution_param {
    num_output: 32
    bias_term: true
    weight_filler {
      type: "msra"
    }
    bias_filler {
      type: "constant"
    }
    pad_h: 2
    pad_w: 2
    kernel_h: 3
    kernel_w: 3
    stride_h: 1
    stride_w: 1
    dilation: 2
  }
}
layer {
  name: "bn2_2_branch2b"
  type: "BN"
  bottom: "enet2_2_branch2b"
  top: "enet2_2_branch2b"
  param {
    lr_mult: 1
    decay_mult: 1
  }
  param {
    lr_mult: 2
    decay_mult: 0
  }
  bn_param {
    scale_filler {
      type: "constant"
      value: 1
    }
    shift_filler {
      type: "constant"
      value: 0.001
    }
  }
}
layer {
  name: "relu2_2_branch2b"
  type: "PReLU"
  bottom: "enet2_2_branch2b"
  top: "enet2_2_branch2b"
}
layer {
  name: "enet2_2_branch2c"
  type: "Convolution"
  bottom: "enet2_2_branch2b"
  top: "enet2_2_branch2c"
  param {
    lr_mult: 1
    decay_mult: 1
  }
  convolution_param {
    num_output: 128
    bias_term: false
    weight_filler {
      type: "msra"
    }
    bias_filler {
      type: "constant"
    }
    pad_h: 0
    pad_w: 0
    kernel_h: 1
    kernel_w: 1
    stride_h: 1
    stride_w: 1
    dilation: 1
  }
}
layer {
  name: "bn2_2_branch2c"
  type: "BN"
  bottom: "enet2_2_branch2c"
  top: "enet2_2_branch2c"
  param {
    lr_mult: 1
    decay_mult: 1
  }
  param {
    lr_mult: 2
    decay_mult: 0
  }
  bn_param {
    scale_filler {
      type: "constant"
      value: 1
    }
    shift_filler {
      type: "constant"
      value: 0.001
    }
  }
}
layer {
  name: "dropout2_2_branch2c"
  type: "Dropout"
  bottom: "enet2_2_branch2c"
  top: "enet2_2_branch2c"
  dropout_param {
    dropout_ratio: 0.1
  }
}
layer {
  name: "enet2_2"
  type: "Eltwise"
  bottom: "enet2_1"
  bottom: "enet2_2_branch2c"
  top: "enet2_2"
}
layer {
  name: "relu2_2"
  type: "PReLU"
  bottom: "enet2_2"
  top: "enet2_2"
}
layer {
  name: "enet2_3_branch2a"
  type: "Convolution"
  bottom: "enet2_2"
  top: "enet2_3_branch2a"
  param {
    lr_mult: 1
    decay_mult: 1
  }
  convolution_param {
    num_output: 32
    bias_term: false
    weight_filler {
      type: "msra"
    }
    bias_filler {
      type: "constant"
    }
    pad_h: 0
    pad_w: 0
    kernel_h: 1
    kernel_w: 1
    stride_h: 1
    stride_w: 1
    dilation: 1
  }
}
layer {
  name: "bn2_3_branch2a"
  type: "BN"
  bottom: "enet2_3_branch2a"
  top: "enet2_3_branch2a"
  param {
    lr_mult: 1
    decay_mult: 1
  }
  param {
    lr_mult: 2
    decay_mult: 0
  }
  bn_param {
    scale_filler {
      type: "constant"
      value: 1
    }
    shift_filler {
      type: "constant"
      value: 0.001
    }
  }
}
layer {
  name: "relu2_3_branch2a"
  type: "PReLU"
  bottom: "enet2_3_branch2a"
  top: "enet2_3_branch2a"
}
layer {
  name: "enet2_3_branch2b1"
  type: "Convolution"
  bottom: "enet2_3_branch2a"
  top: "enet2_3_branch2b1"
  param {
    lr_mult: 1
    decay_mult: 1
  }
  convolution_param {
    num_output: 32
    bias_term: false
    weight_filler {
      type: "msra"
    }
    bias_filler {
      type: "constant"
    }
    pad_h: 0
    pad_w: 2
    kernel_h: 1
    kernel_w: 5
    stride_h: 1
    stride_w: 1
    dilation: 1
  }
}
layer {
  name: "enet2_3_branch2b"
  type: "Convolution"
  bottom: "enet2_3_branch2b1"
  top: "enet2_3_branch2b"
  param {
    lr_mult: 1
    decay_mult: 1
  }
  param {
    lr_mult: 2
    decay_mult: 0
  }
  convolution_param {
    num_output: 32
    bias_term: true
    weight_filler {
      type: "msra"
    }
    bias_filler {
      type: "constant"
    }
    pad_h: 2
    pad_w: 0
    kernel_h: 5
    kernel_w: 1
    stride_h: 1
    stride_w: 1
    dilation: 1
  }
}
layer {
  name: "bn2_3_branch2b"
  type: "BN"
  bottom: "enet2_3_branch2b"
  top: "enet2_3_branch2b"
  param {
    lr_mult: 1
    decay_mult: 1
  }
  param {
    lr_mult: 2
    decay_mult: 0
  }
  bn_param {
    scale_filler {
      type: "constant"
      value: 1
    }
    shift_filler {
      type: "constant"
      value: 0.001
    }
  }
}
layer {
  name: "relu2_3_branch2b"
  type: "PReLU"
  bottom: "enet2_3_branch2b"
  top: "enet2_3_branch2b"
}
layer {
  name: "enet2_3_branch2c"
  type: "Convolution"
  bottom: "enet2_3_branch2b"
  top: "enet2_3_branch2c"
  param {
    lr_mult: 1
    decay_mult: 1
  }
  convolution_param {
    num_output: 128
    bias_term: false
    weight_filler {
      type: "msra"
    }
    bias_filler {
      type: "constant"
    }
    pad_h: 0
    pad_w: 0
    kernel_h: 1
    kernel_w: 1
    stride_h: 1
    stride_w: 1
    dilation: 1
  }
}
layer {
  name: "bn2_3_branch2c"
  type: "BN"
  bottom: "enet2_3_branch2c"
  top: "enet2_3_branch2c"
  param {
    lr_mult: 1
    decay_mult: 1
  }
  param {
    lr_mult: 2
    decay_mult: 0
  }
  bn_param {
    scale_filler {
      type: "constant"
      value: 1
    }
    shift_filler {
      type: "constant"
      value: 0.001
    }
  }
}
layer {
  name: "
I0110 15:07:15.216472 30030 layer_factory.hpp:77] Creating layer data
I0110 15:07:15.216545 30030 net.cpp:106] Creating Layer data
I0110 15:07:15.216560 30030 net.cpp:411] data -> data
I0110 15:07:15.216609 30030 net.cpp:411] data -> label
I0110 15:07:15.216634 30030 net.cpp:411] data -> (automatic)
I0110 15:07:15.217231 30030 image_seg_data_layer.cpp:46] Opening file /home/map/liuli/datasets/enet_multclass/train_new_carD/train/enet_train.list
I0110 15:07:15.233311 30030 image_seg_data_layer.cpp:63] Shuffling data
I0110 15:07:15.234838 30030 image_seg_data_layer.cpp:68] A total of 9840 images.
I0110 15:07:15.270586 30030 image_seg_data_layer.cpp:147] output data size: 4,3,376,1240
I0110 15:07:15.270608 30030 image_seg_data_layer.cpp:151] output label size: 4,1,376,1240
I0110 15:07:15.270617 30030 image_seg_data_layer.cpp:155] output data_dim size: 4,1,1,2
I0110 15:07:15.493245 30030 net.cpp:150] Setting up data
I0110 15:07:15.493299 30030 net.cpp:157] Top shape: 4 3 376 1240 (5594880)
I0110 15:07:15.493310 30030 net.cpp:157] Top shape: 4 1 376 1240 (1864960)
I0110 15:07:15.493319 30030 net.cpp:157] Top shape: 4 1 1 2 (8)
I0110 15:07:15.493326 30030 net.cpp:165] Memory required for data: 29839392
I0110 15:07:15.493340 30030 layer_factory.hpp:77] Creating layer data_data_0_split
I0110 15:07:15.493363 30030 net.cpp:106] Creating Layer data_data_0_split
I0110 15:07:15.493371 30030 net.cpp:454] data_data_0_split <- data
I0110 15:07:15.493399 30030 net.cpp:411] data_data_0_split -> data_data_0_split_0
I0110 15:07:15.493417 30030 net.cpp:411] data_data_0_split -> data_data_0_split_1
I0110 15:07:15.493482 30030 net.cpp:150] Setting up data_data_0_split
I0110 15:07:15.493494 30030 net.cpp:157] Top shape: 4 3 376 1240 (5594880)
I0110 15:07:15.493504 30030 net.cpp:157] Top shape: 4 3 376 1240 (5594880)
I0110 15:07:15.493510 30030 net.cpp:165] Memory required for data: 74598432
I0110 15:07:15.493516 30030 layer_factory.hpp:77] Creating layer label_data_1_split
I0110 15:07:15.493527 30030 net.cpp:106] Creating Layer label_data_1_split
I0110 15:07:15.493563 30030 net.cpp:454] label_data_1_split <- label
I0110 15:07:15.493578 30030 net.cpp:411] label_data_1_split -> label_data_1_split_0
I0110 15:07:15.493590 30030 net.cpp:411] label_data_1_split -> label_data_1_split_1
I0110 15:07:15.493635 30030 net.cpp:150] Setting up label_data_1_split
I0110 15:07:15.493646 30030 net.cpp:157] Top shape: 4 1 376 1240 (1864960)
I0110 15:07:15.493654 30030 net.cpp:157] Top shape: 4 1 376 1240 (1864960)
I0110 15:07:15.493660 30030 net.cpp:165] Memory required for data: 89518112
I0110 15:07:15.493666 30030 layer_factory.hpp:77] Creating layer enet_initial_branch2a
I0110 15:07:15.493703 30030 net.cpp:106] Creating Layer enet_initial_branch2a
I0110 15:07:15.493711 30030 net.cpp:454] enet_initial_branch2a <- data_data_0_split_0
I0110 15:07:15.493722 30030 net.cpp:411] enet_initial_branch2a -> enet_initial_branch2a
I0110 15:07:15.659849 30030 net.cpp:150] Setting up enet_initial_branch2a
I0110 15:07:15.659888 30030 net.cpp:157] Top shape: 4 13 188 620 (6061120)
I0110 15:07:15.659898 30030 net.cpp:165] Memory required for data: 113762592
I0110 15:07:15.659926 30030 layer_factory.hpp:77] Creating layer pool_initial_branch1a
I0110 15:07:15.659950 30030 net.cpp:106] Creating Layer pool_initial_branch1a
I0110 15:07:15.659960 30030 net.cpp:454] pool_initial_branch1a <- data_data_0_split_1
I0110 15:07:15.659971 30030 net.cpp:411] pool_initial_branch1a -> pool_initial_branch1a
I0110 15:07:15.660061 30030 net.cpp:150] Setting up pool_initial_branch1a
I0110 15:07:15.660078 30030 net.cpp:157] Top shape: 4 3 188 620 (1398720)
I0110 15:07:15.660084 30030 net.cpp:165] Memory required for data: 119357472
I0110 15:07:15.660090 30030 layer_factory.hpp:77] Creating layer enet_initial
I0110 15:07:15.660105 30030 net.cpp:106] Creating Layer enet_initial
I0110 15:07:15.660111 30030 net.cpp:454] enet_initial <- enet_initial_branch2a
I0110 15:07:15.660120 30030 net.cpp:454] enet_initial <- pool_initial_branch1a
I0110 15:07:15.660133 30030 net.cpp:411] enet_initial -> enet_initial
I0110 15:07:15.660173 30030 net.cpp:150] Setting up enet_initial
I0110 15:07:15.660189 30030 net.cpp:157] Top shape: 4 16 188 620 (7459840)
I0110 15:07:15.660197 30030 net.cpp:165] Memory required for data: 149196832
I0110 15:07:15.660202 30030 layer_factory.hpp:77] Creating layer bn_initial
I0110 15:07:15.660221 30030 net.cpp:106] Creating Layer bn_initial
I0110 15:07:15.660228 30030 net.cpp:454] bn_initial <- enet_initial
I0110 15:07:15.660243 30030 net.cpp:397] bn_initial -> enet_initial (in-place)
I0110 15:07:15.661757 30030 net.cpp:150] Setting up bn_initial
I0110 15:07:15.661774 30030 net.cpp:157] Top shape: 4 16 188 620 (7459840)
I0110 15:07:15.661782 30030 net.cpp:165] Memory required for data: 179036192
I0110 15:07:15.661794 30030 layer_factory.hpp:77] Creating layer relu_initial
I0110 15:07:15.661809 30030 net.cpp:106] Creating Layer relu_initial
I0110 15:07:15.661818 30030 net.cpp:454] relu_initial <- enet_initial
I0110 15:07:15.661826 30030 net.cpp:397] relu_initial -> enet_initial (in-place)
I0110 15:07:15.673323 30030 net.cpp:150] Setting up relu_initial
I0110 15:07:15.673377 30030 net.cpp:157] Top shape: 4 16 188 620 (7459840)
I0110 15:07:15.673384 30030 net.cpp:165] Memory required for data: 208875552
I0110 15:07:15.673405 30030 layer_factory.hpp:77] Creating layer enet_initial_relu_initial_0_split
I0110 15:07:15.673429 30030 net.cpp:106] Creating Layer enet_initial_relu_initial_0_split
I0110 15:07:15.673437 30030 net.cpp:454] enet_initial_relu_initial_0_split <- enet_initial
I0110 15:07:15.673452 30030 net.cpp:411] enet_initial_relu_initial_0_split -> enet_initial_relu_initial_0_split_0
I0110 15:07:15.673470 30030 net.cpp:411] enet_initial_relu_initial_0_split -> enet_initial_relu_initial_0_split_1
I0110 15:07:15.673532 30030 net.cpp:150] Setting up enet_initial_relu_initial_0_split
I0110 15:07:15.673543 30030 net.cpp:157] Top shape: 4 16 188 620 (7459840)
I0110 15:07:15.673552 30030 net.cpp:157] Top shape: 4 16 188 620 (7459840)
I0110 15:07:15.673557 30030 net.cpp:165] Memory required for data: 268554272
I0110 15:07:15.673599 30030 layer_factory.hpp:77] Creating layer enet1_0_branch2a
I0110 15:07:15.673624 30030 net.cpp:106] Creating Layer enet1_0_branch2a
I0110 15:07:15.673631 30030 net.cpp:454] enet1_0_branch2a <- enet_initial_relu_initial_0_split_0
I0110 15:07:15.673645 30030 net.cpp:411] enet1_0_branch2a -> enet1_0_branch2a
I0110 15:07:15.678133 30030 net.cpp:150] Setting up enet1_0_branch2a
I0110 15:07:15.678153 30030 net.cpp:157] Top shape: 4 16 94 310 (1864960)
I0110 15:07:15.678161 30030 net.cpp:165] Memory required for data: 276014112
I0110 15:07:15.678171 30030 layer_factory.hpp:77] Creating layer bn1_0_branch2a
I0110 15:07:15.678190 30030 net.cpp:106] Creating Layer bn1_0_branch2a
I0110 15:07:15.678200 30030 net.cpp:454] bn1_0_branch2a <- enet1_0_branch2a
I0110 15:07:15.678213 30030 net.cpp:397] bn1_0_branch2a -> enet1_0_branch2a (in-place)
I0110 15:07:15.679591 30030 net.cpp:150] Setting up bn1_0_branch2a
I0110 15:07:15.679608 30030 net.cpp:157] Top shape: 4 16 94 310 (1864960)
I0110 15:07:15.679615 30030 net.cpp:165] Memory required for data: 283473952
I0110 15:07:15.679626 30030 layer_factory.hpp:77] Creating layer relu1_0_branch2a
I0110 15:07:15.679638 30030 net.cpp:106] Creating Layer relu1_0_branch2a
I0110 15:07:15.679646 30030 net.cpp:454] relu1_0_branch2a <- enet1_0_branch2a
I0110 15:07:15.679654 30030 net.cpp:397] relu1_0_branch2a -> enet1_0_branch2a (in-place)
I0110 15:07:15.682060 30030 net.cpp:150] Setting up relu1_0_branch2a
I0110 15:07:15.682076 30030 net.cpp:157] Top shape: 4 16 94 310 (1864960)
I0110 15:07:15.682082 30030 net.cpp:165] Memory required for data: 290933792
I0110 15:07:15.682096 30030 layer_factory.hpp:77] Creating layer enet1_0_branch2b
I0110 15:07:15.682114 30030 net.cpp:106] Creating Layer enet1_0_branch2b
I0110 15:07:15.682122 30030 net.cpp:454] enet1_0_branch2b <- enet1_0_branch2a
I0110 15:07:15.682137 30030 net.cpp:411] enet1_0_branch2b -> enet1_0_branch2b
I0110 15:07:15.686102 30030 net.cpp:150] Setting up enet1_0_branch2b
I0110 15:07:15.686120 30030 net.cpp:157] Top shape: 4 16 94 310 (1864960)
I0110 15:07:15.686128 30030 net.cpp:165] Memory required for data: 298393632
I0110 15:07:15.686139 30030 layer_factory.hpp:77] Creating layer bn1_0_branch2b
I0110 15:07:15.686156 30030 net.cpp:106] Creating Layer bn1_0_branch2b
I0110 15:07:15.686163 30030 net.cpp:454] bn1_0_branch2b <- enet1_0_branch2b
I0110 15:07:15.686174 30030 net.cpp:397] bn1_0_branch2b -> enet1_0_branch2b (in-place)
I0110 15:07:15.686478 30030 net.cpp:150] Setting up bn1_0_branch2b
I0110 15:07:15.686493 30030 net.cpp:157] Top shape: 4 16 94 310 (1864960)
I0110 15:07:15.686501 30030 net.cpp:165] Memory required for data: 305853472
I0110 15:07:15.686511 30030 layer_factory.hpp:77] Creating layer relu1_0_branch2b
I0110 15:07:15.686520 30030 net.cpp:106] Creating Layer relu1_0_branch2b
I0110 15:07:15.686527 30030 net.cpp:454] relu1_0_branch2b <- enet1_0_branch2b
I0110 15:07:15.686542 30030 net.cpp:397] relu1_0_branch2b -> enet1_0_branch2b (in-place)
I0110 15:07:15.689152 30030 net.cpp:150] Setting up relu1_0_branch2b
I0110 15:07:15.689168 30030 net.cpp:157] Top shape: 4 16 94 310 (1864960)
I0110 15:07:15.689175 30030 net.cpp:165] Memory required for data: 313313312
I0110 15:07:15.689184 30030 layer_factory.hpp:77] Creating layer enet1_0_branch2c
I0110 15:07:15.689205 30030 net.cpp:106] Creating Layer enet1_0_branch2c
I0110 15:07:15.689213 30030 net.cpp:454] enet1_0_branch2c <- enet1_0_branch2b
I0110 15:07:15.689227 30030 net.cpp:411] enet1_0_branch2c -> enet1_0_branch2c
I0110 15:07:15.692183 30030 net.cpp:150] Setting up enet1_0_branch2c
I0110 15:07:15.692200 30030 net.cpp:157] Top shape: 4 64 94 310 (7459840)
I0110 15:07:15.692208 30030 net.cpp:165] Memory required for data: 343152672
I0110 15:07:15.692217 30030 layer_factory.hpp:77] Creating layer bn1_0_branch2c
I0110 15:07:15.692236 30030 net.cpp:106] Creating Layer bn1_0_branch2c
I0110 15:07:15.692245 30030 net.cpp:454] bn1_0_branch2c <- enet1_0_branch2c
I0110 15:07:15.692258 30030 net.cpp:397] bn1_0_branch2c -> enet1_0_branch2c (in-place)
I0110 15:07:15.692600 30030 net.cpp:150] Setting up bn1_0_branch2c
I0110 15:07:15.692626 30030 net.cpp:157] Top shape: 4 64 94 310 (7459840)
I0110 15:07:15.692633 30030 net.cpp:165] Memory required for data: 372992032
I0110 15:07:15.692651 30030 layer_factory.hpp:77] Creating layer dropout1_0_branch2c
I0110 15:07:15.692667 30030 net.cpp:106] Creating Layer dropout1_0_branch2c
I0110 15:07:15.692674 30030 net.cpp:454] dropout1_0_branch2c <- enet1_0_branch2c
I0110 15:07:15.692684 30030 net.cpp:397] dropout1_0_branch2c -> enet1_0_branch2c (in-place)
I0110 15:07:15.692734 30030 net.cpp:150] Setting up dropout1_0_branch2c
I0110 15:07:15.692745 30030 net.cpp:157] Top shape: 4 64 94 310 (7459840)
I0110 15:07:15.692751 30030 net.cpp:165] Memory required for data: 402831392
I0110 15:07:15.692757 30030 layer_factory.hpp:77] Creating layer enet1_0_branch1a
I0110 15:07:15.692778 30030 net.cpp:106] Creating Layer enet1_0_branch1a
I0110 15:07:15.692786 30030 net.cpp:454] enet1_0_branch1a <- enet_initial_relu_initial_0_split_1
I0110 15:07:15.692797 30030 net.cpp:411] enet1_0_branch1a -> enet1_0_branch1a
I0110 15:07:15.695660 30030 net.cpp:150] Setting up enet1_0_branch1a
I0110 15:07:15.695678 30030 net.cpp:157] Top shape: 4 64 188 620 (29839360)
I0110 15:07:15.695688 30030 net.cpp:165] Memory required for data: 522188832
I0110 15:07:15.695698 30030 layer_factory.hpp:77] Creating layer bn1_0_branch1a
I0110 15:07:15.695714 30030 net.cpp:106] Creating Layer bn1_0_branch1a
I0110 15:07:15.695722 30030 net.cpp:454] bn1_0_branch1a <- enet1_0_branch1a
I0110 15:07:15.695735 30030 net.cpp:397] bn1_0_branch1a -> enet1_0_branch1a (in-place)
I0110 15:07:15.697369 30030 net.cpp:150] Setting up bn1_0_branch1a
I0110 15:07:15.697388 30030 net.cpp:157] Top shape: 4 64 188 620 (29839360)
I0110 15:07:15.697396 30030 net.cpp:165] Memory required for data: 641546272
I0110 15:07:15.697407 30030 layer_factory.hpp:77] Creating layer pool1_0_branch1a
I0110 15:07:15.697414 30030 layer_factory.cpp:91] cuDNN does not support multiple tops. Using Caffe's own pooling layer.
I0110 15:07:15.697424 30030 net.cpp:106] Creating Layer pool1_0_branch1a
I0110 15:07:15.697432 30030 net.cpp:454] pool1_0_branch1a <- enet1_0_branch1a
I0110 15:07:15.697445 30030 net.cpp:411] pool1_0_branch1a -> pool1_0_branch1a
I0110 15:07:15.697464 30030 net.cpp:411] pool1_0_branch1a -> pool1_0_branch1a_mask
I0110 15:07:15.697520 30030 net.cpp:150] Setting up pool1_0_branch1a
I0110 15:07:15.697532 30030 net.cpp:157] Top shape: 4 64 94 310 (7459840)
I0110 15:07:15.697540 30030 net.cpp:157] Top shape: 4 64 94 310 (7459840)
I0110 15:07:15.697546 30030 net.cpp:165] Memory required for data: 701224992
I0110 15:07:15.697552 30030 layer_factory.hpp:77] Creating layer enet1_0
I0110 15:07:15.697571 30030 net.cpp:106] Creating Layer enet1_0
I0110 15:07:15.697577 30030 net.cpp:454] enet1_0 <- pool1_0_branch1a
I0110 15:07:15.697585 30030 net.cpp:454] enet1_0 <- enet1_0_branch2c
I0110 15:07:15.697594 30030 net.cpp:411] enet1_0 -> enet1_0
I0110 15:07:15.697638 30030 net.cpp:150] Setting up enet1_0
I0110 15:07:15.697650 30030 net.cpp:157] Top shape: 4 64 94 310 (7459840)
I0110 15:07:15.697656 30030 net.cpp:165] Memory required for data: 731064352
I0110 15:07:15.697664 30030 layer_factory.hpp:77] Creating layer relu1_0
I0110 15:07:15.697674 30030 net.cpp:106] Creating Layer relu1_0
I0110 15:07:15.697679 30030 net.cpp:454] relu1_0 <- enet1_0
I0110 15:07:15.697692 30030 net.cpp:397] relu1_0 -> enet1_0 (in-place)
I0110 15:07:15.709208 30030 net.cpp:150] Setting up relu1_0
I0110 15:07:15.709264 30030 net.cpp:157] Top shape: 4 64 94 310 (7459840)
I0110 15:07:15.709272 30030 net.cpp:165] Memory required for data: 760903712
I0110 15:07:15.709286 30030 layer_factory.hpp:77] Creating layer enet1_0_relu1_0_0_split
I0110 15:07:15.709301 30030 net.cpp:106] Creating Layer enet1_0_relu1_0_0_split
I0110 15:07:15.709311 30030 net.cpp:454] enet1_0_relu1_0_0_split <- enet1_0
I0110 15:07:15.709324 30030 net.cpp:411] enet1_0_relu1_0_0_split -> enet1_0_relu1_0_0_split_0
I0110 15:07:15.709342 30030 net.cpp:411] enet1_0_relu1_0_0_split -> enet1_0_relu1_0_0_split_1
I0110 15:07:15.709444 30030 net.cpp:150] Setting up enet1_0_relu1_0_0_split
I0110 15:07:15.709457 30030 net.cpp:157] Top shape: 4 64 94 310 (7459840)
I0110 15:07:15.709465 30030 net.cpp:157] Top shape: 4 64 94 310 (7459840)
I0110 15:07:15.709471 30030 net.cpp:165] Memory required for data: 820582432
I0110 15:07:15.709477 30030 layer_factory.hpp:77] Creating layer enet1_1_branch2a
I0110 15:07:15.709501 30030 net.cpp:106] Creating Layer enet1_1_branch2a
I0110 15:07:15.709507 30030 net.cpp:454] enet1_1_branch2a <- enet1_0_relu1_0_0_split_0
I0110 15:07:15.709519 30030 net.cpp:411] enet1_1_branch2a -> enet1_1_branch2a
I0110 15:07:15.714825 30030 net.cpp:150] Setting up enet1_1_branch2a
I0110 15:07:15.714844 30030 net.cpp:157] Top shape: 4 16 94 310 (1864960)
I0110 15:07:15.714853 30030 net.cpp:165] Memory required for data: 828042272
I0110 15:07:15.714861 30030 layer_factory.hpp:77] Creating layer bn1_1_branch2a
I0110 15:07:15.714880 30030 net.cpp:106] Creating Layer bn1_1_branch2a
I0110 15:07:15.714887 30030 net.cpp:454] bn1_1_branch2a <- enet1_1_branch2a
I0110 15:07:15.714903 30030 net.cpp:397] bn1_1_branch2a -> enet1_1_branch2a (in-place)
I0110 15:07:15.716361 30030 net.cpp:150] Setting up bn1_1_branch2a
I0110 15:07:15.716377 30030 net.cpp:157] Top shape: 4 16 94 310 (1864960)
I0110 15:07:15.716384 30030 net.cpp:165] Memory required for data: 835502112
I0110 15:07:15.716395 30030 layer_factory.hpp:77] Creating layer relu1_1_branch2a
I0110 15:07:15.716409 30030 net.cpp:106] Creating Layer relu1_1_branch2a
I0110 15:07:15.716418 30030 net.cpp:454] relu1_1_branch2a <- enet1_1_branch2a
I0110 15:07:15.716426 30030 net.cpp:397] relu1_1_branch2a -> enet1_1_branch2a (in-place)
I0110 15:07:15.718834 30030 net.cpp:150] Setting up relu1_1_branch2a
I0110 15:07:15.718852 30030 net.cpp:157] Top shape: 4 16 94 310 (1864960)
I0110 15:07:15.718858 30030 net.cpp:165] Memory required for data: 842961952
I0110 15:07:15.718868 30030 layer_factory.hpp:77] Creating layer enet1_1_branch2b
I0110 15:07:15.718885 30030 net.cpp:106] Creating Layer enet1_1_branch2b
I0110 15:07:15.718894 30030 net.cpp:454] enet1_1_branch2b <- enet1_1_branch2a
I0110 15:07:15.718906 30030 net.cpp:411] enet1_1_branch2b -> enet1_1_branch2b
I0110 15:07:15.721930 30030 net.cpp:150] Setting up enet1_1_branch2b
I0110 15:07:15.721947 30030 net.cpp:157] Top shape: 4 16 94 310 (1864960)
I0110 15:07:15.721954 30030 net.cpp:165] Memory required for data: 850421792
I0110 15:07:15.721966 30030 layer_factory.hpp:77] Creating layer bn1_1_branch2b
I0110 15:07:15.721982 30030 net.cpp:106] Creating Layer bn1_1_branch2b
I0110 15:07:15.721990 30030 net.cpp:454] bn1_1_branch2b <- enet1_1_branch2b
I0110 15:07:15.722003 30030 net.cpp:397] bn1_1_branch2b -> enet1_1_branch2b (in-place)
I0110 15:07:15.722332 30030 net.cpp:150] Setting up bn1_1_branch2b
I0110 15:07:15.722347 30030 net.cpp:157] Top shape: 4 16 94 310 (1864960)
I0110 15:07:15.722353 30030 net.cpp:165] Memory required for data: 857881632
I0110 15:07:15.722363 30030 layer_factory.hpp:77] Creating layer relu1_1_branch2b
I0110 15:07:15.722373 30030 net.cpp:106] Creating Layer relu1_1_branch2b
I0110 15:07:15.722380 30030 net.cpp:454] relu1_1_branch2b <- enet1_1_branch2b
I0110 15:07:15.722389 30030 net.cpp:397] relu1_1_branch2b -> enet1_1_branch2b (in-place)
I0110 15:07:15.725041 30030 net.cpp:150] Setting up relu1_1_branch2b
I0110 15:07:15.725061 30030 net.cpp:157] Top shape: 4 16 94 310 (1864960)
I0110 15:07:15.725069 30030 net.cpp:165] Memory required for data: 865341472
I0110 15:07:15.725078 30030 layer_factory.hpp:77] Creating layer enet1_1_branch2c
I0110 15:07:15.725096 30030 net.cpp:106] Creating Layer enet1_1_branch2c
I0110 15:07:15.725105 30030 net.cpp:454] enet1_1_branch2c <- enet1_1_branch2b
I0110 15:07:15.725119 30030 net.cpp:411] enet1_1_branch2c -> enet1_1_branch2c
I0110 15:07:15.728229 30030 net.cpp:150] Setting up enet1_1_branch2c
I0110 15:07:15.728246 30030 net.cpp:157] Top shape: 4 64 94 310 (7459840)
I0110 15:07:15.728253 30030 net.cpp:165] Memory required for data: 895180832
I0110 15:07:15.728281 30030 layer_factory.hpp:77] Creating layer bn1_1_branch2c
I0110 15:07:15.728312 30030 net.cpp:106] Creating Layer bn1_1_branch2c
I0110 15:07:15.728320 30030 net.cpp:454] bn1_1_branch2c <- enet1_1_branch2c
I0110 15:07:15.728332 30030 net.cpp:397] bn1_1_branch2c -> enet1_1_branch2c (in-place)
I0110 15:07:15.728665 30030 net.cpp:150] Setting up bn1_1_branch2c
I0110 15:07:15.728679 30030 net.cpp:157] Top shape: 4 64 94 310 (7459840)
I0110 15:07:15.728685 30030 net.cpp:165] Memory required for data: 925020192
I0110 15:07:15.728708 30030 layer_factory.hpp:77] Creating layer dropout1_1_branch2c
I0110 15:07:15.728729 30030 net.cpp:106] Creating Layer dropout1_1_branch2c
I0110 15:07:15.728737 30030 net.cpp:454] dropout1_1_branch2c <- enet1_1_branch2c
I0110 15:07:15.728749 30030 net.cpp:397] dropout1_1_branch2c -> enet1_1_branch2c (in-place)
I0110 15:07:15.728806 30030 net.cpp:150] Setting up dropout1_1_branch2c
I0110 15:07:15.728819 30030 net.cpp:157] Top shape: 4 64 94 310 (7459840)
I0110 15:07:15.728826 30030 net.cpp:165] Memory required for data: 954859552
I0110 15:07:15.728832 30030 layer_factory.hpp:77] Creating layer enet1_1
I0110 15:07:15.728843 30030 net.cpp:106] Creating Layer enet1_1
I0110 15:07:15.728849 30030 net.cpp:454] enet1_1 <- enet1_0_relu1_0_0_split_1
I0110 15:07:15.728858 30030 net.cpp:454] enet1_1 <- enet1_1_branch2c
I0110 15:07:15.728870 30030 net.cpp:411] enet1_1 -> enet1_1
I0110 15:07:15.728909 30030 net.cpp:150] Setting up enet1_1
I0110 15:07:15.728920 30030 net.cpp:157] Top shape: 4 64 94 310 (7459840)
I0110 15:07:15.728927 30030 net.cpp:165] Memory required for data: 984698912
I0110 15:07:15.728934 30030 layer_factory.hpp:77] Creating layer relu1_1
I0110 15:07:15.728946 30030 net.cpp:106] Creating Layer relu1_1
I0110 15:07:15.728953 30030 net.cpp:454] relu1_1 <- enet1_1
I0110 15:07:15.728962 30030 net.cpp:397] relu1_1 -> enet1_1 (in-place)
I0110 15:07:15.740347 30030 net.cpp:150] Setting up relu1_1
I0110 15:07:15.740401 30030 net.cpp:157] Top shape: 4 64 94 310 (7459840)
I0110 15:07:15.740409 30030 net.cpp:165] Memory required for data: 1014538272
I0110 15:07:15.740423 30030 layer_factory.hpp:77] Creating layer enet1_1_relu1_1_0_split
I0110 15:07:15.740443 30030 net.cpp:106] Creating Layer enet1_1_relu1_1_0_split
I0110 15:07:15.740453 30030 net.cpp:454] enet1_1_relu1_1_0_split <- enet1_1
I0110 15:07:15.740468 30030 net.cpp:411] enet1_1_relu1_1_0_split -> enet1_1_relu1_1_0_split_0
I0110 15:07:15.740483 30030 net.cpp:411] enet1_1_relu1_1_0_split -> enet1_1_relu1_1_0_split_1
I0110 15:07:15.740556 30030 net.cpp:150] Setting up enet1_1_relu1_1_0_split
I0110 15:07:15.740568 30030 net.cpp:157] Top shape: 4 64 94 310 (7459840)
I0110 15:07:15.740576 30030 net.cpp:157] Top shape: 4 64 94 310 (7459840)
I0110 15:07:15.740582 30030 net.cpp:165] Memory required for data: 1074216992
I0110 15:07:15.740589 30030 layer_factory.hpp:77] Creating layer enet1_2_branch2a
I0110 15:07:15.740612 30030 net.cpp:106] Creating Layer enet1_2_branch2a
I0110 15:07:15.740620 30030 net.cpp:454] enet1_2_branch2a <- enet1_1_relu1_1_0_split_0
I0110 15:07:15.740633 30030 net.cpp:411] enet1_2_branch2a -> enet1_2_branch2a
I0110 15:07:15.745359 30030 net.cpp:150] Setting up enet1_2_branch2a
I0110 15:07:15.745381 30030 net.cpp:157] Top shape: 4 16 94 310 (1864960)
I0110 15:07:15.745388 30030 net.cpp:165] Memory required for data: 1081676832
I0110 15:07:15.745398 30030 layer_factory.hpp:77] Creating layer bn1_2_branch2a
I0110 15:07:15.745443 30030 net.cpp:106] Creating Layer bn1_2_branch2a
I0110 15:07:15.745453 30030 net.cpp:454] bn1_2_branch2a <- enet1_2_branch2a
I0110 15:07:15.745467 30030 net.cpp:397] bn1_2_branch2a -> enet1_2_branch2a (in-place)
I0110 15:07:15.745864 30030 net.cpp:150] Setting up bn1_2_branch2a
I0110 15:07:15.745879 30030 net.cpp:157] Top shape: 4 16 94 310 (1864960)
I0110 15:07:15.745887 30030 net.cpp:165] Memory required for data: 1089136672
I0110 15:07:15.745898 30030 layer_factory.hpp:77] Creating layer relu1_2_branch2a
I0110 15:07:15.745908 30030 net.cpp:106] Creating Layer relu1_2_branch2a
I0110 15:07:15.745935 30030 net.cpp:454] relu1_2_branch2a <- enet1_2_branch2a
I0110 15:07:15.745959 30030 net.cpp:397] relu1_2_branch2a -> enet1_2_branch2a (in-place)
I0110 15:07:15.748647 30030 net.cpp:150] Setting up relu1_2_branch2a
I0110 15:07:15.748664 30030 net.cpp:157] Top shape: 4 16 94 310 (1864960)
I0110 15:07:15.748672 30030 net.cpp:165] Memory required for data: 1096596512
I0110 15:07:15.748680 30030 layer_factory.hpp:77] Creating layer enet1_2_branch2b
I0110 15:07:15.748699 30030 net.cpp:106] Creating Layer enet1_2_branch2b
I0110 15:07:15.748708 30030 net.cpp:454] enet1_2_branch2b <- enet1_2_branch2a
I0110 15:07:15.748720 30030 net.cpp:411] enet1_2_branch2b -> enet1_2_branch2b
I0110 15:07:15.752627 30030 net.cpp:150] Setting up enet1_2_branch2b
I0110 15:07:15.752645 30030 net.cpp:157] Top shape: 4 16 94 310 (1864960)
I0110 15:07:15.752652 30030 net.cpp:165] Memory required for data: 1104056352
I0110 15:07:15.752663 30030 layer_factory.hpp:77] Creating layer bn1_2_branch2b
I0110 15:07:15.752679 30030 net.cpp:106] Creating Layer bn1_2_branch2b
I0110 15:07:15.752687 30030 net.cpp:454] bn1_2_branch2b <- enet1_2_branch2b
I0110 15:07:15.752698 30030 net.cpp:397] bn1_2_branch2b -> enet1_2_branch2b (in-place)
I0110 15:07:15.753036 30030 net.cpp:150] Setting up bn1_2_branch2b
I0110 15:07:15.753056 30030 net.cpp:157] Top shape: 4 16 94 310 (1864960)
I0110 15:07:15.753062 30030 net.cpp:165] Memory required for data: 1111516192
I0110 15:07:15.753072 30030 layer_factory.hpp:77] Creating layer relu1_2_branch2b
I0110 15:07:15.753083 30030 net.cpp:106] Creating Layer relu1_2_branch2b
I0110 15:07:15.753089 30030 net.cpp:454] relu1_2_branch2b <- enet1_2_branch2b
I0110 15:07:15.753098 30030 net.cpp:397] relu1_2_branch2b -> enet1_2_branch2b (in-place)
I0110 15:07:15.755661 30030 net.cpp:150] Setting up relu1_2_branch2b
I0110 15:07:15.755681 30030 net.cpp:157] Top shape: 4 16 94 310 (1864960)
I0110 15:07:15.755687 30030 net.cpp:165] Memory required for data: 1118976032
I0110 15:07:15.755697 30030 layer_factory.hpp:77] Creating layer enet1_2_branch2c
I0110 15:07:15.755714 30030 net.cpp:106] Creating Layer enet1_2_branch2c
I0110 15:07:15.755722 30030 net.cpp:454] enet1_2_branch2c <- enet1_2_branch2b
I0110 15:07:15.755733 30030 net.cpp:411] enet1_2_branch2c -> enet1_2_branch2c
I0110 15:07:15.759109 30030 net.cpp:150] Setting up enet1_2_branch2c
I0110 15:07:15.759126 30030 net.cpp:157] Top shape: 4 64 94 310 (7459840)
I0110 15:07:15.759133 30030 net.cpp:165] Memory required for data: 1148815392
I0110 15:07:15.759143 30030 layer_factory.hpp:77] Creating layer bn1_2_branch2c
I0110 15:07:15.759160 30030 net.cpp:106] Creating Layer bn1_2_branch2c
I0110 15:07:15.759167 30030 net.cpp:454] bn1_2_branch2c <- enet1_2_branch2c
I0110 15:07:15.759181 30030 net.cpp:397] bn1_2_branch2c -> enet1_2_branch2c (in-place)
I0110 15:07:15.759539 30030 net.cpp:150] Setting up bn1_2_branch2c
I0110 15:07:15.759554 30030 net.cpp:157] Top shape: 4 64 94 310 (7459840)
I0110 15:07:15.759560 30030 net.cpp:165] Memory required for data: 1178654752
I0110 15:07:15.759572 30030 layer_factory.hpp:77] Creating layer dropout1_2_branch2c
I0110 15:07:15.759582 30030 net.cpp:106] Creating Layer dropout1_2_branch2c
I0110 15:07:15.759589 30030 net.cpp:454] dropout1_2_branch2c <- enet1_2_branch2c
I0110 15:07:15.759603 30030 net.cpp:397] dropout1_2_branch2c -> enet1_2_branch2c (in-place)
I0110 15:07:15.759642 30030 net.cpp:150] Setting up dropout1_2_branch2c
I0110 15:07:15.759654 30030 net.cpp:157] Top shape: 4 64 94 310 (7459840)
I0110 15:07:15.759660 30030 net.cpp:165] Memory required for data: 1208494112
I0110 15:07:15.759667 30030 layer_factory.hpp:77] Creating layer enet1_2
I0110 15:07:15.759677 30030 net.cpp:106] Creating Layer enet1_2
I0110 15:07:15.759683 30030 net.cpp:454] enet1_2 <- enet1_1_relu1_1_0_split_1
I0110 15:07:15.759692 30030 net.cpp:454] enet1_2 <- enet1_2_branch2c
I0110 15:07:15.759704 30030 net.cpp:411] enet1_2 -> enet1_2
I0110 15:07:15.759742 30030 net.cpp:150] Setting up enet1_2
I0110 15:07:15.759760 30030 net.cpp:157] Top shape: 4 64 94 310 (7459840)
I0110 15:07:15.759775 30030 net.cpp:165] Memory required for data: 1238333472
I0110 15:07:15.759791 30030 layer_factory.hpp:77] Creating layer relu1_2
I0110 15:07:15.759801 30030 net.cpp:106] Creating Layer relu1_2
I0110 15:07:15.759809 30030 net.cpp:454] relu1_2 <- enet1_2
I0110 15:07:15.759817 30030 net.cpp:397] relu1_2 -> enet1_2 (in-place)
I0110 15:07:15.792304 30030 net.cpp:150] Setting up relu1_2
I0110 15:07:15.792349 30030 net.cpp:157] Top shape: 4 64 94 310 (7459840)
I0110 15:07:15.792357 30030 net.cpp:165] Memory required for data: 1268172832
I0110 15:07:15.792371 30030 layer_factory.hpp:77] Creating layer enet1_2_relu1_2_0_split
I0110 15:07:15.792388 30030 net.cpp:106] Creating Layer enet1_2_relu1_2_0_split
I0110 15:07:15.792398 30030 net.cpp:454] enet1_2_relu1_2_0_split <- enet1_2
I0110 15:07:15.792418 30030 net.cpp:411] enet1_2_relu1_2_0_split -> enet1_2_relu1_2_0_split_0
I0110 15:07:15.792433 30030 net.cpp:411] enet1_2_relu1_2_0_split -> enet1_2_relu1_2_0_split_1
I0110 15:07:15.793154 30030 net.cpp:150] Setting up enet1_2_relu1_2_0_split
I0110 15:07:15.793175 30030 net.cpp:157] Top shape: 4 64 94 310 (7459840)
I0110 15:07:15.793184 30030 net.cpp:157] Top shape: 4 64 94 310 (7459840)
I0110 15:07:15.793191 30030 net.cpp:165] Memory required for data: 1327851552
I0110 15:07:15.793201 30030 layer_factory.hpp:77] Creating layer enet1_3_branch2a
I0110 15:07:15.793223 30030 net.cpp:106] Creating Layer enet1_3_branch2a
I0110 15:07:15.793231 30030 net.cpp:454] enet1_3_branch2a <- enet1_2_relu1_2_0_split_0
I0110 15:07:15.793249 30030 net.cpp:411] enet1_3_branch2a -> enet1_3_branch2a
I0110 15:07:15.796533 30030 net.cpp:150] Setting up enet1_3_branch2a
I0110 15:07:15.796551 30030 net.cpp:157] Top shape: 4 16 94 310 (1864960)
I0110 15:07:15.796560 30030 net.cpp:165] Memory required for data: 1335311392
I0110 15:07:15.796569 30030 layer_factory.hpp:77] Creating layer bn1_3_branch2a
I0110 15:07:15.796587 30030 net.cpp:106] Creating Layer bn1_3_branch2a
I0110 15:07:15.796596 30030 net.cpp:454] bn1_3_branch2a <- enet1_3_branch2a
I0110 15:07:15.796607 30030 net.cpp:397] bn1_3_branch2a -> enet1_3_branch2a (in-place)
I0110 15:07:15.797013 30030 net.cpp:150] Setting up bn1_3_branch2a
I0110 15:07:15.797027 30030 net.cpp:157] Top shape: 4 16 94 310 (1864960)
I0110 15:07:15.797034 30030 net.cpp:165] Memory required for data: 1342771232
I0110 15:07:15.797044 30030 layer_factory.hpp:77] Creating layer relu1_3_branch2a
I0110 15:07:15.797060 30030 net.cpp:106] Creating Layer relu1_3_branch2a
I0110 15:07:15.797067 30030 net.cpp:454] relu1_3_branch2a <- enet1_3_branch2a
I0110 15:07:15.797081 30030 net.cpp:397] relu1_3_branch2a -> enet1_3_branch2a (in-place)
I0110 15:07:15.799885 30030 net.cpp:150] Setting up relu1_3_branch2a
I0110 15:07:15.799902 30030 net.cpp:157] Top shape: 4 16 94 310 (1864960)
I0110 15:07:15.799909 30030 net.cpp:165] Memory required for data: 1350231072
I0110 15:07:15.799918 30030 layer_factory.hpp:77] Creating layer enet1_3_branch2b
I0110 15:07:15.799940 30030 net.cpp:106] Creating Layer enet1_3_branch2b
I0110 15:07:15.799948 30030 net.cpp:454] enet1_3_branch2b <- enet1_3_branch2a
I0110 15:07:15.799959 30030 net.cpp:411] enet1_3_branch2b -> enet1_3_branch2b
I0110 15:07:15.803292 30030 net.cpp:150] Setting up enet1_3_branch2b
I0110 15:07:15.803313 30030 net.cpp:157] Top shape: 4 16 94 310 (1864960)
I0110 15:07:15.803321 30030 net.cpp:165] Memory required for data: 1357690912
I0110 15:07:15.803333 30030 layer_factory.hpp:77] Creating layer bn1_3_branch2b
I0110 15:07:15.803349 30030 net.cpp:106] Creating Layer bn1_3_branch2b
I0110 15:07:15.803357 30030 net.cpp:454] bn1_3_branch2b <- enet1_3_branch2b
I0110 15:07:15.803367 30030 net.cpp:397] bn1_3_branch2b -> enet1_3_branch2b (in-place)
I0110 15:07:15.804767 30030 net.cpp:150] Setting up bn1_3_branch2b
I0110 15:07:15.804785 30030 net.cpp:157] Top shape: 4 16 94 310 (1864960)
I0110 15:07:15.804791 30030 net.cpp:165] Memory required for data: 1365150752
I0110 15:07:15.804802 30030 layer_factory.hpp:77] Creating layer relu1_3_branch2b
I0110 15:07:15.804817 30030 net.cpp:106] Creating Layer relu1_3_branch2b
I0110 15:07:15.804857 30030 net.cpp:454] relu1_3_branch2b <- enet1_3_branch2b
I0110 15:07:15.804870 30030 net.cpp:397] relu1_3_branch2b -> enet1_3_branch2b (in-place)
I0110 15:07:15.807693 30030 net.cpp:150] Setting up relu1_3_branch2b
I0110 15:07:15.807710 30030 net.cpp:157] Top shape: 4 16 94 310 (1864960)
I0110 15:07:15.807718 30030 net.cpp:165] Memory required for data: 1372610592
I0110 15:07:15.807726 30030 layer_factory.hpp:77] Creating layer enet1_3_branch2c
I0110 15:07:15.807745 30030 net.cpp:106] Creating Layer enet1_3_branch2c
I0110 15:07:15.807752 30030 net.cpp:454] enet1_3_branch2c <- enet1_3_branch2b
I0110 15:07:15.807767 30030 net.cpp:411] enet1_3_branch2c -> enet1_3_branch2c
I0110 15:07:15.811055 30030 net.cpp:150] Setting up enet1_3_branch2c
I0110 15:07:15.811076 30030 net.cpp:157] Top shape: 4 64 94 310 (7459840)
I0110 15:07:15.811084 30030 net.cpp:165] Memory required for data: 1402449952
I0110 15:07:15.811094 30030 layer_factory.hpp:77] Creating layer bn1_3_branch2c
I0110 15:07:15.811107 30030 net.cpp:106] Creating Layer bn1_3_branch2c
I0110 15:07:15.811115 30030 net.cpp:454] bn1_3_branch2c <- enet1_3_branch2c
I0110 15:07:15.811128 30030 net.cpp:397] bn1_3_branch2c -> enet1_3_branch2c (in-place)
I0110 15:07:15.811517 30030 net.cpp:150] Setting up bn1_3_branch2c
I0110 15:07:15.811532 30030 net.cpp:157] Top shape: 4 64 94 310 (7459840)
I0110 15:07:15.811538 30030 net.cpp:165] Memory required for data: 1432289312
I0110 15:07:15.811549 30030 layer_factory.hpp:77] Creating layer dropout1_3_branch2c
I0110 15:07:15.811564 30030 net.cpp:106] Creating Layer dropout1_3_branch2c
I0110 15:07:15.811571 30030 net.cpp:454] dropout1_3_branch2c <- enet1_3_branch2c
I0110 15:07:15.811581 30030 net.cpp:397] dropout1_3_branch2c -> enet1_3_branch2c (in-place)
I0110 15:07:15.811624 30030 net.cpp:150] Setting up dropout1_3_branch2c
I0110 15:07:15.811635 30030 net.cpp:157] Top shape: 4 64 94 310 (7459840)
I0110 15:07:15.811641 30030 net.cpp:165] Memory required for data: 1462128672
I0110 15:07:15.811648 30030 layer_factory.hpp:77] Creating layer enet1_3
I0110 15:07:15.811662 30030 net.cpp:106] Creating Layer enet1_3
I0110 15:07:15.811669 30030 net.cpp:454] enet1_3 <- enet1_2_relu1_2_0_split_1
I0110 15:07:15.811678 30030 net.cpp:454] enet1_3 <- enet1_3_branch2c
I0110 15:07:15.811687 30030 net.cpp:411] enet1_3 -> enet1_3
I0110 15:07:15.811733 30030 net.cpp:150] Setting up enet1_3
I0110 15:07:15.811745 30030 net.cpp:157] Top shape: 4 64 94 310 (7459840)
I0110 15:07:15.811751 30030 net.cpp:165] Memory required for data: 1491968032
I0110 15:07:15.811758 30030 layer_factory.hpp:77] Creating layer relu1_3
I0110 15:07:15.811767 30030 net.cpp:106] Creating Layer relu1_3
I0110 15:07:15.811774 30030 net.cpp:454] relu1_3 <- enet1_3
I0110 15:07:15.811786 30030 net.cpp:397] relu1_3 -> enet1_3 (in-place)
I0110 15:07:15.823374 30030 net.cpp:150] Setting up relu1_3
I0110 15:07:15.823424 30030 net.cpp:157] Top shape: 4 64 94 310 (7459840)
I0110 15:07:15.823432 30030 net.cpp:165] Memory required for data: 1521807392
I0110 15:07:15.823446 30030 layer_factory.hpp:77] Creating layer enet1_3_relu1_3_0_split
I0110 15:07:15.823465 30030 net.cpp:106] Creating Layer enet1_3_relu1_3_0_split
I0110 15:07:15.823475 30030 net.cpp:454] enet1_3_relu1_3_0_split <- enet1_3
I0110 15:07:15.823493 30030 net.cpp:411] enet1_3_relu1_3_0_split -> enet1_3_relu1_3_0_split_0
I0110 15:07:15.823509 30030 net.cpp:411] enet1_3_relu1_3_0_split -> enet1_3_relu1_3_0_split_1
I0110 15:07:15.823591 30030 net.cpp:150] Setting up enet1_3_relu1_3_0_split
I0110 15:07:15.823604 30030 net.cpp:157] Top shape: 4 64 94 310 (7459840)
I0110 15:07:15.823612 30030 net.cpp:157] Top shape: 4 64 94 310 (7459840)
I0110 15:07:15.823618 30030 net.cpp:165] Memory required for data: 1581486112
I0110 15:07:15.823626 30030 layer_factory.hpp:77] Creating layer enet1_4_branch2a
I0110 15:07:15.823644 30030 net.cpp:106] Creating Layer enet1_4_branch2a
I0110 15:07:15.823652 30030 net.cpp:454] enet1_4_branch2a <- enet1_3_relu1_3_0_split_0
I0110 15:07:15.823668 30030 net.cpp:411] enet1_4_branch2a -> enet1_4_branch2a
I0110 15:07:15.828506 30030 net.cpp:150] Setting up enet1_4_branch2a
I0110 15:07:15.828527 30030 net.cpp:157] Top shape: 4 16 94 310 (1864960)
I0110 15:07:15.828534 30030 net.cpp:165] Memory required for data: 1588945952
I0110 15:07:15.828544 30030 layer_factory.hpp:77] Creating layer bn1_4_branch2a
I0110 15:07:15.828563 30030 net.cpp:106] Creating Layer bn1_4_branch2a
I0110 15:07:15.828572 30030 net.cpp:454] bn1_4_branch2a <- enet1_4_branch2a
I0110 15:07:15.828585 30030 net.cpp:397] bn1_4_branch2a -> enet1_4_branch2a (in-place)
I0110 15:07:15.829027 30030 net.cpp:150] Setting up bn1_4_branch2a
I0110 15:07:15.829041 30030 net.cpp:157] Top shape: 4 16 94 310 (1864960)
I0110 15:07:15.829048 30030 net.cpp:165] Memory required for data: 1596405792
I0110 15:07:15.829063 30030 layer_factory.hpp:77] Creating layer relu1_4_branch2a
I0110 15:07:15.829078 30030 net.cpp:106] Creating Layer relu1_4_branch2a
I0110 15:07:15.829085 30030 net.cpp:454] relu1_4_branch2a <- enet1_4_branch2a
I0110 15:07:15.829094 30030 net.cpp:397] relu1_4_branch2a -> enet1_4_branch2a (in-place)
I0110 15:07:15.831817 30030 net.cpp:150] Setting up relu1_4_branch2a
I0110 15:07:15.831835 30030 net.cpp:157] Top shape: 4 16 94 310 (1864960)
I0110 15:07:15.831841 30030 net.cpp:165] Memory required for data: 1603865632
I0110 15:07:15.831851 30030 layer_factory.hpp:77] Creating layer enet1_4_branch2b
I0110 15:07:15.831868 30030 net.cpp:106] Creating Layer enet1_4_branch2b
I0110 15:07:15.831876 30030 net.cpp:454] enet1_4_branch2b <- enet1_4_branch2a
I0110 15:07:15.831890 30030 net.cpp:411] enet1_4_branch2b -> enet1_4_branch2b
I0110 15:07:15.835186 30030 net.cpp:150] Setting up enet1_4_branch2b
I0110 15:07:15.835204 30030 net.cpp:157] Top shape: 4 16 94 310 (1864960)
I0110 15:07:15.835212 30030 net.cpp:165] Memory required for data: 1611325472
I0110 15:07:15.835247 30030 layer_factory.hpp:77] Creating layer bn1_4_branch2b
I0110 15:07:15.835275 30030 net.cpp:106] Creating Layer bn1_4_branch2b
I0110 15:07:15.835284 30030 net.cpp:454] bn1_4_branch2b <- enet1_4_branch2b
I0110 15:07:15.835295 30030 net.cpp:397] bn1_4_branch2b -> enet1_4_branch2b (in-place)
I0110 15:07:15.836596 30030 net.cpp:150] Setting up bn1_4_branch2b
I0110 15:07:15.836612 30030 net.cpp:157] Top shape: 4 16 94 310 (1864960)
I0110 15:07:15.836618 30030 net.cpp:165] Memory required for data: 1618785312
I0110 15:07:15.836630 30030 layer_factory.hpp:77] Creating layer relu1_4_branch2b
I0110 15:07:15.836642 30030 net.cpp:106] Creating Layer relu1_4_branch2b
I0110 15:07:15.836648 30030 net.cpp:454] relu1_4_branch2b <- enet1_4_branch2b
I0110 15:07:15.836658 30030 net.cpp:397] relu1_4_branch2b -> enet1_4_branch2b (in-place)
I0110 15:07:15.839270 30030 net.cpp:150] Setting up relu1_4_branch2b
I0110 15:07:15.839287 30030 net.cpp:157] Top shape: 4 16 94 310 (1864960)
I0110 15:07:15.839293 30030 net.cpp:165] Memory required for data: 1626245152
I0110 15:07:15.839303 30030 layer_factory.hpp:77] Creating layer enet1_4_branch2c
I0110 15:07:15.839323 30030 net.cpp:106] Creating Layer enet1_4_branch2c
I0110 15:07:15.839330 30030 net.cpp:454] enet1_4_branch2c <- enet1_4_branch2b
I0110 15:07:15.839344 30030 net.cpp:411] enet1_4_branch2c -> enet1_4_branch2c
I0110 15:07:15.842484 30030 net.cpp:150] Setting up enet1_4_branch2c
I0110 15:07:15.842502 30030 net.cpp:157] Top shape: 4 64 94 310 (7459840)
I0110 15:07:15.842509 30030 net.cpp:165] Memory required for data: 1656084512
I0110 15:07:15.842519 30030 layer_factory.hpp:77] Creating layer bn1_4_branch2c
I0110 15:07:15.842532 30030 net.cpp:106] Creating Layer bn1_4_branch2c
I0110 15:07:15.842540 30030 net.cpp:454] bn1_4_branch2c <- enet1_4_branch2c
I0110 15:07:15.842555 30030 net.cpp:397] bn1_4_branch2c -> enet1_4_branch2c (in-place)
I0110 15:07:15.842964 30030 net.cpp:150] Setting up bn1_4_branch2c
I0110 15:07:15.842979 30030 net.cpp:157] Top shape: 4 64 94 310 (7459840)
I0110 15:07:15.842985 30030 net.cpp:165] Memory required for data: 1685923872
I0110 15:07:15.842995 30030 layer_factory.hpp:77] Creating layer dropout1_4_branch2c
I0110 15:07:15.843024 30030 net.cpp:106] Creating Layer dropout1_4_branch2c
I0110 15:07:15.843044 30030 net.cpp:454] dropout1_4_branch2c <- enet1_4_branch2c
I0110 15:07:15.843057 30030 net.cpp:397] dropout1_4_branch2c -> enet1_4_branch2c (in-place)
I0110 15:07:15.843103 30030 net.cpp:150] Setting up dropout1_4_branch2c
I0110 15:07:15.843116 30030 net.cpp:157] Top shape: 4 64 94 310 (7459840)
I0110 15:07:15.843122 30030 net.cpp:165] Memory required for data: 1715763232
I0110 15:07:15.843128 30030 layer_factory.hpp:77] Creating layer enet1_4
I0110 15:07:15.843142 30030 net.cpp:106] Creating Layer enet1_4
I0110 15:07:15.843150 30030 net.cpp:454] enet1_4 <- enet1_3_relu1_3_0_split_1
I0110 15:07:15.843159 30030 net.cpp:454] enet1_4 <- enet1_4_branch2c
I0110 15:07:15.843168 30030 net.cpp:411] enet1_4 -> enet1_4
I0110 15:07:15.843214 30030 net.cpp:150] Setting up enet1_4
I0110 15:07:15.843227 30030 net.cpp:157] Top shape: 4 64 94 310 (7459840)
I0110 15:07:15.843233 30030 net.cpp:165] Memory required for data: 1745602592
I0110 15:07:15.843240 30030 layer_factory.hpp:77] Creating layer relu1_4
I0110 15:07:15.843250 30030 net.cpp:106] Creating Layer relu1_4
I0110 15:07:15.843255 30030 net.cpp:454] relu1_4 <- enet1_4
I0110 15:07:15.843268 30030 net.cpp:397] relu1_4 -> enet1_4 (in-place)
I0110 15:07:15.853791 30030 net.cpp:150] Setting up relu1_4
I0110 15:07:15.853834 30030 net.cpp:157] Top shape: 4 64 94 310 (7459840)
I0110 15:07:15.853842 30030 net.cpp:165] Memory required for data: 1775441952
I0110 15:07:15.853854 30030 layer_factory.hpp:77] Creating layer enet1_4_relu1_4_0_split
I0110 15:07:15.853869 30030 net.cpp:106] Creating Layer enet1_4_relu1_4_0_split
I0110 15:07:15.853878 30030 net.cpp:454] enet1_4_relu1_4_0_split <- enet1_4
I0110 15:07:15.853896 30030 net.cpp:411] enet1_4_relu1_4_0_split -> enet1_4_relu1_4_0_split_0
I0110 15:07:15.853912 30030 net.cpp:411] enet1_4_relu1_4_0_split -> enet1_4_relu1_4_0_split_1
I0110 15:07:15.853991 30030 net.cpp:150] Setting up enet1_4_relu1_4_0_split
I0110 15:07:15.854004 30030 net.cpp:157] Top shape: 4 64 94 310 (7459840)
I0110 15:07:15.854012 30030 net.cpp:157] Top shape: 4 64 94 310 (7459840)
I0110 15:07:15.854018 30030 net.cpp:165] Memory required for data: 1835120672
I0110 15:07:15.854025 30030 layer_factory.hpp:77] Creating layer enet2_0_branch2a
I0110 15:07:15.854048 30030 net.cpp:106] Creating Layer enet2_0_branch2a
I0110 15:07:15.854061 30030 net.cpp:454] enet2_0_branch2a <- enet1_4_relu1_4_0_split_0
I0110 15:07:15.854074 30030 net.cpp:411] enet2_0_branch2a -> enet2_0_branch2a
I0110 15:07:15.859028 30030 net.cpp:150] Setting up enet2_0_branch2a
I0110 15:07:15.859061 30030 net.cpp:157] Top shape: 4 32 47 155 (932480)
I0110 15:07:15.859069 30030 net.cpp:165] Memory required for data: 1838850592
I0110 15:07:15.859081 30030 layer_factory.hpp:77] Creating layer bn2_0_branch2a
I0110 15:07:15.859100 30030 net.cpp:106] Creating Layer bn2_0_branch2a
I0110 15:07:15.859109 30030 net.cpp:454] bn2_0_branch2a <- enet2_0_branch2a
I0110 15:07:15.859124 30030 net.cpp:397] bn2_0_branch2a -> enet2_0_branch2a (in-place)
I0110 15:07:15.859511 30030 net.cpp:150] Setting up bn2_0_branch2a
I0110 15:07:15.859526 30030 net.cpp:157] Top shape: 4 32 47 155 (932480)
I0110 15:07:15.859532 30030 net.cpp:165] Memory required for data: 1842580512
I0110 15:07:15.859544 30030 layer_factory.hpp:77] Creating layer relu2_0_branch2a
I0110 15:07:15.859555 30030 net.cpp:106] Creating Layer relu2_0_branch2a
I0110 15:07:15.859561 30030 net.cpp:454] relu2_0_branch2a <- enet2_0_branch2a
I0110 15:07:15.859575 30030 net.cpp:397] relu2_0_branch2a -> enet2_0_branch2a (in-place)
I0110 15:07:15.861088 30030 net.cpp:150] Setting up relu2_0_branch2a
I0110 15:07:15.861104 30030 net.cpp:157] Top shape: 4 32 47 155 (932480)
I0110 15:07:15.861111 30030 net.cpp:165] Memory required for data: 1846310432
I0110 15:07:15.861120 30030 layer_factory.hpp:77] Creating layer enet2_0_branch2b
I0110 15:07:15.861145 30030 net.cpp:106] Creating Layer enet2_0_branch2b
I0110 15:07:15.861152 30030 net.cpp:454] enet2_0_branch2b <- enet2_0_branch2a
I0110 15:07:15.861183 30030 net.cpp:411] enet2_0_branch2b -> enet2_0_branch2b
I0110 15:07:15.866173 30030 net.cpp:150] Setting up enet2_0_branch2b
I0110 15:07:15.866194 30030 net.cpp:157] Top shape: 4 32 47 155 (932480)
I0110 15:07:15.866201 30030 net.cpp:165] Memory required for data: 1850040352
I0110 15:07:15.866217 30030 layer_factory.hpp:77] Creating layer bn2_0_branch2b
I0110 15:07:15.866235 30030 net.cpp:106] Creating Layer bn2_0_branch2b
I0110 15:07:15.866242 30030 net.cpp:454] bn2_0_branch2b <- enet2_0_branch2b
I0110 15:07:15.866252 30030 net.cpp:397] bn2_0_branch2b -> enet2_0_branch2b (in-place)
I0110 15:07:15.866637 30030 net.cpp:150] Setting up bn2_0_branch2b
I0110 15:07:15.866652 30030 net.cpp:157] Top shape: 4 32 47 155 (932480)
I0110 15:07:15.866658 30030 net.cpp:165] Memory required for data: 1853770272
I0110 15:07:15.866668 30030 layer_factory.hpp:77] Creating layer relu2_0_branch2b
I0110 15:07:15.866679 30030 net.cpp:106] Creating Layer relu2_0_branch2b
I0110 15:07:15.866686 30030 net.cpp:454] relu2_0_branch2b <- enet2_0_branch2b
I0110 15:07:15.866699 30030 net.cpp:397] relu2_0_branch2b -> enet2_0_branch2b (in-place)
I0110 15:07:15.868095 30030 net.cpp:150] Setting up relu2_0_branch2b
I0110 15:07:15.868113 30030 net.cpp:157] Top shape: 4 32 47 155 (932480)
I0110 15:07:15.868119 30030 net.cpp:165] Memory required for data: 1857500192
I0110 15:07:15.868129 30030 layer_factory.hpp:77] Creating layer enet2_0_branch2c
I0110 15:07:15.868149 30030 net.cpp:106] Creating Layer enet2_0_branch2c
I0110 15:07:15.868156 30030 net.cpp:454] enet2_0_branch2c <- enet2_0_branch2b
I0110 15:07:15.868168 30030 net.cpp:411] enet2_0_branch2c -> enet2_0_branch2c
I0110 15:07:15.871444 30030 net.cpp:150] Setting up enet2_0_branch2c
I0110 15:07:15.871464 30030 net.cpp:157] Top shape: 4 128 47 155 (3729920)
I0110 15:07:15.871470 30030 net.cpp:165] Memory required for data: 1872419872
I0110 15:07:15.871480 30030 layer_factory.hpp:77] Creating layer bn2_0_branch2c
I0110 15:07:15.871496 30030 net.cpp:106] Creating Layer bn2_0_branch2c
I0110 15:07:15.871506 30030 net.cpp:454] bn2_0_branch2c <- enet2_0_branch2c
I0110 15:07:15.871516 30030 net.cpp:397] bn2_0_branch2c -> enet2_0_branch2c (in-place)
I0110 15:07:15.871891 30030 net.cpp:150] Setting up bn2_0_branch2c
I0110 15:07:15.871904 30030 net.cpp:157] Top shape: 4 128 47 155 (3729920)
I0110 15:07:15.871912 30030 net.cpp:165] Memory required for data: 1887339552
I0110 15:07:15.871922 30030 layer_factory.hpp:77] Creating layer dropout2_0_branch2c
I0110 15:07:15.871932 30030 net.cpp:106] Creating Layer dropout2_0_branch2c
I0110 15:07:15.871939 30030 net.cpp:454] dropout2_0_branch2c <- enet2_0_branch2c
I0110 15:07:15.871948 30030 net.cpp:397] dropout2_0_branch2c -> enet2_0_branch2c (in-place)
I0110 15:07:15.871995 30030 net.cpp:150] Setting up dropout2_0_branch2c
I0110 15:07:15.872007 30030 net.cpp:157] Top shape: 4 128 47 155 (3729920)
I0110 15:07:15.872014 30030 net.cpp:165] Memory required for data: 1902259232
I0110 15:07:15.872020 30030 layer_factory.hpp:77] Creating layer enet2_0_branch1a
I0110 15:07:15.872041 30030 net.cpp:106] Creating Layer enet2_0_branch1a
I0110 15:07:15.872053 30030 net.cpp:454] enet2_0_branch1a <- enet1_4_relu1_4_0_split_1
I0110 15:07:15.872066 30030 net.cpp:411] enet2_0_branch1a -> enet2_0_branch1a
I0110 15:07:15.875807 30030 net.cpp:150] Setting up enet2_0_branch1a
I0110 15:07:15.875825 30030 net.cpp:157] Top shape: 4 128 94 310 (14919680)
I0110 15:07:15.875833 30030 net.cpp:165] Memory required for data: 1961937952
I0110 15:07:15.875843 30030 layer_factory.hpp:77] Creating layer bn2_0_branch1a
I0110 15:07:15.875859 30030 net.cpp:106] Creating Layer bn2_0_branch1a
I0110 15:07:15.875866 30030 net.cpp:454] bn2_0_branch1a <- enet2_0_branch1a
I0110 15:07:15.875877 30030 net.cpp:397] bn2_0_branch1a -> enet2_0_branch1a (in-place)
I0110 15:07:15.876327 30030 net.cpp:150] Setting up bn2_0_branch1a
I0110 15:07:15.876343 30030 net.cpp:157] Top shape: 4 128 94 310 (14919680)
I0110 15:07:15.876348 30030 net.cpp:165] Memory required for data: 2021616672
I0110 15:07:15.876368 30030 layer_factory.hpp:77] Creating layer pool2_0_branch1a
I0110 15:07:15.876385 30030 layer_factory.cpp:91] cuDNN does not support multiple tops. Using Caffe's own pooling layer.
I0110 15:07:15.876396 30030 net.cpp:106] Creating Layer pool2_0_branch1a
I0110 15:07:15.876404 30030 net.cpp:454] pool2_0_branch1a <- enet2_0_branch1a
I0110 15:07:15.876413 30030 net.cpp:411] pool2_0_branch1a -> pool2_0_branch1a
I0110 15:07:15.876426 30030 net.cpp:411] pool2_0_branch1a -> pool2_0_branch1a_mask
I0110 15:07:15.876502 30030 net.cpp:150] Setting up pool2_0_branch1a
I0110 15:07:15.876514 30030 net.cpp:157] Top shape: 4 128 47 155 (3729920)
I0110 15:07:15.876523 30030 net.cpp:157] Top shape: 4 128 47 155 (3729920)
I0110 15:07:15.876528 30030 net.cpp:165] Memory required for data: 2051456032
I0110 15:07:15.876534 30030 layer_factory.hpp:77] Creating layer enet2_0
I0110 15:07:15.876548 30030 net.cpp:106] Creating Layer enet2_0
I0110 15:07:15.876554 30030 net.cpp:454] enet2_0 <- pool2_0_branch1a
I0110 15:07:15.876564 30030 net.cpp:454] enet2_0 <- enet2_0_branch2c
I0110 15:07:15.876571 30030 net.cpp:411] enet2_0 -> enet2_0
I0110 15:07:15.876621 30030 net.cpp:150] Setting up enet2_0
I0110 15:07:15.876634 30030 net.cpp:157] Top shape: 4 128 47 155 (3729920)
I0110 15:07:15.876641 30030 net.cpp:165] Memory required for data: 2066375712
I0110 15:07:15.876646 30030 layer_factory.hpp:77] Creating layer relu2_0
I0110 15:07:15.876657 30030 net.cpp:106] Creating Layer relu2_0
I0110 15:07:15.876662 30030 net.cpp:454] relu2_0 <- enet2_0
I0110 15:07:15.876674 30030 net.cpp:397] relu2_0 -> enet2_0 (in-place)
I0110 15:07:15.881587 30030 net.cpp:150] Setting up relu2_0
I0110 15:07:15.881605 30030 net.cpp:157] Top shape: 4 128 47 155 (3729920)
I0110 15:07:15.881613 30030 net.cpp:165] Memory required for data: 2081295392
I0110 15:07:15.881621 30030 layer_factory.hpp:77] Creating layer enet2_0_relu2_0_0_split
I0110 15:07:15.881636 30030 net.cpp:106] Creating Layer enet2_0_relu2_0_0_split
I0110 15:07:15.881644 30030 net.cpp:454] enet2_0_relu2_0_0_split <- enet2_0
I0110 15:07:15.881654 30030 net.cpp:411] enet2_0_relu2_0_0_split -> enet2_0_relu2_0_0_split_0
I0110 15:07:15.881665 30030 net.cpp:411] enet2_0_relu2_0_0_split -> enet2_0_relu2_0_0_split_1
I0110 15:07:15.881742 30030 net.cpp:150] Setting up enet2_0_relu2_0_0_split
I0110 15:07:15.881755 30030 net.cpp:157] Top shape: 4 128 47 155 (3729920)
I0110 15:07:15.881763 30030 net.cpp:157] Top shape: 4 128 47 155 (3729920)
I0110 15:07:15.881769 30030 net.cpp:165] Memory required for data: 2111134752
I0110 15:07:15.881775 30030 layer_factory.hpp:77] Creating layer enet2_1_branch2a
I0110 15:07:15.881789 30030 net.cpp:106] Creating Layer enet2_1_branch2a
I0110 15:07:15.881798 30030 net.cpp:454] enet2_1_branch2a <- enet2_0_relu2_0_0_split_0
I0110 15:07:15.881810 30030 net.cpp:411] enet2_1_branch2a -> enet2_1_branch2a
I0110 15:07:15.885212 30030 net.cpp:150] Setting up enet2_1_branch2a
I0110 15:07:15.885231 30030 net.cpp:157] Top shape: 4 32 47 155 (932480)
I0110 15:07:15.885238 30030 net.cpp:165] Memory required for data: 2114864672
I0110 15:07:15.885248 30030 layer_factory.hpp:77] Creating layer bn2_1_branch2a
I0110 15:07:15.885268 30030 net.cpp:106] Creating Layer bn2_1_branch2a
I0110 15:07:15.885277 30030 net.cpp:454] bn2_1_branch2a <- enet2_1_branch2a
I0110 15:07:15.885288 30030 net.cpp:397] bn2_1_branch2a -> enet2_1_branch2a (in-place)
I0110 15:07:15.885684 30030 net.cpp:150] Setting up bn2_1_branch2a
I0110 15:07:15.885699 30030 net.cpp:157] Top shape: 4 32 47 155 (932480)
I0110 15:07:15.885705 30030 net.cpp:165] Memory required for data: 2118594592
I0110 15:07:15.885715 30030 layer_factory.hpp:77] Creating layer relu2_1_branch2a
I0110 15:07:15.885726 30030 net.cpp:106] Creating Layer relu2_1_branch2a
I0110 15:07:15.885733 30030 net.cpp:454] relu2_1_branch2a <- enet2_1_branch2a
I0110 15:07:15.885742 30030 net.cpp:397] relu2_1_branch2a -> enet2_1_branch2a (in-place)
I0110 15:07:15.887284 30030 net.cpp:150] Setting up relu2_1_branch2a
I0110 15:07:15.887301 30030 net.cpp:157] Top shape: 4 32 47 155 (932480)
I0110 15:07:15.887323 30030 net.cpp:165] Memory required for data: 2122324512
I0110 15:07:15.887346 30030 layer_factory.hpp:77] Creating layer enet2_1_branch2b
I0110 15:07:15.887367 30030 net.cpp:106] Creating Layer enet2_1_branch2b
I0110 15:07:15.887377 30030 net.cpp:454] enet2_1_branch2b <- enet2_1_branch2a
I0110 15:07:15.887387 30030 net.cpp:411] enet2_1_branch2b -> enet2_1_branch2b
I0110 15:07:15.891167 30030 net.cpp:150] Setting up enet2_1_branch2b
I0110 15:07:15.891187 30030 net.cpp:157] Top shape: 4 32 47 155 (932480)
I0110 15:07:15.891194 30030 net.cpp:165] Memory required for data: 2126054432
I0110 15:07:15.891206 30030 layer_factory.hpp:77] Creating layer bn2_1_branch2b
I0110 15:07:15.891224 30030 net.cpp:106] Creating Layer bn2_1_branch2b
I0110 15:07:15.891232 30030 net.cpp:454] bn2_1_branch2b <- enet2_1_branch2b
I0110 15:07:15.891245 30030 net.cpp:397] bn2_1_branch2b -> enet2_1_branch2b (in-place)
I0110 15:07:15.891655 30030 net.cpp:150] Setting up bn2_1_branch2b
I0110 15:07:15.891669 30030 net.cpp:157] Top shape: 4 32 47 155 (932480)
I0110 15:07:15.891675 30030 net.cpp:165] Memory required for data: 2129784352
I0110 15:07:15.891686 30030 layer_factory.hpp:77] Creating layer relu2_1_branch2b
I0110 15:07:15.891696 30030 net.cpp:106] Creating Layer relu2_1_branch2b
I0110 15:07:15.891703 30030 net.cpp:454] relu2_1_branch2b <- enet2_1_branch2b
I0110 15:07:15.891712 30030 net.cpp:397] relu2_1_branch2b -> enet2_1_branch2b (in-place)
I0110 15:07:15.893249 30030 net.cpp:150] Setting up relu2_1_branch2b
I0110 15:07:15.893267 30030 net.cpp:157] Top shape: 4 32 47 155 (932480)
I0110 15:07:15.893273 30030 net.cpp:165] Memory required for data: 2133514272
I0110 15:07:15.893283 30030 layer_factory.hpp:77] Creating layer enet2_1_branch2c
I0110 15:07:15.893302 30030 net.cpp:106] Creating Layer enet2_1_branch2c
I0110 15:07:15.893313 30030 net.cpp:454] enet2_1_branch2c <- enet2_1_branch2b
I0110 15:07:15.893324 30030 net.cpp:411] enet2_1_branch2c -> enet2_1_branch2c
I0110 15:07:15.896894 30030 net.cpp:150] Setting up enet2_1_branch2c
I0110 15:07:15.896917 30030 net.cpp:157] Top shape: 4 128 47 155 (3729920)
I0110 15:07:15.896924 30030 net.cpp:165] Memory required for data: 2148433952
I0110 15:07:15.896934 30030 layer_factory.hpp:77] Creating layer bn2_1_branch2c
I0110 15:07:15.896952 30030 net.cpp:106] Creating Layer bn2_1_branch2c
I0110 15:07:15.896960 30030 net.cpp:454] bn2_1_branch2c <- enet2_1_branch2c
I0110 15:07:15.896975 30030 net.cpp:397] bn2_1_branch2c -> enet2_1_branch2c (in-place)
I0110 15:07:15.897389 30030 net.cpp:150] Setting up bn2_1_branch2c
I0110 15:07:15.897404 30030 net.cpp:157] Top shape: 4 128 47 155 (3729920)
I0110 15:07:15.897410 30030 net.cpp:165] Memory required for data: 2163353632
I0110 15:07:15.897420 30030 layer_factory.hpp:77] Creating layer dropout2_1_branch2c
I0110 15:07:15.897433 30030 net.cpp:106] Creating Layer dropout2_1_branch2c
I0110 15:07:15.897439 30030 net.cpp:454] dropout2_1_branch2c <- enet2_1_branch2c
I0110 15:07:15.897459 30030 net.cpp:397] dropout2_1_branch2c -> enet2_1_branch2c (in-place)
I0110 15:07:15.897508 30030 net.cpp:150] Setting up dropout2_1_branch2c
I0110 15:07:15.897521 30030 net.cpp:157] Top shape: 4 128 47 155 (3729920)
I0110 15:07:15.897527 30030 net.cpp:165] Memory required for data: 2178273312
I0110 15:07:15.897534 30030 layer_factory.hpp:77] Creating layer enet2_1
I0110 15:07:15.897545 30030 net.cpp:106] Creating Layer enet2_1
I0110 15:07:15.897552 30030 net.cpp:454] enet2_1 <- enet2_0_relu2_0_0_split_1
I0110 15:07:15.897560 30030 net.cpp:454] enet2_1 <- enet2_1_branch2c
I0110 15:07:15.897569 30030 net.cpp:411] enet2_1 -> enet2_1
I0110 15:07:15.897620 30030 net.cpp:150] Setting up enet2_1
I0110 15:07:15.897634 30030 net.cpp:157] Top shape: 4 128 47 155 (3729920)
I0110 15:07:15.897639 30030 net.cpp:165] Memory required for data: 2193192992
I0110 15:07:15.897645 30030 layer_factory.hpp:77] Creating layer relu2_1
I0110 15:07:15.897660 30030 net.cpp:106] Creating Layer relu2_1
I0110 15:07:15.897666 30030 net.cpp:454] relu2_1 <- enet2_1
I0110 15:07:15.897675 30030 net.cpp:397] relu2_1 -> enet2_1 (in-place)
I0110 15:07:15.903977 30030 net.cpp:150] Setting up relu2_1
I0110 15:07:15.903997 30030 net.cpp:157] Top shape: 4 128 47 155 (3729920)
I0110 15:07:15.904005 30030 net.cpp:165] Memory required for data: 2208112672
I0110 15:07:15.904014 30030 layer_factory.hpp:77] Creating layer enet2_1_relu2_1_0_split
I0110 15:07:15.904024 30030 net.cpp:106] Creating Layer enet2_1_relu2_1_0_split
I0110 15:07:15.904031 30030 net.cpp:454] enet2_1_relu2_1_0_split <- enet2_1
I0110 15:07:15.904042 30030 net.cpp:411] enet2_1_relu2_1_0_split -> enet2_1_relu2_1_0_split_0
I0110 15:07:15.904057 30030 net.cpp:411] enet2_1_relu2_1_0_split -> enet2_1_relu2_1_0_split_1
I0110 15:07:15.904136 30030 net.cpp:150] Setting up enet2_1_relu2_1_0_split
I0110 15:07:15.904150 30030 net.cpp:157] Top shape: 4 128 47 155 (3729920)
I0110 15:07:15.904157 30030 net.cpp:157] Top shape: 4 128 47 155 (3729920)
I0110 15:07:15.904163 30030 net.cpp:165] Memory required for data: 2237952032
I0110 15:07:15.904170 30030 layer_factory.hpp:77] Creating layer enet2_2_branch2a
I0110 15:07:15.904187 30030 net.cpp:106] Creating Layer enet2_2_branch2a
I0110 15:07:15.904196 30030 net.cpp:454] enet2_2_branch2a <- enet2_1_relu2_1_0_split_0
I0110 15:07:15.904206 30030 net.cpp:411] enet2_2_branch2a -> enet2_2_branch2a
I0110 15:07:15.908277 30030 net.cpp:150] Setting up enet2_2_branch2a
I0110 15:07:15.908295 30030 net.cpp:157] Top shape: 4 32 47 155 (932480)
I0110 15:07:15.908303 30030 net.cpp:165] Memory required for data: 2241681952
I0110 15:07:15.908313 30030 layer_factory.hpp:77] Creating layer bn2_2_branch2a
I0110 15:07:15.908329 30030 net.cpp:106] Creating Layer bn2_2_branch2a
I0110 15:07:15.908336 30030 net.cpp:454] bn2_2_branch2a <- enet2_2_branch2a
I0110 15:07:15.908350 30030 net.cpp:397] bn2_2_branch2a -> enet2_2_branch2a (in-place)
I0110 15:07:15.908774 30030 net.cpp:150] Setting up bn2_2_branch2a
I0110 15:07:15.908788 30030 net.cpp:157] Top shape: 4 32 47 155 (932480)
I0110 15:07:15.908794 30030 net.cpp:165] Memory required for data: 2245411872
I0110 15:07:15.908805 30030 layer_factory.hpp:77] Creating layer relu2_2_branch2a
I0110 15:07:15.908816 30030 net.cpp:106] Creating Layer relu2_2_branch2a
I0110 15:07:15.908823 30030 net.cpp:454] relu2_2_branch2a <- enet2_2_branch2a
I0110 15:07:15.908833 30030 net.cpp:397] relu2_2_branch2a -> enet2_2_branch2a (in-place)
I0110 15:07:15.910136 30030 net.cpp:150] Setting up relu2_2_branch2a
I0110 15:07:15.910153 30030 net.cpp:157] Top shape: 4 32 47 155 (932480)
I0110 15:07:15.910159 30030 net.cpp:165] Memory required for data: 2249141792
I0110 15:07:15.910169 30030 layer_factory.hpp:77] Creating layer enet2_2_branch2b
I0110 15:07:15.910187 30030 net.cpp:106] Creating Layer enet2_2_branch2b
I0110 15:07:15.910195 30030 net.cpp:454] enet2_2_branch2b <- enet2_2_branch2a
I0110 15:07:15.910209 30030 net.cpp:411] enet2_2_branch2b -> enet2_2_branch2b
I0110 15:07:15.910892 30030 net.cpp:150] Setting up enet2_2_branch2b
I0110 15:07:15.910907 30030 net.cpp:157] Top shape: 4 32 47 155 (932480)
I0110 15:07:15.910913 30030 net.cpp:165] Memory required for data: 2252871712
I0110 15:07:15.910923 30030 layer_factory.hpp:77] Creating layer bn2_2_branch2b
I0110 15:07:15.910940 30030 net.cpp:106] Creating Layer bn2_2_branch2b
I0110 15:07:15.910948 30030 net.cpp:454] bn2_2_branch2b <- enet2_2_branch2b
I0110 15:07:15.910960 30030 net.cpp:397] bn2_2_branch2b -> enet2_2_branch2b (in-place)
I0110 15:07:15.911376 30030 net.cpp:150] Setting up bn2_2_branch2b
I0110 15:07:15.911391 30030 net.cpp:157] Top shape: 4 32 47 155 (932480)
I0110 15:07:15.911396 30030 net.cpp:165] Memory required for data: 2256601632
I0110 15:07:15.911406 30030 layer_factory.hpp:77] Creating layer relu2_2_branch2b
I0110 15:07:15.911417 30030 net.cpp:106] Creating Layer relu2_2_branch2b
I0110 15:07:15.911423 30030 net.cpp:454] relu2_2_branch2b <- enet2_2_branch2b
I0110 15:07:15.911432 30030 net.cpp:397] relu2_2_branch2b -> enet2_2_branch2b (in-place)
I0110 15:07:15.912788 30030 net.cpp:150] Setting up relu2_2_branch2b
I0110 15:07:15.912804 30030 net.cpp:157] Top shape: 4 32 47 155 (932480)
I0110 15:07:15.912822 30030 net.cpp:165] Memory required for data: 2260331552
I0110 15:07:15.912840 30030 layer_factory.hpp:77] Creating layer enet2_2_branch2c
I0110 15:07:15.912859 30030 net.cpp:106] Creating Layer enet2_2_branch2c
I0110 15:07:15.912869 30030 net.cpp:454] enet2_2_branch2c <- enet2_2_branch2b
I0110 15:07:15.912880 30030 net.cpp:411] enet2_2_branch2c -> enet2_2_branch2c
I0110 15:07:15.916484 30030 net.cpp:150] Setting up enet2_2_branch2c
I0110 15:07:15.916502 30030 net.cpp:157] Top shape: 4 128 47 155 (3729920)
I0110 15:07:15.916509 30030 net.cpp:165] Memory required for data: 2275251232
I0110 15:07:15.916519 30030 layer_factory.hpp:77] Creating layer bn2_2_branch2c
I0110 15:07:15.916535 30030 net.cpp:106] Creating Layer bn2_2_branch2c
I0110 15:07:15.916543 30030 net.cpp:454] bn2_2_branch2c <- enet2_2_branch2c
I0110 15:07:15.916556 30030 net.cpp:397] bn2_2_branch2c -> enet2_2_branch2c (in-place)
I0110 15:07:15.916978 30030 net.cpp:150] Setting up bn2_2_branch2c
I0110 15:07:15.916992 30030 net.cpp:157] Top shape: 4 128 47 155 (3729920)
I0110 15:07:15.916998 30030 net.cpp:165] Memory required for data: 2290170912
I0110 15:07:15.917008 30030 layer_factory.hpp:77] Creating layer dropout2_2_branch2c
I0110 15:07:15.917019 30030 net.cpp:106] Creating Layer dropout2_2_branch2c
I0110 15:07:15.917026 30030 net.cpp:454] dropout2_2_branch2c <- enet2_2_branch2c
I0110 15:07:15.917039 30030 net.cpp:397] dropout2_2_branch2c -> enet2_2_branch2c (in-place)
I0110 15:07:15.917093 30030 net.cpp:150] Setting up dropout2_2_branch2c
I0110 15:07:15.917105 30030 net.cpp:157] Top shape: 4 128 47 155 (3729920)
I0110 15:07:15.917111 30030 net.cpp:165] Memory required for data: 2305090592
I0110 15:07:15.917119 30030 layer_factory.hpp:77] Creating layer enet2_2
I0110 15:07:15.917129 30030 net.cpp:106] Creating Layer enet2_2
I0110 15:07:15.917135 30030 net.cpp:454] enet2_2 <- enet2_1_relu2_1_0_split_1
I0110 15:07:15.917145 30030 net.cpp:454] enet2_2 <- enet2_2_branch2c
I0110 15:07:15.917153 30030 net.cpp:411] enet2_2 -> enet2_2
I0110 15:07:15.917204 30030 net.cpp:150] Setting up enet2_2
I0110 15:07:15.917217 30030 net.cpp:157] Top shape: 4 128 47 155 (3729920)
I0110 15:07:15.917224 30030 net.cpp:165] Memory required for data: 2320010272
I0110 15:07:15.917230 30030 layer_factory.hpp:77] Creating layer relu2_2
I0110 15:07:15.917243 30030 net.cpp:106] Creating Layer relu2_2
I0110 15:07:15.917250 30030 net.cpp:454] relu2_2 <- enet2_2
I0110 15:07:15.917259 30030 net.cpp:397] relu2_2 -> enet2_2 (in-place)
I0110 15:07:15.922619 30030 net.cpp:150] Setting up relu2_2
I0110 15:07:15.922648 30030 net.cpp:157] Top shape: 4 128 47 155 (3729920)
I0110 15:07:15.922657 30030 net.cpp:165] Memory required for data: 2334929952
I0110 15:07:15.922667 30030 layer_factory.hpp:77] Creating layer enet2_2_relu2_2_0_split
I0110 15:07:15.922677 30030 net.cpp:106] Creating Layer enet2_2_relu2_2_0_split
I0110 15:07:15.922685 30030 net.cpp:454] enet2_2_relu2_2_0_split <- enet2_2
I0110 15:07:15.922696 30030 net.cpp:411] enet2_2_relu2_2_0_split -> enet2_2_relu2_2_0_split_0
I0110 15:07:15.922724 30030 net.cpp:411] enet2_2_relu2_2_0_split -> enet2_2_relu2_2_0_split_1
I0110 15:07:15.922809 30030 net.cpp:150] Setting up enet2_2_relu2_2_0_split
I0110 15:07:15.922823 30030 net.cpp:157] Top shape: 4 128 47 155 (3729920)
I0110 15:07:15.922832 30030 net.cpp:157] Top shape: 4 128 47 155 (3729920)
I0110 15:07:15.922837 30030 net.cpp:165] Memory required for data: 2364769312
I0110 15:07:15.922844 30030 layer_factory.hpp:77] Creating layer enet2_3_branch2a
I0110 15:07:15.922859 30030 net.cpp:106] Creating Layer enet2_3_branch2a
I0110 15:07:15.922866 30030 net.cpp:454] enet2_3_branch2a <- enet2_2_relu2_2_0_split_0
I0110 15:07:15.922881 30030 net.cpp:411] enet2_3_branch2a -> enet2_3_branch2a
I0110 15:07:15.926412 30030 net.cpp:150] Setting up enet2_3_branch2a
I0110 15:07:15.926431 30030 net.cpp:157] Top shape: 4 32 47 155 (932480)
I0110 15:07:15.926440 30030 net.cpp:165] Memory required for data: 2368499232
I0110 15:07:15.926448 30030 layer_factory.hpp:77] Creating layer bn2_3_branch2a
I0110 15:07:15.926506 30030 net.cpp:106] Creating Layer bn2_3_branch2a
I0110 15:07:15.926514 30030 net.cpp:454] bn2_3_branch2a <- enet2_3_branch2a
I0110 15:07:15.926529 30030 net.cpp:397] bn2_3_branch2a -> enet2_3_branch2a (in-place)
I0110 15:07:15.926990 30030 net.cpp:150] Setting up bn2_3_branch2a
I0110 15:07:15.927006 30030 net.cpp:157] Top shape: 4 32 47 155 (932480)
I0110 15:07:15.927011 30030 net.cpp:165] Memory required for data: 2372229152
I0110 15:07:15.927021 30030 layer_factory.hpp:77] Creating layer relu2_3_branch2a
I0110 15:07:15.927037 30030 net.cpp:106] Creating Layer relu2_3_branch2a
I0110 15:07:15.927044 30030 net.cpp:454] relu2_3_branch2a <- enet2_3_branch2a
I0110 15:07:15.927057 30030 net.cpp:397] relu2_3_branch2a -> enet2_3_branch2a (in-place)
I0110 15:07:15.928650 30030 net.cpp:150] Setting up relu2_3_branch2a
I0110 15:07:15.928668 30030 net.cpp:157] Top shape: 4 32 47 155 (932480)
I0110 15:07:15.928675 30030 net.cpp:165] Memory required for data: 2375959072
I0110 15:07:15.928684 30030 layer_factory.hpp:77] Creating layer enet2_3_branch2b1
I0110 15:07:15.928704 30030 net.cpp:106] Creating Layer enet2_3_branch2b1
I0110 15:07:15.928711 30030 net.cpp:454] enet2_3_branch2b1 <- enet2_3_branch2a
I0110 15:07:15.928725 30030 net.cpp:411] enet2_3_branch2b1 -> enet2_3_branch2b1
I0110 15:07:15.932361 30030 net.cpp:150] Setting up enet2_3_branch2b1
I0110 15:07:15.932386 30030 net.cpp:157] Top shape: 4 32 47 155 (932480)
I0110 15:07:15.932394 30030 net.cpp:165] Memory required for data: 2379688992
I0110 15:07:15.932404 30030 layer_factory.hpp:77] Creating layer enet2_3_branch2b
I0110 15:07:15.932425 30030 net.cpp:106] Creating Layer enet2_3_branch2b
I0110 15:07:15.932433 30030 net.cpp:454] enet2_3_branch2b <- enet2_3_branch2b1
I0110 15:07:15.932446 30030 net.cpp:411] enet2_3_branch2b -> enet2_3_branch2b
I0110 15:07:15.937542 30030 net.cpp:150] Setting up enet2_3_branch2b
I0110 15:07:15.937561 30030 net.cpp:157] Top shape: 4 32 47 155 (932480)
I0110 15:07:15.937572 30030 net.cpp:165] Memory required for data: 2383418912
I0110 15:07:15.937584 30030 layer_factory.hpp:77] Creating layer bn2_3_branch2b
I0110 15:07:15.937598 30030 net.cpp:106] Creating Layer bn2_3_branch2b
I0110 15:07:15.937607 30030 net.cpp:454] bn2_3_branch2b <- enet2_3_branch2b
I0110 15:07:15.937620 30030 net.cpp:397] bn2_3_branch2b -> enet2_3_branch2b (in-place)
I0110 15:07:15.938091 30030 net.cpp:150] Setting up bn2_3_branch2b
I0110 15:07:15.938104 30030 net.cpp:157] Top shape: 4 32 47 155 (932480)
I0110 15:07:15.938112 30030 net.cpp:165] Memory required for data: 2387148832
I0110 15:07:15.938122 30030 layer_factory.hpp:77] Creating layer relu2_3_branch2b
I0110 15:07:15.938138 30030 net.cpp:106] Creating Layer relu2_3_branch2b
I0110 15:07:15.938146 30030 net.cpp:454] relu2_3_branch2b <- enet2_3_branch2b
I0110 15:07:15.938155 30030 net.cpp:397] relu2_3_branch2b -> enet2_3_branch2b (in-place)
I0110 15:07:15.941859 30030 net.cpp:150] Setting up relu2_3_branch2b
I0110 15:07:15.941880 30030 net.cpp:157] Top shape: 4 32 47 155 (932480)
I0110 15:07:15.941887 30030 net.cpp:165] Memory required for data: 2390878752
I0110 15:07:15.941897 30030 layer_factory.hpp:77] Creating layer enet2_3_branch2c
I0110 15:07:15.941916 30030 net.cpp:106] Creating Layer enet2_3_branch2c
I0110 15:07:15.941926 30030 net.cpp:454] enet2_3_branch2c <- enet2_3_branch2b
I0110 15:07:15.941941 30030 net.cpp:411] enet2_3_branch2c -> enet2_3_branch2c
I0110 15:07:15.946121 30030 net.cpp:150] Setting up enet2_3_branch2c
I0110 15:07:15.946141 30030 net.cpp:157] Top shape: 4 128 47 155 (3729920)
I0110 15:07:15.946148 30030 net.cpp:165] Memory required for data: 2405798432
I0110 15:07:15.946158 30030 layer_factory.hpp:77] Creating layer bn2_3_branch2c
I0110 15:07:15.946174 30030 net.cpp:106] Creating Layer bn2_3_branch2c
I0110 15:07:15.946182 30030 net.cpp:454] bn2_3_branch2c <- enet2_3_branch2c
I0110 15:07:15.946195 30030 net.cpp:397] bn2_3_branch2c -> enet2_3_branch2c (in-place)
I0110 15:07:15.946652 30030 net.cpp:150] Setting up bn2_3_branch2c
I0110 15:07:15.946683 30030 net.cpp:157] Top shape: 4 128 47 155 (3729920)
I0110 15:07:15.946704 30030 net.cpp:165] Memory required for data: 2420718112
I0110 15:07:15.946714 30030 layer_factory.hpp:77] Creating layer dropout2_3_branch2c
I0110 15:07:15.946727 30030 net.cpp:106] Creating Layer dropout2_3_branch2c
I0110 15:07:15.946733 30030 net.cpp:454] dropout2_3_branch2c <- enet2_3_branch2c
I0110 15:07:15.946745 30030 net.cpp:397] dropout2_3_branch2c -> enet2_3_branch2c (in-place)
I0110 15:07:15.946799 30030 net.cpp:150] Setting up dropout2_3_branch2c
I0110 15:07:15.946812 30030 net.cpp:157] Top shape: 4 128 47 155 (3729920)
I0110 15:07:15.946820 30030 net.cpp:165] Memory required for data: 2435637792
I0110 15:07:15.946825 30030 layer_factory.hpp:77] Creating layer enet2_3
I0110 15:07:15.946835 30030 net.cpp:106] Creating Layer enet2_3
I0110 15:07:15.946842 30030 net.cpp:454] enet2_3 <- enet2_2_relu2_2_0_split_1
I0110 15:07:15.946851 30030 net.cpp:454] enet2_3 <- enet2_3_branch2c
I0110 15:07:15.946859 30030 net.cpp:411] enet2_3 -> enet2_3
I0110 15:07:15.946914 30030 net.cpp:150] Setting up enet2_3
I0110 15:07:15.946928 30030 net.cpp:157] Top shape: 4 128 47 155 (3729920)
I0110 15:07:15.946933 30030 net.cpp:165] Memory required for data: 2450557472
I0110 15:07:15.946940 30030 layer_factory.hpp:77] Creating layer relu2_3
I0110 15:07:15.946951 30030 net.cpp:106] Creating Layer relu2_3
I0110 15:07:15.946959 30030 net.cpp:454] relu2_3 <- enet2_3
I0110 15:07:15.946967 30030 net.cpp:397] relu2_3 -> enet2_3 (in-place)
I0110 15:07:15.951812 30030 net.cpp:150] Setting up relu2_3
I0110 15:07:15.951833 30030 net.cpp:157] Top shape: 4 128 47 155 (3729920)
I0110 15:07:15.951840 30030 net.cpp:165] Memory required for data: 2465477152
I0110 15:07:15.951886 30030 layer_factory.hpp:77] Creating layer enet2_3_relu2_3_0_split
I0110 15:07:15.951900 30030 net.cpp:106] Creating Layer enet2_3_relu2_3_0_split
I0110 15:07:15.951906 30030 net.cpp:454] enet2_3_relu2_3_0_split <- enet2_3
I0110 15:07:15.951916 30030 net.cpp:411] enet2_3_relu2_3_0_split -> enet2_3_relu2_3_0_split_0
I0110 15:07:15.951930 30030 net.cpp:411] enet2_3_relu2_3_0_split -> enet2_3_relu2_3_0_split_1
I0110 15:07:15.952014 30030 net.cpp:150] Setting up enet2_3_relu2_3_0_split
I0110 15:07:15.952028 30030 net.cpp:157] Top shape: 4 128 47 155 (3729920)
I0110 15:07:15.952036 30030 net.cpp:157] Top shape: 4 128 47 155 (3729920)
I0110 15:07:15.952042 30030 net.cpp:165] Memory required for data: 2495316512
I0110 15:07:15.952052 30030 layer_factory.hpp:77] Creating layer enet2_4_branch2a
I0110 15:07:15.952070 30030 net.cpp:106] Creating Layer enet2_4_branch2a
I0110 15:07:15.952080 30030 net.cpp:454] enet2_4_branch2a <- enet2_3_relu2_3_0_split_0
I0110 15:07:15.952090 30030 net.cpp:411] enet2_4_branch2a -> enet2_4_branch2a
I0110 15:07:15.955720 30030 net.cpp:150] Setting up enet2_4_branch2a
I0110 15:07:15.955739 30030 net.cpp:157] Top shape: 4 32 47 155 (932480)
I0110 15:07:15.955745 30030 net.cpp:165] Memory required for data: 2499046432
I0110 15:07:15.955755 30030 layer_factory.hpp:77] Creating layer bn2_4_branch2a
I0110 15:07:15.955771 30030 net.cpp:106] Creating Layer bn2_4_branch2a
I0110 15:07:15.955780 30030 net.cpp:454] bn2_4_branch2a <- enet2_4_branch2a
I0110 15:07:15.955793 30030 net.cpp:397] bn2_4_branch2a -> enet2_4_branch2a (in-place)
I0110 15:07:15.957298 30030 net.cpp:150] Setting up bn2_4_branch2a
I0110 15:07:15.957314 30030 net.cpp:157] Top shape: 4 32 47 155 (932480)
I0110 15:07:15.957321 30030 net.cpp:165] Memory required for data: 2502776352
I0110 15:07:15.957331 30030 layer_factory.hpp:77] Creating layer relu2_4_branch2a
I0110 15:07:15.957346 30030 net.cpp:106] Creating Layer relu2_4_branch2a
I0110 15:07:15.957353 30030 net.cpp:454] relu2_4_branch2a <- enet2_4_branch2a
I0110 15:07:15.957363 30030 net.cpp:397] relu2_4_branch2a -> enet2_4_branch2a (in-place)
I0110 15:07:15.958775 30030 net.cpp:150] Setting up relu2_4_branch2a
I0110 15:07:15.958792 30030 net.cpp:157] Top shape: 4 32 47 155 (932480)
I0110 15:07:15.958799 30030 net.cpp:165] Memory required for data: 2506506272
I0110 15:07:15.958817 30030 layer_factory.hpp:77] Creating layer enet2_4_branch2b
I0110 15:07:15.958845 30030 net.cpp:106] Creating Layer enet2_4_branch2b
I0110 15:07:15.958853 30030 net.cpp:454] enet2_4_branch2b <- enet2_4_branch2a
I0110 15:07:15.958868 30030 net.cpp:411] enet2_4_branch2b -> enet2_4_branch2b
I0110 15:07:15.959619 30030 net.cpp:150] Setting up enet2_4_branch2b
I0110 15:07:15.959633 30030 net.cpp:157] Top shape: 4 32 47 155 (932480)
I0110 15:07:15.959640 30030 net.cpp:165] Memory required for data: 2510236192
I0110 15:07:15.959650 30030 layer_factory.hpp:77] Creating layer bn2_4_branch2b
I0110 15:07:15.959692 30030 net.cpp:106] Creating Layer bn2_4_branch2b
I0110 15:07:15.959700 30030 net.cpp:454] bn2_4_branch2b <- enet2_4_branch2b
I0110 15:07:15.959714 30030 net.cpp:397] bn2_4_branch2b -> enet2_4_branch2b (in-place)
I0110 15:07:15.960176 30030 net.cpp:150] Setting up bn2_4_branch2b
I0110 15:07:15.960191 30030 net.cpp:157] Top shape: 4 32 47 155 (932480)
I0110 15:07:15.960196 30030 net.cpp:165] Memory required for data: 2513966112
I0110 15:07:15.960207 30030 layer_factory.hpp:77] Creating layer relu2_4_branch2b
I0110 15:07:15.960222 30030 net.cpp:106] Creating Layer relu2_4_branch2b
I0110 15:07:15.960228 30030 net.cpp:454] relu2_4_branch2b <- enet2_4_branch2b
I0110 15:07:15.960237 30030 net.cpp:397] relu2_4_branch2b -> enet2_4_branch2b (in-place)
I0110 15:07:15.961693 30030 net.cpp:150] Setting up relu2_4_branch2b
I0110 15:07:15.961709 30030 net.cpp:157] Top shape: 4 32 47 155 (932480)
I0110 15:07:15.961715 30030 net.cpp:165] Memory required for data: 2517696032
I0110 15:07:15.961725 30030 layer_factory.hpp:77] Creating layer enet2_4_branch2c
I0110 15:07:15.961743 30030 net.cpp:106] Creating Layer enet2_4_branch2c
I0110 15:07:15.961751 30030 net.cpp:454] enet2_4_branch2c <- enet2_4_branch2b
I0110 15:07:15.961773 30030 net.cpp:411] enet2_4_branch2c -> enet2_4_branch2c
I0110 15:07:15.965557 30030 net.cpp:150] Setting up enet2_4_branch2c
I0110 15:07:15.965576 30030 net.cpp:157] Top shape: 4 128 47 155 (3729920)
I0110 15:07:15.965584 30030 net.cpp:165] Memory required for data: 2532615712
I0110 15:07:15.965595 30030 layer_factory.hpp:77] Creating layer bn2_4_branch2c
I0110 15:07:15.965612 30030 net.cpp:106] Creating Layer bn2_4_branch2c
I0110 15:07:15.965620 30030 net.cpp:454] bn2_4_branch2c <- enet2_4_branch2c
I0110 15:07:15.965634 30030 net.cpp:397] bn2_4_branch2c -> enet2_4_branch2c (in-place)
I0110 15:07:15.966114 30030 net.cpp:150] Setting up bn2_4_branch2c
I0110 15:07:15.966128 30030 net.cpp:157] Top shape: 4 128 47 155 (3729920)
I0110 15:07:15.966135 30030 net.cpp:165] Memory required for data: 2547535392
I0110 15:07:15.966145 30030 layer_factory.hpp:77] Creating layer dropout2_4_branch2c
I0110 15:07:15.966168 30030 net.cpp:106] Creating Layer dropout2_4_branch2c
I0110 15:07:15.966177 30030 net.cpp:454] dropout2_4_branch2c <- enet2_4_branch2c
I0110 15:07:15.966187 30030 net.cpp:397] dropout2_4_branch2c -> enet2_4_branch2c (in-place)
I0110 15:07:15.966240 30030 net.cpp:150] Setting up dropout2_4_branch2c
I0110 15:07:15.966253 30030 net.cpp:157] Top shape: 4 128 47 155 (3729920)
I0110 15:07:15.966259 30030 net.cpp:165] Memory required for data: 2562455072
I0110 15:07:15.966266 30030 layer_factory.hpp:77] Creating layer enet2_4
I0110 15:07:15.966276 30030 net.cpp:106] Creating Layer enet2_4
I0110 15:07:15.966284 30030 net.cpp:454] enet2_4 <- enet2_3_relu2_3_0_split_1
I0110 15:07:15.966292 30030 net.cpp:454] enet2_4 <- enet2_4_branch2c
I0110 15:07:15.966305 30030 net.cpp:411] enet2_4 -> enet2_4
I0110 15:07:15.966362 30030 net.cpp:150] Setting up enet2_4
I0110 15:07:15.966377 30030 net.cpp:157] Top shape: 4 128 47 155 (3729920)
I0110 15:07:15.966382 30030 net.cpp:165] Memory required for data: 2577374752
I0110 15:07:15.966388 30030 layer_factory.hpp:77] Creating layer relu2_4
I0110 15:07:15.966398 30030 net.cpp:106] Creating Layer relu2_4
I0110 15:07:15.966405 30030 net.cpp:454] relu2_4 <- enet2_4
I0110 15:07:15.966418 30030 net.cpp:397] relu2_4 -> enet2_4 (in-place)
I0110 15:07:15.972403 30030 net.cpp:150] Setting up relu2_4
I0110 15:07:15.972462 30030 net.cpp:157] Top shape: 4 128 47 155 (3729920)
I0110 15:07:15.972483 30030 net.cpp:165] Memory required for data: 2592294432
I0110 15:07:15.972497 30030 layer_factory.hpp:77] Creating layer enet2_4_relu2_4_0_split
I0110 15:07:15.972512 30030 net.cpp:106] Creating Layer enet2_4_relu2_4_0_split
I0110 15:07:15.972520 30030 net.cpp:454] enet2_4_relu2_4_0_split <- enet2_4
I0110 15:07:15.972543 30030 net.cpp:411] enet2_4_relu2_4_0_split -> enet2_4_relu2_4_0_split_0
I0110 15:07:15.972558 30030 net.cpp:411] enet2_4_relu2_4_0_split -> enet2_4_relu2_4_0_split_1
I0110 15:07:15.972656 30030 net.cpp:150] Setting up enet2_4_relu2_4_0_split
I0110 15:07:15.972671 30030 net.cpp:157] Top shape: 4 128 47 155 (3729920)
I0110 15:07:15.972678 30030 net.cpp:157] Top shape: 4 128 47 155 (3729920)
I0110 15:07:15.972683 30030 net.cpp:165] Memory required for data: 2622133792
I0110 15:07:15.972690 30030 layer_factory.hpp:77] Creating layer enet2_5_branch2a
I0110 15:07:15.972709 30030 net.cpp:106] Creating Layer enet2_5_branch2a
I0110 15:07:15.972717 30030 net.cpp:454] enet2_5_branch2a <- enet2_4_relu2_4_0_split_0
I0110 15:07:15.972728 30030 net.cpp:411] enet2_5_branch2a -> enet2_5_branch2a
I0110 15:07:15.977952 30030 net.cpp:150] Setting up enet2_5_branch2a
I0110 15:07:15.977977 30030 net.cpp:157] Top shape: 4 32 47 155 (932480)
I0110 15:07:15.977984 30030 net.cpp:165] Memory required for data: 2625863712
I0110 15:07:15.977995 30030 layer_factory.hpp:77] Creating layer bn2_5_branch2a
I0110 15:07:15.978080 30030 net.cpp:106] Creating Layer bn2_5_branch2a
I0110 15:07:15.978091 30030 net.cpp:454] bn2_5_branch2a <- enet2_5_branch2a
I0110 15:07:15.978106 30030 net.cpp:397] bn2_5_branch2a -> enet2_5_branch2a (in-place)
I0110 15:07:15.978638 30030 net.cpp:150] Setting up bn2_5_branch2a
I0110 15:07:15.978653 30030 net.cpp:157] Top shape: 4 32 47 155 (932480)
I0110 15:07:15.978659 30030 net.cpp:165] Memory required for data: 2629593632
I0110 15:07:15.978669 30030 layer_factory.hpp:77] Creating layer relu2_5_branch2a
I0110 15:07:15.978684 30030 net.cpp:106] Creating Layer relu2_5_branch2a
I0110 15:07:15.978693 30030 net.cpp:454] relu2_5_branch2a <- enet2_5_branch2a
I0110 15:07:15.978701 30030 net.cpp:397] relu2_5_branch2a -> enet2_5_branch2a (in-place)
I0110 15:07:15.980178 30030 net.cpp:150] Setting up relu2_5_branch2a
I0110 15:07:15.980195 30030 net.cpp:157] Top shape: 4 32 47 155 (932480)
I0110 15:07:15.980202 30030 net.cpp:165] Memory required for data: 2633323552
I0110 15:07:15.980211 30030 layer_factory.hpp:77] Creating layer enet2_5_branch2b
I0110 15:07:15.980232 30030 net.cpp:106] Creating Layer enet2_5_branch2b
I0110 15:07:15.980239 30030 net.cpp:454] enet2_5_branch2b <- enet2_5_branch2a
I0110 15:07:15.980253 30030 net.cpp:411] enet2_5_branch2b -> enet2_5_branch2b
I0110 15:07:15.984125 30030 net.cpp:150] Setting up enet2_5_branch2b
I0110 15:07:15.984143 30030 net.cpp:157] Top shape: 4 32 47 155 (932480)
I0110 15:07:15.984151 30030 net.cpp:165] Memory required for data: 2637053472
I0110 15:07:15.984163 30030 layer_factory.hpp:77] Creating layer bn2_5_branch2b
I0110 15:07:15.984179 30030 net.cpp:106] Creating Layer bn2_5_branch2b
I0110 15:07:15.984186 30030 net.cpp:454] bn2_5_branch2b <- enet2_5_branch2b
I0110 15:07:15.984199 30030 net.cpp:397] bn2_5_branch2b -> enet2_5_branch2b (in-place)
I0110 15:07:15.984701 30030 net.cpp:150] Setting up bn2_5_branch2b
I0110 15:07:15.984716 30030 net.cpp:157] Top shape: 4 32 47 155 (932480)
I0110 15:07:15.984722 30030 net.cpp:165] Memory required for data: 2640783392
I0110 15:07:15.984732 30030 layer_factory.hpp:77] Creating layer relu2_5_branch2b
I0110 15:07:15.984746 30030 net.cpp:106] Creating Layer relu2_5_branch2b
I0110 15:07:15.984753 30030 net.cpp:454] relu2_5_branch2b <- enet2_5_branch2b
I0110 15:07:15.984762 30030 net.cpp:397] relu2_5_branch2b -> enet2_5_branch2b (in-place)
I0110 15:07:15.986001 30030 net.cpp:150] Setting up relu2_5_branch2b
I0110 15:07:15.986018 30030 net.cpp:157] Top shape: 4 32 47 155 (932480)
I0110 15:07:15.986024 30030 net.cpp:165] Memory required for data: 2644513312
I0110 15:07:15.986048 30030 layer_factory.hpp:77] Creating layer enet2_5_branch2c
I0110 15:07:15.986081 30030 net.cpp:106] Creating Layer enet2_5_branch2c
I0110 15:07:15.986090 30030 net.cpp:454] enet2_5_branch2c <- enet2_5_branch2b
I0110 15:07:15.986104 30030 net.cpp:411] enet2_5_branch2c -> enet2_5_branch2c
I0110 15:07:15.989696 30030 net.cpp:150] Setting up enet2_5_branch2c
I0110 15:07:15.989713 30030 net.cpp:157] Top shape: 4 128 47 155 (3729920)
I0110 15:07:15.989723 30030 net.cpp:165] Memory required for data: 2659432992
I0110 15:07:15.989733 30030 layer_factory.hpp:77] Creating layer bn2_5_branch2c
I0110 15:07:15.989747 30030 net.cpp:106] Creating Layer bn2_5_branch2c
I0110 15:07:15.989754 30030 net.cpp:454] bn2_5_branch2c <- enet2_5_branch2c
I0110 15:07:15.989768 30030 net.cpp:397] bn2_5_branch2c -> enet2_5_branch2c (in-place)
I0110 15:07:15.990272 30030 net.cpp:150] Setting up bn2_5_branch2c
I0110 15:07:15.990286 30030 net.cpp:157] Top shape: 4 128 47 155 (3729920)
I0110 15:07:15.990293 30030 net.cpp:165] Memory required for data: 2674352672
I0110 15:07:15.990303 30030 layer_factory.hpp:77] Creating layer dropout2_5_branch2c
I0110 15:07:15.990314 30030 net.cpp:106] Creating Layer dropout2_5_branch2c
I0110 15:07:15.990321 30030 net.cpp:454] dropout2_5_branch2c <- enet2_5_branch2c
I0110 15:07:15.990334 30030 net.cpp:397] dropout2_5_branch2c -> enet2_5_branch2c (in-place)
I0110 15:07:15.990389 30030 net.cpp:150] Setting up dropout2_5_branch2c
I0110 15:07:15.990402 30030 net.cpp:157] Top shape: 4 128 47 155 (3729920)
I0110 15:07:15.990408 30030 net.cpp:165] Memory required for data: 2689272352
I0110 15:07:15.990414 30030 layer_factory.hpp:77] Creating layer enet2_5
I0110 15:07:15.990425 30030 net.cpp:106] Creating Layer enet2_5
I0110 15:07:15.990432 30030 net.cpp:454] enet2_5 <- enet2_4_relu2_4_0_split_1
I0110 15:07:15.990440 30030 net.cpp:454] enet2_5 <- enet2_5_branch2c
I0110 15:07:15.990449 30030 net.cpp:411] enet2_5 -> enet2_5
I0110 15:07:15.990507 30030 net.cpp:150] Setting up enet2_5
I0110 15:07:15.990521 30030 net.cpp:157] Top shape: 4 128 47 155 (3729920)
I0110 15:07:15.990527 30030 net.cpp:165] Memory required for data: 2704192032
I0110 15:07:15.990533 30030 layer_factory.hpp:77] Creating layer relu2_5
I0110 15:07:15.990546 30030 net.cpp:106] Creating Layer relu2_5
I0110 15:07:15.990553 30030 net.cpp:454] relu2_5 <- enet2_5
I0110 15:07:15.990562 30030 net.cpp:397] relu2_5 -> enet2_5 (in-place)
I0110 15:07:15.995604 30030 net.cpp:150] Setting up relu2_5
I0110 15:07:15.995622 30030 net.cpp:157] Top shape: 4 128 47 155 (3729920)
I0110 15:07:15.995630 30030 net.cpp:165] Memory required for data: 2719111712
I0110 15:07:15.995638 30030 layer_factory.hpp:77] Creating layer enet2_5_relu2_5_0_split
I0110 15:07:15.995649 30030 net.cpp:106] Creating Layer enet2_5_relu2_5_0_split
I0110 15:07:15.995657 30030 net.cpp:454] enet2_5_relu2_5_0_split <- enet2_5
I0110 15:07:15.995666 30030 net.cpp:411] enet2_5_relu2_5_0_split -> enet2_5_relu2_5_0_split_0
I0110 15:07:15.995682 30030 net.cpp:411] enet2_5_relu2_5_0_split -> enet2_5_relu2_5_0_split_1
I0110 15:07:15.995771 30030 net.cpp:150] Setting up enet2_5_relu2_5_0_split
I0110 15:07:15.995785 30030 net.cpp:157] Top shape: 4 128 47 155 (3729920)
I0110 15:07:15.995793 30030 net.cpp:157] Top shape: 4 128 47 155 (3729920)
I0110 15:07:15.995798 30030 net.cpp:165] Memory required for data: 2748951072
I0110 15:07:15.995805 30030 layer_factory.hpp:77] Creating layer enet2_6_branch2a
I0110 15:07:15.995823 30030 net.cpp:106] Creating Layer enet2_6_branch2a
I0110 15:07:15.995831 30030 net.cpp:454] enet2_6_branch2a <- enet2_5_relu2_5_0_split_0
I0110 15:07:15.995842 30030 net.cpp:411] enet2_6_branch2a -> enet2_6_branch2a
I0110 15:07:15.999680 30030 net.cpp:150] Setting up enet2_6_branch2a
I0110 15:07:15.999699 30030 net.cpp:157] Top shape: 4 32 47 155 (932480)
I0110 15:07:15.999706 30030 net.cpp:165] Memory required for data: 2752680992
I0110 15:07:15.999716 30030 layer_factory.hpp:77] Creating layer bn2_6_branch2a
I0110 15:07:15.999738 30030 net.cpp:106] Creating Layer bn2_6_branch2a
I0110 15:07:15.999761 30030 net.cpp:454] bn2_6_branch2a <- enet2_6_branch2a
I0110 15:07:15.999784 30030 net.cpp:397] bn2_6_branch2a -> enet2_6_branch2a (in-place)
I0110 15:07:16.000319 30030 net.cpp:150] Setting up bn2_6_branch2a
I0110 15:07:16.000334 30030 net.cpp:157] Top shape: 4 32 47 155 (932480)
I0110 15:07:16.000341 30030 net.cpp:165] Memory required for data: 2756410912
I0110 15:07:16.000351 30030 layer_factory.hpp:77] Creating layer relu2_6_branch2a
I0110 15:07:16.000362 30030 net.cpp:106] Creating Layer relu2_6_branch2a
I0110 15:07:16.000370 30030 net.cpp:454] relu2_6_branch2a <- enet2_6_branch2a
I0110 15:07:16.000382 30030 net.cpp:397] relu2_6_branch2a -> enet2_6_branch2a (in-place)
I0110 15:07:16.002007 30030 net.cpp:150] Setting up relu2_6_branch2a
I0110 15:07:16.002025 30030 net.cpp:157] Top shape: 4 32 47 155 (932480)
I0110 15:07:16.002032 30030 net.cpp:165] Memory required for data: 2760140832
I0110 15:07:16.002043 30030 layer_factory.hpp:77] Creating layer enet2_6_branch2b
I0110 15:07:16.002069 30030 net.cpp:106] Creating Layer enet2_6_branch2b
I0110 15:07:16.002077 30030 net.cpp:454] enet2_6_branch2b <- enet2_6_branch2a
I0110 15:07:16.002089 30030 net.cpp:411] enet2_6_branch2b -> enet2_6_branch2b
I0110 15:07:16.002879 30030 net.cpp:150] Setting up enet2_6_branch2b
I0110 15:07:16.002894 30030 net.cpp:157] Top shape: 4 32 47 155 (932480)
I0110 15:07:16.002902 30030 net.cpp:165] Memory required for data: 2763870752
I0110 15:07:16.002912 30030 layer_factory.hpp:77] Creating layer bn2_6_branch2b
I0110 15:07:16.002928 30030 net.cpp:106] Creating Layer bn2_6_branch2b
I0110 15:07:16.002935 30030 net.cpp:454] bn2_6_branch2b <- enet2_6_branch2b
I0110 15:07:16.002954 30030 net.cpp:397] bn2_6_branch2b -> enet2_6_branch2b (in-place)
I0110 15:07:16.003482 30030 net.cpp:150] Setting up bn2_6_branch2b
I0110 15:07:16.003496 30030 net.cpp:157] Top shape: 4 32 47 155 (932480)
I0110 15:07:16.003504 30030 net.cpp:165] Memory required for data: 2767600672
I0110 15:07:16.003514 30030 layer_factory.hpp:77] Creating layer relu2_6_branch2b
I0110 15:07:16.003527 30030 net.cpp:106] Creating Layer relu2_6_branch2b
I0110 15:07:16.003535 30030 net.cpp:454] relu2_6_branch2b <- enet2_6_branch2b
I0110 15:07:16.003545 30030 net.cpp:397] relu2_6_branch2b -> enet2_6_branch2b (in-place)
I0110 15:07:16.005158 30030 net.cpp:150] Setting up relu2_6_branch2b
I0110 15:07:16.005175 30030 net.cpp:157] Top shape: 4 32 47 155 (932480)
I0110 15:07:16.005182 30030 net.cpp:165] Memory required for data: 2771330592
I0110 15:07:16.005192 30030 layer_factory.hpp:77] Creating layer enet2_6_branch2c
I0110 15:07:16.005210 30030 net.cpp:106] Creating Layer enet2_6_branch2c
I0110 15:07:16.005218 30030 net.cpp:454] enet2_6_branch2c <- enet2_6_branch2b
I0110 15:07:16.005233 30030 net.cpp:411] enet2_6_branch2c -> enet2_6_branch2c
I0110 15:07:16.008983 30030 net.cpp:150] Setting up enet2_6_branch2c
I0110 15:07:16.009008 30030 net.cpp:157] Top shape: 4 128 47 155 (3729920)
I0110 15:07:16.009016 30030 net.cpp:165] Memory required for data: 2786250272
I0110 15:07:16.009027 30030 layer_factory.hpp:77] Creating layer bn2_6_branch2c
I0110 15:07:16.009045 30030 net.cpp:106] Creating Layer bn2_6_branch2c
I0110 15:07:16.009058 30030 net.cpp:454] bn2_6_branch2c <- enet2_6_branch2c
I0110 15:07:16.009073 30030 net.cpp:397] bn2_6_branch2c -> enet2_6_branch2c (in-place)
I0110 15:07:16.009600 30030 net.cpp:150] Setting up bn2_6_branch2c
I0110 15:07:16.009614 30030 net.cpp:157] Top shape: 4 128 47 155 (3729920)
I0110 15:07:16.009621 30030 net.cpp:165] Memory required for data: 2801169952
I0110 15:07:16.009632 30030 layer_factory.hpp:77] Creating layer dropout2_6_branch2c
I0110 15:07:16.009644 30030 net.cpp:106] Creating Layer dropout2_6_branch2c
I0110 15:07:16.009651 30030 net.cpp:454] dropout2_6_branch2c <- enet2_6_branch2c
I0110 15:07:16.009663 30030 net.cpp:397] dropout2_6_branch2c -> enet2_6_branch2c (in-place)
I0110 15:07:16.009721 30030 net.cpp:150] Setting up dropout2_6_branch2c
I0110 15:07:16.009735 30030 net.cpp:157] Top shape: 4 128 47 155 (3729920)
I0110 15:07:16.009762 30030 net.cpp:165] Memory required for data: 2816089632
I0110 15:07:16.009784 30030 layer_factory.hpp:77] Creating layer enet2_6
I0110 15:07:16.009796 30030 net.cpp:106] Creating Layer enet2_6
I0110 15:07:16.009804 30030 net.cpp:454] enet2_6 <- enet2_5_relu2_5_0_split_1
I0110 15:07:16.009812 30030 net.cpp:454] enet2_6 <- enet2_6_branch2c
I0110 15:07:16.009820 30030 net.cpp:411] enet2_6 -> enet2_6
I0110 15:07:16.009883 30030 net.cpp:150] Setting up enet2_6
I0110 15:07:16.009896 30030 net.cpp:157] Top shape: 4 128 47 155 (3729920)
I0110 15:07:16.009902 30030 net.cpp:165] Memory required for data: 2831009312
I0110 15:07:16.009909 30030 layer_factory.hpp:77] Creating layer relu2_6
I0110 15:07:16.009923 30030 net.cpp:106] Creating Layer relu2_6
I0110 15:07:16.009930 30030 net.cpp:454] relu2_6 <- enet2_6
I0110 15:07:16.009939 30030 net.cpp:397] relu2_6 -> enet2_6 (in-place)
I0110 15:07:16.016579 30030 net.cpp:150] Setting up relu2_6
I0110 15:07:16.016598 30030 net.cpp:157] Top shape: 4 128 47 155 (3729920)
I0110 15:07:16.016604 30030 net.cpp:165] Memory required for data: 2845928992
I0110 15:07:16.016615 30030 layer_factory.hpp:77] Creating layer enet2_6_relu2_6_0_split
I0110 15:07:16.016628 30030 net.cpp:106] Creating Layer enet2_6_relu2_6_0_split
I0110 15:07:16.016634 30030 net.cpp:454] enet2_6_relu2_6_0_split <- enet2_6
I0110 15:07:16.016644 30030 net.cpp:411] enet2_6_relu2_6_0_split -> enet2_6_relu2_6_0_split_0
I0110 15:07:16.016659 30030 net.cpp:411] enet2_6_relu2_6_0_split -> enet2_6_relu2_6_0_split_1
I0110 15:07:16.016753 30030 net.cpp:150] Setting up enet2_6_relu2_6_0_split
I0110 15:07:16.016767 30030 net.cpp:157] Top shape: 4 128 47 155 (3729920)
I0110 15:07:16.016774 30030 net.cpp:157] Top shape: 4 128 47 155 (3729920)
I0110 15:07:16.016780 30030 net.cpp:165] Memory required for data: 2875768352
I0110 15:07:16.016788 30030 layer_factory.hpp:77] Creating layer enet2_7_branch2a
I0110 15:07:16.016808 30030 net.cpp:106] Creating Layer enet2_7_branch2a
I0110 15:07:16.016815 30030 net.cpp:454] enet2_7_branch2a <- enet2_6_relu2_6_0_split_0
I0110 15:07:16.016826 30030 net.cpp:411] enet2_7_branch2a -> enet2_7_branch2a
I0110 15:07:16.020679 30030 net.cpp:150] Setting up enet2_7_branch2a
I0110 15:07:16.020697 30030 net.cpp:157] Top shape: 4 32 47 155 (932480)
I0110 15:07:16.020704 30030 net.cpp:165] Memory required for data: 2879498272
I0110 15:07:16.020714 30030 layer_factory.hpp:77] Creating layer bn2_7_branch2a
I0110 15:07:16.020733 30030 net.cpp:106] Creating Layer bn2_7_branch2a
I0110 15:07:16.020741 30030 net.cpp:454] bn2_7_branch2a <- enet2_7_branch2a
I0110 15:07:16.020751 30030 net.cpp:397] bn2_7_branch2a -> enet2_7_branch2a (in-place)
I0110 15:07:16.021311 30030 net.cpp:150] Setting up bn2_7_branch2a
I0110 15:07:16.021327 30030 net.cpp:157] Top shape: 4 32 47 155 (932480)
I0110 15:07:16.021332 30030 net.cpp:165] Memory required for data: 2883228192
I0110 15:07:16.021343 30030 layer_factory.hpp:77] Creating layer relu2_7_branch2a
I0110 15:07:16.021353 30030 net.cpp:106] Creating Layer relu2_7_branch2a
I0110 15:07:16.021360 30030 net.cpp:454] relu2_7_branch2a <- enet2_7_branch2a
I0110 15:07:16.021373 30030 net.cpp:397] relu2_7_branch2a -> enet2_7_branch2a (in-place)
I0110 15:07:16.022725 30030 net.cpp:150] Setting up relu2_7_branch2a
I0110 15:07:16.022742 30030 net.cpp:157] Top shape: 4 32 47 155 (932480)
I0110 15:07:16.022748 30030 net.cpp:165] Memory required for data: 2886958112
I0110 15:07:16.022758 30030 layer_factory.hpp:77] Creating layer enet2_7_branch2b1
I0110 15:07:16.022778 30030 net.cpp:106] Creating Layer enet2_7_branch2b1
I0110 15:07:16.022786 30030 net.cpp:454] enet2_7_branch2b1 <- enet2_7_branch2a
I0110 15:07:16.022799 30030 net.cpp:411] enet2_7_branch2b1 -> enet2_7_branch2b1
I0110 15:07:16.026595 30030 net.cpp:150] Setting up enet2_7_branch2b1
I0110 15:07:16.026617 30030 net.cpp:157] Top shape: 4 32 47 155 (932480)
I0110 15:07:16.026624 30030 net.cpp:165] Memory required for data: 2890688032
I0110 15:07:16.026633 30030 layer_factory.hpp:77] Creating layer enet2_7_branch2b
I0110 15:07:16.026664 30030 net.cpp:106] Creating Layer enet2_7_branch2b
I0110 15:07:16.026682 30030 net.cpp:454] enet2_7_branch2b <- enet2_7_branch2b1
I0110 15:07:16.026695 30030 net.cpp:411] enet2_7_branch2b -> enet2_7_branch2b
I0110 15:07:16.030510 30030 net.cpp:150] Setting up enet2_7_branch2b
I0110 15:07:16.030529 30030 net.cpp:157] Top shape: 4 32 47 155 (932480)
I0110 15:07:16.030535 30030 net.cpp:165] Memory required for data: 2894417952
I0110 15:07:16.030546 30030 layer_factory.hpp:77] Creating layer bn2_7_branch2b
I0110 15:07:16.030565 30030 net.cpp:106] Creating Layer bn2_7_branch2b
I0110 15:07:16.030573 30030 net.cpp:454] bn2_7_branch2b <- enet2_7_branch2b
I0110 15:07:16.030585 30030 net.cpp:397] bn2_7_branch2b -> enet2_7_branch2b (in-place)
I0110 15:07:16.031147 30030 net.cpp:150] Setting up bn2_7_branch2b
I0110 15:07:16.031162 30030 net.cpp:157] Top shape: 4 32 47 155 (932480)
I0110 15:07:16.031168 30030 net.cpp:165] Memory required for data: 2898147872
I0110 15:07:16.031179 30030 layer_factory.hpp:77] Creating layer relu2_7_branch2b
I0110 15:07:16.031190 30030 net.cpp:106] Creating Layer relu2_7_branch2b
I0110 15:07:16.031198 30030 net.cpp:454] relu2_7_branch2b <- enet2_7_branch2b
I0110 15:07:16.031210 30030 net.cpp:397] relu2_7_branch2b -> enet2_7_branch2b (in-place)
I0110 15:07:16.032667 30030 net.cpp:150] Setting up relu2_7_branch2b
I0110 15:07:16.032685 30030 net.cpp:157] Top shape: 4 32 47 155 (932480)
I0110 15:07:16.032692 30030 net.cpp:165] Memory required for data: 2901877792
I0110 15:07:16.032701 30030 layer_factory.hpp:77] Creating layer enet2_7_branch2c
I0110 15:07:16.032722 30030 net.cpp:106] Creating Layer enet2_7_branch2c
I0110 15:07:16.032730 30030 net.cpp:454] enet2_7_branch2c <- enet2_7_branch2b
I0110 15:07:16.032742 30030 net.cpp:411] enet2_7_branch2c -> enet2_7_branch2c
I0110 15:07:16.036705 30030 net.cpp:150] Setting up enet2_7_branch2c
I0110 15:07:16.036725 30030 net.cpp:157] Top shape: 4 128 47 155 (3729920)
I0110 15:07:16.036732 30030 net.cpp:165] Memory required for data: 2916797472
I0110 15:07:16.036741 30030 layer_factory.hpp:77] Creating layer bn2_7_branch2c
I0110 15:07:16.036759 30030 net.cpp:106] Creating Layer bn2_7_branch2c
I0110 15:07:16.036767 30030 net.cpp:454] bn2_7_branch2c <- enet2_7_branch2c
I0110 15:07:16.036782 30030 net.cpp:397] bn2_7_branch2c -> enet2_7_branch2c (in-place)
I0110 15:07:16.037374 30030 net.cpp:150] Setting up bn2_7_branch2c
I0110 15:07:16.037389 30030 net.cpp:157] Top shape: 4 128 47 155 (3729920)
I0110 15:07:16.037396 30030 net.cpp:165] Memory required for data: 2931717152
I0110 15:07:16.037406 30030 layer_factory.hpp:77] Creating layer dropout2_7_branch2c
I0110 15:07:16.037418 30030 net.cpp:106] Creating Layer dropout2_7_branch2c
I0110 15:07:16.037425 30030 net.cpp:454] dropout2_7_branch2c <- enet2_7_branch2c
I0110 15:07:16.037434 30030 net.cpp:397] dropout2_7_branch2c -> enet2_7_branch2c (in-place)
I0110 15:07:16.037499 30030 net.cpp:150] Setting up dropout2_7_branch2c
I0110 15:07:16.037513 30030 net.cpp:157] Top shape: 4 128 47 155 (3729920)
I0110 15:07:16.037519 30030 net.cpp:165] Memory required for data: 2946636832
I0110 15:07:16.037526 30030 layer_factory.hpp:77] Creating layer enet2_7
I0110 15:07:16.037536 30030 net.cpp:106] Creating Layer enet2_7
I0110 15:07:16.037544 30030 net.cpp:454] enet2_7 <- enet2_6_relu2_6_0_split_1
I0110 15:07:16.037552 30030 net.cpp:454] enet2_7 <- enet2_7_branch2c
I0110 15:07:16.037561 30030 net.cpp:411] enet2_7 -> enet2_7
I0110 15:07:16.037624 30030 net.cpp:150] Setting up enet2_7
I0110 15:07:16.037638 30030 net.cpp:157] Top shape: 4 128 47 155 (3729920)
I0110 15:07:16.037644 30030 net.cpp:165] Memory required for data: 2961556512
I0110 15:07:16.037652 30030 layer_factory.hpp:77] Creating layer relu2_7
I0110 15:07:16.037660 30030 net.cpp:106] Creating Layer relu2_7
I0110 15:07:16.037667 30030 net.cpp:454] relu2_7 <- enet2_7
I0110 15:07:16.037680 30030 net.cpp:397] relu2_7 -> enet2_7 (in-place)
I0110 15:07:16.043779 30030 net.cpp:150] Setting up relu2_7
I0110 15:07:16.043817 30030 net.cpp:157] Top shape: 4 128 47 155 (3729920)
I0110 15:07:16.043841 30030 net.cpp:165] Memory required for data: 2976476192
I0110 15:07:16.043869 30030 layer_factory.hpp:77] Creating layer enet2_7_relu2_7_0_split
I0110 15:07:16.043889 30030 net.cpp:106] Creating Layer enet2_7_relu2_7_0_split
I0110 15:07:16.043898 30030 net.cpp:454] enet2_7_relu2_7_0_split <- enet2_7
I0110 15:07:16.043911 30030 net.cpp:411] enet2_7_relu2_7_0_split -> enet2_7_relu2_7_0_split_0
I0110 15:07:16.043927 30030 net.cpp:411] enet2_7_relu2_7_0_split -> enet2_7_relu2_7_0_split_1
I0110 15:07:16.044037 30030 net.cpp:150] Setting up enet2_7_relu2_7_0_split
I0110 15:07:16.044055 30030 net.cpp:157] Top shape: 4 128 47 155 (3729920)
I0110 15:07:16.044064 30030 net.cpp:157] Top shape: 4 128 47 155 (3729920)
I0110 15:07:16.044070 30030 net.cpp:165] Memory required for data: 3006315552
I0110 15:07:16.044076 30030 layer_factory.hpp:77] Creating layer enet2_8_branch2a
I0110 15:07:16.044098 30030 net.cpp:106] Creating Layer enet2_8_branch2a
I0110 15:07:16.044106 30030 net.cpp:454] enet2_8_branch2a <- enet2_7_relu2_7_0_split_0
I0110 15:07:16.044117 30030 net.cpp:411] enet2_8_branch2a -> enet2_8_branch2a
I0110 15:07:16.049506 30030 net.cpp:150] Setting up enet2_8_branch2a
I0110 15:07:16.049526 30030 net.cpp:157] Top shape: 4 32 47 155 (932480)
I0110 15:07:16.049535 30030 net.cpp:165] Memory required for data: 3010045472
I0110 15:07:16.049545 30030 layer_factory.hpp:77] Creating layer bn2_8_branch2a
I0110 15:07:16.049563 30030 net.cpp:106] Creating Layer bn2_8_branch2a
I0110 15:07:16.049572 30030 net.cpp:454] bn2_8_branch2a <- enet2_8_branch2a
I0110 15:07:16.049587 30030 net.cpp:397] bn2_8_branch2a -> enet2_8_branch2a (in-place)
I0110 15:07:16.050207 30030 net.cpp:150] Setting up bn2_8_branch2a
I0110 15:07:16.050222 30030 net.cpp:157] Top shape: 4 32 47 155 (932480)
I0110 15:07:16.050230 30030 net.cpp:165] Memory required for data: 3013775392
I0110 15:07:16.050240 30030 layer_factory.hpp:77] Creating layer relu2_8_branch2a
I0110 15:07:16.050251 30030 net.cpp:106] Creating Layer relu2_8_branch2a
I0110 15:07:16.050258 30030 net.cpp:454] relu2_8_branch2a <- enet2_8_branch2a
I0110 15:07:16.050266 30030 net.cpp:397] relu2_8_branch2a -> enet2_8_branch2a (in-place)
I0110 15:07:16.051776 30030 net.cpp:150] Setting up relu2_8_branch2a
I0110 15:07:16.051793 30030 net.cpp:157] Top shape: 4 32 47 155 (932480)
I0110 15:07:16.051800 30030 net.cpp:165] Memory required for data: 3017505312
I0110 15:07:16.051810 30030 layer_factory.hpp:77] Creating layer enet2_8_branch2b
I0110 15:07:16.051828 30030 net.cpp:106] Creating Layer enet2_8_branch2b
I0110 15:07:16.051836 30030 net.cpp:454] enet2_8_branch2b <- enet2_8_branch2a
I0110 15:07:16.051849 30030 net.cpp:411] enet2_8_branch2b -> enet2_8_branch2b
I0110 15:07:16.053562 30030 net.cpp:150] Setting up enet2_8_branch2b
I0110 15:07:16.053578 30030 net.cpp:157] Top shape: 4 32 47 155 (932480)
I0110 15:07:16.053586 30030 net.cpp:165] Memory required for data: 3021235232
I0110 15:07:16.053596 30030 layer_factory.hpp:77] Creating layer bn2_8_branch2b
I0110 15:07:16.053612 30030 net.cpp:106] Creating Layer bn2_8_branch2b
I0110 15:07:16.053620 30030 net.cpp:454] bn2_8_branch2b <- enet2_8_branch2b
I0110 15:07:16.053633 30030 net.cpp:397] bn2_8_branch2b -> enet2_8_branch2b (in-place)
I0110 15:07:16.054203 30030 net.cpp:150] Setting up bn2_8_branch2b
I0110 15:07:16.054217 30030 net.cpp:157] Top shape: 4 32 47 155 (932480)
I0110 15:07:16.054224 30030 net.cpp:165] Memory required for data: 3024965152
I0110 15:07:16.054234 30030 layer_factory.hpp:77] Creating layer relu2_8_branch2b
I0110 15:07:16.054246 30030 net.cpp:106] Creating Layer relu2_8_branch2b
I0110 15:07:16.054255 30030 net.cpp:454] relu2_8_branch2b <- enet2_8_branch2b
I0110 15:07:16.054263 30030 net.cpp:397] relu2_8_branch2b -> enet2_8_branch2b (in-place)
I0110 15:07:16.055588 30030 net.cpp:150] Setting up relu2_8_branch2b
I0110 15:07:16.055603 30030 net.cpp:157] Top shape: 4 32 47 155 (932480)
I0110 15:07:16.055609 30030 net.cpp:165] Memory required for data: 3028695072
I0110 15:07:16.055619 30030 layer_factory.hpp:77] Creating layer enet2_8_branch2c
I0110 15:07:16.055649 30030 net.cpp:106] Creating Layer enet2_8_branch2c
I0110 15:07:16.055668 30030 net.cpp:454] enet2_8_branch2c <- enet2_8_branch2b
I0110 15:07:16.055682 30030 net.cpp:411] enet2_8_branch2c -> enet2_8_branch2c
I0110 15:07:16.059864 30030 net.cpp:150] Setting up enet2_8_branch2c
I0110 15:07:16.059885 30030 net.cpp:157] Top shape: 4 128 47 155 (3729920)
I0110 15:07:16.059892 30030 net.cpp:165] Memory required for data: 3043614752
I0110 15:07:16.059902 30030 layer_factory.hpp:77] Creating layer bn2_8_branch2c
I0110 15:07:16.059917 30030 net.cpp:106] Creating Layer bn2_8_branch2c
I0110 15:07:16.059926 30030 net.cpp:454] bn2_8_branch2c <- enet2_8_branch2c
I0110 15:07:16.059937 30030 net.cpp:397] bn2_8_branch2c -> enet2_8_branch2c (in-place)
I0110 15:07:16.060510 30030 net.cpp:150] Setting up bn2_8_branch2c
I0110 15:07:16.060524 30030 net.cpp:157] Top shape: 4 128 47 155 (3729920)
I0110 15:07:16.060531 30030 net.cpp:165] Memory required for data: 3058534432
I0110 15:07:16.060541 30030 layer_factory.hpp:77] Creating layer dropout2_8_branch2c
I0110 15:07:16.060552 30030 net.cpp:106] Creating Layer dropout2_8_branch2c
I0110 15:07:16.060559 30030 net.cpp:454] dropout2_8_branch2c <- enet2_8_branch2c
I0110 15:07:16.060569 30030 net.cpp:397] dropout2_8_branch2c -> enet2_8_branch2c (in-place)
I0110 15:07:16.060634 30030 net.cpp:150] Setting up dropout2_8_branch2c
I0110 15:07:16.060647 30030 net.cpp:157] Top shape: 4 128 47 155 (3729920)
I0110 15:07:16.060654 30030 net.cpp:165] Memory required for data: 3073454112
I0110 15:07:16.060660 30030 layer_factory.hpp:77] Creating layer enet2_8
I0110 15:07:16.060672 30030 net.cpp:106] Creating Layer enet2_8
I0110 15:07:16.060678 30030 net.cpp:454] enet2_8 <- enet2_7_relu2_7_0_split_1
I0110 15:07:16.060686 30030 net.cpp:454] enet2_8 <- enet2_8_branch2c
I0110 15:07:16.060698 30030 net.cpp:411] enet2_8 -> enet2_8
I0110 15:07:16.060760 30030 net.cpp:150] Setting up enet2_8
I0110 15:07:16.060776 30030 net.cpp:157] Top shape: 4 128 47 155 (3729920)
I0110 15:07:16.060783 30030 net.cpp:165] Memory required for data: 3088373792
I0110 15:07:16.060789 30030 layer_factory.hpp:77] Creating layer relu2_8
I0110 15:07:16.060806 30030 net.cpp:106] Creating Layer relu2_8
I0110 15:07:16.060813 30030 net.cpp:454] relu2_8 <- enet2_8
I0110 15:07:16.060825 30030 net.cpp:397] relu2_8 -> enet2_8 (in-place)
I0110 15:07:16.066081 30030 net.cpp:150] Setting up relu2_8
I0110 15:07:16.066102 30030 net.cpp:157] Top shape: 4 128 47 155 (3729920)
I0110 15:07:16.066108 30030 net.cpp:165] Memory required for data: 3103293472
I0110 15:07:16.066118 30030 layer_factory.hpp:77] Creating layer enet2_8_relu2_8_0_split
I0110 15:07:16.066130 30030 net.cpp:106] Creating Layer enet2_8_relu2_8_0_split
I0110 15:07:16.066141 30030 net.cpp:454] enet2_8_relu2_8_0_split <- enet2_8
I0110 15:07:16.066151 30030 net.cpp:411] enet2_8_relu2_8_0_split -> enet2_8_relu2_8_0_split_0
I0110 15:07:16.066164 30030 net.cpp:411] enet2_8_relu2_8_0_split -> enet2_8_relu2_8_0_split_1
I0110 15:07:16.066269 30030 net.cpp:150] Setting up enet2_8_relu2_8_0_split
I0110 15:07:16.066282 30030 net.cpp:157] Top shape: 4 128 47 155 (3729920)
I0110 15:07:16.066290 30030 net.cpp:157] Top shape: 4 128 47 155 (3729920)
I0110 15:07:16.066296 30030 net.cpp:165] Memory required for data: 3133132832
I0110 15:07:16.066303 30030 layer_factory.hpp:77] Creating layer enet3_1_branch2a
I0110 15:07:16.066321 30030 net.cpp:106] Creating Layer enet3_1_branch2a
I0110 15:07:16.066330 30030 net.cpp:454] enet3_1_branch2a <- enet2_8_relu2_8_0_split_0
I0110 15:07:16.066341 30030 net.cpp:411] enet3_1_branch2a -> enet3_1_branch2a
I0110 15:07:16.071075 30030 net.cpp:150] Setting up enet3_1_branch2a
I0110 15:07:16.071096 30030 net.cpp:157] Top shape: 4 32 47 155 (932480)
I0110 15:07:16.071105 30030 net.cpp:165] Memory required for data: 3136862752
I0110 15:07:16.071113 30030 layer_factory.hpp:77] Creating layer bn3_1_branch2a
I0110 15:07:16.071131 30030 net.cpp:106] Creating Layer bn3_1_branch2a
I0110 15:07:16.071141 30030 net.cpp:454] bn3_1_branch2a <- enet3_1_branch2a
I0110 15:07:16.071173 30030 net.cpp:397] bn3_1_branch2a -> enet3_1_branch2a (in-place)
I0110 15:07:16.071818 30030 net.cpp:150] Setting up bn3_1_branch2a
I0110 15:07:16.071833 30030 net.cpp:157] Top shape: 4 32 47 155 (932480)
I0110 15:07:16.071840 30030 net.cpp:165] Memory required for data: 3140592672
I0110 15:07:16.071851 30030 layer_factory.hpp:77] Creating layer relu3_1_branch2a
I0110 15:07:16.071861 30030 net.cpp:106] Creating Layer relu3_1_branch2a
I0110 15:07:16.071868 30030 net.cpp:454] relu3_1_branch2a <- enet3_1_branch2a
I0110 15:07:16.071877 30030 net.cpp:397] relu3_1_branch2a -> enet3_1_branch2a (in-place)
I0110 15:07:16.073488 30030 net.cpp:150] Setting up relu3_1_branch2a
I0110 15:07:16.073506 30030 net.cpp:157] Top shape: 4 32 47 155 (932480)
I0110 15:07:16.073513 30030 net.cpp:165] Memory required for data: 3144322592
I0110 15:07:16.073523 30030 layer_factory.hpp:77] Creating layer enet3_1_branch2b
I0110 15:07:16.073549 30030 net.cpp:106] Creating Layer enet3_1_branch2b
I0110 15:07:16.073557 30030 net.cpp:454] enet3_1_branch2b <- enet3_1_branch2a
I0110 15:07:16.073571 30030 net.cpp:411] enet3_1_branch2b -> enet3_1_branch2b
I0110 15:07:16.077677 30030 net.cpp:150] Setting up enet3_1_branch2b
I0110 15:07:16.077705 30030 net.cpp:157] Top shape: 4 32 47 155 (932480)
I0110 15:07:16.077713 30030 net.cpp:165] Memory required for data: 3148052512
I0110 15:07:16.077725 30030 layer_factory.hpp:77] Creating layer bn3_1_branch2b
I0110 15:07:16.077740 30030 net.cpp:106] Creating Layer bn3_1_branch2b
I0110 15:07:16.077749 30030 net.cpp:454] bn3_1_branch2b <- enet3_1_branch2b
I0110 15:07:16.077769 30030 net.cpp:397] bn3_1_branch2b -> enet3_1_branch2b (in-place)
I0110 15:07:16.078393 30030 net.cpp:150] Setting up bn3_1_branch2b
I0110 15:07:16.078408 30030 net.cpp:157] Top shape: 4 32 47 155 (932480)
I0110 15:07:16.078414 30030 net.cpp:165] Memory required for data: 3151782432
I0110 15:07:16.078425 30030 layer_factory.hpp:77] Creating layer relu3_1_branch2b
I0110 15:07:16.078440 30030 net.cpp:106] Creating Layer relu3_1_branch2b
I0110 15:07:16.078449 30030 net.cpp:454] relu3_1_branch2b <- enet3_1_branch2b
I0110 15:07:16.078457 30030 net.cpp:397] relu3_1_branch2b -> enet3_1_branch2b (in-place)
I0110 15:07:16.081449 30030 net.cpp:150] Setting up relu3_1_branch2b
I0110 15:07:16.081466 30030 net.cpp:157] Top shape: 4 32 47 155 (932480)
I0110 15:07:16.081473 30030 net.cpp:165] Memory required for data: 3155512352
I0110 15:07:16.081483 30030 layer_factory.hpp:77] Creating layer enet3_1_branch2c
I0110 15:07:16.081503 30030 net.cpp:106] Creating Layer enet3_1_branch2c
I0110 15:07:16.081511 30030 net.cpp:454] enet3_1_branch2c <- enet3_1_branch2b
I0110 15:07:16.081526 30030 net.cpp:411] enet3_1_branch2c -> enet3_1_branch2c
I0110 15:07:16.088651 30030 net.cpp:150] Setting up enet3_1_branch2c
I0110 15:07:16.088672 30030 net.cpp:157] Top shape: 4 128 47 155 (3729920)
I0110 15:07:16.088680 30030 net.cpp:165] Memory required for data: 3170432032
I0110 15:07:16.088690 30030 layer_factory.hpp:77] Creating layer bn3_1_branch2c
I0110 15:07:16.088707 30030 net.cpp:106] Creating Layer bn3_1_branch2c
I0110 15:07:16.088716 30030 net.cpp:454] bn3_1_branch2c <- enet3_1_branch2c
I0110 15:07:16.088731 30030 net.cpp:397] bn3_1_branch2c -> enet3_1_branch2c (in-place)
I0110 15:07:16.089349 30030 net.cpp:150] Setting up bn3_1_branch2c
I0110 15:07:16.089365 30030 net.cpp:157] Top shape: 4 128 47 155 (3729920)
I0110 15:07:16.089370 30030 net.cpp:165] Memory required for data: 3185351712
I0110 15:07:16.089381 30030 layer_factory.hpp:77] Creating layer dropout3_1_branch2c
I0110 15:07:16.089395 30030 net.cpp:106] Creating Layer dropout3_1_branch2c
I0110 15:07:16.089403 30030 net.cpp:454] dropout3_1_branch2c <- enet3_1_branch2c
I0110 15:07:16.089412 30030 net.cpp:397] dropout3_1_branch2c -> enet3_1_branch2c (in-place)
I0110 15:07:16.089476 30030 net.cpp:150] Setting up dropout3_1_branch2c
I0110 15:07:16.089489 30030 net.cpp:157] Top shape: 4 128 47 155 (3729920)
I0110 15:07:16.089495 30030 net.cpp:165] Memory required for data: 3200271392
I0110 15:07:16.089519 30030 layer_factory.hpp:77] Creating layer enet3_1
I0110 15:07:16.089548 30030 net.cpp:106] Creating Layer enet3_1
I0110 15:07:16.089556 30030 net.cpp:454] enet3_1 <- enet2_8_relu2_8_0_split_1
I0110 15:07:16.089565 30030 net.cpp:454] enet3_1 <- enet3_1_branch2c
I0110 15:07:16.089577 30030 net.cpp:411] enet3_1 -> enet3_1
I0110 15:07:16.089648 30030 net.cpp:150] Setting up enet3_1
I0110 15:07:16.089661 30030 net.cpp:157] Top shape: 4 128 47 155 (3729920)
I0110 15:07:16.089668 30030 net.cpp:165] Memory required for data: 3215191072
I0110 15:07:16.089674 30030 layer_factory.hpp:77] Creating layer relu3_1
I0110 15:07:16.089684 30030 net.cpp:106] Creating Layer relu3_1
I0110 15:07:16.089690 30030 net.cpp:454] relu3_1 <- enet3_1
I0110 15:07:16.089702 30030 net.cpp:397] relu3_1 -> enet3_1 (in-place)
I0110 15:07:16.094594 30030 net.cpp:150] Setting up relu3_1
I0110 15:07:16.094610 30030 net.cpp:157] Top shape: 4 128 47 155 (3729920)
I0110 15:07:16.094617 30030 net.cpp:165] Memory required for data: 3230110752
I0110 15:07:16.094627 30030 layer_factory.hpp:77] Creating layer enet3_1_relu3_1_0_split
I0110 15:07:16.094638 30030 net.cpp:106] Creating Layer enet3_1_relu3_1_0_split
I0110 15:07:16.094645 30030 net.cpp:454] enet3_1_relu3_1_0_split <- enet3_1
I0110 15:07:16.094658 30030 net.cpp:411] enet3_1_relu3_1_0_split -> enet3_1_relu3_1_0_split_0
I0110 15:07:16.094671 30030 net.cpp:411] enet3_1_relu3_1_0_split -> enet3_1_relu3_1_0_split_1
I0110 15:07:16.094782 30030 net.cpp:150] Setting up enet3_1_relu3_1_0_split
I0110 15:07:16.094795 30030 net.cpp:157] Top shape: 4 128 47 155 (3729920)
I0110 15:07:16.094804 30030 net.cpp:157] Top shape: 4 128 47 155 (3729920)
I0110 15:07:16.094810 30030 net.cpp:165] Memory required for data: 3259950112
I0110 15:07:16.094816 30030 layer_factory.hpp:77] Creating layer enet3_2_branch2a
I0110 15:07:16.094831 30030 net.cpp:106] Creating Layer enet3_2_branch2a
I0110 15:07:16.094838 30030 net.cpp:454] enet3_2_branch2a <- enet3_1_relu3_1_0_split_0
I0110 15:07:16.094849 30030 net.cpp:411] enet3_2_branch2a -> enet3_2_branch2a
I0110 15:07:16.098660 30030 net.cpp:150] Setting up enet3_2_branch2a
I0110 15:07:16.098678 30030 net.cpp:157] Top shape: 4 32 47 155 (932480)
I0110 15:07:16.098685 30030 net.cpp:165] Memory required for data: 3263680032
I0110 15:07:16.098695 30030 layer_factory.hpp:77] Creating layer bn3_2_branch2a
I0110 15:07:16.098712 30030 net.cpp:106] Creating Layer bn3_2_branch2a
I0110 15:07:16.098721 30030 net.cpp:454] bn3_2_branch2a <- enet3_2_branch2a
I0110 15:07:16.098731 30030 net.cpp:397] bn3_2_branch2a -> enet3_2_branch2a (in-place)
I0110 15:07:16.099390 30030 net.cpp:150] Setting up bn3_2_branch2a
I0110 15:07:16.099405 30030 net.cpp:157] Top shape: 4 32 47 155 (932480)
I0110 15:07:16.099411 30030 net.cpp:165] Memory required for data: 3267409952
I0110 15:07:16.099421 30030 layer_factory.hpp:77] Creating layer relu3_2_branch2a
I0110 15:07:16.099431 30030 net.cpp:106] Creating Layer relu3_2_branch2a
I0110 15:07:16.099438 30030 net.cpp:454] relu3_2_branch2a <- enet3_2_branch2a
I0110 15:07:16.099450 30030 net.cpp:397] relu3_2_branch2a -> enet3_2_branch2a (in-place)
I0110 15:07:16.100926 30030 net.cpp:150] Setting up relu3_2_branch2a
I0110 15:07:16.100942 30030 net.cpp:157] Top shape: 4 32 47 155 (932480)
I0110 15:07:16.100950 30030 net.cpp:165] Memory required for data: 3271139872
I0110 15:07:16.100958 30030 layer_factory.hpp:77] Creating layer enet3_2_branch2b
I0110 15:07:16.100977 30030 net.cpp:106] Creating Layer enet3_2_branch2b
I0110 15:07:16.100986 30030 net.cpp:454] enet3_2_branch2b <- enet3_2_branch2a
I0110 15:07:16.100996 30030 net.cpp:411] enet3_2_branch2b -> enet3_2_branch2b
I0110 15:07:16.101918 30030 net.cpp:150] Setting up enet3_2_branch2b
I0110 15:07:16.101936 30030 net.cpp:157] Top shape: 4 32 47 155 (932480)
I0110 15:07:16.101943 30030 net.cpp:165] Memory required for data: 3274869792
I0110 15:07:16.101953 30030 layer_factory.hpp:77] Creating layer bn3_2_branch2b
I0110 15:07:16.101964 30030 net.cpp:106] Creating Layer bn3_2_branch2b
I0110 15:07:16.101972 30030 net.cpp:454] bn3_2_branch2b <- enet3_2_branch2b
I0110 15:07:16.102002 30030 net.cpp:397] bn3_2_branch2b -> enet3_2_branch2b (in-place)
I0110 15:07:16.102648 30030 net.cpp:150] Setting up bn3_2_branch2b
I0110 15:07:16.102663 30030 net.cpp:157] Top shape: 4 32 47 155 (932480)
I0110 15:07:16.102669 30030 net.cpp:165] Memory required for data: 3278599712
I0110 15:07:16.102679 30030 layer_factory.hpp:77] Creating layer relu3_2_branch2b
I0110 15:07:16.102692 30030 net.cpp:106] Creating Layer relu3_2_branch2b
I0110 15:07:16.102699 30030 net.cpp:454] relu3_2_branch2b <- enet3_2_branch2b
I0110 15:07:16.102708 30030 net.cpp:397] relu3_2_branch2b -> enet3_2_branch2b (in-place)
I0110 15:07:16.104279 30030 net.cpp:150] Setting up relu3_2_branch2b
I0110 15:07:16.104296 30030 net.cpp:157] Top shape: 4 32 47 155 (932480)
I0110 15:07:16.104302 30030 net.cpp:165] Memory required for data: 3282329632
I0110 15:07:16.104312 30030 layer_factory.hpp:77] Creating layer enet3_2_branch2c
I0110 15:07:16.104331 30030 net.cpp:106] Creating Layer enet3_2_branch2c
I0110 15:07:16.104338 30030 net.cpp:454] enet3_2_branch2c <- enet3_2_branch2b
I0110 15:07:16.104352 30030 net.cpp:411] enet3_2_branch2c -> enet3_2_branch2c
I0110 15:07:16.108458 30030 net.cpp:150] Setting up enet3_2_branch2c
I0110 15:07:16.108479 30030 net.cpp:157] Top shape: 4 128 47 155 (3729920)
I0110 15:07:16.108486 30030 net.cpp:165] Memory required for data: 3297249312
I0110 15:07:16.108496 30030 layer_factory.hpp:77] Creating layer bn3_2_branch2c
I0110 15:07:16.108520 30030 net.cpp:106] Creating Layer bn3_2_branch2c
I0110 15:07:16.108528 30030 net.cpp:454] bn3_2_branch2c <- enet3_2_branch2c
I0110 15:07:16.108542 30030 net.cpp:397] bn3_2_branch2c -> enet3_2_branch2c (in-place)
I0110 15:07:16.109181 30030 net.cpp:150] Setting up bn3_2_branch2c
I0110 15:07:16.109196 30030 net.cpp:157] Top shape: 4 128 47 155 (3729920)
I0110 15:07:16.109202 30030 net.cpp:165] Memory required for data: 3312168992
I0110 15:07:16.109212 30030 layer_factory.hpp:77] Creating layer dropout3_2_branch2c
I0110 15:07:16.109225 30030 net.cpp:106] Creating Layer dropout3_2_branch2c
I0110 15:07:16.109231 30030 net.cpp:454] dropout3_2_branch2c <- enet3_2_branch2c
I0110 15:07:16.109241 30030 net.cpp:397] dropout3_2_branch2c -> enet3_2_branch2c (in-place)
I0110 15:07:16.109304 30030 net.cpp:150] Setting up dropout3_2_branch2c
I0110 15:07:16.109318 30030 net.cpp:157] Top shape: 4 128 47 155 (3729920)
I0110 15:07:16.109324 30030 net.cpp:165] Memory required for data: 3327088672
I0110 15:07:16.109330 30030 layer_factory.hpp:77] Creating layer enet3_2
I0110 15:07:16.109346 30030 net.cpp:106] Creating Layer enet3_2
I0110 15:07:16.109354 30030 net.cpp:454] enet3_2 <- enet3_1_relu3_1_0_split_1
I0110 15:07:16.109362 30030 net.cpp:454] enet3_2 <- enet3_2_branch2c
I0110 15:07:16.109371 30030 net.cpp:411] enet3_2 -> enet3_2
I0110 15:07:16.109441 30030 net.cpp:150] Setting up enet3_2
I0110 15:07:16.109453 30030 net.cpp:157] Top shape: 4 128 47 155 (3729920)
I0110 15:07:16.109459 30030 net.cpp:165] Memory required for data: 3342008352
I0110 15:07:16.109467 30030 layer_factory.hpp:77] Creating layer relu3_2
I0110 15:07:16.109488 30030 net.cpp:106] Creating Layer relu3_2
I0110 15:07:16.109495 30030 net.cpp:454] relu3_2 <- enet3_2
I0110 15:07:16.109504 30030 net.cpp:397] relu3_2 -> enet3_2 (in-place)
I0110 15:07:16.115540 30030 net.cpp:150] Setting up relu3_2
I0110 15:07:16.115578 30030 net.cpp:157] Top shape: 4 128 47 155 (3729920)
I0110 15:07:16.115586 30030 net.cpp:165] Memory required for data: 3356928032
I0110 15:07:16.115598 30030 layer_factory.hpp:77] Creating layer enet3_2_relu3_2_0_split
I0110 15:07:16.115617 30030 net.cpp:106] Creating Layer enet3_2_relu3_2_0_split
I0110 15:07:16.115627 30030 net.cpp:454] enet3_2_relu3_2_0_split <- enet3_2
I0110 15:07:16.115639 30030 net.cpp:411] enet3_2_relu3_2_0_split -> enet3_2_relu3_2_0_split_0
I0110 15:07:16.115658 30030 net.cpp:411] enet3_2_relu3_2_0_split -> enet3_2_relu3_2_0_split_1
I0110 15:07:16.115773 30030 net.cpp:150] Setting up enet3_2_relu3_2_0_split
I0110 15:07:16.115787 30030 net.cpp:157] Top shape: 4 128 47 155 (3729920)
I0110 15:07:16.115838 30030 net.cpp:157] Top shape: 4 128 47 155 (3729920)
I0110 15:07:16.115844 30030 net.cpp:165] Memory required for data: 3386767392
I0110 15:07:16.115850 30030 layer_factory.hpp:77] Creating layer enet3_3_branch2a
I0110 15:07:16.115872 30030 net.cpp:106] Creating Layer enet3_3_branch2a
I0110 15:07:16.115880 30030 net.cpp:454] enet3_3_branch2a <- enet3_2_relu3_2_0_split_0
I0110 15:07:16.115895 30030 net.cpp:411] enet3_3_branch2a -> enet3_3_branch2a
I0110 15:07:16.121552 30030 net.cpp:150] Setting up enet3_3_branch2a
I0110 15:07:16.121572 30030 net.cpp:157] Top shape: 4 32 47 155 (932480)
I0110 15:07:16.121578 30030 net.cpp:165] Memory required for data: 3390497312
I0110 15:07:16.121588 30030 layer_factory.hpp:77] Creating layer bn3_3_branch2a
I0110 15:07:16.121603 30030 net.cpp:106] Creating Layer bn3_3_branch2a
I0110 15:07:16.121611 30030 net.cpp:454] bn3_3_branch2a <- enet3_3_branch2a
I0110 15:07:16.121625 30030 net.cpp:397] bn3_3_branch2a -> enet3_3_branch2a (in-place)
I0110 15:07:16.122340 30030 net.cpp:150] Setting up bn3_3_branch2a
I0110 15:07:16.122355 30030 net.cpp:157] Top shape: 4 32 47 155 (932480)
I0110 15:07:16.122361 30030 net.cpp:165] Memory required for data: 3394227232
I0110 15:07:16.122372 30030 layer_factory.hpp:77] Creating layer relu3_3_branch2a
I0110 15:07:16.122385 30030 net.cpp:106] Creating Layer relu3_3_branch2a
I0110 15:07:16.122391 30030 net.cpp:454] relu3_3_branch2a <- enet3_3_branch2a
I0110 15:07:16.122400 30030 net.cpp:397] relu3_3_branch2a -> enet3_3_branch2a (in-place)
I0110 15:07:16.123908 30030 net.cpp:150] Setting up relu3_3_branch2a
I0110 15:07:16.123926 30030 net.cpp:157] Top shape: 4 32 47 155 (932480)
I0110 15:07:16.123934 30030 net.cpp:165] Memory required for data: 3397957152
I0110 15:07:16.123944 30030 layer_factory.hpp:77] Creating layer enet3_3_branch2b1
I0110 15:07:16.123961 30030 net.cpp:106] Creating Layer enet3_3_branch2b1
I0110 15:07:16.123970 30030 net.cpp:454] enet3_3_branch2b1 <- enet3_3_branch2a
I0110 15:07:16.123980 30030 net.cpp:411] enet3_3_branch2b1 -> enet3_3_branch2b1
I0110 15:07:16.127775 30030 net.cpp:150] Setting up enet3_3_branch2b1
I0110 15:07:16.127794 30030 net.cpp:157] Top shape: 4 32 47 155 (932480)
I0110 15:07:16.127801 30030 net.cpp:165] Memory required for data: 3401687072
I0110 15:07:16.127810 30030 layer_factory.hpp:77] Creating layer enet3_3_branch2b
I0110 15:07:16.127830 30030 net.cpp:106] Creating Layer enet3_3_branch2b
I0110 15:07:16.127837 30030 net.cpp:454] enet3_3_branch2b <- enet3_3_branch2b1
I0110 15:07:16.127851 30030 net.cpp:411] enet3_3_branch2b -> enet3_3_branch2b
I0110 15:07:16.132043 30030 net.cpp:150] Setting up enet3_3_branch2b
I0110 15:07:16.132069 30030 net.cpp:157] Top shape: 4 32 47 155 (932480)
I0110 15:07:16.132077 30030 net.cpp:165] Memory required for data: 3405416992
I0110 15:07:16.132088 30030 layer_factory.hpp:77] Creating layer bn3_3_branch2b
I0110 15:07:16.132102 30030 net.cpp:106] Creating Layer bn3_3_branch2b
I0110 15:07:16.132108 30030 net.cpp:454] bn3_3_branch2b <- enet3_3_branch2b
…
I0110 15:07:16.212442 30030 net.cpp:411] enet3_6_relu3_6_0_split -> enet3_6_relu3_6_0_split_1
I0110 15:07:16.212503 30030 net.cpp:150] Setting up enet3_6_relu3_6_0_split
I0110 15:07:16.212515 30030 net.cpp:157] Top shape: 4 128 47 155 (3729920)
I0110 15:07:16.212523 30030 net.cpp:157] Top shape: 4 128 47 155 (3729920)
I0110 15:07:16.212529 30030 net.cpp:165] Memory required for data: 3897766432
I0110 15:07:16.212537 30030 layer_factory.hpp:77] Creating layer enet3_7_branch2a
I0110 15:07:16.212558 30030 net.cpp:106] Creating Layer enet3_7_branch2a
I0110 15:07:16.212566 30030 net.cpp:454] enet3_7_branch2a <- enet3_6_relu3_6_0_split_0
I0110 15:07:16.212579 30030 net.cpp:411] enet3_7_branch2a -> enet3_7_branch2a
I0110 15:07:16.216635 30030 net.cpp:150] Setting up enet3_7_branch2a
I0110 15:07:16.216661 30030 net.cpp:157] Top shape: 4 32 47 155 (932480)
I0110 15:07:16.216668 30030 net.cpp:165] Memory required for data: 3901496352
I0110 15:07:16.216680 30030 layer_factory.hpp:77] Creating layer bn3_7_branch2a
I0110 15:07:16.216699 30030 net.cpp:106] Creating Layer bn3_7_branch2a
I0110 15:07:16.216708 30030 net.cpp:454] bn3_7_branch2a <- enet3_7_branch2a
I0110 15:07:16.216722 30030 net.cpp:397] bn3_7_branch2a -> enet3_7_branch2a (in-place)
I0110 15:07:16.217077 30030 net.cpp:150] Setting up bn3_7_branch2a
I0110 15:07:16.217090 30030 net.cpp:157] Top shape: 4 32 47 155 (932480)
I0110 15:07:16.217097 30030 net.cpp:165] Memory required for data: 3905226272
I0110 15:07:16.217108 30030 layer_factory.hpp:77] Creating layer relu3_7_branch2a
I0110 15:07:16.217119 30030 net.cpp:106] Creating Layer relu3_7_branch2a
I0110 15:07:16.217128 30030 net.cpp:454] relu3_7_branch2a <- enet3_7_branch2a
I0110 15:07:16.217136 30030 net.cpp:397] relu3_7_branch2a -> enet3_7_branch2a (in-place)
I0110 15:07:16.219460 30030 net.cpp:150] Setting up relu3_7_branch2a
I0110 15:07:16.219496 30030 net.cpp:157] Top shape: 4 32 47 155 (932480)
I0110 15:07:16.219516 30030 net.cpp:165] Memory required for data: 3908956192
I0110 15:07:16.219527 30030 layer_factory.hpp:77] Creating layer enet3_7_branch2b1
I0110 15:07:16.219738 30030 net.cpp:106] Creating Layer enet3_7_branch2b1
I0110 15:07:16.219748 30030 net.cpp:454] enet3_7_branch2b1 <- enet3_7_branch2a
I0110 15:07:16.219761 30030 net.cpp:411] enet3_7_branch2b1 -> enet3_7_branch2b1
I0110 15:07:16.223687 30030 net.cpp:150] Setting up enet3_7_branch2b1
I0110 15:07:16.223706 30030 net.cpp:157] Top shape: 4 32 47 155 (932480)
I0110 15:07:16.223712 30030 net.cpp:165] Memory required for data: 3912686112
I0110 15:07:16.223721 30030 layer_factory.hpp:77] Creating layer enet3_7_branch2b
I0110 15:07:16.223740 30030 net.cpp:106] Creating Layer enet3_7_branch2b
I0110 15:07:16.223748 30030 net.cpp:454] enet3_7_branch2b <- enet3_7_branch2b1
I0110 15:07:16.223762 30030 net.cpp:411] enet3_7_branch2b -> enet3_7_branch2b
I0110 15:07:16.227496 30030 net.cpp:150] Setting up enet3_7_branch2b
I0110 15:07:16.227514 30030 net.cpp:157] Top shape: 4 32 47 155 (932480)
I0110 15:07:16.227521 30030 net.cpp:165] Memory required for data: 3916416032
I0110 15:07:16.227532 30030 layer_factory.hpp:77] Creating layer bn3_7_branch2b
I0110 15:07:16.227550 30030 net.cpp:106] Creating Layer bn3_7_branch2b
I0110 15:07:16.227557 30030 net.cpp:454] bn3_7_branch2b <- enet3_7_branch2b
I0110 15:07:16.227567 30030 net.cpp:397] bn3_7_branch2b -> enet3_7_branch2b (in-place)
I0110 15:07:16.227887 30030 net.cpp:150] Setting up bn3_7_branch2b
I0110 15:07:16.227901 30030 net.cpp:157] Top shape: 4 32 47 155 (932480)
I0110 15:07:16.227908 30030 net.cpp:165] Memory required for data: 3920145952
I0110 15:07:16.227918 30030 layer_factory.hpp:77] Creating layer relu3_7_branch2b
I0110 15:07:16.227929 30030 net.cpp:106] Creating Layer relu3_7_branch2b
I0110 15:07:16.227936 30030 net.cpp:454] relu3_7_branch2b <- enet3_7_branch2b
I0110 15:07:16.227946 30030 net.cpp:397] relu3_7_branch2b -> enet3_7_branch2b (in-place)
I0110 15:07:16.229219 30030 net.cpp:150] Setting up relu3_7_branch2b
I0110 15:07:16.229236 30030 net.cpp:157] Top shape: 4 32 47 155 (932480)
I0110 15:07:16.229243 30030 net.cpp:165] Memory required for data: 3923875872
I0110 15:07:16.229252 30030 layer_factory.hpp:77] Creating layer enet3_7_branch2c
I0110 15:07:16.229270 30030 net.cpp:106] Creating Layer enet3_7_branch2c
I0110 15:07:16.229279 30030 net.cpp:454] enet3_7_branch2c <- enet3_7_branch2b
I0110 15:07:16.229290 30030 net.cpp:411] enet3_7_branch2c -> enet3_7_branch2c
I0110 15:07:16.233129 30030 net.cpp:150] Setting up enet3_7_branch2c
I0110 15:07:16.233146 30030 net.cpp:157] Top shape: 4 128 47 155 (3729920)
I0110 15:07:16.233153 30030 net.cpp:165] Memory required for data: 3938795552
I0110 15:07:16.233163 30030 layer_factory.hpp:77] Creating layer bn3_7_branch2c
I0110 15:07:16.233182 30030 net.cpp:106] Creating Layer bn3_7_branch2c
I0110 15:07:16.233191 30030 net.cpp:454] bn3_7_branch2c <- enet3_7_branch2c
I0110 15:07:16.233201 30030 net.cpp:397] bn3_7_branch2c -> enet3_7_branch2c (in-place)
I0110 15:07:16.233511 30030 net.cpp:150] Setting up bn3_7_branch2c
I0110 15:07:16.233525 30030 net.cpp:157] Top shape: 4 128 47 155 (3729920)
I0110 15:07:16.233532 30030 net.cpp:165] Memory required for data: 3953715232
I0110 15:07:16.233542 30030 layer_factory.hpp:77] Creating layer dropout3_7_branch2c
I0110 15:07:16.233554 30030 net.cpp:106] Creating Layer dropout3_7_branch2c
I0110 15:07:16.233561 30030 net.cpp:454] dropout3_7_branch2c <- enet3_7_branch2c
I0110 15:07:16.233570 30030 net.cpp:397] dropout3_7_branch2c -> enet3_7_branch2c (in-place)
I0110 15:07:16.233613 30030 net.cpp:150] Setting up dropout3_7_branch2c
I0110 15:07:16.233624 30030 net.cpp:157] Top shape: 4 128 47 155 (3729920)
I0110 15:07:16.233631 30030 net.cpp:165] Memory required for data: 3968634912
I0110 15:07:16.233638 30030 layer_factory.hpp:77] Creating layer enet3_7
I0110 15:07:16.233649 30030 net.cpp:106] Creating Layer enet3_7
I0110 15:07:16.233655 30030 net.cpp:454] enet3_7 <- enet3_6_relu3_6_0_split_1
I0110 15:07:16.233678 30030 net.cpp:454] enet3_7 <- enet3_7_branch2c
I0110 15:07:16.233691 30030 net.cpp:411] enet3_7 -> enet3_7
I0110 15:07:16.233731 30030 net.cpp:150] Setting up enet3_7
I0110 15:07:16.233742 30030 net.cpp:157] Top shape: 4 128 47 155 (3729920)
I0110 15:07:16.233748 30030 net.cpp:165] Memory required for data: 3983554592
I0110 15:07:16.233755 30030 layer_factory.hpp:77] Creating layer relu3_7
I0110 15:07:16.233767 30030 net.cpp:106] Creating Layer relu3_7
I0110 15:07:16.233775 30030 net.cpp:454] relu3_7 <- enet3_7
I0110 15:07:16.233786 30030 net.cpp:397] relu3_7 -> enet3_7 (in-place)
I0110 15:07:16.238586 30030 net.cpp:150] Setting up relu3_7
I0110 15:07:16.238605 30030 net.cpp:157] Top shape: 4 128 47 155 (3729920)
I0110 15:07:16.238611 30030 net.cpp:165] Memory required for data: 3998474272
I0110 15:07:16.238620 30030 layer_factory.hpp:77] Creating layer enet3_7_relu3_7_0_split
I0110 15:07:16.238631 30030 net.cpp:106] Creating Layer enet3_7_relu3_7_0_split
I0110 15:07:16.238639 30030 net.cpp:454] enet3_7_relu3_7_0_split <- enet3_7
I0110 15:07:16.238652 30030 net.cpp:411] enet3_7_relu3_7_0_split -> enet3_7_relu3_7_0_split_0
I0110 15:07:16.238665 30030 net.cpp:411] enet3_7_relu3_7_0_split -> enet3_7_relu3_7_0_split_1
I0110 15:07:16.238728 30030 net.cpp:150] Setting up enet3_7_relu3_7_0_split
I0110 15:07:16.238739 30030 net.cpp:157] Top shape: 4 128 47 155 (3729920)
I0110 15:07:16.238747 30030 net.cpp:157] Top shape: 4 128 47 155 (3729920)
I0110 15:07:16.238754 30030 net.cpp:165] Memory required for data: 4028313632
I0110 15:07:16.238759 30030 layer_factory.hpp:77] Creating layer enet3_8_branch2a
I0110 15:07:16.238777 30030 net.cpp:106] Creating Layer enet3_8_branch2a
I0110 15:07:16.238785 30030 net.cpp:454] enet3_8_branch2a <- enet3_7_relu3_7_0_split_0
I0110 15:07:16.238796 30030 net.cpp:411] enet3_8_branch2a -> enet3_8_branch2a
I0110 15:07:16.243549 30030 net.cpp:150] Setting up enet3_8_branch2a
I0110 15:07:16.243567 30030 net.cpp:157] Top shape: 4 32 47 155 (932480)
I0110 15:07:16.243574 30030 net.cpp:165] Memory required for data: 4032043552
I0110 15:07:16.243584 30030 layer_factory.hpp:77] Creating layer bn3_8_branch2a
I0110 15:07:16.243600 30030 net.cpp:106] Creating Layer bn3_8_branch2a
I0110 15:07:16.243608 30030 net.cpp:454] bn3_8_branch2a <- enet3_8_branch2a
I0110 15:07:16.243621 30030 net.cpp:397] bn3_8_branch2a -> enet3_8_branch2a (in-place)
I0110 15:07:16.243963 30030 net.cpp:150] Setting up bn3_8_branch2a
I0110 15:07:16.243978 30030 net.cpp:157] Top shape: 4 32 47 155 (932480)
I0110 15:07:16.243984 30030 net.cpp:165] Memory required for data: 4035773472
I0110 15:07:16.243994 30030 layer_factory.hpp:77] Creating layer relu3_8_branch2a
I0110 15:07:16.244009 30030 net.cpp:106] Creating Layer relu3_8_branch2a
I0110 15:07:16.244016 30030 net.cpp:454] relu3_8_branch2a <- enet3_8_branch2a
I0110 15:07:16.244025 30030 net.cpp:397] relu3_8_branch2a -> enet3_8_branch2a (in-place)
I0110 15:07:16.245385 30030 net.cpp:150] Setting up relu3_8_branch2a
I0110 15:07:16.245403 30030 net.cpp:157] Top shape: 4 32 47 155 (932480)
I0110 15:07:16.245409 30030 net.cpp:165] Memory required for data: 4039503392
I0110 15:07:16.245419 30030 layer_factory.hpp:77] Creating layer enet3_8_branch2b
I0110 15:07:16.245437 30030 net.cpp:106] Creating Layer enet3_8_branch2b
I0110 15:07:16.245445 30030 net.cpp:454] enet3_8_branch2b <- enet3_8_branch2a
I0110 15:07:16.245461 30030 net.cpp:411] enet3_8_branch2b -> enet3_8_branch2b
I0110 15:07:16.246055 30030 net.cpp:150] Setting up enet3_8_branch2b
I0110 15:07:16.246070 30030 net.cpp:157] Top shape: 4 32 47 155 (932480)
I0110 15:07:16.246076 30030 net.cpp:165] Memory required for data: 4043233312
I0110 15:07:16.246088 30030 layer_factory.hpp:77] Creating layer bn3_8_branch2b
I0110 15:07:16.246099 30030 net.cpp:106] Creating Layer bn3_8_branch2b
I0110 15:07:16.246106 30030 net.cpp:454] bn3_8_branch2b <- enet3_8_branch2b
I0110 15:07:16.246120 30030 net.cpp:397] bn3_8_branch2b -> enet3_8_branch2b (in-place)
I0110 15:07:16.246455 30030 net.cpp:150] Setting up bn3_8_branch2b
I0110 15:07:16.246489 30030 net.cpp:157] Top shape: 4 32 47 155 (932480)
I0110 15:07:16.246495 30030 net.cpp:165] Memory required for data: 4046963232
I0110 15:07:16.246505 30030 layer_factory.hpp:77] Creating layer relu3_8_branch2b
I0110 15:07:16.246520 30030 net.cpp:106] Creating Layer relu3_8_branch2b
I0110 15:07:16.246526 30030 net.cpp:454] relu3_8_branch2b <- enet3_8_branch2b
I0110 15:07:16.246536 30030 net.cpp:397] relu3_8_branch2b -> enet3_8_branch2b (in-place)
I0110 15:07:16.247890 30030 net.cpp:150] Setting up relu3_8_branch2b
I0110 15:07:16.247907 30030 net.cpp:157] Top shape: 4 32 47 155 (932480)
I0110 15:07:16.247913 30030 net.cpp:165] Memory required for data: 4050693152
I0110 15:07:16.247923 30030 layer_factory.hpp:77] Creating layer enet3_8_branch2c
I0110 15:07:16.247941 30030 net.cpp:106] Creating Layer enet3_8_branch2c
I0110 15:07:16.247948 30030 net.cpp:454] enet3_8_branch2c <- enet3_8_branch2b
I0110 15:07:16.247963 30030 net.cpp:411] enet3_8_branch2c -> enet3_8_branch2c
I0110 15:07:16.251704 30030 net.cpp:150] Setting up enet3_8_branch2c
I0110 15:07:16.251724 30030 net.cpp:157] Top shape: 4 128 47 155 (3729920)
I0110 15:07:16.251730 30030 net.cpp:165] Memory required for data: 4065612832
I0110 15:07:16.251739 30030 layer_factory.hpp:77] Creating layer bn3_8_branch2c
I0110 15:07:16.251756 30030 net.cpp:106] Creating Layer bn3_8_branch2c
I0110 15:07:16.251765 30030 net.cpp:454] bn3_8_branch2c <- enet3_8_branch2c
I0110 15:07:16.251778 30030 net.cpp:397] bn3_8_branch2c -> enet3_8_branch2c (in-place)
I0110 15:07:16.253176 30030 net.cpp:150] Setting up bn3_8_branch2c
I0110 15:07:16.253193 30030 net.cpp:157] Top shape: 4 128 47 155 (3729920)
I0110 15:07:16.253201 30030 net.cpp:165] Memory required for data: 4080532512
I0110 15:07:16.253211 30030 layer_factory.hpp:77] Creating layer dropout3_8_branch2c
I0110 15:07:16.253226 30030 net.cpp:106] Creating Layer dropout3_8_branch2c
I0110 15:07:16.253233 30030 net.cpp:454] dropout3_8_branch2c <- enet3_8_branch2c
I0110 15:07:16.253242 30030 net.cpp:397] dropout3_8_branch2c -> enet3_8_branch2c (in-place)
I0110 15:07:16.253283 30030 net.cpp:150] Setting up dropout3_8_branch2c
I0110 15:07:16.253295 30030 net.cpp:157] Top shape: 4 128 47 155 (3729920)
I0110 15:07:16.253301 30030 net.cpp:165] Memory required for data: 4095452192
I0110 15:07:16.253307 30030 layer_factory.hpp:77] Creating layer enet3_8
I0110 15:07:16.253317 30030 net.cpp:106] Creating Layer enet3_8
I0110 15:07:16.253324 30030 net.cpp:454] enet3_8 <- enet3_7_relu3_7_0_split_1
I0110 15:07:16.253334 30030 net.cpp:454] enet3_8 <- enet3_8_branch2c
I0110 15:07:16.253345 30030 net.cpp:411] enet3_8 -> enet3_8
I0110 15:07:16.253391 30030 net.cpp:150] Setting up enet3_8
I0110 15:07:16.253404 30030 net.cpp:157] Top shape: 4 128 47 155 (3729920)
I0110 15:07:16.253410 30030 net.cpp:165] Memory required for data: 4110371872
I0110 15:07:16.253417 30030 layer_factory.hpp:77] Creating layer relu3_8
I0110 15:07:16.253425 30030 net.cpp:106] Creating Layer relu3_8
I0110 15:07:16.253432 30030 net.cpp:454] relu3_8 <- enet3_8
I0110 15:07:16.253444 30030 net.cpp:397] relu3_8 -> enet3_8 (in-place)
I0110 15:07:16.279911 30030 net.cpp:150] Setting up relu3_8
I0110 15:07:16.279927 30030 net.cpp:157] Top shape: 4 128 47 155 (3729920)
I0110 15:07:16.279934 30030 net.cpp:165] Memory required for data: 4125291552
I0110 15:07:16.279943 30030 layer_factory.hpp:77] Creating layer enet3_8_relu3_8_0_split
I0110 15:07:16.279955 30030 net.cpp:106] Creating Layer enet3_8_relu3_8_0_split
I0110 15:07:16.279963 30030 net.cpp:454] enet3_8_relu3_8_0_split <- enet3_8
I0110 15:07:16.279976 30030 net.cpp:411] enet3_8_relu3_8_0_split -> enet3_8_relu3_8_0_split_0
I0110 15:07:16.279989 30030 net.cpp:411] enet3_8_relu3_8_0_split -> enet3_8_relu3_8_0_split_1
I0110 15:07:16.280058 30030 net.cpp:150] Setting up enet3_8_relu3_8_0_split
I0110 15:07:16.280071 30030 net.cpp:157] Top shape: 4 128 47 155 (3729920)
I0110 15:07:16.280079 30030 net.cpp:157] Top shape: 4 128 47 155 (3729920)
I0110 15:07:16.280086 30030 net.cpp:165] Memory required for data: 4155130912
I0110 15:07:16.280109 30030 layer_factory.hpp:77] Creating layer enet4_0_branch2a
I0110 15:07:16.280125 30030 net.cpp:106] Creating Layer enet4_0_branch2a
I0110 15:07:16.280133 30030 net.cpp:454] enet4_0_branch2a <- enet3_8_relu3_8_0_split_0
I0110 15:07:16.280148 30030 net.cpp:411] enet4_0_branch2a -> enet4_0_branch2a
I0110 15:07:16.284003 30030 net.cpp:150] Setting up enet4_0_branch2a
I0110 15:07:16.284020 30030 net.cpp:157] Top shape: 4 16 47 155 (466240)
I0110 15:07:16.284027 30030 net.cpp:165] Memory required for data: 4156995872
I0110 15:07:16.284037 30030 layer_factory.hpp:77] Creating layer bn4_0_branch2a
I0110 15:07:16.284054 30030 net.cpp:106] Creating Layer bn4_0_branch2a
I0110 15:07:16.284062 30030 net.cpp:454] bn4_0_branch2a <- enet4_0_branch2a
I0110 15:07:16.284077 30030 net.cpp:397] bn4_0_branch2a -> enet4_0_branch2a (in-place)
I0110 15:07:16.284435 30030 net.cpp:150] Setting up bn4_0_branch2a
I0110 15:07:16.284448 30030 net.cpp:157] Top shape: 4 16 47 155 (466240)
I0110 15:07:16.284456 30030 net.cpp:165] Memory required for data: 4158860832
I0110 15:07:16.284466 30030 layer_factory.hpp:77] Creating layer relu4_0_branch2a
I0110 15:07:16.284482 30030 net.cpp:106] Creating Layer relu4_0_branch2a
I0110 15:07:16.284489 30030 net.cpp:454] relu4_0_branch2a <- enet4_0_branch2a
I0110 15:07:16.284498 30030 net.cpp:397] relu4_0_branch2a -> enet4_0_branch2a (in-place)
I0110 15:07:16.285614 30030 net.cpp:150] Setting up relu4_0_branch2a
I0110 15:07:16.285631 30030 net.cpp:157] Top shape: 4 16 47 155 (466240)
I0110 15:07:16.285639 30030 net.cpp:165] Memory required for data: 4160725792
I0110 15:07:16.285645 30030 layer_factory.hpp:77] Creating layer enet4_0_branch2b
I0110 15:07:16.285665 30030 net.cpp:106] Creating Layer enet4_0_branch2b
I0110 15:07:16.285672 30030 net.cpp:454] enet4_0_branch2b <- enet4_0_branch2a
I0110 15:07:16.285686 30030 net.cpp:411] enet4_0_branch2b -> enet4_0_branch2b
I0110 15:07:16.286283 30030 net.cpp:150] Setting up enet4_0_branch2b
I0110 15:07:16.286298 30030 net.cpp:157] Top shape: 4 16 94 310 (1864960)
I0110 15:07:16.286305 30030 net.cpp:165] Memory required for data: 4168185632
I0110 15:07:16.286315 30030 layer_factory.hpp:77] Creating layer bn4_0_branch2b
I0110 15:07:16.286331 30030 net.cpp:106] Creating Layer bn4_0_branch2b
I0110 15:07:16.286339 30030 net.cpp:454] bn4_0_branch2b <- enet4_0_branch2b
I0110 15:07:16.286350 30030 net.cpp:397] bn4_0_branch2b -> enet4_0_branch2b (in-place)
I0110 15:07:16.286806 30030 net.cpp:150] Setting up bn4_0_branch2b
I0110 15:07:16.286820 30030 net.cpp:157] Top shape: 4 16 94 310 (1864960)
I0110 15:07:16.286826 30030 net.cpp:165] Memory required for data: 4175645472
I0110 15:07:16.286837 30030 layer_factory.hpp:77] Creating layer relu4_0_branch2b
I0110 15:07:16.286847 30030 net.cpp:106] Creating Layer relu4_0_branch2b
I0110 15:07:16.286854 30030 net.cpp:454] relu4_0_branch2b <- enet4_0_branch2b
I0110 15:07:16.286864 30030 net.cpp:397] relu4_0_branch2b -> enet4_0_branch2b (in-place)
I0110 15:07:16.287986 30030 net.cpp:150] Setting up relu4_0_branch2b
I0110 15:07:16.288002 30030 net.cpp:157] Top shape: 4 16 94 310 (1864960)
I0110 15:07:16.288009 30030 net.cpp:165] Memory required for data: 4183105312
I0110 15:07:16.288017 30030 layer_factory.hpp:77] Creating layer enet4_0_branch2c
I0110 15:07:16.288034 30030 net.cpp:106] Creating Layer enet4_0_branch2c
I0110 15:07:16.288043 30030 net.cpp:454] enet4_0_branch2c <- enet4_0_branch2b
I0110 15:07:16.288060 30030 net.cpp:411] enet4_0_branch2c -> enet4_0_branch2c
I0110 15:07:16.291957 30030 net.cpp:150] Setting up enet4_0_branch2c
I0110 15:07:16.291975 30030 net.cpp:157] Top shape: 4 64 94 310 (7459840)
I0110 15:07:16.291982 30030 net.cpp:165] Memory required for data: 4212944672
I0110 15:07:16.291991 30030 layer_factory.hpp:77] Creating layer bn4_0_branch2c
I0110 15:07:16.292008 30030 net.cpp:106] Creating Layer bn4_0_branch2c
I0110 15:07:16.292016 30030 net.cpp:454] bn4_0_branch2c <- enet4_0_branch2c
I0110 15:07:16.292026 30030 net.cpp:397] bn4_0_branch2c -> enet4_0_branch2c (in-place)
I0110 15:07:16.293540 30030 net.cpp:150] Setting up bn4_0_branch2c
I0110 15:07:16.293567 30030 net.cpp:157] Top shape: 4 64 94 310 (7459840)
I0110 15:07:16.293575 30030 net.cpp:165] Memory required for data: 4242784032
I0110 15:07:16.293586 30030 layer_factory.hpp:77] Creating layer enet4_0_branch1a
I0110 15:07:16.293604 30030 net.cpp:106] Creating Layer enet4_0_branch1a
I0110 15:07:16.293612 30030 net.cpp:454] enet4_0_branch1a <- enet3_8_relu3_8_0_split_1
I0110 15:07:16.293623 30030 net.cpp:411] enet4_0_branch1a -> enet4_0_branch1a
I0110 15:07:16.297497 30030 net.cpp:150] Setting up enet4_0_branch1a
I0110 15:07:16.297513 30030 net.cpp:157] Top shape: 4 64 47 155 (1864960)
I0110 15:07:16.297521 30030 net.cpp:165] Memory required for data: 4250243872
I0110 15:07:16.297531 30030 layer_factory.hpp:77] Creating layer bn4_0_branch1a
I0110 15:07:16.297547 30030 net.cpp:106] Creating Layer bn4_0_branch1a
I0110 15:07:16.297555 30030 net.cpp:454] bn4_0_branch1a <- enet4_0_branch1a
I0110 15:07:16.297569 30030 net.cpp:397] bn4_0_branch1a -> enet4_0_branch1a (in-place)
I0110 15:07:16.297911 30030 net.cpp:150] Setting up bn4_0_branch1a
I0110 15:07:16.297925 30030 net.cpp:157] Top shape: 4 64 47 155 (1864960)
I0110 15:07:16.297931 30030 net.cpp:165] Memory required for data: 4257703712
I0110 15:07:16.297942 30030 layer_factory.hpp:77] Creating layer unpool4_0_branch1a
I0110 15:07:16.297958 30030 net.cpp:106] Creating Layer unpool4_0_branch1a
I0110 15:07:16.297966 30030 net.cpp:454] unpool4_0_branch1a <- enet4_0_branch1a
I0110 15:07:16.297976 30030 net.cpp:454] unpool4_0_branch1a <- pool2_0_branch1a_mask
I0110 15:07:16.297986 30030 net.cpp:411] unpool4_0_branch1a -> unpool4_0_branch1a
I0110 15:07:16.298043 30030 net.cpp:150] Setting up unpool4_0_branch1a
I0110 15:07:16.298059 30030 net.cpp:157] Top shape: 4 64 94 310 (7459840)
I0110 15:07:16.298066 30030 net.cpp:165] Memory required for data: 4287543072
I0110 15:07:16.298072 30030 layer_factory.hpp:77] Creating layer enet4_0
I0110 15:07:16.298084 30030 net.cpp:106] Creating Layer enet4_0
I0110 15:07:16.298090 30030 net.cpp:454] enet4_0 <- unpool4_0_branch1a
I0110 15:07:16.298099 30030 net.cpp:454] enet4_0 <- enet4_0_branch2c
I0110 15:07:16.298111 30030 net.cpp:411] enet4_0 -> enet4_0
I0110 15:07:16.298152 30030 net.cpp:150] Setting up enet4_0
I0110 15:07:16.298174 30030 net.cpp:157] Top shape: 4 64 94 310 (7459840)
I0110 15:07:16.298182 30030 net.cpp:165] Memory required for data: 4317382432
I0110 15:07:16.298187 30030 layer_factory.hpp:77] Creating layer relu4_0
I0110 15:07:16.298197 30030 net.cpp:106] Creating Layer relu4_0
I0110 15:07:16.298204 30030 net.cpp:454] relu4_0 <- enet4_0
I0110 15:07:16.298213 30030 net.cpp:397] relu4_0 -> enet4_0 (in-place)
I0110 15:07:16.299334 30030 net.cpp:150] Setting up relu4_0
I0110 15:07:16.299350 30030 net.cpp:157] Top shape: 4 64 94 310 (7459840)
I0110 15:07:16.299356 30030 net.cpp:165] Memory required for data: 4347221792
I0110 15:07:16.299363 30030 layer_factory.hpp:77] Creating layer enet4_0_relu4_0_0_split
I0110 15:07:16.299373 30030 net.cpp:106] Creating Layer enet4_0_relu4_0_0_split
I0110 15:07:16.299381 30030 net.cpp:454] enet4_0_relu4_0_0_split <- enet4_0
I0110 15:07:16.299394 30030 net.cpp:411] enet4_0_relu4_0_0_split -> enet4_0_relu4_0_0_split_0
I0110 15:07:16.299407 30030 net.cpp:411] enet4_0_relu4_0_0_split -> enet4_0_relu4_0_0_split_1
I0110 15:07:16.299474 30030 net.cpp:150] Setting up enet4_0_relu4_0_0_split
I0110 15:07:16.299487 30030 net.cpp:157] Top shape: 4 64 94 310 (7459840)
I0110 15:07:16.299495 30030 net.cpp:157] Top shape: 4 64 94 310 (7459840)
I0110 15:07:16.299500 30030 net.cpp:165] Memory required for data: 4406900512
I0110 15:07:16.299507 30030 layer_factory.hpp:77] Creating layer enet4_1_branch2a
I0110 15:07:16.299528 30030 net.cpp:106] Creating Layer enet4_1_branch2a
I0110 15:07:16.299536 30030 net.cpp:454] enet4_1_branch2a <- enet4_0_relu4_0_0_split_0
I0110 15:07:16.299547 30030 net.cpp:411] enet4_1_branch2a -> enet4_1_branch2a
I0110 15:07:16.303426 30030 net.cpp:150] Setting up enet4_1_branch2a
I0110 15:07:16.303452 30030 net.cpp:157] Top shape: 4 16 94 310 (1864960)
I0110 15:07:16.303467 30030 net.cpp:165] Memory required for data: 4414360352
I0110 15:07:16.303478 30030 layer_factory.hpp:77] Creating layer bn4_1_branch2a
I0110 15:07:16.303493 30030 net.cpp:106] Creating Layer bn4_1_branch2a
I0110 15:07:16.303501 30030 net.cpp:454] bn4_1_branch2a <- enet4_1_branch2a
I0110 15:07:16.303515 30030 net.cpp:397] bn4_1_branch2a -> enet4_1_branch2a (in-place)
I0110 15:07:16.303895 30030 net.cpp:150] Setting up bn4_1_branch2a
I0110 15:07:16.303910 30030 net.cpp:157] Top shape: 4 16 94 310 (1864960)
I0110 15:07:16.303916 30030 net.cpp:165] Memory required for data: 4421820192
I0110 15:07:16.303926 30030 layer_factory.hpp:77] Creating layer relu4_1_branch2a
I0110 15:07:16.303941 30030 net.cpp:106] Creating Layer relu4_1_branch2a
I0110 15:07:16.303947 30030 net.cpp:454] relu4_1_branch2a <- enet4_1_branch2a
I0110 15:07:16.303956 30030 net.cpp:397] relu4_1_branch2a -> enet4_1_branch2a (in-place)
I0110 15:07:16.305088 30030 net.cpp:150] Setting up relu4_1_branch2a
I0110 15:07:16.305105 30030 net.cpp:157] Top shape: 4 16 94 310 (1864960)
I0110 15:07:16.305112 30030 net.cpp:165] Memory required for data: 4429280032
I0110 15:07:16.305119 30030 layer_factory.hpp:77] Creating layer enet4_1_branch2b
I0110 15:07:16.305140 30030 net.cpp:106] Creating Layer enet4_1_branch2b
I0110 15:07:16.305148 30030 net.cpp:454] enet4_1_branch2b <- enet4_1_branch2a
I0110 15:07:16.305160 30030 net.cpp:411] enet4_1_branch2b -> enet4_1_branch2b
I0110 15:07:16.309206 30030 net.cpp:150] Setting up enet4_1_branch2b
I0110 15:07:16.309224 30030 net.cpp:157] Top shape: 4 16 94 310 (1864960)
I0110 15:07:16.309231 30030 net.cpp:165] Memory required for data: 4436739872
I0110 15:07:16.309242 30030 layer_factory.hpp:77] Creating layer bn4_1_branch2b
I0110 15:07:16.309259 30030 net.cpp:106] Creating Layer bn4_1_branch2b
I0110 15:07:16.309267 30030 net.cpp:454] bn4_1_branch2b <- enet4_1_branch2b
I0110 15:07:16.309280 30030 net.cpp:397] bn4_1_branch2b -> enet4_1_branch2b (in-place)
I0110 15:07:16.309659 30030 net.cpp:150] Setting up bn4_1_branch2b
I0110 15:07:16.309674 30030 net.cpp:157] Top shape: 4 16 94 310 (1864960)
I0110 15:07:16.309679 30030 net.cpp:165] Memory required for data: 4444199712
I0110 15:07:16.309690 30030 layer_factory.hpp:77] Creating layer relu4_1_branch2b
I0110 15:07:16.309700 30030 net.cpp:106] Creating Layer relu4_1_branch2b
I0110 15:07:16.309707 30030 net.cpp:454] relu4_1_branch2b <- enet4_1_branch2b
I0110 15:07:16.309716 30030 net.cpp:397] relu4_1_branch2b -> enet4_1_branch2b (in-place)
I0110 15:07:16.310847 30030 net.cpp:150] Setting up relu4_1_branch2b
I0110 15:07:16.310864 30030 net.cpp:157] Top shape: 4 16 94 310 (1864960)
I0110 15:07:16.310871 30030 net.cpp:165] Memory required for data: 4451659552
I0110 15:07:16.310878 30030 layer_factory.hpp:77] Creating layer enet4_1_branch2c
I0110 15:07:16.310897 30030 net.cpp:106] Creating Layer enet4_1_branch2c
I0110 15:07:16.310905 30030 net.cpp:454] enet4_1_branch2c <- enet4_1_branch2b
I0110 15:07:16.310920 30030 net.cpp:411] enet4_1_branch2c -> enet4_1_branch2c
I0110 15:07:16.314653 30030 net.cpp:150] Setting up enet4_1_branch2c
I0110 15:07:16.314671 30030 net.cpp:157] Top shape: 4 64 94 310 (7459840)
I0110 15:07:16.314677 30030 net.cpp:165] Memory required for data: 4481498912
I0110 15:07:16.314687 30030 layer_factory.hpp:77] Creating layer bn4_1_branch2c
I0110 15:07:16.314703 30030 net.cpp:106] Creating Layer bn4_1_branch2c
I0110 15:07:16.314712 30030 net.cpp:454] bn4_1_branch2c <- enet4_1_branch2c
I0110 15:07:16.314721 30030 net.cpp:397] bn4_1_branch2c -> enet4_1_branch2c (in-place)
I0110 15:07:16.316256 30030 net.cpp:150] Setting up bn4_1_branch2c
I0110 15:07:16.316273 30030 net.cpp:157] Top shape: 4 64 94 310 (7459840)
I0110 15:07:16.316282 30030 net.cpp:165] Memory required for data: 4511338272
I0110 15:07:16.316293 30030 layer_factory.hpp:77] Creating layer enet4_1
I0110 15:07:16.316303 30030 net.cpp:106] Creating Layer enet4_1
I0110 15:07:16.316310 30030 net.cpp:454] enet4_1 <- enet4_0_relu4_0_0_split_1
I0110 15:07:16.316328 30030 net.cpp:454] enet4_1 <- enet4_1_branch2c
I0110 15:07:16.316345 30030 net.cpp:411] enet4_1 -> enet4_1
I0110 15:07:16.316395 30030 net.cpp:150] Setting up enet4_1
I0110 15:07:16.316408 30030 net.cpp:157] Top shape: 4 64 94 310 (7459840)
I0110 15:07:16.316414 30030 net.cpp:165] Memory required for data: 4541177632
I0110 15:07:16.316421 30030 layer_factory.hpp:77] Creating layer relu4_1
I0110 15:07:16.316433 30030 net.cpp:106] Creating Layer relu4_1
I0110 15:07:16.316442 30030 net.cpp:454] relu4_1 <- enet4_1
I0110 15:07:16.316450 30030 net.cpp:397] relu4_1 -> enet4_1 (in-place)
I0110 15:07:16.317770 30030 net.cpp:150] Setting up relu4_1
I0110 15:07:16.317787 30030 net.cpp:157] Top shape: 4 64 94 310 (7459840)
I0110 15:07:16.317795 30030 net.cpp:165] Memory required for data: 4571016992
I0110 15:07:16.317801 30030 layer_factory.hpp:77] Creating layer enet4_1_relu4_1_0_split
I0110 15:07:16.317811 30030 net.cpp:106] Creating Layer enet4_1_relu4_1_0_split
I0110 15:07:16.317818 30030 net.cpp:454] enet4_1_relu4_1_0_split <- enet4_1
I0110 15:07:16.317832 30030 net.cpp:411] enet4_1_relu4_1_0_split -> enet4_1_relu4_1_0_split_0
I0110 15:07:16.317844 30030 net.cpp:411] enet4_1_relu4_1_0_split -> enet4_1_relu4_1_0_split_1
I0110 15:07:16.317919 30030 net.cpp:150] Setting up enet4_1_relu4_1_0_split
I0110 15:07:16.317932 30030 net.cpp:157] Top shape: 4 64 94 310 (7459840)
I0110 15:07:16.317939 30030 net.cpp:157] Top shape: 4 64 94 310 (7459840)
I0110 15:07:16.317945 30030 net.cpp:165] Memory required for data: 4630695712
I0110 15:07:16.317952 30030 layer_factory.hpp:77] Creating layer enet4_2_branch2a
I0110 15:07:16.317970 30030 net.cpp:106] Creating Layer enet4_2_branch2a
I0110 15:07:16.317977 30030 net.cpp:454] enet4_2_branch2a <- enet4_1_relu4_1_0_split_0
I0110 15:07:16.317992 30030 net.cpp:411] enet4_2_branch2a -> enet4_2_branch2a
I0110 15:07:16.321774 30030 net.cpp:150] Setting up enet4_2_branch2a
I0110 15:07:16.321791 30030 net.cpp:157] Top shape: 4 16 94 310 (1864960)
I0110 15:07:16.321799 30030 net.cpp:165] Memory required for data: 4638155552
I0110 15:07:16.321808 30030 layer_factory.hpp:77] Creating layer bn4_2_branch2a
I0110 15:07:16.321825 30030 net.cpp:106] Creating Layer bn4_2_branch2a
I0110 15:07:16.321835 30030 net.cpp:454] bn4_2_branch2a <- enet4_2_branch2a
I0110 15:07:16.321846 30030 net.cpp:397] bn4_2_branch2a -> enet4_2_branch2a (in-place)
I0110 15:07:16.322247 30030 net.cpp:150] Setting up bn4_2_branch2a
I0110 15:07:16.322263 30030 net.cpp:157] Top shape: 4 16 94 310 (1864960)
I0110 15:07:16.322268 30030 net.cpp:165] Memory required for data: 4645615392
I0110 15:07:16.322278 30030 layer_factory.hpp:77] Creating layer relu4_2_branch2a
I0110 15:07:16.322289 30030 net.cpp:106] Creating Layer relu4_2_branch2a
I0110 15:07:16.322296 30030 net.cpp:454] relu4_2_branch2a <- enet4_2_branch2a
I0110 15:07:16.322305 30030 net.cpp:397] relu4_2_branch2a -> enet4_2_branch2a (in-place)
I0110 15:07:16.323627 30030 net.cpp:150] Setting up relu4_2_branch2a
I0110 15:07:16.323644 30030 net.cpp:157] Top shape: 4 16 94 310 (1864960)
I0110 15:07:16.323652 30030 net.cpp:165] Memory required for data: 4653075232
I0110 15:07:16.323658 30030 layer_factory.hpp:77] Creating layer enet4_2_branch2b
I0110 15:07:16.323683 30030 net.cpp:106] Creating Layer enet4_2_branch2b
I0110 15:07:16.323690 30030 net.cpp:454] enet4_2_branch2b <- enet4_2_branch2a
I0110 15:07:16.323705 30030 net.cpp:411] enet4_2_branch2b -> enet4_2_branch2b
I0110 15:07:16.327807 30030 net.cpp:150] Setting up enet4_2_branch2b
I0110 15:07:16.327826 30030 net.cpp:157] Top shape: 4 16 94 310 (1864960)
I0110 15:07:16.327832 30030 net.cpp:165] Memory required for data: 4660535072
I0110 15:07:16.327843 30030 layer_factory.hpp:77] Creating layer bn4_2_branch2b
I0110 15:07:16.327862 30030 net.cpp:106] Creating Layer bn4_2_branch2b
I0110 15:07:16.327872 30030 net.cpp:454] bn4_2_branch2b <- enet4_2_branch2b
I0110 15:07:16.327882 30030 net.cpp:397] bn4_2_branch2b -> enet4_2_branch2b (in-place)
I0110 15:07:16.328284 30030 net.cpp:150] Setting up bn4_2_branch2b
I0110 15:07:16.328306 30030 net.cpp:157] Top shape: 4 16 94 310 (1864960)
I0110 15:07:16.328320 30030 net.cpp:165] Memory required for data: 4667994912
I0110 15:07:16.328331 30030 layer_factory.hpp:77] Creating layer relu4_2_branch2b
I0110 15:07:16.328341 30030 net.cpp:106] Creating Layer relu4_2_branch2b
I0110 15:07:16.328348 30030 net.cpp:454] relu4_2_branch2b <- enet4_2_branch2b
I0110 15:07:16.328357 30030 net.cpp:397] relu4_2_branch2b -> enet4_2_branch2b (in-place)
I0110 15:07:16.329499 30030 net.cpp:150] Setting up relu4_2_branch2b
I0110 15:07:16.329516 30030 net.cpp:157] Top shape: 4 16 94 310 (1864960)
I0110 15:07:16.329524 30030 net.cpp:165] Memory required for data: 4675454752
I0110 15:07:16.329530 30030 layer_factory.hpp:77] Creating layer enet4_2_branch2c
I0110 15:07:16.329548 30030 net.cpp:106] Creating Layer enet4_2_branch2c
I0110 15:07:16.329557 30030 net.cpp:454] enet4_2_branch2c <- enet4_2_branch2b
I0110 15:07:16.329571 30030 net.cpp:411] enet4_2_branch2c -> enet4_2_branch2c
I0110 15:07:16.333550 30030 net.cpp:150] Setting up enet4_2_branch2c
I0110 15:07:16.333569 30030 net.cpp:157] Top shape: 4 64 94 310 (7459840)
I0110 15:07:16.333575 30030 net.cpp:165] Memory required for data: 4705294112
I0110 15:07:16.333585 30030 layer_factory.hpp:77] Creating layer bn4_2_branch2c
I0110 15:07:16.333603 30030 net.cpp:106] Creating Layer bn4_2_branch2c
I0110 15:07:16.333612 30030 net.cpp:454] bn4_2_branch2c <- enet4_2_branch2c
I0110 15:07:16.333622 30030 net.cpp:397] bn4_2_branch2c -> enet4_2_branch2c (in-place)
I0110 15:07:16.334030 30030 net.cpp:150] Setting up bn4_2_branch2c
I0110 15:07:16.334044 30030 net.cpp:157] Top shape: 4 64 94 310 (7459840)
I0110 15:07:16.334054 30030 net.cpp:165] Memory required for data: 4735133472
I0110 15:07:16.334065 30030 layer_factory.hpp:77] Creating layer enet4_2
I0110 15:07:16.334075 30030 net.cpp:106] Creating Layer enet4_2
I0110 15:07:16.334084 30030 net.cpp:454] enet4_2 <- enet4_1_relu4_1_0_split_1
I0110 15:07:16.334091 30030 net.cpp:454] enet4_2 <- enet4_2_branch2c
I0110 15:07:16.334105 30030 net.cpp:411] enet4_2 -> enet4_2
I0110 15:07:16.334151 30030 net.cpp:150] Setting up enet4_2
I0110 15:07:16.334167 30030 net.cpp:157] Top shape: 4 64 94 310 (7459840)
I0110 15:07:16.334173 30030 net.cpp:165] Memory required for data: 4764972832
I0110 15:07:16.334180 30030 layer_factory.hpp:77] Creating layer relu4_2
I0110 15:07:16.334189 30030 net.cpp:106] Creating Layer relu4_2
I0110 15:07:16.334197 30030 net.cpp:454] relu4_2 <- enet4_2
I0110 15:07:16.334205 30030 net.cpp:397] relu4_2 -> enet4_2 (in-place)
I0110 15:07:16.335351 30030 net.cpp:150] Setting up relu4_2
I0110 15:07:16.335368 30030 net.cpp:157] Top shape: 4 64 94 310 (7459840)
I0110 15:07:16.335374 30030 net.cpp:165] Memory required for data: 4794812192
I0110 15:07:16.335382 30030 layer_factory.hpp:77] Creating layer enet4_2_relu4_2_0_split
I0110 15:07:16.335392 30030 net.cpp:106] Creating Layer enet4_2_relu4_2_0_split
I0110 15:07:16.335399 30030 net.cpp:454] enet4_2_relu4_2_0_split <- enet4_2
I0110 15:07:16.335413 30030 net.cpp:411] enet4_2_relu4_2_0_split -> enet4_2_relu4_2_0_split_0
I0110 15:07:16.335425 30030 net.cpp:411] enet4_2_relu4_2_0_split -> enet4_2_relu4_2_0_split_1
I0110 15:07:16.335502 30030 net.cpp:150] Setting up enet4_2_relu4_2_0_split
I0110 15:07:16.335515 30030 net.cpp:157] Top shape: 4 64 94 310 (7459840)
I0110 15:07:16.335523 30030 net.cpp:157] Top shape: 4 64 94 310 (7459840)
I0110 15:07:16.335530 30030 net.cpp:165] Memory required for data: 4854490912
I0110 15:07:16.335536 30030 layer_factory.hpp:77] Creating layer enet5_0_branch2a
I0110 15:07:16.335556 30030 net.cpp:106] Creating Layer enet5_0_branch2a
I0110 15:07:16.335563 30030 net.cpp:454] enet5_0_branch2a <- enet4_2_relu4_2_0_split_0
I0110 15:07:16.335574 30030 net.cpp:411] enet5_0_branch2a -> enet5_0_branch2a
I0110 15:07:16.339319 30030 net.cpp:150] Setting up enet5_0_branch2a
I0110 15:07:16.339337 30030 net.cpp:157] Top shape: 4 4 94 310 (466240)
I0110 15:07:16.339344 30030 net.cpp:165] Memory required for data: 4856355872
I0110 15:07:16.339354 30030 layer_factory.hpp:77] Creating layer bn5_0_branch2a
I0110 15:07:16.339385 30030 net.cpp:106] Creating Layer bn5_0_branch2a
I0110 15:07:16.339395 30030 net.cpp:454] bn5_0_branch2a <- enet5_0_branch2a
I0110 15:07:16.339407 30030 net.cpp:397] bn5_0_branch2a -> enet5_0_branch2a (in-place)
I0110 15:07:16.340965 30030 net.cpp:150] Setting up bn5_0_branch2a
I0110 15:07:16.340981 30030 net.cpp:157] Top shape: 4 4 94 310 (466240)
I0110 15:07:16.340988 30030 net.cpp:165] Memory required for data: 4858220832
I0110 15:07:16.340999 30030 layer_factory.hpp:77] Creating layer relu5_0_branch2a
I0110 15:07:16.341011 30030 net.cpp:106] Creating Layer relu5_0_branch2a
I0110 15:07:16.341017 30030 net.cpp:454] relu5_0_branch2a <- enet5_0_branch2a
I0110 15:07:16.341035 30030 net.cpp:397] relu5_0_branch2a -> enet5_0_branch2a (in-place)
I0110 15:07:16.342187 30030 net.cpp:150] Setting up relu5_0_branch2a
I0110 15:07:16.342205 30030 net.cpp:157] Top shape: 4 4 94 310 (466240)
I0110 15:07:16.342211 30030 net.cpp:165] Memory required for data: 4860085792
I0110 15:07:16.342218 30030 layer_factory.hpp:77] Creating layer enet5_0_branch2b
I0110 15:07:16.342237 30030 net.cpp:106] Creating Layer enet5_0_branch2b
I0110 15:07:16.342245 30030 net.cpp:454] enet5_0_branch2b <- enet5_0_branch2a
I0110 15:07:16.342257 30030 net.cpp:411] enet5_0_branch2b -> enet5_0_branch2b
I0110 15:07:16.342876 30030 net.cpp:150] Setting up enet5_0_branch2b
I0110 15:07:16.342892 30030 net.cpp:157] Top shape: 4 4 188 620 (1864960)
I0110 15:07:16.342898 30030 net.cpp:165] Memory required for data: 4867545632
I0110 15:07:16.342908 30030 layer_factory.hpp:77] Creating layer bn5_0_branch2b
I0110 15:07:16.342926 30030 net.cpp:106] Creating Layer bn5_0_branch2b
I0110 15:07:16.342933 30030 net.cpp:454] bn5_0_branch2b <- enet5_0_branch2b
I0110 15:07:16.342947 30030 net.cpp:397] bn5_0_branch2b -> enet5_0_branch2b (in-place)
I0110 15:07:16.344614 30030 net.cpp:150] Setting up bn5_0_branch2b
I0110 15:07:16.344630 30030 net.cpp:157] Top shape: 4 4 188 620 (1864960)
I0110 15:07:16.344636 30030 net.cpp:165] Memory required for data: 4875005472
I0110 15:07:16.344647 30030 layer_factory.hpp:77] Creating layer relu5_0_branch2b
I0110 15:07:16.344658 30030 net.cpp:106] Creating Layer relu5_0_branch2b
I0110 15:07:16.344666 30030 net.cpp:454] relu5_0_branch2b <- enet5_0_branch2b
I0110 15:07:16.344674 30030 net.cpp:397] relu5_0_branch2b -> enet5_0_branch2b (in-place)
I0110 15:07:16.346006 30030 net.cpp:150] Setting up relu5_0_branch2b
I0110 15:07:16.346024 30030 net.cpp:157] Top shape: 4 4 188 620 (1864960)
I0110 15:07:16.346030 30030 net.cpp:165] Memory required for data: 4882465312
I0110 15:07:16.346037 30030 layer_factory.hpp:77] Creating layer enet5_0_branch2c
I0110 15:07:16.346060 30030 net.cpp:106] Creating Layer enet5_0_branch2c
I0110 15:07:16.346068 30030 net.cpp:454] enet5_0_branch2c <- enet5_0_branch2b
I0110 15:07:16.346082 30030 net.cpp:411] enet5_0_branch2c -> enet5_0_branch2c
I0110 15:07:16.349879 30030 net.cpp:150] Setting up enet5_0_branch2c
I0110 15:07:16.349896 30030 net.cpp:157] Top shape: 4 16 188 620 (7459840)
I0110 15:07:16.349903 30030 net.cpp:165] Memory required for data: 4912304672
I0110 15:07:16.349912 30030 layer_factory.hpp:77] Creating layer bn5_0_branch2c
I0110 15:07:16.349925 30030 net.cpp:106] Creating Layer bn5_0_branch2c
I0110 15:07:16.349932 30030 net.cpp:454] bn5_0_branch2c <- enet5_0_branch2c
I0110 15:07:16.349946 30030 net.cpp:397] bn5_0_branch2c -> enet5_0_branch2c (in-place)
I0110 15:07:16.351647 30030 net.cpp:150] Setting up bn5_0_branch2c
I0110 15:07:16.351665 30030 net.cpp:157] Top shape: 4 16 188 620 (7459840)
I0110 15:07:16.351670 30030 net.cpp:165] Memory required for data: 4942144032
I0110 15:07:16.351681 30030 layer_factory.hpp:77] Creating layer enet5_0_branch1a
I0110 15:07:16.351696 30030 net.cpp:106] Creating Layer enet5_0_branch1a
I0110 15:07:16.351704 30030 net.cpp:454] enet5_0_branch1a <- enet4_2_relu4_2_0_split_1
I0110 15:07:16.351718 30030 net.cpp:411] enet5_0_branch1a -> enet5_0_branch1a
I0110 15:07:16.355761 30030 net.cpp:150] Setting up enet5_0_branch1a
I0110 15:07:16.355787 30030 net.cpp:157] Top shape: 4 16 94 310 (1864960)
I0110 15:07:16.355806 30030 net.cpp:165] Memory required for data: 4949603872
I0110 15:07:16.355818 30030 layer_factory.hpp:77] Creating layer bn5_0_branch1a
I0110 15:07:16.355834 30030 net.cpp:106] Creating Layer bn5_0_branch1a
I0110 15:07:16.355841 30030 net.cpp:454] bn5_0_branch1a <- enet5_0_branch1a
I0110 15:07:16.355855 30030 net.cpp:397] bn5_0_branch1a -> enet5_0_branch1a (in-place)
I0110 15:07:16.356307 30030 net.cpp:150] Setting up bn5_0_branch1a
I0110 15:07:16.356320 30030 net.cpp:157] Top shape: 4 16 94 310 (1864960)
I0110 15:07:16.356328 30030 net.cpp:165] Memory required for data: 4957063712
I0110 15:07:16.356338 30030 layer_factory.hpp:77] Creating layer unpool5_0_branch1a
I0110 15:07:16.356349 30030 net.cpp:106] Creating Layer unpool5_0_branch1a
I0110 15:07:16.356356 30030 net.cpp:454] unpool5_0_branch1a <- enet5_0_branch1a
I0110 15:07:16.356365 30030 net.cpp:454] unpool5_0_branch1a <- pool1_0_branch1a_mask
I0110 15:07:16.356375 30030 net.cpp:411] unpool5_0_branch1a -> unpool5_0_branch1a
I0110 15:07:16.356428 30030 net.cpp:150] Setting up unpool5_0_branch1a
I0110 15:07:16.356441 30030 net.cpp:157] Top shape: 4 16 188 620 (7459840)
I0110 15:07:16.356447 30030 net.cpp:165] Memory required for data: 4986903072
I0110 15:07:16.356453 30030 layer_factory.hpp:77] Creating layer enet5_0
I0110 15:07:16.356463 30030 net.cpp:106] Creating Layer enet5_0
I0110 15:07:16.356470 30030 net.cpp:454] enet5_0 <- unpool5_0_branch1a
I0110 15:07:16.356478 30030 net.cpp:454] enet5_0 <- enet5_0_branch2c
I0110 15:07:16.356490 30030 net.cpp:411] enet5_0 -> enet5_0
I0110 15:07:16.356537 30030 net.cpp:150] Setting up enet5_0
I0110 15:07:16.356550 30030 net.cpp:157] Top shape: 4 16 188 620 (7459840)
I0110 15:07:16.356556 30030 net.cpp:165] Memory required for data: 5016742432
I0110 15:07:16.356562 30030 layer_factory.hpp:77] Creating layer relu5_0
I0110 15:07:16.356576 30030 net.cpp:106] Creating Layer relu5_0
I0110 15:07:16.356583 30030 net.cpp:454] relu5_0 <- enet5_0
I0110 15:07:16.356591 30030 net.cpp:397] relu5_0 -> enet5_0 (in-place)
I0110 15:07:16.357748 30030 net.cpp:150] Setting up relu5_0
I0110 15:07:16.357765 30030 net.cpp:157] Top shape: 4 16 188 620 (7459840)
I0110 15:07:16.357772 30030 net.cpp:165] Memory required for data: 5046581792
I0110 15:07:16.357779 30030 layer_factory.hpp:77] Creating layer enet5_0_relu5_0_0_split
I0110 15:07:16.357789 30030 net.cpp:106] Creating Layer enet5_0_relu5_0_0_split
I0110 15:07:16.357796 30030 net.cpp:454] enet5_0_relu5_0_0_split <- enet5_0
I0110 15:07:16.357810 30030 net.cpp:411] enet5_0_relu5_0_0_split -> enet5_0_relu5_0_0_split_0
I0110 15:07:16.357822 30030 net.cpp:411] enet5_0_relu5_0_0_split -> enet5_0_relu5_0_0_split_1
I0110 15:07:16.357902 30030 net.cpp:150] Setting up enet5_0_relu5_0_0_split
I0110 15:07:16.357918 30030 net.cpp:157] Top shape: 4 16 188 620 (7459840)
I0110 15:07:16.357926 30030 net.cpp:157] Top shape: 4 16 188 620 (7459840)
I0110 15:07:16.357931 30030 net.cpp:165] Memory required for data: 5106260512
I0110 15:07:16.357939 30030 layer_factory.hpp:77] Creating layer enet5_1_branch2a
I0110 15:07:16.357955 30030 net.cpp:106] Creating Layer enet5_1_branch2a
I0110 15:07:16.357964 30030 net.cpp:454] enet5_1_branch2a <- enet5_0_relu5_0_0_split_0
I0110 15:07:16.357975 30030 net.cpp:411] enet5_1_branch2a -> enet5_1_branch2a
I0110 15:07:16.361994 30030 net.cpp:150] Setting up enet5_1_branch2a
I0110 15:07:16.362011 30030 net.cpp:157] Top shape: 4 4 188 620 (1864960)
I0110 15:07:16.362018 30030 net.cpp:165] Memory required for data: 5113720352
I0110 15:07:16.362027 30030 layer_factory.hpp:77] Creating layer bn5_1_branch2a
I0110 15:07:16.362045 30030 net.cpp:106] Creating Layer bn5_1_branch2a
I0110 15:07:16.362056 30030 net.cpp:454] bn5_1_branch2a <- enet5_1_branch2a
I0110 15:07:16.362071 30030 net.cpp:397] bn5_1_branch2a -> enet5_1_branch2a (in-place)
I0110 15:07:16.363742 30030 net.cpp:150] Setting up bn5_1_branch2a
I0110 15:07:16.363759 30030 net.cpp:157] Top shape: 4 4 188 620 (1864960)
I0110 15:07:16.363775 30030 net.cpp:165] Memory required for data: 5121180192
I0110 15:07:16.363793 30030 layer_factory.hpp:77] Creating layer relu5_1_branch2a
I0110 15:07:16.363804 30030 net.cpp:106] Creating Layer relu5_1_branch2a
I0110 15:07:16.363811 30030 net.cpp:454] relu5_1_branch2a <- enet5_1_branch2a
I0110 15:07:16.363821 30030 net.cpp:397] relu5_1_branch2a -> enet5_1_branch2a (in-place)
I0110 15:07:16.365005 30030 net.cpp:150] Setting up relu5_1_branch2a
I0110 15:07:16.365022 30030 net.cpp:157] Top shape: 4 4 188 620 (1864960)
I0110 15:07:16.365030 30030 net.cpp:165] Memory required for data: 5128640032
I0110 15:07:16.365036 30030 layer_factory.hpp:77] Creating layer enet5_1_branch2b
I0110 15:07:16.365058 30030 net.cpp:106] Creating Layer enet5_1_branch2b
I0110 15:07:16.365067 30030 net.cpp:454] enet5_1_branch2b <- enet5_1_branch2a
I0110 15:07:16.365082 30030 net.cpp:411] enet5_1_branch2b -> enet5_1_branch2b
I0110 15:07:16.371249 30030 net.cpp:150] Setting up enet5_1_branch2b
I0110 15:07:16.371268 30030 net.cpp:157] Top shape: 4 4 188 620 (1864960)
I0110 15:07:16.371275 30030 net.cpp:165] Memory required for data: 5136099872
I0110 15:07:16.371287 30030 layer_factory.hpp:77] Creating layer bn5_1_branch2b
I0110 15:07:16.371300 30030 net.cpp:106] Creating Layer bn5_1_branch2b
I0110 15:07:16.371309 30030 net.cpp:454] bn5_1_branch2b <- enet5_1_branch2b
I0110 15:07:16.371318 30030 net.cpp:397] bn5_1_branch2b -> enet5_1_branch2b (in-place)
I0110 15:07:16.372985 30030 net.cpp:150] Setting up bn5_1_branch2b
I0110 15:07:16.373003 30030 net.cpp:157] Top shape: 4 4 188 620 (1864960)
I0110 15:07:16.373009 30030 net.cpp:165] Memory required for data: 5143559712
I0110 15:07:16.373020 30030 layer_factory.hpp:77] Creating layer relu5_1_branch2b
I0110 15:07:16.373031 30030 net.cpp:106] Creating Layer relu5_1_branch2b
I0110 15:07:16.373039 30030 net.cpp:454] relu5_1_branch2b <- enet5_1_branch2b
I0110 15:07:16.373049 30030 net.cpp:397] relu5_1_branch2b -> enet5_1_branch2b (in-place)
I0110 15:07:16.374192 30030 net.cpp:150] Setting up relu5_1_branch2b
I0110 15:07:16.374209 30030 net.cpp:157] Top shape: 4 4 188 620 (1864960)
I0110 15:07:16.374217 30030 net.cpp:165] Memory required for data: 5151019552
I0110 15:07:16.374223 30030 layer_factory.hpp:77] Creating layer enet5_1_branch2c
I0110 15:07:16.374244 30030 net.cpp:106] Creating Layer enet5_1_branch2c
I0110 15:07:16.374253 30030 net.cpp:454] enet5_1_branch2c <- enet5_1_branch2b
I0110 15:07:16.374264 30030 net.cpp:411] enet5_1_branch2c -> enet5_1_branch2c
I0110 15:07:16.378295 30030 net.cpp:150] Setting up enet5_1_branch2c
I0110 15:07:16.378314 30030 net.cpp:157] Top shape: 4 16 188 620 (7459840)
I0110 15:07:16.378320 30030 net.cpp:165] Memory required for data: 5180858912
I0110 15:07:16.378329 30030 layer_factory.hpp:77] Creating layer bn5_1_branch2c
I0110 15:07:16.378346 30030 net.cpp:106] Creating Layer bn5_1_branch2c
I0110 15:07:16.378355 30030 net.cpp:454] bn5_1_branch2c <- enet5_1_branch2c
I0110 15:07:16.378368 30030 net.cpp:397] bn5_1_branch2c -> enet5_1_branch2c (in-place)
I0110 15:07:16.380101 30030 net.cpp:150] Setting up bn5_1_branch2c
I0110 15:07:16.380117 30030 net.cpp:157] Top shape: 4 16 188 620 (7459840)
I0110 15:07:16.380125 30030 net.cpp:165] Memory required for data: 5210698272
I0110 15:07:16.380136 30030 layer_factory.hpp:77] Creating layer enet5_1
I0110 15:07:16.380146 30030 net.cpp:106] Creating Layer enet5_1
I0110 15:07:16.380153 30030 net.cpp:454] enet5_1 <- enet5_0_relu5_0_0_split_1
I0110 15:07:16.380162 30030 net.cpp:454] enet5_1 <- enet5_1_branch2c
I0110 15:07:16.380172 30030 net.cpp:411] enet5_1 -> enet5_1
I0110 15:07:16.380221 30030 net.cpp:150] Setting up enet5_1
I0110 15:07:16.380234 30030 net.cpp:157] Top shape: 4 16 188 620 (7459840)
I0110 15:07:16.380240 30030 net.cpp:165] Memory required for data: 5240537632
I0110 15:07:16.380247 30030 layer_factory.hpp:77] Creating layer relu5_1
I0110 15:07:16.380261 30030 net.cpp:106] Creating Layer relu5_1
I0110 15:07:16.380270 30030 net.cpp:454] relu5_1 <- enet5_1
I0110 15:07:16.380281 30030 net.cpp:397] relu5_1 -> enet5_1 (in-place)
I0110 15:07:16.381660 30030 net.cpp:150] Setting up relu5_1
I0110 15:07:16.381688 30030 net.cpp:157] Top shape: 4 16 188 620 (7459840)
I0110 15:07:16.381696 30030 net.cpp:165] Memory required for data: 5270376992
I0110 15:07:16.381703 30030 layer_factory.hpp:77] Creating layer enet6_0
I0110 15:07:16.381719 30030 net.cpp:106] Creating Layer enet6_0
I0110 15:07:16.381727 30030 net.cpp:454] enet6_0 <- enet5_1
I0110 15:07:16.381742 30030 net.cpp:411] enet6_0 -> enet6_0
I0110 15:07:16.385047 30030 net.cpp:150] Setting up enet6_0
I0110 15:07:16.385068 30030 net.cpp:157] Top shape: 4 4 376 1240 (7459840)
I0110 15:07:16.385076 30030 net.cpp:165] Memory required for data: 5300216352
I0110 15:07:16.385087 30030 layer_factory.hpp:77] Creating layer enet6_0_enet6_0_0_split
I0110 15:07:16.385100 30030 net.cpp:106] Creating Layer enet6_0_enet6_0_0_split
I0110 15:07:16.385107 30030 net.cpp:454] enet6_0_enet6_0_0_split <- enet6_0
I0110 15:07:16.385118 30030 net.cpp:411] enet6_0_enet6_0_0_split -> enet6_0_enet6_0_0_split_0
I0110 15:07:16.385130 30030 net.cpp:411] enet6_0_enet6_0_0_split -> enet6_0_enet6_0_0_split_1
I0110 15:07:16.385216 30030 net.cpp:150] Setting up enet6_0_enet6_0_0_split
I0110 15:07:16.385231 30030 net.cpp:157] Top shape: 4 4 376 1240 (7459840)
I0110 15:07:16.385237 30030 net.cpp:157] Top shape: 4 4 376 1240 (7459840)
I0110 15:07:16.385243 30030 net.cpp:165] Memory required for data: 5359895072
I0110 15:07:16.385251 30030 layer_factory.hpp:77] Creating layer loss
I0110 15:07:16.385272 30030 net.cpp:106] Creating Layer loss
I0110 15:07:16.385279 30030 net.cpp:454] loss <- enet6_0_enet6_0_0_split_0
I0110 15:07:16.385289 30030 net.cpp:454] loss <- label_data_1_split_0
I0110 15:07:16.385303 30030 net.cpp:411] loss -> loss
I0110 15:07:16.385330 30030 layer_factory.hpp:77] Creating layer loss
I0110 15:07:16.427345 30030 net.cpp:150] Setting up loss
I0110 15:07:16.427392 30030 net.cpp:157] Top shape: (1)
I0110 15:07:16.427399 30030 net.cpp:160]     with loss weight 1
I0110 15:07:16.427453 30030 net.cpp:165] Memory required for data: 5359895076
I0110 15:07:16.427464 30030 layer_factory.hpp:77] Creating layer accuracy
I0110 15:07:16.427486 30030 net.cpp:106] Creating Layer accuracy
I0110 15:07:16.427500 30030 net.cpp:454] accuracy <- enet6_0_enet6_0_0_split_1
I0110 15:07:16.427512 30030 net.cpp:454] accuracy <- label_data_1_split_1
I0110 15:07:16.427523 30030 net.cpp:411] accuracy -> accuracy
I0110 15:07:16.427537 30030 net.cpp:411] accuracy -> per_class_accuracy
I0110 15:07:16.427623 30030 net.cpp:150] Setting up accuracy
I0110 15:07:16.427636 30030 net.cpp:157] Top shape: (1)
I0110 15:07:16.427644 30030 net.cpp:157] Top shape: 4 (4)
I0110 15:07:16.427650 30030 net.cpp:165] Memory required for data: 5359895096
I0110 15:07:16.427657 30030 net.cpp:228] accuracy does not need backward computation.
I0110 15:07:16.427664 30030 net.cpp:226] loss needs backward computation.
I0110 15:07:16.427672 30030 net.cpp:226] enet6_0_enet6_0_0_split needs backward computation.
I0110 15:07:16.427680 30030 net.cpp:226] enet6_0 needs backward computation.
…
