…
I1123 17:47:27.781111  1154 solver.cpp:91] Creating training net from net file: /home/map/hebei/caffe_hebei/segnet/Models/enet/enet_train2.prototxt
I1123 17:47:27.793601  1154 net.cpp:49] Initializing net from parameters: 
name: "enet"
state {
  phase: TRAIN
}
layer {
  name: "data"
  type: "ImageSegData"
  top: "data"
  top: "label"
  transform_param {
    mirror: true
    mean_value: 104.008
    mean_value: 116.669
    mean_value: 122.675
    scale_factors: 1
  }
  image_data_param {
    source: "/home/map/hebei/datasets/hadmap/trainval3.txt"
    batch_size: 10
    shuffle: false
    label_type: PIXEL
  }
}
layer {
  name: "enet_initial_branch2a"
  type: "Convolution"
  bottom: "data"
  top: "enet_initial_branch2a"
  param {
    lr_mult: 1
    decay_mult: 1
  }
  param {
    lr_mult: 2
    decay_mult: 0
  }
  convolution_param {
    num_output: 13
    bias_term: true
    weight_filler {
      type: "msra"
    }
    bias_filler {
      type: "constant"
    }
    pad_h: 1
    pad_w: 1
    kernel_h: 3
    kernel_w: 3
    stride_h: 2
    stride_w: 2
    dilation: 1
  }
}
layer {
  name: "pool_initial_branch1a"
  type: "Pooling"
  bottom: "data"
  top: "pool_initial_branch1a"
  pooling_param {
    pool: MAX
    kernel_size: 2
    stride: 2
  }
}
layer {
  name: "enet_initial"
  type: "Concat"
  bottom: "enet_initial_branch2a"
  bottom: "pool_initial_branch1a"
  top: "enet_initial"
  concat_param {
    axis: 1
  }
}
layer {
  name: "bn_initial"
  type: "BN"
  bottom: "enet_initial"
  top: "enet_initial"
  param {
    lr_mult: 1
    decay_mult: 1
  }
  param {
    lr_mult: 2
    decay_mult: 0
  }
  bn_param {
    scale_filler {
      type: "constant"
      value: 1
    }
    shift_filler {
      type: "constant"
      value: 0.001
    }
  }
}
layer {
  name: "relu_initial"
  type: "PReLU"
  bottom: "enet_initial"
  top: "enet_initial"
}
layer {
  name: "enet1_0_branch2a"
  type: "Convolution"
  bottom: "enet_initial"
  top: "enet1_0_branch2a"
  param {
    lr_mult: 1
    decay_mult: 1
  }
  convolution_param {
    num_output: 16
    bias_term: false
    weight_filler {
      type: "msra"
    }
    bias_filler {
      type: "constant"
    }
    pad_h: 1
    pad_w: 1
    kernel_h: 2
    kernel_w: 2
    stride_h: 2
    stride_w: 2
    dilation: 1
  }
}
layer {
  name: "bn1_0_branch2a"
  type: "BN"
  bottom: "enet1_0_branch2a"
  top: "enet1_0_branch2a"
  param {
    lr_mult: 1
    decay_mult: 1
  }
  param {
    lr_mult: 2
    decay_mult: 0
  }
  bn_param {
    scale_filler {
      type: "constant"
      value: 1
    }
    shift_filler {
      type: "constant"
      value: 0.001
    }
  }
}
layer {
  name: "relu1_0_branch2a"
  type: "PReLU"
  bottom: "enet1_0_branch2a"
  top: "enet1_0_branch2a"
}
layer {
  name: "enet1_0_branch2b"
  type: "Convolution"
  bottom: "enet1_0_branch2a"
  top: "enet1_0_branch2b"
  param {
    lr_mult: 1
    decay_mult: 1
  }
  param {
    lr_mult: 2
    decay_mult: 0
  }
  convolution_param {
    num_output: 16
    bias_term: true
    weight_filler {
      type: "msra"
    }
    bias_filler {
      type: "constant"
    }
    pad_h: 1
    pad_w: 1
    kernel_h: 3
    kernel_w: 3
    stride_h: 1
    stride_w: 1
    dilation: 1
  }
}
layer {
  name: "bn1_0_branch2b"
  type: "BN"
  bottom: "enet1_0_branch2b"
  top: "enet1_0_branch2b"
  param {
    lr_mult: 1
    decay_mult: 1
  }
  param {
    lr_mult: 2
    decay_mult: 0
  }
  bn_param {
    scale_filler {
      type: "constant"
      value: 1
    }
    shift_filler {
      type: "constant"
      value: 0.001
    }
  }
}
layer {
  name: "relu1_0_branch2b"
  type: "PReLU"
  bottom: "enet1_0_branch2b"
  top: "enet1_0_branch2b"
}
layer {
  name: "enet1_0_branch2c"
  type: "Convolution"
  bottom: "enet1_0_branch2b"
  top: "enet1_0_branch2c"
  param {
    lr_mult: 1
    decay_mult: 1
  }
  convolution_param {
    num_output: 64
    bias_term: false
    weight_filler {
      type: "msra"
    }
    bias_filler {
      type: "constant"
    }
    pad_h: 0
    pad_w: 0
    kernel_h: 1
    kernel_w: 1
    stride_h: 1
    stride_w: 1
    dilation: 1
  }
}
layer {
  name: "bn1_0_branch2c"
  type: "BN"
  bottom: "enet1_0_branch2c"
  top: "enet1_0_branch2c"
  param {
    lr_mult: 1
    decay_mult: 1
  }
  param {
    lr_mult: 2
    decay_mult: 0
  }
  bn_param {
    scale_filler {
      type: "constant"
      value: 1
    }
    shift_filler {
      type: "constant"
      value: 0.001
    }
  }
}
layer {
  name: "dropout1_0_branch2c"
  type: "Dropout"
  bottom: "enet1_0_branch2c"
  top: "enet1_0_branch2c"
  dropout_param {
    dropout_ratio: 0.01
  }
}
layer {
  name: "enet1_0_branch1a"
  type: "Convolution"
  bottom: "enet_initial"
  top: "enet1_0_branch1a"
  param {
    lr_mult: 1
    decay_mult: 1
  }
  convolution_param {
    num_output: 64
    bias_term: false
    weight_filler {
      type: "msra"
    }
    bias_filler {
      type: "constant"
    }
    pad_h: 0
    pad_w: 0
    kernel_h: 1
    kernel_w: 1
    stride_h: 1
    stride_w: 1
    dilation: 1
  }
}
layer {
  name: "bn1_0_branch1a"
  type: "BN"
  bottom: "enet1_0_branch1a"
  top: "enet1_0_branch1a"
  param {
    lr_mult: 1
    decay_mult: 1
  }
  param {
    lr_mult: 2
    decay_mult: 0
  }
  bn_param {
    scale_filler {
      type: "constant"
      value: 1
    }
    shift_filler {
      type: "constant"
      value: 0.001
    }
  }
}
layer {
  name: "pool1_0_branch1a"
  type: "Pooling"
  bottom: "enet1_0_branch1a"
  top: "pool1_0_branch1a"
  top: "pool1_0_branch1a_mask"
  pooling_param {
    pool: MAX
    kernel_size: 2
    stride: 2
  }
}
layer {
  name: "enet1_0"
  type: "Eltwise"
  bottom: "pool1_0_branch1a"
  bottom: "enet1_0_branch2c"
  top: "enet1_0"
}
layer {
  name: "relu1_0"
  type: "PReLU"
  bottom: "enet1_0"
  top: "enet1_0"
}
layer {
  name: "enet1_1_branch2a"
  type: "Convolution"
  bottom: "enet1_0"
  top: "enet1_1_branch2a"
  param {
    lr_mult: 1
    decay_mult: 1
  }
  convolution_param {
    num_output: 16
    bias_term: false
    weight_filler {
      type: "msra"
    }
    bias_filler {
      type: "constant"
    }
    pad_h: 0
    pad_w: 0
    kernel_h: 1
    kernel_w: 1
    stride_h: 1
    stride_w: 1
    dilation: 1
  }
}
layer {
  name: "bn1_1_branch2a"
  type: "BN"
  bottom: "enet1_1_branch2a"
  top: "enet1_1_branch2a"
  param {
    lr_mult: 1
    decay_mult: 1
  }
  param {
    lr_mult: 2
    decay_mult: 0
  }
  bn_param {
    scale_filler {
      type: "constant"
      value: 1
    }
    shift_filler {
      type: "constant"
      value: 0.001
    }
  }
}
layer {
  name: "relu1_1_branch2a"
  type: "PReLU"
  bottom: "enet1_1_branch2a"
  top: "enet1_1_branch2a"
}
layer {
  name: "enet1_1_branch2b"
  type: "Convolution"
  bottom: "enet1_1_branch2a"
  top: "enet1_1_branch2b"
  param {
    lr_mult: 1
    decay_mult: 1
  }
  param {
    lr_mult: 2
    decay_mult: 0
  }
  convolution_param {
    num_output: 16
    bias_term: true
    weight_filler {
      type: "msra"
    }
    bias_filler {
      type: "constant"
    }
    pad_h: 1
    pad_w: 1
    kernel_h: 3
    kernel_w: 3
    stride_h: 1
    stride_w: 1
    dilation: 1
  }
}
layer {
  name: "bn1_1_branch2b"
  type: "BN"
  bottom: "enet1_1_branch2b"
  top: "enet1_1_branch2b"
  param {
    lr_mult: 1
    decay_mult: 1
  }
  param {
    lr_mult: 2
    decay_mult: 0
  }
  bn_param {
    scale_filler {
      type: "constant"
      value: 1
    }
    shift_filler {
      type: "constant"
      value: 0.001
    }
  }
}
layer {
  name: "relu1_1_branch2b"
  type: "PReLU"
  bottom: "enet1_1_branch2b"
  top: "enet1_1_branch2b"
}
layer {
  name: "enet1_1_branch2c"
  type: "Convolution"
  bottom: "enet1_1_branch2b"
  top: "enet1_1_branch2c"
  param {
    lr_mult: 1
    decay_mult: 1
  }
  convolution_param {
    num_output: 64
    bias_term: false
    weight_filler {
      type: "msra"
    }
    bias_filler {
      type: "constant"
    }
    pad_h: 0
    pad_w: 0
    kernel_h: 1
    kernel_w: 1
    stride_h: 1
    stride_w: 1
    dilation: 1
  }
}
layer {
  name: "bn1_1_branch2c"
  type: "BN"
  bottom: "enet1_1_branch2c"
  top: "enet1_1_branch2c"
  param {
    lr_mult: 1
    decay_mult: 1
  }
  param {
    lr_mult: 2
    decay_mult: 0
  }
  bn_param {
    scale_filler {
      type: "constant"
      value: 1
    }
    shift_filler {
      type: "constant"
      value: 0.001
    }
  }
}
layer {
  name: "dropout1_1_branch2c"
  type: "Dropout"
  bottom: "enet1_1_branch2c"
  top: "enet1_1_branch2c"
  dropout_param {
    dropout_ratio: 0.01
  }
}
layer {
  name: "enet1_1"
  type: "Eltwise"
  bottom: "enet1_0"
  bottom: "enet1_1_branch2c"
  top: "enet1_1"
}
layer {
  name: "relu1_1"
  type: "PReLU"
  bottom: "enet1_1"
  top: "enet1_1"
}
layer {
  name: "enet1_2_branch2a"
  type: "Convolution"
  bottom: "enet1_1"
  top: "enet1_2_branch2a"
  param {
    lr_mult: 1
    decay_mult: 1
  }
  convolution_param {
    num_output: 16
    bias_term: false
    weight_filler {
      type: "msra"
    }
    bias_filler {
      type: "constant"
    }
    pad_h: 0
    pad_w: 0
    kernel_h: 1
    kernel_w: 1
    stride_h: 1
    stride_w: 1
    dilation: 1
  }
}
layer {
  name: "bn1_2_branch2a"
  type: "BN"
  bottom: "enet1_2_branch2a"
  top: "enet1_2_branch2a"
  param {
    lr_mult: 1
    decay_mult: 1
  }
  param {
    lr_mult: 2
    decay_mult: 0
  }
  bn_param {
    scale_filler {
      type: "constant"
      value: 1
    }
    shift_filler {
      type: "constant"
      value: 0.001
    }
  }
}
layer {
  name: "relu1_2_branch2a"
  type: "PReLU"
  bottom: "enet1_2_branch2a"
  top: "enet1_2_branch2a"
}
layer {
  name: "enet1_2_branch2b"
  type: "Convolution"
  bottom: "enet1_2_branch2a"
  top: "enet1_2_branch2b"
  param {
    lr_mult: 1
    decay_mult: 1
  }
  param {
    lr_mult: 2
    decay_mult: 0
  }
  convolution_param {
    num_output: 16
    bias_term: true
    weight_filler {
      type: "msra"
    }
    bias_filler {
      type: "constant"
    }
    pad_h: 1
    pad_w: 1
    kernel_h: 3
    kernel_w: 3
    stride_h: 1
    stride_w: 1
    dilation: 1
  }
}
layer {
  name: "bn1_2_branch2b"
  type: "BN"
  bottom: "enet1_2_branch2b"
  top: "enet1_2_branch2b"
  param {
    lr_mult: 1
    decay_mult: 1
  }
  param {
    lr_mult: 2
    decay_mult: 0
  }
  bn_param {
    scale_filler {
      type: "constant"
      value: 1
    }
    shift_filler {
      type: "constant"
      value: 0.001
    }
  }
}
layer {
  name: "relu1_2_branch2b"
  type: "PReLU"
  bottom: "enet1_2_branch2b"
  top: "enet1_2_branch2b"
}
layer {
  name: "enet1_2_branch2c"
  type: "Convolution"
  bottom: "enet1_2_branch2b"
  top: "enet1_2_branch2c"
  param {
    lr_mult: 1
    decay_mult: 1
  }
  convolution_param {
    num_output: 64
    bias_term: false
    weight_filler {
      type: "msra"
    }
    bias_filler {
      type: "constant"
    }
    pad_h: 0
    pad_w: 0
    kernel_h: 1
    kernel_w: 1
    stride_h: 1
    stride_w: 1
    dilation: 1
  }
}
layer {
  name: "bn1_2_branch2c"
  type: "BN"
  bottom: "enet1_2_branch2c"
  top: "enet1_2_branch2c"
  param {
    lr_mult: 1
    decay_mult: 1
  }
  param {
    lr_mult: 2
    decay_mult: 0
  }
  bn_param {
    scale_filler {
      type: "constant"
      value: 1
    }
    shift_filler {
      type: "constant"
      value: 0.001
    }
  }
}
layer {
  name: "dropout1_2_branch2c"
  type: "Dropout"
  bottom: "enet1_2_branch2c"
  top: "enet1_2_branch2c"
  dropout_param {
    dropout_ratio: 0.01
  }
}
layer {
  name: "enet1_2"
  type: "Eltwise"
  bottom: "enet1_1"
  bottom: "enet1_2_branch2c"
  top: "enet1_2"
}
layer {
  name: "relu1_2"
  type: "PReLU"
  bottom: "enet1_2"
  top: "enet1_2"
}
layer {
  name: "enet1_3_branch2a"
  type: "Convolution"
  bottom: "enet1_2"
  top: "enet1_3_branch2a"
  param {
    lr_mult: 1
    decay_mult: 1
  }
  convolution_param {
    num_output: 16
    bias_term: false
    weight_filler {
      type: "msra"
    }
    bias_filler {
      type: "constant"
    }
    pad_h: 0
    pad_w: 0
    kernel_h: 1
    kernel_w: 1
    stride_h: 1
    stride_w: 1
    dilation: 1
  }
}
layer {
  name: "bn1_3_branch2a"
  type: "BN"
  bottom: "enet1_3_branch2a"
  top: "enet1_3_branch2a"
  param {
    lr_mult: 1
    decay_mult: 1
  }
  param {
    lr_mult: 2
    decay_mult: 0
  }
  bn_param {
    scale_filler {
      type: "constant"
      value: 1
    }
    shift_filler {
      type: "constant"
      value: 0.001
    }
  }
}
layer {
  name: "relu1_3_branch2a"
  type: "PReLU"
  bottom: "enet1_3_branch2a"
  top: "enet1_3_branch2a"
}
layer {
  name: "enet1_3_branch2b"
  type: "Convolution"
  bottom: "enet1_3_branch2a"
  top: "enet1_3_branch2b"
  param {
    lr_mult: 1
    decay_mult: 1
  }
  param {
    lr_mult: 2
    decay_mult: 0
  }
  convolution_param {
    num_output: 16
    bias_term: true
    weight_filler {
      type: "msra"
    }
    bias_filler {
      type: "constant"
    }
    pad_h: 1
    pad_w: 1
    kernel_h: 3
    kernel_w: 3
    stride_h: 1
    stride_w: 1
    dilation: 1
  }
}
layer {
  name: "bn1_3_branch2b"
  type: "BN"
  bottom: "enet1_3_branch2b"
  top: "enet1_3_branch2b"
  param {
    lr_mult: 1
    decay_mult: 1
  }
  param {
    lr_mult: 2
    decay_mult: 0
  }
  bn_param {
    scale_filler {
      type: "constant"
      value: 1
    }
    shift_filler {
      type: "constant"
      value: 0.001
    }
  }
}
layer {
  name: "relu1_3_branch2b"
  type: "PReLU"
  bottom: "enet1_3_branch2b"
  top: "enet1_3_branch2b"
}
layer {
  name: "enet1_3_branch2c"
  type: "Convolution"
  bottom: "enet1_3_branch2b"
  top: "enet1_3_branch2c"
  param {
    lr_mult: 1
    decay_mult: 1
  }
  convolution_param {
    num_output: 64
    bias_term: false
    weight_filler {
      type: "msra"
    }
    bias_filler {
      type: "constant"
    }
    pad_h: 0
    pad_w: 0
    kernel_h: 1
    kernel_w: 1
    stride_h: 1
    stride_w: 1
    dilation: 1
  }
}
layer {
  name: "bn1_3_branch2c"
  type: "BN"
  bottom: "enet1_3_branch2c"
  top: "enet1_3_branch2c"
  param {
    lr_mult: 1
    decay_mult: 1
  }
  param {
    lr_mult: 2
    decay_mult: 0
  }
  bn_param {
    scale_filler {
      type: "constant"
      value: 1
    }
    shift_filler {
      type: "constant"
      value: 0.001
    }
  }
}
layer {
  name: "dropout1_3_branch2c"
  type: "Dropout"
  bottom: "enet1_3_branch2c"
  top: "enet1_3_branch2c"
  dropout_param {
    dropout_ratio: 0.01
  }
}
layer {
  name: "enet1_3"
  type: "Eltwise"
  bottom: "enet1_2"
  bottom: "enet1_3_branch2c"
  top: "enet1_3"
}
layer {
  name: "relu1_3"
  type: "PReLU"
  bottom: "enet1_3"
  top: "enet1_3"
}
layer {
  name: "enet1_4_branch2a"
  type: "Convolution"
  bottom: "enet1_3"
  top: "enet1_4_branch2a"
  param {
    lr_mult: 1
    decay_mult: 1
  }
  convolution_param {
    num_output: 16
    bias_term: false
    weight_filler {
      type: "msra"
    }
    bias_filler {
      type: "constant"
    }
    pad_h: 0
    pad_w: 0
    kernel_h: 1
    kernel_w: 1
    stride_h: 1
    stride_w: 1
    dilation: 1
  }
}
layer {
  name: "bn1_4_branch2a"
  type: "BN"
  bottom: "enet1_4_branch2a"
  top: "enet1_4_branch2a"
  param {
    lr_mult: 1
    decay_mult: 1
  }
  param {
    lr_mult: 2
    decay_mult: 0
  }
  bn_param {
    scale_filler {
      type: "constant"
      value: 1
    }
    shift_filler {
      type: "constant"
      value: 0.001
    }
  }
}
layer {
  name: "relu1_4_branch2a"
  type: "PReLU"
  bottom: "enet1_4_branch2a"
  top: "enet1_4_branch2a"
}
layer {
  name: "enet1_4_branch2b"
  type: "Convolution"
  bottom: "enet1_4_branch2a"
  top: "enet1_4_branch2b"
  param {
    lr_mult: 1
    decay_mult: 1
  }
  param {
    lr_mult: 2
    decay_mult: 0
  }
  convolution_param {
    num_output: 16
    bias_term: true
    weight_filler {
      type: "msra"
    }
    bias_filler {
      type: "constant"
    }
    pad_h: 1
    pad_w: 1
    kernel_h: 3
    kernel_w: 3
    stride_h: 1
    stride_w: 1
    dilation: 1
  }
}
layer {
  name: "bn1_4_branch2b"
  type: "BN"
  bottom: "enet1_4_branch2b"
  top: "enet1_4_branch2b"
  param {
    lr_mult: 1
    decay_mult: 1
  }
  param {
    lr_mult: 2
    decay_mult: 0
  }
  bn_param {
    scale_filler {
      type: "constant"
      value: 1
    }
    shift_filler {
      type: "constant"
      value: 0.001
    }
  }
}
layer {
  name: "relu1_4_branch2b"
  type: "PReLU"
  bottom: "enet1_4_branch2b"
  top: "enet1_4_branch2b"
}
layer {
  name: "enet1_4_branch2c"
  type: "Convolution"
  bottom: "enet1_4_branch2b"
  top: "enet1_4_branch2c"
  param {
    lr_mult: 1
    decay_mult: 1
  }
  convolution_param {
    num_output: 64
    bias_term: false
    weight_filler {
      type: "msra"
    }
    bias_filler {
      type: "constant"
    }
    pad_h: 0
    pad_w: 0
    kernel_h: 1
    kernel_w: 1
    stride_h: 1
    stride_w: 1
    dilation: 1
  }
}
layer {
  name: "bn1_4_branch2c"
  type: "BN"
  bottom: "enet1_4_branch2c"
  top: "enet1_4_branch2c"
  param {
    lr_mult: 1
    decay_mult: 1
  }
  param {
    lr_mult: 2
    decay_mult: 0
  }
  bn_param {
    scale_filler {
      type: "constant"
      value: 1
    }
    shift_filler {
      type: "constant"
      value: 0.001
    }
  }
}
layer {
  name: "dropout1_4_branch2c"
  type: "Dropout"
  bottom: "enet1_4_branch2c"
  top: "enet1_4_branch2c"
  dropout_param {
    dropout_ratio: 0.01
  }
}
layer {
  name: "enet1_4"
  type: "Eltwise"
  bottom: "enet1_3"
  bottom: "enet1_4_branch2c"
  top: "enet1_4"
}
layer {
  name: "relu1_4"
  type: "PReLU"
  bottom: "enet1_4"
  top: "enet1_4"
}
layer {
  name: "enet2_0_branch2a"
  type: "Convolution"
  bottom: "enet1_4"
  top: "enet2_0_branch2a"
  param {
    lr_mult: 1
    decay_mult: 1
  }
  convolution_param {
    num_output: 32
    bias_term: false
    weight_filler {
      type: "msra"
    }
    bias_filler {
      type: "constant"
    }
    pad_h: 1
    pad_w: 1
    kernel_h: 2
    kernel_w: 2
    stride_h: 2
    stride_w: 2
    dilation: 1
  }
}
layer {
  name: "bn2_0_branch2a"
  type: "BN"
  bottom: "enet2_0_branch2a"
  top: "enet2_0_branch2a"
  param {
    lr_mult: 1
    decay_mult: 1
  }
  param {
    lr_mult: 2
    decay_mult: 0
  }
  bn_param {
    scale_filler {
      type: "constant"
      value: 1
    }
    shift_filler {
      type: "constant"
      value: 0.001
    }
  }
}
layer {
  name: "relu2_0_branch2a"
  type: "PReLU"
  bottom: "enet2_0_branch2a"
  top: "enet2_0_branch2a"
}
layer {
  name: "enet2_0_branch2b"
  type: "Convolution"
  bottom: "enet2_0_branch2a"
  top: "enet2_0_branch2b"
  param {
    lr_mult: 1
    decay_mult: 1
  }
  param {
    lr_mult: 2
    decay_mult: 0
  }
  convolution_param {
    num_output: 32
    bias_term: true
    weight_filler {
      type: "msra"
    }
    bias_filler {
      type: "constant"
    }
    pad_h: 1
    pad_w: 1
    kernel_h: 3
    kernel_w: 3
    stride_h: 1
    stride_w: 1
    dilation: 1
  }
}
layer {
  name: "bn2_0_branch2b"
  type: "BN"
  bottom: "enet2_0_branch2b"
  top: "enet2_0_branch2b"
  param {
    lr_mult: 1
    decay_mult: 1
  }
  param {
    lr_mult: 2
    decay_mult: 0
  }
  bn_param {
    scale_filler {
      type: "constant"
      value: 1
    }
    shift_filler {
      type: "constant"
      value: 0.001
    }
  }
}
layer {
  name: "relu2_0_branch2b"
  type: "PReLU"
  bottom: "enet2_0_branch2b"
  top: "enet2_0_branch2b"
}
layer {
  name: "enet2_0_branch2c"
  type: "Convolution"
  bottom: "enet2_0_branch2b"
  top: "enet2_0_branch2c"
  param {
    lr_mult: 1
    decay_mult: 1
  }
  convolution_param {
    num_output: 128
    bias_term: false
    weight_filler {
      type: "msra"
    }
    bias_filler {
      type: "constant"
    }
    pad_h: 0
    pad_w: 0
    kernel_h: 1
    kernel_w: 1
    stride_h: 1
    stride_w: 1
    dilation: 1
  }
}
layer {
  name: "bn2_0_branch2c"
  type: "BN"
  bottom: "enet2_0_branch2c"
  top: "enet2_0_branch2c"
  param {
    lr_mult: 1
    decay_mult: 1
  }
  param {
    lr_mult: 2
    decay_mult: 0
  }
  bn_param {
    scale_filler {
      type: "constant"
      value: 1
    }
    shift_filler {
      type: "constant"
      value: 0.001
    }
  }
}
layer {
  name: "dropout2_0_branch2c"
  type: "Dropout"
  bottom: "enet2_0_branch2c"
  top: "enet2_0_branch2c"
  dropout_param {
    dropout_ratio: 0.1
  }
}
layer {
  name: "enet2_0_branch1a"
  type: "Convolution"
  bottom: "enet1_4"
  top: "enet2_0_branch1a"
  param {
    lr_mult: 1
    decay_mult: 1
  }
  convolution_param {
    num_output: 128
    bias_term: false
    weight_filler {
      type: "msra"
    }
    bias_filler {
      type: "constant"
    }
    pad_h: 0
    pad_w: 0
    kernel_h: 1
    kernel_w: 1
    stride_h: 1
    stride_w: 1
    dilation: 1
  }
}
layer {
  name: "bn2_0_branch1a"
  type: "BN"
  bottom: "enet2_0_branch1a"
  top: "enet2_0_branch1a"
  param {
    lr_mult: 1
    decay_mult: 1
  }
  param {
    lr_mult: 2
    decay_mult: 0
  }
  bn_param {
    scale_filler {
      type: "constant"
      value: 1
    }
    shift_filler {
      type: "constant"
      value: 0.001
    }
  }
}
layer {
  name: "pool2_0_branch1a"
  type: "Pooling"
  bottom: "enet2_0_branch1a"
  top: "pool2_0_branch1a"
  top: "pool2_0_branch1a_mask"
  pooling_param {
    pool: MAX
    kernel_size: 2
    stride: 2
  }
}
layer {
  name: "enet2_0"
  type: "Eltwise"
  bottom: "pool2_0_branch1a"
  bottom: "enet2_0_branch2c"
  top: "enet2_0"
}
layer {
  name: "relu2_0"
  type: "PReLU"
  bottom: "enet2_0"
  top: "enet2_0"
}
layer {
  name: "enet2_1_branch2a"
  type: "Convolution"
  bottom: "enet2_0"
  top: "enet2_1_branch2a"
  param {
    lr_mult: 1
    decay_mult: 1
  }
  convolution_param {
    num_output: 32
    bias_term: false
    weight_filler {
      type: "msra"
    }
    bias_filler {
      type: "constant"
    }
    pad_h: 0
    pad_w: 0
    kernel_h: 1
    kernel_w: 1
    stride_h: 1
    stride_w: 1
    dilation: 1
  }
}
layer {
  name: "bn2_1_branch2a"
  type: "BN"
  bottom: "enet2_1_branch2a"
  top: "enet2_1_branch2a"
  param {
    lr_mult: 1
    decay_mult: 1
  }
  param {
    lr_mult: 2
    decay_mult: 0
  }
  bn_param {
    scale_filler {
      type: "constant"
      value: 1
    }
    shift_filler {
      type: "constant"
      value: 0.001
    }
  }
}
layer {
  name: "relu2_1_branch2a"
  type: "PReLU"
  bottom: "enet2_1_branch2a"
  top: "enet2_1_branch2a"
}
layer {
  name: "enet2_1_branch2b"
  type: "Convolution"
  bottom: "enet2_1_branch2a"
  top: "enet2_1_branch2b"
  param {
    lr_mult: 1
    decay_mult: 1
  }
  param {
    lr_mult: 2
    decay_mult: 0
  }
  convolution_param {
    num_output: 32
    bias_term: true
    weight_filler {
      type: "msra"
    }
    bias_filler {
      type: "constant"
    }
    pad_h: 1
    pad_w: 1
    kernel_h: 3
    kernel_w: 3
    stride_h: 1
    stride_w: 1
    dilation: 1
  }
}
layer {
  name: "bn2_1_branch2b"
  type: "BN"
  bottom: "enet2_1_branch2b"
  top: "enet2_1_branch2b"
  param {
    lr_mult: 1
    decay_mult: 1
  }
  param {
    lr_mult: 2
    decay_mult: 0
  }
  bn_param {
    scale_filler {
      type: "constant"
      value: 1
    }
    shift_filler {
      type: "constant"
      value: 0.001
    }
  }
}
layer {
  name: "relu2_1_branch2b"
  type: "PReLU"
  bottom: "enet2_1_branch2b"
  top: "enet2_1_branch2b"
}
layer {
  name: "enet2_1_branch2c"
  type: "Convolution"
  bottom: "enet2_1_branch2b"
  top: "enet2_1_branch2c"
  param {
    lr_mult: 1
    decay_mult: 1
  }
  convolution_param {
    num_output: 128
    bias_term: false
    weight_filler {
      type: "msra"
    }
    bias_filler {
      type: "constant"
    }
    pad_h: 0
    pad_w: 0
    kernel_h: 1
    kernel_w: 1
    stride_h: 1
    stride_w: 1
    dilation: 1
  }
}
layer {
  name: "bn2_1_branch2c"
  type: "BN"
  bottom: "enet2_1_branch2c"
  top: "enet2_1_branch2c"
  param {
    lr_mult: 1
    decay_mult: 1
  }
  param {
    lr_mult: 2
    decay_mult: 0
  }
  bn_param {
    scale_filler {
      type: "constant"
      value: 1
    }
    shift_filler {
      type: "constant"
      value: 0.001
    }
  }
}
layer {
  name: "dropout2_1_branch2c"
  type: "Dropout"
  bottom: "enet2_1_branch2c"
  top: "enet2_1_branch2c"
  dropout_param {
    dropout_ratio: 0.1
  }
}
layer {
  name: "enet2_1"
  type: "Eltwise"
  bottom: "enet2_0"
  bottom: "enet2_1_branch2c"
  top: "enet2_1"
}
layer {
  name: "relu2_1"
  type: "PReLU"
  bottom: "enet2_1"
  top: "enet2_1"
}
layer {
  name: "enet2_2_branch2a"
  type: "Convolution"
  bottom: "enet2_1"
  top: "enet2_2_branch2a"
  param {
    lr_mult: 1
    decay_mult: 1
  }
  convolution_param {
    num_output: 32
    bias_term: false
    weight_filler {
      type: "msra"
    }
    bias_filler {
      type: "constant"
    }
    pad_h: 0
    pad_w: 0
    kernel_h: 1
    kernel_w: 1
    stride_h: 1
    stride_w: 1
    dilation: 1
  }
}
layer {
  name: "bn2_2_branch2a"
  type: "BN"
  bottom: "enet2_2_branch2a"
  top: "enet2_2_branch2a"
  param {
    lr_mult: 1
    decay_mult: 1
  }
  param {
    lr_mult: 2
    decay_mult: 0
  }
  bn_param {
    scale_filler {
      type: "constant"
      value: 1
    }
    shift_filler {
      type: "constant"
      value: 0.001
    }
  }
}
layer {
  name: "relu2_2_branch2a"
  type: "PReLU"
  bottom: "enet2_2_branch2a"
  top: "enet2_2_branch2a"
}
layer {
  name: "enet2_2_branch2b"
  type: "Convolution"
  bottom: "enet2_2_branch2a"
  top: "enet2_2_branch2b"
  param {
    lr_mult: 1
    decay_mult: 1
  }
  param {
    lr_mult: 2
    decay_mult: 0
  }
  convolution_param {
    num_output: 32
    bias_term: true
    weight_filler {
      type: "msra"
    }
    bias_filler {
      type: "constant"
    }
    pad_h: 2
    pad_w: 2
    kernel_h: 3
    kernel_w: 3
    stride_h: 1
    stride_w: 1
    dilation: 2
  }
}
layer {
  name: "bn2_2_branch2b"
  type: "BN"
  bottom: "enet2_2_branch2b"
  top: "enet2_2_branch2b"
  param {
    lr_mult: 1
    decay_mult: 1
  }
  param {
    lr_mult: 2
    decay_mult: 0
  }
  bn_param {
    scale_filler {
      type: "constant"
      value: 1
    }
    shift_filler {
      type: "constant"
      value: 0.001
    }
  }
}
layer {
  name: "relu2_2_branch2b"
  type: "PReLU"
  bottom: "enet2_2_branch2b"
  top: "enet2_2_branch2b"
}
layer {
  name: "enet2_2_branch2c"
  type: "Convolution"
  bottom: "enet2_2_branch2b"
  top: "enet2_2_branch2c"
  param {
    lr_mult: 1
    decay_mult: 1
  }
  convolution_param {
    num_output: 128
    bias_term: false
    weight_filler {
      type: "msra"
    }
    bias_filler {
      type: "constant"
    }
    pad_h: 0
    pad_w: 0
    kernel_h: 1
    kernel_w: 1
    stride_h: 1
    stride_w: 1
    dilation: 1
  }
}
layer {
  name: "bn2_2_branch2c"
  type: "BN"
  bottom: "enet2_2_branch2c"
  top: "enet2_2_branch2c"
  param {
    lr_mult: 1
    decay_mult: 1
  }
  param {
    lr_mult: 2
    decay_mult: 0
  }
  bn_param {
    scale_filler {
      type: "constant"
      value: 1
    }
    shift_filler {
      type: "constant"
      value: 0.001
    }
  }
}
layer {
  name: "dropout2_2_branch2c"
  type: "Dropout"
  bottom: "enet2_2_branch2c"
  top: "enet2_2_branch2c"
  dropout_param {
    dropout_ratio: 0.1
  }
}
layer {
  name: "enet2_2"
  type: "Eltwise"
  bottom: "enet2_1"
  bottom: "enet2_2_branch2c"
  top: "enet2_2"
}
layer {
  name: "relu2_2"
  type: "PReLU"
  bottom: "enet2_2"
  top: "enet2_2"
}
layer {
  name: "enet2_3_branch2a"
  type: "Convolution"
  bottom: "enet2_2"
  top: "enet2_3_branch2a"
  param {
    lr_mult: 1
    decay_mult: 1
  }
  convolution_param {
    num_output: 32
    bias_term: false
    weight_filler {
      type: "msra"
    }
    bias_filler {
      type: "constant"
    }
    pad_h: 0
    pad_w: 0
    kernel_h: 1
    kernel_w: 1
    stride_h: 1
    stride_w: 1
    dilation: 1
  }
}
layer {
  name: "bn2_3_branch2a"
  type: "BN"
  bottom: "enet2_3_branch2a"
  top: "enet2_3_branch2a"
  param {
    lr_mult: 1
    decay_mult: 1
  }
  param {
    lr_mult: 2
    decay_mult: 0
  }
  bn_param {
    scale_filler {
      type: "constant"
      value: 1
    }
    shift_filler {
      type: "constant"
      value: 0.001
    }
  }
}
layer {
  name: "relu2_3_branch2a"
  type: "PReLU"
  bottom: "enet2_3_branch2a"
  top: "enet2_3_branch2a"
}
layer {
  name: "enet2_3_branch2b1"
  type: "Convolution"
  bottom: "enet2_3_branch2a"
  top: "enet2_3_branch2b1"
  param {
    lr_mult: 1
    decay_mult: 1
  }
  convolution_param {
    num_output: 32
    bias_term: false
    weight_filler {
      type: "msra"
    }
    bias_filler {
      type: "constant"
    }
    pad_h: 0
    pad_w: 2
    kernel_h: 1
    kernel_w: 5
    stride_h: 1
    stride_w: 1
    dilation: 1
  }
}
layer {
  name: "enet2_3_branch2b"
  type: "Convolution"
  bottom: "enet2_3_branch2b1"
  top: "enet2_3_branch2b"
  param {
    lr_mult: 1
    decay_mult: 1
  }
  param {
    lr_mult: 2
    decay_mult: 0
  }
  convolution_param {
    num_output: 32
    bias_term: true
    weight_filler {
      type: "msra"
    }
    bias_filler {
      type: "constant"
    }
    pad_h: 2
    pad_w: 0
    kernel_h: 5
    kernel_w: 1
    stride_h: 1
    stride_w: 1
    dilation: 1
  }
}
layer {
  name: "bn2_3_branch2b"
  type: "BN"
  bottom: "enet2_3_branch2b"
  top: "enet2_3_branch2b"
  param {
    lr_mult: 1
    decay_mult: 1
  }
  param {
    lr_mult: 2
    decay_mult: 0
  }
  bn_param {
    scale_filler {
      type: "constant"
      value: 1
    }
    shift_filler {
      type: "constant"
      value: 0.001
    }
  }
}
layer {
  name: "relu2_3_branch2b"
  type: "PReLU"
  bottom: "enet2_3_branch2b"
  top: "enet2_3_branch2b"
}
layer {
  name: "enet2_3_branch2c"
  type: "Convolution"
  bottom: "enet2_3_branch2b"
  top: "enet2_3_branch2c"
  param {
    lr_mult: 1
    decay_mult: 1
  }
  convolution_param {
    num_output: 128
    bias_term: false
    weight_filler {
      type: "msra"
    }
    bias_filler {
      type: "constant"
    }
    pad_h: 0
    pad_w: 0
    kernel_h: 1
    kernel_w: 1
    stride_h: 1
    stride_w: 1
    dilation: 1
  }
}
layer {
  name: "bn2_3_branch2c"
  type: "BN"
  bottom: "enet2_3_branch2c"
  top: "enet2_3_branch2c"
  param {
    lr_mult: 1
    decay_mult: 1
  }
  param {
    lr_mult: 2
    decay_mult: 0
  }
  bn_param {
    scale_filler {
      type: "constant"
      value: 1
    }
    shift_filler {
      type: "constant"
      value: 0.001
    }
  }
}
layer {
  name: "dropout2_3_
I1123 17:47:27.795421  1154 layer_factory.hpp:77] Creating layer data
I1123 17:47:27.795505  1154 net.cpp:106] Creating Layer data
I1123 17:47:27.795521  1154 net.cpp:411] data -> data
I1123 17:47:27.795572  1154 net.cpp:411] data -> label
I1123 17:47:27.795598  1154 net.cpp:411] data -> (automatic)
I1123 17:47:27.796239  1154 image_seg_data_layer.cpp:46] Opening file /home/map/hebei/datasets/hadmap/trainval3.txt
I1123 17:47:27.871513  1154 image_seg_data_layer.cpp:68] A total of 50890 images.
I1123 17:47:27.893435  1154 image_seg_data_layer.cpp:147] output data size: 10,3,321,641
I1123 17:47:27.893463  1154 image_seg_data_layer.cpp:151] output label size: 10,1,321,641
I1123 17:47:27.893471  1154 image_seg_data_layer.cpp:155] output data_dim size: 10,1,1,2
I1123 17:47:28.107421  1154 net.cpp:150] Setting up data
I1123 17:47:28.107465  1154 net.cpp:157] Top shape: 10 3 321 641 (6172830)
I1123 17:47:28.107477  1154 net.cpp:157] Top shape: 10 1 321 641 (2057610)
I1123 17:47:28.107486  1154 net.cpp:157] Top shape: 10 1 1 2 (20)
I1123 17:47:28.107493  1154 net.cpp:165] Memory required for data: 32921840
I1123 17:47:28.107511  1154 layer_factory.hpp:77] Creating layer data_data_0_split
I1123 17:47:28.107535  1154 net.cpp:106] Creating Layer data_data_0_split
I1123 17:47:28.107547  1154 net.cpp:454] data_data_0_split <- data
I1123 17:47:28.107579  1154 net.cpp:411] data_data_0_split -> data_data_0_split_0
I1123 17:47:28.107600  1154 net.cpp:411] data_data_0_split -> data_data_0_split_1
I1123 17:47:28.107662  1154 net.cpp:150] Setting up data_data_0_split
I1123 17:47:28.107676  1154 net.cpp:157] Top shape: 10 3 321 641 (6172830)
I1123 17:47:28.107686  1154 net.cpp:157] Top shape: 10 3 321 641 (6172830)
I1123 17:47:28.107692  1154 net.cpp:165] Memory required for data: 82304480
I1123 17:47:28.107699  1154 layer_factory.hpp:77] Creating layer label_data_1_split
I1123 17:47:28.107710  1154 net.cpp:106] Creating Layer label_data_1_split
I1123 17:47:28.107718  1154 net.cpp:454] label_data_1_split <- label
I1123 17:47:28.107728  1154 net.cpp:411] label_data_1_split -> label_data_1_split_0
I1123 17:47:28.107759  1154 net.cpp:411] label_data_1_split -> label_data_1_split_1
I1123 17:47:28.107803  1154 net.cpp:150] Setting up label_data_1_split
I1123 17:47:28.107815  1154 net.cpp:157] Top shape: 10 1 321 641 (2057610)
I1123 17:47:28.107823  1154 net.cpp:157] Top shape: 10 1 321 641 (2057610)
I1123 17:47:28.107830  1154 net.cpp:165] Memory required for data: 98765360
I1123 17:47:28.107836  1154 layer_factory.hpp:77] Creating layer enet_initial_branch2a
I1123 17:47:28.107867  1154 net.cpp:106] Creating Layer enet_initial_branch2a
I1123 17:47:28.107874  1154 net.cpp:454] enet_initial_branch2a <- data_data_0_split_0
I1123 17:47:28.107887  1154 net.cpp:411] enet_initial_branch2a -> enet_initial_branch2a
I1123 17:47:28.113505  1154 net.cpp:150] Setting up enet_initial_branch2a
I1123 17:47:28.113525  1154 net.cpp:157] Top shape: 10 13 161 321 (6718530)
I1123 17:47:28.113533  1154 net.cpp:165] Memory required for data: 125639480
I1123 17:47:28.113557  1154 layer_factory.hpp:77] Creating layer pool_initial_branch1a
I1123 17:47:28.113574  1154 net.cpp:106] Creating Layer pool_initial_branch1a
I1123 17:47:28.113580  1154 net.cpp:454] pool_initial_branch1a <- data_data_0_split_1
I1123 17:47:28.113591  1154 net.cpp:411] pool_initial_branch1a -> pool_initial_branch1a
I1123 17:47:28.113663  1154 net.cpp:150] Setting up pool_initial_branch1a
I1123 17:47:28.113677  1154 net.cpp:157] Top shape: 10 3 161 321 (1550430)
I1123 17:47:28.113684  1154 net.cpp:165] Memory required for data: 131841200
I1123 17:47:28.113692  1154 layer_factory.hpp:77] Creating layer enet_initial
I1123 17:47:28.113705  1154 net.cpp:106] Creating Layer enet_initial
I1123 17:47:28.113713  1154 net.cpp:454] enet_initial <- enet_initial_branch2a
I1123 17:47:28.113721  1154 net.cpp:454] enet_initial <- pool_initial_branch1a
I1123 17:47:28.113732  1154 net.cpp:411] enet_initial -> enet_initial
I1123 17:47:28.113772  1154 net.cpp:150] Setting up enet_initial
I1123 17:47:28.113785  1154 net.cpp:157] Top shape: 10 16 161 321 (8268960)
I1123 17:47:28.113791  1154 net.cpp:165] Memory required for data: 164917040
I1123 17:47:28.113798  1154 layer_factory.hpp:77] Creating layer bn_initial
I1123 17:47:28.113818  1154 net.cpp:106] Creating Layer bn_initial
I1123 17:47:28.113826  1154 net.cpp:454] bn_initial <- enet_initial
I1123 17:47:28.113837  1154 net.cpp:397] bn_initial -> enet_initial (in-place)
I1123 17:47:28.114138  1154 net.cpp:150] Setting up bn_initial
I1123 17:47:28.114154  1154 net.cpp:157] Top shape: 10 16 161 321 (8268960)
I1123 17:47:28.114161  1154 net.cpp:165] Memory required for data: 197992880
I1123 17:47:28.114176  1154 layer_factory.hpp:77] Creating layer relu_initial
I1123 17:47:28.114192  1154 net.cpp:106] Creating Layer relu_initial
I1123 17:47:28.114198  1154 net.cpp:454] relu_initial <- enet_initial
I1123 17:47:28.114208  1154 net.cpp:397] relu_initial -> enet_initial (in-place)
I1123 17:47:28.117651  1154 net.cpp:150] Setting up relu_initial
I1123 17:47:28.117671  1154 net.cpp:157] Top shape: 10 16 161 321 (8268960)
I1123 17:47:28.117677  1154 net.cpp:165] Memory required for data: 231068720
I1123 17:47:28.117691  1154 layer_factory.hpp:77] Creating layer enet_initial_relu_initial_0_split
I1123 17:47:28.117704  1154 net.cpp:106] Creating Layer enet_initial_relu_initial_0_split
I1123 17:47:28.117712  1154 net.cpp:454] enet_initial_relu_initial_0_split <- enet_initial
I1123 17:47:28.117723  1154 net.cpp:411] enet_initial_relu_initial_0_split -> enet_initial_relu_initial_0_split_0
I1123 17:47:28.117736  1154 net.cpp:411] enet_initial_relu_initial_0_split -> enet_initial_relu_initial_0_split_1
I1123 17:47:28.117781  1154 net.cpp:150] Setting up enet_initial_relu_initial_0_split
I1123 17:47:28.117794  1154 net.cpp:157] Top shape: 10 16 161 321 (8268960)
I1123 17:47:28.117802  1154 net.cpp:157] Top shape: 10 16 161 321 (8268960)
I1123 17:47:28.117810  1154 net.cpp:165] Memory required for data: 297220400
I1123 17:47:28.117816  1154 layer_factory.hpp:77] Creating layer enet1_0_branch2a
I1123 17:47:28.117840  1154 net.cpp:106] Creating Layer enet1_0_branch2a
I1123 17:47:28.117856  1154 net.cpp:454] enet1_0_branch2a <- enet_initial_relu_initial_0_split_0
I1123 17:47:28.117867  1154 net.cpp:411] enet1_0_branch2a -> enet1_0_branch2a
I1123 17:47:28.118119  1154 net.cpp:150] Setting up enet1_0_branch2a
I1123 17:47:28.118134  1154 net.cpp:157] Top shape: 10 16 81 161 (2086560)
I1123 17:47:28.118140  1154 net.cpp:165] Memory required for data: 305566640
I1123 17:47:28.118149  1154 layer_factory.hpp:77] Creating layer bn1_0_branch2a
I1123 17:47:28.118162  1154 net.cpp:106] Creating Layer bn1_0_branch2a
I1123 17:47:28.118170  1154 net.cpp:454] bn1_0_branch2a <- enet1_0_branch2a
I1123 17:47:28.118180  1154 net.cpp:397] bn1_0_branch2a -> enet1_0_branch2a (in-place)
I1123 17:47:28.119276  1154 net.cpp:150] Setting up bn1_0_branch2a
I1123 17:47:28.119293  1154 net.cpp:157] Top shape: 10 16 81 161 (2086560)
I1123 17:47:28.119300  1154 net.cpp:165] Memory required for data: 313912880
I1123 17:47:28.119312  1154 layer_factory.hpp:77] Creating layer relu1_0_branch2a
I1123 17:47:28.119323  1154 net.cpp:106] Creating Layer relu1_0_branch2a
I1123 17:47:28.119329  1154 net.cpp:454] relu1_0_branch2a <- enet1_0_branch2a
I1123 17:47:28.119339  1154 net.cpp:397] relu1_0_branch2a -> enet1_0_branch2a (in-place)
I1123 17:47:28.120474  1154 net.cpp:150] Setting up relu1_0_branch2a
I1123 17:47:28.120491  1154 net.cpp:157] Top shape: 10 16 81 161 (2086560)
I1123 17:47:28.120498  1154 net.cpp:165] Memory required for data: 322259120
I1123 17:47:28.120512  1154 layer_factory.hpp:77] Creating layer enet1_0_branch2b
I1123 17:47:28.120529  1154 net.cpp:106] Creating Layer enet1_0_branch2b
I1123 17:47:28.120537  1154 net.cpp:454] enet1_0_branch2b <- enet1_0_branch2a
I1123 17:47:28.120549  1154 net.cpp:411] enet1_0_branch2b -> enet1_0_branch2b
I1123 17:47:28.121911  1154 net.cpp:150] Setting up enet1_0_branch2b
I1123 17:47:28.121929  1154 net.cpp:157] Top shape: 10 16 81 161 (2086560)
I1123 17:47:28.121937  1154 net.cpp:165] Memory required for data: 330605360
I1123 17:47:28.121948  1154 layer_factory.hpp:77] Creating layer bn1_0_branch2b
I1123 17:47:28.121968  1154 net.cpp:106] Creating Layer bn1_0_branch2b
I1123 17:47:28.121975  1154 net.cpp:454] bn1_0_branch2b <- enet1_0_branch2b
I1123 17:47:28.121987  1154 net.cpp:397] bn1_0_branch2b -> enet1_0_branch2b (in-place)
I1123 17:47:28.122236  1154 net.cpp:150] Setting up bn1_0_branch2b
I1123 17:47:28.122249  1154 net.cpp:157] Top shape: 10 16 81 161 (2086560)
I1123 17:47:28.122256  1154 net.cpp:165] Memory required for data: 338951600
I1123 17:47:28.122267  1154 layer_factory.hpp:77] Creating layer relu1_0_branch2b
I1123 17:47:28.122277  1154 net.cpp:106] Creating Layer relu1_0_branch2b
I1123 17:47:28.122284  1154 net.cpp:454] relu1_0_branch2b <- enet1_0_branch2b
I1123 17:47:28.122294  1154 net.cpp:397] relu1_0_branch2b -> enet1_0_branch2b (in-place)
I1123 17:47:28.123533  1154 net.cpp:150] Setting up relu1_0_branch2b
I1123 17:47:28.123553  1154 net.cpp:157] Top shape: 10 16 81 161 (2086560)
I1123 17:47:28.123559  1154 net.cpp:165] Memory required for data: 347297840
I1123 17:47:28.123569  1154 layer_factory.hpp:77] Creating layer enet1_0_branch2c
I1123 17:47:28.123586  1154 net.cpp:106] Creating Layer enet1_0_branch2c
I1123 17:47:28.123594  1154 net.cpp:454] enet1_0_branch2c <- enet1_0_branch2b
I1123 17:47:28.123606  1154 net.cpp:411] enet1_0_branch2c -> enet1_0_branch2c
I1123 17:47:28.123839  1154 net.cpp:150] Setting up enet1_0_branch2c
I1123 17:47:28.123853  1154 net.cpp:157] Top shape: 10 64 81 161 (8346240)
I1123 17:47:28.123860  1154 net.cpp:165] Memory required for data: 380682800
I1123 17:47:28.123869  1154 layer_factory.hpp:77] Creating layer bn1_0_branch2c
I1123 17:47:28.123885  1154 net.cpp:106] Creating Layer bn1_0_branch2c
I1123 17:47:28.123893  1154 net.cpp:454] bn1_0_branch2c <- enet1_0_branch2c
I1123 17:47:28.123903  1154 net.cpp:397] bn1_0_branch2c -> enet1_0_branch2c (in-place)
I1123 17:47:28.124156  1154 net.cpp:150] Setting up bn1_0_branch2c
I1123 17:47:28.124171  1154 net.cpp:157] Top shape: 10 64 81 161 (8346240)
I1123 17:47:28.124197  1154 net.cpp:165] Memory required for data: 414067760
I1123 17:47:28.124214  1154 layer_factory.hpp:77] Creating layer dropout1_0_branch2c
I1123 17:47:28.124233  1154 net.cpp:106] Creating Layer dropout1_0_branch2c
I1123 17:47:28.124239  1154 net.cpp:454] dropout1_0_branch2c <- enet1_0_branch2c
I1123 17:47:28.124250  1154 net.cpp:397] dropout1_0_branch2c -> enet1_0_branch2c (in-place)
I1123 17:47:28.124299  1154 net.cpp:150] Setting up dropout1_0_branch2c
I1123 17:47:28.124310  1154 net.cpp:157] Top shape: 10 64 81 161 (8346240)
I1123 17:47:28.124317  1154 net.cpp:165] Memory required for data: 447452720
I1123 17:47:28.124325  1154 layer_factory.hpp:77] Creating layer enet1_0_branch1a
I1123 17:47:28.124338  1154 net.cpp:106] Creating Layer enet1_0_branch1a
I1123 17:47:28.124346  1154 net.cpp:454] enet1_0_branch1a <- enet_initial_relu_initial_0_split_1
I1123 17:47:28.124357  1154 net.cpp:411] enet1_0_branch1a -> enet1_0_branch1a
I1123 17:47:28.124583  1154 net.cpp:150] Setting up enet1_0_branch1a
I1123 17:47:28.124596  1154 net.cpp:157] Top shape: 10 64 161 321 (33075840)
I1123 17:47:28.124603  1154 net.cpp:165] Memory required for data: 579756080
I1123 17:47:28.124611  1154 layer_factory.hpp:77] Creating layer bn1_0_branch1a
I1123 17:47:28.124624  1154 net.cpp:106] Creating Layer bn1_0_branch1a
I1123 17:47:28.124630  1154 net.cpp:454] bn1_0_branch1a <- enet1_0_branch1a
I1123 17:47:28.124641  1154 net.cpp:397] bn1_0_branch1a -> enet1_0_branch1a (in-place)
I1123 17:47:28.124975  1154 net.cpp:150] Setting up bn1_0_branch1a
I1123 17:47:28.124990  1154 net.cpp:157] Top shape: 10 64 161 321 (33075840)
I1123 17:47:28.124997  1154 net.cpp:165] Memory required for data: 712059440
I1123 17:47:28.125008  1154 layer_factory.hpp:77] Creating layer pool1_0_branch1a
I1123 17:47:28.125021  1154 net.cpp:106] Creating Layer pool1_0_branch1a
I1123 17:47:28.125030  1154 net.cpp:454] pool1_0_branch1a <- enet1_0_branch1a
I1123 17:47:28.125039  1154 net.cpp:411] pool1_0_branch1a -> pool1_0_branch1a
I1123 17:47:28.125056  1154 net.cpp:411] pool1_0_branch1a -> pool1_0_branch1a_mask
I1123 17:47:28.125105  1154 net.cpp:150] Setting up pool1_0_branch1a
I1123 17:47:28.125118  1154 net.cpp:157] Top shape: 10 64 81 161 (8346240)
I1123 17:47:28.125128  1154 net.cpp:157] Top shape: 10 64 81 161 (8346240)
I1123 17:47:28.125133  1154 net.cpp:165] Memory required for data: 778829360
I1123 17:47:28.125140  1154 layer_factory.hpp:77] Creating layer enet1_0
I1123 17:47:28.125154  1154 net.cpp:106] Creating Layer enet1_0
I1123 17:47:28.125161  1154 net.cpp:454] enet1_0 <- pool1_0_branch1a
I1123 17:47:28.125170  1154 net.cpp:454] enet1_0 <- enet1_0_branch2c
I1123 17:47:28.125180  1154 net.cpp:411] enet1_0 -> enet1_0
I1123 17:47:28.125219  1154 net.cpp:150] Setting up enet1_0
I1123 17:47:28.125232  1154 net.cpp:157] Top shape: 10 64 81 161 (8346240)
I1123 17:47:28.125238  1154 net.cpp:165] Memory required for data: 812214320
I1123 17:47:28.125246  1154 layer_factory.hpp:77] Creating layer relu1_0
I1123 17:47:28.125255  1154 net.cpp:106] Creating Layer relu1_0
I1123 17:47:28.125262  1154 net.cpp:454] relu1_0 <- enet1_0
I1123 17:47:28.125272  1154 net.cpp:397] relu1_0 -> enet1_0 (in-place)
I1123 17:47:28.128813  1154 net.cpp:150] Setting up relu1_0
I1123 17:47:28.128834  1154 net.cpp:157] Top shape: 10 64 81 161 (8346240)
I1123 17:47:28.128840  1154 net.cpp:165] Memory required for data: 845599280
I1123 17:47:28.128850  1154 layer_factory.hpp:77] Creating layer enet1_0_relu1_0_0_split
I1123 17:47:28.128864  1154 net.cpp:106] Creating Layer enet1_0_relu1_0_0_split
I1123 17:47:28.128871  1154 net.cpp:454] enet1_0_relu1_0_0_split <- enet1_0
I1123 17:47:28.128882  1154 net.cpp:411] enet1_0_relu1_0_0_split -> enet1_0_relu1_0_0_split_0
I1123 17:47:28.128895  1154 net.cpp:411] enet1_0_relu1_0_0_split -> enet1_0_relu1_0_0_split_1
I1123 17:47:28.128942  1154 net.cpp:150] Setting up enet1_0_relu1_0_0_split
I1123 17:47:28.128957  1154 net.cpp:157] Top shape: 10 64 81 161 (8346240)
I1123 17:47:28.128967  1154 net.cpp:157] Top shape: 10 64 81 161 (8346240)
I1123 17:47:28.128990  1154 net.cpp:165] Memory required for data: 912369200
I1123 17:47:28.128998  1154 layer_factory.hpp:77] Creating layer enet1_1_branch2a
I1123 17:47:28.129014  1154 net.cpp:106] Creating Layer enet1_1_branch2a
I1123 17:47:28.129021  1154 net.cpp:454] enet1_1_branch2a <- enet1_0_relu1_0_0_split_0
I1123 17:47:28.129032  1154 net.cpp:411] enet1_1_branch2a -> enet1_1_branch2a
I1123 17:47:28.129277  1154 net.cpp:150] Setting up enet1_1_branch2a
I1123 17:47:28.129292  1154 net.cpp:157] Top shape: 10 16 81 161 (2086560)
I1123 17:47:28.129298  1154 net.cpp:165] Memory required for data: 920715440
I1123 17:47:28.129307  1154 layer_factory.hpp:77] Creating layer bn1_1_branch2a
I1123 17:47:28.129320  1154 net.cpp:106] Creating Layer bn1_1_branch2a
I1123 17:47:28.129328  1154 net.cpp:454] bn1_1_branch2a <- enet1_1_branch2a
I1123 17:47:28.129339  1154 net.cpp:397] bn1_1_branch2a -> enet1_1_branch2a (in-place)
I1123 17:47:28.129590  1154 net.cpp:150] Setting up bn1_1_branch2a
I1123 17:47:28.129604  1154 net.cpp:157] Top shape: 10 16 81 161 (2086560)
I1123 17:47:28.129611  1154 net.cpp:165] Memory required for data: 929061680
I1123 17:47:28.129621  1154 layer_factory.hpp:77] Creating layer relu1_1_branch2a
I1123 17:47:28.129632  1154 net.cpp:106] Creating Layer relu1_1_branch2a
I1123 17:47:28.129639  1154 net.cpp:454] relu1_1_branch2a <- enet1_1_branch2a
I1123 17:47:28.129649  1154 net.cpp:397] relu1_1_branch2a -> enet1_1_branch2a (in-place)
I1123 17:47:28.130692  1154 net.cpp:150] Setting up relu1_1_branch2a
I1123 17:47:28.130710  1154 net.cpp:157] Top shape: 10 16 81 161 (2086560)
I1123 17:47:28.130717  1154 net.cpp:165] Memory required for data: 937407920
I1123 17:47:28.130726  1154 layer_factory.hpp:77] Creating layer enet1_1_branch2b
I1123 17:47:28.130743  1154 net.cpp:106] Creating Layer enet1_1_branch2b
I1123 17:47:28.130749  1154 net.cpp:454] enet1_1_branch2b <- enet1_1_branch2a
I1123 17:47:28.130761  1154 net.cpp:411] enet1_1_branch2b -> enet1_1_branch2b
I1123 17:47:28.131095  1154 net.cpp:150] Setting up enet1_1_branch2b
I1123 17:47:28.131110  1154 net.cpp:157] Top shape: 10 16 81 161 (2086560)
I1123 17:47:28.131117  1154 net.cpp:165] Memory required for data: 945754160
I1123 17:47:28.131127  1154 layer_factory.hpp:77] Creating layer bn1_1_branch2b
I1123 17:47:28.131140  1154 net.cpp:106] Creating Layer bn1_1_branch2b
I1123 17:47:28.131148  1154 net.cpp:454] bn1_1_branch2b <- enet1_1_branch2b
I1123 17:47:28.131160  1154 net.cpp:397] bn1_1_branch2b -> enet1_1_branch2b (in-place)
I1123 17:47:28.131407  1154 net.cpp:150] Setting up bn1_1_branch2b
I1123 17:47:28.131422  1154 net.cpp:157] Top shape: 10 16 81 161 (2086560)
I1123 17:47:28.131428  1154 net.cpp:165] Memory required for data: 954100400
I1123 17:47:28.131438  1154 layer_factory.hpp:77] Creating layer relu1_1_branch2b
I1123 17:47:28.131448  1154 net.cpp:106] Creating Layer relu1_1_branch2b
I1123 17:47:28.131455  1154 net.cpp:454] relu1_1_branch2b <- enet1_1_branch2b
I1123 17:47:28.131465  1154 net.cpp:397] relu1_1_branch2b -> enet1_1_branch2b (in-place)
I1123 17:47:28.132519  1154 net.cpp:150] Setting up relu1_1_branch2b
I1123 17:47:28.132535  1154 net.cpp:157] Top shape: 10 16 81 161 (2086560)
I1123 17:47:28.132542  1154 net.cpp:165] Memory required for data: 962446640
I1123 17:47:28.132551  1154 layer_factory.hpp:77] Creating layer enet1_1_branch2c
I1123 17:47:28.132567  1154 net.cpp:106] Creating Layer enet1_1_branch2c
I1123 17:47:28.132575  1154 net.cpp:454] enet1_1_branch2c <- enet1_1_branch2b
I1123 17:47:28.132586  1154 net.cpp:411] enet1_1_branch2c -> enet1_1_branch2c
I1123 17:47:28.132820  1154 net.cpp:150] Setting up enet1_1_branch2c
I1123 17:47:28.132834  1154 net.cpp:157] Top shape: 10 64 81 161 (8346240)
I1123 17:47:28.132840  1154 net.cpp:165] Memory required for data: 995831600
I1123 17:47:28.132849  1154 layer_factory.hpp:77] Creating layer bn1_1_branch2c
I1123 17:47:28.132863  1154 net.cpp:106] Creating Layer bn1_1_branch2c
I1123 17:47:28.132869  1154 net.cpp:454] bn1_1_branch2c <- enet1_1_branch2c
I1123 17:47:28.132891  1154 net.cpp:397] bn1_1_branch2c -> enet1_1_branch2c (in-place)
I1123 17:47:28.133167  1154 net.cpp:150] Setting up bn1_1_branch2c
I1123 17:47:28.133183  1154 net.cpp:157] Top shape: 10 64 81 161 (8346240)
I1123 17:47:28.133189  1154 net.cpp:165] Memory required for data: 1029216560
I1123 17:47:28.133206  1154 layer_factory.hpp:77] Creating layer dropout1_1_branch2c
I1123 17:47:28.133224  1154 net.cpp:106] Creating Layer dropout1_1_branch2c
I1123 17:47:28.133231  1154 net.cpp:454] dropout1_1_branch2c <- enet1_1_branch2c
I1123 17:47:28.133242  1154 net.cpp:397] dropout1_1_branch2c -> enet1_1_branch2c (in-place)
I1123 17:47:28.133276  1154 net.cpp:150] Setting up dropout1_1_branch2c
I1123 17:47:28.133288  1154 net.cpp:157] Top shape: 10 64 81 161 (8346240)
I1123 17:47:28.133296  1154 net.cpp:165] Memory required for data: 1062601520
I1123 17:47:28.133301  1154 layer_factory.hpp:77] Creating layer enet1_1
I1123 17:47:28.133312  1154 net.cpp:106] Creating Layer enet1_1
I1123 17:47:28.133319  1154 net.cpp:454] enet1_1 <- enet1_0_relu1_0_0_split_1
I1123 17:47:28.133328  1154 net.cpp:454] enet1_1 <- enet1_1_branch2c
I1123 17:47:28.133338  1154 net.cpp:411] enet1_1 -> enet1_1
I1123 17:47:28.133370  1154 net.cpp:150] Setting up enet1_1
I1123 17:47:28.133383  1154 net.cpp:157] Top shape: 10 64 81 161 (8346240)
I1123 17:47:28.133389  1154 net.cpp:165] Memory required for data: 1095986480
I1123 17:47:28.133396  1154 layer_factory.hpp:77] Creating layer relu1_1
I1123 17:47:28.133406  1154 net.cpp:106] Creating Layer relu1_1
I1123 17:47:28.133414  1154 net.cpp:454] relu1_1 <- enet1_1
I1123 17:47:28.133422  1154 net.cpp:397] relu1_1 -> enet1_1 (in-place)
I1123 17:47:28.136804  1154 net.cpp:150] Setting up relu1_1
I1123 17:47:28.136828  1154 net.cpp:157] Top shape: 10 64 81 161 (8346240)
I1123 17:47:28.136836  1154 net.cpp:165] Memory required for data: 1129371440
I1123 17:47:28.136845  1154 layer_factory.hpp:77] Creating layer enet1_1_relu1_1_0_split
I1123 17:47:28.136857  1154 net.cpp:106] Creating Layer enet1_1_relu1_1_0_split
I1123 17:47:28.136865  1154 net.cpp:454] enet1_1_relu1_1_0_split <- enet1_1
I1123 17:47:28.136878  1154 net.cpp:411] enet1_1_relu1_1_0_split -> enet1_1_relu1_1_0_split_0
I1123 17:47:28.136891  1154 net.cpp:411] enet1_1_relu1_1_0_split -> enet1_1_relu1_1_0_split_1
I1123 17:47:28.136940  1154 net.cpp:150] Setting up enet1_1_relu1_1_0_split
I1123 17:47:28.136955  1154 net.cpp:157] Top shape: 10 64 81 161 (8346240)
I1123 17:47:28.136965  1154 net.cpp:157] Top shape: 10 64 81 161 (8346240)
I1123 17:47:28.136970  1154 net.cpp:165] Memory required for data: 1196141360
I1123 17:47:28.136977  1154 layer_factory.hpp:77] Creating layer enet1_2_branch2a
I1123 17:47:28.136994  1154 net.cpp:106] Creating Layer enet1_2_branch2a
I1123 17:47:28.137002  1154 net.cpp:454] enet1_2_branch2a <- enet1_1_relu1_1_0_split_0
I1123 17:47:28.137014  1154 net.cpp:411] enet1_2_branch2a -> enet1_2_branch2a
I1123 17:47:28.137250  1154 net.cpp:150] Setting up enet1_2_branch2a
I1123 17:47:28.137264  1154 net.cpp:157] Top shape: 10 16 81 161 (2086560)
I1123 17:47:28.137271  1154 net.cpp:165] Memory required for data: 1204487600
I1123 17:47:28.137280  1154 layer_factory.hpp:77] Creating layer bn1_2_branch2a
I1123 17:47:28.137293  1154 net.cpp:106] Creating Layer bn1_2_branch2a
I1123 17:47:28.137300  1154 net.cpp:454] bn1_2_branch2a <- enet1_2_branch2a
I1123 17:47:28.137312  1154 net.cpp:397] bn1_2_branch2a -> enet1_2_branch2a (in-place)
I1123 17:47:28.137569  1154 net.cpp:150] Setting up bn1_2_branch2a
I1123 17:47:28.137583  1154 net.cpp:157] Top shape: 10 16 81 161 (2086560)
I1123 17:47:28.137590  1154 net.cpp:165] Memory required for data: 1212833840
I1123 17:47:28.137600  1154 layer_factory.hpp:77] Creating layer relu1_2_branch2a
I1123 17:47:28.137612  1154 net.cpp:106] Creating Layer relu1_2_branch2a
I1123 17:47:28.137619  1154 net.cpp:454] relu1_2_branch2a <- enet1_2_branch2a
I1123 17:47:28.137629  1154 net.cpp:397] relu1_2_branch2a -> enet1_2_branch2a (in-place)
I1123 17:47:28.138782  1154 net.cpp:150] Setting up relu1_2_branch2a
I1123 17:47:28.138813  1154 net.cpp:157] Top shape: 10 16 81 161 (2086560)
I1123 17:47:28.138831  1154 net.cpp:165] Memory required for data: 1221180080
I1123 17:47:28.138842  1154 layer_factory.hpp:77] Creating layer enet1_2_branch2b
I1123 17:47:28.138859  1154 net.cpp:106] Creating Layer enet1_2_branch2b
I1123 17:47:28.138866  1154 net.cpp:454] enet1_2_branch2b <- enet1_2_branch2a
I1123 17:47:28.138878  1154 net.cpp:411] enet1_2_branch2b -> enet1_2_branch2b
I1123 17:47:28.139219  1154 net.cpp:150] Setting up enet1_2_branch2b
I1123 17:47:28.139235  1154 net.cpp:157] Top shape: 10 16 81 161 (2086560)
I1123 17:47:28.139241  1154 net.cpp:165] Memory required for data: 1229526320
I1123 17:47:28.139252  1154 layer_factory.hpp:77] Creating layer bn1_2_branch2b
I1123 17:47:28.139266  1154 net.cpp:106] Creating Layer bn1_2_branch2b
I1123 17:47:28.139272  1154 net.cpp:454] bn1_2_branch2b <- enet1_2_branch2b
I1123 17:47:28.139284  1154 net.cpp:397] bn1_2_branch2b -> enet1_2_branch2b (in-place)
I1123 17:47:28.139540  1154 net.cpp:150] Setting up bn1_2_branch2b
I1123 17:47:28.139554  1154 net.cpp:157] Top shape: 10 16 81 161 (2086560)
I1123 17:47:28.139561  1154 net.cpp:165] Memory required for data: 1237872560
I1123 17:47:28.139571  1154 layer_factory.hpp:77] Creating layer relu1_2_branch2b
I1123 17:47:28.139582  1154 net.cpp:106] Creating Layer relu1_2_branch2b
I1123 17:47:28.139590  1154 net.cpp:454] relu1_2_branch2b <- enet1_2_branch2b
I1123 17:47:28.139600  1154 net.cpp:397] relu1_2_branch2b -> enet1_2_branch2b (in-place)
I1123 17:47:28.140741  1154 net.cpp:150] Setting up relu1_2_branch2b
I1123 17:47:28.140763  1154 net.cpp:157] Top shape: 10 16 81 161 (2086560)
I1123 17:47:28.140771  1154 net.cpp:165] Memory required for data: 1246218800
I1123 17:47:28.140780  1154 layer_factory.hpp:77] Creating layer enet1_2_branch2c
I1123 17:47:28.140796  1154 net.cpp:106] Creating Layer enet1_2_branch2c
I1123 17:47:28.140805  1154 net.cpp:454] enet1_2_branch2c <- enet1_2_branch2b
I1123 17:47:28.140816  1154 net.cpp:411] enet1_2_branch2c -> enet1_2_branch2c
I1123 17:47:28.141064  1154 net.cpp:150] Setting up enet1_2_branch2c
I1123 17:47:28.141078  1154 net.cpp:157] Top shape: 10 64 81 161 (8346240)
I1123 17:47:28.141085  1154 net.cpp:165] Memory required for data: 1279603760
I1123 17:47:28.141094  1154 layer_factory.hpp:77] Creating layer bn1_2_branch2c
I1123 17:47:28.141108  1154 net.cpp:106] Creating Layer bn1_2_branch2c
I1123 17:47:28.141114  1154 net.cpp:454] bn1_2_branch2c <- enet1_2_branch2c
I1123 17:47:28.141125  1154 net.cpp:397] bn1_2_branch2c -> enet1_2_branch2c (in-place)
I1123 17:47:28.142109  1154 net.cpp:150] Setting up bn1_2_branch2c
I1123 17:47:28.142127  1154 net.cpp:157] Top shape: 10 64 81 161 (8346240)
I1123 17:47:28.142133  1154 net.cpp:165] Memory required for data: 1312988720
I1123 17:47:28.142143  1154 layer_factory.hpp:77] Creating layer dropout1_2_branch2c
I1123 17:47:28.142156  1154 net.cpp:106] Creating Layer dropout1_2_branch2c
I1123 17:47:28.142163  1154 net.cpp:454] dropout1_2_branch2c <- enet1_2_branch2c
I1123 17:47:28.142174  1154 net.cpp:397] dropout1_2_branch2c -> enet1_2_branch2c (in-place)
I1123 17:47:28.142210  1154 net.cpp:150] Setting up dropout1_2_branch2c
I1123 17:47:28.142221  1154 net.cpp:157] Top shape: 10 64 81 161 (8346240)
I1123 17:47:28.142228  1154 net.cpp:165] Memory required for data: 1346373680
I1123 17:47:28.142235  1154 layer_factory.hpp:77] Creating layer enet1_2
I1123 17:47:28.142246  1154 net.cpp:106] Creating Layer enet1_2
I1123 17:47:28.142253  1154 net.cpp:454] enet1_2 <- enet1_1_relu1_1_0_split_1
I1123 17:47:28.142262  1154 net.cpp:454] enet1_2 <- enet1_2_branch2c
I1123 17:47:28.142272  1154 net.cpp:411] enet1_2 -> enet1_2
I1123 17:47:28.142307  1154 net.cpp:150] Setting up enet1_2
I1123 17:47:28.142318  1154 net.cpp:157] Top shape: 10 64 81 161 (8346240)
I1123 17:47:28.142325  1154 net.cpp:165] Memory required for data: 1379758640
I1123 17:47:28.142333  1154 layer_factory.hpp:77] Creating layer relu1_2
I1123 17:47:28.142343  1154 net.cpp:106] Creating Layer relu1_2
I1123 17:47:28.142361  1154 net.cpp:454] relu1_2 <- enet1_2
I1123 17:47:28.142379  1154 net.cpp:397] relu1_2 -> enet1_2 (in-place)
I1123 17:47:28.145437  1154 net.cpp:150] Setting up relu1_2
I1123 17:47:28.145457  1154 net.cpp:157] Top shape: 10 64 81 161 (8346240)
I1123 17:47:28.145465  1154 net.cpp:165] Memory required for data: 1413143600
I1123 17:47:28.145475  1154 layer_factory.hpp:77] Creating layer enet1_2_relu1_2_0_split
I1123 17:47:28.145488  1154 net.cpp:106] Creating Layer enet1_2_relu1_2_0_split
I1123 17:47:28.145494  1154 net.cpp:454] enet1_2_relu1_2_0_split <- enet1_2
I1123 17:47:28.145504  1154 net.cpp:411] enet1_2_relu1_2_0_split -> enet1_2_relu1_2_0_split_0
I1123 17:47:28.145517  1154 net.cpp:411] enet1_2_relu1_2_0_split -> enet1_2_relu1_2_0_split_1
I1123 17:47:28.145572  1154 net.cpp:150] Setting up enet1_2_relu1_2_0_split
I1123 17:47:28.145584  1154 net.cpp:157] Top shape: 10 64 81 161 (8346240)
I1123 17:47:28.145594  1154 net.cpp:157] Top shape: 10 64 81 161 (8346240)
I1123 17:47:28.145601  1154 net.cpp:165] Memory required for data: 1479913520
I1123 17:47:28.145607  1154 layer_factory.hpp:77] Creating layer enet1_3_branch2a
I1123 17:47:28.145622  1154 net.cpp:106] Creating Layer enet1_3_branch2a
I1123 17:47:28.145630  1154 net.cpp:454] enet1_3_branch2a <- enet1_2_relu1_2_0_split_0
I1123 17:47:28.145642  1154 net.cpp:411] enet1_3_branch2a -> enet1_3_branch2a
I1123 17:47:28.145879  1154 net.cpp:150] Setting up enet1_3_branch2a
I1123 17:47:28.145895  1154 net.cpp:157] Top shape: 10 16 81 161 (2086560)
I1123 17:47:28.145900  1154 net.cpp:165] Memory required for data: 1488259760
I1123 17:47:28.145910  1154 layer_factory.hpp:77] Creating layer bn1_3_branch2a
I1123 17:47:28.145922  1154 net.cpp:106] Creating Layer bn1_3_branch2a
I1123 17:47:28.145931  1154 net.cpp:454] bn1_3_branch2a <- enet1_3_branch2a
I1123 17:47:28.145941  1154 net.cpp:397] bn1_3_branch2a -> enet1_3_branch2a (in-place)
I1123 17:47:28.146204  1154 net.cpp:150] Setting up bn1_3_branch2a
I1123 17:47:28.146219  1154 net.cpp:157] Top shape: 10 16 81 161 (2086560)
I1123 17:47:28.146225  1154 net.cpp:165] Memory required for data: 1496606000
I1123 17:47:28.146236  1154 layer_factory.hpp:77] Creating layer relu1_3_branch2a
I1123 17:47:28.146246  1154 net.cpp:106] Creating Layer relu1_3_branch2a
I1123 17:47:28.146253  1154 net.cpp:454] relu1_3_branch2a <- enet1_3_branch2a
I1123 17:47:28.146263  1154 net.cpp:397] relu1_3_branch2a -> enet1_3_branch2a (in-place)
I1123 17:47:28.147339  1154 net.cpp:150] Setting up relu1_3_branch2a
I1123 17:47:28.147356  1154 net.cpp:157] Top shape: 10 16 81 161 (2086560)
I1123 17:47:28.147363  1154 net.cpp:165] Memory required for data: 1504952240
I1123 17:47:28.147372  1154 layer_factory.hpp:77] Creating layer enet1_3_branch2b
I1123 17:47:28.147388  1154 net.cpp:106] Creating Layer enet1_3_branch2b
I1123 17:47:28.147397  1154 net.cpp:454] enet1_3_branch2b <- enet1_3_branch2a
I1123 17:47:28.147408  1154 net.cpp:411] enet1_3_branch2b -> enet1_3_branch2b
I1123 17:47:28.147750  1154 net.cpp:150] Setting up enet1_3_branch2b
I1123 17:47:28.147765  1154 net.cpp:157] Top shape: 10 16 81 161 (2086560)
I1123 17:47:28.147773  1154 net.cpp:165] Memory required for data: 1513298480
I1123 17:47:28.147783  1154 layer_factory.hpp:77] Creating layer bn1_3_branch2b
I1123 17:47:28.147795  1154 net.cpp:106] Creating Layer bn1_3_branch2b
I1123 17:47:28.147804  1154 net.cpp:454] bn1_3_branch2b <- enet1_3_branch2b
I1123 17:47:28.147814  1154 net.cpp:397] bn1_3_branch2b -> enet1_3_branch2b (in-place)
I1123 17:47:28.148087  1154 net.cpp:150] Setting up bn1_3_branch2b
I1123 17:47:28.148102  1154 net.cpp:157] Top shape: 10 16 81 161 (2086560)
I1123 17:47:28.148109  1154 net.cpp:165] Memory required for data: 1521644720
I1123 17:47:28.148120  1154 layer_factory.hpp:77] Creating layer relu1_3_branch2b
I1123 17:47:28.148130  1154 net.cpp:106] Creating Layer relu1_3_branch2b
I1123 17:47:28.148138  1154 net.cpp:454] relu1_3_branch2b <- enet1_3_branch2b
I1123 17:47:28.148149  1154 net.cpp:397] relu1_3_branch2b -> enet1_3_branch2b (in-place)
I1123 17:47:28.149343  1154 net.cpp:150] Setting up relu1_3_branch2b
I1123 17:47:28.149372  1154 net.cpp:157] Top shape: 10 16 81 161 (2086560)
I1123 17:47:28.149380  1154 net.cpp:165] Memory required for data: 1529990960
I1123 17:47:28.149389  1154 layer_factory.hpp:77] Creating layer enet1_3_branch2c
I1123 17:47:28.149405  1154 net.cpp:106] Creating Layer enet1_3_branch2c
I1123 17:47:28.149413  1154 net.cpp:454] enet1_3_branch2c <- enet1_3_branch2b
I1123 17:47:28.149425  1154 net.cpp:411] enet1_3_branch2c -> enet1_3_branch2c
I1123 17:47:28.149679  1154 net.cpp:150] Setting up enet1_3_branch2c
I1123 17:47:28.149693  1154 net.cpp:157] Top shape: 10 64 81 161 (8346240)
I1123 17:47:28.149700  1154 net.cpp:165] Memory required for data: 1563375920
I1123 17:47:28.149708  1154 layer_factory.hpp:77] Creating layer bn1_3_branch2c
I1123 17:47:28.149721  1154 net.cpp:106] Creating Layer bn1_3_branch2c
I1123 17:47:28.149729  1154 net.cpp:454] bn1_3_branch2c <- enet1_3_branch2c
I1123 17:47:28.149739  1154 net.cpp:397] bn1_3_branch2c -> enet1_3_branch2c (in-place)
I1123 17:47:28.150017  1154 net.cpp:150] Setting up bn1_3_branch2c
I1123 17:47:28.150032  1154 net.cpp:157] Top shape: 10 64 81 161 (8346240)
I1123 17:47:28.150038  1154 net.cpp:165] Memory required for data: 1596760880
I1123 17:47:28.150049  1154 layer_factory.hpp:77] Creating layer dropout1_3_branch2c
I1123 17:47:28.150061  1154 net.cpp:106] Creating Layer dropout1_3_branch2c
I1123 17:47:28.150068  1154 net.cpp:454] dropout1_3_branch2c <- enet1_3_branch2c
I1123 17:47:28.150079  1154 net.cpp:397] dropout1_3_branch2c -> enet1_3_branch2c (in-place)
I1123 17:47:28.150112  1154 net.cpp:150] Setting up dropout1_3_branch2c
I1123 17:47:28.150125  1154 net.cpp:157] Top shape: 10 64 81 161 (8346240)
I1123 17:47:28.150131  1154 net.cpp:165] Memory required for data: 1630145840
I1123 17:47:28.150138  1154 layer_factory.hpp:77] Creating layer enet1_3
I1123 17:47:28.150149  1154 net.cpp:106] Creating Layer enet1_3
I1123 17:47:28.150157  1154 net.cpp:454] enet1_3 <- enet1_2_relu1_2_0_split_1
I1123 17:47:28.150166  1154 net.cpp:454] enet1_3 <- enet1_3_branch2c
I1123 17:47:28.150176  1154 net.cpp:411] enet1_3 -> enet1_3
I1123 17:47:28.150209  1154 net.cpp:150] Setting up enet1_3
I1123 17:47:28.150221  1154 net.cpp:157] Top shape: 10 64 81 161 (8346240)
I1123 17:47:28.150228  1154 net.cpp:165] Memory required for data: 1663530800
I1123 17:47:28.150234  1154 layer_factory.hpp:77] Creating layer relu1_3
I1123 17:47:28.150244  1154 net.cpp:106] Creating Layer relu1_3
I1123 17:47:28.150251  1154 net.cpp:454] relu1_3 <- enet1_3
I1123 17:47:28.150261  1154 net.cpp:397] relu1_3 -> enet1_3 (in-place)
I1123 17:47:28.175189  1154 net.cpp:150] Setting up relu1_3
I1123 17:47:28.175217  1154 net.cpp:157] Top shape: 10 64 81 161 (8346240)
I1123 17:47:28.175225  1154 net.cpp:165] Memory required for data: 1696915760
I1123 17:47:28.175237  1154 layer_factory.hpp:77] Creating layer enet1_3_relu1_3_0_split
I1123 17:47:28.175256  1154 net.cpp:106] Creating Layer enet1_3_relu1_3_0_split
I1123 17:47:28.175264  1154 net.cpp:454] enet1_3_relu1_3_0_split <- enet1_3
I1123 17:47:28.175282  1154 net.cpp:411] enet1_3_relu1_3_0_split -> enet1_3_relu1_3_0_split_0
I1123 17:47:28.175298  1154 net.cpp:411] enet1_3_relu1_3_0_split -> enet1_3_relu1_3_0_split_1
I1123 17:47:28.175354  1154 net.cpp:150] Setting up enet1_3_relu1_3_0_split
I1123 17:47:28.175365  1154 net.cpp:157] Top shape: 10 64 81 161 (8346240)
I1123 17:47:28.175374  1154 net.cpp:157] Top shape: 10 64 81 161 (8346240)
I1123 17:47:28.175380  1154 net.cpp:165] Memory required for data: 1763685680
I1123 17:47:28.175387  1154 layer_factory.hpp:77] Creating layer enet1_4_branch2a
I1123 17:47:28.175407  1154 net.cpp:106] Creating Layer enet1_4_branch2a
I1123 17:47:28.175415  1154 net.cpp:454] enet1_4_branch2a <- enet1_3_relu1_3_0_split_0
I1123 17:47:28.175427  1154 net.cpp:411] enet1_4_branch2a -> enet1_4_branch2a
I1123 17:47:28.175707  1154 net.cpp:150] Setting up enet1_4_branch2a
I1123 17:47:28.175720  1154 net.cpp:157] Top shape: 10 16 81 161 (2086560)
I1123 17:47:28.175741  1154 net.cpp:165] Memory required for data: 1772031920
I1123 17:47:28.175763  1154 layer_factory.hpp:77] Creating layer bn1_4_branch2a
I1123 17:47:28.175778  1154 net.cpp:106] Creating Layer bn1_4_branch2a
I1123 17:47:28.175786  1154 net.cpp:454] bn1_4_branch2a <- enet1_4_branch2a
I1123 17:47:28.175796  1154 net.cpp:397] bn1_4_branch2a -> enet1_4_branch2a (in-place)
I1123 17:47:28.176103  1154 net.cpp:150] Setting up bn1_4_branch2a
I1123 17:47:28.176118  1154 net.cpp:157] Top shape: 10 16 81 161 (2086560)
I1123 17:47:28.176126  1154 net.cpp:165] Memory required for data: 1780378160
I1123 17:47:28.176136  1154 layer_factory.hpp:77] Creating layer relu1_4_branch2a
I1123 17:47:28.176151  1154 net.cpp:106] Creating Layer relu1_4_branch2a
I1123 17:47:28.176158  1154 net.cpp:454] relu1_4_branch2a <- enet1_4_branch2a
I1123 17:47:28.176167  1154 net.cpp:397] relu1_4_branch2a -> enet1_4_branch2a (in-place)
I1123 17:47:28.177248  1154 net.cpp:150] Setting up relu1_4_branch2a
I1123 17:47:28.177264  1154 net.cpp:157] Top shape: 10 16 81 161 (2086560)
I1123 17:47:28.177271  1154 net.cpp:165] Memory required for data: 1788724400
I1123 17:47:28.177280  1154 layer_factory.hpp:77] Creating layer enet1_4_branch2b
I1123 17:47:28.177297  1154 net.cpp:106] Creating Layer enet1_4_branch2b
I1123 17:47:28.177305  1154 net.cpp:454] enet1_4_branch2b <- enet1_4_branch2a
I1123 17:47:28.177319  1154 net.cpp:411] enet1_4_branch2b -> enet1_4_branch2b
I1123 17:47:28.177670  1154 net.cpp:150] Setting up enet1_4_branch2b
I1123 17:47:28.177685  1154 net.cpp:157] Top shape: 10 16 81 161 (2086560)
I1123 17:47:28.177691  1154 net.cpp:165] Memory required for data: 1797070640
I1123 17:47:28.177721  1154 layer_factory.hpp:77] Creating layer bn1_4_branch2b
I1123 17:47:28.177747  1154 net.cpp:106] Creating Layer bn1_4_branch2b
I1123 17:47:28.177755  1154 net.cpp:454] bn1_4_branch2b <- enet1_4_branch2b
I1123 17:47:28.177765  1154 net.cpp:397] bn1_4_branch2b -> enet1_4_branch2b (in-place)
I1123 17:47:28.178047  1154 net.cpp:150] Setting up bn1_4_branch2b
I1123 17:47:28.178062  1154 net.cpp:157] Top shape: 10 16 81 161 (2086560)
I1123 17:47:28.178068  1154 net.cpp:165] Memory required for data: 1805416880
I1123 17:47:28.178081  1154 layer_factory.hpp:77] Creating layer relu1_4_branch2b
I1123 17:47:28.178091  1154 net.cpp:106] Creating Layer relu1_4_branch2b
I1123 17:47:28.178097  1154 net.cpp:454] relu1_4_branch2b <- enet1_4_branch2b
I1123 17:47:28.178112  1154 net.cpp:397] relu1_4_branch2b -> enet1_4_branch2b (in-place)
I1123 17:47:28.179133  1154 net.cpp:150] Setting up relu1_4_branch2b
I1123 17:47:28.179149  1154 net.cpp:157] Top shape: 10 16 81 161 (2086560)
I1123 17:47:28.179157  1154 net.cpp:165] Memory required for data: 1813763120
I1123 17:47:28.179165  1154 layer_factory.hpp:77] Creating layer enet1_4_branch2c
I1123 17:47:28.179184  1154 net.cpp:106] Creating Layer enet1_4_branch2c
I1123 17:47:28.179193  1154 net.cpp:454] enet1_4_branch2c <- enet1_4_branch2b
I1123 17:47:28.179203  1154 net.cpp:411] enet1_4_branch2c -> enet1_4_branch2c
I1123 17:47:28.179453  1154 net.cpp:150] Setting up enet1_4_branch2c
I1123 17:47:28.179467  1154 net.cpp:157] Top shape: 10 64 81 161 (8346240)
I1123 17:47:28.179473  1154 net.cpp:165] Memory required for data: 1847148080
I1123 17:47:28.179482  1154 layer_factory.hpp:77] Creating layer bn1_4_branch2c
I1123 17:47:28.179498  1154 net.cpp:106] Creating Layer bn1_4_branch2c
I1123 17:47:28.179509  1154 net.cpp:454] bn1_4_branch2c <- enet1_4_branch2c
I1123 17:47:28.179520  1154 net.cpp:397] bn1_4_branch2c -> enet1_4_branch2c (in-place)
I1123 17:47:28.179806  1154 net.cpp:150] Setting up bn1_4_branch2c
I1123 17:47:28.179821  1154 net.cpp:157] Top shape: 10 64 81 161 (8346240)
I1123 17:47:28.179827  1154 net.cpp:165] Memory required for data: 1880533040
I1123 17:47:28.179838  1154 layer_factory.hpp:77] Creating layer dropout1_4_branch2c
I1123 17:47:28.179849  1154 net.cpp:106] Creating Layer dropout1_4_branch2c
I1123 17:47:28.179857  1154 net.cpp:454] dropout1_4_branch2c <- enet1_4_branch2c
I1123 17:47:28.179867  1154 net.cpp:397] dropout1_4_branch2c -> enet1_4_branch2c (in-place)
I1123 17:47:28.179915  1154 net.cpp:150] Setting up dropout1_4_branch2c
I1123 17:47:28.179927  1154 net.cpp:157] Top shape: 10 64 81 161 (8346240)
I1123 17:47:28.179934  1154 net.cpp:165] Memory required for data: 1913918000
I1123 17:47:28.179941  1154 layer_factory.hpp:77] Creating layer enet1_4
I1123 17:47:28.179960  1154 net.cpp:106] Creating Layer enet1_4
I1123 17:47:28.179967  1154 net.cpp:454] enet1_4 <- enet1_3_relu1_3_0_split_1
I1123 17:47:28.179975  1154 net.cpp:454] enet1_4 <- enet1_4_branch2c
I1123 17:47:28.179986  1154 net.cpp:411] enet1_4 -> enet1_4
I1123 17:47:28.180023  1154 net.cpp:150] Setting up enet1_4
I1123 17:47:28.180037  1154 net.cpp:157] Top shape: 10 64 81 161 (8346240)
I1123 17:47:28.180042  1154 net.cpp:165] Memory required for data: 1947302960
I1123 17:47:28.180049  1154 layer_factory.hpp:77] Creating layer relu1_4
I1123 17:47:28.180060  1154 net.cpp:106] Creating Layer relu1_4
I1123 17:47:28.180068  1154 net.cpp:454] relu1_4 <- enet1_4
I1123 17:47:28.180078  1154 net.cpp:397] relu1_4 -> enet1_4 (in-place)
I1123 17:47:28.183385  1154 net.cpp:150] Setting up relu1_4
I1123 17:47:28.183409  1154 net.cpp:157] Top shape: 10 64 81 161 (8346240)
I1123 17:47:28.183415  1154 net.cpp:165] Memory required for data: 1980687920
I1123 17:47:28.183426  1154 layer_factory.hpp:77] Creating layer enet1_4_relu1_4_0_split
I1123 17:47:28.183439  1154 net.cpp:106] Creating Layer enet1_4_relu1_4_0_split
I1123 17:47:28.183447  1154 net.cpp:454] enet1_4_relu1_4_0_split <- enet1_4
I1123 17:47:28.183462  1154 net.cpp:411] enet1_4_relu1_4_0_split -> enet1_4_relu1_4_0_split_0
I1123 17:47:28.183477  1154 net.cpp:411] enet1_4_relu1_4_0_split -> enet1_4_relu1_4_0_split_1
I1123 17:47:28.183531  1154 net.cpp:150] Setting up enet1_4_relu1_4_0_split
I1123 17:47:28.183545  1154 net.cpp:157] Top shape: 10 64 81 161 (8346240)
I1123 17:47:28.183554  1154 net.cpp:157] Top shape: 10 64 81 161 (8346240)
I1123 17:47:28.183560  1154 net.cpp:165] Memory required for data: 2047457840
I1123 17:47:28.183568  1154 layer_factory.hpp:77] Creating layer enet2_0_branch2a
I1123 17:47:28.183585  1154 net.cpp:106] Creating Layer enet2_0_branch2a
I1123 17:47:28.183593  1154 net.cpp:454] enet2_0_branch2a <- enet1_4_relu1_4_0_split_0
I1123 17:47:28.183604  1154 net.cpp:411] enet2_0_branch2a -> enet2_0_branch2a
I1123 17:47:28.184053  1154 net.cpp:150] Setting up enet2_0_branch2a
I1123 17:47:28.184068  1154 net.cpp:157] Top shape: 10 32 41 81 (1062720)
I1123 17:47:28.184074  1154 net.cpp:165] Memory required for data: 2051708720
I1123 17:47:28.184083  1154 layer_factory.hpp:77] Creating layer bn2_0_branch2a
I1123 17:47:28.184095  1154 net.cpp:106] Creating Layer bn2_0_branch2a
I1123 17:47:28.184103  1154 net.cpp:454] bn2_0_branch2a <- enet2_0_branch2a
I1123 17:47:28.184113  1154 net.cpp:397] bn2_0_branch2a -> enet2_0_branch2a (in-place)
I1123 17:47:28.184394  1154 net.cpp:150] Setting up bn2_0_branch2a
I1123 17:47:28.184408  1154 net.cpp:157] Top shape: 10 32 41 81 (1062720)
I1123 17:47:28.184414  1154 net.cpp:165] Memory required for data: 2055959600
I1123 17:47:28.184425  1154 layer_factory.hpp:77] Creating layer relu2_0_branch2a
I1123 17:47:28.184435  1154 net.cpp:106] Creating Layer relu2_0_branch2a
I1123 17:47:28.184442  1154 net.cpp:454] relu2_0_branch2a <- enet2_0_branch2a
I1123 17:47:28.184454  1154 net.cpp:397] relu2_0_branch2a -> enet2_0_branch2a (in-place)
I1123 17:47:28.185575  1154 net.cpp:150] Setting up relu2_0_branch2a
I1123 17:47:28.185592  1154 net.cpp:157] Top shape: 10 32 41 81 (1062720)
I1123 17:47:28.185600  1154 net.cpp:165] Memory required for data: 2060210480
I1123 17:47:28.185609  1154 layer_factory.hpp:77] Creating layer enet2_0_branch2b
I1123 17:47:28.185629  1154 net.cpp:106] Creating Layer enet2_0_branch2b
I1123 17:47:28.185638  1154 net.cpp:454] enet2_0_branch2b <- enet2_0_branch2a
I1123 17:47:28.185650  1154 net.cpp:411] enet2_0_branch2b -> enet2_0_branch2b
I1123 17:47:28.186184  1154 net.cpp:150] Setting up enet2_0_branch2b
I1123 17:47:28.186200  1154 net.cpp:157] Top shape: 10 32 41 81 (1062720)
I1123 17:47:28.186228  1154 net.cpp:165] Memory required for data: 2064461360
I1123 17:47:28.186239  1154 layer_factory.hpp:77] Creating layer bn2_0_branch2b
I1123 17:47:28.186254  1154 net.cpp:106] Creating Layer bn2_0_branch2b
I1123 17:47:28.186262  1154 net.cpp:454] bn2_0_branch2b <- enet2_0_branch2b
I1123 17:47:28.186275  1154 net.cpp:397] bn2_0_branch2b -> enet2_0_branch2b (in-place)
I1123 17:47:28.186549  1154 net.cpp:150] Setting up bn2_0_branch2b
I1123 17:47:28.186563  1154 net.cpp:157] Top shape: 10 32 41 81 (1062720)
I1123 17:47:28.186569  1154 net.cpp:165] Memory required for data: 2068712240
I1123 17:47:28.186579  1154 layer_factory.hpp:77] Creating layer relu2_0_branch2b
I1123 17:47:28.186592  1154 net.cpp:106] Creating Layer relu2_0_branch2b
I1123 17:47:28.186600  1154 net.cpp:454] relu2_0_branch2b <- enet2_0_branch2b
I1123 17:47:28.186609  1154 net.cpp:397] relu2_0_branch2b -> enet2_0_branch2b (in-place)
I1123 17:47:28.186822  1154 net.cpp:150] Setting up relu2_0_branch2b
I1123 17:47:28.186836  1154 net.cpp:157] Top shape: 10 32 41 81 (1062720)
I1123 17:47:28.186842  1154 net.cpp:165] Memory required for data: 2072963120
I1123 17:47:28.186851  1154 layer_factory.hpp:77] Creating layer enet2_0_branch2c
I1123 17:47:28.186867  1154 net.cpp:106] Creating Layer enet2_0_branch2c
I1123 17:47:28.186875  1154 net.cpp:454] enet2_0_branch2c <- enet2_0_branch2b
I1123 17:47:28.186889  1154 net.cpp:411] enet2_0_branch2c -> enet2_0_branch2c
I1123 17:47:28.187299  1154 net.cpp:150] Setting up enet2_0_branch2c
I1123 17:47:28.187314  1154 net.cpp:157] Top shape: 10 128 41 81 (4250880)
I1123 17:47:28.187320  1154 net.cpp:165] Memory required for data: 2089966640
I1123 17:47:28.187331  1154 layer_factory.hpp:77] Creating layer bn2_0_branch2c
I1123 17:47:28.187343  1154 net.cpp:106] Creating Layer bn2_0_branch2c
I1123 17:47:28.187350  1154 net.cpp:454] bn2_0_branch2c <- enet2_0_branch2c
I1123 17:47:28.187363  1154 net.cpp:397] bn2_0_branch2c -> enet2_0_branch2c (in-place)
I1123 17:47:28.187613  1154 net.cpp:150] Setting up bn2_0_branch2c
I1123 17:47:28.187626  1154 net.cpp:157] Top shape: 10 128 41 81 (4250880)
I1123 17:47:28.187633  1154 net.cpp:165] Memory required for data: 2106970160
I1123 17:47:28.187644  1154 layer_factory.hpp:77] Creating layer dropout2_0_branch2c
I1123 17:47:28.187654  1154 net.cpp:106] Creating Layer dropout2_0_branch2c
I1123 17:47:28.187661  1154 net.cpp:454] dropout2_0_branch2c <- enet2_0_branch2c
I1123 17:47:28.187674  1154 net.cpp:397] dropout2_0_branch2c -> enet2_0_branch2c (in-place)
I1123 17:47:28.187710  1154 net.cpp:150] Setting up dropout2_0_branch2c
I1123 17:47:28.187721  1154 net.cpp:157] Top shape: 10 128 41 81 (4250880)
I1123 17:47:28.187727  1154 net.cpp:165] Memory required for data: 2123973680
I1123 17:47:28.187734  1154 layer_factory.hpp:77] Creating layer enet2_0_branch1a
I1123 17:47:28.187752  1154 net.cpp:106] Creating Layer enet2_0_branch1a
I1123 17:47:28.187762  1154 net.cpp:454] enet2_0_branch1a <- enet1_4_relu1_4_0_split_1
I1123 17:47:28.187772  1154 net.cpp:411] enet2_0_branch1a -> enet2_0_branch1a
I1123 17:47:28.188215  1154 net.cpp:150] Setting up enet2_0_branch1a
I1123 17:47:28.188230  1154 net.cpp:157] Top shape: 10 128 81 161 (16692480)
I1123 17:47:28.188237  1154 net.cpp:165] Memory required for data: 2190743600
I1123 17:47:28.188246  1154 layer_factory.hpp:77] Creating layer bn2_0_branch1a
I1123 17:47:28.188256  1154 net.cpp:106] Creating Layer bn2_0_branch1a
I1123 17:47:28.188263  1154 net.cpp:454] bn2_0_branch1a <- enet2_0_branch1a
I1123 17:47:28.188273  1154 net.cpp:397] bn2_0_branch1a -> enet2_0_branch1a (in-place)
I1123 17:47:28.188539  1154 net.cpp:150] Setting up bn2_0_branch1a
I1123 17:47:28.188555  1154 net.cpp:157] Top shape: 10 128 81 161 (16692480)
I1123 17:47:28.188561  1154 net.cpp:165] Memory required for data: 2257513520
I1123 17:47:28.188571  1154 layer_factory.hpp:77] Creating layer pool2_0_branch1a
I1123 17:47:28.188585  1154 net.cpp:106] Creating Layer pool2_0_branch1a
I1123 17:47:28.188591  1154 net.cpp:454] pool2_0_branch1a <- enet2_0_branch1a
I1123 17:47:28.188607  1154 net.cpp:411] pool2_0_branch1a -> pool2_0_branch1a
I1123 17:47:28.188629  1154 net.cpp:411] pool2_0_branch1a -> pool2_0_branch1a_mask
I1123 17:47:28.188685  1154 net.cpp:150] Setting up pool2_0_branch1a
I1123 17:47:28.188699  1154 net.cpp:157] Top shape: 10 128 41 81 (4250880)
I1123 17:47:28.188706  1154 net.cpp:157] Top shape: 10 128 41 81 (4250880)
I1123 17:47:28.188712  1154 net.cpp:165] Memory required for data: 2291520560
I1123 17:47:28.188719  1154 layer_factory.hpp:77] Creating layer enet2_0
I1123 17:47:28.188730  1154 net.cpp:106] Creating Layer enet2_0
I1123 17:47:28.188735  1154 net.cpp:454] enet2_0 <- pool2_0_branch1a
I1123 17:47:28.188745  1154 net.cpp:454] enet2_0 <- enet2_0_branch2c
I1123 17:47:28.188755  1154 net.cpp:411] enet2_0 -> enet2_0
I1123 17:47:28.188789  1154 net.cpp:150] Setting up enet2_0
I1123 17:47:28.188805  1154 net.cpp:157] Top shape: 10 128 41 81 (4250880)
I1123 17:47:28.188812  1154 net.cpp:165] Memory required for data: 2308524080
I1123 17:47:28.188818  1154 layer_factory.hpp:77] Creating layer relu2_0
I1123 17:47:28.188827  1154 net.cpp:106] Creating Layer relu2_0
I1123 17:47:28.188834  1154 net.cpp:454] relu2_0 <- enet2_0
I1123 17:47:28.188843  1154 net.cpp:397] relu2_0 -> enet2_0 (in-place)
I1123 17:47:28.190567  1154 net.cpp:150] Setting up relu2_0
I1123 17:47:28.190584  1154 net.cpp:157] Top shape: 10 128 41 81 (4250880)
I1123 17:47:28.190592  1154 net.cpp:165] Memory required for data: 2325527600
I1123 17:47:28.190600  1154 layer_factory.hpp:77] Creating layer enet2_0_relu2_0_0_split
I1123 17:47:28.190610  1154 net.cpp:106] Creating Layer enet2_0_relu2_0_0_split
I1123 17:47:28.190618  1154 net.cpp:454] enet2_0_relu2_0_0_split <- enet2_0
I1123 17:47:28.190630  1154 net.cpp:411] enet2_0_relu2_0_0_split -> enet2_0_relu2_0_0_split_0
I1123 17:47:28.190642  1154 net.cpp:411] enet2_0_relu2_0_0_split -> enet2_0_relu2_0_0_split_1
I1123 17:47:28.190693  1154 net.cpp:150] Setting up enet2_0_relu2_0_0_split
I1123 17:47:28.190706  1154 net.cpp:157] Top shape: 10 128 41 81 (4250880)
I1123 17:47:28.190714  1154 net.cpp:157] Top shape: 10 128 41 81 (4250880)
I1123 17:47:28.190721  1154 net.cpp:165] Memory required for data: 2359534640
I1123 17:47:28.190727  1154 layer_factory.hpp:77] Creating layer enet2_1_branch2a
I1123 17:47:28.190742  1154 net.cpp:106] Creating Layer enet2_1_branch2a
I1123 17:47:28.190750  1154 net.cpp:454] enet2_1_branch2a <- enet2_0_relu2_0_0_split_0
I1123 17:47:28.190762  1154 net.cpp:411] enet2_1_branch2a -> enet2_1_branch2a
I1123 17:47:28.191097  1154 net.cpp:150] Setting up enet2_1_branch2a
I1123 17:47:28.191112  1154 net.cpp:157] Top shape: 10 32 41 81 (1062720)
I1123 17:47:28.191119  1154 net.cpp:165] Memory required for data: 2363785520
I1123 17:47:28.191128  1154 layer_factory.hpp:77] Creating layer bn2_1_branch2a
I1123 17:47:28.191143  1154 net.cpp:106] Creating Layer bn2_1_branch2a
I1123 17:47:28.191150  1154 net.cpp:454] bn2_1_branch2a <- enet2_1_branch2a
I1123 17:47:28.191160  1154 net.cpp:397] bn2_1_branch2a -> enet2_1_branch2a (in-place)
I1123 17:47:28.191422  1154 net.cpp:150] Setting up bn2_1_branch2a
I1123 17:47:28.191437  1154 net.cpp:157] Top shape: 10 32 41 81 (1062720)
I1123 17:47:28.191442  1154 net.cpp:165] Memory required for data: 2368036400
I1123 17:47:28.191453  1154 layer_factory.hpp:77] Creating layer relu2_1_branch2a
I1123 17:47:28.191463  1154 net.cpp:106] Creating Layer relu2_1_branch2a
I1123 17:47:28.191470  1154 net.cpp:454] relu2_1_branch2a <- enet2_1_branch2a
I1123 17:47:28.191479  1154 net.cpp:397] relu2_1_branch2a -> enet2_1_branch2a (in-place)
I1123 17:47:28.192458  1154 net.cpp:150] Setting up relu2_1_branch2a
I1123 17:47:28.192477  1154 net.cpp:157] Top shape: 10 32 41 81 (1062720)
I1123 17:47:28.192484  1154 net.cpp:165] Memory required for data: 2372287280
I1123 17:47:28.192493  1154 layer_factory.hpp:77] Creating layer enet2_1_branch2b
I1123 17:47:28.192507  1154 net.cpp:106] Creating Layer enet2_1_branch2b
I1123 17:47:28.192515  1154 net.cpp:454] enet2_1_branch2b <- enet2_1_branch2a
I1123 17:47:28.192536  1154 net.cpp:411] enet2_1_branch2b -> enet2_1_branch2b
I1123 17:47:28.193099  1154 net.cpp:150] Setting up enet2_1_branch2b
I1123 17:47:28.193114  1154 net.cpp:157] Top shape: 10 32 41 81 (1062720)
I1123 17:47:28.193120  1154 net.cpp:165] Memory required for data: 2376538160
I1123 17:47:28.193130  1154 layer_factory.hpp:77] Creating layer bn2_1_branch2b
I1123 17:47:28.193145  1154 net.cpp:106] Creating Layer bn2_1_branch2b
I1123 17:47:28.193153  1154 net.cpp:454] bn2_1_branch2b <- enet2_1_branch2b
I1123 17:47:28.193166  1154 net.cpp:397] bn2_1_branch2b -> enet2_1_branch2b (in-place)
I1123 17:47:28.193435  1154 net.cpp:150] Setting up bn2_1_branch2b
I1123 17:47:28.193449  1154 net.cpp:157] Top shape: 10 32 41 81 (1062720)
I1123 17:47:28.193456  1154 net.cpp:165] Memory required for data: 2380789040
I1123 17:47:28.193466  1154 layer_factory.hpp:77] Creating layer relu2_1_branch2b
I1123 17:47:28.193476  1154 net.cpp:106] Creating Layer relu2_1_branch2b
I1123 17:47:28.193483  1154 net.cpp:454] relu2_1_branch2b <- enet2_1_branch2b
I1123 17:47:28.193492  1154 net.cpp:397] relu2_1_branch2b -> enet2_1_branch2b (in-place)
I1123 17:47:28.193692  1154 net.cpp:150] Setting up relu2_1_branch2b
I1123 17:47:28.193708  1154 net.cpp:157] Top shape: 10 32 41 81 (1062720)
I1123 17:47:28.193716  1154 net.cpp:165] Memory required for data: 2385039920
I1123 17:47:28.193724  1154 layer_factory.hpp:77] Creating layer enet2_1_branch2c
I1123 17:47:28.193737  1154 net.cpp:106] Creating Layer enet2_1_branch2c
I1123 17:47:28.193745  1154 net.cpp:454] enet2_1_branch2c <- enet2_1_branch2b
I1123 17:47:28.193759  1154 net.cpp:411] enet2_1_branch2c -> enet2_1_branch2c
I1123 17:47:28.194103  1154 net.cpp:150] Setting up enet2_1_branch2c
I1123 17:47:28.194118  1154 net.cpp:157] Top shape: 10 128 41 81 (4250880)
I1123 17:47:28.194124  1154 net.cpp:165] Memory required for data: 2402043440
I1123 17:47:28.194133  1154 layer_factory.hpp:77] Creating layer bn2_1_branch2c
I1123 17:47:28.194144  1154 net.cpp:106] Creating Layer bn2_1_branch2c
I1123 17:47:28.194151  1154 net.cpp:454] bn2_1_branch2c <- enet2_1_branch2c
I1123 17:47:28.194161  1154 net.cpp:397] bn2_1_branch2c -> enet2_1_branch2c (in-place)
I1123 17:47:28.194416  1154 net.cpp:150] Setting up bn2_1_branch2c
I1123 17:47:28.194429  1154 net.cpp:157] Top shape: 10 128 41 81 (4250880)
I1123 17:47:28.194437  1154 net.cpp:165] Memory required for data: 2419046960
I1123 17:47:28.194447  1154 layer_factory.hpp:77] Creating layer dropout2_1_branch2c
I1123 17:47:28.194458  1154 net.cpp:106] Creating Layer dropout2_1_branch2c
I1123 17:47:28.194464  1154 net.cpp:454] dropout2_1_branch2c <- enet2_1_branch2c
I1123 17:47:28.194473  1154 net.cpp:397] dropout2_1_branch2c -> enet2_1_branch2c (in-place)
I1123 17:47:28.194511  1154 net.cpp:150] Setting up dropout2_1_branch2c
I1123 17:47:28.194526  1154 net.cpp:157] Top shape: 10 128 41 81 (4250880)
I1123 17:47:28.194542  1154 net.cpp:165] Memory required for data: 2436050480
I1123 17:47:28.194550  1154 layer_factory.hpp:77] Creating layer enet2_1
I1123 17:47:28.194560  1154 net.cpp:106] Creating Layer enet2_1
I1123 17:47:28.194566  1154 net.cpp:454] enet2_1 <- enet2_0_relu2_0_0_split_1
I1123 17:47:28.194576  1154 net.cpp:454] enet2_1 <- enet2_1_branch2c
I1123 17:47:28.194587  1154 net.cpp:411] enet2_1 -> enet2_1
I1123 17:47:28.194623  1154 net.cpp:150] Setting up enet2_1
I1123 17:47:28.194635  1154 net.cpp:157] Top shape: 10 128 41 81 (4250880)
I1123 17:47:28.194643  1154 net.cpp:165] Memory required for data: 2453054000
I1123 17:47:28.194648  1154 layer_factory.hpp:77] Creating layer relu2_1
I1123 17:47:28.194661  1154 net.cpp:106] Creating Layer relu2_1
I1123 17:47:28.194669  1154 net.cpp:454] relu2_1 <- enet2_1
I1123 17:47:28.194679  1154 net.cpp:397] relu2_1 -> enet2_1 (in-place)
I1123 17:47:28.196689  1154 net.cpp:150] Setting up relu2_1
I1123 17:47:28.196709  1154 net.cpp:157] Top shape: 10 128 41 81 (4250880)
I1123 17:47:28.196717  1154 net.cpp:165] Memory required for data: 2470057520
I1123 17:47:28.196727  1154 layer_factory.hpp:77] Creating layer enet2_1_relu2_1_0_split
I1123 17:47:28.196753  1154 net.cpp:106] Creating Layer enet2_1_relu2_1_0_split
I1123 17:47:28.196760  1154 net.cpp:454] enet2_1_relu2_1_0_split <- enet2_1
I1123 17:47:28.196774  1154 net.cpp:411] enet2_1_relu2_1_0_split -> enet2_1_relu2_1_0_split_0
I1123 17:47:28.196786  1154 net.cpp:411] enet2_1_relu2_1_0_split -> enet2_1_relu2_1_0_split_1
I1123 17:47:28.196840  1154 net.cpp:150] Setting up enet2_1_relu2_1_0_split
I1123 17:47:28.196856  1154 net.cpp:157] Top shape: 10 128 41 81 (4250880)
I1123 17:47:28.196863  1154 net.cpp:157] Top shape: 10 128 41 81 (4250880)
I1123 17:47:28.196869  1154 net.cpp:165] Memory required for data: 2504064560
I1123 17:47:28.196876  1154 layer_factory.hpp:77] Creating layer enet2_2_branch2a
I1123 17:47:28.196892  1154 net.cpp:106] Creating Layer enet2_2_branch2a
I1123 17:47:28.196900  1154 net.cpp:454] enet2_2_branch2a <- enet2_1_relu2_1_0_split_0
I1123 17:47:28.196912  1154 net.cpp:411] enet2_2_branch2a -> enet2_2_branch2a
I1123 17:47:28.197252  1154 net.cpp:150] Setting up enet2_2_branch2a
I1123 17:47:28.197268  1154 net.cpp:157] Top shape: 10 32 41 81 (1062720)
I1123 17:47:28.197274  1154 net.cpp:165] Memory required for data: 2508315440
I1123 17:47:28.197283  1154 layer_factory.hpp:77] Creating layer bn2_2_branch2a
I1123 17:47:28.197294  1154 net.cpp:106] Creating Layer bn2_2_branch2a
I1123 17:47:28.197302  1154 net.cpp:454] bn2_2_branch2a <- enet2_2_branch2a
I1123 17:47:28.197312  1154 net.cpp:397] bn2_2_branch2a -> enet2_2_branch2a (in-place)
I1123 17:47:28.197579  1154 net.cpp:150] Setting up bn2_2_branch2a
I1123 17:47:28.197593  1154 net.cpp:157] Top shape: 10 32 41 81 (1062720)
I1123 17:47:28.197600  1154 net.cpp:165] Memory required for data: 2512566320
I1123 17:47:28.197610  1154 layer_factory.hpp:77] Creating layer relu2_2_branch2a
I1123 17:47:28.197621  1154 net.cpp:106] Creating Layer relu2_2_branch2a
I1123 17:47:28.197628  1154 net.cpp:454] relu2_2_branch2a <- enet2_2_branch2a
I1123 17:47:28.197639  1154 net.cpp:397] relu2_2_branch2a -> enet2_2_branch2a (in-place)
I1123 17:47:28.198734  1154 net.cpp:150] Setting up relu2_2_branch2a
I1123 17:47:28.198751  1154 net.cpp:157] Top shape: 10 32 41 81 (1062720)
I1123 17:47:28.198758  1154 net.cpp:165] Memory required for data: 2516817200
I1123 17:47:28.198768  1154 layer_factory.hpp:77] Creating layer enet2_2_branch2b
I1123 17:47:28.198787  1154 net.cpp:106] Creating Layer enet2_2_branch2b
I1123 17:47:28.198796  1154 net.cpp:454] enet2_2_branch2b <- enet2_2_branch2a
I1123 17:47:28.198807  1154 net.cpp:411] enet2_2_branch2b -> enet2_2_branch2b
I1123 17:47:28.200343  1154 net.cpp:150] Setting up enet2_2_branch2b
I1123 17:47:28.200361  1154 net.cpp:157] Top shape: 10 32 41 81 (1062720)
I1123 17:47:28.200368  1154 net.cpp:165] Memory required for data: 2521068080
I1123 17:47:28.200379  1154 layer_factory.hpp:77] Creating layer bn2_2_branch2b
I1123 17:47:28.200397  1154 net.cpp:106] Creating Layer bn2_2_branch2b
I1123 17:47:28.200405  1154 net.cpp:454] bn2_2_branch2b <- enet2_2_branch2b
I1123 17:47:28.200418  1154 net.cpp:397] bn2_2_branch2b -> enet2_2_branch2b (in-place)
I1123 17:47:28.200703  1154 net.cpp:150] Setting up bn2_2_branch2b
I1123 17:47:28.200718  1154 net.cpp:157] Top shape: 10 32 41 81 (1062720)
I1123 17:47:28.200724  1154 net.cpp:165] Memory required for data: 2525318960
I1123 17:47:28.200736  1154 layer_factory.hpp:77] Creating layer relu2_2_branch2b
I1123 17:47:28.200745  1154 net.cpp:106] Creating Layer relu2_2_branch2b
I1123 17:47:28.200752  1154 net.cpp:454] relu2_2_branch2b <- enet2_2_branch2b
I1123 17:47:28.200762  1154 net.cpp:397] relu2_2_branch2b -> enet2_2_branch2b (in-place)
I1123 17:47:28.200987  1154 net.cpp:150] Setting up relu2_2_branch2b
I1123 17:47:28.201002  1154 net.cpp:157] Top shape: 10 32 41 81 (1062720)
I1123 17:47:28.201009  1154 net.cpp:165] Memory required for data: 2529569840
I1123 17:47:28.201019  1154 layer_factory.hpp:77] Creating layer enet2_2_branch2c
I1123 17:47:28.201035  1154 net.cpp:106] Creating Layer enet2_2_branch2c
I1123 17:47:28.201045  1154 net.cpp:454] enet2_2_branch2c <- enet2_2_branch2b
I1123 17:47:28.201076  1154 net.cpp:411] enet2_2_branch2c -> enet2_2_branch2c
I1123 17:47:28.201421  1154 net.cpp:150] Setting up enet2_2_branch2c
I1123 17:47:28.201436  1154 net.cpp:157] Top shape: 10 128 41 81 (4250880)
I1123 17:47:28.201443  1154 net.cpp:165] Memory required for data: 2546573360
I1123 17:47:28.201452  1154 layer_factory.hpp:77] Creating layer bn2_2_branch2c
I1123 17:47:28.201467  1154 net.cpp:106] Creating Layer bn2_2_branch2c
I1123 17:47:28.201473  1154 net.cpp:454] bn2_2_branch2c <- enet2_2_branch2c
I1123 17:47:28.201483  1154 net.cpp:397] bn2_2_branch2c -> enet2_2_branch2c (in-place)
I1123 17:47:28.201732  1154 net.cpp:150] Setting up bn2_2_branch2c
I1123 17:47:28.201746  1154 net.cpp:157] Top shape: 10 128 41 81 (4250880)
I1123 17:47:28.201752  1154 net.cpp:165] Memory required for data: 2563576880
I1123 17:47:28.201762  1154 layer_factory.hpp:77] Creating layer dropout2_2_branch2c
I1123 17:47:28.201774  1154 net.cpp:106] Creating Layer dropout2_2_branch2c
I1123 17:47:28.201781  1154 net.cpp:454] dropout2_2_branch2c <- enet2_2_branch2c
I1123 17:47:28.201791  1154 net.cpp:397] dropout2_2_branch2c -> enet2_2_branch2c (in-place)
I1123 17:47:28.201827  1154 net.cpp:150] Setting up dropout2_2_branch2c
I1123 17:47:28.201838  1154 net.cpp:157] Top shape: 10 128 41 81 (4250880)
I1123 17:47:28.201844  1154 net.cpp:165] Memory required for data: 2580580400
I1123 17:47:28.201851  1154 layer_factory.hpp:77] Creating layer enet2_2
I1123 17:47:28.201866  1154 net.cpp:106] Creating Layer enet2_2
I1123 17:47:28.201874  1154 net.cpp:454] enet2_2 <- enet2_1_relu2_1_0_split_1
I1123 17:47:28.201882  1154 net.cpp:454] enet2_2 <- enet2_2_branch2c
I1123 17:47:28.201891  1154 net.cpp:411] enet2_2 -> enet2_2
I1123 17:47:28.201930  1154 net.cpp:150] Setting up enet2_2
I1123 17:47:28.201941  1154 net.cpp:157] Top shape: 10 128 41 81 (4250880)
I1123 17:47:28.201952  1154 net.cpp:165] Memory required for data: 2597583920
I1123 17:47:28.201959  1154 layer_factory.hpp:77] Creating layer relu2_2
I1123 17:47:28.201972  1154 net.cpp:106] Creating Layer relu2_2
I1123 17:47:28.201979  1154 net.cpp:454] relu2_2 <- enet2_2
I1123 17:47:28.201988  1154 net.cpp:397] relu2_2 -> enet2_2 (in-place)
I1123 17:47:28.203670  1154 net.cpp:150] Setting up relu2_2
I1123 17:47:28.203688  1154 net.cpp:157] Top shape: 10 128 41 81 (4250880)
I1123 17:47:28.203694  1154 net.cpp:165] Memory required for data: 2614587440
I1123 17:47:28.203703  1154 layer_factory.hpp:77] Creating layer enet2_2_relu2_2_0_split
I1123 17:47:28.203716  1154 net.cpp:106] Creating Layer enet2_2_relu2_2_0_split
I1123 17:47:28.203723  1154 net.cpp:454] enet2_2_relu2_2_0_split <- enet2_2
I1123 17:47:28.203735  1154 net.cpp:411] enet2_2_relu2_2_0_split -> enet2_2_relu2_2_0_split_0
I1123 17:47:28.203758  1154 net.cpp:411] enet2_2_relu2_2_0_split -> enet2_2_relu2_2_0_split_1
I1123 17:47:28.203814  1154 net.cpp:150] Setting up enet2_2_relu2_2_0_split
I1123 17:47:28.203827  1154 net.cpp:157] Top shape: 10 128 41 81 (4250880)
I1123 17:47:28.203835  1154 net.cpp:157] Top shape: 10 128 41 81 (4250880)
I1123 17:47:28.203841  1154 net.cpp:165] Memory required for data: 2648594480
I1123 17:47:28.203848  1154 layer_factory.hpp:77] Creating layer enet2_3_branch2a
I1123 17:47:28.203863  1154 net.cpp:106] Creating Layer enet2_3_branch2a
I1123 17:47:28.203872  1154 net.cpp:454] enet2_3_branch2a <- enet2_2_relu2_2_0_split_0
I1123 17:47:28.203882  1154 net.cpp:411] enet2_3_branch2a -> enet2_3_branch2a
I1123 17:47:28.204227  1154 net.cpp:150] Setting up enet2_3_branch2a
I1123 17:47:28.204242  1154 net.cpp:157] Top shape: 10 32 41 81 (1062720)
I1123 17:47:28.204248  1154 net.cpp:165] Memory required for data: 2652845360
I1123 17:47:28.204257  1154 layer_factory.hpp:77] Creating layer bn2_3_branch2a
I1123 17:47:28.204268  1154 net.cpp:106] Creating Layer bn2_3_branch2a
I1123 17:47:28.204277  1154 net.cpp:454] bn2_3_branch2a <- enet2_3_branch2a
I1123 17:47:28.204288  1154 net.cpp:397] bn2_3_branch2a -> enet2_3_branch2a (in-place)
I1123 17:47:28.204562  1154 net.cpp:150] Setting up bn2_3_branch2a
I1123 17:47:28.204584  1154 net.cpp:157] Top shape: 10 32 41 81 (1062720)
I1123 17:47:28.204592  1154 net.cpp:165] Memory required for data: 2657096240
I1123 17:47:28.204602  1154 layer_factory.hpp:77] Creating layer relu2_3_branch2a
I1123 17:47:28.204615  1154 net.cpp:106] Creating Layer relu2_3_branch2a
I1123 17:47:28.204622  1154 net.cpp:454] relu2_3_branch2a <- enet2_3_branch2a
I1123 17:47:28.204632  1154 net.cpp:397] relu2_3_branch2a -> enet2_3_branch2a (in-place)
I1123 17:47:28.205576  1154 net.cpp:150] Setting up relu2_3_branch2a
I1123 17:47:28.205595  1154 net.cpp:157] Top shape: 10 32 41 81 (1062720)
I1123 17:47:28.205601  1154 net.cpp:165] Memory required for data: 2661347120
I1123 17:47:28.205610  1154 layer_factory.hpp:77] Creating layer enet2_3_branch2b1
I1123 17:47:28.205629  1154 net.cpp:106] Creating Layer enet2_3_branch2b1
I1123 17:47:28.205638  1154 net.cpp:454] enet2_3_branch2b1 <- enet2_3_branch2a
I1123 17:47:28.205652  1154 net.cpp:411] enet2_3_branch2b1 -> enet2_3_branch2b1
I1123 17:47:28.206022  1154 net.cpp:150] Setting up enet2_3_branch2b1
I1123 17:47:28.206037  1154 net.cpp:157] Top shape: 10 32 41 81 (1062720)
I1123 17:47:28.206043  1154 net.cpp:165] Memory required for data: 2665598000
I1123 17:47:28.206053  1154 layer_factory.hpp:77] Creating layer enet2_3_branch2b
I1123 17:47:28.206068  1154 net.cpp:106] Creating Layer enet2_3_branch2b
I1123 17:47:28.206077  1154 net.cpp:454] enet2_3_branch2b <- enet2_3_branch2b1
I1123 17:47:28.206089  1154 net.cpp:411] enet2_3_branch2b -> enet2_3_branch2b
I1123 17:47:28.206518  1154 net.cpp:150] Setting up enet2_3_branch2b
I1123 17:47:28.206532  1154 net.cpp:157] Top shape: 10 32 41 81 (1062720)
I1123 17:47:28.206539  1154 net.cpp:165] Memory required for data: 2669848880
I1123 17:47:28.206549  1154 layer_factory.hpp:77] Creating layer bn2_3_branch2b
I1123 17:47:28.206564  1154 net.cpp:106] Creating Layer bn2_3_branch2b
I1123 17:47:28.206571  1154 net.cpp:454] bn2_3_branch2b <- enet2_3_branch2b
I1123 17:47:28.206583  1154 net.cpp:397] bn2_3_branch2b -> enet2_3_branch2b (in-place)
I1123 17:47:28.206859  1154 net.cpp:150] Setting up bn2_3_branch2b
I1123 17:47:28.206873  1154 net.cpp:157] Top shape: 10 32 41 81 (1062720)
I1123 17:47:28.206881  1154 net.cpp:165] Memory required for data: 2674099760
I1123 17:47:28.206890  1154 layer_factory.hpp:77] Creating layer relu2_3_branch2b
I1123 17:47:28.206900  1154 net.cpp:106] Creating Layer relu2_3_branch2b
I1123 17:47:28.206907  1154 net.cpp:454] relu2_3_branch2b <- enet2_3_branch2b
I1123 17:47:28.206919  1154 net.cpp:397] relu2_3_branch2b -> enet2_3_branch2b (in-place)
I1123 17:47:28.207132  1154 net.cpp:150] Setting up relu2_3_branch2b
I1123 17:47:28.207147  1154 net.cpp:157] Top shape: 10 32 41 81 (1062720)
I1123 17:47:28.207154  1154 net.cpp:165] Memory required for data: 2678350640
I1123 17:47:28.207164  1154 layer_factory.hpp:77] Creating layer enet2_3_branch2c
I1123 17:47:28.207182  1154 net.cpp:106] Creating Layer enet2_3_branch2c
I1123 17:47:28.207190  1154 net.cpp:454] enet2_3_branch2c <- enet2_3_branch2b
I1123 17:47:28.207204  1154 net.cpp:411] enet2_3_branch2c -> enet2_3_branch2c
I1123 17:47:28.207550  1154 net.cpp:150] Setting up enet2_3_branch2c
I1123 17:47:28.207563  1154 net.cpp:157] Top shape: 10 128 41 81 (4250880)
I1123 17:47:28.207571  1154 net.cpp:165] Memory required for data: 2695354160
I1123 17:47:28.207578  1154 layer_factory.hpp:77] Creating layer bn2_3_branch2c
I1123 17:47:28.207590  1154 net.cpp:106] Creating Layer bn2_3_branch2c
I1123 17:47:28.207597  1154 net.cpp:454] bn2_3_branch2c <- enet2_3_branch2c
I1123 17:47:28.207610  1154 net.cpp:397] bn2_3_branch2c -> enet2_3_branch2c (in-place)
I1123 17:47:28.207867  1154 net.cpp:150] Setting up bn2_3_branch2c
I1123 17:47:28.207882  1154 net.cpp:157] Top shape: 10 128 41 81 (4250880)
I1123 17:47:28.207888  1154 net.cpp:165] Memory required for data: 2712357680
I1123 17:47:28.207898  1154 layer_factory.hpp:77] Creating layer dropout2_3_branch2c
I1123 17:47:28.207909  1154 net.cpp:106] Creating Layer dropout2_3_branch2c
I1123 17:47:28.207926  1154 net.cpp:454] dropout2_3_branch2c <- enet2_3_branch2c
I1123 17:47:28.207944  1154 net.cpp:397] dropout2_3_branch2c -> enet2_3_branch2c (in-place)
I1123 17:47:28.207989  1154 net.cpp:150] Setting up dropout2_3_branch2c
I1123 17:47:28.208003  1154 net.cpp:157] Top shape: 10 128 41 81 (4250880)
I1123 17:47:28.208009  1154 net.cpp:165] Memory required for data: 2729361200
I1123 17:47:28.208015  1154 layer_factory.hpp:77] Creating layer enet2_3
I1123 17:47:28.208025  1154 net.cpp:106] Creating Layer enet2_3
I1123 17:47:28.208032  1154 net.cpp:454] enet2_3 <- enet2_2_relu2_2_0_split_1
I1123 17:47:28.208041  1154 net.cpp:454] enet2_3 <- enet2_3_branch2c
I1123 17:47:28.208050  1154 net.cpp:411] enet2_3 -> enet2_3
I1123 17:47:28.208089  1154 net.cpp:150] Setting up enet2_3
I1123 17:47:28.208102  1154 net.cpp:157] Top shape: 10 128 41 81 (4250880)
I1123 17:47:28.208108  1154 net.cpp:165] Memory required for data: 2746364720
I1123 17:47:28.208115  1154 layer_factory.hpp:77] Creating layer relu2_3
I1123 17:47:28.208124  1154 net.cpp:106] Creating Layer relu2_3
I1123 17:47:28.208132  1154 net.cpp:454] relu2_3 <- enet2_3
I1123 17:47:28.208142  1154 net.cpp:397] relu2_3 -> enet2_3 (in-place)
I1123 17:47:28.210175  1154 net.cpp:150] Setting up relu2_3
I1123 17:47:28.210196  1154 net.cpp:157] Top shape: 10 128 41 81 (4250880)
I1123 17:47:28.210202  1154 net.cpp:165] Memory required for data: 2763368240
I1123 17:47:28.210245  1154 layer_factory.hpp:77] Creating layer enet2_3_relu2_3_0_split
I1123 17:47:28.210258  1154 net.cpp:106] Creating Layer enet2_3_relu2_3_0_split
I1123 17:47:28.210265  1154 net.cpp:454] enet2_3_relu2_3_0_split <- enet2_3
I1123 17:47:28.210276  1154 net.cpp:411] enet2_3_relu2_3_0_split -> enet2_3_relu2_3_0_split_0
I1123 17:47:28.210289  1154 net.cpp:411] enet2_3_relu2_3_0_split -> enet2_3_relu2_3_0_split_1
I1123 17:47:28.210343  1154 net.cpp:150] Setting up enet2_3_relu2_3_0_split
I1123 17:47:28.210356  1154 net.cpp:157] Top shape: 10 128 41 81 (4250880)
I1123 17:47:28.210364  1154 net.cpp:157] Top shape: 10 128 41 81 (4250880)
I1123 17:47:28.210371  1154 net.cpp:165] Memory required for data: 2797375280
I1123 17:47:28.210377  1154 layer_factory.hpp:77] Creating layer enet2_4_branch2a
I1123 17:47:28.210396  1154 net.cpp:106] Creating Layer enet2_4_branch2a
I1123 17:47:28.210403  1154 net.cpp:454] enet2_4_branch2a <- enet2_3_relu2_3_0_split_0
I1123 17:47:28.210414  1154 net.cpp:411] enet2_4_branch2a -> enet2_4_branch2a
I1123 17:47:28.210767  1154 net.cpp:150] Setting up enet2_4_branch2a
I1123 17:47:28.210782  1154 net.cpp:157] Top shape: 10 32 41 81 (1062720)
I1123 17:47:28.210788  1154 net.cpp:165] Memory required for data: 2801626160
I1123 17:47:28.210796  1154 layer_factory.hpp:77] Creating layer bn2_4_branch2a
I1123 17:47:28.210808  1154 net.cpp:106] Creating Layer bn2_4_branch2a
I1123 17:47:28.210815  1154 net.cpp:454] bn2_4_branch2a <- enet2_4_branch2a
I1123 17:47:28.210825  1154 net.cpp:397] bn2_4_branch2a -> enet2_4_branch2a (in-place)
I1123 17:47:28.211113  1154 net.cpp:150] Setting up bn2_4_branch2a
I1123 17:47:28.211127  1154 net.cpp:157] Top shape: 10 32 41 81 (1062720)
I1123 17:47:28.211133  1154 net.cpp:165] Memory required for data: 2805877040
I1123 17:47:28.211144  1154 layer_factory.hpp:77] Creating layer relu2_4_branch2a
I1123 17:47:28.211154  1154 net.cpp:106] Creating Layer relu2_4_branch2a
I1123 17:47:28.211161  1154 net.cpp:454] relu2_4_branch2a <- enet2_4_branch2a
I1123 17:47:28.211174  1154 net.cpp:397] relu2_4_branch2a -> enet2_4_branch2a (in-place)
I1123 17:47:28.212287  1154 net.cpp:150] Setting up relu2_4_branch2a
I1123 17:47:28.212304  1154 net.cpp:157] Top shape: 10 32 41 81 (1062720)
I1123 17:47:28.212311  1154 net.cpp:165] Memory required for data: 2810127920
I1123 17:47:28.212321  1154 layer_factory.hpp:77] Creating layer enet2_4_branch2b
I1123 17:47:28.212343  1154 net.cpp:106] Creating Layer enet2_4_branch2b
I1123 17:47:28.212352  1154 net.cpp:454] enet2_4_branch2b <- enet2_4_branch2a
I1123 17:47:28.212363  1154 net.cpp:411] enet2_4_branch2b -> enet2_4_branch2b
I1123 17:47:28.213194  1154 net.cpp:150] Setting up enet2_4_branch2b
I1123 17:47:28.213220  1154 net.cpp:157] Top shape: 10 32 41 81 (1062720)
I1123 17:47:28.213227  1154 net.cpp:165] Memory required for data: 2814378800
I1123 17:47:28.213238  1154 layer_factory.hpp:77] Creating layer bn2_4_branch2b
I1123 17:47:28.213275  1154 net.cpp:106] Creating Layer bn2_4_branch2b
I1123 17:47:28.213284  1154 net.cpp:454] bn2_4_branch2b <- enet2_4_branch2b
I1123 17:47:28.213294  1154 net.cpp:397] bn2_4_branch2b -> enet2_4_branch2b (in-place)
I1123 17:47:28.213582  1154 net.cpp:150] Setting up bn2_4_branch2b
I1123 17:47:28.213598  1154 net.cpp:157] Top shape: 10 32 41 81 (1062720)
I1123 17:47:28.213603  1154 net.cpp:165] Memory required for data: 2818629680
I1123 17:47:28.213614  1154 layer_factory.hpp:77] Creating layer relu2_4_branch2b
I1123 17:47:28.213625  1154 net.cpp:106] Creating Layer relu2_4_branch2b
I1123 17:47:28.213632  1154 net.cpp:454] relu2_4_branch2b <- enet2_4_branch2b
I1123 17:47:28.213644  1154 net.cpp:397] relu2_4_branch2b -> enet2_4_branch2b (in-place)
I1123 17:47:28.213853  1154 net.cpp:150] Setting up relu2_4_branch2b
I1123 17:47:28.213868  1154 net.cpp:157] Top shape: 10 32 41 81 (1062720)
I1123 17:47:28.213876  1154 net.cpp:165] Memory required for data: 2822880560
I1123 17:47:28.213884  1154 layer_factory.hpp:77] Creating layer enet2_4_branch2c
I1123 17:47:28.213901  1154 net.cpp:106] Creating Layer enet2_4_branch2c
I1123 17:47:28.213908  1154 net.cpp:454] enet2_4_branch2c <- enet2_4_branch2b
I1123 17:47:28.213919  1154 net.cpp:411] enet2_4_branch2c -> enet2_4_branch2c
I1123 17:47:28.214272  1154 net.cpp:150] Setting up enet2_4_branch2c
I1123 17:47:28.214287  1154 net.cpp:157] Top shape: 10 128 41 81 (4250880)
I1123 17:47:28.214293  1154 net.cpp:165] Memory required for data: 2839884080
I1123 17:47:28.214303  1154 layer_factory.hpp:77] Creating layer bn2_4_branch2c
I1123 17:47:28.214314  1154 net.cpp:106] Creating Layer bn2_4_branch2c
I1123 17:47:28.214321  1154 net.cpp:454] bn2_4_branch2c <- enet2_4_branch2c
I1123 17:47:28.214336  1154 net.cpp:397] bn2_4_branch2c -> enet2_4_branch2c (in-place)
I1123 17:47:28.214599  1154 net.cpp:150] Setting up bn2_4_branch2c
I1123 17:47:28.214613  1154 net.cpp:157] Top shape: 10 128 41 81 (4250880)
I1123 17:47:28.214619  1154 net.cpp:165] Memory required for data: 2856887600
I1123 17:47:28.214630  1154 layer_factory.hpp:77] Creating layer dropout2_4_branch2c
I1123 17:47:28.214642  1154 net.cpp:106] Creating Layer dropout2_4_branch2c
I1123 17:47:28.214648  1154 net.cpp:454] dropout2_4_branch2c <- enet2_4_branch2c
I1123 17:47:28.214658  1154 net.cpp:397] dropout2_4_branch2c -> enet2_4_branch2c (in-place)
I1123 17:47:28.214696  1154 net.cpp:150] Setting up dropout2_4_branch2c
I1123 17:47:28.214709  1154 net.cpp:157] Top shape: 10 128 41 81 (4250880)
I1123 17:47:28.214715  1154 net.cpp:165] Memory required for data: 2873891120
I1123 17:47:28.214722  1154 layer_factory.hpp:77] Creating layer enet2_4
I1123 17:47:28.214732  1154 net.cpp:106] Creating Layer enet2_4
I1123 17:47:28.214740  1154 net.cpp:454] enet2_4 <- enet2_3_relu2_3_0_split_1
I1123 17:47:28.214748  1154 net.cpp:454] enet2_4 <- enet2_4_branch2c
I1123 17:47:28.214757  1154 net.cpp:411] enet2_4 -> enet2_4
I1123 17:47:28.214792  1154 net.cpp:150] Setting up enet2_4
I1123 17:47:28.214804  1154 net.cpp:157] Top shape: 10 128 41 81 (4250880)
I1123 17:47:28.214812  1154 net.cpp:165] Memory required for data: 2890894640
I1123 17:47:28.214818  1154 layer_factory.hpp:77] Creating layer relu2_4
I1123 17:47:28.214830  1154 net.cpp:106] Creating Layer relu2_4
I1123 17:47:28.214838  1154 net.cpp:454] relu2_4 <- enet2_4
I1123 17:47:28.214849  1154 net.cpp:397] relu2_4 -> enet2_4 (in-place)
I1123 17:47:28.216558  1154 net.cpp:150] Setting up relu2_4
I1123 17:47:28.216576  1154 net.cpp:157] Top shape: 10 128 41 81 (4250880)
I1123 17:47:28.216583  1154 net.cpp:165] Memory required for data: 2907898160
I1123 17:47:28.216593  1154 layer_factory.hpp:77] Creating layer enet2_4_relu2_4_0_split
I1123 17:47:28.216611  1154 net.cpp:106] Creating Layer enet2_4_relu2_4_0_split
I1123 17:47:28.216625  1154 net.cpp:454] enet2_4_relu2_4_0_split <- enet2_4
I1123 17:47:28.216636  1154 net.cpp:411] enet2_4_relu2_4_0_split -> enet2_4_relu2_4_0_split_0
I1123 17:47:28.216648  1154 net.cpp:411] enet2_4_relu2_4_0_split -> enet2_4_relu2_4_0_split_1
I1123 17:47:28.216702  1154 net.cpp:150] Setting up enet2_4_relu2_4_0_split
I1123 17:47:28.216716  1154 net.cpp:157] Top shape: 10 128 41 81 (4250880)
I1123 17:47:28.216723  1154 net.cpp:157] Top shape: 10 128 41 81 (4250880)
I1123 17:47:28.216730  1154 net.cpp:165] Memory required for data: 2941905200
I1123 17:47:28.216737  1154 layer_factory.hpp:77] Creating layer enet2_5_branch2a
I1123 17:47:28.216753  1154 net.cpp:106] Creating Layer enet2_5_branch2a
I1123 17:47:28.216760  1154 net.cpp:454] enet2_5_branch2a <- enet2_4_relu2_4_0_split_0
I1123 17:47:28.216771  1154 net.cpp:411] enet2_5_branch2a -> enet2_5_branch2a
I1123 17:47:28.217120  1154 net.cpp:150] Setting up enet2_5_branch2a
I1123 17:47:28.217134  1154 net.cpp:157] Top shape: 10 32 41 81 (1062720)
I1123 17:47:28.217141  1154 net.cpp:165] Memory required for data: 2946156080
I1123 17:47:28.217150  1154 layer_factory.hpp:77] Creating layer bn2_5_branch2a
I1123 17:47:28.217161  1154 net.cpp:106] Creating Layer bn2_5_branch2a
I1123 17:47:28.217169  1154 net.cpp:454] bn2_5_branch2a <- enet2_5_branch2a
I1123 17:47:28.217181  1154 net.cpp:397] bn2_5_branch2a -> enet2_5_branch2a (in-place)
I1123 17:47:28.217453  1154 net.cpp:150] Setting up bn2_5_branch2a
I1123 17:47:28.217468  1154 net.cpp:157] Top shape: 10 32 41 81 (1062720)
I1123 17:47:28.217474  1154 net.cpp:165] Memory required for data: 2950406960
I1123 17:47:28.217484  1154 layer_factory.hpp:77] Creating layer relu2_5_branch2a
I1123 17:47:28.217494  1154 net.cpp:106] Creating Layer relu2_5_branch2a
I1123 17:47:28.217501  1154 net.cpp:454] relu2_5_branch2a <- enet2_5_branch2a
I1123 17:47:28.217514  1154 net.cpp:397] relu2_5_branch2a -> enet2_5_branch2a (in-place)
I1123 17:47:28.218483  1154 net.cpp:150] Setting up relu2_5_branch2a
I1123 17:47:28.218502  1154 net.cpp:157] Top shape: 10 32 41 81 (1062720)
I1123 17:47:28.218508  1154 net.cpp:165] Memory required for data: 2954657840
I1123 17:47:28.218518  1154 layer_factory.hpp:77] Creating layer enet2_5_branch2b
I1123 17:47:28.218535  1154 net.cpp:106] Creating Layer enet2_5_branch2b
I1123 17:47:28.218544  1154 net.cpp:454] enet2_5_branch2b <- enet2_5_branch2a
I1123 17:47:28.218555  1154 net.cpp:411] enet2_5_branch2b -> enet2_5_branch2b
I1123 17:47:28.219116  1154 net.cpp:150] Setting up enet2_5_branch2b
I1123 17:47:28.219135  1154 net.cpp:157] Top shape: 10 32 41 81 (1062720)
I1123 17:47:28.219141  1154 net.cpp:165] Memory required for data: 2958908720
I1123 17:47:28.219151  1154 layer_factory.hpp:77] Creating layer bn2_5_branch2b
I1123 17:47:28.219164  1154 net.cpp:106] Creating Layer bn2_5_branch2b
I1123 17:47:28.219172  1154 net.cpp:454] bn2_5_branch2b <- enet2_5_branch2b
I1123 17:47:28.219185  1154 net.cpp:397] bn2_5_branch2b -> enet2_5_branch2b (in-place)
I1123 17:47:28.219472  1154 net.cpp:150] Setting up bn2_5_branch2b
I1123 17:47:28.219486  1154 net.cpp:157] Top shape: 10 32 41 81 (1062720)
I1123 17:47:28.219493  1154 net.cpp:165] Memory required for data: 2963159600
I1123 17:47:28.219503  1154 layer_factory.hpp:77] Creating layer relu2_5_branch2b
I1123 17:47:28.219516  1154 net.cpp:106] Creating Layer relu2_5_branch2b
I1123 17:47:28.219523  1154 net.cpp:454] relu2_5_branch2b <- enet2_5_branch2b
I1123 17:47:28.219532  1154 net.cpp:397] relu2_5_branch2b -> enet2_5_branch2b (in-place)
I1123 17:47:28.219738  1154 net.cpp:150] Setting up relu2_5_branch2b
I1123 17:47:28.219753  1154 net.cpp:157] Top shape: 10 32 41 81 (1062720)
I1123 17:47:28.219760  1154 net.cpp:165] Memory required for data: 2967410480
I1123 17:47:28.219769  1154 layer_factory.hpp:77] Creating layer enet2_5_branch2c
I1123 17:47:28.219786  1154 net.cpp:106] Creating Layer enet2_5_branch2c
I1123 17:47:28.219794  1154 net.cpp:454] enet2_5_branch2c <- enet2_5_branch2b
I1123 17:47:28.219813  1154 net.cpp:411] enet2_5_branch2c -> enet2_5_branch2c
I1123 17:47:28.220192  1154 net.cpp:150] Setting up enet2_5_branch2c
I1123 17:47:28.220207  1154 net.cpp:157] Top shape: 10 128 41 81 (4250880)
I1123 17:47:28.220214  1154 net.cpp:165] Memory required for data: 2984414000
I1123 17:47:28.220223  1154 layer_factory.hpp:77] Creating layer bn2_5_branch2c
I1123 17:47:28.220237  1154 net.cpp:106] Creating Layer bn2_5_branch2c
I1123 17:47:28.220245  1154 net.cpp:454] bn2_5_branch2c <- enet2_5_branch2c
I1123 17:47:28.220255  1154 net.cpp:397] bn2_5_branch2c -> enet2_5_branch2c (in-place)
I1123 17:47:28.220523  1154 net.cpp:150] Setting up bn2_5_branch2c
I1123 17:47:28.220537  1154 net.cpp:157] Top shape: 10 128 41 81 (4250880)
I1123 17:47:28.220543  1154 net.cpp:165] Memory required for data: 3001417520
I1123 17:47:28.220554  1154 layer_factory.hpp:77] Creating layer dropout2_5_branch2c
I1123 17:47:28.220568  1154 net.cpp:106] Creating Layer dropout2_5_branch2c
I1123 17:47:28.220576  1154 net.cpp:454] dropout2_5_branch2c <- enet2_5_branch2c
I1123 17:47:28.220585  1154 net.cpp:397] dropout2_5_branch2c -> enet2_5_branch2c (in-place)
I1123 17:47:28.220620  1154 net.cpp:150] Setting up dropout2_5_branch2c
I1123 17:47:28.220633  1154 net.cpp:157] Top shape: 10 128 41 81 (4250880)
I1123 17:47:28.220639  1154 net.cpp:165] Memory required for data: 3018421040
I1123 17:47:28.220645  1154 layer_factory.hpp:77] Creating layer enet2_5
I1123 17:47:28.220654  1154 net.cpp:106] Creating Layer enet2_5
I1123 17:47:28.220661  1154 net.cpp:454] enet2_5 <- enet2_4_relu2_4_0_split_1
I1123 17:47:28.220670  1154 net.cpp:454] enet2_5 <- enet2_5_branch2c
I1123 17:47:28.220682  1154 net.cpp:411] enet2_5 -> enet2_5
I1123 17:47:28.220717  1154 net.cpp:150] Setting up enet2_5
I1123 17:47:28.220733  1154 net.cpp:157] Top shape: 10 128 41 81 (4250880)
I1123 17:47:28.220741  1154 net.cpp:165] Memory required for data: 3035424560
I1123 17:47:28.220746  1154 layer_factory.hpp:77] Creating layer relu2_5
I1123 17:47:28.220755  1154 net.cpp:106] Creating Layer relu2_5
I1123 17:47:28.220762  1154 net.cpp:454] relu2_5 <- enet2_5
I1123 17:47:28.220772  1154 net.cpp:397] relu2_5 -> enet2_5 (in-place)
I1123 17:47:28.222769  1154 net.cpp:150] Setting up relu2_5
I1123 17:47:28.222789  1154 net.cpp:157] Top shape: 10 128 41 81 (4250880)
I1123 17:47:28.222795  1154 net.cpp:165] Memory required for data: 3052428080
I1123 17:47:28.222805  1154 layer_factory.hpp:77] Creating layer enet2_5_relu2_5_0_split
I1123 17:47:28.222816  1154 net.cpp:106] Creating Layer enet2_5_relu2_5_0_split
I1123 17:47:28.222823  1154 net.cpp:454] enet2_5_relu2_5_0_split <- enet2_5
I1123 17:47:28.222836  1154 net.cpp:411] enet2_5_relu2_5_0_split -> enet2_5_relu2_5_0_split_0
I1123 17:47:28.222849  1154 net.cpp:411] enet2_5_relu2_5_0_split -> enet2_5_relu2_5_0_split_1
I1123 17:47:28.222903  1154 net.cpp:150] Setting up enet2_5_relu2_5_0_split
I1123 17:47:28.222916  1154 net.cpp:157] Top shape: 10 128 41 81 (4250880)
I1123 17:47:28.222924  1154 net.cpp:157] Top shape: 10 128 41 81 (4250880)
I1123 17:47:28.222930  1154 net.cpp:165] Memory required for data: 3086435120
I1123 17:47:28.222937  1154 layer_factory.hpp:77] Creating layer enet2_6_branch2a
I1123 17:47:28.222959  1154 net.cpp:106] Creating Layer enet2_6_branch2a
I1123 17:47:28.222967  1154 net.cpp:454] enet2_6_branch2a <- enet2_5_relu2_5_0_split_0
I1123 17:47:28.222978  1154 net.cpp:411] enet2_6_branch2a -> enet2_6_branch2a
I1123 17:47:28.223331  1154 net.cpp:150] Setting up enet2_6_branch2a
I1123 17:47:28.223345  1154 net.cpp:157] Top shape: 10 32 41 81 (1062720)
I1123 17:47:28.223352  1154 net.cpp:165] Memory required for data: 3090686000
I1123 17:47:28.223361  1154 layer_factory.hpp:77] Creating layer bn2_6_branch2a
I1123 17:47:28.223376  1154 net.cpp:106] Creating Layer bn2_6_branch2a
I1123 17:47:28.223384  1154 net.cpp:454] bn2_6_branch2a <- enet2_6_branch2a
I1123 17:47:28.223394  1154 net.cpp:397] bn2_6_branch2a -> enet2_6_branch2a (in-place)
I1123 17:47:28.223680  1154 net.cpp:150] Setting up bn2_6_branch2a
I1123 17:47:28.223708  1154 net.cpp:157] Top shape: 10 32 41 81 (1062720)
I1123 17:47:28.223724  1154 net.cpp:165] Memory required for data: 3094936880
I1123 17:47:28.223736  1154 layer_factory.hpp:77] Creating layer relu2_6_branch2a
I1123 17:47:28.223745  1154 net.cpp:106] Creating Layer relu2_6_branch2a
I1123 17:47:28.223753  1154 net.cpp:454] relu2_6_branch2a <- enet2_6_branch2a
I1123 17:47:28.223762  1154 net.cpp:397] relu2_6_branch2a -> enet2_6_branch2a (in-place)
I1123 17:47:28.224846  1154 net.cpp:150] Setting up relu2_6_branch2a
I1123 17:47:28.224867  1154 net.cpp:157] Top shape: 10 32 41 81 (1062720)
I1123 17:47:28.224874  1154 net.cpp:165] Memory required for data: 3099187760
I1123 17:47:28.224884  1154 layer_factory.hpp:77] Creating layer enet2_6_branch2b
I1123 17:47:28.224901  1154 net.cpp:106] Creating Layer enet2_6_branch2b
I1123 17:47:28.224910  1154 net.cpp:454] enet2_6_branch2b <- enet2_6_branch2a
I1123 17:47:28.224921  1154 net.cpp:411] enet2_6_branch2b -> enet2_6_branch2b
I1123 17:47:28.225724  1154 net.cpp:150] Setting up enet2_6_branch2b
I1123 17:47:28.225742  1154 net.cpp:157] Top shape: 10 32 41 81 (1062720)
I1123 17:47:28.225750  1154 net.cpp:165] Memory required for data: 3103438640
I1123 17:47:28.225760  1154 layer_factory.hpp:77] Creating layer bn2_6_branch2b
I1123 17:47:28.225800  1154 net.cpp:106] Creating Layer bn2_6_branch2b
I1123 17:47:28.225808  1154 net.cpp:454] bn2_6_branch2b <- enet2_6_branch2b
I1123 17:47:28.225822  1154 net.cpp:397] bn2_6_branch2b -> enet2_6_branch2b (in-place)
I1123 17:47:28.226126  1154 net.cpp:150] Setting up bn2_6_branch2b
I1123 17:47:28.226141  1154 net.cpp:157] Top shape: 10 32 41 81 (1062720)
I1123 17:47:28.226148  1154 net.cpp:165] Memory required for data: 3107689520
I1123 17:47:28.226158  1154 layer_factory.hpp:77] Creating layer relu2_6_branch2b
I1123 17:47:28.226168  1154 net.cpp:106] Creating Layer relu2_6_branch2b
I1123 17:47:28.226176  1154 net.cpp:454] relu2_6_branch2b <- enet2_6_branch2b
I1123 17:47:28.226186  1154 net.cpp:397] relu2_6_branch2b -> enet2_6_branch2b (in-place)
I1123 17:47:28.226397  1154 net.cpp:150] Setting up relu2_6_branch2b
I1123 17:47:28.226410  1154 net.cpp:157] Top shape: 10 32 41 81 (1062720)
I1123 17:47:28.226418  1154 net.cpp:165] Memory required for data: 3111940400
I1123 17:47:28.226426  1154 layer_factory.hpp:77] Creating layer enet2_6_branch2c
I1123 17:47:28.226442  1154 net.cpp:106] Creating Layer enet2_6_branch2c
I1123 17:47:28.226450  1154 net.cpp:454] enet2_6_branch2c <- enet2_6_branch2b
I1123 17:47:28.226464  1154 net.cpp:411] enet2_6_branch2c -> enet2_6_branch2c
I1123 17:47:28.226824  1154 net.cpp:150] Setting up enet2_6_branch2c
I1123 17:47:28.226838  1154 net.cpp:157] Top shape: 10 128 41 81 (4250880)
I1123 17:47:28.226845  1154 net.cpp:165] Memory required for data: 3128943920
I1123 17:47:28.226853  1154 layer_factory.hpp:77] Creating layer bn2_6_branch2c
I1123 17:47:28.226866  1154 net.cpp:106] Creating Layer bn2_6_branch2c
I1123 17:47:28.226872  1154 net.cpp:454] bn2_6_branch2c <- enet2_6_branch2c
I1123 17:47:28.226882  1154 net.cpp:397] bn2_6_branch2c -> enet2_6_branch2c (in-place)
I1123 17:47:28.227150  1154 net.cpp:150] Setting up bn2_6_branch2c
I1123 17:47:28.227165  1154 net.cpp:157] Top shape: 10 128 41 81 (4250880)
I1123 17:47:28.227171  1154 net.cpp:165] Memory required for data: 3145947440
I1123 17:47:28.227182  1154 layer_factory.hpp:77] Creating layer dropout2_6_branch2c
I1123 17:47:28.227193  1154 net.cpp:106] Creating Layer dropout2_6_branch2c
I1123 17:47:28.227200  1154 net.cpp:454] dropout2_6_branch2c <- enet2_6_branch2c
I1123 17:47:28.227210  1154 net.cpp:397] dropout2_6_branch2c -> enet2_6_branch2c (in-place)
I1123 17:47:28.227246  1154 net.cpp:150] Setting up dropout2_6_branch2c
I1123 17:47:28.227257  1154 net.cpp:157] Top shape: 10 128 41 81 (4250880)
I1123 17:47:28.227264  1154 net.cpp:165] Memory required for data: 3162950960
I1123 17:47:28.227270  1154 layer_factory.hpp:77] Creating layer enet2_6
I1123 17:47:28.227283  1154 net.cpp:106] Creating Layer enet2_6
I1123 17:47:28.227291  1154 net.cpp:454] enet2_6 <- enet2_5_relu2_5_0_split_1
I1123 17:47:28.227306  1154 net.cpp:454] enet2_6 <- enet2_6_branch2c
I1123 17:47:28.227325  1154 net.cpp:411] enet2_6 -> enet2_6
I1123 17:47:28.227363  1154 net.cpp:150] Setting up enet2_6
I1123 17:47:28.227376  1154 net.cpp:157] Top shape: 10 128 41 81 (4250880)
I1123 17:47:28.227382  1154 net.cpp:165] Memory required for data: 3179954480
I1123 17:47:28.227390  1154 layer_factory.hpp:77] Creating layer relu2_6
I1123 17:47:28.227402  1154 net.cpp:106] Creating Layer relu2_6
I1123 17:47:28.227411  1154 net.cpp:454] relu2_6 <- enet2_6
I1123 17:47:28.227419  1154 net.cpp:397] relu2_6 -> enet2_6 (in-place)
I1123 17:47:28.229130  1154 net.cpp:150] Setting up relu2_6
I1123 17:47:28.229146  1154 net.cpp:157] Top shape: 10 128 41 81 (4250880)
I1123 17:47:28.229153  1154 net.cpp:165] Memory required for data: 3196958000
I1123 17:47:28.229162  1154 layer_factory.hpp:77] Creating layer enet2_6_relu2_6_0_split
I1123 17:47:28.229177  1154 net.cpp:106] Creating Layer enet2_6_relu2_6_0_split
I1123 17:47:28.229184  1154 net.cpp:454] enet2_6_relu2_6_0_split <- enet2_6
I1123 17:47:28.229197  1154 net.cpp:411] enet2_6_relu2_6_0_split -> enet2_6_relu2_6_0_split_0
I1123 17:47:28.229209  1154 net.cpp:411] enet2_6_relu2_6_0_split -> enet2_6_relu2_6_0_split_1
I1123 17:47:28.229262  1154 net.cpp:150] Setting up enet2_6_relu2_6_0_split
I1123 17:47:28.229274  1154 net.cpp:157] Top shape: 10 128 41 81 (4250880)
I1123 17:47:28.229285  1154 net.cpp:157] Top shape: 10 128 41 81 (4250880)
I1123 17:47:28.229292  1154 net.cpp:165] Memory required for data: 3230965040
I1123 17:47:28.229298  1154 layer_factory.hpp:77] Creating layer enet2_7_branch2a
I1123 17:47:28.229311  1154 net.cpp:106] Creating Layer enet2_7_branch2a
I1123 17:47:28.229320  1154 net.cpp:454] enet2_7_branch2a <- enet2_6_relu2_6_0_split_0
I1123 17:47:28.229332  1154 net.cpp:411] enet2_7_branch2a -> enet2_7_branch2a
I1123 17:47:28.229677  1154 net.cpp:150] Setting up enet2_7_branch2a
I1123 17:47:28.229692  1154 net.cpp:157] Top shape: 10 32 41 81 (1062720)
I1123 17:47:28.229699  1154 net.cpp:165] Memory required for data: 3235215920
I1123 17:47:28.229707  1154 layer_factory.hpp:77] Creating layer bn2_7_branch2a
I1123 17:47:28.229719  1154 net.cpp:106] Creating Layer bn2_7_branch2a
I1123 17:47:28.229727  1154 net.cpp:454] bn2_7_branch2a <- enet2_7_branch2a
I1123 17:47:28.229737  1154 net.cpp:397] bn2_7_branch2a -> enet2_7_branch2a (in-place)
I1123 17:47:28.230020  1154 net.cpp:150] Setting up bn2_7_branch2a
I1123 17:47:28.230034  1154 net.cpp:157] Top shape: 10 32 41 81 (1062720)
I1123 17:47:28.230041  1154 net.cpp:165] Memory required for data: 3239466800
I1123 17:47:28.230051  1154 layer_factory.hpp:77] Creating layer relu2_7_branch2a
I1123 17:47:28.230062  1154 net.cpp:106] Creating Layer relu2_7_branch2a
I1123 17:47:28.230068  1154 net.cpp:454] relu2_7_branch2a <- enet2_7_branch2a
I1123 17:47:28.230077  1154 net.cpp:397] relu2_7_branch2a -> enet2_7_branch2a (in-place)
I1123 17:47:28.231063  1154 net.cpp:150] Setting up relu2_7_branch2a
I1123 17:47:28.231081  1154 net.cpp:157] Top shape: 10 32 41 81 (1062720)
I1123 17:47:28.231087  1154 net.cpp:165] Memory required for data: 3243717680
I1123 17:47:28.231096  1154 layer_factory.hpp:77] Creating layer enet2_7_branch2b1
I1123 17:47:28.231113  1154 net.cpp:106] Creating Layer enet2_7_branch2b1
I1123 17:47:28.231122  1154 net.cpp:454] enet2_7_branch2b1 <- enet2_7_branch2a
I1123 17:47:28.231135  1154 net.cpp:411] enet2_7_branch2b1 -> enet2_7_branch2b1
I1123 17:47:28.231521  1154 net.cpp:150] Setting up enet2_7_branch2b1
I1123 17:47:28.231536  1154 net.cpp:157] Top shape: 10 32 41 81 (1062720)
I1123 17:47:28.231542  1154 net.cpp:165] Memory required for data: 3247968560
I1123 17:47:28.231551  1154 layer_factory.hpp:77] Creating layer enet2_7_branch2b
I1123 17:47:28.231564  1154 net.cpp:106] Creating Layer enet2_7_branch2b
I1123 17:47:28.231571  1154 net.cpp:454] enet2_7_branch2b <- enet2_7_branch2b1
I1123 17:47:28.231585  1154 net.cpp:411] enet2_7_branch2b -> enet2_7_branch2b
I1123 17:47:28.232036  1154 net.cpp:150] Setting up enet2_7_branch2b
I1123 17:47:28.232059  1154 net.cpp:157] Top shape: 10 32 41 81 (1062720)
I1123 17:47:28.232072  1154 net.cpp:165] Memory required for data: 3252219440
I1123 17:47:28.232086  1154 layer_factory.hpp:77] Creating layer bn2_7_branch2b
I1123 17:47:28.232103  1154 net.cpp:106] Creating Layer bn2_7_branch2b
I1123 17:47:28.232111  1154 net.cpp:454] bn2_7_branch2b <- enet2_7_branch2b
I1123 17:47:28.232125  1154 net.cpp:397] bn2_7_branch2b -> enet2_7_branch2b (in-place)
I1123 17:47:28.232419  1154 net.cpp:150] Setting up bn2_7_branch2b
I1123 17:47:28.232432  1154 net.cpp:157] Top shape: 10 32 41 81 (1062720)
I1123 17:47:28.232439  1154 net.cpp:165] Memory required for data: 3256470320
I1123 17:47:28.232450  1154 layer_factory.hpp:77] Creating layer relu2_7_branch2b
I1123 17:47:28.232460  1154 net.cpp:106] Creating Layer relu2_7_branch2b
I1123 17:47:28.232466  1154 net.cpp:454] relu2_7_branch2b <- enet2_7_branch2b
I1123 17:47:28.232475  1154 net.cpp:397] relu2_7_branch2b -> enet2_7_branch2b (in-place)
I1123 17:47:28.232683  1154 net.cpp:150] Setting up relu2_7_branch2b
I1123 17:47:28.232697  1154 net.cpp:157] Top shape: 10 32 41 81 (1062720)
I1123 17:47:28.232704  1154 net.cpp:165] Memory required for data: 3260721200
I1123 17:47:28.232713  1154 layer_factory.hpp:77] Creating layer enet2_7_branch2c
I1123 17:47:28.232729  1154 net.cpp:106] Creating Layer enet2_7_branch2c
I1123 17:47:28.232738  1154 net.cpp:454] enet2_7_branch2c <- enet2_7_branch2b
I1123 17:47:28.232751  1154 net.cpp:411] enet2_7_branch2c -> enet2_7_branch2c
I1123 17:47:28.233113  1154 net.cpp:150] Setting up enet2_7_branch2c
I1123 17:47:28.233127  1154 net.cpp:157] Top shape: 10 128 41 81 (4250880)
I1123 17:47:28.233134  1154 net.cpp:165] Memory required for data: 3277724720
I1123 17:47:28.233142  1154 layer_factory.hpp:77] Creating layer bn2_7_branch2c
I1123 17:47:28.233156  1154 net.cpp:106] Creating Layer bn2_7_branch2c
I1123 17:47:28.233165  1154 net.cpp:454] bn2_7_branch2c <- enet2_7_branch2c
I1123 17:47:28.233175  1154 net.cpp:397] bn2_7_branch2c -> enet2_7_branch2c (in-place)
I1123 17:47:28.233458  1154 net.cpp:150] Setting up bn2_7_branch2c
I1123 17:47:28.233472  1154 net.cpp:157] Top shape: 10 128 41 81 (4250880)
I1123 17:47:28.233479  1154 net.cpp:165] Memory required for data: 3294728240
I1123 17:47:28.233489  1154 layer_factory.hpp:77] Creating layer dropout2_7_branch2c
I1123 17:47:28.233500  1154 net.cpp:106] Creating Layer dropout2_7_branch2c
I1123 17:47:28.233507  1154 net.cpp:454] dropout2_7_branch2c <- enet2_7_branch2c
I1123 17:47:28.233517  1154 net.cpp:397] dropout2_7_branch2c -> enet2_7_branch2c (in-place)
I1123 17:47:28.233554  1154 net.cpp:150] Setting up dropout2_7_branch2c
I1123 17:47:28.233566  1154 net.cpp:157] Top shape: 10 128 41 81 (4250880)
I1123 17:47:28.233573  1154 net.cpp:165] Memory required for data: 3311731760
I1123 17:47:28.233580  1154 layer_factory.hpp:77] Creating layer enet2_7
I1123 17:47:28.233593  1154 net.cpp:106] Creating Layer enet2_7
I1123 17:47:28.233602  1154 net.cpp:454] enet2_7 <- enet2_6_relu2_6_0_split_1
I1123 17:47:28.233609  1154 net.cpp:454] enet2_7 <- enet2_7_branch2c
I1123 17:47:28.233619  1154 net.cpp:411] enet2_7 -> enet2_7
I1123 17:47:28.233660  1154 net.cpp:150] Setting up enet2_7
I1123 17:47:28.233674  1154 net.cpp:157] Top shape: 10 128 41 81 (4250880)
I1123 17:47:28.233680  1154 net.cpp:165] Memory required for data: 3328735280
I1123 17:47:28.233686  1154 layer_factory.hpp:77] Creating layer relu2_7
I1123 17:47:28.233698  1154 net.cpp:106] Creating Layer relu2_7
I1123 17:47:28.233706  1154 net.cpp:454] relu2_7 <- enet2_7
I1123 17:47:28.233716  1154 net.cpp:397] relu2_7 -> enet2_7 (in-place)
I1123 17:47:28.235707  1154 net.cpp:150] Setting up relu2_7
I1123 17:47:28.235726  1154 net.cpp:157] Top shape: 10 128 41 81 (4250880)
I1123 17:47:28.235733  1154 net.cpp:165] Memory required for data: 3345738800
I1123 17:47:28.235743  1154 layer_factory.hpp:77] Creating layer enet2_7_relu2_7_0_split
I1123 17:47:28.235756  1154 net.cpp:106] Creating Layer enet2_7_relu2_7_0_split
I1123 17:47:28.235771  1154 net.cpp:454] enet2_7_relu2_7_0_split <- enet2_7
I1123 17:47:28.235790  1154 net.cpp:411] enet2_7_relu2_7_0_split -> enet2_7_relu2_7_0_split_0
I1123 17:47:28.235806  1154 net.cpp:411] enet2_7_relu2_7_0_split -> enet2_7_relu2_7_0_split_1
I1123 17:47:28.235862  1154 net.cpp:150] Setting up enet2_7_relu2_7_0_split
I1123 17:47:28.235875  1154 net.cpp:157] Top shape: 10 128 41 81 (4250880)
I1123 17:47:28.235883  1154 net.cpp:157] Top shape: 10 128 41 81 (4250880)
I1123 17:47:28.235889  1154 net.cpp:165] Memory required for data: 3379745840
I1123 17:47:28.235896  1154 layer_factory.hpp:77] Creating layer enet2_8_branch2a
I1123 17:47:28.235913  1154 net.cpp:106] Creating Layer enet2_8_branch2a
I1123 17:47:28.235920  1154 net.cpp:454] enet2_8_branch2a <- enet2_7_relu2_7_0_split_0
I1123 17:47:28.235934  1154 net.cpp:411] enet2_8_branch2a -> enet2_8_branch2a
I1123 17:47:28.237159  1154 net.cpp:150] Setting up enet2_8_branch2a
I1123 17:47:28.237179  1154 net.cpp:157] Top shape: 10 32 41 81 (1062720)
I1123 17:47:28.237185  1154 net.cpp:165] Memory required for data: 3383996720
I1123 17:47:28.237195  1154 layer_factory.hpp:77] Creating layer bn2_8_branch2a
I1123 17:47:28.237208  1154 net.cpp:106] Creating Layer bn2_8_branch2a
I1123 17:47:28.237216  1154 net.cpp:454] bn2_8_branch2a <- enet2_8_branch2a
I1123 17:47:28.237229  1154 net.cpp:397] bn2_8_branch2a -> enet2_8_branch2a (in-place)
I1123 17:47:28.237771  1154 net.cpp:150] Setting up bn2_8_branch2a
I1123 17:47:28.237787  1154 net.cpp:157] Top shape: 10 32 41 81 (1062720)
I1123 17:47:28.237793  1154 net.cpp:165] Memory required for data: 3388247600
I1123 17:47:28.237804  1154 layer_factory.hpp:77] Creating layer relu2_8_branch2a
I1123 17:47:28.237818  1154 net.cpp:106] Creating Layer relu2_8_branch2a
I1123 17:47:28.237826  1154 net.cpp:454] relu2_8_branch2a <- enet2_8_branch2a
I1123 17:47:28.237835  1154 net.cpp:397] relu2_8_branch2a -> enet2_8_branch2a (in-place)
I1123 17:47:28.238775  1154 net.cpp:150] Setting up relu2_8_branch2a
I1123 17:47:28.238791  1154 net.cpp:157] Top shape: 10 32 41 81 (1062720)
I1123 17:47:28.238798  1154 net.cpp:165] Memory required for data: 3392498480
I1123 17:47:28.238807  1154 layer_factory.hpp:77] Creating layer enet2_8_branch2b
I1123 17:47:28.238824  1154 net.cpp:106] Creating Layer enet2_8_branch2b
I1123 17:47:28.238832  1154 net.cpp:454] enet2_8_branch2b <- enet2_8_branch2a
I1123 17:47:28.238843  1154 net.cpp:411] enet2_8_branch2b -> enet2_8_branch2b
I1123 17:47:28.239394  1154 net.cpp:150] Setting up enet2_8_branch2b
I1123 17:47:28.239409  1154 net.cpp:157] Top shape: 10 32 41 81 (1062720)
I1123 17:47:28.239415  1154 net.cpp:165] Memory required for data: 3396749360
I1123 17:47:28.239426  1154 layer_factory.hpp:77] Creating layer bn2_8_branch2b
I1123 17:47:28.239439  1154 net.cpp:106] Creating Layer bn2_8_branch2b
I1123 17:47:28.239445  1154 net.cpp:454] bn2_8_branch2b <- enet2_8_branch2b
I1123 17:47:28.239460  1154 net.cpp:397] bn2_8_branch2b -> enet2_8_branch2b (in-place)
I1123 17:47:28.239748  1154 net.cpp:150] Setting up bn2_8_branch2b
I1123 17:47:28.239763  1154 net.cpp:157] Top shape: 10 32 41 81 (1062720)
I1123 17:47:28.239768  1154 net.cpp:165] Memory required for data: 3401000240
I1123 17:47:28.239778  1154 layer_factory.hpp:77] Creating layer relu2_8_branch2b
I1123 17:47:28.239791  1154 net.cpp:106] Creating Layer relu2_8_branch2b
I1123 17:47:28.239799  1154 net.cpp:454] relu2_8_branch2b <- enet2_8_branch2b
I1123 17:47:28.239809  1154 net.cpp:397] relu2_8_branch2b -> enet2_8_branch2b (in-place)
I1123 17:47:28.240022  1154 net.cpp:150] Setting up relu2_8_branch2b
I1123 17:47:28.240037  1154 net.cpp:157] Top shape: 10 32 41 81 (1062720)
I1123 17:47:28.240043  1154 net.cpp:165] Memory required for data: 3405251120
I1123 17:47:28.240052  1154 layer_factory.hpp:77] Creating layer enet2_8_branch2c
I1123 17:47:28.240068  1154 net.cpp:106] Creating Layer enet2_8_branch2c
I1123 17:47:28.240077  1154 net.cpp:454] enet2_8_branch2c <- enet2_8_branch2b
I1123 17:47:28.240088  1154 net.cpp:411] enet2_8_branch2c -> enet2_8_branch2c
I1123 17:47:28.243744  1154 net.cpp:150] Setting up enet2_8_branch2c
I1123 17:47:28.243772  1154 net.cpp:157] Top shape: 10 128 41 81 (4250880)
I1123 17:47:28.243779  1154 net.cpp:165] Memory required for data: 3422254640
I1123 17:47:28.243789  1154 layer_factory.hpp:77] Creating layer bn2_8_branch2c
I1123 17:47:28.243803  1154 net.cpp:106] Creating Layer bn2_8_branch2c
I1123 17:47:28.243811  1154 net.cpp:454] bn2_8_branch2c <- enet2_8_branch2c
I1123 17:47:28.243823  1154 net.cpp:397] bn2_8_branch2c -> enet2_8_branch2c (in-place)
I1123 17:47:28.244103  1154 net.cpp:150] Setting up bn2_8_branch2c
I1123 17:47:28.244118  1154 net.cpp:157] Top shape: 10 128 41 81 (4250880)
I1123 17:47:28.244124  1154 net.cpp:165] Memory required for data: 3439258160
I1123 17:47:28.244135  1154 layer_factory.hpp:77] Creating layer dropout2_8_branch2c
I1123 17:47:28.244149  1154 net.cpp:106] Creating Layer dropout2_8_branch2c
I1123 17:47:28.244156  1154 net.cpp:454] dropout2_8_branch2c <- enet2_8_branch2c
I1123 17:47:28.244166  1154 net.cpp:397] dropout2_8_branch2c -> enet2_8_branch2c (in-place)
I1123 17:47:28.244204  1154 net.cpp:150] Setting up dropout2_8_branch2c
I1123 17:47:28.244216  1154 net.cpp:157] Top shape: 10 128 41 81 (4250880)
I1123 17:47:28.244223  1154 net.cpp:165] Memory required for data: 3456261680
I1123 17:47:28.244230  1154 layer_factory.hpp:77] Creating layer enet2_8
I1123 17:47:28.244240  1154 net.cpp:106] Creating Layer enet2_8
I1123 17:47:28.244247  1154 net.cpp:454] enet2_8 <- enet2_7_relu2_7_0_split_1
I1123 17:47:28.244256  1154 net.cpp:454] enet2_8 <- enet2_8_branch2c
I1123 17:47:28.244268  1154 net.cpp:411] enet2_8 -> enet2_8
I1123 17:47:28.244307  1154 net.cpp:150] Setting up enet2_8
I1123 17:47:28.244323  1154 net.cpp:157] Top shape: 10 128 41 81 (4250880)
I1123 17:47:28.244330  1154 net.cpp:165] Memory required for data: 3473265200
I1123 17:47:28.244338  1154 layer_factory.hpp:77] Creating layer relu2_8
I1123 17:47:28.244346  1154 net.cpp:106] Creating Layer relu2_8
I1123 17:47:28.244354  1154 net.cpp:454] relu2_8 <- enet2_8
I1123 17:47:28.244362  1154 net.cpp:397] relu2_8 -> enet2_8 (in-place)
I1123 17:47:28.246096  1154 net.cpp:150] Setting up relu2_8
I1123 17:47:28.246114  1154 net.cpp:157] Top shape: 10 128 41 81 (4250880)
I1123 17:47:28.246120  1154 net.cpp:165] Memory required for data: 3490268720
I1123 17:47:28.246129  1154 layer_factory.hpp:77] Creating layer enet2_8_relu2_8_0_split
I1123 17:47:28.246140  1154 net.cpp:106] Creating Layer enet2_8_relu2_8_0_split
I1123 17:47:28.246147  1154 net.cpp:454] enet2_8_relu2_8_0_split <- enet2_8
I1123 17:47:28.246160  1154 net.cpp:411] enet2_8_relu2_8_0_split -> enet2_8_relu2_8_0_split_0
I1123 17:47:28.246172  1154 net.cpp:411] enet2_8_relu2_8_0_split -> enet2_8_relu2_8_0_split_1
I1123 17:47:28.246227  1154 net.cpp:150] Setting up enet2_8_relu2_8_0_split
I1123 17:47:28.246239  1154 net.cpp:157] Top shape: 10 128 41 81 (4250880)
I1123 17:47:28.246248  1154 net.cpp:157] Top shape: 10 128 41 81 (4250880)
I1123 17:47:28.246254  1154 net.cpp:165] Memory required for data: 3524275760
I1123 17:47:28.246260  1154 layer_factory.hpp:77] Creating layer enet3_1_branch2a
I1123 17:47:28.246278  1154 net.cpp:106] Creating Layer enet3_1_branch2a
I1123 17:47:28.246285  1154 net.cpp:454] enet3_1_branch2a <- enet2_8_relu2_8_0_split_0
I1123 17:47:28.246296  1154 net.cpp:411] enet3_1_branch2a -> enet3_1_branch2a
I1123 17:47:28.246647  1154 net.cpp:150] Setting up enet3_1_branch2a
I1123 17:47:28.246661  1154 net.cpp:157] Top shape: 10 32 41 81 (1062720)
I1123 17:47:28.246668  1154 net.cpp:165] Memory required for data: 3528526640
I1123 17:47:28.246677  1154 layer_factory.hpp:77] Creating layer bn3_1_branch2a
I1123 17:47:28.246691  1154 net.cpp:106] Creating Layer bn3_1_branch2a
I1123 17:47:28.246698  1154 net.cpp:454] bn3_1_branch2a <- enet3_1_branch2a
I1123 17:47:28.246709  1154 net.cpp:397] bn3_1_branch2a -> enet3_1_branch2a (in-place)
I1123 17:47:28.246999  1154 net.cpp:150] Setting up bn3_1_branch2a
I1123 17:47:28.247014  1154 net.cpp:157] Top shape: 10 32 41 81 (1062720)
I1123 17:47:28.247026  1154 net.cpp:165] Memory required for data: 3532777520
I1123 17:47:28.247043  1154 layer_factory.hpp:77] Creating layer relu3_1_branch2a
I1123 17:47:28.247054  1154 net.cpp:106] Creating Layer relu3_1_branch2a
I1123 17:47:28.247061  1154 net.cpp:454] relu3_1_branch2a <- enet3_1_branch2a
I1123 17:47:28.247071  1154 net.cpp:397] relu3_1_branch2a -> enet3_1_branch2a (in-place)
I1123 17:47:28.248045  1154 net.cpp:150] Setting up relu3_1_branch2a
I1123 17:47:28.248064  1154 net.cpp:157] Top shape: 10 32 41 81 (1062720)
I1123 17:47:28.248070  1154 net.cpp:165] Memory required for data: 3537028400
I1123 17:47:28.248080  1154 layer_factory.hpp:77] Creating layer enet3_1_branch2b
I1123 17:47:28.248096  1154 net.cpp:106] Creating Layer enet3_1_branch2b
I1123 17:47:28.248105  1154 net.cpp:454] enet3_1_branch2b <- enet3_1_branch2a
I1123 17:47:28.248116  1154 net.cpp:411] enet3_1_branch2b -> enet3_1_branch2b
I1123 17:47:28.248673  1154 net.cpp:150] Setting up enet3_1_branch2b
I1123 17:47:28.248688  1154 net.cpp:157] Top shape: 10 32 41 81 (1062720)
I1123 17:47:28.248695  1154 net.cpp:165] Memory required for data: 3541279280
I1123 17:47:28.248705  1154 layer_factory.hpp:77] Creating layer bn3_1_branch2b
I1123 17:47:28.248719  1154 net.cpp:106] Creating Layer bn3_1_branch2b
I1123 17:47:28.248728  1154 net.cpp:454] bn3_1_branch2b <- enet3_1_branch2b
I1123 17:47:28.248739  1154 net.cpp:397] bn3_1_branch2b -> enet3_1_branch2b (in-place)
I1123 17:47:28.249034  1154 net.cpp:150] Setting up bn3_1_branch2b
I1123 17:47:28.249049  1154 net.cpp:157] Top shape: 10 32 41 81 (1062720)
I1123 17:47:28.249056  1154 net.cpp:165] Memory required for data: 3545530160
I1123 17:47:28.249066  1154 layer_factory.hpp:77] Creating layer relu3_1_branch2b
I1123 17:47:28.249078  1154 net.cpp:106] Creating Layer relu3_1_branch2b
I1123 17:47:28.249084  1154 net.cpp:454] relu3_1_branch2b <- enet3_1_branch2b
I1123 17:47:28.249094  1154 net.cpp:397] relu3_1_branch2b -> enet3_1_branch2b (in-place)
I1123 17:47:28.249301  1154 net.cpp:150] Setting up relu3_1_branch2b
I1123 17:47:28.249316  1154 net.cpp:157] Top shape: 10 32 41 81 (1062720)
I1123 17:47:28.249323  1154 net.cpp:165] Memory required for data: 3549781040
I1123 17:47:28.249331  1154 layer_factory.hpp:77] Creating layer enet3_1_branch2c
I1123 17:47:28.249347  1154 net.cpp:106] Creating Layer enet3_1_branch2c
I1123 17:47:28.249356  1154 net.cpp:454] enet3_1_branch2c <- enet3_1_branch2b
I1123 17:47:28.249368  1154 net.cpp:411] enet3_1_branch2c -> enet3_1_branch2c
I1123 17:47:28.249744  1154 net.cpp:150] Setting up enet3_1_branch2c
I1123 17:47:28.249759  1154 net.cpp:157] Top shape: 10 128 41 81 (4250880)
I1123 17:47:28.249766  1154 net.cpp:165] Memory required for data: 3566784560
I1123 17:47:28.249774  1154 layer_factory.hpp:77] Creating layer bn3_1_branch2c
I1123 17:47:28.249786  1154 net.cpp:106] Creating Layer bn3_1_branch2c
I1123 17:47:28.249794  1154 net.cpp:454] bn3_1_branch2c <- enet3_1_branch2c
I1123 17:47:28.249804  1154 net.cpp:397] bn3_1_branch2c -> enet3_1_branch2c (in-place)
I1123 17:47:28.250080  1154 net.cpp:150] Setting up bn3_1_branch2c
I1123 17:47:28.250095  1154 net.cpp:157] Top shape: 10 128 41 81 (4250880)
I1123 17:47:28.250102  1154 net.cpp:165] Memory required for data: 3583788080
I1123 17:47:28.250111  1154 layer_factory.hpp:77] Creating layer dropout3_1_branch2c
I1123 17:47:28.250123  1154 net.cpp:106] Creating Layer dropout3_1_branch2c
I1123 17:47:28.250129  1154 net.cpp:454] dropout3_1_branch2c <- enet3_1_branch2c
I1123 17:47:28.250138  1154 net.cpp:397] dropout3_1_branch2c -> enet3_1_branch2c (in-place)
I1123 17:47:28.250175  1154 net.cpp:150] Setting up dropout3_1_branch2c
I1123 17:47:28.250187  1154 net.cpp:157] Top shape: 10 128 41 81 (4250880)
I1123 17:47:28.250195  1154 net.cpp:165] Memory required for data: 3600791600
I1123 17:47:28.250200  1154 layer_factory.hpp:77] Creating layer enet3_1
I1123 17:47:28.250213  1154 net.cpp:106] Creating Layer enet3_1
I1123 17:47:28.250221  1154 net.cpp:454] enet3_1 <- enet2_8_relu2_8_0_split_1
I1123 17:47:28.250231  1154 net.cpp:454] enet3_1 <- enet3_1_branch2c
I1123 17:47:28.250258  1154 net.cpp:411] enet3_1 -> enet3_1
I1123 17:47:28.250296  1154 net.cpp:150] Setting up enet3_1
I1123 17:47:28.250309  1154 net.cpp:157] Top shape: 10 128 41 81 (4250880)
I1123 17:47:28.250316  1154 net.cpp:165] Memory required for data: 3617795120
I1123 17:47:28.250324  1154 layer_factory.hpp:77] Creating layer relu3_1
I1123 17:47:28.250335  1154 net.cpp:106] Creating Layer relu3_1
I1123 17:47:28.250342  1154 net.cpp:454] relu3_1 <- enet3_1
I1123 17:47:28.250352  1154 net.cpp:397] relu3_1 -> enet3_1 (in-place)
I1123 17:47:28.252238  1154 net.cpp:150] Setting up relu3_1
I1123 17:47:28.252255  1154 net.cpp:157] Top shape: 10 128 41 81 (4250880)
I1123 17:47:28.252262  1154 net.cpp:165] Memory required for data: 3634798640
I1123 17:47:28.252271  1154 layer_factory.hpp:77] Creating layer enet3_1_relu3_1_0_split
I1123 17:47:28.252282  1154 net.cpp:106] Creating Layer enet3_1_relu3_1_0_split
I1123 17:47:28.252290  1154 net.cpp:454] enet3_1_relu3_1_0_split <- enet3_1
I1123 17:47:28.252303  1154 net.cpp:411] enet3_1_relu3_1_0_split -> enet3_1_relu3_1_0_split_0
I1123 17:47:28.252315  1154 net.cpp:411] enet3_1_relu3_1_0_split -> enet3_1_relu3_1_0_split_1
I1123 17:47:28.252372  1154 net.cpp:150] Setting up enet3_1_relu3_1_0_split
I1123 17:47:28.252388  1154 net.cpp:157] Top shape: 10 128 41 81 (4250880)
I1123 17:47:28.252396  1154 net.cpp:157] Top shape: 10 128 41 81 (4250880)
I1123 17:47:28.252403  1154 net.cpp:165] Memory required for data: 3668805680
I1123 17:47:28.252409  1154 layer_factory.hpp:77] Creating layer enet3_2_branch2a
I1123 17:47:28.252423  1154 net.cpp:106] Creating Layer enet3_2_branch2a
I1123 17:47:28.252429  1154 net.cpp:454] enet3_2_branch2a <- enet3_1_relu3_1_0_split_0
I1123 17:47:28.252444  1154 net.cpp:411] enet3_2_branch2a -> enet3_2_branch2a
I1123 17:47:28.252789  1154 net.cpp:150] Setting up enet3_2_branch2a
I1123 17:47:28.252805  1154 net.cpp:157] Top shape: 10 32 41 81 (1062720)
I1123 17:47:28.252811  1154 net.cpp:165] Memory required for data: 3673056560
I1123 17:47:28.252820  1154 layer_factory.hpp:77] Creating layer bn3_2_branch2a
I1123 17:47:28.252832  1154 net.cpp:106] Creating Layer bn3_2_branch2a
I1123 17:47:28.252840  1154 net.cpp:454] bn3_2_branch2a <- enet3_2_branch2a
I1123 17:47:28.252849  1154 net.cpp:397] bn3_2_branch2a -> enet3_2_branch2a (in-place)
I1123 17:47:28.253144  1154 net.cpp:150] Setting up bn3_2_branch2a
I1123 17:47:28.253157  1154 net.cpp:157] Top shape: 10 32 41 81 (1062720)
I1123 17:47:28.253165  1154 net.cpp:165] Memory required for data: 3677307440
I1123 17:47:28.253175  1154 layer_factory.hpp:77] Creating layer relu3_2_branch2a
I1123 17:47:28.253185  1154 net.cpp:106] Creating Layer relu3_2_branch2a
I1123 17:47:28.253192  1154 net.cpp:454] relu3_2_branch2a <- enet3_2_branch2a
I1123 17:47:28.253204  1154 net.cpp:397] relu3_2_branch2a -> enet3_2_branch2a (in-place)
I1123 17:47:28.254329  1154 net.cpp:150] Setting up relu3_2_branch2a
I1123 17:47:28.254346  1154 net.cpp:157] Top shape: 10 32 41 81 (1062720)
I1123 17:47:28.254353  1154 net.cpp:165] Memory required for data: 3681558320
I1123 17:47:28.254362  1154 layer_factory.hpp:77] Creating layer enet3_2_branch2b
I1123 17:47:28.254380  1154 net.cpp:106] Creating Layer enet3_2_branch2b
I1123 17:47:28.254389  1154 net.cpp:454] enet3_2_branch2b <- enet3_2_branch2a
I1123 17:47:28.254400  1154 net.cpp:411] enet3_2_branch2b -> enet3_2_branch2b
I1123 17:47:28.254961  1154 net.cpp:150] Setting up enet3_2_branch2b
I1123 17:47:28.254974  1154 net.cpp:157] Top shape: 10 32 41 81 (1062720)
I1123 17:47:28.254981  1154 net.cpp:165] Memory required for data: 3685809200
I1123 17:47:28.254992  1154 layer_factory.hpp:77] Creating layer bn3_2_branch2b
I1123 17:47:28.255007  1154 net.cpp:106] Creating Layer bn3_2_branch2b
I1123 17:47:28.255014  1154 net.cpp:454] bn3_2_branch2b <- enet3_2_branch2b
I1123 17:47:28.255024  1154 net.cpp:397] bn3_2_branch2b -> enet3_2_branch2b (in-place)
I1123 17:47:28.255321  1154 net.cpp:150] Setting up bn3_2_branch2b
I1123 17:47:28.255336  1154 net.cpp:157] Top shape: 10 32 41 81 (1062720)
I1123 17:47:28.255360  1154 net.cpp:165] Memory required for data: 3690060080
I1123 17:47:28.255372  1154 layer_factory.hpp:77] Creating layer relu3_2_branch2b
I1123 17:47:28.255383  1154 net.cpp:106] Creating Layer relu3_2_branch2b
I1123 17:47:28.255389  1154 net.cpp:454] relu3_2_branch2b <- enet3_2_branch2b
I1123 17:47:28.255401  1154 net.cpp:397] relu3_2_branch2b -> enet3_2_branch2b (in-place)
I1123 17:47:28.255620  1154 net.cpp:150] Setting up relu3_2_branch2b
I1123 17:47:28.255635  1154 net.cpp:157] Top shape: 10 32 41 81 (1062720)
I1123 17:47:28.255641  1154 net.cpp:165] Memory required for data: 3694310960
I1123 17:47:28.255650  1154 layer_factory.hpp:77] Creating layer enet3_2_branch2c
I1123 17:47:28.255666  1154 net.cpp:106] Creating Layer enet3_2_branch2c
I1123 17:47:28.255673  1154 net.cpp:454] enet3_2_branch2c <- enet3_2_branch2b
I1123 17:47:28.255687  1154 net.cpp:411] enet3_2_branch2c -> enet3_2_branch2c
I1123 17:47:28.256049  1154 net.cpp:150] Setting up enet3_2_branch2c
I1123 17:47:28.256064  1154 net.cpp:157] Top shape: 10 128 41 81 (4250880)
I1123 17:47:28.256070  1154 net.cpp:165] Memory required for data: 3711314480
I1123 17:47:28.256079  1154 layer_factory.hpp:77] Creating layer bn3_2_branch2c
I1123 17:47:28.256090  1154 net.cpp:106] Creating Layer bn3_2_branch2c
I1123 17:47:28.256098  1154 net.cpp:454] bn3_2_branch2c <- enet3_2_branch2c
I1123 17:47:28.256114  1154 net.cpp:397] bn3_2_branch2c -> enet3_2_branch2c (in-place)
I1123 17:47:28.256393  1154 net.cpp:150] Setting up bn3_2_branch2c
I1123 17:47:28.256408  1154 net.cpp:157] Top shape: 10 128 41 81 (4250880)
I1123 17:47:28.256414  1154 net.cpp:165] Memory required for data: 3728318000
I1123 17:47:28.256424  1154 layer_factory.hpp:77] Creating layer dropout3_2_branch2c
I1123 17:47:28.256435  1154 net.cpp:106] Creating Layer dropout3_2_branch2c
I1123 17:47:28.256443  1154 net.cpp:454] dropout3_2_branch2c <- enet3_2_branch2c
I1123 17:47:28.256454  1154 net.cpp:397] dropout3_2_branch2c -> enet3_2_branch2c (in-place)
I1123 17:47:28.256494  1154 net.cpp:150] Setting up dropout3_2_branch2c
I1123 17:47:28.256505  1154 net.cpp:157] Top shape: 10 128 41 81 (4250880)
I1123 17:47:28.256512  1154 net.cpp:165] Memory required for data: 3745321520
I1123 17:47:28.256518  1154 layer_factory.hpp:77] Creating layer enet3_2
I1123 17:47:28.256528  1154 net.cpp:106] Creating Layer enet3_2
I1123 17:47:28.256536  1154 net.cpp:454] enet3_2 <- enet3_1_relu3_1_0_split_1
I1123 17:47:28.256544  1154 net.cpp:454] enet3_2 <- enet3_2_branch2c
I1123 17:47:28.256553  1154 net.cpp:411] enet3_2 -> enet3_2
I1123 17:47:28.256593  1154 net.cpp:150] Setting up enet3_2
I1123 17:47:28.256605  1154 net.cpp:157] Top shape: 10 128 41 81 (4250880)
I1123 17:47:28.256613  1154 net.cpp:165] Memory required for data: 3762325040
I1123 17:47:28.256618  1154 layer_factory.hpp:77] Creating layer relu3_2
I1123 17:47:28.256630  1154 net.cpp:106] Creating Layer relu3_2
I1123 17:47:28.256638  1154 net.cpp:454] relu3_2 <- enet3_2
I1123 17:47:28.256646  1154 net.cpp:397] relu3_2 -> enet3_2 (in-place)
I1123 17:47:28.258656  1154 net.cpp:150] Setting up relu3_2
I1123 17:47:28.258674  1154 net.cpp:157] Top shape: 10 128 41 81 (4250880)
I1123 17:47:28.258682  1154 net.cpp:165] Memory required for data: 3779328560
I1123 17:47:28.258692  1154 layer_factory.hpp:77] Creating layer enet3_2_relu3_2_0_split
I1123 17:47:28.258702  1154 net.cpp:106] Creating Layer enet3_2_relu3_2_0_split
I1123 17:47:28.258709  1154 net.cpp:454] enet3_2_relu3_2_0_split <- enet3_2
I1123 17:47:28.258719  1154 net.cpp:411] enet3_2_relu3_2_0_split -> enet3_2_relu3_2_0_split_0
I1123 17:47:28.258731  1154 net.cpp:411] enet3_2_relu3_2_0_split -> enet3_2_relu3_2_0_split_1
I1123 17:47:28.258790  1154 net.cpp:150] Setting up enet3_2_relu3_2_0_split
I1123 17:47:28.258801  1154 net.cpp:157] Top shape: 10 128 41 81 (4250880)
I1123 17:47:28.258810  1154 net.cpp:157] Top shape: 10 128 41 81 (4250880)
I1123 17:47:28.258816  1154 net.cpp:165] Memory required for data: 3813335600
I1123 17:47:28.258823  1154 layer_factory.hpp:77] Creating layer enet3_3_branch2a
I1123 17:47:28.258853  1154 net.cpp:106] Creating Layer enet3_3_branch2a
I1123 17:47:28.258862  1154 net.cpp:454] enet3_3_branch2a <- enet3_2_relu3_2_0_split_0
I1123 17:47:28.258873  1154 net.cpp:411] enet3_3_branch2a -> enet3_3_branch2a
I1123 17:47:28.259251  1154 net.cpp:150] Setting up enet3_3_branch2a
I1123 17:47:28.259266  1154 net.cpp:157] Top shape: 10 32 41 81 (1062720)
I1123 17:47:28.259273  1154 net.cpp:165] Memory required for data: 3817586480
I1123 17:47:28.259281  1154 layer_factory.hpp:77] Creating layer bn3_3_branch2a
I1123 17:47:28.259294  1154 net.cpp:106] Creating Layer bn3_3_branch2a
I1123 17:47:28.259300  1154 net.cpp:454] bn3_3_branch2a <- enet3_3_branch2a
I1123 17:47:28.259312  1154 net.cpp:397] bn3_3_branch2a -> enet3_3_branch2a (in-place)
I1123 17:47:28.259604  1154 net.cpp:150] Setting up bn3_3_branch2a
I1123 17:47:28.259619  1154 net.cpp:157] Top shape: 10 32 41 81 (1062720)
I1123 17:47:28.259625  1154 net.cpp:165] Memory required for data: 3821837360
I1123 17:47:28.259636  1154 layer_factory.hpp:77] Creating layer relu3_3_branch2a
I1123 17:47:28.259649  1154 net.cpp:106] Creating Layer relu3_3_branch2a
I1123 17:47:28.259656  1154 net.cpp:454] relu3_3_branch2a <- enet3_3_branch2a
I1123 17:47:28.259666  1154 net.cpp:397] relu3_3_branch2a -> enet3_3_branch2a (in-place)
I1123 17:47:28.260581  1154 net.cpp:150] Setting up relu3_3_branch2a
I1123 17:47:28.260597  1154 net.cpp:157] Top shape: 10 32 41 81 (1062720)
I1123 17:47:28.260604  1154 net.cpp:165] Memory required for data: 3826088240
I1123 17:47:28.260613  1154 layer_factory.hpp:77] Creating layer enet3_3_branch2b1
I1123 17:47:28.260630  1154 net.cpp:106] Creating Layer enet3_3_branch2b1
I1123 17:47:28.260638  1154 net.cpp:454] enet3_3_branch2b1 <- enet3_3_branch2a
I1123 17:47:28.260651  1154 net.cpp:411] enet3_3_branch2b1 -> enet3_3_branch2b1
I1123 17:47:28.261044  1154 net.cpp:150] Setting up enet3_3_branch2b1
I1123 17:47:28.261059  1154 net.cpp:157] Top shape: 10 32 41 81 (1062720)
I1123 17:47:28.261066  1154 net.cpp:165] Memory required for data: 3830339120
I1123 17:47:28.261075  1154 layer_factory.hpp:77] Creating layer enet3_3_branch2b
I1123 17:47:28.261090  1154 net.cpp:106] Creating Layer enet3_3_branch2b
I1123 17:47:28.261099  1154 net.cpp:454] enet3_3_branch2b <- enet3_3_branch2b1
I1123 17:47:28.261111  1154 net.cpp:411] enet3_3_branch2b -> enet3_3_branch2b
I1123 17:47:28.261564  1154 net.cpp:150] Setting up enet3_3_branch2b
I1123 17:47:28.261579  1154 net.cpp:157] Top shape: 10 32 41 81 (1062720)
I1123 17:47:28.261584  1154 net.cpp:165] Memory required for data: 3834590000
I1123 17:47:28.261595  1154 layer_factory.hpp:77] Creating layer bn3_3_branch2b
I1123 17:47:28.261610  1154 net.cpp:106] Creating Layer bn3_3_branch2b
I1123 17:47:28.261617  1154 net.cpp:454] bn3_3_branch2b <- enet3_3_branch2b
I1123 17:47:28.261627  1154 net.cpp:397] bn3_3_branch2b -> enet3_3_branch2b (in-place)
I1123 17:47:28.261924  1154 net.cpp:150] Setting up bn3_3_branch2b
I1123 17:47:28.261936  1154 net.cpp:157] Top shape: 10 32 41 81 (1062720)
…
I1123 17:47:28.284422  1154 net.cpp:411] enet3_6_relu3_6_0_split -> enet3_6_relu3_6_0_split_1
I1123 17:47:28.284471  1154 net.cpp:150] Setting up enet3_6_relu3_6_0_split
I1123 17:47:28.284483  1154 net.cpp:157] Top shape: 10 128 41 81 (4250880)
I1123 17:47:28.284492  1154 net.cpp:157] Top shape: 10 128 41 81 (4250880)
I1123 17:47:28.284497  1154 net.cpp:165] Memory required for data: 4395706160
I1123 17:47:28.284504  1154 layer_factory.hpp:77] Creating layer enet3_7_branch2a
I1123 17:47:28.284517  1154 net.cpp:106] Creating Layer enet3_7_branch2a
I1123 17:47:28.284524  1154 net.cpp:454] enet3_7_branch2a <- enet3_6_relu3_6_0_split_0
I1123 17:47:28.284535  1154 net.cpp:411] enet3_7_branch2a -> enet3_7_branch2a
I1123 17:47:28.284852  1154 net.cpp:150] Setting up enet3_7_branch2a
I1123 17:47:28.284868  1154 net.cpp:157] Top shape: 10 32 41 81 (1062720)
I1123 17:47:28.284873  1154 net.cpp:165] Memory required for data: 4399957040
I1123 17:47:28.284883  1154 layer_factory.hpp:77] Creating layer bn3_7_branch2a
I1123 17:47:28.284896  1154 net.cpp:106] Creating Layer bn3_7_branch2a
I1123 17:47:28.284904  1154 net.cpp:454] bn3_7_branch2a <- enet3_7_branch2a
I1123 17:47:28.284914  1154 net.cpp:397] bn3_7_branch2a -> enet3_7_branch2a (in-place)
I1123 17:47:28.285171  1154 net.cpp:150] Setting up bn3_7_branch2a
I1123 17:47:28.285185  1154 net.cpp:157] Top shape: 10 32 41 81 (1062720)
I1123 17:47:28.285192  1154 net.cpp:165] Memory required for data: 4404207920
I1123 17:47:28.285202  1154 layer_factory.hpp:77] Creating layer relu3_7_branch2a
I1123 17:47:28.285212  1154 net.cpp:106] Creating Layer relu3_7_branch2a
I1123 17:47:28.285219  1154 net.cpp:454] relu3_7_branch2a <- enet3_7_branch2a
I1123 17:47:28.285228  1154 net.cpp:397] relu3_7_branch2a -> enet3_7_branch2a (in-place)
I1123 17:47:28.286169  1154 net.cpp:150] Setting up relu3_7_branch2a
I1123 17:47:28.286185  1154 net.cpp:157] Top shape: 10 32 41 81 (1062720)
I1123 17:47:28.286191  1154 net.cpp:165] Memory required for data: 4408458800
I1123 17:47:28.286201  1154 layer_factory.hpp:77] Creating layer enet3_7_branch2b1
I1123 17:47:28.286223  1154 net.cpp:106] Creating Layer enet3_7_branch2b1
I1123 17:47:28.286239  1154 net.cpp:454] enet3_7_branch2b1 <- enet3_7_branch2a
I1123 17:47:28.286253  1154 net.cpp:411] enet3_7_branch2b1 -> enet3_7_branch2b1
I1123 17:47:28.286607  1154 net.cpp:150] Setting up enet3_7_branch2b1
I1123 17:47:28.286622  1154 net.cpp:157] Top shape: 10 32 41 81 (1062720)
I1123 17:47:28.286628  1154 net.cpp:165] Memory required for data: 4412709680
I1123 17:47:28.286638  1154 layer_factory.hpp:77] Creating layer enet3_7_branch2b
I1123 17:47:28.286650  1154 net.cpp:106] Creating Layer enet3_7_branch2b
I1123 17:47:28.286658  1154 net.cpp:454] enet3_7_branch2b <- enet3_7_branch2b1
I1123 17:47:28.286671  1154 net.cpp:411] enet3_7_branch2b -> enet3_7_branch2b
I1123 17:47:28.287093  1154 net.cpp:150] Setting up enet3_7_branch2b
I1123 17:47:28.287109  1154 net.cpp:157] Top shape: 10 32 41 81 (1062720)
I1123 17:47:28.287116  1154 net.cpp:165] Memory required for data: 4416960560
I1123 17:47:28.287127  1154 layer_factory.hpp:77] Creating layer bn3_7_branch2b
I1123 17:47:28.287138  1154 net.cpp:106] Creating Layer bn3_7_branch2b
I1123 17:47:28.287145  1154 net.cpp:454] bn3_7_branch2b <- enet3_7_branch2b
I1123 17:47:28.287158  1154 net.cpp:397] bn3_7_branch2b -> enet3_7_branch2b (in-place)
I1123 17:47:28.287415  1154 net.cpp:150] Setting up bn3_7_branch2b
I1123 17:47:28.287430  1154 net.cpp:157] Top shape: 10 32 41 81 (1062720)
I1123 17:47:28.287436  1154 net.cpp:165] Memory required for data: 4421211440
I1123 17:47:28.287446  1154 layer_factory.hpp:77] Creating layer relu3_7_branch2b
I1123 17:47:28.287458  1154 net.cpp:106] Creating Layer relu3_7_branch2b
I1123 17:47:28.287467  1154 net.cpp:454] relu3_7_branch2b <- enet3_7_branch2b
I1123 17:47:28.287475  1154 net.cpp:397] relu3_7_branch2b -> enet3_7_branch2b (in-place)
I1123 17:47:28.287669  1154 net.cpp:150] Setting up relu3_7_branch2b
I1123 17:47:28.287683  1154 net.cpp:157] Top shape: 10 32 41 81 (1062720)
I1123 17:47:28.287690  1154 net.cpp:165] Memory required for data: 4425462320
I1123 17:47:28.287699  1154 layer_factory.hpp:77] Creating layer enet3_7_branch2c
I1123 17:47:28.287719  1154 net.cpp:106] Creating Layer enet3_7_branch2c
I1123 17:47:28.287726  1154 net.cpp:454] enet3_7_branch2c <- enet3_7_branch2b
I1123 17:47:28.287737  1154 net.cpp:411] enet3_7_branch2c -> enet3_7_branch2c
I1123 17:47:28.288072  1154 net.cpp:150] Setting up enet3_7_branch2c
I1123 17:47:28.288087  1154 net.cpp:157] Top shape: 10 128 41 81 (4250880)
I1123 17:47:28.288094  1154 net.cpp:165] Memory required for data: 4442465840
I1123 17:47:28.288102  1154 layer_factory.hpp:77] Creating layer bn3_7_branch2c
I1123 17:47:28.288116  1154 net.cpp:106] Creating Layer bn3_7_branch2c
I1123 17:47:28.288125  1154 net.cpp:454] bn3_7_branch2c <- enet3_7_branch2c
I1123 17:47:28.288135  1154 net.cpp:397] bn3_7_branch2c -> enet3_7_branch2c (in-place)
I1123 17:47:28.288373  1154 net.cpp:150] Setting up bn3_7_branch2c
I1123 17:47:28.288388  1154 net.cpp:157] Top shape: 10 128 41 81 (4250880)
I1123 17:47:28.288393  1154 net.cpp:165] Memory required for data: 4459469360
I1123 17:47:28.288404  1154 layer_factory.hpp:77] Creating layer dropout3_7_branch2c
I1123 17:47:28.288417  1154 net.cpp:106] Creating Layer dropout3_7_branch2c
I1123 17:47:28.288424  1154 net.cpp:454] dropout3_7_branch2c <- enet3_7_branch2c
I1123 17:47:28.288434  1154 net.cpp:397] dropout3_7_branch2c -> enet3_7_branch2c (in-place)
I1123 17:47:28.288466  1154 net.cpp:150] Setting up dropout3_7_branch2c
I1123 17:47:28.288478  1154 net.cpp:157] Top shape: 10 128 41 81 (4250880)
I1123 17:47:28.288486  1154 net.cpp:165] Memory required for data: 4476472880
I1123 17:47:28.288491  1154 layer_factory.hpp:77] Creating layer enet3_7
I1123 17:47:28.288501  1154 net.cpp:106] Creating Layer enet3_7
I1123 17:47:28.288508  1154 net.cpp:454] enet3_7 <- enet3_6_relu3_6_0_split_1
I1123 17:47:28.288516  1154 net.cpp:454] enet3_7 <- enet3_7_branch2c
I1123 17:47:28.288530  1154 net.cpp:411] enet3_7 -> enet3_7
I1123 17:47:28.288564  1154 net.cpp:150] Setting up enet3_7
I1123 17:47:28.288586  1154 net.cpp:157] Top shape: 10 128 41 81 (4250880)
I1123 17:47:28.288599  1154 net.cpp:165] Memory required for data: 4493476400
I1123 17:47:28.288606  1154 layer_factory.hpp:77] Creating layer relu3_7
I1123 17:47:28.288615  1154 net.cpp:106] Creating Layer relu3_7
I1123 17:47:28.288622  1154 net.cpp:454] relu3_7 <- enet3_7
I1123 17:47:28.288631  1154 net.cpp:397] relu3_7 -> enet3_7 (in-place)
I1123 17:47:28.290370  1154 net.cpp:150] Setting up relu3_7
I1123 17:47:28.290390  1154 net.cpp:157] Top shape: 10 128 41 81 (4250880)
I1123 17:47:28.290396  1154 net.cpp:165] Memory required for data: 4510479920
I1123 17:47:28.290405  1154 layer_factory.hpp:77] Creating layer enet3_7_relu3_7_0_split
I1123 17:47:28.290416  1154 net.cpp:106] Creating Layer enet3_7_relu3_7_0_split
I1123 17:47:28.290423  1154 net.cpp:454] enet3_7_relu3_7_0_split <- enet3_7
I1123 17:47:28.290436  1154 net.cpp:411] enet3_7_relu3_7_0_split -> enet3_7_relu3_7_0_split_0
I1123 17:47:28.290449  1154 net.cpp:411] enet3_7_relu3_7_0_split -> enet3_7_relu3_7_0_split_1
I1123 17:47:28.290499  1154 net.cpp:150] Setting up enet3_7_relu3_7_0_split
I1123 17:47:28.290515  1154 net.cpp:157] Top shape: 10 128 41 81 (4250880)
I1123 17:47:28.290524  1154 net.cpp:157] Top shape: 10 128 41 81 (4250880)
I1123 17:47:28.290530  1154 net.cpp:165] Memory required for data: 4544486960
I1123 17:47:28.290536  1154 layer_factory.hpp:77] Creating layer enet3_8_branch2a
I1123 17:47:28.290550  1154 net.cpp:106] Creating Layer enet3_8_branch2a
I1123 17:47:28.290558  1154 net.cpp:454] enet3_8_branch2a <- enet3_7_relu3_7_0_split_0
I1123 17:47:28.290570  1154 net.cpp:411] enet3_8_branch2a -> enet3_8_branch2a
I1123 17:47:28.290899  1154 net.cpp:150] Setting up enet3_8_branch2a
I1123 17:47:28.290912  1154 net.cpp:157] Top shape: 10 32 41 81 (1062720)
I1123 17:47:28.290920  1154 net.cpp:165] Memory required for data: 4548737840
I1123 17:47:28.290927  1154 layer_factory.hpp:77] Creating layer bn3_8_branch2a
I1123 17:47:28.290946  1154 net.cpp:106] Creating Layer bn3_8_branch2a
I1123 17:47:28.290958  1154 net.cpp:454] bn3_8_branch2a <- enet3_8_branch2a
I1123 17:47:28.290969  1154 net.cpp:397] bn3_8_branch2a -> enet3_8_branch2a (in-place)
I1123 17:47:28.292177  1154 net.cpp:150] Setting up bn3_8_branch2a
I1123 17:47:28.292196  1154 net.cpp:157] Top shape: 10 32 41 81 (1062720)
I1123 17:47:28.292201  1154 net.cpp:165] Memory required for data: 4552988720
I1123 17:47:28.292212  1154 layer_factory.hpp:77] Creating layer relu3_8_branch2a
I1123 17:47:28.292223  1154 net.cpp:106] Creating Layer relu3_8_branch2a
I1123 17:47:28.292232  1154 net.cpp:454] relu3_8_branch2a <- enet3_8_branch2a
I1123 17:47:28.292240  1154 net.cpp:397] relu3_8_branch2a -> enet3_8_branch2a (in-place)
I1123 17:47:28.293505  1154 net.cpp:150] Setting up relu3_8_branch2a
I1123 17:47:28.293524  1154 net.cpp:157] Top shape: 10 32 41 81 (1062720)
I1123 17:47:28.293531  1154 net.cpp:165] Memory required for data: 4557239600
I1123 17:47:28.293540  1154 layer_factory.hpp:77] Creating layer enet3_8_branch2b
I1123 17:47:28.293561  1154 net.cpp:106] Creating Layer enet3_8_branch2b
I1123 17:47:28.293570  1154 net.cpp:454] enet3_8_branch2b <- enet3_8_branch2a
I1123 17:47:28.293582  1154 net.cpp:411] enet3_8_branch2b -> enet3_8_branch2b
I1123 17:47:28.294132  1154 net.cpp:150] Setting up enet3_8_branch2b
I1123 17:47:28.294147  1154 net.cpp:157] Top shape: 10 32 41 81 (1062720)
I1123 17:47:28.294153  1154 net.cpp:165] Memory required for data: 4561490480
I1123 17:47:28.294164  1154 layer_factory.hpp:77] Creating layer bn3_8_branch2b
I1123 17:47:28.294181  1154 net.cpp:106] Creating Layer bn3_8_branch2b
I1123 17:47:28.294189  1154 net.cpp:454] bn3_8_branch2b <- enet3_8_branch2b
I1123 17:47:28.294199  1154 net.cpp:397] bn3_8_branch2b -> enet3_8_branch2b (in-place)
I1123 17:47:28.294466  1154 net.cpp:150] Setting up bn3_8_branch2b
I1123 17:47:28.294481  1154 net.cpp:157] Top shape: 10 32 41 81 (1062720)
I1123 17:47:28.294487  1154 net.cpp:165] Memory required for data: 4565741360
I1123 17:47:28.294512  1154 layer_factory.hpp:77] Creating layer relu3_8_branch2b
I1123 17:47:28.294533  1154 net.cpp:106] Creating Layer relu3_8_branch2b
I1123 17:47:28.294541  1154 net.cpp:454] relu3_8_branch2b <- enet3_8_branch2b
I1123 17:47:28.294554  1154 net.cpp:397] relu3_8_branch2b -> enet3_8_branch2b (in-place)
I1123 17:47:28.294770  1154 net.cpp:150] Setting up relu3_8_branch2b
I1123 17:47:28.294785  1154 net.cpp:157] Top shape: 10 32 41 81 (1062720)
I1123 17:47:28.294791  1154 net.cpp:165] Memory required for data: 4569992240
I1123 17:47:28.294800  1154 layer_factory.hpp:77] Creating layer enet3_8_branch2c
I1123 17:47:28.294817  1154 net.cpp:106] Creating Layer enet3_8_branch2c
I1123 17:47:28.294826  1154 net.cpp:454] enet3_8_branch2c <- enet3_8_branch2b
I1123 17:47:28.294839  1154 net.cpp:411] enet3_8_branch2c -> enet3_8_branch2c
I1123 17:47:28.295408  1154 net.cpp:150] Setting up enet3_8_branch2c
I1123 17:47:28.295424  1154 net.cpp:157] Top shape: 10 128 41 81 (4250880)
I1123 17:47:28.295430  1154 net.cpp:165] Memory required for data: 4586995760
I1123 17:47:28.295439  1154 layer_factory.hpp:77] Creating layer bn3_8_branch2c
I1123 17:47:28.295450  1154 net.cpp:106] Creating Layer bn3_8_branch2c
I1123 17:47:28.295459  1154 net.cpp:454] bn3_8_branch2c <- enet3_8_branch2c
I1123 17:47:28.295472  1154 net.cpp:397] bn3_8_branch2c -> enet3_8_branch2c (in-place)
I1123 17:47:28.295717  1154 net.cpp:150] Setting up bn3_8_branch2c
I1123 17:47:28.295732  1154 net.cpp:157] Top shape: 10 128 41 81 (4250880)
I1123 17:47:28.295738  1154 net.cpp:165] Memory required for data: 4603999280
I1123 17:47:28.295749  1154 layer_factory.hpp:77] Creating layer dropout3_8_branch2c
I1123 17:47:28.295760  1154 net.cpp:106] Creating Layer dropout3_8_branch2c
I1123 17:47:28.295768  1154 net.cpp:454] dropout3_8_branch2c <- enet3_8_branch2c
I1123 17:47:28.295779  1154 net.cpp:397] dropout3_8_branch2c -> enet3_8_branch2c (in-place)
I1123 17:47:28.295812  1154 net.cpp:150] Setting up dropout3_8_branch2c
I1123 17:47:28.295825  1154 net.cpp:157] Top shape: 10 128 41 81 (4250880)
I1123 17:47:28.295831  1154 net.cpp:165] Memory required for data: 4621002800
I1123 17:47:28.295837  1154 layer_factory.hpp:77] Creating layer enet3_8
I1123 17:47:28.295847  1154 net.cpp:106] Creating Layer enet3_8
I1123 17:47:28.295855  1154 net.cpp:454] enet3_8 <- enet3_7_relu3_7_0_split_1
I1123 17:47:28.295863  1154 net.cpp:454] enet3_8 <- enet3_8_branch2c
I1123 17:47:28.295872  1154 net.cpp:411] enet3_8 -> enet3_8
I1123 17:47:28.295907  1154 net.cpp:150] Setting up enet3_8
I1123 17:47:28.295920  1154 net.cpp:157] Top shape: 10 128 41 81 (4250880)
I1123 17:47:28.295927  1154 net.cpp:165] Memory required for data: 4638006320
I1123 17:47:28.295933  1154 layer_factory.hpp:77] Creating layer relu3_8
I1123 17:47:28.295945  1154 net.cpp:106] Creating Layer relu3_8
I1123 17:47:28.295956  1154 net.cpp:454] relu3_8 <- enet3_8
I1123 17:47:28.295966  1154 net.cpp:397] relu3_8 -> enet3_8 (in-place)
I1123 17:47:28.297701  1154 net.cpp:150] Setting up relu3_8
I1123 17:47:28.297721  1154 net.cpp:157] Top shape: 10 128 41 81 (4250880)
I1123 17:47:28.297729  1154 net.cpp:165] Memory required for data: 4655009840
I1123 17:47:28.297737  1154 layer_factory.hpp:77] Creating layer enet3_8_relu3_8_0_split
I1123 17:47:28.297749  1154 net.cpp:106] Creating Layer enet3_8_relu3_8_0_split
I1123 17:47:28.297755  1154 net.cpp:454] enet3_8_relu3_8_0_split <- enet3_8
I1123 17:47:28.297765  1154 net.cpp:411] enet3_8_relu3_8_0_split -> enet3_8_relu3_8_0_split_0
I1123 17:47:28.297777  1154 net.cpp:411] enet3_8_relu3_8_0_split -> enet3_8_relu3_8_0_split_1
I1123 17:47:28.297827  1154 net.cpp:150] Setting up enet3_8_relu3_8_0_split
I1123 17:47:28.297839  1154 net.cpp:157] Top shape: 10 128 41 81 (4250880)
I1123 17:47:28.297847  1154 net.cpp:157] Top shape: 10 128 41 81 (4250880)
I1123 17:47:28.297853  1154 net.cpp:165] Memory required for data: 4689016880
I1123 17:47:28.297860  1154 layer_factory.hpp:77] Creating layer enet4_0_branch2a
I1123 17:47:28.297876  1154 net.cpp:106] Creating Layer enet4_0_branch2a
I1123 17:47:28.297899  1154 net.cpp:454] enet4_0_branch2a <- enet3_8_relu3_8_0_split_0
I1123 17:47:28.297917  1154 net.cpp:411] enet4_0_branch2a -> enet4_0_branch2a
I1123 17:47:28.298202  1154 net.cpp:150] Setting up enet4_0_branch2a
I1123 17:47:28.298216  1154 net.cpp:157] Top shape: 10 16 41 81 (531360)
I1123 17:47:28.298223  1154 net.cpp:165] Memory required for data: 4691142320
I1123 17:47:28.298231  1154 layer_factory.hpp:77] Creating layer bn4_0_branch2a
I1123 17:47:28.298243  1154 net.cpp:106] Creating Layer bn4_0_branch2a
I1123 17:47:28.298250  1154 net.cpp:454] bn4_0_branch2a <- enet4_0_branch2a
I1123 17:47:28.298264  1154 net.cpp:397] bn4_0_branch2a -> enet4_0_branch2a (in-place)
I1123 17:47:28.298523  1154 net.cpp:150] Setting up bn4_0_branch2a
I1123 17:47:28.298537  1154 net.cpp:157] Top shape: 10 16 41 81 (531360)
I1123 17:47:28.298543  1154 net.cpp:165] Memory required for data: 4693267760
I1123 17:47:28.298554  1154 layer_factory.hpp:77] Creating layer relu4_0_branch2a
I1123 17:47:28.298573  1154 net.cpp:106] Creating Layer relu4_0_branch2a
I1123 17:47:28.298580  1154 net.cpp:454] relu4_0_branch2a <- enet4_0_branch2a
I1123 17:47:28.298590  1154 net.cpp:397] relu4_0_branch2a -> enet4_0_branch2a (in-place)
I1123 17:47:28.298601  1154 net.cpp:150] Setting up relu4_0_branch2a
I1123 17:47:28.298610  1154 net.cpp:157] Top shape: 10 16 41 81 (531360)
I1123 17:47:28.298616  1154 net.cpp:165] Memory required for data: 4695393200
I1123 17:47:28.298622  1154 layer_factory.hpp:77] Creating layer enet4_0_branch2b
I1123 17:47:28.298638  1154 net.cpp:106] Creating Layer enet4_0_branch2b
I1123 17:47:28.298645  1154 net.cpp:454] enet4_0_branch2b <- enet4_0_branch2a
I1123 17:47:28.298657  1154 net.cpp:411] enet4_0_branch2b -> enet4_0_branch2b
I1123 17:47:28.299022  1154 net.cpp:150] Setting up enet4_0_branch2b
I1123 17:47:28.299037  1154 net.cpp:157] Top shape: 10 16 81 161 (2086560)
I1123 17:47:28.299044  1154 net.cpp:165] Memory required for data: 4703739440
I1123 17:47:28.299054  1154 layer_factory.hpp:77] Creating layer bn4_0_branch2b
I1123 17:47:28.299067  1154 net.cpp:106] Creating Layer bn4_0_branch2b
I1123 17:47:28.299073  1154 net.cpp:454] bn4_0_branch2b <- enet4_0_branch2b
I1123 17:47:28.299087  1154 net.cpp:397] bn4_0_branch2b -> enet4_0_branch2b (in-place)
I1123 17:47:28.299371  1154 net.cpp:150] Setting up bn4_0_branch2b
I1123 17:47:28.299386  1154 net.cpp:157] Top shape: 10 16 81 161 (2086560)
I1123 17:47:28.299392  1154 net.cpp:165] Memory required for data: 4712085680
I1123 17:47:28.299402  1154 layer_factory.hpp:77] Creating layer relu4_0_branch2b
I1123 17:47:28.299412  1154 net.cpp:106] Creating Layer relu4_0_branch2b
I1123 17:47:28.299419  1154 net.cpp:454] relu4_0_branch2b <- enet4_0_branch2b
I1123 17:47:28.299428  1154 net.cpp:397] relu4_0_branch2b -> enet4_0_branch2b (in-place)
I1123 17:47:28.299439  1154 net.cpp:150] Setting up relu4_0_branch2b
I1123 17:47:28.299448  1154 net.cpp:157] Top shape: 10 16 81 161 (2086560)
I1123 17:47:28.299454  1154 net.cpp:165] Memory required for data: 4720431920
I1123 17:47:28.299460  1154 layer_factory.hpp:77] Creating layer enet4_0_branch2c
I1123 17:47:28.299474  1154 net.cpp:106] Creating Layer enet4_0_branch2c
I1123 17:47:28.299480  1154 net.cpp:454] enet4_0_branch2c <- enet4_0_branch2b
I1123 17:47:28.299494  1154 net.cpp:411] enet4_0_branch2c -> enet4_0_branch2c
I1123 17:47:28.299751  1154 net.cpp:150] Setting up enet4_0_branch2c
I1123 17:47:28.299765  1154 net.cpp:157] Top shape: 10 64 81 161 (8346240)
I1123 17:47:28.299772  1154 net.cpp:165] Memory required for data: 4753816880
I1123 17:47:28.299782  1154 layer_factory.hpp:77] Creating layer bn4_0_branch2c
I1123 17:47:28.299794  1154 net.cpp:106] Creating Layer bn4_0_branch2c
I1123 17:47:28.299803  1154 net.cpp:454] bn4_0_branch2c <- enet4_0_branch2c
I1123 17:47:28.299813  1154 net.cpp:397] bn4_0_branch2c -> enet4_0_branch2c (in-place)
I1123 17:47:28.300096  1154 net.cpp:150] Setting up bn4_0_branch2c
I1123 17:47:28.300112  1154 net.cpp:157] Top shape: 10 64 81 161 (8346240)
I1123 17:47:28.300117  1154 net.cpp:165] Memory required for data: 4787201840
I1123 17:47:28.300134  1154 layer_factory.hpp:77] Creating layer enet4_0_branch1a
I1123 17:47:28.300158  1154 net.cpp:106] Creating Layer enet4_0_branch1a
I1123 17:47:28.300165  1154 net.cpp:454] enet4_0_branch1a <- enet3_8_relu3_8_0_split_1
I1123 17:47:28.300178  1154 net.cpp:411] enet4_0_branch1a -> enet4_0_branch1a
I1123 17:47:28.300626  1154 net.cpp:150] Setting up enet4_0_branch1a
I1123 17:47:28.300640  1154 net.cpp:157] Top shape: 10 64 41 81 (2125440)
I1123 17:47:28.300647  1154 net.cpp:165] Memory required for data: 4795703600
I1123 17:47:28.300655  1154 layer_factory.hpp:77] Creating layer bn4_0_branch1a
I1123 17:47:28.300668  1154 net.cpp:106] Creating Layer bn4_0_branch1a
I1123 17:47:28.300674  1154 net.cpp:454] bn4_0_branch1a <- enet4_0_branch1a
I1123 17:47:28.300688  1154 net.cpp:397] bn4_0_branch1a -> enet4_0_branch1a (in-place)
I1123 17:47:28.300941  1154 net.cpp:150] Setting up bn4_0_branch1a
I1123 17:47:28.300959  1154 net.cpp:157] Top shape: 10 64 41 81 (2125440)
I1123 17:47:28.300966  1154 net.cpp:165] Memory required for data: 4804205360
I1123 17:47:28.300976  1154 layer_factory.hpp:77] Creating layer unpool4_0_branch1a
I1123 17:47:28.300988  1154 net.cpp:106] Creating Layer unpool4_0_branch1a
I1123 17:47:28.300997  1154 net.cpp:454] unpool4_0_branch1a <- enet4_0_branch1a
I1123 17:47:28.301005  1154 net.cpp:454] unpool4_0_branch1a <- pool2_0_branch1a_mask
I1123 17:47:28.301018  1154 net.cpp:411] unpool4_0_branch1a -> unpool4_0_branch1a
I1123 17:47:28.301067  1154 net.cpp:150] Setting up unpool4_0_branch1a
I1123 17:47:28.301081  1154 net.cpp:157] Top shape: 10 64 81 161 (8346240)
I1123 17:47:28.301087  1154 net.cpp:165] Memory required for data: 4837590320
I1123 17:47:28.301095  1154 layer_factory.hpp:77] Creating layer enet4_0
I1123 17:47:28.301105  1154 net.cpp:106] Creating Layer enet4_0
I1123 17:47:28.301111  1154 net.cpp:454] enet4_0 <- unpool4_0_branch1a
I1123 17:47:28.301120  1154 net.cpp:454] enet4_0 <- enet4_0_branch2c
I1123 17:47:28.301128  1154 net.cpp:411] enet4_0 -> enet4_0
I1123 17:47:28.301164  1154 net.cpp:150] Setting up enet4_0
I1123 17:47:28.301177  1154 net.cpp:157] Top shape: 10 64 81 161 (8346240)
I1123 17:47:28.301183  1154 net.cpp:165] Memory required for data: 4870975280
I1123 17:47:28.301190  1154 layer_factory.hpp:77] Creating layer relu4_0
I1123 17:47:28.301201  1154 net.cpp:106] Creating Layer relu4_0
I1123 17:47:28.301209  1154 net.cpp:454] relu4_0 <- enet4_0
I1123 17:47:28.301218  1154 net.cpp:397] relu4_0 -> enet4_0 (in-place)
I1123 17:47:28.301229  1154 net.cpp:150] Setting up relu4_0
I1123 17:47:28.301237  1154 net.cpp:157] Top shape: 10 64 81 161 (8346240)
I1123 17:47:28.301244  1154 net.cpp:165] Memory required for data: 4904360240
I1123 17:47:28.301249  1154 layer_factory.hpp:77] Creating layer enet4_0_relu4_0_0_split
I1123 17:47:28.301259  1154 net.cpp:106] Creating Layer enet4_0_relu4_0_0_split
I1123 17:47:28.301265  1154 net.cpp:454] enet4_0_relu4_0_0_split <- enet4_0
I1123 17:47:28.301276  1154 net.cpp:411] enet4_0_relu4_0_0_split -> enet4_0_relu4_0_0_split_0
I1123 17:47:28.301288  1154 net.cpp:411] enet4_0_relu4_0_0_split -> enet4_0_relu4_0_0_split_1
I1123 17:47:28.301336  1154 net.cpp:150] Setting up enet4_0_relu4_0_0_split
I1123 17:47:28.301347  1154 net.cpp:157] Top shape: 10 64 81 161 (8346240)
I1123 17:47:28.301355  1154 net.cpp:157] Top shape: 10 64 81 161 (8346240)
I1123 17:47:28.301362  1154 net.cpp:165] Memory required for data: 4971130160
I1123 17:47:28.301367  1154 layer_factory.hpp:77] Creating layer enet4_1_branch2a
I1123 17:47:28.301385  1154 net.cpp:106] Creating Layer enet4_1_branch2a
I1123 17:47:28.301393  1154 net.cpp:454] enet4_1_branch2a <- enet4_0_relu4_0_0_split_0
I1123 17:47:28.301404  1154 net.cpp:411] enet4_1_branch2a -> enet4_1_branch2a
I1123 17:47:28.301656  1154 net.cpp:150] Setting up enet4_1_branch2a
I1123 17:47:28.301669  1154 net.cpp:157] Top shape: 10 16 81 161 (2086560)
I1123 17:47:28.301676  1154 net.cpp:165] Memory required for data: 4979476400
I1123 17:47:28.301684  1154 layer_factory.hpp:77] Creating layer bn4_1_branch2a
I1123 17:47:28.301703  1154 net.cpp:106] Creating Layer bn4_1_branch2a
I1123 17:47:28.301719  1154 net.cpp:454] bn4_1_branch2a <- enet4_1_branch2a
I1123 17:47:28.301733  1154 net.cpp:397] bn4_1_branch2a -> enet4_1_branch2a (in-place)
I1123 17:47:28.302019  1154 net.cpp:150] Setting up bn4_1_branch2a
I1123 17:47:28.302034  1154 net.cpp:157] Top shape: 10 16 81 161 (2086560)
I1123 17:47:28.302042  1154 net.cpp:165] Memory required for data: 4987822640
I1123 17:47:28.302052  1154 layer_factory.hpp:77] Creating layer relu4_1_branch2a
I1123 17:47:28.302067  1154 net.cpp:106] Creating Layer relu4_1_branch2a
I1123 17:47:28.302074  1154 net.cpp:454] relu4_1_branch2a <- enet4_1_branch2a
I1123 17:47:28.302083  1154 net.cpp:397] relu4_1_branch2a -> enet4_1_branch2a (in-place)
I1123 17:47:28.302094  1154 net.cpp:150] Setting up relu4_1_branch2a
I1123 17:47:28.302103  1154 net.cpp:157] Top shape: 10 16 81 161 (2086560)
I1123 17:47:28.302109  1154 net.cpp:165] Memory required for data: 4996168880
I1123 17:47:28.302116  1154 layer_factory.hpp:77] Creating layer enet4_1_branch2b
I1123 17:47:28.302129  1154 net.cpp:106] Creating Layer enet4_1_branch2b
I1123 17:47:28.302135  1154 net.cpp:454] enet4_1_branch2b <- enet4_1_branch2a
I1123 17:47:28.302152  1154 net.cpp:411] enet4_1_branch2b -> enet4_1_branch2b
I1123 17:47:28.302518  1154 net.cpp:150] Setting up enet4_1_branch2b
I1123 17:47:28.302533  1154 net.cpp:157] Top shape: 10 16 81 161 (2086560)
I1123 17:47:28.302539  1154 net.cpp:165] Memory required for data: 5004515120
I1123 17:47:28.302551  1154 layer_factory.hpp:77] Creating layer bn4_1_branch2b
I1123 17:47:28.302564  1154 net.cpp:106] Creating Layer bn4_1_branch2b
I1123 17:47:28.302572  1154 net.cpp:454] bn4_1_branch2b <- enet4_1_branch2b
I1123 17:47:28.302585  1154 net.cpp:397] bn4_1_branch2b -> enet4_1_branch2b (in-place)
I1123 17:47:28.303997  1154 net.cpp:150] Setting up bn4_1_branch2b
I1123 17:47:28.304014  1154 net.cpp:157] Top shape: 10 16 81 161 (2086560)
I1123 17:47:28.304021  1154 net.cpp:165] Memory required for data: 5012861360
I1123 17:47:28.304033  1154 layer_factory.hpp:77] Creating layer relu4_1_branch2b
I1123 17:47:28.304042  1154 net.cpp:106] Creating Layer relu4_1_branch2b
I1123 17:47:28.304050  1154 net.cpp:454] relu4_1_branch2b <- enet4_1_branch2b
I1123 17:47:28.304059  1154 net.cpp:397] relu4_1_branch2b -> enet4_1_branch2b (in-place)
I1123 17:47:28.304071  1154 net.cpp:150] Setting up relu4_1_branch2b
I1123 17:47:28.304080  1154 net.cpp:157] Top shape: 10 16 81 161 (2086560)
I1123 17:47:28.304086  1154 net.cpp:165] Memory required for data: 5021207600
I1123 17:47:28.304093  1154 layer_factory.hpp:77] Creating layer enet4_1_branch2c
I1123 17:47:28.304113  1154 net.cpp:106] Creating Layer enet4_1_branch2c
I1123 17:47:28.304121  1154 net.cpp:454] enet4_1_branch2c <- enet4_1_branch2b
I1123 17:47:28.304131  1154 net.cpp:411] enet4_1_branch2c -> enet4_1_branch2c
I1123 17:47:28.304397  1154 net.cpp:150] Setting up enet4_1_branch2c
I1123 17:47:28.304412  1154 net.cpp:157] Top shape: 10 64 81 161 (8346240)
I1123 17:47:28.304419  1154 net.cpp:165] Memory required for data: 5054592560
I1123 17:47:28.304427  1154 layer_factory.hpp:77] Creating layer bn4_1_branch2c
I1123 17:47:28.304440  1154 net.cpp:106] Creating Layer bn4_1_branch2c
I1123 17:47:28.304446  1154 net.cpp:454] bn4_1_branch2c <- enet4_1_branch2c
I1123 17:47:28.304460  1154 net.cpp:397] bn4_1_branch2c -> enet4_1_branch2c (in-place)
I1123 17:47:28.304738  1154 net.cpp:150] Setting up bn4_1_branch2c
I1123 17:47:28.304754  1154 net.cpp:157] Top shape: 10 64 81 161 (8346240)
I1123 17:47:28.304760  1154 net.cpp:165] Memory required for data: 5087977520
I1123 17:47:28.304770  1154 layer_factory.hpp:77] Creating layer enet4_1
I1123 17:47:28.304785  1154 net.cpp:106] Creating Layer enet4_1
I1123 17:47:28.304792  1154 net.cpp:454] enet4_1 <- enet4_0_relu4_0_0_split_1
I1123 17:47:28.304801  1154 net.cpp:454] enet4_1 <- enet4_1_branch2c
I1123 17:47:28.304811  1154 net.cpp:411] enet4_1 -> enet4_1
I1123 17:47:28.304844  1154 net.cpp:150] Setting up enet4_1
I1123 17:47:28.304867  1154 net.cpp:157] Top shape: 10 64 81 161 (8346240)
I1123 17:47:28.304882  1154 net.cpp:165] Memory required for data: 5121362480
I1123 17:47:28.304888  1154 layer_factory.hpp:77] Creating layer relu4_1
I1123 17:47:28.304901  1154 net.cpp:106] Creating Layer relu4_1
I1123 17:47:28.304908  1154 net.cpp:454] relu4_1 <- enet4_1
I1123 17:47:28.304918  1154 net.cpp:397] relu4_1 -> enet4_1 (in-place)
I1123 17:47:28.304929  1154 net.cpp:150] Setting up relu4_1
I1123 17:47:28.304937  1154 net.cpp:157] Top shape: 10 64 81 161 (8346240)
I1123 17:47:28.304944  1154 net.cpp:165] Memory required for data: 5154747440
I1123 17:47:28.304955  1154 layer_factory.hpp:77] Creating layer enet4_1_relu4_1_0_split
I1123 17:47:28.304963  1154 net.cpp:106] Creating Layer enet4_1_relu4_1_0_split
I1123 17:47:28.304970  1154 net.cpp:454] enet4_1_relu4_1_0_split <- enet4_1
I1123 17:47:28.304982  1154 net.cpp:411] enet4_1_relu4_1_0_split -> enet4_1_relu4_1_0_split_0
I1123 17:47:28.304993  1154 net.cpp:411] enet4_1_relu4_1_0_split -> enet4_1_relu4_1_0_split_1
I1123 17:47:28.305042  1154 net.cpp:150] Setting up enet4_1_relu4_1_0_split
I1123 17:47:28.305058  1154 net.cpp:157] Top shape: 10 64 81 161 (8346240)
I1123 17:47:28.305065  1154 net.cpp:157] Top shape: 10 64 81 161 (8346240)
I1123 17:47:28.305073  1154 net.cpp:165] Memory required for data: 5221517360
I1123 17:47:28.305079  1154 layer_factory.hpp:77] Creating layer enet4_2_branch2a
I1123 17:47:28.305097  1154 net.cpp:106] Creating Layer enet4_2_branch2a
I1123 17:47:28.305105  1154 net.cpp:454] enet4_2_branch2a <- enet4_1_relu4_1_0_split_0
I1123 17:47:28.305117  1154 net.cpp:411] enet4_2_branch2a -> enet4_2_branch2a
I1123 17:47:28.305368  1154 net.cpp:150] Setting up enet4_2_branch2a
I1123 17:47:28.305383  1154 net.cpp:157] Top shape: 10 16 81 161 (2086560)
I1123 17:47:28.305389  1154 net.cpp:165] Memory required for data: 5229863600
I1123 17:47:28.305398  1154 layer_factory.hpp:77] Creating layer bn4_2_branch2a
I1123 17:47:28.305409  1154 net.cpp:106] Creating Layer bn4_2_branch2a
I1123 17:47:28.305416  1154 net.cpp:454] bn4_2_branch2a <- enet4_2_branch2a
I1123 17:47:28.305426  1154 net.cpp:397] bn4_2_branch2a -> enet4_2_branch2a (in-place)
I1123 17:47:28.305697  1154 net.cpp:150] Setting up bn4_2_branch2a
I1123 17:47:28.305712  1154 net.cpp:157] Top shape: 10 16 81 161 (2086560)
I1123 17:47:28.305718  1154 net.cpp:165] Memory required for data: 5238209840
I1123 17:47:28.305728  1154 layer_factory.hpp:77] Creating layer relu4_2_branch2a
I1123 17:47:28.305739  1154 net.cpp:106] Creating Layer relu4_2_branch2a
I1123 17:47:28.305747  1154 net.cpp:454] relu4_2_branch2a <- enet4_2_branch2a
I1123 17:47:28.305758  1154 net.cpp:397] relu4_2_branch2a -> enet4_2_branch2a (in-place)
I1123 17:47:28.305770  1154 net.cpp:150] Setting up relu4_2_branch2a
I1123 17:47:28.305778  1154 net.cpp:157] Top shape: 10 16 81 161 (2086560)
I1123 17:47:28.305784  1154 net.cpp:165] Memory required for data: 5246556080
I1123 17:47:28.305791  1154 layer_factory.hpp:77] Creating layer enet4_2_branch2b
I1123 17:47:28.305806  1154 net.cpp:106] Creating Layer enet4_2_branch2b
I1123 17:47:28.305814  1154 net.cpp:454] enet4_2_branch2b <- enet4_2_branch2a
I1123 17:47:28.305824  1154 net.cpp:411] enet4_2_branch2b -> enet4_2_branch2b
I1123 17:47:28.306180  1154 net.cpp:150] Setting up enet4_2_branch2b
I1123 17:47:28.306195  1154 net.cpp:157] Top shape: 10 16 81 161 (2086560)
I1123 17:47:28.306201  1154 net.cpp:165] Memory required for data: 5254902320
I1123 17:47:28.306211  1154 layer_factory.hpp:77] Creating layer bn4_2_branch2b
I1123 17:47:28.306226  1154 net.cpp:106] Creating Layer bn4_2_branch2b
I1123 17:47:28.306234  1154 net.cpp:454] bn4_2_branch2b <- enet4_2_branch2b
I1123 17:47:28.306248  1154 net.cpp:397] bn4_2_branch2b -> enet4_2_branch2b (in-place)
I1123 17:47:28.306525  1154 net.cpp:150] Setting up bn4_2_branch2b
I1123 17:47:28.306540  1154 net.cpp:157] Top shape: 10 16 81 161 (2086560)
I1123 17:47:28.306547  1154 net.cpp:165] Memory required for data: 5263248560
I1123 17:47:28.306557  1154 layer_factory.hpp:77] Creating layer relu4_2_branch2b
I1123 17:47:28.306582  1154 net.cpp:106] Creating Layer relu4_2_branch2b
I1123 17:47:28.306591  1154 net.cpp:454] relu4_2_branch2b <- enet4_2_branch2b
I1123 17:47:28.306603  1154 net.cpp:397] relu4_2_branch2b -> enet4_2_branch2b (in-place)
I1123 17:47:28.306614  1154 net.cpp:150] Setting up relu4_2_branch2b
I1123 17:47:28.306622  1154 net.cpp:157] Top shape: 10 16 81 161 (2086560)
I1123 17:47:28.306628  1154 net.cpp:165] Memory required for data: 5271594800
I1123 17:47:28.306635  1154 layer_factory.hpp:77] Creating layer enet4_2_branch2c
I1123 17:47:28.306648  1154 net.cpp:106] Creating Layer enet4_2_branch2c
I1123 17:47:28.306654  1154 net.cpp:454] enet4_2_branch2c <- enet4_2_branch2b
I1123 17:47:28.306664  1154 net.cpp:411] enet4_2_branch2c -> enet4_2_branch2c
I1123 17:47:28.306926  1154 net.cpp:150] Setting up enet4_2_branch2c
I1123 17:47:28.306941  1154 net.cpp:157] Top shape: 10 64 81 161 (8346240)
I1123 17:47:28.306946  1154 net.cpp:165] Memory required for data: 5304979760
I1123 17:47:28.306959  1154 layer_factory.hpp:77] Creating layer bn4_2_branch2c
I1123 17:47:28.306975  1154 net.cpp:106] Creating Layer bn4_2_branch2c
I1123 17:47:28.306983  1154 net.cpp:454] bn4_2_branch2c <- enet4_2_branch2c
I1123 17:47:28.306993  1154 net.cpp:397] bn4_2_branch2c -> enet4_2_branch2c (in-place)
I1123 17:47:28.307271  1154 net.cpp:150] Setting up bn4_2_branch2c
I1123 17:47:28.307286  1154 net.cpp:157] Top shape: 10 64 81 161 (8346240)
I1123 17:47:28.307291  1154 net.cpp:165] Memory required for data: 5338364720
I1123 17:47:28.307302  1154 layer_factory.hpp:77] Creating layer enet4_2
I1123 17:47:28.307312  1154 net.cpp:106] Creating Layer enet4_2
I1123 17:47:28.307319  1154 net.cpp:454] enet4_2 <- enet4_1_relu4_1_0_split_1
I1123 17:47:28.307328  1154 net.cpp:454] enet4_2 <- enet4_2_branch2c
I1123 17:47:28.307337  1154 net.cpp:411] enet4_2 -> enet4_2
I1123 17:47:28.307370  1154 net.cpp:150] Setting up enet4_2
I1123 17:47:28.307384  1154 net.cpp:157] Top shape: 10 64 81 161 (8346240)
I1123 17:47:28.307392  1154 net.cpp:165] Memory required for data: 5371749680
I1123 17:47:28.307399  1154 layer_factory.hpp:77] Creating layer relu4_2
I1123 17:47:28.307605  1154 net.cpp:106] Creating Layer relu4_2
I1123 17:47:28.307615  1154 net.cpp:454] relu4_2 <- enet4_2
I1123 17:47:28.307627  1154 net.cpp:397] relu4_2 -> enet4_2 (in-place)
I1123 17:47:28.307641  1154 net.cpp:150] Setting up relu4_2
I1123 17:47:28.307648  1154 net.cpp:157] Top shape: 10 64 81 161 (8346240)
I1123 17:47:28.307654  1154 net.cpp:165] Memory required for data: 5405134640
I1123 17:47:28.307670  1154 layer_factory.hpp:77] Creating layer enet4_2_relu4_2_0_split
I1123 17:47:28.307679  1154 net.cpp:106] Creating Layer enet4_2_relu4_2_0_split
I1123 17:47:28.307687  1154 net.cpp:454] enet4_2_relu4_2_0_split <- enet4_2
I1123 17:47:28.307698  1154 net.cpp:411] enet4_2_relu4_2_0_split -> enet4_2_relu4_2_0_split_0
I1123 17:47:28.307709  1154 net.cpp:411] enet4_2_relu4_2_0_split -> enet4_2_relu4_2_0_split_1
I1123 17:47:28.307761  1154 net.cpp:150] Setting up enet4_2_relu4_2_0_split
I1123 17:47:28.307773  1154 net.cpp:157] Top shape: 10 64 81 161 (8346240)
I1123 17:47:28.307782  1154 net.cpp:157] Top shape: 10 64 81 161 (8346240)
I1123 17:47:28.307788  1154 net.cpp:165] Memory required for data: 5471904560
I1123 17:47:28.307795  1154 layer_factory.hpp:77] Creating layer enet5_0_branch2a
I1123 17:47:28.307809  1154 net.cpp:106] Creating Layer enet5_0_branch2a
I1123 17:47:28.307818  1154 net.cpp:454] enet5_0_branch2a <- enet4_2_relu4_2_0_split_0
I1123 17:47:28.307832  1154 net.cpp:411] enet5_0_branch2a -> enet5_0_branch2a
I1123 17:47:28.308059  1154 net.cpp:150] Setting up enet5_0_branch2a
I1123 17:47:28.308073  1154 net.cpp:157] Top shape: 10 4 81 161 (521640)
I1123 17:47:28.308079  1154 net.cpp:165] Memory required for data: 5473991120
I1123 17:47:28.308089  1154 layer_factory.hpp:77] Creating layer bn5_0_branch2a
I1123 17:47:28.308100  1154 net.cpp:106] Creating Layer bn5_0_branch2a
I1123 17:47:28.308107  1154 net.cpp:454] bn5_0_branch2a <- enet5_0_branch2a
I1123 17:47:28.308126  1154 net.cpp:397] bn5_0_branch2a -> enet5_0_branch2a (in-place)
I1123 17:47:28.308408  1154 net.cpp:150] Setting up bn5_0_branch2a
I1123 17:47:28.308423  1154 net.cpp:157] Top shape: 10 4 81 161 (521640)
I1123 17:47:28.308429  1154 net.cpp:165] Memory required for data: 5476077680
I1123 17:47:28.308440  1154 layer_factory.hpp:77] Creating layer relu5_0_branch2a
I1123 17:47:28.308450  1154 net.cpp:106] Creating Layer relu5_0_branch2a
I1123 17:47:28.308457  1154 net.cpp:454] relu5_0_branch2a <- enet5_0_branch2a
I1123 17:47:28.308468  1154 net.cpp:397] relu5_0_branch2a -> enet5_0_branch2a (in-place)
I1123 17:47:28.308480  1154 net.cpp:150] Setting up relu5_0_branch2a
I1123 17:47:28.308488  1154 net.cpp:157] Top shape: 10 4 81 161 (521640)
I1123 17:47:28.308495  1154 net.cpp:165] Memory required for data: 5478164240
I1123 17:47:28.308501  1154 layer_factory.hpp:77] Creating layer enet5_0_branch2b
I1123 17:47:28.308512  1154 net.cpp:106] Creating Layer enet5_0_branch2b
I1123 17:47:28.308518  1154 net.cpp:454] enet5_0_branch2b <- enet5_0_branch2a
I1123 17:47:28.308531  1154 net.cpp:411] enet5_0_branch2b -> enet5_0_branch2b
I1123 17:47:28.309628  1154 net.cpp:150] Setting up enet5_0_branch2b
I1123 17:47:28.309646  1154 net.cpp:157] Top shape: 10 4 161 321 (2067240)
I1123 17:47:28.309653  1154 net.cpp:165] Memory required for data: 5486433200
I1123 17:47:28.309664  1154 layer_factory.hpp:77] Creating layer bn5_0_branch2b
I1123 17:47:28.309679  1154 net.cpp:106] Creating Layer bn5_0_branch2b
I1123 17:47:28.309687  1154 net.cpp:454] bn5_0_branch2b <- enet5_0_branch2b
I1123 17:47:28.309700  1154 net.cpp:397] bn5_0_branch2b -> enet5_0_branch2b (in-place)
I1123 17:47:28.310020  1154 net.cpp:150] Setting up bn5_0_branch2b
I1123 17:47:28.310035  1154 net.cpp:157] Top shape: 10 4 161 321 (2067240)
I1123 17:47:28.310042  1154 net.cpp:165] Memory required for data: 5494702160
I1123 17:47:28.310052  1154 layer_factory.hpp:77] Creating layer relu5_0_branch2b
I1123 17:47:28.310063  1154 net.cpp:106] Creating Layer relu5_0_branch2b
I1123 17:47:28.310070  1154 net.cpp:454] relu5_0_branch2b <- enet5_0_branch2b
I1123 17:47:28.310081  1154 net.cpp:397] relu5_0_branch2b -> enet5_0_branch2b (in-place)
I1123 17:47:28.310092  1154 net.cpp:150] Setting up relu5_0_branch2b
I1123 17:47:28.310101  1154 net.cpp:157] Top shape: 10 4 161 321 (2067240)
I1123 17:47:28.310107  1154 net.cpp:165] Memory required for data: 5502971120
I1123 17:47:28.310113  1154 layer_factory.hpp:77] Creating layer enet5_0_branch2c
I1123 17:47:28.310129  1154 net.cpp:106] Creating Layer enet5_0_branch2c
I1123 17:47:28.310137  1154 net.cpp:454] enet5_0_branch2c <- enet5_0_branch2b
I1123 17:47:28.310149  1154 net.cpp:411] enet5_0_branch2c -> enet5_0_branch2c
I1123 17:47:28.310379  1154 net.cpp:150] Setting up enet5_0_branch2c
I1123 17:47:28.310392  1154 net.cpp:157] Top shape: 10 16 161 321 (8268960)
I1123 17:47:28.310400  1154 net.cpp:165] Memory required for data: 5536046960
I1123 17:47:28.310408  1154 layer_factory.hpp:77] Creating layer bn5_0_branch2c
I1123 17:47:28.310420  1154 net.cpp:106] Creating Layer bn5_0_branch2c
I1123 17:47:28.310426  1154 net.cpp:454] bn5_0_branch2c <- enet5_0_branch2c
I1123 17:47:28.310438  1154 net.cpp:397] bn5_0_branch2c -> enet5_0_branch2c (in-place)
I1123 17:47:28.310750  1154 net.cpp:150] Setting up bn5_0_branch2c
I1123 17:47:28.310765  1154 net.cpp:157] Top shape: 10 16 161 321 (8268960)
I1123 17:47:28.310771  1154 net.cpp:165] Memory required for data: 5569122800
I1123 17:47:28.310781  1154 layer_factory.hpp:77] Creating layer enet5_0_branch1a
I1123 17:47:28.310796  1154 net.cpp:106] Creating Layer enet5_0_branch1a
I1123 17:47:28.310803  1154 net.cpp:454] enet5_0_branch1a <- enet4_2_relu4_2_0_split_1
I1123 17:47:28.310814  1154 net.cpp:411] enet5_0_branch1a -> enet5_0_branch1a
I1123 17:47:28.311076  1154 net.cpp:150] Setting up enet5_0_branch1a
I1123 17:47:28.311091  1154 net.cpp:157] Top shape: 10 16 81 161 (2086560)
I1123 17:47:28.311097  1154 net.cpp:165] Memory required for data: 5577469040
I1123 17:47:28.311112  1154 layer_factory.hpp:77] Creating layer bn5_0_branch1a
I1123 17:47:28.311133  1154 net.cpp:106] Creating Layer bn5_0_branch1a
I1123 17:47:28.311141  1154 net.cpp:454] bn5_0_branch1a <- enet5_0_branch1a
I1123 17:47:28.311151  1154 net.cpp:397] bn5_0_branch1a -> enet5_0_branch1a (in-place)
I1123 17:47:28.311429  1154 net.cpp:150] Setting up bn5_0_branch1a
I1123 17:47:28.311442  1154 net.cpp:157] Top shape: 10 16 81 161 (2086560)
I1123 17:47:28.311450  1154 net.cpp:165] Memory required for data: 5585815280
I1123 17:47:28.311460  1154 layer_factory.hpp:77] Creating layer unpool5_0_branch1a
I1123 17:47:28.311471  1154 net.cpp:106] Creating Layer unpool5_0_branch1a
I1123 17:47:28.311478  1154 net.cpp:454] unpool5_0_branch1a <- enet5_0_branch1a
I1123 17:47:28.311487  1154 net.cpp:454] unpool5_0_branch1a <- pool1_0_branch1a_mask
I1123 17:47:28.311497  1154 net.cpp:411] unpool5_0_branch1a -> unpool5_0_branch1a
I1123 17:47:28.311532  1154 net.cpp:150] Setting up unpool5_0_branch1a
I1123 17:47:28.311544  1154 net.cpp:157] Top shape: 10 16 161 321 (8268960)
I1123 17:47:28.311552  1154 net.cpp:165] Memory required for data: 5618891120
I1123 17:47:28.311558  1154 layer_factory.hpp:77] Creating layer enet5_0
I1123 17:47:28.311570  1154 net.cpp:106] Creating Layer enet5_0
I1123 17:47:28.311578  1154 net.cpp:454] enet5_0 <- unpool5_0_branch1a
I1123 17:47:28.311586  1154 net.cpp:454] enet5_0 <- enet5_0_branch2c
I1123 17:47:28.311597  1154 net.cpp:411] enet5_0 -> enet5_0
I1123 17:47:28.311630  1154 net.cpp:150] Setting up enet5_0
I1123 17:47:28.311641  1154 net.cpp:157] Top shape: 10 16 161 321 (8268960)
I1123 17:47:28.311648  1154 net.cpp:165] Memory required for data: 5651966960
I1123 17:47:28.311655  1154 layer_factory.hpp:77] Creating layer relu5_0
I1123 17:47:28.311666  1154 net.cpp:106] Creating Layer relu5_0
I1123 17:47:28.311674  1154 net.cpp:454] relu5_0 <- enet5_0
I1123 17:47:28.311683  1154 net.cpp:397] relu5_0 -> enet5_0 (in-place)
I1123 17:47:28.311694  1154 net.cpp:150] Setting up relu5_0
I1123 17:47:28.311702  1154 net.cpp:157] Top shape: 10 16 161 321 (8268960)
I1123 17:47:28.311708  1154 net.cpp:165] Memory required for data: 5685042800
I1123 17:47:28.311715  1154 layer_factory.hpp:77] Creating layer enet5_0_relu5_0_0_split
I1123 17:47:28.311724  1154 net.cpp:106] Creating Layer enet5_0_relu5_0_0_split
I1123 17:47:28.311730  1154 net.cpp:454] enet5_0_relu5_0_0_split <- enet5_0
I1123 17:47:28.311741  1154 net.cpp:411] enet5_0_relu5_0_0_split -> enet5_0_relu5_0_0_split_0
I1123 17:47:28.311753  1154 net.cpp:411] enet5_0_relu5_0_0_split -> enet5_0_relu5_0_0_split_1
I1123 17:47:28.311800  1154 net.cpp:150] Setting up enet5_0_relu5_0_0_split
I1123 17:47:28.311816  1154 net.cpp:157] Top shape: 10 16 161 321 (8268960)
I1123 17:47:28.311825  1154 net.cpp:157] Top shape: 10 16 161 321 (8268960)
I1123 17:47:28.311830  1154 net.cpp:165] Memory required for data: 5751194480
I1123 17:47:28.311837  1154 layer_factory.hpp:77] Creating layer enet5_1_branch2a
I1123 17:47:28.311851  1154 net.cpp:106] Creating Layer enet5_1_branch2a
I1123 17:47:28.311859  1154 net.cpp:454] enet5_1_branch2a <- enet5_0_relu5_0_0_split_0
I1123 17:47:28.311871  1154 net.cpp:411] enet5_1_branch2a -> enet5_1_branch2a
I1123 17:47:28.312098  1154 net.cpp:150] Setting up enet5_1_branch2a
I1123 17:47:28.312113  1154 net.cpp:157] Top shape: 10 4 161 321 (2067240)
I1123 17:47:28.312119  1154 net.cpp:165] Memory required for data: 5759463440
I1123 17:47:28.312127  1154 layer_factory.hpp:77] Creating layer bn5_1_branch2a
I1123 17:47:28.312139  1154 net.cpp:106] Creating Layer bn5_1_branch2a
I1123 17:47:28.312146  1154 net.cpp:454] bn5_1_branch2a <- enet5_1_branch2a
I1123 17:47:28.312156  1154 net.cpp:397] bn5_1_branch2a -> enet5_1_branch2a (in-place)
I1123 17:47:28.313277  1154 net.cpp:150] Setting up bn5_1_branch2a
I1123 17:47:28.313293  1154 net.cpp:157] Top shape: 10 4 161 321 (2067240)
I1123 17:47:28.313300  1154 net.cpp:165] Memory required for data: 5767732400
I1123 17:47:28.313311  1154 layer_factory.hpp:77] Creating layer relu5_1_branch2a
I1123 17:47:28.313328  1154 net.cpp:106] Creating Layer relu5_1_branch2a
I1123 17:47:28.313344  1154 net.cpp:454] relu5_1_branch2a <- enet5_1_branch2a
I1123 17:47:28.313356  1154 net.cpp:397] relu5_1_branch2a -> enet5_1_branch2a (in-place)
I1123 17:47:28.313369  1154 net.cpp:150] Setting up relu5_1_branch2a
I1123 17:47:28.313377  1154 net.cpp:157] Top shape: 10 4 161 321 (2067240)
I1123 17:47:28.313385  1154 net.cpp:165] Memory required for data: 5776001360
I1123 17:47:28.313390  1154 layer_factory.hpp:77] Creating layer enet5_1_branch2b
I1123 17:47:28.313403  1154 net.cpp:106] Creating Layer enet5_1_branch2b
I1123 17:47:28.313410  1154 net.cpp:454] enet5_1_branch2b <- enet5_1_branch2a
I1123 17:47:28.313423  1154 net.cpp:411] enet5_1_branch2b -> enet5_1_branch2b
I1123 17:47:28.313747  1154 net.cpp:150] Setting up enet5_1_branch2b
I1123 17:47:28.313763  1154 net.cpp:157] Top shape: 10 4 161 321 (2067240)
I1123 17:47:28.313769  1154 net.cpp:165] Memory required for data: 5784270320
I1123 17:47:28.313781  1154 layer_factory.hpp:77] Creating layer bn5_1_branch2b
I1123 17:47:28.313794  1154 net.cpp:106] Creating Layer bn5_1_branch2b
I1123 17:47:28.313803  1154 net.cpp:454] bn5_1_branch2b <- enet5_1_branch2b
I1123 17:47:28.313815  1154 net.cpp:397] bn5_1_branch2b -> enet5_1_branch2b (in-place)
I1123 17:47:28.314138  1154 net.cpp:150] Setting up bn5_1_branch2b
I1123 17:47:28.314153  1154 net.cpp:157] Top shape: 10 4 161 321 (2067240)
I1123 17:47:28.314160  1154 net.cpp:165] Memory required for data: 5792539280
I1123 17:47:28.314170  1154 layer_factory.hpp:77] Creating layer relu5_1_branch2b
I1123 17:47:28.314180  1154 net.cpp:106] Creating Layer relu5_1_branch2b
I1123 17:47:28.314188  1154 net.cpp:454] relu5_1_branch2b <- enet5_1_branch2b
I1123 17:47:28.314198  1154 net.cpp:397] relu5_1_branch2b -> enet5_1_branch2b (in-place)
I1123 17:47:28.314208  1154 net.cpp:150] Setting up relu5_1_branch2b
I1123 17:47:28.314216  1154 net.cpp:157] Top shape: 10 4 161 321 (2067240)
I1123 17:47:28.314223  1154 net.cpp:165] Memory required for data: 5800808240
I1123 17:47:28.314229  1154 layer_factory.hpp:77] Creating layer enet5_1_branch2c
I1123 17:47:28.314244  1154 net.cpp:106] Creating Layer enet5_1_branch2c
I1123 17:47:28.314251  1154 net.cpp:454] enet5_1_branch2c <- enet5_1_branch2b
I1123 17:47:28.314265  1154 net.cpp:411] enet5_1_branch2c -> enet5_1_branch2c
I1123 17:47:28.314501  1154 net.cpp:150] Setting up enet5_1_branch2c
I1123 17:47:28.314514  1154 net.cpp:157] Top shape: 10 16 161 321 (8268960)
I1123 17:47:28.314520  1154 net.cpp:165] Memory required for data: 5833884080
I1123 17:47:28.314529  1154 layer_factory.hpp:77] Creating layer bn5_1_branch2c
I1123 17:47:28.314541  1154 net.cpp:106] Creating Layer bn5_1_branch2c
I1123 17:47:28.314548  1154 net.cpp:454] bn5_1_branch2c <- enet5_1_branch2c
I1123 17:47:28.314561  1154 net.cpp:397] bn5_1_branch2c -> enet5_1_branch2c (in-place)
I1123 17:47:28.315860  1154 net.cpp:150] Setting up bn5_1_branch2c
I1123 17:47:28.315878  1154 net.cpp:157] Top shape: 10 16 161 321 (8268960)
I1123 17:47:28.315886  1154 net.cpp:165] Memory required for data: 5866959920
I1123 17:47:28.315896  1154 layer_factory.hpp:77] Creating layer enet5_1
I1123 17:47:28.315907  1154 net.cpp:106] Creating Layer enet5_1
I1123 17:47:28.315914  1154 net.cpp:454] enet5_1 <- enet5_0_relu5_0_0_split_1
I1123 17:47:28.315923  1154 net.cpp:454] enet5_1 <- enet5_1_branch2c
I1123 17:47:28.315933  1154 net.cpp:411] enet5_1 -> enet5_1
I1123 17:47:28.315978  1154 net.cpp:150] Setting up enet5_1
I1123 17:47:28.315990  1154 net.cpp:157] Top shape: 10 16 161 321 (8268960)
I1123 17:47:28.315997  1154 net.cpp:165] Memory required for data: 5900035760
I1123 17:47:28.316004  1154 layer_factory.hpp:77] Creating layer relu5_1
I1123 17:47:28.316014  1154 net.cpp:106] Creating Layer relu5_1
I1123 17:47:28.316020  1154 net.cpp:454] relu5_1 <- enet5_1
I1123 17:47:28.316032  1154 net.cpp:397] relu5_1 -> enet5_1 (in-place)
I1123 17:47:28.316043  1154 net.cpp:150] Setting up relu5_1
I1123 17:47:28.316052  1154 net.cpp:157] Top shape: 10 16 161 321 (8268960)
I1123 17:47:28.316067  1154 net.cpp:165] Memory required for data: 5933111600
I1123 17:47:28.316084  1154 layer_factory.hpp:77] Creating layer enet6_0
I1123 17:47:28.316097  1154 net.cpp:106] Creating Layer enet6_0
I1123 17:47:28.316103  1154 net.cpp:454] enet6_0 <- enet5_1
I1123 17:47:28.316118  1154 net.cpp:411] enet6_0 -> enet6_0
I1123 17:47:28.317667  1154 net.cpp:150] Setting up enet6_0
I1123 17:47:28.317689  1154 net.cpp:157] Top shape: 10 6 321 641 (12345660)
I1123 17:47:28.317698  1154 net.cpp:165] Memory required for data: 5982494240
I1123 17:47:28.317708  1154 layer_factory.hpp:77] Creating layer enet6_0_enet6_0_0_split
I1123 17:47:28.317719  1154 net.cpp:106] Creating Layer enet6_0_enet6_0_0_split
I1123 17:47:28.317726  1154 net.cpp:454] enet6_0_enet6_0_0_split <- enet6_0
I1123 17:47:28.317740  1154 net.cpp:411] enet6_0_enet6_0_0_split -> enet6_0_enet6_0_0_split_0
I1123 17:47:28.317754  1154 net.cpp:411] enet6_0_enet6_0_0_split -> enet6_0_enet6_0_0_split_1
I1123 17:47:28.317811  1154 net.cpp:150] Setting up enet6_0_enet6_0_0_split
I1123 17:47:28.317826  1154 net.cpp:157] Top shape: 10 6 321 641 (12345660)
I1123 17:47:28.317834  1154 net.cpp:157] Top shape: 10 6 321 641 (12345660)
I1123 17:47:28.317842  1154 net.cpp:165] Memory required for data: 6081259520
I1123 17:47:28.317847  1154 layer_factory.hpp:77] Creating layer loss
I1123 17:47:28.317872  1154 net.cpp:106] Creating Layer loss
I1123 17:47:28.317879  1154 net.cpp:454] loss <- enet6_0_enet6_0_0_split_0
I1123 17:47:28.317888  1154 net.cpp:454] loss <- label_data_1_split_0
I1123 17:47:28.317898  1154 net.cpp:411] loss -> loss
I1123 17:47:28.317929  1154 layer_factory.hpp:77] Creating layer loss
I1123 17:47:28.377058  1154 net.cpp:150] Setting up loss
I1123 17:47:28.377115  1154 net.cpp:157] Top shape: (1)
I1123 17:47:28.377122  1154 net.cpp:160]     with loss weight 1
I1123 17:47:28.377195  1154 net.cpp:165] Memory required for data: 6081259524
I1123 17:47:28.377207  1154 layer_factory.hpp:77] Creating layer accuracy
I1123 17:47:28.377229  1154 net.cpp:106] Creating Layer accuracy
I1123 17:47:28.377243  1154 net.cpp:454] accuracy <- enet6_0_enet6_0_0_split_1
I1123 17:47:28.377259  1154 net.cpp:454] accuracy <- label_data_1_split_1
I1123 17:47:28.377269  1154 net.cpp:411] accuracy -> accuracy
I1123 17:47:28.377286  1154 net.cpp:411] accuracy -> per_class_accuracy
I1123 17:47:28.377351  1154 net.cpp:150] Setting up accuracy
I1123 17:47:28.377364  1154 net.cpp:157] Top shape: (1)
I1123 17:47:28.377373  1154 net.cpp:157] Top shape: 6 (6)
I1123 17:47:28.377379  1154 net.cpp:165] Memory required for data: 6081259552
I1123 17:47:28.377387  1154 net.cpp:228] accuracy does not need backward computation.
I1123 17:47:28.377394  1154 net.cpp:226] loss needs backward computation.
I1123 17:47:28.377401  1154 net.cpp:226] enet6_0_enet6_0_0_split needs backward computation.
I1123 17:47:28.377408  1154 net.cpp:226] enet6_0 needs backward computation.
…
