…
I1122 16:36:59.398632 19112 solver.cpp:91] Creating training net from net file: /home/map/hebei/caffe_hebei/segnet/Models/enet/train_localization2.prototxt
I1122 16:36:59.402231 19112 net.cpp:49] Initializing net from parameters: 
name: "VGG_ILSVRC_16_layer"
state {
  phase: TRAIN
}
layer {
  name: "data"
  type: "ImageSegData"
  top: "data"
  top: "label"
  transform_param {
    mirror: true
    mean_value: 104.008
    mean_value: 116.669
    mean_value: 122.675
    scale_factors: 1
  }
  image_data_param {
    source: "/home/map/hebei/datasets/hadmap/trainval2.txt"
    batch_size: 4
    shuffle: true
    label_type: PIXEL
  }
}
layer {
  name: "conv1_1"
  type: "Convolution"
  bottom: "data"
  top: "conv1_1"
  param {
    lr_mult: 1
    decay_mult: 1
  }
  param {
    lr_mult: 2
    decay_mult: 0
  }
  convolution_param {
    num_output: 64
    pad: 1
    kernel_size: 3
    weight_filler {
      type: "msra"
    }
    bias_filler {
      type: "constant"
    }
  }
}
layer {
  name: "conv1_1_bn"
  type: "BN"
  bottom: "conv1_1"
  top: "conv1_1"
  param {
    lr_mult: 1
    decay_mult: 1
  }
  param {
    lr_mult: 1
    decay_mult: 0
  }
  bn_param {
    scale_filler {
      type: "constant"
      value: 1
    }
    shift_filler {
      type: "constant"
      value: 0.001
    }
  }
}
layer {
  name: "relu1_1"
  type: "ReLU"
  bottom: "conv1_1"
  top: "conv1_1"
}
layer {
  name: "conv1_2"
  type: "Convolution"
  bottom: "conv1_1"
  top: "conv1_2"
  param {
    lr_mult: 1
    decay_mult: 1
  }
  param {
    lr_mult: 2
    decay_mult: 0
  }
  convolution_param {
    num_output: 64
    pad: 1
    kernel_size: 3
    weight_filler {
      type: "msra"
    }
    bias_filler {
      type: "constant"
    }
  }
}
layer {
  name: "conv1_2_bn"
  type: "BN"
  bottom: "conv1_2"
  top: "conv1_2"
  param {
    lr_mult: 1
    decay_mult: 1
  }
  param {
    lr_mult: 1
    decay_mult: 0
  }
  bn_param {
    scale_filler {
      type: "constant"
      value: 1
    }
    shift_filler {
      type: "constant"
      value: 0.001
    }
  }
}
layer {
  name: "relu1_2"
  type: "ReLU"
  bottom: "conv1_2"
  top: "conv1_2"
}
layer {
  name: "pool1"
  type: "Pooling"
  bottom: "conv1_2"
  top: "pool1"
  top: "pool1_mask"
  pooling_param {
    pool: MAX
    kernel_size: 2
    stride: 2
  }
}
layer {
  name: "conv2_1"
  type: "Convolution"
  bottom: "pool1"
  top: "conv2_1"
  param {
    lr_mult: 1
    decay_mult: 1
  }
  param {
    lr_mult: 2
    decay_mult: 0
  }
  convolution_param {
    num_output: 128
    pad: 1
    kernel_size: 3
    weight_filler {
      type: "msra"
    }
    bias_filler {
      type: "constant"
    }
  }
}
layer {
  name: "conv2_1_bn"
  type: "BN"
  bottom: "conv2_1"
  top: "conv2_1"
  param {
    lr_mult: 1
    decay_mult: 1
  }
  param {
    lr_mult: 1
    decay_mult: 0
  }
  bn_param {
    scale_filler {
      type: "constant"
      value: 1
    }
    shift_filler {
      type: "constant"
      value: 0.001
    }
  }
}
layer {
  name: "relu2_1"
  type: "ReLU"
  bottom: "conv2_1"
  top: "conv2_1"
}
layer {
  name: "conv2_2"
  type: "Convolution"
  bottom: "conv2_1"
  top: "conv2_2"
  param {
    lr_mult: 1
    decay_mult: 1
  }
  param {
    lr_mult: 2
    decay_mult: 0
  }
  convolution_param {
    num_output: 128
    pad: 1
    kernel_size: 3
    weight_filler {
      type: "msra"
    }
    bias_filler {
      type: "constant"
    }
  }
}
layer {
  name: "conv2_2_bn"
  type: "BN"
  bottom: "conv2_2"
  top: "conv2_2"
  param {
    lr_mult: 1
    decay_mult: 1
  }
  param {
    lr_mult: 1
    decay_mult: 0
  }
  bn_param {
    scale_filler {
      type: "constant"
      value: 1
    }
    shift_filler {
      type: "constant"
      value: 0.001
    }
  }
}
layer {
  name: "relu2_2"
  type: "ReLU"
  bottom: "conv2_2"
  top: "conv2_2"
}
layer {
  name: "pool2"
  type: "Pooling"
  bottom: "conv2_2"
  top: "pool2"
  top: "pool2_mask"
  pooling_param {
    pool: MAX
    kernel_size: 2
    stride: 2
  }
}
layer {
  name: "conv3_1"
  type: "Convolution"
  bottom: "pool2"
  top: "conv3_1"
  param {
    lr_mult: 1
    decay_mult: 1
  }
  param {
    lr_mult: 2
    decay_mult: 0
  }
  convolution_param {
    num_output: 256
    pad: 1
    kernel_size: 3
    weight_filler {
      type: "msra"
    }
    bias_filler {
      type: "constant"
    }
  }
}
layer {
  name: "conv3_1_bn"
  type: "BN"
  bottom: "conv3_1"
  top: "conv3_1"
  param {
    lr_mult: 1
    decay_mult: 1
  }
  param {
    lr_mult: 1
    decay_mult: 0
  }
  bn_param {
    scale_filler {
      type: "constant"
      value: 1
    }
    shift_filler {
      type: "constant"
      value: 0.001
    }
  }
}
layer {
  name: "relu3_1"
  type: "ReLU"
  bottom: "conv3_1"
  top: "conv3_1"
}
layer {
  name: "conv3_2"
  type: "Convolution"
  bottom: "conv3_1"
  top: "conv3_2"
  param {
    lr_mult: 1
    decay_mult: 1
  }
  param {
    lr_mult: 2
    decay_mult: 0
  }
  convolution_param {
    num_output: 256
    pad: 1
    kernel_size: 3
    weight_filler {
      type: "msra"
    }
    bias_filler {
      type: "constant"
    }
  }
}
layer {
  name: "conv3_2_bn"
  type: "BN"
  bottom: "conv3_2"
  top: "conv3_2"
  param {
    lr_mult: 1
    decay_mult: 1
  }
  param {
    lr_mult: 1
    decay_mult: 0
  }
  bn_param {
    scale_filler {
      type: "constant"
      value: 1
    }
    shift_filler {
      type: "constant"
      value: 0.001
    }
  }
}
layer {
  name: "relu3_2"
  type: "ReLU"
  bottom: "conv3_2"
  top: "conv3_2"
}
layer {
  name: "conv3_3"
  type: "Convolution"
  bottom: "conv3_2"
  top: "conv3_3"
  param {
    lr_mult: 1
    decay_mult: 1
  }
  param {
    lr_mult: 2
    decay_mult: 0
  }
  convolution_param {
    num_output: 256
    pad: 1
    kernel_size: 3
    weight_filler {
      type: "msra"
    }
    bias_filler {
      type: "constant"
    }
  }
}
layer {
  name: "conv3_3_bn"
  type: "BN"
  bottom: "conv3_3"
  top: "conv3_3"
  param {
    lr_mult: 1
    decay_mult: 1
  }
  param {
    lr_mult: 1
    decay_mult: 0
  }
  bn_param {
    scale_filler {
      type: "constant"
      value: 1
    }
    shift_filler {
      type: "constant"
      value: 0.001
    }
  }
}
layer {
  name: "relu3_3"
  type: "ReLU"
  bottom: "conv3_3"
  top: "conv3_3"
}
layer {
  name: "pool3"
  type: "Pooling"
  bottom: "conv3_3"
  top: "pool3"
  top: "pool3_mask"
  pooling_param {
    pool: MAX
    kernel_size: 2
    stride: 2
  }
}
layer {
  name: "conv4_1"
  type: "Convolution"
  bottom: "pool3"
  top: "conv4_1"
  param {
    lr_mult: 1
    decay_mult: 1
  }
  param {
    lr_mult: 2
    decay_mult: 0
  }
  convolution_param {
    num_output: 512
    pad: 1
    kernel_size: 3
    weight_filler {
      type: "msra"
    }
    bias_filler {
      type: "constant"
    }
  }
}
layer {
  name: "conv4_1_bn"
  type: "BN"
  bottom: "conv4_1"
  top: "conv4_1"
  param {
    lr_mult: 1
    decay_mult: 1
  }
  param {
    lr_mult: 1
    decay_mult: 0
  }
  bn_param {
    scale_filler {
      type: "constant"
      value: 1
    }
    shift_filler {
      type: "constant"
      value: 0.001
    }
  }
}
layer {
  name: "relu4_1"
  type: "ReLU"
  bottom: "conv4_1"
  top: "conv4_1"
}
layer {
  name: "conv4_2"
  type: "Convolution"
  bottom: "conv4_1"
  top: "conv4_2"
  param {
    lr_mult: 1
    decay_mult: 1
  }
  param {
    lr_mult: 2
    decay_mult: 0
  }
  convolution_param {
    num_output: 512
    pad: 1
    kernel_size: 3
    weight_filler {
      type: "msra"
    }
    bias_filler {
      type: "constant"
    }
  }
}
layer {
  name: "conv4_2_bn"
  type: "BN"
  bottom: "conv4_2"
  top: "conv4_2"
  param {
    lr_mult: 1
    decay_mult: 1
  }
  param {
    lr_mult: 1
    decay_mult: 0
  }
  bn_param {
    scale_filler {
      type: "constant"
      value: 1
    }
    shift_filler {
      type: "constant"
      value: 0.001
    }
  }
}
layer {
  name: "relu4_2"
  type: "ReLU"
  bottom: "conv4_2"
  top: "conv4_2"
}
layer {
  name: "conv4_3"
  type: "Convolution"
  bottom: "conv4_2"
  top: "conv4_3"
  param {
    lr_mult: 1
    decay_mult: 1
  }
  param {
    lr_mult: 2
    decay_mult: 0
  }
  convolution_param {
    num_output: 512
    pad: 1
    kernel_size: 3
    weight_filler {
      type: "msra"
    }
    bias_filler {
      type: "constant"
    }
  }
}
layer {
  name: "conv4_3_bn"
  type: "BN"
  bottom: "conv4_3"
  top: "conv4_3"
  param {
    lr_mult: 1
    decay_mult: 1
  }
  param {
    lr_mult: 1
    decay_mult: 0
  }
  bn_param {
    scale_filler {
      type: "constant"
      value: 1
    }
    shift_filler {
      type: "constant"
      value: 0.001
    }
  }
}
layer {
  name: "relu4_3"
  type: "ReLU"
  bottom: "conv4_3"
  top: "conv4_3"
}
layer {
  name: "pool4"
  type: "Pooling"
  bottom: "conv4_3"
  top: "pool4"
  top: "pool4_mask"
  pooling_param {
    pool: MAX
    kernel_size: 2
    stride: 2
  }
}
layer {
  name: "conv5_1"
  type: "Convolution"
  bottom: "pool4"
  top: "conv5_1"
  param {
    lr_mult: 1
    decay_mult: 1
  }
  param {
    lr_mult: 2
    decay_mult: 0
  }
  convolution_param {
    num_output: 512
    pad: 1
    kernel_size: 3
    weight_filler {
      type: "msra"
    }
    bias_filler {
      type: "constant"
    }
  }
}
layer {
  name: "conv5_1_bn"
  type: "BN"
  bottom: "conv5_1"
  top: "conv5_1"
  param {
    lr_mult: 1
    decay_mult: 1
  }
  param {
    lr_mult: 1
    decay_mult: 0
  }
  bn_param {
    scale_filler {
      type: "constant"
      value: 1
    }
    shift_filler {
      type: "constant"
      value: 0.001
    }
  }
}
layer {
  name: "relu5_1"
  type: "ReLU"
  bottom: "conv5_1"
  top: "conv5_1"
}
layer {
  name: "conv5_2"
  type: "Convolution"
  bottom: "conv5_1"
  top: "conv5_2"
  param {
    lr_mult: 1
    decay_mult: 1
  }
  param {
    lr_mult: 2
    decay_mult: 0
  }
  convolution_param {
    num_output: 512
    pad: 1
    kernel_size: 3
    weight_filler {
      type: "msra"
    }
    bias_filler {
      type: "constant"
    }
  }
}
layer {
  name: "conv5_2_bn"
  type: "BN"
  bottom: "conv5_2"
  top: "conv5_2"
  param {
    lr_mult: 1
    decay_mult: 1
  }
  param {
    lr_mult: 1
    decay_mult: 0
  }
  bn_param {
    scale_filler {
      type: "constant"
      value: 1
    }
    shift_filler {
      type: "constant"
      value: 0.001
    }
  }
}
layer {
  name: "relu5_2"
  type: "ReLU"
  bottom: "conv5_2"
  top: "conv5_2"
}
layer {
  name: "conv5_3"
  type: "Convolution"
  bottom: "conv5_2"
  top: "conv5_3"
  param {
    lr_mult: 1
    decay_mult: 1
  }
  param {
    lr_mult: 2
    decay_mult: 0
  }
  convolution_param {
    num_output: 512
    pad: 1
    kernel_size: 3
    weight_filler {
      type: "msra"
    }
    bias_filler {
      type: "constant"
    }
  }
}
layer {
  name: "conv5_3_bn"
  type: "BN"
  bottom: "conv5_3"
  top: "conv5_3"
  param {
    lr_mult: 1
    decay_mult: 1
  }
  param {
    lr_mult: 1
    decay_mult: 0
  }
  bn_param {
    scale_filler {
      type: "constant"
      value: 1
    }
    shift_filler {
      type: "constant"
      value: 0.001
    }
  }
}
layer {
  name: "relu5_3"
  type: "ReLU"
  bottom: "conv5_3"
  top: "conv5_3"
}
layer {
  name: "pool5"
  type: "Pooling"
  bottom: "conv5_3"
  top: "pool5"
  top: "pool5_mask"
  pooling_param {
    pool: MAX
    kernel_size: 2
    stride: 2
  }
}
layer {
  name: "upsample5"
  type: "Upsample"
  bottom: "pool5"
  bottom: "pool5_mask"
  top: "pool5_D"
  upsample_param {
    scale: 2
  }
}
layer {
  name: "conv5_3_D"
  type: "Convolution"
  bottom: "pool5_D"
  top: "conv5_3_D"
  param {
    lr_mult: 1
    decay_mult: 1
  }
  param {
    lr_mult: 2
    decay_mult: 0
  }
  convolution_param {
    num_output: 512
    pad: 1
    kernel_size: 3
    weight_filler {
      type: "msra"
    }
    bias_filler {
      type: "constant"
    }
  }
}
layer {
  name: "conv5_3_D_bn"
  type: "BN"
  bottom: "conv5_3_D"
  top: "conv5_3_D"
  param {
    lr_mult: 1
    decay_mult: 1
  }
  param {
    lr_mult: 1
    decay_mult: 0
  }
  bn_param {
    scale_filler {
      type: "constant"
      value: 1
    }
    shift_filler {
      type: "constant"
      value: 0.001
    }
  }
}
layer {
  name: "relu5_3_D"
  type: "ReLU"
  bottom: "conv5_3_D"
  top: "conv5_3_D"
}
layer {
  name: "conv5_2_D"
  type: "Convolution"
  bottom: "conv5_3_D"
  top: "conv5_2_D"
  param {
    lr_mult: 1
    decay_mult: 1
  }
  param {
    lr_mult: 2
    decay_mult: 0
  }
  convolution_param {
    num_output: 512
    pad: 1
    kernel_size: 3
    weight_filler {
      type: "msra"
    }
    bias_filler {
      type: "constant"
    }
  }
}
layer {
  name: "conv5_2_D_bn"
  type: "BN"
  bottom: "conv5_2_D"
  top: "conv5_2_D"
  param {
    lr_mult: 1
    decay_mult: 1
  }
  param {
    lr_mult: 1
    decay_mult: 0
  }
  bn_param {
    scale_filler {
      type: "constant"
      value: 1
    }
    shift_filler {
      type: "constant"
      value: 0.001
    }
  }
}
layer {
  name: "relu5_2_D"
  type: "ReLU"
  bottom: "conv5_2_D"
  top: "conv5_2_D"
}
layer {
  name: "conv5_1_D"
  type: "Convolution"
  bottom: "conv5_2_D"
  top: "conv5_1_D"
  param {
    lr_mult: 1
    decay_mult: 1
  }
  param {
    lr_mult: 2
    decay_mult: 0
  }
  convolution_param {
    num_output: 512
    pad: 1
    kernel_size: 3
    weight_filler {
      type: "msra"
    }
    bias_filler {
      type: "constant"
    }
  }
}
layer {
  name: "conv5_1_D_bn"
  type: "BN"
  bottom: "conv5_1_D"
  top: "conv5_1_D"
  param {
    lr_mult: 1
    decay_mult: 1
  }
  param {
    lr_mult: 1
    decay_mult: 0
  }
  bn_param {
    scale_filler {
      type: "constant"
      value: 1
    }
    shift_filler {
      type: "constant"
      value: 0.001
    }
  }
}
layer {
  name: "relu5_1_D"
  type: "ReLU"
  bottom: "conv5_1_D"
  top: "conv5_1_D"
}
layer {
  name: "upsample4"
  type: "Upsample"
  bottom: "conv5_1_D"
  bottom: "pool4_mask"
  top: "pool4_D"
  upsample_param {
    scale: 2
  }
}
layer {
  name: "conv4_3_D"
  type: "Convolution"
  bottom: "pool4_D"
  top: "conv4_3_D"
  param {
    lr_mult: 1
    decay_mult: 1
  }
  param {
    lr_mult: 2
    decay_mult: 0
  }
  convolution_param {
    num_output: 512
    pad: 1
    kernel_size: 3
    weight_filler {
      type: "msra"
    }
    bias_filler {
      type: "constant"
    }
  }
}
layer {
  name: "conv4_3_D_bn"
  type: "BN"
  bottom: "conv4_3_D"
  top: "conv4_3_D"
  param {
    lr_mult: 1
    decay_mult: 1
  }
  param {
    lr_mult: 1
    decay_mult: 0
  }
  bn_param {
    scale_filler {
      type: "constant"
      value: 1
    }
    shift_filler {
      type: "constant"
      value: 0.001
    }
  }
}
layer {
  name: "relu4_3_D"
  type: "ReLU"
  bottom: "conv4_3_D"
  top: "conv4_3_D"
}
layer {
  name: "conv4_2_D"
  type: "Convolution"
  bottom: "conv4_3_D"
  top: "conv4_2_D"
  param {
    lr_mult: 1
    decay_mult: 1
  }
  param {
    lr_mult: 2
    decay_mult: 0
  }
  convolution_param {
    num_output: 512
    pad: 1
    kernel_size: 3
    weight_filler {
      type: "msra"
    }
    bias_filler {
      type: "constant"
    }
  }
}
layer {
  name: "conv4_2_D_bn"
  type: "BN"
  bottom: "conv4_2_D"
  top: "conv4_2_D"
  param {
    lr_mult: 1
    decay_mult: 1
  }
  param {
    lr_mult: 1
    decay_mult: 0
  }
  bn_param {
    scale_filler {
      type: "constant"
      value: 1
    }
    shift_filler {
      type: "constant"
      value: 0.001
    }
  }
}
layer {
  name: "relu4_2_D"
  type: "ReLU"
  bottom: "conv4_2_D"
  top: "conv4_2_D"
}
layer {
  name: "conv4_1_D"
  type: "Convolution"
  bottom: "conv4_2_D"
  top: "conv4_1_D"
  param {
    lr_mult: 1
    decay_mult: 1
  }
  param {
    lr_mult: 2
    decay_mult: 0
  }
  convolution_param {
    num_output: 256
    pad: 1
    kernel_size: 3
    weight_filler {
      type: "msra"
    }
    bias_filler {
      type: "constant"
    }
  }
}
layer {
  name: "conv4_1_D_bn"
  type: "BN"
  bottom: "conv4_1_D"
  top: "conv4_1_D"
  param {
    lr_mult: 1
    decay_mult: 1
  }
  param {
    lr_mult: 1
    decay_mult: 0
  }
  bn_param {
    scale_filler {
      type: "constant"
      value: 1
    }
    shift_filler {
      type: "constant"
      value: 0.001
    }
  }
}
layer {
  name: "relu4_1_D"
  type: "ReLU"
  bottom: "conv4_1_D"
  top: "conv4_1_D"
}
layer {
  name: "upsample3"
  type: "Upsample"
  bottom: "conv4_1_D"
  bottom: "pool3_mask"
  top: "pool3_D"
  upsample_param {
    scale: 2
  }
}
layer {
  name: "conv3_3_D"
  type: "Convolution"
  bottom: "pool3_D"
  top: "conv3_3_D"
  param {
    lr_mult: 1
    decay_mult: 1
  }
  param {
    lr_mult: 2
    decay_mult: 0
  }
  convolution_param {
    num_output: 256
    pad: 1
    kernel_size: 3
    weight_filler {
      type: "msra"
    }
    bias_filler {
      type: "constant"
    }
  }
}
layer {
  name: "conv3_3_D_bn"
  type: "BN"
  bottom: "conv3_3_D"
  top: "conv3_3_D"
  param {
    lr_mult: 1
    decay_mult: 1
  }
  param {
    lr_mult: 1
    decay_mult: 0
  }
  bn_param {
    scale_filler {
      type: "constant"
      value: 1
    }
    shift_filler {
      type: "constant"
      value: 0.001
    }
  }
}
layer {
  name: "relu3_3_D"
  type: "ReLU"
  bottom: "conv3_3_D"
  top: "conv3_3_D"
}
layer {
  name: "conv3_2_D"
  type: "Convolution"
  bottom: "conv3_3_D"
  top: "conv3_2_D"
  param {
    lr_mult: 1
    decay_mult: 1
  }
  param {
    lr_mult: 2
    decay_mult: 0
  }
  convolution_param {
    num_output: 256
    pad: 1
    kernel_size: 3
    weight_filler {
      type: "msra"
    }
    bias_filler {
      type: "constant"
    }
  }
}
layer {
  name: "conv3_2_D_bn"
  type: "BN"
  bottom: "conv3_2_D"
  top: "conv3_2_D"
  param {
    lr_mult: 1
    decay_mult: 1
  }
  param {
    lr_mult: 1
    decay_mult: 0
  }
  bn_param {
    scale_filler {
      type: "constant"
      value: 1
    }
    shift_filler {
      type: "constant"
      value: 0.001
    }
  }
}
layer {
  name: "relu3_2_D"
  type: "ReLU"
  bottom: "conv3_2_D"
  top: "conv3_2_D"
}
layer {
  name: "conv3_1_D"
  type: "Convolution"
  bottom: "conv3_2_D"
  top: "conv3_1_D"
  param {
    lr_mult: 1
    decay_mult: 1
  }
  param {
    lr_mult: 2
    decay_mult: 0
  }
  convolution_param {
    num_output: 128
    pad: 1
    kernel_size: 3
    weight_filler {
      type: "msra"
    }
    bias_filler {
      type: "constant"
    }
  }
}
layer {
  name: "conv3_1_D_bn"
  type: "BN"
  bottom: "conv3_1_D"
  top: "conv3_1_D"
  param {
    lr_mult: 1
    decay_mult: 1
  }
  param {
    lr_mult: 1
    decay_mult: 0
  }
  bn_param {
    scale_filler {
      type: "constant"
      value: 1
    }
    shift_filler {
      type: "constant"
      value: 0.001
    }
  }
}
layer {
  name: "relu3_1_D"
  type: "ReLU"
  bottom: "conv3_1_D"
  top: "conv3_1_D"
}
layer {
  name: "upsample2"
  type: "Upsample"
  bottom: "conv3_1_D"
  bottom: "pool2_mask"
  top: "pool2_D"
  upsample_param {
    scale: 2
  }
}
layer {
  name: "conv2_2_D"
  type: "Convolution"
  bottom: "pool2_D"
  top: "conv2_2_D"
  param {
    lr_mult: 1
    decay_mult: 1
  }
  param {
    lr_mult: 2
    decay_mult: 0
  }
  convolution_param {
    num_output: 128
    pad: 1
    kernel_size: 3
    weight_filler {
      type: "msra"
    }
    bias_filler {
      type: "constant"
    }
  }
}
layer {
  name: "conv2_2_D_bn"
  type: "BN"
  bottom: "conv2_2_D"
  top: "conv2_2_D"
  param {
    lr_mult: 1
    decay_mult: 1
  }
  param {
    lr_mult: 1
    decay_mult: 0
  }
  bn_param {
    scale_filler {
      type: "constant"
      value: 1
    }
    shift_filler {
      type: "constant"
      value: 0.001
    }
  }
}
layer {
  name: "relu2_2_D"
  type: "ReLU"
  bottom: "conv2_2_D"
  top: "conv2_2_D"
}
layer {
  name: "conv2_1_D"
  type: "Convolution"
  bottom: "conv2_2_D"
  top: "conv2_1_D"
  param {
    lr_mult: 1
    decay_mult: 1
  }
  param {
    lr_mult: 2
    decay_mult: 0
  }
  convolution_param {
    num_output: 64
    pad: 1
    kernel_size: 3
    weight_filler {
      type: "msra"
    }
    bias_filler {
      type: "constant"
    }
  }
}
layer {
  name: "conv2_1_D_bn"
  type: "BN"
  bottom: "conv2_1_D"
  top: "conv2_1_D"
  param {
    lr_mult: 1
    decay_mult: 1
  }
  param {
    lr_mult: 1
    decay_mult: 0
  }
  bn_param {
    scale_filler {
      type: "constant"
      value: 1
    }
    shift_filler {
      type: "constant"
      value: 0.001
    }
  }
}
layer {
  name: "relu2_1_D"
  type: "ReLU"
  bottom: "conv2_1_D"
  top: "conv2_1_D"
}
layer {
  name: "upsample1"
  type: "Upsample"
  bottom: "conv2_1_D"
  bottom: "pool1_mask"
  top: "pool1_D"
  upsample_param {
    scale: 2
  }
}
layer {
  name: "conv1_2_D"
  type: "Convolution"
  bottom: "pool1_D"
  top: "conv1_2_D"
  param {
    lr_mult: 1
    decay_mult: 1
  }
  param {
    lr_mult: 2
    decay_mult: 0
  }
  convolution_param {
    num_output: 64
    pad: 1
    kernel_size: 3
    weight_filler {
      type: "msra"
    }
    bias_filler {
      type: "constant"
    }
  }
}
layer {
  name: "conv1_2_D_bn"
  type: "BN"
  bottom: "conv1_2_D"
  top: "conv1_2_D"
  param {
    lr_mult: 1
    decay_mult: 1
  }
  param {
    lr_mult: 1
    decay_mult: 0
  }
  bn_param {
    scale_filler {
      type: "constant"
      value: 1
    }
    shift_filler {
      type: "constant"
      value: 0.001
    }
  }
}
layer {
  name: "relu1_2_D"
  type: "ReLU"
  bottom: "conv1_2_D"
  top: "conv1_2_D"
}
layer {
  name: "conv1_1_D"
  type: "Convolution"
  bottom: "conv1_2_D"
  top: "conv1_1_D"
  param {
    lr_mult: 1
    decay_mult: 1
  }
  param {
    lr_mult: 2
    decay_mult: 0
  }
  convolution_param {
    num_output: 6
    pad: 1
    kernel_size: 3
    weight_filler {
      type: "msra"
    }
    bias_filler {
      type: "constant"
    }
  }
}
layer {
  name: "loss"
  type: "SoftmaxWithLoss"
  bottom: "conv1_1_D"
  bottom: "label"
  top: "loss"
  loss_param {
    ignore_label: 6
    weight_by_label_freqs: true
    class_weighting: 0.074744
    class_weighting: 0.057467
    class_weighting: 1
    class_weighting: 3.9562919
    class_weighting: 3.232702
    class_weighting: 0.232792
  }
  softmax_param {
    engine: CAFFE
  }
}
layer {
  name: "accuracy"
  type: "Accuracy"
  bottom: "conv1_1_D"
  bottom: "label"
  top: "accuracy"
  top: "per_class_accuracy"
}
I1122 16:36:59.402742 19112 layer_factory.hpp:77] Creating layer data
I1122 16:36:59.402818 19112 net.cpp:106] Creating Layer data
I1122 16:36:59.402833 19112 net.cpp:411] data -> data
I1122 16:36:59.402876 19112 net.cpp:411] data -> label
I1122 16:36:59.402900 19112 net.cpp:411] data -> (automatic)
I1122 16:36:59.403496 19112 image_seg_data_layer.cpp:46] Opening file /home/map/hebei/datasets/hadmap/trainval2.txt
I1122 16:36:59.478117 19112 image_seg_data_layer.cpp:63] Shuffling data
I1122 16:36:59.487503 19112 image_seg_data_layer.cpp:68] A total of 50890 images.
I1122 16:36:59.510983 19112 image_seg_data_layer.cpp:137] output data size: 4,3,224,448
I1122 16:36:59.511004 19112 image_seg_data_layer.cpp:141] output label size: 4,1,224,448
I1122 16:36:59.511011 19112 image_seg_data_layer.cpp:145] output data_dim size: 4,1,1,2
I1122 16:36:59.545919 19112 net.cpp:150] Setting up data
I1122 16:36:59.545961 19112 net.cpp:157] Top shape: 4 3 224 448 (1204224)
I1122 16:36:59.545974 19112 net.cpp:157] Top shape: 4 1 224 448 (401408)
I1122 16:36:59.545982 19112 net.cpp:157] Top shape: 4 1 1 2 (8)
I1122 16:36:59.545989 19112 net.cpp:165] Memory required for data: 6422560
I1122 16:36:59.546002 19112 layer_factory.hpp:77] Creating layer label_data_1_split
I1122 16:36:59.546022 19112 net.cpp:106] Creating Layer label_data_1_split
I1122 16:36:59.546033 19112 net.cpp:454] label_data_1_split <- label
I1122 16:36:59.546061 19112 net.cpp:411] label_data_1_split -> label_data_1_split_0
I1122 16:36:59.546079 19112 net.cpp:411] label_data_1_split -> label_data_1_split_1
I1122 16:36:59.546175 19112 net.cpp:150] Setting up label_data_1_split
I1122 16:36:59.546188 19112 net.cpp:157] Top shape: 4 1 224 448 (401408)
I1122 16:36:59.546197 19112 net.cpp:157] Top shape: 4 1 224 448 (401408)
I1122 16:36:59.546203 19112 net.cpp:165] Memory required for data: 9633824
I1122 16:36:59.546211 19112 layer_factory.hpp:77] Creating layer conv1_1
I1122 16:36:59.546239 19112 net.cpp:106] Creating Layer conv1_1
I1122 16:36:59.546277 19112 net.cpp:454] conv1_1 <- data
I1122 16:36:59.546288 19112 net.cpp:411] conv1_1 -> conv1_1
I1122 16:36:59.548585 19112 net.cpp:150] Setting up conv1_1
I1122 16:36:59.548604 19112 net.cpp:157] Top shape: 4 64 224 448 (25690112)
I1122 16:36:59.548610 19112 net.cpp:165] Memory required for data: 112394272
I1122 16:36:59.548635 19112 layer_factory.hpp:77] Creating layer conv1_1_bn
I1122 16:36:59.548652 19112 net.cpp:106] Creating Layer conv1_1_bn
I1122 16:36:59.548660 19112 net.cpp:454] conv1_1_bn <- conv1_1
I1122 16:36:59.548671 19112 net.cpp:397] conv1_1_bn -> conv1_1 (in-place)
I1122 16:36:59.550662 19112 net.cpp:150] Setting up conv1_1_bn
I1122 16:36:59.550681 19112 net.cpp:157] Top shape: 4 64 224 448 (25690112)
I1122 16:36:59.550688 19112 net.cpp:165] Memory required for data: 215154720
I1122 16:36:59.550703 19112 layer_factory.hpp:77] Creating layer relu1_1
I1122 16:36:59.550717 19112 net.cpp:106] Creating Layer relu1_1
I1122 16:36:59.550725 19112 net.cpp:454] relu1_1 <- conv1_1
I1122 16:36:59.550735 19112 net.cpp:397] relu1_1 -> conv1_1 (in-place)
I1122 16:36:59.550750 19112 net.cpp:150] Setting up relu1_1
I1122 16:36:59.550760 19112 net.cpp:157] Top shape: 4 64 224 448 (25690112)
I1122 16:36:59.550765 19112 net.cpp:165] Memory required for data: 317915168
I1122 16:36:59.550771 19112 layer_factory.hpp:77] Creating layer conv1_2
I1122 16:36:59.550786 19112 net.cpp:106] Creating Layer conv1_2
I1122 16:36:59.550792 19112 net.cpp:454] conv1_2 <- conv1_1
I1122 16:36:59.550803 19112 net.cpp:411] conv1_2 -> conv1_2
I1122 16:36:59.552953 19112 net.cpp:150] Setting up conv1_2
I1122 16:36:59.552970 19112 net.cpp:157] Top shape: 4 64 224 448 (25690112)
I1122 16:36:59.552978 19112 net.cpp:165] Memory required for data: 420675616
I1122 16:36:59.552991 19112 layer_factory.hpp:77] Creating layer conv1_2_bn
I1122 16:36:59.553004 19112 net.cpp:106] Creating Layer conv1_2_bn
I1122 16:36:59.553011 19112 net.cpp:454] conv1_2_bn <- conv1_2
I1122 16:36:59.553022 19112 net.cpp:397] conv1_2_bn -> conv1_2 (in-place)
I1122 16:36:59.554257 19112 net.cpp:150] Setting up conv1_2_bn
I1122 16:36:59.554275 19112 net.cpp:157] Top shape: 4 64 224 448 (25690112)
I1122 16:36:59.554281 19112 net.cpp:165] Memory required for data: 523436064
I1122 16:36:59.554291 19112 layer_factory.hpp:77] Creating layer relu1_2
I1122 16:36:59.554301 19112 net.cpp:106] Creating Layer relu1_2
I1122 16:36:59.554308 19112 net.cpp:454] relu1_2 <- conv1_2
I1122 16:36:59.554317 19112 net.cpp:397] relu1_2 -> conv1_2 (in-place)
I1122 16:36:59.554328 19112 net.cpp:150] Setting up relu1_2
I1122 16:36:59.554337 19112 net.cpp:157] Top shape: 4 64 224 448 (25690112)
I1122 16:36:59.554342 19112 net.cpp:165] Memory required for data: 626196512
I1122 16:36:59.554348 19112 layer_factory.hpp:77] Creating layer pool1
I1122 16:36:59.554364 19112 net.cpp:106] Creating Layer pool1
I1122 16:36:59.554371 19112 net.cpp:454] pool1 <- conv1_2
I1122 16:36:59.554381 19112 net.cpp:411] pool1 -> pool1
I1122 16:36:59.554396 19112 net.cpp:411] pool1 -> pool1_mask
I1122 16:36:59.554452 19112 net.cpp:150] Setting up pool1
I1122 16:36:59.554466 19112 net.cpp:157] Top shape: 4 64 112 224 (6422528)
I1122 16:36:59.554473 19112 net.cpp:157] Top shape: 4 64 112 224 (6422528)
I1122 16:36:59.554481 19112 net.cpp:165] Memory required for data: 677576736
I1122 16:36:59.554486 19112 layer_factory.hpp:77] Creating layer conv2_1
I1122 16:36:59.554500 19112 net.cpp:106] Creating Layer conv2_1
I1122 16:36:59.554507 19112 net.cpp:454] conv2_1 <- pool1
I1122 16:36:59.554519 19112 net.cpp:411] conv2_1 -> conv2_1
I1122 16:36:59.557523 19112 net.cpp:150] Setting up conv2_1
I1122 16:36:59.557540 19112 net.cpp:157] Top shape: 4 128 112 224 (12845056)
I1122 16:36:59.557548 19112 net.cpp:165] Memory required for data: 728956960
I1122 16:36:59.557562 19112 layer_factory.hpp:77] Creating layer conv2_1_bn
I1122 16:36:59.557575 19112 net.cpp:106] Creating Layer conv2_1_bn
I1122 16:36:59.557582 19112 net.cpp:454] conv2_1_bn <- conv2_1
I1122 16:36:59.557592 19112 net.cpp:397] conv2_1_bn -> conv2_1 (in-place)
I1122 16:36:59.557831 19112 net.cpp:150] Setting up conv2_1_bn
I1122 16:36:59.557845 19112 net.cpp:157] Top shape: 4 128 112 224 (12845056)
I1122 16:36:59.557852 19112 net.cpp:165] Memory required for data: 780337184
I1122 16:36:59.557862 19112 layer_factory.hpp:77] Creating layer relu2_1
I1122 16:36:59.557871 19112 net.cpp:106] Creating Layer relu2_1
I1122 16:36:59.557878 19112 net.cpp:454] relu2_1 <- conv2_1
I1122 16:36:59.557888 19112 net.cpp:397] relu2_1 -> conv2_1 (in-place)
I1122 16:36:59.557898 19112 net.cpp:150] Setting up relu2_1
I1122 16:36:59.557905 19112 net.cpp:157] Top shape: 4 128 112 224 (12845056)
I1122 16:36:59.557911 19112 net.cpp:165] Memory required for data: 831717408
I1122 16:36:59.557917 19112 layer_factory.hpp:77] Creating layer conv2_2
I1122 16:36:59.557930 19112 net.cpp:106] Creating Layer conv2_2
I1122 16:36:59.557936 19112 net.cpp:454] conv2_2 <- conv2_1
I1122 16:36:59.557946 19112 net.cpp:411] conv2_2 -> conv2_2
I1122 16:36:59.561869 19112 net.cpp:150] Setting up conv2_2
I1122 16:36:59.561885 19112 net.cpp:157] Top shape: 4 128 112 224 (12845056)
I1122 16:36:59.561892 19112 net.cpp:165] Memory required for data: 883097632
I1122 16:36:59.561902 19112 layer_factory.hpp:77] Creating layer conv2_2_bn
I1122 16:36:59.561916 19112 net.cpp:106] Creating Layer conv2_2_bn
I1122 16:36:59.561923 19112 net.cpp:454] conv2_2_bn <- conv2_2
I1122 16:36:59.561933 19112 net.cpp:397] conv2_2_bn -> conv2_2 (in-place)
I1122 16:36:59.562373 19112 net.cpp:150] Setting up conv2_2_bn
I1122 16:36:59.562388 19112 net.cpp:157] Top shape: 4 128 112 224 (12845056)
I1122 16:36:59.562394 19112 net.cpp:165] Memory required for data: 934477856
I1122 16:36:59.562404 19112 layer_factory.hpp:77] Creating layer relu2_2
I1122 16:36:59.562414 19112 net.cpp:106] Creating Layer relu2_2
I1122 16:36:59.562420 19112 net.cpp:454] relu2_2 <- conv2_2
I1122 16:36:59.562429 19112 net.cpp:397] relu2_2 -> conv2_2 (in-place)
I1122 16:36:59.562439 19112 net.cpp:150] Setting up relu2_2
I1122 16:36:59.562448 19112 net.cpp:157] Top shape: 4 128 112 224 (12845056)
I1122 16:36:59.562453 19112 net.cpp:165] Memory required for data: 985858080
I1122 16:36:59.562460 19112 layer_factory.hpp:77] Creating layer pool2
I1122 16:36:59.562469 19112 net.cpp:106] Creating Layer pool2
I1122 16:36:59.562475 19112 net.cpp:454] pool2 <- conv2_2
I1122 16:36:59.562484 19112 net.cpp:411] pool2 -> pool2
I1122 16:36:59.562495 19112 net.cpp:411] pool2 -> pool2_mask
I1122 16:36:59.562541 19112 net.cpp:150] Setting up pool2
I1122 16:36:59.562553 19112 net.cpp:157] Top shape: 4 128 56 112 (3211264)
I1122 16:36:59.562561 19112 net.cpp:157] Top shape: 4 128 56 112 (3211264)
I1122 16:36:59.562566 19112 net.cpp:165] Memory required for data: 1011548192
I1122 16:36:59.562573 19112 layer_factory.hpp:77] Creating layer conv3_1
I1122 16:36:59.562593 19112 net.cpp:106] Creating Layer conv3_1
I1122 16:36:59.562602 19112 net.cpp:454] conv3_1 <- pool2
I1122 16:36:59.562611 19112 net.cpp:411] conv3_1 -> conv3_1
I1122 16:36:59.572163 19112 net.cpp:150] Setting up conv3_1
I1122 16:36:59.572182 19112 net.cpp:157] Top shape: 4 256 56 112 (6422528)
I1122 16:36:59.572190 19112 net.cpp:165] Memory required for data: 1037238304
I1122 16:36:59.572207 19112 layer_factory.hpp:77] Creating layer conv3_1_bn
I1122 16:36:59.572221 19112 net.cpp:106] Creating Layer conv3_1_bn
I1122 16:36:59.572227 19112 net.cpp:454] conv3_1_bn <- conv3_1
I1122 16:36:59.572240 19112 net.cpp:397] conv3_1_bn -> conv3_1 (in-place)
I1122 16:36:59.572463 19112 net.cpp:150] Setting up conv3_1_bn
I1122 16:36:59.572476 19112 net.cpp:157] Top shape: 4 256 56 112 (6422528)
I1122 16:36:59.572482 19112 net.cpp:165] Memory required for data: 1062928416
I1122 16:36:59.572492 19112 layer_factory.hpp:77] Creating layer relu3_1
I1122 16:36:59.572504 19112 net.cpp:106] Creating Layer relu3_1
I1122 16:36:59.572511 19112 net.cpp:454] relu3_1 <- conv3_1
I1122 16:36:59.572520 19112 net.cpp:397] relu3_1 -> conv3_1 (in-place)
I1122 16:36:59.572530 19112 net.cpp:150] Setting up relu3_1
I1122 16:36:59.572546 19112 net.cpp:157] Top shape: 4 256 56 112 (6422528)
I1122 16:36:59.572558 19112 net.cpp:165] Memory required for data: 1088618528
I1122 16:36:59.572566 19112 layer_factory.hpp:77] Creating layer conv3_2
I1122 16:36:59.572578 19112 net.cpp:106] Creating Layer conv3_2
I1122 16:36:59.572585 19112 net.cpp:454] conv3_2 <- conv3_1
I1122 16:36:59.572597 19112 net.cpp:411] conv3_2 -> conv3_2
I1122 16:36:59.589820 19112 net.cpp:150] Setting up conv3_2
I1122 16:36:59.589838 19112 net.cpp:157] Top shape: 4 256 56 112 (6422528)
I1122 16:36:59.589845 19112 net.cpp:165] Memory required for data: 1114308640
I1122 16:36:59.589856 19112 layer_factory.hpp:77] Creating layer conv3_2_bn
I1122 16:36:59.589870 19112 net.cpp:106] Creating Layer conv3_2_bn
I1122 16:36:59.589879 19112 net.cpp:454] conv3_2_bn <- conv3_2
I1122 16:36:59.589891 19112 net.cpp:397] conv3_2_bn -> conv3_2 (in-place)
I1122 16:36:59.590116 19112 net.cpp:150] Setting up conv3_2_bn
I1122 16:36:59.590131 19112 net.cpp:157] Top shape: 4 256 56 112 (6422528)
I1122 16:36:59.590137 19112 net.cpp:165] Memory required for data: 1139998752
I1122 16:36:59.590147 19112 layer_factory.hpp:77] Creating layer relu3_2
I1122 16:36:59.590155 19112 net.cpp:106] Creating Layer relu3_2
I1122 16:36:59.590162 19112 net.cpp:454] relu3_2 <- conv3_2
I1122 16:36:59.590174 19112 net.cpp:397] relu3_2 -> conv3_2 (in-place)
I1122 16:36:59.590185 19112 net.cpp:150] Setting up relu3_2
I1122 16:36:59.590193 19112 net.cpp:157] Top shape: 4 256 56 112 (6422528)
I1122 16:36:59.590199 19112 net.cpp:165] Memory required for data: 1165688864
I1122 16:36:59.590205 19112 layer_factory.hpp:77] Creating layer conv3_3
I1122 16:36:59.590217 19112 net.cpp:106] Creating Layer conv3_3
I1122 16:36:59.590224 19112 net.cpp:454] conv3_3 <- conv3_2
I1122 16:36:59.590234 19112 net.cpp:411] conv3_3 -> conv3_3
I1122 16:36:59.607503 19112 net.cpp:150] Setting up conv3_3
I1122 16:36:59.607523 19112 net.cpp:157] Top shape: 4 256 56 112 (6422528)
I1122 16:36:59.607530 19112 net.cpp:165] Memory required for data: 1191378976
I1122 16:36:59.607540 19112 layer_factory.hpp:77] Creating layer conv3_3_bn
I1122 16:36:59.607553 19112 net.cpp:106] Creating Layer conv3_3_bn
I1122 16:36:59.607559 19112 net.cpp:454] conv3_3_bn <- conv3_3
I1122 16:36:59.607573 19112 net.cpp:397] conv3_3_bn -> conv3_3 (in-place)
I1122 16:36:59.607797 19112 net.cpp:150] Setting up conv3_3_bn
I1122 16:36:59.607810 19112 net.cpp:157] Top shape: 4 256 56 112 (6422528)
I1122 16:36:59.607816 19112 net.cpp:165] Memory required for data: 1217069088
I1122 16:36:59.607826 19112 layer_factory.hpp:77] Creating layer relu3_3
I1122 16:36:59.607836 19112 net.cpp:106] Creating Layer relu3_3
I1122 16:36:59.607842 19112 net.cpp:454] relu3_3 <- conv3_3
I1122 16:36:59.607851 19112 net.cpp:397] relu3_3 -> conv3_3 (in-place)
I1122 16:36:59.607861 19112 net.cpp:150] Setting up relu3_3
I1122 16:36:59.607869 19112 net.cpp:157] Top shape: 4 256 56 112 (6422528)
I1122 16:36:59.607875 19112 net.cpp:165] Memory required for data: 1242759200
I1122 16:36:59.607882 19112 layer_factory.hpp:77] Creating layer pool3
I1122 16:36:59.607892 19112 net.cpp:106] Creating Layer pool3
I1122 16:36:59.607897 19112 net.cpp:454] pool3 <- conv3_3
I1122 16:36:59.607909 19112 net.cpp:411] pool3 -> pool3
I1122 16:36:59.607923 19112 net.cpp:411] pool3 -> pool3_mask
I1122 16:36:59.607973 19112 net.cpp:150] Setting up pool3
I1122 16:36:59.607986 19112 net.cpp:157] Top shape: 4 256 28 56 (1605632)
I1122 16:36:59.607995 19112 net.cpp:157] Top shape: 4 256 28 56 (1605632)
I1122 16:36:59.608000 19112 net.cpp:165] Memory required for data: 1255604256
I1122 16:36:59.608007 19112 layer_factory.hpp:77] Creating layer conv4_1
I1122 16:36:59.608026 19112 net.cpp:106] Creating Layer conv4_1
I1122 16:36:59.608034 19112 net.cpp:454] conv4_1 <- pool3
I1122 16:36:59.608048 19112 net.cpp:411] conv4_1 -> conv4_1
I1122 16:36:59.643045 19112 net.cpp:150] Setting up conv4_1
I1122 16:36:59.643069 19112 net.cpp:157] Top shape: 4 512 28 56 (3211264)
I1122 16:36:59.643075 19112 net.cpp:165] Memory required for data: 1268449312
I1122 16:36:59.643095 19112 layer_factory.hpp:77] Creating layer conv4_1_bn
I1122 16:36:59.643122 19112 net.cpp:106] Creating Layer conv4_1_bn
I1122 16:36:59.643131 19112 net.cpp:454] conv4_1_bn <- conv4_1
I1122 16:36:59.643141 19112 net.cpp:397] conv4_1_bn -> conv4_1 (in-place)
I1122 16:36:59.643369 19112 net.cpp:150] Setting up conv4_1_bn
I1122 16:36:59.643383 19112 net.cpp:157] Top shape: 4 512 28 56 (3211264)
I1122 16:36:59.643388 19112 net.cpp:165] Memory required for data: 1281294368
I1122 16:36:59.643399 19112 layer_factory.hpp:77] Creating layer relu4_1
I1122 16:36:59.643409 19112 net.cpp:106] Creating Layer relu4_1
I1122 16:36:59.643415 19112 net.cpp:454] relu4_1 <- conv4_1
I1122 16:36:59.643424 19112 net.cpp:397] relu4_1 -> conv4_1 (in-place)
I1122 16:36:59.643435 19112 net.cpp:150] Setting up relu4_1
I1122 16:36:59.643442 19112 net.cpp:157] Top shape: 4 512 28 56 (3211264)
I1122 16:36:59.643448 19112 net.cpp:165] Memory required for data: 1294139424
I1122 16:36:59.643455 19112 layer_factory.hpp:77] Creating layer conv4_2
I1122 16:36:59.643471 19112 net.cpp:106] Creating Layer conv4_2
I1122 16:36:59.643478 19112 net.cpp:454] conv4_2 <- conv4_1
I1122 16:36:59.643494 19112 net.cpp:411] conv4_2 -> conv4_2
I1122 16:36:59.732370 19112 net.cpp:150] Setting up conv4_2
I1122 16:36:59.732405 19112 net.cpp:157] Top shape: 4 512 28 56 (3211264)
I1122 16:36:59.732412 19112 net.cpp:165] Memory required for data: 1306984480
I1122 16:36:59.732437 19112 layer_factory.hpp:77] Creating layer conv4_2_bn
I1122 16:36:59.732457 19112 net.cpp:106] Creating Layer conv4_2_bn
I1122 16:36:59.732465 19112 net.cpp:454] conv4_2_bn <- conv4_2
I1122 16:36:59.732481 19112 net.cpp:397] conv4_2_bn -> conv4_2 (in-place)
I1122 16:36:59.732717 19112 net.cpp:150] Setting up conv4_2_bn
I1122 16:36:59.732730 19112 net.cpp:157] Top shape: 4 512 28 56 (3211264)
I1122 16:36:59.732736 19112 net.cpp:165] Memory required for data: 1319829536
I1122 16:36:59.732746 19112 layer_factory.hpp:77] Creating layer relu4_2
I1122 16:36:59.732759 19112 net.cpp:106] Creating Layer relu4_2
I1122 16:36:59.732766 19112 net.cpp:454] relu4_2 <- conv4_2
I1122 16:36:59.732775 19112 net.cpp:397] relu4_2 -> conv4_2 (in-place)
I1122 16:36:59.732786 19112 net.cpp:150] Setting up relu4_2
I1122 16:36:59.732795 19112 net.cpp:157] Top shape: 4 512 28 56 (3211264)
I1122 16:36:59.732801 19112 net.cpp:165] Memory required for data: 1332674592
I1122 16:36:59.732807 19112 layer_factory.hpp:77] Creating layer conv4_3
I1122 16:36:59.732827 19112 net.cpp:106] Creating Layer conv4_3
I1122 16:36:59.732834 19112 net.cpp:454] conv4_3 <- conv4_2
I1122 16:36:59.732848 19112 net.cpp:411] conv4_3 -> conv4_3
I1122 16:36:59.800601 19112 net.cpp:150] Setting up conv4_3
I1122 16:36:59.800632 19112 net.cpp:157] Top shape: 4 512 28 56 (3211264)
I1122 16:36:59.800639 19112 net.cpp:165] Memory required for data: 1345519648
I1122 16:36:59.800652 19112 layer_factory.hpp:77] Creating layer conv4_3_bn
I1122 16:36:59.800671 19112 net.cpp:106] Creating Layer conv4_3_bn
I1122 16:36:59.800679 19112 net.cpp:454] conv4_3_bn <- conv4_3
I1122 16:36:59.800694 19112 net.cpp:397] conv4_3_bn -> conv4_3 (in-place)
I1122 16:36:59.800928 19112 net.cpp:150] Setting up conv4_3_bn
I1122 16:36:59.800941 19112 net.cpp:157] Top shape: 4 512 28 56 (3211264)
I1122 16:36:59.800947 19112 net.cpp:165] Memory required for data: 1358364704
I1122 16:36:59.800961 19112 layer_factory.hpp:77] Creating layer relu4_3
I1122 16:36:59.800972 19112 net.cpp:106] Creating Layer relu4_3
I1122 16:36:59.800978 19112 net.cpp:454] relu4_3 <- conv4_3
I1122 16:36:59.800987 19112 net.cpp:397] relu4_3 -> conv4_3 (in-place)
I1122 16:36:59.800998 19112 net.cpp:150] Setting up relu4_3
I1122 16:36:59.801007 19112 net.cpp:157] Top shape: 4 512 28 56 (3211264)
I1122 16:36:59.801013 19112 net.cpp:165] Memory required for data: 1371209760
I1122 16:36:59.801019 19112 layer_factory.hpp:77] Creating layer pool4
I1122 16:36:59.801029 19112 net.cpp:106] Creating Layer pool4
I1122 16:36:59.801036 19112 net.cpp:454] pool4 <- conv4_3
I1122 16:36:59.801048 19112 net.cpp:411] pool4 -> pool4
I1122 16:36:59.801075 19112 net.cpp:411] pool4 -> pool4_mask
I1122 16:36:59.801136 19112 net.cpp:150] Setting up pool4
I1122 16:36:59.801148 19112 net.cpp:157] Top shape: 4 512 14 28 (802816)
I1122 16:36:59.801156 19112 net.cpp:157] Top shape: 4 512 14 28 (802816)
I1122 16:36:59.801162 19112 net.cpp:165] Memory required for data: 1377632288
I1122 16:36:59.801168 19112 layer_factory.hpp:77] Creating layer conv5_1
I1122 16:36:59.801188 19112 net.cpp:106] Creating Layer conv5_1
I1122 16:36:59.801195 19112 net.cpp:454] conv5_1 <- pool4
I1122 16:36:59.801206 19112 net.cpp:411] conv5_1 -> conv5_1
I1122 16:36:59.869051 19112 net.cpp:150] Setting up conv5_1
I1122 16:36:59.869079 19112 net.cpp:157] Top shape: 4 512 14 28 (802816)
I1122 16:36:59.869087 19112 net.cpp:165] Memory required for data: 1380843552
I1122 16:36:59.869099 19112 layer_factory.hpp:77] Creating layer conv5_1_bn
I1122 16:36:59.869118 19112 net.cpp:106] Creating Layer conv5_1_bn
I1122 16:36:59.869127 19112 net.cpp:454] conv5_1_bn <- conv5_1
I1122 16:36:59.869138 19112 net.cpp:397] conv5_1_bn -> conv5_1 (in-place)
I1122 16:36:59.869370 19112 net.cpp:150] Setting up conv5_1_bn
I1122 16:36:59.869385 19112 net.cpp:157] Top shape: 4 512 14 28 (802816)
I1122 16:36:59.869390 19112 net.cpp:165] Memory required for data: 1384054816
I1122 16:36:59.869400 19112 layer_factory.hpp:77] Creating layer relu5_1
I1122 16:36:59.869410 19112 net.cpp:106] Creating Layer relu5_1
I1122 16:36:59.869416 19112 net.cpp:454] relu5_1 <- conv5_1
I1122 16:36:59.869426 19112 net.cpp:397] relu5_1 -> conv5_1 (in-place)
I1122 16:36:59.869436 19112 net.cpp:150] Setting up relu5_1
I1122 16:36:59.869444 19112 net.cpp:157] Top shape: 4 512 14 28 (802816)
I1122 16:36:59.869451 19112 net.cpp:165] Memory required for data: 1387266080
I1122 16:36:59.869457 19112 layer_factory.hpp:77] Creating layer conv5_2
I1122 16:36:59.869473 19112 net.cpp:106] Creating Layer conv5_2
I1122 16:36:59.869480 19112 net.cpp:454] conv5_2 <- conv5_1
I1122 16:36:59.869493 19112 net.cpp:411] conv5_2 -> conv5_2
I1122 16:36:59.937043 19112 net.cpp:150] Setting up conv5_2
I1122 16:36:59.937072 19112 net.cpp:157] Top shape: 4 512 14 28 (802816)
I1122 16:36:59.937078 19112 net.cpp:165] Memory required for data: 1390477344
I1122 16:36:59.937090 19112 layer_factory.hpp:77] Creating layer conv5_2_bn
I1122 16:36:59.937109 19112 net.cpp:106] Creating Layer conv5_2_bn
I1122 16:36:59.937117 19112 net.cpp:454] conv5_2_bn <- conv5_2
I1122 16:36:59.937132 19112 net.cpp:397] conv5_2_bn -> conv5_2 (in-place)
I1122 16:36:59.937363 19112 net.cpp:150] Setting up conv5_2_bn
I1122 16:36:59.937376 19112 net.cpp:157] Top shape: 4 512 14 28 (802816)
I1122 16:36:59.937382 19112 net.cpp:165] Memory required for data: 1393688608
I1122 16:36:59.937392 19112 layer_factory.hpp:77] Creating layer relu5_2
I1122 16:36:59.937403 19112 net.cpp:106] Creating Layer relu5_2
I1122 16:36:59.937409 19112 net.cpp:454] relu5_2 <- conv5_2
I1122 16:36:59.937418 19112 net.cpp:397] relu5_2 -> conv5_2 (in-place)
I1122 16:36:59.937429 19112 net.cpp:150] Setting up relu5_2
I1122 16:36:59.937438 19112 net.cpp:157] Top shape: 4 512 14 28 (802816)
I1122 16:36:59.937443 19112 net.cpp:165] Memory required for data: 1396899872
I1122 16:36:59.937449 19112 layer_factory.hpp:77] Creating layer conv5_3
I1122 16:36:59.937468 19112 net.cpp:106] Creating Layer conv5_3
I1122 16:36:59.937474 19112 net.cpp:454] conv5_3 <- conv5_2
I1122 16:36:59.937484 19112 net.cpp:411] conv5_3 -> conv5_3
I1122 16:37:00.004539 19112 net.cpp:150] Setting up conv5_3
I1122 16:37:00.004565 19112 net.cpp:157] Top shape: 4 512 14 28 (802816)
I1122 16:37:00.004571 19112 net.cpp:165] Memory required for data: 1400111136
I1122 16:37:00.004582 19112 layer_factory.hpp:77] Creating layer conv5_3_bn
I1122 16:37:00.004598 19112 net.cpp:106] Creating Layer conv5_3_bn
I1122 16:37:00.004606 19112 net.cpp:454] conv5_3_bn <- conv5_3
I1122 16:37:00.004626 19112 net.cpp:397] conv5_3_bn -> conv5_3 (in-place)
I1122 16:37:00.004854 19112 net.cpp:150] Setting up conv5_3_bn
I1122 16:37:00.004868 19112 net.cpp:157] Top shape: 4 512 14 28 (802816)
I1122 16:37:00.004884 19112 net.cpp:165] Memory required for data: 1403322400
I1122 16:37:00.004906 19112 layer_factory.hpp:77] Creating layer relu5_3
I1122 16:37:00.004917 19112 net.cpp:106] Creating Layer relu5_3
I1122 16:37:00.004923 19112 net.cpp:454] relu5_3 <- conv5_3
I1122 16:37:00.004935 19112 net.cpp:397] relu5_3 -> conv5_3 (in-place)
I1122 16:37:00.004946 19112 net.cpp:150] Setting up relu5_3
I1122 16:37:00.004959 19112 net.cpp:157] Top shape: 4 512 14 28 (802816)
I1122 16:37:00.004966 19112 net.cpp:165] Memory required for data: 1406533664
I1122 16:37:00.004971 19112 layer_factory.hpp:77] Creating layer pool5
I1122 16:37:00.004982 19112 net.cpp:106] Creating Layer pool5
I1122 16:37:00.004988 19112 net.cpp:454] pool5 <- conv5_3
I1122 16:37:00.004997 19112 net.cpp:411] pool5 -> pool5
I1122 16:37:00.005009 19112 net.cpp:411] pool5 -> pool5_mask
I1122 16:37:00.005058 19112 net.cpp:150] Setting up pool5
I1122 16:37:00.005069 19112 net.cpp:157] Top shape: 4 512 7 14 (200704)
I1122 16:37:00.005079 19112 net.cpp:157] Top shape: 4 512 7 14 (200704)
I1122 16:37:00.005084 19112 net.cpp:165] Memory required for data: 1408139296
I1122 16:37:00.005090 19112 layer_factory.hpp:77] Creating layer upsample5
I1122 16:37:00.005110 19112 net.cpp:106] Creating Layer upsample5
I1122 16:37:00.005116 19112 net.cpp:454] upsample5 <- pool5
I1122 16:37:00.005125 19112 net.cpp:454] upsample5 <- pool5_mask
I1122 16:37:00.005132 19112 net.cpp:411] upsample5 -> pool5_D
I1122 16:37:00.005152 19112 upsample_layer.cpp:31] Params 'pad_out_{}_' are deprecated. Please declare upsample height and width useing the upsample_h, upsample_w parameters.
I1122 16:37:00.005187 19112 net.cpp:150] Setting up upsample5
I1122 16:37:00.005198 19112 net.cpp:157] Top shape: 4 512 14 28 (802816)
I1122 16:37:00.005204 19112 net.cpp:165] Memory required for data: 1411350560
I1122 16:37:00.005210 19112 layer_factory.hpp:77] Creating layer conv5_3_D
I1122 16:37:00.005228 19112 net.cpp:106] Creating Layer conv5_3_D
I1122 16:37:00.005234 19112 net.cpp:454] conv5_3_D <- pool5_D
I1122 16:37:00.005247 19112 net.cpp:411] conv5_3_D -> conv5_3_D
I1122 16:37:00.072324 19112 net.cpp:150] Setting up conv5_3_D
I1122 16:37:00.072350 19112 net.cpp:157] Top shape: 4 512 14 28 (802816)
I1122 16:37:00.072356 19112 net.cpp:165] Memory required for data: 1414561824
I1122 16:37:00.072368 19112 layer_factory.hpp:77] Creating layer conv5_3_D_bn
I1122 16:37:00.072384 19112 net.cpp:106] Creating Layer conv5_3_D_bn
I1122 16:37:00.072393 19112 net.cpp:454] conv5_3_D_bn <- conv5_3_D
I1122 16:37:00.072407 19112 net.cpp:397] conv5_3_D_bn -> conv5_3_D (in-place)
I1122 16:37:00.072645 19112 net.cpp:150] Setting up conv5_3_D_bn
I1122 16:37:00.072659 19112 net.cpp:157] Top shape: 4 512 14 28 (802816)
I1122 16:37:00.072665 19112 net.cpp:165] Memory required for data: 1417773088
I1122 16:37:00.072675 19112 layer_factory.hpp:77] Creating layer relu5_3_D
I1122 16:37:00.072688 19112 net.cpp:106] Creating Layer relu5_3_D
I1122 16:37:00.072695 19112 net.cpp:454] relu5_3_D <- conv5_3_D
I1122 16:37:00.072705 19112 net.cpp:397] relu5_3_D -> conv5_3_D (in-place)
I1122 16:37:00.072715 19112 net.cpp:150] Setting up relu5_3_D
I1122 16:37:00.072723 19112 net.cpp:157] Top shape: 4 512 14 28 (802816)
I1122 16:37:00.072729 19112 net.cpp:165] Memory required for data: 1420984352
I1122 16:37:00.072736 19112 layer_factory.hpp:77] Creating layer conv5_2_D
I1122 16:37:00.072749 19112 net.cpp:106] Creating Layer conv5_2_D
I1122 16:37:00.072757 19112 net.cpp:454] conv5_2_D <- conv5_3_D
I1122 16:37:00.072769 19112 net.cpp:411] conv5_2_D -> conv5_2_D
I1122 16:37:00.139717 19112 net.cpp:150] Setting up conv5_2_D
I1122 16:37:00.139742 19112 net.cpp:157] Top shape: 4 512 14 28 (802816)
I1122 16:37:00.139750 19112 net.cpp:165] Memory required for data: 1424195616
I1122 16:37:00.139761 19112 layer_factory.hpp:77] Creating layer conv5_2_D_bn
I1122 16:37:00.139777 19112 net.cpp:106] Creating Layer conv5_2_D_bn
I1122 16:37:00.139786 19112 net.cpp:454] conv5_2_D_bn <- conv5_2_D
I1122 16:37:00.139799 19112 net.cpp:397] conv5_2_D_bn -> conv5_2_D (in-place)
I1122 16:37:00.140054 19112 net.cpp:150] Setting up conv5_2_D_bn
I1122 16:37:00.140081 19112 net.cpp:157] Top shape: 4 512 14 28 (802816)
I1122 16:37:00.140089 19112 net.cpp:165] Memory required for data: 1427406880
I1122 16:37:00.140099 19112 layer_factory.hpp:77] Creating layer relu5_2_D
I1122 16:37:00.140111 19112 net.cpp:106] Creating Layer relu5_2_D
I1122 16:37:00.140118 19112 net.cpp:454] relu5_2_D <- conv5_2_D
I1122 16:37:00.140127 19112 net.cpp:397] relu5_2_D -> conv5_2_D (in-place)
I1122 16:37:00.140138 19112 net.cpp:150] Setting up relu5_2_D
I1122 16:37:00.140146 19112 net.cpp:157] Top shape: 4 512 14 28 (802816)
I1122 16:37:00.140152 19112 net.cpp:165] Memory required for data: 1430618144
I1122 16:37:00.140158 19112 layer_factory.hpp:77] Creating layer conv5_1_D
I1122 16:37:00.140172 19112 net.cpp:106] Creating Layer conv5_1_D
I1122 16:37:00.140178 19112 net.cpp:454] conv5_1_D <- conv5_2_D
I1122 16:37:00.140192 19112 net.cpp:411] conv5_1_D -> conv5_1_D
I1122 16:37:00.207124 19112 net.cpp:150] Setting up conv5_1_D
I1122 16:37:00.207151 19112 net.cpp:157] Top shape: 4 512 14 28 (802816)
I1122 16:37:00.207159 19112 net.cpp:165] Memory required for data: 1433829408
I1122 16:37:00.207170 19112 layer_factory.hpp:77] Creating layer conv5_1_D_bn
I1122 16:37:00.207185 19112 net.cpp:106] Creating Layer conv5_1_D_bn
I1122 16:37:00.207195 19112 net.cpp:454] conv5_1_D_bn <- conv5_1_D
I1122 16:37:00.207207 19112 net.cpp:397] conv5_1_D_bn -> conv5_1_D (in-place)
I1122 16:37:00.207447 19112 net.cpp:150] Setting up conv5_1_D_bn
I1122 16:37:00.207459 19112 net.cpp:157] Top shape: 4 512 14 28 (802816)
I1122 16:37:00.207466 19112 net.cpp:165] Memory required for data: 1437040672
I1122 16:37:00.207476 19112 layer_factory.hpp:77] Creating layer relu5_1_D
I1122 16:37:00.207486 19112 net.cpp:106] Creating Layer relu5_1_D
I1122 16:37:00.207492 19112 net.cpp:454] relu5_1_D <- conv5_1_D
I1122 16:37:00.207501 19112 net.cpp:397] relu5_1_D -> conv5_1_D (in-place)
I1122 16:37:00.207512 19112 net.cpp:150] Setting up relu5_1_D
I1122 16:37:00.207520 19112 net.cpp:157] Top shape: 4 512 14 28 (802816)
I1122 16:37:00.207526 19112 net.cpp:165] Memory required for data: 1440251936
I1122 16:37:00.207533 19112 layer_factory.hpp:77] Creating layer upsample4
I1122 16:37:00.207543 19112 net.cpp:106] Creating Layer upsample4
I1122 16:37:00.207551 19112 net.cpp:454] upsample4 <- conv5_1_D
I1122 16:37:00.207558 19112 net.cpp:454] upsample4 <- pool4_mask
I1122 16:37:00.207567 19112 net.cpp:411] upsample4 -> pool4_D
I1122 16:37:00.207583 19112 upsample_layer.cpp:31] Params 'pad_out_{}_' are deprecated. Please declare upsample height and width useing the upsample_h, upsample_w parameters.
I1122 16:37:00.207615 19112 net.cpp:150] Setting up upsample4
I1122 16:37:00.207630 19112 net.cpp:157] Top shape: 4 512 28 56 (3211264)
I1122 16:37:00.207636 19112 net.cpp:165] Memory required for data: 1453096992
I1122 16:37:00.207643 19112 layer_factory.hpp:77] Creating layer conv4_3_D
I1122 16:37:00.207656 19112 net.cpp:106] Creating Layer conv4_3_D
I1122 16:37:00.207664 19112 net.cpp:454] conv4_3_D <- pool4_D
I1122 16:37:00.207677 19112 net.cpp:411] conv4_3_D -> conv4_3_D
I1122 16:37:00.274960 19112 net.cpp:150] Setting up conv4_3_D
I1122 16:37:00.274982 19112 net.cpp:157] Top shape: 4 512 28 56 (3211264)
I1122 16:37:00.274989 19112 net.cpp:165] Memory required for data: 1465942048
I1122 16:37:00.275019 19112 layer_factory.hpp:77] Creating layer conv4_3_D_bn
I1122 16:37:00.275035 19112 net.cpp:106] Creating Layer conv4_3_D_bn
I1122 16:37:00.275043 19112 net.cpp:454] conv4_3_D_bn <- conv4_3_D
I1122 16:37:00.275054 19112 net.cpp:397] conv4_3_D_bn -> conv4_3_D (in-place)
I1122 16:37:00.275292 19112 net.cpp:150] Setting up conv4_3_D_bn
I1122 16:37:00.275306 19112 net.cpp:157] Top shape: 4 512 28 56 (3211264)
I1122 16:37:00.275312 19112 net.cpp:165] Memory required for data: 1478787104
I1122 16:37:00.275322 19112 layer_factory.hpp:77] Creating layer relu4_3_D
I1122 16:37:00.275332 19112 net.cpp:106] Creating Layer relu4_3_D
I1122 16:37:00.275348 19112 net.cpp:454] relu4_3_D <- conv4_3_D
I1122 16:37:00.275368 19112 net.cpp:397] relu4_3_D -> conv4_3_D (in-place)
I1122 16:37:00.275380 19112 net.cpp:150] Setting up relu4_3_D
I1122 16:37:00.275388 19112 net.cpp:157] Top shape: 4 512 28 56 (3211264)
I1122 16:37:00.275394 19112 net.cpp:165] Memory required for data: 1491632160
I1122 16:37:00.275400 19112 layer_factory.hpp:77] Creating layer conv4_2_D
I1122 16:37:00.275420 19112 net.cpp:106] Creating Layer conv4_2_D
I1122 16:37:00.275427 19112 net.cpp:454] conv4_2_D <- conv4_3_D
I1122 16:37:00.275439 19112 net.cpp:411] conv4_2_D -> conv4_2_D
I1122 16:37:00.342408 19112 net.cpp:150] Setting up conv4_2_D
I1122 16:37:00.342442 19112 net.cpp:157] Top shape: 4 512 28 56 (3211264)
I1122 16:37:00.342449 19112 net.cpp:165] Memory required for data: 1504477216
I1122 16:37:00.342461 19112 layer_factory.hpp:77] Creating layer conv4_2_D_bn
I1122 16:37:00.342479 19112 net.cpp:106] Creating Layer conv4_2_D_bn
I1122 16:37:00.342488 19112 net.cpp:454] conv4_2_D_bn <- conv4_2_D
I1122 16:37:00.342502 19112 net.cpp:397] conv4_2_D_bn -> conv4_2_D (in-place)
I1122 16:37:00.342746 19112 net.cpp:150] Setting up conv4_2_D_bn
I1122 16:37:00.342759 19112 net.cpp:157] Top shape: 4 512 28 56 (3211264)
I1122 16:37:00.342766 19112 net.cpp:165] Memory required for data: 1517322272
I1122 16:37:00.342775 19112 layer_factory.hpp:77] Creating layer relu4_2_D
I1122 16:37:00.342785 19112 net.cpp:106] Creating Layer relu4_2_D
I1122 16:37:00.342792 19112 net.cpp:454] relu4_2_D <- conv4_2_D
I1122 16:37:00.342800 19112 net.cpp:397] relu4_2_D -> conv4_2_D (in-place)
I1122 16:37:00.342811 19112 net.cpp:150] Setting up relu4_2_D
I1122 16:37:00.342819 19112 net.cpp:157] Top shape: 4 512 28 56 (3211264)
I1122 16:37:00.342825 19112 net.cpp:165] Memory required for data: 1530167328
I1122 16:37:00.342831 19112 layer_factory.hpp:77] Creating layer conv4_1_D
I1122 16:37:00.342849 19112 net.cpp:106] Creating Layer conv4_1_D
I1122 16:37:00.342855 19112 net.cpp:454] conv4_1_D <- conv4_2_D
I1122 16:37:00.342869 19112 net.cpp:411] conv4_1_D -> conv4_1_D
I1122 16:37:00.376415 19112 net.cpp:150] Setting up conv4_1_D
I1122 16:37:00.376437 19112 net.cpp:157] Top shape: 4 256 28 56 (1605632)
I1122 16:37:00.376444 19112 net.cpp:165] Memory required for data: 1536589856
I1122 16:37:00.376456 19112 layer_factory.hpp:77] Creating layer conv4_1_D_bn
I1122 16:37:00.376482 19112 net.cpp:106] Creating Layer conv4_1_D_bn
I1122 16:37:00.376490 19112 net.cpp:454] conv4_1_D_bn <- conv4_1_D
I1122 16:37:00.376504 19112 net.cpp:397] conv4_1_D_bn -> conv4_1_D (in-place)
I1122 16:37:00.376744 19112 net.cpp:150] Setting up conv4_1_D_bn
I1122 16:37:00.376757 19112 net.cpp:157] Top shape: 4 256 28 56 (1605632)
I1122 16:37:00.376763 19112 net.cpp:165] Memory required for data: 1543012384
I1122 16:37:00.376775 19112 layer_factory.hpp:77] Creating layer relu4_1_D
I1122 16:37:00.376785 19112 net.cpp:106] Creating Layer relu4_1_D
I1122 16:37:00.376791 19112 net.cpp:454] relu4_1_D <- conv4_1_D
I1122 16:37:00.376802 19112 net.cpp:397] relu4_1_D -> conv4_1_D (in-place)
I1122 16:37:00.376813 19112 net.cpp:150] Setting up relu4_1_D
I1122 16:37:00.376821 19112 net.cpp:157] Top shape: 4 256 28 56 (1605632)
I1122 16:37:00.376828 19112 net.cpp:165] Memory required for data: 1549434912
I1122 16:37:00.376834 19112 layer_factory.hpp:77] Creating layer upsample3
I1122 16:37:00.376844 19112 net.cpp:106] Creating Layer upsample3
I1122 16:37:00.376850 19112 net.cpp:454] upsample3 <- conv4_1_D
I1122 16:37:00.376859 19112 net.cpp:454] upsample3 <- pool3_mask
I1122 16:37:00.376868 19112 net.cpp:411] upsample3 -> pool3_D
I1122 16:37:00.376879 19112 upsample_layer.cpp:31] Params 'pad_out_{}_' are deprecated. Please declare upsample height and width useing the upsample_h, upsample_w parameters.
I1122 16:37:00.376909 19112 net.cpp:150] Setting up upsample3
I1122 16:37:00.376920 19112 net.cpp:157] Top shape: 4 256 56 112 (6422528)
I1122 16:37:00.376926 19112 net.cpp:165] Memory required for data: 1575125024
I1122 16:37:00.376934 19112 layer_factory.hpp:77] Creating layer conv3_3_D
I1122 16:37:00.376967 19112 net.cpp:106] Creating Layer conv3_3_D
I1122 16:37:00.376986 19112 net.cpp:454] conv3_3_D <- pool3_D
I1122 16:37:00.377002 19112 net.cpp:411] conv3_3_D -> conv3_3_D
I1122 16:37:00.394049 19112 net.cpp:150] Setting up conv3_3_D
I1122 16:37:00.394068 19112 net.cpp:157] Top shape: 4 256 56 112 (6422528)
I1122 16:37:00.394074 19112 net.cpp:165] Memory required for data: 1600815136
I1122 16:37:00.394085 19112 layer_factory.hpp:77] Creating layer conv3_3_D_bn
I1122 16:37:00.394099 19112 net.cpp:106] Creating Layer conv3_3_D_bn
I1122 16:37:00.394107 19112 net.cpp:454] conv3_3_D_bn <- conv3_3_D
I1122 16:37:00.394117 19112 net.cpp:397] conv3_3_D_bn -> conv3_3_D (in-place)
I1122 16:37:00.394357 19112 net.cpp:150] Setting up conv3_3_D_bn
I1122 16:37:00.394371 19112 net.cpp:157] Top shape: 4 256 56 112 (6422528)
I1122 16:37:00.394377 19112 net.cpp:165] Memory required for data: 1626505248
I1122 16:37:00.394387 19112 layer_factory.hpp:77] Creating layer relu3_3_D
I1122 16:37:00.394397 19112 net.cpp:106] Creating Layer relu3_3_D
I1122 16:37:00.394403 19112 net.cpp:454] relu3_3_D <- conv3_3_D
I1122 16:37:00.394412 19112 net.cpp:397] relu3_3_D -> conv3_3_D (in-place)
I1122 16:37:00.394423 19112 net.cpp:150] Setting up relu3_3_D
I1122 16:37:00.394430 19112 net.cpp:157] Top shape: 4 256 56 112 (6422528)
I1122 16:37:00.394436 19112 net.cpp:165] Memory required for data: 1652195360
I1122 16:37:00.394443 19112 layer_factory.hpp:77] Creating layer conv3_2_D
I1122 16:37:00.394457 19112 net.cpp:106] Creating Layer conv3_2_D
I1122 16:37:00.394464 19112 net.cpp:454] conv3_2_D <- conv3_3_D
I1122 16:37:00.394474 19112 net.cpp:411] conv3_2_D -> conv3_2_D
I1122 16:37:00.411454 19112 net.cpp:150] Setting up conv3_2_D
I1122 16:37:00.411474 19112 net.cpp:157] Top shape: 4 256 56 112 (6422528)
I1122 16:37:00.411481 19112 net.cpp:165] Memory required for data: 1677885472
I1122 16:37:00.411491 19112 layer_factory.hpp:77] Creating layer conv3_2_D_bn
I1122 16:37:00.411506 19112 net.cpp:106] Creating Layer conv3_2_D_bn
I1122 16:37:00.411514 19112 net.cpp:454] conv3_2_D_bn <- conv3_2_D
I1122 16:37:00.411526 19112 net.cpp:397] conv3_2_D_bn -> conv3_2_D (in-place)
I1122 16:37:00.411762 19112 net.cpp:150] Setting up conv3_2_D_bn
I1122 16:37:00.411777 19112 net.cpp:157] Top shape: 4 256 56 112 (6422528)
I1122 16:37:00.411782 19112 net.cpp:165] Memory required for data: 1703575584
I1122 16:37:00.411792 19112 layer_factory.hpp:77] Creating layer relu3_2_D
I1122 16:37:00.411801 19112 net.cpp:106] Creating Layer relu3_2_D
I1122 16:37:00.411808 19112 net.cpp:454] relu3_2_D <- conv3_2_D
I1122 16:37:00.411819 19112 net.cpp:397] relu3_2_D -> conv3_2_D (in-place)
I1122 16:37:00.411830 19112 net.cpp:150] Setting up relu3_2_D
I1122 16:37:00.411839 19112 net.cpp:157] Top shape: 4 256 56 112 (6422528)
I1122 16:37:00.411844 19112 net.cpp:165] Memory required for data: 1729265696
I1122 16:37:00.411850 19112 layer_factory.hpp:77] Creating layer conv3_1_D
I1122 16:37:00.411864 19112 net.cpp:106] Creating Layer conv3_1_D
I1122 16:37:00.411870 19112 net.cpp:454] conv3_1_D <- conv3_2_D
I1122 16:37:00.411880 19112 net.cpp:411] conv3_1_D -> conv3_1_D
I1122 16:37:00.420481 19112 net.cpp:150] Setting up conv3_1_D
I1122 16:37:00.420498 19112 net.cpp:157] Top shape: 4 128 56 112 (3211264)
I1122 16:37:00.420506 19112 net.cpp:165] Memory required for data: 1742110752
I1122 16:37:00.420516 19112 layer_factory.hpp:77] Creating layer conv3_1_D_bn
I1122 16:37:00.420527 19112 net.cpp:106] Creating Layer conv3_1_D_bn
I1122 16:37:00.420534 19112 net.cpp:454] conv3_1_D_bn <- conv3_1_D
I1122 16:37:00.420547 19112 net.cpp:397] conv3_1_D_bn -> conv3_1_D (in-place)
I1122 16:37:00.420788 19112 net.cpp:150] Setting up conv3_1_D_bn
I1122 16:37:00.420801 19112 net.cpp:157] Top shape: 4 128 56 112 (3211264)
I1122 16:37:00.420807 19112 net.cpp:165] Memory required for data: 1754955808
I1122 16:37:00.420817 19112 layer_factory.hpp:77] Creating layer relu3_1_D
I1122 16:37:00.420826 19112 net.cpp:106] Creating Layer relu3_1_D
I1122 16:37:00.420833 19112 net.cpp:454] relu3_1_D <- conv3_1_D
I1122 16:37:00.420851 19112 net.cpp:397] relu3_1_D -> conv3_1_D (in-place)
I1122 16:37:00.420871 19112 net.cpp:150] Setting up relu3_1_D
I1122 16:37:00.420881 19112 net.cpp:157] Top shape: 4 128 56 112 (3211264)
I1122 16:37:00.420886 19112 net.cpp:165] Memory required for data: 1767800864
I1122 16:37:00.420892 19112 layer_factory.hpp:77] Creating layer upsample2
I1122 16:37:00.420904 19112 net.cpp:106] Creating Layer upsample2
I1122 16:37:00.420912 19112 net.cpp:454] upsample2 <- conv3_1_D
I1122 16:37:00.420919 19112 net.cpp:454] upsample2 <- pool2_mask
I1122 16:37:00.420928 19112 net.cpp:411] upsample2 -> pool2_D
I1122 16:37:00.420938 19112 upsample_layer.cpp:31] Params 'pad_out_{}_' are deprecated. Please declare upsample height and width useing the upsample_h, upsample_w parameters.
I1122 16:37:00.420974 19112 net.cpp:150] Setting up upsample2
I1122 16:37:00.420985 19112 net.cpp:157] Top shape: 4 128 112 224 (12845056)
I1122 16:37:00.420991 19112 net.cpp:165] Memory required for data: 1819181088
I1122 16:37:00.420997 19112 layer_factory.hpp:77] Creating layer conv2_2_D
I1122 16:37:00.421015 19112 net.cpp:106] Creating Layer conv2_2_D
I1122 16:37:00.421021 19112 net.cpp:454] conv2_2_D <- pool2_D
I1122 16:37:00.421035 19112 net.cpp:411] conv2_2_D -> conv2_2_D
I1122 16:37:00.425823 19112 net.cpp:150] Setting up conv2_2_D
I1122 16:37:00.425842 19112 net.cpp:157] Top shape: 4 128 112 224 (12845056)
I1122 16:37:00.425848 19112 net.cpp:165] Memory required for data: 1870561312
I1122 16:37:00.425858 19112 layer_factory.hpp:77] Creating layer conv2_2_D_bn
I1122 16:37:00.425875 19112 net.cpp:106] Creating Layer conv2_2_D_bn
I1122 16:37:00.425882 19112 net.cpp:454] conv2_2_D_bn <- conv2_2_D
I1122 16:37:00.425895 19112 net.cpp:397] conv2_2_D_bn -> conv2_2_D (in-place)
I1122 16:37:00.427053 19112 net.cpp:150] Setting up conv2_2_D_bn
I1122 16:37:00.427070 19112 net.cpp:157] Top shape: 4 128 112 224 (12845056)
I1122 16:37:00.427078 19112 net.cpp:165] Memory required for data: 1921941536
I1122 16:37:00.427088 19112 layer_factory.hpp:77] Creating layer relu2_2_D
I1122 16:37:00.427098 19112 net.cpp:106] Creating Layer relu2_2_D
I1122 16:37:00.427104 19112 net.cpp:454] relu2_2_D <- conv2_2_D
I1122 16:37:00.427114 19112 net.cpp:397] relu2_2_D -> conv2_2_D (in-place)
I1122 16:37:00.427124 19112 net.cpp:150] Setting up relu2_2_D
I1122 16:37:00.427132 19112 net.cpp:157] Top shape: 4 128 112 224 (12845056)
I1122 16:37:00.427139 19112 net.cpp:165] Memory required for data: 1973321760
I1122 16:37:00.427145 19112 layer_factory.hpp:77] Creating layer conv2_1_D
I1122 16:37:00.427160 19112 net.cpp:106] Creating Layer conv2_1_D
I1122 16:37:00.427167 19112 net.cpp:454] conv2_1_D <- conv2_2_D
I1122 16:37:00.427181 19112 net.cpp:411] conv2_1_D -> conv2_1_D
I1122 16:37:00.429301 19112 net.cpp:150] Setting up conv2_1_D
I1122 16:37:00.429316 19112 net.cpp:157] Top shape: 4 64 112 224 (6422528)
I1122 16:37:00.429322 19112 net.cpp:165] Memory required for data: 1999011872
I1122 16:37:00.429332 19112 layer_factory.hpp:77] Creating layer conv2_1_D_bn
I1122 16:37:00.429345 19112 net.cpp:106] Creating Layer conv2_1_D_bn
I1122 16:37:00.429353 19112 net.cpp:454] conv2_1_D_bn <- conv2_1_D
I1122 16:37:00.429369 19112 net.cpp:397] conv2_1_D_bn -> conv2_1_D (in-place)
I1122 16:37:00.429638 19112 net.cpp:150] Setting up conv2_1_D_bn
I1122 16:37:00.429651 19112 net.cpp:157] Top shape: 4 64 112 224 (6422528)
I1122 16:37:00.429657 19112 net.cpp:165] Memory required for data: 2024701984
I1122 16:37:00.429667 19112 layer_factory.hpp:77] Creating layer relu2_1_D
I1122 16:37:00.429677 19112 net.cpp:106] Creating Layer relu2_1_D
I1122 16:37:00.429683 19112 net.cpp:454] relu2_1_D <- conv2_1_D
I1122 16:37:00.429692 19112 net.cpp:397] relu2_1_D -> conv2_1_D (in-place)
I1122 16:37:00.429702 19112 net.cpp:150] Setting up relu2_1_D
I1122 16:37:00.429710 19112 net.cpp:157] Top shape: 4 64 112 224 (6422528)
I1122 16:37:00.429716 19112 net.cpp:165] Memory required for data: 2050392096
I1122 16:37:00.429723 19112 layer_factory.hpp:77] Creating layer upsample1
I1122 16:37:00.429738 19112 net.cpp:106] Creating Layer upsample1
I1122 16:37:00.429754 19112 net.cpp:454] upsample1 <- conv2_1_D
I1122 16:37:00.429761 19112 net.cpp:454] upsample1 <- pool1_mask
I1122 16:37:00.429770 19112 net.cpp:411] upsample1 -> pool1_D
I1122 16:37:00.429780 19112 upsample_layer.cpp:31] Params 'pad_out_{}_' are deprecated. Please declare upsample height and width useing the upsample_h, upsample_w parameters.
I1122 16:37:00.429814 19112 net.cpp:150] Setting up upsample1
I1122 16:37:00.429826 19112 net.cpp:157] Top shape: 4 64 224 448 (25690112)
I1122 16:37:00.429832 19112 net.cpp:165] Memory required for data: 2153152544
I1122 16:37:00.429838 19112 layer_factory.hpp:77] Creating layer conv1_2_D
I1122 16:37:00.429853 19112 net.cpp:106] Creating Layer conv1_2_D
I1122 16:37:00.429860 19112 net.cpp:454] conv1_2_D <- pool1_D
I1122 16:37:00.429872 19112 net.cpp:411] conv1_2_D -> conv1_2_D
I1122 16:37:00.431999 19112 net.cpp:150] Setting up conv1_2_D
I1122 16:37:00.432016 19112 net.cpp:157] Top shape: 4 64 224 448 (25690112)
I1122 16:37:00.432024 19112 net.cpp:165] Memory required for data: 2255912992
I1122 16:37:00.432034 19112 layer_factory.hpp:77] Creating layer conv1_2_D_bn
I1122 16:37:00.432050 19112 net.cpp:106] Creating Layer conv1_2_D_bn
I1122 16:37:00.432060 19112 net.cpp:454] conv1_2_D_bn <- conv1_2_D
I1122 16:37:00.432070 19112 net.cpp:397] conv1_2_D_bn -> conv1_2_D (in-place)
I1122 16:37:00.433323 19112 net.cpp:150] Setting up conv1_2_D_bn
I1122 16:37:00.433341 19112 net.cpp:157] Top shape: 4 64 224 448 (25690112)
I1122 16:37:00.433347 19112 net.cpp:165] Memory required for data: 2358673440
I1122 16:37:00.433358 19112 layer_factory.hpp:77] Creating layer relu1_2_D
I1122 16:37:00.433368 19112 net.cpp:106] Creating Layer relu1_2_D
I1122 16:37:00.433374 19112 net.cpp:454] relu1_2_D <- conv1_2_D
I1122 16:37:00.433387 19112 net.cpp:397] relu1_2_D -> conv1_2_D (in-place)
I1122 16:37:00.433398 19112 net.cpp:150] Setting up relu1_2_D
I1122 16:37:00.433406 19112 net.cpp:157] Top shape: 4 64 224 448 (25690112)
I1122 16:37:00.433413 19112 net.cpp:165] Memory required for data: 2461433888
I1122 16:37:00.433418 19112 layer_factory.hpp:77] Creating layer conv1_1_D
I1122 16:37:00.433434 19112 net.cpp:106] Creating Layer conv1_1_D
I1122 16:37:00.433440 19112 net.cpp:454] conv1_1_D <- conv1_2_D
I1122 16:37:00.433450 19112 net.cpp:411] conv1_1_D -> conv1_1_D
I1122 16:37:00.433894 19112 net.cpp:150] Setting up conv1_1_D
I1122 16:37:00.433912 19112 net.cpp:157] Top shape: 4 6 224 448 (2408448)
I1122 16:37:00.433918 19112 net.cpp:165] Memory required for data: 2471067680
I1122 16:37:00.433928 19112 layer_factory.hpp:77] Creating layer conv1_1_D_conv1_1_D_0_split
I1122 16:37:00.433938 19112 net.cpp:106] Creating Layer conv1_1_D_conv1_1_D_0_split
I1122 16:37:00.433943 19112 net.cpp:454] conv1_1_D_conv1_1_D_0_split <- conv1_1_D
I1122 16:37:00.433956 19112 net.cpp:411] conv1_1_D_conv1_1_D_0_split -> conv1_1_D_conv1_1_D_0_split_0
I1122 16:37:00.433969 19112 net.cpp:411] conv1_1_D_conv1_1_D_0_split -> conv1_1_D_conv1_1_D_0_split_1
I1122 16:37:00.434022 19112 net.cpp:150] Setting up conv1_1_D_conv1_1_D_0_split
I1122 16:37:00.434036 19112 net.cpp:157] Top shape: 4 6 224 448 (2408448)
I1122 16:37:00.434043 19112 net.cpp:157] Top shape: 4 6 224 448 (2408448)
I1122 16:37:00.434049 19112 net.cpp:165] Memory required for data: 2490335264
I1122 16:37:00.434056 19112 layer_factory.hpp:77] Creating layer loss
I1122 16:37:00.434075 19112 net.cpp:106] Creating Layer loss
I1122 16:37:00.434082 19112 net.cpp:454] loss <- conv1_1_D_conv1_1_D_0_split_0
I1122 16:37:00.434092 19112 net.cpp:454] loss <- label_data_1_split_0
I1122 16:37:00.434103 19112 net.cpp:411] loss -> loss
I1122 16:37:00.434132 19112 layer_factory.hpp:77] Creating layer loss
I1122 16:37:00.444121 19112 net.cpp:150] Setting up loss
I1122 16:37:00.444145 19112 net.cpp:157] Top shape: (1)
I1122 16:37:00.444152 19112 net.cpp:160]     with loss weight 1
I1122 16:37:00.444207 19112 net.cpp:165] Memory required for data: 2490335268
I1122 16:37:00.444216 19112 layer_factory.hpp:77] Creating layer accuracy
I1122 16:37:00.444243 19112 net.cpp:106] Creating Layer accuracy
I1122 16:37:00.444262 19112 net.cpp:454] accuracy <- conv1_1_D_conv1_1_D_0_split_1
I1122 16:37:00.444272 19112 net.cpp:454] accuracy <- label_data_1_split_1
I1122 16:37:00.444280 19112 net.cpp:411] accuracy -> accuracy
I1122 16:37:00.444293 19112 net.cpp:411] accuracy -> per_class_accuracy
I1122 16:37:00.444350 19112 net.cpp:150] Setting up accuracy
I1122 16:37:00.444362 19112 net.cpp:157] Top shape: (1)
I1122 16:37:00.444370 19112 net.cpp:157] Top shape: 6 (6)
I1122 16:37:00.444376 19112 net.cpp:165] Memory required for data: 2490335296
I1122 16:37:00.444383 19112 net.cpp:228] accuracy does not need backward computation.
I1122 16:37:00.444391 19112 net.cpp:226] loss needs backward computation.
I1122 16:37:00.444407 19112 net.cpp:226] conv1_1_D_conv1_1_D_0_split needs backward computation.
I1122 16:37:00.444414 19112 net.cpp:226] conv1_1_D needs backward computation.
…
