…
I1123 14:54:33.574735  3220 solver.cpp:91] Creating training net from net file: /home/map/hebei/caffe_hebei/segnet/Models/enet/enet_train.prototxt
I1123 14:54:33.583174  3220 net.cpp:49] Initializing net from parameters: 
name: "enet"
state {
  phase: TRAIN
}
layer {
  name: "data"
  type: "ImageSegData"
  top: "data"
  top: "label"
  transform_param {
    mirror: true
    mean_value: 104.008
    mean_value: 116.669
    mean_value: 122.675
    scale_factors: 1
  }
  image_data_param {
    source: "/home/map/hebei/datasets/hadmap/trainval3.txt"
    batch_size: 8
    shuffle: false
    label_type: PIXEL
  }
}
layer {
  name: "enet_initial_branch2a"
  type: "Convolution"
  bottom: "data"
  top: "enet_initial_branch2a"
  convolution_param {
    num_output: 13
    bias_term: true
    weight_filler {
      type: "msra"
    }
    bias_filler {
      type: "constant"
    }
    pad_h: 1
    pad_w: 1
    kernel_h: 3
    kernel_w: 3
    stride_h: 2
    stride_w: 2
    dilation: 1
  }
}
layer {
  name: "pool_initial_branch1a"
  type: "Pooling"
  bottom: "data"
  top: "pool_initial_branch1a"
  pooling_param {
    pool: MAX
    kernel_size: 2
    stride: 2
  }
}
layer {
  name: "enet_initial"
  type: "Concat"
  bottom: "enet_initial_branch2a"
  bottom: "pool_initial_branch1a"
  top: "enet_initial"
  concat_param {
    axis: 1
  }
}
layer {
  name: "bn_initial"
  type: "BN"
  bottom: "enet_initial"
  top: "enet_initial"
  bn_param {
    scale_filler {
      type: "constant"
      value: 1
    }
    shift_filler {
      type: "constant"
      value: 0.001
    }
  }
}
layer {
  name: "relu_initial"
  type: "PReLU"
  bottom: "enet_initial"
  top: "enet_initial"
}
layer {
  name: "enet1_0_branch2a"
  type: "Convolution"
  bottom: "enet_initial"
  top: "enet1_0_branch2a"
  convolution_param {
    num_output: 16
    bias_term: false
    weight_filler {
      type: "msra"
    }
    bias_filler {
      type: "constant"
    }
    pad_h: 1
    pad_w: 1
    kernel_h: 2
    kernel_w: 2
    stride_h: 2
    stride_w: 2
    dilation: 1
  }
}
layer {
  name: "bn1_0_branch2a"
  type: "BN"
  bottom: "enet1_0_branch2a"
  top: "enet1_0_branch2a"
  bn_param {
    scale_filler {
      type: "constant"
      value: 1
    }
    shift_filler {
      type: "constant"
      value: 0.001
    }
  }
}
layer {
  name: "relu1_0_branch2a"
  type: "PReLU"
  bottom: "enet1_0_branch2a"
  top: "enet1_0_branch2a"
}
layer {
  name: "enet1_0_branch2b"
  type: "Convolution"
  bottom: "enet1_0_branch2a"
  top: "enet1_0_branch2b"
  convolution_param {
    num_output: 16
    bias_term: true
    weight_filler {
      type: "msra"
    }
    bias_filler {
      type: "constant"
    }
    pad_h: 1
    pad_w: 1
    kernel_h: 3
    kernel_w: 3
    stride_h: 1
    stride_w: 1
    dilation: 1
  }
}
layer {
  name: "bn1_0_branch2b"
  type: "BN"
  bottom: "enet1_0_branch2b"
  top: "enet1_0_branch2b"
  bn_param {
    scale_filler {
      type: "constant"
      value: 1
    }
    shift_filler {
      type: "constant"
      value: 0.001
    }
  }
}
layer {
  name: "relu1_0_branch2b"
  type: "PReLU"
  bottom: "enet1_0_branch2b"
  top: "enet1_0_branch2b"
}
layer {
  name: "enet1_0_branch2c"
  type: "Convolution"
  bottom: "enet1_0_branch2b"
  top: "enet1_0_branch2c"
  convolution_param {
    num_output: 64
    bias_term: false
    weight_filler {
      type: "msra"
    }
    bias_filler {
      type: "constant"
    }
    pad_h: 0
    pad_w: 0
    kernel_h: 1
    kernel_w: 1
    stride_h: 1
    stride_w: 1
    dilation: 1
  }
}
layer {
  name: "bn1_0_branch2c"
  type: "BN"
  bottom: "enet1_0_branch2c"
  top: "enet1_0_branch2c"
  bn_param {
    scale_filler {
      type: "constant"
      value: 1
    }
    shift_filler {
      type: "constant"
      value: 0.001
    }
  }
}
layer {
  name: "dropout1_0_branch2c"
  type: "Dropout"
  bottom: "enet1_0_branch2c"
  top: "enet1_0_branch2c"
  dropout_param {
    dropout_ratio: 0.01
  }
}
layer {
  name: "enet1_0_branch1a"
  type: "Convolution"
  bottom: "enet_initial"
  top: "enet1_0_branch1a"
  convolution_param {
    num_output: 64
    bias_term: false
    weight_filler {
      type: "msra"
    }
    bias_filler {
      type: "constant"
    }
    pad_h: 0
    pad_w: 0
    kernel_h: 1
    kernel_w: 1
    stride_h: 1
    stride_w: 1
    dilation: 1
  }
}
layer {
  name: "bn1_0_branch1a"
  type: "BN"
  bottom: "enet1_0_branch1a"
  top: "enet1_0_branch1a"
  bn_param {
    scale_filler {
      type: "constant"
      value: 1
    }
    shift_filler {
      type: "constant"
      value: 0.001
    }
  }
}
layer {
  name: "pool1_0_branch1a"
  type: "Pooling"
  bottom: "enet1_0_branch1a"
  top: "pool1_0_branch1a"
  pooling_param {
    pool: MAX
    kernel_size: 2
    stride: 2
  }
}
layer {
  name: "enet1_0"
  type: "Eltwise"
  bottom: "pool1_0_branch1a"
  bottom: "enet1_0_branch2c"
  top: "enet1_0"
}
layer {
  name: "relu1_0"
  type: "PReLU"
  bottom: "enet1_0"
  top: "enet1_0"
}
layer {
  name: "enet1_1_branch2a"
  type: "Convolution"
  bottom: "enet1_0"
  top: "enet1_1_branch2a"
  convolution_param {
    num_output: 16
    bias_term: false
    weight_filler {
      type: "msra"
    }
    bias_filler {
      type: "constant"
    }
    pad_h: 0
    pad_w: 0
    kernel_h: 1
    kernel_w: 1
    stride_h: 1
    stride_w: 1
    dilation: 1
  }
}
layer {
  name: "bn1_1_branch2a"
  type: "BN"
  bottom: "enet1_1_branch2a"
  top: "enet1_1_branch2a"
  bn_param {
    scale_filler {
      type: "constant"
      value: 1
    }
    shift_filler {
      type: "constant"
      value: 0.001
    }
  }
}
layer {
  name: "relu1_1_branch2a"
  type: "PReLU"
  bottom: "enet1_1_branch2a"
  top: "enet1_1_branch2a"
}
layer {
  name: "enet1_1_branch2b"
  type: "Convolution"
  bottom: "enet1_1_branch2a"
  top: "enet1_1_branch2b"
  convolution_param {
    num_output: 16
    bias_term: true
    weight_filler {
      type: "msra"
    }
    bias_filler {
      type: "constant"
    }
    pad_h: 1
    pad_w: 1
    kernel_h: 3
    kernel_w: 3
    stride_h: 1
    stride_w: 1
    dilation: 1
  }
}
layer {
  name: "bn1_1_branch2b"
  type: "BN"
  bottom: "enet1_1_branch2b"
  top: "enet1_1_branch2b"
  bn_param {
    scale_filler {
      type: "constant"
      value: 1
    }
    shift_filler {
      type: "constant"
      value: 0.001
    }
  }
}
layer {
  name: "relu1_1_branch2b"
  type: "PReLU"
  bottom: "enet1_1_branch2b"
  top: "enet1_1_branch2b"
}
layer {
  name: "enet1_1_branch2c"
  type: "Convolution"
  bottom: "enet1_1_branch2b"
  top: "enet1_1_branch2c"
  convolution_param {
    num_output: 64
    bias_term: false
    weight_filler {
      type: "msra"
    }
    bias_filler {
      type: "constant"
    }
    pad_h: 0
    pad_w: 0
    kernel_h: 1
    kernel_w: 1
    stride_h: 1
    stride_w: 1
    dilation: 1
  }
}
layer {
  name: "bn1_1_branch2c"
  type: "BN"
  bottom: "enet1_1_branch2c"
  top: "enet1_1_branch2c"
  bn_param {
    scale_filler {
      type: "constant"
      value: 1
    }
    shift_filler {
      type: "constant"
      value: 0.001
    }
  }
}
layer {
  name: "dropout1_1_branch2c"
  type: "Dropout"
  bottom: "enet1_1_branch2c"
  top: "enet1_1_branch2c"
  dropout_param {
    dropout_ratio: 0.01
  }
}
layer {
  name: "enet1_1"
  type: "Eltwise"
  bottom: "enet1_0"
  bottom: "enet1_1_branch2c"
  top: "enet1_1"
}
layer {
  name: "relu1_1"
  type: "PReLU"
  bottom: "enet1_1"
  top: "enet1_1"
}
layer {
  name: "enet1_2_branch2a"
  type: "Convolution"
  bottom: "enet1_1"
  top: "enet1_2_branch2a"
  convolution_param {
    num_output: 16
    bias_term: false
    weight_filler {
      type: "msra"
    }
    bias_filler {
      type: "constant"
    }
    pad_h: 0
    pad_w: 0
    kernel_h: 1
    kernel_w: 1
    stride_h: 1
    stride_w: 1
    dilation: 1
  }
}
layer {
  name: "bn1_2_branch2a"
  type: "BN"
  bottom: "enet1_2_branch2a"
  top: "enet1_2_branch2a"
  bn_param {
    scale_filler {
      type: "constant"
      value: 1
    }
    shift_filler {
      type: "constant"
      value: 0.001
    }
  }
}
layer {
  name: "relu1_2_branch2a"
  type: "PReLU"
  bottom: "enet1_2_branch2a"
  top: "enet1_2_branch2a"
}
layer {
  name: "enet1_2_branch2b"
  type: "Convolution"
  bottom: "enet1_2_branch2a"
  top: "enet1_2_branch2b"
  convolution_param {
    num_output: 16
    bias_term: true
    weight_filler {
      type: "msra"
    }
    bias_filler {
      type: "constant"
    }
    pad_h: 1
    pad_w: 1
    kernel_h: 3
    kernel_w: 3
    stride_h: 1
    stride_w: 1
    dilation: 1
  }
}
layer {
  name: "bn1_2_branch2b"
  type: "BN"
  bottom: "enet1_2_branch2b"
  top: "enet1_2_branch2b"
  bn_param {
    scale_filler {
      type: "constant"
      value: 1
    }
    shift_filler {
      type: "constant"
      value: 0.001
    }
  }
}
layer {
  name: "relu1_2_branch2b"
  type: "PReLU"
  bottom: "enet1_2_branch2b"
  top: "enet1_2_branch2b"
}
layer {
  name: "enet1_2_branch2c"
  type: "Convolution"
  bottom: "enet1_2_branch2b"
  top: "enet1_2_branch2c"
  convolution_param {
    num_output: 64
    bias_term: false
    weight_filler {
      type: "msra"
    }
    bias_filler {
      type: "constant"
    }
    pad_h: 0
    pad_w: 0
    kernel_h: 1
    kernel_w: 1
    stride_h: 1
    stride_w: 1
    dilation: 1
  }
}
layer {
  name: "bn1_2_branch2c"
  type: "BN"
  bottom: "enet1_2_branch2c"
  top: "enet1_2_branch2c"
  bn_param {
    scale_filler {
      type: "constant"
      value: 1
    }
    shift_filler {
      type: "constant"
      value: 0.001
    }
  }
}
layer {
  name: "dropout1_2_branch2c"
  type: "Dropout"
  bottom: "enet1_2_branch2c"
  top: "enet1_2_branch2c"
  dropout_param {
    dropout_ratio: 0.01
  }
}
layer {
  name: "enet1_2"
  type: "Eltwise"
  bottom: "enet1_1"
  bottom: "enet1_2_branch2c"
  top: "enet1_2"
}
layer {
  name: "relu1_2"
  type: "PReLU"
  bottom: "enet1_2"
  top: "enet1_2"
}
layer {
  name: "enet1_3_branch2a"
  type: "Convolution"
  bottom: "enet1_2"
  top: "enet1_3_branch2a"
  convolution_param {
    num_output: 16
    bias_term: false
    weight_filler {
      type: "msra"
    }
    bias_filler {
      type: "constant"
    }
    pad_h: 0
    pad_w: 0
    kernel_h: 1
    kernel_w: 1
    stride_h: 1
    stride_w: 1
    dilation: 1
  }
}
layer {
  name: "bn1_3_branch2a"
  type: "BN"
  bottom: "enet1_3_branch2a"
  top: "enet1_3_branch2a"
  bn_param {
    scale_filler {
      type: "constant"
      value: 1
    }
    shift_filler {
      type: "constant"
      value: 0.001
    }
  }
}
layer {
  name: "relu1_3_branch2a"
  type: "PReLU"
  bottom: "enet1_3_branch2a"
  top: "enet1_3_branch2a"
}
layer {
  name: "enet1_3_branch2b"
  type: "Convolution"
  bottom: "enet1_3_branch2a"
  top: "enet1_3_branch2b"
  convolution_param {
    num_output: 16
    bias_term: true
    weight_filler {
      type: "msra"
    }
    bias_filler {
      type: "constant"
    }
    pad_h: 1
    pad_w: 1
    kernel_h: 3
    kernel_w: 3
    stride_h: 1
    stride_w: 1
    dilation: 1
  }
}
layer {
  name: "bn1_3_branch2b"
  type: "BN"
  bottom: "enet1_3_branch2b"
  top: "enet1_3_branch2b"
  bn_param {
    scale_filler {
      type: "constant"
      value: 1
    }
    shift_filler {
      type: "constant"
      value: 0.001
    }
  }
}
layer {
  name: "relu1_3_branch2b"
  type: "PReLU"
  bottom: "enet1_3_branch2b"
  top: "enet1_3_branch2b"
}
layer {
  name: "enet1_3_branch2c"
  type: "Convolution"
  bottom: "enet1_3_branch2b"
  top: "enet1_3_branch2c"
  convolution_param {
    num_output: 64
    bias_term: false
    weight_filler {
      type: "msra"
    }
    bias_filler {
      type: "constant"
    }
    pad_h: 0
    pad_w: 0
    kernel_h: 1
    kernel_w: 1
    stride_h: 1
    stride_w: 1
    dilation: 1
  }
}
layer {
  name: "bn1_3_branch2c"
  type: "BN"
  bottom: "enet1_3_branch2c"
  top: "enet1_3_branch2c"
  bn_param {
    scale_filler {
      type: "constant"
      value: 1
    }
    shift_filler {
      type: "constant"
      value: 0.001
    }
  }
}
layer {
  name: "dropout1_3_branch2c"
  type: "Dropout"
  bottom: "enet1_3_branch2c"
  top: "enet1_3_branch2c"
  dropout_param {
    dropout_ratio: 0.01
  }
}
layer {
  name: "enet1_3"
  type: "Eltwise"
  bottom: "enet1_2"
  bottom: "enet1_3_branch2c"
  top: "enet1_3"
}
layer {
  name: "relu1_3"
  type: "PReLU"
  bottom: "enet1_3"
  top: "enet1_3"
}
layer {
  name: "enet1_4_branch2a"
  type: "Convolution"
  bottom: "enet1_3"
  top: "enet1_4_branch2a"
  convolution_param {
    num_output: 16
    bias_term: false
    weight_filler {
      type: "msra"
    }
    bias_filler {
      type: "constant"
    }
    pad_h: 0
    pad_w: 0
    kernel_h: 1
    kernel_w: 1
    stride_h: 1
    stride_w: 1
    dilation: 1
  }
}
layer {
  name: "bn1_4_branch2a"
  type: "BN"
  bottom: "enet1_4_branch2a"
  top: "enet1_4_branch2a"
  bn_param {
    scale_filler {
      type: "constant"
      value: 1
    }
    shift_filler {
      type: "constant"
      value: 0.001
    }
  }
}
layer {
  name: "relu1_4_branch2a"
  type: "PReLU"
  bottom: "enet1_4_branch2a"
  top: "enet1_4_branch2a"
}
layer {
  name: "enet1_4_branch2b"
  type: "Convolution"
  bottom: "enet1_4_branch2a"
  top: "enet1_4_branch2b"
  convolution_param {
    num_output: 16
    bias_term: true
    weight_filler {
      type: "msra"
    }
    bias_filler {
      type: "constant"
    }
    pad_h: 1
    pad_w: 1
    kernel_h: 3
    kernel_w: 3
    stride_h: 1
    stride_w: 1
    dilation: 1
  }
}
layer {
  name: "bn1_4_branch2b"
  type: "BN"
  bottom: "enet1_4_branch2b"
  top: "enet1_4_branch2b"
  bn_param {
    scale_filler {
      type: "constant"
      value: 1
    }
    shift_filler {
      type: "constant"
      value: 0.001
    }
  }
}
layer {
  name: "relu1_4_branch2b"
  type: "PReLU"
  bottom: "enet1_4_branch2b"
  top: "enet1_4_branch2b"
}
layer {
  name: "enet1_4_branch2c"
  type: "Convolution"
  bottom: "enet1_4_branch2b"
  top: "enet1_4_branch2c"
  convolution_param {
    num_output: 64
    bias_term: false
    weight_filler {
      type: "msra"
    }
    bias_filler {
      type: "constant"
    }
    pad_h: 0
    pad_w: 0
    kernel_h: 1
    kernel_w: 1
    stride_h: 1
    stride_w: 1
    dilation: 1
  }
}
layer {
  name: "bn1_4_branch2c"
  type: "BN"
  bottom: "enet1_4_branch2c"
  top: "enet1_4_branch2c"
  bn_param {
    scale_filler {
      type: "constant"
      value: 1
    }
    shift_filler {
      type: "constant"
      value: 0.001
    }
  }
}
layer {
  name: "dropout1_4_branch2c"
  type: "Dropout"
  bottom: "enet1_4_branch2c"
  top: "enet1_4_branch2c"
  dropout_param {
    dropout_ratio: 0.01
  }
}
layer {
  name: "enet1_4"
  type: "Eltwise"
  bottom: "enet1_3"
  bottom: "enet1_4_branch2c"
  top: "enet1_4"
}
layer {
  name: "relu1_4"
  type: "PReLU"
  bottom: "enet1_4"
  top: "enet1_4"
}
layer {
  name: "enet2_0_branch2a"
  type: "Convolution"
  bottom: "enet1_4"
  top: "enet2_0_branch2a"
  convolution_param {
    num_output: 32
    bias_term: false
    weight_filler {
      type: "msra"
    }
    bias_filler {
      type: "constant"
    }
    pad_h: 1
    pad_w: 1
    kernel_h: 2
    kernel_w: 2
    stride_h: 2
    stride_w: 2
    dilation: 1
  }
}
layer {
  name: "bn2_0_branch2a"
  type: "BN"
  bottom: "enet2_0_branch2a"
  top: "enet2_0_branch2a"
  bn_param {
    scale_filler {
      type: "constant"
      value: 1
    }
    shift_filler {
      type: "constant"
      value: 0.001
    }
  }
}
layer {
  name: "relu2_0_branch2a"
  type: "PReLU"
  bottom: "enet2_0_branch2a"
  top: "enet2_0_branch2a"
}
layer {
  name: "enet2_0_branch2b"
  type: "Convolution"
  bottom: "enet2_0_branch2a"
  top: "enet2_0_branch2b"
  convolution_param {
    num_output: 32
    bias_term: true
    weight_filler {
      type: "msra"
    }
    bias_filler {
      type: "constant"
    }
    pad_h: 1
    pad_w: 1
    kernel_h: 3
    kernel_w: 3
    stride_h: 1
    stride_w: 1
    dilation: 1
  }
}
layer {
  name: "bn2_0_branch2b"
  type: "BN"
  bottom: "enet2_0_branch2b"
  top: "enet2_0_branch2b"
  bn_param {
    scale_filler {
      type: "constant"
      value: 1
    }
    shift_filler {
      type: "constant"
      value: 0.001
    }
  }
}
layer {
  name: "relu2_0_branch2b"
  type: "PReLU"
  bottom: "enet2_0_branch2b"
  top: "enet2_0_branch2b"
}
layer {
  name: "enet2_0_branch2c"
  type: "Convolution"
  bottom: "enet2_0_branch2b"
  top: "enet2_0_branch2c"
  convolution_param {
    num_output: 128
    bias_term: false
    weight_filler {
      type: "msra"
    }
    bias_filler {
      type: "constant"
    }
    pad_h: 0
    pad_w: 0
    kernel_h: 1
    kernel_w: 1
    stride_h: 1
    stride_w: 1
    dilation: 1
  }
}
layer {
  name: "bn2_0_branch2c"
  type: "BN"
  bottom: "enet2_0_branch2c"
  top: "enet2_0_branch2c"
  bn_param {
    scale_filler {
      type: "constant"
      value: 1
    }
    shift_filler {
      type: "constant"
      value: 0.001
    }
  }
}
layer {
  name: "dropout2_0_branch2c"
  type: "Dropout"
  bottom: "enet2_0_branch2c"
  top: "enet2_0_branch2c"
  dropout_param {
    dropout_ratio: 0.1
  }
}
layer {
  name: "enet2_0_branch1a"
  type: "Convolution"
  bottom: "enet1_4"
  top: "enet2_0_branch1a"
  convolution_param {
    num_output: 128
    bias_term: false
    weight_filler {
      type: "msra"
    }
    bias_filler {
      type: "constant"
    }
    pad_h: 0
    pad_w: 0
    kernel_h: 1
    kernel_w: 1
    stride_h: 1
    stride_w: 1
    dilation: 1
  }
}
layer {
  name: "bn2_0_branch1a"
  type: "BN"
  bottom: "enet2_0_branch1a"
  top: "enet2_0_branch1a"
  bn_param {
    scale_filler {
      type: "constant"
      value: 1
    }
    shift_filler {
      type: "constant"
      value: 0.001
    }
  }
}
layer {
  name: "pool2_0_branch1a"
  type: "Pooling"
  bottom: "enet2_0_branch1a"
  top: "pool2_0_branch1a"
  pooling_param {
    pool: MAX
    kernel_size: 2
    stride: 2
  }
}
layer {
  name: "enet2_0"
  type: "Eltwise"
  bottom: "pool2_0_branch1a"
  bottom: "enet2_0_branch2c"
  top: "enet2_0"
}
layer {
  name: "relu2_0"
  type: "PReLU"
  bottom: "enet2_0"
  top: "enet2_0"
}
layer {
  name: "enet2_1_branch2a"
  type: "Convolution"
  bottom: "enet2_0"
  top: "enet2_1_branch2a"
  convolution_param {
    num_output: 32
    bias_term: false
    weight_filler {
      type: "msra"
    }
    bias_filler {
      type: "constant"
    }
    pad_h: 0
    pad_w: 0
    kernel_h: 1
    kernel_w: 1
    stride_h: 1
    stride_w: 1
    dilation: 1
  }
}
layer {
  name: "bn2_1_branch2a"
  type: "BN"
  bottom: "enet2_1_branch2a"
  top: "enet2_1_branch2a"
  bn_param {
    scale_filler {
      type: "constant"
      value: 1
    }
    shift_filler {
      type: "constant"
      value: 0.001
    }
  }
}
layer {
  name: "relu2_1_branch2a"
  type: "PReLU"
  bottom: "enet2_1_branch2a"
  top: "enet2_1_branch2a"
}
layer {
  name: "enet2_1_branch2b"
  type: "Convolution"
  bottom: "enet2_1_branch2a"
  top: "enet2_1_branch2b"
  convolution_param {
    num_output: 32
    bias_term: true
    weight_filler {
      type: "msra"
    }
    bias_filler {
      type: "constant"
    }
    pad_h: 1
    pad_w: 1
    kernel_h: 3
    kernel_w: 3
    stride_h: 1
    stride_w: 1
    dilation: 1
  }
}
layer {
  name: "bn2_1_branch2b"
  type: "BN"
  bottom: "enet2_1_branch2b"
  top: "enet2_1_branch2b"
  bn_param {
    scale_filler {
      type: "constant"
      value: 1
    }
    shift_filler {
      type: "constant"
      value: 0.001
    }
  }
}
layer {
  name: "relu2_1_branch2b"
  type: "PReLU"
  bottom: "enet2_1_branch2b"
  top: "enet2_1_branch2b"
}
layer {
  name: "enet2_1_branch2c"
  type: "Convolution"
  bottom: "enet2_1_branch2b"
  top: "enet2_1_branch2c"
  convolution_param {
    num_output: 128
    bias_term: false
    weight_filler {
      type: "msra"
    }
    bias_filler {
      type: "constant"
    }
    pad_h: 0
    pad_w: 0
    kernel_h: 1
    kernel_w: 1
    stride_h: 1
    stride_w: 1
    dilation: 1
  }
}
layer {
  name: "bn2_1_branch2c"
  type: "BN"
  bottom: "enet2_1_branch2c"
  top: "enet2_1_branch2c"
  bn_param {
    scale_filler {
      type: "constant"
      value: 1
    }
    shift_filler {
      type: "constant"
      value: 0.001
    }
  }
}
layer {
  name: "dropout2_1_branch2c"
  type: "Dropout"
  bottom: "enet2_1_branch2c"
  top: "enet2_1_branch2c"
  dropout_param {
    dropout_ratio: 0.1
  }
}
layer {
  name: "enet2_1"
  type: "Eltwise"
  bottom: "enet2_0"
  bottom: "enet2_1_branch2c"
  top: "enet2_1"
}
layer {
  name: "relu2_1"
  type: "PReLU"
  bottom: "enet2_1"
  top: "enet2_1"
}
layer {
  name: "enet2_2_branch2a"
  type: "Convolution"
  bottom: "enet2_1"
  top: "enet2_2_branch2a"
  convolution_param {
    num_output: 32
    bias_term: false
    weight_filler {
      type: "msra"
    }
    bias_filler {
      type: "constant"
    }
    pad_h: 0
    pad_w: 0
    kernel_h: 1
    kernel_w: 1
    stride_h: 1
    stride_w: 1
    dilation: 1
  }
}
layer {
  name: "bn2_2_branch2a"
  type: "BN"
  bottom: "enet2_2_branch2a"
  top: "enet2_2_branch2a"
  bn_param {
    scale_filler {
      type: "constant"
      value: 1
    }
    shift_filler {
      type: "constant"
      value: 0.001
    }
  }
}
layer {
  name: "relu2_2_branch2a"
  type: "PReLU"
  bottom: "enet2_2_branch2a"
  top: "enet2_2_branch2a"
}
layer {
  name: "enet2_2_branch2b"
  type: "Convolution"
  bottom: "enet2_2_branch2a"
  top: "enet2_2_branch2b"
  convolution_param {
    num_output: 32
    bias_term: true
    weight_filler {
      type: "msra"
    }
    bias_filler {
      type: "constant"
    }
    pad_h: 2
    pad_w: 2
    kernel_h: 3
    kernel_w: 3
    stride_h: 1
    stride_w: 1
    dilation: 2
  }
}
layer {
  name: "bn2_2_branch2b"
  type: "BN"
  bottom: "enet2_2_branch2b"
  top: "enet2_2_branch2b"
  bn_param {
    scale_filler {
      type: "constant"
      value: 1
    }
    shift_filler {
      type: "constant"
      value: 0.001
    }
  }
}
layer {
  name: "relu2_2_branch2b"
  type: "PReLU"
  bottom: "enet2_2_branch2b"
  top: "enet2_2_branch2b"
}
layer {
  name: "enet2_2_branch2c"
  type: "Convolution"
  bottom: "enet2_2_branch2b"
  top: "enet2_2_branch2c"
  convolution_param {
    num_output: 128
    bias_term: false
    weight_filler {
      type: "msra"
    }
    bias_filler {
      type: "constant"
    }
    pad_h: 0
    pad_w: 0
    kernel_h: 1
    kernel_w: 1
    stride_h: 1
    stride_w: 1
    dilation: 1
  }
}
layer {
  name: "bn2_2_branch2c"
  type: "BN"
  bottom: "enet2_2_branch2c"
  top: "enet2_2_branch2c"
  bn_param {
    scale_filler {
      type: "constant"
      value: 1
    }
    shift_filler {
      type: "constant"
      value: 0.001
    }
  }
}
layer {
  name: "dropout2_2_branch2c"
  type: "Dropout"
  bottom: "enet2_2_branch2c"
  top: "enet2_2_branch2c"
  dropout_param {
    dropout_ratio: 0.1
  }
}
layer {
  name: "enet2_2"
  type: "Eltwise"
  bottom: "enet2_1"
  bottom: "enet2_2_branch2c"
  top: "enet2_2"
}
layer {
  name: "relu2_2"
  type: "PReLU"
  bottom: "enet2_2"
  top: "enet2_2"
}
layer {
  name: "enet2_3_branch2a"
  type: "Convolution"
  bottom: "enet2_2"
  top: "enet2_3_branch2a"
  convolution_param {
    num_output: 32
    bias_term: false
    weight_filler {
      type: "msra"
    }
    bias_filler {
      type: "constant"
    }
    pad_h: 0
    pad_w: 0
    kernel_h: 1
    kernel_w: 1
    stride_h: 1
    stride_w: 1
    dilation: 1
  }
}
layer {
  name: "bn2_3_branch2a"
  type: "BN"
  bottom: "enet2_3_branch2a"
  top: "enet2_3_branch2a"
  bn_param {
    scale_filler {
      type: "constant"
      value: 1
    }
    shift_filler {
      type: "constant"
      value: 0.001
    }
  }
}
layer {
  name: "relu2_3_branch2a"
  type: "PReLU"
  bottom: "enet2_3_branch2a"
  top: "enet2_3_branch2a"
}
layer {
  name: "enet2_3_branch2b1"
  type: "Convolution"
  bottom: "enet2_3_branch2a"
  top: "enet2_3_branch2b1"
  convolution_param {
    num_output: 32
    bias_term: false
    weight_filler {
      type: "msra"
    }
    bias_filler {
      type: "constant"
    }
    pad_h: 0
    pad_w: 2
    kernel_h: 1
    kernel_w: 5
    stride_h: 1
    stride_w: 1
    dilation: 1
  }
}
layer {
  name: "enet2_3_branch2b"
  type: "Convolution"
  bottom: "enet2_3_branch2b1"
  top: "enet2_3_branch2b"
  convolution_param {
    num_output: 32
    bias_term: true
    weight_filler {
      type: "msra"
    }
    bias_filler {
      type: "constant"
    }
    pad_h: 2
    pad_w: 0
    kernel_h: 5
    kernel_w: 1
    stride_h: 1
    stride_w: 1
    dilation: 1
  }
}
layer {
  name: "bn2_3_branch2b"
  type: "BN"
  bottom: "enet2_3_branch2b"
  top: "enet2_3_branch2b"
  bn_param {
    scale_filler {
      type: "constant"
      value: 1
    }
    shift_filler {
      type: "constant"
      value: 0.001
    }
  }
}
layer {
  name: "relu2_3_branch2b"
  type: "PReLU"
  bottom: "enet2_3_branch2b"
  top: "enet2_3_branch2b"
}
layer {
  name: "enet2_3_branch2c"
  type: "Convolution"
  bottom: "enet2_3_branch2b"
  top: "enet2_3_branch2c"
  convolution_param {
    num_output: 128
    bias_term: false
    weight_filler {
      type: "msra"
    }
    bias_filler {
      type: "constant"
    }
    pad_h: 0
    pad_w: 0
    kernel_h: 1
    kernel_w: 1
    stride_h: 1
    stride_w: 1
    dilation: 1
  }
}
layer {
  name: "bn2_3_branch2c"
  type: "BN"
  bottom: "enet2_3_branch2c"
  top: "enet2_3_branch2c"
  bn_param {
    scale_filler {
      type: "constant"
      value: 1
    }
    shift_filler {
      type: "constant"
      value: 0.001
    }
  }
}
layer {
  name: "dropout2_3_branch2c"
  type: "Dropout"
  bottom: "enet2_3_branch2c"
  top: "enet2_3_branch2c"
  dropout_param {
    dropout_ratio: 0.1
  }
}
layer {
  name: "enet2_3"
  type: "Eltwise"
  bottom: "enet2_2"
  bottom: "enet2_3_branch2c"
  top: "enet2_3"
}
layer {
  name: "relu2_3"
  type: "PReLU"
  bottom: "enet2_3"
  top: "enet2_3"
}
layer {
  name: "enet2_4_branch2a"
  type: "Convolution"
  bottom: "enet2_3"
  top: "enet2_4_branch2a"
  convolution_param {
    num_output: 32
    bias_term: false
    weight_filler {
      type: "msra"
    }
    bias_filler {
      type: "constant"
    }
    pad_h: 0
    pad_w: 0
    kernel_h: 1
    kernel_w: 1
    stride_h: 1
    stride_w: 1
    dilation: 1
  }
}
layer {
  name: "bn2_4_branch2a"
  type: "BN"
  bottom: "enet2_4_branch2a"
  top: "enet2_4_branch2a"
  bn_param {
    scale_filler {
      type: "constant"
      value: 1
    }
    shift_filler {
      type: "constant"
      value: 0.001
    }
  }
}
layer {
  name: "relu2_4_branch2a"
  type: "PReLU"
  bottom: "enet2_4_branch2a"
  top: "enet2_4_branch2a"
}
layer {
  name: "enet2_4_branch2b"
  type: "Convolution"
  bottom: "enet2_4_branch2a"
  top: "enet2_4_branch2b"
  convolution_param {
    num_output: 32
    bias_term: true
    weight_filler {
      type: "msra"
    }
    bias_filler {
      type: "constant"
    }
    pad_h: 4
    pad_w: 4
    kernel_h: 3
    kernel_w: 3
    stride_h: 1
    stride_w: 1
    dilation: 4
  }
}
layer {
  name: "bn2_4_branch2b"
  type: "BN"
  bottom: "enet2_4_branch2b"
  top: "enet2_4_branch2b"
  bn_param {
    scale_filler {
      type: "constant"
      value: 1
    }
    shift_filler {
      type: "constant"
      value: 0.001
    }
  }
}
layer {
  name: "relu2_4_branch2b"
  type: "PReLU"
  bottom: "enet2_4_branch2b"
  top: "enet2_4_branch2b"
}
layer {
  name: "enet2_4_branch2c"
  type: "Convolution"
  bottom: "enet2_4_branch2b"
  top: "enet2_4_branch2c"
  convolution_param {
    num_output: 128
    bias_term: false
    weight_filler {
      type: "msra"
    }
    bias_filler {
      type: "constant"
    }
    pad_h: 0
    pad_w: 0
    kernel_h: 1
    kernel_w: 1
    stride_h: 1
    stride_w: 1
    dilation: 1
  }
}
layer {
  name: "bn2_4_branch2c"
  type: "BN"
  bottom: "enet2_4_branch2c"
  top: "enet2_4_branch2c"
  bn_param {
    scale_filler {
      type: "constant"
      value: 1
    }
    shift_filler {
      type: "constant"
      value: 0.001
    }
  }
}
layer {
  name: "dropout2_4_branch2c"
  type: "Dropout"
  bottom: "enet2_4_branch2c"
  top: "enet2_4_branch2c"
  dropout_param {
    dropout_ratio: 0.1
  }
}
layer {
  name: "enet2_4"
  type: "Eltwise"
  bottom: "enet2_3"
  bottom: "enet2_4_branch2c"
  top: "enet2_4"
}
layer {
  name: "relu2_4"
  type: "PReLU"
  bottom: "enet2_4"
  top: "enet2_4"
}
layer {
  name: "enet2_5_branch2a"
  type: "Convolution"
  bottom: "enet2_4"
  top: "enet2_5_branch2a"
  convolution_param {
    num_output: 32
    bias_term: false
    weight_filler {
      type: "msra"
    }
    bias_filler {
      type: "constant"
    }
    pad_h: 0
    pad_w: 0
    kernel_h: 1
    kernel_w: 1
    stride_h: 1
    stride_w: 1
    dilation: 1
  }
}
layer {
  name: "bn2_5_branch2a"
  type: "BN"
  bottom: "enet2_5_branch2a"
  top: "enet2_5_branch2a"
  bn_param {
    scale_filler {
      type: "constant"
      value: 1
    }
    shift_filler {
      type: "constant"
      value: 0.001
    }
  }
}
layer {
  name: "relu2_5_branch2a"
  type: "PReLU"
  bottom: "enet2_5_branch2a"
  top: "enet2_5_branch2a"
}
layer {
  name: "enet2_5_branch2b"
  type: "Convolution"
  bottom: "enet2_5_branch2a"
  top: "enet2_5_branch2b"
  convolution_param {
    num_output: 32
    bias_term: true
    weight_filler {
      type: "msra"
    }
    bias_filler {
      type: "constant"
    }
    pad_h: 1
    pad_w: 1
    kernel_h: 3
    kernel_w: 3
    stride_h: 1
    stride_w: 1
    dilation: 1
  }
}
layer {
  name: "bn2_5_branch2b"
  type: "BN"
  bottom: "enet2_5_branch2b"
  top: "enet2_5_branch2b"
  bn_param {
    scale_filler {
      type: "constant"
      value: 1
    }
    shift_filler {
      type: "constant"
      value: 0.001
    }
  }
}
layer {
  name: "relu2_5_branch2b"
  type: "PReLU"
  bottom: "enet2_5_branch2b"
  top: "enet2_5_branch2b"
}
layer {
  name: "enet2_5_branch2c"
  type: "Convolution"
  bottom: "enet2_5_branch2b"
  top: "enet2_5_branch2c"
  convolution_param {
    num_output: 128
    bias_term: false
    weight_filler {
      type: "msra"
    }
    bias_filler {
      type: "constant"
    }
    pad_h: 0
    pad_w: 0
    kernel_h: 1
    kernel_w: 1
    stride_h: 1
    stride_w: 1
    dilation: 1
  }
}
layer {
  name: "bn2_5_branch2c"
  type: "BN"
  bottom: "enet2_5_branch2c"
  top: "enet2_5_branch2c"
  bn_param {
    scale_filler {
      type: "constant"
      value: 1
    }
    shift_filler {
      ty
I1123 14:54:33.584625  3220 layer_factory.hpp:77] Creating layer data
I1123 14:54:33.584708  3220 net.cpp:106] Creating Layer data
I1123 14:54:33.584725  3220 net.cpp:411] data -> data
I1123 14:54:33.584775  3220 net.cpp:411] data -> label
I1123 14:54:33.584801  3220 net.cpp:411] data -> (automatic)
I1123 14:54:33.585403  3220 image_seg_data_layer.cpp:46] Opening file /home/map/hebei/datasets/hadmap/trainval3.txt
I1123 14:54:33.662042  3220 image_seg_data_layer.cpp:68] A total of 50890 images.
I1123 14:54:33.683356  3220 image_seg_data_layer.cpp:147] output data size: 8,3,321,641
I1123 14:54:33.683377  3220 image_seg_data_layer.cpp:151] output label size: 8,1,41,81
I1123 14:54:33.683383  3220 image_seg_data_layer.cpp:155] output data_dim size: 8,1,1,2
I1123 14:54:33.865442  3220 net.cpp:150] Setting up data
I1123 14:54:33.865501  3220 net.cpp:157] Top shape: 8 3 321 641 (4938264)
I1123 14:54:33.865512  3220 net.cpp:157] Top shape: 8 1 41 81 (26568)
I1123 14:54:33.865521  3220 net.cpp:157] Top shape: 8 1 1 2 (16)
I1123 14:54:33.865528  3220 net.cpp:165] Memory required for data: 19859392
I1123 14:54:33.865545  3220 layer_factory.hpp:77] Creating layer data_data_0_split
I1123 14:54:33.865571  3220 net.cpp:106] Creating Layer data_data_0_split
I1123 14:54:33.865582  3220 net.cpp:454] data_data_0_split <- data
I1123 14:54:33.865618  3220 net.cpp:411] data_data_0_split -> data_data_0_split_0
I1123 14:54:33.865638  3220 net.cpp:411] data_data_0_split -> data_data_0_split_1
I1123 14:54:33.865712  3220 net.cpp:150] Setting up data_data_0_split
I1123 14:54:33.865725  3220 net.cpp:157] Top shape: 8 3 321 641 (4938264)
I1123 14:54:33.865734  3220 net.cpp:157] Top shape: 8 3 321 641 (4938264)
I1123 14:54:33.865741  3220 net.cpp:165] Memory required for data: 59365504
I1123 14:54:33.865748  3220 layer_factory.hpp:77] Creating layer label_data_1_split
I1123 14:54:33.865761  3220 net.cpp:106] Creating Layer label_data_1_split
I1123 14:54:33.865767  3220 net.cpp:454] label_data_1_split <- label
I1123 14:54:33.865778  3220 net.cpp:411] label_data_1_split -> label_data_1_split_0
I1123 14:54:33.865808  3220 net.cpp:411] label_data_1_split -> label_data_1_split_1
I1123 14:54:33.865870  3220 net.cpp:150] Setting up label_data_1_split
I1123 14:54:33.865882  3220 net.cpp:157] Top shape: 8 1 41 81 (26568)
I1123 14:54:33.865890  3220 net.cpp:157] Top shape: 8 1 41 81 (26568)
I1123 14:54:33.865896  3220 net.cpp:165] Memory required for data: 59578048
I1123 14:54:33.865902  3220 layer_factory.hpp:77] Creating layer enet_initial_branch2a
I1123 14:54:33.865934  3220 net.cpp:106] Creating Layer enet_initial_branch2a
I1123 14:54:33.865942  3220 net.cpp:454] enet_initial_branch2a <- data_data_0_split_0
I1123 14:54:33.865955  3220 net.cpp:411] enet_initial_branch2a -> enet_initial_branch2a
I1123 14:54:33.867619  3220 net.cpp:150] Setting up enet_initial_branch2a
I1123 14:54:33.867640  3220 net.cpp:157] Top shape: 8 13 161 321 (5374824)
I1123 14:54:33.867646  3220 net.cpp:165] Memory required for data: 81077344
I1123 14:54:33.867672  3220 layer_factory.hpp:77] Creating layer pool_initial_branch1a
I1123 14:54:33.867689  3220 net.cpp:106] Creating Layer pool_initial_branch1a
I1123 14:54:33.867697  3220 net.cpp:454] pool_initial_branch1a <- data_data_0_split_1
I1123 14:54:33.867707  3220 net.cpp:411] pool_initial_branch1a -> pool_initial_branch1a
I1123 14:54:33.869648  3220 net.cpp:150] Setting up pool_initial_branch1a
I1123 14:54:33.869663  3220 net.cpp:157] Top shape: 8 3 161 321 (1240344)
I1123 14:54:33.869670  3220 net.cpp:165] Memory required for data: 86038720
I1123 14:54:33.869678  3220 layer_factory.hpp:77] Creating layer enet_initial
I1123 14:54:33.869693  3220 net.cpp:106] Creating Layer enet_initial
I1123 14:54:33.869700  3220 net.cpp:454] enet_initial <- enet_initial_branch2a
I1123 14:54:33.869712  3220 net.cpp:454] enet_initial <- pool_initial_branch1a
I1123 14:54:33.869724  3220 net.cpp:411] enet_initial -> enet_initial
I1123 14:54:33.869773  3220 net.cpp:150] Setting up enet_initial
I1123 14:54:33.869791  3220 net.cpp:157] Top shape: 8 16 161 321 (6615168)
I1123 14:54:33.869798  3220 net.cpp:165] Memory required for data: 112499392
I1123 14:54:33.869808  3220 layer_factory.hpp:77] Creating layer bn_initial
I1123 14:54:33.869832  3220 net.cpp:106] Creating Layer bn_initial
I1123 14:54:33.869841  3220 net.cpp:454] bn_initial <- enet_initial
I1123 14:54:33.869853  3220 net.cpp:397] bn_initial -> enet_initial (in-place)
I1123 14:54:33.871328  3220 net.cpp:150] Setting up bn_initial
I1123 14:54:33.871345  3220 net.cpp:157] Top shape: 8 16 161 321 (6615168)
I1123 14:54:33.871352  3220 net.cpp:165] Memory required for data: 138960064
I1123 14:54:33.871367  3220 layer_factory.hpp:77] Creating layer relu_initial
I1123 14:54:33.871386  3220 net.cpp:106] Creating Layer relu_initial
I1123 14:54:33.871392  3220 net.cpp:454] relu_initial <- enet_initial
I1123 14:54:33.871403  3220 net.cpp:397] relu_initial -> enet_initial (in-place)
I1123 14:54:33.876538  3220 net.cpp:150] Setting up relu_initial
I1123 14:54:33.876556  3220 net.cpp:157] Top shape: 8 16 161 321 (6615168)
I1123 14:54:33.876562  3220 net.cpp:165] Memory required for data: 165420736
I1123 14:54:33.876575  3220 layer_factory.hpp:77] Creating layer enet_initial_relu_initial_0_split
I1123 14:54:33.876590  3220 net.cpp:106] Creating Layer enet_initial_relu_initial_0_split
I1123 14:54:33.876597  3220 net.cpp:454] enet_initial_relu_initial_0_split <- enet_initial
I1123 14:54:33.876608  3220 net.cpp:411] enet_initial_relu_initial_0_split -> enet_initial_relu_initial_0_split_0
I1123 14:54:33.876621  3220 net.cpp:411] enet_initial_relu_initial_0_split -> enet_initial_relu_initial_0_split_1
I1123 14:54:33.876664  3220 net.cpp:150] Setting up enet_initial_relu_initial_0_split
I1123 14:54:33.876677  3220 net.cpp:157] Top shape: 8 16 161 321 (6615168)
I1123 14:54:33.876684  3220 net.cpp:157] Top shape: 8 16 161 321 (6615168)
I1123 14:54:33.876690  3220 net.cpp:165] Memory required for data: 218342080
I1123 14:54:33.876696  3220 layer_factory.hpp:77] Creating layer enet1_0_branch2a
I1123 14:54:33.876711  3220 net.cpp:106] Creating Layer enet1_0_branch2a
I1123 14:54:33.876729  3220 net.cpp:454] enet1_0_branch2a <- enet_initial_relu_initial_0_split_0
I1123 14:54:33.876749  3220 net.cpp:411] enet1_0_branch2a -> enet1_0_branch2a
I1123 14:54:33.877005  3220 net.cpp:150] Setting up enet1_0_branch2a
I1123 14:54:33.877019  3220 net.cpp:157] Top shape: 8 16 81 161 (1669248)
I1123 14:54:33.877027  3220 net.cpp:165] Memory required for data: 225019072
I1123 14:54:33.877035  3220 layer_factory.hpp:77] Creating layer bn1_0_branch2a
I1123 14:54:33.877049  3220 net.cpp:106] Creating Layer bn1_0_branch2a
I1123 14:54:33.877058  3220 net.cpp:454] bn1_0_branch2a <- enet1_0_branch2a
I1123 14:54:33.877068  3220 net.cpp:397] bn1_0_branch2a -> enet1_0_branch2a (in-place)
I1123 14:54:33.878628  3220 net.cpp:150] Setting up bn1_0_branch2a
I1123 14:54:33.878646  3220 net.cpp:157] Top shape: 8 16 81 161 (1669248)
I1123 14:54:33.878654  3220 net.cpp:165] Memory required for data: 231696064
I1123 14:54:33.878664  3220 layer_factory.hpp:77] Creating layer relu1_0_branch2a
I1123 14:54:33.878675  3220 net.cpp:106] Creating Layer relu1_0_branch2a
I1123 14:54:33.878682  3220 net.cpp:454] relu1_0_branch2a <- enet1_0_branch2a
I1123 14:54:33.878693  3220 net.cpp:397] relu1_0_branch2a -> enet1_0_branch2a (in-place)
I1123 14:54:33.880133  3220 net.cpp:150] Setting up relu1_0_branch2a
I1123 14:54:33.880151  3220 net.cpp:157] Top shape: 8 16 81 161 (1669248)
I1123 14:54:33.880157  3220 net.cpp:165] Memory required for data: 238373056
I1123 14:54:33.880172  3220 layer_factory.hpp:77] Creating layer enet1_0_branch2b
I1123 14:54:33.880189  3220 net.cpp:106] Creating Layer enet1_0_branch2b
I1123 14:54:33.880197  3220 net.cpp:454] enet1_0_branch2b <- enet1_0_branch2a
I1123 14:54:33.880208  3220 net.cpp:411] enet1_0_branch2b -> enet1_0_branch2b
I1123 14:54:33.881736  3220 net.cpp:150] Setting up enet1_0_branch2b
I1123 14:54:33.881754  3220 net.cpp:157] Top shape: 8 16 81 161 (1669248)
I1123 14:54:33.881762  3220 net.cpp:165] Memory required for data: 245050048
I1123 14:54:33.881772  3220 layer_factory.hpp:77] Creating layer bn1_0_branch2b
I1123 14:54:33.881785  3220 net.cpp:106] Creating Layer bn1_0_branch2b
I1123 14:54:33.881793  3220 net.cpp:454] bn1_0_branch2b <- enet1_0_branch2b
I1123 14:54:33.881804  3220 net.cpp:397] bn1_0_branch2b -> enet1_0_branch2b (in-place)
I1123 14:54:33.882048  3220 net.cpp:150] Setting up bn1_0_branch2b
I1123 14:54:33.882062  3220 net.cpp:157] Top shape: 8 16 81 161 (1669248)
I1123 14:54:33.882069  3220 net.cpp:165] Memory required for data: 251727040
I1123 14:54:33.882079  3220 layer_factory.hpp:77] Creating layer relu1_0_branch2b
I1123 14:54:33.882091  3220 net.cpp:106] Creating Layer relu1_0_branch2b
I1123 14:54:33.882097  3220 net.cpp:454] relu1_0_branch2b <- enet1_0_branch2b
I1123 14:54:33.882107  3220 net.cpp:397] relu1_0_branch2b -> enet1_0_branch2b (in-place)
I1123 14:54:33.883503  3220 net.cpp:150] Setting up relu1_0_branch2b
I1123 14:54:33.883520  3220 net.cpp:157] Top shape: 8 16 81 161 (1669248)
I1123 14:54:33.883527  3220 net.cpp:165] Memory required for data: 258404032
I1123 14:54:33.883536  3220 layer_factory.hpp:77] Creating layer enet1_0_branch2c
I1123 14:54:33.883553  3220 net.cpp:106] Creating Layer enet1_0_branch2c
I1123 14:54:33.883560  3220 net.cpp:454] enet1_0_branch2c <- enet1_0_branch2b
I1123 14:54:33.883572  3220 net.cpp:411] enet1_0_branch2c -> enet1_0_branch2c
I1123 14:54:33.883793  3220 net.cpp:150] Setting up enet1_0_branch2c
I1123 14:54:33.883807  3220 net.cpp:157] Top shape: 8 64 81 161 (6676992)
I1123 14:54:33.883813  3220 net.cpp:165] Memory required for data: 285112000
I1123 14:54:33.883822  3220 layer_factory.hpp:77] Creating layer bn1_0_branch2c
I1123 14:54:33.883842  3220 net.cpp:106] Creating Layer bn1_0_branch2c
I1123 14:54:33.883849  3220 net.cpp:454] bn1_0_branch2c <- enet1_0_branch2c
I1123 14:54:33.883860  3220 net.cpp:397] bn1_0_branch2c -> enet1_0_branch2c (in-place)
I1123 14:54:33.884095  3220 net.cpp:150] Setting up bn1_0_branch2c
I1123 14:54:33.884109  3220 net.cpp:157] Top shape: 8 64 81 161 (6676992)
I1123 14:54:33.884124  3220 net.cpp:165] Memory required for data: 311819968
I1123 14:54:33.884150  3220 layer_factory.hpp:77] Creating layer dropout1_0_branch2c
I1123 14:54:33.884167  3220 net.cpp:106] Creating Layer dropout1_0_branch2c
I1123 14:54:33.884176  3220 net.cpp:454] dropout1_0_branch2c <- enet1_0_branch2c
I1123 14:54:33.884186  3220 net.cpp:397] dropout1_0_branch2c -> enet1_0_branch2c (in-place)
I1123 14:54:33.884233  3220 net.cpp:150] Setting up dropout1_0_branch2c
I1123 14:54:33.884245  3220 net.cpp:157] Top shape: 8 64 81 161 (6676992)
I1123 14:54:33.884251  3220 net.cpp:165] Memory required for data: 338527936
I1123 14:54:33.884258  3220 layer_factory.hpp:77] Creating layer enet1_0_branch1a
I1123 14:54:33.884274  3220 net.cpp:106] Creating Layer enet1_0_branch1a
I1123 14:54:33.884280  3220 net.cpp:454] enet1_0_branch1a <- enet_initial_relu_initial_0_split_1
I1123 14:54:33.884292  3220 net.cpp:411] enet1_0_branch1a -> enet1_0_branch1a
I1123 14:54:33.884518  3220 net.cpp:150] Setting up enet1_0_branch1a
I1123 14:54:33.884531  3220 net.cpp:157] Top shape: 8 64 161 321 (26460672)
I1123 14:54:33.884538  3220 net.cpp:165] Memory required for data: 444370624
I1123 14:54:33.884546  3220 layer_factory.hpp:77] Creating layer bn1_0_branch1a
I1123 14:54:33.884560  3220 net.cpp:106] Creating Layer bn1_0_branch1a
I1123 14:54:33.884567  3220 net.cpp:454] bn1_0_branch1a <- enet1_0_branch1a
I1123 14:54:33.884578  3220 net.cpp:397] bn1_0_branch1a -> enet1_0_branch1a (in-place)
I1123 14:54:33.884888  3220 net.cpp:150] Setting up bn1_0_branch1a
I1123 14:54:33.884902  3220 net.cpp:157] Top shape: 8 64 161 321 (26460672)
I1123 14:54:33.884909  3220 net.cpp:165] Memory required for data: 550213312
I1123 14:54:33.884919  3220 layer_factory.hpp:77] Creating layer pool1_0_branch1a
I1123 14:54:33.884932  3220 net.cpp:106] Creating Layer pool1_0_branch1a
I1123 14:54:33.884938  3220 net.cpp:454] pool1_0_branch1a <- enet1_0_branch1a
I1123 14:54:33.884949  3220 net.cpp:411] pool1_0_branch1a -> pool1_0_branch1a
I1123 14:54:33.885000  3220 net.cpp:150] Setting up pool1_0_branch1a
I1123 14:54:33.885013  3220 net.cpp:157] Top shape: 8 64 81 161 (6676992)
I1123 14:54:33.885020  3220 net.cpp:165] Memory required for data: 576921280
I1123 14:54:33.885026  3220 layer_factory.hpp:77] Creating layer enet1_0
I1123 14:54:33.885042  3220 net.cpp:106] Creating Layer enet1_0
I1123 14:54:33.885049  3220 net.cpp:454] enet1_0 <- pool1_0_branch1a
I1123 14:54:33.885057  3220 net.cpp:454] enet1_0 <- enet1_0_branch2c
I1123 14:54:33.885067  3220 net.cpp:411] enet1_0 -> enet1_0
I1123 14:54:33.885107  3220 net.cpp:150] Setting up enet1_0
I1123 14:54:33.885119  3220 net.cpp:157] Top shape: 8 64 81 161 (6676992)
I1123 14:54:33.885125  3220 net.cpp:165] Memory required for data: 603629248
I1123 14:54:33.885133  3220 layer_factory.hpp:77] Creating layer relu1_0
I1123 14:54:33.885143  3220 net.cpp:106] Creating Layer relu1_0
I1123 14:54:33.885150  3220 net.cpp:454] relu1_0 <- enet1_0
I1123 14:54:33.885160  3220 net.cpp:397] relu1_0 -> enet1_0 (in-place)
I1123 14:54:33.890202  3220 net.cpp:150] Setting up relu1_0
I1123 14:54:33.890228  3220 net.cpp:157] Top shape: 8 64 81 161 (6676992)
I1123 14:54:33.890234  3220 net.cpp:165] Memory required for data: 630337216
I1123 14:54:33.890244  3220 layer_factory.hpp:77] Creating layer enet1_0_relu1_0_0_split
I1123 14:54:33.890257  3220 net.cpp:106] Creating Layer enet1_0_relu1_0_0_split
I1123 14:54:33.890264  3220 net.cpp:454] enet1_0_relu1_0_0_split <- enet1_0
I1123 14:54:33.890275  3220 net.cpp:411] enet1_0_relu1_0_0_split -> enet1_0_relu1_0_0_split_0
I1123 14:54:33.890290  3220 net.cpp:411] enet1_0_relu1_0_0_split -> enet1_0_relu1_0_0_split_1
I1123 14:54:33.890336  3220 net.cpp:150] Setting up enet1_0_relu1_0_0_split
I1123 14:54:33.890348  3220 net.cpp:157] Top shape: 8 64 81 161 (6676992)
I1123 14:54:33.890355  3220 net.cpp:157] Top shape: 8 64 81 161 (6676992)
I1123 14:54:33.890362  3220 net.cpp:165] Memory required for data: 683753152
I1123 14:54:33.890368  3220 layer_factory.hpp:77] Creating layer enet1_1_branch2a
I1123 14:54:33.890391  3220 net.cpp:106] Creating Layer enet1_1_branch2a
I1123 14:54:33.890408  3220 net.cpp:454] enet1_1_branch2a <- enet1_0_relu1_0_0_split_0
I1123 14:54:33.890420  3220 net.cpp:411] enet1_1_branch2a -> enet1_1_branch2a
I1123 14:54:33.890645  3220 net.cpp:150] Setting up enet1_1_branch2a
I1123 14:54:33.890658  3220 net.cpp:157] Top shape: 8 16 81 161 (1669248)
I1123 14:54:33.890664  3220 net.cpp:165] Memory required for data: 690430144
I1123 14:54:33.890673  3220 layer_factory.hpp:77] Creating layer bn1_1_branch2a
I1123 14:54:33.890687  3220 net.cpp:106] Creating Layer bn1_1_branch2a
I1123 14:54:33.890694  3220 net.cpp:454] bn1_1_branch2a <- enet1_1_branch2a
I1123 14:54:33.890707  3220 net.cpp:397] bn1_1_branch2a -> enet1_1_branch2a (in-place)
I1123 14:54:33.890954  3220 net.cpp:150] Setting up bn1_1_branch2a
I1123 14:54:33.890969  3220 net.cpp:157] Top shape: 8 16 81 161 (1669248)
I1123 14:54:33.890975  3220 net.cpp:165] Memory required for data: 697107136
I1123 14:54:33.890985  3220 layer_factory.hpp:77] Creating layer relu1_1_branch2a
I1123 14:54:33.890996  3220 net.cpp:106] Creating Layer relu1_1_branch2a
I1123 14:54:33.891003  3220 net.cpp:454] relu1_1_branch2a <- enet1_1_branch2a
I1123 14:54:33.891013  3220 net.cpp:397] relu1_1_branch2a -> enet1_1_branch2a (in-place)
I1123 14:54:33.892472  3220 net.cpp:150] Setting up relu1_1_branch2a
I1123 14:54:33.892490  3220 net.cpp:157] Top shape: 8 16 81 161 (1669248)
I1123 14:54:33.892498  3220 net.cpp:165] Memory required for data: 703784128
I1123 14:54:33.892506  3220 layer_factory.hpp:77] Creating layer enet1_1_branch2b
I1123 14:54:33.892524  3220 net.cpp:106] Creating Layer enet1_1_branch2b
I1123 14:54:33.892530  3220 net.cpp:454] enet1_1_branch2b <- enet1_1_branch2a
I1123 14:54:33.892542  3220 net.cpp:411] enet1_1_branch2b -> enet1_1_branch2b
I1123 14:54:33.892869  3220 net.cpp:150] Setting up enet1_1_branch2b
I1123 14:54:33.892884  3220 net.cpp:157] Top shape: 8 16 81 161 (1669248)
I1123 14:54:33.892890  3220 net.cpp:165] Memory required for data: 710461120
I1123 14:54:33.892901  3220 layer_factory.hpp:77] Creating layer bn1_1_branch2b
I1123 14:54:33.892915  3220 net.cpp:106] Creating Layer bn1_1_branch2b
I1123 14:54:33.892921  3220 net.cpp:454] bn1_1_branch2b <- enet1_1_branch2b
I1123 14:54:33.892935  3220 net.cpp:397] bn1_1_branch2b -> enet1_1_branch2b (in-place)
I1123 14:54:33.893185  3220 net.cpp:150] Setting up bn1_1_branch2b
I1123 14:54:33.893200  3220 net.cpp:157] Top shape: 8 16 81 161 (1669248)
I1123 14:54:33.893208  3220 net.cpp:165] Memory required for data: 717138112
I1123 14:54:33.893218  3220 layer_factory.hpp:77] Creating layer relu1_1_branch2b
I1123 14:54:33.893229  3220 net.cpp:106] Creating Layer relu1_1_branch2b
I1123 14:54:33.893235  3220 net.cpp:454] relu1_1_branch2b <- enet1_1_branch2b
I1123 14:54:33.893245  3220 net.cpp:397] relu1_1_branch2b -> enet1_1_branch2b (in-place)
I1123 14:54:33.894752  3220 net.cpp:150] Setting up relu1_1_branch2b
I1123 14:54:33.894770  3220 net.cpp:157] Top shape: 8 16 81 161 (1669248)
I1123 14:54:33.894776  3220 net.cpp:165] Memory required for data: 723815104
I1123 14:54:33.894785  3220 layer_factory.hpp:77] Creating layer enet1_1_branch2c
I1123 14:54:33.894801  3220 net.cpp:106] Creating Layer enet1_1_branch2c
I1123 14:54:33.894809  3220 net.cpp:454] enet1_1_branch2c <- enet1_1_branch2b
I1123 14:54:33.894820  3220 net.cpp:411] enet1_1_branch2c -> enet1_1_branch2c
I1123 14:54:33.895059  3220 net.cpp:150] Setting up enet1_1_branch2c
I1123 14:54:33.895074  3220 net.cpp:157] Top shape: 8 64 81 161 (6676992)
I1123 14:54:33.895081  3220 net.cpp:165] Memory required for data: 750523072
I1123 14:54:33.895089  3220 layer_factory.hpp:77] Creating layer bn1_1_branch2c
I1123 14:54:33.895107  3220 net.cpp:106] Creating Layer bn1_1_branch2c
I1123 14:54:33.895115  3220 net.cpp:454] bn1_1_branch2c <- enet1_1_branch2c
I1123 14:54:33.895128  3220 net.cpp:397] bn1_1_branch2c -> enet1_1_branch2c (in-place)
I1123 14:54:33.895385  3220 net.cpp:150] Setting up bn1_1_branch2c
I1123 14:54:33.895398  3220 net.cpp:157] Top shape: 8 64 81 161 (6676992)
I1123 14:54:33.895418  3220 net.cpp:165] Memory required for data: 777231040
I1123 14:54:33.895452  3220 layer_factory.hpp:77] Creating layer dropout1_1_branch2c
I1123 14:54:33.895469  3220 net.cpp:106] Creating Layer dropout1_1_branch2c
I1123 14:54:33.895476  3220 net.cpp:454] dropout1_1_branch2c <- enet1_1_branch2c
I1123 14:54:33.895485  3220 net.cpp:397] dropout1_1_branch2c -> enet1_1_branch2c (in-place)
I1123 14:54:33.895522  3220 net.cpp:150] Setting up dropout1_1_branch2c
I1123 14:54:33.895534  3220 net.cpp:157] Top shape: 8 64 81 161 (6676992)
I1123 14:54:33.895541  3220 net.cpp:165] Memory required for data: 803939008
I1123 14:54:33.895547  3220 layer_factory.hpp:77] Creating layer enet1_1
I1123 14:54:33.895560  3220 net.cpp:106] Creating Layer enet1_1
I1123 14:54:33.895567  3220 net.cpp:454] enet1_1 <- enet1_0_relu1_0_0_split_1
I1123 14:54:33.895576  3220 net.cpp:454] enet1_1 <- enet1_1_branch2c
I1123 14:54:33.895584  3220 net.cpp:411] enet1_1 -> enet1_1
I1123 14:54:33.895620  3220 net.cpp:150] Setting up enet1_1
I1123 14:54:33.895633  3220 net.cpp:157] Top shape: 8 64 81 161 (6676992)
I1123 14:54:33.895639  3220 net.cpp:165] Memory required for data: 830646976
I1123 14:54:33.895645  3220 layer_factory.hpp:77] Creating layer relu1_1
I1123 14:54:33.895655  3220 net.cpp:106] Creating Layer relu1_1
I1123 14:54:33.895661  3220 net.cpp:454] relu1_1 <- enet1_1
I1123 14:54:33.895674  3220 net.cpp:397] relu1_1 -> enet1_1 (in-place)
I1123 14:54:33.900815  3220 net.cpp:150] Setting up relu1_1
I1123 14:54:33.900846  3220 net.cpp:157] Top shape: 8 64 81 161 (6676992)
I1123 14:54:33.900852  3220 net.cpp:165] Memory required for data: 857354944
I1123 14:54:33.900861  3220 layer_factory.hpp:77] Creating layer enet1_1_relu1_1_0_split
I1123 14:54:33.900872  3220 net.cpp:106] Creating Layer enet1_1_relu1_1_0_split
I1123 14:54:33.900879  3220 net.cpp:454] enet1_1_relu1_1_0_split <- enet1_1
I1123 14:54:33.900890  3220 net.cpp:411] enet1_1_relu1_1_0_split -> enet1_1_relu1_1_0_split_0
I1123 14:54:33.900902  3220 net.cpp:411] enet1_1_relu1_1_0_split -> enet1_1_relu1_1_0_split_1
I1123 14:54:33.900957  3220 net.cpp:150] Setting up enet1_1_relu1_1_0_split
I1123 14:54:33.900970  3220 net.cpp:157] Top shape: 8 64 81 161 (6676992)
I1123 14:54:33.900977  3220 net.cpp:157] Top shape: 8 64 81 161 (6676992)
I1123 14:54:33.900984  3220 net.cpp:165] Memory required for data: 910770880
I1123 14:54:33.900990  3220 layer_factory.hpp:77] Creating layer enet1_2_branch2a
I1123 14:54:33.901007  3220 net.cpp:106] Creating Layer enet1_2_branch2a
I1123 14:54:33.901015  3220 net.cpp:454] enet1_2_branch2a <- enet1_1_relu1_1_0_split_0
I1123 14:54:33.901026  3220 net.cpp:411] enet1_2_branch2a -> enet1_2_branch2a
I1123 14:54:33.901269  3220 net.cpp:150] Setting up enet1_2_branch2a
I1123 14:54:33.901284  3220 net.cpp:157] Top shape: 8 16 81 161 (1669248)
I1123 14:54:33.901290  3220 net.cpp:165] Memory required for data: 917447872
I1123 14:54:33.901299  3220 layer_factory.hpp:77] Creating layer bn1_2_branch2a
I1123 14:54:33.901311  3220 net.cpp:106] Creating Layer bn1_2_branch2a
I1123 14:54:33.901319  3220 net.cpp:454] bn1_2_branch2a <- enet1_2_branch2a
I1123 14:54:33.901332  3220 net.cpp:397] bn1_2_branch2a -> enet1_2_branch2a (in-place)
I1123 14:54:33.901597  3220 net.cpp:150] Setting up bn1_2_branch2a
I1123 14:54:33.901612  3220 net.cpp:157] Top shape: 8 16 81 161 (1669248)
I1123 14:54:33.901618  3220 net.cpp:165] Memory required for data: 924124864
I1123 14:54:33.901628  3220 layer_factory.hpp:77] Creating layer relu1_2_branch2a
I1123 14:54:33.901641  3220 net.cpp:106] Creating Layer relu1_2_branch2a
I1123 14:54:33.901648  3220 net.cpp:454] relu1_2_branch2a <- enet1_2_branch2a
I1123 14:54:33.901659  3220 net.cpp:397] relu1_2_branch2a -> enet1_2_branch2a (in-place)
I1123 14:54:33.903136  3220 net.cpp:150] Setting up relu1_2_branch2a
I1123 14:54:33.903152  3220 net.cpp:157] Top shape: 8 16 81 161 (1669248)
I1123 14:54:33.903159  3220 net.cpp:165] Memory required for data: 930801856
I1123 14:54:33.903168  3220 layer_factory.hpp:77] Creating layer enet1_2_branch2b
I1123 14:54:33.903195  3220 net.cpp:106] Creating Layer enet1_2_branch2b
I1123 14:54:33.903213  3220 net.cpp:454] enet1_2_branch2b <- enet1_2_branch2a
I1123 14:54:33.903224  3220 net.cpp:411] enet1_2_branch2b -> enet1_2_branch2b
I1123 14:54:33.903564  3220 net.cpp:150] Setting up enet1_2_branch2b
I1123 14:54:33.903578  3220 net.cpp:157] Top shape: 8 16 81 161 (1669248)
I1123 14:54:33.903584  3220 net.cpp:165] Memory required for data: 937478848
I1123 14:54:33.903595  3220 layer_factory.hpp:77] Creating layer bn1_2_branch2b
I1123 14:54:33.903607  3220 net.cpp:106] Creating Layer bn1_2_branch2b
I1123 14:54:33.903614  3220 net.cpp:454] bn1_2_branch2b <- enet1_2_branch2b
I1123 14:54:33.903627  3220 net.cpp:397] bn1_2_branch2b -> enet1_2_branch2b (in-place)
I1123 14:54:33.903897  3220 net.cpp:150] Setting up bn1_2_branch2b
I1123 14:54:33.903910  3220 net.cpp:157] Top shape: 8 16 81 161 (1669248)
I1123 14:54:33.903916  3220 net.cpp:165] Memory required for data: 944155840
I1123 14:54:33.903926  3220 layer_factory.hpp:77] Creating layer relu1_2_branch2b
I1123 14:54:33.903939  3220 net.cpp:106] Creating Layer relu1_2_branch2b
I1123 14:54:33.903946  3220 net.cpp:454] relu1_2_branch2b <- enet1_2_branch2b
I1123 14:54:33.903956  3220 net.cpp:397] relu1_2_branch2b -> enet1_2_branch2b (in-place)
I1123 14:54:33.905772  3220 net.cpp:150] Setting up relu1_2_branch2b
I1123 14:54:33.905789  3220 net.cpp:157] Top shape: 8 16 81 161 (1669248)
I1123 14:54:33.905797  3220 net.cpp:165] Memory required for data: 950832832
I1123 14:54:33.905805  3220 layer_factory.hpp:77] Creating layer enet1_2_branch2c
I1123 14:54:33.905822  3220 net.cpp:106] Creating Layer enet1_2_branch2c
I1123 14:54:33.905834  3220 net.cpp:454] enet1_2_branch2c <- enet1_2_branch2b
I1123 14:54:33.905848  3220 net.cpp:411] enet1_2_branch2c -> enet1_2_branch2c
I1123 14:54:33.906085  3220 net.cpp:150] Setting up enet1_2_branch2c
I1123 14:54:33.906098  3220 net.cpp:157] Top shape: 8 64 81 161 (6676992)
I1123 14:54:33.906105  3220 net.cpp:165] Memory required for data: 977540800
I1123 14:54:33.906112  3220 layer_factory.hpp:77] Creating layer bn1_2_branch2c
I1123 14:54:33.906127  3220 net.cpp:106] Creating Layer bn1_2_branch2c
I1123 14:54:33.906134  3220 net.cpp:454] bn1_2_branch2c <- enet1_2_branch2c
I1123 14:54:33.906144  3220 net.cpp:397] bn1_2_branch2c -> enet1_2_branch2c (in-place)
I1123 14:54:33.907574  3220 net.cpp:150] Setting up bn1_2_branch2c
I1123 14:54:33.907591  3220 net.cpp:157] Top shape: 8 64 81 161 (6676992)
I1123 14:54:33.907598  3220 net.cpp:165] Memory required for data: 1004248768
I1123 14:54:33.907608  3220 layer_factory.hpp:77] Creating layer dropout1_2_branch2c
I1123 14:54:33.907619  3220 net.cpp:106] Creating Layer dropout1_2_branch2c
I1123 14:54:33.907626  3220 net.cpp:454] dropout1_2_branch2c <- enet1_2_branch2c
I1123 14:54:33.907640  3220 net.cpp:397] dropout1_2_branch2c -> enet1_2_branch2c (in-place)
I1123 14:54:33.907676  3220 net.cpp:150] Setting up dropout1_2_branch2c
I1123 14:54:33.907688  3220 net.cpp:157] Top shape: 8 64 81 161 (6676992)
I1123 14:54:33.907694  3220 net.cpp:165] Memory required for data: 1030956736
I1123 14:54:33.907701  3220 layer_factory.hpp:77] Creating layer enet1_2
I1123 14:54:33.907711  3220 net.cpp:106] Creating Layer enet1_2
I1123 14:54:33.907717  3220 net.cpp:454] enet1_2 <- enet1_1_relu1_1_0_split_1
I1123 14:54:33.907726  3220 net.cpp:454] enet1_2 <- enet1_2_branch2c
I1123 14:54:33.907734  3220 net.cpp:411] enet1_2 -> enet1_2
I1123 14:54:33.907770  3220 net.cpp:150] Setting up enet1_2
I1123 14:54:33.907783  3220 net.cpp:157] Top shape: 8 64 81 161 (6676992)
I1123 14:54:33.907788  3220 net.cpp:165] Memory required for data: 1057664704
I1123 14:54:33.907795  3220 layer_factory.hpp:77] Creating layer relu1_2
I1123 14:54:33.907806  3220 net.cpp:106] Creating Layer relu1_2
I1123 14:54:33.907814  3220 net.cpp:454] relu1_2 <- enet1_2
I1123 14:54:33.907822  3220 net.cpp:397] relu1_2 -> enet1_2 (in-place)
I1123 14:54:33.912942  3220 net.cpp:150] Setting up relu1_2
I1123 14:54:33.912961  3220 net.cpp:157] Top shape: 8 64 81 161 (6676992)
I1123 14:54:33.912977  3220 net.cpp:165] Memory required for data: 1084372672
I1123 14:54:33.913002  3220 layer_factory.hpp:77] Creating layer enet1_2_relu1_2_0_split
I1123 14:54:33.913013  3220 net.cpp:106] Creating Layer enet1_2_relu1_2_0_split
I1123 14:54:33.913020  3220 net.cpp:454] enet1_2_relu1_2_0_split <- enet1_2
I1123 14:54:33.913035  3220 net.cpp:411] enet1_2_relu1_2_0_split -> enet1_2_relu1_2_0_split_0
I1123 14:54:33.913048  3220 net.cpp:411] enet1_2_relu1_2_0_split -> enet1_2_relu1_2_0_split_1
I1123 14:54:33.913096  3220 net.cpp:150] Setting up enet1_2_relu1_2_0_split
I1123 14:54:33.913107  3220 net.cpp:157] Top shape: 8 64 81 161 (6676992)
I1123 14:54:33.913115  3220 net.cpp:157] Top shape: 8 64 81 161 (6676992)
I1123 14:54:33.913121  3220 net.cpp:165] Memory required for data: 1137788608
I1123 14:54:33.913128  3220 layer_factory.hpp:77] Creating layer enet1_3_branch2a
I1123 14:54:33.913146  3220 net.cpp:106] Creating Layer enet1_3_branch2a
I1123 14:54:33.913153  3220 net.cpp:454] enet1_3_branch2a <- enet1_2_relu1_2_0_split_0
I1123 14:54:33.913163  3220 net.cpp:411] enet1_3_branch2a -> enet1_3_branch2a
I1123 14:54:33.913395  3220 net.cpp:150] Setting up enet1_3_branch2a
I1123 14:54:33.913409  3220 net.cpp:157] Top shape: 8 16 81 161 (1669248)
I1123 14:54:33.913415  3220 net.cpp:165] Memory required for data: 1144465600
I1123 14:54:33.913424  3220 layer_factory.hpp:77] Creating layer bn1_3_branch2a
I1123 14:54:33.913439  3220 net.cpp:106] Creating Layer bn1_3_branch2a
I1123 14:54:33.913446  3220 net.cpp:454] bn1_3_branch2a <- enet1_3_branch2a
I1123 14:54:33.913456  3220 net.cpp:397] bn1_3_branch2a -> enet1_3_branch2a (in-place)
I1123 14:54:33.913712  3220 net.cpp:150] Setting up bn1_3_branch2a
I1123 14:54:33.913727  3220 net.cpp:157] Top shape: 8 16 81 161 (1669248)
I1123 14:54:33.913733  3220 net.cpp:165] Memory required for data: 1151142592
I1123 14:54:33.913743  3220 layer_factory.hpp:77] Creating layer relu1_3_branch2a
I1123 14:54:33.913753  3220 net.cpp:106] Creating Layer relu1_3_branch2a
I1123 14:54:33.913760  3220 net.cpp:454] relu1_3_branch2a <- enet1_3_branch2a
I1123 14:54:33.913769  3220 net.cpp:397] relu1_3_branch2a -> enet1_3_branch2a (in-place)
I1123 14:54:33.915230  3220 net.cpp:150] Setting up relu1_3_branch2a
I1123 14:54:33.915247  3220 net.cpp:157] Top shape: 8 16 81 161 (1669248)
I1123 14:54:33.915254  3220 net.cpp:165] Memory required for data: 1157819584
I1123 14:54:33.915263  3220 layer_factory.hpp:77] Creating layer enet1_3_branch2b
I1123 14:54:33.915282  3220 net.cpp:106] Creating Layer enet1_3_branch2b
I1123 14:54:33.915290  3220 net.cpp:454] enet1_3_branch2b <- enet1_3_branch2a
I1123 14:54:33.915304  3220 net.cpp:411] enet1_3_branch2b -> enet1_3_branch2b
I1123 14:54:33.915640  3220 net.cpp:150] Setting up enet1_3_branch2b
I1123 14:54:33.915654  3220 net.cpp:157] Top shape: 8 16 81 161 (1669248)
I1123 14:54:33.915660  3220 net.cpp:165] Memory required for data: 1164496576
I1123 14:54:33.915670  3220 layer_factory.hpp:77] Creating layer bn1_3_branch2b
I1123 14:54:33.915685  3220 net.cpp:106] Creating Layer bn1_3_branch2b
I1123 14:54:33.915693  3220 net.cpp:454] bn1_3_branch2b <- enet1_3_branch2b
I1123 14:54:33.915705  3220 net.cpp:397] bn1_3_branch2b -> enet1_3_branch2b (in-place)
I1123 14:54:33.916260  3220 net.cpp:150] Setting up bn1_3_branch2b
I1123 14:54:33.916276  3220 net.cpp:157] Top shape: 8 16 81 161 (1669248)
I1123 14:54:33.916283  3220 net.cpp:165] Memory required for data: 1171173568
I1123 14:54:33.916295  3220 layer_factory.hpp:77] Creating layer relu1_3_branch2b
I1123 14:54:33.916304  3220 net.cpp:106] Creating Layer relu1_3_branch2b
I1123 14:54:33.916311  3220 net.cpp:454] relu1_3_branch2b <- enet1_3_branch2b
I1123 14:54:33.916321  3220 net.cpp:397] relu1_3_branch2b -> enet1_3_branch2b (in-place)
I1123 14:54:33.917728  3220 net.cpp:150] Setting up relu1_3_branch2b
I1123 14:54:33.917744  3220 net.cpp:157] Top shape: 8 16 81 161 (1669248)
I1123 14:54:33.917750  3220 net.cpp:165] Memory required for data: 1177850560
I1123 14:54:33.917760  3220 layer_factory.hpp:77] Creating layer enet1_3_branch2c
I1123 14:54:33.917793  3220 net.cpp:106] Creating Layer enet1_3_branch2c
I1123 14:54:33.917803  3220 net.cpp:454] enet1_3_branch2c <- enet1_3_branch2b
I1123 14:54:33.917816  3220 net.cpp:411] enet1_3_branch2c -> enet1_3_branch2c
I1123 14:54:33.918059  3220 net.cpp:150] Setting up enet1_3_branch2c
I1123 14:54:33.918074  3220 net.cpp:157] Top shape: 8 64 81 161 (6676992)
I1123 14:54:33.918081  3220 net.cpp:165] Memory required for data: 1204558528
I1123 14:54:33.918088  3220 layer_factory.hpp:77] Creating layer bn1_3_branch2c
I1123 14:54:33.918100  3220 net.cpp:106] Creating Layer bn1_3_branch2c
I1123 14:54:33.918107  3220 net.cpp:454] bn1_3_branch2c <- enet1_3_branch2c
I1123 14:54:33.918117  3220 net.cpp:397] bn1_3_branch2c -> enet1_3_branch2c (in-place)
I1123 14:54:33.918382  3220 net.cpp:150] Setting up bn1_3_branch2c
I1123 14:54:33.918396  3220 net.cpp:157] Top shape: 8 64 81 161 (6676992)
I1123 14:54:33.918402  3220 net.cpp:165] Memory required for data: 1231266496
I1123 14:54:33.918413  3220 layer_factory.hpp:77] Creating layer dropout1_3_branch2c
I1123 14:54:33.918426  3220 net.cpp:106] Creating Layer dropout1_3_branch2c
I1123 14:54:33.918433  3220 net.cpp:454] dropout1_3_branch2c <- enet1_3_branch2c
I1123 14:54:33.918447  3220 net.cpp:397] dropout1_3_branch2c -> enet1_3_branch2c (in-place)
I1123 14:54:33.918483  3220 net.cpp:150] Setting up dropout1_3_branch2c
I1123 14:54:33.918494  3220 net.cpp:157] Top shape: 8 64 81 161 (6676992)
I1123 14:54:33.918500  3220 net.cpp:165] Memory required for data: 1257974464
I1123 14:54:33.918507  3220 layer_factory.hpp:77] Creating layer enet1_3
I1123 14:54:33.918517  3220 net.cpp:106] Creating Layer enet1_3
I1123 14:54:33.918524  3220 net.cpp:454] enet1_3 <- enet1_2_relu1_2_0_split_1
I1123 14:54:33.918532  3220 net.cpp:454] enet1_3 <- enet1_3_branch2c
I1123 14:54:33.918545  3220 net.cpp:411] enet1_3 -> enet1_3
I1123 14:54:33.918576  3220 net.cpp:150] Setting up enet1_3
I1123 14:54:33.918592  3220 net.cpp:157] Top shape: 8 64 81 161 (6676992)
I1123 14:54:33.918599  3220 net.cpp:165] Memory required for data: 1284682432
I1123 14:54:33.918606  3220 layer_factory.hpp:77] Creating layer relu1_3
I1123 14:54:33.918615  3220 net.cpp:106] Creating Layer relu1_3
I1123 14:54:33.918622  3220 net.cpp:454] relu1_3 <- enet1_3
I1123 14:54:33.918630  3220 net.cpp:397] relu1_3 -> enet1_3 (in-place)
I1123 14:54:33.923722  3220 net.cpp:150] Setting up relu1_3
I1123 14:54:33.923743  3220 net.cpp:157] Top shape: 8 64 81 161 (6676992)
I1123 14:54:33.923749  3220 net.cpp:165] Memory required for data: 1311390400
I1123 14:54:33.923758  3220 layer_factory.hpp:77] Creating layer enet1_3_relu1_3_0_split
I1123 14:54:33.923769  3220 net.cpp:106] Creating Layer enet1_3_relu1_3_0_split
I1123 14:54:33.923776  3220 net.cpp:454] enet1_3_relu1_3_0_split <- enet1_3
I1123 14:54:33.923790  3220 net.cpp:411] enet1_3_relu1_3_0_split -> enet1_3_relu1_3_0_split_0
I1123 14:54:33.923804  3220 net.cpp:411] enet1_3_relu1_3_0_split -> enet1_3_relu1_3_0_split_1
I1123 14:54:33.923861  3220 net.cpp:150] Setting up enet1_3_relu1_3_0_split
I1123 14:54:33.923873  3220 net.cpp:157] Top shape: 8 64 81 161 (6676992)
I1123 14:54:33.923882  3220 net.cpp:157] Top shape: 8 64 81 161 (6676992)
I1123 14:54:33.923887  3220 net.cpp:165] Memory required for data: 1364806336
I1123 14:54:33.923893  3220 layer_factory.hpp:77] Creating layer enet1_4_branch2a
I1123 14:54:33.923907  3220 net.cpp:106] Creating Layer enet1_4_branch2a
I1123 14:54:33.923913  3220 net.cpp:454] enet1_4_branch2a <- enet1_3_relu1_3_0_split_0
I1123 14:54:33.923924  3220 net.cpp:411] enet1_4_branch2a -> enet1_4_branch2a
I1123 14:54:33.924156  3220 net.cpp:150] Setting up enet1_4_branch2a
I1123 14:54:33.924170  3220 net.cpp:157] Top shape: 8 16 81 161 (1669248)
I1123 14:54:33.924176  3220 net.cpp:165] Memory required for data: 1371483328
I1123 14:54:33.924185  3220 layer_factory.hpp:77] Creating layer bn1_4_branch2a
I1123 14:54:33.924201  3220 net.cpp:106] Creating Layer bn1_4_branch2a
I1123 14:54:33.924207  3220 net.cpp:454] bn1_4_branch2a <- enet1_4_branch2a
I1123 14:54:33.924230  3220 net.cpp:397] bn1_4_branch2a -> enet1_4_branch2a (in-place)
I1123 14:54:33.924510  3220 net.cpp:150] Setting up bn1_4_branch2a
I1123 14:54:33.924525  3220 net.cpp:157] Top shape: 8 16 81 161 (1669248)
I1123 14:54:33.924531  3220 net.cpp:165] Memory required for data: 1378160320
I1123 14:54:33.924542  3220 layer_factory.hpp:77] Creating layer relu1_4_branch2a
I1123 14:54:33.924552  3220 net.cpp:106] Creating Layer relu1_4_branch2a
I1123 14:54:33.924558  3220 net.cpp:454] relu1_4_branch2a <- enet1_4_branch2a
I1123 14:54:33.924567  3220 net.cpp:397] relu1_4_branch2a -> enet1_4_branch2a (in-place)
I1123 14:54:33.926033  3220 net.cpp:150] Setting up relu1_4_branch2a
I1123 14:54:33.926049  3220 net.cpp:157] Top shape: 8 16 81 161 (1669248)
I1123 14:54:33.926056  3220 net.cpp:165] Memory required for data: 1384837312
I1123 14:54:33.926065  3220 layer_factory.hpp:77] Creating layer enet1_4_branch2b
I1123 14:54:33.926084  3220 net.cpp:106] Creating Layer enet1_4_branch2b
I1123 14:54:33.926091  3220 net.cpp:454] enet1_4_branch2b <- enet1_4_branch2a
I1123 14:54:33.926101  3220 net.cpp:411] enet1_4_branch2b -> enet1_4_branch2b
I1123 14:54:33.926447  3220 net.cpp:150] Setting up enet1_4_branch2b
I1123 14:54:33.926461  3220 net.cpp:157] Top shape: 8 16 81 161 (1669248)
I1123 14:54:33.926467  3220 net.cpp:165] Memory required for data: 1391514304
I1123 14:54:33.926499  3220 layer_factory.hpp:77] Creating layer bn1_4_branch2b
I1123 14:54:33.926529  3220 net.cpp:106] Creating Layer bn1_4_branch2b
I1123 14:54:33.926538  3220 net.cpp:454] bn1_4_branch2b <- enet1_4_branch2b
I1123 14:54:33.926548  3220 net.cpp:397] bn1_4_branch2b -> enet1_4_branch2b (in-place)
I1123 14:54:33.927093  3220 net.cpp:150] Setting up bn1_4_branch2b
I1123 14:54:33.927109  3220 net.cpp:157] Top shape: 8 16 81 161 (1669248)
I1123 14:54:33.927114  3220 net.cpp:165] Memory required for data: 1398191296
I1123 14:54:33.927126  3220 layer_factory.hpp:77] Creating layer relu1_4_branch2b
I1123 14:54:33.927136  3220 net.cpp:106] Creating Layer relu1_4_branch2b
I1123 14:54:33.927144  3220 net.cpp:454] relu1_4_branch2b <- enet1_4_branch2b
I1123 14:54:33.927152  3220 net.cpp:397] relu1_4_branch2b -> enet1_4_branch2b (in-place)
I1123 14:54:33.928570  3220 net.cpp:150] Setting up relu1_4_branch2b
I1123 14:54:33.928586  3220 net.cpp:157] Top shape: 8 16 81 161 (1669248)
I1123 14:54:33.928592  3220 net.cpp:165] Memory required for data: 1404868288
I1123 14:54:33.928601  3220 layer_factory.hpp:77] Creating layer enet1_4_branch2c
I1123 14:54:33.928620  3220 net.cpp:106] Creating Layer enet1_4_branch2c
I1123 14:54:33.928628  3220 net.cpp:454] enet1_4_branch2c <- enet1_4_branch2b
I1123 14:54:33.928642  3220 net.cpp:411] enet1_4_branch2c -> enet1_4_branch2c
I1123 14:54:33.928890  3220 net.cpp:150] Setting up enet1_4_branch2c
I1123 14:54:33.928905  3220 net.cpp:157] Top shape: 8 64 81 161 (6676992)
I1123 14:54:33.928911  3220 net.cpp:165] Memory required for data: 1431576256
I1123 14:54:33.928920  3220 layer_factory.hpp:77] Creating layer bn1_4_branch2c
I1123 14:54:33.928931  3220 net.cpp:106] Creating Layer bn1_4_branch2c
I1123 14:54:33.928938  3220 net.cpp:454] bn1_4_branch2c <- enet1_4_branch2c
I1123 14:54:33.928951  3220 net.cpp:397] bn1_4_branch2c -> enet1_4_branch2c (in-place)
I1123 14:54:33.929224  3220 net.cpp:150] Setting up bn1_4_branch2c
I1123 14:54:33.929239  3220 net.cpp:157] Top shape: 8 64 81 161 (6676992)
I1123 14:54:33.929244  3220 net.cpp:165] Memory required for data: 1458284224
I1123 14:54:33.929255  3220 layer_factory.hpp:77] Creating layer dropout1_4_branch2c
I1123 14:54:33.929273  3220 net.cpp:106] Creating Layer dropout1_4_branch2c
I1123 14:54:33.929280  3220 net.cpp:454] dropout1_4_branch2c <- enet1_4_branch2c
I1123 14:54:33.929291  3220 net.cpp:397] dropout1_4_branch2c -> enet1_4_branch2c (in-place)
I1123 14:54:33.929322  3220 net.cpp:150] Setting up dropout1_4_branch2c
I1123 14:54:33.929333  3220 net.cpp:157] Top shape: 8 64 81 161 (6676992)
I1123 14:54:33.929339  3220 net.cpp:165] Memory required for data: 1484992192
I1123 14:54:33.929354  3220 layer_factory.hpp:77] Creating layer enet1_4
I1123 14:54:33.929373  3220 net.cpp:106] Creating Layer enet1_4
I1123 14:54:33.929379  3220 net.cpp:454] enet1_4 <- enet1_3_relu1_3_0_split_1
I1123 14:54:33.929388  3220 net.cpp:454] enet1_4 <- enet1_4_branch2c
I1123 14:54:33.929401  3220 net.cpp:411] enet1_4 -> enet1_4
I1123 14:54:33.929438  3220 net.cpp:150] Setting up enet1_4
I1123 14:54:33.929450  3220 net.cpp:157] Top shape: 8 64 81 161 (6676992)
I1123 14:54:33.929456  3220 net.cpp:165] Memory required for data: 1511700160
I1123 14:54:33.929462  3220 layer_factory.hpp:77] Creating layer relu1_4
I1123 14:54:33.929471  3220 net.cpp:106] Creating Layer relu1_4
I1123 14:54:33.929478  3220 net.cpp:454] relu1_4 <- enet1_4
I1123 14:54:33.929491  3220 net.cpp:397] relu1_4 -> enet1_4 (in-place)
I1123 14:54:33.934586  3220 net.cpp:150] Setting up relu1_4
I1123 14:54:33.934604  3220 net.cpp:157] Top shape: 8 64 81 161 (6676992)
I1123 14:54:33.934612  3220 net.cpp:165] Memory required for data: 1538408128
I1123 14:54:33.934620  3220 layer_factory.hpp:77] Creating layer enet1_4_relu1_4_0_split
I1123 14:54:33.934635  3220 net.cpp:106] Creating Layer enet1_4_relu1_4_0_split
I1123 14:54:33.934643  3220 net.cpp:454] enet1_4_relu1_4_0_split <- enet1_4
I1123 14:54:33.934653  3220 net.cpp:411] enet1_4_relu1_4_0_split -> enet1_4_relu1_4_0_split_0
I1123 14:54:33.934669  3220 net.cpp:411] enet1_4_relu1_4_0_split -> enet1_4_relu1_4_0_split_1
I1123 14:54:33.934717  3220 net.cpp:150] Setting up enet1_4_relu1_4_0_split
I1123 14:54:33.934731  3220 net.cpp:157] Top shape: 8 64 81 161 (6676992)
I1123 14:54:33.934737  3220 net.cpp:157] Top shape: 8 64 81 161 (6676992)
I1123 14:54:33.934743  3220 net.cpp:165] Memory required for data: 1591824064
I1123 14:54:33.934749  3220 layer_factory.hpp:77] Creating layer enet2_0_branch2a
I1123 14:54:33.934762  3220 net.cpp:106] Creating Layer enet2_0_branch2a
I1123 14:54:33.934769  3220 net.cpp:454] enet2_0_branch2a <- enet1_4_relu1_4_0_split_0
I1123 14:54:33.934783  3220 net.cpp:411] enet2_0_branch2a -> enet2_0_branch2a
I1123 14:54:33.935204  3220 net.cpp:150] Setting up enet2_0_branch2a
I1123 14:54:33.935219  3220 net.cpp:157] Top shape: 8 32 41 81 (850176)
I1123 14:54:33.935225  3220 net.cpp:165] Memory required for data: 1595224768
I1123 14:54:33.935233  3220 layer_factory.hpp:77] Creating layer bn2_0_branch2a
I1123 14:54:33.935248  3220 net.cpp:106] Creating Layer bn2_0_branch2a
I1123 14:54:33.935256  3220 net.cpp:454] bn2_0_branch2a <- enet2_0_branch2a
I1123 14:54:33.935266  3220 net.cpp:397] bn2_0_branch2a -> enet2_0_branch2a (in-place)
I1123 14:54:33.935528  3220 net.cpp:150] Setting up bn2_0_branch2a
I1123 14:54:33.935541  3220 net.cpp:157] Top shape: 8 32 41 81 (850176)
I1123 14:54:33.935547  3220 net.cpp:165] Memory required for data: 1598625472
I1123 14:54:33.935557  3220 layer_factory.hpp:77] Creating layer relu2_0_branch2a
I1123 14:54:33.935567  3220 net.cpp:106] Creating Layer relu2_0_branch2a
I1123 14:54:33.935573  3220 net.cpp:454] relu2_0_branch2a <- enet2_0_branch2a
I1123 14:54:33.935582  3220 net.cpp:397] relu2_0_branch2a -> enet2_0_branch2a (in-place)
I1123 14:54:33.936983  3220 net.cpp:150] Setting up relu2_0_branch2a
I1123 14:54:33.937000  3220 net.cpp:157] Top shape: 8 32 41 81 (850176)
I1123 14:54:33.937006  3220 net.cpp:165] Memory required for data: 1602026176
I1123 14:54:33.937016  3220 layer_factory.hpp:77] Creating layer enet2_0_branch2b
I1123 14:54:33.937033  3220 net.cpp:106] Creating Layer enet2_0_branch2b
I1123 14:54:33.937041  3220 net.cpp:454] enet2_0_branch2b <- enet2_0_branch2a
I1123 14:54:33.937054  3220 net.cpp:411] enet2_0_branch2b -> enet2_0_branch2b
I1123 14:54:33.937854  3220 net.cpp:150] Setting up enet2_0_branch2b
I1123 14:54:33.937868  3220 net.cpp:157] Top shape: 8 32 41 81 (850176)
I1123 14:54:33.937875  3220 net.cpp:165] Memory required for data: 1605426880
I1123 14:54:33.937885  3220 layer_factory.hpp:77] Creating layer bn2_0_branch2b
I1123 14:54:33.937901  3220 net.cpp:106] Creating Layer bn2_0_branch2b
I1123 14:54:33.937916  3220 net.cpp:454] bn2_0_branch2b <- enet2_0_branch2b
I1123 14:54:33.937937  3220 net.cpp:397] bn2_0_branch2b -> enet2_0_branch2b (in-place)
I1123 14:54:33.938197  3220 net.cpp:150] Setting up bn2_0_branch2b
I1123 14:54:33.938210  3220 net.cpp:157] Top shape: 8 32 41 81 (850176)
I1123 14:54:33.938216  3220 net.cpp:165] Memory required for data: 1608827584
I1123 14:54:33.938226  3220 layer_factory.hpp:77] Creating layer relu2_0_branch2b
I1123 14:54:33.938236  3220 net.cpp:106] Creating Layer relu2_0_branch2b
I1123 14:54:33.938243  3220 net.cpp:454] relu2_0_branch2b <- enet2_0_branch2b
I1123 14:54:33.938252  3220 net.cpp:397] relu2_0_branch2b -> enet2_0_branch2b (in-place)
I1123 14:54:33.938449  3220 net.cpp:150] Setting up relu2_0_branch2b
I1123 14:54:33.938467  3220 net.cpp:157] Top shape: 8 32 41 81 (850176)
I1123 14:54:33.938473  3220 net.cpp:165] Memory required for data: 1612228288
I1123 14:54:33.938482  3220 layer_factory.hpp:77] Creating layer enet2_0_branch2c
I1123 14:54:33.938495  3220 net.cpp:106] Creating Layer enet2_0_branch2c
I1123 14:54:33.938503  3220 net.cpp:454] enet2_0_branch2c <- enet2_0_branch2b
I1123 14:54:33.938515  3220 net.cpp:411] enet2_0_branch2c -> enet2_0_branch2c
I1123 14:54:33.938855  3220 net.cpp:150] Setting up enet2_0_branch2c
I1123 14:54:33.938870  3220 net.cpp:157] Top shape: 8 128 41 81 (3400704)
I1123 14:54:33.938876  3220 net.cpp:165] Memory required for data: 1625831104
I1123 14:54:33.938885  3220 layer_factory.hpp:77] Creating layer bn2_0_branch2c
I1123 14:54:33.938896  3220 net.cpp:106] Creating Layer bn2_0_branch2c
I1123 14:54:33.938904  3220 net.cpp:454] bn2_0_branch2c <- enet2_0_branch2c
I1123 14:54:33.938913  3220 net.cpp:397] bn2_0_branch2c -> enet2_0_branch2c (in-place)
I1123 14:54:33.939151  3220 net.cpp:150] Setting up bn2_0_branch2c
I1123 14:54:33.939164  3220 net.cpp:157] Top shape: 8 128 41 81 (3400704)
I1123 14:54:33.939170  3220 net.cpp:165] Memory required for data: 1639433920
I1123 14:54:33.939180  3220 layer_factory.hpp:77] Creating layer dropout2_0_branch2c
I1123 14:54:33.939190  3220 net.cpp:106] Creating Layer dropout2_0_branch2c
I1123 14:54:33.939198  3220 net.cpp:454] dropout2_0_branch2c <- enet2_0_branch2c
I1123 14:54:33.939206  3220 net.cpp:397] dropout2_0_branch2c -> enet2_0_branch2c (in-place)
I1123 14:54:33.939239  3220 net.cpp:150] Setting up dropout2_0_branch2c
I1123 14:54:33.939251  3220 net.cpp:157] Top shape: 8 128 41 81 (3400704)
I1123 14:54:33.939257  3220 net.cpp:165] Memory required for data: 1653036736
I1123 14:54:33.939263  3220 layer_factory.hpp:77] Creating layer enet2_0_branch1a
I1123 14:54:33.939283  3220 net.cpp:106] Creating Layer enet2_0_branch1a
I1123 14:54:33.939291  3220 net.cpp:454] enet2_0_branch1a <- enet1_4_relu1_4_0_split_1
I1123 14:54:33.939302  3220 net.cpp:411] enet2_0_branch1a -> enet2_0_branch1a
I1123 14:54:33.939733  3220 net.cpp:150] Setting up enet2_0_branch1a
I1123 14:54:33.939748  3220 net.cpp:157] Top shape: 8 128 81 161 (13353984)
I1123 14:54:33.939754  3220 net.cpp:165] Memory required for data: 1706452672
I1123 14:54:33.939762  3220 layer_factory.hpp:77] Creating layer bn2_0_branch1a
I1123 14:54:33.939774  3220 net.cpp:106] Creating Layer bn2_0_branch1a
I1123 14:54:33.939781  3220 net.cpp:454] bn2_0_branch1a <- enet2_0_branch1a
I1123 14:54:33.939796  3220 net.cpp:397] bn2_0_branch1a -> enet2_0_branch1a (in-place)
I1123 14:54:33.940064  3220 net.cpp:150] Setting up bn2_0_branch1a
I1123 14:54:33.940078  3220 net.cpp:157] Top shape: 8 128 81 161 (13353984)
I1123 14:54:33.940085  3220 net.cpp:165] Memory required for data: 1759868608
I1123 14:54:33.940095  3220 layer_factory.hpp:77] Creating layer pool2_0_branch1a
I1123 14:54:33.940107  3220 net.cpp:106] Creating Layer pool2_0_branch1a
I1123 14:54:33.940114  3220 net.cpp:454] pool2_0_branch1a <- enet2_0_branch1a
I1123 14:54:33.940132  3220 net.cpp:411] pool2_0_branch1a -> pool2_0_branch1a
I1123 14:54:33.940182  3220 net.cpp:150] Setting up pool2_0_branch1a
I1123 14:54:33.940194  3220 net.cpp:157] Top shape: 8 128 41 81 (3400704)
I1123 14:54:33.940201  3220 net.cpp:165] Memory required for data: 1773471424
I1123 14:54:33.940220  3220 layer_factory.hpp:77] Creating layer enet2_0
I1123 14:54:33.940234  3220 net.cpp:106] Creating Layer enet2_0
I1123 14:54:33.940243  3220 net.cpp:454] enet2_0 <- pool2_0_branch1a
I1123 14:54:33.940250  3220 net.cpp:454] enet2_0 <- enet2_0_branch2c
I1123 14:54:33.940259  3220 net.cpp:411] enet2_0 -> enet2_0
I1123 14:54:33.940295  3220 net.cpp:150] Setting up enet2_0
I1123 14:54:33.940309  3220 net.cpp:157] Top shape: 8 128 41 81 (3400704)
I1123 14:54:33.940315  3220 net.cpp:165] Memory required for data: 1787074240
I1123 14:54:33.940321  3220 layer_factory.hpp:77] Creating layer relu2_0
I1123 14:54:33.940335  3220 net.cpp:106] Creating Layer relu2_0
I1123 14:54:33.940341  3220 net.cpp:454] relu2_0 <- enet2_0
I1123 14:54:33.940349  3220 net.cpp:397] relu2_0 -> enet2_0 (in-place)
I1123 14:54:33.943090  3220 net.cpp:150] Setting up relu2_0
I1123 14:54:33.943109  3220 net.cpp:157] Top shape: 8 128 41 81 (3400704)
I1123 14:54:33.943115  3220 net.cpp:165] Memory required for data: 1800677056
I1123 14:54:33.943125  3220 layer_factory.hpp:77] Creating layer enet2_0_relu2_0_0_split
I1123 14:54:33.943138  3220 net.cpp:106] Creating Layer enet2_0_relu2_0_0_split
I1123 14:54:33.943145  3220 net.cpp:454] enet2_0_relu2_0_0_split <- enet2_0
I1123 14:54:33.943159  3220 net.cpp:411] enet2_0_relu2_0_0_split -> enet2_0_relu2_0_0_split_0
I1123 14:54:33.943171  3220 net.cpp:411] enet2_0_relu2_0_0_split -> enet2_0_relu2_0_0_split_1
I1123 14:54:33.943220  3220 net.cpp:150] Setting up enet2_0_relu2_0_0_split
I1123 14:54:33.943233  3220 net.cpp:157] Top shape: 8 128 41 81 (3400704)
I1123 14:54:33.943240  3220 net.cpp:157] Top shape: 8 128 41 81 (3400704)
I1123 14:54:33.943246  3220 net.cpp:165] Memory required for data: 1827882688
I1123 14:54:33.943253  3220 layer_factory.hpp:77] Creating layer enet2_1_branch2a
I1123 14:54:33.943265  3220 net.cpp:106] Creating Layer enet2_1_branch2a
I1123 14:54:33.943272  3220 net.cpp:454] enet2_1_branch2a <- enet2_0_relu2_0_0_split_0
I1123 14:54:33.943287  3220 net.cpp:411] enet2_1_branch2a -> enet2_1_branch2a
I1123 14:54:33.943620  3220 net.cpp:150] Setting up enet2_1_branch2a
I1123 14:54:33.943634  3220 net.cpp:157] Top shape: 8 32 41 81 (850176)
I1123 14:54:33.943640  3220 net.cpp:165] Memory required for data: 1831283392
I1123 14:54:33.943650  3220 layer_factory.hpp:77] Creating layer bn2_1_branch2a
I1123 14:54:33.943665  3220 net.cpp:106] Creating Layer bn2_1_branch2a
I1123 14:54:33.943671  3220 net.cpp:454] bn2_1_branch2a <- enet2_1_branch2a
I1123 14:54:33.943681  3220 net.cpp:397] bn2_1_branch2a -> enet2_1_branch2a (in-place)
I1123 14:54:33.943944  3220 net.cpp:150] Setting up bn2_1_branch2a
I1123 14:54:33.943958  3220 net.cpp:157] Top shape: 8 32 41 81 (850176)
I1123 14:54:33.943964  3220 net.cpp:165] Memory required for data: 1834684096
I1123 14:54:33.943974  3220 layer_factory.hpp:77] Creating layer relu2_1_branch2a
I1123 14:54:33.943984  3220 net.cpp:106] Creating Layer relu2_1_branch2a
I1123 14:54:33.943991  3220 net.cpp:454] relu2_1_branch2a <- enet2_1_branch2a
I1123 14:54:33.944000  3220 net.cpp:397] relu2_1_branch2a -> enet2_1_branch2a (in-place)
I1123 14:54:33.945607  3220 net.cpp:150] Setting up relu2_1_branch2a
I1123 14:54:33.945624  3220 net.cpp:157] Top shape: 8 32 41 81 (850176)
I1123 14:54:33.945631  3220 net.cpp:165] Memory required for data: 1838084800
I1123 14:54:33.945639  3220 layer_factory.hpp:77] Creating layer enet2_1_branch2b
I1123 14:54:33.945657  3220 net.cpp:106] Creating Layer enet2_1_branch2b
I1123 14:54:33.945664  3220 net.cpp:454] enet2_1_branch2b <- enet2_1_branch2a
I1123 14:54:33.945678  3220 net.cpp:411] enet2_1_branch2b -> enet2_1_branch2b
I1123 14:54:33.946208  3220 net.cpp:150] Setting up enet2_1_branch2b
I1123 14:54:33.946223  3220 net.cpp:157] Top shape: 8 32 41 81 (850176)
I1123 14:54:33.946228  3220 net.cpp:165] Memory required for data: 1841485504
I1123 14:54:33.946238  3220 layer_factory.hpp:77] Creating layer bn2_1_branch2b
I1123 14:54:33.946254  3220 net.cpp:106] Creating Layer bn2_1_branch2b
I1123 14:54:33.946269  3220 net.cpp:454] bn2_1_branch2b <- enet2_1_branch2b
I1123 14:54:33.946287  3220 net.cpp:397] bn2_1_branch2b -> enet2_1_branch2b (in-place)
I1123 14:54:33.946557  3220 net.cpp:150] Setting up bn2_1_branch2b
I1123 14:54:33.946570  3220 net.cpp:157] Top shape: 8 32 41 81 (850176)
I1123 14:54:33.946576  3220 net.cpp:165] Memory required for data: 1844886208
I1123 14:54:33.946586  3220 layer_factory.hpp:77] Creating layer relu2_1_branch2b
I1123 14:54:33.946596  3220 net.cpp:106] Creating Layer relu2_1_branch2b
I1123 14:54:33.946604  3220 net.cpp:454] relu2_1_branch2b <- enet2_1_branch2b
I1123 14:54:33.946615  3220 net.cpp:397] relu2_1_branch2b -> enet2_1_branch2b (in-place)
I1123 14:54:33.946811  3220 net.cpp:150] Setting up relu2_1_branch2b
I1123 14:54:33.946830  3220 net.cpp:157] Top shape: 8 32 41 81 (850176)
I1123 14:54:33.946836  3220 net.cpp:165] Memory required for data: 1848286912
I1123 14:54:33.946844  3220 layer_factory.hpp:77] Creating layer enet2_1_branch2c
I1123 14:54:33.946861  3220 net.cpp:106] Creating Layer enet2_1_branch2c
I1123 14:54:33.946869  3220 net.cpp:454] enet2_1_branch2c <- enet2_1_branch2b
I1123 14:54:33.946882  3220 net.cpp:411] enet2_1_branch2c -> enet2_1_branch2c
I1123 14:54:33.947213  3220 net.cpp:150] Setting up enet2_1_branch2c
I1123 14:54:33.947227  3220 net.cpp:157] Top shape: 8 128 41 81 (3400704)
I1123 14:54:33.947233  3220 net.cpp:165] Memory required for data: 1861889728
I1123 14:54:33.947242  3220 layer_factory.hpp:77] Creating layer bn2_1_branch2c
I1123 14:54:33.947254  3220 net.cpp:106] Creating Layer bn2_1_branch2c
I1123 14:54:33.947260  3220 net.cpp:454] bn2_1_branch2c <- enet2_1_branch2c
I1123 14:54:33.947275  3220 net.cpp:397] bn2_1_branch2c -> enet2_1_branch2c (in-place)
I1123 14:54:33.947516  3220 net.cpp:150] Setting up bn2_1_branch2c
I1123 14:54:33.947530  3220 net.cpp:157] Top shape: 8 128 41 81 (3400704)
I1123 14:54:33.947536  3220 net.cpp:165] Memory required for data: 1875492544
I1123 14:54:33.947546  3220 layer_factory.hpp:77] Creating layer dropout2_1_branch2c
I1123 14:54:33.947557  3220 net.cpp:106] Creating Layer dropout2_1_branch2c
I1123 14:54:33.947564  3220 net.cpp:454] dropout2_1_branch2c <- enet2_1_branch2c
I1123 14:54:33.947573  3220 net.cpp:397] dropout2_1_branch2c -> enet2_1_branch2c (in-place)
I1123 14:54:33.947609  3220 net.cpp:150] Setting up dropout2_1_branch2c
I1123 14:54:33.947621  3220 net.cpp:157] Top shape: 8 128 41 81 (3400704)
I1123 14:54:33.947628  3220 net.cpp:165] Memory required for data: 1889095360
I1123 14:54:33.947634  3220 layer_factory.hpp:77] Creating layer enet2_1
I1123 14:54:33.947643  3220 net.cpp:106] Creating Layer enet2_1
I1123 14:54:33.947650  3220 net.cpp:454] enet2_1 <- enet2_0_relu2_0_0_split_1
I1123 14:54:33.947659  3220 net.cpp:454] enet2_1 <- enet2_1_branch2c
I1123 14:54:33.947666  3220 net.cpp:411] enet2_1 -> enet2_1
I1123 14:54:33.947698  3220 net.cpp:150] Setting up enet2_1
I1123 14:54:33.947710  3220 net.cpp:157] Top shape: 8 128 41 81 (3400704)
I1123 14:54:33.947717  3220 net.cpp:165] Memory required for data: 1902698176
I1123 14:54:33.947723  3220 layer_factory.hpp:77] Creating layer relu2_1
I1123 14:54:33.947736  3220 net.cpp:106] Creating Layer relu2_1
I1123 14:54:33.947743  3220 net.cpp:454] relu2_1 <- enet2_1
I1123 14:54:33.947756  3220 net.cpp:397] relu2_1 -> enet2_1 (in-place)
I1123 14:54:33.950819  3220 net.cpp:150] Setting up relu2_1
I1123 14:54:33.950841  3220 net.cpp:157] Top shape: 8 128 41 81 (3400704)
I1123 14:54:33.950847  3220 net.cpp:165] Memory required for data: 1916300992
I1123 14:54:33.950857  3220 layer_factory.hpp:77] Creating layer enet2_1_relu2_1_0_split
I1123 14:54:33.950870  3220 net.cpp:106] Creating Layer enet2_1_relu2_1_0_split
I1123 14:54:33.950878  3220 net.cpp:454] enet2_1_relu2_1_0_split <- enet2_1
I1123 14:54:33.950888  3220 net.cpp:411] enet2_1_relu2_1_0_split -> enet2_1_relu2_1_0_split_0
I1123 14:54:33.950901  3220 net.cpp:411] enet2_1_relu2_1_0_split -> enet2_1_relu2_1_0_split_1
I1123 14:54:33.950954  3220 net.cpp:150] Setting up enet2_1_relu2_1_0_split
I1123 14:54:33.950974  3220 net.cpp:157] Top shape: 8 128 41 81 (3400704)
I1123 14:54:33.950990  3220 net.cpp:157] Top shape: 8 128 41 81 (3400704)
I1123 14:54:33.950996  3220 net.cpp:165] Memory required for data: 1943506624
I1123 14:54:33.951004  3220 layer_factory.hpp:77] Creating layer enet2_2_branch2a
I1123 14:54:33.951020  3220 net.cpp:106] Creating Layer enet2_2_branch2a
I1123 14:54:33.951027  3220 net.cpp:454] enet2_2_branch2a <- enet2_1_relu2_1_0_split_0
I1123 14:54:33.951037  3220 net.cpp:411] enet2_2_branch2a -> enet2_2_branch2a
I1123 14:54:33.951370  3220 net.cpp:150] Setting up enet2_2_branch2a
I1123 14:54:33.951385  3220 net.cpp:157] Top shape: 8 32 41 81 (850176)
I1123 14:54:33.951390  3220 net.cpp:165] Memory required for data: 1946907328
I1123 14:54:33.951400  3220 layer_factory.hpp:77] Creating layer bn2_2_branch2a
I1123 14:54:33.951411  3220 net.cpp:106] Creating Layer bn2_2_branch2a
I1123 14:54:33.951417  3220 net.cpp:454] bn2_2_branch2a <- enet2_2_branch2a
I1123 14:54:33.951427  3220 net.cpp:397] bn2_2_branch2a -> enet2_2_branch2a (in-place)
I1123 14:54:33.951684  3220 net.cpp:150] Setting up bn2_2_branch2a
I1123 14:54:33.951699  3220 net.cpp:157] Top shape: 8 32 41 81 (850176)
I1123 14:54:33.951704  3220 net.cpp:165] Memory required for data: 1950308032
I1123 14:54:33.951714  3220 layer_factory.hpp:77] Creating layer relu2_2_branch2a
I1123 14:54:33.951725  3220 net.cpp:106] Creating Layer relu2_2_branch2a
I1123 14:54:33.951731  3220 net.cpp:454] relu2_2_branch2a <- enet2_2_branch2a
I1123 14:54:33.951745  3220 net.cpp:397] relu2_2_branch2a -> enet2_2_branch2a (in-place)
I1123 14:54:33.953127  3220 net.cpp:150] Setting up relu2_2_branch2a
I1123 14:54:33.953145  3220 net.cpp:157] Top shape: 8 32 41 81 (850176)
I1123 14:54:33.953151  3220 net.cpp:165] Memory required for data: 1953708736
I1123 14:54:33.953161  3220 layer_factory.hpp:77] Creating layer enet2_2_branch2b
I1123 14:54:33.953181  3220 net.cpp:106] Creating Layer enet2_2_branch2b
I1123 14:54:33.953189  3220 net.cpp:454] enet2_2_branch2b <- enet2_2_branch2a
I1123 14:54:33.953200  3220 net.cpp:411] enet2_2_branch2b -> enet2_2_branch2b
I1123 14:54:33.954923  3220 net.cpp:150] Setting up enet2_2_branch2b
I1123 14:54:33.954941  3220 net.cpp:157] Top shape: 8 32 41 81 (850176)
I1123 14:54:33.954946  3220 net.cpp:165] Memory required for data: 1957109440
I1123 14:54:33.954957  3220 layer_factory.hpp:77] Creating layer bn2_2_branch2b
I1123 14:54:33.954973  3220 net.cpp:106] Creating Layer bn2_2_branch2b
I1123 14:54:33.954982  3220 net.cpp:454] bn2_2_branch2b <- enet2_2_branch2b
I1123 14:54:33.954991  3220 net.cpp:397] bn2_2_branch2b -> enet2_2_branch2b (in-place)
I1123 14:54:33.955270  3220 net.cpp:150] Setting up bn2_2_branch2b
I1123 14:54:33.955283  3220 net.cpp:157] Top shape: 8 32 41 81 (850176)
I1123 14:54:33.955289  3220 net.cpp:165] Memory required for data: 1960510144
I1123 14:54:33.955299  3220 layer_factory.hpp:77] Creating layer relu2_2_branch2b
I1123 14:54:33.955309  3220 net.cpp:106] Creating Layer relu2_2_branch2b
I1123 14:54:33.955317  3220 net.cpp:454] relu2_2_branch2b <- enet2_2_branch2b
I1123 14:54:33.955325  3220 net.cpp:397] relu2_2_branch2b -> enet2_2_branch2b (in-place)
I1123 14:54:33.955526  3220 net.cpp:150] Setting up relu2_2_branch2b
I1123 14:54:33.955540  3220 net.cpp:157] Top shape: 8 32 41 81 (850176)
I1123 14:54:33.955548  3220 net.cpp:165] Memory required for data: 1963910848
I1123 14:54:33.955555  3220 layer_factory.hpp:77] Creating layer enet2_2_branch2c
I1123 14:54:33.955581  3220 net.cpp:106] Creating Layer enet2_2_branch2c
I1123 14:54:33.955590  3220 net.cpp:454] enet2_2_branch2c <- enet2_2_branch2b
I1123 14:54:33.955605  3220 net.cpp:411] enet2_2_branch2c -> enet2_2_branch2c
I1123 14:54:33.955955  3220 net.cpp:150] Setting up enet2_2_branch2c
I1123 14:54:33.955968  3220 net.cpp:157] Top shape: 8 128 41 81 (3400704)
I1123 14:54:33.955974  3220 net.cpp:165] Memory required for data: 1977513664
I1123 14:54:33.955983  3220 layer_factory.hpp:77] Creating layer bn2_2_branch2c
I1123 14:54:33.955999  3220 net.cpp:106] Creating Layer bn2_2_branch2c
I1123 14:54:33.956014  3220 net.cpp:454] bn2_2_branch2c <- enet2_2_branch2c
I1123 14:54:33.956032  3220 net.cpp:397] bn2_2_branch2c -> enet2_2_branch2c (in-place)
I1123 14:54:33.956284  3220 net.cpp:150] Setting up bn2_2_branch2c
I1123 14:54:33.956297  3220 net.cpp:157] Top shape: 8 128 41 81 (3400704)
I1123 14:54:33.956303  3220 net.cpp:165] Memory required for data: 1991116480
I1123 14:54:33.956313  3220 layer_factory.hpp:77] Creating layer dropout2_2_branch2c
I1123 14:54:33.956329  3220 net.cpp:106] Creating Layer dropout2_2_branch2c
I1123 14:54:33.956337  3220 net.cpp:454] dropout2_2_branch2c <- enet2_2_branch2c
I1123 14:54:33.956346  3220 net.cpp:397] dropout2_2_branch2c -> enet2_2_branch2c (in-place)
I1123 14:54:33.956379  3220 net.cpp:150] Setting up dropout2_2_branch2c
I1123 14:54:33.956392  3220 net.cpp:157] Top shape: 8 128 41 81 (3400704)
I1123 14:54:33.956398  3220 net.cpp:165] Memory required for data: 2004719296
I1123 14:54:33.956403  3220 layer_factory.hpp:77] Creating layer enet2_2
I1123 14:54:33.956418  3220 net.cpp:106] Creating Layer enet2_2
I1123 14:54:33.956424  3220 net.cpp:454] enet2_2 <- enet2_1_relu2_1_0_split_1
I1123 14:54:33.956434  3220 net.cpp:454] enet2_2 <- enet2_2_branch2c
I1123 14:54:33.956442  3220 net.cpp:411] enet2_2 -> enet2_2
I1123 14:54:33.956480  3220 net.cpp:150] Setting up enet2_2
I1123 14:54:33.956492  3220 net.cpp:157] Top shape: 8 128 41 81 (3400704)
I1123 14:54:33.956498  3220 net.cpp:165] Memory required for data: 2018322112
I1123 14:54:33.956504  3220 layer_factory.hpp:77] Creating layer relu2_2
I1123 14:54:33.956513  3220 net.cpp:106] Creating Layer relu2_2
I1123 14:54:33.956521  3220 net.cpp:454] relu2_2 <- enet2_2
I1123 14:54:33.956533  3220 net.cpp:397] relu2_2 -> enet2_2 (in-place)
I1123 14:54:33.959377  3220 net.cpp:150] Setting up relu2_2
I1123 14:54:33.959394  3220 net.cpp:157] Top shape: 8 128 41 81 (3400704)
I1123 14:54:33.959400  3220 net.cpp:165] Memory required for data: 2031924928
I1123 14:54:33.959410  3220 layer_factory.hpp:77] Creating layer enet2_2_relu2_2_0_split
I1123 14:54:33.959424  3220 net.cpp:106] Creating Layer enet2_2_relu2_2_0_split
I1123 14:54:33.959431  3220 net.cpp:454] enet2_2_relu2_2_0_split <- enet2_2
I1123 14:54:33.959441  3220 net.cpp:411] enet2_2_relu2_2_0_split -> enet2_2_relu2_2_0_split_0
I1123 14:54:33.959453  3220 net.cpp:411] enet2_2_relu2_2_0_split -> enet2_2_relu2_2_0_split_1
I1123 14:54:33.959506  3220 net.cpp:150] Setting up enet2_2_relu2_2_0_split
I1123 14:54:33.959518  3220 net.cpp:157] Top shape: 8 128 41 81 (3400704)
I1123 14:54:33.959527  3220 net.cpp:157] Top shape: 8 128 41 81 (3400704)
I1123 14:54:33.959532  3220 net.cpp:165] Memory required for data: 2059130560
I1123 14:54:33.959538  3220 layer_factory.hpp:77] Creating layer enet2_3_branch2a
I1123 14:54:33.959552  3220 net.cpp:106] Creating Layer enet2_3_branch2a
I1123 14:54:33.959559  3220 net.cpp:454] enet2_3_branch2a <- enet2_2_relu2_2_0_split_0
I1123 14:54:33.959569  3220 net.cpp:411] enet2_3_branch2a -> enet2_3_branch2a
I1123 14:54:33.960243  3220 net.cpp:150] Setting up enet2_3_branch2a
I1123 14:54:33.960259  3220 net.cpp:157] Top shape: 8 32 41 81 (850176)
I1123 14:54:33.960266  3220 net.cpp:165] Memory required for data: 2062531264
I1123 14:54:33.960275  3220 layer_factory.hpp:77] Creating layer bn2_3_branch2a
I1123 14:54:33.960288  3220 net.cpp:106] Creating Layer bn2_3_branch2a
I1123 14:54:33.960294  3220 net.cpp:454] bn2_3_branch2a <- enet2_3_branch2a
I1123 14:54:33.960307  3220 net.cpp:397] bn2_3_branch2a -> enet2_3_branch2a (in-place)
I1123 14:54:33.960575  3220 net.cpp:150] Setting up bn2_3_branch2a
I1123 14:54:33.960589  3220 net.cpp:157] Top shape: 8 32 41 81 (850176)
I1123 14:54:33.960595  3220 net.cpp:165] Memory required for data: 2065931968
I1123 14:54:33.960605  3220 layer_factory.hpp:77] Creating layer relu2_3_branch2a
I1123 14:54:33.960615  3220 net.cpp:106] Creating Layer relu2_3_branch2a
I1123 14:54:33.960623  3220 net.cpp:454] relu2_3_branch2a <- enet2_3_branch2a
I1123 14:54:33.960635  3220 net.cpp:397] relu2_3_branch2a -> enet2_3_branch2a (in-place)
I1123 14:54:33.962018  3220 net.cpp:150] Setting up relu2_3_branch2a
I1123 14:54:33.962044  3220 net.cpp:157] Top shape: 8 32 41 81 (850176)
I1123 14:54:33.962050  3220 net.cpp:165] Memory required for data: 2069332672
I1123 14:54:33.962060  3220 layer_factory.hpp:77] Creating layer enet2_3_branch2b1
I1123 14:54:33.962080  3220 net.cpp:106] Creating Layer enet2_3_branch2b1
I1123 14:54:33.962087  3220 net.cpp:454] enet2_3_branch2b1 <- enet2_3_branch2a
I1123 14:54:33.962098  3220 net.cpp:411] enet2_3_branch2b1 -> enet2_3_branch2b1
I1123 14:54:33.964519  3220 net.cpp:150] Setting up enet2_3_branch2b1
I1123 14:54:33.964534  3220 net.cpp:157] Top shape: 8 32 41 81 (850176)
I1123 14:54:33.964540  3220 net.cpp:165] Memory required for data: 2072733376
I1123 14:54:33.964550  3220 layer_factory.hpp:77] Creating layer enet2_3_branch2b
I1123 14:54:33.964565  3220 net.cpp:106] Creating Layer enet2_3_branch2b
I1123 14:54:33.964573  3220 net.cpp:454] enet2_3_branch2b <- enet2_3_branch2b1
I1123 14:54:33.964583  3220 net.cpp:411] enet2_3_branch2b -> enet2_3_branch2b
I1123 14:54:33.965018  3220 net.cpp:150] Setting up enet2_3_branch2b
I1123 14:54:33.965031  3220 net.cpp:157] Top shape: 8 32 41 81 (850176)
I1123 14:54:33.965037  3220 net.cpp:165] Memory required for data: 2076134080
I1123 14:54:33.965047  3220 layer_factory.hpp:77] Creating layer bn2_3_branch2b
I1123 14:54:33.965062  3220 net.cpp:106] Creating Layer bn2_3_branch2b
I1123 14:54:33.965070  3220 net.cpp:454] bn2_3_branch2b <- enet2_3_branch2b
I1123 14:54:33.965083  3220 net.cpp:397] bn2_3_branch2b -> enet2_3_branch2b (in-place)
I1123 14:54:33.965354  3220 net.cpp:150] Setting up bn2_3_branch2b
I1123 14:54:33.965368  3220 net.cpp:157] Top shape: 8 32 41 81 (850176)
I1123 14:54:33.965373  3220 net.cpp:165] Memory required for data: 2079534784
I1123 14:54:33.965384  3220 layer_factory.hpp:77] Creating layer relu2_3_branch2b
I1123 14:54:33.965394  3220 net.cpp:106] Creating Layer relu2_3_branch2b
I1123 14:54:33.965400  3220 net.cpp:454] relu2_3_branch2b <- enet2_3_branch2b
I1123 14:54:33.965409  3220 net.cpp:397] relu2_3_branch2b -> enet2_3_branch2b (in-place)
I1123 14:54:33.965608  3220 net.cpp:150] Setting up relu2_3_branch2b
I1123 14:54:33.965622  3220 net.cpp:157] Top shape: 8 32 41 81 (850176)
I1123 14:54:33.965628  3220 net.cpp:165] Memory required for data: 2082935488
I1123 14:54:33.965637  3220 layer_factory.hpp:77] Creating layer enet2_3_branch2c
I1123 14:54:33.965656  3220 net.cpp:106] Creating Layer enet2_3_branch2c
I1123 14:54:33.965663  3220 net.cpp:454] enet2_3_branch2c <- enet2_3_branch2b
I1123 14:54:33.965677  3220 net.cpp:411] enet2_3_branch2c -> enet2_3_branch2c
I1123 14:54:33.966028  3220 net.cpp:150] Setting up enet2_3_branch2c
I1123 14:54:33.966042  3220 net.cpp:157] Top shape: 8 128 41 81 (3400704)
I1123 14:54:33.966048  3220 net.cpp:165] Memory required for data: 2096538304
I1123 14:54:33.966058  3220 layer_factory.hpp:77] Creating layer bn2_3_branch2c
I1123 14:54:33.966071  3220 net.cpp:106] Creating Layer bn2_3_branch2c
I1123 14:54:33.966079  3220 net.cpp:454] bn2_3_branch2c <- enet2_3_branch2c
I1123 14:54:33.966089  3220 net.cpp:397] bn2_3_branch2c -> enet2_3_branch2c (in-place)
I1123 14:54:33.966341  3220 net.cpp:150] Setting up bn2_3_branch2c
I1123 14:54:33.966356  3220 net.cpp:157] Top shape: 8 128 41 81 (3400704)
I1123 14:54:33.966361  3220 net.cpp:165] Memory required for data: 2110141120
I1123 14:54:33.966372  3220 layer_factory.hpp:77] Creating layer dropout2_3_branch2c
I1123 14:54:33.966382  3220 net.cpp:106] Creating Layer dropout2_3_branch2c
I1123 14:54:33.966388  3220 net.cpp:454] dropout2_3_branch2c <- enet2_3_branch2c
I1123 14:54:33.966398  3220 net.cpp:397] dropout2_3_branch2c -> enet2_3_branch2c (in-place)
I1123 14:54:33.966430  3220 net.cpp:150] Setting up dropout2_3_branch2c
I1123 14:54:33.966441  3220 net.cpp:157] Top shape: 8 128 41 81 (3400704)
I1123 14:54:33.966449  3220 net.cpp:165] Memory required for data: 2123743936
I1123 14:54:33.966454  3220 layer_factory.hpp:77] Creating layer enet2_3
I1123 14:54:33.966475  3220 net.cpp:106] Creating Layer enet2_3
I1123 14:54:33.966491  3220 net.cpp:454] enet2_3 <- enet2_2_relu2_2_0_split_1
I1123 14:54:33.966500  3220 net.cpp:454] enet2_3 <- enet2_3_branch2c
I1123 14:54:33.966509  3220 net.cpp:411] enet2_3 -> enet2_3
I1123 14:54:33.966549  3220 net.cpp:150] Setting up enet2_3
I1123 14:54:33.966562  3220 net.cpp:157] Top shape: 8 128 41 81 (3400704)
I1123 14:54:33.966567  3220 net.cpp:165] Memory required for data: 2137346752
I1123 14:54:33.966574  3220 layer_factory.hpp:77] Creating layer relu2_3
I1123 14:54:33.966584  3220 net.cpp:106] Creating Layer relu2_3
I1123 14:54:33.966590  3220 net.cpp:454] relu2_3 <- enet2_3
I1123 14:54:33.966603  3220 net.cpp:397] relu2_3 -> enet2_3 (in-place)
I1123 14:54:33.969357  3220 net.cpp:150] Setting up relu2_3
I1123 14:54:33.969378  3220 net.cpp:157] Top shape: 8 128 41 81 (3400704)
I1123 14:54:33.969384  3220 net.cpp:165] Memory required for data: 2150949568
I1123 14:54:33.969429  3220 layer_factory.hpp:77] Creating layer enet2_3_relu2_3_0_split
I1123 14:54:33.969440  3220 net.cpp:106] Creating Layer enet2_3_relu2_3_0_split
I1123 14:54:33.969447  3220 net.cpp:454] enet2_3_relu2_3_0_split <- enet2_3
I1123 14:54:33.969457  3220 net.cpp:411] enet2_3_relu2_3_0_split -> enet2_3_relu2_3_0_split_0
I1123 14:54:33.969470  3220 net.cpp:411] enet2_3_relu2_3_0_split -> enet2_3_relu2_3_0_split_1
I1123 14:54:33.969519  3220 net.cpp:150] Setting up enet2_3_relu2_3_0_split
I1123 14:54:33.969532  3220 net.cpp:157] Top shape: 8 128 41 81 (3400704)
I1123 14:54:33.969540  3220 net.cpp:157] Top shape: 8 128 41 81 (3400704)
I1123 14:54:33.969547  3220 net.cpp:165] Memory required for data: 2178155200
I1123 14:54:33.969552  3220 layer_factory.hpp:77] Creating layer enet2_4_branch2a
I1123 14:54:33.969570  3220 net.cpp:106] Creating Layer enet2_4_branch2a
I1123 14:54:33.969578  3220 net.cpp:454] enet2_4_branch2a <- enet2_3_relu2_3_0_split_0
I1123 14:54:33.969589  3220 net.cpp:411] enet2_4_branch2a -> enet2_4_branch2a
I1123 14:54:33.969939  3220 net.cpp:150] Setting up enet2_4_branch2a
I1123 14:54:33.969954  3220 net.cpp:157] Top shape: 8 32 41 81 (850176)
I1123 14:54:33.969960  3220 net.cpp:165] Memory required for data: 2181555904
I1123 14:54:33.969969  3220 layer_factory.hpp:77] Creating layer bn2_4_branch2a
I1123 14:54:33.969985  3220 net.cpp:106] Creating Layer bn2_4_branch2a
I1123 14:54:33.969992  3220 net.cpp:454] bn2_4_branch2a <- enet2_4_branch2a
I1123 14:54:33.970001  3220 net.cpp:397] bn2_4_branch2a -> enet2_4_branch2a (in-place)
I1123 14:54:33.970285  3220 net.cpp:150] Setting up bn2_4_branch2a
I1123 14:54:33.970299  3220 net.cpp:157] Top shape: 8 32 41 81 (850176)
I1123 14:54:33.970305  3220 net.cpp:165] Memory required for data: 2184956608
I1123 14:54:33.970316  3220 layer_factory.hpp:77] Creating layer relu2_4_branch2a
I1123 14:54:33.970326  3220 net.cpp:106] Creating Layer relu2_4_branch2a
I1123 14:54:33.970333  3220 net.cpp:454] relu2_4_branch2a <- enet2_4_branch2a
I1123 14:54:33.970342  3220 net.cpp:397] relu2_4_branch2a -> enet2_4_branch2a (in-place)
I1123 14:54:33.971935  3220 net.cpp:150] Setting up relu2_4_branch2a
I1123 14:54:33.971954  3220 net.cpp:157] Top shape: 8 32 41 81 (850176)
I1123 14:54:33.971961  3220 net.cpp:165] Memory required for data: 2188357312
I1123 14:54:33.971971  3220 layer_factory.hpp:77] Creating layer enet2_4_branch2b
I1123 14:54:33.971984  3220 net.cpp:106] Creating Layer enet2_4_branch2b
I1123 14:54:33.971992  3220 net.cpp:454] enet2_4_branch2b <- enet2_4_branch2a
I1123 14:54:33.972005  3220 net.cpp:411] enet2_4_branch2b -> enet2_4_branch2b
I1123 14:54:33.972527  3220 net.cpp:150] Setting up enet2_4_branch2b
I1123 14:54:33.972542  3220 net.cpp:157] Top shape: 8 32 41 81 (850176)
I1123 14:54:33.972548  3220 net.cpp:165] Memory required for data: 2191758016
I1123 14:54:33.972558  3220 layer_factory.hpp:77] Creating layer bn2_4_branch2b
I1123 14:54:33.972595  3220 net.cpp:106] Creating Layer bn2_4_branch2b
I1123 14:54:33.972604  3220 net.cpp:454] bn2_4_branch2b <- enet2_4_branch2b
I1123 14:54:33.972616  3220 net.cpp:397] bn2_4_branch2b -> enet2_4_branch2b (in-place)
I1123 14:54:33.972906  3220 net.cpp:150] Setting up bn2_4_branch2b
I1123 14:54:33.972920  3220 net.cpp:157] Top shape: 8 32 41 81 (850176)
I1123 14:54:33.972926  3220 net.cpp:165] Memory required for data: 2195158720
I1123 14:54:33.972939  3220 layer_factory.hpp:77] Creating layer relu2_4_branch2b
I1123 14:54:33.972951  3220 net.cpp:106] Creating Layer relu2_4_branch2b
I1123 14:54:33.972959  3220 net.cpp:454] relu2_4_branch2b <- enet2_4_branch2b
I1123 14:54:33.972967  3220 net.cpp:397] relu2_4_branch2b -> enet2_4_branch2b (in-place)
I1123 14:54:33.973165  3220 net.cpp:150] Setting up relu2_4_branch2b
I1123 14:54:33.973181  3220 net.cpp:157] Top shape: 8 32 41 81 (850176)
I1123 14:54:33.973186  3220 net.cpp:165] Memory required for data: 2198559424
I1123 14:54:33.973194  3220 layer_factory.hpp:77] Creating layer enet2_4_branch2c
I1123 14:54:33.973214  3220 net.cpp:106] Creating Layer enet2_4_branch2c
I1123 14:54:33.973222  3220 net.cpp:454] enet2_4_branch2c <- enet2_4_branch2b
I1123 14:54:33.973232  3220 net.cpp:411] enet2_4_branch2c -> enet2_4_branch2c
I1123 14:54:33.973572  3220 net.cpp:150] Setting up enet2_4_branch2c
I1123 14:54:33.973587  3220 net.cpp:157] Top shape: 8 128 41 81 (3400704)
I1123 14:54:33.973592  3220 net.cpp:165] Memory required for data: 2212162240
I1123 14:54:33.973601  3220 layer_factory.hpp:77] Creating layer bn2_4_branch2c
I1123 14:54:33.973618  3220 net.cpp:106] Creating Layer bn2_4_branch2c
I1123 14:54:33.973625  3220 net.cpp:454] bn2_4_branch2c <- enet2_4_branch2c
I1123 14:54:33.973634  3220 net.cpp:397] bn2_4_branch2c -> enet2_4_branch2c (in-place)
I1123 14:54:33.973896  3220 net.cpp:150] Setting up bn2_4_branch2c
I1123 14:54:33.973909  3220 net.cpp:157] Top shape: 8 128 41 81 (3400704)
I1123 14:54:33.973915  3220 net.cpp:165] Memory required for data: 2225765056
I1123 14:54:33.973925  3220 layer_factory.hpp:77] Creating layer dropout2_4_branch2c
I1123 14:54:33.973937  3220 net.cpp:106] Creating Layer dropout2_4_branch2c
I1123 14:54:33.973943  3220 net.cpp:454] dropout2_4_branch2c <- enet2_4_branch2c
I1123 14:54:33.973961  3220 net.cpp:397] dropout2_4_branch2c -> enet2_4_branch2c (in-place)
I1123 14:54:33.973996  3220 net.cpp:150] Setting up dropout2_4_branch2c
I1123 14:54:33.974009  3220 net.cpp:157] Top shape: 8 128 41 81 (3400704)
I1123 14:54:33.974014  3220 net.cpp:165] Memory required for data: 2239367872
I1123 14:54:33.974021  3220 layer_factory.hpp:77] Creating layer enet2_4
I1123 14:54:33.974030  3220 net.cpp:106] Creating Layer enet2_4
I1123 14:54:33.974037  3220 net.cpp:454] enet2_4 <- enet2_3_relu2_3_0_split_1
I1123 14:54:33.974046  3220 net.cpp:454] enet2_4 <- enet2_4_branch2c
I1123 14:54:33.974055  3220 net.cpp:411] enet2_4 -> enet2_4
I1123 14:54:33.974092  3220 net.cpp:150] Setting up enet2_4
I1123 14:54:33.974103  3220 net.cpp:157] Top shape: 8 128 41 81 (3400704)
I1123 14:54:33.974109  3220 net.cpp:165] Memory required for data: 2252970688
I1123 14:54:33.974117  3220 layer_factory.hpp:77] Creating layer relu2_4
I1123 14:54:33.974128  3220 net.cpp:106] Creating Layer relu2_4
I1123 14:54:33.974135  3220 net.cpp:454] relu2_4 <- enet2_4
I1123 14:54:33.974143  3220 net.cpp:397] relu2_4 -> enet2_4 (in-place)
I1123 14:54:33.977215  3220 net.cpp:150] Setting up relu2_4
I1123 14:54:33.977232  3220 net.cpp:157] Top shape: 8 128 41 81 (3400704)
I1123 14:54:33.977239  3220 net.cpp:165] Memory required for data: 2266573504
I1123 14:54:33.977248  3220 layer_factory.hpp:77] Creating layer enet2_4_relu2_4_0_split
I1123 14:54:33.977258  3220 net.cpp:106] Creating Layer enet2_4_relu2_4_0_split
I1123 14:54:33.977265  3220 net.cpp:454] enet2_4_relu2_4_0_split <- enet2_4
I1123 14:54:33.977279  3220 net.cpp:411] enet2_4_relu2_4_0_split -> enet2_4_relu2_4_0_split_0
I1123 14:54:33.977291  3220 net.cpp:411] enet2_4_relu2_4_0_split -> enet2_4_relu2_4_0_split_1
I1123 14:54:33.977344  3220 net.cpp:150] Setting up enet2_4_relu2_4_0_split
I1123 14:54:33.977356  3220 net.cpp:157] Top shape: 8 128 41 81 (3400704)
I1123 14:54:33.977365  3220 net.cpp:157] Top shape: 8 128 41 81 (3400704)
I1123 14:54:33.977377  3220 net.cpp:165] Memory required for data: 2293779136
I1123 14:54:33.977392  3220 layer_factory.hpp:77] Creating layer enet2_5_branch2a
I1123 14:54:33.977409  3220 net.cpp:106] Creating Layer enet2_5_branch2a
I1123 14:54:33.977417  3220 net.cpp:454] enet2_5_branch2a <- enet2_4_relu2_4_0_split_0
I1123 14:54:33.977427  3220 net.cpp:411] enet2_5_branch2a -> enet2_5_branch2a
I1123 14:54:33.977766  3220 net.cpp:150] Setting up enet2_5_branch2a
I1123 14:54:33.977780  3220 net.cpp:157] Top shape: 8 32 41 81 (850176)
I1123 14:54:33.977787  3220 net.cpp:165] Memory required for data: 2297179840
I1123 14:54:33.977795  3220 layer_factory.hpp:77] Creating layer bn2_5_branch2a
I1123 14:54:33.977807  3220 net.cpp:106] Creating Layer bn2_5_branch2a
I1123 14:54:33.977814  3220 net.cpp:454] bn2_5_branch2a <- enet2_5_branch2a
I1123 14:54:33.977831  3220 net.cpp:397] bn2_5_branch2a -> enet2_5_branch2a (in-place)
I1123 14:54:33.978107  3220 net.cpp:150] Setting up bn2_5_branch2a
I1123 14:54:33.978121  3220 net.cpp:157] Top shape: 8 32 41 81 (850176)
I1123 14:54:33.978127  3220 net.cpp:165] Memory required for data: 2300580544
I1123 14:54:33.978137  3220 layer_factory.hpp:77] Creating layer relu2_5_branch2a
I1123 14:54:33.978152  3220 net.cpp:106] Creating Layer relu2_5_branch2a
I1123 14:54:33.978158  3220 net.cpp:454] relu2_5_branch2a <- enet2_5_branch2a
I1123 14:54:33.978168  3220 net.cpp:397] relu2_5_branch2a -> enet2_5_branch2a (in-place)
I1123 14:54:33.979542  3220 net.cpp:150] Setting up relu2_5_branch2a
I1123 14:54:33.979558  3220 net.cpp:157] Top shape: 8 32 41 81 (850176)
I1123 14:54:33.979564  3220 net.cpp:165] Memory required for data: 2303981248
I1123 14:54:33.979573  3220 layer_factory.hpp:77] Creating layer enet2_5_branch2b
I1123 14:54:33.979593  3220 net.cpp:106] Creating Layer enet2_5_branch2b
I1123 14:54:33.979600  3220 net.cpp:454] enet2_5_branch2b <- enet2_5_branch2a
I1123 14:54:33.979614  3220 net.cpp:411] enet2_5_branch2b -> enet2_5_branch2b
I1123 14:54:33.980155  3220 net.cpp:150] Setting up enet2_5_branch2b
I1123 14:54:33.980170  3220 net.cpp:157] Top shape: 8 32 41 81 (850176)
I1123 14:54:33.980176  3220 net.cpp:165] Memory required for data: 2307381952
I1123 14:54:33.980186  3220 layer_factory.hpp:77] Creating layer bn2_5_branch2b
I1123 14:54:33.980197  3220 net.cpp:106] Creating Layer bn2_5_branch2b
I1123 14:54:33.980204  3220 net.cpp:454] bn2_5_branch2b <- enet2_5_branch2b
I1123 14:54:33.980219  3220 net.cpp:397] bn2_5_branch2b -> enet2_5_branch2b (in-place)
I1123 14:54:33.980525  3220 net.cpp:150] Setting up bn2_5_branch2b
I1123 14:54:33.980538  3220 net.cpp:157] Top shape: 8 32 41 81 (850176)
I1123 14:54:33.980545  3220 net.cpp:165] Memory required for data: 2310782656
I1123 14:54:33.980556  3220 layer_factory.hpp:77] Creating layer relu2_5_branch2b
I1123 14:54:33.980564  3220 net.cpp:106] Creating Layer relu2_5_branch2b
I1123 14:54:33.980571  3220 net.cpp:454] relu2_5_branch2b <- enet2_5_branch2b
I1123 14:54:33.980581  3220 net.cpp:397] relu2_5_branch2b -> enet2_5_branch2b (in-place)
I1123 14:54:33.980792  3220 net.cpp:150] Setting up relu2_5_branch2b
I1123 14:54:33.980805  3220 net.cpp:157] Top shape: 8 32 41 81 (850176)
I1123 14:54:33.980813  3220 net.cpp:165] Memory required for data: 2314183360
I1123 14:54:33.980820  3220 layer_factory.hpp:77] Creating layer enet2_5_branch2c
I1123 14:54:33.980842  3220 net.cpp:106] Creating Layer enet2_5_branch2c
I1123 14:54:33.980850  3220 net.cpp:454] enet2_5_branch2c <- enet2_5_branch2b
I1123 14:54:33.980860  3220 net.cpp:411] enet2_5_branch2c -> enet2_5_branch2c
I1123 14:54:33.981204  3220 net.cpp:150] Setting up enet2_5_branch2c
I1123 14:54:33.981218  3220 net.cpp:157] Top shape: 8 128 41 81 (3400704)
I1123 14:54:33.981225  3220 net.cpp:165] Memory required for data: 2327786176
I1123 14:54:33.981233  3220 layer_factory.hpp:77] Creating layer bn2_5_branch2c
I1123 14:54:33.981248  3220 net.cpp:106] Creating Layer bn2_5_branch2c
I1123 14:54:33.981256  3220 net.cpp:454] bn2_5_branch2c <- enet2_5_branch2c
I1123 14:54:33.981266  3220 net.cpp:397] bn2_5_branch2c -> enet2_5_branch2c (in-place)
I1123 14:54:33.981549  3220 net.cpp:150] Setting up bn2_5_branch2c
I1123 14:54:33.981564  3220 net.cpp:157] Top shape: 8 128 41 81 (3400704)
I1123 14:54:33.981569  3220 net.cpp:165] Memory required for data: 2341388992
I1123 14:54:33.981580  3220 layer_factory.hpp:77] Creating layer dropout2_5_branch2c
I1123 14:54:33.981593  3220 net.cpp:106] Creating Layer dropout2_5_branch2c
I1123 14:54:33.981600  3220 net.cpp:454] dropout2_5_branch2c <- enet2_5_branch2c
I1123 14:54:33.981609  3220 net.cpp:397] dropout2_5_branch2c -> enet2_5_branch2c (in-place)
I1123 14:54:33.981644  3220 net.cpp:150] Setting up dropout2_5_branch2c
I1123 14:54:33.981657  3220 net.cpp:157] Top shape: 8 128 41 81 (3400704)
I1123 14:54:33.981662  3220 net.cpp:165] Memory required for data: 2354991808
I1123 14:54:33.981668  3220 layer_factory.hpp:77] Creating layer enet2_5
I1123 14:54:33.981678  3220 net.cpp:106] Creating Layer enet2_5
I1123 14:54:33.981685  3220 net.cpp:454] enet2_5 <- enet2_4_relu2_4_0_split_1
I1123 14:54:33.981693  3220 net.cpp:454] enet2_5 <- enet2_5_branch2c
I1123 14:54:33.981706  3220 net.cpp:411] enet2_5 -> enet2_5
I1123 14:54:33.981740  3220 net.cpp:150] Setting up enet2_5
I1123 14:54:33.981758  3220 net.cpp:157] Top shape: 8 128 41 81 (3400704)
I1123 14:54:33.981765  3220 net.cpp:165] Memory required for data: 2368594624
I1123 14:54:33.981771  3220 layer_factory.hpp:77] Creating layer relu2_5
I1123 14:54:33.981781  3220 net.cpp:106] Creating Layer relu2_5
I1123 14:54:33.981787  3220 net.cpp:454] relu2_5 <- enet2_5
I1123 14:54:33.981796  3220 net.cpp:397] relu2_5 -> enet2_5 (in-place)
I1123 14:54:33.984848  3220 net.cpp:150] Setting up relu2_5
I1123 14:54:33.984864  3220 net.cpp:157] Top shape: 8 128 41 81 (3400704)
I1123 14:54:33.984870  3220 net.cpp:165] Memory required for data: 2382197440
I1123 14:54:33.984879  3220 layer_factory.hpp:77] Creating layer enet2_5_relu2_5_0_split
I1123 14:54:33.984890  3220 net.cpp:106] Creating Layer enet2_5_relu2_5_0_split
I1123 14:54:33.984897  3220 net.cpp:454] enet2_5_relu2_5_0_split <- enet2_5
I1123 14:54:33.984910  3220 net.cpp:411] enet2_5_relu2_5_0_split -> enet2_5_relu2_5_0_split_0
I1123 14:54:33.984922  3220 net.cpp:411] enet2_5_relu2_5_0_split -> enet2_5_relu2_5_0_split_1
I1123 14:54:33.984975  3220 net.cpp:150] Setting up enet2_5_relu2_5_0_split
I1123 14:54:33.984987  3220 net.cpp:157] Top shape: 8 128 41 81 (3400704)
I1123 14:54:33.984995  3220 net.cpp:157] Top shape: 8 128 41 81 (3400704)
I1123 14:54:33.985000  3220 net.cpp:165] Memory required for data: 2409403072
I1123 14:54:33.985008  3220 layer_factory.hpp:77] Creating layer enet2_6_branch2a
I1123 14:54:33.985023  3220 net.cpp:106] Creating Layer enet2_6_branch2a
I1123 14:54:33.985031  3220 net.cpp:454] enet2_6_branch2a <- enet2_5_relu2_5_0_split_0
I1123 14:54:33.985043  3220 net.cpp:411] enet2_6_branch2a -> enet2_6_branch2a
I1123 14:54:33.985385  3220 net.cpp:150] Setting up enet2_6_branch2a
I1123 14:54:33.985399  3220 net.cpp:157] Top shape: 8 32 41 81 (850176)
I1123 14:54:33.985404  3220 net.cpp:165] Memory required for data: 2412803776
I1123 14:54:33.985414  3220 layer_factory.hpp:77] Creating layer bn2_6_branch2a
I1123 14:54:33.985429  3220 net.cpp:106] Creating Layer bn2_6_branch2a
I1123 14:54:33.985435  3220 net.cpp:454] bn2_6_branch2a <- enet2_6_branch2a
I1123 14:54:33.985445  3220 net.cpp:397] bn2_6_branch2a -> enet2_6_branch2a (in-place)
I1123 14:54:33.985719  3220 net.cpp:150] Setting up bn2_6_branch2a
I1123 14:54:33.985733  3220 net.cpp:157] Top shape: 8 32 41 81 (850176)
I1123 14:54:33.985738  3220 net.cpp:165] Memory required for data: 2416204480
I1123 14:54:33.985749  3220 layer_factory.hpp:77] Creating layer relu2_6_branch2a
I1123 14:54:33.985759  3220 net.cpp:106] Creating Layer relu2_6_branch2a
I1123 14:54:33.985765  3220 net.cpp:454] relu2_6_branch2a <- enet2_6_branch2a
I1123 14:54:33.985774  3220 net.cpp:397] relu2_6_branch2a -> enet2_6_branch2a (in-place)
I1123 14:54:33.987395  3220 net.cpp:150] Setting up relu2_6_branch2a
I1123 14:54:33.987416  3220 net.cpp:157] Top shape: 8 32 41 81 (850176)
I1123 14:54:33.987437  3220 net.cpp:165] Memory required for data: 2419605184
I1123 14:54:33.987447  3220 layer_factory.hpp:77] Creating layer enet2_6_branch2b
I1123 14:54:33.987460  3220 net.cpp:106] Creating Layer enet2_6_branch2b
I1123 14:54:33.987468  3220 net.cpp:454] enet2_6_branch2b <- enet2_6_branch2a
I1123 14:54:33.987481  3220 net.cpp:411] enet2_6_branch2b -> enet2_6_branch2b
I1123 14:54:33.988030  3220 net.cpp:150] Setting up enet2_6_branch2b
I1123 14:54:33.988045  3220 net.cpp:157] Top shape: 8 32 41 81 (850176)
I1123 14:54:33.988051  3220 net.cpp:165] Memory required for data: 2423005888
I1123 14:54:33.988061  3220 layer_factory.hpp:77] Creating layer bn2_6_branch2b
I1123 14:54:33.988076  3220 net.cpp:106] Creating Layer bn2_6_branch2b
I1123 14:54:33.988085  3220 net.cpp:454] bn2_6_branch2b <- enet2_6_branch2b
I1123 14:54:33.988093  3220 net.cpp:397] bn2_6_branch2b -> enet2_6_branch2b (in-place)
I1123 14:54:33.988378  3220 net.cpp:150] Setting up bn2_6_branch2b
I1123 14:54:33.988391  3220 net.cpp:157] Top shape: 8 32 41 81 (850176)
I1123 14:54:33.988397  3220 net.cpp:165] Memory required for data: 2426406592
I1123 14:54:33.988407  3220 layer_factory.hpp:77] Creating layer relu2_6_branch2b
I1123 14:54:33.988417  3220 net.cpp:106] Creating Layer relu2_6_branch2b
I1123 14:54:33.988425  3220 net.cpp:454] relu2_6_branch2b <- enet2_6_branch2b
I1123 14:54:33.988433  3220 net.cpp:397] relu2_6_branch2b -> enet2_6_branch2b (in-place)
I1123 14:54:33.988637  3220 net.cpp:150] Setting up relu2_6_branch2b
I1123 14:54:33.988651  3220 net.cpp:157] Top shape: 8 32 41 81 (850176)
I1123 14:54:33.988657  3220 net.cpp:165] Memory required for data: 2429807296
I1123 14:54:33.988667  3220 layer_factory.hpp:77] Creating layer enet2_6_branch2c
I1123 14:54:33.988683  3220 net.cpp:106] Creating Layer enet2_6_branch2c
I1123 14:54:33.988692  3220 net.cpp:454] enet2_6_branch2c <- enet2_6_branch2b
I1123 14:54:33.988704  3220 net.cpp:411] enet2_6_branch2c -> enet2_6_branch2c
I1123 14:54:33.989053  3220 net.cpp:150] Setting up enet2_6_branch2c
I1123 14:54:33.989066  3220 net.cpp:157] Top shape: 8 128 41 81 (3400704)
I1123 14:54:33.989073  3220 net.cpp:165] Memory required for data: 2443410112
I1123 14:54:33.989081  3220 layer_factory.hpp:77] Creating layer bn2_6_branch2c
I1123 14:54:33.989099  3220 net.cpp:106] Creating Layer bn2_6_branch2c
I1123 14:54:33.989106  3220 net.cpp:454] bn2_6_branch2c <- enet2_6_branch2c
I1123 14:54:33.989116  3220 net.cpp:397] bn2_6_branch2c -> enet2_6_branch2c (in-place)
I1123 14:54:33.989380  3220 net.cpp:150] Setting up bn2_6_branch2c
I1123 14:54:33.989394  3220 net.cpp:157] Top shape: 8 128 41 81 (3400704)
I1123 14:54:33.989400  3220 net.cpp:165] Memory required for data: 2457012928
I1123 14:54:33.989410  3220 layer_factory.hpp:77] Creating layer dropout2_6_branch2c
I1123 14:54:33.989424  3220 net.cpp:106] Creating Layer dropout2_6_branch2c
I1123 14:54:33.989433  3220 net.cpp:454] dropout2_6_branch2c <- enet2_6_branch2c
I1123 14:54:33.989441  3220 net.cpp:397] dropout2_6_branch2c -> enet2_6_branch2c (in-place)
I1123 14:54:33.989475  3220 net.cpp:150] Setting up dropout2_6_branch2c
I1123 14:54:33.989487  3220 net.cpp:157] Top shape: 8 128 41 81 (3400704)
I1123 14:54:33.989493  3220 net.cpp:165] Memory required for data: 2470615744
I1123 14:54:33.989500  3220 layer_factory.hpp:77] Creating layer enet2_6
I1123 14:54:33.989509  3220 net.cpp:106] Creating Layer enet2_6
I1123 14:54:33.989516  3220 net.cpp:454] enet2_6 <- enet2_5_relu2_5_0_split_1
I1123 14:54:33.989528  3220 net.cpp:454] enet2_6 <- enet2_6_branch2c
I1123 14:54:33.989537  3220 net.cpp:411] enet2_6 -> enet2_6
I1123 14:54:33.989576  3220 net.cpp:150] Setting up enet2_6
I1123 14:54:33.989588  3220 net.cpp:157] Top shape: 8 128 41 81 (3400704)
I1123 14:54:33.989595  3220 net.cpp:165] Memory required for data: 2484218560
I1123 14:54:33.989601  3220 layer_factory.hpp:77] Creating layer relu2_6
I1123 14:54:33.989610  3220 net.cpp:106] Creating Layer relu2_6
I1123 14:54:33.989617  3220 net.cpp:454] relu2_6 <- enet2_6
I1123 14:54:33.989636  3220 net.cpp:397] relu2_6 -> enet2_6 (in-place)
I1123 14:54:33.992379  3220 net.cpp:150] Setting up relu2_6
I1123 14:54:33.992398  3220 net.cpp:157] Top shape: 8 128 41 81 (3400704)
I1123 14:54:33.992404  3220 net.cpp:165] Memory required for data: 2497821376
I1123 14:54:33.992413  3220 layer_factory.hpp:77] Creating layer enet2_6_relu2_6_0_split
I1123 14:54:33.992429  3220 net.cpp:106] Creating Layer enet2_6_relu2_6_0_split
I1123 14:54:33.992435  3220 net.cpp:454] enet2_6_relu2_6_0_split <- enet2_6
I1123 14:54:33.992445  3220 net.cpp:411] enet2_6_relu2_6_0_split -> enet2_6_relu2_6_0_split_0
I1123 14:54:33.992456  3220 net.cpp:411] enet2_6_relu2_6_0_split -> enet2_6_relu2_6_0_split_1
I1123 14:54:33.992514  3220 net.cpp:150] Setting up enet2_6_relu2_6_0_split
I1123 14:54:33.992527  3220 net.cpp:157] Top shape: 8 128 41 81 (3400704)
I1123 14:54:33.992534  3220 net.cpp:157] Top shape: 8 128 41 81 (3400704)
I1123 14:54:33.992540  3220 net.cpp:165] Memory required for data: 2525027008
I1123 14:54:33.992547  3220 layer_factory.hpp:77] Creating layer enet2_7_branch2a
I1123 14:54:33.992559  3220 net.cpp:106] Creating Layer enet2_7_branch2a
I1123 14:54:33.992566  3220 net.cpp:454] enet2_7_branch2a <- enet2_6_relu2_6_0_split_0
I1123 14:54:33.992576  3220 net.cpp:411] enet2_7_branch2a -> enet2_7_branch2a
I1123 14:54:33.992926  3220 net.cpp:150] Setting up enet2_7_branch2a
I1123 14:54:33.992941  3220 net.cpp:157] Top shape: 8 32 41 81 (850176)
I1123 14:54:33.992947  3220 net.cpp:165] Memory required for data: 2528427712
I1123 14:54:33.992956  3220 layer_factory.hpp:77] Creating layer bn2_7_branch2a
I1123 14:54:33.992971  3220 net.cpp:106] Creating Layer bn2_7_branch2a
I1123 14:54:33.992980  3220 net.cpp:454] bn2_7_branch2a <- enet2_7_branch2a
I1123 14:54:33.992990  3220 net.cpp:397] bn2_7_branch2a -> enet2_7_branch2a (in-place)
I1123 14:54:33.993271  3220 net.cpp:150] Setting up bn2_7_branch2a
I1123 14:54:33.993285  3220 net.cpp:157] Top shape: 8 32 41 81 (850176)
I1123 14:54:33.993291  3220 net.cpp:165] Memory required for data: 2531828416
I1123 14:54:33.993301  3220 layer_factory.hpp:77] Creating layer relu2_7_branch2a
I1123 14:54:33.993311  3220 net.cpp:106] Creating Layer relu2_7_branch2a
I1123 14:54:33.993319  3220 net.cpp:454] relu2_7_branch2a <- enet2_7_branch2a
I1123 14:54:33.993327  3220 net.cpp:397] relu2_7_branch2a -> enet2_7_branch2a (in-place)
I1123 14:54:33.994899  3220 net.cpp:150] Setting up relu2_7_branch2a
I1123 14:54:33.994915  3220 net.cpp:157] Top shape: 8 32 41 81 (850176)
I1123 14:54:33.994921  3220 net.cpp:165] Memory required for data: 2535229120
I1123 14:54:33.994930  3220 layer_factory.hpp:77] Creating layer enet2_7_branch2b1
I1123 14:54:33.994947  3220 net.cpp:106] Creating Layer enet2_7_branch2b1
I1123 14:54:33.994956  3220 net.cpp:454] enet2_7_branch2b1 <- enet2_7_branch2a
I1123 14:54:33.994966  3220 net.cpp:411] enet2_7_branch2b1 -> enet2_7_branch2b1
I1123 14:54:33.995345  3220 net.cpp:150] Setting up enet2_7_branch2b1
I1123 14:54:33.995359  3220 net.cpp:157] Top shape: 8 32 41 81 (850176)
I1123 14:54:33.995365  3220 net.cpp:165] Memory required for data: 2538629824
I1123 14:54:33.995374  3220 layer_factory.hpp:77] Creating layer enet2_7_branch2b
I1123 14:54:33.995388  3220 net.cpp:106] Creating Layer enet2_7_branch2b
I1123 14:54:33.995395  3220 net.cpp:454] enet2_7_branch2b <- enet2_7_branch2b1
I1123 14:54:33.995406  3220 net.cpp:411] enet2_7_branch2b -> enet2_7_branch2b
I1123 14:54:33.995843  3220 net.cpp:150] Setting up enet2_7_branch2b
I1123 14:54:33.995857  3220 net.cpp:157] Top shape: 8 32 41 81 (850176)
I1123 14:54:33.995863  3220 net.cpp:165] Memory required for data: 2542030528
I1123 14:54:33.995874  3220 layer_factory.hpp:77] Creating layer bn2_7_branch2b
I1123 14:54:33.995889  3220 net.cpp:106] Creating Layer bn2_7_branch2b
I1123 14:54:33.995896  3220 net.cpp:454] bn2_7_branch2b <- enet2_7_branch2b
I1123 14:54:33.995909  3220 net.cpp:397] bn2_7_branch2b -> enet2_7_branch2b (in-place)
I1123 14:54:33.996192  3220 net.cpp:150] Setting up bn2_7_branch2b
I1123 14:54:33.996213  3220 net.cpp:157] Top shape: 8 32 41 81 (850176)
I1123 14:54:33.996227  3220 net.cpp:165] Memory required for data: 2545431232
I1123 14:54:33.996238  3220 layer_factory.hpp:77] Creating layer relu2_7_branch2b
I1123 14:54:33.996253  3220 net.cpp:106] Creating Layer relu2_7_branch2b
I1123 14:54:33.996259  3220 net.cpp:454] relu2_7_branch2b <- enet2_7_branch2b
I1123 14:54:33.996268  3220 net.cpp:397] relu2_7_branch2b -> enet2_7_branch2b (in-place)
I1123 14:54:33.996466  3220 net.cpp:150] Setting up relu2_7_branch2b
I1123 14:54:33.996480  3220 net.cpp:157] Top shape: 8 32 41 81 (850176)
I1123 14:54:33.996486  3220 net.cpp:165] Memory required for data: 2548831936
I1123 14:54:33.996495  3220 layer_factory.hpp:77] Creating layer enet2_7_branch2c
I1123 14:54:33.996513  3220 net.cpp:106] Creating Layer enet2_7_branch2c
I1123 14:54:33.996521  3220 net.cpp:454] enet2_7_branch2c <- enet2_7_branch2b
I1123 14:54:33.996534  3220 net.cpp:411] enet2_7_branch2c -> enet2_7_branch2c
I1123 14:54:33.997174  3220 net.cpp:150] Setting up enet2_7_branch2c
I1123 14:54:33.997196  3220 net.cpp:157] Top shape: 8 128 41 81 (3400704)
I1123 14:54:33.997205  3220 net.cpp:165] Memory required for data: 2562434752
I1123 14:54:33.997215  3220 layer_factory.hpp:77] Creating layer bn2_7_branch2c
I1123 14:54:33.997226  3220 net.cpp:106] Creating Layer bn2_7_branch2c
I1123 14:54:33.997236  3220 net.cpp:454] bn2_7_branch2c <- enet2_7_branch2c
I1123 14:54:33.997251  3220 net.cpp:397] bn2_7_branch2c -> enet2_7_branch2c (in-place)
I1123 14:54:33.997524  3220 net.cpp:150] Setting up bn2_7_branch2c
I1123 14:54:33.997539  3220 net.cpp:157] Top shape: 8 128 41 81 (3400704)
I1123 14:54:33.997545  3220 net.cpp:165] Memory required for data: 2576037568
I1123 14:54:33.997555  3220 layer_factory.hpp:77] Creating layer dropout2_7_branch2c
I1123 14:54:33.997565  3220 net.cpp:106] Creating Layer dropout2_7_branch2c
I1123 14:54:33.997571  3220 net.cpp:454] dropout2_7_branch2c <- enet2_7_branch2c
I1123 14:54:33.997588  3220 net.cpp:397] dropout2_7_branch2c -> enet2_7_branch2c (in-place)
I1123 14:54:33.997623  3220 net.cpp:150] Setting up dropout2_7_branch2c
I1123 14:54:33.997635  3220 net.cpp:157] Top shape: 8 128 41 81 (3400704)
I1123 14:54:33.997642  3220 net.cpp:165] Memory required for data: 2589640384
I1123 14:54:33.997648  3220 layer_factory.hpp:77] Creating layer enet2_7
I1123 14:54:33.997658  3220 net.cpp:106] Creating Layer enet2_7
I1123 14:54:33.997665  3220 net.cpp:454] enet2_7 <- enet2_6_relu2_6_0_split_1
I1123 14:54:33.997673  3220 net.cpp:454] enet2_7 <- enet2_7_branch2c
I1123 14:54:33.997683  3220 net.cpp:411] enet2_7 -> enet2_7
I1123 14:54:33.997721  3220 net.cpp:150] Setting up enet2_7
I1123 14:54:33.997735  3220 net.cpp:157] Top shape: 8 128 41 81 (3400704)
I1123 14:54:33.997740  3220 net.cpp:165] Memory required for data: 2603243200
I1123 14:54:33.997747  3220 layer_factory.hpp:77] Creating layer relu2_7
I1123 14:54:33.997759  3220 net.cpp:106] Creating Layer relu2_7
I1123 14:54:33.997766  3220 net.cpp:454] relu2_7 <- enet2_7
I1123 14:54:33.997776  3220 net.cpp:397] relu2_7 -> enet2_7 (in-place)
I1123 14:54:34.000499  3220 net.cpp:150] Setting up relu2_7
I1123 14:54:34.000519  3220 net.cpp:157] Top shape: 8 128 41 81 (3400704)
I1123 14:54:34.000526  3220 net.cpp:165] Memory required for data: 2616846016
I1123 14:54:34.000535  3220 layer_factory.hpp:77] Creating layer enet2_7_relu2_7_0_split
I1123 14:54:34.000545  3220 net.cpp:106] Creating Layer enet2_7_relu2_7_0_split
I1123 14:54:34.000553  3220 net.cpp:454] enet2_7_relu2_7_0_split <- enet2_7
I1123 14:54:34.000562  3220 net.cpp:411] enet2_7_relu2_7_0_split -> enet2_7_relu2_7_0_split_0
I1123 14:54:34.000574  3220 net.cpp:411] enet2_7_relu2_7_0_split -> enet2_7_relu2_7_0_split_1
I1123 14:54:34.000632  3220 net.cpp:150] Setting up enet2_7_relu2_7_0_split
I1123 14:54:34.000644  3220 net.cpp:157] Top shape: 8 128 41 81 (3400704)
I1123 14:54:34.000653  3220 net.cpp:157] Top shape: 8 128 41 81 (3400704)
I1123 14:54:34.000658  3220 net.cpp:165] Memory required for data: 2644051648
I1123 14:54:34.000665  3220 layer_factory.hpp:77] Creating layer enet2_8_branch2a
I1123 14:54:34.000696  3220 net.cpp:106] Creating Layer enet2_8_branch2a
I1123 14:54:34.000705  3220 net.cpp:454] enet2_8_branch2a <- enet2_7_relu2_7_0_split_0
I1123 14:54:34.000716  3220 net.cpp:411] enet2_8_branch2a -> enet2_8_branch2a
I1123 14:54:34.002256  3220 net.cpp:150] Setting up enet2_8_branch2a
I1123 14:54:34.002274  3220 net.cpp:157] Top shape: 8 32 41 81 (850176)
I1123 14:54:34.002281  3220 net.cpp:165] Memory required for data: 2647452352
I1123 14:54:34.002290  3220 layer_factory.hpp:77] Creating layer bn2_8_branch2a
I1123 14:54:34.002306  3220 net.cpp:106] Creating Layer bn2_8_branch2a
I1123 14:54:34.002313  3220 net.cpp:454] bn2_8_branch2a <- enet2_8_branch2a
I1123 14:54:34.002324  3220 net.cpp:397] bn2_8_branch2a -> enet2_8_branch2a (in-place)
I1123 14:54:34.002607  3220 net.cpp:150] Setting up bn2_8_branch2a
I1123 14:54:34.002621  3220 net.cpp:157] Top shape: 8 32 41 81 (850176)
I1123 14:54:34.002627  3220 net.cpp:165] Memory required for data: 2650853056
I1123 14:54:34.002637  3220 layer_factory.hpp:77] Creating layer relu2_8_branch2a
I1123 14:54:34.002647  3220 net.cpp:106] Creating Layer relu2_8_branch2a
I1123 14:54:34.002655  3220 net.cpp:454] relu2_8_branch2a <- enet2_8_branch2a
I1123 14:54:34.002663  3220 net.cpp:397] relu2_8_branch2a -> enet2_8_branch2a (in-place)
I1123 14:54:34.004271  3220 net.cpp:150] Setting up relu2_8_branch2a
I1123 14:54:34.004287  3220 net.cpp:157] Top shape: 8 32 41 81 (850176)
I1123 14:54:34.004293  3220 net.cpp:165] Memory required for data: 2654253760
I1123 14:54:34.004302  3220 layer_factory.hpp:77] Creating layer enet2_8_branch2b
I1123 14:54:34.004320  3220 net.cpp:106] Creating Layer enet2_8_branch2b
I1123 14:54:34.004328  3220 net.cpp:454] enet2_8_branch2b <- enet2_8_branch2a
I1123 14:54:34.004339  3220 net.cpp:411] enet2_8_branch2b -> enet2_8_branch2b
I1123 14:54:34.004891  3220 net.cpp:150] Setting up enet2_8_branch2b
I1123 14:54:34.004905  3220 net.cpp:157] Top shape: 8 32 41 81 (850176)
I1123 14:54:34.004912  3220 net.cpp:165] Memory required for data: 2657654464
I1123 14:54:34.004922  3220 layer_factory.hpp:77] Creating layer bn2_8_branch2b
I1123 14:54:34.004945  3220 net.cpp:106] Creating Layer bn2_8_branch2b
I1123 14:54:34.004953  3220 net.cpp:454] bn2_8_branch2b <- enet2_8_branch2b
I1123 14:54:34.004966  3220 net.cpp:397] bn2_8_branch2b -> enet2_8_branch2b (in-place)
I1123 14:54:34.005252  3220 net.cpp:150] Setting up bn2_8_branch2b
I1123 14:54:34.005265  3220 net.cpp:157] Top shape: 8 32 41 81 (850176)
I1123 14:54:34.005272  3220 net.cpp:165] Memory required for data: 2661055168
I1123 14:54:34.005282  3220 layer_factory.hpp:77] Creating layer relu2_8_branch2b
I1123 14:54:34.005292  3220 net.cpp:106] Creating Layer relu2_8_branch2b
I1123 14:54:34.005300  3220 net.cpp:454] relu2_8_branch2b <- enet2_8_branch2b
I1123 14:54:34.005307  3220 net.cpp:397] relu2_8_branch2b -> enet2_8_branch2b (in-place)
I1123 14:54:34.005512  3220 net.cpp:150] Setting up relu2_8_branch2b
I1123 14:54:34.005527  3220 net.cpp:157] Top shape: 8 32 41 81 (850176)
I1123 14:54:34.005532  3220 net.cpp:165] Memory required for data: 2664455872
I1123 14:54:34.005540  3220 layer_factory.hpp:77] Creating layer enet2_8_branch2c
I1123 14:54:34.005558  3220 net.cpp:106] Creating Layer enet2_8_branch2c
I1123 14:54:34.005565  3220 net.cpp:454] enet2_8_branch2c <- enet2_8_branch2b
I1123 14:54:34.005578  3220 net.cpp:411] enet2_8_branch2c -> enet2_8_branch2c
I1123 14:54:34.005944  3220 net.cpp:150] Setting up enet2_8_branch2c
I1123 14:54:34.005957  3220 net.cpp:157] Top shape: 8 128 41 81 (3400704)
I1123 14:54:34.005964  3220 net.cpp:165] Memory required for data: 2678058688
I1123 14:54:34.005972  3220 layer_factory.hpp:77] Creating layer bn2_8_branch2c
I1123 14:54:34.005987  3220 net.cpp:106] Creating Layer bn2_8_branch2c
I1123 14:54:34.005995  3220 net.cpp:454] bn2_8_branch2c <- enet2_8_branch2c
I1123 14:54:34.006005  3220 net.cpp:397] bn2_8_branch2c -> enet2_8_branch2c (in-place)
I1123 14:54:34.006268  3220 net.cpp:150] Setting up bn2_8_branch2c
I1123 14:54:34.006289  3220 net.cpp:157] Top shape: 8 128 41 81 (3400704)
I1123 14:54:34.006304  3220 net.cpp:165] Memory required for data: 2691661504
I1123 14:54:34.006314  3220 layer_factory.hpp:77] Creating layer dropout2_8_branch2c
I1123 14:54:34.006325  3220 net.cpp:106] Creating Layer dropout2_8_branch2c
I1123 14:54:34.006331  3220 net.cpp:454] dropout2_8_branch2c <- enet2_8_branch2c
I1123 14:54:34.006340  3220 net.cpp:397] dropout2_8_branch2c -> enet2_8_branch2c (in-place)
I1123 14:54:34.006376  3220 net.cpp:150] Setting up dropout2_8_branch2c
I1123 14:54:34.006388  3220 net.cpp:157] Top shape: 8 128 41 81 (3400704)
I1123 14:54:34.006394  3220 net.cpp:165] Memory required for data: 2705264320
I1123 14:54:34.006400  3220 layer_factory.hpp:77] Creating layer enet2_8
I1123 14:54:34.006414  3220 net.cpp:106] Creating Layer enet2_8
I1123 14:54:34.006422  3220 net.cpp:454] enet2_8 <- enet2_7_relu2_7_0_split_1
I1123 14:54:34.006430  3220 net.cpp:454] enet2_8 <- enet2_8_branch2c
I1123 14:54:34.006439  3220 net.cpp:411] enet2_8 -> enet2_8
I1123 14:54:34.006479  3220 net.cpp:150] Setting up enet2_8
I1123 14:54:34.006491  3220 net.cpp:157] Top shape: 8 128 41 81 (3400704)
I1123 14:54:34.006497  3220 net.cpp:165] Memory required for data: 2718867136
I1123 14:54:34.006505  3220 layer_factory.hpp:77] Creating layer relu2_8
I1123 14:54:34.006513  3220 net.cpp:106] Creating Layer relu2_8
I1123 14:54:34.006520  3220 net.cpp:454] relu2_8 <- enet2_8
I1123 14:54:34.006531  3220 net.cpp:397] relu2_8 -> enet2_8 (in-place)
I1123 14:54:34.009673  3220 net.cpp:150] Setting up relu2_8
I1123 14:54:34.009692  3220 net.cpp:157] Top shape: 8 128 41 81 (3400704)
I1123 14:54:34.009698  3220 net.cpp:165] Memory required for data: 2732469952
I1123 14:54:34.009707  3220 layer_factory.hpp:77] Creating layer enet2_8_relu2_8_0_split
I1123 14:54:34.009721  3220 net.cpp:106] Creating Layer enet2_8_relu2_8_0_split
I1123 14:54:34.009729  3220 net.cpp:454] enet2_8_relu2_8_0_split <- enet2_8
I1123 14:54:34.009739  3220 net.cpp:411] enet2_8_relu2_8_0_split -> enet2_8_relu2_8_0_split_0
I1123 14:54:34.009754  3220 net.cpp:411] enet2_8_relu2_8_0_split -> enet2_8_relu2_8_0_split_1
I1123 14:54:34.009809  3220 net.cpp:150] Setting up enet2_8_relu2_8_0_split
I1123 14:54:34.009820  3220 net.cpp:157] Top shape: 8 128 41 81 (3400704)
I1123 14:54:34.009832  3220 net.cpp:157] Top shape: 8 128 41 81 (3400704)
I1123 14:54:34.009838  3220 net.cpp:165] Memory required for data: 2759675584
I1123 14:54:34.009845  3220 layer_factory.hpp:77] Creating layer enet3_1_branch2a
I1123 14:54:34.009858  3220 net.cpp:106] Creating Layer enet3_1_branch2a
I1123 14:54:34.009866  3220 net.cpp:454] enet3_1_branch2a <- enet2_8_relu2_8_0_split_0
I1123 14:54:34.009881  3220 net.cpp:411] enet3_1_branch2a -> enet3_1_branch2a
I1123 14:54:34.010226  3220 net.cpp:150] Setting up enet3_1_branch2a
I1123 14:54:34.010239  3220 net.cpp:157] Top shape: 8 32 41 81 (850176)
I1123 14:54:34.010246  3220 net.cpp:165] Memory required for data: 2763076288
I1123 14:54:34.010253  3220 layer_factory.hpp:77] Creating layer bn3_1_branch2a
I1123 14:54:34.010268  3220 net.cpp:106] Creating Layer bn3_1_branch2a
I1123 14:54:34.010277  3220 net.cpp:454] bn3_1_branch2a <- enet3_1_branch2a
I1123 14:54:34.010285  3220 net.cpp:397] bn3_1_branch2a -> enet3_1_branch2a (in-place)
I1123 14:54:34.010560  3220 net.cpp:150] Setting up bn3_1_branch2a
I1123 14:54:34.010574  3220 net.cpp:157] Top shape: 8 32 41 81 (850176)
I1123 14:54:34.010581  3220 net.cpp:165] Memory required for data: 2766476992
I1123 14:54:34.010591  3220 layer_factory.hpp:77] Creating layer relu3_1_branch2a
I1123 14:54:34.010601  3220 net.cpp:106] Creating Layer relu3_1_branch2a
I1123 14:54:34.010607  3220 net.cpp:454] relu3_1_branch2a <- enet3_1_branch2a
I1123 14:54:34.010617  3220 net.cpp:397] relu3_1_branch2a -> enet3_1_branch2a (in-place)
I1123 14:54:34.012003  3220 net.cpp:150] Setting up relu3_1_branch2a
I1123 14:54:34.012020  3220 net.cpp:157] Top shape: 8 32 41 81 (850176)
I1123 14:54:34.012027  3220 net.cpp:165] Memory required for data: 2769877696
I1123 14:54:34.012042  3220 layer_factory.hpp:77] Creating layer enet3_1_branch2b
I1123 14:54:34.012068  3220 net.cpp:106] Creating Layer enet3_1_branch2b
I1123 14:54:34.012079  3220 net.cpp:454] enet3_1_branch2b <- enet3_1_branch2a
I1123 14:54:34.012092  3220 net.cpp:411] enet3_1_branch2b -> enet3_1_branch2b
I1123 14:54:34.012652  3220 net.cpp:150] Setting up enet3_1_branch2b
I1123 14:54:34.012667  3220 net.cpp:157] Top shape: 8 32 41 81 (850176)
I1123 14:54:34.012673  3220 net.cpp:165] Memory required for data: 2773278400
I1123 14:54:34.012683  3220 layer_factory.hpp:77] Creating layer bn3_1_branch2b
I1123 14:54:34.012699  3220 net.cpp:106] Creating Layer bn3_1_branch2b
I1123 14:54:34.012707  3220 net.cpp:454] bn3_1_branch2b <- enet3_1_branch2b
I1123 14:54:34.012720  3220 net.cpp:397] bn3_1_branch2b -> enet3_1_branch2b (in-place)
I1123 14:54:34.013022  3220 net.cpp:150] Setting up bn3_1_branch2b
I1123 14:54:34.013036  3220 net.cpp:157] Top shape: 8 32 41 81 (850176)
I1123 14:54:34.013042  3220 net.cpp:165] Memory required for data: 2776679104
I1123 14:54:34.013053  3220 layer_factory.hpp:77] Creating layer relu3_1_branch2b
I1123 14:54:34.013063  3220 net.cpp:106] Creating Layer relu3_1_branch2b
I1123 14:54:34.013070  3220 net.cpp:454] relu3_1_branch2b <- enet3_1_branch2b
I1123 14:54:34.013082  3220 net.cpp:397] relu3_1_branch2b -> enet3_1_branch2b (in-place)
I1123 14:54:34.013291  3220 net.cpp:150] Setting up relu3_1_branch2b
I1123 14:54:34.013309  3220 net.cpp:157] Top shape: 8 32 41 81 (850176)
I1123 14:54:34.013315  3220 net.cpp:165] Memory required for data: 2780079808
I1123 14:54:34.013324  3220 layer_factory.hpp:77] Creating layer enet3_1_branch2c
I1123 14:54:34.013337  3220 net.cpp:106] Creating Layer enet3_1_branch2c
I1123 14:54:34.013345  3220 net.cpp:454] enet3_1_branch2c <- enet3_1_branch2b
I1123 14:54:34.013363  3220 net.cpp:411] enet3_1_branch2c -> enet3_1_branch2c
I1123 14:54:34.013739  3220 net.cpp:150] Setting up enet3_1_branch2c
I1123 14:54:34.013754  3220 net.cpp:157] Top shape: 8 128 41 81 (3400704)
I1123 14:54:34.013761  3220 net.cpp:165] Memory required for data: 2793682624
I1123 14:54:34.013769  3220 layer_factory.hpp:77] Creating layer bn3_1_branch2c
I1123 14:54:34.013782  3220 net.cpp:106] Creating Layer bn3_1_branch2c
I1123 14:54:34.013788  3220 net.cpp:454] bn3_1_branch2c <- enet3_1_branch2c
I1123 14:54:34.013798  3220 net.cpp:397] bn3_1_branch2c -> enet3_1_branch2c (in-place)
I1123 14:54:34.014070  3220 net.cpp:150] Setting up bn3_1_branch2c
I1123 14:54:34.014084  3220 net.cpp:157] Top shape: 8 128 41 81 (3400704)
I1123 14:54:34.014091  3220 net.cpp:165] Memory required for data: 2807285440
I1123 14:54:34.014101  3220 layer_factory.hpp:77] Creating layer dropout3_1_branch2c
I1123 14:54:34.014111  3220 net.cpp:106] Creating Layer dropout3_1_branch2c
I1123 14:54:34.014118  3220 net.cpp:454] dropout3_1_branch2c <- enet3_1_branch2c
I1123 14:54:34.014127  3220 net.cpp:397] dropout3_1_branch2c -> enet3_1_branch2c (in-place)
I1123 14:54:34.014163  3220 net.cpp:150] Setting up dropout3_1_branch2c
I1123 14:54:34.014175  3220 net.cpp:157] Top shape: 8 128 41 81 (3400704)
I1123 14:54:34.014181  3220 net.cpp:165] Memory required for data: 2820888256
I1123 14:54:34.014189  3220 layer_factory.hpp:77] Creating layer enet3_1
I1123 14:54:34.014202  3220 net.cpp:106] Creating Layer enet3_1
I1123 14:54:34.014210  3220 net.cpp:454] enet3_1 <- enet2_8_relu2_8_0_split_1
I1123 14:54:34.014219  3220 net.cpp:454] enet3_1 <- enet3_1_branch2c
I1123 14:54:34.014231  3220 net.cpp:411] enet3_1 -> enet3_1
I1123 14:54:34.014267  3220 net.cpp:150] Setting up enet3_1
I1123 14:54:34.014279  3220 net.cpp:157] Top shape: 8 128 41 81 (3400704)
I1123 14:54:34.014286  3220 net.cpp:165] Memory required for data: 2834491072
I1123 14:54:34.014292  3220 layer_factory.hpp:77] Creating layer relu3_1
I1123 14:54:34.014307  3220 net.cpp:106] Creating Layer relu3_1
I1123 14:54:34.014313  3220 net.cpp:454] relu3_1 <- enet3_1
I1123 14:54:34.014322  3220 net.cpp:397] relu3_1 -> enet3_1 (in-place)
I1123 14:54:34.017282  3220 net.cpp:150] Setting up relu3_1
I1123 14:54:34.017307  3220 net.cpp:157] Top shape: 8 128 41 81 (3400704)
I1123 14:54:34.017321  3220 net.cpp:165] Memory required for data: 2848093888
I1123 14:54:34.017331  3220 layer_factory.hpp:77] Creating layer enet3_1_relu3_1_0_split
I1123 14:54:34.017344  3220 net.cpp:106] Creating Layer enet3_1_relu3_1_0_split
I1123 14:54:34.017352  3220 net.cpp:454] enet3_1_relu3_1_0_split <- enet3_1
I1123 14:54:34.017365  3220 net.cpp:411] enet3_1_relu3_1_0_split -> enet3_1_relu3_1_0_split_0
I1123 14:54:34.017377  3220 net.cpp:411] enet3_1_relu3_1_0_split -> enet3_1_relu3_1_0_split_1
I1123 14:54:34.017433  3220 net.cpp:150] Setting up enet3_1_relu3_1_0_split
I1123 14:54:34.017446  3220 net.cpp:157] Top shape: 8 128 41 81 (3400704)
I1123 14:54:34.017457  3220 net.cpp:157] Top shape: 8 128 41 81 (3400704)
I1123 14:54:34.017462  3220 net.cpp:165] Memory required for data: 2875299520
I1123 14:54:34.017469  3220 layer_factory.hpp:77] Creating layer enet3_2_branch2a
I1123 14:54:34.017482  3220 net.cpp:106] Creating Layer enet3_2_branch2a
I1123 14:54:34.017489  3220 net.cpp:454] enet3_2_branch2a <- enet3_1_relu3_1_0_split_0
I1123 14:54:34.017503  3220 net.cpp:411] enet3_2_branch2a -> enet3_2_branch2a
I1123 14:54:34.018187  3220 net.cpp:150] Setting up enet3_2_branch2a
I1123 14:54:34.018203  3220 net.cpp:157] Top shape: 8 32 41 81 (850176)
I1123 14:54:34.018208  3220 net.cpp:165] Memory required for data: 2878700224
I1123 14:54:34.018218  3220 layer_factory.hpp:77] Creating layer bn3_2_branch2a
I1123 14:54:34.018230  3220 net.cpp:106] Creating Layer bn3_2_branch2a
I1123 14:54:34.018239  3220 net.cpp:454] bn3_2_branch2a <- enet3_2_branch2a
I1123 14:54:34.018250  3220 net.cpp:397] bn3_2_branch2a -> enet3_2_branch2a (in-place)
I1123 14:54:34.018544  3220 net.cpp:150] Setting up bn3_2_branch2a
I1123 14:54:34.018558  3220 net.cpp:157] Top shape: 8 32 41 81 (850176)
I1123 14:54:34.018564  3220 net.cpp:165] Memory required for data: 2882100928
I1123 14:54:34.018575  3220 layer_factory.hpp:77] Creating layer relu3_2_branch2a
I1123 14:54:34.018584  3220 net.cpp:106] Creating Layer relu3_2_branch2a
I1123 14:54:34.018591  3220 net.cpp:454] relu3_2_branch2a <- enet3_2_branch2a
I1123 14:54:34.018600  3220 net.cpp:397] relu3_2_branch2a -> enet3_2_branch2a (in-place)
I1123 14:54:34.019960  3220 net.cpp:150] Setting up relu3_2_branch2a
I1123 14:54:34.019978  3220 net.cpp:157] Top shape: 8 32 41 81 (850176)
I1123 14:54:34.019984  3220 net.cpp:165] Memory required for data: 2885501632
I1123 14:54:34.019992  3220 layer_factory.hpp:77] Creating layer enet3_2_branch2b
I1123 14:54:34.020010  3220 net.cpp:106] Creating Layer enet3_2_branch2b
I1123 14:54:34.020018  3220 net.cpp:454] enet3_2_branch2b <- enet3_2_branch2a
I1123 14:54:34.020032  3220 net.cpp:411] enet3_2_branch2b -> enet3_2_branch2b
I1123 14:54:34.020592  3220 net.cpp:150] Setting up enet3_2_branch2b
I1123 14:54:34.020606  3220 net.cpp:157] Top shape: 8 32 41 81 (850176)
I1123 14:54:34.020612  3220 net.cpp:165] Memory required for data: 2888902336
I1123 14:54:34.020622  3220 layer_factory.hpp:77] Creating layer bn3_2_branch2b
I1123 14:54:34.020637  3220 net.cpp:106] Creating Layer bn3_2_branch2b
I1123 14:54:34.020645  3220 net.cpp:454] bn3_2_branch2b <- enet3_2_branch2b
I1123 14:54:34.020655  3220 net.cpp:397] bn3_2_branch2b -> enet3_2_branch2b (in-place)
I1123 14:54:34.020953  3220 net.cpp:150] Setting up bn3_2_branch2b
I1123 14:54:34.020967  3220 net.cpp:157] Top shape: 8 32 41 81 (850176)
I1123 14:54:34.020973  3220 net.cpp:165] Memory required for data: 2892303040
I1123 14:54:34.020983  3220 layer_factory.hpp:77] Creating layer relu3_2_branch2b
I1123 14:54:34.020993  3220 net.cpp:106] Creating Layer relu3_2_branch2b
I1123 14:54:34.021000  3220 net.cpp:454] relu3_2_branch2b <- enet3_2_branch2b
I1123 14:54:34.021013  3220 net.cpp:397] relu3_2_branch2b -> enet3_2_branch2b (in-place)
I1123 14:54:34.021225  3220 net.cpp:150] Setting up relu3_2_branch2b
I1123 14:54:34.021239  3220 net.cpp:157] Top shape: 8 32 41 81 (850176)
I1123 14:54:34.021245  3220 net.cpp:165] Memory required for data: 2895703744
I1123 14:54:34.021261  3220 layer_factory.hpp:77] Creating layer enet3_2_branch2c
I1123 14:54:34.021286  3220 net.cpp:106] Creating Layer enet3_2_branch2c
I1123 14:54:34.021294  3220 net.cpp:454] enet3_2_branch2c <- enet3_2_branch2b
I1123 14:54:34.021306  3220 net.cpp:411] enet3_2_branch2c -> enet3_2_branch2c
I1123 14:54:34.021667  3220 net.cpp:150] Setting up enet3_2_branch2c
I1123 14:54:34.021680  3220 net.cpp:157] Top shape: 8 128 41 81 (3400704)
I1123 14:54:34.021687  3220 net.cpp:165] Memory required for data: 2909306560
I1123 14:54:34.021695  3220 layer_factory.hpp:77] Creating layer bn3_2_branch2c
I1123 14:54:34.021706  3220 net.cpp:106] Creating Layer bn3_2_branch2c
I1123 14:54:34.021713  3220 net.cpp:454] bn3_2_branch2c <- enet3_2_branch2c
I1123 14:54:34.021723  3220 net.cpp:397] bn3_2_branch2c -> enet3_2_branch2c (in-place)
I1123 14:54:34.022011  3220 net.cpp:150] Setting up bn3_2_branch2c
I1123 14:54:34.022025  3220 net.cpp:157] Top shape: 8 128 41 81 (3400704)
I1123 14:54:34.022032  3220 net.cpp:165] Memory required for data: 2922909376
I1123 14:54:34.022042  3220 layer_factory.hpp:77] Creating layer dropout3_2_branch2c
I1123 14:54:34.022052  3220 net.cpp:106] Creating Layer dropout3_2_branch2c
I1123 14:54:34.022058  3220 net.cpp:454] dropout3_2_branch2c <- enet3_2_branch2c
I1123 14:54:34.022068  3220 net.cpp:397] dropout3_2_branch2c -> enet3_2_branch2c (in-place)
I1123 14:54:34.022107  3220 net.cpp:150] Setting up dropout3_2_branch2c
I1123 14:54:34.022120  3220 net.cpp:157] Top shape: 8 128 41 81 (3400704)
I1123 14:54:34.022126  3220 net.cpp:165] Memory required for data: 2936512192
I1123 14:54:34.022133  3220 layer_factory.hpp:77] Creating layer enet3_2
I1123 14:54:34.022142  3220 net.cpp:106] Creating Layer enet3_2
I1123 14:54:34.022150  3220 net.cpp:454] enet3_2 <- enet3_1_relu3_1_0_split_1
I1123 14:54:34.022158  3220 net.cpp:454] enet3_2 <- enet3_2_branch2c
I1123 14:54:34.022171  3220 net.cpp:411] enet3_2 -> enet3_2
I1123 14:54:34.022207  3220 net.cpp:150] Setting up enet3_2
I1123 14:54:34.022219  3220 net.cpp:157] Top shape: 8 128 41 81 (3400704)
I1123 14:54:34.022227  3220 net.cpp:165] Memory required for data: 2950115008
I1123 14:54:34.022233  3220 layer_factory.hpp:77] Creating layer relu3_2
I1123 14:54:34.022246  3220 net.cpp:106] Creating Layer relu3_2
I1123 14:54:34.022253  3220 net.cpp:454] relu3_2 <- enet3_2
I1123 14:54:34.022264  3220 net.cpp:397] relu3_2 -> enet3_2 (in-place)
I1123 14:54:34.025034  3220 net.cpp:150] Setting up relu3_2
I1123 14:54:34.025051  3220 net.cpp:157] Top shape: 8 128 41 81 (3400704)
I1123 14:54:34.025058  3220 net.cpp:165] Memory required for data: 2963717824
I1123 14:54:34.025068  3220 layer_factory.hpp:77] Creating layer enet3_2_relu3_2_0_split
I1123 14:54:34.025077  3220 net.cpp:106] Creating Layer enet3_2_relu3_2_0_split
I1123 14:54:34.025085  3220 net.cpp:454] enet3_2_relu3_2_0_split <- enet3_2
I1123 14:54:34.025099  3220 net.cpp:411] enet3_2_relu3_2_0_split -> enet3_2_relu3_2_0_split_0
I1123 14:54:34.025111  3220 net.cpp:411] enet3_2_relu3_2_0_split -> enet3_2_relu3_2_0_split_1
I1123 14:54:34.025171  3220 net.cpp:150] Setting up enet3_2_relu3_2_0_split
I1123 14:54:34.025182  3220 net.cpp:157] Top shape: 8 128 41 81 (3400704)
I1123 14:54:34.025190  3220 net.cpp:157] Top shape: 8 128 41 81 (3400704)
I1123 14:54:34.025197  3220 net.cpp:165] Memory required for data: 2990923456
I1123 14:54:34.025203  3220 layer_factory.hpp:77] Creating layer enet3_3_branch2a
I1123 14:54:34.025219  3220 net.cpp:106] Creating Layer enet3_3_branch2a
I1123 14:54:34.025228  3220 net.cpp:454] enet3_3_branch2a <- enet3_2_relu3_2_0_split_0
I1123 14:54:34.025238  3220 net.cpp:411] enet3_3_branch2a -> enet3_3_branch2a
I1123 14:54:34.025616  3220 net.cpp:150] Setting up enet3_3_branch2a
I1123 14:54:34.025631  3220 net.cpp:157] Top shape: 8 32 41 81 (850176)
I1123 14:54:34.025637  3220 net.cpp:165] Memory required for data: 2994324160
I1123 14:54:34.025646  3220 layer_factory.hpp:77] Creating layer bn3_3_branch2a
I1123 14:54:34.025658  3220 net.cpp:106] Creating Layer bn3_3_branch2a
I1123 14:54:34.025672  3220 net.cpp:454] bn3_3_branch2a <- enet3_3_branch2a
I1123 14:54:34.025691  3220 net.cpp:397] bn3_3_branch2a -> enet3_3_branch2a (in-place)
I1123 14:54:34.026002  3220 net.cpp:150] Setting up bn3_3_branch2a
I1123 14:54:34.026016  3220 net.cpp:157] Top shape: 8 32 41 81 (850176)
I1123 14:54:34.026022  3220 net.cpp:165] Memory required for data: 2997724864
I1123 14:54:34.026033  3220 layer_factory.hpp:77] Creating layer relu3_3_branch2a
I1123 14:54:34.026043  3220 net.cpp:106] Creating Layer relu3_3_branch2a
I1123 14:54:34.026051  3220 net.cpp:454] relu3_3_branch2a <- enet3_3_branch2a
I1123 14:54:34.026063  3220 net.cpp:397] relu3_3_branch2a -> enet3_3_branch2a (in-place)
I1123 14:54:34.027474  3220 net.cpp:150] Setting up relu3_3_branch2a
I1123 14:54:34.027492  3220 net.cpp:157] Top shape: 8 32 41 81 (850176)
I1123 14:54:34.027498  3220 net.cpp:165] Memory required for data: 3001125568
I1123 14:54:34.027506  3220 layer_factory.hpp:77] Creating layer enet3_3_branch2b1
I1123 14:54:34.027524  3220 net.cpp:106] Creating Layer enet3_3_branch2b1
I1123 14:54:34.027534  3220 net.cpp:454] enet3_3_branch2b1 <- enet3_3_branch2a
I1123 14:54:34.027545  3220 net.cpp:411] enet3_3_branch2b1 -> enet3_3_branch2b1
I1123 14:54:34.027932  3220 net.cpp:150] Setting up enet3_3_branch2b1
I1123 14:54:34.027946  3220 net.cpp:157] Top shape: 8 32 41 81 (850176)
I1123 14:54:34.027952  3220 net.cpp:165] Memory required for data: 3004526272
I1123 14:54:34.027961  3220 layer_factory.hpp:77] Creating layer enet3_3_branch2b
I1123 14:54:34.027974  3220 net.cpp:106] Creating Layer enet3_3_branch2b
I1123 14:54:34.027982  3220 net.cpp:454] enet3_3_branch2b <- enet3_3_branch2b1
I1123 14:54:34.027995  3220 net.cpp:411] enet3_3_branch2b -> enet3_3_branch2b
I1123 14:54:34.028455  3220 net.cpp:150] Setting up enet3_3_branch2b
I1123 14:54:34.028468  3220 net.cpp:157] Top shape: 8 32 41 81 (850176)
I1123 14:54:34.028475  3220 net.cpp:165] Memory required for data: 3007926976
I1123 14:54:34.028486  3220 layer_factory.hpp:77] Creating layer bn3_3_branch2b
I1123 14:54:34.028506  3220 net.cpp:106] Creating Layer bn3_3_branch2b
I1123 14:54:34.028513  3220 net.cpp:454] bn3_3_branch2b <- enet3_3_branch2b
I1123 14:54:34.028523  3220 net.cpp:397] bn3_3_branch2b -> enet3_3_branch2b (in-place)
I1123 14:54:34.028820  3220 net.cpp:150] Setting up bn3_3_branch2b
I1123 14:54:34.028837  3220 net.cpp:157] Top shape: 8 32 41 81 (850176)
I1123 14:54:34.028844  3220 net.cpp:165] Memory required for data: 3011327680
I1123 14:54:34.028854  3220 layer_factory.hpp:77] Creating layer relu3_3_branch2b
I1123 14:54:34.028864  3220 net.cpp:106] Creating Layer relu3_3_branch2b
I1123 14:54:34.028872  3220 net.cpp:454] relu3_3_branch2b <- enet3_3_branch2b
I1123 14:54:34.028880  3220 net.cpp:397] relu3_3_branch2b -> enet3_3_branch2b (in-place)
I1123 14:54:34.029420  3220 net.cpp:150] Setting up relu3_3_branch2b
I1123 14:54:34.029435  3220 net.cpp:157] Top shape: 8 32 41 81 (850176)
I1123 14:54:34.029441  3220 net.cpp:165] Memory required for data: 3014728384
I1123 14:54:34.029450  3220 layer_factory.hpp:77] Creating layer enet3_3_branch2c
I1123 14:54:34.029467  3220 net.cpp:106] Creating Layer enet3_3_branch2c
I1123 14:54:34.029475  3220 net.cpp:454] enet3_3_branch2c <- enet3_3_branch2b
I1123 14:54:34.029485  3220 net.cpp:411] enet3_3_branch2c -> enet3_3_branch2c
I1123 14:54:34.029857  3220 net.cpp:150] Setting up enet3_3_branch2c
I1123 14:54:34.029871  3220 net.cpp:157] Top shape: 8 128 41 81 (3400704)
I1123 14:54:34.029877  3220 net.cpp:165] Memory required for data: 3028331200
I1123 14:54:34.029886  3220 layer_factory.hpp:77] Creating layer bn3_3_branch2c
I1123 14:54:34.029901  3220 net.cpp:106] Creating Layer bn3_3_branch2c
I1123 14:54:34.029908  3220 net.cpp:454] bn3_3_branch2c <- enet3_3_branch2c
I1123 14:54:34.029918  3220 net.cpp:397] bn3_3_branch2c -> enet3_3_branch2c (in-place)
I1123 14:54:34.030189  3220 net.cpp:150] Setting up bn3_3_branch2c
I1123 14:54:34.030202  3220 net.cpp:157] Top shape: 8 128 41 81 (3400704)
I1123 14:54:34.030208  3220 net.cpp:165] Memory required for data: 3041934016
I1123 14:54:34.030226  3220 layer_factory.hpp:77] Creating layer dropout3_3_branch2c
I1123 14:54:34.030249  3220 net.cpp:106] Creating Layer dropout3_3_branch2c
I1123 14:54:34.030257  3220 net.cpp:454] dropout3_3_branch2c <- enet3_3_branch2c
I1123 14:54:34.030267  3220 net.cpp:397] dropout3_3_branch2c -> enet3_3_branch2c (in-place)
I1123 14:54:34.030303  3220 net.cpp:150] Setting up dropout3_3_branch2c
I1123 14:54:34.030314  3220 net.cpp:157] Top shape: 8 128 41 81 (3400704)
I1123 14:54:34.030320  3220 net.cpp:165] Memory required for data: 3055536832
I1123 14:54:34.030328  3220 layer_factory.hpp:77] Creating layer enet3_3
I1123 14:54:34.030336  3220 net.cpp:106] Creating Layer enet3_3
I1123 14:54:34.030344  3220 net.cpp:454] enet3_3 <- enet3_2_relu3_2_0_split_1
I1123 14:54:34.030351  3220 net.cpp:454] enet3_3 <- enet3_3_branch2c
I1123 14:54:34.030365  3220 net.cpp:411] enet3_3 -> enet3_3
I1123 14:54:34.030407  3220 net.cpp:150] Setting up enet3_3
I1123 14:54:34.030421  3220 net.cpp:157] Top shape: 8 128 41 81 (3400704)
I1123 14:54:34.030426  3220 net.cpp:165] Memory required for data: 3069139648
I1123 14:54:34.030432  3220 layer_factory.hpp:77] Creating layer relu3_3
I1123 14:54:34.030442  3220 net.cpp:106] Creating Layer relu3_3
I1123 14:54:34.030449  3220 net.cpp:454] relu3_3 <- enet3_3
I1123 14:54:34.030462  3220 net.cpp:397] relu3_3 -> enet3_3 (in-place)
I1123 14:54:34.033233  3220 net.cpp:150] Setting up relu3_3
I1123 14:54:34.033252  3220 net.cpp:157] Top shape: 8 128 41 81 (3400704)
I1123 14:54:34.033257  3220 net.cpp:165] Memory required for data: 3082742464
I1123 14:54:34.033267  3220 layer_factory.hpp:77] Creating layer enet3_3_relu3_3_0_split
I1123 14:54:34.033280  3220 net.cpp:106] Creating Layer enet3_3_relu3_3_0_split
I1123 14:54:34.033288  3220 net.cpp:454] enet3_3_relu3_3_0_split <- enet3_3
I1123 14:54:34.033298  3220 net.cpp:411] enet3_3_relu3_3_0_split -> enet3_3_relu3_3_0_split_0
I1123 14:54:34.033309  3220 net.cpp:411] enet3_3_relu3_3_0_split -> enet3_3_relu3_3_0_split_1
I1123 14:54:34.033371  3220 net.cpp:150] Setting up enet3_3_relu3_3_0_split
I1123 14:54:34.033385  3220 net.cpp:157] Top shape: 8 128 41 81 (3400704)
I1123 14:54:34.033392  3220 net.cpp:157] Top shape: 8 128 41 81 (3400704)
I1123 14:54:34.033398  3220 net.cpp:165] Memory required for data: 3109948096
I1123 14:54:34.033404  3220 layer_factory.hpp:77] Creating layer enet3_4_branch2a
I1123 14:54:34.033418  3220 net.cpp:106] Creating Layer enet3_4_branch2a
I1123 14:54:34.033426  3220 net.cpp:454] enet3_4_branch2a <- enet3_3_relu3_3_0_split_0
I1123 14:54:34.033437  3220 net.cpp:411] enet3_4_branch2a -> enet3_4_branch2a
I1123 14:54:34.033790  3220 net.cpp:150] Setting up enet3_4_branch2a
I1123 14:54:34.033804  3220 net.cpp:157] Top shape: 8 32 41 81 (850176)
I1123 14:54:34.033812  3220 net.cpp:165] Memory required for data: 3113348800
I1123 14:54:34.033820  3220 layer_factory.hpp:77] Creating layer bn3_4_branch2a
I1123 14:54:34.033839  3220 net.cpp:106] Creating Layer bn3_4_branch2a
I1123 14:54:34.033848  3220 net.cpp:454] bn3_4_branch2a <- enet3_4_branch2a
I1123 14:54:34.033857  3220 net.cpp:397] bn3_4_branch2a -> enet3_4_branch2a (in-place)
I1123 14:54:34.034167  3220 net.cpp:150] Setting up bn3_4_branch2a
I1123 14:54:34.034181  3220 net.cpp:157] Top shape: 8 32 41 81 (850176)
I1123 14:54:34.034188  3220 net.cpp:165] Memory required for data: 3116749504
I1123 14:54:34.034198  3220 layer_factory.hpp:77] Creating layer relu3_4_branch2a
I1123 14:54:34.034207  3220 net.cpp:106] Creating Layer relu3_4_branch2a
I1123 14:54:34.034214  3220 net.cpp:454] relu3_4_branch2a <- enet3_4_branch2a
I1123 14:54:34.034224  3220 net.cpp:397] relu3_4_branch2a -> enet3_4_branch2a (in-place)
I1123 14:54:34.035838  3220 net.cpp:150] Setting up relu3_4_branch2a
I1123 14:54:34.035856  3220 net.cpp:157] Top shape: 8 32 41 81 (850176)
I1123 14:54:34.035861  3220 net.cpp:165] Memory required for data: 3120150208
I1123 14:54:34.035871  3220 layer_factory.hpp:77] Creating layer enet3_4_branch2b
I1123 14:54:34.035888  3220 net.cpp:106] Creating Layer enet3_4_branch2b
I1123 14:54:34.035904  3220 net.cpp:454] enet3_4_branch2b <- enet3_4_branch2a
I1123 14:54:34.035925  3220 net.cpp:411] enet3_4_branch2b -> enet3_4_branch2b
I1123 14:54:34.036494  3220 net.cpp:150] Setting up enet3_4_branch2b
I1123 14:54:34.036509  3220 net.cpp:157] Top shape: 8 32 41 81 (850176)
I1123 14:54:34.036515  3220 net.cpp:165] Memory required for data: 3123550912
I1123 14:54:34.036525  3220 layer_factory.hpp:77] Creating layer bn3_4_branch2b
I1123 14:54:34.036541  3220 net.cpp:106] Creating Layer bn3_4_branch2b
I1123 14:54:34.036550  3220 net.cpp:454] bn3_4_branch2b <- enet3_4_branch2b
I1123 14:54:34.036562  3220 net.cpp:397] bn3_4_branch2b -> enet3_4_branch2b (in-place)
I1123 14:54:34.036865  3220 net.cpp:150] Setting up bn3_4_branch2b
I1123 14:54:34.036880  3220 net.cpp:157] Top shape: 8 32 41 81 (850176)
I1123 14:54:34.036885  3220 net.cpp:165] Memory required for data: 3126951616
I1123 14:54:34.036896  3220 layer_factory.hpp:77] Creating layer relu3_4_branch2b
I1123 14:54:34.036906  3220 net.cpp:106] Creating Layer relu3_4_branch2b
I1123 14:54:34.036913  3220 net.cpp:454] relu3_4_branch2b <- enet3_4_branch2b
I1123 14:54:34.036922  3220 net.cpp:397] relu3_4_branch2b -> enet3_4_branch2b (in-place)
I1123 14:54:34.037134  3220 net.cpp:150] Setting up relu3_4_branch2b
I1123 14:54:34.037148  3220 net.cpp:157] Top shape: 8 32 41 81 (850176)
I1123 14:54:34.037154  3220 net.cpp:165] Memory required for data: 3130352320
I1123 14:54:34.037163  3220 layer_factory.hpp:77] Creating layer enet3_4_branch2c
I1123 14:54:34.037180  3220 net.cpp:106] Creating Layer enet3_4_branch2c
I1123 14:54:34.037189  3220 net.cpp:454] enet3_4_branch2c <- enet3_4_branch2b
I1123 14:54:34.037207  3220 net.cpp:411] enet3_4_branch2c -> enet3_4_branch2c
I1123 14:54:34.037564  3220 net.cpp:150] Setting up enet3_4_branch2c
I1123 14:54:34.037577  3220 net.cpp:157] Top shape: 8 128 41 81 (3400704)
I1123 14:54:34.037583  3220 net.cpp:165] Memory required for data: 3143955136
I1123 14:54:34.037592  3220 layer_factory.hpp:77] Creating layer bn3_4_branch2c
I1123 14:54:34.037609  3220 net.cpp:106] Creating Layer bn3_4_branch2c
I1123 14:54:34.037617  3220 net.cpp:454] bn3_4_branch2c <- enet3_4_branch2c
I1123 14:54:34.037626  3220 net.cpp:397] bn3_4_branch2c -> enet3_4_branch2c (in-place)
I1123 14:54:34.037912  3220 net.cpp:150] Setting up bn3_4_branch2c
I1123 14:54:34.037925  3220 net.cpp:157] Top shape: 8 128 41 81 (3400704)
I1123 14:54:34.037932  3220 net.cpp:165] Memory required for data: 3157557952
I1123 14:54:34.037942  3220 layer_factory.hpp:77] Creating layer dropout3_4_branch2c
I1123 14:54:34.037952  3220 net.cpp:106] Creating Layer dropout3_4_branch2c
I1123 14:54:34.037959  3220 net.cpp:454] dropout3_4_branch2c <- enet3_4_branch2c
I1123 14:54:34.037968  3220 net.cpp:397] dropout3_4_branch2c -> enet3_4_branch2c (in-place)
I1123 14:54:34.038005  3220 net.cpp:150] Setting up dropout3_4_branch2c
I1123 14:54:34.038017  3220 net.cpp:157] Top shape: 8 128 41 81 (3400704)
I1123 14:54:34.038023  3220 net.cpp:165] Memory required for data: 3171160768
I1123 14:54:34.038030  3220 layer_factory.hpp:77] Creating layer enet3_4
I1123 14:54:34.038043  3220 net.cpp:106] Creating Layer enet3_4
I1123 14:54:34.038050  3220 net.cpp:454] enet3_4 <- enet3_3_relu3_3_0_split_1
I1123 14:54:34.038059  3220 net.cpp:454] enet3_4 <- enet3_4_branch2c
I1123 14:54:34.038067  3220 net.cpp:411] enet3_4 -> enet3_4
I1123 14:54:34.038108  3220 net.cpp:150] Setting up enet3_4
I1123 14:54:34.038121  3220 net.cpp:157] Top shape: 8 128 41 81 (3400704)
I1123 14:54:34.038127  3220 net.cpp:165] Memory required for data: 3184763584
I1123 14:54:34.038133  3220 layer_factory.hpp:77] Creating layer relu3_4
I1123 14:54:34.038143  3220 net.cpp:106] Creating Layer relu3_4
I1123 14:54:34.038149  3220 net.cpp:454] relu3_4 <- enet3_4
I1123 14:54:34.038161  3220 net.cpp:397] relu3_4 -> enet3_4 (in-place)
I1123 14:54:34.041339  3220 net.cpp:150] Setting up relu3_4
I1123 14:54:34.041357  3220 net.cpp:157] Top shape: 8 128 41 81 (3400704)
I1123 14:54:34.041363  3220 net.cpp:165] Memory required for data: 3198366400
I1123 14:54:34.041388  3220 layer_factory.hpp:77] Creating layer enet3_4_relu3_4_0_split
I1123 14:54:34.041402  3220 net.cpp:106] Creating Layer enet3_4_relu3_4_0_split
I1123 14:54:34.041410  3220 net.cpp:454] enet3_4_relu3_4_0_split <- enet3_4
I1123 14:54:34.041420  3220 net.cpp:411] enet3_4_relu3_4_0_split -> enet3_4_relu3_4_0_split_0
I1123 14:54:34.041436  3220 net.cpp:411] enet3_4_relu3_4_0_split -> enet3_4_relu3_4_0_split_1
I1123 14:54:34.041493  3220 net.cpp:150] Setting up enet3_4_relu3_4_0_split
I1123 14:54:34.041507  3220 net.cpp:157] Top shape: 8 128 41 81 (3400704)
I1123 14:54:34.041514  3220 net.cpp:157] Top shape: 8 128 41 81 (3400704)
I1123 14:54:34.041520  3220 net.cpp:165] Memory required for data: 3225572032
I1123 14:54:34.041527  3220 layer_factory.hpp:77] Creating layer enet3_5_branch2a
I1123 14:54:34.041540  3220 net.cpp:106] Creating Layer enet3_5_branch2a
I1123 14:54:34.041548  3220 net.cpp:454] enet3_5_branch2a <- enet3_4_relu3_4_0_split_0
I1123 14:54:34.041561  3220 net.cpp:411] enet3_5_branch2a -> enet3_5_branch2a
I1123 14:54:34.041929  3220 net.cpp:150] Setting up enet3_5_branch2a
I1123 14:54:34.041944  3220 net.cpp:157] Top shape: 8 32 41 81 (850176)
I1123 14:54:34.041950  3220 net.cpp:165] Memory required for data: 3228972736
I1123 14:54:34.041960  3220 layer_factory.hpp:77] Creating layer bn3_5_branch2a
I1123 14:54:34.041975  3220 net.cpp:106] Creating Layer bn3_5_branch2a
I1123 14:54:34.041982  3220 net.cpp:454] bn3_5_branch2a <- enet3_5_branch2a
I1123 14:54:34.041992  3220 net.cpp:397] bn3_5_branch2a -> enet3_5_branch2a (in-place)
I1123 14:54:34.042291  3220 net.cpp:150] Setting up bn3_5_branch2a
I1123 14:54:34.042304  3220 net.cpp:157] Top shape: 8 32 41 81 (850176)
I1123 14:54:34.042311  3220 net.cpp:165] Memory required for data: 3232373440
I1123 14:54:34.042321  3220 layer_factory.hpp:77] Creating layer relu3_5_branch2a
I1123 14:54:34.042331  3220 net.cpp:106] Creating Layer relu3_5_branch2a
I1123 14:54:34.042338  3220 net.cpp:454] relu3_5_branch2a <- enet3_5_branch2a
I1123 14:54:34.042346  3220 net.cpp:397] relu3_5_branch2a -> enet3_5_branch2a (in-place)
I1123 14:54:34.044919  3220 net.cpp:150] Setting up relu3_5_branch2a
I1123 14:54:34.044936  3220 net.cpp:157] Top shape: 8 32 41 81 (850176)
I1123 14:54:34.044944  3220 net.cpp:165] Memory required for data: 3235774144
I1123 14:54:34.044952  3220 layer_factory.hpp:77] Creating layer enet3_5_branch2b
I1123 14:54:34.044975  3220 net.cpp:106] Creating Layer enet3_5_branch2b
I1123 14:54:34.044982  3220 net.cpp:454] enet3_5_branch2b <- enet3_5_branch2a
I1123 14:54:34.044993  3220 net.cpp:411] enet3_5_branch2b -> enet3_5_branch2b
I1123 14:54:34.045548  3220 net.cpp:150] Setting up enet3_5_branch2b
I1123 14:54:34.045568  3220 net.cpp:157] Top shape: 8 32 41 81 (850176)
I1123 14:54:34.045575  3220 net.cpp:165] Memory required for data: 3239174848
I1123 14:54:34.045585  3220 layer_factory.hpp:77] Creating layer bn3_5_branch2b
I1123 14:54:34.045603  3220 net.cpp:106] Creating Layer bn3_5_branch2b
I1123 14:54:34.045609  3220 net.cpp:454] bn3_5_branch2b <- enet3_5_branch2b
I1123 14:54:34.045619  3220 net.cpp:397] bn3_5_branch2b -> enet3_5_branch2b (in-place)
I1123 14:54:34.045881  3220 net.cpp:150] Setting up bn3_5_branch2b
I1123 14:54:34.045895  3220 net.cpp:157] Top shape: 8 32 41 81 (850176)
I1123 14:54:34.045902  3220 net.cpp:165] Memory required for data: 3242575552
I1123 14:54:34.045912  3220 layer_factory.hpp:77] Creating layer relu3_5_branch2b
I1123 14:54:34.045922  3220 net.cpp:106] Creating Layer relu3_5_branch2b
I1123 14:54:34.045929  3220 net.cpp:454] relu3_5_branch2b <- enet3_5_branch2b
I1123 14:54:34.045943  3220 net.cpp:397] relu3_5_branch2b -> enet3_5_branch2b (in-place)
I1123 14:54:34.046139  3220 net.cpp:150] Setting up relu3_5_branch2b
I1123 14:54:34.046152  3220 net.cpp:157] Top shape: 8 32 41 81 (850176)
I1123 14:54:34.046159  3220 net.cpp:165] Memory required for data: 3245976256
I1123 14:54:34.046229  3220 layer_factory.hpp:77] Creating layer enet3_5_branch2c
I1123 14:54:34.046247  3220 net.cpp:106] Creating Layer enet3_5_branch2c
I1123 14:54:34.046277  3220 net.cpp:454] enet3_5_branch2c <- enet3_5_branch2b
I1123 14:54:34.046293  3220 net.cpp:411] enet3_5_branch2c -> enet3_5_branch2c
I1123 14:54:34.046628  3220 net.cpp:150] Setting up enet3_5_branch2c
I1123 14:54:34.046643  3220 net.cpp:157] Top shape: 8 128 41 81 (3400704)
I1123 14:54:34.046648  3220 net.cpp:165] Memory required for data: 3259579072
I1123 14:54:34.046658  3220 layer_factory.hpp:77] Creating layer bn3_5_branch2c
I1123 14:54:34.046672  3220 net.cpp:106] Creating Layer bn3_5_branch2c
I1123 14:54:34.046680  3220 net.cpp:454] bn3_5_branch2c <- enet3_5_branch2c
I1123 14:54:34.046689  3220 net.cpp:397] bn3_5_branch2c -> enet3_5_branch2c (in-place)
I1123 14:54:34.046927  3220 net.cpp:150] Setting up bn3_5_branch2c
I1123 14:54:34.046941  3220 net.cpp:157] Top shape: 8 128 41 81 (3400704)
I1123 14:54:34.046947  3220 net.cpp:165] Memory required for data: 3273181888
I1123 14:54:34.046957  3220 layer_factory.hpp:77] Creating layer dropout3_5_branch2c
I1123 14:54:34.046972  3220 net.cpp:106] Creating Layer dropout3_5_branch2c
I1123 14:54:34.046980  3220 net.cpp:454] dropout3_5_branch2c <- enet3_5_branch2c
I1123 14:54:34.046989  3220 net.cpp:397] dropout3_5_branch2c -> enet3_5_branch2c (in-place)
I1123 14:54:34.047020  3220 net.cpp:150] Setting up dropout3_5_branch2c
I1123 14:54:34.047032  3220 net.cpp:157] Top shape: 8 128 41 81 (3400704)
I1123 14:54:34.047039  3220 net.cpp:165] Memory required for data: 3286784704
I1123 14:54:34.047045  3220 layer_factory.hpp:77] Creating layer enet3_5
I1123 14:54:34.047055  3220 net.cpp:106] Creating Layer enet3_5
I1123 14:54:34.047062  3220 net.cpp:454] enet3_5 <- enet3_4_relu3_4_0_split_1
I1123 14:54:34.047070  3220 net.cpp:454] enet3_5 <- enet3_5_branch2c
I1123 14:54:34.047083  3220 net.cpp:411] enet3_5 -> enet3_5
I1123 14:54:34.047119  3220 net.cpp:150] Setting up enet3_5
I1123 14:54:34.047132  3220 net.cpp:157] Top shape: 8 128 41 81 (3400704)
I1123 14:54:34.047137  3220 net.cpp:165] Memory required for data: 3300387520
I1123 14:54:34.047144  3220 layer_factory.hpp:77] Creating layer relu3_5
I1123 14:54:34.047152  3220 net.cpp:106] Creating Layer relu3_5
I1123 14:54:34.047159  3220 net.cpp:454] relu3_5 <- enet3_5
I1123 14:54:34.047173  3220 net.cpp:397] relu3_5 -> enet3_5 (in-place)
I1123 14:54:34.050211  3220 net.cpp:150] Setting up relu3_5
I1123 14:54:34.050230  3220 net.cpp:157] Top shape: 8 128 41 81 (3400704)
I1123 14:54:34.050238  3220 net.cpp:165] Memory required for data: 3313990336
I1123 14:54:34.050247  3220 layer_factory.hpp:77] Creating layer enet3_5_relu3_5_0_split
I1123 14:54:34.050258  3220 net.cpp:106] Creating Layer enet3_5_relu3_5_0_split
I1123 14:54:34.050267  3220 net.cpp:454] enet3_5_relu3_5_0_split <- enet3_5
I1123 14:54:34.050282  3220 net.cpp:411] enet3_5_relu3_5_0_split -> enet3_5_relu3_5_0_split_0
I1123 14:54:34.050294  3220 net.cpp:411] enet3_5_relu3_5_0_split -> enet3_5_relu3_5_0_split_1
I1123 14:54:34.050371  3220 net.cpp:150] Setting up enet3_5_relu3_5_0_split
I1123 14:54:34.050384  3220 net.cpp:157] Top shape: 8 128 41 81 (3400704)
I1123 14:54:34.050392  3220 net.cpp:157] Top shape: 8 128 41 81 (3400704)
I1123 14:54:34.050398  3220 net.cpp:165] Memory required for data: 3341195968
I1123 14:54:34.050405  3220 layer_factory.hpp:77] Creating layer enet3_6_branch2a
I1123 14:54:34.050418  3220 net.cpp:106] Creating Layer enet3_6_branch2a
I1123 14:54:34.050426  3220 net.cpp:454] enet3_6_branch2a <- enet3_5_relu3_5_0_split_0
I1123 14:54:34.050436  3220 net.cpp:411] enet3_6_branch2a -> enet3_6_branch2a
I1123 14:54:34.050755  3220 net.cpp:150] Setting up enet3_6_branch2a
I1123 14:54:34.050770  3220 net.cpp:157] Top shape: 8 32 41 81 (850176)
I1123 14:54:34.050776  3220 net.cpp:165] Memory required for data: 3344596672
I1123 14:54:34.050784  3220 layer_factory.hpp:77] Creating layer bn3_6_branch2a
I1123 14:54:34.050798  3220 net.cpp:106] Creating Layer bn3_6_branch2a
I1123 14:54:34.050806  3220 net.cpp:454] bn3_6_branch2a <- enet3_6_branch2a
I1123 14:54:34.050817  3220 net.cpp:397] bn3_6_branch2a -> enet3_6_branch2a (in-place)
I1123 14:54:34.051089  3220 net.cpp:150] Setting up bn3_6_branch2a
I1123 14:54:34.051102  3220 net.cpp:157] Top shape: 8 32 41 81 (850176)
I1123 14:54:34.051108  3220 net.cpp:165] Memory required for data: 3347997376
I1123 14:54:34.051118  3220 layer_factory.hpp:77] Creating layer relu3_6_branch2a
I1123 14:54:34.051128  3220 net.cpp:106] Creating Layer relu3_6_branch2a
I1123 14:54:34.051136  3220 net.cpp:454] relu3_6_branch2a <- enet3_6_branch2a
I1123 14:54:34.051144  3220 net.cpp:397] relu3_6_branch2a -> enet3_6_branch2a (in-place)
I1123 14:54:34.054467  3220 net.cpp:150] Setting up relu3_6_branch2a
I1123 14:54:34.054484  3220 net.cpp:157] Top shape: 8 32 41 81 (850176)
I1123 14:54:34.054491  3220 net.cpp:165] Memory required for data: 3351398080
I1123 14:54:34.054500  3220 layer_factory.hpp:77] Creating layer enet3_6_branch2b
I1123 14:54:34.054517  3220 net.cpp:106] Creating Layer enet3_6_branch2b
I1123 14:54:34.054525  3220 net.cpp:454] enet3_6_branch2b <- enet3_6_branch2a
I1123 14:54:34.054538  3220 net.cpp:411] enet3_6_branch2b -> enet3_6_branch2b
I1123 14:54:34.055068  3220 net.cpp:150] Setting up enet3_6_branch2b
I1123 14:54:34.055083  3220 net.cpp:157] Top shape: 8 32 41 81 (850176)
I1123 14:54:34.055089  3220 net.cpp:165] Memory required for data: 3354798784
I1123 14:54:34.055100  3220 layer_factory.hpp:77] Creating layer bn3_6_branch2b
I1123 14:54:34.055115  3220 net.cpp:106] Creating Layer bn3_6_branch2b
I1123 14:54:34.055122  3220 net.cpp:454] bn3_6_branch2b <- enet3_6_branch2b
I1123 14:54:34.055135  3220 net.cpp:397] bn3_6_branch2b -> enet3_6_branch2b (in-place)
I1123 14:54:34.055397  3220 net.cpp:150] Setting up bn3_6_branch2b
I1123 14:54:34.055411  3220 net.cpp:157] Top shape: 8 32 41 81 (850176)
I1123 14:54:34.055418  3220 net.cpp:165] Memory required for data: 3358199488
I1123 14:54:34.055428  3220 layer_factory.hpp:77] Creating layer relu3_6_branch2b
I1123 14:54:34.055438  3220 net.cpp:106] Creating Layer relu3_6_branch2b
I1123 14:54:34.055444  3220 net.cpp:454] relu3_6_branch2b <- enet3_6_branch2b
I1123 14:54:34.055454  3220 net.cpp:397] relu3_6_branch2b -> enet3_6_branch2b (in-place)
I1123 14:54:34.055647  3220 net.cpp:150] Setting up relu3_6_branch2b
I1123 14:54:34.055662  3220 net.cpp:157] Top shape: 8 32 41 81 (850176)
I1123 14:54:34.055668  3220 net.cpp:165] Memory required for data: 3361600192
I1123 14:54:34.055677  3220 layer_factory.hpp:77] Creating layer enet3_6_branch2c
I1123 14:54:34.055694  3220 net.cpp:106] Creating Layer enet3_6_branch2c
I1123 14:54:34.055702  3220 net.cpp:454] enet3_6_branch2c <- enet3_6_branch2b
I1123 14:54:34.055716  3220 net.cpp:411] enet3_6_branch2c -> enet3_6_branch2c
I1123 14:54:34.056058  3220 net.cpp:150] Setting up enet3_6_branch2c
I1123 14:54:34.056072  3220 net.cpp:157] Top shape: 8 128 41 81 (3400704)
I1123 14:54:34.056079  3220 net.cpp:165] Memory required for data: 3375203008
I1123 14:54:34.056088  3220 layer_factory.hpp:77] Creating layer bn3_6_branch2c
I1123 14:54:34.056103  3220 net.cpp:106] Creating Layer bn3_6_branch2c
I1123 14:54:34.056110  3220 net.cpp:454] bn3_6_branch2c <- enet3_6_branch2c
I1123 14:54:34.056120  3220 net.cpp:397] bn3_6_branch2c -> enet3_6_branch2c (in-place)
I1123 14:54:34.056360  3220 net.cpp:150] Setting up bn3_6_branch2c
I1123 14:54:34.056375  3220 net.cpp:157] Top shape: 8 128 41 81 (3400704)
I1123 14:54:34.056380  3220 net.cpp:165] Memory required for data: 3388805824
I1123 14:54:34.056391  3220 layer_factory.hpp:77] Creating layer dropout3_6_branch2c
I1123 14:54:34.056409  3220 net.cpp:106] Creating Layer dropout3_6_branch2c
I1123 14:54:34.056416  3220 net.cpp:454] dropout3_6_branch2c <- enet3_6_branch2c
I1123 14:54:34.056427  3220 net.cpp:397] dropout3_6_branch2c -> enet3_6_branch2c (in-place)
I1123 14:54:34.056457  3220 net.cpp:150] Setting up dropout3_6_branch2c
I1123 14:54:34.056469  3220 net.cpp:157] Top shape: 8 128 41 81 (3400704)
I1123 14:54:34.056475  3220 net.cpp:165] Memory required for data: 3402408640
I1123 14:54:34.056483  3220 layer_factory.hpp:77] Creating layer enet3_6
I1123 14:54:34.056504  3220 net.cpp:106] Creating Layer enet3_6
I1123 14:54:34.056519  3220 net.cpp:454] enet3_6 <- enet3_5_relu3_5_0_split_1
I1123 14:54:34.056529  3220 net.cpp:454] enet3_6 <- enet3_6_branch2c
I1123 14:54:34.056537  3220 net.cpp:411] enet3_6 -> enet3_6
I1123 14:54:34.056573  3220 net.cpp:150] Setting up enet3_6
I1123 14:54:34.056586  3220 net.cpp:157] Top shape: 8 128 41 81 (3400704)
I1123 14:54:34.056591  3220 net.cpp:165] Memory required for data: 3416011456
I1123 14:54:34.056598  3220 layer_factory.hpp:77] Creating layer relu3_6
I1123 14:54:34.056660  3220 net.cpp:106] Creating Layer relu3_6
I1123 14:54:34.056668  3220 net.cpp:454] relu3_6 <- enet3_6
I1123 14:54:34.056679  3220 net.cpp:397] relu3_6 -> enet3_6 (in-place)
I1123 14:54:34.059425  3220 net.cpp:150] Setting up relu3_6
I1123 14:54:34.059443  3220 net.cpp:157] Top shape: 8 128 41 81 (3400704)
I1123 14:54:34.059450  3220 net.cpp:165] Memory required for data: 3429614272
I1123 14:54:34.059460  3220 layer_factory.hpp:77] Creating layer enet3_6_relu3_6_0_split
I1123 14:54:34.059471  3220 net.cpp:106] Creating Layer enet3_6_relu3_6_0_split
I1123 14:54:34.059478  3220 net.cpp:454] enet3_6_relu3_6_0_split <- enet3_6
I1123 14:54:34.059489  3220 net.cpp:411] enet3_6_relu3_6_0_split -> enet3_6_relu3_6_0_split_0
I1123 14:54:34.059500  3220 net.cpp:411] enet3_6_relu3_6_0_split -> enet3_6_relu3_6_0_split_1
I1123 14:54:34.059551  3220 net.cpp:150] Setting up enet3_6_relu3_6_0_split
I1123 14:54:34.059563  3220 net.cpp:157] Top shape: 8 128 41 81 (3400704)
I1123 14:54:34.059571  3220 net.cpp:157] Top shape: 8 128 41 81 (3400704)
I1123 14:54:34.059576  3220 net.cpp:165] Memory required for data: 3456819904
I1123 14:54:34.059583  3220 layer_factory.hpp:77] Creating layer enet3_7_branch2a
I1123 14:54:34.059600  3220 net.cpp:106] Creating Layer enet3_7_branch2a
I1123 14:54:34.059608  3220 net.cpp:454] enet3_7_branch2a <- enet3_6_relu3_6_0_split_0
I1123 14:54:34.059618  3220 net.cpp:411] enet3_7_branch2a -> enet3_7_branch2a
I1123 14:54:34.059954  3220 net.cpp:150] Setting up enet3_7_branch2a
I1123 14:54:34.059968  3220 net.cpp:157] Top shape: 8 32 41 81 (850176)
I1123 14:54:34.059974  3220 net.cpp:165] Memory required for data: 3460220608
I1123 14:54:34.059983  3220 layer_factory.hpp:77] Creating layer bn3_7_branch2a
I1123 14:54:34.059995  3220 net.cpp:106] Creating Layer bn3_7_branch2a
I1123 14:54:34.060003  3220 net.cpp:454] bn3_7_branch2a <- enet3_7_branch2a
I1123 14:54:34.060016  3220 net.cpp:397] bn3_7_branch2a -> enet3_7_branch2a (in-place)
I1123 14:54:34.060288  3220 net.cpp:150] Setting up bn3_7_branch2a
I1123 14:54:34.060302  3220 net.cpp:157] Top shape: 8 32 41 81 (850176)
I1123 14:54:34.060308  3220 net.cpp:165] Memory required for data: 3463621312
I1123 14:54:34.060318  3220 layer_factory.hpp:77] Creating layer relu3_7_branch2a
I1123 14:54:34.060333  3220 net.cpp:106] Creating Layer relu3_7_branch2a
I1123 14:54:34.060339  3220 net.cpp:454] relu3_7_branch2a <- enet3_7_branch2a
I1123 14:54:34.060348  3220 net.cpp:397] relu3_7_branch2a -> enet3_7_branch2a (in-place)
I1123 14:54:34.061949  3220 net.cpp:150] Setting up relu3_7_branch2a
I1123 14:54:34.061965  3220 net.cpp:157] Top shape: 8 32 41 81 (850176)
I1123 14:54:34.061971  3220 net.cpp:165] Memory required for data: 3467022016
I1123 14:54:34.061980  3220 layer_factory.hpp:77] Creating layer enet3_7_branch2b1
I1123 14:54:34.061998  3220 net.cpp:106] Creating Layer enet3_7_branch2b1
I1123 14:54:34.062006  3220 net.cpp:454] enet3_7_branch2b1 <- enet3_7_branch2a
I1123 14:54:34.062016  3220 net.cpp:411] enet3_7_branch2b1 -> enet3_7_branch2b1
I1123 14:54:34.062371  3220 net.cpp:150] Setting up enet3_7_branch2b1
I1123 14:54:34.062384  3220 net.cpp:157] Top shape: 8 32 41 81 (850176)
I1123 14:54:34.062391  3220 net.cpp:165] Memory required for data: 3470422720
I1123 14:54:34.062398  3220 layer_factory.hpp:77] Creating layer enet3_7_branch2b
I1123 14:54:34.062415  3220 net.cpp:106] Creating Layer enet3_7_branch2b
I1123 14:54:34.062423  3220 net.cpp:454] enet3_7_branch2b <- enet3_7_branch2b1
I1123 14:54:34.062443  3220 net.cpp:411] enet3_7_branch2b -> enet3_7_branch2b
I1123 14:54:34.062882  3220 net.cpp:150] Setting up enet3_7_branch2b
I1123 14:54:34.062897  3220 net.cpp:157] Top shape: 8 32 41 81 (850176)
I1123 14:54:34.062903  3220 net.cpp:165] Memory required for data: 3473823424
I1123 14:54:34.062913  3220 layer_factory.hpp:77] Creating layer bn3_7_branch2b
I1123 14:54:34.062928  3220 net.cpp:106] Creating Layer bn3_7_branch2b
I1123 14:54:34.062937  3220 net.cpp:454] bn3_7_branch2b <- enet3_7_branch2b
I1123 14:54:34.062949  3220 net.cpp:397] bn3_7_branch2b -> enet3_7_branch2b (in-place)
I1123 14:54:34.063207  3220 net.cpp:150] Setting up bn3_7_branch2b
I1123 14:54:34.063220  3220 net.cpp:157] Top shape: 8 32 41 81 (850176)
I1123 14:54:34.063226  3220 net.cpp:165] Memory required for data: 3477224128
I1123 14:54:34.063237  3220 layer_factory.hpp:77] Creating layer relu3_7_branch2b
I1123 14:54:34.063246  3220 net.cpp:106] Creating Layer relu3_7_branch2b
I1123 14:54:34.063253  3220 net.cpp:454] relu3_7_branch2b <- enet3_7_branch2b
I1123 14:54:34.063262  3220 net.cpp:397] relu3_7_branch2b -> enet3_7_branch2b (in-place)
I1123 14:54:34.063455  3220 net.cpp:150] Setting up relu3_7_branch2b
I1123 14:54:34.063472  3220 net.cpp:157] Top shape: 8 32 41 81 (850176)
I1123 14:54:34.063478  3220 net.cpp:165] Memory required for data: 3480624832
I1123 14:54:34.063488  3220 layer_factory.hpp:77] Creating layer enet3_7_branch2c
I1123 14:54:34.063501  3220 net.cpp:106] Creating Layer enet3_7_branch2c
I1123 14:54:34.063508  3220 net.cpp:454] enet3_7_branch2c <- enet3_7_branch2b
I1123 14:54:34.063522  3220 net.cpp:411] enet3_7_branch2c -> enet3_7_branch2c
I1123 14:54:34.063868  3220 net.cpp:150] Setting up enet3_7_branch2c
I1123 14:54:34.063881  3220 net.cpp:157] Top shape: 8 128 41 81 (3400704)
I1123 14:54:34.063889  3220 net.cpp:165] Memory required for data: 3494227648
I1123 14:54:34.063897  3220 layer_factory.hpp:77] Creating layer bn3_7_branch2c
I1123 14:54:34.063908  3220 net.cpp:106] Creating Layer bn3_7_branch2c
I1123 14:54:34.063915  3220 net.cpp:454] bn3_7_branch2c <- enet3_7_branch2c
I1123 14:54:34.063925  3220 net.cpp:397] bn3_7_branch2c -> enet3_7_branch2c (in-place)
I1123 14:54:34.064163  3220 net.cpp:150] Setting up bn3_7_branch2c
I1123 14:54:34.064177  3220 net.cpp:157] Top shape: 8 128 41 81 (3400704)
I1123 14:54:34.064183  3220 net.cpp:165] Memory required for data: 3507830464
I1123 14:54:34.064193  3220 layer_factory.hpp:77] Creating layer dropout3_7_branch2c
I1123 14:54:34.064203  3220 net.cpp:106] Creating Layer dropout3_7_branch2c
I1123 14:54:34.064210  3220 net.cpp:454] dropout3_7_branch2c <- enet3_7_branch2c
I1123 14:54:34.064219  3220 net.cpp:397] dropout3_7_branch2c -> enet3_7_branch2c (in-place)
I1123 14:54:34.064251  3220 net.cpp:150] Setting up dropout3_7_branch2c
I1123 14:54:34.064262  3220 net.cpp:157] Top shape: 8 128 41 81 (3400704)
I1123 14:54:34.064268  3220 net.cpp:165] Memory required for data: 3521433280
I1123 14:54:34.064275  3220 layer_factory.hpp:77] Creating layer enet3_7
I1123 14:54:34.064288  3220 net.cpp:106] Creating Layer enet3_7
I1123 14:54:34.064296  3220 net.cpp:454] enet3_7 <- enet3_6_relu3_6_0_split_1
I1123 14:54:34.064304  3220 net.cpp:454] enet3_7 <- enet3_7_branch2c
I1123 14:54:34.064316  3220 net.cpp:411] enet3_7 -> enet3_7
I1123 14:54:34.064348  3220 net.cpp:150] Setting up enet3_7
I1123 14:54:34.064360  3220 net.cpp:157] Top shape: 8 128 41 81 (3400704)
I1123 14:54:34.064366  3220 net.cpp:165] Memory required for data: 3535036096
I1123 14:54:34.064373  3220 layer_factory.hpp:77] Creating layer relu3_7
I1123 14:54:34.064549  3220 net.cpp:106] Creating Layer relu3_7
I1123 14:54:34.064558  3220 net.cpp:454] relu3_7 <- enet3_7
I1123 14:54:34.064568  3220 net.cpp:397] relu3_7 -> enet3_7 (in-place)
I1123 14:54:34.067410  3220 net.cpp:150] Setting up relu3_7
I1123 14:54:34.067430  3220 net.cpp:157] Top shape: 8 128 41 81 (3400704)
I1123 14:54:34.067435  3220 net.cpp:165] Memory required for data: 3548638912
I1123 14:54:34.067445  3220 layer_factory.hpp:77] Creating layer enet3_7_relu3_7_0_split
I1123 14:54:34.067466  3220 net.cpp:106] Creating Layer enet3_7_relu3_7_0_split
I1123 14:54:34.067481  3220 net.cpp:454] enet3_7_relu3_7_0_split <- enet3_7
I1123 14:54:34.067495  3220 net.cpp:411] enet3_7_relu3_7_0_split -> enet3_7_relu3_7_0_split_0
I1123 14:54:34.067508  3220 net.cpp:411] enet3_7_relu3_7_0_split -> enet3_7_relu3_7_0_split_1
I1123 14:54:34.067559  3220 net.cpp:150] Setting up enet3_7_relu3_7_0_split
I1123 14:54:34.067570  3220 net.cpp:157] Top shape: 8 128 41 81 (3400704)
I1123 14:54:34.067581  3220 net.cpp:157] Top shape: 8 128 41 81 (3400704)
I1123 14:54:34.067587  3220 net.cpp:165] Memory required for data: 3575844544
I1123 14:54:34.067595  3220 layer_factory.hpp:77] Creating layer enet3_8_branch2a
I1123 14:54:34.067607  3220 net.cpp:106] Creating Layer enet3_8_branch2a
I1123 14:54:34.067615  3220 net.cpp:454] enet3_8_branch2a <- enet3_7_relu3_7_0_split_0
I1123 14:54:34.067627  3220 net.cpp:411] enet3_8_branch2a -> enet3_8_branch2a
I1123 14:54:34.067956  3220 net.cpp:150] Setting up enet3_8_branch2a
I1123 14:54:34.067970  3220 net.cpp:157] Top shape: 8 32 41 81 (850176)
I1123 14:54:34.067976  3220 net.cpp:165] Memory required for data: 3579245248
I1123 14:54:34.067986  3220 layer_factory.hpp:77] Creating layer bn3_8_branch2a
I1123 14:54:34.067997  3220 net.cpp:106] Creating Layer bn3_8_branch2a
I1123 14:54:34.068004  3220 net.cpp:454] bn3_8_branch2a <- enet3_8_branch2a
I1123 14:54:34.068014  3220 net.cpp:397] bn3_8_branch2a -> enet3_8_branch2a (in-place)
I1123 14:54:34.069454  3220 net.cpp:150] Setting up bn3_8_branch2a
I1123 14:54:34.069473  3220 net.cpp:157] Top shape: 8 32 41 81 (850176)
I1123 14:54:34.069478  3220 net.cpp:165] Memory required for data: 3582645952
I1123 14:54:34.069489  3220 layer_factory.hpp:77] Creating layer relu3_8_branch2a
I1123 14:54:34.069499  3220 net.cpp:106] Creating Layer relu3_8_branch2a
I1123 14:54:34.069506  3220 net.cpp:454] relu3_8_branch2a <- enet3_8_branch2a
I1123 14:54:34.069519  3220 net.cpp:397] relu3_8_branch2a -> enet3_8_branch2a (in-place)
I1123 14:54:34.070914  3220 net.cpp:150] Setting up relu3_8_branch2a
I1123 14:54:34.070930  3220 net.cpp:157] Top shape: 8 32 41 81 (850176)
I1123 14:54:34.070937  3220 net.cpp:165] Memory required for data: 3586046656
I1123 14:54:34.070946  3220 layer_factory.hpp:77] Creating layer enet3_8_branch2b
I1123 14:54:34.070965  3220 net.cpp:106] Creating Layer enet3_8_branch2b
I1123 14:54:34.070972  3220 net.cpp:454] enet3_8_branch2b <- enet3_8_branch2a
I1123 14:54:34.070983  3220 net.cpp:411] enet3_8_branch2b -> enet3_8_branch2b
I1123 14:54:34.071513  3220 net.cpp:150] Setting up enet3_8_branch2b
I1123 14:54:34.071532  3220 net.cpp:157] Top shape: 8 32 41 81 (850176)
I1123 14:54:34.071539  3220 net.cpp:165] Memory required for data: 3589447360
I1123 14:54:34.071549  3220 layer_factory.hpp:77] Creating layer bn3_8_branch2b
I1123 14:54:34.071562  3220 net.cpp:106] Creating Layer bn3_8_branch2b
I1123 14:54:34.071568  3220 net.cpp:454] bn3_8_branch2b <- enet3_8_branch2b
I1123 14:54:34.071583  3220 net.cpp:397] bn3_8_branch2b -> enet3_8_branch2b (in-place)
I1123 14:54:34.071863  3220 net.cpp:150] Setting up bn3_8_branch2b
I1123 14:54:34.071877  3220 net.cpp:157] Top shape: 8 32 41 81 (850176)
I1123 14:54:34.071883  3220 net.cpp:165] Memory required for data: 3592848064
I1123 14:54:34.071894  3220 layer_factory.hpp:77] Creating layer relu3_8_branch2b
I1123 14:54:34.071908  3220 net.cpp:106] Creating Layer relu3_8_branch2b
I1123 14:54:34.071915  3220 net.cpp:454] relu3_8_branch2b <- enet3_8_branch2b
I1123 14:54:34.071924  3220 net.cpp:397] relu3_8_branch2b -> enet3_8_branch2b (in-place)
I1123 14:54:34.072124  3220 net.cpp:150] Setting up relu3_8_branch2b
I1123 14:54:34.072139  3220 net.cpp:157] Top shape: 8 32 41 81 (850176)
I1123 14:54:34.072144  3220 net.cpp:165] Memory required for data: 3596248768
I1123 14:54:34.072152  3220 layer_factory.hpp:77] Creating layer enet3_8_branch2c
I1123 14:54:34.072170  3220 net.cpp:106] Creating Layer enet3_8_branch2c
I1123 14:54:34.072182  3220 net.cpp:454] enet3_8_branch2c <- enet3_8_branch2b
I1123 14:54:34.072201  3220 net.cpp:411] enet3_8_branch2c -> enet3_8_branch2c
I1123 14:54:34.072540  3220 net.cpp:150] Setting up enet3_8_branch2c
I1123 14:54:34.072554  3220 net.cpp:157] Top shape: 8 128 41 81 (3400704)
I1123 14:54:34.072561  3220 net.cpp:165] Memory required for data: 3609851584
I1123 14:54:34.072571  3220 layer_factory.hpp:77] Creating layer bn3_8_branch2c
I1123 14:54:34.072582  3220 net.cpp:106] Creating Layer bn3_8_branch2c
I1123 14:54:34.072588  3220 net.cpp:454] bn3_8_branch2c <- enet3_8_branch2c
I1123 14:54:34.072602  3220 net.cpp:397] bn3_8_branch2c -> enet3_8_branch2c (in-place)
I1123 14:54:34.072854  3220 net.cpp:150] Setting up bn3_8_branch2c
I1123 14:54:34.072867  3220 net.cpp:157] Top shape: 8 128 41 81 (3400704)
I1123 14:54:34.072873  3220 net.cpp:165] Memory required for data: 3623454400
I1123 14:54:34.072885  3220 layer_factory.hpp:77] Creating layer dropout3_8_branch2c
I1123 14:54:34.072895  3220 net.cpp:106] Creating Layer dropout3_8_branch2c
I1123 14:54:34.072901  3220 net.cpp:454] dropout3_8_branch2c <- enet3_8_branch2c
I1123 14:54:34.072914  3220 net.cpp:397] dropout3_8_branch2c -> enet3_8_branch2c (in-place)
I1123 14:54:34.072947  3220 net.cpp:150] Setting up dropout3_8_branch2c
I1123 14:54:34.072959  3220 net.cpp:157] Top shape: 8 128 41 81 (3400704)
I1123 14:54:34.072965  3220 net.cpp:165] Memory required for data: 3637057216
I1123 14:54:34.072971  3220 layer_factory.hpp:77] Creating layer enet3_8
I1123 14:54:34.072981  3220 net.cpp:106] Creating Layer enet3_8
I1123 14:54:34.072988  3220 net.cpp:454] enet3_8 <- enet3_7_relu3_7_0_split_1
I1123 14:54:34.072996  3220 net.cpp:454] enet3_8 <- enet3_8_branch2c
I1123 14:54:34.073005  3220 net.cpp:411] enet3_8 -> enet3_8
I1123 14:54:34.073042  3220 net.cpp:150] Setting up enet3_8
I1123 14:54:34.073055  3220 net.cpp:157] Top shape: 8 128 41 81 (3400704)
I1123 14:54:34.073060  3220 net.cpp:165] Memory required for data: 3650660032
I1123 14:54:34.073067  3220 layer_factory.hpp:77] Creating layer relu3_8
I1123 14:54:34.073081  3220 net.cpp:106] Creating Layer relu3_8
I1123 14:54:34.073087  3220 net.cpp:454] relu3_8 <- enet3_8
I1123 14:54:34.073096  3220 net.cpp:397] relu3_8 -> enet3_8 (in-place)
I1123 14:54:34.075973  3220 net.cpp:150] Setting up relu3_8
I1123 14:54:34.075990  3220 net.cpp:157] Top shape: 8 128 41 81 (3400704)
I1123 14:54:34.075996  3220 net.cpp:165] Memory required for data: 3664262848
I1123 14:54:34.076006  3220 layer_factory.hpp:77] Creating layer enet6_0
I1123 14:54:34.076025  3220 net.cpp:106] Creating Layer enet6_0
I1123 14:54:34.076032  3220 net.cpp:454] enet6_0 <- enet3_8
I1123 14:54:34.076043  3220 net.cpp:411] enet6_0 -> enet6_0
I1123 14:54:34.076658  3220 net.cpp:150] Setting up enet6_0
I1123 14:54:34.076673  3220 net.cpp:157] Top shape: 8 6 41 81 (159408)
I1123 14:54:34.076683  3220 net.cpp:165] Memory required for data: 3664900480
I1123 14:54:34.076692  3220 layer_factory.hpp:77] Creating layer enet6_0_enet6_0_0_split
I1123 14:54:34.076704  3220 net.cpp:106] Creating Layer enet6_0_enet6_0_0_split
I1123 14:54:34.076712  3220 net.cpp:454] enet6_0_enet6_0_0_split <- enet6_0
I1123 14:54:34.076730  3220 net.cpp:411] enet6_0_enet6_0_0_split -> enet6_0_enet6_0_0_split_0
I1123 14:54:34.076741  3220 net.cpp:411] enet6_0_enet6_0_0_split -> enet6_0_enet6_0_0_split_1
I1123 14:54:34.076803  3220 net.cpp:150] Setting up enet6_0_enet6_0_0_split
I1123 14:54:34.076817  3220 net.cpp:157] Top shape: 8 6 41 81 (159408)
I1123 14:54:34.076828  3220 net.cpp:157] Top shape: 8 6 41 81 (159408)
I1123 14:54:34.076834  3220 net.cpp:165] Memory required for data: 3666175744
I1123 14:54:34.076841  3220 layer_factory.hpp:77] Creating layer loss
I1123 14:54:34.076864  3220 net.cpp:106] Creating Layer loss
I1123 14:54:34.076872  3220 net.cpp:454] loss <- enet6_0_enet6_0_0_split_0
I1123 14:54:34.076881  3220 net.cpp:454] loss <- label_data_1_split_0
I1123 14:54:34.076895  3220 net.cpp:411] loss -> loss
I1123 14:54:34.076927  3220 layer_factory.hpp:77] Creating layer loss
I1123 14:54:34.078341  3220 net.cpp:150] Setting up loss
I1123 14:54:34.078366  3220 net.cpp:157] Top shape: (1)
I1123 14:54:34.078379  3220 net.cpp:160]     with loss weight 1
I1123 14:54:34.078441  3220 net.cpp:165] Memory required for data: 3666175748
I1123 14:54:34.078449  3220 layer_factory.hpp:77] Creating layer accuracy
I1123 14:54:34.078467  3220 net.cpp:106] Creating Layer accuracy
I1123 14:54:34.078475  3220 net.cpp:454] accuracy <- enet6_0_enet6_0_0_split_1
I1123 14:54:34.078485  3220 net.cpp:454] accuracy <- label_data_1_split_1
I1123 14:54:34.078495  3220 net.cpp:411] accuracy -> accuracy
I1123 14:54:34.078510  3220 net.cpp:411] accuracy -> per_class_accuracy
I1123 14:54:34.078569  3220 net.cpp:150] Setting up accuracy
I1123 14:54:34.078582  3220 net.cpp:157] Top shape: (1)
I1123 14:54:34.078589  3220 net.cpp:157] Top shape: 6 (6)
I1123 14:54:34.078595  3220 net.cpp:165] Memory required for data: 3666175776
I1123 14:54:34.078601  3220 net.cpp:228] accuracy does not need backward computation.
I1123 14:54:34.078609  3220 net.cpp:226] loss needs backward computation.
I1123 14:54:34.078629  3220 net.cpp:226] enet6_0_enet6_0_0_split needs backward computation.
I1123 14:54:34.078634  3220 net.cpp:226] enet6_0 needs backward computation.
…
