…
I0417 16:59:06.971631  3252 solver.cpp:91] Creating training net from net file: /home/map/Liuchao/caffe_segmentation/caffe_enet/enet/Models/line_enet/enet_train_gaojing_line.prototxt
I0417 16:59:06.983959  3252 net.cpp:49] Initializing net from parameters: 
name: "enet"
state {
  phase: TRAIN
}
layer {
  name: "data"
  type: "ImageSegData"
  top: "data"
  top: "label"
  transform_param {
    mirror: true
    mean_value: 0
    mean_value: 0
    mean_value: 0
    scale_factors: 1
  }
  image_data_param {
    source: "/home/map/Liuchao/data/road_line_train/train.list"
    batch_size: 6
    shuffle: true
    label_type: PIXEL
  }
}
layer {
  name: "enet_initial_branch2a"
  type: "Convolution"
  bottom: "data"
  top: "enet_initial_branch2a"
  param {
    lr_mult: 1
    decay_mult: 1
  }
  param {
    lr_mult: 2
    decay_mult: 0
  }
  convolution_param {
    num_output: 13
    bias_term: true
    weight_filler {
      type: "msra"
    }
    bias_filler {
      type: "constant"
    }
    pad_h: 1
    pad_w: 1
    kernel_h: 3
    kernel_w: 3
    stride_h: 2
    stride_w: 2
    dilation: 1
  }
}
layer {
  name: "pool_initial_branch1a"
  type: "Pooling"
  bottom: "data"
  top: "pool_initial_branch1a"
  pooling_param {
    pool: MAX
    kernel_size: 2
    stride: 2
  }
}
layer {
  name: "enet_initial"
  type: "Concat"
  bottom: "enet_initial_branch2a"
  bottom: "pool_initial_branch1a"
  top: "enet_initial"
  concat_param {
    axis: 1
  }
}
layer {
  name: "bn_initial"
  type: "BN"
  bottom: "enet_initial"
  top: "enet_initial"
  param {
    lr_mult: 1
    decay_mult: 1
  }
  param {
    lr_mult: 2
    decay_mult: 0
  }
  bn_param {
    scale_filler {
      type: "constant"
      value: 1
    }
    shift_filler {
      type: "constant"
      value: 0.001
    }
  }
}
layer {
  name: "relu_initial"
  type: "PReLU"
  bottom: "enet_initial"
  top: "enet_initial"
}
layer {
  name: "enet1_0_branch2a"
  type: "Convolution"
  bottom: "enet_initial"
  top: "enet1_0_branch2a"
  param {
    lr_mult: 1
    decay_mult: 1
  }
  convolution_param {
    num_output: 16
    bias_term: false
    weight_filler {
      type: "msra"
    }
    bias_filler {
      type: "constant"
    }
    pad_h: 0
    pad_w: 0
    kernel_h: 2
    kernel_w: 2
    stride_h: 2
    stride_w: 2
    dilation: 1
  }
}
layer {
  name: "bn1_0_branch2a"
  type: "BN"
  bottom: "enet1_0_branch2a"
  top: "enet1_0_branch2a"
  param {
    lr_mult: 1
    decay_mult: 1
  }
  param {
    lr_mult: 2
    decay_mult: 0
  }
  bn_param {
    scale_filler {
      type: "constant"
      value: 1
    }
    shift_filler {
      type: "constant"
      value: 0.001
    }
  }
}
layer {
  name: "relu1_0_branch2a"
  type: "PReLU"
  bottom: "enet1_0_branch2a"
  top: "enet1_0_branch2a"
}
layer {
  name: "enet1_0_branch2b"
  type: "Convolution"
  bottom: "enet1_0_branch2a"
  top: "enet1_0_branch2b"
  param {
    lr_mult: 1
    decay_mult: 1
  }
  param {
    lr_mult: 2
    decay_mult: 0
  }
  convolution_param {
    num_output: 16
    bias_term: true
    weight_filler {
      type: "msra"
    }
    bias_filler {
      type: "constant"
    }
    pad_h: 1
    pad_w: 1
    kernel_h: 3
    kernel_w: 3
    stride_h: 1
    stride_w: 1
    dilation: 1
  }
}
layer {
  name: "bn1_0_branch2b"
  type: "BN"
  bottom: "enet1_0_branch2b"
  top: "enet1_0_branch2b"
  param {
    lr_mult: 1
    decay_mult: 1
  }
  param {
    lr_mult: 2
    decay_mult: 0
  }
  bn_param {
    scale_filler {
      type: "constant"
      value: 1
    }
    shift_filler {
      type: "constant"
      value: 0.001
    }
  }
}
layer {
  name: "relu1_0_branch2b"
  type: "PReLU"
  bottom: "enet1_0_branch2b"
  top: "enet1_0_branch2b"
}
layer {
  name: "enet1_0_branch2c"
  type: "Convolution"
  bottom: "enet1_0_branch2b"
  top: "enet1_0_branch2c"
  param {
    lr_mult: 1
    decay_mult: 1
  }
  convolution_param {
    num_output: 64
    bias_term: false
    weight_filler {
      type: "msra"
    }
    bias_filler {
      type: "constant"
    }
    pad_h: 0
    pad_w: 0
    kernel_h: 1
    kernel_w: 1
    stride_h: 1
    stride_w: 1
    dilation: 1
  }
}
layer {
  name: "bn1_0_branch2c"
  type: "BN"
  bottom: "enet1_0_branch2c"
  top: "enet1_0_branch2c"
  param {
    lr_mult: 1
    decay_mult: 1
  }
  param {
    lr_mult: 2
    decay_mult: 0
  }
  bn_param {
    scale_filler {
      type: "constant"
      value: 1
    }
    shift_filler {
      type: "constant"
      value: 0.001
    }
  }
}
layer {
  name: "dropout1_0_branch2c"
  type: "Dropout"
  bottom: "enet1_0_branch2c"
  top: "enet1_0_branch2c"
  dropout_param {
    dropout_ratio: 0.01
  }
}
layer {
  name: "enet1_0_branch1a"
  type: "Convolution"
  bottom: "enet_initial"
  top: "enet1_0_branch1a"
  param {
    lr_mult: 1
    decay_mult: 1
  }
  convolution_param {
    num_output: 64
    bias_term: false
    weight_filler {
      type: "msra"
    }
    bias_filler {
      type: "constant"
    }
    pad_h: 0
    pad_w: 0
    kernel_h: 1
    kernel_w: 1
    stride_h: 1
    stride_w: 1
    dilation: 1
  }
}
layer {
  name: "bn1_0_branch1a"
  type: "BN"
  bottom: "enet1_0_branch1a"
  top: "enet1_0_branch1a"
  param {
    lr_mult: 1
    decay_mult: 1
  }
  param {
    lr_mult: 2
    decay_mult: 0
  }
  bn_param {
    scale_filler {
      type: "constant"
      value: 1
    }
    shift_filler {
      type: "constant"
      value: 0.001
    }
  }
}
layer {
  name: "pool1_0_branch1a"
  type: "Pooling"
  bottom: "enet1_0_branch1a"
  top: "pool1_0_branch1a"
  top: "pool1_0_branch1a_mask"
  pooling_param {
    pool: MAX
    kernel_size: 2
    stride: 2
  }
}
layer {
  name: "enet1_0"
  type: "Eltwise"
  bottom: "pool1_0_branch1a"
  bottom: "enet1_0_branch2c"
  top: "enet1_0"
}
layer {
  name: "relu1_0"
  type: "PReLU"
  bottom: "enet1_0"
  top: "enet1_0"
}
layer {
  name: "enet1_1_branch2a"
  type: "Convolution"
  bottom: "enet1_0"
  top: "enet1_1_branch2a"
  param {
    lr_mult: 1
    decay_mult: 1
  }
  convolution_param {
    num_output: 16
    bias_term: false
    weight_filler {
      type: "msra"
    }
    bias_filler {
      type: "constant"
    }
    pad_h: 0
    pad_w: 0
    kernel_h: 1
    kernel_w: 1
    stride_h: 1
    stride_w: 1
    dilation: 1
  }
}
layer {
  name: "bn1_1_branch2a"
  type: "BN"
  bottom: "enet1_1_branch2a"
  top: "enet1_1_branch2a"
  param {
    lr_mult: 1
    decay_mult: 1
  }
  param {
    lr_mult: 2
    decay_mult: 0
  }
  bn_param {
    scale_filler {
      type: "constant"
      value: 1
    }
    shift_filler {
      type: "constant"
      value: 0.001
    }
  }
}
layer {
  name: "relu1_1_branch2a"
  type: "PReLU"
  bottom: "enet1_1_branch2a"
  top: "enet1_1_branch2a"
}
layer {
  name: "enet1_1_branch2b"
  type: "Convolution"
  bottom: "enet1_1_branch2a"
  top: "enet1_1_branch2b"
  param {
    lr_mult: 1
    decay_mult: 1
  }
  param {
    lr_mult: 2
    decay_mult: 0
  }
  convolution_param {
    num_output: 16
    bias_term: true
    weight_filler {
      type: "msra"
    }
    bias_filler {
      type: "constant"
    }
    pad_h: 1
    pad_w: 1
    kernel_h: 3
    kernel_w: 3
    stride_h: 1
    stride_w: 1
    dilation: 1
  }
}
layer {
  name: "bn1_1_branch2b"
  type: "BN"
  bottom: "enet1_1_branch2b"
  top: "enet1_1_branch2b"
  param {
    lr_mult: 1
    decay_mult: 1
  }
  param {
    lr_mult: 2
    decay_mult: 0
  }
  bn_param {
    scale_filler {
      type: "constant"
      value: 1
    }
    shift_filler {
      type: "constant"
      value: 0.001
    }
  }
}
layer {
  name: "relu1_1_branch2b"
  type: "PReLU"
  bottom: "enet1_1_branch2b"
  top: "enet1_1_branch2b"
}
layer {
  name: "enet1_1_branch2c"
  type: "Convolution"
  bottom: "enet1_1_branch2b"
  top: "enet1_1_branch2c"
  param {
    lr_mult: 1
    decay_mult: 1
  }
  convolution_param {
    num_output: 64
    bias_term: false
    weight_filler {
      type: "msra"
    }
    bias_filler {
      type: "constant"
    }
    pad_h: 0
    pad_w: 0
    kernel_h: 1
    kernel_w: 1
    stride_h: 1
    stride_w: 1
    dilation: 1
  }
}
layer {
  name: "bn1_1_branch2c"
  type: "BN"
  bottom: "enet1_1_branch2c"
  top: "enet1_1_branch2c"
  param {
    lr_mult: 1
    decay_mult: 1
  }
  param {
    lr_mult: 2
    decay_mult: 0
  }
  bn_param {
    scale_filler {
      type: "constant"
      value: 1
    }
    shift_filler {
      type: "constant"
      value: 0.001
    }
  }
}
layer {
  name: "dropout1_1_branch2c"
  type: "Dropout"
  bottom: "enet1_1_branch2c"
  top: "enet1_1_branch2c"
  dropout_param {
    dropout_ratio: 0.01
  }
}
layer {
  name: "enet1_1"
  type: "Eltwise"
  bottom: "enet1_0"
  bottom: "enet1_1_branch2c"
  top: "enet1_1"
}
layer {
  name: "relu1_1"
  type: "PReLU"
  bottom: "enet1_1"
  top: "enet1_1"
}
layer {
  name: "enet1_2_branch2a"
  type: "Convolution"
  bottom: "enet1_1"
  top: "enet1_2_branch2a"
  param {
    lr_mult: 1
    decay_mult: 1
  }
  convolution_param {
    num_output: 16
    bias_term: false
    weight_filler {
      type: "msra"
    }
    bias_filler {
      type: "constant"
    }
    pad_h: 0
    pad_w: 0
    kernel_h: 1
    kernel_w: 1
    stride_h: 1
    stride_w: 1
    dilation: 1
  }
}
layer {
  name: "bn1_2_branch2a"
  type: "BN"
  bottom: "enet1_2_branch2a"
  top: "enet1_2_branch2a"
  param {
    lr_mult: 1
    decay_mult: 1
  }
  param {
    lr_mult: 2
    decay_mult: 0
  }
  bn_param {
    scale_filler {
      type: "constant"
      value: 1
    }
    shift_filler {
      type: "constant"
      value: 0.001
    }
  }
}
layer {
  name: "relu1_2_branch2a"
  type: "PReLU"
  bottom: "enet1_2_branch2a"
  top: "enet1_2_branch2a"
}
layer {
  name: "enet1_2_branch2b"
  type: "Convolution"
  bottom: "enet1_2_branch2a"
  top: "enet1_2_branch2b"
  param {
    lr_mult: 1
    decay_mult: 1
  }
  param {
    lr_mult: 2
    decay_mult: 0
  }
  convolution_param {
    num_output: 16
    bias_term: true
    weight_filler {
      type: "msra"
    }
    bias_filler {
      type: "constant"
    }
    pad_h: 1
    pad_w: 1
    kernel_h: 3
    kernel_w: 3
    stride_h: 1
    stride_w: 1
    dilation: 1
  }
}
layer {
  name: "bn1_2_branch2b"
  type: "BN"
  bottom: "enet1_2_branch2b"
  top: "enet1_2_branch2b"
  param {
    lr_mult: 1
    decay_mult: 1
  }
  param {
    lr_mult: 2
    decay_mult: 0
  }
  bn_param {
    scale_filler {
      type: "constant"
      value: 1
    }
    shift_filler {
      type: "constant"
      value: 0.001
    }
  }
}
layer {
  name: "relu1_2_branch2b"
  type: "PReLU"
  bottom: "enet1_2_branch2b"
  top: "enet1_2_branch2b"
}
layer {
  name: "enet1_2_branch2c"
  type: "Convolution"
  bottom: "enet1_2_branch2b"
  top: "enet1_2_branch2c"
  param {
    lr_mult: 1
    decay_mult: 1
  }
  convolution_param {
    num_output: 64
    bias_term: false
    weight_filler {
      type: "msra"
    }
    bias_filler {
      type: "constant"
    }
    pad_h: 0
    pad_w: 0
    kernel_h: 1
    kernel_w: 1
    stride_h: 1
    stride_w: 1
    dilation: 1
  }
}
layer {
  name: "bn1_2_branch2c"
  type: "BN"
  bottom: "enet1_2_branch2c"
  top: "enet1_2_branch2c"
  param {
    lr_mult: 1
    decay_mult: 1
  }
  param {
    lr_mult: 2
    decay_mult: 0
  }
  bn_param {
    scale_filler {
      type: "constant"
      value: 1
    }
    shift_filler {
      type: "constant"
      value: 0.001
    }
  }
}
layer {
  name: "dropout1_2_branch2c"
  type: "Dropout"
  bottom: "enet1_2_branch2c"
  top: "enet1_2_branch2c"
  dropout_param {
    dropout_ratio: 0.01
  }
}
layer {
  name: "enet1_2"
  type: "Eltwise"
  bottom: "enet1_1"
  bottom: "enet1_2_branch2c"
  top: "enet1_2"
}
layer {
  name: "relu1_2"
  type: "PReLU"
  bottom: "enet1_2"
  top: "enet1_2"
}
layer {
  name: "enet1_3_branch2a"
  type: "Convolution"
  bottom: "enet1_2"
  top: "enet1_3_branch2a"
  param {
    lr_mult: 1
    decay_mult: 1
  }
  convolution_param {
    num_output: 16
    bias_term: false
    weight_filler {
      type: "msra"
    }
    bias_filler {
      type: "constant"
    }
    pad_h: 0
    pad_w: 0
    kernel_h: 1
    kernel_w: 1
    stride_h: 1
    stride_w: 1
    dilation: 1
  }
}
layer {
  name: "bn1_3_branch2a"
  type: "BN"
  bottom: "enet1_3_branch2a"
  top: "enet1_3_branch2a"
  param {
    lr_mult: 1
    decay_mult: 1
  }
  param {
    lr_mult: 2
    decay_mult: 0
  }
  bn_param {
    scale_filler {
      type: "constant"
      value: 1
    }
    shift_filler {
      type: "constant"
      value: 0.001
    }
  }
}
layer {
  name: "relu1_3_branch2a"
  type: "PReLU"
  bottom: "enet1_3_branch2a"
  top: "enet1_3_branch2a"
}
layer {
  name: "enet1_3_branch2b"
  type: "Convolution"
  bottom: "enet1_3_branch2a"
  top: "enet1_3_branch2b"
  param {
    lr_mult: 1
    decay_mult: 1
  }
  param {
    lr_mult: 2
    decay_mult: 0
  }
  convolution_param {
    num_output: 16
    bias_term: true
    weight_filler {
      type: "msra"
    }
    bias_filler {
      type: "constant"
    }
    pad_h: 1
    pad_w: 1
    kernel_h: 3
    kernel_w: 3
    stride_h: 1
    stride_w: 1
    dilation: 1
  }
}
layer {
  name: "bn1_3_branch2b"
  type: "BN"
  bottom: "enet1_3_branch2b"
  top: "enet1_3_branch2b"
  param {
    lr_mult: 1
    decay_mult: 1
  }
  param {
    lr_mult: 2
    decay_mult: 0
  }
  bn_param {
    scale_filler {
      type: "constant"
      value: 1
    }
    shift_filler {
      type: "constant"
      value: 0.001
    }
  }
}
layer {
  name: "relu1_3_branch2b"
  type: "PReLU"
  bottom: "enet1_3_branch2b"
  top: "enet1_3_branch2b"
}
layer {
  name: "enet1_3_branch2c"
  type: "Convolution"
  bottom: "enet1_3_branch2b"
  top: "enet1_3_branch2c"
  param {
    lr_mult: 1
    decay_mult: 1
  }
  convolution_param {
    num_output: 64
    bias_term: false
    weight_filler {
      type: "msra"
    }
    bias_filler {
      type: "constant"
    }
    pad_h: 0
    pad_w: 0
    kernel_h: 1
    kernel_w: 1
    stride_h: 1
    stride_w: 1
    dilation: 1
  }
}
layer {
  name: "bn1_3_branch2c"
  type: "BN"
  bottom: "enet1_3_branch2c"
  top: "enet1_3_branch2c"
  param {
    lr_mult: 1
    decay_mult: 1
  }
  param {
    lr_mult: 2
    decay_mult: 0
  }
  bn_param {
    scale_filler {
      type: "constant"
      value: 1
    }
    shift_filler {
      type: "constant"
      value: 0.001
    }
  }
}
layer {
  name: "dropout1_3_branch2c"
  type: "Dropout"
  bottom: "enet1_3_branch2c"
  top: "enet1_3_branch2c"
  dropout_param {
    dropout_ratio: 0.01
  }
}
layer {
  name: "enet1_3"
  type: "Eltwise"
  bottom: "enet1_2"
  bottom: "enet1_3_branch2c"
  top: "enet1_3"
}
layer {
  name: "relu1_3"
  type: "PReLU"
  bottom: "enet1_3"
  top: "enet1_3"
}
layer {
  name: "enet1_4_branch2a"
  type: "Convolution"
  bottom: "enet1_3"
  top: "enet1_4_branch2a"
  param {
    lr_mult: 1
    decay_mult: 1
  }
  convolution_param {
    num_output: 16
    bias_term: false
    weight_filler {
      type: "msra"
    }
    bias_filler {
      type: "constant"
    }
    pad_h: 0
    pad_w: 0
    kernel_h: 1
    kernel_w: 1
    stride_h: 1
    stride_w: 1
    dilation: 1
  }
}
layer {
  name: "bn1_4_branch2a"
  type: "BN"
  bottom: "enet1_4_branch2a"
  top: "enet1_4_branch2a"
  param {
    lr_mult: 1
    decay_mult: 1
  }
  param {
    lr_mult: 2
    decay_mult: 0
  }
  bn_param {
    scale_filler {
      type: "constant"
      value: 1
    }
    shift_filler {
      type: "constant"
      value: 0.001
    }
  }
}
layer {
  name: "relu1_4_branch2a"
  type: "PReLU"
  bottom: "enet1_4_branch2a"
  top: "enet1_4_branch2a"
}
layer {
  name: "enet1_4_branch2b"
  type: "Convolution"
  bottom: "enet1_4_branch2a"
  top: "enet1_4_branch2b"
  param {
    lr_mult: 1
    decay_mult: 1
  }
  param {
    lr_mult: 2
    decay_mult: 0
  }
  convolution_param {
    num_output: 16
    bias_term: true
    weight_filler {
      type: "msra"
    }
    bias_filler {
      type: "constant"
    }
    pad_h: 1
    pad_w: 1
    kernel_h: 3
    kernel_w: 3
    stride_h: 1
    stride_w: 1
    dilation: 1
  }
}
layer {
  name: "bn1_4_branch2b"
  type: "BN"
  bottom: "enet1_4_branch2b"
  top: "enet1_4_branch2b"
  param {
    lr_mult: 1
    decay_mult: 1
  }
  param {
    lr_mult: 2
    decay_mult: 0
  }
  bn_param {
    scale_filler {
      type: "constant"
      value: 1
    }
    shift_filler {
      type: "constant"
      value: 0.001
    }
  }
}
layer {
  name: "relu1_4_branch2b"
  type: "PReLU"
  bottom: "enet1_4_branch2b"
  top: "enet1_4_branch2b"
}
layer {
  name: "enet1_4_branch2c"
  type: "Convolution"
  bottom: "enet1_4_branch2b"
  top: "enet1_4_branch2c"
  param {
    lr_mult: 1
    decay_mult: 1
  }
  convolution_param {
    num_output: 64
    bias_term: false
    weight_filler {
      type: "msra"
    }
    bias_filler {
      type: "constant"
    }
    pad_h: 0
    pad_w: 0
    kernel_h: 1
    kernel_w: 1
    stride_h: 1
    stride_w: 1
    dilation: 1
  }
}
layer {
  name: "bn1_4_branch2c"
  type: "BN"
  bottom: "enet1_4_branch2c"
  top: "enet1_4_branch2c"
  param {
    lr_mult: 1
    decay_mult: 1
  }
  param {
    lr_mult: 2
    decay_mult: 0
  }
  bn_param {
    scale_filler {
      type: "constant"
      value: 1
    }
    shift_filler {
      type: "constant"
      value: 0.001
    }
  }
}
layer {
  name: "dropout1_4_branch2c"
  type: "Dropout"
  bottom: "enet1_4_branch2c"
  top: "enet1_4_branch2c"
  dropout_param {
    dropout_ratio: 0.01
  }
}
layer {
  name: "enet1_4"
  type: "Eltwise"
  bottom: "enet1_3"
  bottom: "enet1_4_branch2c"
  top: "enet1_4"
}
layer {
  name: "relu1_4"
  type: "PReLU"
  bottom: "enet1_4"
  top: "enet1_4"
}
layer {
  name: "enet2_0_branch2a"
  type: "Convolution"
  bottom: "enet1_4"
  top: "enet2_0_branch2a"
  param {
    lr_mult: 1
    decay_mult: 1
  }
  convolution_param {
    num_output: 32
    bias_term: false
    weight_filler {
      type: "msra"
    }
    bias_filler {
      type: "constant"
    }
    pad_h: 0
    pad_w: 0
    kernel_h: 2
    kernel_w: 2
    stride_h: 2
    stride_w: 2
    dilation: 1
  }
}
layer {
  name: "bn2_0_branch2a"
  type: "BN"
  bottom: "enet2_0_branch2a"
  top: "enet2_0_branch2a"
  param {
    lr_mult: 1
    decay_mult: 1
  }
  param {
    lr_mult: 2
    decay_mult: 0
  }
  bn_param {
    scale_filler {
      type: "constant"
      value: 1
    }
    shift_filler {
      type: "constant"
      value: 0.001
    }
  }
}
layer {
  name: "relu2_0_branch2a"
  type: "PReLU"
  bottom: "enet2_0_branch2a"
  top: "enet2_0_branch2a"
}
layer {
  name: "enet2_0_branch2b"
  type: "Convolution"
  bottom: "enet2_0_branch2a"
  top: "enet2_0_branch2b"
  param {
    lr_mult: 1
    decay_mult: 1
  }
  param {
    lr_mult: 2
    decay_mult: 0
  }
  convolution_param {
    num_output: 32
    bias_term: true
    weight_filler {
      type: "msra"
    }
    bias_filler {
      type: "constant"
    }
    pad_h: 1
    pad_w: 1
    kernel_h: 3
    kernel_w: 3
    stride_h: 1
    stride_w: 1
    dilation: 1
  }
}
layer {
  name: "bn2_0_branch2b"
  type: "BN"
  bottom: "enet2_0_branch2b"
  top: "enet2_0_branch2b"
  param {
    lr_mult: 1
    decay_mult: 1
  }
  param {
    lr_mult: 2
    decay_mult: 0
  }
  bn_param {
    scale_filler {
      type: "constant"
      value: 1
    }
    shift_filler {
      type: "constant"
      value: 0.001
    }
  }
}
layer {
  name: "relu2_0_branch2b"
  type: "PReLU"
  bottom: "enet2_0_branch2b"
  top: "enet2_0_branch2b"
}
layer {
  name: "enet2_0_branch2c"
  type: "Convolution"
  bottom: "enet2_0_branch2b"
  top: "enet2_0_branch2c"
  param {
    lr_mult: 1
    decay_mult: 1
  }
  convolution_param {
    num_output: 128
    bias_term: false
    weight_filler {
      type: "msra"
    }
    bias_filler {
      type: "constant"
    }
    pad_h: 0
    pad_w: 0
    kernel_h: 1
    kernel_w: 1
    stride_h: 1
    stride_w: 1
    dilation: 1
  }
}
layer {
  name: "bn2_0_branch2c"
  type: "BN"
  bottom: "enet2_0_branch2c"
  top: "enet2_0_branch2c"
  param {
    lr_mult: 1
    decay_mult: 1
  }
  param {
    lr_mult: 2
    decay_mult: 0
  }
  bn_param {
    scale_filler {
      type: "constant"
      value: 1
    }
    shift_filler {
      type: "constant"
      value: 0.001
    }
  }
}
layer {
  name: "dropout2_0_branch2c"
  type: "Dropout"
  bottom: "enet2_0_branch2c"
  top: "enet2_0_branch2c"
  dropout_param {
    dropout_ratio: 0.1
  }
}
layer {
  name: "enet2_0_branch1a"
  type: "Convolution"
  bottom: "enet1_4"
  top: "enet2_0_branch1a"
  param {
    lr_mult: 1
    decay_mult: 1
  }
  convolution_param {
    num_output: 128
    bias_term: false
    weight_filler {
      type: "msra"
    }
    bias_filler {
      type: "constant"
    }
    pad_h: 0
    pad_w: 0
    kernel_h: 1
    kernel_w: 1
    stride_h: 1
    stride_w: 1
    dilation: 1
  }
}
layer {
  name: "bn2_0_branch1a"
  type: "BN"
  bottom: "enet2_0_branch1a"
  top: "enet2_0_branch1a"
  param {
    lr_mult: 1
    decay_mult: 1
  }
  param {
    lr_mult: 2
    decay_mult: 0
  }
  bn_param {
    scale_filler {
      type: "constant"
      value: 1
    }
    shift_filler {
      type: "constant"
      value: 0.001
    }
  }
}
layer {
  name: "pool2_0_branch1a"
  type: "Pooling"
  bottom: "enet2_0_branch1a"
  top: "pool2_0_branch1a"
  top: "pool2_0_branch1a_mask"
  pooling_param {
    pool: MAX
    kernel_size: 2
    stride: 2
  }
}
layer {
  name: "enet2_0"
  type: "Eltwise"
  bottom: "pool2_0_branch1a"
  bottom: "enet2_0_branch2c"
  top: "enet2_0"
}
layer {
  name: "relu2_0"
  type: "PReLU"
  bottom: "enet2_0"
  top: "enet2_0"
}
layer {
  name: "enet2_1_branch2a"
  type: "Convolution"
  bottom: "enet2_0"
  top: "enet2_1_branch2a"
  param {
    lr_mult: 1
    decay_mult: 1
  }
  convolution_param {
    num_output: 32
    bias_term: false
    weight_filler {
      type: "msra"
    }
    bias_filler {
      type: "constant"
    }
    pad_h: 0
    pad_w: 0
    kernel_h: 1
    kernel_w: 1
    stride_h: 1
    stride_w: 1
    dilation: 1
  }
}
layer {
  name: "bn2_1_branch2a"
  type: "BN"
  bottom: "enet2_1_branch2a"
  top: "enet2_1_branch2a"
  param {
    lr_mult: 1
    decay_mult: 1
  }
  param {
    lr_mult: 2
    decay_mult: 0
  }
  bn_param {
    scale_filler {
      type: "constant"
      value: 1
    }
    shift_filler {
      type: "constant"
      value: 0.001
    }
  }
}
layer {
  name: "relu2_1_branch2a"
  type: "PReLU"
  bottom: "enet2_1_branch2a"
  top: "enet2_1_branch2a"
}
layer {
  name: "enet2_1_branch2b"
  type: "Convolution"
  bottom: "enet2_1_branch2a"
  top: "enet2_1_branch2b"
  param {
    lr_mult: 1
    decay_mult: 1
  }
  param {
    lr_mult: 2
    decay_mult: 0
  }
  convolution_param {
    num_output: 32
    bias_term: true
    weight_filler {
      type: "msra"
    }
    bias_filler {
      type: "constant"
    }
    pad_h: 1
    pad_w: 1
    kernel_h: 3
    kernel_w: 3
    stride_h: 1
    stride_w: 1
    dilation: 1
  }
}
layer {
  name: "bn2_1_branch2b"
  type: "BN"
  bottom: "enet2_1_branch2b"
  top: "enet2_1_branch2b"
  param {
    lr_mult: 1
    decay_mult: 1
  }
  param {
    lr_mult: 2
    decay_mult: 0
  }
  bn_param {
    scale_filler {
      type: "constant"
      value: 1
    }
    shift_filler {
      type: "constant"
      value: 0.001
    }
  }
}
layer {
  name: "relu2_1_branch2b"
  type: "PReLU"
  bottom: "enet2_1_branch2b"
  top: "enet2_1_branch2b"
}
layer {
  name: "enet2_1_branch2c"
  type: "Convolution"
  bottom: "enet2_1_branch2b"
  top: "enet2_1_branch2c"
  param {
    lr_mult: 1
    decay_mult: 1
  }
  convolution_param {
    num_output: 128
    bias_term: false
    weight_filler {
      type: "msra"
    }
    bias_filler {
      type: "constant"
    }
    pad_h: 0
    pad_w: 0
    kernel_h: 1
    kernel_w: 1
    stride_h: 1
    stride_w: 1
    dilation: 1
  }
}
layer {
  name: "bn2_1_branch2c"
  type: "BN"
  bottom: "enet2_1_branch2c"
  top: "enet2_1_branch2c"
  param {
    lr_mult: 1
    decay_mult: 1
  }
  param {
    lr_mult: 2
    decay_mult: 0
  }
  bn_param {
    scale_filler {
      type: "constant"
      value: 1
    }
    shift_filler {
      type: "constant"
      value: 0.001
    }
  }
}
layer {
  name: "dropout2_1_branch2c"
  type: "Dropout"
  bottom: "enet2_1_branch2c"
  top: "enet2_1_branch2c"
  dropout_param {
    dropout_ratio: 0.1
  }
}
layer {
  name: "enet2_1"
  type: "Eltwise"
  bottom: "enet2_0"
  bottom: "enet2_1_branch2c"
  top: "enet2_1"
}
layer {
  name: "relu2_1"
  type: "PReLU"
  bottom: "enet2_1"
  top: "enet2_1"
}
layer {
  name: "enet2_2_branch2a"
  type: "Convolution"
  bottom: "enet2_1"
  top: "enet2_2_branch2a"
  param {
    lr_mult: 1
    decay_mult: 1
  }
  convolution_param {
    num_output: 32
    bias_term: false
    weight_filler {
      type: "msra"
    }
    bias_filler {
      type: "constant"
    }
    pad_h: 0
    pad_w: 0
    kernel_h: 1
    kernel_w: 1
    stride_h: 1
    stride_w: 1
    dilation: 1
  }
}
layer {
  name: "bn2_2_branch2a"
  type: "BN"
  bottom: "enet2_2_branch2a"
  top: "enet2_2_branch2a"
  param {
    lr_mult: 1
    decay_mult: 1
  }
  param {
    lr_mult: 2
    decay_mult: 0
  }
  bn_param {
    scale_filler {
      type: "constant"
      value: 1
    }
    shift_filler {
      type: "constant"
      value: 0.001
    }
  }
}
layer {
  name: "relu2_2_branch2a"
  type: "PReLU"
  bottom: "enet2_2_branch2a"
  top: "enet2_2_branch2a"
}
layer {
  name: "enet2_2_branch2b"
  type: "Convolution"
  bottom: "enet2_2_branch2a"
  top: "enet2_2_branch2b"
  param {
    lr_mult: 1
    decay_mult: 1
  }
  param {
    lr_mult: 2
    decay_mult: 0
  }
  convolution_param {
    num_output: 32
    bias_term: true
    weight_filler {
      type: "msra"
    }
    bias_filler {
      type: "constant"
    }
    pad_h: 2
    pad_w: 2
    kernel_h: 3
    kernel_w: 3
    stride_h: 1
    stride_w: 1
    dilation: 2
  }
}
layer {
  name: "bn2_2_branch2b"
  type: "BN"
  bottom: "enet2_2_branch2b"
  top: "enet2_2_branch2b"
  param {
    lr_mult: 1
    decay_mult: 1
  }
  param {
    lr_mult: 2
    decay_mult: 0
  }
  bn_param {
    scale_filler {
      type: "constant"
      value: 1
    }
    shift_filler {
      type: "constant"
      value: 0.001
    }
  }
}
layer {
  name: "relu2_2_branch2b"
  type: "PReLU"
  bottom: "enet2_2_branch2b"
  top: "enet2_2_branch2b"
}
layer {
  name: "enet2_2_branch2c"
  type: "Convolution"
  bottom: "enet2_2_branch2b"
  top: "enet2_2_branch2c"
  param {
    lr_mult: 1
    decay_mult: 1
  }
  convolution_param {
    num_output: 128
    bias_term: false
    weight_filler {
      type: "msra"
    }
    bias_filler {
      type: "constant"
    }
    pad_h: 0
    pad_w: 0
    kernel_h: 1
    kernel_w: 1
    stride_h: 1
    stride_w: 1
    dilation: 1
  }
}
layer {
  name: "bn2_2_branch2c"
  type: "BN"
  bottom: "enet2_2_branch2c"
  top: "enet2_2_branch2c"
  param {
    lr_mult: 1
    decay_mult: 1
  }
  param {
    lr_mult: 2
    decay_mult: 0
  }
  bn_param {
    scale_filler {
      type: "constant"
      value: 1
    }
    shift_filler {
      type: "constant"
      value: 0.001
    }
  }
}
layer {
  name: "dropout2_2_branch2c"
  type: "Dropout"
  bottom: "enet2_2_branch2c"
  top: "enet2_2_branch2c"
  dropout_param {
    dropout_ratio: 0.1
  }
}
layer {
  name: "enet2_2"
  type: "Eltwise"
  bottom: "enet2_1"
  bottom: "enet2_2_branch2c"
  top: "enet2_2"
}
layer {
  name: "relu2_2"
  type: "PReLU"
  bottom: "enet2_2"
  top: "enet2_2"
}
layer {
  name: "enet2_3_branch2a"
  type: "Convolution"
  bottom: "enet2_2"
  top: "enet2_3_branch2a"
  param {
    lr_mult: 1
    decay_mult: 1
  }
  convolution_param {
    num_output: 32
    bias_term: false
    weight_filler {
      type: "msra"
    }
    bias_filler {
      type: "constant"
    }
    pad_h: 0
    pad_w: 0
    kernel_h: 1
    kernel_w: 1
    stride_h: 1
    stride_w: 1
    dilation: 1
  }
}
layer {
  name: "bn2_3_branch2a"
  type: "BN"
  bottom: "enet2_3_branch2a"
  top: "enet2_3_branch2a"
  param {
    lr_mult: 1
    decay_mult: 1
  }
  param {
    lr_mult: 2
    decay_mult: 0
  }
  bn_param {
    scale_filler {
      type: "constant"
      value: 1
    }
    shift_filler {
      type: "constant"
      value: 0.001
    }
  }
}
layer {
  name: "relu2_3_branch2a"
  type: "PReLU"
  bottom: "enet2_3_branch2a"
  top: "enet2_3_branch2a"
}
layer {
  name: "enet2_3_branch2b1"
  type: "Convolution"
  bottom: "enet2_3_branch2a"
  top: "enet2_3_branch2b1"
  param {
    lr_mult: 1
    decay_mult: 1
  }
  convolution_param {
    num_output: 32
    bias_term: false
    weight_filler {
      type: "msra"
    }
    bias_filler {
      type: "constant"
    }
    pad_h: 0
    pad_w: 2
    kernel_h: 1
    kernel_w: 5
    stride_h: 1
    stride_w: 1
    dilation: 1
  }
}
layer {
  name: "enet2_3_branch2b"
  type: "Convolution"
  bottom: "enet2_3_branch2b1"
  top: "enet2_3_branch2b"
  param {
    lr_mult: 1
    decay_mult: 1
  }
  param {
    lr_mult: 2
    decay_mult: 0
  }
  convolution_param {
    num_output: 32
    bias_term: true
    weight_filler {
      type: "msra"
    }
    bias_filler {
      type: "constant"
    }
    pad_h: 2
    pad_w: 0
    kernel_h: 5
    kernel_w: 1
    stride_h: 1
    stride_w: 1
    dilation: 1
  }
}
layer {
  name: "bn2_3_branch2b"
  type: "BN"
  bottom: "enet2_3_branch2b"
  top: "enet2_3_branch2b"
  param {
    lr_mult: 1
    decay_mult: 1
  }
  param {
    lr_mult: 2
    decay_mult: 0
  }
  bn_param {
    scale_filler {
      type: "constant"
      value: 1
    }
    shift_filler {
      type: "constant"
      value: 0.001
    }
  }
}
layer {
  name: "relu2_3_branch2b"
  type: "PReLU"
  bottom: "enet2_3_branch2b"
  top: "enet2_3_branch2b"
}
layer {
  name: "enet2_3_branch2c"
  type: "Convolution"
  bottom: "enet2_3_branch2b"
  top: "enet2_3_branch2c"
  param {
    lr_mult: 1
    decay_mult: 1
  }
  convolution_param {
    num_output: 128
    bias_term: false
    weight_filler {
      type: "msra"
    }
    bias_filler {
      type: "constant"
    }
    pad_h: 0
    pad_w: 0
    kernel_h: 1
    kernel_w: 1
    stride_h: 1
    stride_w: 1
    dilation: 1
  }
}
layer {
  name: "bn2_3_branch2c"
  type: "BN"
  bottom: "enet2_3_branch2c"
  top: "enet2_3_branch2c"
  param {
    lr_mult: 1
    decay_mult: 1
  }
  param {
    lr_mult: 2
    decay_mult: 0
  }
  bn_param {
    scale_filler {
      type: "constant"
      value: 1
    }
    shift_filler {
      type: "constant"
      value: 0.001
    }
  }
}
layer {
  name: "dropout2_3_branch2c"
  type
I0417 16:59:06.985705  3252 layer_factory.hpp:77] Creating layer data
I0417 16:59:06.985795  3252 net.cpp:106] Creating Layer data
I0417 16:59:06.985813  3252 net.cpp:411] data -> data
I0417 16:59:06.985872  3252 net.cpp:411] data -> label
I0417 16:59:06.985899  3252 net.cpp:411] data -> (automatic)
I0417 16:59:06.986510  3252 image_seg_data_layer.cpp:46] Opening file /home/map/Liuchao/data/road_line_train/train.list
I0417 16:59:07.000643  3252 image_seg_data_layer.cpp:63] Shuffling data
I0417 16:59:07.002153  3252 image_seg_data_layer.cpp:68] A total of 9830 images.
I0417 16:59:07.029675  3252 image_seg_data_layer.cpp:147] output data size: 6,3,512,616
I0417 16:59:07.029698  3252 image_seg_data_layer.cpp:151] output label size: 6,1,512,616
I0417 16:59:07.029706  3252 image_seg_data_layer.cpp:155] output data_dim size: 6,1,1,2
I0417 16:59:07.198484  3252 net.cpp:150] Setting up data
I0417 16:59:07.198531  3252 net.cpp:157] Top shape: 6 3 512 616 (5677056)
I0417 16:59:07.198544  3252 net.cpp:157] Top shape: 6 1 512 616 (1892352)
I0417 16:59:07.198554  3252 net.cpp:157] Top shape: 6 1 1 2 (12)
I0417 16:59:07.198560  3252 net.cpp:165] Memory required for data: 30277680
I0417 16:59:07.198577  3252 layer_factory.hpp:77] Creating layer data_data_0_split
I0417 16:59:07.198603  3252 net.cpp:106] Creating Layer data_data_0_split
I0417 16:59:07.198612  3252 net.cpp:454] data_data_0_split <- data
I0417 16:59:07.198645  3252 net.cpp:411] data_data_0_split -> data_data_0_split_0
I0417 16:59:07.198665  3252 net.cpp:411] data_data_0_split -> data_data_0_split_1
I0417 16:59:07.198753  3252 net.cpp:150] Setting up data_data_0_split
I0417 16:59:07.198766  3252 net.cpp:157] Top shape: 6 3 512 616 (5677056)
I0417 16:59:07.198776  3252 net.cpp:157] Top shape: 6 3 512 616 (5677056)
I0417 16:59:07.198781  3252 net.cpp:165] Memory required for data: 75694128
I0417 16:59:07.198788  3252 layer_factory.hpp:77] Creating layer label_data_1_split
I0417 16:59:07.198799  3252 net.cpp:106] Creating Layer label_data_1_split
I0417 16:59:07.198832  3252 net.cpp:454] label_data_1_split <- label
I0417 16:59:07.198843  3252 net.cpp:411] label_data_1_split -> label_data_1_split_0
I0417 16:59:07.198854  3252 net.cpp:411] label_data_1_split -> label_data_1_split_1
I0417 16:59:07.198896  3252 net.cpp:150] Setting up label_data_1_split
I0417 16:59:07.198907  3252 net.cpp:157] Top shape: 6 1 512 616 (1892352)
I0417 16:59:07.198915  3252 net.cpp:157] Top shape: 6 1 512 616 (1892352)
I0417 16:59:07.198921  3252 net.cpp:165] Memory required for data: 90832944
I0417 16:59:07.198928  3252 layer_factory.hpp:77] Creating layer enet_initial_branch2a
I0417 16:59:07.198963  3252 net.cpp:106] Creating Layer enet_initial_branch2a
I0417 16:59:07.198972  3252 net.cpp:454] enet_initial_branch2a <- data_data_0_split_0
I0417 16:59:07.198984  3252 net.cpp:411] enet_initial_branch2a -> enet_initial_branch2a
I0417 16:59:07.352116  3252 net.cpp:150] Setting up enet_initial_branch2a
I0417 16:59:07.352161  3252 net.cpp:157] Top shape: 6 13 256 308 (6150144)
I0417 16:59:07.352170  3252 net.cpp:165] Memory required for data: 115433520
I0417 16:59:07.352205  3252 layer_factory.hpp:77] Creating layer pool_initial_branch1a
I0417 16:59:07.352228  3252 net.cpp:106] Creating Layer pool_initial_branch1a
I0417 16:59:07.352236  3252 net.cpp:454] pool_initial_branch1a <- data_data_0_split_1
I0417 16:59:07.352257  3252 net.cpp:411] pool_initial_branch1a -> pool_initial_branch1a
I0417 16:59:07.352350  3252 net.cpp:150] Setting up pool_initial_branch1a
I0417 16:59:07.352365  3252 net.cpp:157] Top shape: 6 3 256 308 (1419264)
I0417 16:59:07.352372  3252 net.cpp:165] Memory required for data: 121110576
I0417 16:59:07.352380  3252 layer_factory.hpp:77] Creating layer enet_initial
I0417 16:59:07.352396  3252 net.cpp:106] Creating Layer enet_initial
I0417 16:59:07.352402  3252 net.cpp:454] enet_initial <- enet_initial_branch2a
I0417 16:59:07.352411  3252 net.cpp:454] enet_initial <- pool_initial_branch1a
I0417 16:59:07.352423  3252 net.cpp:411] enet_initial -> enet_initial
I0417 16:59:07.352466  3252 net.cpp:150] Setting up enet_initial
I0417 16:59:07.352478  3252 net.cpp:157] Top shape: 6 16 256 308 (7569408)
I0417 16:59:07.352485  3252 net.cpp:165] Memory required for data: 151388208
I0417 16:59:07.352491  3252 layer_factory.hpp:77] Creating layer bn_initial
I0417 16:59:07.352516  3252 net.cpp:106] Creating Layer bn_initial
I0417 16:59:07.352524  3252 net.cpp:454] bn_initial <- enet_initial
I0417 16:59:07.352537  3252 net.cpp:397] bn_initial -> enet_initial (in-place)
I0417 16:59:07.352879  3252 net.cpp:150] Setting up bn_initial
I0417 16:59:07.352893  3252 net.cpp:157] Top shape: 6 16 256 308 (7569408)
I0417 16:59:07.352900  3252 net.cpp:165] Memory required for data: 181665840
I0417 16:59:07.352913  3252 layer_factory.hpp:77] Creating layer relu_initial
I0417 16:59:07.352929  3252 net.cpp:106] Creating Layer relu_initial
I0417 16:59:07.352937  3252 net.cpp:454] relu_initial <- enet_initial
I0417 16:59:07.352946  3252 net.cpp:397] relu_initial -> enet_initial (in-place)
I0417 16:59:07.358398  3252 net.cpp:150] Setting up relu_initial
I0417 16:59:07.358422  3252 net.cpp:157] Top shape: 6 16 256 308 (7569408)
I0417 16:59:07.358430  3252 net.cpp:165] Memory required for data: 211943472
I0417 16:59:07.358444  3252 layer_factory.hpp:77] Creating layer enet_initial_relu_initial_0_split
I0417 16:59:07.358458  3252 net.cpp:106] Creating Layer enet_initial_relu_initial_0_split
I0417 16:59:07.358464  3252 net.cpp:454] enet_initial_relu_initial_0_split <- enet_initial
I0417 16:59:07.358479  3252 net.cpp:411] enet_initial_relu_initial_0_split -> enet_initial_relu_initial_0_split_0
I0417 16:59:07.358494  3252 net.cpp:411] enet_initial_relu_initial_0_split -> enet_initial_relu_initial_0_split_1
I0417 16:59:07.358546  3252 net.cpp:150] Setting up enet_initial_relu_initial_0_split
I0417 16:59:07.358557  3252 net.cpp:157] Top shape: 6 16 256 308 (7569408)
I0417 16:59:07.358566  3252 net.cpp:157] Top shape: 6 16 256 308 (7569408)
I0417 16:59:07.358572  3252 net.cpp:165] Memory required for data: 272498736
I0417 16:59:07.358608  3252 layer_factory.hpp:77] Creating layer enet1_0_branch2a
I0417 16:59:07.358633  3252 net.cpp:106] Creating Layer enet1_0_branch2a
I0417 16:59:07.358641  3252 net.cpp:454] enet1_0_branch2a <- enet_initial_relu_initial_0_split_0
I0417 16:59:07.358652  3252 net.cpp:411] enet1_0_branch2a -> enet1_0_branch2a
I0417 16:59:07.361464  3252 net.cpp:150] Setting up enet1_0_branch2a
I0417 16:59:07.361482  3252 net.cpp:157] Top shape: 6 16 128 154 (1892352)
I0417 16:59:07.361490  3252 net.cpp:165] Memory required for data: 280068144
I0417 16:59:07.361500  3252 layer_factory.hpp:77] Creating layer bn1_0_branch2a
I0417 16:59:07.361517  3252 net.cpp:106] Creating Layer bn1_0_branch2a
I0417 16:59:07.361526  3252 net.cpp:454] bn1_0_branch2a <- enet1_0_branch2a
I0417 16:59:07.361536  3252 net.cpp:397] bn1_0_branch2a -> enet1_0_branch2a (in-place)
I0417 16:59:07.362689  3252 net.cpp:150] Setting up bn1_0_branch2a
I0417 16:59:07.362706  3252 net.cpp:157] Top shape: 6 16 128 154 (1892352)
I0417 16:59:07.362715  3252 net.cpp:165] Memory required for data: 287637552
I0417 16:59:07.362725  3252 layer_factory.hpp:77] Creating layer relu1_0_branch2a
I0417 16:59:07.362740  3252 net.cpp:106] Creating Layer relu1_0_branch2a
I0417 16:59:07.362748  3252 net.cpp:454] relu1_0_branch2a <- enet1_0_branch2a
I0417 16:59:07.362758  3252 net.cpp:397] relu1_0_branch2a -> enet1_0_branch2a (in-place)
I0417 16:59:07.364783  3252 net.cpp:150] Setting up relu1_0_branch2a
I0417 16:59:07.364800  3252 net.cpp:157] Top shape: 6 16 128 154 (1892352)
I0417 16:59:07.364807  3252 net.cpp:165] Memory required for data: 295206960
I0417 16:59:07.364820  3252 layer_factory.hpp:77] Creating layer enet1_0_branch2b
I0417 16:59:07.364838  3252 net.cpp:106] Creating Layer enet1_0_branch2b
I0417 16:59:07.364846  3252 net.cpp:454] enet1_0_branch2b <- enet1_0_branch2a
I0417 16:59:07.364861  3252 net.cpp:411] enet1_0_branch2b -> enet1_0_branch2b
I0417 16:59:07.368814  3252 net.cpp:150] Setting up enet1_0_branch2b
I0417 16:59:07.368834  3252 net.cpp:157] Top shape: 6 16 128 154 (1892352)
I0417 16:59:07.368841  3252 net.cpp:165] Memory required for data: 302776368
I0417 16:59:07.368854  3252 layer_factory.hpp:77] Creating layer bn1_0_branch2b
I0417 16:59:07.368868  3252 net.cpp:106] Creating Layer bn1_0_branch2b
I0417 16:59:07.368877  3252 net.cpp:454] bn1_0_branch2b <- enet1_0_branch2b
I0417 16:59:07.368891  3252 net.cpp:397] bn1_0_branch2b -> enet1_0_branch2b (in-place)
I0417 16:59:07.369173  3252 net.cpp:150] Setting up bn1_0_branch2b
I0417 16:59:07.369187  3252 net.cpp:157] Top shape: 6 16 128 154 (1892352)
I0417 16:59:07.369194  3252 net.cpp:165] Memory required for data: 310345776
I0417 16:59:07.369204  3252 layer_factory.hpp:77] Creating layer relu1_0_branch2b
I0417 16:59:07.369220  3252 net.cpp:106] Creating Layer relu1_0_branch2b
I0417 16:59:07.369227  3252 net.cpp:454] relu1_0_branch2b <- enet1_0_branch2b
I0417 16:59:07.369236  3252 net.cpp:397] relu1_0_branch2b -> enet1_0_branch2b (in-place)
I0417 16:59:07.370623  3252 net.cpp:150] Setting up relu1_0_branch2b
I0417 16:59:07.370640  3252 net.cpp:157] Top shape: 6 16 128 154 (1892352)
I0417 16:59:07.370647  3252 net.cpp:165] Memory required for data: 317915184
I0417 16:59:07.370657  3252 layer_factory.hpp:77] Creating layer enet1_0_branch2c
I0417 16:59:07.370674  3252 net.cpp:106] Creating Layer enet1_0_branch2c
I0417 16:59:07.370682  3252 net.cpp:454] enet1_0_branch2c <- enet1_0_branch2b
I0417 16:59:07.370697  3252 net.cpp:411] enet1_0_branch2c -> enet1_0_branch2c
I0417 16:59:07.373638  3252 net.cpp:150] Setting up enet1_0_branch2c
I0417 16:59:07.373656  3252 net.cpp:157] Top shape: 6 64 128 154 (7569408)
I0417 16:59:07.373664  3252 net.cpp:165] Memory required for data: 348192816
I0417 16:59:07.373674  3252 layer_factory.hpp:77] Creating layer bn1_0_branch2c
I0417 16:59:07.373692  3252 net.cpp:106] Creating Layer bn1_0_branch2c
I0417 16:59:07.373700  3252 net.cpp:454] bn1_0_branch2c <- enet1_0_branch2c
I0417 16:59:07.373714  3252 net.cpp:397] bn1_0_branch2c -> enet1_0_branch2c (in-place)
I0417 16:59:07.374011  3252 net.cpp:150] Setting up bn1_0_branch2c
I0417 16:59:07.374035  3252 net.cpp:157] Top shape: 6 64 128 154 (7569408)
I0417 16:59:07.374042  3252 net.cpp:165] Memory required for data: 378470448
I0417 16:59:07.374061  3252 layer_factory.hpp:77] Creating layer dropout1_0_branch2c
I0417 16:59:07.374081  3252 net.cpp:106] Creating Layer dropout1_0_branch2c
I0417 16:59:07.374089  3252 net.cpp:454] dropout1_0_branch2c <- enet1_0_branch2c
I0417 16:59:07.374099  3252 net.cpp:397] dropout1_0_branch2c -> enet1_0_branch2c (in-place)
I0417 16:59:07.374151  3252 net.cpp:150] Setting up dropout1_0_branch2c
I0417 16:59:07.374163  3252 net.cpp:157] Top shape: 6 64 128 154 (7569408)
I0417 16:59:07.374171  3252 net.cpp:165] Memory required for data: 408748080
I0417 16:59:07.374176  3252 layer_factory.hpp:77] Creating layer enet1_0_branch1a
I0417 16:59:07.374193  3252 net.cpp:106] Creating Layer enet1_0_branch1a
I0417 16:59:07.374202  3252 net.cpp:454] enet1_0_branch1a <- enet_initial_relu_initial_0_split_1
I0417 16:59:07.374215  3252 net.cpp:411] enet1_0_branch1a -> enet1_0_branch1a
I0417 16:59:07.377069  3252 net.cpp:150] Setting up enet1_0_branch1a
I0417 16:59:07.377089  3252 net.cpp:157] Top shape: 6 64 256 308 (30277632)
I0417 16:59:07.377096  3252 net.cpp:165] Memory required for data: 529858608
I0417 16:59:07.377106  3252 layer_factory.hpp:77] Creating layer bn1_0_branch1a
I0417 16:59:07.377122  3252 net.cpp:106] Creating Layer bn1_0_branch1a
I0417 16:59:07.377130  3252 net.cpp:454] bn1_0_branch1a <- enet1_0_branch1a
I0417 16:59:07.377144  3252 net.cpp:397] bn1_0_branch1a -> enet1_0_branch1a (in-place)
I0417 16:59:07.378599  3252 net.cpp:150] Setting up bn1_0_branch1a
I0417 16:59:07.378618  3252 net.cpp:157] Top shape: 6 64 256 308 (30277632)
I0417 16:59:07.378625  3252 net.cpp:165] Memory required for data: 650969136
I0417 16:59:07.378636  3252 layer_factory.hpp:77] Creating layer pool1_0_branch1a
I0417 16:59:07.378643  3252 layer_factory.cpp:91] cuDNN does not support multiple tops. Using Caffe's own pooling layer.
I0417 16:59:07.378654  3252 net.cpp:106] Creating Layer pool1_0_branch1a
I0417 16:59:07.378660  3252 net.cpp:454] pool1_0_branch1a <- enet1_0_branch1a
I0417 16:59:07.378671  3252 net.cpp:411] pool1_0_branch1a -> pool1_0_branch1a
I0417 16:59:07.378690  3252 net.cpp:411] pool1_0_branch1a -> pool1_0_branch1a_mask
I0417 16:59:07.378747  3252 net.cpp:150] Setting up pool1_0_branch1a
I0417 16:59:07.378762  3252 net.cpp:157] Top shape: 6 64 128 154 (7569408)
I0417 16:59:07.378769  3252 net.cpp:157] Top shape: 6 64 128 154 (7569408)
I0417 16:59:07.378775  3252 net.cpp:165] Memory required for data: 711524400
I0417 16:59:07.378782  3252 layer_factory.hpp:77] Creating layer enet1_0
I0417 16:59:07.378800  3252 net.cpp:106] Creating Layer enet1_0
I0417 16:59:07.378808  3252 net.cpp:454] enet1_0 <- pool1_0_branch1a
I0417 16:59:07.378816  3252 net.cpp:454] enet1_0 <- enet1_0_branch2c
I0417 16:59:07.378825  3252 net.cpp:411] enet1_0 -> enet1_0
I0417 16:59:07.378871  3252 net.cpp:150] Setting up enet1_0
I0417 16:59:07.378883  3252 net.cpp:157] Top shape: 6 64 128 154 (7569408)
I0417 16:59:07.378890  3252 net.cpp:165] Memory required for data: 741802032
I0417 16:59:07.378896  3252 layer_factory.hpp:77] Creating layer relu1_0
I0417 16:59:07.378909  3252 net.cpp:106] Creating Layer relu1_0
I0417 16:59:07.378916  3252 net.cpp:454] relu1_0 <- enet1_0
I0417 16:59:07.378926  3252 net.cpp:397] relu1_0 -> enet1_0 (in-place)
I0417 16:59:07.384563  3252 net.cpp:150] Setting up relu1_0
I0417 16:59:07.384582  3252 net.cpp:157] Top shape: 6 64 128 154 (7569408)
I0417 16:59:07.384589  3252 net.cpp:165] Memory required for data: 772079664
I0417 16:59:07.384599  3252 layer_factory.hpp:77] Creating layer enet1_0_relu1_0_0_split
I0417 16:59:07.384610  3252 net.cpp:106] Creating Layer enet1_0_relu1_0_0_split
I0417 16:59:07.384618  3252 net.cpp:454] enet1_0_relu1_0_0_split <- enet1_0
I0417 16:59:07.384630  3252 net.cpp:411] enet1_0_relu1_0_0_split -> enet1_0_relu1_0_0_split_0
I0417 16:59:07.384644  3252 net.cpp:411] enet1_0_relu1_0_0_split -> enet1_0_relu1_0_0_split_1
I0417 16:59:07.384714  3252 net.cpp:150] Setting up enet1_0_relu1_0_0_split
I0417 16:59:07.384728  3252 net.cpp:157] Top shape: 6 64 128 154 (7569408)
I0417 16:59:07.384737  3252 net.cpp:157] Top shape: 6 64 128 154 (7569408)
I0417 16:59:07.384742  3252 net.cpp:165] Memory required for data: 832634928
I0417 16:59:07.384749  3252 layer_factory.hpp:77] Creating layer enet1_1_branch2a
I0417 16:59:07.384765  3252 net.cpp:106] Creating Layer enet1_1_branch2a
I0417 16:59:07.384773  3252 net.cpp:454] enet1_1_branch2a <- enet1_0_relu1_0_0_split_0
I0417 16:59:07.384785  3252 net.cpp:411] enet1_1_branch2a -> enet1_1_branch2a
I0417 16:59:07.388854  3252 net.cpp:150] Setting up enet1_1_branch2a
I0417 16:59:07.388873  3252 net.cpp:157] Top shape: 6 16 128 154 (1892352)
I0417 16:59:07.388881  3252 net.cpp:165] Memory required for data: 840204336
I0417 16:59:07.388890  3252 layer_factory.hpp:77] Creating layer bn1_1_branch2a
I0417 16:59:07.388907  3252 net.cpp:106] Creating Layer bn1_1_branch2a
I0417 16:59:07.388916  3252 net.cpp:454] bn1_1_branch2a <- enet1_1_branch2a
I0417 16:59:07.388926  3252 net.cpp:397] bn1_1_branch2a -> enet1_1_branch2a (in-place)
I0417 16:59:07.389240  3252 net.cpp:150] Setting up bn1_1_branch2a
I0417 16:59:07.389256  3252 net.cpp:157] Top shape: 6 16 128 154 (1892352)
I0417 16:59:07.389261  3252 net.cpp:165] Memory required for data: 847773744
I0417 16:59:07.389272  3252 layer_factory.hpp:77] Creating layer relu1_1_branch2a
I0417 16:59:07.389286  3252 net.cpp:106] Creating Layer relu1_1_branch2a
I0417 16:59:07.389293  3252 net.cpp:454] relu1_1_branch2a <- enet1_1_branch2a
I0417 16:59:07.389303  3252 net.cpp:397] relu1_1_branch2a -> enet1_1_branch2a (in-place)
I0417 16:59:07.390694  3252 net.cpp:150] Setting up relu1_1_branch2a
I0417 16:59:07.390712  3252 net.cpp:157] Top shape: 6 16 128 154 (1892352)
I0417 16:59:07.390719  3252 net.cpp:165] Memory required for data: 855343152
I0417 16:59:07.390729  3252 layer_factory.hpp:77] Creating layer enet1_1_branch2b
I0417 16:59:07.390748  3252 net.cpp:106] Creating Layer enet1_1_branch2b
I0417 16:59:07.390755  3252 net.cpp:454] enet1_1_branch2b <- enet1_1_branch2a
I0417 16:59:07.390770  3252 net.cpp:411] enet1_1_branch2b -> enet1_1_branch2b
I0417 16:59:07.393774  3252 net.cpp:150] Setting up enet1_1_branch2b
I0417 16:59:07.393792  3252 net.cpp:157] Top shape: 6 16 128 154 (1892352)
I0417 16:59:07.393800  3252 net.cpp:165] Memory required for data: 862912560
I0417 16:59:07.393811  3252 layer_factory.hpp:77] Creating layer bn1_1_branch2b
I0417 16:59:07.393826  3252 net.cpp:106] Creating Layer bn1_1_branch2b
I0417 16:59:07.393834  3252 net.cpp:454] bn1_1_branch2b <- enet1_1_branch2b
I0417 16:59:07.393849  3252 net.cpp:397] bn1_1_branch2b -> enet1_1_branch2b (in-place)
I0417 16:59:07.394170  3252 net.cpp:150] Setting up bn1_1_branch2b
I0417 16:59:07.394186  3252 net.cpp:157] Top shape: 6 16 128 154 (1892352)
I0417 16:59:07.394192  3252 net.cpp:165] Memory required for data: 870481968
I0417 16:59:07.394203  3252 layer_factory.hpp:77] Creating layer relu1_1_branch2b
I0417 16:59:07.394213  3252 net.cpp:106] Creating Layer relu1_1_branch2b
I0417 16:59:07.394220  3252 net.cpp:454] relu1_1_branch2b <- enet1_1_branch2b
I0417 16:59:07.394229  3252 net.cpp:397] relu1_1_branch2b -> enet1_1_branch2b (in-place)
I0417 16:59:07.395620  3252 net.cpp:150] Setting up relu1_1_branch2b
I0417 16:59:07.395638  3252 net.cpp:157] Top shape: 6 16 128 154 (1892352)
I0417 16:59:07.395645  3252 net.cpp:165] Memory required for data: 878051376
I0417 16:59:07.395654  3252 layer_factory.hpp:77] Creating layer enet1_1_branch2c
I0417 16:59:07.395673  3252 net.cpp:106] Creating Layer enet1_1_branch2c
I0417 16:59:07.395680  3252 net.cpp:454] enet1_1_branch2c <- enet1_1_branch2b
I0417 16:59:07.395694  3252 net.cpp:411] enet1_1_branch2c -> enet1_1_branch2c
I0417 16:59:07.398799  3252 net.cpp:150] Setting up enet1_1_branch2c
I0417 16:59:07.398818  3252 net.cpp:157] Top shape: 6 64 128 154 (7569408)
I0417 16:59:07.398826  3252 net.cpp:165] Memory required for data: 908329008
I0417 16:59:07.398854  3252 layer_factory.hpp:77] Creating layer bn1_1_branch2c
I0417 16:59:07.398881  3252 net.cpp:106] Creating Layer bn1_1_branch2c
I0417 16:59:07.398890  3252 net.cpp:454] bn1_1_branch2c <- enet1_1_branch2c
I0417 16:59:07.398905  3252 net.cpp:397] bn1_1_branch2c -> enet1_1_branch2c (in-place)
I0417 16:59:07.400326  3252 net.cpp:150] Setting up bn1_1_branch2c
I0417 16:59:07.400344  3252 net.cpp:157] Top shape: 6 64 128 154 (7569408)
I0417 16:59:07.400352  3252 net.cpp:165] Memory required for data: 938606640
I0417 16:59:07.400369  3252 layer_factory.hpp:77] Creating layer dropout1_1_branch2c
I0417 16:59:07.400389  3252 net.cpp:106] Creating Layer dropout1_1_branch2c
I0417 16:59:07.400401  3252 net.cpp:454] dropout1_1_branch2c <- enet1_1_branch2c
I0417 16:59:07.400413  3252 net.cpp:397] dropout1_1_branch2c -> enet1_1_branch2c (in-place)
I0417 16:59:07.400452  3252 net.cpp:150] Setting up dropout1_1_branch2c
I0417 16:59:07.400465  3252 net.cpp:157] Top shape: 6 64 128 154 (7569408)
I0417 16:59:07.400470  3252 net.cpp:165] Memory required for data: 968884272
I0417 16:59:07.400477  3252 layer_factory.hpp:77] Creating layer enet1_1
I0417 16:59:07.400491  3252 net.cpp:106] Creating Layer enet1_1
I0417 16:59:07.400499  3252 net.cpp:454] enet1_1 <- enet1_0_relu1_0_0_split_1
I0417 16:59:07.400508  3252 net.cpp:454] enet1_1 <- enet1_1_branch2c
I0417 16:59:07.400517  3252 net.cpp:411] enet1_1 -> enet1_1
I0417 16:59:07.400559  3252 net.cpp:150] Setting up enet1_1
I0417 16:59:07.400573  3252 net.cpp:157] Top shape: 6 64 128 154 (7569408)
I0417 16:59:07.400579  3252 net.cpp:165] Memory required for data: 999161904
I0417 16:59:07.400585  3252 layer_factory.hpp:77] Creating layer relu1_1
I0417 16:59:07.400595  3252 net.cpp:106] Creating Layer relu1_1
I0417 16:59:07.400601  3252 net.cpp:454] relu1_1 <- enet1_1
I0417 16:59:07.400625  3252 net.cpp:397] relu1_1 -> enet1_1 (in-place)
I0417 16:59:07.406242  3252 net.cpp:150] Setting up relu1_1
I0417 16:59:07.406261  3252 net.cpp:157] Top shape: 6 64 128 154 (7569408)
I0417 16:59:07.406268  3252 net.cpp:165] Memory required for data: 1029439536
I0417 16:59:07.406278  3252 layer_factory.hpp:77] Creating layer enet1_1_relu1_1_0_split
I0417 16:59:07.406292  3252 net.cpp:106] Creating Layer enet1_1_relu1_1_0_split
I0417 16:59:07.406301  3252 net.cpp:454] enet1_1_relu1_1_0_split <- enet1_1
I0417 16:59:07.406313  3252 net.cpp:411] enet1_1_relu1_1_0_split -> enet1_1_relu1_1_0_split_0
I0417 16:59:07.406327  3252 net.cpp:411] enet1_1_relu1_1_0_split -> enet1_1_relu1_1_0_split_1
I0417 16:59:07.406381  3252 net.cpp:150] Setting up enet1_1_relu1_1_0_split
I0417 16:59:07.406394  3252 net.cpp:157] Top shape: 6 64 128 154 (7569408)
I0417 16:59:07.406402  3252 net.cpp:157] Top shape: 6 64 128 154 (7569408)
I0417 16:59:07.406409  3252 net.cpp:165] Memory required for data: 1089994800
I0417 16:59:07.406415  3252 layer_factory.hpp:77] Creating layer enet1_2_branch2a
I0417 16:59:07.406428  3252 net.cpp:106] Creating Layer enet1_2_branch2a
I0417 16:59:07.406436  3252 net.cpp:454] enet1_2_branch2a <- enet1_1_relu1_1_0_split_0
I0417 16:59:07.406450  3252 net.cpp:411] enet1_2_branch2a -> enet1_2_branch2a
I0417 16:59:07.409844  3252 net.cpp:150] Setting up enet1_2_branch2a
I0417 16:59:07.409868  3252 net.cpp:157] Top shape: 6 16 128 154 (1892352)
I0417 16:59:07.409875  3252 net.cpp:165] Memory required for data: 1097564208
I0417 16:59:07.409885  3252 layer_factory.hpp:77] Creating layer bn1_2_branch2a
I0417 16:59:07.409898  3252 net.cpp:106] Creating Layer bn1_2_branch2a
I0417 16:59:07.409905  3252 net.cpp:454] bn1_2_branch2a <- enet1_2_branch2a
I0417 16:59:07.409919  3252 net.cpp:397] bn1_2_branch2a -> enet1_2_branch2a (in-place)
I0417 16:59:07.410248  3252 net.cpp:150] Setting up bn1_2_branch2a
I0417 16:59:07.410262  3252 net.cpp:157] Top shape: 6 16 128 154 (1892352)
I0417 16:59:07.410269  3252 net.cpp:165] Memory required for data: 1105133616
I0417 16:59:07.410279  3252 layer_factory.hpp:77] Creating layer relu1_2_branch2a
I0417 16:59:07.410290  3252 net.cpp:106] Creating Layer relu1_2_branch2a
I0417 16:59:07.410306  3252 net.cpp:454] relu1_2_branch2a <- enet1_2_branch2a
I0417 16:59:07.410327  3252 net.cpp:397] relu1_2_branch2a -> enet1_2_branch2a (in-place)
I0417 16:59:07.411736  3252 net.cpp:150] Setting up relu1_2_branch2a
I0417 16:59:07.411753  3252 net.cpp:157] Top shape: 6 16 128 154 (1892352)
I0417 16:59:07.411761  3252 net.cpp:165] Memory required for data: 1112703024
I0417 16:59:07.411769  3252 layer_factory.hpp:77] Creating layer enet1_2_branch2b
I0417 16:59:07.411793  3252 net.cpp:106] Creating Layer enet1_2_branch2b
I0417 16:59:07.411801  3252 net.cpp:454] enet1_2_branch2b <- enet1_2_branch2a
I0417 16:59:07.411813  3252 net.cpp:411] enet1_2_branch2b -> enet1_2_branch2b
I0417 16:59:07.414865  3252 net.cpp:150] Setting up enet1_2_branch2b
I0417 16:59:07.414885  3252 net.cpp:157] Top shape: 6 16 128 154 (1892352)
I0417 16:59:07.414893  3252 net.cpp:165] Memory required for data: 1120272432
I0417 16:59:07.414904  3252 layer_factory.hpp:77] Creating layer bn1_2_branch2b
I0417 16:59:07.414916  3252 net.cpp:106] Creating Layer bn1_2_branch2b
I0417 16:59:07.414924  3252 net.cpp:454] bn1_2_branch2b <- enet1_2_branch2b
I0417 16:59:07.414937  3252 net.cpp:397] bn1_2_branch2b -> enet1_2_branch2b (in-place)
I0417 16:59:07.415271  3252 net.cpp:150] Setting up bn1_2_branch2b
I0417 16:59:07.415287  3252 net.cpp:157] Top shape: 6 16 128 154 (1892352)
I0417 16:59:07.415293  3252 net.cpp:165] Memory required for data: 1127841840
I0417 16:59:07.415303  3252 layer_factory.hpp:77] Creating layer relu1_2_branch2b
I0417 16:59:07.415318  3252 net.cpp:106] Creating Layer relu1_2_branch2b
I0417 16:59:07.415324  3252 net.cpp:454] relu1_2_branch2b <- enet1_2_branch2b
I0417 16:59:07.415334  3252 net.cpp:397] relu1_2_branch2b -> enet1_2_branch2b (in-place)
I0417 16:59:07.416743  3252 net.cpp:150] Setting up relu1_2_branch2b
I0417 16:59:07.416760  3252 net.cpp:157] Top shape: 6 16 128 154 (1892352)
I0417 16:59:07.416767  3252 net.cpp:165] Memory required for data: 1135411248
I0417 16:59:07.416777  3252 layer_factory.hpp:77] Creating layer enet1_2_branch2c
I0417 16:59:07.416796  3252 net.cpp:106] Creating Layer enet1_2_branch2c
I0417 16:59:07.416805  3252 net.cpp:454] enet1_2_branch2c <- enet1_2_branch2b
I0417 16:59:07.416816  3252 net.cpp:411] enet1_2_branch2c -> enet1_2_branch2c
I0417 16:59:07.420164  3252 net.cpp:150] Setting up enet1_2_branch2c
I0417 16:59:07.420183  3252 net.cpp:157] Top shape: 6 64 128 154 (7569408)
I0417 16:59:07.420192  3252 net.cpp:165] Memory required for data: 1165688880
I0417 16:59:07.420202  3252 layer_factory.hpp:77] Creating layer bn1_2_branch2c
I0417 16:59:07.420217  3252 net.cpp:106] Creating Layer bn1_2_branch2c
I0417 16:59:07.420225  3252 net.cpp:454] bn1_2_branch2c <- enet1_2_branch2c
I0417 16:59:07.420239  3252 net.cpp:397] bn1_2_branch2c -> enet1_2_branch2c (in-place)
I0417 16:59:07.420568  3252 net.cpp:150] Setting up bn1_2_branch2c
I0417 16:59:07.420583  3252 net.cpp:157] Top shape: 6 64 128 154 (7569408)
I0417 16:59:07.420589  3252 net.cpp:165] Memory required for data: 1195966512
I0417 16:59:07.420600  3252 layer_factory.hpp:77] Creating layer dropout1_2_branch2c
I0417 16:59:07.420610  3252 net.cpp:106] Creating Layer dropout1_2_branch2c
I0417 16:59:07.420617  3252 net.cpp:454] dropout1_2_branch2c <- enet1_2_branch2c
I0417 16:59:07.420627  3252 net.cpp:397] dropout1_2_branch2c -> enet1_2_branch2c (in-place)
I0417 16:59:07.420666  3252 net.cpp:150] Setting up dropout1_2_branch2c
I0417 16:59:07.420678  3252 net.cpp:157] Top shape: 6 64 128 154 (7569408)
I0417 16:59:07.420686  3252 net.cpp:165] Memory required for data: 1226244144
I0417 16:59:07.420691  3252 layer_factory.hpp:77] Creating layer enet1_2
I0417 16:59:07.420706  3252 net.cpp:106] Creating Layer enet1_2
I0417 16:59:07.420713  3252 net.cpp:454] enet1_2 <- enet1_1_relu1_1_0_split_1
I0417 16:59:07.420722  3252 net.cpp:454] enet1_2 <- enet1_2_branch2c
I0417 16:59:07.420732  3252 net.cpp:411] enet1_2 -> enet1_2
I0417 16:59:07.420773  3252 net.cpp:150] Setting up enet1_2
I0417 16:59:07.420786  3252 net.cpp:157] Top shape: 6 64 128 154 (7569408)
I0417 16:59:07.420809  3252 net.cpp:165] Memory required for data: 1256521776
I0417 16:59:07.420816  3252 layer_factory.hpp:77] Creating layer relu1_2
I0417 16:59:07.420828  3252 net.cpp:106] Creating Layer relu1_2
I0417 16:59:07.420836  3252 net.cpp:454] relu1_2 <- enet1_2
I0417 16:59:07.420845  3252 net.cpp:397] relu1_2 -> enet1_2 (in-place)
I0417 16:59:07.426882  3252 net.cpp:150] Setting up relu1_2
I0417 16:59:07.426903  3252 net.cpp:157] Top shape: 6 64 128 154 (7569408)
I0417 16:59:07.426909  3252 net.cpp:165] Memory required for data: 1286799408
I0417 16:59:07.426919  3252 layer_factory.hpp:77] Creating layer enet1_2_relu1_2_0_split
I0417 16:59:07.426930  3252 net.cpp:106] Creating Layer enet1_2_relu1_2_0_split
I0417 16:59:07.426936  3252 net.cpp:454] enet1_2_relu1_2_0_split <- enet1_2
I0417 16:59:07.426950  3252 net.cpp:411] enet1_2_relu1_2_0_split -> enet1_2_relu1_2_0_split_0
I0417 16:59:07.426964  3252 net.cpp:411] enet1_2_relu1_2_0_split -> enet1_2_relu1_2_0_split_1
I0417 16:59:07.427031  3252 net.cpp:150] Setting up enet1_2_relu1_2_0_split
I0417 16:59:07.427043  3252 net.cpp:157] Top shape: 6 64 128 154 (7569408)
I0417 16:59:07.427057  3252 net.cpp:157] Top shape: 6 64 128 154 (7569408)
I0417 16:59:07.427063  3252 net.cpp:165] Memory required for data: 1347354672
I0417 16:59:07.427070  3252 layer_factory.hpp:77] Creating layer enet1_3_branch2a
I0417 16:59:07.427088  3252 net.cpp:106] Creating Layer enet1_3_branch2a
I0417 16:59:07.427095  3252 net.cpp:454] enet1_3_branch2a <- enet1_2_relu1_2_0_split_0
I0417 16:59:07.427106  3252 net.cpp:411] enet1_3_branch2a -> enet1_3_branch2a
I0417 16:59:07.430697  3252 net.cpp:150] Setting up enet1_3_branch2a
I0417 16:59:07.430718  3252 net.cpp:157] Top shape: 6 16 128 154 (1892352)
I0417 16:59:07.430727  3252 net.cpp:165] Memory required for data: 1354924080
I0417 16:59:07.430737  3252 layer_factory.hpp:77] Creating layer bn1_3_branch2a
I0417 16:59:07.430749  3252 net.cpp:106] Creating Layer bn1_3_branch2a
I0417 16:59:07.430757  3252 net.cpp:454] bn1_3_branch2a <- enet1_3_branch2a
I0417 16:59:07.430770  3252 net.cpp:397] bn1_3_branch2a -> enet1_3_branch2a (in-place)
I0417 16:59:07.431121  3252 net.cpp:150] Setting up bn1_3_branch2a
I0417 16:59:07.431136  3252 net.cpp:157] Top shape: 6 16 128 154 (1892352)
I0417 16:59:07.431143  3252 net.cpp:165] Memory required for data: 1362493488
I0417 16:59:07.431154  3252 layer_factory.hpp:77] Creating layer relu1_3_branch2a
I0417 16:59:07.431164  3252 net.cpp:106] Creating Layer relu1_3_branch2a
I0417 16:59:07.431171  3252 net.cpp:454] relu1_3_branch2a <- enet1_3_branch2a
I0417 16:59:07.431185  3252 net.cpp:397] relu1_3_branch2a -> enet1_3_branch2a (in-place)
I0417 16:59:07.432606  3252 net.cpp:150] Setting up relu1_3_branch2a
I0417 16:59:07.432624  3252 net.cpp:157] Top shape: 6 16 128 154 (1892352)
I0417 16:59:07.432631  3252 net.cpp:165] Memory required for data: 1370062896
I0417 16:59:07.432641  3252 layer_factory.hpp:77] Creating layer enet1_3_branch2b
I0417 16:59:07.432660  3252 net.cpp:106] Creating Layer enet1_3_branch2b
I0417 16:59:07.432669  3252 net.cpp:454] enet1_3_branch2b <- enet1_3_branch2a
I0417 16:59:07.432680  3252 net.cpp:411] enet1_3_branch2b -> enet1_3_branch2b
I0417 16:59:07.435923  3252 net.cpp:150] Setting up enet1_3_branch2b
I0417 16:59:07.435942  3252 net.cpp:157] Top shape: 6 16 128 154 (1892352)
I0417 16:59:07.435950  3252 net.cpp:165] Memory required for data: 1377632304
I0417 16:59:07.435961  3252 layer_factory.hpp:77] Creating layer bn1_3_branch2b
I0417 16:59:07.435981  3252 net.cpp:106] Creating Layer bn1_3_branch2b
I0417 16:59:07.435992  3252 net.cpp:454] bn1_3_branch2b <- enet1_3_branch2b
I0417 16:59:07.436002  3252 net.cpp:397] bn1_3_branch2b -> enet1_3_branch2b (in-place)
I0417 16:59:07.436357  3252 net.cpp:150] Setting up bn1_3_branch2b
I0417 16:59:07.436372  3252 net.cpp:157] Top shape: 6 16 128 154 (1892352)
I0417 16:59:07.436378  3252 net.cpp:165] Memory required for data: 1385201712
I0417 16:59:07.436389  3252 layer_factory.hpp:77] Creating layer relu1_3_branch2b
I0417 16:59:07.436408  3252 net.cpp:106] Creating Layer relu1_3_branch2b
I0417 16:59:07.436426  3252 net.cpp:454] relu1_3_branch2b <- enet1_3_branch2b
I0417 16:59:07.436437  3252 net.cpp:397] relu1_3_branch2b -> enet1_3_branch2b (in-place)
I0417 16:59:07.437851  3252 net.cpp:150] Setting up relu1_3_branch2b
I0417 16:59:07.437870  3252 net.cpp:157] Top shape: 6 16 128 154 (1892352)
I0417 16:59:07.437876  3252 net.cpp:165] Memory required for data: 1392771120
I0417 16:59:07.437885  3252 layer_factory.hpp:77] Creating layer enet1_3_branch2c
I0417 16:59:07.437903  3252 net.cpp:106] Creating Layer enet1_3_branch2c
I0417 16:59:07.437911  3252 net.cpp:454] enet1_3_branch2c <- enet1_3_branch2b
I0417 16:59:07.437927  3252 net.cpp:411] enet1_3_branch2c -> enet1_3_branch2c
I0417 16:59:07.441077  3252 net.cpp:150] Setting up enet1_3_branch2c
I0417 16:59:07.441095  3252 net.cpp:157] Top shape: 6 64 128 154 (7569408)
I0417 16:59:07.441103  3252 net.cpp:165] Memory required for data: 1423048752
I0417 16:59:07.441113  3252 layer_factory.hpp:77] Creating layer bn1_3_branch2c
I0417 16:59:07.441128  3252 net.cpp:106] Creating Layer bn1_3_branch2c
I0417 16:59:07.441138  3252 net.cpp:454] bn1_3_branch2c <- enet1_3_branch2c
I0417 16:59:07.441151  3252 net.cpp:397] bn1_3_branch2c -> enet1_3_branch2c (in-place)
I0417 16:59:07.442407  3252 net.cpp:150] Setting up bn1_3_branch2c
I0417 16:59:07.442425  3252 net.cpp:157] Top shape: 6 64 128 154 (7569408)
I0417 16:59:07.442432  3252 net.cpp:165] Memory required for data: 1453326384
I0417 16:59:07.442443  3252 layer_factory.hpp:77] Creating layer dropout1_3_branch2c
I0417 16:59:07.442456  3252 net.cpp:106] Creating Layer dropout1_3_branch2c
I0417 16:59:07.442462  3252 net.cpp:454] dropout1_3_branch2c <- enet1_3_branch2c
I0417 16:59:07.442472  3252 net.cpp:397] dropout1_3_branch2c -> enet1_3_branch2c (in-place)
I0417 16:59:07.442518  3252 net.cpp:150] Setting up dropout1_3_branch2c
I0417 16:59:07.442531  3252 net.cpp:157] Top shape: 6 64 128 154 (7569408)
I0417 16:59:07.442538  3252 net.cpp:165] Memory required for data: 1483604016
I0417 16:59:07.442545  3252 layer_factory.hpp:77] Creating layer enet1_3
I0417 16:59:07.442555  3252 net.cpp:106] Creating Layer enet1_3
I0417 16:59:07.442567  3252 net.cpp:454] enet1_3 <- enet1_2_relu1_2_0_split_1
I0417 16:59:07.442576  3252 net.cpp:454] enet1_3 <- enet1_3_branch2c
I0417 16:59:07.442585  3252 net.cpp:411] enet1_3 -> enet1_3
I0417 16:59:07.442625  3252 net.cpp:150] Setting up enet1_3
I0417 16:59:07.442638  3252 net.cpp:157] Top shape: 6 64 128 154 (7569408)
I0417 16:59:07.442644  3252 net.cpp:165] Memory required for data: 1513881648
I0417 16:59:07.442651  3252 layer_factory.hpp:77] Creating layer relu1_3
I0417 16:59:07.442664  3252 net.cpp:106] Creating Layer relu1_3
I0417 16:59:07.442672  3252 net.cpp:454] relu1_3 <- enet1_3
I0417 16:59:07.442685  3252 net.cpp:397] relu1_3 -> enet1_3 (in-place)
I0417 16:59:07.469939  3252 net.cpp:150] Setting up relu1_3
I0417 16:59:07.469959  3252 net.cpp:157] Top shape: 6 64 128 154 (7569408)
I0417 16:59:07.469966  3252 net.cpp:165] Memory required for data: 1544159280
I0417 16:59:07.469976  3252 layer_factory.hpp:77] Creating layer enet1_3_relu1_3_0_split
I0417 16:59:07.469990  3252 net.cpp:106] Creating Layer enet1_3_relu1_3_0_split
I0417 16:59:07.469998  3252 net.cpp:454] enet1_3_relu1_3_0_split <- enet1_3
I0417 16:59:07.470008  3252 net.cpp:411] enet1_3_relu1_3_0_split -> enet1_3_relu1_3_0_split_0
I0417 16:59:07.470021  3252 net.cpp:411] enet1_3_relu1_3_0_split -> enet1_3_relu1_3_0_split_1
I0417 16:59:07.470093  3252 net.cpp:150] Setting up enet1_3_relu1_3_0_split
I0417 16:59:07.470106  3252 net.cpp:157] Top shape: 6 64 128 154 (7569408)
I0417 16:59:07.470114  3252 net.cpp:157] Top shape: 6 64 128 154 (7569408)
I0417 16:59:07.470120  3252 net.cpp:165] Memory required for data: 1604714544
I0417 16:59:07.470127  3252 layer_factory.hpp:77] Creating layer enet1_4_branch2a
I0417 16:59:07.470146  3252 net.cpp:106] Creating Layer enet1_4_branch2a
I0417 16:59:07.470155  3252 net.cpp:454] enet1_4_branch2a <- enet1_3_relu1_3_0_split_0
I0417 16:59:07.470177  3252 net.cpp:411] enet1_4_branch2a -> enet1_4_branch2a
I0417 16:59:07.473912  3252 net.cpp:150] Setting up enet1_4_branch2a
I0417 16:59:07.473932  3252 net.cpp:157] Top shape: 6 16 128 154 (1892352)
I0417 16:59:07.473938  3252 net.cpp:165] Memory required for data: 1612283952
I0417 16:59:07.473948  3252 layer_factory.hpp:77] Creating layer bn1_4_branch2a
I0417 16:59:07.473964  3252 net.cpp:106] Creating Layer bn1_4_branch2a
I0417 16:59:07.473973  3252 net.cpp:454] bn1_4_branch2a <- enet1_4_branch2a
I0417 16:59:07.473986  3252 net.cpp:397] bn1_4_branch2a -> enet1_4_branch2a (in-place)
I0417 16:59:07.474349  3252 net.cpp:150] Setting up bn1_4_branch2a
I0417 16:59:07.474364  3252 net.cpp:157] Top shape: 6 16 128 154 (1892352)
I0417 16:59:07.474371  3252 net.cpp:165] Memory required for data: 1619853360
I0417 16:59:07.474382  3252 layer_factory.hpp:77] Creating layer relu1_4_branch2a
I0417 16:59:07.474397  3252 net.cpp:106] Creating Layer relu1_4_branch2a
I0417 16:59:07.474406  3252 net.cpp:454] relu1_4_branch2a <- enet1_4_branch2a
I0417 16:59:07.474416  3252 net.cpp:397] relu1_4_branch2a -> enet1_4_branch2a (in-place)
I0417 16:59:07.477952  3252 net.cpp:150] Setting up relu1_4_branch2a
I0417 16:59:07.477975  3252 net.cpp:157] Top shape: 6 16 128 154 (1892352)
I0417 16:59:07.477982  3252 net.cpp:165] Memory required for data: 1627422768
I0417 16:59:07.477993  3252 layer_factory.hpp:77] Creating layer enet1_4_branch2b
I0417 16:59:07.478013  3252 net.cpp:106] Creating Layer enet1_4_branch2b
I0417 16:59:07.478022  3252 net.cpp:454] enet1_4_branch2b <- enet1_4_branch2a
I0417 16:59:07.478037  3252 net.cpp:411] enet1_4_branch2b -> enet1_4_branch2b
I0417 16:59:07.482059  3252 net.cpp:150] Setting up enet1_4_branch2b
I0417 16:59:07.482079  3252 net.cpp:157] Top shape: 6 16 128 154 (1892352)
I0417 16:59:07.482086  3252 net.cpp:165] Memory required for data: 1634992176
I0417 16:59:07.482118  3252 layer_factory.hpp:77] Creating layer bn1_4_branch2b
I0417 16:59:07.482146  3252 net.cpp:106] Creating Layer bn1_4_branch2b
I0417 16:59:07.482154  3252 net.cpp:454] bn1_4_branch2b <- enet1_4_branch2b
I0417 16:59:07.482172  3252 net.cpp:397] bn1_4_branch2b -> enet1_4_branch2b (in-place)
I0417 16:59:07.482537  3252 net.cpp:150] Setting up bn1_4_branch2b
I0417 16:59:07.482553  3252 net.cpp:157] Top shape: 6 16 128 154 (1892352)
I0417 16:59:07.482559  3252 net.cpp:165] Memory required for data: 1642561584
I0417 16:59:07.482570  3252 layer_factory.hpp:77] Creating layer relu1_4_branch2b
I0417 16:59:07.482581  3252 net.cpp:106] Creating Layer relu1_4_branch2b
I0417 16:59:07.482589  3252 net.cpp:454] relu1_4_branch2b <- enet1_4_branch2b
I0417 16:59:07.482600  3252 net.cpp:397] relu1_4_branch2b -> enet1_4_branch2b (in-place)
I0417 16:59:07.484038  3252 net.cpp:150] Setting up relu1_4_branch2b
I0417 16:59:07.484061  3252 net.cpp:157] Top shape: 6 16 128 154 (1892352)
I0417 16:59:07.484068  3252 net.cpp:165] Memory required for data: 1650130992
I0417 16:59:07.484077  3252 layer_factory.hpp:77] Creating layer enet1_4_branch2c
I0417 16:59:07.484097  3252 net.cpp:106] Creating Layer enet1_4_branch2c
I0417 16:59:07.484107  3252 net.cpp:454] enet1_4_branch2c <- enet1_4_branch2b
I0417 16:59:07.484118  3252 net.cpp:411] enet1_4_branch2c -> enet1_4_branch2c
I0417 16:59:07.487195  3252 net.cpp:150] Setting up enet1_4_branch2c
I0417 16:59:07.487215  3252 net.cpp:157] Top shape: 6 64 128 154 (7569408)
I0417 16:59:07.487221  3252 net.cpp:165] Memory required for data: 1680408624
I0417 16:59:07.487231  3252 layer_factory.hpp:77] Creating layer bn1_4_branch2c
I0417 16:59:07.487247  3252 net.cpp:106] Creating Layer bn1_4_branch2c
I0417 16:59:07.487257  3252 net.cpp:454] bn1_4_branch2c <- enet1_4_branch2c
I0417 16:59:07.487269  3252 net.cpp:397] bn1_4_branch2c -> enet1_4_branch2c (in-place)
I0417 16:59:07.487646  3252 net.cpp:150] Setting up bn1_4_branch2c
I0417 16:59:07.487661  3252 net.cpp:157] Top shape: 6 64 128 154 (7569408)
I0417 16:59:07.487668  3252 net.cpp:165] Memory required for data: 1710686256
I0417 16:59:07.487679  3252 layer_factory.hpp:77] Creating layer dropout1_4_branch2c
I0417 16:59:07.487705  3252 net.cpp:106] Creating Layer dropout1_4_branch2c
I0417 16:59:07.487715  3252 net.cpp:454] dropout1_4_branch2c <- enet1_4_branch2c
I0417 16:59:07.487725  3252 net.cpp:397] dropout1_4_branch2c -> enet1_4_branch2c (in-place)
I0417 16:59:07.487768  3252 net.cpp:150] Setting up dropout1_4_branch2c
I0417 16:59:07.487782  3252 net.cpp:157] Top shape: 6 64 128 154 (7569408)
I0417 16:59:07.487787  3252 net.cpp:165] Memory required for data: 1740963888
I0417 16:59:07.487794  3252 layer_factory.hpp:77] Creating layer enet1_4
I0417 16:59:07.487807  3252 net.cpp:106] Creating Layer enet1_4
I0417 16:59:07.487815  3252 net.cpp:454] enet1_4 <- enet1_3_relu1_3_0_split_1
I0417 16:59:07.487824  3252 net.cpp:454] enet1_4 <- enet1_4_branch2c
I0417 16:59:07.487833  3252 net.cpp:411] enet1_4 -> enet1_4
I0417 16:59:07.487880  3252 net.cpp:150] Setting up enet1_4
I0417 16:59:07.487893  3252 net.cpp:157] Top shape: 6 64 128 154 (7569408)
I0417 16:59:07.487900  3252 net.cpp:165] Memory required for data: 1771241520
I0417 16:59:07.487906  3252 layer_factory.hpp:77] Creating layer relu1_4
I0417 16:59:07.487915  3252 net.cpp:106] Creating Layer relu1_4
I0417 16:59:07.487922  3252 net.cpp:454] relu1_4 <- enet1_4
I0417 16:59:07.487934  3252 net.cpp:397] relu1_4 -> enet1_4 (in-place)
I0417 16:59:07.493172  3252 net.cpp:150] Setting up relu1_4
I0417 16:59:07.493193  3252 net.cpp:157] Top shape: 6 64 128 154 (7569408)
I0417 16:59:07.493201  3252 net.cpp:165] Memory required for data: 1801519152
I0417 16:59:07.493211  3252 layer_factory.hpp:77] Creating layer enet1_4_relu1_4_0_split
I0417 16:59:07.493227  3252 net.cpp:106] Creating Layer enet1_4_relu1_4_0_split
I0417 16:59:07.493234  3252 net.cpp:454] enet1_4_relu1_4_0_split <- enet1_4
I0417 16:59:07.493248  3252 net.cpp:411] enet1_4_relu1_4_0_split -> enet1_4_relu1_4_0_split_0
I0417 16:59:07.493263  3252 net.cpp:411] enet1_4_relu1_4_0_split -> enet1_4_relu1_4_0_split_1
I0417 16:59:07.493330  3252 net.cpp:150] Setting up enet1_4_relu1_4_0_split
I0417 16:59:07.493343  3252 net.cpp:157] Top shape: 6 64 128 154 (7569408)
I0417 16:59:07.493351  3252 net.cpp:157] Top shape: 6 64 128 154 (7569408)
I0417 16:59:07.493357  3252 net.cpp:165] Memory required for data: 1862074416
I0417 16:59:07.493365  3252 layer_factory.hpp:77] Creating layer enet2_0_branch2a
I0417 16:59:07.493377  3252 net.cpp:106] Creating Layer enet2_0_branch2a
I0417 16:59:07.493386  3252 net.cpp:454] enet2_0_branch2a <- enet1_4_relu1_4_0_split_0
I0417 16:59:07.493399  3252 net.cpp:411] enet2_0_branch2a -> enet2_0_branch2a
I0417 16:59:07.497947  3252 net.cpp:150] Setting up enet2_0_branch2a
I0417 16:59:07.497967  3252 net.cpp:157] Top shape: 6 32 64 77 (946176)
I0417 16:59:07.497974  3252 net.cpp:165] Memory required for data: 1865859120
I0417 16:59:07.497984  3252 layer_factory.hpp:77] Creating layer bn2_0_branch2a
I0417 16:59:07.497999  3252 net.cpp:106] Creating Layer bn2_0_branch2a
I0417 16:59:07.498008  3252 net.cpp:454] bn2_0_branch2a <- enet2_0_branch2a
I0417 16:59:07.498018  3252 net.cpp:397] bn2_0_branch2a -> enet2_0_branch2a (in-place)
I0417 16:59:07.498379  3252 net.cpp:150] Setting up bn2_0_branch2a
I0417 16:59:07.498394  3252 net.cpp:157] Top shape: 6 32 64 77 (946176)
I0417 16:59:07.498401  3252 net.cpp:165] Memory required for data: 1869643824
I0417 16:59:07.498412  3252 layer_factory.hpp:77] Creating layer relu2_0_branch2a
I0417 16:59:07.498422  3252 net.cpp:106] Creating Layer relu2_0_branch2a
I0417 16:59:07.498430  3252 net.cpp:454] relu2_0_branch2a <- enet2_0_branch2a
I0417 16:59:07.498441  3252 net.cpp:397] relu2_0_branch2a -> enet2_0_branch2a (in-place)
I0417 16:59:07.499603  3252 net.cpp:150] Setting up relu2_0_branch2a
I0417 16:59:07.499621  3252 net.cpp:157] Top shape: 6 32 64 77 (946176)
I0417 16:59:07.499629  3252 net.cpp:165] Memory required for data: 1873428528
I0417 16:59:07.499637  3252 layer_factory.hpp:77] Creating layer enet2_0_branch2b
I0417 16:59:07.499657  3252 net.cpp:106] Creating Layer enet2_0_branch2b
I0417 16:59:07.499675  3252 net.cpp:454] enet2_0_branch2b <- enet2_0_branch2a
I0417 16:59:07.499696  3252 net.cpp:411] enet2_0_branch2b -> enet2_0_branch2b
I0417 16:59:07.503816  3252 net.cpp:150] Setting up enet2_0_branch2b
I0417 16:59:07.503835  3252 net.cpp:157] Top shape: 6 32 64 77 (946176)
I0417 16:59:07.503844  3252 net.cpp:165] Memory required for data: 1877213232
I0417 16:59:07.503855  3252 layer_factory.hpp:77] Creating layer bn2_0_branch2b
I0417 16:59:07.503873  3252 net.cpp:106] Creating Layer bn2_0_branch2b
I0417 16:59:07.503881  3252 net.cpp:454] bn2_0_branch2b <- enet2_0_branch2b
I0417 16:59:07.503892  3252 net.cpp:397] bn2_0_branch2b -> enet2_0_branch2b (in-place)
I0417 16:59:07.504267  3252 net.cpp:150] Setting up bn2_0_branch2b
I0417 16:59:07.504282  3252 net.cpp:157] Top shape: 6 32 64 77 (946176)
I0417 16:59:07.504289  3252 net.cpp:165] Memory required for data: 1880997936
I0417 16:59:07.504300  3252 layer_factory.hpp:77] Creating layer relu2_0_branch2b
I0417 16:59:07.504310  3252 net.cpp:106] Creating Layer relu2_0_branch2b
I0417 16:59:07.504317  3252 net.cpp:454] relu2_0_branch2b <- enet2_0_branch2b
I0417 16:59:07.504329  3252 net.cpp:397] relu2_0_branch2b -> enet2_0_branch2b (in-place)
I0417 16:59:07.505522  3252 net.cpp:150] Setting up relu2_0_branch2b
I0417 16:59:07.505540  3252 net.cpp:157] Top shape: 6 32 64 77 (946176)
I0417 16:59:07.505548  3252 net.cpp:165] Memory required for data: 1884782640
I0417 16:59:07.505556  3252 layer_factory.hpp:77] Creating layer enet2_0_branch2c
I0417 16:59:07.505576  3252 net.cpp:106] Creating Layer enet2_0_branch2c
I0417 16:59:07.505585  3252 net.cpp:454] enet2_0_branch2c <- enet2_0_branch2b
I0417 16:59:07.505596  3252 net.cpp:411] enet2_0_branch2c -> enet2_0_branch2c
I0417 16:59:07.508821  3252 net.cpp:150] Setting up enet2_0_branch2c
I0417 16:59:07.508841  3252 net.cpp:157] Top shape: 6 128 64 77 (3784704)
I0417 16:59:07.508847  3252 net.cpp:165] Memory required for data: 1899921456
I0417 16:59:07.508857  3252 layer_factory.hpp:77] Creating layer bn2_0_branch2c
I0417 16:59:07.508875  3252 net.cpp:106] Creating Layer bn2_0_branch2c
I0417 16:59:07.508883  3252 net.cpp:454] bn2_0_branch2c <- enet2_0_branch2c
I0417 16:59:07.508898  3252 net.cpp:397] bn2_0_branch2c -> enet2_0_branch2c (in-place)
I0417 16:59:07.509268  3252 net.cpp:150] Setting up bn2_0_branch2c
I0417 16:59:07.509284  3252 net.cpp:157] Top shape: 6 128 64 77 (3784704)
I0417 16:59:07.509290  3252 net.cpp:165] Memory required for data: 1915060272
I0417 16:59:07.509300  3252 layer_factory.hpp:77] Creating layer dropout2_0_branch2c
I0417 16:59:07.509311  3252 net.cpp:106] Creating Layer dropout2_0_branch2c
I0417 16:59:07.509318  3252 net.cpp:454] dropout2_0_branch2c <- enet2_0_branch2c
I0417 16:59:07.509328  3252 net.cpp:397] dropout2_0_branch2c -> enet2_0_branch2c (in-place)
I0417 16:59:07.509374  3252 net.cpp:150] Setting up dropout2_0_branch2c
I0417 16:59:07.509387  3252 net.cpp:157] Top shape: 6 128 64 77 (3784704)
I0417 16:59:07.509394  3252 net.cpp:165] Memory required for data: 1930199088
I0417 16:59:07.509400  3252 layer_factory.hpp:77] Creating layer enet2_0_branch1a
I0417 16:59:07.509420  3252 net.cpp:106] Creating Layer enet2_0_branch1a
I0417 16:59:07.509428  3252 net.cpp:454] enet2_0_branch1a <- enet1_4_relu1_4_0_split_1
I0417 16:59:07.509440  3252 net.cpp:411] enet2_0_branch1a -> enet2_0_branch1a
I0417 16:59:07.513193  3252 net.cpp:150] Setting up enet2_0_branch1a
I0417 16:59:07.513213  3252 net.cpp:157] Top shape: 6 128 128 154 (15138816)
I0417 16:59:07.513221  3252 net.cpp:165] Memory required for data: 1990754352
I0417 16:59:07.513231  3252 layer_factory.hpp:77] Creating layer bn2_0_branch1a
I0417 16:59:07.513252  3252 net.cpp:106] Creating Layer bn2_0_branch1a
I0417 16:59:07.513260  3252 net.cpp:454] bn2_0_branch1a <- enet2_0_branch1a
I0417 16:59:07.513272  3252 net.cpp:397] bn2_0_branch1a -> enet2_0_branch1a (in-place)
I0417 16:59:07.513670  3252 net.cpp:150] Setting up bn2_0_branch1a
I0417 16:59:07.513685  3252 net.cpp:157] Top shape: 6 128 128 154 (15138816)
I0417 16:59:07.513691  3252 net.cpp:165] Memory required for data: 2051309616
I0417 16:59:07.513710  3252 layer_factory.hpp:77] Creating layer pool2_0_branch1a
I0417 16:59:07.513727  3252 layer_factory.cpp:91] cuDNN does not support multiple tops. Using Caffe's own pooling layer.
I0417 16:59:07.513738  3252 net.cpp:106] Creating Layer pool2_0_branch1a
I0417 16:59:07.513746  3252 net.cpp:454] pool2_0_branch1a <- enet2_0_branch1a
I0417 16:59:07.513756  3252 net.cpp:411] pool2_0_branch1a -> pool2_0_branch1a
I0417 16:59:07.513769  3252 net.cpp:411] pool2_0_branch1a -> pool2_0_branch1a_mask
I0417 16:59:07.513844  3252 net.cpp:150] Setting up pool2_0_branch1a
I0417 16:59:07.513861  3252 net.cpp:157] Top shape: 6 128 64 77 (3784704)
I0417 16:59:07.513870  3252 net.cpp:157] Top shape: 6 128 64 77 (3784704)
I0417 16:59:07.513876  3252 net.cpp:165] Memory required for data: 2081587248
I0417 16:59:07.513883  3252 layer_factory.hpp:77] Creating layer enet2_0
I0417 16:59:07.513893  3252 net.cpp:106] Creating Layer enet2_0
I0417 16:59:07.513900  3252 net.cpp:454] enet2_0 <- pool2_0_branch1a
I0417 16:59:07.513908  3252 net.cpp:454] enet2_0 <- enet2_0_branch2c
I0417 16:59:07.513917  3252 net.cpp:411] enet2_0 -> enet2_0
I0417 16:59:07.513967  3252 net.cpp:150] Setting up enet2_0
I0417 16:59:07.513979  3252 net.cpp:157] Top shape: 6 128 64 77 (3784704)
I0417 16:59:07.513985  3252 net.cpp:165] Memory required for data: 2096726064
I0417 16:59:07.513993  3252 layer_factory.hpp:77] Creating layer relu2_0
I0417 16:59:07.514005  3252 net.cpp:106] Creating Layer relu2_0
I0417 16:59:07.514012  3252 net.cpp:454] relu2_0 <- enet2_0
I0417 16:59:07.514021  3252 net.cpp:397] relu2_0 -> enet2_0 (in-place)
I0417 16:59:07.517344  3252 net.cpp:150] Setting up relu2_0
I0417 16:59:07.517364  3252 net.cpp:157] Top shape: 6 128 64 77 (3784704)
I0417 16:59:07.517372  3252 net.cpp:165] Memory required for data: 2111864880
I0417 16:59:07.517381  3252 layer_factory.hpp:77] Creating layer enet2_0_relu2_0_0_split
I0417 16:59:07.517392  3252 net.cpp:106] Creating Layer enet2_0_relu2_0_0_split
I0417 16:59:07.517400  3252 net.cpp:454] enet2_0_relu2_0_0_split <- enet2_0
I0417 16:59:07.517410  3252 net.cpp:411] enet2_0_relu2_0_0_split -> enet2_0_relu2_0_0_split_0
I0417 16:59:07.517421  3252 net.cpp:411] enet2_0_relu2_0_0_split -> enet2_0_relu2_0_0_split_1
I0417 16:59:07.517490  3252 net.cpp:150] Setting up enet2_0_relu2_0_0_split
I0417 16:59:07.517504  3252 net.cpp:157] Top shape: 6 128 64 77 (3784704)
I0417 16:59:07.517513  3252 net.cpp:157] Top shape: 6 128 64 77 (3784704)
I0417 16:59:07.517518  3252 net.cpp:165] Memory required for data: 2142142512
I0417 16:59:07.517525  3252 layer_factory.hpp:77] Creating layer enet2_1_branch2a
I0417 16:59:07.517541  3252 net.cpp:106] Creating Layer enet2_1_branch2a
I0417 16:59:07.517549  3252 net.cpp:454] enet2_1_branch2a <- enet2_0_relu2_0_0_split_0
I0417 16:59:07.517561  3252 net.cpp:411] enet2_1_branch2a -> enet2_1_branch2a
I0417 16:59:07.521432  3252 net.cpp:150] Setting up enet2_1_branch2a
I0417 16:59:07.521451  3252 net.cpp:157] Top shape: 6 32 64 77 (946176)
I0417 16:59:07.521459  3252 net.cpp:165] Memory required for data: 2145927216
I0417 16:59:07.521469  3252 layer_factory.hpp:77] Creating layer bn2_1_branch2a
I0417 16:59:07.521486  3252 net.cpp:106] Creating Layer bn2_1_branch2a
I0417 16:59:07.521497  3252 net.cpp:454] bn2_1_branch2a <- enet2_1_branch2a
I0417 16:59:07.521510  3252 net.cpp:397] bn2_1_branch2a -> enet2_1_branch2a (in-place)
I0417 16:59:07.521896  3252 net.cpp:150] Setting up bn2_1_branch2a
I0417 16:59:07.521911  3252 net.cpp:157] Top shape: 6 32 64 77 (946176)
I0417 16:59:07.521919  3252 net.cpp:165] Memory required for data: 2149711920
I0417 16:59:07.521929  3252 layer_factory.hpp:77] Creating layer relu2_1_branch2a
I0417 16:59:07.521939  3252 net.cpp:106] Creating Layer relu2_1_branch2a
I0417 16:59:07.521946  3252 net.cpp:454] relu2_1_branch2a <- enet2_1_branch2a
I0417 16:59:07.521955  3252 net.cpp:397] relu2_1_branch2a -> enet2_1_branch2a (in-place)
I0417 16:59:07.523133  3252 net.cpp:150] Setting up relu2_1_branch2a
I0417 16:59:07.523154  3252 net.cpp:157] Top shape: 6 32 64 77 (946176)
I0417 16:59:07.523175  3252 net.cpp:165] Memory required for data: 2153496624
I0417 16:59:07.523186  3252 layer_factory.hpp:77] Creating layer enet2_1_branch2b
I0417 16:59:07.523205  3252 net.cpp:106] Creating Layer enet2_1_branch2b
I0417 16:59:07.523213  3252 net.cpp:454] enet2_1_branch2b <- enet2_1_branch2a
I0417 16:59:07.523226  3252 net.cpp:411] enet2_1_branch2b -> enet2_1_branch2b
I0417 16:59:07.526818  3252 net.cpp:150] Setting up enet2_1_branch2b
I0417 16:59:07.526835  3252 net.cpp:157] Top shape: 6 32 64 77 (946176)
I0417 16:59:07.526844  3252 net.cpp:165] Memory required for data: 2157281328
I0417 16:59:07.526854  3252 layer_factory.hpp:77] Creating layer bn2_1_branch2b
I0417 16:59:07.526867  3252 net.cpp:106] Creating Layer bn2_1_branch2b
I0417 16:59:07.526875  3252 net.cpp:454] bn2_1_branch2b <- enet2_1_branch2b
I0417 16:59:07.526890  3252 net.cpp:397] bn2_1_branch2b -> enet2_1_branch2b (in-place)
I0417 16:59:07.527288  3252 net.cpp:150] Setting up bn2_1_branch2b
I0417 16:59:07.527303  3252 net.cpp:157] Top shape: 6 32 64 77 (946176)
I0417 16:59:07.527310  3252 net.cpp:165] Memory required for data: 2161066032
I0417 16:59:07.527320  3252 layer_factory.hpp:77] Creating layer relu2_1_branch2b
I0417 16:59:07.527331  3252 net.cpp:106] Creating Layer relu2_1_branch2b
I0417 16:59:07.527338  3252 net.cpp:454] relu2_1_branch2b <- enet2_1_branch2b
I0417 16:59:07.527348  3252 net.cpp:397] relu2_1_branch2b -> enet2_1_branch2b (in-place)
I0417 16:59:07.528527  3252 net.cpp:150] Setting up relu2_1_branch2b
I0417 16:59:07.528548  3252 net.cpp:157] Top shape: 6 32 64 77 (946176)
I0417 16:59:07.528556  3252 net.cpp:165] Memory required for data: 2164850736
I0417 16:59:07.528565  3252 layer_factory.hpp:77] Creating layer enet2_1_branch2c
I0417 16:59:07.528584  3252 net.cpp:106] Creating Layer enet2_1_branch2c
I0417 16:59:07.528591  3252 net.cpp:454] enet2_1_branch2c <- enet2_1_branch2b
I0417 16:59:07.528604  3252 net.cpp:411] enet2_1_branch2c -> enet2_1_branch2c
I0417 16:59:07.532037  3252 net.cpp:150] Setting up enet2_1_branch2c
I0417 16:59:07.532060  3252 net.cpp:157] Top shape: 6 128 64 77 (3784704)
I0417 16:59:07.532069  3252 net.cpp:165] Memory required for data: 2179989552
I0417 16:59:07.532078  3252 layer_factory.hpp:77] Creating layer bn2_1_branch2c
I0417 16:59:07.532096  3252 net.cpp:106] Creating Layer bn2_1_branch2c
I0417 16:59:07.532104  3252 net.cpp:454] bn2_1_branch2c <- enet2_1_branch2c
I0417 16:59:07.532115  3252 net.cpp:397] bn2_1_branch2c -> enet2_1_branch2c (in-place)
I0417 16:59:07.532500  3252 net.cpp:150] Setting up bn2_1_branch2c
I0417 16:59:07.532515  3252 net.cpp:157] Top shape: 6 128 64 77 (3784704)
I0417 16:59:07.532521  3252 net.cpp:165] Memory required for data: 2195128368
I0417 16:59:07.532531  3252 layer_factory.hpp:77] Creating layer dropout2_1_branch2c
I0417 16:59:07.532542  3252 net.cpp:106] Creating Layer dropout2_1_branch2c
I0417 16:59:07.532549  3252 net.cpp:454] dropout2_1_branch2c <- enet2_1_branch2c
I0417 16:59:07.532558  3252 net.cpp:397] dropout2_1_branch2c -> enet2_1_branch2c (in-place)
I0417 16:59:07.532605  3252 net.cpp:150] Setting up dropout2_1_branch2c
I0417 16:59:07.532622  3252 net.cpp:157] Top shape: 6 128 64 77 (3784704)
I0417 16:59:07.532630  3252 net.cpp:165] Memory required for data: 2210267184
I0417 16:59:07.532636  3252 layer_factory.hpp:77] Creating layer enet2_1
I0417 16:59:07.532646  3252 net.cpp:106] Creating Layer enet2_1
I0417 16:59:07.532654  3252 net.cpp:454] enet2_1 <- enet2_0_relu2_0_0_split_1
I0417 16:59:07.532661  3252 net.cpp:454] enet2_1 <- enet2_1_branch2c
I0417 16:59:07.532677  3252 net.cpp:411] enet2_1 -> enet2_1
I0417 16:59:07.532724  3252 net.cpp:150] Setting up enet2_1
I0417 16:59:07.532737  3252 net.cpp:157] Top shape: 6 128 64 77 (3784704)
I0417 16:59:07.532744  3252 net.cpp:165] Memory required for data: 2225406000
I0417 16:59:07.532752  3252 layer_factory.hpp:77] Creating layer relu2_1
I0417 16:59:07.532764  3252 net.cpp:106] Creating Layer relu2_1
I0417 16:59:07.532771  3252 net.cpp:454] relu2_1 <- enet2_1
I0417 16:59:07.532788  3252 net.cpp:397] relu2_1 -> enet2_1 (in-place)
I0417 16:59:07.535640  3252 net.cpp:150] Setting up relu2_1
I0417 16:59:07.535657  3252 net.cpp:157] Top shape: 6 128 64 77 (3784704)
I0417 16:59:07.535665  3252 net.cpp:165] Memory required for data: 2240544816
I0417 16:59:07.535675  3252 layer_factory.hpp:77] Creating layer enet2_1_relu2_1_0_split
I0417 16:59:07.535688  3252 net.cpp:106] Creating Layer enet2_1_relu2_1_0_split
I0417 16:59:07.535696  3252 net.cpp:454] enet2_1_relu2_1_0_split <- enet2_1
I0417 16:59:07.535712  3252 net.cpp:411] enet2_1_relu2_1_0_split -> enet2_1_relu2_1_0_split_0
I0417 16:59:07.535724  3252 net.cpp:411] enet2_1_relu2_1_0_split -> enet2_1_relu2_1_0_split_1
I0417 16:59:07.535797  3252 net.cpp:150] Setting up enet2_1_relu2_1_0_split
I0417 16:59:07.535815  3252 net.cpp:157] Top shape: 6 128 64 77 (3784704)
I0417 16:59:07.535823  3252 net.cpp:157] Top shape: 6 128 64 77 (3784704)
I0417 16:59:07.535830  3252 net.cpp:165] Memory required for data: 2270822448
I0417 16:59:07.535836  3252 layer_factory.hpp:77] Creating layer enet2_2_branch2a
I0417 16:59:07.535853  3252 net.cpp:106] Creating Layer enet2_2_branch2a
I0417 16:59:07.535861  3252 net.cpp:454] enet2_2_branch2a <- enet2_1_relu2_1_0_split_0
I0417 16:59:07.535872  3252 net.cpp:411] enet2_2_branch2a -> enet2_2_branch2a
I0417 16:59:07.539858  3252 net.cpp:150] Setting up enet2_2_branch2a
I0417 16:59:07.539877  3252 net.cpp:157] Top shape: 6 32 64 77 (946176)
I0417 16:59:07.539885  3252 net.cpp:165] Memory required for data: 2274607152
I0417 16:59:07.539894  3252 layer_factory.hpp:77] Creating layer bn2_2_branch2a
I0417 16:59:07.539911  3252 net.cpp:106] Creating Layer bn2_2_branch2a
I0417 16:59:07.539918  3252 net.cpp:454] bn2_2_branch2a <- enet2_2_branch2a
I0417 16:59:07.539932  3252 net.cpp:397] bn2_2_branch2a -> enet2_2_branch2a (in-place)
I0417 16:59:07.540344  3252 net.cpp:150] Setting up bn2_2_branch2a
I0417 16:59:07.540359  3252 net.cpp:157] Top shape: 6 32 64 77 (946176)
I0417 16:59:07.540365  3252 net.cpp:165] Memory required for data: 2278391856
I0417 16:59:07.540375  3252 layer_factory.hpp:77] Creating layer relu2_2_branch2a
I0417 16:59:07.540390  3252 net.cpp:106] Creating Layer relu2_2_branch2a
I0417 16:59:07.540397  3252 net.cpp:454] relu2_2_branch2a <- enet2_2_branch2a
I0417 16:59:07.540406  3252 net.cpp:397] relu2_2_branch2a -> enet2_2_branch2a (in-place)
I0417 16:59:07.541586  3252 net.cpp:150] Setting up relu2_2_branch2a
I0417 16:59:07.541604  3252 net.cpp:157] Top shape: 6 32 64 77 (946176)
I0417 16:59:07.541611  3252 net.cpp:165] Memory required for data: 2282176560
I0417 16:59:07.541620  3252 layer_factory.hpp:77] Creating layer enet2_2_branch2b
I0417 16:59:07.541640  3252 net.cpp:106] Creating Layer enet2_2_branch2b
I0417 16:59:07.541647  3252 net.cpp:454] enet2_2_branch2b <- enet2_2_branch2a
I0417 16:59:07.541661  3252 net.cpp:411] enet2_2_branch2b -> enet2_2_branch2b
I0417 16:59:07.542531  3252 net.cpp:150] Setting up enet2_2_branch2b
I0417 16:59:07.542547  3252 net.cpp:157] Top shape: 6 32 64 77 (946176)
I0417 16:59:07.542554  3252 net.cpp:165] Memory required for data: 2285961264
I0417 16:59:07.542564  3252 layer_factory.hpp:77] Creating layer bn2_2_branch2b
I0417 16:59:07.542577  3252 net.cpp:106] Creating Layer bn2_2_branch2b
I0417 16:59:07.542583  3252 net.cpp:454] bn2_2_branch2b <- enet2_2_branch2b
I0417 16:59:07.542596  3252 net.cpp:397] bn2_2_branch2b -> enet2_2_branch2b (in-place)
I0417 16:59:07.543012  3252 net.cpp:150] Setting up bn2_2_branch2b
I0417 16:59:07.543026  3252 net.cpp:157] Top shape: 6 32 64 77 (946176)
I0417 16:59:07.543033  3252 net.cpp:165] Memory required for data: 2289745968
I0417 16:59:07.543043  3252 layer_factory.hpp:77] Creating layer relu2_2_branch2b
I0417 16:59:07.543057  3252 net.cpp:106] Creating Layer relu2_2_branch2b
I0417 16:59:07.543066  3252 net.cpp:454] relu2_2_branch2b <- enet2_2_branch2b
I0417 16:59:07.543074  3252 net.cpp:397] relu2_2_branch2b -> enet2_2_branch2b (in-place)
I0417 16:59:07.544248  3252 net.cpp:150] Setting up relu2_2_branch2b
I0417 16:59:07.544278  3252 net.cpp:157] Top shape: 6 32 64 77 (946176)
I0417 16:59:07.544294  3252 net.cpp:165] Memory required for data: 2293530672
I0417 16:59:07.544304  3252 layer_factory.hpp:77] Creating layer enet2_2_branch2c
I0417 16:59:07.544322  3252 net.cpp:106] Creating Layer enet2_2_branch2c
I0417 16:59:07.544329  3252 net.cpp:454] enet2_2_branch2c <- enet2_2_branch2b
I0417 16:59:07.544342  3252 net.cpp:411] enet2_2_branch2c -> enet2_2_branch2c
I0417 16:59:07.547787  3252 net.cpp:150] Setting up enet2_2_branch2c
I0417 16:59:07.547806  3252 net.cpp:157] Top shape: 6 128 64 77 (3784704)
I0417 16:59:07.547814  3252 net.cpp:165] Memory required for data: 2308669488
I0417 16:59:07.547823  3252 layer_factory.hpp:77] Creating layer bn2_2_branch2c
I0417 16:59:07.547839  3252 net.cpp:106] Creating Layer bn2_2_branch2c
I0417 16:59:07.547847  3252 net.cpp:454] bn2_2_branch2c <- enet2_2_branch2c
I0417 16:59:07.547861  3252 net.cpp:397] bn2_2_branch2c -> enet2_2_branch2c (in-place)
I0417 16:59:07.548275  3252 net.cpp:150] Setting up bn2_2_branch2c
I0417 16:59:07.548290  3252 net.cpp:157] Top shape: 6 128 64 77 (3784704)
I0417 16:59:07.548296  3252 net.cpp:165] Memory required for data: 2323808304
I0417 16:59:07.548307  3252 layer_factory.hpp:77] Creating layer dropout2_2_branch2c
I0417 16:59:07.548318  3252 net.cpp:106] Creating Layer dropout2_2_branch2c
I0417 16:59:07.548326  3252 net.cpp:454] dropout2_2_branch2c <- enet2_2_branch2c
I0417 16:59:07.548334  3252 net.cpp:397] dropout2_2_branch2c -> enet2_2_branch2c (in-place)
I0417 16:59:07.548383  3252 net.cpp:150] Setting up dropout2_2_branch2c
I0417 16:59:07.548396  3252 net.cpp:157] Top shape: 6 128 64 77 (3784704)
I0417 16:59:07.548403  3252 net.cpp:165] Memory required for data: 2338947120
I0417 16:59:07.548409  3252 layer_factory.hpp:77] Creating layer enet2_2
I0417 16:59:07.548424  3252 net.cpp:106] Creating Layer enet2_2
I0417 16:59:07.548431  3252 net.cpp:454] enet2_2 <- enet2_1_relu2_1_0_split_1
I0417 16:59:07.548439  3252 net.cpp:454] enet2_2 <- enet2_2_branch2c
I0417 16:59:07.548451  3252 net.cpp:411] enet2_2 -> enet2_2
I0417 16:59:07.548499  3252 net.cpp:150] Setting up enet2_2
I0417 16:59:07.548512  3252 net.cpp:157] Top shape: 6 128 64 77 (3784704)
I0417 16:59:07.548518  3252 net.cpp:165] Memory required for data: 2354085936
I0417 16:59:07.548526  3252 layer_factory.hpp:77] Creating layer relu2_2
I0417 16:59:07.548539  3252 net.cpp:106] Creating Layer relu2_2
I0417 16:59:07.548547  3252 net.cpp:454] relu2_2 <- enet2_2
I0417 16:59:07.548557  3252 net.cpp:397] relu2_2 -> enet2_2 (in-place)
I0417 16:59:07.551388  3252 net.cpp:150] Setting up relu2_2
I0417 16:59:07.551407  3252 net.cpp:157] Top shape: 6 128 64 77 (3784704)
I0417 16:59:07.551414  3252 net.cpp:165] Memory required for data: 2369224752
I0417 16:59:07.551424  3252 layer_factory.hpp:77] Creating layer enet2_2_relu2_2_0_split
I0417 16:59:07.551437  3252 net.cpp:106] Creating Layer enet2_2_relu2_2_0_split
I0417 16:59:07.551445  3252 net.cpp:454] enet2_2_relu2_2_0_split <- enet2_2
I0417 16:59:07.551462  3252 net.cpp:411] enet2_2_relu2_2_0_split -> enet2_2_relu2_2_0_split_0
I0417 16:59:07.551486  3252 net.cpp:411] enet2_2_relu2_2_0_split -> enet2_2_relu2_2_0_split_1
I0417 16:59:07.551565  3252 net.cpp:150] Setting up enet2_2_relu2_2_0_split
I0417 16:59:07.551579  3252 net.cpp:157] Top shape: 6 128 64 77 (3784704)
I0417 16:59:07.551589  3252 net.cpp:157] Top shape: 6 128 64 77 (3784704)
I0417 16:59:07.551594  3252 net.cpp:165] Memory required for data: 2399502384
I0417 16:59:07.551600  3252 layer_factory.hpp:77] Creating layer enet2_3_branch2a
I0417 16:59:07.551617  3252 net.cpp:106] Creating Layer enet2_3_branch2a
I0417 16:59:07.551626  3252 net.cpp:454] enet2_3_branch2a <- enet2_2_relu2_2_0_split_0
I0417 16:59:07.551637  3252 net.cpp:411] enet2_3_branch2a -> enet2_3_branch2a
I0417 16:59:07.554971  3252 net.cpp:150] Setting up enet2_3_branch2a
I0417 16:59:07.554991  3252 net.cpp:157] Top shape: 6 32 64 77 (946176)
I0417 16:59:07.554998  3252 net.cpp:165] Memory required for data: 2403287088
I0417 16:59:07.555007  3252 layer_factory.hpp:77] Creating layer bn2_3_branch2a
I0417 16:59:07.555040  3252 net.cpp:106] Creating Layer bn2_3_branch2a
I0417 16:59:07.555054  3252 net.cpp:454] bn2_3_branch2a <- enet2_3_branch2a
I0417 16:59:07.555073  3252 net.cpp:397] bn2_3_branch2a -> enet2_3_branch2a (in-place)
I0417 16:59:07.555512  3252 net.cpp:150] Setting up bn2_3_branch2a
I0417 16:59:07.555537  3252 net.cpp:157] Top shape: 6 32 64 77 (946176)
I0417 16:59:07.555544  3252 net.cpp:165] Memory required for data: 2407071792
I0417 16:59:07.555554  3252 layer_factory.hpp:77] Creating layer relu2_3_branch2a
I0417 16:59:07.555565  3252 net.cpp:106] Creating Layer relu2_3_branch2a
I0417 16:59:07.555572  3252 net.cpp:454] relu2_3_branch2a <- enet2_3_branch2a
I0417 16:59:07.555582  3252 net.cpp:397] relu2_3_branch2a -> enet2_3_branch2a (in-place)
I0417 16:59:07.557005  3252 net.cpp:150] Setting up relu2_3_branch2a
I0417 16:59:07.557024  3252 net.cpp:157] Top shape: 6 32 64 77 (946176)
I0417 16:59:07.557030  3252 net.cpp:165] Memory required for data: 2410856496
I0417 16:59:07.557039  3252 layer_factory.hpp:77] Creating layer enet2_3_branch2b1
I0417 16:59:07.557061  3252 net.cpp:106] Creating Layer enet2_3_branch2b1
I0417 16:59:07.557070  3252 net.cpp:454] enet2_3_branch2b1 <- enet2_3_branch2a
I0417 16:59:07.557087  3252 net.cpp:411] enet2_3_branch2b1 -> enet2_3_branch2b1
I0417 16:59:07.560600  3252 net.cpp:150] Setting up enet2_3_branch2b1
I0417 16:59:07.560618  3252 net.cpp:157] Top shape: 6 32 64 77 (946176)
I0417 16:59:07.560626  3252 net.cpp:165] Memory required for data: 2414641200
I0417 16:59:07.560636  3252 layer_factory.hpp:77] Creating layer enet2_3_branch2b
I0417 16:59:07.560657  3252 net.cpp:106] Creating Layer enet2_3_branch2b
I0417 16:59:07.560664  3252 net.cpp:454] enet2_3_branch2b <- enet2_3_branch2b1
I0417 16:59:07.560677  3252 net.cpp:411] enet2_3_branch2b -> enet2_3_branch2b
I0417 16:59:07.564913  3252 net.cpp:150] Setting up enet2_3_branch2b
I0417 16:59:07.564932  3252 net.cpp:157] Top shape: 6 32 64 77 (946176)
I0417 16:59:07.564940  3252 net.cpp:165] Memory required for data: 2418425904
I0417 16:59:07.564951  3252 layer_factory.hpp:77] Creating layer bn2_3_branch2b
I0417 16:59:07.564966  3252 net.cpp:106] Creating Layer bn2_3_branch2b
I0417 16:59:07.564977  3252 net.cpp:454] bn2_3_branch2b <- enet2_3_branch2b
I0417 16:59:07.564987  3252 net.cpp:397] bn2_3_branch2b -> enet2_3_branch2b (in-place)
I0417 16:59:07.565433  3252 net.cpp:150] Setting up bn2_3_branch2b
I0417 16:59:07.565448  3252 net.cpp:157] Top shape: 6 32 64 77 (946176)
I0417 16:59:07.565454  3252 net.cpp:165] Memory required for data: 2422210608
I0417 16:59:07.565464  3252 layer_factory.hpp:77] Creating layer relu2_3_branch2b
I0417 16:59:07.565474  3252 net.cpp:106] Creating Layer relu2_3_branch2b
I0417 16:59:07.565482  3252 net.cpp:454] relu2_3_branch2b <- enet2_3_branch2b
I0417 16:59:07.565491  3252 net.cpp:397] relu2_3_branch2b -> enet2_3_branch2b (in-place)
I0417 16:59:07.566715  3252 net.cpp:150] Setting up relu2_3_branch2b
I0417 16:59:07.566732  3252 net.cpp:157] Top shape: 6 32 64 77 (946176)
I0417 16:59:07.566740  3252 net.cpp:165] Memory required for data: 2425995312
I0417 16:59:07.566748  3252 layer_factory.hpp:77] Creating layer enet2_3_branch2c
I0417 16:59:07.566768  3252 net.cpp:106] Creating Layer enet2_3_branch2c
I0417 16:59:07.566777  3252 net.cpp:454] enet2_3_branch2c <- enet2_3_branch2b
I0417 16:59:07.566788  3252 net.cpp:411] enet2_3_branch2c -> enet2_3_branch2c
I0417 16:59:07.570188  3252 net.cpp:150] Setting up enet2_3_branch2c
I0417 16:59:07.570207  3252 net.cpp:157] Top shape: 6 128 64 77 (3784704)
I0417 16:59:07.570215  3252 net.cpp:165] Memory required for data: 2441134128
I0417 16:59:07.570225  3252 layer_factory.hpp:77] Creating layer bn2_3_branch2c
I0417 16:59:07.570240  3252 net.cpp:106] Creating Layer bn2_3_branch2c
I0417 16:59:07.570250  3252 net.cpp:454] bn2_3_branch2c <- enet2_3_branch2c
I0417 16:59:07.570262  3252 net.cpp:397] bn2_3_branch2c -> enet2_3_branch2c (in-place)
I0417 16:59:07.570700  3252 net.cpp:150] Setting up bn2_3_branch2c
I0417 16:59:07.570724  3252 net.cpp:157] Top shape: 6 128 64 77 (3784704)
I0417 16:59:07.570737  3252 net.cpp:165] Memory required for data: 2456272944
I0417 16:59:07.570749  3252 layer_factory.hpp:77] Creating layer dropout2_3_branch2c
I0417 16:59:07.570760  3252 net.cpp:106] Creating Layer dropout2_3_branch2c
I0417 16:59:07.570767  3252 net.cpp:454] dropout2_3_branch2c <- enet2_3_branch2c
I0417 16:59:07.570776  3252 net.cpp:397] dropout2_3_branch2c -> enet2_3_branch2c (in-place)
I0417 16:59:07.570829  3252 net.cpp:150] Setting up dropout2_3_branch2c
I0417 16:59:07.570842  3252 net.cpp:157] Top shape: 6 128 64 77 (3784704)
I0417 16:59:07.570848  3252 net.cpp:165] Memory required for data: 2471411760
I0417 16:59:07.570855  3252 layer_factory.hpp:77] Creating layer enet2_3
I0417 16:59:07.570869  3252 net.cpp:106] Creating Layer enet2_3
I0417 16:59:07.570878  3252 net.cpp:454] enet2_3 <- enet2_2_relu2_2_0_split_1
I0417 16:59:07.570886  3252 net.cpp:454] enet2_3 <- enet2_3_branch2c
I0417 16:59:07.570895  3252 net.cpp:411] enet2_3 -> enet2_3
I0417 16:59:07.570950  3252 net.cpp:150] Setting up enet2_3
I0417 16:59:07.570962  3252 net.cpp:157] Top shape: 6 128 64 77 (3784704)
I0417 16:59:07.570969  3252 net.cpp:165] Memory required for data: 2486550576
I0417 16:59:07.570976  3252 layer_factory.hpp:77] Creating layer relu2_3
I0417 16:59:07.570988  3252 net.cpp:106] Creating Layer relu2_3
I0417 16:59:07.570996  3252 net.cpp:454] relu2_3 <- enet2_3
I0417 16:59:07.571005  3252 net.cpp:397] relu2_3 -> enet2_3 (in-place)
I0417 16:59:07.573843  3252 net.cpp:150] Setting up relu2_3
I0417 16:59:07.573859  3252 net.cpp:157] Top shape: 6 128 64 77 (3784704)
I0417 16:59:07.573868  3252 net.cpp:165] Memory required for data: 2501689392
I0417 16:59:07.573905  3252 layer_factory.hpp:77] Creating layer enet2_3_relu2_3_0_split
I0417 16:59:07.573918  3252 net.cpp:106] Creating Layer enet2_3_relu2_3_0_split
I0417 16:59:07.573925  3252 net.cpp:454] enet2_3_relu2_3_0_split <- enet2_3
I0417 16:59:07.573936  3252 net.cpp:411] enet2_3_relu2_3_0_split -> enet2_3_relu2_3_0_split_0
I0417 16:59:07.573951  3252 net.cpp:411] enet2_3_relu2_3_0_split -> enet2_3_relu2_3_0_split_1
I0417 16:59:07.574028  3252 net.cpp:150] Setting up enet2_3_relu2_3_0_split
I0417 16:59:07.574041  3252 net.cpp:157] Top shape: 6 128 64 77 (3784704)
I0417 16:59:07.574054  3252 net.cpp:157] Top shape: 6 128 64 77 (3784704)
I0417 16:59:07.574060  3252 net.cpp:165] Memory required for data: 2531967024
I0417 16:59:07.574067  3252 layer_factory.hpp:77] Creating layer enet2_4_branch2a
I0417 16:59:07.574091  3252 net.cpp:106] Creating Layer enet2_4_branch2a
I0417 16:59:07.574103  3252 net.cpp:454] enet2_4_branch2a <- enet2_3_relu2_3_0_split_0
I0417 16:59:07.574116  3252 net.cpp:411] enet2_4_branch2a -> enet2_4_branch2a
I0417 16:59:07.577723  3252 net.cpp:150] Setting up enet2_4_branch2a
I0417 16:59:07.577745  3252 net.cpp:157] Top shape: 6 32 64 77 (946176)
I0417 16:59:07.577754  3252 net.cpp:165] Memory required for data: 2535751728
I0417 16:59:07.577764  3252 layer_factory.hpp:77] Creating layer bn2_4_branch2a
I0417 16:59:07.577776  3252 net.cpp:106] Creating Layer bn2_4_branch2a
I0417 16:59:07.577785  3252 net.cpp:454] bn2_4_branch2a <- enet2_4_branch2a
I0417 16:59:07.577798  3252 net.cpp:397] bn2_4_branch2a -> enet2_4_branch2a (in-place)
I0417 16:59:07.578268  3252 net.cpp:150] Setting up bn2_4_branch2a
I0417 16:59:07.578282  3252 net.cpp:157] Top shape: 6 32 64 77 (946176)
I0417 16:59:07.578289  3252 net.cpp:165] Memory required for data: 2539536432
I0417 16:59:07.578300  3252 layer_factory.hpp:77] Creating layer relu2_4_branch2a
I0417 16:59:07.578315  3252 net.cpp:106] Creating Layer relu2_4_branch2a
I0417 16:59:07.578322  3252 net.cpp:454] relu2_4_branch2a <- enet2_4_branch2a
I0417 16:59:07.578332  3252 net.cpp:397] relu2_4_branch2a -> enet2_4_branch2a (in-place)
I0417 16:59:07.579782  3252 net.cpp:150] Setting up relu2_4_branch2a
I0417 16:59:07.579800  3252 net.cpp:157] Top shape: 6 32 64 77 (946176)
I0417 16:59:07.579807  3252 net.cpp:165] Memory required for data: 2543321136
I0417 16:59:07.579824  3252 layer_factory.hpp:77] Creating layer enet2_4_branch2b
I0417 16:59:07.579850  3252 net.cpp:106] Creating Layer enet2_4_branch2b
I0417 16:59:07.579859  3252 net.cpp:454] enet2_4_branch2b <- enet2_4_branch2a
I0417 16:59:07.579874  3252 net.cpp:411] enet2_4_branch2b -> enet2_4_branch2b
I0417 16:59:07.580610  3252 net.cpp:150] Setting up enet2_4_branch2b
I0417 16:59:07.580624  3252 net.cpp:157] Top shape: 6 32 64 77 (946176)
I0417 16:59:07.580631  3252 net.cpp:165] Memory required for data: 2547105840
I0417 16:59:07.580641  3252 layer_factory.hpp:77] Creating layer bn2_4_branch2b
I0417 16:59:07.580677  3252 net.cpp:106] Creating Layer bn2_4_branch2b
I0417 16:59:07.580687  3252 net.cpp:454] bn2_4_branch2b <- enet2_4_branch2b
I0417 16:59:07.580699  3252 net.cpp:397] bn2_4_branch2b -> enet2_4_branch2b (in-place)
I0417 16:59:07.581151  3252 net.cpp:150] Setting up bn2_4_branch2b
I0417 16:59:07.581166  3252 net.cpp:157] Top shape: 6 32 64 77 (946176)
I0417 16:59:07.581172  3252 net.cpp:165] Memory required for data: 2550890544
I0417 16:59:07.581183  3252 layer_factory.hpp:77] Creating layer relu2_4_branch2b
I0417 16:59:07.581197  3252 net.cpp:106] Creating Layer relu2_4_branch2b
I0417 16:59:07.581205  3252 net.cpp:454] relu2_4_branch2b <- enet2_4_branch2b
I0417 16:59:07.581214  3252 net.cpp:397] relu2_4_branch2b -> enet2_4_branch2b (in-place)
I0417 16:59:07.582417  3252 net.cpp:150] Setting up relu2_4_branch2b
I0417 16:59:07.582435  3252 net.cpp:157] Top shape: 6 32 64 77 (946176)
I0417 16:59:07.582442  3252 net.cpp:165] Memory required for data: 2554675248
I0417 16:59:07.582453  3252 layer_factory.hpp:77] Creating layer enet2_4_branch2c
I0417 16:59:07.582469  3252 net.cpp:106] Creating Layer enet2_4_branch2c
I0417 16:59:07.582479  3252 net.cpp:454] enet2_4_branch2c <- enet2_4_branch2b
I0417 16:59:07.582491  3252 net.cpp:411] enet2_4_branch2c -> enet2_4_branch2c
I0417 16:59:07.586719  3252 net.cpp:150] Setting up enet2_4_branch2c
I0417 16:59:07.586738  3252 net.cpp:157] Top shape: 6 128 64 77 (3784704)
I0417 16:59:07.586746  3252 net.cpp:165] Memory required for data: 2569814064
I0417 16:59:07.586756  3252 layer_factory.hpp:77] Creating layer bn2_4_branch2c
I0417 16:59:07.586772  3252 net.cpp:106] Creating Layer bn2_4_branch2c
I0417 16:59:07.586781  3252 net.cpp:454] bn2_4_branch2c <- enet2_4_branch2c
I0417 16:59:07.586796  3252 net.cpp:397] bn2_4_branch2c -> enet2_4_branch2c (in-place)
I0417 16:59:07.587266  3252 net.cpp:150] Setting up bn2_4_branch2c
I0417 16:59:07.587281  3252 net.cpp:157] Top shape: 6 128 64 77 (3784704)
I0417 16:59:07.587288  3252 net.cpp:165] Memory required for data: 2584952880
I0417 16:59:07.587298  3252 layer_factory.hpp:77] Creating layer dropout2_4_branch2c
I0417 16:59:07.587309  3252 net.cpp:106] Creating Layer dropout2_4_branch2c
I0417 16:59:07.587317  3252 net.cpp:454] dropout2_4_branch2c <- enet2_4_branch2c
I0417 16:59:07.587327  3252 net.cpp:397] dropout2_4_branch2c -> enet2_4_branch2c (in-place)
I0417 16:59:07.587378  3252 net.cpp:150] Setting up dropout2_4_branch2c
I0417 16:59:07.587393  3252 net.cpp:157] Top shape: 6 128 64 77 (3784704)
I0417 16:59:07.587399  3252 net.cpp:165] Memory required for data: 2600091696
I0417 16:59:07.587405  3252 layer_factory.hpp:77] Creating layer enet2_4
I0417 16:59:07.587420  3252 net.cpp:106] Creating Layer enet2_4
I0417 16:59:07.587429  3252 net.cpp:454] enet2_4 <- enet2_3_relu2_3_0_split_1
I0417 16:59:07.587437  3252 net.cpp:454] enet2_4 <- enet2_4_branch2c
I0417 16:59:07.587446  3252 net.cpp:411] enet2_4 -> enet2_4
I0417 16:59:07.587502  3252 net.cpp:150] Setting up enet2_4
I0417 16:59:07.587517  3252 net.cpp:157] Top shape: 6 128 64 77 (3784704)
I0417 16:59:07.587523  3252 net.cpp:165] Memory required for data: 2615230512
I0417 16:59:07.587529  3252 layer_factory.hpp:77] Creating layer relu2_4
I0417 16:59:07.587539  3252 net.cpp:106] Creating Layer relu2_4
I0417 16:59:07.587546  3252 net.cpp:454] relu2_4 <- enet2_4
I0417 16:59:07.587558  3252 net.cpp:397] relu2_4 -> enet2_4 (in-place)
I0417 16:59:07.590399  3252 net.cpp:150] Setting up relu2_4
I0417 16:59:07.590425  3252 net.cpp:157] Top shape: 6 128 64 77 (3784704)
I0417 16:59:07.590440  3252 net.cpp:165] Memory required for data: 2630369328
I0417 16:59:07.590451  3252 layer_factory.hpp:77] Creating layer enet2_4_relu2_4_0_split
I0417 16:59:07.590466  3252 net.cpp:106] Creating Layer enet2_4_relu2_4_0_split
I0417 16:59:07.590473  3252 net.cpp:454] enet2_4_relu2_4_0_split <- enet2_4
I0417 16:59:07.590483  3252 net.cpp:411] enet2_4_relu2_4_0_split -> enet2_4_relu2_4_0_split_0
I0417 16:59:07.590499  3252 net.cpp:411] enet2_4_relu2_4_0_split -> enet2_4_relu2_4_0_split_1
I0417 16:59:07.590584  3252 net.cpp:150] Setting up enet2_4_relu2_4_0_split
I0417 16:59:07.590597  3252 net.cpp:157] Top shape: 6 128 64 77 (3784704)
I0417 16:59:07.590606  3252 net.cpp:157] Top shape: 6 128 64 77 (3784704)
I0417 16:59:07.590612  3252 net.cpp:165] Memory required for data: 2660646960
I0417 16:59:07.590618  3252 layer_factory.hpp:77] Creating layer enet2_5_branch2a
I0417 16:59:07.590631  3252 net.cpp:106] Creating Layer enet2_5_branch2a
I0417 16:59:07.590639  3252 net.cpp:454] enet2_5_branch2a <- enet2_4_relu2_4_0_split_0
I0417 16:59:07.590654  3252 net.cpp:411] enet2_5_branch2a -> enet2_5_branch2a
I0417 16:59:07.594238  3252 net.cpp:150] Setting up enet2_5_branch2a
I0417 16:59:07.594260  3252 net.cpp:157] Top shape: 6 32 64 77 (946176)
I0417 16:59:07.594269  3252 net.cpp:165] Memory required for data: 2664431664
I0417 16:59:07.594279  3252 layer_factory.hpp:77] Creating layer bn2_5_branch2a
I0417 16:59:07.594291  3252 net.cpp:106] Creating Layer bn2_5_branch2a
I0417 16:59:07.594298  3252 net.cpp:454] bn2_5_branch2a <- enet2_5_branch2a
I0417 16:59:07.594314  3252 net.cpp:397] bn2_5_branch2a -> enet2_5_branch2a (in-place)
I0417 16:59:07.594800  3252 net.cpp:150] Setting up bn2_5_branch2a
I0417 16:59:07.594815  3252 net.cpp:157] Top shape: 6 32 64 77 (946176)
I0417 16:59:07.594821  3252 net.cpp:165] Memory required for data: 2668216368
I0417 16:59:07.594831  3252 layer_factory.hpp:77] Creating layer relu2_5_branch2a
I0417 16:59:07.594846  3252 net.cpp:106] Creating Layer relu2_5_branch2a
I0417 16:59:07.594853  3252 net.cpp:454] relu2_5_branch2a <- enet2_5_branch2a
I0417 16:59:07.594863  3252 net.cpp:397] relu2_5_branch2a -> enet2_5_branch2a (in-place)
I0417 16:59:07.596096  3252 net.cpp:150] Setting up relu2_5_branch2a
I0417 16:59:07.596114  3252 net.cpp:157] Top shape: 6 32 64 77 (946176)
I0417 16:59:07.596122  3252 net.cpp:165] Memory required for data: 2672001072
I0417 16:59:07.596132  3252 layer_factory.hpp:77] Creating layer enet2_5_branch2b
I0417 16:59:07.596149  3252 net.cpp:106] Creating Layer enet2_5_branch2b
I0417 16:59:07.596158  3252 net.cpp:454] enet2_5_branch2b <- enet2_5_branch2a
I0417 16:59:07.596173  3252 net.cpp:411] enet2_5_branch2b -> enet2_5_branch2b
I0417 16:59:07.601189  3252 net.cpp:150] Setting up enet2_5_branch2b
I0417 16:59:07.601209  3252 net.cpp:157] Top shape: 6 32 64 77 (946176)
I0417 16:59:07.601217  3252 net.cpp:165] Memory required for data: 2675785776
I0417 16:59:07.601228  3252 layer_factory.hpp:77] Creating layer bn2_5_branch2b
I0417 16:59:07.601244  3252 net.cpp:106] Creating Layer bn2_5_branch2b
I0417 16:59:07.601253  3252 net.cpp:454] bn2_5_branch2b <- enet2_5_branch2b
I0417 16:59:07.601267  3252 net.cpp:397] bn2_5_branch2b -> enet2_5_branch2b (in-place)
I0417 16:59:07.601749  3252 net.cpp:150] Setting up bn2_5_branch2b
I0417 16:59:07.601764  3252 net.cpp:157] Top shape: 6 32 64 77 (946176)
I0417 16:59:07.601771  3252 net.cpp:165] Memory required for data: 2679570480
I0417 16:59:07.601781  3252 layer_factory.hpp:77] Creating layer relu2_5_branch2b
I0417 16:59:07.601793  3252 net.cpp:106] Creating Layer relu2_5_branch2b
I0417 16:59:07.601799  3252 net.cpp:454] relu2_5_branch2b <- enet2_5_branch2b
I0417 16:59:07.601809  3252 net.cpp:397] relu2_5_branch2b -> enet2_5_branch2b (in-place)
I0417 16:59:07.603027  3252 net.cpp:150] Setting up relu2_5_branch2b
I0417 16:59:07.603045  3252 net.cpp:157] Top shape: 6 32 64 77 (946176)
I0417 16:59:07.603056  3252 net.cpp:165] Memory required for data: 2683355184
I0417 16:59:07.603075  3252 layer_factory.hpp:77] Creating layer enet2_5_branch2c
I0417 16:59:07.603102  3252 net.cpp:106] Creating Layer enet2_5_branch2c
I0417 16:59:07.603111  3252 net.cpp:454] enet2_5_branch2c <- enet2_5_branch2b
I0417 16:59:07.603123  3252 net.cpp:411] enet2_5_branch2c -> enet2_5_branch2c
I0417 16:59:07.607210  3252 net.cpp:150] Setting up enet2_5_branch2c
I0417 16:59:07.607229  3252 net.cpp:157] Top shape: 6 128 64 77 (3784704)
I0417 16:59:07.607237  3252 net.cpp:165] Memory required for data: 2698494000
I0417 16:59:07.607247  3252 layer_factory.hpp:77] Creating layer bn2_5_branch2c
I0417 16:59:07.607265  3252 net.cpp:106] Creating Layer bn2_5_branch2c
I0417 16:59:07.607275  3252 net.cpp:454] bn2_5_branch2c <- enet2_5_branch2c
I0417 16:59:07.607285  3252 net.cpp:397] bn2_5_branch2c -> enet2_5_branch2c (in-place)
I0417 16:59:07.607759  3252 net.cpp:150] Setting up bn2_5_branch2c
I0417 16:59:07.607774  3252 net.cpp:157] Top shape: 6 128 64 77 (3784704)
I0417 16:59:07.607780  3252 net.cpp:165] Memory required for data: 2713632816
I0417 16:59:07.607791  3252 layer_factory.hpp:77] Creating layer dropout2_5_branch2c
I0417 16:59:07.607802  3252 net.cpp:106] Creating Layer dropout2_5_branch2c
I0417 16:59:07.607810  3252 net.cpp:454] dropout2_5_branch2c <- enet2_5_branch2c
I0417 16:59:07.607820  3252 net.cpp:397] dropout2_5_branch2c -> enet2_5_branch2c (in-place)
I0417 16:59:07.607877  3252 net.cpp:150] Setting up dropout2_5_branch2c
I0417 16:59:07.607892  3252 net.cpp:157] Top shape: 6 128 64 77 (3784704)
I0417 16:59:07.607898  3252 net.cpp:165] Memory required for data: 2728771632
I0417 16:59:07.607905  3252 layer_factory.hpp:77] Creating layer enet2_5
I0417 16:59:07.607915  3252 net.cpp:106] Creating Layer enet2_5
I0417 16:59:07.607923  3252 net.cpp:454] enet2_5 <- enet2_4_relu2_4_0_split_1
I0417 16:59:07.607931  3252 net.cpp:454] enet2_5 <- enet2_5_branch2c
I0417 16:59:07.607944  3252 net.cpp:411] enet2_5 -> enet2_5
I0417 16:59:07.607998  3252 net.cpp:150] Setting up enet2_5
I0417 16:59:07.608011  3252 net.cpp:157] Top shape: 6 128 64 77 (3784704)
I0417 16:59:07.608018  3252 net.cpp:165] Memory required for data: 2743910448
I0417 16:59:07.608024  3252 layer_factory.hpp:77] Creating layer relu2_5
I0417 16:59:07.608037  3252 net.cpp:106] Creating Layer relu2_5
I0417 16:59:07.608045  3252 net.cpp:454] relu2_5 <- enet2_5
I0417 16:59:07.608062  3252 net.cpp:397] relu2_5 -> enet2_5 (in-place)
I0417 16:59:07.612499  3252 net.cpp:150] Setting up relu2_5
I0417 16:59:07.612519  3252 net.cpp:157] Top shape: 6 128 64 77 (3784704)
I0417 16:59:07.612525  3252 net.cpp:165] Memory required for data: 2759049264
I0417 16:59:07.612535  3252 layer_factory.hpp:77] Creating layer enet2_5_relu2_5_0_split
I0417 16:59:07.612545  3252 net.cpp:106] Creating Layer enet2_5_relu2_5_0_split
I0417 16:59:07.612553  3252 net.cpp:454] enet2_5_relu2_5_0_split <- enet2_5
I0417 16:59:07.612567  3252 net.cpp:411] enet2_5_relu2_5_0_split -> enet2_5_relu2_5_0_split_0
I0417 16:59:07.612581  3252 net.cpp:411] enet2_5_relu2_5_0_split -> enet2_5_relu2_5_0_split_1
I0417 16:59:07.613366  3252 net.cpp:150] Setting up enet2_5_relu2_5_0_split
I0417 16:59:07.613386  3252 net.cpp:157] Top shape: 6 128 64 77 (3784704)
I0417 16:59:07.613396  3252 net.cpp:157] Top shape: 6 128 64 77 (3784704)
I0417 16:59:07.613402  3252 net.cpp:165] Memory required for data: 2789326896
I0417 16:59:07.613409  3252 layer_factory.hpp:77] Creating layer enet2_6_branch2a
I0417 16:59:07.613426  3252 net.cpp:106] Creating Layer enet2_6_branch2a
I0417 16:59:07.613435  3252 net.cpp:454] enet2_6_branch2a <- enet2_5_relu2_5_0_split_0
I0417 16:59:07.613447  3252 net.cpp:411] enet2_6_branch2a -> enet2_6_branch2a
I0417 16:59:07.617151  3252 net.cpp:150] Setting up enet2_6_branch2a
I0417 16:59:07.617169  3252 net.cpp:157] Top shape: 6 32 64 77 (946176)
I0417 16:59:07.617177  3252 net.cpp:165] Memory required for data: 2793111600
I0417 16:59:07.617187  3252 layer_factory.hpp:77] Creating layer bn2_6_branch2a
I0417 16:59:07.617203  3252 net.cpp:106] Creating Layer bn2_6_branch2a
I0417 16:59:07.617219  3252 net.cpp:454] bn2_6_branch2a <- enet2_6_branch2a
I0417 16:59:07.617243  3252 net.cpp:397] bn2_6_branch2a -> enet2_6_branch2a (in-place)
I0417 16:59:07.617741  3252 net.cpp:150] Setting up bn2_6_branch2a
I0417 16:59:07.617756  3252 net.cpp:157] Top shape: 6 32 64 77 (946176)
I0417 16:59:07.617763  3252 net.cpp:165] Memory required for data: 2796896304
I0417 16:59:07.617774  3252 layer_factory.hpp:77] Creating layer relu2_6_branch2a
I0417 16:59:07.617784  3252 net.cpp:106] Creating Layer relu2_6_branch2a
I0417 16:59:07.617792  3252 net.cpp:454] relu2_6_branch2a <- enet2_6_branch2a
I0417 16:59:07.617801  3252 net.cpp:397] relu2_6_branch2a -> enet2_6_branch2a (in-place)
I0417 16:59:07.619040  3252 net.cpp:150] Setting up relu2_6_branch2a
I0417 16:59:07.619061  3252 net.cpp:157] Top shape: 6 32 64 77 (946176)
I0417 16:59:07.619069  3252 net.cpp:165] Memory required for data: 2800681008
I0417 16:59:07.619079  3252 layer_factory.hpp:77] Creating layer enet2_6_branch2b
I0417 16:59:07.619097  3252 net.cpp:106] Creating Layer enet2_6_branch2b
I0417 16:59:07.619105  3252 net.cpp:454] enet2_6_branch2b <- enet2_6_branch2a
I0417 16:59:07.619119  3252 net.cpp:411] enet2_6_branch2b -> enet2_6_branch2b
I0417 16:59:07.619900  3252 net.cpp:150] Setting up enet2_6_branch2b
I0417 16:59:07.619915  3252 net.cpp:157] Top shape: 6 32 64 77 (946176)
I0417 16:59:07.619922  3252 net.cpp:165] Memory required for data: 2804465712
I0417 16:59:07.619932  3252 layer_factory.hpp:77] Creating layer bn2_6_branch2b
I0417 16:59:07.619947  3252 net.cpp:106] Creating Layer bn2_6_branch2b
I0417 16:59:07.619956  3252 net.cpp:454] bn2_6_branch2b <- enet2_6_branch2b
I0417 16:59:07.619968  3252 net.cpp:397] bn2_6_branch2b -> enet2_6_branch2b (in-place)
I0417 16:59:07.620466  3252 net.cpp:150] Setting up bn2_6_branch2b
I0417 16:59:07.620481  3252 net.cpp:157] Top shape: 6 32 64 77 (946176)
I0417 16:59:07.620488  3252 net.cpp:165] Memory required for data: 2808250416
I0417 16:59:07.620498  3252 layer_factory.hpp:77] Creating layer relu2_6_branch2b
I0417 16:59:07.620509  3252 net.cpp:106] Creating Layer relu2_6_branch2b
I0417 16:59:07.620517  3252 net.cpp:454] relu2_6_branch2b <- enet2_6_branch2b
I0417 16:59:07.620525  3252 net.cpp:397] relu2_6_branch2b -> enet2_6_branch2b (in-place)
I0417 16:59:07.621759  3252 net.cpp:150] Setting up relu2_6_branch2b
I0417 16:59:07.621776  3252 net.cpp:157] Top shape: 6 32 64 77 (946176)
I0417 16:59:07.621783  3252 net.cpp:165] Memory required for data: 2812035120
I0417 16:59:07.621793  3252 layer_factory.hpp:77] Creating layer enet2_6_branch2c
I0417 16:59:07.621811  3252 net.cpp:106] Creating Layer enet2_6_branch2c
I0417 16:59:07.621819  3252 net.cpp:454] enet2_6_branch2c <- enet2_6_branch2b
I0417 16:59:07.621834  3252 net.cpp:411] enet2_6_branch2c -> enet2_6_branch2c
I0417 16:59:07.625488  3252 net.cpp:150] Setting up enet2_6_branch2c
I0417 16:59:07.625507  3252 net.cpp:157] Top shape: 6 128 64 77 (3784704)
I0417 16:59:07.625515  3252 net.cpp:165] Memory required for data: 2827173936
I0417 16:59:07.625525  3252 layer_factory.hpp:77] Creating layer bn2_6_branch2c
I0417 16:59:07.625547  3252 net.cpp:106] Creating Layer bn2_6_branch2c
I0417 16:59:07.625556  3252 net.cpp:454] bn2_6_branch2c <- enet2_6_branch2c
I0417 16:59:07.625567  3252 net.cpp:397] bn2_6_branch2c -> enet2_6_branch2c (in-place)
I0417 16:59:07.626080  3252 net.cpp:150] Setting up bn2_6_branch2c
I0417 16:59:07.626094  3252 net.cpp:157] Top shape: 6 128 64 77 (3784704)
I0417 16:59:07.626101  3252 net.cpp:165] Memory required for data: 2842312752
I0417 16:59:07.626111  3252 layer_factory.hpp:77] Creating layer dropout2_6_branch2c
I0417 16:59:07.626122  3252 net.cpp:106] Creating Layer dropout2_6_branch2c
I0417 16:59:07.626130  3252 net.cpp:454] dropout2_6_branch2c <- enet2_6_branch2c
I0417 16:59:07.626140  3252 net.cpp:397] dropout2_6_branch2c -> enet2_6_branch2c (in-place)
I0417 16:59:07.626196  3252 net.cpp:150] Setting up dropout2_6_branch2c
I0417 16:59:07.626214  3252 net.cpp:157] Top shape: 6 128 64 77 (3784704)
I0417 16:59:07.626222  3252 net.cpp:165] Memory required for data: 2857451568
I0417 16:59:07.626243  3252 layer_factory.hpp:77] Creating layer enet2_6
I0417 16:59:07.626255  3252 net.cpp:106] Creating Layer enet2_6
I0417 16:59:07.626261  3252 net.cpp:454] enet2_6 <- enet2_5_relu2_5_0_split_1
I0417 16:59:07.626271  3252 net.cpp:454] enet2_6 <- enet2_6_branch2c
I0417 16:59:07.626283  3252 net.cpp:411] enet2_6 -> enet2_6
I0417 16:59:07.626340  3252 net.cpp:150] Setting up enet2_6
I0417 16:59:07.626354  3252 net.cpp:157] Top shape: 6 128 64 77 (3784704)
I0417 16:59:07.626360  3252 net.cpp:165] Memory required for data: 2872590384
I0417 16:59:07.626368  3252 layer_factory.hpp:77] Creating layer relu2_6
I0417 16:59:07.626380  3252 net.cpp:106] Creating Layer relu2_6
I0417 16:59:07.626389  3252 net.cpp:454] relu2_6 <- enet2_6
I0417 16:59:07.626397  3252 net.cpp:397] relu2_6 -> enet2_6 (in-place)
I0417 16:59:07.629781  3252 net.cpp:150] Setting up relu2_6
I0417 16:59:07.629801  3252 net.cpp:157] Top shape: 6 128 64 77 (3784704)
I0417 16:59:07.629807  3252 net.cpp:165] Memory required for data: 2887729200
I0417 16:59:07.629817  3252 layer_factory.hpp:77] Creating layer enet2_6_relu2_6_0_split
I0417 16:59:07.629827  3252 net.cpp:106] Creating Layer enet2_6_relu2_6_0_split
I0417 16:59:07.629835  3252 net.cpp:454] enet2_6_relu2_6_0_split <- enet2_6
I0417 16:59:07.629849  3252 net.cpp:411] enet2_6_relu2_6_0_split -> enet2_6_relu2_6_0_split_0
I0417 16:59:07.629863  3252 net.cpp:411] enet2_6_relu2_6_0_split -> enet2_6_relu2_6_0_split_1
I0417 16:59:07.629951  3252 net.cpp:150] Setting up enet2_6_relu2_6_0_split
I0417 16:59:07.629968  3252 net.cpp:157] Top shape: 6 128 64 77 (3784704)
I0417 16:59:07.629977  3252 net.cpp:157] Top shape: 6 128 64 77 (3784704)
I0417 16:59:07.629983  3252 net.cpp:165] Memory required for data: 2918006832
I0417 16:59:07.629990  3252 layer_factory.hpp:77] Creating layer enet2_7_branch2a
I0417 16:59:07.630007  3252 net.cpp:106] Creating Layer enet2_7_branch2a
I0417 16:59:07.630014  3252 net.cpp:454] enet2_7_branch2a <- enet2_6_relu2_6_0_split_0
I0417 16:59:07.630026  3252 net.cpp:411] enet2_7_branch2a -> enet2_7_branch2a
I0417 16:59:07.634312  3252 net.cpp:150] Setting up enet2_7_branch2a
I0417 16:59:07.634331  3252 net.cpp:157] Top shape: 6 32 64 77 (946176)
I0417 16:59:07.634338  3252 net.cpp:165] Memory required for data: 2921791536
I0417 16:59:07.634348  3252 layer_factory.hpp:77] Creating layer bn2_7_branch2a
I0417 16:59:07.634364  3252 net.cpp:106] Creating Layer bn2_7_branch2a
I0417 16:59:07.634372  3252 net.cpp:454] bn2_7_branch2a <- enet2_7_branch2a
I0417 16:59:07.634387  3252 net.cpp:397] bn2_7_branch2a -> enet2_7_branch2a (in-place)
I0417 16:59:07.634907  3252 net.cpp:150] Setting up bn2_7_branch2a
I0417 16:59:07.634922  3252 net.cpp:157] Top shape: 6 32 64 77 (946176)
I0417 16:59:07.634929  3252 net.cpp:165] Memory required for data: 2925576240
I0417 16:59:07.634939  3252 layer_factory.hpp:77] Creating layer relu2_7_branch2a
I0417 16:59:07.634949  3252 net.cpp:106] Creating Layer relu2_7_branch2a
I0417 16:59:07.634958  3252 net.cpp:454] relu2_7_branch2a <- enet2_7_branch2a
I0417 16:59:07.634966  3252 net.cpp:397] relu2_7_branch2a -> enet2_7_branch2a (in-place)
I0417 16:59:07.636211  3252 net.cpp:150] Setting up relu2_7_branch2a
I0417 16:59:07.636229  3252 net.cpp:157] Top shape: 6 32 64 77 (946176)
I0417 16:59:07.636236  3252 net.cpp:165] Memory required for data: 2929360944
I0417 16:59:07.636245  3252 layer_factory.hpp:77] Creating layer enet2_7_branch2b1
I0417 16:59:07.636266  3252 net.cpp:106] Creating Layer enet2_7_branch2b1
I0417 16:59:07.636276  3252 net.cpp:454] enet2_7_branch2b1 <- enet2_7_branch2a
I0417 16:59:07.636291  3252 net.cpp:411] enet2_7_branch2b1 -> enet2_7_branch2b1
I0417 16:59:07.640085  3252 net.cpp:150] Setting up enet2_7_branch2b1
I0417 16:59:07.640103  3252 net.cpp:157] Top shape: 6 32 64 77 (946176)
I0417 16:59:07.640110  3252 net.cpp:165] Memory required for data: 2933145648
I0417 16:59:07.640120  3252 layer_factory.hpp:77] Creating layer enet2_7_branch2b
I0417 16:59:07.640141  3252 net.cpp:106] Creating Layer enet2_7_branch2b
I0417 16:59:07.640161  3252 net.cpp:454] enet2_7_branch2b <- enet2_7_branch2b1
I0417 16:59:07.640182  3252 net.cpp:411] enet2_7_branch2b -> enet2_7_branch2b
I0417 16:59:07.643916  3252 net.cpp:150] Setting up enet2_7_branch2b
I0417 16:59:07.643934  3252 net.cpp:157] Top shape: 6 32 64 77 (946176)
I0417 16:59:07.643942  3252 net.cpp:165] Memory required for data: 2936930352
I0417 16:59:07.643954  3252 layer_factory.hpp:77] Creating layer bn2_7_branch2b
I0417 16:59:07.643970  3252 net.cpp:106] Creating Layer bn2_7_branch2b
I0417 16:59:07.643978  3252 net.cpp:454] bn2_7_branch2b <- enet2_7_branch2b
I0417 16:59:07.643990  3252 net.cpp:397] bn2_7_branch2b -> enet2_7_branch2b (in-place)
I0417 16:59:07.644539  3252 net.cpp:150] Setting up bn2_7_branch2b
I0417 16:59:07.644554  3252 net.cpp:157] Top shape: 6 32 64 77 (946176)
I0417 16:59:07.644562  3252 net.cpp:165] Memory required for data: 2940715056
I0417 16:59:07.644572  3252 layer_factory.hpp:77] Creating layer relu2_7_branch2b
I0417 16:59:07.644582  3252 net.cpp:106] Creating Layer relu2_7_branch2b
I0417 16:59:07.644588  3252 net.cpp:454] relu2_7_branch2b <- enet2_7_branch2b
I0417 16:59:07.644598  3252 net.cpp:397] relu2_7_branch2b -> enet2_7_branch2b (in-place)
I0417 16:59:07.645862  3252 net.cpp:150] Setting up relu2_7_branch2b
I0417 16:59:07.645880  3252 net.cpp:157] Top shape: 6 32 64 77 (946176)
I0417 16:59:07.645889  3252 net.cpp:165] Memory required for data: 2944499760
I0417 16:59:07.645897  3252 layer_factory.hpp:77] Creating layer enet2_7_branch2c
I0417 16:59:07.645915  3252 net.cpp:106] Creating Layer enet2_7_branch2c
I0417 16:59:07.645923  3252 net.cpp:454] enet2_7_branch2c <- enet2_7_branch2b
I0417 16:59:07.645936  3252 net.cpp:411] enet2_7_branch2c -> enet2_7_branch2c
I0417 16:59:07.649801  3252 net.cpp:150] Setting up enet2_7_branch2c
I0417 16:59:07.649821  3252 net.cpp:157] Top shape: 6 128 64 77 (3784704)
I0417 16:59:07.649828  3252 net.cpp:165] Memory required for data: 2959638576
I0417 16:59:07.649838  3252 layer_factory.hpp:77] Creating layer bn2_7_branch2c
I0417 16:59:07.649853  3252 net.cpp:106] Creating Layer bn2_7_branch2c
I0417 16:59:07.649863  3252 net.cpp:454] bn2_7_branch2c <- enet2_7_branch2c
I0417 16:59:07.649876  3252 net.cpp:397] bn2_7_branch2c -> enet2_7_branch2c (in-place)
I0417 16:59:07.650421  3252 net.cpp:150] Setting up bn2_7_branch2c
I0417 16:59:07.650436  3252 net.cpp:157] Top shape: 6 128 64 77 (3784704)
I0417 16:59:07.650442  3252 net.cpp:165] Memory required for data: 2974777392
I0417 16:59:07.650454  3252 layer_factory.hpp:77] Creating layer dropout2_7_branch2c
I0417 16:59:07.650465  3252 net.cpp:106] Creating Layer dropout2_7_branch2c
I0417 16:59:07.650471  3252 net.cpp:454] dropout2_7_branch2c <- enet2_7_branch2c
I0417 16:59:07.650480  3252 net.cpp:397] dropout2_7_branch2c -> enet2_7_branch2c (in-place)
I0417 16:59:07.650539  3252 net.cpp:150] Setting up dropout2_7_branch2c
I0417 16:59:07.650552  3252 net.cpp:157] Top shape: 6 128 64 77 (3784704)
I0417 16:59:07.650559  3252 net.cpp:165] Memory required for data: 2989916208
I0417 16:59:07.650565  3252 layer_factory.hpp:77] Creating layer enet2_7
I0417 16:59:07.650578  3252 net.cpp:106] Creating Layer enet2_7
I0417 16:59:07.650588  3252 net.cpp:454] enet2_7 <- enet2_6_relu2_6_0_split_1
I0417 16:59:07.650595  3252 net.cpp:454] enet2_7 <- enet2_7_branch2c
I0417 16:59:07.650605  3252 net.cpp:411] enet2_7 -> enet2_7
I0417 16:59:07.650666  3252 net.cpp:150] Setting up enet2_7
I0417 16:59:07.650679  3252 net.cpp:157] Top shape: 6 128 64 77 (3784704)
I0417 16:59:07.650686  3252 net.cpp:165] Memory required for data: 3005055024
I0417 16:59:07.650692  3252 layer_factory.hpp:77] Creating layer relu2_7
I0417 16:59:07.650702  3252 net.cpp:106] Creating Layer relu2_7
I0417 16:59:07.650709  3252 net.cpp:454] relu2_7 <- enet2_7
I0417 16:59:07.650724  3252 net.cpp:397] relu2_7 -> enet2_7 (in-place)
I0417 16:59:07.653594  3252 net.cpp:150] Setting up relu2_7
I0417 16:59:07.653611  3252 net.cpp:157] Top shape: 6 128 64 77 (3784704)
I0417 16:59:07.653619  3252 net.cpp:165] Memory required for data: 3020193840
I0417 16:59:07.653643  3252 layer_factory.hpp:77] Creating layer enet2_7_relu2_7_0_split
I0417 16:59:07.653658  3252 net.cpp:106] Creating Layer enet2_7_relu2_7_0_split
I0417 16:59:07.653666  3252 net.cpp:454] enet2_7_relu2_7_0_split <- enet2_7
I0417 16:59:07.653676  3252 net.cpp:411] enet2_7_relu2_7_0_split -> enet2_7_relu2_7_0_split_0
I0417 16:59:07.653689  3252 net.cpp:411] enet2_7_relu2_7_0_split -> enet2_7_relu2_7_0_split_1
I0417 16:59:07.653786  3252 net.cpp:150] Setting up enet2_7_relu2_7_0_split
I0417 16:59:07.653800  3252 net.cpp:157] Top shape: 6 128 64 77 (3784704)
I0417 16:59:07.653808  3252 net.cpp:157] Top shape: 6 128 64 77 (3784704)
I0417 16:59:07.653815  3252 net.cpp:165] Memory required for data: 3050471472
I0417 16:59:07.653821  3252 layer_factory.hpp:77] Creating layer enet2_8_branch2a
I0417 16:59:07.653834  3252 net.cpp:106] Creating Layer enet2_8_branch2a
I0417 16:59:07.653842  3252 net.cpp:454] enet2_8_branch2a <- enet2_7_relu2_7_0_split_0
I0417 16:59:07.653856  3252 net.cpp:411] enet2_8_branch2a -> enet2_8_branch2a
I0417 16:59:07.658150  3252 net.cpp:150] Setting up enet2_8_branch2a
I0417 16:59:07.658169  3252 net.cpp:157] Top shape: 6 32 64 77 (946176)
I0417 16:59:07.658176  3252 net.cpp:165] Memory required for data: 3054256176
I0417 16:59:07.658186  3252 layer_factory.hpp:77] Creating layer bn2_8_branch2a
I0417 16:59:07.658205  3252 net.cpp:106] Creating Layer bn2_8_branch2a
I0417 16:59:07.658215  3252 net.cpp:454] bn2_8_branch2a <- enet2_8_branch2a
I0417 16:59:07.658226  3252 net.cpp:397] bn2_8_branch2a -> enet2_8_branch2a (in-place)
I0417 16:59:07.658782  3252 net.cpp:150] Setting up bn2_8_branch2a
I0417 16:59:07.658797  3252 net.cpp:157] Top shape: 6 32 64 77 (946176)
I0417 16:59:07.658803  3252 net.cpp:165] Memory required for data: 3058040880
I0417 16:59:07.658813  3252 layer_factory.hpp:77] Creating layer relu2_8_branch2a
I0417 16:59:07.658824  3252 net.cpp:106] Creating Layer relu2_8_branch2a
I0417 16:59:07.658831  3252 net.cpp:454] relu2_8_branch2a <- enet2_8_branch2a
I0417 16:59:07.658844  3252 net.cpp:397] relu2_8_branch2a -> enet2_8_branch2a (in-place)
I0417 16:59:07.660112  3252 net.cpp:150] Setting up relu2_8_branch2a
I0417 16:59:07.660130  3252 net.cpp:157] Top shape: 6 32 64 77 (946176)
I0417 16:59:07.660138  3252 net.cpp:165] Memory required for data: 3061825584
I0417 16:59:07.660147  3252 layer_factory.hpp:77] Creating layer enet2_8_branch2b
I0417 16:59:07.660166  3252 net.cpp:106] Creating Layer enet2_8_branch2b
I0417 16:59:07.660174  3252 net.cpp:454] enet2_8_branch2b <- enet2_8_branch2a
I0417 16:59:07.660187  3252 net.cpp:411] enet2_8_branch2b -> enet2_8_branch2b
I0417 16:59:07.661015  3252 net.cpp:150] Setting up enet2_8_branch2b
I0417 16:59:07.661032  3252 net.cpp:157] Top shape: 6 32 64 77 (946176)
I0417 16:59:07.661039  3252 net.cpp:165] Memory required for data: 3065610288
I0417 16:59:07.661053  3252 layer_factory.hpp:77] Creating layer bn2_8_branch2b
I0417 16:59:07.661065  3252 net.cpp:106] Creating Layer bn2_8_branch2b
I0417 16:59:07.661073  3252 net.cpp:454] bn2_8_branch2b <- enet2_8_branch2b
I0417 16:59:07.661087  3252 net.cpp:397] bn2_8_branch2b -> enet2_8_branch2b (in-place)
I0417 16:59:07.661641  3252 net.cpp:150] Setting up bn2_8_branch2b
I0417 16:59:07.661655  3252 net.cpp:157] Top shape: 6 32 64 77 (946176)
I0417 16:59:07.661662  3252 net.cpp:165] Memory required for data: 3069394992
I0417 16:59:07.661672  3252 layer_factory.hpp:77] Creating layer relu2_8_branch2b
I0417 16:59:07.661685  3252 net.cpp:106] Creating Layer relu2_8_branch2b
I0417 16:59:07.661694  3252 net.cpp:454] relu2_8_branch2b <- enet2_8_branch2b
I0417 16:59:07.661702  3252 net.cpp:397] relu2_8_branch2b -> enet2_8_branch2b (in-place)
I0417 16:59:07.662953  3252 net.cpp:150] Setting up relu2_8_branch2b
I0417 16:59:07.662971  3252 net.cpp:157] Top shape: 6 32 64 77 (946176)
I0417 16:59:07.662977  3252 net.cpp:165] Memory required for data: 3073179696
I0417 16:59:07.662987  3252 layer_factory.hpp:77] Creating layer enet2_8_branch2c
I0417 16:59:07.663004  3252 net.cpp:106] Creating Layer enet2_8_branch2c
I0417 16:59:07.663028  3252 net.cpp:454] enet2_8_branch2c <- enet2_8_branch2b
I0417 16:59:07.663043  3252 net.cpp:411] enet2_8_branch2c -> enet2_8_branch2c
I0417 16:59:07.667114  3252 net.cpp:150] Setting up enet2_8_branch2c
I0417 16:59:07.667134  3252 net.cpp:157] Top shape: 6 128 64 77 (3784704)
I0417 16:59:07.667141  3252 net.cpp:165] Memory required for data: 3088318512
I0417 16:59:07.667150  3252 layer_factory.hpp:77] Creating layer bn2_8_branch2c
I0417 16:59:07.667166  3252 net.cpp:106] Creating Layer bn2_8_branch2c
I0417 16:59:07.667176  3252 net.cpp:454] bn2_8_branch2c <- enet2_8_branch2c
I0417 16:59:07.667189  3252 net.cpp:397] bn2_8_branch2c -> enet2_8_branch2c (in-place)
I0417 16:59:07.667747  3252 net.cpp:150] Setting up bn2_8_branch2c
I0417 16:59:07.667762  3252 net.cpp:157] Top shape: 6 128 64 77 (3784704)
I0417 16:59:07.667768  3252 net.cpp:165] Memory required for data: 3103457328
I0417 16:59:07.667778  3252 layer_factory.hpp:77] Creating layer dropout2_8_branch2c
I0417 16:59:07.667789  3252 net.cpp:106] Creating Layer dropout2_8_branch2c
I0417 16:59:07.667796  3252 net.cpp:454] dropout2_8_branch2c <- enet2_8_branch2c
I0417 16:59:07.667809  3252 net.cpp:397] dropout2_8_branch2c -> enet2_8_branch2c (in-place)
I0417 16:59:07.667870  3252 net.cpp:150] Setting up dropout2_8_branch2c
I0417 16:59:07.667883  3252 net.cpp:157] Top shape: 6 128 64 77 (3784704)
I0417 16:59:07.667891  3252 net.cpp:165] Memory required for data: 3118596144
I0417 16:59:07.667897  3252 layer_factory.hpp:77] Creating layer enet2_8
I0417 16:59:07.667910  3252 net.cpp:106] Creating Layer enet2_8
I0417 16:59:07.667920  3252 net.cpp:454] enet2_8 <- enet2_7_relu2_7_0_split_1
I0417 16:59:07.667929  3252 net.cpp:454] enet2_8 <- enet2_8_branch2c
I0417 16:59:07.667939  3252 net.cpp:411] enet2_8 -> enet2_8
I0417 16:59:07.668010  3252 net.cpp:150] Setting up enet2_8
I0417 16:59:07.668025  3252 net.cpp:157] Top shape: 6 128 64 77 (3784704)
I0417 16:59:07.668031  3252 net.cpp:165] Memory required for data: 3133734960
I0417 16:59:07.668037  3252 layer_factory.hpp:77] Creating layer relu2_8
I0417 16:59:07.668056  3252 net.cpp:106] Creating Layer relu2_8
I0417 16:59:07.668064  3252 net.cpp:454] relu2_8 <- enet2_8
I0417 16:59:07.668074  3252 net.cpp:397] relu2_8 -> enet2_8 (in-place)
I0417 16:59:07.671492  3252 net.cpp:150] Setting up relu2_8
I0417 16:59:07.671511  3252 net.cpp:157] Top shape: 6 128 64 77 (3784704)
I0417 16:59:07.671519  3252 net.cpp:165] Memory required for data: 3148873776
I0417 16:59:07.671528  3252 layer_factory.hpp:77] Creating layer enet2_8_relu2_8_0_split
I0417 16:59:07.671545  3252 net.cpp:106] Creating Layer enet2_8_relu2_8_0_split
I0417 16:59:07.671552  3252 net.cpp:454] enet2_8_relu2_8_0_split <- enet2_8
I0417 16:59:07.671562  3252 net.cpp:411] enet2_8_relu2_8_0_split -> enet2_8_relu2_8_0_split_0
I0417 16:59:07.671574  3252 net.cpp:411] enet2_8_relu2_8_0_split -> enet2_8_relu2_8_0_split_1
I0417 16:59:07.671675  3252 net.cpp:150] Setting up enet2_8_relu2_8_0_split
I0417 16:59:07.671689  3252 net.cpp:157] Top shape: 6 128 64 77 (3784704)
I0417 16:59:07.671697  3252 net.cpp:157] Top shape: 6 128 64 77 (3784704)
I0417 16:59:07.671703  3252 net.cpp:165] Memory required for data: 3179151408
I0417 16:59:07.671710  3252 layer_factory.hpp:77] Creating layer enet3_1_branch2a
I0417 16:59:07.671730  3252 net.cpp:106] Creating Layer enet3_1_branch2a
I0417 16:59:07.671738  3252 net.cpp:454] enet3_1_branch2a <- enet2_8_relu2_8_0_split_0
I0417 16:59:07.671749  3252 net.cpp:411] enet3_1_branch2a -> enet3_1_branch2a
I0417 16:59:07.676853  3252 net.cpp:150] Setting up enet3_1_branch2a
I0417 16:59:07.676873  3252 net.cpp:157] Top shape: 6 32 64 77 (946176)
I0417 16:59:07.676882  3252 net.cpp:165] Memory required for data: 3182936112
I0417 16:59:07.676890  3252 layer_factory.hpp:77] Creating layer bn3_1_branch2a
I0417 16:59:07.676906  3252 net.cpp:106] Creating Layer bn3_1_branch2a
I0417 16:59:07.676915  3252 net.cpp:454] bn3_1_branch2a <- enet3_1_branch2a
I0417 16:59:07.676928  3252 net.cpp:397] bn3_1_branch2a -> enet3_1_branch2a (in-place)
I0417 16:59:07.677525  3252 net.cpp:150] Setting up bn3_1_branch2a
I0417 16:59:07.677541  3252 net.cpp:157] Top shape: 6 32 64 77 (946176)
I0417 16:59:07.677547  3252 net.cpp:165] Memory required for data: 3186720816
I0417 16:59:07.677557  3252 layer_factory.hpp:77] Creating layer relu3_1_branch2a
I0417 16:59:07.677567  3252 net.cpp:106] Creating Layer relu3_1_branch2a
I0417 16:59:07.677574  3252 net.cpp:454] relu3_1_branch2a <- enet3_1_branch2a
I0417 16:59:07.677584  3252 net.cpp:397] relu3_1_branch2a -> enet3_1_branch2a (in-place)
I0417 16:59:07.678858  3252 net.cpp:150] Setting up relu3_1_branch2a
I0417 16:59:07.678875  3252 net.cpp:157] Top shape: 6 32 64 77 (946176)
I0417 16:59:07.678882  3252 net.cpp:165] Memory required for data: 3190505520
I0417 16:59:07.678892  3252 layer_factory.hpp:77] Creating layer enet3_1_branch2b
I0417 16:59:07.678912  3252 net.cpp:106] Creating Layer enet3_1_branch2b
I0417 16:59:07.678920  3252 net.cpp:454] enet3_1_branch2b <- enet3_1_branch2a
I0417 16:59:07.678932  3252 net.cpp:411] enet3_1_branch2b -> enet3_1_branch2b
I0417 16:59:07.682891  3252 net.cpp:150] Setting up enet3_1_branch2b
I0417 16:59:07.682910  3252 net.cpp:157] Top shape: 6 32 64 77 (946176)
I0417 16:59:07.682919  3252 net.cpp:165] Memory required for data: 3194290224
I0417 16:59:07.682929  3252 layer_factory.hpp:77] Creating layer bn3_1_branch2b
I0417 16:59:07.682945  3252 net.cpp:106] Creating Layer bn3_1_branch2b
I0417 16:59:07.682955  3252 net.cpp:454] bn3_1_branch2b <- enet3_1_branch2b
I0417 16:59:07.682965  3252 net.cpp:397] bn3_1_branch2b -> enet3_1_branch2b (in-place)
I0417 16:59:07.683565  3252 net.cpp:150] Setting up bn3_1_branch2b
I0417 16:59:07.683580  3252 net.cpp:157] Top shape: 6 32 64 77 (946176)
I0417 16:59:07.683588  3252 net.cpp:165] Memory required for data: 3198074928
I0417 16:59:07.683598  3252 layer_factory.hpp:77] Creating layer relu3_1_branch2b
I0417 16:59:07.683609  3252 net.cpp:106] Creating Layer relu3_1_branch2b
I0417 16:59:07.683615  3252 net.cpp:454] relu3_1_branch2b <- enet3_1_branch2b
I0417 16:59:07.683624  3252 net.cpp:397] relu3_1_branch2b -> enet3_1_branch2b (in-place)
I0417 16:59:07.684909  3252 net.cpp:150] Setting up relu3_1_branch2b
I0417 16:59:07.684929  3252 net.cpp:157] Top shape: 6 32 64 77 (946176)
I0417 16:59:07.684937  3252 net.cpp:165] Memory required for data: 3201859632
I0417 16:59:07.684947  3252 layer_factory.hpp:77] Creating layer enet3_1_branch2c
I0417 16:59:07.684964  3252 net.cpp:106] Creating Layer enet3_1_branch2c
I0417 16:59:07.684973  3252 net.cpp:454] enet3_1_branch2c <- enet3_1_branch2b
I0417 16:59:07.684984  3252 net.cpp:411] enet3_1_branch2c -> enet3_1_branch2c
I0417 16:59:07.688930  3252 net.cpp:150] Setting up enet3_1_branch2c
I0417 16:59:07.688949  3252 net.cpp:157] Top shape: 6 128 64 77 (3784704)
I0417 16:59:07.688957  3252 net.cpp:165] Memory required for data: 3216998448
I0417 16:59:07.688967  3252 layer_factory.hpp:77] Creating layer bn3_1_branch2c
I0417 16:59:07.688983  3252 net.cpp:106] Creating Layer bn3_1_branch2c
I0417 16:59:07.688992  3252 net.cpp:454] bn3_1_branch2c <- enet3_1_branch2c
I0417 16:59:07.689005  3252 net.cpp:397] bn3_1_branch2c -> enet3_1_branch2c (in-place)
I0417 16:59:07.689607  3252 net.cpp:150] Setting up bn3_1_branch2c
I0417 16:59:07.689622  3252 net.cpp:157] Top shape: 6 128 64 77 (3784704)
I0417 16:59:07.689630  3252 net.cpp:165] Memory required for data: 3232137264
I0417 16:59:07.689640  3252 layer_factory.hpp:77] Creating layer dropout3_1_branch2c
I0417 16:59:07.689651  3252 net.cpp:106] Creating Layer dropout3_1_branch2c
I0417 16:59:07.689659  3252 net.cpp:454] dropout3_1_branch2c <- enet3_1_branch2c
I0417 16:59:07.689668  3252 net.cpp:397] dropout3_1_branch2c -> enet3_1_branch2c (in-place)
I0417 16:59:07.689734  3252 net.cpp:150] Setting up dropout3_1_branch2c
I0417 16:59:07.689749  3252 net.cpp:157] Top shape: 6 128 64 77 (3784704)
I0417 16:59:07.689755  3252 net.cpp:165] Memory required for data: 3247276080
I0417 16:59:07.689762  3252 layer_factory.hpp:77] Creating layer enet3_1
I0417 16:59:07.689785  3252 net.cpp:106] Creating Layer enet3_1
I0417 16:59:07.689802  3252 net.cpp:454] enet3_1 <- enet2_8_relu2_8_0_split_1
I0417 16:59:07.689811  3252 net.cpp:454] enet3_1 <- enet3_1_branch2c
I0417 16:59:07.689821  3252 net.cpp:411] enet3_1 -> enet3_1
I0417 16:59:07.689889  3252 net.cpp:150] Setting up enet3_1
I0417 16:59:07.689903  3252 net.cpp:157] Top shape: 6 128 64 77 (3784704)
I0417 16:59:07.689909  3252 net.cpp:165] Memory required for data: 3262414896
I0417 16:59:07.689915  3252 layer_factory.hpp:77] Creating layer relu3_1
I0417 16:59:07.689925  3252 net.cpp:106] Creating Layer relu3_1
I0417 16:59:07.689932  3252 net.cpp:454] relu3_1 <- enet3_1
I0417 16:59:07.689945  3252 net.cpp:397] relu3_1 -> enet3_1 (in-place)
I0417 16:59:07.693418  3252 net.cpp:150] Setting up relu3_1
I0417 16:59:07.693436  3252 net.cpp:157] Top shape: 6 128 64 77 (3784704)
I0417 16:59:07.693444  3252 net.cpp:165] Memory required for data: 3277553712
I0417 16:59:07.693454  3252 layer_factory.hpp:77] Creating layer enet3_1_relu3_1_0_split
I0417 16:59:07.693469  3252 net.cpp:106] Creating Layer enet3_1_relu3_1_0_split
I0417 16:59:07.693476  3252 net.cpp:454] enet3_1_relu3_1_0_split <- enet3_1
I0417 16:59:07.693486  3252 net.cpp:411] enet3_1_relu3_1_0_split -> enet3_1_relu3_1_0_split_0
I0417 16:59:07.693498  3252 net.cpp:411] enet3_1_relu3_1_0_split -> enet3_1_relu3_1_0_split_1
I0417 16:59:07.693604  3252 net.cpp:150] Setting up enet3_1_relu3_1_0_split
I0417 16:59:07.693619  3252 net.cpp:157] Top shape: 6 128 64 77 (3784704)
I0417 16:59:07.693626  3252 net.cpp:157] Top shape: 6 128 64 77 (3784704)
I0417 16:59:07.693632  3252 net.cpp:165] Memory required for data: 3307831344
I0417 16:59:07.693639  3252 layer_factory.hpp:77] Creating layer enet3_2_branch2a
I0417 16:59:07.693653  3252 net.cpp:106] Creating Layer enet3_2_branch2a
I0417 16:59:07.693661  3252 net.cpp:454] enet3_2_branch2a <- enet3_1_relu3_1_0_split_0
I0417 16:59:07.693676  3252 net.cpp:411] enet3_2_branch2a -> enet3_2_branch2a
I0417 16:59:07.697389  3252 net.cpp:150] Setting up enet3_2_branch2a
I0417 16:59:07.697408  3252 net.cpp:157] Top shape: 6 32 64 77 (946176)
I0417 16:59:07.697417  3252 net.cpp:165] Memory required for data: 3311616048
I0417 16:59:07.697425  3252 layer_factory.hpp:77] Creating layer bn3_2_branch2a
I0417 16:59:07.697441  3252 net.cpp:106] Creating Layer bn3_2_branch2a
I0417 16:59:07.697449  3252 net.cpp:454] bn3_2_branch2a <- enet3_2_branch2a
I0417 16:59:07.697463  3252 net.cpp:397] bn3_2_branch2a -> enet3_2_branch2a (in-place)
I0417 16:59:07.698076  3252 net.cpp:150] Setting up bn3_2_branch2a
I0417 16:59:07.698091  3252 net.cpp:157] Top shape: 6 32 64 77 (946176)
I0417 16:59:07.698097  3252 net.cpp:165] Memory required for data: 3315400752
I0417 16:59:07.698108  3252 layer_factory.hpp:77] Creating layer relu3_2_branch2a
I0417 16:59:07.698122  3252 net.cpp:106] Creating Layer relu3_2_branch2a
I0417 16:59:07.698130  3252 net.cpp:454] relu3_2_branch2a <- enet3_2_branch2a
I0417 16:59:07.698140  3252 net.cpp:397] relu3_2_branch2a -> enet3_2_branch2a (in-place)
I0417 16:59:07.700093  3252 net.cpp:150] Setting up relu3_2_branch2a
I0417 16:59:07.700109  3252 net.cpp:157] Top shape: 6 32 64 77 (946176)
I0417 16:59:07.700117  3252 net.cpp:165] Memory required for data: 3319185456
I0417 16:59:07.700126  3252 layer_factory.hpp:77] Creating layer enet3_2_branch2b
I0417 16:59:07.700145  3252 net.cpp:106] Creating Layer enet3_2_branch2b
I0417 16:59:07.700153  3252 net.cpp:454] enet3_2_branch2b <- enet3_2_branch2a
I0417 16:59:07.700167  3252 net.cpp:411] enet3_2_branch2b -> enet3_2_branch2b
I0417 16:59:07.701056  3252 net.cpp:150] Setting up enet3_2_branch2b
I0417 16:59:07.701071  3252 net.cpp:157] Top shape: 6 32 64 77 (946176)
I0417 16:59:07.701078  3252 net.cpp:165] Memory required for data: 3322970160
I0417 16:59:07.701088  3252 layer_factory.hpp:77] Creating layer bn3_2_branch2b
I0417 16:59:07.701100  3252 net.cpp:106] Creating Layer bn3_2_branch2b
I0417 16:59:07.701108  3252 net.cpp:454] bn3_2_branch2b <- enet3_2_branch2b
I0417 16:59:07.701122  3252 net.cpp:397] bn3_2_branch2b -> enet3_2_branch2b (in-place)
I0417 16:59:07.701748  3252 net.cpp:150] Setting up bn3_2_branch2b
I0417 16:59:07.701763  3252 net.cpp:157] Top shape: 6 32 64 77 (946176)
I0417 16:59:07.701769  3252 net.cpp:165] Memory required for data: 3326754864
I0417 16:59:07.701781  3252 layer_factory.hpp:77] Creating layer relu3_2_branch2b
I0417 16:59:07.701789  3252 net.cpp:106] Creating Layer relu3_2_branch2b
I0417 16:59:07.701797  3252 net.cpp:454] relu3_2_branch2b <- enet3_2_branch2b
I0417 16:59:07.701807  3252 net.cpp:397] relu3_2_branch2b -> enet3_2_branch2b (in-place)
I0417 16:59:07.703084  3252 net.cpp:150] Setting up relu3_2_branch2b
I0417 16:59:07.703105  3252 net.cpp:157] Top shape: 6 32 64 77 (946176)
I0417 16:59:07.703112  3252 net.cpp:165] Memory required for data: 3330539568
I0417 16:59:07.703122  3252 layer_factory.hpp:77] Creating layer enet3_2_branch2c
I0417 16:59:07.703140  3252 net.cpp:106] Creating Layer enet3_2_branch2c
I0417 16:59:07.703147  3252 net.cpp:454] enet3_2_branch2c <- enet3_2_branch2b
I0417 16:59:07.703160  3252 net.cpp:411] enet3_2_branch2c -> enet3_2_branch2c
I0417 16:59:07.707110  3252 net.cpp:150] Setting up enet3_2_branch2c
I0417 16:59:07.707130  3252 net.cpp:157] Top shape: 6 128 64 77 (3784704)
I0417 16:59:07.707139  3252 net.cpp:165] Memory required for data: 3345678384
I0417 16:59:07.707147  3252 layer_factory.hpp:77] Creating layer bn3_2_branch2c
I0417 16:59:07.707166  3252 net.cpp:106] Creating Layer bn3_2_branch2c
I0417 16:59:07.707175  3252 net.cpp:454] bn3_2_branch2c <- enet3_2_branch2c
I0417 16:59:07.707185  3252 net.cpp:397] bn3_2_branch2c -> enet3_2_branch2c (in-place)
I0417 16:59:07.707787  3252 net.cpp:150] Setting up bn3_2_branch2c
I0417 16:59:07.707803  3252 net.cpp:157] Top shape: 6 128 64 77 (3784704)
I0417 16:59:07.707808  3252 net.cpp:165] Memory required for data: 3360817200
I0417 16:59:07.707819  3252 layer_factory.hpp:77] Creating layer dropout3_2_branch2c
I0417 16:59:07.707830  3252 net.cpp:106] Creating Layer dropout3_2_branch2c
I0417 16:59:07.707837  3252 net.cpp:454] dropout3_2_branch2c <- enet3_2_branch2c
I0417 16:59:07.707847  3252 net.cpp:397] dropout3_2_branch2c -> enet3_2_branch2c (in-place)
I0417 16:59:07.707909  3252 net.cpp:150] Setting up dropout3_2_branch2c
I0417 16:59:07.707923  3252 net.cpp:157] Top shape: 6 128 64 77 (3784704)
I0417 16:59:07.707929  3252 net.cpp:165] Memory required for data: 3375956016
I0417 16:59:07.707937  3252 layer_factory.hpp:77] Creating layer enet3_2
I0417 16:59:07.707950  3252 net.cpp:106] Creating Layer enet3_2
I0417 16:59:07.707958  3252 net.cpp:454] enet3_2 <- enet3_1_relu3_1_0_split_1
I0417 16:59:07.707967  3252 net.cpp:454] enet3_2 <- enet3_2_branch2c
I0417 16:59:07.707980  3252 net.cpp:411] enet3_2 -> enet3_2
I0417 16:59:07.708042  3252 net.cpp:150] Setting up enet3_2
I0417 16:59:07.708060  3252 net.cpp:157] Top shape: 6 128 64 77 (3784704)
I0417 16:59:07.708067  3252 net.cpp:165] Memory required for data: 3391094832
I0417 16:59:07.708075  3252 layer_factory.hpp:77] Creating layer relu3_2
I0417 16:59:07.708089  3252 net.cpp:106] Creating Layer relu3_2
I0417 16:59:07.708097  3252 net.cpp:454] relu3_2 <- enet3_2
I0417 16:59:07.708106  3252 net.cpp:397] relu3_2 -> enet3_2 (in-place)
I0417 16:59:07.711012  3252 net.cpp:150] Setting up relu3_2
I0417 16:59:07.711030  3252 net.cpp:157] Top shape: 6 128 64 77 (3784704)
I0417 16:59:07.711037  3252 net.cpp:165] Memory required for data: 3406233648
I0417 16:59:07.711046  3252 layer_factory.hpp:77] Creating layer enet3_2_relu3_2_0_split
I0417 16:59:07.711066  3252 net.cpp:106] Creating Layer enet3_2_relu3_2_0_split
I0417 16:59:07.711073  3252 net.cpp:454] enet3_2_relu3_2_0_split <- enet3_2
I0417 16:59:07.711087  3252 net.cpp:411] enet3_2_relu3_2_0_split -> enet3_2_relu3_2_0_split_0
I0417 16:59:07.711100  3252 net.cpp:411] enet3_2_relu3_2_0_split -> enet3_2_relu3_2_0_split_1
I0417 16:59:07.711203  3252 net.cpp:150] Setting up enet3_2_relu3_2_0_split
I0417 16:59:07.711221  3252 net.cpp:157] Top shape: 6 128 64 77 (3784704)
I0417 16:59:07.711230  3252 net.cpp:157] Top shape: 6 128 64 77 (3784704)
I0417 16:59:07.711251  3252 net.cpp:165] Memory required for data: 3436511280
I0417 16:59:07.711259  3252 layer_factory.hpp:77] Creating layer enet3_3_branch2a
I0417 16:59:07.711277  3252 net.cpp:106] Creating Layer enet3_3_branch2a
I0417 16:59:07.711285  3252 net.cpp:454] enet3_3_branch2a <- enet3_2_relu3_2_0_split_0
I0417 16:59:07.711297  3252 net.cpp:411] enet3_3_branch2a -> enet3_3_branch2a
I0417 16:59:07.715330  3252 net.cpp:150] Setting up enet3_3_branch2a
I0417 16:59:07.715350  3252 net.cpp:157] Top shape: 6 32 64 77 (946176)
I0417 16:59:07.715358  3252 net.cpp:165] Memory required for data: 3440295984
I0417 16:59:07.715368  3252 layer_factory.hpp:77] Creating layer bn3_3_branch2a
I0417 16:59:07.715384  3252 net.cpp:106] Creating Layer bn3_3_branch2a
I0417 16:59:07.715392  3252 net.cpp:454] bn3_3_branch2a <- enet3_3_branch2a
I0417 16:59:07.715404  3252 net.cpp:397] bn3_3_branch2a -> enet3_3_branch2a (in-place)
I0417 16:59:07.716037  3252 net.cpp:150] Setting up bn3_3_branch2a
I0417 16:59:07.716055  3252 net.cpp:157] Top shape: 6 32 64 77 (946176)
I0417 16:59:07.716063  3252 net.cpp:165] Memory required for data: 3444080688
I0417 16:59:07.716073  3252 layer_factory.hpp:77] Creating layer relu3_3_branch2a
I0417 16:59:07.716084  3252 net.cpp:106] Creating Layer relu3_3_branch2a
I0417 16:59:07.716090  3252 net.cpp:454] relu3_3_branch2a <- enet3_3_branch2a
I0417 16:59:07.716100  3252 net.cpp:397] relu3_3_branch2a -> enet3_3_branch2a (in-place)
I0417 16:59:07.717377  3252 net.cpp:150] Setting up relu3_3_branch2a
I0417 16:59:07.717396  3252 net.cpp:157] Top shape: 6 32 64 77 (946176)
I0417 16:59:07.717402  3252 net.cpp:165] Memory required for data: 3447865392
I0417 16:59:07.717412  3252 layer_factory.hpp:77] Creating layer enet3_3_branch2b1
I0417 16:59:07.717429  3252 net.cpp:106] Creating Layer enet3_3_branch2b1
I0417 16:59:07.717438  3252 net.cpp:454] enet3_3_branch2b1 <- enet3_3_branch2a
I0417 16:59:07.717449  3252 net.cpp:411] enet3_3_branch2b1 -> enet3_3_branch2b1
I0417 16:59:07.721745  3252 net.cpp:150] Setting up enet3_3_branch2b1
I0417 16:59:07.721765  3252 net.cpp:157] Top shape: 6 32 64 77 (946176)
I0417 16:59:07.721772  3252 net.cpp:165] Memory required for data: 3451650096
I0417 16:59:07.721782  3252 layer_factory.hpp:77] Creating layer enet3_3_branch2b
I0417 16:59:07.721799  3252 net.cpp:106] Creating Layer enet3_3_branch2b
I0417 16:59:07.721808  3252 net.cpp:454] enet3_3_branch2b <- enet3_3_branch2b1
I0417 16:59:07.721823  3252 net.cpp:411] enet3_3_branch2b -> enet3_3_branch2b
I0417 16:59:07.726891  3252 net.cpp:150] Setting up enet3_3_branch2b
I0417 16:59:07.726910  3252 net.cpp:157] Top shape: 6 32 64 77 (946176)
I0417 16:59:07.726918  3252 net.cpp:165] Memory required for data: 3455434800
I0417 16:59:07.726929  3252 layer_factory.hpp:77] Creating layer bn3_3_branch2b
I0417 16:59:07.726948  3252 net.cpp:106] Creating Layer bn3_3_branch2b
I0417 16:59:07.726956  3252 net.cpp:454] bn3_3_branch2b <- enet3_3_branch2b
I0417 16:59:07.726968  3252 net.cpp:397] bn3_3_branch2b -> enet3_3_branch2b (in-place)
…
I0417 16:59:07.795732  3252 net.cpp:411] enet3_6_relu3_6_0_split -> enet3_6_relu3_6_0_split_1
I0417 16:59:07.795788  3252 net.cpp:150] Setting up enet3_6_relu3_6_0_split
I0417 16:59:07.795800  3252 net.cpp:157] Top shape: 6 128 64 77 (3784704)
I0417 16:59:07.795809  3252 net.cpp:157] Top shape: 6 128 64 77 (3784704)
I0417 16:59:07.795814  3252 net.cpp:165] Memory required for data: 3955015728
I0417 16:59:07.795820  3252 layer_factory.hpp:77] Creating layer enet3_7_branch2a
I0417 16:59:07.795835  3252 net.cpp:106] Creating Layer enet3_7_branch2a
I0417 16:59:07.795842  3252 net.cpp:454] enet3_7_branch2a <- enet3_6_relu3_6_0_split_0
I0417 16:59:07.795853  3252 net.cpp:411] enet3_7_branch2a -> enet3_7_branch2a
I0417 16:59:07.799490  3252 net.cpp:150] Setting up enet3_7_branch2a
I0417 16:59:07.799509  3252 net.cpp:157] Top shape: 6 32 64 77 (946176)
I0417 16:59:07.799516  3252 net.cpp:165] Memory required for data: 3958800432
I0417 16:59:07.799526  3252 layer_factory.hpp:77] Creating layer bn3_7_branch2a
I0417 16:59:07.799542  3252 net.cpp:106] Creating Layer bn3_7_branch2a
I0417 16:59:07.799551  3252 net.cpp:454] bn3_7_branch2a <- enet3_7_branch2a
I0417 16:59:07.799564  3252 net.cpp:397] bn3_7_branch2a -> enet3_7_branch2a (in-place)
I0417 16:59:07.799875  3252 net.cpp:150] Setting up bn3_7_branch2a
I0417 16:59:07.799890  3252 net.cpp:157] Top shape: 6 32 64 77 (946176)
I0417 16:59:07.799897  3252 net.cpp:165] Memory required for data: 3962585136
I0417 16:59:07.799907  3252 layer_factory.hpp:77] Creating layer relu3_7_branch2a
I0417 16:59:07.799917  3252 net.cpp:106] Creating Layer relu3_7_branch2a
I0417 16:59:07.799924  3252 net.cpp:454] relu3_7_branch2a <- enet3_7_branch2a
I0417 16:59:07.799934  3252 net.cpp:397] relu3_7_branch2a -> enet3_7_branch2a (in-place)
I0417 16:59:07.801132  3252 net.cpp:150] Setting up relu3_7_branch2a
I0417 16:59:07.801151  3252 net.cpp:157] Top shape: 6 32 64 77 (946176)
I0417 16:59:07.801157  3252 net.cpp:165] Memory required for data: 3966369840
I0417 16:59:07.801174  3252 layer_factory.hpp:77] Creating layer enet3_7_branch2b1
I0417 16:59:07.801203  3252 net.cpp:106] Creating Layer enet3_7_branch2b1
I0417 16:59:07.801213  3252 net.cpp:454] enet3_7_branch2b1 <- enet3_7_branch2a
I0417 16:59:07.801224  3252 net.cpp:411] enet3_7_branch2b1 -> enet3_7_branch2b1
I0417 16:59:07.805119  3252 net.cpp:150] Setting up enet3_7_branch2b1
I0417 16:59:07.805138  3252 net.cpp:157] Top shape: 6 32 64 77 (946176)
I0417 16:59:07.805146  3252 net.cpp:165] Memory required for data: 3970154544
I0417 16:59:07.805156  3252 layer_factory.hpp:77] Creating layer enet3_7_branch2b
I0417 16:59:07.805173  3252 net.cpp:106] Creating Layer enet3_7_branch2b
I0417 16:59:07.805182  3252 net.cpp:454] enet3_7_branch2b <- enet3_7_branch2b1
I0417 16:59:07.805197  3252 net.cpp:411] enet3_7_branch2b -> enet3_7_branch2b
I0417 16:59:07.808900  3252 net.cpp:150] Setting up enet3_7_branch2b
I0417 16:59:07.808919  3252 net.cpp:157] Top shape: 6 32 64 77 (946176)
I0417 16:59:07.808926  3252 net.cpp:165] Memory required for data: 3973939248
I0417 16:59:07.808938  3252 layer_factory.hpp:77] Creating layer bn3_7_branch2b
I0417 16:59:07.808954  3252 net.cpp:106] Creating Layer bn3_7_branch2b
I0417 16:59:07.808961  3252 net.cpp:454] bn3_7_branch2b <- enet3_7_branch2b
I0417 16:59:07.808975  3252 net.cpp:397] bn3_7_branch2b -> enet3_7_branch2b (in-place)
I0417 16:59:07.809797  3252 net.cpp:150] Setting up bn3_7_branch2b
I0417 16:59:07.809813  3252 net.cpp:157] Top shape: 6 32 64 77 (946176)
I0417 16:59:07.809819  3252 net.cpp:165] Memory required for data: 3977723952
I0417 16:59:07.809830  3252 layer_factory.hpp:77] Creating layer relu3_7_branch2b
I0417 16:59:07.809840  3252 net.cpp:106] Creating Layer relu3_7_branch2b
I0417 16:59:07.809847  3252 net.cpp:454] relu3_7_branch2b <- enet3_7_branch2b
I0417 16:59:07.809857  3252 net.cpp:397] relu3_7_branch2b -> enet3_7_branch2b (in-place)
I0417 16:59:07.811048  3252 net.cpp:150] Setting up relu3_7_branch2b
I0417 16:59:07.811069  3252 net.cpp:157] Top shape: 6 32 64 77 (946176)
I0417 16:59:07.811076  3252 net.cpp:165] Memory required for data: 3981508656
I0417 16:59:07.811086  3252 layer_factory.hpp:77] Creating layer enet3_7_branch2c
I0417 16:59:07.811103  3252 net.cpp:106] Creating Layer enet3_7_branch2c
I0417 16:59:07.811112  3252 net.cpp:454] enet3_7_branch2c <- enet3_7_branch2b
I0417 16:59:07.811127  3252 net.cpp:411] enet3_7_branch2c -> enet3_7_branch2c
I0417 16:59:07.815706  3252 net.cpp:150] Setting up enet3_7_branch2c
I0417 16:59:07.815726  3252 net.cpp:157] Top shape: 6 128 64 77 (3784704)
I0417 16:59:07.815733  3252 net.cpp:165] Memory required for data: 3996647472
I0417 16:59:07.815743  3252 layer_factory.hpp:77] Creating layer bn3_7_branch2c
I0417 16:59:07.815759  3252 net.cpp:106] Creating Layer bn3_7_branch2c
I0417 16:59:07.815768  3252 net.cpp:454] bn3_7_branch2c <- enet3_7_branch2c
I0417 16:59:07.815779  3252 net.cpp:397] bn3_7_branch2c -> enet3_7_branch2c (in-place)
I0417 16:59:07.816098  3252 net.cpp:150] Setting up bn3_7_branch2c
I0417 16:59:07.816113  3252 net.cpp:157] Top shape: 6 128 64 77 (3784704)
I0417 16:59:07.816120  3252 net.cpp:165] Memory required for data: 4011786288
I0417 16:59:07.816130  3252 layer_factory.hpp:77] Creating layer dropout3_7_branch2c
I0417 16:59:07.816141  3252 net.cpp:106] Creating Layer dropout3_7_branch2c
I0417 16:59:07.816149  3252 net.cpp:454] dropout3_7_branch2c <- enet3_7_branch2c
I0417 16:59:07.816159  3252 net.cpp:397] dropout3_7_branch2c -> enet3_7_branch2c (in-place)
I0417 16:59:07.816200  3252 net.cpp:150] Setting up dropout3_7_branch2c
I0417 16:59:07.816213  3252 net.cpp:157] Top shape: 6 128 64 77 (3784704)
I0417 16:59:07.816220  3252 net.cpp:165] Memory required for data: 4026925104
I0417 16:59:07.816227  3252 layer_factory.hpp:77] Creating layer enet3_7
I0417 16:59:07.816241  3252 net.cpp:106] Creating Layer enet3_7
I0417 16:59:07.816248  3252 net.cpp:454] enet3_7 <- enet3_6_relu3_6_0_split_1
I0417 16:59:07.816257  3252 net.cpp:454] enet3_7 <- enet3_7_branch2c
I0417 16:59:07.816267  3252 net.cpp:411] enet3_7 -> enet3_7
I0417 16:59:07.816313  3252 net.cpp:150] Setting up enet3_7
I0417 16:59:07.816336  3252 net.cpp:157] Top shape: 6 128 64 77 (3784704)
I0417 16:59:07.816344  3252 net.cpp:165] Memory required for data: 4042063920
I0417 16:59:07.816350  3252 layer_factory.hpp:77] Creating layer relu3_7
I0417 16:59:07.816364  3252 net.cpp:106] Creating Layer relu3_7
I0417 16:59:07.816371  3252 net.cpp:454] relu3_7 <- enet3_7
I0417 16:59:07.816383  3252 net.cpp:397] relu3_7 -> enet3_7 (in-place)
I0417 16:59:07.819187  3252 net.cpp:150] Setting up relu3_7
I0417 16:59:07.819205  3252 net.cpp:157] Top shape: 6 128 64 77 (3784704)
I0417 16:59:07.819213  3252 net.cpp:165] Memory required for data: 4057202736
I0417 16:59:07.819222  3252 layer_factory.hpp:77] Creating layer enet3_7_relu3_7_0_split
I0417 16:59:07.819236  3252 net.cpp:106] Creating Layer enet3_7_relu3_7_0_split
I0417 16:59:07.819245  3252 net.cpp:454] enet3_7_relu3_7_0_split <- enet3_7
I0417 16:59:07.819255  3252 net.cpp:411] enet3_7_relu3_7_0_split -> enet3_7_relu3_7_0_split_0
I0417 16:59:07.819268  3252 net.cpp:411] enet3_7_relu3_7_0_split -> enet3_7_relu3_7_0_split_1
I0417 16:59:07.819329  3252 net.cpp:150] Setting up enet3_7_relu3_7_0_split
I0417 16:59:07.819341  3252 net.cpp:157] Top shape: 6 128 64 77 (3784704)
I0417 16:59:07.819350  3252 net.cpp:157] Top shape: 6 128 64 77 (3784704)
I0417 16:59:07.819355  3252 net.cpp:165] Memory required for data: 4087480368
I0417 16:59:07.819362  3252 layer_factory.hpp:77] Creating layer enet3_8_branch2a
I0417 16:59:07.819378  3252 net.cpp:106] Creating Layer enet3_8_branch2a
I0417 16:59:07.819387  3252 net.cpp:454] enet3_8_branch2a <- enet3_7_relu3_7_0_split_0
I0417 16:59:07.819398  3252 net.cpp:411] enet3_8_branch2a -> enet3_8_branch2a
I0417 16:59:07.823535  3252 net.cpp:150] Setting up enet3_8_branch2a
I0417 16:59:07.823555  3252 net.cpp:157] Top shape: 6 32 64 77 (946176)
I0417 16:59:07.823562  3252 net.cpp:165] Memory required for data: 4091265072
I0417 16:59:07.823572  3252 layer_factory.hpp:77] Creating layer bn3_8_branch2a
I0417 16:59:07.823590  3252 net.cpp:106] Creating Layer bn3_8_branch2a
I0417 16:59:07.823597  3252 net.cpp:454] bn3_8_branch2a <- enet3_8_branch2a
I0417 16:59:07.823612  3252 net.cpp:397] bn3_8_branch2a -> enet3_8_branch2a (in-place)
I0417 16:59:07.823957  3252 net.cpp:150] Setting up bn3_8_branch2a
I0417 16:59:07.823972  3252 net.cpp:157] Top shape: 6 32 64 77 (946176)
I0417 16:59:07.823979  3252 net.cpp:165] Memory required for data: 4095049776
I0417 16:59:07.823989  3252 layer_factory.hpp:77] Creating layer relu3_8_branch2a
I0417 16:59:07.824003  3252 net.cpp:106] Creating Layer relu3_8_branch2a
I0417 16:59:07.824012  3252 net.cpp:454] relu3_8_branch2a <- enet3_8_branch2a
I0417 16:59:07.824021  3252 net.cpp:397] relu3_8_branch2a -> enet3_8_branch2a (in-place)
I0417 16:59:07.825443  3252 net.cpp:150] Setting up relu3_8_branch2a
I0417 16:59:07.825460  3252 net.cpp:157] Top shape: 6 32 64 77 (946176)
I0417 16:59:07.825467  3252 net.cpp:165] Memory required for data: 4098834480
I0417 16:59:07.825476  3252 layer_factory.hpp:77] Creating layer enet3_8_branch2b
I0417 16:59:07.825496  3252 net.cpp:106] Creating Layer enet3_8_branch2b
I0417 16:59:07.825505  3252 net.cpp:454] enet3_8_branch2b <- enet3_8_branch2a
I0417 16:59:07.825529  3252 net.cpp:411] enet3_8_branch2b -> enet3_8_branch2b
I0417 16:59:07.826122  3252 net.cpp:150] Setting up enet3_8_branch2b
I0417 16:59:07.826138  3252 net.cpp:157] Top shape: 6 32 64 77 (946176)
I0417 16:59:07.826144  3252 net.cpp:165] Memory required for data: 4102619184
I0417 16:59:07.826155  3252 layer_factory.hpp:77] Creating layer bn3_8_branch2b
I0417 16:59:07.826167  3252 net.cpp:106] Creating Layer bn3_8_branch2b
I0417 16:59:07.826174  3252 net.cpp:454] bn3_8_branch2b <- enet3_8_branch2b
I0417 16:59:07.826189  3252 net.cpp:397] bn3_8_branch2b -> enet3_8_branch2b (in-place)
I0417 16:59:07.826516  3252 net.cpp:150] Setting up bn3_8_branch2b
I0417 16:59:07.826530  3252 net.cpp:157] Top shape: 6 32 64 77 (946176)
I0417 16:59:07.826537  3252 net.cpp:165] Memory required for data: 4106403888
I0417 16:59:07.826565  3252 layer_factory.hpp:77] Creating layer relu3_8_branch2b
I0417 16:59:07.826577  3252 net.cpp:106] Creating Layer relu3_8_branch2b
I0417 16:59:07.826584  3252 net.cpp:454] relu3_8_branch2b <- enet3_8_branch2b
I0417 16:59:07.826593  3252 net.cpp:397] relu3_8_branch2b -> enet3_8_branch2b (in-place)
I0417 16:59:07.827765  3252 net.cpp:150] Setting up relu3_8_branch2b
I0417 16:59:07.827786  3252 net.cpp:157] Top shape: 6 32 64 77 (946176)
I0417 16:59:07.827795  3252 net.cpp:165] Memory required for data: 4110188592
I0417 16:59:07.827803  3252 layer_factory.hpp:77] Creating layer enet3_8_branch2c
I0417 16:59:07.827821  3252 net.cpp:106] Creating Layer enet3_8_branch2c
I0417 16:59:07.827829  3252 net.cpp:454] enet3_8_branch2c <- enet3_8_branch2b
I0417 16:59:07.827841  3252 net.cpp:411] enet3_8_branch2c -> enet3_8_branch2c
I0417 16:59:07.832115  3252 net.cpp:150] Setting up enet3_8_branch2c
I0417 16:59:07.832134  3252 net.cpp:157] Top shape: 6 128 64 77 (3784704)
I0417 16:59:07.832142  3252 net.cpp:165] Memory required for data: 4125327408
I0417 16:59:07.832151  3252 layer_factory.hpp:77] Creating layer bn3_8_branch2c
I0417 16:59:07.832167  3252 net.cpp:106] Creating Layer bn3_8_branch2c
I0417 16:59:07.832176  3252 net.cpp:454] bn3_8_branch2c <- enet3_8_branch2c
I0417 16:59:07.832190  3252 net.cpp:397] bn3_8_branch2c -> enet3_8_branch2c (in-place)
I0417 16:59:07.832522  3252 net.cpp:150] Setting up bn3_8_branch2c
I0417 16:59:07.832537  3252 net.cpp:157] Top shape: 6 128 64 77 (3784704)
I0417 16:59:07.832545  3252 net.cpp:165] Memory required for data: 4140466224
I0417 16:59:07.832554  3252 layer_factory.hpp:77] Creating layer dropout3_8_branch2c
I0417 16:59:07.832566  3252 net.cpp:106] Creating Layer dropout3_8_branch2c
I0417 16:59:07.832572  3252 net.cpp:454] dropout3_8_branch2c <- enet3_8_branch2c
I0417 16:59:07.832586  3252 net.cpp:397] dropout3_8_branch2c -> enet3_8_branch2c (in-place)
I0417 16:59:07.832625  3252 net.cpp:150] Setting up dropout3_8_branch2c
I0417 16:59:07.832638  3252 net.cpp:157] Top shape: 6 128 64 77 (3784704)
I0417 16:59:07.832644  3252 net.cpp:165] Memory required for data: 4155605040
I0417 16:59:07.832651  3252 layer_factory.hpp:77] Creating layer enet3_8
I0417 16:59:07.832660  3252 net.cpp:106] Creating Layer enet3_8
I0417 16:59:07.832667  3252 net.cpp:454] enet3_8 <- enet3_7_relu3_7_0_split_1
I0417 16:59:07.832676  3252 net.cpp:454] enet3_8 <- enet3_8_branch2c
I0417 16:59:07.832686  3252 net.cpp:411] enet3_8 -> enet3_8
I0417 16:59:07.832728  3252 net.cpp:150] Setting up enet3_8
I0417 16:59:07.832741  3252 net.cpp:157] Top shape: 6 128 64 77 (3784704)
I0417 16:59:07.832747  3252 net.cpp:165] Memory required for data: 4170743856
I0417 16:59:07.832754  3252 layer_factory.hpp:77] Creating layer relu3_8
I0417 16:59:07.832767  3252 net.cpp:106] Creating Layer relu3_8
I0417 16:59:07.832774  3252 net.cpp:454] relu3_8 <- enet3_8
I0417 16:59:07.832783  3252 net.cpp:397] relu3_8 -> enet3_8 (in-place)
I0417 16:59:07.835623  3252 net.cpp:150] Setting up relu3_8
I0417 16:59:07.835642  3252 net.cpp:157] Top shape: 6 128 64 77 (3784704)
I0417 16:59:07.835649  3252 net.cpp:165] Memory required for data: 4185882672
I0417 16:59:07.835659  3252 layer_factory.hpp:77] Creating layer enet3_8_relu3_8_0_split
I0417 16:59:07.835669  3252 net.cpp:106] Creating Layer enet3_8_relu3_8_0_split
I0417 16:59:07.835677  3252 net.cpp:454] enet3_8_relu3_8_0_split <- enet3_8
I0417 16:59:07.835687  3252 net.cpp:411] enet3_8_relu3_8_0_split -> enet3_8_relu3_8_0_split_0
I0417 16:59:07.835700  3252 net.cpp:411] enet3_8_relu3_8_0_split -> enet3_8_relu3_8_0_split_1
I0417 16:59:07.835763  3252 net.cpp:150] Setting up enet3_8_relu3_8_0_split
I0417 16:59:07.835777  3252 net.cpp:157] Top shape: 6 128 64 77 (3784704)
I0417 16:59:07.835784  3252 net.cpp:157] Top shape: 6 128 64 77 (3784704)
I0417 16:59:07.835790  3252 net.cpp:165] Memory required for data: 4216160304
I0417 16:59:07.835798  3252 layer_factory.hpp:77] Creating layer enet4_0_branch2a
I0417 16:59:07.835814  3252 net.cpp:106] Creating Layer enet4_0_branch2a
I0417 16:59:07.835830  3252 net.cpp:454] enet4_0_branch2a <- enet3_8_relu3_8_0_split_0
I0417 16:59:07.835850  3252 net.cpp:411] enet4_0_branch2a -> enet4_0_branch2a
I0417 16:59:07.839701  3252 net.cpp:150] Setting up enet4_0_branch2a
I0417 16:59:07.839720  3252 net.cpp:157] Top shape: 6 16 64 77 (473088)
I0417 16:59:07.839728  3252 net.cpp:165] Memory required for data: 4218052656
I0417 16:59:07.839738  3252 layer_factory.hpp:77] Creating layer bn4_0_branch2a
I0417 16:59:07.839754  3252 net.cpp:106] Creating Layer bn4_0_branch2a
I0417 16:59:07.839763  3252 net.cpp:454] bn4_0_branch2a <- enet4_0_branch2a
I0417 16:59:07.839776  3252 net.cpp:397] bn4_0_branch2a -> enet4_0_branch2a (in-place)
I0417 16:59:07.840142  3252 net.cpp:150] Setting up bn4_0_branch2a
I0417 16:59:07.840157  3252 net.cpp:157] Top shape: 6 16 64 77 (473088)
I0417 16:59:07.840162  3252 net.cpp:165] Memory required for data: 4219945008
I0417 16:59:07.840173  3252 layer_factory.hpp:77] Creating layer relu4_0_branch2a
I0417 16:59:07.840190  3252 net.cpp:106] Creating Layer relu4_0_branch2a
I0417 16:59:07.840198  3252 net.cpp:454] relu4_0_branch2a <- enet4_0_branch2a
I0417 16:59:07.840214  3252 net.cpp:397] relu4_0_branch2a -> enet4_0_branch2a (in-place)
I0417 16:59:07.841321  3252 net.cpp:150] Setting up relu4_0_branch2a
I0417 16:59:07.841339  3252 net.cpp:157] Top shape: 6 16 64 77 (473088)
I0417 16:59:07.841346  3252 net.cpp:165] Memory required for data: 4221837360
I0417 16:59:07.841353  3252 layer_factory.hpp:77] Creating layer enet4_0_branch2b
I0417 16:59:07.841374  3252 net.cpp:106] Creating Layer enet4_0_branch2b
I0417 16:59:07.841383  3252 net.cpp:454] enet4_0_branch2b <- enet4_0_branch2a
I0417 16:59:07.841395  3252 net.cpp:411] enet4_0_branch2b -> enet4_0_branch2b
I0417 16:59:07.841953  3252 net.cpp:150] Setting up enet4_0_branch2b
I0417 16:59:07.841969  3252 net.cpp:157] Top shape: 6 16 128 154 (1892352)
I0417 16:59:07.841976  3252 net.cpp:165] Memory required for data: 4229406768
I0417 16:59:07.841987  3252 layer_factory.hpp:77] Creating layer bn4_0_branch2b
I0417 16:59:07.842002  3252 net.cpp:106] Creating Layer bn4_0_branch2b
I0417 16:59:07.842011  3252 net.cpp:454] bn4_0_branch2b <- enet4_0_branch2b
I0417 16:59:07.842021  3252 net.cpp:397] bn4_0_branch2b -> enet4_0_branch2b (in-place)
I0417 16:59:07.843331  3252 net.cpp:150] Setting up bn4_0_branch2b
I0417 16:59:07.843349  3252 net.cpp:157] Top shape: 6 16 128 154 (1892352)
I0417 16:59:07.843356  3252 net.cpp:165] Memory required for data: 4236976176
I0417 16:59:07.843367  3252 layer_factory.hpp:77] Creating layer relu4_0_branch2b
I0417 16:59:07.843382  3252 net.cpp:106] Creating Layer relu4_0_branch2b
I0417 16:59:07.843390  3252 net.cpp:454] relu4_0_branch2b <- enet4_0_branch2b
I0417 16:59:07.843400  3252 net.cpp:397] relu4_0_branch2b -> enet4_0_branch2b (in-place)
I0417 16:59:07.844521  3252 net.cpp:150] Setting up relu4_0_branch2b
I0417 16:59:07.844538  3252 net.cpp:157] Top shape: 6 16 128 154 (1892352)
I0417 16:59:07.844545  3252 net.cpp:165] Memory required for data: 4244545584
I0417 16:59:07.844552  3252 layer_factory.hpp:77] Creating layer enet4_0_branch2c
I0417 16:59:07.844573  3252 net.cpp:106] Creating Layer enet4_0_branch2c
I0417 16:59:07.844583  3252 net.cpp:454] enet4_0_branch2c <- enet4_0_branch2b
I0417 16:59:07.844594  3252 net.cpp:411] enet4_0_branch2c -> enet4_0_branch2c
I0417 16:59:07.848474  3252 net.cpp:150] Setting up enet4_0_branch2c
I0417 16:59:07.848492  3252 net.cpp:157] Top shape: 6 64 128 154 (7569408)
I0417 16:59:07.848500  3252 net.cpp:165] Memory required for data: 4274823216
I0417 16:59:07.848510  3252 layer_factory.hpp:77] Creating layer bn4_0_branch2c
I0417 16:59:07.848526  3252 net.cpp:106] Creating Layer bn4_0_branch2c
I0417 16:59:07.848534  3252 net.cpp:454] bn4_0_branch2c <- enet4_0_branch2c
I0417 16:59:07.848547  3252 net.cpp:397] bn4_0_branch2c -> enet4_0_branch2c (in-place)
I0417 16:59:07.848883  3252 net.cpp:150] Setting up bn4_0_branch2c
I0417 16:59:07.848897  3252 net.cpp:157] Top shape: 6 64 128 154 (7569408)
I0417 16:59:07.848912  3252 net.cpp:165] Memory required for data: 4305100848
I0417 16:59:07.848932  3252 layer_factory.hpp:77] Creating layer enet4_0_branch1a
I0417 16:59:07.848949  3252 net.cpp:106] Creating Layer enet4_0_branch1a
I0417 16:59:07.848958  3252 net.cpp:454] enet4_0_branch1a <- enet3_8_relu3_8_0_split_1
I0417 16:59:07.848969  3252 net.cpp:411] enet4_0_branch1a -> enet4_0_branch1a
I0417 16:59:07.854241  3252 net.cpp:150] Setting up enet4_0_branch1a
I0417 16:59:07.854261  3252 net.cpp:157] Top shape: 6 64 64 77 (1892352)
I0417 16:59:07.854269  3252 net.cpp:165] Memory required for data: 4312670256
I0417 16:59:07.854279  3252 layer_factory.hpp:77] Creating layer bn4_0_branch1a
I0417 16:59:07.854293  3252 net.cpp:106] Creating Layer bn4_0_branch1a
I0417 16:59:07.854302  3252 net.cpp:454] bn4_0_branch1a <- enet4_0_branch1a
I0417 16:59:07.854316  3252 net.cpp:397] bn4_0_branch1a -> enet4_0_branch1a (in-place)
I0417 16:59:07.854646  3252 net.cpp:150] Setting up bn4_0_branch1a
I0417 16:59:07.854661  3252 net.cpp:157] Top shape: 6 64 64 77 (1892352)
I0417 16:59:07.854668  3252 net.cpp:165] Memory required for data: 4320239664
I0417 16:59:07.854678  3252 layer_factory.hpp:77] Creating layer unpool4_0_branch1a
I0417 16:59:07.854691  3252 net.cpp:106] Creating Layer unpool4_0_branch1a
I0417 16:59:07.854698  3252 net.cpp:454] unpool4_0_branch1a <- enet4_0_branch1a
I0417 16:59:07.854707  3252 net.cpp:454] unpool4_0_branch1a <- pool2_0_branch1a_mask
I0417 16:59:07.854717  3252 net.cpp:411] unpool4_0_branch1a -> unpool4_0_branch1a
I0417 16:59:07.854781  3252 net.cpp:150] Setting up unpool4_0_branch1a
I0417 16:59:07.854794  3252 net.cpp:157] Top shape: 6 64 128 154 (7569408)
I0417 16:59:07.854800  3252 net.cpp:165] Memory required for data: 4350517296
I0417 16:59:07.854807  3252 layer_factory.hpp:77] Creating layer enet4_0
I0417 16:59:07.854816  3252 net.cpp:106] Creating Layer enet4_0
I0417 16:59:07.854825  3252 net.cpp:454] enet4_0 <- unpool4_0_branch1a
I0417 16:59:07.854832  3252 net.cpp:454] enet4_0 <- enet4_0_branch2c
I0417 16:59:07.854845  3252 net.cpp:411] enet4_0 -> enet4_0
I0417 16:59:07.854887  3252 net.cpp:150] Setting up enet4_0
I0417 16:59:07.854898  3252 net.cpp:157] Top shape: 6 64 128 154 (7569408)
I0417 16:59:07.854905  3252 net.cpp:165] Memory required for data: 4380794928
I0417 16:59:07.854912  3252 layer_factory.hpp:77] Creating layer relu4_0
I0417 16:59:07.854928  3252 net.cpp:106] Creating Layer relu4_0
I0417 16:59:07.854936  3252 net.cpp:454] relu4_0 <- enet4_0
I0417 16:59:07.854946  3252 net.cpp:397] relu4_0 -> enet4_0 (in-place)
I0417 16:59:07.856061  3252 net.cpp:150] Setting up relu4_0
I0417 16:59:07.856079  3252 net.cpp:157] Top shape: 6 64 128 154 (7569408)
I0417 16:59:07.856086  3252 net.cpp:165] Memory required for data: 4411072560
I0417 16:59:07.856093  3252 layer_factory.hpp:77] Creating layer enet4_0_relu4_0_0_split
I0417 16:59:07.856103  3252 net.cpp:106] Creating Layer enet4_0_relu4_0_0_split
I0417 16:59:07.856111  3252 net.cpp:454] enet4_0_relu4_0_0_split <- enet4_0
I0417 16:59:07.856125  3252 net.cpp:411] enet4_0_relu4_0_0_split -> enet4_0_relu4_0_0_split_0
I0417 16:59:07.856139  3252 net.cpp:411] enet4_0_relu4_0_0_split -> enet4_0_relu4_0_0_split_1
I0417 16:59:07.856209  3252 net.cpp:150] Setting up enet4_0_relu4_0_0_split
I0417 16:59:07.856225  3252 net.cpp:157] Top shape: 6 64 128 154 (7569408)
I0417 16:59:07.856233  3252 net.cpp:157] Top shape: 6 64 128 154 (7569408)
I0417 16:59:07.856240  3252 net.cpp:165] Memory required for data: 4471627824
I0417 16:59:07.856245  3252 layer_factory.hpp:77] Creating layer enet4_1_branch2a
I0417 16:59:07.856262  3252 net.cpp:106] Creating Layer enet4_1_branch2a
I0417 16:59:07.856271  3252 net.cpp:454] enet4_1_branch2a <- enet4_0_relu4_0_0_split_0
I0417 16:59:07.856282  3252 net.cpp:411] enet4_1_branch2a -> enet4_1_branch2a
I0417 16:59:07.860144  3252 net.cpp:150] Setting up enet4_1_branch2a
I0417 16:59:07.860163  3252 net.cpp:157] Top shape: 6 16 128 154 (1892352)
I0417 16:59:07.860170  3252 net.cpp:165] Memory required for data: 4479197232
I0417 16:59:07.860188  3252 layer_factory.hpp:77] Creating layer bn4_1_branch2a
I0417 16:59:07.860213  3252 net.cpp:106] Creating Layer bn4_1_branch2a
I0417 16:59:07.860221  3252 net.cpp:454] bn4_1_branch2a <- enet4_1_branch2a
I0417 16:59:07.860234  3252 net.cpp:397] bn4_1_branch2a -> enet4_1_branch2a (in-place)
I0417 16:59:07.860595  3252 net.cpp:150] Setting up bn4_1_branch2a
I0417 16:59:07.860611  3252 net.cpp:157] Top shape: 6 16 128 154 (1892352)
I0417 16:59:07.860617  3252 net.cpp:165] Memory required for data: 4486766640
I0417 16:59:07.860628  3252 layer_factory.hpp:77] Creating layer relu4_1_branch2a
I0417 16:59:07.860638  3252 net.cpp:106] Creating Layer relu4_1_branch2a
I0417 16:59:07.860646  3252 net.cpp:454] relu4_1_branch2a <- enet4_1_branch2a
I0417 16:59:07.860656  3252 net.cpp:397] relu4_1_branch2a -> enet4_1_branch2a (in-place)
I0417 16:59:07.861768  3252 net.cpp:150] Setting up relu4_1_branch2a
I0417 16:59:07.861786  3252 net.cpp:157] Top shape: 6 16 128 154 (1892352)
I0417 16:59:07.861793  3252 net.cpp:165] Memory required for data: 4494336048
I0417 16:59:07.861800  3252 layer_factory.hpp:77] Creating layer enet4_1_branch2b
I0417 16:59:07.861819  3252 net.cpp:106] Creating Layer enet4_1_branch2b
I0417 16:59:07.861827  3252 net.cpp:454] enet4_1_branch2b <- enet4_1_branch2a
I0417 16:59:07.861842  3252 net.cpp:411] enet4_1_branch2b -> enet4_1_branch2b
I0417 16:59:07.865922  3252 net.cpp:150] Setting up enet4_1_branch2b
I0417 16:59:07.865942  3252 net.cpp:157] Top shape: 6 16 128 154 (1892352)
I0417 16:59:07.865949  3252 net.cpp:165] Memory required for data: 4501905456
I0417 16:59:07.865960  3252 layer_factory.hpp:77] Creating layer bn4_1_branch2b
I0417 16:59:07.865978  3252 net.cpp:106] Creating Layer bn4_1_branch2b
I0417 16:59:07.865985  3252 net.cpp:454] bn4_1_branch2b <- enet4_1_branch2b
I0417 16:59:07.866001  3252 net.cpp:397] bn4_1_branch2b -> enet4_1_branch2b (in-place)
I0417 16:59:07.866375  3252 net.cpp:150] Setting up bn4_1_branch2b
I0417 16:59:07.866391  3252 net.cpp:157] Top shape: 6 16 128 154 (1892352)
I0417 16:59:07.866397  3252 net.cpp:165] Memory required for data: 4509474864
I0417 16:59:07.866408  3252 layer_factory.hpp:77] Creating layer relu4_1_branch2b
I0417 16:59:07.866418  3252 net.cpp:106] Creating Layer relu4_1_branch2b
I0417 16:59:07.866425  3252 net.cpp:454] relu4_1_branch2b <- enet4_1_branch2b
I0417 16:59:07.866435  3252 net.cpp:397] relu4_1_branch2b -> enet4_1_branch2b (in-place)
I0417 16:59:07.867597  3252 net.cpp:150] Setting up relu4_1_branch2b
I0417 16:59:07.867615  3252 net.cpp:157] Top shape: 6 16 128 154 (1892352)
I0417 16:59:07.867622  3252 net.cpp:165] Memory required for data: 4517044272
I0417 16:59:07.867630  3252 layer_factory.hpp:77] Creating layer enet4_1_branch2c
I0417 16:59:07.867647  3252 net.cpp:106] Creating Layer enet4_1_branch2c
I0417 16:59:07.867656  3252 net.cpp:454] enet4_1_branch2c <- enet4_1_branch2b
I0417 16:59:07.867671  3252 net.cpp:411] enet4_1_branch2c -> enet4_1_branch2c
I0417 16:59:07.871398  3252 net.cpp:150] Setting up enet4_1_branch2c
I0417 16:59:07.871417  3252 net.cpp:157] Top shape: 6 64 128 154 (7569408)
I0417 16:59:07.871424  3252 net.cpp:165] Memory required for data: 4547321904
I0417 16:59:07.871434  3252 layer_factory.hpp:77] Creating layer bn4_1_branch2c
I0417 16:59:07.871451  3252 net.cpp:106] Creating Layer bn4_1_branch2c
I0417 16:59:07.871459  3252 net.cpp:454] bn4_1_branch2c <- enet4_1_branch2c
I0417 16:59:07.871474  3252 net.cpp:397] bn4_1_branch2c -> enet4_1_branch2c (in-place)
I0417 16:59:07.871837  3252 net.cpp:150] Setting up bn4_1_branch2c
I0417 16:59:07.871852  3252 net.cpp:157] Top shape: 6 64 128 154 (7569408)
I0417 16:59:07.871860  3252 net.cpp:165] Memory required for data: 4577599536
I0417 16:59:07.871870  3252 layer_factory.hpp:77] Creating layer enet4_1
I0417 16:59:07.871881  3252 net.cpp:106] Creating Layer enet4_1
I0417 16:59:07.871887  3252 net.cpp:454] enet4_1 <- enet4_0_relu4_0_0_split_1
I0417 16:59:07.871896  3252 net.cpp:454] enet4_1 <- enet4_1_branch2c
I0417 16:59:07.871908  3252 net.cpp:411] enet4_1 -> enet4_1
I0417 16:59:07.871965  3252 net.cpp:150] Setting up enet4_1
I0417 16:59:07.871986  3252 net.cpp:157] Top shape: 6 64 128 154 (7569408)
I0417 16:59:07.871994  3252 net.cpp:165] Memory required for data: 4607877168
I0417 16:59:07.871999  3252 layer_factory.hpp:77] Creating layer relu4_1
I0417 16:59:07.872009  3252 net.cpp:106] Creating Layer relu4_1
I0417 16:59:07.872016  3252 net.cpp:454] relu4_1 <- enet4_1
I0417 16:59:07.872025  3252 net.cpp:397] relu4_1 -> enet4_1 (in-place)
I0417 16:59:07.873795  3252 net.cpp:150] Setting up relu4_1
I0417 16:59:07.873812  3252 net.cpp:157] Top shape: 6 64 128 154 (7569408)
I0417 16:59:07.873829  3252 net.cpp:165] Memory required for data: 4638154800
I0417 16:59:07.873837  3252 layer_factory.hpp:77] Creating layer enet4_1_relu4_1_0_split
I0417 16:59:07.873850  3252 net.cpp:106] Creating Layer enet4_1_relu4_1_0_split
I0417 16:59:07.873858  3252 net.cpp:454] enet4_1_relu4_1_0_split <- enet4_1
I0417 16:59:07.873869  3252 net.cpp:411] enet4_1_relu4_1_0_split -> enet4_1_relu4_1_0_split_0
I0417 16:59:07.873884  3252 net.cpp:411] enet4_1_relu4_1_0_split -> enet4_1_relu4_1_0_split_1
I0417 16:59:07.873963  3252 net.cpp:150] Setting up enet4_1_relu4_1_0_split
I0417 16:59:07.873976  3252 net.cpp:157] Top shape: 6 64 128 154 (7569408)
I0417 16:59:07.873984  3252 net.cpp:157] Top shape: 6 64 128 154 (7569408)
I0417 16:59:07.873991  3252 net.cpp:165] Memory required for data: 4698710064
I0417 16:59:07.873997  3252 layer_factory.hpp:77] Creating layer enet4_2_branch2a
I0417 16:59:07.874013  3252 net.cpp:106] Creating Layer enet4_2_branch2a
I0417 16:59:07.874022  3252 net.cpp:454] enet4_2_branch2a <- enet4_1_relu4_1_0_split_0
I0417 16:59:07.874037  3252 net.cpp:411] enet4_2_branch2a -> enet4_2_branch2a
I0417 16:59:07.877776  3252 net.cpp:150] Setting up enet4_2_branch2a
I0417 16:59:07.877795  3252 net.cpp:157] Top shape: 6 16 128 154 (1892352)
I0417 16:59:07.877802  3252 net.cpp:165] Memory required for data: 4706279472
I0417 16:59:07.877812  3252 layer_factory.hpp:77] Creating layer bn4_2_branch2a
I0417 16:59:07.877827  3252 net.cpp:106] Creating Layer bn4_2_branch2a
I0417 16:59:07.877836  3252 net.cpp:454] bn4_2_branch2a <- enet4_2_branch2a
I0417 16:59:07.877846  3252 net.cpp:397] bn4_2_branch2a -> enet4_2_branch2a (in-place)
I0417 16:59:07.878231  3252 net.cpp:150] Setting up bn4_2_branch2a
I0417 16:59:07.878245  3252 net.cpp:157] Top shape: 6 16 128 154 (1892352)
I0417 16:59:07.878252  3252 net.cpp:165] Memory required for data: 4713848880
I0417 16:59:07.878262  3252 layer_factory.hpp:77] Creating layer relu4_2_branch2a
I0417 16:59:07.878273  3252 net.cpp:106] Creating Layer relu4_2_branch2a
I0417 16:59:07.878280  3252 net.cpp:454] relu4_2_branch2a <- enet4_2_branch2a
I0417 16:59:07.878289  3252 net.cpp:397] relu4_2_branch2a -> enet4_2_branch2a (in-place)
I0417 16:59:07.879614  3252 net.cpp:150] Setting up relu4_2_branch2a
I0417 16:59:07.879631  3252 net.cpp:157] Top shape: 6 16 128 154 (1892352)
I0417 16:59:07.879638  3252 net.cpp:165] Memory required for data: 4721418288
I0417 16:59:07.879645  3252 layer_factory.hpp:77] Creating layer enet4_2_branch2b
I0417 16:59:07.879665  3252 net.cpp:106] Creating Layer enet4_2_branch2b
I0417 16:59:07.879673  3252 net.cpp:454] enet4_2_branch2b <- enet4_2_branch2a
I0417 16:59:07.879685  3252 net.cpp:411] enet4_2_branch2b -> enet4_2_branch2b
I0417 16:59:07.883755  3252 net.cpp:150] Setting up enet4_2_branch2b
I0417 16:59:07.883774  3252 net.cpp:157] Top shape: 6 16 128 154 (1892352)
I0417 16:59:07.883781  3252 net.cpp:165] Memory required for data: 4728987696
I0417 16:59:07.883792  3252 layer_factory.hpp:77] Creating layer bn4_2_branch2b
I0417 16:59:07.883808  3252 net.cpp:106] Creating Layer bn4_2_branch2b
I0417 16:59:07.883816  3252 net.cpp:454] bn4_2_branch2b <- enet4_2_branch2b
I0417 16:59:07.883831  3252 net.cpp:397] bn4_2_branch2b -> enet4_2_branch2b (in-place)
I0417 16:59:07.885138  3252 net.cpp:150] Setting up bn4_2_branch2b
I0417 16:59:07.885155  3252 net.cpp:157] Top shape: 6 16 128 154 (1892352)
I0417 16:59:07.885162  3252 net.cpp:165] Memory required for data: 4736557104
I0417 16:59:07.885181  3252 layer_factory.hpp:77] Creating layer relu4_2_branch2b
I0417 16:59:07.885200  3252 net.cpp:106] Creating Layer relu4_2_branch2b
I0417 16:59:07.885210  3252 net.cpp:454] relu4_2_branch2b <- enet4_2_branch2b
I0417 16:59:07.885220  3252 net.cpp:397] relu4_2_branch2b -> enet4_2_branch2b (in-place)
I0417 16:59:07.886340  3252 net.cpp:150] Setting up relu4_2_branch2b
I0417 16:59:07.886358  3252 net.cpp:157] Top shape: 6 16 128 154 (1892352)
I0417 16:59:07.886366  3252 net.cpp:165] Memory required for data: 4744126512
I0417 16:59:07.886373  3252 layer_factory.hpp:77] Creating layer enet4_2_branch2c
I0417 16:59:07.886390  3252 net.cpp:106] Creating Layer enet4_2_branch2c
I0417 16:59:07.886399  3252 net.cpp:454] enet4_2_branch2c <- enet4_2_branch2b
I0417 16:59:07.886414  3252 net.cpp:411] enet4_2_branch2c -> enet4_2_branch2c
I0417 16:59:07.890317  3252 net.cpp:150] Setting up enet4_2_branch2c
I0417 16:59:07.890336  3252 net.cpp:157] Top shape: 6 64 128 154 (7569408)
I0417 16:59:07.890343  3252 net.cpp:165] Memory required for data: 4774404144
I0417 16:59:07.890352  3252 layer_factory.hpp:77] Creating layer bn4_2_branch2c
I0417 16:59:07.890368  3252 net.cpp:106] Creating Layer bn4_2_branch2c
I0417 16:59:07.890377  3252 net.cpp:454] bn4_2_branch2c <- enet4_2_branch2c
I0417 16:59:07.890389  3252 net.cpp:397] bn4_2_branch2c -> enet4_2_branch2c (in-place)
I0417 16:59:07.890769  3252 net.cpp:150] Setting up bn4_2_branch2c
I0417 16:59:07.890784  3252 net.cpp:157] Top shape: 6 64 128 154 (7569408)
I0417 16:59:07.890790  3252 net.cpp:165] Memory required for data: 4804681776
I0417 16:59:07.890800  3252 layer_factory.hpp:77] Creating layer enet4_2
I0417 16:59:07.890810  3252 net.cpp:106] Creating Layer enet4_2
I0417 16:59:07.890818  3252 net.cpp:454] enet4_2 <- enet4_1_relu4_1_0_split_1
I0417 16:59:07.890827  3252 net.cpp:454] enet4_2 <- enet4_2_branch2c
I0417 16:59:07.890836  3252 net.cpp:411] enet4_2 -> enet4_2
I0417 16:59:07.890882  3252 net.cpp:150] Setting up enet4_2
I0417 16:59:07.890894  3252 net.cpp:157] Top shape: 6 64 128 154 (7569408)
I0417 16:59:07.890902  3252 net.cpp:165] Memory required for data: 4834959408
I0417 16:59:07.890908  3252 layer_factory.hpp:77] Creating layer relu4_2
I0417 16:59:07.890920  3252 net.cpp:106] Creating Layer relu4_2
I0417 16:59:07.890928  3252 net.cpp:454] relu4_2 <- enet4_2
I0417 16:59:07.890939  3252 net.cpp:397] relu4_2 -> enet4_2 (in-place)
I0417 16:59:07.892060  3252 net.cpp:150] Setting up relu4_2
I0417 16:59:07.892077  3252 net.cpp:157] Top shape: 6 64 128 154 (7569408)
I0417 16:59:07.892084  3252 net.cpp:165] Memory required for data: 4865237040
I0417 16:59:07.892092  3252 layer_factory.hpp:77] Creating layer enet4_2_relu4_2_0_split
I0417 16:59:07.892102  3252 net.cpp:106] Creating Layer enet4_2_relu4_2_0_split
I0417 16:59:07.892112  3252 net.cpp:454] enet4_2_relu4_2_0_split <- enet4_2
I0417 16:59:07.892123  3252 net.cpp:411] enet4_2_relu4_2_0_split -> enet4_2_relu4_2_0_split_0
I0417 16:59:07.892137  3252 net.cpp:411] enet4_2_relu4_2_0_split -> enet4_2_relu4_2_0_split_1
I0417 16:59:07.892213  3252 net.cpp:150] Setting up enet4_2_relu4_2_0_split
I0417 16:59:07.892226  3252 net.cpp:157] Top shape: 6 64 128 154 (7569408)
I0417 16:59:07.892235  3252 net.cpp:157] Top shape: 6 64 128 154 (7569408)
I0417 16:59:07.892241  3252 net.cpp:165] Memory required for data: 4925792304
I0417 16:59:07.892247  3252 layer_factory.hpp:77] Creating layer enet5_0_branch2a
I0417 16:59:07.892263  3252 net.cpp:106] Creating Layer enet5_0_branch2a
I0417 16:59:07.892272  3252 net.cpp:454] enet5_0_branch2a <- enet4_2_relu4_2_0_split_0
I0417 16:59:07.892287  3252 net.cpp:411] enet5_0_branch2a -> enet5_0_branch2a
I0417 16:59:07.896005  3252 net.cpp:150] Setting up enet5_0_branch2a
I0417 16:59:07.896024  3252 net.cpp:157] Top shape: 6 4 128 154 (473088)
I0417 16:59:07.896033  3252 net.cpp:165] Memory required for data: 4927684656
I0417 16:59:07.896041  3252 layer_factory.hpp:77] Creating layer bn5_0_branch2a
I0417 16:59:07.896059  3252 net.cpp:106] Creating Layer bn5_0_branch2a
I0417 16:59:07.896075  3252 net.cpp:454] bn5_0_branch2a <- enet5_0_branch2a
I0417 16:59:07.896098  3252 net.cpp:397] bn5_0_branch2a -> enet5_0_branch2a (in-place)
I0417 16:59:07.896487  3252 net.cpp:150] Setting up bn5_0_branch2a
I0417 16:59:07.896502  3252 net.cpp:157] Top shape: 6 4 128 154 (473088)
I0417 16:59:07.896508  3252 net.cpp:165] Memory required for data: 4929577008
I0417 16:59:07.896519  3252 layer_factory.hpp:77] Creating layer relu5_0_branch2a
I0417 16:59:07.896529  3252 net.cpp:106] Creating Layer relu5_0_branch2a
I0417 16:59:07.896536  3252 net.cpp:454] relu5_0_branch2a <- enet5_0_branch2a
I0417 16:59:07.896548  3252 net.cpp:397] relu5_0_branch2a -> enet5_0_branch2a (in-place)
I0417 16:59:07.897680  3252 net.cpp:150] Setting up relu5_0_branch2a
I0417 16:59:07.897697  3252 net.cpp:157] Top shape: 6 4 128 154 (473088)
I0417 16:59:07.897704  3252 net.cpp:165] Memory required for data: 4931469360
I0417 16:59:07.897711  3252 layer_factory.hpp:77] Creating layer enet5_0_branch2b
I0417 16:59:07.897732  3252 net.cpp:106] Creating Layer enet5_0_branch2b
I0417 16:59:07.897742  3252 net.cpp:454] enet5_0_branch2b <- enet5_0_branch2a
I0417 16:59:07.897753  3252 net.cpp:411] enet5_0_branch2b -> enet5_0_branch2b
I0417 16:59:07.898262  3252 net.cpp:150] Setting up enet5_0_branch2b
I0417 16:59:07.898278  3252 net.cpp:157] Top shape: 6 4 256 308 (1892352)
I0417 16:59:07.898285  3252 net.cpp:165] Memory required for data: 4939038768
I0417 16:59:07.898296  3252 layer_factory.hpp:77] Creating layer bn5_0_branch2b
I0417 16:59:07.898311  3252 net.cpp:106] Creating Layer bn5_0_branch2b
I0417 16:59:07.898319  3252 net.cpp:454] bn5_0_branch2b <- enet5_0_branch2b
I0417 16:59:07.898330  3252 net.cpp:397] bn5_0_branch2b -> enet5_0_branch2b (in-place)
I0417 16:59:07.898845  3252 net.cpp:150] Setting up bn5_0_branch2b
I0417 16:59:07.898859  3252 net.cpp:157] Top shape: 6 4 256 308 (1892352)
I0417 16:59:07.898866  3252 net.cpp:165] Memory required for data: 4946608176
I0417 16:59:07.898876  3252 layer_factory.hpp:77] Creating layer relu5_0_branch2b
I0417 16:59:07.898886  3252 net.cpp:106] Creating Layer relu5_0_branch2b
I0417 16:59:07.898893  3252 net.cpp:454] relu5_0_branch2b <- enet5_0_branch2b
I0417 16:59:07.898902  3252 net.cpp:397] relu5_0_branch2b -> enet5_0_branch2b (in-place)
I0417 16:59:07.900218  3252 net.cpp:150] Setting up relu5_0_branch2b
I0417 16:59:07.900235  3252 net.cpp:157] Top shape: 6 4 256 308 (1892352)
I0417 16:59:07.900243  3252 net.cpp:165] Memory required for data: 4954177584
I0417 16:59:07.900250  3252 layer_factory.hpp:77] Creating layer enet5_0_branch2c
I0417 16:59:07.900269  3252 net.cpp:106] Creating Layer enet5_0_branch2c
I0417 16:59:07.900279  3252 net.cpp:454] enet5_0_branch2c <- enet5_0_branch2b
I0417 16:59:07.900290  3252 net.cpp:411] enet5_0_branch2c -> enet5_0_branch2c
I0417 16:59:07.903990  3252 net.cpp:150] Setting up enet5_0_branch2c
I0417 16:59:07.904008  3252 net.cpp:157] Top shape: 6 16 256 308 (7569408)
I0417 16:59:07.904016  3252 net.cpp:165] Memory required for data: 4984455216
I0417 16:59:07.904026  3252 layer_factory.hpp:77] Creating layer bn5_0_branch2c
I0417 16:59:07.904042  3252 net.cpp:106] Creating Layer bn5_0_branch2c
I0417 16:59:07.904054  3252 net.cpp:454] bn5_0_branch2c <- enet5_0_branch2c
I0417 16:59:07.904067  3252 net.cpp:397] bn5_0_branch2c -> enet5_0_branch2c (in-place)
I0417 16:59:07.904600  3252 net.cpp:150] Setting up bn5_0_branch2c
I0417 16:59:07.904615  3252 net.cpp:157] Top shape: 6 16 256 308 (7569408)
I0417 16:59:07.904621  3252 net.cpp:165] Memory required for data: 5014732848
I0417 16:59:07.904633  3252 layer_factory.hpp:77] Creating layer enet5_0_branch1a
I0417 16:59:07.904646  3252 net.cpp:106] Creating Layer enet5_0_branch1a
I0417 16:59:07.904654  3252 net.cpp:454] enet5_0_branch1a <- enet4_2_relu4_2_0_split_1
I0417 16:59:07.904665  3252 net.cpp:411] enet5_0_branch1a -> enet5_0_branch1a
I0417 16:59:07.908610  3252 net.cpp:150] Setting up enet5_0_branch1a
I0417 16:59:07.908628  3252 net.cpp:157] Top shape: 6 16 128 154 (1892352)
I0417 16:59:07.908638  3252 net.cpp:165] Memory required for data: 5022302256
I0417 16:59:07.908656  3252 layer_factory.hpp:77] Creating layer bn5_0_branch1a
I0417 16:59:07.908676  3252 net.cpp:106] Creating Layer bn5_0_branch1a
I0417 16:59:07.908684  3252 net.cpp:454] bn5_0_branch1a <- enet5_0_branch1a
I0417 16:59:07.908699  3252 net.cpp:397] bn5_0_branch1a -> enet5_0_branch1a (in-place)
I0417 16:59:07.909109  3252 net.cpp:150] Setting up bn5_0_branch1a
I0417 16:59:07.909124  3252 net.cpp:157] Top shape: 6 16 128 154 (1892352)
I0417 16:59:07.909131  3252 net.cpp:165] Memory required for data: 5029871664
I0417 16:59:07.909142  3252 layer_factory.hpp:77] Creating layer unpool5_0_branch1a
I0417 16:59:07.909152  3252 net.cpp:106] Creating Layer unpool5_0_branch1a
I0417 16:59:07.909160  3252 net.cpp:454] unpool5_0_branch1a <- enet5_0_branch1a
I0417 16:59:07.909169  3252 net.cpp:454] unpool5_0_branch1a <- pool1_0_branch1a_mask
I0417 16:59:07.909183  3252 net.cpp:411] unpool5_0_branch1a -> unpool5_0_branch1a
I0417 16:59:07.909232  3252 net.cpp:150] Setting up unpool5_0_branch1a
I0417 16:59:07.909245  3252 net.cpp:157] Top shape: 6 16 256 308 (7569408)
I0417 16:59:07.909251  3252 net.cpp:165] Memory required for data: 5060149296
I0417 16:59:07.909258  3252 layer_factory.hpp:77] Creating layer enet5_0
I0417 16:59:07.909268  3252 net.cpp:106] Creating Layer enet5_0
I0417 16:59:07.909276  3252 net.cpp:454] enet5_0 <- unpool5_0_branch1a
I0417 16:59:07.909283  3252 net.cpp:454] enet5_0 <- enet5_0_branch2c
I0417 16:59:07.909292  3252 net.cpp:411] enet5_0 -> enet5_0
I0417 16:59:07.909343  3252 net.cpp:150] Setting up enet5_0
I0417 16:59:07.909358  3252 net.cpp:157] Top shape: 6 16 256 308 (7569408)
I0417 16:59:07.909363  3252 net.cpp:165] Memory required for data: 5090426928
I0417 16:59:07.909370  3252 layer_factory.hpp:77] Creating layer relu5_0
I0417 16:59:07.909382  3252 net.cpp:106] Creating Layer relu5_0
I0417 16:59:07.909390  3252 net.cpp:454] relu5_0 <- enet5_0
I0417 16:59:07.909399  3252 net.cpp:397] relu5_0 -> enet5_0 (in-place)
I0417 16:59:07.910532  3252 net.cpp:150] Setting up relu5_0
I0417 16:59:07.910549  3252 net.cpp:157] Top shape: 6 16 256 308 (7569408)
I0417 16:59:07.910557  3252 net.cpp:165] Memory required for data: 5120704560
I0417 16:59:07.910564  3252 layer_factory.hpp:77] Creating layer enet5_0_relu5_0_0_split
I0417 16:59:07.910574  3252 net.cpp:106] Creating Layer enet5_0_relu5_0_0_split
I0417 16:59:07.910581  3252 net.cpp:454] enet5_0_relu5_0_0_split <- enet5_0
I0417 16:59:07.910591  3252 net.cpp:411] enet5_0_relu5_0_0_split -> enet5_0_relu5_0_0_split_0
I0417 16:59:07.910606  3252 net.cpp:411] enet5_0_relu5_0_0_split -> enet5_0_relu5_0_0_split_1
I0417 16:59:07.910686  3252 net.cpp:150] Setting up enet5_0_relu5_0_0_split
I0417 16:59:07.910699  3252 net.cpp:157] Top shape: 6 16 256 308 (7569408)
I0417 16:59:07.910707  3252 net.cpp:157] Top shape: 6 16 256 308 (7569408)
I0417 16:59:07.910713  3252 net.cpp:165] Memory required for data: 5181259824
I0417 16:59:07.910720  3252 layer_factory.hpp:77] Creating layer enet5_1_branch2a
I0417 16:59:07.910742  3252 net.cpp:106] Creating Layer enet5_1_branch2a
I0417 16:59:07.910751  3252 net.cpp:454] enet5_1_branch2a <- enet5_0_relu5_0_0_split_0
I0417 16:59:07.910763  3252 net.cpp:411] enet5_1_branch2a -> enet5_1_branch2a
I0417 16:59:07.914712  3252 net.cpp:150] Setting up enet5_1_branch2a
I0417 16:59:07.914733  3252 net.cpp:157] Top shape: 6 4 256 308 (1892352)
I0417 16:59:07.914741  3252 net.cpp:165] Memory required for data: 5188829232
I0417 16:59:07.914752  3252 layer_factory.hpp:77] Creating layer bn5_1_branch2a
I0417 16:59:07.914767  3252 net.cpp:106] Creating Layer bn5_1_branch2a
I0417 16:59:07.914775  3252 net.cpp:454] bn5_1_branch2a <- enet5_1_branch2a
I0417 16:59:07.914786  3252 net.cpp:397] bn5_1_branch2a -> enet5_1_branch2a (in-place)
I0417 16:59:07.915335  3252 net.cpp:150] Setting up bn5_1_branch2a
I0417 16:59:07.915350  3252 net.cpp:157] Top shape: 6 4 256 308 (1892352)
I0417 16:59:07.915356  3252 net.cpp:165] Memory required for data: 5196398640
I0417 16:59:07.915367  3252 layer_factory.hpp:77] Creating layer relu5_1_branch2a
I0417 16:59:07.915385  3252 net.cpp:106] Creating Layer relu5_1_branch2a
I0417 16:59:07.915400  3252 net.cpp:454] relu5_1_branch2a <- enet5_1_branch2a
I0417 16:59:07.915410  3252 net.cpp:397] relu5_1_branch2a -> enet5_1_branch2a (in-place)
I0417 16:59:07.917243  3252 net.cpp:150] Setting up relu5_1_branch2a
I0417 16:59:07.917260  3252 net.cpp:157] Top shape: 6 4 256 308 (1892352)
I0417 16:59:07.917268  3252 net.cpp:165] Memory required for data: 5203968048
I0417 16:59:07.917274  3252 layer_factory.hpp:77] Creating layer enet5_1_branch2b
I0417 16:59:07.917291  3252 net.cpp:106] Creating Layer enet5_1_branch2b
I0417 16:59:07.917299  3252 net.cpp:454] enet5_1_branch2b <- enet5_1_branch2a
I0417 16:59:07.917315  3252 net.cpp:411] enet5_1_branch2b -> enet5_1_branch2b
I0417 16:59:07.921494  3252 net.cpp:150] Setting up enet5_1_branch2b
I0417 16:59:07.921514  3252 net.cpp:157] Top shape: 6 4 256 308 (1892352)
I0417 16:59:07.921521  3252 net.cpp:165] Memory required for data: 5211537456
I0417 16:59:07.921533  3252 layer_factory.hpp:77] Creating layer bn5_1_branch2b
I0417 16:59:07.921545  3252 net.cpp:106] Creating Layer bn5_1_branch2b
I0417 16:59:07.921555  3252 net.cpp:454] bn5_1_branch2b <- enet5_1_branch2b
I0417 16:59:07.921564  3252 net.cpp:397] bn5_1_branch2b -> enet5_1_branch2b (in-place)
I0417 16:59:07.922101  3252 net.cpp:150] Setting up bn5_1_branch2b
I0417 16:59:07.922116  3252 net.cpp:157] Top shape: 6 4 256 308 (1892352)
I0417 16:59:07.922123  3252 net.cpp:165] Memory required for data: 5219106864
I0417 16:59:07.922134  3252 layer_factory.hpp:77] Creating layer relu5_1_branch2b
I0417 16:59:07.922144  3252 net.cpp:106] Creating Layer relu5_1_branch2b
I0417 16:59:07.922152  3252 net.cpp:454] relu5_1_branch2b <- enet5_1_branch2b
I0417 16:59:07.922161  3252 net.cpp:397] relu5_1_branch2b -> enet5_1_branch2b (in-place)
I0417 16:59:07.923279  3252 net.cpp:150] Setting up relu5_1_branch2b
I0417 16:59:07.923296  3252 net.cpp:157] Top shape: 6 4 256 308 (1892352)
I0417 16:59:07.923305  3252 net.cpp:165] Memory required for data: 5226676272
I0417 16:59:07.923311  3252 layer_factory.hpp:77] Creating layer enet5_1_branch2c
I0417 16:59:07.923328  3252 net.cpp:106] Creating Layer enet5_1_branch2c
I0417 16:59:07.923337  3252 net.cpp:454] enet5_1_branch2c <- enet5_1_branch2b
I0417 16:59:07.923352  3252 net.cpp:411] enet5_1_branch2c -> enet5_1_branch2c
I0417 16:59:07.927294  3252 net.cpp:150] Setting up enet5_1_branch2c
I0417 16:59:07.927312  3252 net.cpp:157] Top shape: 6 16 256 308 (7569408)
I0417 16:59:07.927320  3252 net.cpp:165] Memory required for data: 5256953904
I0417 16:59:07.927330  3252 layer_factory.hpp:77] Creating layer bn5_1_branch2c
I0417 16:59:07.927346  3252 net.cpp:106] Creating Layer bn5_1_branch2c
I0417 16:59:07.927356  3252 net.cpp:454] bn5_1_branch2c <- enet5_1_branch2c
I0417 16:59:07.927366  3252 net.cpp:397] bn5_1_branch2c -> enet5_1_branch2c (in-place)
I0417 16:59:07.927938  3252 net.cpp:150] Setting up bn5_1_branch2c
I0417 16:59:07.927953  3252 net.cpp:157] Top shape: 6 16 256 308 (7569408)
I0417 16:59:07.927960  3252 net.cpp:165] Memory required for data: 5287231536
I0417 16:59:07.927971  3252 layer_factory.hpp:77] Creating layer enet5_1
I0417 16:59:07.927981  3252 net.cpp:106] Creating Layer enet5_1
I0417 16:59:07.927989  3252 net.cpp:454] enet5_1 <- enet5_0_relu5_0_0_split_1
I0417 16:59:07.927997  3252 net.cpp:454] enet5_1 <- enet5_1_branch2c
I0417 16:59:07.928007  3252 net.cpp:411] enet5_1 -> enet5_1
I0417 16:59:07.928064  3252 net.cpp:150] Setting up enet5_1
I0417 16:59:07.928078  3252 net.cpp:157] Top shape: 6 16 256 308 (7569408)
I0417 16:59:07.928086  3252 net.cpp:165] Memory required for data: 5317509168
I0417 16:59:07.928092  3252 layer_factory.hpp:77] Creating layer relu5_1
I0417 16:59:07.928100  3252 net.cpp:106] Creating Layer relu5_1
I0417 16:59:07.928107  3252 net.cpp:454] relu5_1 <- enet5_1
I0417 16:59:07.928119  3252 net.cpp:397] relu5_1 -> enet5_1 (in-place)
I0417 16:59:07.929476  3252 net.cpp:150] Setting up relu5_1
I0417 16:59:07.929494  3252 net.cpp:157] Top shape: 6 16 256 308 (7569408)
I0417 16:59:07.929512  3252 net.cpp:165] Memory required for data: 5347786800
I0417 16:59:07.929527  3252 layer_factory.hpp:77] Creating layer enet6_0
I0417 16:59:07.929543  3252 net.cpp:106] Creating Layer enet6_0
I0417 16:59:07.929551  3252 net.cpp:454] enet6_0 <- enet5_1
I0417 16:59:07.929565  3252 net.cpp:411] enet6_0 -> enet6_0
I0417 16:59:07.931386  3252 net.cpp:150] Setting up enet6_0
I0417 16:59:07.931408  3252 net.cpp:157] Top shape: 6 2 512 616 (3784704)
I0417 16:59:07.931416  3252 net.cpp:165] Memory required for data: 5362925616
I0417 16:59:07.931427  3252 layer_factory.hpp:77] Creating layer enet6_0_enet6_0_0_split
I0417 16:59:07.931438  3252 net.cpp:106] Creating Layer enet6_0_enet6_0_0_split
I0417 16:59:07.931447  3252 net.cpp:454] enet6_0_enet6_0_0_split <- enet6_0
I0417 16:59:07.931457  3252 net.cpp:411] enet6_0_enet6_0_0_split -> enet6_0_enet6_0_0_split_0
I0417 16:59:07.931469  3252 net.cpp:411] enet6_0_enet6_0_0_split -> enet6_0_enet6_0_0_split_1
I0417 16:59:07.931552  3252 net.cpp:150] Setting up enet6_0_enet6_0_0_split
I0417 16:59:07.931566  3252 net.cpp:157] Top shape: 6 2 512 616 (3784704)
I0417 16:59:07.931574  3252 net.cpp:157] Top shape: 6 2 512 616 (3784704)
I0417 16:59:07.931581  3252 net.cpp:165] Memory required for data: 5393203248
I0417 16:59:07.931587  3252 layer_factory.hpp:77] Creating layer loss
I0417 16:59:07.931609  3252 net.cpp:106] Creating Layer loss
I0417 16:59:07.931618  3252 net.cpp:454] loss <- enet6_0_enet6_0_0_split_0
I0417 16:59:07.931627  3252 net.cpp:454] loss <- label_data_1_split_0
I0417 16:59:07.931640  3252 net.cpp:411] loss -> loss
I0417 16:59:07.931674  3252 layer_factory.hpp:77] Creating layer loss
I0417 16:59:07.946995  3252 net.cpp:150] Setting up loss
I0417 16:59:07.947031  3252 net.cpp:157] Top shape: (1)
I0417 16:59:07.947038  3252 net.cpp:160]     with loss weight 1
I0417 16:59:07.947101  3252 net.cpp:165] Memory required for data: 5393203252
I0417 16:59:07.947113  3252 layer_factory.hpp:77] Creating layer accuracy
I0417 16:59:07.947136  3252 net.cpp:106] Creating Layer accuracy
I0417 16:59:07.947147  3252 net.cpp:454] accuracy <- enet6_0_enet6_0_0_split_1
I0417 16:59:07.947162  3252 net.cpp:454] accuracy <- label_data_1_split_1
I0417 16:59:07.947173  3252 net.cpp:411] accuracy -> accuracy
I0417 16:59:07.947187  3252 net.cpp:411] accuracy -> per_class_accuracy
I0417 16:59:07.947273  3252 net.cpp:150] Setting up accuracy
I0417 16:59:07.947288  3252 net.cpp:157] Top shape: (1)
I0417 16:59:07.947295  3252 net.cpp:157] Top shape: 2 (2)
I0417 16:59:07.947301  3252 net.cpp:165] Memory required for data: 5393203264
I0417 16:59:07.947309  3252 net.cpp:228] accuracy does not need backward computation.
I0417 16:59:07.947316  3252 net.cpp:226] loss needs backward computation.
I0417 16:59:07.947324  3252 net.cpp:226] enet6_0_enet6_0_0_split needs backward computation.
I0417 16:59:07.947330  3252 net.cpp:226] enet6_0 needs backward computation.
…
