…
I0417 18:48:06.238312 17511 solver.cpp:91] Creating training net from net file: /home/map/Liuchao/caffe_segmentation/caffe_enet/enet/Models/line_enet/enet_train_gaojing_line_w75.prototxt
I0417 18:48:06.250596 17511 net.cpp:49] Initializing net from parameters: 
name: "enet"
state {
  phase: TRAIN
}
layer {
  name: "data"
  type: "ImageSegData"
  top: "data"
  top: "label"
  transform_param {
    mirror: true
    mean_value: 0
    mean_value: 0
    mean_value: 0
    scale_factors: 1
  }
  image_data_param {
    source: "/home/map/Liuchao/data/road_line_train/train.list"
    batch_size: 6
    shuffle: true
    label_type: PIXEL
  }
}
layer {
  name: "enet_initial_branch2a"
  type: "Convolution"
  bottom: "data"
  top: "enet_initial_branch2a"
  param {
    lr_mult: 1
    decay_mult: 1
  }
  param {
    lr_mult: 2
    decay_mult: 0
  }
  convolution_param {
    num_output: 13
    bias_term: true
    weight_filler {
      type: "msra"
    }
    bias_filler {
      type: "constant"
    }
    pad_h: 1
    pad_w: 1
    kernel_h: 3
    kernel_w: 3
    stride_h: 2
    stride_w: 2
    dilation: 1
  }
}
layer {
  name: "pool_initial_branch1a"
  type: "Pooling"
  bottom: "data"
  top: "pool_initial_branch1a"
  pooling_param {
    pool: MAX
    kernel_size: 2
    stride: 2
  }
}
layer {
  name: "enet_initial"
  type: "Concat"
  bottom: "enet_initial_branch2a"
  bottom: "pool_initial_branch1a"
  top: "enet_initial"
  concat_param {
    axis: 1
  }
}
layer {
  name: "bn_initial"
  type: "BN"
  bottom: "enet_initial"
  top: "enet_initial"
  param {
    lr_mult: 1
    decay_mult: 1
  }
  param {
    lr_mult: 2
    decay_mult: 0
  }
  bn_param {
    scale_filler {
      type: "constant"
      value: 1
    }
    shift_filler {
      type: "constant"
      value: 0.001
    }
  }
}
layer {
  name: "relu_initial"
  type: "PReLU"
  bottom: "enet_initial"
  top: "enet_initial"
}
layer {
  name: "enet1_0_branch2a"
  type: "Convolution"
  bottom: "enet_initial"
  top: "enet1_0_branch2a"
  param {
    lr_mult: 1
    decay_mult: 1
  }
  convolution_param {
    num_output: 16
    bias_term: false
    weight_filler {
      type: "msra"
    }
    bias_filler {
      type: "constant"
    }
    pad_h: 0
    pad_w: 0
    kernel_h: 2
    kernel_w: 2
    stride_h: 2
    stride_w: 2
    dilation: 1
  }
}
layer {
  name: "bn1_0_branch2a"
  type: "BN"
  bottom: "enet1_0_branch2a"
  top: "enet1_0_branch2a"
  param {
    lr_mult: 1
    decay_mult: 1
  }
  param {
    lr_mult: 2
    decay_mult: 0
  }
  bn_param {
    scale_filler {
      type: "constant"
      value: 1
    }
    shift_filler {
      type: "constant"
      value: 0.001
    }
  }
}
layer {
  name: "relu1_0_branch2a"
  type: "PReLU"
  bottom: "enet1_0_branch2a"
  top: "enet1_0_branch2a"
}
layer {
  name: "enet1_0_branch2b"
  type: "Convolution"
  bottom: "enet1_0_branch2a"
  top: "enet1_0_branch2b"
  param {
    lr_mult: 1
    decay_mult: 1
  }
  param {
    lr_mult: 2
    decay_mult: 0
  }
  convolution_param {
    num_output: 16
    bias_term: true
    weight_filler {
      type: "msra"
    }
    bias_filler {
      type: "constant"
    }
    pad_h: 1
    pad_w: 1
    kernel_h: 3
    kernel_w: 3
    stride_h: 1
    stride_w: 1
    dilation: 1
  }
}
layer {
  name: "bn1_0_branch2b"
  type: "BN"
  bottom: "enet1_0_branch2b"
  top: "enet1_0_branch2b"
  param {
    lr_mult: 1
    decay_mult: 1
  }
  param {
    lr_mult: 2
    decay_mult: 0
  }
  bn_param {
    scale_filler {
      type: "constant"
      value: 1
    }
    shift_filler {
      type: "constant"
      value: 0.001
    }
  }
}
layer {
  name: "relu1_0_branch2b"
  type: "PReLU"
  bottom: "enet1_0_branch2b"
  top: "enet1_0_branch2b"
}
layer {
  name: "enet1_0_branch2c"
  type: "Convolution"
  bottom: "enet1_0_branch2b"
  top: "enet1_0_branch2c"
  param {
    lr_mult: 1
    decay_mult: 1
  }
  convolution_param {
    num_output: 64
    bias_term: false
    weight_filler {
      type: "msra"
    }
    bias_filler {
      type: "constant"
    }
    pad_h: 0
    pad_w: 0
    kernel_h: 1
    kernel_w: 1
    stride_h: 1
    stride_w: 1
    dilation: 1
  }
}
layer {
  name: "bn1_0_branch2c"
  type: "BN"
  bottom: "enet1_0_branch2c"
  top: "enet1_0_branch2c"
  param {
    lr_mult: 1
    decay_mult: 1
  }
  param {
    lr_mult: 2
    decay_mult: 0
  }
  bn_param {
    scale_filler {
      type: "constant"
      value: 1
    }
    shift_filler {
      type: "constant"
      value: 0.001
    }
  }
}
layer {
  name: "dropout1_0_branch2c"
  type: "Dropout"
  bottom: "enet1_0_branch2c"
  top: "enet1_0_branch2c"
  dropout_param {
    dropout_ratio: 0.01
  }
}
layer {
  name: "enet1_0_branch1a"
  type: "Convolution"
  bottom: "enet_initial"
  top: "enet1_0_branch1a"
  param {
    lr_mult: 1
    decay_mult: 1
  }
  convolution_param {
    num_output: 64
    bias_term: false
    weight_filler {
      type: "msra"
    }
    bias_filler {
      type: "constant"
    }
    pad_h: 0
    pad_w: 0
    kernel_h: 1
    kernel_w: 1
    stride_h: 1
    stride_w: 1
    dilation: 1
  }
}
layer {
  name: "bn1_0_branch1a"
  type: "BN"
  bottom: "enet1_0_branch1a"
  top: "enet1_0_branch1a"
  param {
    lr_mult: 1
    decay_mult: 1
  }
  param {
    lr_mult: 2
    decay_mult: 0
  }
  bn_param {
    scale_filler {
      type: "constant"
      value: 1
    }
    shift_filler {
      type: "constant"
      value: 0.001
    }
  }
}
layer {
  name: "pool1_0_branch1a"
  type: "Pooling"
  bottom: "enet1_0_branch1a"
  top: "pool1_0_branch1a"
  top: "pool1_0_branch1a_mask"
  pooling_param {
    pool: MAX
    kernel_size: 2
    stride: 2
  }
}
layer {
  name: "enet1_0"
  type: "Eltwise"
  bottom: "pool1_0_branch1a"
  bottom: "enet1_0_branch2c"
  top: "enet1_0"
}
layer {
  name: "relu1_0"
  type: "PReLU"
  bottom: "enet1_0"
  top: "enet1_0"
}
layer {
  name: "enet1_1_branch2a"
  type: "Convolution"
  bottom: "enet1_0"
  top: "enet1_1_branch2a"
  param {
    lr_mult: 1
    decay_mult: 1
  }
  convolution_param {
    num_output: 16
    bias_term: false
    weight_filler {
      type: "msra"
    }
    bias_filler {
      type: "constant"
    }
    pad_h: 0
    pad_w: 0
    kernel_h: 1
    kernel_w: 1
    stride_h: 1
    stride_w: 1
    dilation: 1
  }
}
layer {
  name: "bn1_1_branch2a"
  type: "BN"
  bottom: "enet1_1_branch2a"
  top: "enet1_1_branch2a"
  param {
    lr_mult: 1
    decay_mult: 1
  }
  param {
    lr_mult: 2
    decay_mult: 0
  }
  bn_param {
    scale_filler {
      type: "constant"
      value: 1
    }
    shift_filler {
      type: "constant"
      value: 0.001
    }
  }
}
layer {
  name: "relu1_1_branch2a"
  type: "PReLU"
  bottom: "enet1_1_branch2a"
  top: "enet1_1_branch2a"
}
layer {
  name: "enet1_1_branch2b"
  type: "Convolution"
  bottom: "enet1_1_branch2a"
  top: "enet1_1_branch2b"
  param {
    lr_mult: 1
    decay_mult: 1
  }
  param {
    lr_mult: 2
    decay_mult: 0
  }
  convolution_param {
    num_output: 16
    bias_term: true
    weight_filler {
      type: "msra"
    }
    bias_filler {
      type: "constant"
    }
    pad_h: 1
    pad_w: 1
    kernel_h: 3
    kernel_w: 3
    stride_h: 1
    stride_w: 1
    dilation: 1
  }
}
layer {
  name: "bn1_1_branch2b"
  type: "BN"
  bottom: "enet1_1_branch2b"
  top: "enet1_1_branch2b"
  param {
    lr_mult: 1
    decay_mult: 1
  }
  param {
    lr_mult: 2
    decay_mult: 0
  }
  bn_param {
    scale_filler {
      type: "constant"
      value: 1
    }
    shift_filler {
      type: "constant"
      value: 0.001
    }
  }
}
layer {
  name: "relu1_1_branch2b"
  type: "PReLU"
  bottom: "enet1_1_branch2b"
  top: "enet1_1_branch2b"
}
layer {
  name: "enet1_1_branch2c"
  type: "Convolution"
  bottom: "enet1_1_branch2b"
  top: "enet1_1_branch2c"
  param {
    lr_mult: 1
    decay_mult: 1
  }
  convolution_param {
    num_output: 64
    bias_term: false
    weight_filler {
      type: "msra"
    }
    bias_filler {
      type: "constant"
    }
    pad_h: 0
    pad_w: 0
    kernel_h: 1
    kernel_w: 1
    stride_h: 1
    stride_w: 1
    dilation: 1
  }
}
layer {
  name: "bn1_1_branch2c"
  type: "BN"
  bottom: "enet1_1_branch2c"
  top: "enet1_1_branch2c"
  param {
    lr_mult: 1
    decay_mult: 1
  }
  param {
    lr_mult: 2
    decay_mult: 0
  }
  bn_param {
    scale_filler {
      type: "constant"
      value: 1
    }
    shift_filler {
      type: "constant"
      value: 0.001
    }
  }
}
layer {
  name: "dropout1_1_branch2c"
  type: "Dropout"
  bottom: "enet1_1_branch2c"
  top: "enet1_1_branch2c"
  dropout_param {
    dropout_ratio: 0.01
  }
}
layer {
  name: "enet1_1"
  type: "Eltwise"
  bottom: "enet1_0"
  bottom: "enet1_1_branch2c"
  top: "enet1_1"
}
layer {
  name: "relu1_1"
  type: "PReLU"
  bottom: "enet1_1"
  top: "enet1_1"
}
layer {
  name: "enet1_2_branch2a"
  type: "Convolution"
  bottom: "enet1_1"
  top: "enet1_2_branch2a"
  param {
    lr_mult: 1
    decay_mult: 1
  }
  convolution_param {
    num_output: 16
    bias_term: false
    weight_filler {
      type: "msra"
    }
    bias_filler {
      type: "constant"
    }
    pad_h: 0
    pad_w: 0
    kernel_h: 1
    kernel_w: 1
    stride_h: 1
    stride_w: 1
    dilation: 1
  }
}
layer {
  name: "bn1_2_branch2a"
  type: "BN"
  bottom: "enet1_2_branch2a"
  top: "enet1_2_branch2a"
  param {
    lr_mult: 1
    decay_mult: 1
  }
  param {
    lr_mult: 2
    decay_mult: 0
  }
  bn_param {
    scale_filler {
      type: "constant"
      value: 1
    }
    shift_filler {
      type: "constant"
      value: 0.001
    }
  }
}
layer {
  name: "relu1_2_branch2a"
  type: "PReLU"
  bottom: "enet1_2_branch2a"
  top: "enet1_2_branch2a"
}
layer {
  name: "enet1_2_branch2b"
  type: "Convolution"
  bottom: "enet1_2_branch2a"
  top: "enet1_2_branch2b"
  param {
    lr_mult: 1
    decay_mult: 1
  }
  param {
    lr_mult: 2
    decay_mult: 0
  }
  convolution_param {
    num_output: 16
    bias_term: true
    weight_filler {
      type: "msra"
    }
    bias_filler {
      type: "constant"
    }
    pad_h: 1
    pad_w: 1
    kernel_h: 3
    kernel_w: 3
    stride_h: 1
    stride_w: 1
    dilation: 1
  }
}
layer {
  name: "bn1_2_branch2b"
  type: "BN"
  bottom: "enet1_2_branch2b"
  top: "enet1_2_branch2b"
  param {
    lr_mult: 1
    decay_mult: 1
  }
  param {
    lr_mult: 2
    decay_mult: 0
  }
  bn_param {
    scale_filler {
      type: "constant"
      value: 1
    }
    shift_filler {
      type: "constant"
      value: 0.001
    }
  }
}
layer {
  name: "relu1_2_branch2b"
  type: "PReLU"
  bottom: "enet1_2_branch2b"
  top: "enet1_2_branch2b"
}
layer {
  name: "enet1_2_branch2c"
  type: "Convolution"
  bottom: "enet1_2_branch2b"
  top: "enet1_2_branch2c"
  param {
    lr_mult: 1
    decay_mult: 1
  }
  convolution_param {
    num_output: 64
    bias_term: false
    weight_filler {
      type: "msra"
    }
    bias_filler {
      type: "constant"
    }
    pad_h: 0
    pad_w: 0
    kernel_h: 1
    kernel_w: 1
    stride_h: 1
    stride_w: 1
    dilation: 1
  }
}
layer {
  name: "bn1_2_branch2c"
  type: "BN"
  bottom: "enet1_2_branch2c"
  top: "enet1_2_branch2c"
  param {
    lr_mult: 1
    decay_mult: 1
  }
  param {
    lr_mult: 2
    decay_mult: 0
  }
  bn_param {
    scale_filler {
      type: "constant"
      value: 1
    }
    shift_filler {
      type: "constant"
      value: 0.001
    }
  }
}
layer {
  name: "dropout1_2_branch2c"
  type: "Dropout"
  bottom: "enet1_2_branch2c"
  top: "enet1_2_branch2c"
  dropout_param {
    dropout_ratio: 0.01
  }
}
layer {
  name: "enet1_2"
  type: "Eltwise"
  bottom: "enet1_1"
  bottom: "enet1_2_branch2c"
  top: "enet1_2"
}
layer {
  name: "relu1_2"
  type: "PReLU"
  bottom: "enet1_2"
  top: "enet1_2"
}
layer {
  name: "enet1_3_branch2a"
  type: "Convolution"
  bottom: "enet1_2"
  top: "enet1_3_branch2a"
  param {
    lr_mult: 1
    decay_mult: 1
  }
  convolution_param {
    num_output: 16
    bias_term: false
    weight_filler {
      type: "msra"
    }
    bias_filler {
      type: "constant"
    }
    pad_h: 0
    pad_w: 0
    kernel_h: 1
    kernel_w: 1
    stride_h: 1
    stride_w: 1
    dilation: 1
  }
}
layer {
  name: "bn1_3_branch2a"
  type: "BN"
  bottom: "enet1_3_branch2a"
  top: "enet1_3_branch2a"
  param {
    lr_mult: 1
    decay_mult: 1
  }
  param {
    lr_mult: 2
    decay_mult: 0
  }
  bn_param {
    scale_filler {
      type: "constant"
      value: 1
    }
    shift_filler {
      type: "constant"
      value: 0.001
    }
  }
}
layer {
  name: "relu1_3_branch2a"
  type: "PReLU"
  bottom: "enet1_3_branch2a"
  top: "enet1_3_branch2a"
}
layer {
  name: "enet1_3_branch2b"
  type: "Convolution"
  bottom: "enet1_3_branch2a"
  top: "enet1_3_branch2b"
  param {
    lr_mult: 1
    decay_mult: 1
  }
  param {
    lr_mult: 2
    decay_mult: 0
  }
  convolution_param {
    num_output: 16
    bias_term: true
    weight_filler {
      type: "msra"
    }
    bias_filler {
      type: "constant"
    }
    pad_h: 1
    pad_w: 1
    kernel_h: 3
    kernel_w: 3
    stride_h: 1
    stride_w: 1
    dilation: 1
  }
}
layer {
  name: "bn1_3_branch2b"
  type: "BN"
  bottom: "enet1_3_branch2b"
  top: "enet1_3_branch2b"
  param {
    lr_mult: 1
    decay_mult: 1
  }
  param {
    lr_mult: 2
    decay_mult: 0
  }
  bn_param {
    scale_filler {
      type: "constant"
      value: 1
    }
    shift_filler {
      type: "constant"
      value: 0.001
    }
  }
}
layer {
  name: "relu1_3_branch2b"
  type: "PReLU"
  bottom: "enet1_3_branch2b"
  top: "enet1_3_branch2b"
}
layer {
  name: "enet1_3_branch2c"
  type: "Convolution"
  bottom: "enet1_3_branch2b"
  top: "enet1_3_branch2c"
  param {
    lr_mult: 1
    decay_mult: 1
  }
  convolution_param {
    num_output: 64
    bias_term: false
    weight_filler {
      type: "msra"
    }
    bias_filler {
      type: "constant"
    }
    pad_h: 0
    pad_w: 0
    kernel_h: 1
    kernel_w: 1
    stride_h: 1
    stride_w: 1
    dilation: 1
  }
}
layer {
  name: "bn1_3_branch2c"
  type: "BN"
  bottom: "enet1_3_branch2c"
  top: "enet1_3_branch2c"
  param {
    lr_mult: 1
    decay_mult: 1
  }
  param {
    lr_mult: 2
    decay_mult: 0
  }
  bn_param {
    scale_filler {
      type: "constant"
      value: 1
    }
    shift_filler {
      type: "constant"
      value: 0.001
    }
  }
}
layer {
  name: "dropout1_3_branch2c"
  type: "Dropout"
  bottom: "enet1_3_branch2c"
  top: "enet1_3_branch2c"
  dropout_param {
    dropout_ratio: 0.01
  }
}
layer {
  name: "enet1_3"
  type: "Eltwise"
  bottom: "enet1_2"
  bottom: "enet1_3_branch2c"
  top: "enet1_3"
}
layer {
  name: "relu1_3"
  type: "PReLU"
  bottom: "enet1_3"
  top: "enet1_3"
}
layer {
  name: "enet1_4_branch2a"
  type: "Convolution"
  bottom: "enet1_3"
  top: "enet1_4_branch2a"
  param {
    lr_mult: 1
    decay_mult: 1
  }
  convolution_param {
    num_output: 16
    bias_term: false
    weight_filler {
      type: "msra"
    }
    bias_filler {
      type: "constant"
    }
    pad_h: 0
    pad_w: 0
    kernel_h: 1
    kernel_w: 1
    stride_h: 1
    stride_w: 1
    dilation: 1
  }
}
layer {
  name: "bn1_4_branch2a"
  type: "BN"
  bottom: "enet1_4_branch2a"
  top: "enet1_4_branch2a"
  param {
    lr_mult: 1
    decay_mult: 1
  }
  param {
    lr_mult: 2
    decay_mult: 0
  }
  bn_param {
    scale_filler {
      type: "constant"
      value: 1
    }
    shift_filler {
      type: "constant"
      value: 0.001
    }
  }
}
layer {
  name: "relu1_4_branch2a"
  type: "PReLU"
  bottom: "enet1_4_branch2a"
  top: "enet1_4_branch2a"
}
layer {
  name: "enet1_4_branch2b"
  type: "Convolution"
  bottom: "enet1_4_branch2a"
  top: "enet1_4_branch2b"
  param {
    lr_mult: 1
    decay_mult: 1
  }
  param {
    lr_mult: 2
    decay_mult: 0
  }
  convolution_param {
    num_output: 16
    bias_term: true
    weight_filler {
      type: "msra"
    }
    bias_filler {
      type: "constant"
    }
    pad_h: 1
    pad_w: 1
    kernel_h: 3
    kernel_w: 3
    stride_h: 1
    stride_w: 1
    dilation: 1
  }
}
layer {
  name: "bn1_4_branch2b"
  type: "BN"
  bottom: "enet1_4_branch2b"
  top: "enet1_4_branch2b"
  param {
    lr_mult: 1
    decay_mult: 1
  }
  param {
    lr_mult: 2
    decay_mult: 0
  }
  bn_param {
    scale_filler {
      type: "constant"
      value: 1
    }
    shift_filler {
      type: "constant"
      value: 0.001
    }
  }
}
layer {
  name: "relu1_4_branch2b"
  type: "PReLU"
  bottom: "enet1_4_branch2b"
  top: "enet1_4_branch2b"
}
layer {
  name: "enet1_4_branch2c"
  type: "Convolution"
  bottom: "enet1_4_branch2b"
  top: "enet1_4_branch2c"
  param {
    lr_mult: 1
    decay_mult: 1
  }
  convolution_param {
    num_output: 64
    bias_term: false
    weight_filler {
      type: "msra"
    }
    bias_filler {
      type: "constant"
    }
    pad_h: 0
    pad_w: 0
    kernel_h: 1
    kernel_w: 1
    stride_h: 1
    stride_w: 1
    dilation: 1
  }
}
layer {
  name: "bn1_4_branch2c"
  type: "BN"
  bottom: "enet1_4_branch2c"
  top: "enet1_4_branch2c"
  param {
    lr_mult: 1
    decay_mult: 1
  }
  param {
    lr_mult: 2
    decay_mult: 0
  }
  bn_param {
    scale_filler {
      type: "constant"
      value: 1
    }
    shift_filler {
      type: "constant"
      value: 0.001
    }
  }
}
layer {
  name: "dropout1_4_branch2c"
  type: "Dropout"
  bottom: "enet1_4_branch2c"
  top: "enet1_4_branch2c"
  dropout_param {
    dropout_ratio: 0.01
  }
}
layer {
  name: "enet1_4"
  type: "Eltwise"
  bottom: "enet1_3"
  bottom: "enet1_4_branch2c"
  top: "enet1_4"
}
layer {
  name: "relu1_4"
  type: "PReLU"
  bottom: "enet1_4"
  top: "enet1_4"
}
layer {
  name: "enet2_0_branch2a"
  type: "Convolution"
  bottom: "enet1_4"
  top: "enet2_0_branch2a"
  param {
    lr_mult: 1
    decay_mult: 1
  }
  convolution_param {
    num_output: 32
    bias_term: false
    weight_filler {
      type: "msra"
    }
    bias_filler {
      type: "constant"
    }
    pad_h: 0
    pad_w: 0
    kernel_h: 2
    kernel_w: 2
    stride_h: 2
    stride_w: 2
    dilation: 1
  }
}
layer {
  name: "bn2_0_branch2a"
  type: "BN"
  bottom: "enet2_0_branch2a"
  top: "enet2_0_branch2a"
  param {
    lr_mult: 1
    decay_mult: 1
  }
  param {
    lr_mult: 2
    decay_mult: 0
  }
  bn_param {
    scale_filler {
      type: "constant"
      value: 1
    }
    shift_filler {
      type: "constant"
      value: 0.001
    }
  }
}
layer {
  name: "relu2_0_branch2a"
  type: "PReLU"
  bottom: "enet2_0_branch2a"
  top: "enet2_0_branch2a"
}
layer {
  name: "enet2_0_branch2b"
  type: "Convolution"
  bottom: "enet2_0_branch2a"
  top: "enet2_0_branch2b"
  param {
    lr_mult: 1
    decay_mult: 1
  }
  param {
    lr_mult: 2
    decay_mult: 0
  }
  convolution_param {
    num_output: 32
    bias_term: true
    weight_filler {
      type: "msra"
    }
    bias_filler {
      type: "constant"
    }
    pad_h: 1
    pad_w: 1
    kernel_h: 3
    kernel_w: 3
    stride_h: 1
    stride_w: 1
    dilation: 1
  }
}
layer {
  name: "bn2_0_branch2b"
  type: "BN"
  bottom: "enet2_0_branch2b"
  top: "enet2_0_branch2b"
  param {
    lr_mult: 1
    decay_mult: 1
  }
  param {
    lr_mult: 2
    decay_mult: 0
  }
  bn_param {
    scale_filler {
      type: "constant"
      value: 1
    }
    shift_filler {
      type: "constant"
      value: 0.001
    }
  }
}
layer {
  name: "relu2_0_branch2b"
  type: "PReLU"
  bottom: "enet2_0_branch2b"
  top: "enet2_0_branch2b"
}
layer {
  name: "enet2_0_branch2c"
  type: "Convolution"
  bottom: "enet2_0_branch2b"
  top: "enet2_0_branch2c"
  param {
    lr_mult: 1
    decay_mult: 1
  }
  convolution_param {
    num_output: 128
    bias_term: false
    weight_filler {
      type: "msra"
    }
    bias_filler {
      type: "constant"
    }
    pad_h: 0
    pad_w: 0
    kernel_h: 1
    kernel_w: 1
    stride_h: 1
    stride_w: 1
    dilation: 1
  }
}
layer {
  name: "bn2_0_branch2c"
  type: "BN"
  bottom: "enet2_0_branch2c"
  top: "enet2_0_branch2c"
  param {
    lr_mult: 1
    decay_mult: 1
  }
  param {
    lr_mult: 2
    decay_mult: 0
  }
  bn_param {
    scale_filler {
      type: "constant"
      value: 1
    }
    shift_filler {
      type: "constant"
      value: 0.001
    }
  }
}
layer {
  name: "dropout2_0_branch2c"
  type: "Dropout"
  bottom: "enet2_0_branch2c"
  top: "enet2_0_branch2c"
  dropout_param {
    dropout_ratio: 0.1
  }
}
layer {
  name: "enet2_0_branch1a"
  type: "Convolution"
  bottom: "enet1_4"
  top: "enet2_0_branch1a"
  param {
    lr_mult: 1
    decay_mult: 1
  }
  convolution_param {
    num_output: 128
    bias_term: false
    weight_filler {
      type: "msra"
    }
    bias_filler {
      type: "constant"
    }
    pad_h: 0
    pad_w: 0
    kernel_h: 1
    kernel_w: 1
    stride_h: 1
    stride_w: 1
    dilation: 1
  }
}
layer {
  name: "bn2_0_branch1a"
  type: "BN"
  bottom: "enet2_0_branch1a"
  top: "enet2_0_branch1a"
  param {
    lr_mult: 1
    decay_mult: 1
  }
  param {
    lr_mult: 2
    decay_mult: 0
  }
  bn_param {
    scale_filler {
      type: "constant"
      value: 1
    }
    shift_filler {
      type: "constant"
      value: 0.001
    }
  }
}
layer {
  name: "pool2_0_branch1a"
  type: "Pooling"
  bottom: "enet2_0_branch1a"
  top: "pool2_0_branch1a"
  top: "pool2_0_branch1a_mask"
  pooling_param {
    pool: MAX
    kernel_size: 2
    stride: 2
  }
}
layer {
  name: "enet2_0"
  type: "Eltwise"
  bottom: "pool2_0_branch1a"
  bottom: "enet2_0_branch2c"
  top: "enet2_0"
}
layer {
  name: "relu2_0"
  type: "PReLU"
  bottom: "enet2_0"
  top: "enet2_0"
}
layer {
  name: "enet2_1_branch2a"
  type: "Convolution"
  bottom: "enet2_0"
  top: "enet2_1_branch2a"
  param {
    lr_mult: 1
    decay_mult: 1
  }
  convolution_param {
    num_output: 32
    bias_term: false
    weight_filler {
      type: "msra"
    }
    bias_filler {
      type: "constant"
    }
    pad_h: 0
    pad_w: 0
    kernel_h: 1
    kernel_w: 1
    stride_h: 1
    stride_w: 1
    dilation: 1
  }
}
layer {
  name: "bn2_1_branch2a"
  type: "BN"
  bottom: "enet2_1_branch2a"
  top: "enet2_1_branch2a"
  param {
    lr_mult: 1
    decay_mult: 1
  }
  param {
    lr_mult: 2
    decay_mult: 0
  }
  bn_param {
    scale_filler {
      type: "constant"
      value: 1
    }
    shift_filler {
      type: "constant"
      value: 0.001
    }
  }
}
layer {
  name: "relu2_1_branch2a"
  type: "PReLU"
  bottom: "enet2_1_branch2a"
  top: "enet2_1_branch2a"
}
layer {
  name: "enet2_1_branch2b"
  type: "Convolution"
  bottom: "enet2_1_branch2a"
  top: "enet2_1_branch2b"
  param {
    lr_mult: 1
    decay_mult: 1
  }
  param {
    lr_mult: 2
    decay_mult: 0
  }
  convolution_param {
    num_output: 32
    bias_term: true
    weight_filler {
      type: "msra"
    }
    bias_filler {
      type: "constant"
    }
    pad_h: 1
    pad_w: 1
    kernel_h: 3
    kernel_w: 3
    stride_h: 1
    stride_w: 1
    dilation: 1
  }
}
layer {
  name: "bn2_1_branch2b"
  type: "BN"
  bottom: "enet2_1_branch2b"
  top: "enet2_1_branch2b"
  param {
    lr_mult: 1
    decay_mult: 1
  }
  param {
    lr_mult: 2
    decay_mult: 0
  }
  bn_param {
    scale_filler {
      type: "constant"
      value: 1
    }
    shift_filler {
      type: "constant"
      value: 0.001
    }
  }
}
layer {
  name: "relu2_1_branch2b"
  type: "PReLU"
  bottom: "enet2_1_branch2b"
  top: "enet2_1_branch2b"
}
layer {
  name: "enet2_1_branch2c"
  type: "Convolution"
  bottom: "enet2_1_branch2b"
  top: "enet2_1_branch2c"
  param {
    lr_mult: 1
    decay_mult: 1
  }
  convolution_param {
    num_output: 128
    bias_term: false
    weight_filler {
      type: "msra"
    }
    bias_filler {
      type: "constant"
    }
    pad_h: 0
    pad_w: 0
    kernel_h: 1
    kernel_w: 1
    stride_h: 1
    stride_w: 1
    dilation: 1
  }
}
layer {
  name: "bn2_1_branch2c"
  type: "BN"
  bottom: "enet2_1_branch2c"
  top: "enet2_1_branch2c"
  param {
    lr_mult: 1
    decay_mult: 1
  }
  param {
    lr_mult: 2
    decay_mult: 0
  }
  bn_param {
    scale_filler {
      type: "constant"
      value: 1
    }
    shift_filler {
      type: "constant"
      value: 0.001
    }
  }
}
layer {
  name: "dropout2_1_branch2c"
  type: "Dropout"
  bottom: "enet2_1_branch2c"
  top: "enet2_1_branch2c"
  dropout_param {
    dropout_ratio: 0.1
  }
}
layer {
  name: "enet2_1"
  type: "Eltwise"
  bottom: "enet2_0"
  bottom: "enet2_1_branch2c"
  top: "enet2_1"
}
layer {
  name: "relu2_1"
  type: "PReLU"
  bottom: "enet2_1"
  top: "enet2_1"
}
layer {
  name: "enet2_2_branch2a"
  type: "Convolution"
  bottom: "enet2_1"
  top: "enet2_2_branch2a"
  param {
    lr_mult: 1
    decay_mult: 1
  }
  convolution_param {
    num_output: 32
    bias_term: false
    weight_filler {
      type: "msra"
    }
    bias_filler {
      type: "constant"
    }
    pad_h: 0
    pad_w: 0
    kernel_h: 1
    kernel_w: 1
    stride_h: 1
    stride_w: 1
    dilation: 1
  }
}
layer {
  name: "bn2_2_branch2a"
  type: "BN"
  bottom: "enet2_2_branch2a"
  top: "enet2_2_branch2a"
  param {
    lr_mult: 1
    decay_mult: 1
  }
  param {
    lr_mult: 2
    decay_mult: 0
  }
  bn_param {
    scale_filler {
      type: "constant"
      value: 1
    }
    shift_filler {
      type: "constant"
      value: 0.001
    }
  }
}
layer {
  name: "relu2_2_branch2a"
  type: "PReLU"
  bottom: "enet2_2_branch2a"
  top: "enet2_2_branch2a"
}
layer {
  name: "enet2_2_branch2b"
  type: "Convolution"
  bottom: "enet2_2_branch2a"
  top: "enet2_2_branch2b"
  param {
    lr_mult: 1
    decay_mult: 1
  }
  param {
    lr_mult: 2
    decay_mult: 0
  }
  convolution_param {
    num_output: 32
    bias_term: true
    weight_filler {
      type: "msra"
    }
    bias_filler {
      type: "constant"
    }
    pad_h: 2
    pad_w: 2
    kernel_h: 3
    kernel_w: 3
    stride_h: 1
    stride_w: 1
    dilation: 2
  }
}
layer {
  name: "bn2_2_branch2b"
  type: "BN"
  bottom: "enet2_2_branch2b"
  top: "enet2_2_branch2b"
  param {
    lr_mult: 1
    decay_mult: 1
  }
  param {
    lr_mult: 2
    decay_mult: 0
  }
  bn_param {
    scale_filler {
      type: "constant"
      value: 1
    }
    shift_filler {
      type: "constant"
      value: 0.001
    }
  }
}
layer {
  name: "relu2_2_branch2b"
  type: "PReLU"
  bottom: "enet2_2_branch2b"
  top: "enet2_2_branch2b"
}
layer {
  name: "enet2_2_branch2c"
  type: "Convolution"
  bottom: "enet2_2_branch2b"
  top: "enet2_2_branch2c"
  param {
    lr_mult: 1
    decay_mult: 1
  }
  convolution_param {
    num_output: 128
    bias_term: false
    weight_filler {
      type: "msra"
    }
    bias_filler {
      type: "constant"
    }
    pad_h: 0
    pad_w: 0
    kernel_h: 1
    kernel_w: 1
    stride_h: 1
    stride_w: 1
    dilation: 1
  }
}
layer {
  name: "bn2_2_branch2c"
  type: "BN"
  bottom: "enet2_2_branch2c"
  top: "enet2_2_branch2c"
  param {
    lr_mult: 1
    decay_mult: 1
  }
  param {
    lr_mult: 2
    decay_mult: 0
  }
  bn_param {
    scale_filler {
      type: "constant"
      value: 1
    }
    shift_filler {
      type: "constant"
      value: 0.001
    }
  }
}
layer {
  name: "dropout2_2_branch2c"
  type: "Dropout"
  bottom: "enet2_2_branch2c"
  top: "enet2_2_branch2c"
  dropout_param {
    dropout_ratio: 0.1
  }
}
layer {
  name: "enet2_2"
  type: "Eltwise"
  bottom: "enet2_1"
  bottom: "enet2_2_branch2c"
  top: "enet2_2"
}
layer {
  name: "relu2_2"
  type: "PReLU"
  bottom: "enet2_2"
  top: "enet2_2"
}
layer {
  name: "enet2_3_branch2a"
  type: "Convolution"
  bottom: "enet2_2"
  top: "enet2_3_branch2a"
  param {
    lr_mult: 1
    decay_mult: 1
  }
  convolution_param {
    num_output: 32
    bias_term: false
    weight_filler {
      type: "msra"
    }
    bias_filler {
      type: "constant"
    }
    pad_h: 0
    pad_w: 0
    kernel_h: 1
    kernel_w: 1
    stride_h: 1
    stride_w: 1
    dilation: 1
  }
}
layer {
  name: "bn2_3_branch2a"
  type: "BN"
  bottom: "enet2_3_branch2a"
  top: "enet2_3_branch2a"
  param {
    lr_mult: 1
    decay_mult: 1
  }
  param {
    lr_mult: 2
    decay_mult: 0
  }
  bn_param {
    scale_filler {
      type: "constant"
      value: 1
    }
    shift_filler {
      type: "constant"
      value: 0.001
    }
  }
}
layer {
  name: "relu2_3_branch2a"
  type: "PReLU"
  bottom: "enet2_3_branch2a"
  top: "enet2_3_branch2a"
}
layer {
  name: "enet2_3_branch2b1"
  type: "Convolution"
  bottom: "enet2_3_branch2a"
  top: "enet2_3_branch2b1"
  param {
    lr_mult: 1
    decay_mult: 1
  }
  convolution_param {
    num_output: 32
    bias_term: false
    weight_filler {
      type: "msra"
    }
    bias_filler {
      type: "constant"
    }
    pad_h: 0
    pad_w: 2
    kernel_h: 1
    kernel_w: 5
    stride_h: 1
    stride_w: 1
    dilation: 1
  }
}
layer {
  name: "enet2_3_branch2b"
  type: "Convolution"
  bottom: "enet2_3_branch2b1"
  top: "enet2_3_branch2b"
  param {
    lr_mult: 1
    decay_mult: 1
  }
  param {
    lr_mult: 2
    decay_mult: 0
  }
  convolution_param {
    num_output: 32
    bias_term: true
    weight_filler {
      type: "msra"
    }
    bias_filler {
      type: "constant"
    }
    pad_h: 2
    pad_w: 0
    kernel_h: 5
    kernel_w: 1
    stride_h: 1
    stride_w: 1
    dilation: 1
  }
}
layer {
  name: "bn2_3_branch2b"
  type: "BN"
  bottom: "enet2_3_branch2b"
  top: "enet2_3_branch2b"
  param {
    lr_mult: 1
    decay_mult: 1
  }
  param {
    lr_mult: 2
    decay_mult: 0
  }
  bn_param {
    scale_filler {
      type: "constant"
      value: 1
    }
    shift_filler {
      type: "constant"
      value: 0.001
    }
  }
}
layer {
  name: "relu2_3_branch2b"
  type: "PReLU"
  bottom: "enet2_3_branch2b"
  top: "enet2_3_branch2b"
}
layer {
  name: "enet2_3_branch2c"
  type: "Convolution"
  bottom: "enet2_3_branch2b"
  top: "enet2_3_branch2c"
  param {
    lr_mult: 1
    decay_mult: 1
  }
  convolution_param {
    num_output: 128
    bias_term: false
    weight_filler {
      type: "msra"
    }
    bias_filler {
      type: "constant"
    }
    pad_h: 0
    pad_w: 0
    kernel_h: 1
    kernel_w: 1
    stride_h: 1
    stride_w: 1
    dilation: 1
  }
}
layer {
  name: "bn2_3_branch2c"
  type: "BN"
  bottom: "enet2_3_branch2c"
  top: "enet2_3_branch2c"
  param {
    lr_mult: 1
    decay_mult: 1
  }
  param {
    lr_mult: 2
    decay_mult: 0
  }
  bn_param {
    scale_filler {
      type: "constant"
      value: 1
    }
    shift_filler {
      type: "constant"
      value: 0.001
    }
  }
}
layer {
  name: "dropout2_3_branch2c"
  type
I0417 18:48:06.252321 17511 layer_factory.hpp:77] Creating layer data
I0417 18:48:06.252398 17511 net.cpp:106] Creating Layer data
I0417 18:48:06.252414 17511 net.cpp:411] data -> data
I0417 18:48:06.252463 17511 net.cpp:411] data -> label
I0417 18:48:06.252490 17511 net.cpp:411] data -> (automatic)
I0417 18:48:06.253087 17511 image_seg_data_layer.cpp:46] Opening file /home/map/Liuchao/data/road_line_train/train.list
I0417 18:48:06.267153 17511 image_seg_data_layer.cpp:63] Shuffling data
I0417 18:48:06.268662 17511 image_seg_data_layer.cpp:68] A total of 9830 images.
I0417 18:48:06.295819 17511 image_seg_data_layer.cpp:147] output data size: 6,3,512,616
I0417 18:48:06.295838 17511 image_seg_data_layer.cpp:151] output label size: 6,1,512,616
I0417 18:48:06.295846 17511 image_seg_data_layer.cpp:155] output data_dim size: 6,1,1,2
I0417 18:48:06.492880 17511 net.cpp:150] Setting up data
I0417 18:48:06.492935 17511 net.cpp:157] Top shape: 6 3 512 616 (5677056)
I0417 18:48:06.492947 17511 net.cpp:157] Top shape: 6 1 512 616 (1892352)
I0417 18:48:06.492956 17511 net.cpp:157] Top shape: 6 1 1 2 (12)
I0417 18:48:06.492964 17511 net.cpp:165] Memory required for data: 30277680
I0417 18:48:06.492977 17511 layer_factory.hpp:77] Creating layer data_data_0_split
I0417 18:48:06.493000 17511 net.cpp:106] Creating Layer data_data_0_split
I0417 18:48:06.493008 17511 net.cpp:454] data_data_0_split <- data
I0417 18:48:06.493039 17511 net.cpp:411] data_data_0_split -> data_data_0_split_0
I0417 18:48:06.493058 17511 net.cpp:411] data_data_0_split -> data_data_0_split_1
I0417 18:48:06.493119 17511 net.cpp:150] Setting up data_data_0_split
I0417 18:48:06.493131 17511 net.cpp:157] Top shape: 6 3 512 616 (5677056)
I0417 18:48:06.493141 17511 net.cpp:157] Top shape: 6 3 512 616 (5677056)
I0417 18:48:06.493147 17511 net.cpp:165] Memory required for data: 75694128
I0417 18:48:06.493155 17511 layer_factory.hpp:77] Creating layer label_data_1_split
I0417 18:48:06.493180 17511 net.cpp:106] Creating Layer label_data_1_split
I0417 18:48:06.493201 17511 net.cpp:454] label_data_1_split <- label
I0417 18:48:06.493211 17511 net.cpp:411] label_data_1_split -> label_data_1_split_0
I0417 18:48:06.493223 17511 net.cpp:411] label_data_1_split -> label_data_1_split_1
I0417 18:48:06.493264 17511 net.cpp:150] Setting up label_data_1_split
I0417 18:48:06.493275 17511 net.cpp:157] Top shape: 6 1 512 616 (1892352)
I0417 18:48:06.493283 17511 net.cpp:157] Top shape: 6 1 512 616 (1892352)
I0417 18:48:06.493289 17511 net.cpp:165] Memory required for data: 90832944
I0417 18:48:06.493296 17511 layer_factory.hpp:77] Creating layer enet_initial_branch2a
I0417 18:48:06.493325 17511 net.cpp:106] Creating Layer enet_initial_branch2a
I0417 18:48:06.493333 17511 net.cpp:454] enet_initial_branch2a <- data_data_0_split_0
I0417 18:48:06.493345 17511 net.cpp:411] enet_initial_branch2a -> enet_initial_branch2a
I0417 18:48:06.648103 17511 net.cpp:150] Setting up enet_initial_branch2a
I0417 18:48:06.648147 17511 net.cpp:157] Top shape: 6 13 256 308 (6150144)
I0417 18:48:06.648156 17511 net.cpp:165] Memory required for data: 115433520
I0417 18:48:06.648191 17511 layer_factory.hpp:77] Creating layer pool_initial_branch1a
I0417 18:48:06.648219 17511 net.cpp:106] Creating Layer pool_initial_branch1a
I0417 18:48:06.648229 17511 net.cpp:454] pool_initial_branch1a <- data_data_0_split_1
I0417 18:48:06.648243 17511 net.cpp:411] pool_initial_branch1a -> pool_initial_branch1a
I0417 18:48:06.648337 17511 net.cpp:150] Setting up pool_initial_branch1a
I0417 18:48:06.648352 17511 net.cpp:157] Top shape: 6 3 256 308 (1419264)
I0417 18:48:06.648360 17511 net.cpp:165] Memory required for data: 121110576
I0417 18:48:06.648366 17511 layer_factory.hpp:77] Creating layer enet_initial
I0417 18:48:06.648382 17511 net.cpp:106] Creating Layer enet_initial
I0417 18:48:06.648389 17511 net.cpp:454] enet_initial <- enet_initial_branch2a
I0417 18:48:06.648398 17511 net.cpp:454] enet_initial <- pool_initial_branch1a
I0417 18:48:06.648411 17511 net.cpp:411] enet_initial -> enet_initial
I0417 18:48:06.648454 17511 net.cpp:150] Setting up enet_initial
I0417 18:48:06.648465 17511 net.cpp:157] Top shape: 6 16 256 308 (7569408)
I0417 18:48:06.648473 17511 net.cpp:165] Memory required for data: 151388208
I0417 18:48:06.648479 17511 layer_factory.hpp:77] Creating layer bn_initial
I0417 18:48:06.648505 17511 net.cpp:106] Creating Layer bn_initial
I0417 18:48:06.648514 17511 net.cpp:454] bn_initial <- enet_initial
I0417 18:48:06.648524 17511 net.cpp:397] bn_initial -> enet_initial (in-place)
I0417 18:48:06.648865 17511 net.cpp:150] Setting up bn_initial
I0417 18:48:06.648880 17511 net.cpp:157] Top shape: 6 16 256 308 (7569408)
I0417 18:48:06.648887 17511 net.cpp:165] Memory required for data: 181665840
I0417 18:48:06.648900 17511 layer_factory.hpp:77] Creating layer relu_initial
I0417 18:48:06.648917 17511 net.cpp:106] Creating Layer relu_initial
I0417 18:48:06.648924 17511 net.cpp:454] relu_initial <- enet_initial
I0417 18:48:06.648934 17511 net.cpp:397] relu_initial -> enet_initial (in-place)
I0417 18:48:06.654588 17511 net.cpp:150] Setting up relu_initial
I0417 18:48:06.654608 17511 net.cpp:157] Top shape: 6 16 256 308 (7569408)
I0417 18:48:06.654615 17511 net.cpp:165] Memory required for data: 211943472
I0417 18:48:06.654630 17511 layer_factory.hpp:77] Creating layer enet_initial_relu_initial_0_split
I0417 18:48:06.654644 17511 net.cpp:106] Creating Layer enet_initial_relu_initial_0_split
I0417 18:48:06.654651 17511 net.cpp:454] enet_initial_relu_initial_0_split <- enet_initial
I0417 18:48:06.654665 17511 net.cpp:411] enet_initial_relu_initial_0_split -> enet_initial_relu_initial_0_split_0
I0417 18:48:06.654678 17511 net.cpp:411] enet_initial_relu_initial_0_split -> enet_initial_relu_initial_0_split_1
I0417 18:48:06.654731 17511 net.cpp:150] Setting up enet_initial_relu_initial_0_split
I0417 18:48:06.654744 17511 net.cpp:157] Top shape: 6 16 256 308 (7569408)
I0417 18:48:06.654752 17511 net.cpp:157] Top shape: 6 16 256 308 (7569408)
I0417 18:48:06.654777 17511 net.cpp:165] Memory required for data: 272498736
I0417 18:48:06.654799 17511 layer_factory.hpp:77] Creating layer enet1_0_branch2a
I0417 18:48:06.654825 17511 net.cpp:106] Creating Layer enet1_0_branch2a
I0417 18:48:06.654834 17511 net.cpp:454] enet1_0_branch2a <- enet_initial_relu_initial_0_split_0
I0417 18:48:06.654844 17511 net.cpp:411] enet1_0_branch2a -> enet1_0_branch2a
I0417 18:48:06.657698 17511 net.cpp:150] Setting up enet1_0_branch2a
I0417 18:48:06.657717 17511 net.cpp:157] Top shape: 6 16 128 154 (1892352)
I0417 18:48:06.657727 17511 net.cpp:165] Memory required for data: 280068144
I0417 18:48:06.657737 17511 layer_factory.hpp:77] Creating layer bn1_0_branch2a
I0417 18:48:06.657752 17511 net.cpp:106] Creating Layer bn1_0_branch2a
I0417 18:48:06.657760 17511 net.cpp:454] bn1_0_branch2a <- enet1_0_branch2a
I0417 18:48:06.657771 17511 net.cpp:397] bn1_0_branch2a -> enet1_0_branch2a (in-place)
I0417 18:48:06.658960 17511 net.cpp:150] Setting up bn1_0_branch2a
I0417 18:48:06.658979 17511 net.cpp:157] Top shape: 6 16 128 154 (1892352)
I0417 18:48:06.658987 17511 net.cpp:165] Memory required for data: 287637552
I0417 18:48:06.658998 17511 layer_factory.hpp:77] Creating layer relu1_0_branch2a
I0417 18:48:06.659014 17511 net.cpp:106] Creating Layer relu1_0_branch2a
I0417 18:48:06.659023 17511 net.cpp:454] relu1_0_branch2a <- enet1_0_branch2a
I0417 18:48:06.659031 17511 net.cpp:397] relu1_0_branch2a -> enet1_0_branch2a (in-place)
I0417 18:48:06.660421 17511 net.cpp:150] Setting up relu1_0_branch2a
I0417 18:48:06.660439 17511 net.cpp:157] Top shape: 6 16 128 154 (1892352)
I0417 18:48:06.660445 17511 net.cpp:165] Memory required for data: 295206960
I0417 18:48:06.660459 17511 layer_factory.hpp:77] Creating layer enet1_0_branch2b
I0417 18:48:06.660477 17511 net.cpp:106] Creating Layer enet1_0_branch2b
I0417 18:48:06.660485 17511 net.cpp:454] enet1_0_branch2b <- enet1_0_branch2a
I0417 18:48:06.660500 17511 net.cpp:411] enet1_0_branch2b -> enet1_0_branch2b
I0417 18:48:06.664456 17511 net.cpp:150] Setting up enet1_0_branch2b
I0417 18:48:06.664475 17511 net.cpp:157] Top shape: 6 16 128 154 (1892352)
I0417 18:48:06.664484 17511 net.cpp:165] Memory required for data: 302776368
I0417 18:48:06.664494 17511 layer_factory.hpp:77] Creating layer bn1_0_branch2b
I0417 18:48:06.664511 17511 net.cpp:106] Creating Layer bn1_0_branch2b
I0417 18:48:06.664520 17511 net.cpp:454] bn1_0_branch2b <- enet1_0_branch2b
I0417 18:48:06.664533 17511 net.cpp:397] bn1_0_branch2b -> enet1_0_branch2b (in-place)
I0417 18:48:06.664814 17511 net.cpp:150] Setting up bn1_0_branch2b
I0417 18:48:06.664829 17511 net.cpp:157] Top shape: 6 16 128 154 (1892352)
I0417 18:48:06.664836 17511 net.cpp:165] Memory required for data: 310345776
I0417 18:48:06.664846 17511 layer_factory.hpp:77] Creating layer relu1_0_branch2b
I0417 18:48:06.664857 17511 net.cpp:106] Creating Layer relu1_0_branch2b
I0417 18:48:06.664865 17511 net.cpp:454] relu1_0_branch2b <- enet1_0_branch2b
I0417 18:48:06.664873 17511 net.cpp:397] relu1_0_branch2b -> enet1_0_branch2b (in-place)
I0417 18:48:06.666282 17511 net.cpp:150] Setting up relu1_0_branch2b
I0417 18:48:06.666301 17511 net.cpp:157] Top shape: 6 16 128 154 (1892352)
I0417 18:48:06.666306 17511 net.cpp:165] Memory required for data: 317915184
I0417 18:48:06.666316 17511 layer_factory.hpp:77] Creating layer enet1_0_branch2c
I0417 18:48:06.666335 17511 net.cpp:106] Creating Layer enet1_0_branch2c
I0417 18:48:06.666343 17511 net.cpp:454] enet1_0_branch2c <- enet1_0_branch2b
I0417 18:48:06.666358 17511 net.cpp:411] enet1_0_branch2c -> enet1_0_branch2c
I0417 18:48:06.669375 17511 net.cpp:150] Setting up enet1_0_branch2c
I0417 18:48:06.669396 17511 net.cpp:157] Top shape: 6 64 128 154 (7569408)
I0417 18:48:06.669404 17511 net.cpp:165] Memory required for data: 348192816
I0417 18:48:06.669414 17511 layer_factory.hpp:77] Creating layer bn1_0_branch2c
I0417 18:48:06.669433 17511 net.cpp:106] Creating Layer bn1_0_branch2c
I0417 18:48:06.669441 17511 net.cpp:454] bn1_0_branch2c <- enet1_0_branch2c
I0417 18:48:06.669452 17511 net.cpp:397] bn1_0_branch2c -> enet1_0_branch2c (in-place)
I0417 18:48:06.669754 17511 net.cpp:150] Setting up bn1_0_branch2c
I0417 18:48:06.669769 17511 net.cpp:157] Top shape: 6 64 128 154 (7569408)
I0417 18:48:06.669775 17511 net.cpp:165] Memory required for data: 378470448
I0417 18:48:06.669792 17511 layer_factory.hpp:77] Creating layer dropout1_0_branch2c
I0417 18:48:06.669811 17511 net.cpp:106] Creating Layer dropout1_0_branch2c
I0417 18:48:06.669817 17511 net.cpp:454] dropout1_0_branch2c <- enet1_0_branch2c
I0417 18:48:06.669827 17511 net.cpp:397] dropout1_0_branch2c -> enet1_0_branch2c (in-place)
I0417 18:48:06.669878 17511 net.cpp:150] Setting up dropout1_0_branch2c
I0417 18:48:06.669889 17511 net.cpp:157] Top shape: 6 64 128 154 (7569408)
I0417 18:48:06.669896 17511 net.cpp:165] Memory required for data: 408748080
I0417 18:48:06.669903 17511 layer_factory.hpp:77] Creating layer enet1_0_branch1a
I0417 18:48:06.669922 17511 net.cpp:106] Creating Layer enet1_0_branch1a
I0417 18:48:06.669931 17511 net.cpp:454] enet1_0_branch1a <- enet_initial_relu_initial_0_split_1
I0417 18:48:06.669942 17511 net.cpp:411] enet1_0_branch1a -> enet1_0_branch1a
I0417 18:48:06.672755 17511 net.cpp:150] Setting up enet1_0_branch1a
I0417 18:48:06.672772 17511 net.cpp:157] Top shape: 6 64 256 308 (30277632)
I0417 18:48:06.672780 17511 net.cpp:165] Memory required for data: 529858608
I0417 18:48:06.672791 17511 layer_factory.hpp:77] Creating layer bn1_0_branch1a
I0417 18:48:06.672806 17511 net.cpp:106] Creating Layer bn1_0_branch1a
I0417 18:48:06.672814 17511 net.cpp:454] bn1_0_branch1a <- enet1_0_branch1a
I0417 18:48:06.672827 17511 net.cpp:397] bn1_0_branch1a -> enet1_0_branch1a (in-place)
I0417 18:48:06.674420 17511 net.cpp:150] Setting up bn1_0_branch1a
I0417 18:48:06.674438 17511 net.cpp:157] Top shape: 6 64 256 308 (30277632)
I0417 18:48:06.674445 17511 net.cpp:165] Memory required for data: 650969136
I0417 18:48:06.674458 17511 layer_factory.hpp:77] Creating layer pool1_0_branch1a
I0417 18:48:06.674465 17511 layer_factory.cpp:91] cuDNN does not support multiple tops. Using Caffe's own pooling layer.
I0417 18:48:06.674477 17511 net.cpp:106] Creating Layer pool1_0_branch1a
I0417 18:48:06.674484 17511 net.cpp:454] pool1_0_branch1a <- enet1_0_branch1a
I0417 18:48:06.674497 17511 net.cpp:411] pool1_0_branch1a -> pool1_0_branch1a
I0417 18:48:06.674515 17511 net.cpp:411] pool1_0_branch1a -> pool1_0_branch1a_mask
I0417 18:48:06.674571 17511 net.cpp:150] Setting up pool1_0_branch1a
I0417 18:48:06.674584 17511 net.cpp:157] Top shape: 6 64 128 154 (7569408)
I0417 18:48:06.674592 17511 net.cpp:157] Top shape: 6 64 128 154 (7569408)
I0417 18:48:06.674598 17511 net.cpp:165] Memory required for data: 711524400
I0417 18:48:06.674605 17511 layer_factory.hpp:77] Creating layer enet1_0
I0417 18:48:06.674619 17511 net.cpp:106] Creating Layer enet1_0
I0417 18:48:06.674626 17511 net.cpp:454] enet1_0 <- pool1_0_branch1a
I0417 18:48:06.674635 17511 net.cpp:454] enet1_0 <- enet1_0_branch2c
I0417 18:48:06.674648 17511 net.cpp:411] enet1_0 -> enet1_0
I0417 18:48:06.674690 17511 net.cpp:150] Setting up enet1_0
I0417 18:48:06.674701 17511 net.cpp:157] Top shape: 6 64 128 154 (7569408)
I0417 18:48:06.674708 17511 net.cpp:165] Memory required for data: 741802032
I0417 18:48:06.674715 17511 layer_factory.hpp:77] Creating layer relu1_0
I0417 18:48:06.674727 17511 net.cpp:106] Creating Layer relu1_0
I0417 18:48:06.674734 17511 net.cpp:454] relu1_0 <- enet1_0
I0417 18:48:06.674744 17511 net.cpp:397] relu1_0 -> enet1_0 (in-place)
I0417 18:48:06.679976 17511 net.cpp:150] Setting up relu1_0
I0417 18:48:06.679996 17511 net.cpp:157] Top shape: 6 64 128 154 (7569408)
I0417 18:48:06.680003 17511 net.cpp:165] Memory required for data: 772079664
I0417 18:48:06.680013 17511 layer_factory.hpp:77] Creating layer enet1_0_relu1_0_0_split
I0417 18:48:06.680028 17511 net.cpp:106] Creating Layer enet1_0_relu1_0_0_split
I0417 18:48:06.680037 17511 net.cpp:454] enet1_0_relu1_0_0_split <- enet1_0
I0417 18:48:06.680047 17511 net.cpp:411] enet1_0_relu1_0_0_split -> enet1_0_relu1_0_0_split_0
I0417 18:48:06.680074 17511 net.cpp:411] enet1_0_relu1_0_0_split -> enet1_0_relu1_0_0_split_1
I0417 18:48:06.680140 17511 net.cpp:150] Setting up enet1_0_relu1_0_0_split
I0417 18:48:06.680155 17511 net.cpp:157] Top shape: 6 64 128 154 (7569408)
I0417 18:48:06.680162 17511 net.cpp:157] Top shape: 6 64 128 154 (7569408)
I0417 18:48:06.680168 17511 net.cpp:165] Memory required for data: 832634928
I0417 18:48:06.680176 17511 layer_factory.hpp:77] Creating layer enet1_1_branch2a
I0417 18:48:06.680193 17511 net.cpp:106] Creating Layer enet1_1_branch2a
I0417 18:48:06.680202 17511 net.cpp:454] enet1_1_branch2a <- enet1_0_relu1_0_0_split_0
I0417 18:48:06.680212 17511 net.cpp:411] enet1_1_branch2a -> enet1_1_branch2a
I0417 18:48:06.683954 17511 net.cpp:150] Setting up enet1_1_branch2a
I0417 18:48:06.683974 17511 net.cpp:157] Top shape: 6 16 128 154 (1892352)
I0417 18:48:06.683981 17511 net.cpp:165] Memory required for data: 840204336
I0417 18:48:06.683991 17511 layer_factory.hpp:77] Creating layer bn1_1_branch2a
I0417 18:48:06.684007 17511 net.cpp:106] Creating Layer bn1_1_branch2a
I0417 18:48:06.684015 17511 net.cpp:454] bn1_1_branch2a <- enet1_1_branch2a
I0417 18:48:06.684031 17511 net.cpp:397] bn1_1_branch2a -> enet1_1_branch2a (in-place)
I0417 18:48:06.684346 17511 net.cpp:150] Setting up bn1_1_branch2a
I0417 18:48:06.684361 17511 net.cpp:157] Top shape: 6 16 128 154 (1892352)
I0417 18:48:06.684368 17511 net.cpp:165] Memory required for data: 847773744
I0417 18:48:06.684378 17511 layer_factory.hpp:77] Creating layer relu1_1_branch2a
I0417 18:48:06.684393 17511 net.cpp:106] Creating Layer relu1_1_branch2a
I0417 18:48:06.684401 17511 net.cpp:454] relu1_1_branch2a <- enet1_1_branch2a
I0417 18:48:06.684411 17511 net.cpp:397] relu1_1_branch2a -> enet1_1_branch2a (in-place)
I0417 18:48:06.685819 17511 net.cpp:150] Setting up relu1_1_branch2a
I0417 18:48:06.685837 17511 net.cpp:157] Top shape: 6 16 128 154 (1892352)
I0417 18:48:06.685844 17511 net.cpp:165] Memory required for data: 855343152
I0417 18:48:06.685854 17511 layer_factory.hpp:77] Creating layer enet1_1_branch2b
I0417 18:48:06.685873 17511 net.cpp:106] Creating Layer enet1_1_branch2b
I0417 18:48:06.685881 17511 net.cpp:454] enet1_1_branch2b <- enet1_1_branch2a
I0417 18:48:06.685895 17511 net.cpp:411] enet1_1_branch2b -> enet1_1_branch2b
I0417 18:48:06.689012 17511 net.cpp:150] Setting up enet1_1_branch2b
I0417 18:48:06.689030 17511 net.cpp:157] Top shape: 6 16 128 154 (1892352)
I0417 18:48:06.689038 17511 net.cpp:165] Memory required for data: 862912560
I0417 18:48:06.689054 17511 layer_factory.hpp:77] Creating layer bn1_1_branch2b
I0417 18:48:06.689071 17511 net.cpp:106] Creating Layer bn1_1_branch2b
I0417 18:48:06.689079 17511 net.cpp:454] bn1_1_branch2b <- enet1_1_branch2b
I0417 18:48:06.689093 17511 net.cpp:397] bn1_1_branch2b -> enet1_1_branch2b (in-place)
I0417 18:48:06.689412 17511 net.cpp:150] Setting up bn1_1_branch2b
I0417 18:48:06.689426 17511 net.cpp:157] Top shape: 6 16 128 154 (1892352)
I0417 18:48:06.689434 17511 net.cpp:165] Memory required for data: 870481968
I0417 18:48:06.689445 17511 layer_factory.hpp:77] Creating layer relu1_1_branch2b
I0417 18:48:06.689455 17511 net.cpp:106] Creating Layer relu1_1_branch2b
I0417 18:48:06.689461 17511 net.cpp:454] relu1_1_branch2b <- enet1_1_branch2b
I0417 18:48:06.689471 17511 net.cpp:397] relu1_1_branch2b -> enet1_1_branch2b (in-place)
I0417 18:48:06.690856 17511 net.cpp:150] Setting up relu1_1_branch2b
I0417 18:48:06.690873 17511 net.cpp:157] Top shape: 6 16 128 154 (1892352)
I0417 18:48:06.690881 17511 net.cpp:165] Memory required for data: 878051376
I0417 18:48:06.690891 17511 layer_factory.hpp:77] Creating layer enet1_1_branch2c
I0417 18:48:06.690908 17511 net.cpp:106] Creating Layer enet1_1_branch2c
I0417 18:48:06.690917 17511 net.cpp:454] enet1_1_branch2c <- enet1_1_branch2b
I0417 18:48:06.690929 17511 net.cpp:411] enet1_1_branch2c -> enet1_1_branch2c
I0417 18:48:06.694314 17511 net.cpp:150] Setting up enet1_1_branch2c
I0417 18:48:06.694332 17511 net.cpp:157] Top shape: 6 64 128 154 (7569408)
I0417 18:48:06.694340 17511 net.cpp:165] Memory required for data: 908329008
I0417 18:48:06.694372 17511 layer_factory.hpp:77] Creating layer bn1_1_branch2c
I0417 18:48:06.694389 17511 net.cpp:106] Creating Layer bn1_1_branch2c
I0417 18:48:06.694397 17511 net.cpp:454] bn1_1_branch2c <- enet1_1_branch2c
I0417 18:48:06.694411 17511 net.cpp:397] bn1_1_branch2c -> enet1_1_branch2c (in-place)
I0417 18:48:06.695626 17511 net.cpp:150] Setting up bn1_1_branch2c
I0417 18:48:06.695644 17511 net.cpp:157] Top shape: 6 64 128 154 (7569408)
I0417 18:48:06.695652 17511 net.cpp:165] Memory required for data: 938606640
I0417 18:48:06.695673 17511 layer_factory.hpp:77] Creating layer dropout1_1_branch2c
I0417 18:48:06.695693 17511 net.cpp:106] Creating Layer dropout1_1_branch2c
I0417 18:48:06.695701 17511 net.cpp:454] dropout1_1_branch2c <- enet1_1_branch2c
I0417 18:48:06.695711 17511 net.cpp:397] dropout1_1_branch2c -> enet1_1_branch2c (in-place)
I0417 18:48:06.695752 17511 net.cpp:150] Setting up dropout1_1_branch2c
I0417 18:48:06.695765 17511 net.cpp:157] Top shape: 6 64 128 154 (7569408)
I0417 18:48:06.695771 17511 net.cpp:165] Memory required for data: 968884272
I0417 18:48:06.695777 17511 layer_factory.hpp:77] Creating layer enet1_1
I0417 18:48:06.695791 17511 net.cpp:106] Creating Layer enet1_1
I0417 18:48:06.695799 17511 net.cpp:454] enet1_1 <- enet1_0_relu1_0_0_split_1
I0417 18:48:06.695807 17511 net.cpp:454] enet1_1 <- enet1_1_branch2c
I0417 18:48:06.695821 17511 net.cpp:411] enet1_1 -> enet1_1
I0417 18:48:06.695858 17511 net.cpp:150] Setting up enet1_1
I0417 18:48:06.695869 17511 net.cpp:157] Top shape: 6 64 128 154 (7569408)
I0417 18:48:06.695876 17511 net.cpp:165] Memory required for data: 999161904
I0417 18:48:06.695883 17511 layer_factory.hpp:77] Creating layer relu1_1
I0417 18:48:06.695899 17511 net.cpp:106] Creating Layer relu1_1
I0417 18:48:06.695906 17511 net.cpp:454] relu1_1 <- enet1_1
I0417 18:48:06.695915 17511 net.cpp:397] relu1_1 -> enet1_1 (in-place)
I0417 18:48:06.701148 17511 net.cpp:150] Setting up relu1_1
I0417 18:48:06.701166 17511 net.cpp:157] Top shape: 6 64 128 154 (7569408)
I0417 18:48:06.701174 17511 net.cpp:165] Memory required for data: 1029439536
I0417 18:48:06.701184 17511 layer_factory.hpp:77] Creating layer enet1_1_relu1_1_0_split
I0417 18:48:06.701195 17511 net.cpp:106] Creating Layer enet1_1_relu1_1_0_split
I0417 18:48:06.701202 17511 net.cpp:454] enet1_1_relu1_1_0_split <- enet1_1
I0417 18:48:06.701216 17511 net.cpp:411] enet1_1_relu1_1_0_split -> enet1_1_relu1_1_0_split_0
I0417 18:48:06.701230 17511 net.cpp:411] enet1_1_relu1_1_0_split -> enet1_1_relu1_1_0_split_1
I0417 18:48:06.701287 17511 net.cpp:150] Setting up enet1_1_relu1_1_0_split
I0417 18:48:06.701299 17511 net.cpp:157] Top shape: 6 64 128 154 (7569408)
I0417 18:48:06.701308 17511 net.cpp:157] Top shape: 6 64 128 154 (7569408)
I0417 18:48:06.701314 17511 net.cpp:165] Memory required for data: 1089994800
I0417 18:48:06.701321 17511 layer_factory.hpp:77] Creating layer enet1_2_branch2a
I0417 18:48:06.701339 17511 net.cpp:106] Creating Layer enet1_2_branch2a
I0417 18:48:06.701347 17511 net.cpp:454] enet1_2_branch2a <- enet1_1_relu1_1_0_split_0
I0417 18:48:06.701359 17511 net.cpp:411] enet1_2_branch2a -> enet1_2_branch2a
I0417 18:48:06.704452 17511 net.cpp:150] Setting up enet1_2_branch2a
I0417 18:48:06.704470 17511 net.cpp:157] Top shape: 6 16 128 154 (1892352)
I0417 18:48:06.704478 17511 net.cpp:165] Memory required for data: 1097564208
I0417 18:48:06.704488 17511 layer_factory.hpp:77] Creating layer bn1_2_branch2a
I0417 18:48:06.704504 17511 net.cpp:106] Creating Layer bn1_2_branch2a
I0417 18:48:06.704512 17511 net.cpp:454] bn1_2_branch2a <- enet1_2_branch2a
I0417 18:48:06.704524 17511 net.cpp:397] bn1_2_branch2a -> enet1_2_branch2a (in-place)
I0417 18:48:06.704843 17511 net.cpp:150] Setting up bn1_2_branch2a
I0417 18:48:06.704856 17511 net.cpp:157] Top shape: 6 16 128 154 (1892352)
I0417 18:48:06.704864 17511 net.cpp:165] Memory required for data: 1105133616
I0417 18:48:06.704874 17511 layer_factory.hpp:77] Creating layer relu1_2_branch2a
I0417 18:48:06.704888 17511 net.cpp:106] Creating Layer relu1_2_branch2a
I0417 18:48:06.704913 17511 net.cpp:454] relu1_2_branch2a <- enet1_2_branch2a
I0417 18:48:06.704926 17511 net.cpp:397] relu1_2_branch2a -> enet1_2_branch2a (in-place)
I0417 18:48:06.706331 17511 net.cpp:150] Setting up relu1_2_branch2a
I0417 18:48:06.706348 17511 net.cpp:157] Top shape: 6 16 128 154 (1892352)
I0417 18:48:06.706356 17511 net.cpp:165] Memory required for data: 1112703024
I0417 18:48:06.706365 17511 layer_factory.hpp:77] Creating layer enet1_2_branch2b
I0417 18:48:06.706387 17511 net.cpp:106] Creating Layer enet1_2_branch2b
I0417 18:48:06.706394 17511 net.cpp:454] enet1_2_branch2b <- enet1_2_branch2a
I0417 18:48:06.706409 17511 net.cpp:411] enet1_2_branch2b -> enet1_2_branch2b
I0417 18:48:06.709503 17511 net.cpp:150] Setting up enet1_2_branch2b
I0417 18:48:06.709522 17511 net.cpp:157] Top shape: 6 16 128 154 (1892352)
I0417 18:48:06.709529 17511 net.cpp:165] Memory required for data: 1120272432
I0417 18:48:06.709540 17511 layer_factory.hpp:77] Creating layer bn1_2_branch2b
I0417 18:48:06.709556 17511 net.cpp:106] Creating Layer bn1_2_branch2b
I0417 18:48:06.709564 17511 net.cpp:454] bn1_2_branch2b <- enet1_2_branch2b
I0417 18:48:06.709581 17511 net.cpp:397] bn1_2_branch2b -> enet1_2_branch2b (in-place)
I0417 18:48:06.709899 17511 net.cpp:150] Setting up bn1_2_branch2b
I0417 18:48:06.709913 17511 net.cpp:157] Top shape: 6 16 128 154 (1892352)
I0417 18:48:06.709920 17511 net.cpp:165] Memory required for data: 1127841840
I0417 18:48:06.709931 17511 layer_factory.hpp:77] Creating layer relu1_2_branch2b
I0417 18:48:06.709945 17511 net.cpp:106] Creating Layer relu1_2_branch2b
I0417 18:48:06.709952 17511 net.cpp:454] relu1_2_branch2b <- enet1_2_branch2b
I0417 18:48:06.709961 17511 net.cpp:397] relu1_2_branch2b -> enet1_2_branch2b (in-place)
I0417 18:48:06.711356 17511 net.cpp:150] Setting up relu1_2_branch2b
I0417 18:48:06.711374 17511 net.cpp:157] Top shape: 6 16 128 154 (1892352)
I0417 18:48:06.711380 17511 net.cpp:165] Memory required for data: 1135411248
I0417 18:48:06.711390 17511 layer_factory.hpp:77] Creating layer enet1_2_branch2c
I0417 18:48:06.711408 17511 net.cpp:106] Creating Layer enet1_2_branch2c
I0417 18:48:06.711416 17511 net.cpp:454] enet1_2_branch2c <- enet1_2_branch2b
I0417 18:48:06.711431 17511 net.cpp:411] enet1_2_branch2c -> enet1_2_branch2c
I0417 18:48:06.715145 17511 net.cpp:150] Setting up enet1_2_branch2c
I0417 18:48:06.715163 17511 net.cpp:157] Top shape: 6 64 128 154 (7569408)
I0417 18:48:06.715171 17511 net.cpp:165] Memory required for data: 1165688880
I0417 18:48:06.715183 17511 layer_factory.hpp:77] Creating layer bn1_2_branch2c
I0417 18:48:06.715200 17511 net.cpp:106] Creating Layer bn1_2_branch2c
I0417 18:48:06.715209 17511 net.cpp:454] bn1_2_branch2c <- enet1_2_branch2c
I0417 18:48:06.715219 17511 net.cpp:397] bn1_2_branch2c -> enet1_2_branch2c (in-place)
I0417 18:48:06.715541 17511 net.cpp:150] Setting up bn1_2_branch2c
I0417 18:48:06.715556 17511 net.cpp:157] Top shape: 6 64 128 154 (7569408)
I0417 18:48:06.715562 17511 net.cpp:165] Memory required for data: 1195966512
I0417 18:48:06.715574 17511 layer_factory.hpp:77] Creating layer dropout1_2_branch2c
I0417 18:48:06.715584 17511 net.cpp:106] Creating Layer dropout1_2_branch2c
I0417 18:48:06.715591 17511 net.cpp:454] dropout1_2_branch2c <- enet1_2_branch2c
I0417 18:48:06.715600 17511 net.cpp:397] dropout1_2_branch2c -> enet1_2_branch2c (in-place)
I0417 18:48:06.715646 17511 net.cpp:150] Setting up dropout1_2_branch2c
I0417 18:48:06.715657 17511 net.cpp:157] Top shape: 6 64 128 154 (7569408)
I0417 18:48:06.715664 17511 net.cpp:165] Memory required for data: 1226244144
I0417 18:48:06.715672 17511 layer_factory.hpp:77] Creating layer enet1_2
I0417 18:48:06.715682 17511 net.cpp:106] Creating Layer enet1_2
I0417 18:48:06.715688 17511 net.cpp:454] enet1_2 <- enet1_1_relu1_1_0_split_1
I0417 18:48:06.715697 17511 net.cpp:454] enet1_2 <- enet1_2_branch2c
I0417 18:48:06.715708 17511 net.cpp:411] enet1_2 -> enet1_2
I0417 18:48:06.715747 17511 net.cpp:150] Setting up enet1_2
I0417 18:48:06.715767 17511 net.cpp:157] Top shape: 6 64 128 154 (7569408)
I0417 18:48:06.715783 17511 net.cpp:165] Memory required for data: 1256521776
I0417 18:48:06.715791 17511 layer_factory.hpp:77] Creating layer relu1_2
I0417 18:48:06.715806 17511 net.cpp:106] Creating Layer relu1_2
I0417 18:48:06.715812 17511 net.cpp:454] relu1_2 <- enet1_2
I0417 18:48:06.715822 17511 net.cpp:397] relu1_2 -> enet1_2 (in-place)
I0417 18:48:06.721070 17511 net.cpp:150] Setting up relu1_2
I0417 18:48:06.721091 17511 net.cpp:157] Top shape: 6 64 128 154 (7569408)
I0417 18:48:06.721097 17511 net.cpp:165] Memory required for data: 1286799408
I0417 18:48:06.721107 17511 layer_factory.hpp:77] Creating layer enet1_2_relu1_2_0_split
I0417 18:48:06.721122 17511 net.cpp:106] Creating Layer enet1_2_relu1_2_0_split
I0417 18:48:06.721129 17511 net.cpp:454] enet1_2_relu1_2_0_split <- enet1_2
I0417 18:48:06.721139 17511 net.cpp:411] enet1_2_relu1_2_0_split -> enet1_2_relu1_2_0_split_0
I0417 18:48:06.721151 17511 net.cpp:411] enet1_2_relu1_2_0_split -> enet1_2_relu1_2_0_split_1
I0417 18:48:06.721221 17511 net.cpp:150] Setting up enet1_2_relu1_2_0_split
I0417 18:48:06.721235 17511 net.cpp:157] Top shape: 6 64 128 154 (7569408)
I0417 18:48:06.721243 17511 net.cpp:157] Top shape: 6 64 128 154 (7569408)
I0417 18:48:06.721251 17511 net.cpp:165] Memory required for data: 1347354672
I0417 18:48:06.721256 17511 layer_factory.hpp:77] Creating layer enet1_3_branch2a
I0417 18:48:06.721274 17511 net.cpp:106] Creating Layer enet1_3_branch2a
I0417 18:48:06.721283 17511 net.cpp:454] enet1_3_branch2a <- enet1_2_relu1_2_0_split_0
I0417 18:48:06.721294 17511 net.cpp:411] enet1_3_branch2a -> enet1_3_branch2a
I0417 18:48:06.724318 17511 net.cpp:150] Setting up enet1_3_branch2a
I0417 18:48:06.724336 17511 net.cpp:157] Top shape: 6 16 128 154 (1892352)
I0417 18:48:06.724344 17511 net.cpp:165] Memory required for data: 1354924080
I0417 18:48:06.724354 17511 layer_factory.hpp:77] Creating layer bn1_3_branch2a
I0417 18:48:06.724370 17511 net.cpp:106] Creating Layer bn1_3_branch2a
I0417 18:48:06.724380 17511 net.cpp:454] bn1_3_branch2a <- enet1_3_branch2a
I0417 18:48:06.724390 17511 net.cpp:397] bn1_3_branch2a -> enet1_3_branch2a (in-place)
I0417 18:48:06.724730 17511 net.cpp:150] Setting up bn1_3_branch2a
I0417 18:48:06.724745 17511 net.cpp:157] Top shape: 6 16 128 154 (1892352)
I0417 18:48:06.724752 17511 net.cpp:165] Memory required for data: 1362493488
I0417 18:48:06.724763 17511 layer_factory.hpp:77] Creating layer relu1_3_branch2a
I0417 18:48:06.724779 17511 net.cpp:106] Creating Layer relu1_3_branch2a
I0417 18:48:06.724787 17511 net.cpp:454] relu1_3_branch2a <- enet1_3_branch2a
I0417 18:48:06.724797 17511 net.cpp:397] relu1_3_branch2a -> enet1_3_branch2a (in-place)
I0417 18:48:06.726246 17511 net.cpp:150] Setting up relu1_3_branch2a
I0417 18:48:06.726263 17511 net.cpp:157] Top shape: 6 16 128 154 (1892352)
I0417 18:48:06.726271 17511 net.cpp:165] Memory required for data: 1370062896
I0417 18:48:06.726280 17511 layer_factory.hpp:77] Creating layer enet1_3_branch2b
I0417 18:48:06.726300 17511 net.cpp:106] Creating Layer enet1_3_branch2b
I0417 18:48:06.726308 17511 net.cpp:454] enet1_3_branch2b <- enet1_3_branch2a
I0417 18:48:06.726322 17511 net.cpp:411] enet1_3_branch2b -> enet1_3_branch2b
I0417 18:48:06.729691 17511 net.cpp:150] Setting up enet1_3_branch2b
I0417 18:48:06.729712 17511 net.cpp:157] Top shape: 6 16 128 154 (1892352)
I0417 18:48:06.729720 17511 net.cpp:165] Memory required for data: 1377632304
I0417 18:48:06.729732 17511 layer_factory.hpp:77] Creating layer bn1_3_branch2b
I0417 18:48:06.729748 17511 net.cpp:106] Creating Layer bn1_3_branch2b
I0417 18:48:06.729756 17511 net.cpp:454] bn1_3_branch2b <- enet1_3_branch2b
I0417 18:48:06.729768 17511 net.cpp:397] bn1_3_branch2b -> enet1_3_branch2b (in-place)
I0417 18:48:06.730115 17511 net.cpp:150] Setting up bn1_3_branch2b
I0417 18:48:06.730130 17511 net.cpp:157] Top shape: 6 16 128 154 (1892352)
I0417 18:48:06.730137 17511 net.cpp:165] Memory required for data: 1385201712
I0417 18:48:06.730149 17511 layer_factory.hpp:77] Creating layer relu1_3_branch2b
I0417 18:48:06.730168 17511 net.cpp:106] Creating Layer relu1_3_branch2b
I0417 18:48:06.730186 17511 net.cpp:454] relu1_3_branch2b <- enet1_3_branch2b
I0417 18:48:06.730197 17511 net.cpp:397] relu1_3_branch2b -> enet1_3_branch2b (in-place)
I0417 18:48:06.731619 17511 net.cpp:150] Setting up relu1_3_branch2b
I0417 18:48:06.731637 17511 net.cpp:157] Top shape: 6 16 128 154 (1892352)
I0417 18:48:06.731644 17511 net.cpp:165] Memory required for data: 1392771120
I0417 18:48:06.731654 17511 layer_factory.hpp:77] Creating layer enet1_3_branch2c
I0417 18:48:06.731673 17511 net.cpp:106] Creating Layer enet1_3_branch2c
I0417 18:48:06.731680 17511 net.cpp:454] enet1_3_branch2c <- enet1_3_branch2b
I0417 18:48:06.731694 17511 net.cpp:411] enet1_3_branch2c -> enet1_3_branch2c
I0417 18:48:06.735208 17511 net.cpp:150] Setting up enet1_3_branch2c
I0417 18:48:06.735226 17511 net.cpp:157] Top shape: 6 64 128 154 (7569408)
I0417 18:48:06.735234 17511 net.cpp:165] Memory required for data: 1423048752
I0417 18:48:06.735244 17511 layer_factory.hpp:77] Creating layer bn1_3_branch2c
I0417 18:48:06.735260 17511 net.cpp:106] Creating Layer bn1_3_branch2c
I0417 18:48:06.735268 17511 net.cpp:454] bn1_3_branch2c <- enet1_3_branch2c
I0417 18:48:06.735281 17511 net.cpp:397] bn1_3_branch2c -> enet1_3_branch2c (in-place)
I0417 18:48:06.736517 17511 net.cpp:150] Setting up bn1_3_branch2c
I0417 18:48:06.736534 17511 net.cpp:157] Top shape: 6 64 128 154 (7569408)
I0417 18:48:06.736541 17511 net.cpp:165] Memory required for data: 1453326384
I0417 18:48:06.736553 17511 layer_factory.hpp:77] Creating layer dropout1_3_branch2c
I0417 18:48:06.736565 17511 net.cpp:106] Creating Layer dropout1_3_branch2c
I0417 18:48:06.736572 17511 net.cpp:454] dropout1_3_branch2c <- enet1_3_branch2c
I0417 18:48:06.736582 17511 net.cpp:397] dropout1_3_branch2c -> enet1_3_branch2c (in-place)
I0417 18:48:06.736630 17511 net.cpp:150] Setting up dropout1_3_branch2c
I0417 18:48:06.736642 17511 net.cpp:157] Top shape: 6 64 128 154 (7569408)
I0417 18:48:06.736649 17511 net.cpp:165] Memory required for data: 1483604016
I0417 18:48:06.736656 17511 layer_factory.hpp:77] Creating layer enet1_3
I0417 18:48:06.736670 17511 net.cpp:106] Creating Layer enet1_3
I0417 18:48:06.736676 17511 net.cpp:454] enet1_3 <- enet1_2_relu1_2_0_split_1
I0417 18:48:06.736685 17511 net.cpp:454] enet1_3 <- enet1_3_branch2c
I0417 18:48:06.736695 17511 net.cpp:411] enet1_3 -> enet1_3
I0417 18:48:06.736739 17511 net.cpp:150] Setting up enet1_3
I0417 18:48:06.736752 17511 net.cpp:157] Top shape: 6 64 128 154 (7569408)
I0417 18:48:06.736757 17511 net.cpp:165] Memory required for data: 1513881648
I0417 18:48:06.736764 17511 layer_factory.hpp:77] Creating layer relu1_3
I0417 18:48:06.736773 17511 net.cpp:106] Creating Layer relu1_3
I0417 18:48:06.736788 17511 net.cpp:454] relu1_3 <- enet1_3
I0417 18:48:06.736796 17511 net.cpp:397] relu1_3 -> enet1_3 (in-place)
I0417 18:48:06.763242 17511 net.cpp:150] Setting up relu1_3
I0417 18:48:06.763267 17511 net.cpp:157] Top shape: 6 64 128 154 (7569408)
I0417 18:48:06.763273 17511 net.cpp:165] Memory required for data: 1544159280
I0417 18:48:06.763284 17511 layer_factory.hpp:77] Creating layer enet1_3_relu1_3_0_split
I0417 18:48:06.763296 17511 net.cpp:106] Creating Layer enet1_3_relu1_3_0_split
I0417 18:48:06.763303 17511 net.cpp:454] enet1_3_relu1_3_0_split <- enet1_3
I0417 18:48:06.763314 17511 net.cpp:411] enet1_3_relu1_3_0_split -> enet1_3_relu1_3_0_split_0
I0417 18:48:06.763325 17511 net.cpp:411] enet1_3_relu1_3_0_split -> enet1_3_relu1_3_0_split_1
I0417 18:48:06.763393 17511 net.cpp:150] Setting up enet1_3_relu1_3_0_split
I0417 18:48:06.763406 17511 net.cpp:157] Top shape: 6 64 128 154 (7569408)
I0417 18:48:06.763414 17511 net.cpp:157] Top shape: 6 64 128 154 (7569408)
I0417 18:48:06.763420 17511 net.cpp:165] Memory required for data: 1604714544
I0417 18:48:06.763427 17511 layer_factory.hpp:77] Creating layer enet1_4_branch2a
I0417 18:48:06.763447 17511 net.cpp:106] Creating Layer enet1_4_branch2a
I0417 18:48:06.763455 17511 net.cpp:454] enet1_4_branch2a <- enet1_3_relu1_3_0_split_0
I0417 18:48:06.763484 17511 net.cpp:411] enet1_4_branch2a -> enet1_4_branch2a
I0417 18:48:06.769726 17511 net.cpp:150] Setting up enet1_4_branch2a
I0417 18:48:06.769747 17511 net.cpp:157] Top shape: 6 16 128 154 (1892352)
I0417 18:48:06.769755 17511 net.cpp:165] Memory required for data: 1612283952
I0417 18:48:06.769767 17511 layer_factory.hpp:77] Creating layer bn1_4_branch2a
I0417 18:48:06.769784 17511 net.cpp:106] Creating Layer bn1_4_branch2a
I0417 18:48:06.769793 17511 net.cpp:454] bn1_4_branch2a <- enet1_4_branch2a
I0417 18:48:06.769806 17511 net.cpp:397] bn1_4_branch2a -> enet1_4_branch2a (in-place)
I0417 18:48:06.770176 17511 net.cpp:150] Setting up bn1_4_branch2a
I0417 18:48:06.770191 17511 net.cpp:157] Top shape: 6 16 128 154 (1892352)
I0417 18:48:06.770198 17511 net.cpp:165] Memory required for data: 1619853360
I0417 18:48:06.770210 17511 layer_factory.hpp:77] Creating layer relu1_4_branch2a
I0417 18:48:06.770220 17511 net.cpp:106] Creating Layer relu1_4_branch2a
I0417 18:48:06.770227 17511 net.cpp:454] relu1_4_branch2a <- enet1_4_branch2a
I0417 18:48:06.770236 17511 net.cpp:397] relu1_4_branch2a -> enet1_4_branch2a (in-place)
I0417 18:48:06.771675 17511 net.cpp:150] Setting up relu1_4_branch2a
I0417 18:48:06.771693 17511 net.cpp:157] Top shape: 6 16 128 154 (1892352)
I0417 18:48:06.771700 17511 net.cpp:165] Memory required for data: 1627422768
I0417 18:48:06.771710 17511 layer_factory.hpp:77] Creating layer enet1_4_branch2b
I0417 18:48:06.771733 17511 net.cpp:106] Creating Layer enet1_4_branch2b
I0417 18:48:06.771740 17511 net.cpp:454] enet1_4_branch2b <- enet1_4_branch2a
I0417 18:48:06.771752 17511 net.cpp:411] enet1_4_branch2b -> enet1_4_branch2b
I0417 18:48:06.775099 17511 net.cpp:150] Setting up enet1_4_branch2b
I0417 18:48:06.775117 17511 net.cpp:157] Top shape: 6 16 128 154 (1892352)
I0417 18:48:06.775125 17511 net.cpp:165] Memory required for data: 1634992176
I0417 18:48:06.775157 17511 layer_factory.hpp:77] Creating layer bn1_4_branch2b
I0417 18:48:06.775188 17511 net.cpp:106] Creating Layer bn1_4_branch2b
I0417 18:48:06.775197 17511 net.cpp:454] bn1_4_branch2b <- enet1_4_branch2b
I0417 18:48:06.775213 17511 net.cpp:397] bn1_4_branch2b -> enet1_4_branch2b (in-place)
I0417 18:48:06.775571 17511 net.cpp:150] Setting up bn1_4_branch2b
I0417 18:48:06.775585 17511 net.cpp:157] Top shape: 6 16 128 154 (1892352)
I0417 18:48:06.775593 17511 net.cpp:165] Memory required for data: 1642561584
I0417 18:48:06.775604 17511 layer_factory.hpp:77] Creating layer relu1_4_branch2b
I0417 18:48:06.775619 17511 net.cpp:106] Creating Layer relu1_4_branch2b
I0417 18:48:06.775625 17511 net.cpp:454] relu1_4_branch2b <- enet1_4_branch2b
I0417 18:48:06.775635 17511 net.cpp:397] relu1_4_branch2b -> enet1_4_branch2b (in-place)
I0417 18:48:06.777065 17511 net.cpp:150] Setting up relu1_4_branch2b
I0417 18:48:06.777081 17511 net.cpp:157] Top shape: 6 16 128 154 (1892352)
I0417 18:48:06.777088 17511 net.cpp:165] Memory required for data: 1650130992
I0417 18:48:06.777098 17511 layer_factory.hpp:77] Creating layer enet1_4_branch2c
I0417 18:48:06.777118 17511 net.cpp:106] Creating Layer enet1_4_branch2c
I0417 18:48:06.777129 17511 net.cpp:454] enet1_4_branch2c <- enet1_4_branch2b
I0417 18:48:06.777145 17511 net.cpp:411] enet1_4_branch2c -> enet1_4_branch2c
I0417 18:48:06.780267 17511 net.cpp:150] Setting up enet1_4_branch2c
I0417 18:48:06.780287 17511 net.cpp:157] Top shape: 6 64 128 154 (7569408)
I0417 18:48:06.780293 17511 net.cpp:165] Memory required for data: 1680408624
I0417 18:48:06.780303 17511 layer_factory.hpp:77] Creating layer bn1_4_branch2c
I0417 18:48:06.780320 17511 net.cpp:106] Creating Layer bn1_4_branch2c
I0417 18:48:06.780329 17511 net.cpp:454] bn1_4_branch2c <- enet1_4_branch2c
I0417 18:48:06.780342 17511 net.cpp:397] bn1_4_branch2c -> enet1_4_branch2c (in-place)
I0417 18:48:06.780716 17511 net.cpp:150] Setting up bn1_4_branch2c
I0417 18:48:06.780731 17511 net.cpp:157] Top shape: 6 64 128 154 (7569408)
I0417 18:48:06.780738 17511 net.cpp:165] Memory required for data: 1710686256
I0417 18:48:06.780758 17511 layer_factory.hpp:77] Creating layer dropout1_4_branch2c
I0417 18:48:06.780781 17511 net.cpp:106] Creating Layer dropout1_4_branch2c
I0417 18:48:06.780789 17511 net.cpp:454] dropout1_4_branch2c <- enet1_4_branch2c
I0417 18:48:06.780799 17511 net.cpp:397] dropout1_4_branch2c -> enet1_4_branch2c (in-place)
I0417 18:48:06.780845 17511 net.cpp:150] Setting up dropout1_4_branch2c
I0417 18:48:06.780858 17511 net.cpp:157] Top shape: 6 64 128 154 (7569408)
I0417 18:48:06.780864 17511 net.cpp:165] Memory required for data: 1740963888
I0417 18:48:06.780871 17511 layer_factory.hpp:77] Creating layer enet1_4
I0417 18:48:06.780886 17511 net.cpp:106] Creating Layer enet1_4
I0417 18:48:06.780894 17511 net.cpp:454] enet1_4 <- enet1_3_relu1_3_0_split_1
I0417 18:48:06.780902 17511 net.cpp:454] enet1_4 <- enet1_4_branch2c
I0417 18:48:06.780915 17511 net.cpp:411] enet1_4 -> enet1_4
I0417 18:48:06.780959 17511 net.cpp:150] Setting up enet1_4
I0417 18:48:06.780972 17511 net.cpp:157] Top shape: 6 64 128 154 (7569408)
I0417 18:48:06.780977 17511 net.cpp:165] Memory required for data: 1771241520
I0417 18:48:06.780984 17511 layer_factory.hpp:77] Creating layer relu1_4
I0417 18:48:06.780998 17511 net.cpp:106] Creating Layer relu1_4
I0417 18:48:06.781005 17511 net.cpp:454] relu1_4 <- enet1_4
I0417 18:48:06.781015 17511 net.cpp:397] relu1_4 -> enet1_4 (in-place)
I0417 18:48:06.786676 17511 net.cpp:150] Setting up relu1_4
I0417 18:48:06.786697 17511 net.cpp:157] Top shape: 6 64 128 154 (7569408)
I0417 18:48:06.786705 17511 net.cpp:165] Memory required for data: 1801519152
I0417 18:48:06.786715 17511 layer_factory.hpp:77] Creating layer enet1_4_relu1_4_0_split
I0417 18:48:06.786727 17511 net.cpp:106] Creating Layer enet1_4_relu1_4_0_split
I0417 18:48:06.786734 17511 net.cpp:454] enet1_4_relu1_4_0_split <- enet1_4
I0417 18:48:06.786748 17511 net.cpp:411] enet1_4_relu1_4_0_split -> enet1_4_relu1_4_0_split_0
I0417 18:48:06.786761 17511 net.cpp:411] enet1_4_relu1_4_0_split -> enet1_4_relu1_4_0_split_1
I0417 18:48:06.786828 17511 net.cpp:150] Setting up enet1_4_relu1_4_0_split
I0417 18:48:06.786841 17511 net.cpp:157] Top shape: 6 64 128 154 (7569408)
I0417 18:48:06.786849 17511 net.cpp:157] Top shape: 6 64 128 154 (7569408)
I0417 18:48:06.786855 17511 net.cpp:165] Memory required for data: 1862074416
I0417 18:48:06.786862 17511 layer_factory.hpp:77] Creating layer enet2_0_branch2a
I0417 18:48:06.786880 17511 net.cpp:106] Creating Layer enet2_0_branch2a
I0417 18:48:06.786888 17511 net.cpp:454] enet2_0_branch2a <- enet1_4_relu1_4_0_split_0
I0417 18:48:06.786900 17511 net.cpp:411] enet2_0_branch2a -> enet2_0_branch2a
I0417 18:48:06.791543 17511 net.cpp:150] Setting up enet2_0_branch2a
I0417 18:48:06.791563 17511 net.cpp:157] Top shape: 6 32 64 77 (946176)
I0417 18:48:06.791570 17511 net.cpp:165] Memory required for data: 1865859120
I0417 18:48:06.791580 17511 layer_factory.hpp:77] Creating layer bn2_0_branch2a
I0417 18:48:06.791597 17511 net.cpp:106] Creating Layer bn2_0_branch2a
I0417 18:48:06.791605 17511 net.cpp:454] bn2_0_branch2a <- enet2_0_branch2a
I0417 18:48:06.791622 17511 net.cpp:397] bn2_0_branch2a -> enet2_0_branch2a (in-place)
I0417 18:48:06.791978 17511 net.cpp:150] Setting up bn2_0_branch2a
I0417 18:48:06.791993 17511 net.cpp:157] Top shape: 6 32 64 77 (946176)
I0417 18:48:06.791999 17511 net.cpp:165] Memory required for data: 1869643824
I0417 18:48:06.792011 17511 layer_factory.hpp:77] Creating layer relu2_0_branch2a
I0417 18:48:06.792021 17511 net.cpp:106] Creating Layer relu2_0_branch2a
I0417 18:48:06.792028 17511 net.cpp:454] relu2_0_branch2a <- enet2_0_branch2a
I0417 18:48:06.792042 17511 net.cpp:397] relu2_0_branch2a -> enet2_0_branch2a (in-place)
I0417 18:48:06.793210 17511 net.cpp:150] Setting up relu2_0_branch2a
I0417 18:48:06.793226 17511 net.cpp:157] Top shape: 6 32 64 77 (946176)
I0417 18:48:06.793233 17511 net.cpp:165] Memory required for data: 1873428528
I0417 18:48:06.793243 17511 layer_factory.hpp:77] Creating layer enet2_0_branch2b
I0417 18:48:06.793262 17511 net.cpp:106] Creating Layer enet2_0_branch2b
I0417 18:48:06.793279 17511 net.cpp:454] enet2_0_branch2b <- enet2_0_branch2a
I0417 18:48:06.793304 17511 net.cpp:411] enet2_0_branch2b -> enet2_0_branch2b
I0417 18:48:06.796834 17511 net.cpp:150] Setting up enet2_0_branch2b
I0417 18:48:06.796852 17511 net.cpp:157] Top shape: 6 32 64 77 (946176)
I0417 18:48:06.796860 17511 net.cpp:165] Memory required for data: 1877213232
I0417 18:48:06.796872 17511 layer_factory.hpp:77] Creating layer bn2_0_branch2b
I0417 18:48:06.796888 17511 net.cpp:106] Creating Layer bn2_0_branch2b
I0417 18:48:06.796897 17511 net.cpp:454] bn2_0_branch2b <- enet2_0_branch2b
I0417 18:48:06.796907 17511 net.cpp:397] bn2_0_branch2b -> enet2_0_branch2b (in-place)
I0417 18:48:06.797284 17511 net.cpp:150] Setting up bn2_0_branch2b
I0417 18:48:06.797299 17511 net.cpp:157] Top shape: 6 32 64 77 (946176)
I0417 18:48:06.797307 17511 net.cpp:165] Memory required for data: 1880997936
I0417 18:48:06.797317 17511 layer_factory.hpp:77] Creating layer relu2_0_branch2b
I0417 18:48:06.797327 17511 net.cpp:106] Creating Layer relu2_0_branch2b
I0417 18:48:06.797334 17511 net.cpp:454] relu2_0_branch2b <- enet2_0_branch2b
I0417 18:48:06.797346 17511 net.cpp:397] relu2_0_branch2b -> enet2_0_branch2b (in-place)
I0417 18:48:06.798530 17511 net.cpp:150] Setting up relu2_0_branch2b
I0417 18:48:06.798548 17511 net.cpp:157] Top shape: 6 32 64 77 (946176)
I0417 18:48:06.798555 17511 net.cpp:165] Memory required for data: 1884782640
I0417 18:48:06.798565 17511 layer_factory.hpp:77] Creating layer enet2_0_branch2c
I0417 18:48:06.798585 17511 net.cpp:106] Creating Layer enet2_0_branch2c
I0417 18:48:06.798594 17511 net.cpp:454] enet2_0_branch2c <- enet2_0_branch2b
I0417 18:48:06.798606 17511 net.cpp:411] enet2_0_branch2c -> enet2_0_branch2c
I0417 18:48:06.801908 17511 net.cpp:150] Setting up enet2_0_branch2c
I0417 18:48:06.801926 17511 net.cpp:157] Top shape: 6 128 64 77 (3784704)
I0417 18:48:06.801934 17511 net.cpp:165] Memory required for data: 1899921456
I0417 18:48:06.801944 17511 layer_factory.hpp:77] Creating layer bn2_0_branch2c
I0417 18:48:06.801965 17511 net.cpp:106] Creating Layer bn2_0_branch2c
I0417 18:48:06.801975 17511 net.cpp:454] bn2_0_branch2c <- enet2_0_branch2c
I0417 18:48:06.801985 17511 net.cpp:397] bn2_0_branch2c -> enet2_0_branch2c (in-place)
I0417 18:48:06.802359 17511 net.cpp:150] Setting up bn2_0_branch2c
I0417 18:48:06.802373 17511 net.cpp:157] Top shape: 6 128 64 77 (3784704)
I0417 18:48:06.802381 17511 net.cpp:165] Memory required for data: 1915060272
I0417 18:48:06.802392 17511 layer_factory.hpp:77] Creating layer dropout2_0_branch2c
I0417 18:48:06.802403 17511 net.cpp:106] Creating Layer dropout2_0_branch2c
I0417 18:48:06.802410 17511 net.cpp:454] dropout2_0_branch2c <- enet2_0_branch2c
I0417 18:48:06.802420 17511 net.cpp:397] dropout2_0_branch2c -> enet2_0_branch2c (in-place)
I0417 18:48:06.802470 17511 net.cpp:150] Setting up dropout2_0_branch2c
I0417 18:48:06.802484 17511 net.cpp:157] Top shape: 6 128 64 77 (3784704)
I0417 18:48:06.802489 17511 net.cpp:165] Memory required for data: 1930199088
I0417 18:48:06.802496 17511 layer_factory.hpp:77] Creating layer enet2_0_branch1a
I0417 18:48:06.802515 17511 net.cpp:106] Creating Layer enet2_0_branch1a
I0417 18:48:06.802522 17511 net.cpp:454] enet2_0_branch1a <- enet1_4_relu1_4_0_split_1
I0417 18:48:06.802536 17511 net.cpp:411] enet2_0_branch1a -> enet2_0_branch1a
I0417 18:48:06.806308 17511 net.cpp:150] Setting up enet2_0_branch1a
I0417 18:48:06.806326 17511 net.cpp:157] Top shape: 6 128 128 154 (15138816)
I0417 18:48:06.806334 17511 net.cpp:165] Memory required for data: 1990754352
I0417 18:48:06.806344 17511 layer_factory.hpp:77] Creating layer bn2_0_branch1a
I0417 18:48:06.806362 17511 net.cpp:106] Creating Layer bn2_0_branch1a
I0417 18:48:06.806370 17511 net.cpp:454] bn2_0_branch1a <- enet2_0_branch1a
I0417 18:48:06.806381 17511 net.cpp:397] bn2_0_branch1a -> enet2_0_branch1a (in-place)
I0417 18:48:06.806774 17511 net.cpp:150] Setting up bn2_0_branch1a
I0417 18:48:06.806789 17511 net.cpp:157] Top shape: 6 128 128 154 (15138816)
I0417 18:48:06.806795 17511 net.cpp:165] Memory required for data: 2051309616
I0417 18:48:06.806823 17511 layer_factory.hpp:77] Creating layer pool2_0_branch1a
I0417 18:48:06.806833 17511 layer_factory.cpp:91] cuDNN does not support multiple tops. Using Caffe's own pooling layer.
I0417 18:48:06.806843 17511 net.cpp:106] Creating Layer pool2_0_branch1a
I0417 18:48:06.806850 17511 net.cpp:454] pool2_0_branch1a <- enet2_0_branch1a
I0417 18:48:06.806860 17511 net.cpp:411] pool2_0_branch1a -> pool2_0_branch1a
I0417 18:48:06.806874 17511 net.cpp:411] pool2_0_branch1a -> pool2_0_branch1a_mask
I0417 18:48:06.806951 17511 net.cpp:150] Setting up pool2_0_branch1a
I0417 18:48:06.806963 17511 net.cpp:157] Top shape: 6 128 64 77 (3784704)
I0417 18:48:06.806972 17511 net.cpp:157] Top shape: 6 128 64 77 (3784704)
I0417 18:48:06.806978 17511 net.cpp:165] Memory required for data: 2081587248
I0417 18:48:06.806985 17511 layer_factory.hpp:77] Creating layer enet2_0
I0417 18:48:06.806996 17511 net.cpp:106] Creating Layer enet2_0
I0417 18:48:06.807003 17511 net.cpp:454] enet2_0 <- pool2_0_branch1a
I0417 18:48:06.807013 17511 net.cpp:454] enet2_0 <- enet2_0_branch2c
I0417 18:48:06.807024 17511 net.cpp:411] enet2_0 -> enet2_0
I0417 18:48:06.807075 17511 net.cpp:150] Setting up enet2_0
I0417 18:48:06.807090 17511 net.cpp:157] Top shape: 6 128 64 77 (3784704)
I0417 18:48:06.807097 17511 net.cpp:165] Memory required for data: 2096726064
I0417 18:48:06.807104 17511 layer_factory.hpp:77] Creating layer relu2_0
I0417 18:48:06.807114 17511 net.cpp:106] Creating Layer relu2_0
I0417 18:48:06.807121 17511 net.cpp:454] relu2_0 <- enet2_0
I0417 18:48:06.807130 17511 net.cpp:397] relu2_0 -> enet2_0 (in-place)
I0417 18:48:06.809921 17511 net.cpp:150] Setting up relu2_0
I0417 18:48:06.809938 17511 net.cpp:157] Top shape: 6 128 64 77 (3784704)
I0417 18:48:06.809945 17511 net.cpp:165] Memory required for data: 2111864880
I0417 18:48:06.809955 17511 layer_factory.hpp:77] Creating layer enet2_0_relu2_0_0_split
I0417 18:48:06.809967 17511 net.cpp:106] Creating Layer enet2_0_relu2_0_0_split
I0417 18:48:06.809973 17511 net.cpp:454] enet2_0_relu2_0_0_split <- enet2_0
I0417 18:48:06.809986 17511 net.cpp:411] enet2_0_relu2_0_0_split -> enet2_0_relu2_0_0_split_0
I0417 18:48:06.809998 17511 net.cpp:411] enet2_0_relu2_0_0_split -> enet2_0_relu2_0_0_split_1
I0417 18:48:06.810073 17511 net.cpp:150] Setting up enet2_0_relu2_0_0_split
I0417 18:48:06.810086 17511 net.cpp:157] Top shape: 6 128 64 77 (3784704)
I0417 18:48:06.810096 17511 net.cpp:157] Top shape: 6 128 64 77 (3784704)
I0417 18:48:06.810101 17511 net.cpp:165] Memory required for data: 2142142512
I0417 18:48:06.810107 17511 layer_factory.hpp:77] Creating layer enet2_1_branch2a
I0417 18:48:06.810125 17511 net.cpp:106] Creating Layer enet2_1_branch2a
I0417 18:48:06.810133 17511 net.cpp:454] enet2_1_branch2a <- enet2_0_relu2_0_0_split_0
I0417 18:48:06.810145 17511 net.cpp:411] enet2_1_branch2a -> enet2_1_branch2a
I0417 18:48:06.813416 17511 net.cpp:150] Setting up enet2_1_branch2a
I0417 18:48:06.813434 17511 net.cpp:157] Top shape: 6 32 64 77 (946176)
I0417 18:48:06.813442 17511 net.cpp:165] Memory required for data: 2145927216
I0417 18:48:06.813452 17511 layer_factory.hpp:77] Creating layer bn2_1_branch2a
I0417 18:48:06.813468 17511 net.cpp:106] Creating Layer bn2_1_branch2a
I0417 18:48:06.813477 17511 net.cpp:454] bn2_1_branch2a <- enet2_1_branch2a
I0417 18:48:06.813489 17511 net.cpp:397] bn2_1_branch2a -> enet2_1_branch2a (in-place)
I0417 18:48:06.813863 17511 net.cpp:150] Setting up bn2_1_branch2a
I0417 18:48:06.813879 17511 net.cpp:157] Top shape: 6 32 64 77 (946176)
I0417 18:48:06.813884 17511 net.cpp:165] Memory required for data: 2149711920
I0417 18:48:06.813895 17511 layer_factory.hpp:77] Creating layer relu2_1_branch2a
I0417 18:48:06.813906 17511 net.cpp:106] Creating Layer relu2_1_branch2a
I0417 18:48:06.813913 17511 net.cpp:454] relu2_1_branch2a <- enet2_1_branch2a
I0417 18:48:06.813922 17511 net.cpp:397] relu2_1_branch2a -> enet2_1_branch2a (in-place)
I0417 18:48:06.815109 17511 net.cpp:150] Setting up relu2_1_branch2a
I0417 18:48:06.815134 17511 net.cpp:157] Top shape: 6 32 64 77 (946176)
I0417 18:48:06.815150 17511 net.cpp:165] Memory required for data: 2153496624
I0417 18:48:06.815160 17511 layer_factory.hpp:77] Creating layer enet2_1_branch2b
I0417 18:48:06.815178 17511 net.cpp:106] Creating Layer enet2_1_branch2b
I0417 18:48:06.815187 17511 net.cpp:454] enet2_1_branch2b <- enet2_1_branch2a
I0417 18:48:06.815201 17511 net.cpp:411] enet2_1_branch2b -> enet2_1_branch2b
I0417 18:48:06.818845 17511 net.cpp:150] Setting up enet2_1_branch2b
I0417 18:48:06.818863 17511 net.cpp:157] Top shape: 6 32 64 77 (946176)
I0417 18:48:06.818871 17511 net.cpp:165] Memory required for data: 2157281328
I0417 18:48:06.818882 17511 layer_factory.hpp:77] Creating layer bn2_1_branch2b
I0417 18:48:06.818899 17511 net.cpp:106] Creating Layer bn2_1_branch2b
I0417 18:48:06.818907 17511 net.cpp:454] bn2_1_branch2b <- enet2_1_branch2b
I0417 18:48:06.818922 17511 net.cpp:397] bn2_1_branch2b -> enet2_1_branch2b (in-place)
I0417 18:48:06.819319 17511 net.cpp:150] Setting up bn2_1_branch2b
I0417 18:48:06.819334 17511 net.cpp:157] Top shape: 6 32 64 77 (946176)
I0417 18:48:06.819341 17511 net.cpp:165] Memory required for data: 2161066032
I0417 18:48:06.819351 17511 layer_factory.hpp:77] Creating layer relu2_1_branch2b
I0417 18:48:06.819362 17511 net.cpp:106] Creating Layer relu2_1_branch2b
I0417 18:48:06.819370 17511 net.cpp:454] relu2_1_branch2b <- enet2_1_branch2b
I0417 18:48:06.819380 17511 net.cpp:397] relu2_1_branch2b -> enet2_1_branch2b (in-place)
I0417 18:48:06.820574 17511 net.cpp:150] Setting up relu2_1_branch2b
I0417 18:48:06.820591 17511 net.cpp:157] Top shape: 6 32 64 77 (946176)
I0417 18:48:06.820598 17511 net.cpp:165] Memory required for data: 2164850736
I0417 18:48:06.820608 17511 layer_factory.hpp:77] Creating layer enet2_1_branch2c
I0417 18:48:06.820626 17511 net.cpp:106] Creating Layer enet2_1_branch2c
I0417 18:48:06.820636 17511 net.cpp:454] enet2_1_branch2c <- enet2_1_branch2b
I0417 18:48:06.820649 17511 net.cpp:411] enet2_1_branch2c -> enet2_1_branch2c
I0417 18:48:06.824151 17511 net.cpp:150] Setting up enet2_1_branch2c
I0417 18:48:06.824169 17511 net.cpp:157] Top shape: 6 128 64 77 (3784704)
I0417 18:48:06.824177 17511 net.cpp:165] Memory required for data: 2179989552
I0417 18:48:06.824187 17511 layer_factory.hpp:77] Creating layer bn2_1_branch2c
I0417 18:48:06.824204 17511 net.cpp:106] Creating Layer bn2_1_branch2c
I0417 18:48:06.824213 17511 net.cpp:454] bn2_1_branch2c <- enet2_1_branch2c
I0417 18:48:06.824223 17511 net.cpp:397] bn2_1_branch2c -> enet2_1_branch2c (in-place)
I0417 18:48:06.824611 17511 net.cpp:150] Setting up bn2_1_branch2c
I0417 18:48:06.824626 17511 net.cpp:157] Top shape: 6 128 64 77 (3784704)
I0417 18:48:06.824632 17511 net.cpp:165] Memory required for data: 2195128368
I0417 18:48:06.824643 17511 layer_factory.hpp:77] Creating layer dropout2_1_branch2c
I0417 18:48:06.824654 17511 net.cpp:106] Creating Layer dropout2_1_branch2c
I0417 18:48:06.824662 17511 net.cpp:454] dropout2_1_branch2c <- enet2_1_branch2c
I0417 18:48:06.824671 17511 net.cpp:397] dropout2_1_branch2c -> enet2_1_branch2c (in-place)
I0417 18:48:06.824728 17511 net.cpp:150] Setting up dropout2_1_branch2c
I0417 18:48:06.824740 17511 net.cpp:157] Top shape: 6 128 64 77 (3784704)
I0417 18:48:06.824746 17511 net.cpp:165] Memory required for data: 2210267184
I0417 18:48:06.824753 17511 layer_factory.hpp:77] Creating layer enet2_1
I0417 18:48:06.824764 17511 net.cpp:106] Creating Layer enet2_1
I0417 18:48:06.824771 17511 net.cpp:454] enet2_1 <- enet2_0_relu2_0_0_split_1
I0417 18:48:06.824784 17511 net.cpp:454] enet2_1 <- enet2_1_branch2c
I0417 18:48:06.824793 17511 net.cpp:411] enet2_1 -> enet2_1
I0417 18:48:06.824839 17511 net.cpp:150] Setting up enet2_1
I0417 18:48:06.824852 17511 net.cpp:157] Top shape: 6 128 64 77 (3784704)
I0417 18:48:06.824858 17511 net.cpp:165] Memory required for data: 2225406000
I0417 18:48:06.824865 17511 layer_factory.hpp:77] Creating layer relu2_1
I0417 18:48:06.824879 17511 net.cpp:106] Creating Layer relu2_1
I0417 18:48:06.824887 17511 net.cpp:454] relu2_1 <- enet2_1
I0417 18:48:06.824906 17511 net.cpp:397] relu2_1 -> enet2_1 (in-place)
I0417 18:48:06.827764 17511 net.cpp:150] Setting up relu2_1
I0417 18:48:06.827782 17511 net.cpp:157] Top shape: 6 128 64 77 (3784704)
I0417 18:48:06.827790 17511 net.cpp:165] Memory required for data: 2240544816
I0417 18:48:06.827798 17511 layer_factory.hpp:77] Creating layer enet2_1_relu2_1_0_split
I0417 18:48:06.827810 17511 net.cpp:106] Creating Layer enet2_1_relu2_1_0_split
I0417 18:48:06.827819 17511 net.cpp:454] enet2_1_relu2_1_0_split <- enet2_1
I0417 18:48:06.827829 17511 net.cpp:411] enet2_1_relu2_1_0_split -> enet2_1_relu2_1_0_split_0
I0417 18:48:06.827841 17511 net.cpp:411] enet2_1_relu2_1_0_split -> enet2_1_relu2_1_0_split_1
I0417 18:48:06.827916 17511 net.cpp:150] Setting up enet2_1_relu2_1_0_split
I0417 18:48:06.827929 17511 net.cpp:157] Top shape: 6 128 64 77 (3784704)
I0417 18:48:06.827937 17511 net.cpp:157] Top shape: 6 128 64 77 (3784704)
I0417 18:48:06.827944 17511 net.cpp:165] Memory required for data: 2270822448
I0417 18:48:06.827950 17511 layer_factory.hpp:77] Creating layer enet2_2_branch2a
I0417 18:48:06.827968 17511 net.cpp:106] Creating Layer enet2_2_branch2a
I0417 18:48:06.827976 17511 net.cpp:454] enet2_2_branch2a <- enet2_1_relu2_1_0_split_0
I0417 18:48:06.827987 17511 net.cpp:411] enet2_2_branch2a -> enet2_2_branch2a
I0417 18:48:06.832326 17511 net.cpp:150] Setting up enet2_2_branch2a
I0417 18:48:06.832348 17511 net.cpp:157] Top shape: 6 32 64 77 (946176)
I0417 18:48:06.832356 17511 net.cpp:165] Memory required for data: 2274607152
I0417 18:48:06.832366 17511 layer_factory.hpp:77] Creating layer bn2_2_branch2a
I0417 18:48:06.832379 17511 net.cpp:106] Creating Layer bn2_2_branch2a
I0417 18:48:06.832387 17511 net.cpp:454] bn2_2_branch2a <- enet2_2_branch2a
I0417 18:48:06.832401 17511 net.cpp:397] bn2_2_branch2a -> enet2_2_branch2a (in-place)
I0417 18:48:06.832815 17511 net.cpp:150] Setting up bn2_2_branch2a
I0417 18:48:06.832829 17511 net.cpp:157] Top shape: 6 32 64 77 (946176)
I0417 18:48:06.832836 17511 net.cpp:165] Memory required for data: 2278391856
I0417 18:48:06.832847 17511 layer_factory.hpp:77] Creating layer relu2_2_branch2a
I0417 18:48:06.832861 17511 net.cpp:106] Creating Layer relu2_2_branch2a
I0417 18:48:06.832870 17511 net.cpp:454] relu2_2_branch2a <- enet2_2_branch2a
I0417 18:48:06.832878 17511 net.cpp:397] relu2_2_branch2a -> enet2_2_branch2a (in-place)
I0417 18:48:06.834081 17511 net.cpp:150] Setting up relu2_2_branch2a
I0417 18:48:06.834098 17511 net.cpp:157] Top shape: 6 32 64 77 (946176)
I0417 18:48:06.834105 17511 net.cpp:165] Memory required for data: 2282176560
I0417 18:48:06.834115 17511 layer_factory.hpp:77] Creating layer enet2_2_branch2b
I0417 18:48:06.834134 17511 net.cpp:106] Creating Layer enet2_2_branch2b
I0417 18:48:06.834142 17511 net.cpp:454] enet2_2_branch2b <- enet2_2_branch2a
I0417 18:48:06.834157 17511 net.cpp:411] enet2_2_branch2b -> enet2_2_branch2b
I0417 18:48:06.834830 17511 net.cpp:150] Setting up enet2_2_branch2b
I0417 18:48:06.834846 17511 net.cpp:157] Top shape: 6 32 64 77 (946176)
I0417 18:48:06.834852 17511 net.cpp:165] Memory required for data: 2285961264
I0417 18:48:06.834862 17511 layer_factory.hpp:77] Creating layer bn2_2_branch2b
I0417 18:48:06.834882 17511 net.cpp:106] Creating Layer bn2_2_branch2b
I0417 18:48:06.834889 17511 net.cpp:454] bn2_2_branch2b <- enet2_2_branch2b
I0417 18:48:06.834903 17511 net.cpp:397] bn2_2_branch2b -> enet2_2_branch2b (in-place)
I0417 18:48:06.835311 17511 net.cpp:150] Setting up bn2_2_branch2b
I0417 18:48:06.835326 17511 net.cpp:157] Top shape: 6 32 64 77 (946176)
I0417 18:48:06.835332 17511 net.cpp:165] Memory required for data: 2289745968
I0417 18:48:06.835343 17511 layer_factory.hpp:77] Creating layer relu2_2_branch2b
I0417 18:48:06.835353 17511 net.cpp:106] Creating Layer relu2_2_branch2b
I0417 18:48:06.835361 17511 net.cpp:454] relu2_2_branch2b <- enet2_2_branch2b
I0417 18:48:06.835371 17511 net.cpp:397] relu2_2_branch2b -> enet2_2_branch2b (in-place)
I0417 18:48:06.836560 17511 net.cpp:150] Setting up relu2_2_branch2b
I0417 18:48:06.836586 17511 net.cpp:157] Top shape: 6 32 64 77 (946176)
I0417 18:48:06.836603 17511 net.cpp:165] Memory required for data: 2293530672
I0417 18:48:06.836613 17511 layer_factory.hpp:77] Creating layer enet2_2_branch2c
I0417 18:48:06.836632 17511 net.cpp:106] Creating Layer enet2_2_branch2c
I0417 18:48:06.836640 17511 net.cpp:454] enet2_2_branch2c <- enet2_2_branch2b
I0417 18:48:06.836655 17511 net.cpp:411] enet2_2_branch2c -> enet2_2_branch2c
I0417 18:48:06.840154 17511 net.cpp:150] Setting up enet2_2_branch2c
I0417 18:48:06.840174 17511 net.cpp:157] Top shape: 6 128 64 77 (3784704)
I0417 18:48:06.840181 17511 net.cpp:165] Memory required for data: 2308669488
I0417 18:48:06.840191 17511 layer_factory.hpp:77] Creating layer bn2_2_branch2c
I0417 18:48:06.840209 17511 net.cpp:106] Creating Layer bn2_2_branch2c
I0417 18:48:06.840217 17511 net.cpp:454] bn2_2_branch2c <- enet2_2_branch2c
I0417 18:48:06.840229 17511 net.cpp:397] bn2_2_branch2c -> enet2_2_branch2c (in-place)
I0417 18:48:06.840636 17511 net.cpp:150] Setting up bn2_2_branch2c
I0417 18:48:06.840649 17511 net.cpp:157] Top shape: 6 128 64 77 (3784704)
I0417 18:48:06.840656 17511 net.cpp:165] Memory required for data: 2323808304
I0417 18:48:06.840667 17511 layer_factory.hpp:77] Creating layer dropout2_2_branch2c
I0417 18:48:06.840677 17511 net.cpp:106] Creating Layer dropout2_2_branch2c
I0417 18:48:06.840684 17511 net.cpp:454] dropout2_2_branch2c <- enet2_2_branch2c
I0417 18:48:06.840693 17511 net.cpp:397] dropout2_2_branch2c -> enet2_2_branch2c (in-place)
I0417 18:48:06.840747 17511 net.cpp:150] Setting up dropout2_2_branch2c
I0417 18:48:06.840760 17511 net.cpp:157] Top shape: 6 128 64 77 (3784704)
I0417 18:48:06.840767 17511 net.cpp:165] Memory required for data: 2338947120
I0417 18:48:06.840773 17511 layer_factory.hpp:77] Creating layer enet2_2
I0417 18:48:06.840785 17511 net.cpp:106] Creating Layer enet2_2
I0417 18:48:06.840791 17511 net.cpp:454] enet2_2 <- enet2_1_relu2_1_0_split_1
I0417 18:48:06.840801 17511 net.cpp:454] enet2_2 <- enet2_2_branch2c
I0417 18:48:06.840812 17511 net.cpp:411] enet2_2 -> enet2_2
I0417 18:48:06.840862 17511 net.cpp:150] Setting up enet2_2
I0417 18:48:06.840874 17511 net.cpp:157] Top shape: 6 128 64 77 (3784704)
I0417 18:48:06.840880 17511 net.cpp:165] Memory required for data: 2354085936
I0417 18:48:06.840888 17511 layer_factory.hpp:77] Creating layer relu2_2
I0417 18:48:06.840900 17511 net.cpp:106] Creating Layer relu2_2
I0417 18:48:06.840909 17511 net.cpp:454] relu2_2 <- enet2_2
I0417 18:48:06.840922 17511 net.cpp:397] relu2_2 -> enet2_2 (in-place)
I0417 18:48:06.843770 17511 net.cpp:150] Setting up relu2_2
I0417 18:48:06.843788 17511 net.cpp:157] Top shape: 6 128 64 77 (3784704)
I0417 18:48:06.843796 17511 net.cpp:165] Memory required for data: 2369224752
I0417 18:48:06.843804 17511 layer_factory.hpp:77] Creating layer enet2_2_relu2_2_0_split
I0417 18:48:06.843816 17511 net.cpp:106] Creating Layer enet2_2_relu2_2_0_split
I0417 18:48:06.843822 17511 net.cpp:454] enet2_2_relu2_2_0_split <- enet2_2
I0417 18:48:06.843837 17511 net.cpp:411] enet2_2_relu2_2_0_split -> enet2_2_relu2_2_0_split_0
I0417 18:48:06.843863 17511 net.cpp:411] enet2_2_relu2_2_0_split -> enet2_2_relu2_2_0_split_1
I0417 18:48:06.843942 17511 net.cpp:150] Setting up enet2_2_relu2_2_0_split
I0417 18:48:06.843956 17511 net.cpp:157] Top shape: 6 128 64 77 (3784704)
I0417 18:48:06.843966 17511 net.cpp:157] Top shape: 6 128 64 77 (3784704)
I0417 18:48:06.843971 17511 net.cpp:165] Memory required for data: 2399502384
I0417 18:48:06.843978 17511 layer_factory.hpp:77] Creating layer enet2_3_branch2a
I0417 18:48:06.843997 17511 net.cpp:106] Creating Layer enet2_3_branch2a
I0417 18:48:06.844004 17511 net.cpp:454] enet2_3_branch2a <- enet2_2_relu2_2_0_split_0
I0417 18:48:06.844015 17511 net.cpp:411] enet2_3_branch2a -> enet2_3_branch2a
I0417 18:48:06.847362 17511 net.cpp:150] Setting up enet2_3_branch2a
I0417 18:48:06.847380 17511 net.cpp:157] Top shape: 6 32 64 77 (946176)
I0417 18:48:06.847388 17511 net.cpp:165] Memory required for data: 2403287088
I0417 18:48:06.847405 17511 layer_factory.hpp:77] Creating layer bn2_3_branch2a
I0417 18:48:06.847436 17511 net.cpp:106] Creating Layer bn2_3_branch2a
I0417 18:48:06.847446 17511 net.cpp:454] bn2_3_branch2a <- enet2_3_branch2a
I0417 18:48:06.847457 17511 net.cpp:397] bn2_3_branch2a -> enet2_3_branch2a (in-place)
I0417 18:48:06.847882 17511 net.cpp:150] Setting up bn2_3_branch2a
I0417 18:48:06.847896 17511 net.cpp:157] Top shape: 6 32 64 77 (946176)
I0417 18:48:06.847903 17511 net.cpp:165] Memory required for data: 2407071792
I0417 18:48:06.847913 17511 layer_factory.hpp:77] Creating layer relu2_3_branch2a
I0417 18:48:06.847924 17511 net.cpp:106] Creating Layer relu2_3_branch2a
I0417 18:48:06.847930 17511 net.cpp:454] relu2_3_branch2a <- enet2_3_branch2a
I0417 18:48:06.847944 17511 net.cpp:397] relu2_3_branch2a -> enet2_3_branch2a (in-place)
I0417 18:48:06.849144 17511 net.cpp:150] Setting up relu2_3_branch2a
I0417 18:48:06.849162 17511 net.cpp:157] Top shape: 6 32 64 77 (946176)
I0417 18:48:06.849169 17511 net.cpp:165] Memory required for data: 2410856496
I0417 18:48:06.849179 17511 layer_factory.hpp:77] Creating layer enet2_3_branch2b1
I0417 18:48:06.849200 17511 net.cpp:106] Creating Layer enet2_3_branch2b1
I0417 18:48:06.849207 17511 net.cpp:454] enet2_3_branch2b1 <- enet2_3_branch2a
I0417 18:48:06.849220 17511 net.cpp:411] enet2_3_branch2b1 -> enet2_3_branch2b1
I0417 18:48:06.852983 17511 net.cpp:150] Setting up enet2_3_branch2b1
I0417 18:48:06.853001 17511 net.cpp:157] Top shape: 6 32 64 77 (946176)
I0417 18:48:06.853009 17511 net.cpp:165] Memory required for data: 2414641200
I0417 18:48:06.853019 17511 layer_factory.hpp:77] Creating layer enet2_3_branch2b
I0417 18:48:06.853039 17511 net.cpp:106] Creating Layer enet2_3_branch2b
I0417 18:48:06.853046 17511 net.cpp:454] enet2_3_branch2b <- enet2_3_branch2b1
I0417 18:48:06.853066 17511 net.cpp:411] enet2_3_branch2b -> enet2_3_branch2b
I0417 18:48:06.856700 17511 net.cpp:150] Setting up enet2_3_branch2b
I0417 18:48:06.856721 17511 net.cpp:157] Top shape: 6 32 64 77 (946176)
I0417 18:48:06.856729 17511 net.cpp:165] Memory required for data: 2418425904
I0417 18:48:06.856740 17511 layer_factory.hpp:77] Creating layer bn2_3_branch2b
I0417 18:48:06.856756 17511 net.cpp:106] Creating Layer bn2_3_branch2b
I0417 18:48:06.856765 17511 net.cpp:454] bn2_3_branch2b <- enet2_3_branch2b
I0417 18:48:06.856775 17511 net.cpp:397] bn2_3_branch2b -> enet2_3_branch2b (in-place)
I0417 18:48:06.857221 17511 net.cpp:150] Setting up bn2_3_branch2b
I0417 18:48:06.857235 17511 net.cpp:157] Top shape: 6 32 64 77 (946176)
I0417 18:48:06.857242 17511 net.cpp:165] Memory required for data: 2422210608
I0417 18:48:06.857252 17511 layer_factory.hpp:77] Creating layer relu2_3_branch2b
I0417 18:48:06.857264 17511 net.cpp:106] Creating Layer relu2_3_branch2b
I0417 18:48:06.857270 17511 net.cpp:454] relu2_3_branch2b <- enet2_3_branch2b
I0417 18:48:06.857283 17511 net.cpp:397] relu2_3_branch2b -> enet2_3_branch2b (in-place)
I0417 18:48:06.858491 17511 net.cpp:150] Setting up relu2_3_branch2b
I0417 18:48:06.858508 17511 net.cpp:157] Top shape: 6 32 64 77 (946176)
I0417 18:48:06.858515 17511 net.cpp:165] Memory required for data: 2425995312
I0417 18:48:06.858525 17511 layer_factory.hpp:77] Creating layer enet2_3_branch2c
I0417 18:48:06.858546 17511 net.cpp:106] Creating Layer enet2_3_branch2c
I0417 18:48:06.858554 17511 net.cpp:454] enet2_3_branch2c <- enet2_3_branch2b
I0417 18:48:06.858566 17511 net.cpp:411] enet2_3_branch2c -> enet2_3_branch2c
I0417 18:48:06.862013 17511 net.cpp:150] Setting up enet2_3_branch2c
I0417 18:48:06.862031 17511 net.cpp:157] Top shape: 6 128 64 77 (3784704)
I0417 18:48:06.862040 17511 net.cpp:165] Memory required for data: 2441134128
I0417 18:48:06.862053 17511 layer_factory.hpp:77] Creating layer bn2_3_branch2c
I0417 18:48:06.862073 17511 net.cpp:106] Creating Layer bn2_3_branch2c
I0417 18:48:06.862082 17511 net.cpp:454] bn2_3_branch2c <- enet2_3_branch2c
I0417 18:48:06.862092 17511 net.cpp:397] bn2_3_branch2c -> enet2_3_branch2c (in-place)
I0417 18:48:06.862532 17511 net.cpp:150] Setting up bn2_3_branch2c
I0417 18:48:06.862555 17511 net.cpp:157] Top shape: 6 128 64 77 (3784704)
I0417 18:48:06.862570 17511 net.cpp:165] Memory required for data: 2456272944
I0417 18:48:06.862581 17511 layer_factory.hpp:77] Creating layer dropout2_3_branch2c
I0417 18:48:06.862592 17511 net.cpp:106] Creating Layer dropout2_3_branch2c
I0417 18:48:06.862599 17511 net.cpp:454] dropout2_3_branch2c <- enet2_3_branch2c
I0417 18:48:06.862609 17511 net.cpp:397] dropout2_3_branch2c -> enet2_3_branch2c (in-place)
I0417 18:48:06.862661 17511 net.cpp:150] Setting up dropout2_3_branch2c
I0417 18:48:06.862679 17511 net.cpp:157] Top shape: 6 128 64 77 (3784704)
I0417 18:48:06.862686 17511 net.cpp:165] Memory required for data: 2471411760
I0417 18:48:06.862692 17511 layer_factory.hpp:77] Creating layer enet2_3
I0417 18:48:06.862704 17511 net.cpp:106] Creating Layer enet2_3
I0417 18:48:06.862710 17511 net.cpp:454] enet2_3 <- enet2_2_relu2_2_0_split_1
I0417 18:48:06.862718 17511 net.cpp:454] enet2_3 <- enet2_3_branch2c
I0417 18:48:06.862730 17511 net.cpp:411] enet2_3 -> enet2_3
I0417 18:48:06.862782 17511 net.cpp:150] Setting up enet2_3
I0417 18:48:06.862794 17511 net.cpp:157] Top shape: 6 128 64 77 (3784704)
I0417 18:48:06.862800 17511 net.cpp:165] Memory required for data: 2486550576
I0417 18:48:06.862807 17511 layer_factory.hpp:77] Creating layer relu2_3
I0417 18:48:06.862820 17511 net.cpp:106] Creating Layer relu2_3
I0417 18:48:06.862828 17511 net.cpp:454] relu2_3 <- enet2_3
I0417 18:48:06.862838 17511 net.cpp:397] relu2_3 -> enet2_3 (in-place)
I0417 18:48:06.865677 17511 net.cpp:150] Setting up relu2_3
I0417 18:48:06.865695 17511 net.cpp:157] Top shape: 6 128 64 77 (3784704)
I0417 18:48:06.865702 17511 net.cpp:165] Memory required for data: 2501689392
I0417 18:48:06.865743 17511 layer_factory.hpp:77] Creating layer enet2_3_relu2_3_0_split
I0417 18:48:06.865756 17511 net.cpp:106] Creating Layer enet2_3_relu2_3_0_split
I0417 18:48:06.865764 17511 net.cpp:454] enet2_3_relu2_3_0_split <- enet2_3
I0417 18:48:06.865774 17511 net.cpp:411] enet2_3_relu2_3_0_split -> enet2_3_relu2_3_0_split_0
I0417 18:48:06.865787 17511 net.cpp:411] enet2_3_relu2_3_0_split -> enet2_3_relu2_3_0_split_1
I0417 18:48:06.865869 17511 net.cpp:150] Setting up enet2_3_relu2_3_0_split
I0417 18:48:06.865883 17511 net.cpp:157] Top shape: 6 128 64 77 (3784704)
I0417 18:48:06.865891 17511 net.cpp:157] Top shape: 6 128 64 77 (3784704)
I0417 18:48:06.865897 17511 net.cpp:165] Memory required for data: 2531967024
I0417 18:48:06.865905 17511 layer_factory.hpp:77] Creating layer enet2_4_branch2a
I0417 18:48:06.865918 17511 net.cpp:106] Creating Layer enet2_4_branch2a
I0417 18:48:06.865926 17511 net.cpp:454] enet2_4_branch2a <- enet2_3_relu2_3_0_split_0
I0417 18:48:06.865941 17511 net.cpp:411] enet2_4_branch2a -> enet2_4_branch2a
I0417 18:48:06.869513 17511 net.cpp:150] Setting up enet2_4_branch2a
I0417 18:48:06.869531 17511 net.cpp:157] Top shape: 6 32 64 77 (946176)
I0417 18:48:06.869539 17511 net.cpp:165] Memory required for data: 2535751728
I0417 18:48:06.869549 17511 layer_factory.hpp:77] Creating layer bn2_4_branch2a
I0417 18:48:06.869565 17511 net.cpp:106] Creating Layer bn2_4_branch2a
I0417 18:48:06.869573 17511 net.cpp:454] bn2_4_branch2a <- enet2_4_branch2a
I0417 18:48:06.869583 17511 net.cpp:397] bn2_4_branch2a -> enet2_4_branch2a (in-place)
I0417 18:48:06.870043 17511 net.cpp:150] Setting up bn2_4_branch2a
I0417 18:48:06.870060 17511 net.cpp:157] Top shape: 6 32 64 77 (946176)
I0417 18:48:06.870067 17511 net.cpp:165] Memory required for data: 2539536432
I0417 18:48:06.870079 17511 layer_factory.hpp:77] Creating layer relu2_4_branch2a
I0417 18:48:06.870090 17511 net.cpp:106] Creating Layer relu2_4_branch2a
I0417 18:48:06.870096 17511 net.cpp:454] relu2_4_branch2a <- enet2_4_branch2a
I0417 18:48:06.870106 17511 net.cpp:397] relu2_4_branch2a -> enet2_4_branch2a (in-place)
I0417 18:48:06.871305 17511 net.cpp:150] Setting up relu2_4_branch2a
I0417 18:48:06.871322 17511 net.cpp:157] Top shape: 6 32 64 77 (946176)
I0417 18:48:06.871330 17511 net.cpp:165] Memory required for data: 2543321136
I0417 18:48:06.871347 17511 layer_factory.hpp:77] Creating layer enet2_4_branch2b
I0417 18:48:06.871374 17511 net.cpp:106] Creating Layer enet2_4_branch2b
I0417 18:48:06.871383 17511 net.cpp:454] enet2_4_branch2b <- enet2_4_branch2a
I0417 18:48:06.871395 17511 net.cpp:411] enet2_4_branch2b -> enet2_4_branch2b
I0417 18:48:06.872377 17511 net.cpp:150] Setting up enet2_4_branch2b
I0417 18:48:06.872393 17511 net.cpp:157] Top shape: 6 32 64 77 (946176)
I0417 18:48:06.872400 17511 net.cpp:165] Memory required for data: 2547105840
I0417 18:48:06.872411 17511 layer_factory.hpp:77] Creating layer bn2_4_branch2b
I0417 18:48:06.872447 17511 net.cpp:106] Creating Layer bn2_4_branch2b
I0417 18:48:06.872455 17511 net.cpp:454] bn2_4_branch2b <- enet2_4_branch2b
I0417 18:48:06.872465 17511 net.cpp:397] bn2_4_branch2b -> enet2_4_branch2b (in-place)
I0417 18:48:06.872920 17511 net.cpp:150] Setting up bn2_4_branch2b
I0417 18:48:06.872936 17511 net.cpp:157] Top shape: 6 32 64 77 (946176)
I0417 18:48:06.872941 17511 net.cpp:165] Memory required for data: 2550890544
I0417 18:48:06.872952 17511 layer_factory.hpp:77] Creating layer relu2_4_branch2b
I0417 18:48:06.872963 17511 net.cpp:106] Creating Layer relu2_4_branch2b
I0417 18:48:06.872970 17511 net.cpp:454] relu2_4_branch2b <- enet2_4_branch2b
I0417 18:48:06.872978 17511 net.cpp:397] relu2_4_branch2b -> enet2_4_branch2b (in-place)
I0417 18:48:06.874194 17511 net.cpp:150] Setting up relu2_4_branch2b
I0417 18:48:06.874214 17511 net.cpp:157] Top shape: 6 32 64 77 (946176)
I0417 18:48:06.874222 17511 net.cpp:165] Memory required for data: 2554675248
I0417 18:48:06.874231 17511 layer_factory.hpp:77] Creating layer enet2_4_branch2c
I0417 18:48:06.874249 17511 net.cpp:106] Creating Layer enet2_4_branch2c
I0417 18:48:06.874258 17511 net.cpp:454] enet2_4_branch2c <- enet2_4_branch2b
I0417 18:48:06.874269 17511 net.cpp:411] enet2_4_branch2c -> enet2_4_branch2c
I0417 18:48:06.877969 17511 net.cpp:150] Setting up enet2_4_branch2c
I0417 18:48:06.877988 17511 net.cpp:157] Top shape: 6 128 64 77 (3784704)
I0417 18:48:06.877996 17511 net.cpp:165] Memory required for data: 2569814064
I0417 18:48:06.878006 17511 layer_factory.hpp:77] Creating layer bn2_4_branch2c
I0417 18:48:06.878021 17511 net.cpp:106] Creating Layer bn2_4_branch2c
I0417 18:48:06.878032 17511 net.cpp:454] bn2_4_branch2c <- enet2_4_branch2c
I0417 18:48:06.878043 17511 net.cpp:397] bn2_4_branch2c -> enet2_4_branch2c (in-place)
I0417 18:48:06.878506 17511 net.cpp:150] Setting up bn2_4_branch2c
I0417 18:48:06.878521 17511 net.cpp:157] Top shape: 6 128 64 77 (3784704)
I0417 18:48:06.878527 17511 net.cpp:165] Memory required for data: 2584952880
I0417 18:48:06.878538 17511 layer_factory.hpp:77] Creating layer dropout2_4_branch2c
I0417 18:48:06.878549 17511 net.cpp:106] Creating Layer dropout2_4_branch2c
I0417 18:48:06.878556 17511 net.cpp:454] dropout2_4_branch2c <- enet2_4_branch2c
I0417 18:48:06.878566 17511 net.cpp:397] dropout2_4_branch2c -> enet2_4_branch2c (in-place)
I0417 18:48:06.878618 17511 net.cpp:150] Setting up dropout2_4_branch2c
I0417 18:48:06.878631 17511 net.cpp:157] Top shape: 6 128 64 77 (3784704)
I0417 18:48:06.878638 17511 net.cpp:165] Memory required for data: 2600091696
I0417 18:48:06.878645 17511 layer_factory.hpp:77] Creating layer enet2_4
I0417 18:48:06.878660 17511 net.cpp:106] Creating Layer enet2_4
I0417 18:48:06.878669 17511 net.cpp:454] enet2_4 <- enet2_3_relu2_3_0_split_1
I0417 18:48:06.878677 17511 net.cpp:454] enet2_4 <- enet2_4_branch2c
I0417 18:48:06.878690 17511 net.cpp:411] enet2_4 -> enet2_4
I0417 18:48:06.878741 17511 net.cpp:150] Setting up enet2_4
I0417 18:48:06.878754 17511 net.cpp:157] Top shape: 6 128 64 77 (3784704)
I0417 18:48:06.878760 17511 net.cpp:165] Memory required for data: 2615230512
I0417 18:48:06.878767 17511 layer_factory.hpp:77] Creating layer relu2_4
I0417 18:48:06.878782 17511 net.cpp:106] Creating Layer relu2_4
I0417 18:48:06.878788 17511 net.cpp:454] relu2_4 <- enet2_4
I0417 18:48:06.878798 17511 net.cpp:397] relu2_4 -> enet2_4 (in-place)
I0417 18:48:06.881649 17511 net.cpp:150] Setting up relu2_4
I0417 18:48:06.881674 17511 net.cpp:157] Top shape: 6 128 64 77 (3784704)
I0417 18:48:06.881687 17511 net.cpp:165] Memory required for data: 2630369328
I0417 18:48:06.881698 17511 layer_factory.hpp:77] Creating layer enet2_4_relu2_4_0_split
I0417 18:48:06.881712 17511 net.cpp:106] Creating Layer enet2_4_relu2_4_0_split
I0417 18:48:06.881721 17511 net.cpp:454] enet2_4_relu2_4_0_split <- enet2_4
I0417 18:48:06.881733 17511 net.cpp:411] enet2_4_relu2_4_0_split -> enet2_4_relu2_4_0_split_0
I0417 18:48:06.881745 17511 net.cpp:411] enet2_4_relu2_4_0_split -> enet2_4_relu2_4_0_split_1
I0417 18:48:06.881829 17511 net.cpp:150] Setting up enet2_4_relu2_4_0_split
I0417 18:48:06.881845 17511 net.cpp:157] Top shape: 6 128 64 77 (3784704)
I0417 18:48:06.881855 17511 net.cpp:157] Top shape: 6 128 64 77 (3784704)
I0417 18:48:06.881860 17511 net.cpp:165] Memory required for data: 2660646960
I0417 18:48:06.881867 17511 layer_factory.hpp:77] Creating layer enet2_5_branch2a
I0417 18:48:06.881881 17511 net.cpp:106] Creating Layer enet2_5_branch2a
I0417 18:48:06.881889 17511 net.cpp:454] enet2_5_branch2a <- enet2_4_relu2_4_0_split_0
I0417 18:48:06.881903 17511 net.cpp:411] enet2_5_branch2a -> enet2_5_branch2a
I0417 18:48:06.885568 17511 net.cpp:150] Setting up enet2_5_branch2a
I0417 18:48:06.885587 17511 net.cpp:157] Top shape: 6 32 64 77 (946176)
I0417 18:48:06.885594 17511 net.cpp:165] Memory required for data: 2664431664
I0417 18:48:06.885604 17511 layer_factory.hpp:77] Creating layer bn2_5_branch2a
I0417 18:48:06.885625 17511 net.cpp:106] Creating Layer bn2_5_branch2a
I0417 18:48:06.885634 17511 net.cpp:454] bn2_5_branch2a <- enet2_5_branch2a
I0417 18:48:06.885645 17511 net.cpp:397] bn2_5_branch2a -> enet2_5_branch2a (in-place)
I0417 18:48:06.886143 17511 net.cpp:150] Setting up bn2_5_branch2a
I0417 18:48:06.886158 17511 net.cpp:157] Top shape: 6 32 64 77 (946176)
I0417 18:48:06.886165 17511 net.cpp:165] Memory required for data: 2668216368
I0417 18:48:06.886175 17511 layer_factory.hpp:77] Creating layer relu2_5_branch2a
I0417 18:48:06.886186 17511 net.cpp:106] Creating Layer relu2_5_branch2a
I0417 18:48:06.886193 17511 net.cpp:454] relu2_5_branch2a <- enet2_5_branch2a
I0417 18:48:06.886203 17511 net.cpp:397] relu2_5_branch2a -> enet2_5_branch2a (in-place)
I0417 18:48:06.887632 17511 net.cpp:150] Setting up relu2_5_branch2a
I0417 18:48:06.887650 17511 net.cpp:157] Top shape: 6 32 64 77 (946176)
I0417 18:48:06.887657 17511 net.cpp:165] Memory required for data: 2672001072
I0417 18:48:06.887667 17511 layer_factory.hpp:77] Creating layer enet2_5_branch2b
I0417 18:48:06.887686 17511 net.cpp:106] Creating Layer enet2_5_branch2b
I0417 18:48:06.887694 17511 net.cpp:454] enet2_5_branch2b <- enet2_5_branch2a
I0417 18:48:06.887711 17511 net.cpp:411] enet2_5_branch2b -> enet2_5_branch2b
I0417 18:48:06.892660 17511 net.cpp:150] Setting up enet2_5_branch2b
I0417 18:48:06.892679 17511 net.cpp:157] Top shape: 6 32 64 77 (946176)
I0417 18:48:06.892688 17511 net.cpp:165] Memory required for data: 2675785776
I0417 18:48:06.892700 17511 layer_factory.hpp:77] Creating layer bn2_5_branch2b
I0417 18:48:06.892719 17511 net.cpp:106] Creating Layer bn2_5_branch2b
I0417 18:48:06.892727 17511 net.cpp:454] bn2_5_branch2b <- enet2_5_branch2b
I0417 18:48:06.892738 17511 net.cpp:397] bn2_5_branch2b -> enet2_5_branch2b (in-place)
I0417 18:48:06.893283 17511 net.cpp:150] Setting up bn2_5_branch2b
I0417 18:48:06.893299 17511 net.cpp:157] Top shape: 6 32 64 77 (946176)
I0417 18:48:06.893306 17511 net.cpp:165] Memory required for data: 2679570480
I0417 18:48:06.893316 17511 layer_factory.hpp:77] Creating layer relu2_5_branch2b
I0417 18:48:06.893327 17511 net.cpp:106] Creating Layer relu2_5_branch2b
I0417 18:48:06.893334 17511 net.cpp:454] relu2_5_branch2b <- enet2_5_branch2b
I0417 18:48:06.893347 17511 net.cpp:397] relu2_5_branch2b -> enet2_5_branch2b (in-place)
I0417 18:48:06.894579 17511 net.cpp:150] Setting up relu2_5_branch2b
I0417 18:48:06.894596 17511 net.cpp:157] Top shape: 6 32 64 77 (946176)
I0417 18:48:06.894603 17511 net.cpp:165] Memory required for data: 2683355184
I0417 18:48:06.894629 17511 layer_factory.hpp:77] Creating layer enet2_5_branch2c
I0417 18:48:06.894657 17511 net.cpp:106] Creating Layer enet2_5_branch2c
I0417 18:48:06.894666 17511 net.cpp:454] enet2_5_branch2c <- enet2_5_branch2b
I0417 18:48:06.894678 17511 net.cpp:411] enet2_5_branch2c -> enet2_5_branch2c
I0417 18:48:06.901440 17511 net.cpp:150] Setting up enet2_5_branch2c
I0417 18:48:06.901459 17511 net.cpp:157] Top shape: 6 128 64 77 (3784704)
I0417 18:48:06.901468 17511 net.cpp:165] Memory required for data: 2698494000
I0417 18:48:06.901477 17511 layer_factory.hpp:77] Creating layer bn2_5_branch2c
I0417 18:48:06.901494 17511 net.cpp:106] Creating Layer bn2_5_branch2c
I0417 18:48:06.901502 17511 net.cpp:454] bn2_5_branch2c <- enet2_5_branch2c
I0417 18:48:06.901513 17511 net.cpp:397] bn2_5_branch2c -> enet2_5_branch2c (in-place)
I0417 18:48:06.902001 17511 net.cpp:150] Setting up bn2_5_branch2c
I0417 18:48:06.902016 17511 net.cpp:157] Top shape: 6 128 64 77 (3784704)
I0417 18:48:06.902022 17511 net.cpp:165] Memory required for data: 2713632816
I0417 18:48:06.902034 17511 layer_factory.hpp:77] Creating layer dropout2_5_branch2c
I0417 18:48:06.902045 17511 net.cpp:106] Creating Layer dropout2_5_branch2c
I0417 18:48:06.902056 17511 net.cpp:454] dropout2_5_branch2c <- enet2_5_branch2c
I0417 18:48:06.902066 17511 net.cpp:397] dropout2_5_branch2c -> enet2_5_branch2c (in-place)
I0417 18:48:06.902127 17511 net.cpp:150] Setting up dropout2_5_branch2c
I0417 18:48:06.902140 17511 net.cpp:157] Top shape: 6 128 64 77 (3784704)
I0417 18:48:06.902148 17511 net.cpp:165] Memory required for data: 2728771632
I0417 18:48:06.902153 17511 layer_factory.hpp:77] Creating layer enet2_5
I0417 18:48:06.902166 17511 net.cpp:106] Creating Layer enet2_5
I0417 18:48:06.902174 17511 net.cpp:454] enet2_5 <- enet2_4_relu2_4_0_split_1
I0417 18:48:06.902182 17511 net.cpp:454] enet2_5 <- enet2_5_branch2c
I0417 18:48:06.902191 17511 net.cpp:411] enet2_5 -> enet2_5
I0417 18:48:06.902251 17511 net.cpp:150] Setting up enet2_5
I0417 18:48:06.902263 17511 net.cpp:157] Top shape: 6 128 64 77 (3784704)
I0417 18:48:06.902271 17511 net.cpp:165] Memory required for data: 2743910448
I0417 18:48:06.902277 17511 layer_factory.hpp:77] Creating layer relu2_5
I0417 18:48:06.902287 17511 net.cpp:106] Creating Layer relu2_5
I0417 18:48:06.902294 17511 net.cpp:454] relu2_5 <- enet2_5
I0417 18:48:06.902307 17511 net.cpp:397] relu2_5 -> enet2_5 (in-place)
I0417 18:48:06.905165 17511 net.cpp:150] Setting up relu2_5
I0417 18:48:06.905184 17511 net.cpp:157] Top shape: 6 128 64 77 (3784704)
I0417 18:48:06.905190 17511 net.cpp:165] Memory required for data: 2759049264
I0417 18:48:06.905200 17511 layer_factory.hpp:77] Creating layer enet2_5_relu2_5_0_split
I0417 18:48:06.905215 17511 net.cpp:106] Creating Layer enet2_5_relu2_5_0_split
I0417 18:48:06.905222 17511 net.cpp:454] enet2_5_relu2_5_0_split <- enet2_5
I0417 18:48:06.905232 17511 net.cpp:411] enet2_5_relu2_5_0_split -> enet2_5_relu2_5_0_split_0
I0417 18:48:06.905244 17511 net.cpp:411] enet2_5_relu2_5_0_split -> enet2_5_relu2_5_0_split_1
I0417 18:48:06.905334 17511 net.cpp:150] Setting up enet2_5_relu2_5_0_split
I0417 18:48:06.905349 17511 net.cpp:157] Top shape: 6 128 64 77 (3784704)
I0417 18:48:06.905356 17511 net.cpp:157] Top shape: 6 128 64 77 (3784704)
I0417 18:48:06.905362 17511 net.cpp:165] Memory required for data: 2789326896
I0417 18:48:06.905369 17511 layer_factory.hpp:77] Creating layer enet2_6_branch2a
I0417 18:48:06.905387 17511 net.cpp:106] Creating Layer enet2_6_branch2a
I0417 18:48:06.905395 17511 net.cpp:454] enet2_6_branch2a <- enet2_5_relu2_5_0_split_0
I0417 18:48:06.905407 17511 net.cpp:411] enet2_6_branch2a -> enet2_6_branch2a
I0417 18:48:06.909155 17511 net.cpp:150] Setting up enet2_6_branch2a
I0417 18:48:06.909173 17511 net.cpp:157] Top shape: 6 32 64 77 (946176)
I0417 18:48:06.909181 17511 net.cpp:165] Memory required for data: 2793111600
I0417 18:48:06.909190 17511 layer_factory.hpp:77] Creating layer bn2_6_branch2a
I0417 18:48:06.909207 17511 net.cpp:106] Creating Layer bn2_6_branch2a
I0417 18:48:06.909225 17511 net.cpp:454] bn2_6_branch2a <- enet2_6_branch2a
I0417 18:48:06.909248 17511 net.cpp:397] bn2_6_branch2a -> enet2_6_branch2a (in-place)
I0417 18:48:06.909759 17511 net.cpp:150] Setting up bn2_6_branch2a
I0417 18:48:06.909775 17511 net.cpp:157] Top shape: 6 32 64 77 (946176)
I0417 18:48:06.909780 17511 net.cpp:165] Memory required for data: 2796896304
I0417 18:48:06.909791 17511 layer_factory.hpp:77] Creating layer relu2_6_branch2a
I0417 18:48:06.909802 17511 net.cpp:106] Creating Layer relu2_6_branch2a
I0417 18:48:06.909809 17511 net.cpp:454] relu2_6_branch2a <- enet2_6_branch2a
I0417 18:48:06.909818 17511 net.cpp:397] relu2_6_branch2a -> enet2_6_branch2a (in-place)
I0417 18:48:06.911065 17511 net.cpp:150] Setting up relu2_6_branch2a
I0417 18:48:06.911082 17511 net.cpp:157] Top shape: 6 32 64 77 (946176)
I0417 18:48:06.911089 17511 net.cpp:165] Memory required for data: 2800681008
I0417 18:48:06.911099 17511 layer_factory.hpp:77] Creating layer enet2_6_branch2b
I0417 18:48:06.911118 17511 net.cpp:106] Creating Layer enet2_6_branch2b
I0417 18:48:06.911126 17511 net.cpp:454] enet2_6_branch2b <- enet2_6_branch2a
I0417 18:48:06.911141 17511 net.cpp:411] enet2_6_branch2b -> enet2_6_branch2b
I0417 18:48:06.911919 17511 net.cpp:150] Setting up enet2_6_branch2b
I0417 18:48:06.911934 17511 net.cpp:157] Top shape: 6 32 64 77 (946176)
I0417 18:48:06.911942 17511 net.cpp:165] Memory required for data: 2804465712
I0417 18:48:06.911952 17511 layer_factory.hpp:77] Creating layer bn2_6_branch2b
I0417 18:48:06.911967 17511 net.cpp:106] Creating Layer bn2_6_branch2b
I0417 18:48:06.911974 17511 net.cpp:454] bn2_6_branch2b <- enet2_6_branch2b
I0417 18:48:06.911984 17511 net.cpp:397] bn2_6_branch2b -> enet2_6_branch2b (in-place)
I0417 18:48:06.912493 17511 net.cpp:150] Setting up bn2_6_branch2b
I0417 18:48:06.912508 17511 net.cpp:157] Top shape: 6 32 64 77 (946176)
I0417 18:48:06.912513 17511 net.cpp:165] Memory required for data: 2808250416
I0417 18:48:06.912524 17511 layer_factory.hpp:77] Creating layer relu2_6_branch2b
I0417 18:48:06.912534 17511 net.cpp:106] Creating Layer relu2_6_branch2b
I0417 18:48:06.912541 17511 net.cpp:454] relu2_6_branch2b <- enet2_6_branch2b
I0417 18:48:06.912554 17511 net.cpp:397] relu2_6_branch2b -> enet2_6_branch2b (in-place)
I0417 18:48:06.914000 17511 net.cpp:150] Setting up relu2_6_branch2b
I0417 18:48:06.914017 17511 net.cpp:157] Top shape: 6 32 64 77 (946176)
I0417 18:48:06.914024 17511 net.cpp:165] Memory required for data: 2812035120
I0417 18:48:06.914033 17511 layer_factory.hpp:77] Creating layer enet2_6_branch2c
I0417 18:48:06.914059 17511 net.cpp:106] Creating Layer enet2_6_branch2c
I0417 18:48:06.914068 17511 net.cpp:454] enet2_6_branch2c <- enet2_6_branch2b
I0417 18:48:06.914080 17511 net.cpp:411] enet2_6_branch2c -> enet2_6_branch2c
I0417 18:48:06.917707 17511 net.cpp:150] Setting up enet2_6_branch2c
I0417 18:48:06.917726 17511 net.cpp:157] Top shape: 6 128 64 77 (3784704)
I0417 18:48:06.917733 17511 net.cpp:165] Memory required for data: 2827173936
I0417 18:48:06.917743 17511 layer_factory.hpp:77] Creating layer bn2_6_branch2c
I0417 18:48:06.917760 17511 net.cpp:106] Creating Layer bn2_6_branch2c
I0417 18:48:06.917768 17511 net.cpp:454] bn2_6_branch2c <- enet2_6_branch2c
I0417 18:48:06.917779 17511 net.cpp:397] bn2_6_branch2c -> enet2_6_branch2c (in-place)
I0417 18:48:06.918288 17511 net.cpp:150] Setting up bn2_6_branch2c
I0417 18:48:06.918303 17511 net.cpp:157] Top shape: 6 128 64 77 (3784704)
I0417 18:48:06.918310 17511 net.cpp:165] Memory required for data: 2842312752
I0417 18:48:06.918321 17511 layer_factory.hpp:77] Creating layer dropout2_6_branch2c
I0417 18:48:06.918332 17511 net.cpp:106] Creating Layer dropout2_6_branch2c
I0417 18:48:06.918339 17511 net.cpp:454] dropout2_6_branch2c <- enet2_6_branch2c
I0417 18:48:06.918349 17511 net.cpp:397] dropout2_6_branch2c -> enet2_6_branch2c (in-place)
I0417 18:48:06.918409 17511 net.cpp:150] Setting up dropout2_6_branch2c
I0417 18:48:06.918422 17511 net.cpp:157] Top shape: 6 128 64 77 (3784704)
I0417 18:48:06.918437 17511 net.cpp:165] Memory required for data: 2857451568
I0417 18:48:06.918452 17511 layer_factory.hpp:77] Creating layer enet2_6
I0417 18:48:06.918464 17511 net.cpp:106] Creating Layer enet2_6
I0417 18:48:06.918474 17511 net.cpp:454] enet2_6 <- enet2_5_relu2_5_0_split_1
I0417 18:48:06.918483 17511 net.cpp:454] enet2_6 <- enet2_6_branch2c
I0417 18:48:06.918493 17511 net.cpp:411] enet2_6 -> enet2_6
I0417 18:48:06.918548 17511 net.cpp:150] Setting up enet2_6
I0417 18:48:06.918562 17511 net.cpp:157] Top shape: 6 128 64 77 (3784704)
I0417 18:48:06.918568 17511 net.cpp:165] Memory required for data: 2872590384
I0417 18:48:06.918575 17511 layer_factory.hpp:77] Creating layer relu2_6
I0417 18:48:06.918587 17511 net.cpp:106] Creating Layer relu2_6
I0417 18:48:06.918594 17511 net.cpp:454] relu2_6 <- enet2_6
I0417 18:48:06.918606 17511 net.cpp:397] relu2_6 -> enet2_6 (in-place)
I0417 18:48:06.921453 17511 net.cpp:150] Setting up relu2_6
I0417 18:48:06.921471 17511 net.cpp:157] Top shape: 6 128 64 77 (3784704)
I0417 18:48:06.921478 17511 net.cpp:165] Memory required for data: 2887729200
I0417 18:48:06.921489 17511 layer_factory.hpp:77] Creating layer enet2_6_relu2_6_0_split
I0417 18:48:06.921499 17511 net.cpp:106] Creating Layer enet2_6_relu2_6_0_split
I0417 18:48:06.921509 17511 net.cpp:454] enet2_6_relu2_6_0_split <- enet2_6
I0417 18:48:06.921519 17511 net.cpp:411] enet2_6_relu2_6_0_split -> enet2_6_relu2_6_0_split_0
I0417 18:48:06.921532 17511 net.cpp:411] enet2_6_relu2_6_0_split -> enet2_6_relu2_6_0_split_1
I0417 18:48:06.921622 17511 net.cpp:150] Setting up enet2_6_relu2_6_0_split
I0417 18:48:06.921636 17511 net.cpp:157] Top shape: 6 128 64 77 (3784704)
I0417 18:48:06.921644 17511 net.cpp:157] Top shape: 6 128 64 77 (3784704)
I0417 18:48:06.921650 17511 net.cpp:165] Memory required for data: 2918006832
I0417 18:48:06.921658 17511 layer_factory.hpp:77] Creating layer enet2_7_branch2a
I0417 18:48:06.921674 17511 net.cpp:106] Creating Layer enet2_7_branch2a
I0417 18:48:06.921682 17511 net.cpp:454] enet2_7_branch2a <- enet2_6_relu2_6_0_split_0
I0417 18:48:06.921694 17511 net.cpp:411] enet2_7_branch2a -> enet2_7_branch2a
I0417 18:48:06.925508 17511 net.cpp:150] Setting up enet2_7_branch2a
I0417 18:48:06.925525 17511 net.cpp:157] Top shape: 6 32 64 77 (946176)
I0417 18:48:06.925534 17511 net.cpp:165] Memory required for data: 2921791536
I0417 18:48:06.925542 17511 layer_factory.hpp:77] Creating layer bn2_7_branch2a
I0417 18:48:06.925559 17511 net.cpp:106] Creating Layer bn2_7_branch2a
I0417 18:48:06.925567 17511 net.cpp:454] bn2_7_branch2a <- enet2_7_branch2a
I0417 18:48:06.925580 17511 net.cpp:397] bn2_7_branch2a -> enet2_7_branch2a (in-place)
I0417 18:48:06.926120 17511 net.cpp:150] Setting up bn2_7_branch2a
I0417 18:48:06.926134 17511 net.cpp:157] Top shape: 6 32 64 77 (946176)
I0417 18:48:06.926141 17511 net.cpp:165] Memory required for data: 2925576240
I0417 18:48:06.926151 17511 layer_factory.hpp:77] Creating layer relu2_7_branch2a
I0417 18:48:06.926162 17511 net.cpp:106] Creating Layer relu2_7_branch2a
I0417 18:48:06.926169 17511 net.cpp:454] relu2_7_branch2a <- enet2_7_branch2a
I0417 18:48:06.926178 17511 net.cpp:397] relu2_7_branch2a -> enet2_7_branch2a (in-place)
I0417 18:48:06.927433 17511 net.cpp:150] Setting up relu2_7_branch2a
I0417 18:48:06.927449 17511 net.cpp:157] Top shape: 6 32 64 77 (946176)
I0417 18:48:06.927456 17511 net.cpp:165] Memory required for data: 2929360944
I0417 18:48:06.927465 17511 layer_factory.hpp:77] Creating layer enet2_7_branch2b1
I0417 18:48:06.927484 17511 net.cpp:106] Creating Layer enet2_7_branch2b1
I0417 18:48:06.927492 17511 net.cpp:454] enet2_7_branch2b1 <- enet2_7_branch2a
I0417 18:48:06.927506 17511 net.cpp:411] enet2_7_branch2b1 -> enet2_7_branch2b1
I0417 18:48:06.931318 17511 net.cpp:150] Setting up enet2_7_branch2b1
I0417 18:48:06.931336 17511 net.cpp:157] Top shape: 6 32 64 77 (946176)
I0417 18:48:06.931344 17511 net.cpp:165] Memory required for data: 2933145648
I0417 18:48:06.931354 17511 layer_factory.hpp:77] Creating layer enet2_7_branch2b
I0417 18:48:06.931376 17511 net.cpp:106] Creating Layer enet2_7_branch2b
I0417 18:48:06.931401 17511 net.cpp:454] enet2_7_branch2b <- enet2_7_branch2b1
I0417 18:48:06.931417 17511 net.cpp:411] enet2_7_branch2b -> enet2_7_branch2b
I0417 18:48:06.935261 17511 net.cpp:150] Setting up enet2_7_branch2b
I0417 18:48:06.935279 17511 net.cpp:157] Top shape: 6 32 64 77 (946176)
I0417 18:48:06.935286 17511 net.cpp:165] Memory required for data: 2936930352
I0417 18:48:06.935298 17511 layer_factory.hpp:77] Creating layer bn2_7_branch2b
I0417 18:48:06.935315 17511 net.cpp:106] Creating Layer bn2_7_branch2b
I0417 18:48:06.935323 17511 net.cpp:454] bn2_7_branch2b <- enet2_7_branch2b
I0417 18:48:06.935338 17511 net.cpp:397] bn2_7_branch2b -> enet2_7_branch2b (in-place)
I0417 18:48:06.935887 17511 net.cpp:150] Setting up bn2_7_branch2b
I0417 18:48:06.935901 17511 net.cpp:157] Top shape: 6 32 64 77 (946176)
I0417 18:48:06.935909 17511 net.cpp:165] Memory required for data: 2940715056
I0417 18:48:06.935920 17511 layer_factory.hpp:77] Creating layer relu2_7_branch2b
I0417 18:48:06.935930 17511 net.cpp:106] Creating Layer relu2_7_branch2b
I0417 18:48:06.935937 17511 net.cpp:454] relu2_7_branch2b <- enet2_7_branch2b
I0417 18:48:06.935947 17511 net.cpp:397] relu2_7_branch2b -> enet2_7_branch2b (in-place)
I0417 18:48:06.937191 17511 net.cpp:150] Setting up relu2_7_branch2b
I0417 18:48:06.937208 17511 net.cpp:157] Top shape: 6 32 64 77 (946176)
I0417 18:48:06.937216 17511 net.cpp:165] Memory required for data: 2944499760
I0417 18:48:06.937224 17511 layer_factory.hpp:77] Creating layer enet2_7_branch2c
I0417 18:48:06.937242 17511 net.cpp:106] Creating Layer enet2_7_branch2c
I0417 18:48:06.937252 17511 net.cpp:454] enet2_7_branch2c <- enet2_7_branch2b
I0417 18:48:06.937265 17511 net.cpp:411] enet2_7_branch2c -> enet2_7_branch2c
I0417 18:48:06.941493 17511 net.cpp:150] Setting up enet2_7_branch2c
I0417 18:48:06.941511 17511 net.cpp:157] Top shape: 6 128 64 77 (3784704)
I0417 18:48:06.941519 17511 net.cpp:165] Memory required for data: 2959638576
I0417 18:48:06.941529 17511 layer_factory.hpp:77] Creating layer bn2_7_branch2c
I0417 18:48:06.941545 17511 net.cpp:106] Creating Layer bn2_7_branch2c
I0417 18:48:06.941552 17511 net.cpp:454] bn2_7_branch2c <- enet2_7_branch2c
I0417 18:48:06.941565 17511 net.cpp:397] bn2_7_branch2c -> enet2_7_branch2c (in-place)
I0417 18:48:06.942111 17511 net.cpp:150] Setting up bn2_7_branch2c
I0417 18:48:06.942126 17511 net.cpp:157] Top shape: 6 128 64 77 (3784704)
I0417 18:48:06.942132 17511 net.cpp:165] Memory required for data: 2974777392
I0417 18:48:06.942143 17511 layer_factory.hpp:77] Creating layer dropout2_7_branch2c
I0417 18:48:06.942155 17511 net.cpp:106] Creating Layer dropout2_7_branch2c
I0417 18:48:06.942162 17511 net.cpp:454] dropout2_7_branch2c <- enet2_7_branch2c
I0417 18:48:06.942172 17511 net.cpp:397] dropout2_7_branch2c -> enet2_7_branch2c (in-place)
I0417 18:48:06.942230 17511 net.cpp:150] Setting up dropout2_7_branch2c
I0417 18:48:06.942243 17511 net.cpp:157] Top shape: 6 128 64 77 (3784704)
I0417 18:48:06.942250 17511 net.cpp:165] Memory required for data: 2989916208
I0417 18:48:06.942257 17511 layer_factory.hpp:77] Creating layer enet2_7
I0417 18:48:06.942271 17511 net.cpp:106] Creating Layer enet2_7
I0417 18:48:06.942279 17511 net.cpp:454] enet2_7 <- enet2_6_relu2_6_0_split_1
I0417 18:48:06.942288 17511 net.cpp:454] enet2_7 <- enet2_7_branch2c
I0417 18:48:06.942301 17511 net.cpp:411] enet2_7 -> enet2_7
I0417 18:48:06.942358 17511 net.cpp:150] Setting up enet2_7
I0417 18:48:06.942371 17511 net.cpp:157] Top shape: 6 128 64 77 (3784704)
I0417 18:48:06.942378 17511 net.cpp:165] Memory required for data: 3005055024
I0417 18:48:06.942384 17511 layer_factory.hpp:77] Creating layer relu2_7
I0417 18:48:06.942400 17511 net.cpp:106] Creating Layer relu2_7
I0417 18:48:06.942409 17511 net.cpp:454] relu2_7 <- enet2_7
I0417 18:48:06.942417 17511 net.cpp:397] relu2_7 -> enet2_7 (in-place)
I0417 18:48:06.945307 17511 net.cpp:150] Setting up relu2_7
I0417 18:48:06.945324 17511 net.cpp:157] Top shape: 6 128 64 77 (3784704)
I0417 18:48:06.945339 17511 net.cpp:165] Memory required for data: 3020193840
I0417 18:48:06.945358 17511 layer_factory.hpp:77] Creating layer enet2_7_relu2_7_0_split
I0417 18:48:06.945374 17511 net.cpp:106] Creating Layer enet2_7_relu2_7_0_split
I0417 18:48:06.945381 17511 net.cpp:454] enet2_7_relu2_7_0_split <- enet2_7
I0417 18:48:06.945394 17511 net.cpp:411] enet2_7_relu2_7_0_split -> enet2_7_relu2_7_0_split_0
I0417 18:48:06.945407 17511 net.cpp:411] enet2_7_relu2_7_0_split -> enet2_7_relu2_7_0_split_1
I0417 18:48:06.945502 17511 net.cpp:150] Setting up enet2_7_relu2_7_0_split
I0417 18:48:06.945516 17511 net.cpp:157] Top shape: 6 128 64 77 (3784704)
I0417 18:48:06.945528 17511 net.cpp:157] Top shape: 6 128 64 77 (3784704)
I0417 18:48:06.945534 17511 net.cpp:165] Memory required for data: 3050471472
I0417 18:48:06.945540 17511 layer_factory.hpp:77] Creating layer enet2_8_branch2a
I0417 18:48:06.945555 17511 net.cpp:106] Creating Layer enet2_8_branch2a
I0417 18:48:06.945562 17511 net.cpp:454] enet2_8_branch2a <- enet2_7_relu2_7_0_split_0
I0417 18:48:06.945577 17511 net.cpp:411] enet2_8_branch2a -> enet2_8_branch2a
I0417 18:48:06.949326 17511 net.cpp:150] Setting up enet2_8_branch2a
I0417 18:48:06.949344 17511 net.cpp:157] Top shape: 6 32 64 77 (946176)
I0417 18:48:06.949352 17511 net.cpp:165] Memory required for data: 3054256176
I0417 18:48:06.949362 17511 layer_factory.hpp:77] Creating layer bn2_8_branch2a
I0417 18:48:06.949379 17511 net.cpp:106] Creating Layer bn2_8_branch2a
I0417 18:48:06.949388 17511 net.cpp:454] bn2_8_branch2a <- enet2_8_branch2a
I0417 18:48:06.949400 17511 net.cpp:397] bn2_8_branch2a -> enet2_8_branch2a (in-place)
I0417 18:48:06.949959 17511 net.cpp:150] Setting up bn2_8_branch2a
I0417 18:48:06.949975 17511 net.cpp:157] Top shape: 6 32 64 77 (946176)
I0417 18:48:06.949981 17511 net.cpp:165] Memory required for data: 3058040880
I0417 18:48:06.949991 17511 layer_factory.hpp:77] Creating layer relu2_8_branch2a
I0417 18:48:06.950006 17511 net.cpp:106] Creating Layer relu2_8_branch2a
I0417 18:48:06.950012 17511 net.cpp:454] relu2_8_branch2a <- enet2_8_branch2a
I0417 18:48:06.950022 17511 net.cpp:397] relu2_8_branch2a -> enet2_8_branch2a (in-place)
I0417 18:48:06.951293 17511 net.cpp:150] Setting up relu2_8_branch2a
I0417 18:48:06.951311 17511 net.cpp:157] Top shape: 6 32 64 77 (946176)
I0417 18:48:06.951318 17511 net.cpp:165] Memory required for data: 3061825584
I0417 18:48:06.951328 17511 layer_factory.hpp:77] Creating layer enet2_8_branch2b
I0417 18:48:06.951346 17511 net.cpp:106] Creating Layer enet2_8_branch2b
I0417 18:48:06.951355 17511 net.cpp:454] enet2_8_branch2b <- enet2_8_branch2a
I0417 18:48:06.951370 17511 net.cpp:411] enet2_8_branch2b -> enet2_8_branch2b
I0417 18:48:06.952235 17511 net.cpp:150] Setting up enet2_8_branch2b
I0417 18:48:06.952251 17511 net.cpp:157] Top shape: 6 32 64 77 (946176)
I0417 18:48:06.952257 17511 net.cpp:165] Memory required for data: 3065610288
I0417 18:48:06.952268 17511 layer_factory.hpp:77] Creating layer bn2_8_branch2b
I0417 18:48:06.952280 17511 net.cpp:106] Creating Layer bn2_8_branch2b
I0417 18:48:06.952288 17511 net.cpp:454] bn2_8_branch2b <- enet2_8_branch2b
I0417 18:48:06.952302 17511 net.cpp:397] bn2_8_branch2b -> enet2_8_branch2b (in-place)
I0417 18:48:06.952863 17511 net.cpp:150] Setting up bn2_8_branch2b
I0417 18:48:06.952878 17511 net.cpp:157] Top shape: 6 32 64 77 (946176)
I0417 18:48:06.952884 17511 net.cpp:165] Memory required for data: 3069394992
I0417 18:48:06.952895 17511 layer_factory.hpp:77] Creating layer relu2_8_branch2b
I0417 18:48:06.952906 17511 net.cpp:106] Creating Layer relu2_8_branch2b
I0417 18:48:06.952913 17511 net.cpp:454] relu2_8_branch2b <- enet2_8_branch2b
I0417 18:48:06.952922 17511 net.cpp:397] relu2_8_branch2b -> enet2_8_branch2b (in-place)
I0417 18:48:06.954396 17511 net.cpp:150] Setting up relu2_8_branch2b
I0417 18:48:06.954416 17511 net.cpp:157] Top shape: 6 32 64 77 (946176)
I0417 18:48:06.954423 17511 net.cpp:165] Memory required for data: 3073179696
I0417 18:48:06.954432 17511 layer_factory.hpp:77] Creating layer enet2_8_branch2c
I0417 18:48:06.954458 17511 net.cpp:106] Creating Layer enet2_8_branch2c
I0417 18:48:06.954475 17511 net.cpp:454] enet2_8_branch2c <- enet2_8_branch2b
I0417 18:48:06.954488 17511 net.cpp:411] enet2_8_branch2c -> enet2_8_branch2c
I0417 18:48:06.958600 17511 net.cpp:150] Setting up enet2_8_branch2c
I0417 18:48:06.958621 17511 net.cpp:157] Top shape: 6 128 64 77 (3784704)
I0417 18:48:06.958631 17511 net.cpp:165] Memory required for data: 3088318512
I0417 18:48:06.958640 17511 layer_factory.hpp:77] Creating layer bn2_8_branch2c
I0417 18:48:06.958653 17511 net.cpp:106] Creating Layer bn2_8_branch2c
I0417 18:48:06.958662 17511 net.cpp:454] bn2_8_branch2c <- enet2_8_branch2c
I0417 18:48:06.958674 17511 net.cpp:397] bn2_8_branch2c -> enet2_8_branch2c (in-place)
I0417 18:48:06.959241 17511 net.cpp:150] Setting up bn2_8_branch2c
I0417 18:48:06.959256 17511 net.cpp:157] Top shape: 6 128 64 77 (3784704)
I0417 18:48:06.959262 17511 net.cpp:165] Memory required for data: 3103457328
I0417 18:48:06.959273 17511 layer_factory.hpp:77] Creating layer dropout2_8_branch2c
I0417 18:48:06.959285 17511 net.cpp:106] Creating Layer dropout2_8_branch2c
I0417 18:48:06.959291 17511 net.cpp:454] dropout2_8_branch2c <- enet2_8_branch2c
I0417 18:48:06.959305 17511 net.cpp:397] dropout2_8_branch2c -> enet2_8_branch2c (in-place)
I0417 18:48:06.959364 17511 net.cpp:150] Setting up dropout2_8_branch2c
I0417 18:48:06.959378 17511 net.cpp:157] Top shape: 6 128 64 77 (3784704)
I0417 18:48:06.959384 17511 net.cpp:165] Memory required for data: 3118596144
I0417 18:48:06.959391 17511 layer_factory.hpp:77] Creating layer enet2_8
I0417 18:48:06.959401 17511 net.cpp:106] Creating Layer enet2_8
I0417 18:48:06.959408 17511 net.cpp:454] enet2_8 <- enet2_7_relu2_7_0_split_1
I0417 18:48:06.959417 17511 net.cpp:454] enet2_8 <- enet2_8_branch2c
I0417 18:48:06.959426 17511 net.cpp:411] enet2_8 -> enet2_8
I0417 18:48:06.959491 17511 net.cpp:150] Setting up enet2_8
I0417 18:48:06.959504 17511 net.cpp:157] Top shape: 6 128 64 77 (3784704)
I0417 18:48:06.959511 17511 net.cpp:165] Memory required for data: 3133734960
I0417 18:48:06.959518 17511 layer_factory.hpp:77] Creating layer relu2_8
I0417 18:48:06.959532 17511 net.cpp:106] Creating Layer relu2_8
I0417 18:48:06.959538 17511 net.cpp:454] relu2_8 <- enet2_8
I0417 18:48:06.959547 17511 net.cpp:397] relu2_8 -> enet2_8 (in-place)
I0417 18:48:06.962826 17511 net.cpp:150] Setting up relu2_8
I0417 18:48:06.962844 17511 net.cpp:157] Top shape: 6 128 64 77 (3784704)
I0417 18:48:06.962852 17511 net.cpp:165] Memory required for data: 3148873776
I0417 18:48:06.962862 17511 layer_factory.hpp:77] Creating layer enet2_8_relu2_8_0_split
I0417 18:48:06.962872 17511 net.cpp:106] Creating Layer enet2_8_relu2_8_0_split
I0417 18:48:06.962879 17511 net.cpp:454] enet2_8_relu2_8_0_split <- enet2_8
I0417 18:48:06.962889 17511 net.cpp:411] enet2_8_relu2_8_0_split -> enet2_8_relu2_8_0_split_0
I0417 18:48:06.962904 17511 net.cpp:411] enet2_8_relu2_8_0_split -> enet2_8_relu2_8_0_split_1
I0417 18:48:06.963008 17511 net.cpp:150] Setting up enet2_8_relu2_8_0_split
I0417 18:48:06.963022 17511 net.cpp:157] Top shape: 6 128 64 77 (3784704)
I0417 18:48:06.963030 17511 net.cpp:157] Top shape: 6 128 64 77 (3784704)
I0417 18:48:06.963037 17511 net.cpp:165] Memory required for data: 3179151408
I0417 18:48:06.963043 17511 layer_factory.hpp:77] Creating layer enet3_1_branch2a
I0417 18:48:06.963063 17511 net.cpp:106] Creating Layer enet3_1_branch2a
I0417 18:48:06.963073 17511 net.cpp:454] enet3_1_branch2a <- enet2_8_relu2_8_0_split_0
I0417 18:48:06.963084 17511 net.cpp:411] enet3_1_branch2a -> enet3_1_branch2a
I0417 18:48:06.967661 17511 net.cpp:150] Setting up enet3_1_branch2a
I0417 18:48:06.967680 17511 net.cpp:157] Top shape: 6 32 64 77 (946176)
I0417 18:48:06.967687 17511 net.cpp:165] Memory required for data: 3182936112
I0417 18:48:06.967697 17511 layer_factory.hpp:77] Creating layer bn3_1_branch2a
I0417 18:48:06.967715 17511 net.cpp:106] Creating Layer bn3_1_branch2a
I0417 18:48:06.967723 17511 net.cpp:454] bn3_1_branch2a <- enet3_1_branch2a
I0417 18:48:06.967734 17511 net.cpp:397] bn3_1_branch2a -> enet3_1_branch2a (in-place)
I0417 18:48:06.968344 17511 net.cpp:150] Setting up bn3_1_branch2a
I0417 18:48:06.968359 17511 net.cpp:157] Top shape: 6 32 64 77 (946176)
I0417 18:48:06.968366 17511 net.cpp:165] Memory required for data: 3186720816
I0417 18:48:06.968376 17511 layer_factory.hpp:77] Creating layer relu3_1_branch2a
I0417 18:48:06.968387 17511 net.cpp:106] Creating Layer relu3_1_branch2a
I0417 18:48:06.968394 17511 net.cpp:454] relu3_1_branch2a <- enet3_1_branch2a
I0417 18:48:06.968407 17511 net.cpp:397] relu3_1_branch2a -> enet3_1_branch2a (in-place)
I0417 18:48:06.969681 17511 net.cpp:150] Setting up relu3_1_branch2a
I0417 18:48:06.969699 17511 net.cpp:157] Top shape: 6 32 64 77 (946176)
I0417 18:48:06.969707 17511 net.cpp:165] Memory required for data: 3190505520
I0417 18:48:06.969717 17511 layer_factory.hpp:77] Creating layer enet3_1_branch2b
I0417 18:48:06.969738 17511 net.cpp:106] Creating Layer enet3_1_branch2b
I0417 18:48:06.969746 17511 net.cpp:454] enet3_1_branch2b <- enet3_1_branch2a
I0417 18:48:06.969758 17511 net.cpp:411] enet3_1_branch2b -> enet3_1_branch2b
I0417 18:48:06.973811 17511 net.cpp:150] Setting up enet3_1_branch2b
I0417 18:48:06.973830 17511 net.cpp:157] Top shape: 6 32 64 77 (946176)
I0417 18:48:06.973839 17511 net.cpp:165] Memory required for data: 3194290224
I0417 18:48:06.973850 17511 layer_factory.hpp:77] Creating layer bn3_1_branch2b
I0417 18:48:06.973866 17511 net.cpp:106] Creating Layer bn3_1_branch2b
I0417 18:48:06.973875 17511 net.cpp:454] bn3_1_branch2b <- enet3_1_branch2b
I0417 18:48:06.973888 17511 net.cpp:397] bn3_1_branch2b -> enet3_1_branch2b (in-place)
I0417 18:48:06.974504 17511 net.cpp:150] Setting up bn3_1_branch2b
I0417 18:48:06.974519 17511 net.cpp:157] Top shape: 6 32 64 77 (946176)
I0417 18:48:06.974526 17511 net.cpp:165] Memory required for data: 3198074928
I0417 18:48:06.974537 17511 layer_factory.hpp:77] Creating layer relu3_1_branch2b
I0417 18:48:06.974548 17511 net.cpp:106] Creating Layer relu3_1_branch2b
I0417 18:48:06.974555 17511 net.cpp:454] relu3_1_branch2b <- enet3_1_branch2b
I0417 18:48:06.974565 17511 net.cpp:397] relu3_1_branch2b -> enet3_1_branch2b (in-place)
I0417 18:48:06.976039 17511 net.cpp:150] Setting up relu3_1_branch2b
I0417 18:48:06.976060 17511 net.cpp:157] Top shape: 6 32 64 77 (946176)
I0417 18:48:06.976068 17511 net.cpp:165] Memory required for data: 3201859632
I0417 18:48:06.976076 17511 layer_factory.hpp:77] Creating layer enet3_1_branch2c
I0417 18:48:06.976095 17511 net.cpp:106] Creating Layer enet3_1_branch2c
I0417 18:48:06.976104 17511 net.cpp:454] enet3_1_branch2c <- enet3_1_branch2b
I0417 18:48:06.976119 17511 net.cpp:411] enet3_1_branch2c -> enet3_1_branch2c
I0417 18:48:06.980010 17511 net.cpp:150] Setting up enet3_1_branch2c
I0417 18:48:06.980027 17511 net.cpp:157] Top shape: 6 128 64 77 (3784704)
I0417 18:48:06.980036 17511 net.cpp:165] Memory required for data: 3216998448
I0417 18:48:06.980046 17511 layer_factory.hpp:77] Creating layer bn3_1_branch2c
I0417 18:48:06.980065 17511 net.cpp:106] Creating Layer bn3_1_branch2c
I0417 18:48:06.980073 17511 net.cpp:454] bn3_1_branch2c <- enet3_1_branch2c
I0417 18:48:06.980087 17511 net.cpp:397] bn3_1_branch2c -> enet3_1_branch2c (in-place)
I0417 18:48:06.980939 17511 net.cpp:150] Setting up bn3_1_branch2c
I0417 18:48:06.980954 17511 net.cpp:157] Top shape: 6 128 64 77 (3784704)
I0417 18:48:06.980963 17511 net.cpp:165] Memory required for data: 3232137264
I0417 18:48:06.980975 17511 layer_factory.hpp:77] Creating layer dropout3_1_branch2c
I0417 18:48:06.980986 17511 net.cpp:106] Creating Layer dropout3_1_branch2c
I0417 18:48:06.980993 17511 net.cpp:454] dropout3_1_branch2c <- enet3_1_branch2c
I0417 18:48:06.981003 17511 net.cpp:397] dropout3_1_branch2c -> enet3_1_branch2c (in-place)
I0417 18:48:06.981070 17511 net.cpp:150] Setting up dropout3_1_branch2c
I0417 18:48:06.981084 17511 net.cpp:157] Top shape: 6 128 64 77 (3784704)
I0417 18:48:06.981091 17511 net.cpp:165] Memory required for data: 3247276080
I0417 18:48:06.981097 17511 layer_factory.hpp:77] Creating layer enet3_1
I0417 18:48:06.981120 17511 net.cpp:106] Creating Layer enet3_1
I0417 18:48:06.981137 17511 net.cpp:454] enet3_1 <- enet2_8_relu2_8_0_split_1
I0417 18:48:06.981147 17511 net.cpp:454] enet3_1 <- enet3_1_branch2c
I0417 18:48:06.981159 17511 net.cpp:411] enet3_1 -> enet3_1
I0417 18:48:06.981221 17511 net.cpp:150] Setting up enet3_1
I0417 18:48:06.981235 17511 net.cpp:157] Top shape: 6 128 64 77 (3784704)
I0417 18:48:06.981241 17511 net.cpp:165] Memory required for data: 3262414896
I0417 18:48:06.981247 17511 layer_factory.hpp:77] Creating layer relu3_1
I0417 18:48:06.981261 17511 net.cpp:106] Creating Layer relu3_1
I0417 18:48:06.981269 17511 net.cpp:454] relu3_1 <- enet3_1
I0417 18:48:06.981278 17511 net.cpp:397] relu3_1 -> enet3_1 (in-place)
I0417 18:48:06.984185 17511 net.cpp:150] Setting up relu3_1
I0417 18:48:06.984203 17511 net.cpp:157] Top shape: 6 128 64 77 (3784704)
I0417 18:48:06.984210 17511 net.cpp:165] Memory required for data: 3277553712
I0417 18:48:06.984220 17511 layer_factory.hpp:77] Creating layer enet3_1_relu3_1_0_split
I0417 18:48:06.984235 17511 net.cpp:106] Creating Layer enet3_1_relu3_1_0_split
I0417 18:48:06.984242 17511 net.cpp:454] enet3_1_relu3_1_0_split <- enet3_1
I0417 18:48:06.984256 17511 net.cpp:411] enet3_1_relu3_1_0_split -> enet3_1_relu3_1_0_split_0
I0417 18:48:06.984268 17511 net.cpp:411] enet3_1_relu3_1_0_split -> enet3_1_relu3_1_0_split_1
I0417 18:48:06.984369 17511 net.cpp:150] Setting up enet3_1_relu3_1_0_split
I0417 18:48:06.984383 17511 net.cpp:157] Top shape: 6 128 64 77 (3784704)
I0417 18:48:06.984391 17511 net.cpp:157] Top shape: 6 128 64 77 (3784704)
I0417 18:48:06.984397 17511 net.cpp:165] Memory required for data: 3307831344
I0417 18:48:06.984405 17511 layer_factory.hpp:77] Creating layer enet3_2_branch2a
I0417 18:48:06.984421 17511 net.cpp:106] Creating Layer enet3_2_branch2a
I0417 18:48:06.984431 17511 net.cpp:454] enet3_2_branch2a <- enet3_1_relu3_1_0_split_0
I0417 18:48:06.984444 17511 net.cpp:411] enet3_2_branch2a -> enet3_2_branch2a
I0417 18:48:06.988224 17511 net.cpp:150] Setting up enet3_2_branch2a
I0417 18:48:06.988246 17511 net.cpp:157] Top shape: 6 32 64 77 (946176)
I0417 18:48:06.988255 17511 net.cpp:165] Memory required for data: 3311616048
I0417 18:48:06.988265 17511 layer_factory.hpp:77] Creating layer bn3_2_branch2a
I0417 18:48:06.988277 17511 net.cpp:106] Creating Layer bn3_2_branch2a
I0417 18:48:06.988286 17511 net.cpp:454] bn3_2_branch2a <- enet3_2_branch2a
I0417 18:48:06.988301 17511 net.cpp:397] bn3_2_branch2a -> enet3_2_branch2a (in-place)
I0417 18:48:06.988911 17511 net.cpp:150] Setting up bn3_2_branch2a
I0417 18:48:06.988926 17511 net.cpp:157] Top shape: 6 32 64 77 (946176)
I0417 18:48:06.988932 17511 net.cpp:165] Memory required for data: 3315400752
I0417 18:48:06.988943 17511 layer_factory.hpp:77] Creating layer relu3_2_branch2a
I0417 18:48:06.988957 17511 net.cpp:106] Creating Layer relu3_2_branch2a
I0417 18:48:06.988965 17511 net.cpp:454] relu3_2_branch2a <- enet3_2_branch2a
I0417 18:48:06.988975 17511 net.cpp:397] relu3_2_branch2a -> enet3_2_branch2a (in-place)
I0417 18:48:06.990253 17511 net.cpp:150] Setting up relu3_2_branch2a
I0417 18:48:06.990270 17511 net.cpp:157] Top shape: 6 32 64 77 (946176)
I0417 18:48:06.990278 17511 net.cpp:165] Memory required for data: 3319185456
I0417 18:48:06.990288 17511 layer_factory.hpp:77] Creating layer enet3_2_branch2b
I0417 18:48:06.990306 17511 net.cpp:106] Creating Layer enet3_2_branch2b
I0417 18:48:06.990314 17511 net.cpp:454] enet3_2_branch2b <- enet3_2_branch2a
I0417 18:48:06.990329 17511 net.cpp:411] enet3_2_branch2b -> enet3_2_branch2b
I0417 18:48:06.991238 17511 net.cpp:150] Setting up enet3_2_branch2b
I0417 18:48:06.991255 17511 net.cpp:157] Top shape: 6 32 64 77 (946176)
I0417 18:48:06.991261 17511 net.cpp:165] Memory required for data: 3322970160
I0417 18:48:06.991271 17511 layer_factory.hpp:77] Creating layer bn3_2_branch2b
I0417 18:48:06.991287 17511 net.cpp:106] Creating Layer bn3_2_branch2b
I0417 18:48:06.991295 17511 net.cpp:454] bn3_2_branch2b <- enet3_2_branch2b
I0417 18:48:06.991317 17511 net.cpp:397] bn3_2_branch2b -> enet3_2_branch2b (in-place)
I0417 18:48:06.991938 17511 net.cpp:150] Setting up bn3_2_branch2b
I0417 18:48:06.991953 17511 net.cpp:157] Top shape: 6 32 64 77 (946176)
I0417 18:48:06.991961 17511 net.cpp:165] Memory required for data: 3326754864
I0417 18:48:06.991971 17511 layer_factory.hpp:77] Creating layer relu3_2_branch2b
I0417 18:48:06.991981 17511 net.cpp:106] Creating Layer relu3_2_branch2b
I0417 18:48:06.991988 17511 net.cpp:454] relu3_2_branch2b <- enet3_2_branch2b
I0417 18:48:06.991997 17511 net.cpp:397] relu3_2_branch2b -> enet3_2_branch2b (in-place)
I0417 18:48:06.993286 17511 net.cpp:150] Setting up relu3_2_branch2b
I0417 18:48:06.993304 17511 net.cpp:157] Top shape: 6 32 64 77 (946176)
I0417 18:48:06.993311 17511 net.cpp:165] Memory required for data: 3330539568
I0417 18:48:06.993320 17511 layer_factory.hpp:77] Creating layer enet3_2_branch2c
I0417 18:48:06.993340 17511 net.cpp:106] Creating Layer enet3_2_branch2c
I0417 18:48:06.993348 17511 net.cpp:454] enet3_2_branch2c <- enet3_2_branch2b
I0417 18:48:06.993362 17511 net.cpp:411] enet3_2_branch2c -> enet3_2_branch2c
I0417 18:48:06.997383 17511 net.cpp:150] Setting up enet3_2_branch2c
I0417 18:48:06.997402 17511 net.cpp:157] Top shape: 6 128 64 77 (3784704)
I0417 18:48:06.997411 17511 net.cpp:165] Memory required for data: 3345678384
I0417 18:48:06.997421 17511 layer_factory.hpp:77] Creating layer bn3_2_branch2c
I0417 18:48:06.997437 17511 net.cpp:106] Creating Layer bn3_2_branch2c
I0417 18:48:06.997444 17511 net.cpp:454] bn3_2_branch2c <- enet3_2_branch2c
I0417 18:48:06.997454 17511 net.cpp:397] bn3_2_branch2c -> enet3_2_branch2c (in-place)
I0417 18:48:06.998059 17511 net.cpp:150] Setting up bn3_2_branch2c
I0417 18:48:06.998075 17511 net.cpp:157] Top shape: 6 128 64 77 (3784704)
I0417 18:48:06.998081 17511 net.cpp:165] Memory required for data: 3360817200
I0417 18:48:06.998092 17511 layer_factory.hpp:77] Creating layer dropout3_2_branch2c
I0417 18:48:06.998103 17511 net.cpp:106] Creating Layer dropout3_2_branch2c
I0417 18:48:06.998111 17511 net.cpp:454] dropout3_2_branch2c <- enet3_2_branch2c
I0417 18:48:06.998121 17511 net.cpp:397] dropout3_2_branch2c -> enet3_2_branch2c (in-place)
I0417 18:48:06.998185 17511 net.cpp:150] Setting up dropout3_2_branch2c
I0417 18:48:06.998199 17511 net.cpp:157] Top shape: 6 128 64 77 (3784704)
I0417 18:48:06.998206 17511 net.cpp:165] Memory required for data: 3375956016
I0417 18:48:06.998212 17511 layer_factory.hpp:77] Creating layer enet3_2
I0417 18:48:06.998224 17511 net.cpp:106] Creating Layer enet3_2
I0417 18:48:06.998230 17511 net.cpp:454] enet3_2 <- enet3_1_relu3_1_0_split_1
I0417 18:48:06.998241 17511 net.cpp:454] enet3_2 <- enet3_2_branch2c
I0417 18:48:06.998251 17511 net.cpp:411] enet3_2 -> enet3_2
I0417 18:48:06.998313 17511 net.cpp:150] Setting up enet3_2
I0417 18:48:06.998327 17511 net.cpp:157] Top shape: 6 128 64 77 (3784704)
I0417 18:48:06.998333 17511 net.cpp:165] Memory required for data: 3391094832
I0417 18:48:06.998339 17511 layer_factory.hpp:77] Creating layer relu3_2
I0417 18:48:06.998353 17511 net.cpp:106] Creating Layer relu3_2
I0417 18:48:06.998360 17511 net.cpp:454] relu3_2 <- enet3_2
I0417 18:48:06.998373 17511 net.cpp:397] relu3_2 -> enet3_2 (in-place)
I0417 18:48:07.001301 17511 net.cpp:150] Setting up relu3_2
I0417 18:48:07.001318 17511 net.cpp:157] Top shape: 6 128 64 77 (3784704)
I0417 18:48:07.001325 17511 net.cpp:165] Memory required for data: 3406233648
I0417 18:48:07.001335 17511 layer_factory.hpp:77] Creating layer enet3_2_relu3_2_0_split
I0417 18:48:07.001346 17511 net.cpp:106] Creating Layer enet3_2_relu3_2_0_split
I0417 18:48:07.001354 17511 net.cpp:454] enet3_2_relu3_2_0_split <- enet3_2
I0417 18:48:07.001368 17511 net.cpp:411] enet3_2_relu3_2_0_split -> enet3_2_relu3_2_0_split_0
I0417 18:48:07.001379 17511 net.cpp:411] enet3_2_relu3_2_0_split -> enet3_2_relu3_2_0_split_1
I0417 18:48:07.001484 17511 net.cpp:150] Setting up enet3_2_relu3_2_0_split
I0417 18:48:07.001498 17511 net.cpp:157] Top shape: 6 128 64 77 (3784704)
I0417 18:48:07.001514 17511 net.cpp:157] Top shape: 6 128 64 77 (3784704)
I0417 18:48:07.001530 17511 net.cpp:165] Memory required for data: 3436511280
I0417 18:48:07.001538 17511 layer_factory.hpp:77] Creating layer enet3_3_branch2a
I0417 18:48:07.001556 17511 net.cpp:106] Creating Layer enet3_3_branch2a
I0417 18:48:07.001565 17511 net.cpp:454] enet3_3_branch2a <- enet3_2_relu3_2_0_split_0
I0417 18:48:07.001576 17511 net.cpp:411] enet3_3_branch2a -> enet3_3_branch2a
I0417 18:48:07.005547 17511 net.cpp:150] Setting up enet3_3_branch2a
I0417 18:48:07.005565 17511 net.cpp:157] Top shape: 6 32 64 77 (946176)
I0417 18:48:07.005573 17511 net.cpp:165] Memory required for data: 3440295984
I0417 18:48:07.005584 17511 layer_factory.hpp:77] Creating layer bn3_3_branch2a
I0417 18:48:07.005599 17511 net.cpp:106] Creating Layer bn3_3_branch2a
I0417 18:48:07.005607 17511 net.cpp:454] bn3_3_branch2a <- enet3_3_branch2a
I0417 18:48:07.005620 17511 net.cpp:397] bn3_3_branch2a -> enet3_3_branch2a (in-place)
I0417 18:48:07.006261 17511 net.cpp:150] Setting up bn3_3_branch2a
I0417 18:48:07.006276 17511 net.cpp:157] Top shape: 6 32 64 77 (946176)
I0417 18:48:07.006283 17511 net.cpp:165] Memory required for data: 3444080688
I0417 18:48:07.006294 17511 layer_factory.hpp:77] Creating layer relu3_3_branch2a
I0417 18:48:07.006304 17511 net.cpp:106] Creating Layer relu3_3_branch2a
I0417 18:48:07.006312 17511 net.cpp:454] relu3_3_branch2a <- enet3_3_branch2a
I0417 18:48:07.006321 17511 net.cpp:397] relu3_3_branch2a -> enet3_3_branch2a (in-place)
I0417 18:48:07.007613 17511 net.cpp:150] Setting up relu3_3_branch2a
I0417 18:48:07.007632 17511 net.cpp:157] Top shape: 6 32 64 77 (946176)
I0417 18:48:07.007638 17511 net.cpp:165] Memory required for data: 3447865392
I0417 18:48:07.007648 17511 layer_factory.hpp:77] Creating layer enet3_3_branch2b1
I0417 18:48:07.007668 17511 net.cpp:106] Creating Layer enet3_3_branch2b1
I0417 18:48:07.007676 17511 net.cpp:454] enet3_3_branch2b1 <- enet3_3_branch2a
I0417 18:48:07.007689 17511 net.cpp:411] enet3_3_branch2b1 -> enet3_3_branch2b1
I0417 18:48:07.011549 17511 net.cpp:150] Setting up enet3_3_branch2b1
I0417 18:48:07.011567 17511 net.cpp:157] Top shape: 6 32 64 77 (946176)
I0417 18:48:07.011575 17511 net.cpp:165] Memory required for data: 3451650096
I0417 18:48:07.011585 17511 layer_factory.hpp:77] Creating layer enet3_3_branch2b
I0417 18:48:07.011605 17511 net.cpp:106] Creating Layer enet3_3_branch2b
I0417 18:48:07.011613 17511 net.cpp:454] enet3_3_branch2b <- enet3_3_branch2b1
I0417 18:48:07.011627 17511 net.cpp:411] enet3_3_branch2b -> enet3_3_branch2b
I0417 18:48:07.016829 17511 net.cpp:150] Setting up enet3_3_branch2b
I0417 18:48:07.016847 17511 net.cpp:157] Top shape: 6 32 64 77 (946176)
I0417 18:48:07.016855 17511 net.cpp:165] Memory required for data: 3455434800
I0417 18:48:07.016867 17511 layer_factory.hpp:77] Creating layer bn3_3_branch2b
I0417 18:48:07.016883 17511 net.cpp:106] Creating Layer bn3_3_branch2b
I0417 18:48:07.016891 17511 net.cpp:454] bn3_3_branch2b <- enet3_3_branch2b
I0417 18:48:07.016901 17511 net.cpp:397] bn3_3_branch2b -> enet3_3_branch2b (in-place)
…
I0417 18:48:07.084369 17511 net.cpp:411] enet3_6_relu3_6_0_split -> enet3_6_relu3_6_0_split_1
I0417 18:48:07.084424 17511 net.cpp:150] Setting up enet3_6_relu3_6_0_split
I0417 18:48:07.084435 17511 net.cpp:157] Top shape: 6 128 64 77 (3784704)
I0417 18:48:07.084444 17511 net.cpp:157] Top shape: 6 128 64 77 (3784704)
I0417 18:48:07.084450 17511 net.cpp:165] Memory required for data: 3955015728
I0417 18:48:07.084456 17511 layer_factory.hpp:77] Creating layer enet3_7_branch2a
I0417 18:48:07.084470 17511 net.cpp:106] Creating Layer enet3_7_branch2a
I0417 18:48:07.084478 17511 net.cpp:454] enet3_7_branch2a <- enet3_6_relu3_6_0_split_0
I0417 18:48:07.084492 17511 net.cpp:411] enet3_7_branch2a -> enet3_7_branch2a
I0417 18:48:07.088095 17511 net.cpp:150] Setting up enet3_7_branch2a
I0417 18:48:07.088116 17511 net.cpp:157] Top shape: 6 32 64 77 (946176)
I0417 18:48:07.088125 17511 net.cpp:165] Memory required for data: 3958800432
I0417 18:48:07.088135 17511 layer_factory.hpp:77] Creating layer bn3_7_branch2a
I0417 18:48:07.088150 17511 net.cpp:106] Creating Layer bn3_7_branch2a
I0417 18:48:07.088158 17511 net.cpp:454] bn3_7_branch2a <- enet3_7_branch2a
I0417 18:48:07.088170 17511 net.cpp:397] bn3_7_branch2a -> enet3_7_branch2a (in-place)
I0417 18:48:07.088724 17511 net.cpp:150] Setting up bn3_7_branch2a
I0417 18:48:07.088739 17511 net.cpp:157] Top shape: 6 32 64 77 (946176)
I0417 18:48:07.088747 17511 net.cpp:165] Memory required for data: 3962585136
I0417 18:48:07.088757 17511 layer_factory.hpp:77] Creating layer relu3_7_branch2a
I0417 18:48:07.088768 17511 net.cpp:106] Creating Layer relu3_7_branch2a
I0417 18:48:07.088784 17511 net.cpp:454] relu3_7_branch2a <- enet3_7_branch2a
I0417 18:48:07.088814 17511 net.cpp:397] relu3_7_branch2a -> enet3_7_branch2a (in-place)
I0417 18:48:07.090008 17511 net.cpp:150] Setting up relu3_7_branch2a
I0417 18:48:07.090025 17511 net.cpp:157] Top shape: 6 32 64 77 (946176)
I0417 18:48:07.090034 17511 net.cpp:165] Memory required for data: 3966369840
I0417 18:48:07.090062 17511 layer_factory.hpp:77] Creating layer enet3_7_branch2b1
I0417 18:48:07.090085 17511 net.cpp:106] Creating Layer enet3_7_branch2b1
I0417 18:48:07.090093 17511 net.cpp:454] enet3_7_branch2b1 <- enet3_7_branch2a
I0417 18:48:07.090104 17511 net.cpp:411] enet3_7_branch2b1 -> enet3_7_branch2b1
I0417 18:48:07.093922 17511 net.cpp:150] Setting up enet3_7_branch2b1
I0417 18:48:07.093945 17511 net.cpp:157] Top shape: 6 32 64 77 (946176)
I0417 18:48:07.093952 17511 net.cpp:165] Memory required for data: 3970154544
I0417 18:48:07.093962 17511 layer_factory.hpp:77] Creating layer enet3_7_branch2b
I0417 18:48:07.093981 17511 net.cpp:106] Creating Layer enet3_7_branch2b
I0417 18:48:07.093991 17511 net.cpp:454] enet3_7_branch2b <- enet3_7_branch2b1
I0417 18:48:07.094002 17511 net.cpp:411] enet3_7_branch2b -> enet3_7_branch2b
I0417 18:48:07.097750 17511 net.cpp:150] Setting up enet3_7_branch2b
I0417 18:48:07.097769 17511 net.cpp:157] Top shape: 6 32 64 77 (946176)
I0417 18:48:07.097776 17511 net.cpp:165] Memory required for data: 3973939248
I0417 18:48:07.097787 17511 layer_factory.hpp:77] Creating layer bn3_7_branch2b
I0417 18:48:07.097805 17511 net.cpp:106] Creating Layer bn3_7_branch2b
I0417 18:48:07.097813 17511 net.cpp:454] bn3_7_branch2b <- enet3_7_branch2b
I0417 18:48:07.097827 17511 net.cpp:397] bn3_7_branch2b -> enet3_7_branch2b (in-place)
I0417 18:48:07.098152 17511 net.cpp:150] Setting up bn3_7_branch2b
I0417 18:48:07.098167 17511 net.cpp:157] Top shape: 6 32 64 77 (946176)
I0417 18:48:07.098175 17511 net.cpp:165] Memory required for data: 3977723952
I0417 18:48:07.098184 17511 layer_factory.hpp:77] Creating layer relu3_7_branch2b
I0417 18:48:07.098196 17511 net.cpp:106] Creating Layer relu3_7_branch2b
I0417 18:48:07.098202 17511 net.cpp:454] relu3_7_branch2b <- enet3_7_branch2b
I0417 18:48:07.098212 17511 net.cpp:397] relu3_7_branch2b -> enet3_7_branch2b (in-place)
I0417 18:48:07.099392 17511 net.cpp:150] Setting up relu3_7_branch2b
I0417 18:48:07.099412 17511 net.cpp:157] Top shape: 6 32 64 77 (946176)
I0417 18:48:07.099421 17511 net.cpp:165] Memory required for data: 3981508656
I0417 18:48:07.099431 17511 layer_factory.hpp:77] Creating layer enet3_7_branch2c
I0417 18:48:07.099448 17511 net.cpp:106] Creating Layer enet3_7_branch2c
I0417 18:48:07.099457 17511 net.cpp:454] enet3_7_branch2c <- enet3_7_branch2b
I0417 18:48:07.099472 17511 net.cpp:411] enet3_7_branch2c -> enet3_7_branch2c
I0417 18:48:07.104271 17511 net.cpp:150] Setting up enet3_7_branch2c
I0417 18:48:07.104291 17511 net.cpp:157] Top shape: 6 128 64 77 (3784704)
I0417 18:48:07.104300 17511 net.cpp:165] Memory required for data: 3996647472
I0417 18:48:07.104310 17511 layer_factory.hpp:77] Creating layer bn3_7_branch2c
I0417 18:48:07.104326 17511 net.cpp:106] Creating Layer bn3_7_branch2c
I0417 18:48:07.104334 17511 net.cpp:454] bn3_7_branch2c <- enet3_7_branch2c
I0417 18:48:07.104348 17511 net.cpp:397] bn3_7_branch2c -> enet3_7_branch2c (in-place)
I0417 18:48:07.104665 17511 net.cpp:150] Setting up bn3_7_branch2c
I0417 18:48:07.104681 17511 net.cpp:157] Top shape: 6 128 64 77 (3784704)
I0417 18:48:07.104686 17511 net.cpp:165] Memory required for data: 4011786288
I0417 18:48:07.104697 17511 layer_factory.hpp:77] Creating layer dropout3_7_branch2c
I0417 18:48:07.104708 17511 net.cpp:106] Creating Layer dropout3_7_branch2c
I0417 18:48:07.104717 17511 net.cpp:454] dropout3_7_branch2c <- enet3_7_branch2c
I0417 18:48:07.104725 17511 net.cpp:397] dropout3_7_branch2c -> enet3_7_branch2c (in-place)
I0417 18:48:07.104768 17511 net.cpp:150] Setting up dropout3_7_branch2c
I0417 18:48:07.104780 17511 net.cpp:157] Top shape: 6 128 64 77 (3784704)
I0417 18:48:07.104787 17511 net.cpp:165] Memory required for data: 4026925104
I0417 18:48:07.104794 17511 layer_factory.hpp:77] Creating layer enet3_7
I0417 18:48:07.104804 17511 net.cpp:106] Creating Layer enet3_7
I0417 18:48:07.104811 17511 net.cpp:454] enet3_7 <- enet3_6_relu3_6_0_split_1
I0417 18:48:07.104820 17511 net.cpp:454] enet3_7 <- enet3_7_branch2c
I0417 18:48:07.104840 17511 net.cpp:411] enet3_7 -> enet3_7
I0417 18:48:07.104892 17511 net.cpp:150] Setting up enet3_7
I0417 18:48:07.104904 17511 net.cpp:157] Top shape: 6 128 64 77 (3784704)
I0417 18:48:07.104910 17511 net.cpp:165] Memory required for data: 4042063920
I0417 18:48:07.104918 17511 layer_factory.hpp:77] Creating layer relu3_7
I0417 18:48:07.104929 17511 net.cpp:106] Creating Layer relu3_7
I0417 18:48:07.104938 17511 net.cpp:454] relu3_7 <- enet3_7
I0417 18:48:07.104946 17511 net.cpp:397] relu3_7 -> enet3_7 (in-place)
I0417 18:48:07.107730 17511 net.cpp:150] Setting up relu3_7
I0417 18:48:07.107748 17511 net.cpp:157] Top shape: 6 128 64 77 (3784704)
I0417 18:48:07.107756 17511 net.cpp:165] Memory required for data: 4057202736
I0417 18:48:07.107765 17511 layer_factory.hpp:77] Creating layer enet3_7_relu3_7_0_split
I0417 18:48:07.107779 17511 net.cpp:106] Creating Layer enet3_7_relu3_7_0_split
I0417 18:48:07.107787 17511 net.cpp:454] enet3_7_relu3_7_0_split <- enet3_7
I0417 18:48:07.107797 17511 net.cpp:411] enet3_7_relu3_7_0_split -> enet3_7_relu3_7_0_split_0
I0417 18:48:07.107810 17511 net.cpp:411] enet3_7_relu3_7_0_split -> enet3_7_relu3_7_0_split_1
I0417 18:48:07.107870 17511 net.cpp:150] Setting up enet3_7_relu3_7_0_split
I0417 18:48:07.107883 17511 net.cpp:157] Top shape: 6 128 64 77 (3784704)
I0417 18:48:07.107892 17511 net.cpp:157] Top shape: 6 128 64 77 (3784704)
I0417 18:48:07.107897 17511 net.cpp:165] Memory required for data: 4087480368
I0417 18:48:07.107904 17511 layer_factory.hpp:77] Creating layer enet3_8_branch2a
I0417 18:48:07.107924 17511 net.cpp:106] Creating Layer enet3_8_branch2a
I0417 18:48:07.107933 17511 net.cpp:454] enet3_8_branch2a <- enet3_7_relu3_7_0_split_0
I0417 18:48:07.107944 17511 net.cpp:411] enet3_8_branch2a -> enet3_8_branch2a
I0417 18:48:07.112313 17511 net.cpp:150] Setting up enet3_8_branch2a
I0417 18:48:07.112334 17511 net.cpp:157] Top shape: 6 32 64 77 (946176)
I0417 18:48:07.112342 17511 net.cpp:165] Memory required for data: 4091265072
I0417 18:48:07.112354 17511 layer_factory.hpp:77] Creating layer bn3_8_branch2a
I0417 18:48:07.112366 17511 net.cpp:106] Creating Layer bn3_8_branch2a
I0417 18:48:07.112375 17511 net.cpp:454] bn3_8_branch2a <- enet3_8_branch2a
I0417 18:48:07.112387 17511 net.cpp:397] bn3_8_branch2a -> enet3_8_branch2a (in-place)
I0417 18:48:07.112730 17511 net.cpp:150] Setting up bn3_8_branch2a
I0417 18:48:07.112746 17511 net.cpp:157] Top shape: 6 32 64 77 (946176)
I0417 18:48:07.112751 17511 net.cpp:165] Memory required for data: 4095049776
I0417 18:48:07.112762 17511 layer_factory.hpp:77] Creating layer relu3_8_branch2a
I0417 18:48:07.112776 17511 net.cpp:106] Creating Layer relu3_8_branch2a
I0417 18:48:07.112783 17511 net.cpp:454] relu3_8_branch2a <- enet3_8_branch2a
I0417 18:48:07.112793 17511 net.cpp:397] relu3_8_branch2a -> enet3_8_branch2a (in-place)
I0417 18:48:07.113975 17511 net.cpp:150] Setting up relu3_8_branch2a
I0417 18:48:07.113991 17511 net.cpp:157] Top shape: 6 32 64 77 (946176)
I0417 18:48:07.113998 17511 net.cpp:165] Memory required for data: 4098834480
I0417 18:48:07.114007 17511 layer_factory.hpp:77] Creating layer enet3_8_branch2b
I0417 18:48:07.114027 17511 net.cpp:106] Creating Layer enet3_8_branch2b
I0417 18:48:07.114034 17511 net.cpp:454] enet3_8_branch2b <- enet3_8_branch2a
I0417 18:48:07.114053 17511 net.cpp:411] enet3_8_branch2b -> enet3_8_branch2b
I0417 18:48:07.114655 17511 net.cpp:150] Setting up enet3_8_branch2b
I0417 18:48:07.114670 17511 net.cpp:157] Top shape: 6 32 64 77 (946176)
I0417 18:48:07.114676 17511 net.cpp:165] Memory required for data: 4102619184
I0417 18:48:07.114687 17511 layer_factory.hpp:77] Creating layer bn3_8_branch2b
I0417 18:48:07.114702 17511 net.cpp:106] Creating Layer bn3_8_branch2b
I0417 18:48:07.114711 17511 net.cpp:454] bn3_8_branch2b <- enet3_8_branch2b
I0417 18:48:07.114724 17511 net.cpp:397] bn3_8_branch2b -> enet3_8_branch2b (in-place)
I0417 18:48:07.115058 17511 net.cpp:150] Setting up bn3_8_branch2b
I0417 18:48:07.115073 17511 net.cpp:157] Top shape: 6 32 64 77 (946176)
I0417 18:48:07.115079 17511 net.cpp:165] Memory required for data: 4106403888
I0417 18:48:07.115108 17511 layer_factory.hpp:77] Creating layer relu3_8_branch2b
I0417 18:48:07.115120 17511 net.cpp:106] Creating Layer relu3_8_branch2b
I0417 18:48:07.115128 17511 net.cpp:454] relu3_8_branch2b <- enet3_8_branch2b
I0417 18:48:07.115137 17511 net.cpp:397] relu3_8_branch2b -> enet3_8_branch2b (in-place)
I0417 18:48:07.116328 17511 net.cpp:150] Setting up relu3_8_branch2b
I0417 18:48:07.116344 17511 net.cpp:157] Top shape: 6 32 64 77 (946176)
I0417 18:48:07.116353 17511 net.cpp:165] Memory required for data: 4110188592
I0417 18:48:07.116361 17511 layer_factory.hpp:77] Creating layer enet3_8_branch2c
I0417 18:48:07.116379 17511 net.cpp:106] Creating Layer enet3_8_branch2c
I0417 18:48:07.116389 17511 net.cpp:454] enet3_8_branch2c <- enet3_8_branch2b
I0417 18:48:07.116402 17511 net.cpp:411] enet3_8_branch2c -> enet3_8_branch2c
I0417 18:48:07.120184 17511 net.cpp:150] Setting up enet3_8_branch2c
I0417 18:48:07.120203 17511 net.cpp:157] Top shape: 6 128 64 77 (3784704)
I0417 18:48:07.120210 17511 net.cpp:165] Memory required for data: 4125327408
I0417 18:48:07.120220 17511 layer_factory.hpp:77] Creating layer bn3_8_branch2c
I0417 18:48:07.120234 17511 net.cpp:106] Creating Layer bn3_8_branch2c
I0417 18:48:07.120241 17511 net.cpp:454] bn3_8_branch2c <- enet3_8_branch2c
I0417 18:48:07.120255 17511 net.cpp:397] bn3_8_branch2c -> enet3_8_branch2c (in-place)
I0417 18:48:07.120589 17511 net.cpp:150] Setting up bn3_8_branch2c
I0417 18:48:07.120604 17511 net.cpp:157] Top shape: 6 128 64 77 (3784704)
I0417 18:48:07.120610 17511 net.cpp:165] Memory required for data: 4140466224
I0417 18:48:07.120621 17511 layer_factory.hpp:77] Creating layer dropout3_8_branch2c
I0417 18:48:07.120635 17511 net.cpp:106] Creating Layer dropout3_8_branch2c
I0417 18:48:07.120643 17511 net.cpp:454] dropout3_8_branch2c <- enet3_8_branch2c
I0417 18:48:07.120652 17511 net.cpp:397] dropout3_8_branch2c -> enet3_8_branch2c (in-place)
I0417 18:48:07.120692 17511 net.cpp:150] Setting up dropout3_8_branch2c
I0417 18:48:07.120704 17511 net.cpp:157] Top shape: 6 128 64 77 (3784704)
I0417 18:48:07.120712 17511 net.cpp:165] Memory required for data: 4155605040
I0417 18:48:07.120718 17511 layer_factory.hpp:77] Creating layer enet3_8
I0417 18:48:07.120728 17511 net.cpp:106] Creating Layer enet3_8
I0417 18:48:07.120734 17511 net.cpp:454] enet3_8 <- enet3_7_relu3_7_0_split_1
I0417 18:48:07.120743 17511 net.cpp:454] enet3_8 <- enet3_8_branch2c
I0417 18:48:07.120756 17511 net.cpp:411] enet3_8 -> enet3_8
I0417 18:48:07.120795 17511 net.cpp:150] Setting up enet3_8
I0417 18:48:07.120811 17511 net.cpp:157] Top shape: 6 128 64 77 (3784704)
I0417 18:48:07.120818 17511 net.cpp:165] Memory required for data: 4170743856
I0417 18:48:07.120824 17511 layer_factory.hpp:77] Creating layer relu3_8
I0417 18:48:07.120834 17511 net.cpp:106] Creating Layer relu3_8
I0417 18:48:07.120842 17511 net.cpp:454] relu3_8 <- enet3_8
I0417 18:48:07.120851 17511 net.cpp:397] relu3_8 -> enet3_8 (in-place)
I0417 18:48:07.123672 17511 net.cpp:150] Setting up relu3_8
I0417 18:48:07.123688 17511 net.cpp:157] Top shape: 6 128 64 77 (3784704)
I0417 18:48:07.123695 17511 net.cpp:165] Memory required for data: 4185882672
I0417 18:48:07.123704 17511 layer_factory.hpp:77] Creating layer enet3_8_relu3_8_0_split
I0417 18:48:07.123715 17511 net.cpp:106] Creating Layer enet3_8_relu3_8_0_split
I0417 18:48:07.123723 17511 net.cpp:454] enet3_8_relu3_8_0_split <- enet3_8
I0417 18:48:07.123738 17511 net.cpp:411] enet3_8_relu3_8_0_split -> enet3_8_relu3_8_0_split_0
I0417 18:48:07.123750 17511 net.cpp:411] enet3_8_relu3_8_0_split -> enet3_8_relu3_8_0_split_1
I0417 18:48:07.123812 17511 net.cpp:150] Setting up enet3_8_relu3_8_0_split
I0417 18:48:07.123826 17511 net.cpp:157] Top shape: 6 128 64 77 (3784704)
I0417 18:48:07.123833 17511 net.cpp:157] Top shape: 6 128 64 77 (3784704)
I0417 18:48:07.123839 17511 net.cpp:165] Memory required for data: 4216160304
I0417 18:48:07.123847 17511 layer_factory.hpp:77] Creating layer enet4_0_branch2a
I0417 18:48:07.123865 17511 net.cpp:106] Creating Layer enet4_0_branch2a
I0417 18:48:07.123888 17511 net.cpp:454] enet4_0_branch2a <- enet3_8_relu3_8_0_split_0
I0417 18:48:07.123901 17511 net.cpp:411] enet4_0_branch2a -> enet4_0_branch2a
I0417 18:48:07.127748 17511 net.cpp:150] Setting up enet4_0_branch2a
I0417 18:48:07.127766 17511 net.cpp:157] Top shape: 6 16 64 77 (473088)
I0417 18:48:07.127774 17511 net.cpp:165] Memory required for data: 4218052656
I0417 18:48:07.127784 17511 layer_factory.hpp:77] Creating layer bn4_0_branch2a
I0417 18:48:07.127800 17511 net.cpp:106] Creating Layer bn4_0_branch2a
I0417 18:48:07.127809 17511 net.cpp:454] bn4_0_branch2a <- enet4_0_branch2a
I0417 18:48:07.127821 17511 net.cpp:397] bn4_0_branch2a -> enet4_0_branch2a (in-place)
I0417 18:48:07.128185 17511 net.cpp:150] Setting up bn4_0_branch2a
I0417 18:48:07.128201 17511 net.cpp:157] Top shape: 6 16 64 77 (473088)
I0417 18:48:07.128207 17511 net.cpp:165] Memory required for data: 4219945008
I0417 18:48:07.128218 17511 layer_factory.hpp:77] Creating layer relu4_0_branch2a
I0417 18:48:07.128239 17511 net.cpp:106] Creating Layer relu4_0_branch2a
I0417 18:48:07.128247 17511 net.cpp:454] relu4_0_branch2a <- enet4_0_branch2a
I0417 18:48:07.128257 17511 net.cpp:397] relu4_0_branch2a -> enet4_0_branch2a (in-place)
I0417 18:48:07.129353 17511 net.cpp:150] Setting up relu4_0_branch2a
I0417 18:48:07.129369 17511 net.cpp:157] Top shape: 6 16 64 77 (473088)
I0417 18:48:07.129377 17511 net.cpp:165] Memory required for data: 4221837360
I0417 18:48:07.129384 17511 layer_factory.hpp:77] Creating layer enet4_0_branch2b
I0417 18:48:07.129768 17511 net.cpp:106] Creating Layer enet4_0_branch2b
I0417 18:48:07.129777 17511 net.cpp:454] enet4_0_branch2b <- enet4_0_branch2a
I0417 18:48:07.129789 17511 net.cpp:411] enet4_0_branch2b -> enet4_0_branch2b
I0417 18:48:07.130378 17511 net.cpp:150] Setting up enet4_0_branch2b
I0417 18:48:07.130395 17511 net.cpp:157] Top shape: 6 16 128 154 (1892352)
I0417 18:48:07.130403 17511 net.cpp:165] Memory required for data: 4229406768
I0417 18:48:07.130414 17511 layer_factory.hpp:77] Creating layer bn4_0_branch2b
I0417 18:48:07.130429 17511 net.cpp:106] Creating Layer bn4_0_branch2b
I0417 18:48:07.130436 17511 net.cpp:454] bn4_0_branch2b <- enet4_0_branch2b
I0417 18:48:07.130450 17511 net.cpp:397] bn4_0_branch2b -> enet4_0_branch2b (in-place)
I0417 18:48:07.131750 17511 net.cpp:150] Setting up bn4_0_branch2b
I0417 18:48:07.131767 17511 net.cpp:157] Top shape: 6 16 128 154 (1892352)
I0417 18:48:07.131775 17511 net.cpp:165] Memory required for data: 4236976176
I0417 18:48:07.131786 17511 layer_factory.hpp:77] Creating layer relu4_0_branch2b
I0417 18:48:07.131800 17511 net.cpp:106] Creating Layer relu4_0_branch2b
I0417 18:48:07.131808 17511 net.cpp:454] relu4_0_branch2b <- enet4_0_branch2b
I0417 18:48:07.131819 17511 net.cpp:397] relu4_0_branch2b -> enet4_0_branch2b (in-place)
I0417 18:48:07.132928 17511 net.cpp:150] Setting up relu4_0_branch2b
I0417 18:48:07.132946 17511 net.cpp:157] Top shape: 6 16 128 154 (1892352)
I0417 18:48:07.132954 17511 net.cpp:165] Memory required for data: 4244545584
I0417 18:48:07.132961 17511 layer_factory.hpp:77] Creating layer enet4_0_branch2c
I0417 18:48:07.132980 17511 net.cpp:106] Creating Layer enet4_0_branch2c
I0417 18:48:07.132988 17511 net.cpp:454] enet4_0_branch2c <- enet4_0_branch2b
I0417 18:48:07.133003 17511 net.cpp:411] enet4_0_branch2c -> enet4_0_branch2c
I0417 18:48:07.136879 17511 net.cpp:150] Setting up enet4_0_branch2c
I0417 18:48:07.136900 17511 net.cpp:157] Top shape: 6 64 128 154 (7569408)
I0417 18:48:07.136909 17511 net.cpp:165] Memory required for data: 4274823216
I0417 18:48:07.136919 17511 layer_factory.hpp:77] Creating layer bn4_0_branch2c
I0417 18:48:07.136932 17511 net.cpp:106] Creating Layer bn4_0_branch2c
I0417 18:48:07.136940 17511 net.cpp:454] bn4_0_branch2c <- enet4_0_branch2c
I0417 18:48:07.136953 17511 net.cpp:397] bn4_0_branch2c -> enet4_0_branch2c (in-place)
I0417 18:48:07.137302 17511 net.cpp:150] Setting up bn4_0_branch2c
I0417 18:48:07.137317 17511 net.cpp:157] Top shape: 6 64 128 154 (7569408)
I0417 18:48:07.137331 17511 net.cpp:165] Memory required for data: 4305100848
I0417 18:48:07.137351 17511 layer_factory.hpp:77] Creating layer enet4_0_branch1a
I0417 18:48:07.137369 17511 net.cpp:106] Creating Layer enet4_0_branch1a
I0417 18:48:07.137378 17511 net.cpp:454] enet4_0_branch1a <- enet3_8_relu3_8_0_split_1
I0417 18:48:07.137389 17511 net.cpp:411] enet4_0_branch1a -> enet4_0_branch1a
I0417 18:48:07.142172 17511 net.cpp:150] Setting up enet4_0_branch1a
I0417 18:48:07.142191 17511 net.cpp:157] Top shape: 6 64 64 77 (1892352)
I0417 18:48:07.142199 17511 net.cpp:165] Memory required for data: 4312670256
I0417 18:48:07.142210 17511 layer_factory.hpp:77] Creating layer bn4_0_branch1a
I0417 18:48:07.142227 17511 net.cpp:106] Creating Layer bn4_0_branch1a
I0417 18:48:07.142235 17511 net.cpp:454] bn4_0_branch1a <- enet4_0_branch1a
I0417 18:48:07.142246 17511 net.cpp:397] bn4_0_branch1a -> enet4_0_branch1a (in-place)
I0417 18:48:07.142580 17511 net.cpp:150] Setting up bn4_0_branch1a
I0417 18:48:07.142594 17511 net.cpp:157] Top shape: 6 64 64 77 (1892352)
I0417 18:48:07.142601 17511 net.cpp:165] Memory required for data: 4320239664
I0417 18:48:07.142611 17511 layer_factory.hpp:77] Creating layer unpool4_0_branch1a
I0417 18:48:07.142626 17511 net.cpp:106] Creating Layer unpool4_0_branch1a
I0417 18:48:07.142632 17511 net.cpp:454] unpool4_0_branch1a <- enet4_0_branch1a
I0417 18:48:07.142642 17511 net.cpp:454] unpool4_0_branch1a <- pool2_0_branch1a_mask
I0417 18:48:07.142652 17511 net.cpp:411] unpool4_0_branch1a -> unpool4_0_branch1a
I0417 18:48:07.142719 17511 net.cpp:150] Setting up unpool4_0_branch1a
I0417 18:48:07.142731 17511 net.cpp:157] Top shape: 6 64 128 154 (7569408)
I0417 18:48:07.142738 17511 net.cpp:165] Memory required for data: 4350517296
I0417 18:48:07.142745 17511 layer_factory.hpp:77] Creating layer enet4_0
I0417 18:48:07.142758 17511 net.cpp:106] Creating Layer enet4_0
I0417 18:48:07.142765 17511 net.cpp:454] enet4_0 <- unpool4_0_branch1a
I0417 18:48:07.142774 17511 net.cpp:454] enet4_0 <- enet4_0_branch2c
I0417 18:48:07.142783 17511 net.cpp:411] enet4_0 -> enet4_0
I0417 18:48:07.142828 17511 net.cpp:150] Setting up enet4_0
I0417 18:48:07.142840 17511 net.cpp:157] Top shape: 6 64 128 154 (7569408)
I0417 18:48:07.142848 17511 net.cpp:165] Memory required for data: 4380794928
I0417 18:48:07.142854 17511 layer_factory.hpp:77] Creating layer relu4_0
I0417 18:48:07.142863 17511 net.cpp:106] Creating Layer relu4_0
I0417 18:48:07.142871 17511 net.cpp:454] relu4_0 <- enet4_0
I0417 18:48:07.142884 17511 net.cpp:397] relu4_0 -> enet4_0 (in-place)
I0417 18:48:07.144023 17511 net.cpp:150] Setting up relu4_0
I0417 18:48:07.144042 17511 net.cpp:157] Top shape: 6 64 128 154 (7569408)
I0417 18:48:07.144048 17511 net.cpp:165] Memory required for data: 4411072560
I0417 18:48:07.144060 17511 layer_factory.hpp:77] Creating layer enet4_0_relu4_0_0_split
I0417 18:48:07.144074 17511 net.cpp:106] Creating Layer enet4_0_relu4_0_0_split
I0417 18:48:07.144083 17511 net.cpp:454] enet4_0_relu4_0_0_split <- enet4_0
I0417 18:48:07.144093 17511 net.cpp:411] enet4_0_relu4_0_0_split -> enet4_0_relu4_0_0_split_0
I0417 18:48:07.144105 17511 net.cpp:411] enet4_0_relu4_0_0_split -> enet4_0_relu4_0_0_split_1
I0417 18:48:07.144179 17511 net.cpp:150] Setting up enet4_0_relu4_0_0_split
I0417 18:48:07.144193 17511 net.cpp:157] Top shape: 6 64 128 154 (7569408)
I0417 18:48:07.144201 17511 net.cpp:157] Top shape: 6 64 128 154 (7569408)
I0417 18:48:07.144207 17511 net.cpp:165] Memory required for data: 4471627824
I0417 18:48:07.144214 17511 layer_factory.hpp:77] Creating layer enet4_1_branch2a
I0417 18:48:07.144232 17511 net.cpp:106] Creating Layer enet4_1_branch2a
I0417 18:48:07.144242 17511 net.cpp:454] enet4_1_branch2a <- enet4_0_relu4_0_0_split_0
I0417 18:48:07.144255 17511 net.cpp:411] enet4_1_branch2a -> enet4_1_branch2a
I0417 18:48:07.148134 17511 net.cpp:150] Setting up enet4_1_branch2a
I0417 18:48:07.148154 17511 net.cpp:157] Top shape: 6 16 128 154 (1892352)
I0417 18:48:07.148160 17511 net.cpp:165] Memory required for data: 4479197232
I0417 18:48:07.148178 17511 layer_factory.hpp:77] Creating layer bn4_1_branch2a
I0417 18:48:07.148203 17511 net.cpp:106] Creating Layer bn4_1_branch2a
I0417 18:48:07.148212 17511 net.cpp:454] bn4_1_branch2a <- enet4_1_branch2a
I0417 18:48:07.148226 17511 net.cpp:397] bn4_1_branch2a -> enet4_1_branch2a (in-place)
I0417 18:48:07.148584 17511 net.cpp:150] Setting up bn4_1_branch2a
I0417 18:48:07.148599 17511 net.cpp:157] Top shape: 6 16 128 154 (1892352)
I0417 18:48:07.148605 17511 net.cpp:165] Memory required for data: 4486766640
I0417 18:48:07.148617 17511 layer_factory.hpp:77] Creating layer relu4_1_branch2a
I0417 18:48:07.148627 17511 net.cpp:106] Creating Layer relu4_1_branch2a
I0417 18:48:07.148634 17511 net.cpp:454] relu4_1_branch2a <- enet4_1_branch2a
I0417 18:48:07.148643 17511 net.cpp:397] relu4_1_branch2a -> enet4_1_branch2a (in-place)
I0417 18:48:07.149761 17511 net.cpp:150] Setting up relu4_1_branch2a
I0417 18:48:07.149778 17511 net.cpp:157] Top shape: 6 16 128 154 (1892352)
I0417 18:48:07.149785 17511 net.cpp:165] Memory required for data: 4494336048
I0417 18:48:07.149793 17511 layer_factory.hpp:77] Creating layer enet4_1_branch2b
I0417 18:48:07.149811 17511 net.cpp:106] Creating Layer enet4_1_branch2b
I0417 18:48:07.149819 17511 net.cpp:454] enet4_1_branch2b <- enet4_1_branch2a
I0417 18:48:07.149833 17511 net.cpp:411] enet4_1_branch2b -> enet4_1_branch2b
I0417 18:48:07.154348 17511 net.cpp:150] Setting up enet4_1_branch2b
I0417 18:48:07.154366 17511 net.cpp:157] Top shape: 6 16 128 154 (1892352)
I0417 18:48:07.154374 17511 net.cpp:165] Memory required for data: 4501905456
I0417 18:48:07.154386 17511 layer_factory.hpp:77] Creating layer bn4_1_branch2b
I0417 18:48:07.154404 17511 net.cpp:106] Creating Layer bn4_1_branch2b
I0417 18:48:07.154412 17511 net.cpp:454] bn4_1_branch2b <- enet4_1_branch2b
I0417 18:48:07.154423 17511 net.cpp:397] bn4_1_branch2b -> enet4_1_branch2b (in-place)
I0417 18:48:07.154783 17511 net.cpp:150] Setting up bn4_1_branch2b
I0417 18:48:07.154798 17511 net.cpp:157] Top shape: 6 16 128 154 (1892352)
I0417 18:48:07.154805 17511 net.cpp:165] Memory required for data: 4509474864
I0417 18:48:07.154815 17511 layer_factory.hpp:77] Creating layer relu4_1_branch2b
I0417 18:48:07.154826 17511 net.cpp:106] Creating Layer relu4_1_branch2b
I0417 18:48:07.154834 17511 net.cpp:454] relu4_1_branch2b <- enet4_1_branch2b
I0417 18:48:07.154842 17511 net.cpp:397] relu4_1_branch2b -> enet4_1_branch2b (in-place)
I0417 18:48:07.155959 17511 net.cpp:150] Setting up relu4_1_branch2b
I0417 18:48:07.155978 17511 net.cpp:157] Top shape: 6 16 128 154 (1892352)
I0417 18:48:07.155987 17511 net.cpp:165] Memory required for data: 4517044272
I0417 18:48:07.155993 17511 layer_factory.hpp:77] Creating layer enet4_1_branch2c
I0417 18:48:07.156011 17511 net.cpp:106] Creating Layer enet4_1_branch2c
I0417 18:48:07.156019 17511 net.cpp:454] enet4_1_branch2c <- enet4_1_branch2b
I0417 18:48:07.156031 17511 net.cpp:411] enet4_1_branch2c -> enet4_1_branch2c
I0417 18:48:07.159744 17511 net.cpp:150] Setting up enet4_1_branch2c
I0417 18:48:07.159765 17511 net.cpp:157] Top shape: 6 64 128 154 (7569408)
I0417 18:48:07.159772 17511 net.cpp:165] Memory required for data: 4547321904
I0417 18:48:07.159782 17511 layer_factory.hpp:77] Creating layer bn4_1_branch2c
I0417 18:48:07.159795 17511 net.cpp:106] Creating Layer bn4_1_branch2c
I0417 18:48:07.159802 17511 net.cpp:454] bn4_1_branch2c <- enet4_1_branch2c
I0417 18:48:07.159817 17511 net.cpp:397] bn4_1_branch2c -> enet4_1_branch2c (in-place)
I0417 18:48:07.160188 17511 net.cpp:150] Setting up bn4_1_branch2c
I0417 18:48:07.160203 17511 net.cpp:157] Top shape: 6 64 128 154 (7569408)
I0417 18:48:07.160209 17511 net.cpp:165] Memory required for data: 4577599536
I0417 18:48:07.160220 17511 layer_factory.hpp:77] Creating layer enet4_1
I0417 18:48:07.160231 17511 net.cpp:106] Creating Layer enet4_1
I0417 18:48:07.160238 17511 net.cpp:454] enet4_1 <- enet4_0_relu4_0_0_split_1
I0417 18:48:07.160248 17511 net.cpp:454] enet4_1 <- enet4_1_branch2c
I0417 18:48:07.160262 17511 net.cpp:411] enet4_1 -> enet4_1
I0417 18:48:07.160315 17511 net.cpp:150] Setting up enet4_1
I0417 18:48:07.160336 17511 net.cpp:157] Top shape: 6 64 128 154 (7569408)
I0417 18:48:07.160344 17511 net.cpp:165] Memory required for data: 4607877168
I0417 18:48:07.160351 17511 layer_factory.hpp:77] Creating layer relu4_1
I0417 18:48:07.160362 17511 net.cpp:106] Creating Layer relu4_1
I0417 18:48:07.160368 17511 net.cpp:454] relu4_1 <- enet4_1
I0417 18:48:07.160379 17511 net.cpp:397] relu4_1 -> enet4_1 (in-place)
I0417 18:48:07.161672 17511 net.cpp:150] Setting up relu4_1
I0417 18:48:07.161692 17511 net.cpp:157] Top shape: 6 64 128 154 (7569408)
I0417 18:48:07.161700 17511 net.cpp:165] Memory required for data: 4638154800
I0417 18:48:07.161707 17511 layer_factory.hpp:77] Creating layer enet4_1_relu4_1_0_split
I0417 18:48:07.161717 17511 net.cpp:106] Creating Layer enet4_1_relu4_1_0_split
I0417 18:48:07.161725 17511 net.cpp:454] enet4_1_relu4_1_0_split <- enet4_1
I0417 18:48:07.161741 17511 net.cpp:411] enet4_1_relu4_1_0_split -> enet4_1_relu4_1_0_split_0
I0417 18:48:07.161754 17511 net.cpp:411] enet4_1_relu4_1_0_split -> enet4_1_relu4_1_0_split_1
I0417 18:48:07.161825 17511 net.cpp:150] Setting up enet4_1_relu4_1_0_split
I0417 18:48:07.161840 17511 net.cpp:157] Top shape: 6 64 128 154 (7569408)
I0417 18:48:07.161849 17511 net.cpp:157] Top shape: 6 64 128 154 (7569408)
I0417 18:48:07.161855 17511 net.cpp:165] Memory required for data: 4698710064
I0417 18:48:07.161862 17511 layer_factory.hpp:77] Creating layer enet4_2_branch2a
I0417 18:48:07.161880 17511 net.cpp:106] Creating Layer enet4_2_branch2a
I0417 18:48:07.161888 17511 net.cpp:454] enet4_2_branch2a <- enet4_1_relu4_1_0_split_0
I0417 18:48:07.161900 17511 net.cpp:411] enet4_2_branch2a -> enet4_2_branch2a
I0417 18:48:07.165632 17511 net.cpp:150] Setting up enet4_2_branch2a
I0417 18:48:07.165649 17511 net.cpp:157] Top shape: 6 16 128 154 (1892352)
I0417 18:48:07.165657 17511 net.cpp:165] Memory required for data: 4706279472
I0417 18:48:07.165668 17511 layer_factory.hpp:77] Creating layer bn4_2_branch2a
I0417 18:48:07.165683 17511 net.cpp:106] Creating Layer bn4_2_branch2a
I0417 18:48:07.165691 17511 net.cpp:454] bn4_2_branch2a <- enet4_2_branch2a
I0417 18:48:07.165707 17511 net.cpp:397] bn4_2_branch2a -> enet4_2_branch2a (in-place)
I0417 18:48:07.166092 17511 net.cpp:150] Setting up bn4_2_branch2a
I0417 18:48:07.166107 17511 net.cpp:157] Top shape: 6 16 128 154 (1892352)
I0417 18:48:07.166113 17511 net.cpp:165] Memory required for data: 4713848880
I0417 18:48:07.166124 17511 layer_factory.hpp:77] Creating layer relu4_2_branch2a
I0417 18:48:07.166136 17511 net.cpp:106] Creating Layer relu4_2_branch2a
I0417 18:48:07.166142 17511 net.cpp:454] relu4_2_branch2a <- enet4_2_branch2a
I0417 18:48:07.166152 17511 net.cpp:397] relu4_2_branch2a -> enet4_2_branch2a (in-place)
I0417 18:48:07.167491 17511 net.cpp:150] Setting up relu4_2_branch2a
I0417 18:48:07.167510 17511 net.cpp:157] Top shape: 6 16 128 154 (1892352)
I0417 18:48:07.167516 17511 net.cpp:165] Memory required for data: 4721418288
I0417 18:48:07.167523 17511 layer_factory.hpp:77] Creating layer enet4_2_branch2b
I0417 18:48:07.167541 17511 net.cpp:106] Creating Layer enet4_2_branch2b
I0417 18:48:07.167551 17511 net.cpp:454] enet4_2_branch2b <- enet4_2_branch2a
I0417 18:48:07.167564 17511 net.cpp:411] enet4_2_branch2b -> enet4_2_branch2b
I0417 18:48:07.171630 17511 net.cpp:150] Setting up enet4_2_branch2b
I0417 18:48:07.171649 17511 net.cpp:157] Top shape: 6 16 128 154 (1892352)
I0417 18:48:07.171656 17511 net.cpp:165] Memory required for data: 4728987696
I0417 18:48:07.171667 17511 layer_factory.hpp:77] Creating layer bn4_2_branch2b
I0417 18:48:07.171684 17511 net.cpp:106] Creating Layer bn4_2_branch2b
I0417 18:48:07.171692 17511 net.cpp:454] bn4_2_branch2b <- enet4_2_branch2b
I0417 18:48:07.171705 17511 net.cpp:397] bn4_2_branch2b -> enet4_2_branch2b (in-place)
I0417 18:48:07.173008 17511 net.cpp:150] Setting up bn4_2_branch2b
I0417 18:48:07.173025 17511 net.cpp:157] Top shape: 6 16 128 154 (1892352)
I0417 18:48:07.173032 17511 net.cpp:165] Memory required for data: 4736557104
I0417 18:48:07.173055 17511 layer_factory.hpp:77] Creating layer relu4_2_branch2b
I0417 18:48:07.173076 17511 net.cpp:106] Creating Layer relu4_2_branch2b
I0417 18:48:07.173084 17511 net.cpp:454] relu4_2_branch2b <- enet4_2_branch2b
I0417 18:48:07.173097 17511 net.cpp:397] relu4_2_branch2b -> enet4_2_branch2b (in-place)
I0417 18:48:07.174232 17511 net.cpp:150] Setting up relu4_2_branch2b
I0417 18:48:07.174249 17511 net.cpp:157] Top shape: 6 16 128 154 (1892352)
I0417 18:48:07.174257 17511 net.cpp:165] Memory required for data: 4744126512
I0417 18:48:07.174263 17511 layer_factory.hpp:77] Creating layer enet4_2_branch2c
I0417 18:48:07.174281 17511 net.cpp:106] Creating Layer enet4_2_branch2c
I0417 18:48:07.174290 17511 net.cpp:454] enet4_2_branch2c <- enet4_2_branch2b
I0417 18:48:07.174304 17511 net.cpp:411] enet4_2_branch2c -> enet4_2_branch2c
I0417 18:48:07.178236 17511 net.cpp:150] Setting up enet4_2_branch2c
I0417 18:48:07.178254 17511 net.cpp:157] Top shape: 6 64 128 154 (7569408)
I0417 18:48:07.178262 17511 net.cpp:165] Memory required for data: 4774404144
I0417 18:48:07.178272 17511 layer_factory.hpp:77] Creating layer bn4_2_branch2c
I0417 18:48:07.178289 17511 net.cpp:106] Creating Layer bn4_2_branch2c
I0417 18:48:07.178297 17511 net.cpp:454] bn4_2_branch2c <- enet4_2_branch2c
I0417 18:48:07.178308 17511 net.cpp:397] bn4_2_branch2c -> enet4_2_branch2c (in-place)
I0417 18:48:07.178688 17511 net.cpp:150] Setting up bn4_2_branch2c
I0417 18:48:07.178702 17511 net.cpp:157] Top shape: 6 64 128 154 (7569408)
I0417 18:48:07.178709 17511 net.cpp:165] Memory required for data: 4804681776
I0417 18:48:07.178720 17511 layer_factory.hpp:77] Creating layer enet4_2
I0417 18:48:07.178731 17511 net.cpp:106] Creating Layer enet4_2
I0417 18:48:07.178740 17511 net.cpp:454] enet4_2 <- enet4_1_relu4_1_0_split_1
I0417 18:48:07.178747 17511 net.cpp:454] enet4_2 <- enet4_2_branch2c
I0417 18:48:07.178756 17511 net.cpp:411] enet4_2 -> enet4_2
I0417 18:48:07.178807 17511 net.cpp:150] Setting up enet4_2
I0417 18:48:07.178819 17511 net.cpp:157] Top shape: 6 64 128 154 (7569408)
I0417 18:48:07.178825 17511 net.cpp:165] Memory required for data: 4834959408
I0417 18:48:07.178833 17511 layer_factory.hpp:77] Creating layer relu4_2
I0417 18:48:07.178843 17511 net.cpp:106] Creating Layer relu4_2
I0417 18:48:07.178849 17511 net.cpp:454] relu4_2 <- enet4_2
I0417 18:48:07.178861 17511 net.cpp:397] relu4_2 -> enet4_2 (in-place)
I0417 18:48:07.179997 17511 net.cpp:150] Setting up relu4_2
I0417 18:48:07.180014 17511 net.cpp:157] Top shape: 6 64 128 154 (7569408)
I0417 18:48:07.180022 17511 net.cpp:165] Memory required for data: 4865237040
I0417 18:48:07.180029 17511 layer_factory.hpp:77] Creating layer enet4_2_relu4_2_0_split
I0417 18:48:07.180042 17511 net.cpp:106] Creating Layer enet4_2_relu4_2_0_split
I0417 18:48:07.180053 17511 net.cpp:454] enet4_2_relu4_2_0_split <- enet4_2
I0417 18:48:07.180064 17511 net.cpp:411] enet4_2_relu4_2_0_split -> enet4_2_relu4_2_0_split_0
I0417 18:48:07.180078 17511 net.cpp:411] enet4_2_relu4_2_0_split -> enet4_2_relu4_2_0_split_1
I0417 18:48:07.180155 17511 net.cpp:150] Setting up enet4_2_relu4_2_0_split
I0417 18:48:07.180169 17511 net.cpp:157] Top shape: 6 64 128 154 (7569408)
I0417 18:48:07.180177 17511 net.cpp:157] Top shape: 6 64 128 154 (7569408)
I0417 18:48:07.180183 17511 net.cpp:165] Memory required for data: 4925792304
I0417 18:48:07.180191 17511 layer_factory.hpp:77] Creating layer enet5_0_branch2a
I0417 18:48:07.180207 17511 net.cpp:106] Creating Layer enet5_0_branch2a
I0417 18:48:07.180215 17511 net.cpp:454] enet5_0_branch2a <- enet4_2_relu4_2_0_split_0
I0417 18:48:07.180229 17511 net.cpp:411] enet5_0_branch2a -> enet5_0_branch2a
I0417 18:48:07.183944 17511 net.cpp:150] Setting up enet5_0_branch2a
I0417 18:48:07.183962 17511 net.cpp:157] Top shape: 6 4 128 154 (473088)
I0417 18:48:07.183969 17511 net.cpp:165] Memory required for data: 4927684656
I0417 18:48:07.183979 17511 layer_factory.hpp:77] Creating layer bn5_0_branch2a
I0417 18:48:07.183995 17511 net.cpp:106] Creating Layer bn5_0_branch2a
I0417 18:48:07.184010 17511 net.cpp:454] bn5_0_branch2a <- enet5_0_branch2a
I0417 18:48:07.184034 17511 net.cpp:397] bn5_0_branch2a -> enet5_0_branch2a (in-place)
I0417 18:48:07.184423 17511 net.cpp:150] Setting up bn5_0_branch2a
I0417 18:48:07.184438 17511 net.cpp:157] Top shape: 6 4 128 154 (473088)
I0417 18:48:07.184445 17511 net.cpp:165] Memory required for data: 4929577008
I0417 18:48:07.184455 17511 layer_factory.hpp:77] Creating layer relu5_0_branch2a
I0417 18:48:07.184469 17511 net.cpp:106] Creating Layer relu5_0_branch2a
I0417 18:48:07.184478 17511 net.cpp:454] relu5_0_branch2a <- enet5_0_branch2a
I0417 18:48:07.184486 17511 net.cpp:397] relu5_0_branch2a -> enet5_0_branch2a (in-place)
I0417 18:48:07.185614 17511 net.cpp:150] Setting up relu5_0_branch2a
I0417 18:48:07.185631 17511 net.cpp:157] Top shape: 6 4 128 154 (473088)
I0417 18:48:07.185638 17511 net.cpp:165] Memory required for data: 4931469360
I0417 18:48:07.185647 17511 layer_factory.hpp:77] Creating layer enet5_0_branch2b
I0417 18:48:07.185662 17511 net.cpp:106] Creating Layer enet5_0_branch2b
I0417 18:48:07.185670 17511 net.cpp:454] enet5_0_branch2b <- enet5_0_branch2a
I0417 18:48:07.185683 17511 net.cpp:411] enet5_0_branch2b -> enet5_0_branch2b
I0417 18:48:07.186193 17511 net.cpp:150] Setting up enet5_0_branch2b
I0417 18:48:07.186209 17511 net.cpp:157] Top shape: 6 4 256 308 (1892352)
I0417 18:48:07.186216 17511 net.cpp:165] Memory required for data: 4939038768
I0417 18:48:07.186228 17511 layer_factory.hpp:77] Creating layer bn5_0_branch2b
I0417 18:48:07.186244 17511 net.cpp:106] Creating Layer bn5_0_branch2b
I0417 18:48:07.186252 17511 net.cpp:454] bn5_0_branch2b <- enet5_0_branch2b
I0417 18:48:07.186265 17511 net.cpp:397] bn5_0_branch2b -> enet5_0_branch2b (in-place)
I0417 18:48:07.186779 17511 net.cpp:150] Setting up bn5_0_branch2b
I0417 18:48:07.186794 17511 net.cpp:157] Top shape: 6 4 256 308 (1892352)
I0417 18:48:07.186800 17511 net.cpp:165] Memory required for data: 4946608176
I0417 18:48:07.186811 17511 layer_factory.hpp:77] Creating layer relu5_0_branch2b
I0417 18:48:07.186822 17511 net.cpp:106] Creating Layer relu5_0_branch2b
I0417 18:48:07.186830 17511 net.cpp:454] relu5_0_branch2b <- enet5_0_branch2b
I0417 18:48:07.186838 17511 net.cpp:397] relu5_0_branch2b -> enet5_0_branch2b (in-place)
I0417 18:48:07.188153 17511 net.cpp:150] Setting up relu5_0_branch2b
I0417 18:48:07.188170 17511 net.cpp:157] Top shape: 6 4 256 308 (1892352)
I0417 18:48:07.188179 17511 net.cpp:165] Memory required for data: 4954177584
I0417 18:48:07.188185 17511 layer_factory.hpp:77] Creating layer enet5_0_branch2c
I0417 18:48:07.188205 17511 net.cpp:106] Creating Layer enet5_0_branch2c
I0417 18:48:07.188215 17511 net.cpp:454] enet5_0_branch2c <- enet5_0_branch2b
I0417 18:48:07.188226 17511 net.cpp:411] enet5_0_branch2c -> enet5_0_branch2c
I0417 18:48:07.191963 17511 net.cpp:150] Setting up enet5_0_branch2c
I0417 18:48:07.191982 17511 net.cpp:157] Top shape: 6 16 256 308 (7569408)
I0417 18:48:07.191989 17511 net.cpp:165] Memory required for data: 4984455216
I0417 18:48:07.191998 17511 layer_factory.hpp:77] Creating layer bn5_0_branch2c
I0417 18:48:07.192014 17511 net.cpp:106] Creating Layer bn5_0_branch2c
I0417 18:48:07.192023 17511 net.cpp:454] bn5_0_branch2c <- enet5_0_branch2c
I0417 18:48:07.192036 17511 net.cpp:397] bn5_0_branch2c -> enet5_0_branch2c (in-place)
I0417 18:48:07.192569 17511 net.cpp:150] Setting up bn5_0_branch2c
I0417 18:48:07.192584 17511 net.cpp:157] Top shape: 6 16 256 308 (7569408)
I0417 18:48:07.192589 17511 net.cpp:165] Memory required for data: 5014732848
I0417 18:48:07.192600 17511 layer_factory.hpp:77] Creating layer enet5_0_branch1a
I0417 18:48:07.192615 17511 net.cpp:106] Creating Layer enet5_0_branch1a
I0417 18:48:07.192623 17511 net.cpp:454] enet5_0_branch1a <- enet4_2_relu4_2_0_split_1
I0417 18:48:07.192637 17511 net.cpp:411] enet5_0_branch1a -> enet5_0_branch1a
I0417 18:48:07.196635 17511 net.cpp:150] Setting up enet5_0_branch1a
I0417 18:48:07.196652 17511 net.cpp:157] Top shape: 6 16 128 154 (1892352)
I0417 18:48:07.196660 17511 net.cpp:165] Memory required for data: 5022302256
I0417 18:48:07.196684 17511 layer_factory.hpp:77] Creating layer bn5_0_branch1a
I0417 18:48:07.196699 17511 net.cpp:106] Creating Layer bn5_0_branch1a
I0417 18:48:07.196707 17511 net.cpp:454] bn5_0_branch1a <- enet5_0_branch1a
I0417 18:48:07.196722 17511 net.cpp:397] bn5_0_branch1a -> enet5_0_branch1a (in-place)
I0417 18:48:07.197127 17511 net.cpp:150] Setting up bn5_0_branch1a
I0417 18:48:07.197144 17511 net.cpp:157] Top shape: 6 16 128 154 (1892352)
I0417 18:48:07.197149 17511 net.cpp:165] Memory required for data: 5029871664
I0417 18:48:07.197160 17511 layer_factory.hpp:77] Creating layer unpool5_0_branch1a
I0417 18:48:07.197178 17511 net.cpp:106] Creating Layer unpool5_0_branch1a
I0417 18:48:07.197186 17511 net.cpp:454] unpool5_0_branch1a <- enet5_0_branch1a
I0417 18:48:07.197194 17511 net.cpp:454] unpool5_0_branch1a <- pool1_0_branch1a_mask
I0417 18:48:07.197204 17511 net.cpp:411] unpool5_0_branch1a -> unpool5_0_branch1a
I0417 18:48:07.197253 17511 net.cpp:150] Setting up unpool5_0_branch1a
I0417 18:48:07.197266 17511 net.cpp:157] Top shape: 6 16 256 308 (7569408)
I0417 18:48:07.197273 17511 net.cpp:165] Memory required for data: 5060149296
I0417 18:48:07.197279 17511 layer_factory.hpp:77] Creating layer enet5_0
I0417 18:48:07.197289 17511 net.cpp:106] Creating Layer enet5_0
I0417 18:48:07.197296 17511 net.cpp:454] enet5_0 <- unpool5_0_branch1a
I0417 18:48:07.197304 17511 net.cpp:454] enet5_0 <- enet5_0_branch2c
I0417 18:48:07.197319 17511 net.cpp:411] enet5_0 -> enet5_0
I0417 18:48:07.197365 17511 net.cpp:150] Setting up enet5_0
I0417 18:48:07.197381 17511 net.cpp:157] Top shape: 6 16 256 308 (7569408)
I0417 18:48:07.197388 17511 net.cpp:165] Memory required for data: 5090426928
I0417 18:48:07.197394 17511 layer_factory.hpp:77] Creating layer relu5_0
I0417 18:48:07.197404 17511 net.cpp:106] Creating Layer relu5_0
I0417 18:48:07.197412 17511 net.cpp:454] relu5_0 <- enet5_0
I0417 18:48:07.197420 17511 net.cpp:397] relu5_0 -> enet5_0 (in-place)
I0417 18:48:07.198562 17511 net.cpp:150] Setting up relu5_0
I0417 18:48:07.198580 17511 net.cpp:157] Top shape: 6 16 256 308 (7569408)
I0417 18:48:07.198587 17511 net.cpp:165] Memory required for data: 5120704560
I0417 18:48:07.198595 17511 layer_factory.hpp:77] Creating layer enet5_0_relu5_0_0_split
I0417 18:48:07.198604 17511 net.cpp:106] Creating Layer enet5_0_relu5_0_0_split
I0417 18:48:07.198612 17511 net.cpp:454] enet5_0_relu5_0_0_split <- enet5_0
I0417 18:48:07.198626 17511 net.cpp:411] enet5_0_relu5_0_0_split -> enet5_0_relu5_0_0_split_0
I0417 18:48:07.198639 17511 net.cpp:411] enet5_0_relu5_0_0_split -> enet5_0_relu5_0_0_split_1
I0417 18:48:07.198719 17511 net.cpp:150] Setting up enet5_0_relu5_0_0_split
I0417 18:48:07.198731 17511 net.cpp:157] Top shape: 6 16 256 308 (7569408)
I0417 18:48:07.198740 17511 net.cpp:157] Top shape: 6 16 256 308 (7569408)
I0417 18:48:07.198746 17511 net.cpp:165] Memory required for data: 5181259824
I0417 18:48:07.198752 17511 layer_factory.hpp:77] Creating layer enet5_1_branch2a
I0417 18:48:07.198774 17511 net.cpp:106] Creating Layer enet5_1_branch2a
I0417 18:48:07.198783 17511 net.cpp:454] enet5_1_branch2a <- enet5_0_relu5_0_0_split_0
I0417 18:48:07.198794 17511 net.cpp:411] enet5_1_branch2a -> enet5_1_branch2a
I0417 18:48:07.202728 17511 net.cpp:150] Setting up enet5_1_branch2a
I0417 18:48:07.202746 17511 net.cpp:157] Top shape: 6 4 256 308 (1892352)
I0417 18:48:07.202754 17511 net.cpp:165] Memory required for data: 5188829232
I0417 18:48:07.202764 17511 layer_factory.hpp:77] Creating layer bn5_1_branch2a
I0417 18:48:07.202780 17511 net.cpp:106] Creating Layer bn5_1_branch2a
I0417 18:48:07.202787 17511 net.cpp:454] bn5_1_branch2a <- enet5_1_branch2a
I0417 18:48:07.202803 17511 net.cpp:397] bn5_1_branch2a -> enet5_1_branch2a (in-place)
I0417 18:48:07.203356 17511 net.cpp:150] Setting up bn5_1_branch2a
I0417 18:48:07.203372 17511 net.cpp:157] Top shape: 6 4 256 308 (1892352)
I0417 18:48:07.203378 17511 net.cpp:165] Memory required for data: 5196398640
I0417 18:48:07.203389 17511 layer_factory.hpp:77] Creating layer relu5_1_branch2a
I0417 18:48:07.203413 17511 net.cpp:106] Creating Layer relu5_1_branch2a
I0417 18:48:07.203421 17511 net.cpp:454] relu5_1_branch2a <- enet5_1_branch2a
I0417 18:48:07.203431 17511 net.cpp:397] relu5_1_branch2a -> enet5_1_branch2a (in-place)
I0417 18:48:07.205271 17511 net.cpp:150] Setting up relu5_1_branch2a
I0417 18:48:07.205288 17511 net.cpp:157] Top shape: 6 4 256 308 (1892352)
I0417 18:48:07.205296 17511 net.cpp:165] Memory required for data: 5203968048
I0417 18:48:07.205302 17511 layer_factory.hpp:77] Creating layer enet5_1_branch2b
I0417 18:48:07.205320 17511 net.cpp:106] Creating Layer enet5_1_branch2b
I0417 18:48:07.205329 17511 net.cpp:454] enet5_1_branch2b <- enet5_1_branch2a
I0417 18:48:07.205343 17511 net.cpp:411] enet5_1_branch2b -> enet5_1_branch2b
I0417 18:48:07.209511 17511 net.cpp:150] Setting up enet5_1_branch2b
I0417 18:48:07.209529 17511 net.cpp:157] Top shape: 6 4 256 308 (1892352)
I0417 18:48:07.209537 17511 net.cpp:165] Memory required for data: 5211537456
I0417 18:48:07.209549 17511 layer_factory.hpp:77] Creating layer bn5_1_branch2b
I0417 18:48:07.209563 17511 net.cpp:106] Creating Layer bn5_1_branch2b
I0417 18:48:07.209571 17511 net.cpp:454] bn5_1_branch2b <- enet5_1_branch2b
I0417 18:48:07.209583 17511 net.cpp:397] bn5_1_branch2b -> enet5_1_branch2b (in-place)
I0417 18:48:07.210119 17511 net.cpp:150] Setting up bn5_1_branch2b
I0417 18:48:07.210134 17511 net.cpp:157] Top shape: 6 4 256 308 (1892352)
I0417 18:48:07.210141 17511 net.cpp:165] Memory required for data: 5219106864
I0417 18:48:07.210151 17511 layer_factory.hpp:77] Creating layer relu5_1_branch2b
I0417 18:48:07.210162 17511 net.cpp:106] Creating Layer relu5_1_branch2b
I0417 18:48:07.210170 17511 net.cpp:454] relu5_1_branch2b <- enet5_1_branch2b
I0417 18:48:07.210180 17511 net.cpp:397] relu5_1_branch2b -> enet5_1_branch2b (in-place)
I0417 18:48:07.211309 17511 net.cpp:150] Setting up relu5_1_branch2b
I0417 18:48:07.211328 17511 net.cpp:157] Top shape: 6 4 256 308 (1892352)
I0417 18:48:07.211334 17511 net.cpp:165] Memory required for data: 5226676272
I0417 18:48:07.211341 17511 layer_factory.hpp:77] Creating layer enet5_1_branch2c
I0417 18:48:07.211361 17511 net.cpp:106] Creating Layer enet5_1_branch2c
I0417 18:48:07.211370 17511 net.cpp:454] enet5_1_branch2c <- enet5_1_branch2b
I0417 18:48:07.211382 17511 net.cpp:411] enet5_1_branch2c -> enet5_1_branch2c
I0417 18:48:07.215332 17511 net.cpp:150] Setting up enet5_1_branch2c
I0417 18:48:07.215350 17511 net.cpp:157] Top shape: 6 16 256 308 (7569408)
I0417 18:48:07.215358 17511 net.cpp:165] Memory required for data: 5256953904
I0417 18:48:07.215368 17511 layer_factory.hpp:77] Creating layer bn5_1_branch2c
I0417 18:48:07.215384 17511 net.cpp:106] Creating Layer bn5_1_branch2c
I0417 18:48:07.215392 17511 net.cpp:454] bn5_1_branch2c <- enet5_1_branch2c
I0417 18:48:07.215402 17511 net.cpp:397] bn5_1_branch2c -> enet5_1_branch2c (in-place)
I0417 18:48:07.215975 17511 net.cpp:150] Setting up bn5_1_branch2c
I0417 18:48:07.215991 17511 net.cpp:157] Top shape: 6 16 256 308 (7569408)
I0417 18:48:07.215997 17511 net.cpp:165] Memory required for data: 5287231536
I0417 18:48:07.216008 17511 layer_factory.hpp:77] Creating layer enet5_1
I0417 18:48:07.216018 17511 net.cpp:106] Creating Layer enet5_1
I0417 18:48:07.216027 17511 net.cpp:454] enet5_1 <- enet5_0_relu5_0_0_split_1
I0417 18:48:07.216035 17511 net.cpp:454] enet5_1 <- enet5_1_branch2c
I0417 18:48:07.216044 17511 net.cpp:411] enet5_1 -> enet5_1
I0417 18:48:07.216102 17511 net.cpp:150] Setting up enet5_1
I0417 18:48:07.216116 17511 net.cpp:157] Top shape: 6 16 256 308 (7569408)
I0417 18:48:07.216122 17511 net.cpp:165] Memory required for data: 5317509168
I0417 18:48:07.216130 17511 layer_factory.hpp:77] Creating layer relu5_1
I0417 18:48:07.216142 17511 net.cpp:106] Creating Layer relu5_1
I0417 18:48:07.216150 17511 net.cpp:454] relu5_1 <- enet5_1
I0417 18:48:07.216158 17511 net.cpp:397] relu5_1 -> enet5_1 (in-place)
I0417 18:48:07.217494 17511 net.cpp:150] Setting up relu5_1
I0417 18:48:07.217512 17511 net.cpp:157] Top shape: 6 16 256 308 (7569408)
I0417 18:48:07.217533 17511 net.cpp:165] Memory required for data: 5347786800
I0417 18:48:07.217542 17511 layer_factory.hpp:77] Creating layer enet6_0
I0417 18:48:07.217558 17511 net.cpp:106] Creating Layer enet6_0
I0417 18:48:07.217566 17511 net.cpp:454] enet6_0 <- enet5_1
I0417 18:48:07.217581 17511 net.cpp:411] enet6_0 -> enet6_0
I0417 18:48:07.219406 17511 net.cpp:150] Setting up enet6_0
I0417 18:48:07.219424 17511 net.cpp:157] Top shape: 6 2 512 616 (3784704)
I0417 18:48:07.219432 17511 net.cpp:165] Memory required for data: 5362925616
I0417 18:48:07.219444 17511 layer_factory.hpp:77] Creating layer enet6_0_enet6_0_0_split
I0417 18:48:07.219455 17511 net.cpp:106] Creating Layer enet6_0_enet6_0_0_split
I0417 18:48:07.219461 17511 net.cpp:454] enet6_0_enet6_0_0_split <- enet6_0
I0417 18:48:07.219472 17511 net.cpp:411] enet6_0_enet6_0_0_split -> enet6_0_enet6_0_0_split_0
I0417 18:48:07.219485 17511 net.cpp:411] enet6_0_enet6_0_0_split -> enet6_0_enet6_0_0_split_1
I0417 18:48:07.219569 17511 net.cpp:150] Setting up enet6_0_enet6_0_0_split
I0417 18:48:07.219583 17511 net.cpp:157] Top shape: 6 2 512 616 (3784704)
I0417 18:48:07.219591 17511 net.cpp:157] Top shape: 6 2 512 616 (3784704)
I0417 18:48:07.219597 17511 net.cpp:165] Memory required for data: 5393203248
I0417 18:48:07.219604 17511 layer_factory.hpp:77] Creating layer loss
I0417 18:48:07.219630 17511 net.cpp:106] Creating Layer loss
I0417 18:48:07.219638 17511 net.cpp:454] loss <- enet6_0_enet6_0_0_split_0
I0417 18:48:07.219647 17511 net.cpp:454] loss <- label_data_1_split_0
I0417 18:48:07.219657 17511 net.cpp:411] loss -> loss
I0417 18:48:07.219691 17511 layer_factory.hpp:77] Creating layer loss
I0417 18:48:07.235074 17511 net.cpp:150] Setting up loss
I0417 18:48:07.235119 17511 net.cpp:157] Top shape: (1)
I0417 18:48:07.235127 17511 net.cpp:160]     with loss weight 1
I0417 18:48:07.235188 17511 net.cpp:165] Memory required for data: 5393203252
I0417 18:48:07.235199 17511 layer_factory.hpp:77] Creating layer accuracy
I0417 18:48:07.235219 17511 net.cpp:106] Creating Layer accuracy
I0417 18:48:07.235231 17511 net.cpp:454] accuracy <- enet6_0_enet6_0_0_split_1
I0417 18:48:07.235246 17511 net.cpp:454] accuracy <- label_data_1_split_1
I0417 18:48:07.235257 17511 net.cpp:411] accuracy -> accuracy
I0417 18:48:07.235273 17511 net.cpp:411] accuracy -> per_class_accuracy
I0417 18:48:07.235358 17511 net.cpp:150] Setting up accuracy
I0417 18:48:07.235373 17511 net.cpp:157] Top shape: (1)
I0417 18:48:07.235380 17511 net.cpp:157] Top shape: 2 (2)
I0417 18:48:07.235386 17511 net.cpp:165] Memory required for data: 5393203264
I0417 18:48:07.235394 17511 net.cpp:228] accuracy does not need backward computation.
I0417 18:48:07.235402 17511 net.cpp:226] loss needs backward computation.
I0417 18:48:07.235410 17511 net.cpp:226] enet6_0_enet6_0_0_split needs backward computation.
I0417 18:48:07.235417 17511 net.cpp:226] enet6_0 needs backward computation.
…
